data/Figure3_Supplement/018/checkpoint_0003000.pth (torch, 230016 bytes, 31 tensors)

net.0.weight f4 [32, 120, 2]
00000000: d89a 4a3d 27c1 57bc bbed 4d3d 2679 413d
00000010: 79dd 7c3d 9a96 8cbd ac9c dabc 9b03 c73c
00000020: 6598 9b3c 2dbc bdbc 7282 4a3c 454f a1bc
00000030: 4e95 7abc 3710 5d3d fb37 c23c 74ff 90bd
00000040: 3f3d 1cbc 4150 3d3c 815c f63b 0f2c 7f3b
00000050: 9d3a 783d 690b ea3c 3af3 2ebc 6b7f cbbb
00000060: 3bf5 8bba 3a0b 08bc 4122 a13c a2c0 84bd
00000070: e049 49bc c99a b6bb ce80 86bd 2923 edbd
00000080: 8636 e83c 0633 57bd faf7 6dbd eecb d73d
00000090: c37e 8ebd 99f1 cf3c ebc5 b9bd df01 a8bc
000000a0: e82a 593d 8863 fcbc 7272 9ebd 0fd4 f13b
000000b0: dcaf 6d3c 7d09 173d b44a bfbc 0092 40bc
000000c0: ff53 81bd 3a9b 67bc e714 39bc 58c7 a5bd
000000d0: 43a3 02bd e4fc c3ba 813a d83d be54 90bd
000000e0: e669 11be 5248 b53c 0b46 5dbc 9bda c7bb
000000f0: d0e7 0cbd d6e0 da3b 8bd4 613c b4cb 053d
00000100: 8210 f83c 1e17 d6bc d717 fdbc effb d03d
00000110: ebaa 1c3d 8d1b 73bd 1c1a 5fbe ae5d f5bb
00000120: f846 a8bd 2a93 d0bb cc6c d63d aa3d 423d
00000130: 19bd b7bd ea16 e5bc 547f 6fbc 1351 50bd
00000140: 9e40 44bc efb1 c6bd dbf0 11bd 5264 f03b
00000150: 5a48 623c f81e e23c 2b18 173d 68e9 1dbd
00000160: 5e08 91bd e2bf eb3c 2d05 613d d255 31bc
00000170: bebc 813c 11ee e7bd 2934 e2bc 3bb7 72bb
00000180: 9710 f4bc ffe0 30bd 2f0c 013d 7bd5 183d
00000190: a841 d23c 75f0 98bb 6cd0 cb3b 76f0 29be
000001a0: 93ea dcbd 0097 c5bd 1b15 7a3d 1f77 d9bd
000001b0: cbe6 ac3d bd5f 3f3c 7c04 553d ee44 efbc
000001c0: ab09 febc ac44 173d 791a 893d e3b1 9cbd
000001d0: 63cb 473a 4270 7e3c 043c ffbd f6f6 57bd
000001e0: 42d3 473c b787 093d b118 213d d36d 133d
000001f0: 5e81 dabc 3117 f9bc a389 96bc 26b1 d7bd
00000200: 2444 c6bb a437 3a3d 98ec bcbc 3fe6 a23d
00000210: 601a 493c 0e4f 3c3d 6df1 8cbd 4767 b13b
00000220: 5bef 303c a21f c03b 249b 653d 034d bd3d
00000230: 9c6c ec3c 0c8b 7dbd 5554 2d3d 7545 683c
00000240: c161 50bc da56 f8bc 9c64 df3d 76db 203d
00000250: 9a7f 48bb 71a7 803c 2195 17bd fde8 413c
00000260: 02a3 dfbd ace5 c73c 7e44 323d 6fc1 70bd
00000270: 04da 82bd a53a ae3d 6a76 87bc 83c9 f53c
00000280: 4c5d ca3d 4e04 2f3d 23f7 0abd 1aba f6bd
00000290: 5c1d afbd 1c61 13bc c531 a83d b1bc 19bd
000002a0: a009 bebd 11e1 fcbd 022b 363c d257 87bc
000002b0: c88d 8b3d a111 713d 34be 203d dd09 96bb
000002c0: e22f d73d 2177 b9bc f193 2b3d 0275 6d3d
000002d0: ce64 90bc 4ce2 873c 8a58 b7bb def1 d03c
000002e0: 0794 efbc 0594 2bbc c562 de3d 2aea 62bd
000002f0: 3ae9 df3d 9334 923c 0566 b13c 18a1 0e3d
00000300: 6e45 d53c 6274 b9bc 211a 4a3d 8e09 f1ba
00000310: a2a5 d43d 4b8b 523d 28f9 9cba b3f7 c9bd
00000320: 2eaf 02bd 9edd 88bd 22a1 90bc 6534 e83c
00000330: 120f a3bc adc5 5ebc 853d 003d d27d 1b3d
00000340: 4b09 19bd 50a7 8d3a 2107 8abd c0ee a2bc
00000350: cbd3 593d 2cb5 453d e812 523d 4747 5e3c
00000360: 42c0 d4bd 275f 80bd 338e 413d a247 b83c
00000370: 0b94 07be fbbe 5f3c d182 eb3a 4971 7abd
00000380: 86c3 693d 2fe0 cdbc 683b 7f3d 57dd ac3d
00000390: 1648 753d 017e 853c b894 973c 17ae 3f3d
000003a0: 2ae0 433d fc83 c63d 91b6 a0bd 8964 593d
000003b0: 34b0 0bbd e02f bf3b a324 403d be70 023c
000003c0: 6eb5 52bc 74e9 793d 9d8a ba3c 1d1f 6e3c
000003d0: c7c0 2bbd b8e5 dbbc 283a 053c a51c 5e3b
000003e0: 6115 c4b9 2f69 093c 8753 9cbd 1199 a3bc
000003f0: 63d2 013d d0bf 573d 7f79 8338 f0b5 773d
0.049464077 -0.01316861 0.050275546 0.047234677 0.06173465 -0.068646625 -0.026686035 0.024293711
0.018993566 -0.023161018 0.012360202 -0.019691119 -0.015294386 0.05397054 0.023708334 -0.07079974
-0.009536087 0.011554779 0.0075183515 0.0038936173 0.060602773 0.028569894 -0.010678107 -0.0062102578
-0.0010677943 -0.008303458 0.019669654 -0.06482054 -0.01228568 -0.005572651 -0.06567536 -0.11578972
0.028346311 -0.052538894 -0.058097817 0.105369434 -0.06957772 0.025383757 -0.09070953 -0.020508705
0.053019434 -0.030809179 -0.077366725 0.0073800157 0.01450726 0.036874283 -0.02335105 -0.011753559
-0.06314849 -0.01413613 -0.011296487 -0.080946624 -0.03189398 -0.0014952687 0.10558034 -0.07047413
-0.14200553 0.022129212 -0.013505469 -0.006099058 -0.03440076 0.0066796346 0.013783584 0.03266497
0.030281309 -0.02613407 -0.030895157 0.102043025 0.038248938 -0.059352446 -0.21787304 -0.007487974
-0.08216661 -0.0063651996 0.1046997 0.04742209 -0.089716144 -0.027965028 -0.01461776 -0.05085857
-0.011978297 -0.09701907 -0.03563009 0.007336178 0.013811195 0.027602658 0.036888283 -0.03855267
-0.07081674 0.02877802 0.054936577 -0.010823684 0.01583707 -0.113247044 -0.027612763 -0.0037035483
-0.029793067 -0.043183323 0.03150576 0.037312966 0.025666073 -0.0046673366 0.006219914 -0.16595635
-0.10786929 -0.096479416 0.061055284 -0.10618424 0.08442458 0.011680541 0.05200623 -0.029207673
-0.03101047 0.036930725 0.066945024 -0.07651117 0.00076215545 0.015529694 -0.12462619 -0.052725755
0.012196364 0.033576693 0.03933019 0.03599341 -0.026673015 -0.030406566 -0.018376177 -0.10531835
-0.0060506035 0.04546322 -0.023062035 0.07954072 0.012274355 0.04597383 -0.06881986 0.005413923
0.010799254 0.005863146 0.056056157 0.092432044 0.028860383 -0.061900184 0.042316753 0.014176716
-0.012718619 -0.030314852 0.109078616 0.039271794 -0.0030593635 0.015704842 -0.037007455 0.011835334
-0.10919763 0.024401508 0.04352235 -0.058778223 -0.063892394 0.08507279 -0.016535956 0.030003315
0.09881076 0.042728715 -0.033927094 -0.12047215 -0.08550522 -0.008995321 0.08212618 -0.037533466
-0.092791796 -0.123476155 0.011118652 -0.016521368 0.06814152 0.058854703 0.03924389 -0.0045788125
0.1050718 -0.022639813 0.041889135 0.057972915 -0.017626192 0.016587399 -0.0055952715 0.025505956
-0.02924539 -0.010472302 0.108586825 -0.055399098 0.10933156 0.017847335 0.021655092 0.0348216
0.026034083 -0.022638503 0.049341325 -0.0018389688 0.103831545 0.05140237 -0.001197611 -0.09861698
-0.031905346 -0.06682895 -0.01765496 0.028345296 -0.019904647 -0.013596934 0.03130867 0.03796179
-0.037362378 0.0010807309 -0.06739641 -0.019889235 0.053180497 0.048268482 0.05128756 0.0135667985
-0.10388233 -0.06268149 0.047254752 0.022495095 -0.13240068 0.013656373 0.0017968063 -0.061143193
0.05707123 -0.025131313 0.062312514 0.08440655 0.0598832 0.016295435 0.018503532 0.046796884
0.0478212 0.09693143 -0.07847322 0.053074393 -0.034103587 0.0058345646 0.04690994 0.00796145
-0.012860639 0.061013654 0.022771174 0.014533785 -0.041931894 -0.026842937 0.008131541 0.0033891585
-0.00037399962 0.008386894 -0.07633119 -0.019970449 0.03169478 0.05267316 6.269197e-05 0.060476243

net.0.bias f4 [32]
00000000: e783 71bd 3942 b73c 7cd0 dbbc e876 fa3c
00000010: 90bc 1a3d a7bd df3c 2646 55bc 7df2 29bd
00000020: 9305 103c 44f6 21bd e386 173d cf34 f63c
00000030: 2518 8e3b 8a80 063d 35f9 a93c c8ae 86bd
00000040: b97e 883d 767b dcbc 38e7 07bd a948 d2bc
00000050: 35e8 d73c 6ff0 e93c 66e1 31bd 736c 293b
00000060: feba 95bd ec94 163d ffa6 7b3c a945 69bc
00000070: 8c6c 22bd 3e39 67bd 6415 20bd 3ade b83c
-0.058963683 0.022370445 -0.026832812 0.030574277 0.037777483 0.027312113 -0.013017213 -0.04149102
0.0087903915 -0.039541498 0.036993872 0.030054478 0.0043363743 0.03283743 0.020748714 -0.06576306
0.066647954 -0.02691434 -0.03317949 -0.025669413 0.026355842 0.02855703 -0.043427847 0.0025851994
-0.073110566 0.036763117 0.015359639 -0.0142378 -0.0396543 -0.056451075 -0.0390829 0.022566903

net.2.module.0.weight f4 [32, 32, 3]
00000000: 2b36 ec3d 835d b0bd 4f0c e93d 3236 6abd
00000010: 7de9 acbd caf2 9b3d 5bae 0c3d 18a0 a63c
00000020: 4a5a 933d bab5 b1bd fcc9 61bd 8a0d 0d3d
00000030: 7853 403e 4b0b 623d a119 7dbd 745d e33c
00000040: 1b0a c13d 64d7 d5bd 6b1a dbbd 83e7 a3bc
00000050: f97b 3d3b 065a c8bc f0f5 bfbd ea0e 763d
00000060: 9946 1e3e 4492 43bd 34ac 9b3d 8fd1 2bbd
00000070: 8c32 babd e724 bcbc b7d7 5c3d 3c3a e73d
00000080: 8922 e53c 470d dabd 1ff7 a63b 9cd5 473d
00000090: bfd7 113e 55c9 ab3d ddf0 643d 51f3 7abd
000000a0: a7d6 93bd 669a d5bd fcfb 993d b51d a8bd
000000b0: 6d95 a43c 478a b43c a328 7d3d 01db 29bd
000000c0: 770a b3bd 05ab 8d3d c45d dcbd 56ba b2bd
000000d0: ab12 c8bc f99e 00be 8a42 03be 8642 86bd
000000e0: c98b c4bc 36a2 0f3e b67c 973d 10c6 5cbd
000000f0: e360 ab3c 1235 ab3d 66c5 00bd 21c9 b83d
00000100: 2821 6a3d ccbe 88bd 7992 3f3d 3bcd 72bd
00000110: 2d90 dabd 786f 603d 280b e6bd 03fe 9ebd
00000120: bd7a 9b3c 8fab e63c 9c1f cdbd 26e7 9c3d
00000130: b449 1f3c fe0f d03d e8da c63a 0c4a 443d
00000140: bf3a 9d3d 085c 7abd 7f06 313b f9d4 bdbc
00000150: 1a2f b7bb b069 223d c08e 21bd c3b8 8fbc
00000160: 75ee b6bc 7922 6cbc e25c 903c 84d1 b43d
00000170: 4ac0 03bd 6904 b5bd 58a7 913d 5f19 4b3d
00000180: 6d4e 8a3a 46fd 5abd a187 0e3d 283e e6bc
00000190: fb2e 1dbe 041c 1fbc b1a9 8b3d 31ac a03d
000001a0: 272c 453e 6798 26ba bdb6 5f3d ee45 ec3c
000001b0: b292 953d 2fc1 b33d 4c68 a1bd 781a 86bd
000001c0: e05a 013d c314 b83b 7d5b 2fbd 888c 76bc
000001d0: 45ba 053c 8945 263d 1f1a b8bd eb88 1ebe
000001e0: 19d9 d4bd 6d3a 9d3c 15e1 cebd 74d5 b3bc
000001f0: 58c1 d53d 07d6 9e3d 57f8 143d a671 92bd
00000200: 2673 b1bd 7022 ea3d 49b2 c9bd 03a4 c33b
00000210: fe13 093d 3e6a 88bd 12b7 593d 0364 8bbd
00000220: 3a7c 7b3d 0ea9 65b9 0685 dd39 d499 be3c
00000230: da48 94bb dcc5 123c b16d b5bd 2594 2e3c
00000240: 5bd4 e63b adcf ef3d fad2 16bd 1d03 693d
00000250: 0b67 5cbd 8c64 ff3d 079d 223d ee40 053e
00000260: 4ccb 523d 3b06 793d 2008 033d 404e 0c3c
00000270: f8ea 263a 937b 3fbd ebf0 4b3d 252a b3bc
00000280: ca38 2b3d d9e0 f8bb ca56 fd3d 958c fe3c
00000290: 425d 783d 2b69 153c f341 3bbd 4d48 f63d
000002a0: ac84 61bd 7305 523c 10bc 1ebd 1a13 5c3d
000002b0: 6357 a3bc aeda 4ebd b0b0 153d 3a33 583c
000002c0: 4564 7cbd a43d acbc ed5c 86bd 1f02 d7bd
000002d0: bcd0 3fbd 0879 b53b eb1a ff3c 958f c43d
000002e0: f977 0cbc f0f7 9c3c e10d 92bd 7c36 0bbc
000002f0: 4b8b 973c b24c 63bd a60b c83d 325d 923d
00000300: 3126 c23c 1de4 d93d 43d2 f53d 1f88 153e
00000310: cd01 613d d2ae 823d 3268 5e3e 754a c3bd
00000320: 04db 273e 7324 3a3e daeb 2bbd 8395 3e3d
00000330: 03bc 66bd 6a93 74bd 95f1 c0bd 37ba c9bd
00000340: 045d 4a3d 81d0 0e3c 64da c73c c186 9e3d
00000350: f76b 8cbd 3b69 7ebc 2360 d5bd a190 d63c
00000360: 4bb2 903d 4713 83bc 404f 7abb 54a5 193c
00000370: 100c 1f3d f74d a6bd 8cc2 0c3e 6d66 97bd
00000380: dc5d b63d 8728 0cbd 0118 123d 534b 143d
00000390: bdfe debc f1ca 263d 94ad b63c f672 febc
000003a0: d4ce d4bd 012d 29be 3e9e 953d 3a13 1b3c
000003b0: 7cc6 ff3d c046 e6bd a6f8 94bd 05ae 8dbd
000003c0: 7fe7 873d 2499 8f3d a671 943d db95 02bc
000003d0: 7dfe c53c 37e6 463d 5318 e63d cbcb 8d3d
000003e0: 1248 b43d 6fb8 b4bd df64 ac3c 000d e6bd
000003f0: 6085 f63d a30d f83d f8d6 2d3e fca8 e03d
0.11533769 -0.08611586 0.11379301 -0.05718059 -0.08442972 0.07614668 0.034345966 0.02034001
0.07194956 -0.0867724 -0.055124268 0.03443674 0.18781841 0.05518655 -0.06179202 0.027754523
0.094257556 -0.10441473 -0.10698398 -0.020007854 0.0028913005 -0.024456989 -0.09373081 0.060072817
0.15456618 -0.04774691 0.076012045 -0.041947898 -0.09091672 -0.022966815 0.05391666 0.11290404
0.02797057 -0.10647064 0.005095377 0.0487877 0.14242457 0.083880104 0.055893768 -0.0612672
-0.07218676 -0.1042984 0.07518765 -0.08208791 0.020090783 0.022038592 0.061806332 -0.041468624
-0.087422304 0.06917385 -0.10760072 -0.08726947 -0.024422964 -0.12560643 -0.12818351 -0.06555657
-0.023992436 0.14026722 0.073968336 -0.053899825 0.020920223 0.08359732 -0.031438254 0.09022737
0.057160527 -0.066770166 0.046770547 -0.059277754 -0.106720306 0.054793805 -0.11232597 -0.07763293
0.018979425 0.028157977 -0.10015795 0.076612756 0.009722162 0.101593 0.001517144 0.04792218
0.076772206 -0.061122924 0.0027011929 -0.023172842 -0.0055903317 0.039651573 -0.039442778 -0.017544156
-0.022330502 -0.014412516 0.017622415 0.088290244 -0.032165803 -0.08838732 0.071119964 0.049584743
0.0010551937 -0.053464197 0.034797315 -0.02810581 -0.15349953 -0.009711269 0.068194754 0.07845343
0.19255124 -0.0006355107 0.054617632 0.028841939 0.073033705 0.08777081 -0.07881221 -0.06548017
0.031580806 0.0056177094 -0.04281186 -0.015048154 0.008162086 0.040593658 -0.08989357 -0.15481918
-0.103929706 0.019192899 -0.10101525 -0.021952368 0.10437268 0.07755666 0.036369648 -0.07150583
-0.08664541 0.1143235 -0.09848458 0.0059704795 0.03346633 -0.06660889 0.053153105 -0.06806185
0.06139777 -0.0002190212 0.00042251515 0.02326671 -0.004525286 0.008958306 -0.088588126 0.010655438
0.0070443577 0.11709533 -0.036822297 0.056887735 -0.053809207 0.1247035 0.039700534 0.1301305
0.05146341 0.060796957 0.03199017 0.008563578 0.00063674105 -0.04674871 0.049790304 -0.021870682
0.041802205 -0.0075951633 0.12370069 0.031072894 0.060635813 0.009119312 -0.04571719 0.12025509
-0.055058166 0.012818682 -0.03875357 0.053729154 -0.01993913 -0.050501518 0.036545455 0.013195807
-0.061619062 -0.021025486 -0.06560693 -0.104984514 -0.046829924 0.0055381097 0.031140765 0.095976986
-0.008573526 0.019161195 -0.071315534 -0.008496877 0.018499037 -0.055493064 0.09767847 0.07146682
0.023699852 0.10639212 0.12002995 0.14602707 0.054933358 0.063810006 0.21719435 -0.09535686
0.16392142 0.18177967 -0.041972972 0.046529304 -0.056331646 -0.059710898 -0.09421078 -0.09849971
0.049405113 0.008716703 0.024396129 0.07740546 -0.0685653 -0.015528019 -0.10418727 0.026192011
0.07065257 -0.016000403 -0.003819421 0.009377796 0.038829863 -0.08120339 0.13746089 -0.07392583
0.08904621 -0.034218337 0.035667423 0.036204647 -0.027221078 0.040720884 0.022299565 -0.031060677
-0.10391012 -0.16521074 0.07305573 0.009465033 0.1248903 -0.11243963 -0.072739884 -0.06917957
0.06635951 0.07011631 0.07248239 -0.007970299 0.024169201 0.048559394 0.11235108 0.06923636
0.08802809 -0.088242404 0.021044193 -0.11232948 0.12037158 0.12111976 0.16976535 0.10969731

net.2.module.0.bias f4 [32]
00000000: 7d35 b0bd b668 af3d bf59 963d 14a7 a03c
00000010: e2be 503d 6747 e73c dfa2 343d 9d1f f73a
00000020: dce3 c73d 7a68 473d aaff b0bc eb6b 8bbd
00000030: b431 07bd fe82 7ebd 3f73 593d ca94 a33c
00000040: e307 29bd 71c1 a4bd ebae f83c 8a13 513d
00000050: 60b4 7bbd 8265 923d 9fe6 b53d 5174 4c3c
00000060: b0ac b8bd 945f 323d cf3e 283d bf65 ab3b
00000070: 5538 ab3d 1ce2 383c ac2b 86ba 2bef 4ebd
-0.08603952 0.08564894 0.073413365 0.019610919 0.05096329 0.02823229 0.04410064 0.0018854026
0.097602576 0.04868362 -0.021606285 -0.06807693 -0.033006385 -0.062136643 0.053088423 0.01996841
-0.041267287 -0.080447085 0.030356845 0.051044025 -0.061451316 0.07148267 0.08881878 0.012478904
-0.090173125 0.04354818 0.041075524 0.005230635 0.08360354 0.011284377 -0.0010236404 -0.050521057

net.3.module.0.weight f4 [32, 32, 3]
00000000: afbe 32bd fa69 8abd 4b23 fb3d ffde 723d
00000010: 8278 ae3d e7f4 04bd 661d fc3d 829e cd3d
00000020: ad3d 1c3c 37c0 8c3d b751 84bd a037 133d
00000030: b667 ccbd 80ec 3bbd 1999 a53d 6d80 a83d
00000040: 10d7 c23b d8a1 d0bd 665d cdbd 5b8b cd3d
00000050: beaf 793d 474c 0e3d ed86 653d a7e3 d7bd
00000060: 5056 9c3d cbec 65bd 3c1f 2ebc 7758 66bd
00000070: a804 c2bd fbc3 723c 29ae 163e 4d3a c2bc
00000080: 78e0 f43d d8df 4abd acfa b4bd 3423 88bc
00000090: b333 b1bc 51f5 52bd a664 1bbd f38d d8bc
000000a0: 45f7 c3bd 7a51 92bd 0d2d 3a3d 18ba 0ebd
000000b0: 0953 75bb 94ad e4bd d52a 1bbc 3878 9b3d
000000c0: 932f 41bd 1d3f 973d 21b3 54bd e6ba c6bc
000000d0: 8075 c2bd 0635 9e3c d364 acbc 1f7b 96bb
000000e0: 91c9 cd3c baa8 97bc fbc8 af3d 22b0 d83c
000000f0: 242d e63d df1c 27bb 60e0 2f3e 5c06 37bc
00000100: e206 903d 06cf b73d 2c52 7cbd 66c7 efbc
00000110: d677 193c 4cc0 38bd a0b0 b53d fd42 a43d
00000120: 92d8 f8bc af89 963c 48b6 63bd 8a13 15bd
00000130: 84df 9d3d 78fc 88bd 0f56 c43d 8643 f9b9
00000140: 719b 983d b2fc 033d 395d 1dbc 7446 343e
00000150: fe21 c33d da8a 033d 0207 9f3d f637 f93b
00000160: 0eb5 823d 2e87 723d 5055 a83d 3ab0 523d
00000170: 1165 a2bd 521a 8cbd a58d 473d a1cd c3bd
00000180: b6f6 2dbe fff6 03be c3b6 643d b859 da3d
00000190: 2597 0fbe a977 cebc f6c8 0abe bb70 073d
000001a0: c34f 583e 31ee 26bd 035d 8a3d 5f6f 1e3e
000001b0: fab5 15bc 2ff6 62bc 8ad8 22be bd35 7dbc
000001c0: a453 38bc 5e6c 4f3d 40d5 293e f2af b63d
000001d0: fd67 ebbd 6651 643d 4f83 86bd 2570 ecbd
000001e0: df7a bbbd 509f 1c3d d12f 34bc 661c 0a3d
000001f0: b237 683c dc14 12be 3661 c2bd 4a1e 903d
00000200: 1e11 c4bd 5df0 82bd cacf 0dbd 73fa 9ebd
00000210: c332 453d 09c1 95bc ce24 543d 6a6d a83d
00000220: 7b75 24bd 2e95 44be c86b 0bbe c36b 103e
00000230: 2dc0 383e 2c2f d53d 95a4 13be 9e60 33be
00000240: 830c 043c 180d c5bc 0b45 693b 7be3 53bd
00000250: f99f 5c3d 57dd f73b ad69 533c 3eaa de3d
00000260: f4b8 173e 50a3 04be 9343 1c3c 1322 0abd
00000270: d873 5ebe 7c28 f0bc ab37 103e 8784 ccbc
00000280: 5a03 88bd ef37 d0bc 8a63 173e 5a0f 2b3c
00000290: deb5 13be 1560 83bd f3df cf3d 8eb7 b13c
000002a0: 763e 6dbc 4095 c83d 0093 87bc 52a9 1e3e
000002b0: 1680 e13c 9c29 debc 6a0e e1bd 553b 52bd
000002c0: 800c 66bc 0b34 51bd ef29 8d3c 74c9 5cbd
000002d0: 06da 3fbd 1b3f b73d c287 5f3d 5c87 7abd
000002e0: 575e 11bd 5c0e 7b3c 9071 ab3c 9ee9 8c3d
000002f0: baa0 18bd 41a7 f93d 0730 96bd bcc2 10bc
00000300: 4b7b 00bd 5811 bfbd d739 efbb ba82 e2b9
00000310: d205 d9bc 30fd d43d 5929 c23d 8a70 b7bd
00000320: 3707 3a3d 6193 20bd 9a4f 6bbd c7a5 b93d
00000330: 3fa9 bd3c fc02 8dbd a07b 1abd 936f 2b3d
00000340: cb0c 063e 0e2d 903d fda3 9a3c dae0 80bc
00000350: 80ac 1cbd 2d15 00be d395 8e3c 7315 b9bd
00000360: 3abb 783d eb56 f73b be53 b4bd 7191 083d
00000370: b1e5 c13d 8c35 35bd 90d0 073d 62c8 28bd
00000380: 87d8 4abd c32e 3a3e c6db 643d 3eca c4bb
00000390: e752 b13d 041a dd3d 8281 cbb9 09a7 edbd
000003a0: d07c 09bc feb1 d1bd 941e 8d3c 8c61 64bd
000003b0: bf7c 6b3d 63fb edbd 5241 b8bd 6b14 5dbd
000003c0: 3fa1 843d 01df bf3c 25c5 f53d ed04 a03d
000003d0: 27e8 813d 4be9 023b 95b2 1d3e 2917 e93d
000003e0: da46 073e c679 c9bd 4bf2 a73d 7e34 d4bc
000003f0: 7888 13bd 73c4 47bd 9547 abbd da4e fbbd
-0.04363888 -0.06758495 0.12262591 0.059294697 0.08519079 -0.03246012 0.12310295 0.100399986
0.009536189 0.068725996 -0.06460898 0.03594172 -0.09980719 -0.04587984 0.08085842 0.0822762
0.0059460476 -0.10187119 -0.1002758 0.100363456 0.060958616 0.034740712 0.05603688 -0.10541468
0.0763365 -0.056134026 -0.010627564 -0.05623671 -0.09473544 0.014817233 0.14714874 -0.02370944
0.119568765 -0.04952988 -0.08836874 -0.016618349 -0.021631097 -0.051503483 -0.037937783 -0.026434874
-0.09568647 -0.07144447 0.04545312 -0.03484544 -0.0037433526 -0.1116592 -0.009470661 0.07591289
-0.04716451 0.07385085 -0.051928643 -0.024259042 -0.094950676 0.019312393 -0.02104417 -0.004592314
0.025120528 -0.018513072 0.08583256 0.026451174 0.11239079 -0.0025499386 0.17175436 -0.01117095
0.07032563 0.089750335 -0.061601803 -0.029269885 0.00936695 -0.045105264 0.08871579 0.080205895
-0.030376706 0.0183762 -0.05559376 -0.036395587 0.07708648 -0.066887796 0.09586727 -0.0004754329
0.07451523 0.03222341 -0.009604746 0.17605 0.09527968 0.03211484 0.077650085 0.007605548
0.0638219 0.05921095 0.08219397 0.051437594 -0.07929433 -0.06840958 0.048719067 -0.09560705
-0.16988644 -0.1288719 0.055838358 0.10661644 -0.14022501 -0.025203543 -0.13553223 0.033066493
0.21124177 -0.0407545 0.06756022 0.15472172 -0.009137625 -0.01385264 -0.15902916 -0.015454707
-0.01125041 0.050640456 0.16585255 0.08920278 -0.114944436 0.05574169 -0.06568014 -0.11544827
-0.09154295 0.03823787 -0.010997728 0.03371849 0.014173435 -0.1426577 -0.09491198 0.07037027
-0.09573577 -0.06393502 -0.03462199 -0.07762613 0.048144113 -0.018280523 0.051792912 0.08223994
-0.0401511 -0.19197533 -0.13615334 0.14103608 0.18042059 0.10409388 -0.14418252 -0.17517325
0.008059624 -0.024054095 0.0035594131 -0.051730614 0.0538635 0.0075642276 0.012903613 0.10872315
0.14816648 -0.12952924 0.009537595 -0.033723902 -0.21723878 -0.02931618 0.14083736 -0.024965538
-0.06641264 -0.025417296 0.14784065 0.010440672 -0.14424846 -0.064148106 0.10150137 0.021693971
-0.014480224 0.09794092 -0.016549587 0.15494278 0.027526896 -0.02711945 -0.109890774 -0.051326115
-0.014041066 -0.051075023 0.01723191 -0.05390306 -0.046838783 0.08947583 0.054572828 -0.061164245
-0.03549036 0.015323248 0.020928174 0.068804964 -0.037262656 0.12190104 -0.07333379 -0.008835491
-0.03136758 -0.0932948 -0.007300596 -0.00043203478 -0.026492033 0.10399854 0.09480543 -0.08957012
0.045417037 -0.03920305 -0.05744896 0.09064823 0.023151992 -0.06885335 -0.037715554 0.041854452
0.13090818 0.070398435 0.018877024 -0.015732218 -0.038250446 -0.12508078 0.017405426 -0.09037294
0.06072543 0.007548203 -0.08805035 0.03334183 0.09467638 -0.04424052 0.033157885 -0.041206725
-0.049522903 0.181819 0.055873655 -0.0060055545 0.086583905 0.10795978 -0.00038815668 -0.11604125
-0.008391574 -0.102390274 0.017226495 -0.05575709 0.057492014 -0.11620214 -0.08996834 -0.05397455
0.06476068 0.023421766 0.12000493 0.078134395 0.06343108 0.001997548 0.15400155 0.113813706
0.13210621 -0.098376796 0.082005106 -0.025903936 -0.03601882 -0.048771333 -0.083632626 -0.12270899

net.3.module.0.bias f4 [32]
00000000: e057 823d 3f56 83bc 0ac7 88bd 487a 6a3d
00000010: 1d6d 37bc d666 d0bb 36d3 39bd 2ce1 9d3d
00000020: be12 fb3c f80a 053d 63c9 b0bc 88fd 50bd
00000030: 9452 0dbc 167c 5f3d 20f1 963d 10b3 b5bd
00000040: f5fb a8bd fbcc b6bc de85 71bd e13d 993d
00000050: 0b4e 863d 50a0 86bb 5953 393d c582 873d
00000060: 40c3 c1bd eec9 38bd 8d3c 28bd 5f0d 613d
00000070: a25a 213c 8ed8 493d fc53 b43d ed5d 59bd
0.06364417 -0.016032336 -0.06678589 0.057245523 -0.011195448 -0.0063599152 -0.045367442 0.07708964
0.030648585 0.032481164 -0.021580404 -0.051023036 -0.008625645 0.054561697 0.0737021 -0.08872044
-0.08251182 -0.02231454 -0.058965556 0.074825056 0.06557854 -0.004108466 0.045245502 0.06616739
-0.09461069 -0.04511445 -0.04107337 0.054944392 0.009848269 0.04927879 0.08805081 -0.05306809

net.4.module.0.weight f4 [32, 32, 3]
00000000: 596f 33bd b2d4 d3bd ded0 7e3d de08 953d
00000010: 36f9 6ebd 41fb 3dbd 620a cc3d 18ce 2f3d
00000020: 38ba 69bd f14c 2b3e 5c2e 113e effe 35bc
00000030: 3bd0 bcbd af29 453c 2aaf f23c a51e 36bd
00000040: 71f9 fd3c 7884 ab3c c10e b7bd 2884 cdbc
00000050: 4ab5 c63d 9288 523c 41c9 803d 416f 89bb
00000060: 23e3 633d ae99 7d39 50f6 2d3d 0a98 0dbd
00000070: 5dfb a93d 95b4 22be d372 bdbd 4e7f fa3d
00000080: c9b4 273e 3d66 003e 6f4b 693d 24fd a7bc
00000090: af66 713b 62a6 2f3d 14e5 2d3d d0de 20be
000000a0: 2707 20bb 0cbd 77bd 9b9e dbbc e234 8fbd
000000b0: 5563 79ba f77d 843d 88a9 433d 1c63 923d
000000c0: 0c65 0ebd 1420 c0bc 6498 d0bd f63d e93d
000000d0: dc83 f7bc 2bec 263c 94ea 813d a142 83bc
000000e0: a1de 00be 91e7 adbd 7666 a8bd 3370 a53d
000000f0: 5a09 e0bd 8185 57bc 27c2 cf3d 4483 d0bc
00000100: 009b 44bd c02a 28bd ffc8 373d 9f44 e0bc
00000110: 458a 46bd bc26 3a3e 7102 823d 0883 013e
00000120: a2b5 3c3d 3179 fbbc 6212 e2bb 8da5 063e
00000130: 629d 2d3d 6736 653d 4ab0 a93d ce43 5cbc
00000140: 844c 5a3d 72f6 81bd 929e c83c 9dfa 133e
00000150: 0e91 bcbd 9d2b 373d cbab 8d3c 35bf 34bd
00000160: a8a7 c7bd 21f7 bfbb 2e4f c6bd 4df7 7abd
00000170: b22f 5bbc 7711 293d c8a3 5d3d 6968 b3bd
00000180: 0bc5 0cbe 574e 34be 18bc 893d 63b7 d33d
00000190: 24d0 d0bd e196 0d3e 9be4 15bc 54bc 763c
000001a0: 9e2f 3f3e a8e1 e8bd 3103 4b3d a8bc 393d
000001b0: 7f7a 62bc 3fd7 af3d 3caf 7fbd d17b 0b3c
000001c0: 5229 3c3d d98b 1fbe a8d8 093e a984 5f3d
000001d0: 8e94 773c 4f68 293e 99d7 5c3d fa44 d6bd
000001e0: 3b89 c3bd b1de 1abc bb67 bb3c 3d0d 5d3d
000001f0: 0451 8dbd aff7 0fbe 5d99 16be f9eb bbbd
00000200: 4447 2c3d 9664 5fbc 2159 33bd fab8 1c3c
00000210: 2896 0a3e a9c1 6ebd ad22 fdbd 6735 073d
00000220: f0af 7dbd 8000 40be 2736 e2bd aa03 243a
00000230: ca47 ff3d 1c55 d73a 2eff 18bd 70ef 123d
00000240: df1c f13d e758 233c 0430 03be 96c1 f43d
00000250: 9731 8c3d 03b3 223c 2147 d8bd 1c32 933c
00000260: ce61 0a3e a619 ebbd d357 d7bd b597 dcbb
00000270: ae2e b4bd eb10 2d3d f74c 3b3e 0bb3 a6bc
00000280: 231f 9dbc 26a7 35bd 69f8 f03d 1124 c43d
00000290: c63c a7bd f30a a23b b582 1a3e 1697 2e3e
000002a0: e98f 32be 6c05 063d 4fa8 33bd 1265 df3d
000002b0: 0aaa 503d d43d cebd f98e 093d e968 8c3c
000002c0: e429 2fbd c007 e0bd 90a1 2c3d 66a5 383d
000002d0: 566b f6bd a2c3 033d bb55 1d3e 9d5f 36bc
000002e0: dc36 ccbd 8426 81bd f619 acbd a50e 43bd
000002f0: 131f dbbd 851d 3ebd d209 883d ddf0 11be
00000300: b22a cebd 676d e33c a153 e9bd 1e9d c73d
00000310: 59c1 5cbb 40d9 06be 6f4b e33d 3272 b3bd
00000320: c02a 633d e22f cbbd f141 943c cb81 00bc
00000330: c576 4d3d 33e4 653d b162 cb3d 14a0 b63d
00000340: a91d f53d df27 c23d 0abc cb3c 2986 433d
00000350: 5612 a93a 2fe7 82bc 9c6d 0a3d ead1 f0bb
00000360: 4036 c63d f8e6 083d cc8b 7abd 9170 033e
00000370: 5a37 5a3d 11d6 9b3d 427a 0abe 62c8 c5bd
00000380: a569 a6bd 5231 133e 55ca 79bd 75ee b13c
00000390: 39c0 5abc 33df df3c ae4f 2b3e bbae a2bd
000003a0: fa5f beba 8050 fa3c 8b08 05be 6e47 453c
000003b0: ecc3 7bbd 3a9b b4bd 5242 a0bb 6b91 f2bd
000003c0: 606b ed3c 317e 00be 9768 073c b8df 2d3e
000003d0: e101 8239 a04b b63d a006 6e3d b807 d43b
000003e0: b38e 05ba dc2f 5ebd e692 f53c cf03 6bbd
000003f0: 83d6 043d ed04 f1bc 7eaf febd ae53 44bd
-0.04380736 -0.10343303 0.06221091 0.07277082 -0.058343135 -0.046382193 0.09962918 0.042921156
-0.057062358 0.1672857 0.14177841 -0.011108144 -0.09219404 0.012033864 0.02962454 -0.04446282
0.031002732 0.02093719 -0.08938361 -0.025087431 0.09702547 0.012849944 0.06288386 -0.0041941707
0.055636536 0.0002418521 0.04247123 -0.034568824 0.08299897 -0.15889199 -0.092504166 0.12231313
0.16377558 0.12539001 0.056956705 -0.020506449 0.0036834886 0.042883284 0.042454794 -0.15709996
-0.0024418326 -0.060483024 -0.026809027 -0.069925085 -0.0009513398 0.064693384 0.0477691 0.0714781
-0.034764335 -0.023452796 -0.10185316 0.11388771 -0.030214243 0.010188143 0.0634357 -0.016022982
-0.12584926 -0.084914334 -0.08222668 0.08078041 -0.10939284 -0.013154388 0.101444535 -0.025453217
-0.047999382 -0.041056395 0.04486942 -0.027376471 -0.048471708 0.18178838 0.06348122 0.1264764
0.046071656 -0.030697437 -0.006899164 0.1314909 0.04238642 0.055960085 0.082855776 -0.0134439
0.053295627 -0.06345834 0.024489675 0.1445107 -0.092073545 0.044719327 0.017293831 -0.04412766
-0.09748775 -0.0058583175 -0.09683071 -0.061271 -0.013378071 0.04127642 0.054111272 -0.08760149
-0.13747041 -0.1760801 0.06725329 0.103377126 -0.1019595 0.13827087 -0.009148742 0.015059549
0.18670508 -0.113711655 0.04956359 0.045345932 -0.013823151 0.08585977 -0.062422976 0.008513407
0.045937844 -0.15580691 0.13461554 0.054569874 0.015111102 0.16543697 0.053916547 -0.10462375
-0.09547659 -0.009452508 0.022876611 0.053967703 -0.06900218 -0.14059328 -0.14706941 -0.091758676
0.04206015 -0.013634821 -0.04378617 0.009565586 0.13533843 -0.058290157 -0.123601295 0.033009913
-0.061935365 -0.1875019 -0.11045485 0.00062566495 0.124648646 0.0016428563 -0.037352733 0.035872877
0.11773085 0.009969926 -0.12811285 0.11950986 0.06845396 0.009930375 -0.10560442 0.01796823
0.13513872 -0.114795014 -0.10514798 -0.006731952 -0.08797966 0.042252462 0.18291079 -0.020349046
-0.019179886 -0.04434886 0.117661305 0.095771916 -0.081658885 0.004945153 0.15088923 0.17049822
-0.1743771 0.032720014 -0.043861683 0.109079495 0.050943412 -0.100703865 0.033583615 0.017139869
-0.04276456 -0.10938978 0.042146266 0.04507961 -0.120321915 0.032168992 0.15364735 -0.011131194
-0.09971401 -0.063061744 -0.08403389 -0.047621388 -0.10699286 -0.04641487 0.06642498 -0.14252038
-0.10066737 0.027762128 -0.11392904 0.097467646 -0.003368458 -0.13168812 0.11098372 -0.087620154
0.05546069 -0.09921242 0.01809785 -0.007843445 0.050162096 0.05612583 0.09930933 0.08917251
0.11968548 0.09480261 0.024869937 0.047735367 0.0012899141 -0.015979378 0.033795938 -0.0073492425
0.09678316 0.033423394 -0.061168477 0.1283591 0.053275444 0.07609189 -0.135232 -0.096573606
-0.08125619 0.14374283 -0.060983974 0.02172015 -0.0133514935 0.02732811 0.16729614 -0.079434834
-0.0014524453 0.030555964 -0.1299154 0.012040956 -0.061466143 -0.088186696 -0.0048907185 -0.118441425
0.028981864 -0.12548138 0.008264682 0.16979873 0.00024796932 0.08901143 0.058111787 0.0064706467
-0.0005094811 -0.05424486 0.029977273 -0.05737668 0.032431137 -0.029421294 -0.12435816 -0.047931366

net.4.module.0.bias f4 [32]
00000000: df15 9cbd 2590 80bd 7975 ec3c 9257 03bd
00000010: 3bdb 58bc 6728 ec3c 74bc 75bd 5556 89bd
00000020: 2b5c b5bd 3a2b a53d 1898 87bc 98f1 0abd
00000030: 59ea e93c 45b9 9f3d 82a7 9cbc 7192 e4bb
00000040: 9f34 443d f780 bd3d 0243 74bc 454b ab3d
00000050: 4c7a 48bd 56f9 f9bc 6c3d 1f3d 698a babd
00000060: a752 e33c 8577 ee3b 1f60 ee3b d092 23bc
00000070: c60f 09bd e91e b3bb 9000 9bbd 8ae3 a8ba
-0.07621359 -0.062774934 0.02886461 -0.032065935 -0.013235862 0.02882786 -0.059994176 -0.0670592
-0.0885547 0.080648854 -0.016552016 -0.033921808 0.028554128 0.07799009 -0.019122843 -0.006975465
0.047901746 0.09253114 -0.014908554 0.08363966 -0.048944756 -0.0305144 0.038876936 -0.09108431
0.027749373 0.0072774314 0.007274642 -0.009983733 -0.03346231 -0.0054663313 -0.07568467 -0.0012885195

net.5.weight f4 [3, 32, 3]
00000000: 8eef 9b3d 3204 6fbd faa8 fbbd 9df2 343d
00000010: 7a58 fd3c 7f85 aa3c dd4b 9e3d 3d05 d0bc
00000020: f293 cc3d 50af b8bd 80b3 5d3d 20be 993d
00000030: 9604 f9ba b0cc baba 1d21 88bd 89e1 e8bc
00000040: 8a61 543d 1df8 963d 1fed 74bd 4275 93bd
00000050: 685e c1bd 4fe0 873d d9f5 87bd 38dd 47bd
00000060: ce60 703d 8334 c6bd 378d d0bc cb53 c23d
00000070: cb9d 963d c841 8c3d 7544 d5bd 0a74 5ebd
00000080: 3779 1ebc de05 fc3d 27ae 253d 8658 acbc
00000090: d849 1cbd 449d 67bd b2d7 de3d a1fb 8bbd
000000a0: dc92 72bd 13e4 593d b801 59bd 1251 883d
000000b0: 83b7 90bc 3fab 2ebc 167d 49bd 004e 8fbd
000000c0: 7405 843d a8e7 613d b80f 823d 2653 1d3c
000000d0: 90e2 ec3c 411d aabd ab73 d4bc 39a6 48bd
000000e0: 835f 9e3d 199d 8cbd 2bbe 323d 3191 93ba
000000f0: 3947 d9bd dc31 8dbb 51a3 33bd 3818 82bd
00000100: a919 81bd 782b b7bd f725 14bd 3467 583d
00000110: d46d 94bc 5790 8c3d 1295 833d 7c73 9bbd
00000120: 9e51 83bd b082 6c3d f296 bfbd 5f51 c03d
00000130: d77e 70bd 4d0b 4f3d 99f9 74bd d0c4 1d3d
00000140: 9436 11bd 2f3d d8bc ab5f 37bd 9505 3cbd
00000150: c258 36bd 8bdf b7bd 5f00 cdbd 0917 9b3d
00000160: 2b0e 5f3d da8b 11bb 341d 90bd 8cbf 6d3d
00000170: f211 a3bd 88ce a9bd 1c72 56bd e684 cd3d
00000180: eef3 833a 1261 583d ae7b d63c bce3 e2bd
00000190: c5e2 c43d 0eba fb3d 0378 80bd b319 0a3d
000001a0: bbda bebd ed62 d13a 4c93 663c 13c2 1dbd
000001b0: 6fcc 9bbc 1f58 923d 24ef d5bc b751 673d
000001c0: de16 e33a 9a6e 0abd beba 533b 88a7 d0bc
000001d0: c69c af3c 7e4d 86bd 1c66 32bc 54e9 3d3c
000001e0: 3d00 3a3a cfcc a63d f3a1 3ebd a3b6 d23c
000001f0: 522d 9abc f081 ad3c 682d 663d a346 933d
00000200: a862 323d af64 d6bc 4d55 923d 3d13 223d
00000210: a191 fbbd 2744 44bd 0b32 93bc 63ea 93bd
00000220: 8674 63bd 54ba 72bd 4bd6 903d 13be 023c
00000230: 63b3 61bd a4ab 9ebd f97e d7bb 0748 573d
00000240: 9115 89bd 24d3 b5bc b8d7 ecbd 1415 c2bb
00000250: bf1f 173c 2407 00bd d2ae ae3c bbbf 583d
00000260: 68c5 d1bd 2753 0c3d 45d7 d7bc aa2e 61bd
00000270: de6c a73d 51e1 863d da5f d33d 10ac 0b3d
00000280: ff80 943d 8580 16bc dab3 44bc e9fd b6bd
00000290: 54bf 9cbc dd09 b23d c921 0ebd 746e 733d
000002a0: 043e 8e3d b94d ac3d 2696 cf3d bf5d afbd
000002b0: b084 3d3d 0b91 5ebd 42c6 b33c d401 7bbd
000002c0: 6384 533c d75a 003e 3c38 643c b773 a53d
000002d0: 8ac9 b83d dfb4 e03c c5e6 6f3a 08f0 863c
000002e0: 0036 31bd 5e88 75bb 8976 313c 5c16 48bb
000002f0: 3509 4d39 d992 163d 5de8 b2bc 20e6 09bd
00000300: d810 a23d 8095 76bd 5c72 173d 423b c1bd
00000310: 3aeb be3d 640e e43d cf2a 443d ce25 d33d
00000320: 7aec 8dbc 2180 143d 1901 633b 41fc 173d
00000330: 3953 b93b cc8c 3e3c aff6 eebc 0768 bfbd
00000340: 253a 6bb9 df77 9a3d 3c62 c6bd f6fc 7dbd
00000350: f8ef 82bd 175f 9cbd 6261 8abd 1ce6 03be
00000360: d2d4 f4bc caea 98bd e95b 313d d39b a83d
00000370: e36b 913c 47ae 01bd bf2a 7bbd 89ef cb3c
00000380: cb37 37bd 6867 29bc 5c10 5f3d d824 493d
00000390: 99fa 83bd 1c8a 403d b0fb 77bc 2bf2 05bd
000003a0: 296b 54bd 49fb b5bd ad88 d33d f5c6 28bd
000003b0: 58bd f63c f3a0 08be 6557 da3c 903b 92bc
000003c0: 9421 9c3b 8ab5 413d 3d22 c4bd 47fe 4ebc
000003d0: ac93 a93d 51ea 11be 3c04 5abc 89bb 4e3d
000003e0: 59a9 7d3b 7cd1 dcbd 0cbb c33d 6999 9abc
000003f0: 95e3 ab3b 15d6 833c 4e64 b33d f4b7 70bd
0.07614051 -0.05835361 -0.12288089 0.044176687 0.030925978 0.020815609 0.077293135 -0.025393123
0.09989156 -0.09017813 0.054126263 0.075069666 -0.0018998559 -0.0014251675 -0.06646941 -0.028427856
0.051850833 0.073715426 -0.05979645 -0.072000995 -0.09441835 0.0663458 -0.066386886 -0.048794955
0.05868607 -0.096779846 -0.025457961 0.094886385 0.07354315 0.06848484 -0.10413448 -0.054309882
-0.009672455 0.123058066 0.040449288 -0.021038305 -0.03815636 -0.056546465 0.10880984 -0.06835104
-0.059222087 0.053196024 -0.052980155 0.06656088 -0.01766563 -0.010660945 -0.049191557 -0.06997299
0.064463526 0.055152565 0.06350654 0.009602344 0.028916627 -0.08306361 -0.025934061 -0.048986647
0.07733061 -0.068659015 0.04363839 -0.001125848 -0.10609288 -0.004308922 -0.043856923 -0.063522756
-0.063037224 -0.08943838 -0.03616902 0.052832797 -0.018118776 0.06863468 0.06424917 -0.07590386
-0.064120516 0.05774182 -0.093549624 0.0939052 -0.058714714 0.050547887 -0.059808347 0.038517773
-0.03545244 -0.026396362 -0.04476897 -0.04590376 -0.04451824 -0.08978184 -0.100098364 0.07572753
0.05445687 -0.0022208602 -0.0703682 0.058044 -0.07962407 -0.08291346 -0.052354917 0.10035114
0.0010067204 0.05282695 0.026182022 -0.11078593 0.09613565 0.122913465 -0.062728904 0.033715915
-0.09319063 0.0015974917 0.014073204 -0.03851516 -0.01901838 0.07145714 -0.026115008 0.056474414
0.001732554 -0.033796884 0.0032307352 -0.02547051 0.02143706 -0.06557749 -0.010888603 0.011591274
0.00070953724 0.08144533 -0.046541166 0.025721854 -0.018820439 0.021180123 0.056195647 0.07191207
0.043551117 -0.026171057 0.07145176 0.03956913 -0.12283636 -0.047916558 -0.017968198 -0.0722244
-0.055531047 -0.059259728 0.07072123 0.007979888 -0.055102717 -0.077475816 -0.0065764156 0.052558925
-0.066935666 -0.022195406 -0.115645826 -0.005922923 0.009223877 -0.03125681 0.021323595 0.052917223
-0.102427304 0.034258988 -0.026347766 -0.054976143 0.08175062 0.065859444 0.103210166 0.03409964
0.072511666 -0.009185915 -0.012005771 -0.08935148 -0.019134201 0.086932875 -0.03470019 0.05943151
0.06945422 0.08413262 0.101360604 -0.085628025 0.04626912 -0.054337543 0.021945123 -0.06128104
0.012909981 0.12534653 0.013929423 0.080787115 0.090228155 0.027429996 0.0009151514 0.016471878
-0.04326439 -0.0037465314 0.010831484 -0.0030530905 0.00019553753 0.03676114 -0.021839315 -0.03366673
0.07913369 -0.060201168 0.036974296 -0.09435131 0.0932221 0.11135557 0.047892388 0.10309945
-0.017324675 0.036255006 0.0034638105 0.037105802 0.005655673 0.011630248 -0.029170362 -0.093460135
-0.00022433007 0.07542395 -0.096867055 -0.06200882 -0.06393427 -0.076353244 -0.067568555 -0.12880749
-0.029886637 -0.074666575 0.043300543 0.08232846 0.01775164 -0.031660344 -0.061320063 0.024894493
-0.044730943 -0.010339595 0.05445896 0.049107403 -0.06444282 0.04700671 -0.015135691 -0.032701652
-0.05186001 -0.088858195 0.10328803 -0.041205365 0.030119583 -0.13342647 0.026653001 -0.017850667
0.004764745 0.04729227 -0.09576843 -0.012633867 0.08280119 -0.14249541 -0.013306674 0.050471816
0.0038705675 -0.107821435 0.09557161 -0.01887198 0.0052456358 0.016093293 0.08759366 -0.05876918

net.5.bias f4 [3]
00000000: 6302 073d a7f8 023d bede 833d
0.03296126 0.031975415 0.06438969

exp_avg f4 [32, 120, 2]
00000000: 2cbe 37b8 8d7b 3cb9 93fe e339 b943 d938
00000010: 0870 a4b9 2dfa b1b9 f5e6 c339 c6f2 803a
00000020: bbf0 06ba 4c03 7cb9 d70d fe3a 1238 c43a
00000030: 0033 9239 338c 0638 57a0 17ba 4ce1 9fba
00000040: aa18 8439 d545 b4b8 b28e afb8 ad64 a7b7
00000050: fc20 23bb 4758 ffba 08af 0138 2c6c 9339
00000060: 965e 92b8 a636 3637 b5a1 9ebb 3ce4 9cbb
00000070: afc3 d7ba b305 4cba b868 04bb ff6c e6ba
00000080: 65cb 953a 5396 b23a c731 3ab9 3438 57ba
00000090: 05db 3abb 2f21 57ba 2781 1c3a be0c 2f39
000000a0: 00eb 1139 c665 373a 98c7 0a3a a4ea 343a
000000b0: 2f10 463b 8568 713b 301a 7ebb aa4e 35bb
000000c0: 6da6 87ba 1311 80ba e5b0 183a 9874 6b39
000000d0: 22e1 19ba 3912 c1b8 1621 5638 f008 4138
000000e0: 012c 4838 46f9 e036 9ef4 9a39 b049 c139
000000f0: b71a 0038 6082 7939 4c5d 763a b948 273a
00000100: 5352 ccb9 8bf1 94b9 1adb d339 c631 9439
00000110: db2f 82ba 4e5f a7ba c844 3a38 5a51 5939
00000120: a1d8 51b8 1e20 a4b9 fe66 02ba 2575 e9b9
00000130: d4db a2b8 5a59 42b9 0000 0000 0000 0000
00000140: 01d0 14b9 179a d137 bd12 8237 7e83 2d3a
00000150: c706 4ab9 0044 d8b7 0362 5aba 6ae2 03ba
00000160: a58e 8cb9 14ed feb9 a3d4 1238 c425 91b8
00000170: 6256 cab9 17c1 173a 26c4 a039 e765 8e39
00000180: ec24 bfb9 fbc1 9fb9 2487 d538 109a b438
00000190: 8cdb 25ba 13f6 bcb9 10fe db38 5a45 7c39
000001a0: d392 02bb 10ad c9b9 aaab c039 2130 063a
000001b0: 2935 c539 4ff3 c638 1373 9938 12a4 7e38
000001c0: 2b00 eeba fa3b 21bb c5b3 c238 6dea 0d39
000001d0: 3e52 1ab9 09dd 71b9 05d7 3eba dbd5 91b9
000001e0: adaf 3ab9 6c1f 7f3a 4330 05b7 50ae 52b7
000001f0: 5365 7839 7c34 cd39 497c 09b9 8ab9 37b8
00000200: 5566 8bba 3028 8bba 695b 9234 98c8 31b8
00000210: caed c93a b4e4 feb9 597b 87bb 69c9 97bb
00000220: 4d46 2239 e482 8d39 1b86 d2b6 0707 2239
00000230: c628 c2b9 3dc2 06ba 9026 17b9 14db 523a
00000240: fca6 f0b7 4b2f c439 5237 b6b9 d59a 0bb9
00000250: 6ae6 9836 a773 f8b8 c3a0 f9b8 c643 5cb9
00000260: 299e 9139 78ea 51b9 6774 97ba 31e2 f8b9
00000270: 54a9 03bb 8702 b9ba 24d6 9f3a 5219 9b3a
00000280: 07f4 4fbb 280d 35ba ec4c 8039 9c66 bab8
00000290: 6c3b 43b8 a951 2d38 6707 93ba 7f2d 5cba
000002a0: cc0d 4c37 dae9 adb7 35ef 81b9 5c86 61b9
000002b0: 1e6c 3839 b7be 6039 2ef3 d8ba 1b90 c6ba
000002c0: 632f b9ba 5317 0bba f9ad 2cb9 5c3f 0bb7
000002d0: b194 f838 1256 f738 7b2e 55b9 7f7e eeb8
000002e0: e770 8538 a409 3839 f466 b638 fad8 d539
000002f0: cbcf f9b9 f712 95b9 9fc1 22bb 09c8 b4ba
00000300: 2ebb 97ba d059 a0ba d692 8839 c67f 8d39
00000310: 6a79 273a 5a5b 0c3a 80cc b138 5a50 a439
00000320: ab36 7bb9 46f5 83b9 a281 ad39 580d 0e39
00000330: 85e7 3d39 7072 be39 cd0f e1b7 995c 07ba
00000340: 84b0 ccba 9957 1abb a0fa 97b6 6829 ea36
00000350: 35f4 c739 e2d1 9037 afea f338 360d 9039
00000360: c08d f037 d956 013a 6770 933a 4652 2c3a
00000370: ce4c 8b39 2670 8cba 56f1 96ba ec80 acba
00000380: 772f 7cba cdb8 c037 7182 34b9 f9b5 08b9
00000390: dfb8 72ba 5bed 3aba 393d f1ba d465 42bb
000003a0: 275b 89b9 b02f 3db9 46e4 9bba edf5 f5ba
000003b0: 5c83 6f39 5c81 5b39 6d29 0bba fd1b 0fba
000003c0: ff55 2ab9 314b 81b9 b538 b9b7 0f06 66b9
000003d0: 5dec 42ba 2956 f3b9 4744 ae39 2fde 23b9
000003e0: b319 3037 54e8 3e3a eecd f2b9 aedc 15ba
000003f0: 2e87 0537 8646 bb38 be96 b039 e8b6 47b7
-4.380771e-05 -0.00017975103 0.00043486487 0.00010359981 -0.00031363987 -0.00033946466 0.00037365375 0.0009837977
-0.0005147566 -0.00024033821 0.0019382787 0.0014970324 0.00027885288 3.207866e-05 -0.00057840854 -0.0012197881
0.00025195378 -8.596076e-05 -8.371229e-05 -1.9954832e-05 -0.0024891486 -0.0019481265 3.0919007e-05 0.0002811862
-6.9794405e-05 1.0860769e-05 -0.0048410543 -0.00478795 -0.0016461516 -0.00077828317 -0.0020204019 -0.0017580091
0.0011428414 0.0013625122 -0.00017756886 -0.0008209974 -0.0028511893 -0.0008206544 0.0005970173 0.00016694047
0.00013915822 0.00069960614 0.0005294024 0.0006901419 0.0030222049 0.003683598 -0.0038772933 -0.0027665296
-0.0010349281 -0.0009770714 0.0005824699 0.00022454781 -0.0005870034 -9.2063514e-05 5.105239e-05 4.602311e-05
4.7724698e-05 6.7047395e-06 0.00029555423 0.0003686673 3.054246e-05 0.00023795059 0.00093980576 0.0006381381
-0.00038971248 -0.00028408723 0.000404083 0.00028265844 -0.0009932475 -0.0012769492 4.4409913e-05 0.00020725038
-5.0031234e-05 -0.00031304447 -0.00049744535 -0.00044528503 -7.765708e-05 -0.00018534568 0.0 0.0
-0.00014191867 2.4986495e-05 1.5505933e-05 0.000661902 -0.00019266746 -2.5780872e-05 -0.0008330645 -0.0005030992
-0.0002680916 -0.00048623292 3.5007146e-05 -6.921173e-05 -0.00038592803 0.00057889655 0.0003066372 0.00027160274
-0.00036457868 -0.0003047137 0.000101818034 8.611765e-05 -0.00063269655 -0.00036041494 0.000104900566 0.00024058428
-0.001992394 -0.0003846665 0.00036748993 0.0005118866 0.00037614375 9.4866955e-05 7.317043e-05 6.071112e-05
-0.0018158009 -0.00246024 9.2841256e-05 0.00013534138 -0.00014717222 -0.00023065893 -0.0007279965 -0.0002781589
-0.00017803787 0.000973216 -7.938655e-06 -1.2557561e-05 0.00023688869 0.0003913975 -0.00013111638 -4.3803397e-05
-0.0010635356 -0.0010616835 2.726113e-07 -4.2386906e-05 0.001540595 -0.00048617052 -0.0041345772 -0.0046321643
0.00015475713 0.00026991137 -6.2740996e-06 0.00015452142 -0.00037032942 -0.0005140638 -0.00014414848 0.00080435094
-2.8687988e-05 0.0003741927 -0.00034754962 -0.00013313752 4.5567767e-06 -0.000118471035 -0.000119031894 -0.00021006083
0.00027774394 -0.0002001914 -0.0011555076 -0.00047470772 -0.002008994 -0.0014115133 0.0012194556 0.0011833108
-0.0031731145 -0.00069065625 0.00024471374 -8.8882836e-05 -4.6546964e-05 4.1322466e-05 -0.0011217416 -0.00083991134
1.216256e-05 -2.0732103e-05 -0.0002478302 -0.00021507725 0.00017587884 0.00021433352 -0.0016551965 -0.0015149148
-0.0014128502 -0.0005305905 -0.00016468008 -8.299798e-06 0.000118532575 0.0001179391 -0.00020330578 -0.00011372286
6.362964e-05 0.00017551199 8.697613e-05 0.00040788186 -0.000476478 -0.00028433625 -0.0024834645 -0.0013792525
-0.001157617 -0.0012233797 0.00026049343 0.00026988814 0.00063886365 0.00053541886 8.478109e-05 0.00031340384
-0.00023957591 -0.0002516901 0.00033093715 0.00013547146 0.00018110692 0.00036324887 -2.6829448e-05 -0.00051636394
-0.0015616571 -0.0023550747 -4.5293273e-06 6.9785638e-06 0.00038138186 1.7263872e-05 0.00011630856 0.00027475663
2.8676237e-05 0.0004933901 0.0011248708 0.0006573539 0.0002656937 -0.0010714575 -0.0011516016 -0.001316098
-0.000962011 2.2974238e-05 -0.00017214731 -0.00013037761 -0.00092591153 -0.00071307056 -0.0018405087 -0.0029662745
-0.0002619859 -0.0001804221 -0.0011893592 -0.0018765308 0.00022841751 0.00020933658 -0.0005308602 -0.00054591877
-0.000162445 -0.0002466082 -2.2080125e-05 -0.00021936766 -0.00074357336 -0.00046412766 0.00033238737 -0.00015627661
1.0496401e-05 0.00072825444 -0.00046311266 -0.0005716783 7.958892e-06 8.929991e-05 0.00033681648 -1.19039105e-05

exp_avg_sq f4 [32, 120, 2]
00000000: b446 0435 e8e5 0135 8968 df35 9c7d e835
00000010: 6e3c 1939 9abc bb38 3d5d 7b37 0ebe 9f37
00000020: 85c6 9037 401f 5b37 e54c 4739 9629 3239
00000030: e669 a436 7967 b536 cf8d 0438 1d1c b837
00000040: ad2f 3137 9c06 6437 06ca b833 9546 2834
00000050: 9d54 9938 b905 8538 9fb7 8838 1e9e 9d38
00000060: 9a9c 4835 c25f 8935 53b4 5339 cf2d f338
00000070: 88ae 3338 ab20 5538 6d7a 2738 7487 e437
00000080: 311d 2137 6a71 c836 ef5c 8036 19e0 1b37
00000090: a0d7 f438 d3a7 6339 3fce 1c37 f43f 4537
000000a0: 8d65 e137 6682 ba37 bc44 9536 0c18 d136
000000b0: 809e 4439 1919 4139 36bc f438 d126 0439
000000c0: 6940 c735 6e88 2a36 9faa e138 1491 9a38
000000d0: 848e 1737 a30b e036 1eb9 bb34 d897 a333
000000e0: 7525 9433 4b65 5f34 ad8f 6d35 4db5 a035
000000f0: 4047 ce35 6a34 1b36 6bd8 cb37 a306 ba37
00000100: 4f11 a736 299e 8636 0b85 1236 8844 4f36
00000110: b0fb 4938 051a 0e38 ab89 9533 931f 3535
00000120: e954 de35 fec1 3c36 8f32 e236 df62 f636
00000130: afcb 1834 0e69 2734 0000 0000 0000 0000
00000140: b1e5 e335 d88f c535 c920 4a37 f6fb 6f37
00000150: 43f0 0836 ebd0 1c36 9bd1 0237 87a1 2d37
00000160: b2b5 7936 a94f e936 352f 0e36 1e34 b835
00000170: 52b0 2837 2da0 5d36 9ba0 0a37 f6d1 1037
00000180: dcb7 2637 d966 4e37 7ebb 8334 5980 a134
00000190: ce16 c336 0d69 9236 8934 ed35 a9ab 5135
000001a0: 6dfc 4838 5d36 7a38 2e6e 1237 2588 9436
000001b0: be16 4b37 ceaf ef36 42b9 3937 8cfd e036
000001c0: bc58 9d38 bd7e 9b38 a85b 0435 6f1b 3635
000001d0: dcc6 8c35 e131 2135 f305 5637 bff0 dc37
000001e0: 6d1a 6838 d4a1 5d38 dfbb 7731 e2ae 9331
000001f0: abb4 4a38 e297 4738 6abb bc37 fdb9 7637
00000200: c6f8 5e37 b8d6 9037 3959 f232 4746 8933
00000210: bc0d 8e38 be05 a438 f3fa 7e39 1d3b b039
00000220: 4427 e034 8ac3 2335 6399 9537 4b3f ba37
00000230: 9ea3 b037 e584 6d37 1930 6837 08f7 5237
00000240: 6f48 6537 5e36 8337 14ae 4136 b836 e535
00000250: 5a10 0b36 9752 1736 efb2 d434 27d6 4d35
00000260: e93c 8c36 984e 1d37 f8e0 9d37 d48a 0b37
00000270: ea9e 2e39 1ddb 9d39 bd6d b837 76f7 cb37
00000280: 70bc 0139 0ede c638 dd2a 9435 b50f 3435
00000290: 8b32 2d34 81ba 2034 873f 0038 5eb1 bd37
000002a0: 15cd b033 4b5e c633 31b3 8636 b969 6c36
000002b0: b350 7a37 a447 9237 c4ec 5d37 ab0c 5a37
000002c0: bf59 aa37 f385 6f37 8a38 b936 a0d3 c336
000002d0: 85f4 b634 10ed c034 bae0 3335 7246 9135
000002e0: fd21 ef37 abd3 0838 121a 9a37 ce45 1637
000002f0: ae1f 1f36 dfab fc35 81b9 b837 a0ac c837
00000300: 37ee 2637 9494 1a37 a1ae e635 8af3 9b35
00000310: d787 9736 3fdf a636 3cb9 d936 8315 7d36
00000320: a8c7 3736 4a89 3e36 d409 e435 a3d5 0736
00000330: 90f8 0836 895b 8536 5d62 f836 fe39 3337
00000340: 1e83 5538 1cea 6f38 5917 9033 4336 9b33
00000350: 1b1f 9c37 1da0 a537 62cb 5136 8f60 8236
00000360: f184 1637 463c 1d37 1bbe a537 01d2 9137
00000370: 7e2f 1038 580c 6638 7d80 7939 e823 5839
00000380: 24a0 3038 e3ce 0238 3032 9334 fc0f 5034
00000390: adf7 df36 3716 f636 0199 1139 3442 2539
000003a0: 9ad1 d435 e8bb 3c36 4552 0438 09a9 8238
000003b0: 1044 0537 5787 1737 2bfb a236 47a9 eb35
000003c0: 59bc 9634 044c e534 2675 1a35 f33a 3035
000003d0: a54e b737 5edc cc37 6b8d 2136 3c5a 4236
000003e0: b954 8a36 45bc 9e36 5f5e 0938 6fdd 2c38
000003f0: dcb7 cf35 21f4 ea35 8574 9337 99f9 ab37
4.927672e-07 4.83908e-07 1.6645218e-06 1.7321904e-06 0.00014613729 8.951985e-05 1.4982475e-05 1.9042778e-05
1.725858e-05 1.3060693e-05 0.00019006764 0.00016990895 4.899909e-06 5.406266e-06 3.1603322e-05 2.19476e-05
1.05611225e-05 1.3591398e-05 8.6049155e-08 1.5671897e-07 7.311369e-05 6.343e-05 6.5191874e-05 7.515795e-05
7.473369e-07 1.0235165e-06 0.00020189704 0.000115956755 4.283947e-05 5.081358e-05 3.992992e-05 2.7242793e-05
9.6031445e-06 5.9736676e-06 3.825516e-06 9.290897e-06 0.0001167499 0.00021710926 9.346345e-06 1.1757005e-05
2.6869378e-05 2.223365e-05 4.4485478e-06 6.231485e-06 0.00018751062 0.00018415264 0.00011669884 0.00012602961
1.4845401e-06 2.5411387e-06 0.00010760617 7.370315e-05 9.033483e-06 6.677075e-06 3.4966155e-07 7.617899e-08
6.8986004e-08 2.0805344e-07 8.8498456e-07 1.1973694e-06 1.5368933e-06 2.3127309e-06 2.4300263e-05 2.2176018e-05
4.979003e-06 4.0119235e-06 2.1833137e-06 3.0885294e-06 4.8156537e-05 3.387967e-05 6.963395e-08 6.74737e-07
1.6565001e-06 2.8127101e-06 6.7412107e-06 7.3428814e-06 1.4230203e-07 1.5591306e-07 0.0 0.0
1.6979667e-06 1.4719508e-06 1.2047772e-05 1.4304174e-05 2.040543e-06 2.3367418e-06 7.797406e-06 1.0349212e-05
3.7209652e-06 6.953215e-06 2.1187127e-06 1.3724236e-06 1.0054633e-05 3.30248e-06 8.262835e-06 8.631954e-06
9.937179e-06 1.2302503e-05 2.453707e-07 3.0081972e-07 5.8141077e-06 4.3633686e-06 1.7673166e-06 7.8108366e-07
4.7918806e-05 5.9655275e-05 8.727931e-06 4.426593e-06 1.2105038e-05 7.1432214e-06 1.1069993e-05 6.705237e-06
7.5028714e-05 7.414583e-05 4.930721e-07 6.7840205e-07 1.0488689e-06 6.004976e-07 1.2756779e-05 2.633815e-05
5.533772e-05 5.284122e-05 3.6050023e-09 4.298145e-09 4.8328813e-05 4.758675e-05 2.2498618e-05 1.4706046e-05
1.3290153e-05 1.7266124e-05 2.8213082e-08 6.392343e-08 6.773646e-05 7.821199e-05 0.00024316814 0.0003361338
4.175182e-07 6.100678e-07 1.783361e-05 2.2202401e-05 2.1057025e-05 1.4157243e-05 1.3839476e-05 1.2574492e-05
1.3666328e-05 1.5641734e-05 2.8860568e-06 1.7077755e-06 2.0722132e-06 2.2548827e-06 3.9618268e-07 7.6680084e-07
4.179416e-06 9.376228e-06 1.8820618e-05 8.317369e-06 0.00016653133 0.00030108626 2.198561e-05 2.4314719e-05
0.00012372597 9.482737e-05 1.1039334e-06 6.707808e-07 1.6130268e-07 1.4969011e-07 3.0576743e-05 2.2613149e-05
8.232943e-08 9.237245e-08 4.014372e-06 3.522828e-06 1.491995e-05 1.7437917e-05 1.3227753e-05 1.2996762e-05
2.030737e-05 1.4276698e-05 5.5200117e-06 5.8360893e-06 3.4078053e-07 3.5935273e-07 6.7009717e-07 1.0823844e-06
2.8506847e-05 3.2622058e-05 1.837037e-05 8.956949e-06 2.3711286e-06 1.8825484e-06 2.2020891e-05 2.3922243e-05
9.949835e-06 9.213709e-06 1.7187159e-06 1.1619279e-06 4.5159645e-06 4.973175e-06 6.488668e-06 3.771246e-06
2.738534e-06 2.839212e-06 1.6990184e-06 2.024092e-06 2.0410262e-06 3.974365e-06 7.402427e-06 1.0682734e-05
5.090527e-05 5.720007e-05 6.7097695e-08 7.22762e-08 1.8611134e-05 1.9744091e-05 3.1261811e-06 3.885543e-06
8.97165e-06 9.371963e-06 1.9758058e-05 1.7383138e-05 3.4376506e-05 5.484777e-05 0.00023794356 0.00020612741
4.2110813e-05 3.1187094e-05 2.74174e-07 1.9377325e-07 6.674751e-06 7.3339575e-06 0.00013885276 0.00015760289
1.5856233e-06 2.812356e-06 3.1547872e-05 6.230368e-05 7.943265e-06 9.031813e-06 4.857216e-06 1.7558131e-06
2.8076718e-07 4.2709883e-07 5.7539944e-07 6.565089e-07 2.1851922e-05 2.4421312e-05 2.4073186e-06 2.8960776e-06
4.1225835e-06 4.7306844e-06 3.2751235e-05 4.121422e-05 1.5476212e-06 1.750541e-06 1.7578024e-05 2.0501016e-05

exp_avg f4 [32]
00000000: 38fb febb 58d2 d1bb a6d4 b0bc 9be8 37bc
00000010: ecb4 0f3c 392a d13b 8b4d 673c 0c1e 843c
00000020: dab2 573a c49c cc3a 43c5 0e3b 810b 87bb
00000030: ef43 0e3c e873 533c 71ed 0ebc b23a 063c
00000040: eace e439 8ab7 093b 9310 ebbb 7d30 1c3c
00000050: e9b6 48bc a316 c83b d3ec e73b 0953 43bc
00000060: 773c cebb 032b a33b c332 013b 3a74 91bb
00000070: 7cc6 0bbc e095 f9ba 6948 32bb aaf9 b63b
-0.0077814125 -0.0064032488 -0.021585774 -0.011224891 0.0087711625 0.006383207 0.014117609 0.016127609
0.000822825 0.0015610685 0.0021785058 -0.0041212444 0.008683189 0.012906052 -0.008723603 0.008192705
0.00043641712 0.0021013939 -0.0071736067 0.009533045 -0.01225064 0.006106214 0.007077792 -0.011921653
-0.006293829 0.0049794926 0.0019714094 -0.004438904 -0.008531209 -0.0019041859 -0.0027203804 0.0055839615

exp_avg_sq f4 [32]
00000000: 0b55 5c3b 3483 223a 54b2 c13b c3ec f73a
00000010: c313 b03a 6211 883a 9165 113b ae37 233b
00000020: c706 b23a e362 643b dea5 fa3a 520c 093b
00000030: e986 8f3a bfd7 813b 0877 053b 98b7 ad3a
00000040: e2f3 c43a cebd 363b a506 573b a1bf dd3a
00000050: a34d 333b a805 fe3a e572 3e3b 5058 ec3a
00000060: ce1c e63a a807 9d39 2526 cf3a 0749 ad3a
00000070: 9724 473b 4c40 463a e693 a63a feb7 123b
0.0033620025 0.00061993604 0.005911151 0.0018915165 0.0013433624 0.0010381157 0.0022185782 0.0024905014
0.0013582342 0.003484898 0.0019122919 0.0020911884 0.001095024 0.0039624865 0.0020365138 0.0013253568
0.0015026296 0.0027884129 0.0032810357 0.0016918072 0.0027359508 0.0019380348 0.0029060182 0.001803169
0.0017556192 0.00029951078 0.0015804215 0.0013220616 0.00303868 0.00075626816 0.0012708872 0.00223875
