data/Figure3_Supplement/015/checkpoint_0004000.pth (torch, 234042 bytes, 31 tensors)

net.0.weight f4 [32, 120, 2]
00000000: 94d2 71bd 5003 413d 085b 723c 7989 e8bd
00000010: cc44 99bd f96d 153b a45a c23c 9408 5b3d
00000020: f27d 94bc 2f94 363d f429 f03c 8644 70bd
00000030: 0ce9 d9bd dc1a 0ebd 4df6 b6bd 7908 a1bc
00000040: 2266 6f3b c884 23bd 92ea 3bbd 2cb9 94bc
00000050: 5eaf 163d 307f 88bd 91d4 0cbd b265 df3c
00000060: 90d4 c1bc e7d9 79bd 753a 2dbd 178e 9dbd
00000070: ad6b b9bc d775 bf3d 7fbc 4d3b c94c 3dbc
00000080: f202 bd3d 1451 ea3c d75a c03c bc41 5a3d
00000090: 71eb 9e3c a359 eabc 7e89 5d3c c4f3 38bb
000000a0: 5e69 81bc fe6f 6c3d 260d e8bb 665e bd3d
000000b0: c235 52bd 0eb6 10be 2489 fcbd e2c1 d1bc
000000c0: 83a0 aebc 1e5e e73c c2e8 673d 28c4 f33c
000000d0: dd97 583d de56 a7bd f01d a23c 6b9e 013d
000000e0: bcf1 2dbd fb85 7abd a7fd 303d ae57 6d3d
000000f0: f0e3 91bd cb4b dc3c 86e0 aabc e466 933d
00000100: 8f33 b53d d146 863c 745b c0b9 7c9b c3bc
00000110: 2e6f 44bd 25d4 edbc 44cd f0bb 2cfb 203d
00000120: 5131 423c 9735 2abc 9e6c 3bbd 80d4 e63d
00000130: 0d97 22bd 4ae8 1abd a40c 453d fcfa 63bd
00000140: ca08 873d aa3d 98bc b06b b83d 8f03 8bbc
00000150: 57ca e639 46e1 453d 62ac b23d 3ed4 5a3d
00000160: 4711 8bbd ca85 89bb 75f2 c1bc 73a6 7dbd
00000170: a838 743c 5eec 973d 5cd5 3b3d 9eda 8cbc
00000180: 6b88 743a 819e e9bb a50a 3abd 03c0 b83d
00000190: a7b2 e73b 8b03 103d 63ca d1bc cb5a 863c
000001a0: 0d12 28bc 896e 2bbc 4fa4 f439 6c64 5bbd
000001b0: fe65 02bd 5af7 22bd fa7e 83bc 9bc8 7a3d
000001c0: 5400 183d 26fa bd3d f61f 493d ed26 15bd
000001d0: 77ba 693c 88d4 c4bd 7881 373d 7d09 433d
000001e0: 601e 803c 6a21 ebbc d860 9a3d e181 103d
000001f0: 0b3b 7cbb 9612 d33c 900c 083d 11ea 80bd
00000200: 53da e1bc 7639 9b3c c021 a83d 4c51 f9bc
00000210: 7d75 45bc 6874 b83d 1858 adbc 83e5 c9bc
00000220: 1522 4e3d ea2c b1bc c4ab 373d 6baa fcbc
00000230: 811a 953c b981 cdbb 813d 943d de19 3dbd
00000240: da9d 343d 2039 c53b 2009 47bd f5a4 adbc
00000250: 29b1 cfbd fb9c adbc 57d9 a6bc 92dd 0d3d
00000260: 5e3e cd3c 9cbf 113e fcd1 8abc 19cc 1cbc
00000270: 701e a7bd ed55 a5bd a50a aabd c82e 8ebc
00000280: 2d38 e7ba 65e3 883b cb5c 8a3d 6241 a9bc
00000290: 4b4f febc d99d 1e3d 1da5 69bc c569 983d
000002a0: 7376 93bd 1e99 4bbd 422b 74bd b072 1c3d
000002b0: f483 71bd b9b7 763d 41fe 35bd 803c e4bc
000002c0: daad 2abd df7e 7cbc 683e 583c e63c 5cbc
000002d0: 9c11 d83d 2751 f63d ca2e 7a3d 7a9c a5bb
000002e0: 7739 0dbc 8bd8 8dbc e0c3 f8bd 47dc 13be
000002f0: fe94 0d3d f802 503d d95d 2abb f226 793d
00000300: adb6 c6bb 9366 b9bd 9f66 983c 093d a9bc
00000310: 238c dabc db33 17bd cba9 fcbc e1a7 56bd
00000320: d394 5a3d a56c ecbb 3b1b 663c 7894 bfbd
00000330: e1c2 22bc c71b 9bbd b7ad d5bc 6ce3 a0bd
00000340: e465 6ebd 16b8 773b 190d e4bb 4607 20bd
00000350: 504c bbbc 1bef d2bb 6026 423c 9421 d13b
00000360: 58fe 53bd 2e05 bf3d 9e54 273c 0645 59bd
00000370: 2c76 87bd e419 4f3d ca54 58bc 9f65 b6bd
00000380: 4393 4ebb 3f9a 493b 57c1 9b3d f6e4 ec3c
00000390: d8bf bebd 4625 d9ba 7f31 c1bc 9343 e8bb
000003a0: 6333 ad3d cca8 43bd d10f 513b a5b4 643d
000003b0: c2cb 88bd 5719 063e ecce e6bc 9608 b0bc
000003c0: fc24 8abd 4525 203c 1a1b b0bd bcae c4bc
000003d0: 7610 d03d 56e7 adbd 9ca2 43bd baf1 44bc
000003e0: faea 543d 5926 a4bc ee79 633d 3333 40bd
000003f0: 0e8e 6bba bd6a 90bd 8295 733d 89ba 9b3c
-0.059038714 0.0471223 0.014792211 -0.11354346 -0.07483825 0.0022801145 0.023724861 0.053474978
-0.018126462 0.044574913 0.02931688 -0.0586591 -0.10640153 -0.034693584 -0.08933697 -0.01965736
0.0036529382 -0.039921552 -0.045878 -0.018154703 0.036788337 -0.06664884 -0.034382407 0.027270172
-0.023660928 -0.060998823 -0.042292077 -0.07693117 -0.022634352 0.09348648 0.003139287 -0.011553952
0.092290774 0.028603114 0.023480816 0.053285345 0.019399377 -0.028607195 0.01352155 -0.0028221468
-0.015797313 0.05772399 -0.0070816455 0.09246521 -0.0513208 -0.14131948 -0.12330845 -0.025605146
-0.021316772 0.02824312 0.05661846 0.02975662 0.052879203 -0.081708655 0.019789666 0.03164522
-0.042466864 -0.06116293 0.04321065 0.057944946 -0.07123554 0.02689161 -0.020859014 0.07197359
0.08847725 0.01639119 -0.00036689232 -0.023877852 -0.04795759 -0.029031822 -0.0073486883 0.039302036
0.011852578 -0.010388753 -0.045757882 0.11271 -0.039694835 -0.037819184 0.04810776 -0.05565928
0.06593473 -0.018584091 0.09004915 -0.01696947 0.00044019773 0.04831054 0.08724286 0.053425066
-0.06790405 -0.004196857 -0.023675183 -0.061926316 0.014906086 0.0741813 0.045857772 -0.017194089
0.0009328189 -0.007129491 -0.045420308 0.09020998 0.0070708576 0.03515963 -0.0256092 0.016400715
-0.01025821 -0.010463365 0.00046661726 -0.053562567 -0.03183555 -0.039786674 -0.016051758 0.06122647
0.037109688 0.09276228 0.049102746 -0.036414076 0.014265648 -0.096108496 0.044801205 0.04761647
0.015639484 -0.028702457 0.07538003 0.035280112 -0.003848734 0.025765698 0.033215106 -0.062946446
-0.027569925 0.018948298 0.08209562 -0.030434273 -0.012051937 0.09006578 -0.02116017 -0.024645573
0.050325472 -0.021627862 0.044841543 -0.03084298 0.018201115 -0.0062715677 0.072382934 -0.046167247
0.04409585 0.0060187727 -0.048592687 -0.021196822 -0.101412125 -0.021193018 -0.020367308 0.034635134
0.025054153 0.1423325 -0.016945831 -0.009570145 -0.08160102 -0.0807303 -0.083028115 -0.017356291
-0.0017640643 0.004177498 0.0675598 -0.02066106 -0.03104367 0.038724754 -0.0142605575 0.07442049
-0.07200327 -0.04970657 -0.059611566 0.038195312 -0.05896373 0.060233805 -0.04443193 -0.02786088
-0.041669704 -0.015411108 0.013198473 -0.013442254 0.10550234 0.12027197 0.061079778 -0.005054054
-0.008619658 -0.01731517 -0.12146735 -0.14439498 0.03456592 0.05078408 -0.002599588 0.060828157
-0.006064257 -0.090527676 0.018603621 -0.020658987 -0.02667815 -0.036914688 -0.030842682 -0.052406196
0.053364586 -0.0072151 0.014044578 -0.0935449 -0.009934158 -0.075736575 -0.02608381 -0.07855877
-0.05820264 0.0037798933 -0.006959569 -0.039069436 -0.022863537 -0.006437195 0.01184997 0.0063821767
-0.051756233 0.0932716 0.010213045 -0.05304434 -0.06614336 0.0505618 -0.013203809 -0.089061014
-0.003152088 0.0030762104 0.07605236 0.02891777 -0.09313935 -0.0016566894 -0.023583172 -0.0070881336
0.08457067 -0.0477684 0.0031900296 0.05583634 -0.06679489 0.13095604 -0.02817484 -0.02148847
-0.067453355 0.009774511 -0.08598919 -0.024009101 0.1015939 -0.084913895 -0.0477625 -0.012020523
0.051981904 -0.020037817 0.055536203 -0.046923827 -0.00089857064 -0.07051609 0.059468754 0.019009845

net.0.bias f4 [32]
00000000: 1c3c ad3c 802c b9bc ad4d 07bb 9f66 423d
00000010: a7f4 1a3c dccd 3f3d e528 323d 759a cf3c
00000020: a08f 41bc 73bc 17bd c4b5 533c b42a 553c
00000030: 3000 43bd 4b17 5b3c b594 37bd 9683 1c3c
00000040: d5f4 28bc 32d4 e7bc b0f7 f6bc 6b4f 78bd
00000050: 3a85 5f3d e219 513c 6440 a339 51e4 b9ba
00000060: 385d 4f3c 42b7 b0b7 f30d 3bbc a8b8 8ebb
00000070: a5be 27bb 43fc 4cbd 3034 f73c d664 6b3d
0.021146826 -0.022604227 -0.0020645664 0.04746115 0.009457744 0.046827182 0.04349603 0.025342206
-0.011814028 -0.037044954 0.012921754 0.0130106695 -0.0476076 0.013372253 -0.044819552 0.009552857
-0.010312279 -0.028299425 -0.030147403 -0.060622614 0.054570414 0.012762519 0.00031137757 -0.0014182423
0.012656502 -2.1066171e-05 -0.0114169 -0.004355509 -0.002559581 -0.050045263 0.030176252 0.05746921

net.2.module.0.weight f4 [32, 32, 3]
00000000: dd5f 73bd 49e4 5d3d 9dd3 8abd 5091 70bd
00000010: a2a5 7ebd 8f8e 813d 2ae2 ad3d 9a34 363c
00000020: 6178 863d 7bbc 093d f07b d53b 3642 db3c
00000030: 8472 ba3d 712d 063e ede7 c33d ce2d a43d
00000040: 4aa9 86bc 985c a4bd f82e 8abd 050b c83d
00000050: 12f4 173e a3fe 40bd 9e44 6ebd dfff 45bd
00000060: 7230 b63c 0cbb 9f3d 3eab 0e3d 22d1 88bd
00000070: 2454 933d acdd 333d a906 bdbb 75ba c4bc
00000080: fb77 90bd 2510 8d3c ceec aa3d 7adc 0e3e
00000090: 1f06 7fbd a2fc 463d c3b8 6f3b 61d2 883d
000000a0: 1f62 b13d e83d fc3d d749 84bc db4d 92bc
000000b0: e2dd 83bd f7fa 963b da21 b13d f7fa e13d
000000c0: 8914 47bd c0a4 013d b118 1abe a880 d4bd
000000d0: 29aa 963d c5cb 85bd 60ff fcbc 3112 773b
000000e0: 5690 abbd 7c66 b3bd 4c44 c3bd 3d09 c6bc
000000f0: 4d69 c3bd fb1f e7bc 108b dd3d 4711 c73d
00000100: e1e1 d6bc 493d 00be 148e a6bd b8a1 ae3c
00000110: 6c3f a53d 2f9d 0ebe 70a4 d3bd 2133 97bd
00000120: 49d7 923d 99d3 163d 67f3 513d ac9d 123c
00000130: 8f4d 9f3a 9e2d 53bd 8421 a5bd f0fd 8b3d
00000140: c3b8 0c3d ee34 a4bc 8131 203d 1322 c3bb
00000150: 7cec 12bd 0689 76bd a2fc aabd 68cd 173d
00000160: f524 10bd a37a 1a3e e8ed d23c b6d3 34bb
00000170: 3a15 c3bd d509 8bbd b747 15bd 119f 8dbc
00000180: e0ea b7bd d019 8ebd 68dd b1bc 230d 473d
00000190: 12cd 833d e3cc f13a f10e d33d e64e cebd
000001a0: 22d6 8b3d 33d3 85bc 3f11 7d3d 6d99 a9bd
000001b0: 77b0 4cbd 1181 203d 058b 1f3d af98 543d
000001c0: bd1e 37bd 1880 76bd 8992 b53c 24d4 4bbc
000001d0: b022 48bd 67c2 9fbc 8bbe 013d 156b 093d
000001e0: 2576 2c3d 1584 c6bc e18c bebc a277 e4bd
000001f0: e56f 78bd b024 da3d 9dbf b63d 7a1f f43c
00000200: ff0b 4a3d c052 d2bc 56a9 27bd b47a 543d
00000210: 283c 1f3d f23c 9bbd 6c20 f03c 7ab1 19bd
00000220: a948 a1bd a778 8ebc 4832 8b3b e460 ab3c
00000230: 41f3 21bd 6cb0 acbd 73bf 2f3c caad a73d
00000240: 508c 773d 875c 11bd 4c70 bfbd d413 083e
00000250: 06e8 c6bc 94f6 023d edec 063e 9b7e a6bd
00000260: c000 78bd 968d b2bc ca8c b93c 076e cdbd
00000270: 60e9 9cbd 28fe 2b3d 0b43 2cbc f8c8 e43d
00000280: 2043 64bd 9a68 21bd 9911 02be e880 f73c
00000290: df39 993d ccbe d03c c93b 773c 485a 94bd
000002a0: e6e3 833d 1287 463d d358 323c d325 83bd
000002b0: 90f9 963c ad10 533d c32f 973c ee48 91bc
000002c0: 54e3 56bc 7794 89bd bec2 95bb ed5e e23d
000002d0: c937 53bd 91f5 523c b292 b5bc 0008 1abc
000002e0: 8878 02bd 3bb2 c83c 12dd 333c 5fd1 963d
000002f0: 5a33 87bd 80ed 10bd 45b5 4e3d 4c85 ff3c
00000300: 89ec 14bc d6fc f7bc 7a90 dcbc 8891 d4bd
00000310: 1560 9ebd 47d4 373c 565f c13d 9971 d6bd
00000320: 8dda 3dbd cbd7 3dbd 1035 b03d fe1f 84bd
00000330: d08d 01be efd4 5a3d 6c8b f7bd 11c5 b8bc
00000340: 9d11 99bc 05ec 003d 8aa3 49bc 6d98 1c3d
00000350: ba7b b9bd b81d 913d 9a19 07bd ee94 b6bd
00000360: 1dee ee3d 4d5b 8e3d 8bb7 d73d 87c4 99bc
00000370: 1197 41bd 723d a1bd 03c7 993d 4c8a 613d
00000380: 9903 413b 6cdb 2dbd 6859 b13b 204c 3a3d
00000390: b745 093e 4c25 e7bd 0983 153d 12c3 e1bd
000003a0: 58e0 0cbd af75 36bd cb9e efbc 30a5 2b3d
000003b0: c3ef b93d ef91 b8bd 0b89 383c 6e96 e53c
000003c0: 02da 61bd e178 26bc 21d2 5d3d b0cc 2f3e
000003d0: 4e20 013c 12cc a63c 49d7 33bd 72ec 9cbd
000003e0: 2453 a3bc aad8 a23d 87bd 423d 86d9 abbc
000003f0: 0916 23be eae5 ff3d ecb6 cabd 35b7 a2bd
-0.059417594 0.054172788 -0.06778643 -0.05873233 -0.06216968 0.06326019 0.08490403 0.01112094
0.06565929 0.033627015 0.0065150186 0.02676497 0.09103873 0.13103272 0.09565721 0.08016549
-0.016438145 -0.08025473 -0.0674724 0.09767727 0.14839199 -0.04711784 -0.058170907 -0.04833972
0.022239897 0.07799348 0.034831278 -0.06680514 0.07193783 0.043912575 -0.005768616 -0.02401469
-0.070541345 0.017219612 0.08345948 0.13951293 -0.062261697 0.048580773 0.0036578632 0.066807516
0.08661293 0.12316495 -0.01614849 -0.01785939 -0.06438805 0.004607554 0.08649035 0.11034196
-0.04860357 0.03165126 -0.15048482 -0.10376102 0.07356674 -0.065330066 -0.030883491 0.0037700052
-0.08377139 -0.08759782 -0.09534511 -0.024174327 -0.09541569 -0.028213492 0.1081754 0.09720092
-0.026230754 -0.12523378 -0.08132568 0.021317348 0.080687374 -0.13927148 -0.10334098 -0.07382799
0.07169969 0.03682289 0.051257517 0.008948725 0.0012153852 -0.051557176 -0.08063033 0.06835544
0.03435589 -0.02004477 0.03910971 -0.0059549897 -0.03587006 -0.06018927 -0.08348967 0.037061125
-0.035191495 0.15085845 0.025748208 -0.002759201 -0.09525533 -0.06788985 -0.036445346 -0.017287763
-0.08980346 -0.06938517 -0.02171202 0.048596513 0.064355984 0.0018447902 0.10305584 -0.100736424
0.06827952 -0.01633606 0.061784025 -0.08281217 -0.049972977 0.039185587 0.03895094 0.051903423
-0.04470705 -0.060180753 0.0221646 -0.012440715 -0.048861206 -0.019501878 0.031675857 0.033549387
0.04210486 -0.024232903 -0.023260536 -0.11155631 -0.060653586 0.10651529 0.08923266 0.029800165
0.049327847 -0.025674224 -0.040932976 0.05187483 0.03887573 -0.07579984 0.029312335 -0.03752277
-0.07875187 -0.017391516 0.0042479374 0.020920224 -0.039538626 -0.08432087 0.010726797 0.081874445
0.060436547 -0.03548863 -0.09347591 0.13288814 -0.02428056 0.031973436 0.13176318 -0.08129617
-0.06054759 -0.021796029 0.022650141 -0.10030752 -0.076617 0.04199043 -0.010514031 0.11171144
-0.055728078 -0.039406396 -0.12702025 0.030212834 0.07481741 0.025481604 0.0150899375 -0.07243782
0.064399526 0.048468657 0.010885435 -0.06403699 0.018429548 0.051529575 0.018455392 -0.01773497
-0.013115723 -0.067177705 -0.004570334 0.11053262 -0.051566873 0.01287593 -0.022164676 -0.009401321
-0.03185323 0.02449905 0.010978 0.07364153 -0.066015914 -0.035382748 0.05046584 0.03119149
-0.0090895975 -0.030271929 -0.02692436 -0.103793204 -0.0773317 0.011220044 0.09442012 -0.10470886
-0.046351004 -0.046348374 0.08603871 -0.064514145 -0.12651753 0.053425726 -0.120871395 -0.022554906
-0.018685156 0.031475086 -0.012307057 0.038231302 -0.09056802 0.070857465 -0.0329834 -0.08915125
0.1166651 0.06951008 0.10533055 -0.01877047 -0.04726321 -0.07873048 0.075086616 0.05506353
0.0029451607 -0.042445585 0.0054122694 0.045482755 0.134055 -0.11286411 0.036501918 -0.11023535
-0.03439364 -0.044545826 -0.029250523 0.041905582 0.09078934 -0.090122096 0.011263142 0.028025832
-0.05513955 -0.010160656 0.054155473 0.17167926 0.007881237 0.02036098 -0.043906484 -0.07662286
-0.019937105 0.07951482 0.04754403 -0.020977747 -0.15926374 0.124950245 -0.09898171 -0.079451

net.2.module.0.bias f4 [32]
00000000: 1790 b1bd 70bb 163d 897d 213d 33ac 88bd
00000010: d968 5b3d d3be 61bd 25b7 433d 04b2 603d
00000020: 5ece 96bd 9a4f a03d 63fe 9c3c 3333 343d
00000030: 7f47 d33d 3367 e33a 5ef5 29bd f5ed 93bd
00000040: 8a2c 41bd b7ee 9abc 192f 883d ba9d b93d
00000050: e6ab 03bd dbf9 8fbd cbec 7f3d ddc7 0f3c
00000060: fdb6 b2bc 7047 bebd 7bb6 b7bc 371d 4c3c
00000070: 1558 89bd 4a7b cc3c 95df 56bc 7b64 39bc
-0.08670061 0.036799848 0.03942636 -0.066734694 0.053566787 -0.055113625 0.047782082 0.05485727
-0.0736358 0.07827683 0.01916427 0.04399414 0.10316371 0.0017349481 -0.041493766 -0.07223121
-0.047161616 -0.018912656 0.06649608 0.09063287 -0.032146357 -0.07030078 0.062481683 0.008775678
-0.021815771 -0.09290969 -0.02242588 0.012458137 -0.067062534 0.024961133 -0.01311483 -0.01131546

net.3.module.0.weight f4 [32, 32, 3]
00000000: 91bf 8dbc 7838 ee3b 18d3 ec3d cf8f 3ebd
00000010: 126d d0bd 05bf 0c3d 7155 d73d 3f16 38bd
00000020: 2928 533d 1e05 61bd 6eeb 36bd 088a 8e3c
00000030: ceb7 6b3d 63e0 723d 4b77 073e fe5c d8bd
00000040: c9f7 af3d baf9 16be f6f9 253d 4480 9c3d
00000050: 679d abb9 ae6f 7e3d 4807 bfbd 1673 b13d
00000060: a137 d03d 3f66 2fbd 441d 12be 0735 afbd
00000070: f06d 4e3d ff29 eb3d 7f5e c93d e814 0fbd
00000080: fc81 f73d b786 8f3c 3229 9f3c 1143 ef3d
00000090: a5f2 843d c532 e0bc f884 be3d 9515 493d
000000a0: ac61 c93c c101 d73d a13e 75bd df9a 0bbe
000000b0: b622 9ebd b353 4e3d b0f7 f53d 9eb1 9cbb
000000c0: d529 d5bd 1a37 bbbc b989 d0bd 278f b93d
000000d0: 2162 8fbd b534 f0bd 1c4b 92bd 0dfc 3d3d
000000e0: 4d5f 263e 2d04 563d 565a 47bd 6a50 923d
000000f0: bba9 92bd f0f6 16bc d2a0 833d e537 22bd
00000100: 33ec fa3c d86d af3d 8c95 e5bd be4a b3bd
00000110: abcb 3e3c 57a5 7c3d 5331 e0bb 9cb0 f3bc
00000120: e09a 94bd 2a92 87bc fdf7 593d f852 963d
00000130: 3642 543d f440 9cbc 40e0 d33c d7d3 4bbc
00000140: dc15 bfbc 34d7 ab3c dfef eabb 1ba0 a0bc
00000150: 7ad0 dd3c ab77 143c f11e 943d 1baa 96bd
00000160: f54e a93d 0c27 acbd 8034 55bd f9ea 2d3d
00000170: 70d1 b6bd 1de1 283d a42d 55bd a27e ad3c
00000180: a90f a7bd 3564 ec3d efae 0b3d a7e8 86bd
00000190: e2fd 01bd aa3b 943d 6397 1dbc 2219 ebbc
000001a0: 90b2 dcbd 365a cf3c 348e 83bb aeb3 eb3c
000001b0: 6bd0 c6bd f764 b2bc 6b6c cd3d 3ef1 343d
000001c0: ade0 513c f6ff a2bd 85d3 ccbb 78a8 30bd
000001d0: 5e4d c83d 4a2e a1bd 6e79 533d 9141 903d
000001e0: 2bdf 343c 8729 14bd a399 1a3d 2525 eebd
000001f0: ee9c 4d3d 8a33 913d 2282 083e 0b7f 5a3d
00000200: 2a5c 0e3e d3f7 e0bd d29e 84bb d8f7 a43d
00000210: 8040 573d 39ed cd3d 992b 0f3e 0714 a53d
00000220: decc abbd c389 e63d 68bd 0ebd 2b90 59bd
00000230: 1e80 693b ed41 aabd 37d0 953d 2e2b 813d
00000240: ab5f 513d 7ef1 7a3d 99ca 0c3d ddc4 c43d
00000250: f3e9 c9bd 8c55 aa3d c3b6 343d 37c9 003a
00000260: b85f 1cbd 6fea 98bd 603a eabd d5e5 3d3d
00000270: b534 2c3d de62 353c 6b4b 7b3d 1f8b 9e3d
00000280: 14ba 30bc 4898 c63d 1918 d4bd e076 d3bd
00000290: adef a1bd 8e1e f3bd 1eca d83c 24ca 11be
000002a0: 1df8 6ebd c2da 023d 3d99 02bd 7438 803d
000002b0: 6a46 86bd f565 293c 7635 0dbd 61b4 133d
000002c0: 7457 01bc ae71 563d f292 f1bb 6152 823d
000002d0: cb33 66bd fea5 73bc 0824 ad3d b1b7 b6bc
000002e0: a2e8 3b3d 5927 bd3d 2e55 d4bc 35d6 983d
000002f0: b9f7 7b3d ff74 77bd 7b9a a43d 9dee d13d
00000300: c0c0 803d bc53 a5bd 0282 583d fc72 03bd
00000310: 70a2 9e3d c39b 563c 7079 e1bb 7983 1f3d
00000320: caa7 afbd 91e3 fc3c 7489 a2bd b869 823d
00000330: 6cbb 8e3c 96d3 72bd 0d09 91bb 8ec2 06bd
00000340: 7bc4 d83c 208e cebc 6390 093d e630 c4bd
00000350: 0a76 b4bd eb3a 85bd 4e4b a3bd f3c4 a73c
00000360: 61ca cb3d c353 a43d 8fbc 90bd 1cd7 183d
00000370: d265 86bd 5dca c33d 241e 3e3d 2b40 fdbd
00000380: 4453 6b3d efc2 3cbd 0306 e339 1dce b73d
00000390: 9270 8b3d 82d2 b1bc 45c8 e3bd 3170 5bbd
000003a0: b25e 8c3d 7a94 bf39 7195 d3bd 18c4 8dbc
000003b0: ac08 30bd f39f 28bd c170 0a3d 9f79 d13c
000003c0: ca92 62bc 7d63 e7bd 64ae ed3c 4a98 243e
000003d0: 5b29 7c3d 7129 f63d bb16 92bd bee5 0c3d
000003e0: 1c52 be3d c668 113e 9f77 d93d b8b3 05bc
000003f0: 1e22 013d a062 323d cbf1 c3bd 950e dfbd
-0.01730326 0.007269915 0.115637004 -0.046523865 -0.101770535 0.034361858 0.105143435 -0.04494309
0.05155197 -0.05493652 -0.044658117 0.017399803 0.057548337 0.059296023 0.132291 -0.10564612
0.08592183 -0.147437 0.040521584 0.07641652 -0.00032732936 0.062118225 -0.09327561 0.08664529
0.1016686 -0.04282212 -0.14268976 -0.08555036 0.050397813 0.114826195 0.09832477 -0.034932047
0.120853394 0.017520292 0.019428823 0.11682714 0.06491593 -0.027367959 0.093027055 0.049092848
0.024582706 0.104983814 -0.05987418 -0.13633297 -0.07721464 0.05037279 0.12010133 -0.004781916
-0.104083695 -0.022853423 -0.101825185 0.09060507 -0.070011385 -0.11728803 -0.07143232 0.046382952
0.16247292 0.052250076 -0.048670135 0.07144244 -0.0716128 -0.009214148 0.064271584 -0.039604086
0.030630207 0.08565873 -0.112101644 -0.0875449 0.011645238 0.061681118 -0.0068418174 -0.0297473
-0.072561026 -0.016549189 0.053215016 0.07340044 0.051820956 -0.01907394 0.025863767 -0.012440643
-0.023325853 0.02097664 -0.007169708 -0.019607594 0.027076948 0.009061734 0.07232464 -0.07356664
0.08267013 -0.08405885 -0.05205202 0.042460416 -0.08926666 0.04123031 -0.05204548 0.021178547
-0.08157284 0.115425505 0.034102377 -0.06587344 -0.031736262 0.072379425 -0.009618613 -0.028698508
-0.107762456 0.02531157 -0.0040147547 0.028772201 -0.09707721 -0.02177666 0.10030445 0.04417538
0.012809915 -0.07958977 -0.006250801 -0.043129414 0.097803816 -0.07870157 0.051629476 0.07043756
0.0110395355 -0.036172416 0.037744176 -0.116281785 0.050198488 0.070899084 0.13330892 0.053343814
0.13902345 -0.10984769 -0.004047253 0.08055085 0.052551746 0.10055012 0.13981475 0.080604605
-0.08388685 0.11256745 -0.0348486 -0.053116005 0.0035629342 -0.083133556 0.073151045 0.06307064
0.051116627 0.06126546 0.0343729 0.09607861 -0.098590754 0.08317098 0.044119608 0.0004912796
-0.038177222 -0.0746659 -0.114369154 0.046361763 0.042042453 0.011070935 0.06135122 0.07741379
-0.010786552 0.09697014 -0.10356159 -0.10325408 -0.07907043 -0.11871062 0.026463564 -0.14237267
-0.058342088 0.031946905 -0.03188442 0.062607676 -0.06556399 0.01033925 -0.034474812 0.036060695
-0.007894386 0.052354507 -0.0073722536 0.06363369 -0.056201737 -0.014871119 0.08454138 -0.022304388
0.045876153 0.092360206 -0.025919523 0.07462732 0.061515544 -0.06041431 0.08037277 0.1025059
0.06286764 -0.08072612 0.05285836 -0.03209208 0.07745826 0.01309866 -0.0068809316 0.03894374
-0.08576925 0.03087023 -0.07936373 0.063678205 0.017423354 -0.059283815 -0.0044261278 -0.032900386
0.026460877 -0.025214255 0.033584964 -0.09579639 -0.08811577 -0.06505378 -0.079733476 0.020479655
0.0995071 0.08023789 -0.07067215 0.03731452 -0.065623894 0.09560082 0.046415463 -0.12365755
0.057452455 -0.04608434 0.00043301293 0.0897486 0.068085805 -0.021706823 -0.11122183 -0.05357379
0.06853999 0.00036540983 -0.10331238 -0.017305419 -0.04297702 -0.041168164 0.033798937 0.025570689
-0.013828943 -0.11298273 0.02901382 0.16073719 0.061562877 0.12019623 -0.07133242 0.034398787
0.09293005 0.14200124 0.10618519 -0.008160524 0.031526677 0.043551087 -0.09567603 -0.10891453

net.3.module.0.bias f4 [32]
00000000: 6bd9 043d 3c6b 1dbd 13ce c6bd ecec 4cbd
00000010: 7e58 583d 1121 d6bc 3ba7 693d e6f8 a9bb
00000020: b7ac 49bd aa38 e3bc df6c 52bc 22df 9fb9
00000030: 56a2 febc cbc9 c4bd 0d56 5f3d f2cc 85bb
00000040: c64d d5ba d44d 37bd 7eab 833d 32f5 733d
00000050: 1dc9 54bd 0f2e e8bc 2a09 3c3b fef5 bfbd
00000060: 787b 98bd d80b c13d fd6b a1bc 3e9c e13c
00000070: 6367 823d 7287 243d b3db 06bd 5f9b ae3d
0.03243391 -0.038432345 -0.09707274 -0.050030634 0.052818768 -0.026138814 0.05704425 -0.0051871417
-0.04923698 -0.02773698 -0.01284334 -0.0003049309 -0.031083267 -0.096088015 0.054525424 -0.0040832693
-0.0016273789 -0.044751957 0.06429194 0.05956001 -0.05194961 -0.028342275 0.0028691986 -0.09373091
-0.07445425 0.09426087 -0.019704813 0.027540322 0.06367376 0.040168233 -0.032924365 0.085257284

net.4.module.0.weight f4 [32, 32, 3]
00000000: 1b74 b83d e43a 893d 2a42 1f3c d3b3 c9bd
00000010: fa36 35bd 9a0b ac3d 4fb9 1b3c eb3a 333d
00000020: 8d9d 7f3d 317d 39bc bc24 db3b 049f 4a3d
00000030: 3788 a03d b52e 6fbd 2204 843d 68e3 733d
00000040: 88a4 9cbd 5d49 ae3d 6907 543d fda8 cc3d
00000050: 3200 433d 1554 4fbd 38f1 7ebd 5d76 8dbb
00000060: 53d2 e03c 3fdb 253d 5c44 eabd 2201 94bd
00000070: c824 b93c 1ef6 7d3d 4e73 c33c e3bd bdbc
00000080: f68e 933d 219d 27bd bfe7 02bd 891c d53d
00000090: b3fe 043d 2091 bc3d ed13 f73d 9d1e 84bd
000000a0: 127b 03bc 2a2d ddbc b32b 7e3d b8fc 47bc
000000b0: c08a 23bd 7ea8 2a3d aadc e1bc 31ab ad3d
000000c0: 104d 43bd f969 a5bd 2ad2 07be 66e8 1d3c
000000d0: 1491 3fbd fe88 b1bd 3a7a f63c a5dc 1ebd
000000e0: 0135 bf3c bd1f 153d b1d6 0d3e d241 f53d
000000f0: 70d6 cf3c f0b7 2a3d 9850 3e3d 2960 523d
00000100: 5a15 0fbd 3e5b 6dbd dd0e 423c ba99 b13d
00000110: 0bd3 69bd 64a2 01be bab7 afbd 9b69 023d
00000120: 4f75 ba3d 689e ce3d 1e5e d43c 5c8b e43d
00000130: 8ba2 aabd 7879 863c c733 853c f0dd 733c
00000140: ea1e 863d 844e 0f3d cb17 eebc 46e8 803d
00000150: 1fb0 6a3d 49af 993d c820 733d 0310 c63d
00000160: b7df 5cbd d27e 403d 9c7b 7cbd 4d2e dd3d
00000170: e38b 1bbe f114 da3c 9979 babd 6993 87bd
00000180: 9e30 f4bc c969 af3c 6dee 7e3b 80d7 f4bd
00000190: ff7a 933d b074 a53d 7e70 27bd 84c3 ba3d
000001a0: 3783 94bd 3c2e cfbb f7c9 e2bd 898d 073d
000001b0: 054b 823d 85e2 cebb b185 4bbb 30db 69bd
000001c0: 9d17 a83a f9e9 ac3d f30f 87bd cfa5 49bd
000001d0: 223a 76bd d1f3 ac3d 2f93 b7bd 1ced 57bd
000001e0: 32f9 d33b e97c 8b3c 673a c93b fa6d a03d
000001f0: b523 95bd 3f56 173d 6e16 623d 86ca 4abd
00000200: 3203 0a3c 39d4 4b3d 0b02 983d 7a33 ff3c
00000210: 0ac0 71bd 23a4 9a3d 2472 863d b7dd 99bc
00000220: e49f 8ebc 1e0f 4f3d 46c9 e0bd 5238 1e3d
00000230: 620e c7bc 78d4 653d 3cd8 e23d 7dd4 f93c
00000240: 1b9b cdbd de8d cbbd 5bed 05be 4635 7e3c
00000250: 1f45 79bd 4884 30bd b854 fb3b 539b f33c
00000260: ff28 e13d 820d f43c 5229 9dbd 92fe f23d
00000270: 870c 8ebc ca18 813c 0ad8 e6bb 5c14 4ebd
00000280: 749c d13c 3c27 20bc f4f4 30bc 92b9 5a3d
00000290: d5e0 e1bc 0497 e03c 57ef 4ebd 94cb 9dbd
000002a0: 854e 31bd 7940 c23c cafd 153e dd8d 393c
000002b0: 0791 15bc 29d6 6dbd 36dc ce3d 6061 86bc
000002c0: 2f50 513d c0e8 aebc 1d1e 6abd a0cf a4bd
000002d0: 12e9 84bc dd6e 21bb 650d 78bc 8fbe 1a3d
000002e0: 5335 aa3d d132 af3d e6b4 ca3c 57ce d73c
000002f0: 0c2a bdbd 8a41 983c bf03 eabc 84db febc
00000300: 32f8 e63d b5d3 27bd 03a4 e0bc f585 853d
00000310: ae26 6d3d 0c41 8cbc 705e cd3d f6ae c63d
00000320: 8a70 eb3c 536b 133d f412 ad3d 0996 2d3d
00000330: c401 873d 5e83 61bd 5029 b8bd 1da6 af3c
00000340: a5f5 85bd 43c4 ae3d d10c 673d 038d d3bd
00000350: 43a0 b4bd c626 bebc 428e a9bd 1937 91bb
00000360: 4b38 963d d578 073b f55c 133d 5a28 91bd
00000370: b993 67bd 9afc 84bd 979b b23c 5b9f e63a
00000380: 9ba8 56bd bcb4 b03c 5140 0abd 13fd 44bc
00000390: 1582 b63c 4d8d 69bc 8974 b3bd 0df8 1dbd
000003a0: cfd6 c53d 85c8 dc3c cf90 07be fb7b 853d
000003b0: 6418 273d 58dc eb3c c3d4 b63d e89f 953b
000003c0: ddda b53c b9f6 df3c a5f3 4d3c 5267 e43d
000003d0: 8009 ce3c fa57 583d f5fb de3c 5c36 273d
000003e0: ef14 aa3d 7e62 ec3d 8a63 dd3d 95cf b7bd
000003f0: a553 15be df74 84bb 9c83 933c e700 bbbd
0.0900652 0.067006856 0.009720365 -0.09848752 -0.044241883 0.0840065 0.00950463 0.04375736
0.06240611 -0.011321352 0.0066877287 0.049468055 0.07838481 -0.058394153 0.06446101 0.059543043
-0.07648569 0.08510087 0.05176488 0.099931695 0.04760761 -0.050617296 -0.062241763 -0.0043170885
0.02744404 0.040492292 -0.1143882 -0.072267786 0.022600546 0.062002294 0.023858692 -0.023161834
0.07205002 -0.040921334 -0.03195929 0.10405833 0.032469463 0.09207368 0.120643474 -0.064511515
-0.008024948 -0.026999075 0.062053394 -0.012206249 -0.039927244 0.041664593 -0.027571041 0.08479918
-0.047680914 -0.08076853 -0.13263765 0.009637928 -0.046769217 -0.08668707 0.030087579 -0.03878464
0.023340704 0.03640722 0.1385143 0.11975445 0.025370806 0.041679323 0.04646358 0.051361237
-0.03493247 -0.057948343 0.011844364 0.08671899 -0.057086032 -0.12659603 -0.08579965 0.031838994
0.09104406 0.10088807 0.025923785 0.11159393 -0.08331784 0.016415343 0.01626004 0.014884457
0.06548865 0.034986988 -0.02906408 0.06294303 0.05729687 0.07504136 0.059357435 0.09671023
-0.05392429 0.046995945 -0.06164132 0.10799847 -0.15190081 0.026621314 -0.09105224 -0.06619913
-0.029808339 0.021412747 0.0038899437 -0.11955166 0.07201194 0.08078897 -0.040878765 0.09119323
-0.0725159 -0.0063226502 -0.11073678 0.033093963 0.06361965 -0.0063136243 -0.0031055028 -0.0570938
0.001282442 0.08443064 -0.06594839 -0.049230393 -0.060114034 0.08444942 -0.0896362 -0.05271636
0.0064689154 0.017027335 0.0061409953 0.07833476 -0.07282201 0.036947485 0.055197172 -0.049509548
0.008423613 0.04976294 0.07422265 0.031152476 -0.059021033 0.07550838 0.06564739 -0.01878248
-0.017410226 0.050551526 -0.1097589 0.03862793 -0.02429885 0.05611083 0.110764 0.03049683
-0.1003935 -0.099391684 -0.13078825 0.015515631 -0.060856935 -0.043094903 0.0076700114 0.02973715
0.109941475 0.029791597 -0.07673897 0.11864962 -0.017339958 0.01575889 -0.007044797 -0.050312385
0.025587298 -0.009774979 -0.010800589 0.05339963 -0.027573029 0.02741576 -0.05052122 -0.07704845
-0.043287773 0.023712384 0.14647594 0.011325327 -0.0091288155 -0.058065567 0.10100596 -0.016403854
0.05110186 -0.021351218 -0.057157625 -0.08047414 -0.016224418 -0.002463273 -0.015139912 0.037779387
0.08310952 0.08554614 0.024744462 0.026343508 -0.092365354 0.018585939 -0.02856624 -0.031110533
0.11277808 -0.040973384 -0.027421957 0.06519691 0.057898216 -0.01712086 0.10027778 0.0970134
0.028740186 0.035991024 0.08450881 0.042379413 0.06592134 -0.055056922 -0.08992255 0.021441514
-0.065409936 0.08533528 0.056408707 -0.1032963 -0.0881963 -0.023211848 -0.08279087 -0.004431617
0.07334956 0.0020671387 0.035977323 -0.070877746 -0.056537364 -0.064934924 0.021802707 0.0017595099
-0.05240689 0.021570556 -0.033752743 -0.012023228 0.022278825 -0.01425488 -0.08762462 -0.038566638
0.09660112 0.026951084 -0.13238834 0.06517788 0.040794745 0.028791592 0.089273 0.0045661815
0.022199089 0.027339326 0.012570296 0.11152519 0.025151014 0.052818276 0.027219752 0.040823326
0.08304774 0.115422234 0.10810001 -0.0897514 -0.14582689 -0.0040422524 0.018007092 -0.091310315

net.4.module.0.bias f4 [32]
00000000: 85d8 b43d c1c1 8dbc 912f 81bd 8261 cd3a
00000010: b903 353d 54d5 dc3b 0c37 853d e479 00bd
00000020: 49bb 9d3d dc78 9b3c fadb 5cbd 41cf 83bd
00000030: bde2 bf3d 017a 0b3b f35e 3fbd f04f 273c
00000040: ba90 0cbd a319 193d 79f3 3c3c 3d8d 4abd
00000050: ea0d 053d d745 9cbd a2c1 b2bd 9d27 a33d
00000060: 16d4 11bd 8e7b 1b3c 2845 0e3d bfa7 c93d
00000070: 7ce5 1e3c 1528 06bd 1d14 173c 9f5f 8d3b
0.0883036 -0.017304303 -0.06307901 0.0015669318 0.044193003 0.006739298 0.0650464 -0.031366244
0.077017374 0.018978529 -0.053920723 -0.06436015 0.09369419 0.0021282437 -0.04672141 0.01021193
-0.03431771 0.037377965 0.011532658 -0.0494511 0.032483973 -0.076305084 -0.08728339 0.0796654
-0.03560265 0.009489907 0.03473392 0.09846448 0.009698268 -0.03275307 0.009221104 0.0043143774

net.5.weight f4 [3, 32, 3]
00000000: 615a 8d3c 9a1f ab3d e7f1 45bd 814a 8abd
00000010: 5d08 063b 91e3 b33c 1b64 94bd 4168 76bd
00000020: 94d5 40bd e5d4 4c3c 715f 343c c808 d03c
00000030: 610d 673d 2c31 7e3d 2a68 9ebd 2dea 8abd
00000040: 28c5 a03b a812 09bd 262a b3bc 0793 8d3c
00000050: aaa0 b6bd 7f5d 953d 7435 44bd bc94 bcbd
00000060: 1ea2 f43d 7df3 86bd 7e34 583d cc97 40bc
00000070: d678 443d 112b 1cbd 8258 93bd 67a0 053d
00000080: 729b d9bc fa70 f5bb fd66 9e3d 23fa c1bd
00000090: 5e39 68bb 1a48 86bc b291 dc3c 7ab4 c6bd
000000a0: 75e0 9bbd 0316 f6bc b6ae 4ebd 56e8 903d
000000b0: b999 c03d b091 3cbd 9175 90bd 3284 d3bd
000000c0: 2330 d23d bb03 033d 39b3 e9bb 3acf e6bd
000000d0: 454b cfbd 1979 d83d dba8 873b 6a5b b9bd
000000e0: 2e44 81bc aa40 1bbd c026 883d 9ec8 c7bd
000000f0: 869c 21bc 0b35 51bd 025f 96bd 7b77 093d
00000100: 5b5c b43d a5be eebd a473 51bc b06c afbd
00000110: 0a37 72bd c44c f33c e246 94bc 62f8 5bbb
00000120: 8de7 8fbd 2ee5 6dbd ffff 47bd e25c a9bc
00000130: 5c1e ba3d 5449 ac3d dbeb 70bd 9d19 843c
00000140: 3c18 063d 22d2 c33d 9f13 b73c 611b bb3d
00000150: 9296 923d 4f6c f1bc 4e71 10bd 5ab9 b9bd
00000160: 51f4 83bd 96a2 973d 9952 e53d 4d19 a43d
00000170: 47da 723d 4849 963d 7c9a 83bd 3dfc 393d
00000180: f053 fd3c 9a3f 703d 1a2f df3d ecd1 ff3b
00000190: 4f3a 313d e2ac ff3d d082 18bd 24ff 91bd
000001a0: da3a 94bd 1146 cd3c 78ef 853c 573b e53d
000001b0: 79d7 c73c 3346 5bbd 8e5c ce3b b580 763d
000001c0: f92c c6bc 9b6a 733d 0c92 dd3d df4b 0ebd
000001d0: cb70 c13d af04 143b 016c 323d cc7c 5abd
000001e0: 99b4 92bd a7fb b93c 1496 abbd 6e13 e03d
000001f0: 50df 8d3d b0c7 d53d c7a3 363d 1780 4e3d
00000200: 0411 8f3d 2556 f03c a296 1a3d 12a1 623d
00000210: e32c 0c3c aba2 c8bb 13da 84bb 4e1c 133e
00000220: 062c 733d 25ca d23d 7968 5f3d 2d48 823d
00000230: eea5 6cbd 6238 173d daa3 a03d 5aea cd3d
00000240: 4973 a5bd c9c9 f6bc e03c fabd f09e 39bd
00000250: 9514 d53c 0d85 b6bd 17bb 4e3d 2ab8 64bd
00000260: ae75 813d 4f06 ffbd f46c 4cbd 6929 9c3d
00000270: 55b2 e03d 4e79 363d 8de6 ac3c bb82 7d3b
00000280: 095d 103c f27d db3d 1b77 c0bc a4e0 a8bc
00000290: b0fd f13d c860 92bd 7441 8f3d 907d 67bd
000002a0: 82cc 033e 643c cd3b dc91 6ebd 231f ecbb
000002b0: 211e f13c b8cf 51bd 52a5 e5bc 9d19 833d
000002c0: ea17 bcbc 0515 cbb9 936d 753d 72a9 7a3d
000002d0: 5cc0 38bb 4480 b03c 422c 2b3b 42f0 cab9
000002e0: e7b6 07bb a944 a7bd 8415 a6bc 1dab acbd
000002f0: 196b f3bd 563a 9ebd d34f 62bd 0c77 8bbd
00000300: b748 963d 3fdd 79bd 3bba bc3d 8f11 af3d
00000310: 36eb 67bd 27ab d8bc b881 963d 4c72 0f3d
00000320: 7a52 37bc 7d7b 393d d24c 7c3d 48ea 0dbc
00000330: 1d09 82bd 27cf 9c3d 7e4c a4bc b476 b33c
00000340: a2fc 8dbd 8822 b0bd 99e6 66bd 3eea 3b3d
00000350: 7c83 78bd ce75 323d 6f68 983d c34c a73c
00000360: 3684 ad3d cd6a c33d 5b4f 99bb 3581 b4bc
00000370: 6120 e63c d054 3ebd 11dd aabd 7515 373c
00000380: 1566 c83c bd03 05bc fec0 adbd 3c05 3dbd
00000390: 77ae 63bd b744 8c3d 719a fdbd 7d56 823d
000003a0: 7358 11bb 8321 d23c ed36 5ebd 6a07 febc
000003b0: a71f 873d a728 36bd 5341 ec3c d316 14bd
000003c0: 585b 9cbd 5e92 c0bc e342 81bd 49eb f93c
000003d0: 7fb0 33bd 084d 50bc fcab 81bd 57f1 d3bd
000003e0: 9f71 1fbc 2911 a63b 293f 9c3d 54a0 42bd
000003f0: c1e2 403d 3e6c 43bd 3076 2cbd 8c74 00bd
0.01725501 0.08355637 -0.0483264 -0.06752492 0.0020451762 0.021959098 -0.07245656 -0.060158018
-0.047078684 0.01250193 0.011009083 0.025394812 0.056409243 0.062058613 -0.077347115 -0.06782947
0.0049063154 -0.033465058 -0.021870684 0.017282022 -0.08917363 0.072932236 -0.04790254 -0.09208056
0.11944984 -0.065894105 0.052784435 -0.011754941 0.0479668 -0.03812701 -0.07194616 0.032623675
-0.02656338 -0.0074902745 0.07734487 -0.09471538 -0.0035434584 -0.016391803 0.026924942 -0.09702392
-0.07611171 -0.030039793 -0.050459586 0.070755646 0.0940432 -0.046037376 -0.07053674 -0.10327949
0.102630876 0.03198598 -0.0071319607 -0.11269994 -0.101217784 0.105699725 0.004140002 -0.09050639
-0.01577958 -0.037903465 0.06648016 -0.097550616 -0.009863978 -0.051075976 -0.0734234 0.03356121
0.08806678 -0.11657456 -0.0127839185 -0.08565652 -0.05913452 0.02969969 -0.018100206 -0.0033564796
-0.07026587 -0.05807989 -0.04882812 -0.020674173 0.09087822 0.08412424 -0.05881868 0.016125495
0.032737955 0.09561564 0.022348223 0.091360815 0.07157625 -0.02947059 -0.035264306 -0.09068556
-0.06443084 0.07404058 0.11197395 0.08012638 0.059290197 0.07338196 -0.0642595 0.04540657
0.030923814 0.058654405 0.10897656 0.007807007 0.043268498 0.12484147 -0.037234128 -0.07128742
-0.072377875 0.025057824 0.01634954 0.11192959 0.024394738 -0.053533744 0.0062976545 0.06018134
-0.024191367 0.05942784 0.10818872 -0.034740325 0.09445342 0.00225858 0.04356003 -0.05334167
-0.071633525 0.022703005 -0.083782345 0.10941206 0.06927359 0.10438478 0.044589784 0.050415125
0.06985667 0.029337952 0.03774131 0.05532939 0.008555624 -0.006122907 -0.004054317 0.14366266
0.059368156 0.10292462 0.054542992 0.06361423 -0.05777543 0.036919005 0.07843752 0.10054465
-0.080786295 -0.030125516 -0.12218642 -0.04531759 0.02601079 -0.08912096 0.05047139 -0.055839695
0.06321274 -0.12452375 -0.049908593 0.07625086 0.10971514 0.04454928 0.021106029 0.0038682658
0.008811244 0.107173815 -0.023494294 -0.02061493 0.11815965 -0.07147366 0.06994906 -0.05651623
0.12870982 0.0062633026 -0.05824457 -0.00720586 0.029433312 -0.051223487 -0.028032932 0.0640137
-0.022960622 -0.00038734838 0.05991895 0.061196752 -0.0028190827 0.021545537 0.002611891 -0.00038707448
-0.0020708384 -0.08167393 -0.020273931 -0.08431075 -0.11885662 -0.077259704 -0.055251908 -0.06809816
0.07338088 -0.061002012 0.09215208 0.08548271 -0.0566208 -0.0264488 0.07348961 0.03502111
-0.011189098 0.045283783 0.0615967 -0.008661814 -0.063493945 0.07656699 -0.020056006 0.021907188
-0.069329515 -0.08600336 -0.05637226 0.045877688 -0.06067227 0.04356938 0.07441794 0.020422345
0.08472483 0.09541855 -0.0046786494 -0.022034267 0.028091611 -0.046467602 -0.08342946 0.011174549
0.024462739 -0.008118567 -0.08484076 -0.04614757 -0.055586305 0.06849044 -0.12382973 0.063641526
-0.0022177964 0.025650745 -0.0542516 -0.031009395 0.06597834 -0.044472363 0.028839743 -0.03615458
-0.0763461 -0.023507293 -0.06311586 0.0305077 -0.04386949 -0.012713678 -0.063316315 -0.10348766
-0.009731679 0.0050679636 0.07629234 -0.047516182 0.04709125 -0.04771065 -0.0421049 -0.031361148

net.5.bias f4 [3]
00000000: e645 52bc dc93 49bd e93c 563d
-0.012834048 -0.049213275 0.052304182

exp_avg f4 [32, 120, 2]
00000000: 049b a937 419e 01b8 54fb a139 d2a9 01b8
00000010: cc43 cab9 0385 a638 d948 bb3a f08a 0b3b
00000020: c0ac c039 5a7f 113a 0bfd 78b9 77e4 79b9
00000030: 859c 75b8 16fe 7a38 d4be 9639 c755 b4b9
00000040: 4f83 15b9 1a8d 063a e1e3 0fb6 abff 04b7
00000050: de94 113a 2e8f 7eb9 fc81 39ba bb08 d2b9
00000060: 2392 49b8 1f96 aeb7 3c84 51ba adc7 7eba
00000070: 6859 5c3a 3db2 c639 9077 98ba fe63 1aba
00000080: f66b da38 b674 f439 0584 10b9 ec1a 9b38
00000090: 2230 78b9 cf14 d239 f465 09ba 52b8 253a
000000a0: fa3c 453a bba9 02b8 6ee3 cdb8 5ca1 9cb9
000000b0: e7ab 7aba 9411 13ba 8de9 5739 cda7 3b3a
000000c0: c322 72b9 84bc 203a 7162 f9ba 595b 6738
000000d0: 6d65 3eb9 94ab a3b9 8734 0837 d2d9 f2b5
000000e0: 9d3f 1d38 be55 2136 dd18 a239 9346 a5b9
000000f0: 5990 87b8 f686 e4b9 f9d3 8eba 6c42 4cba
00000100: f04f 6cb8 2e7c db38 839e 17b9 2484 7c39
00000110: 92b0 0dba 8d6e 82b9 c8af 4938 9984 3f3a
00000120: 05da 23ba 5279 57b9 4028 cfb8 dfc4 feb9
00000130: 8d64 a238 1359 2cb9 0000 0000 0000 0000
00000140: d58b f7ba 4ec9 5539 8a3b 9f39 90f4 51b8
00000150: d0b4 f5b9 9468 83b9 e2d2 2d3a 7257 393a
00000160: fe2f c2b9 6d96 f739 26ad d9b8 03e6 f8b8
00000170: cc8e e338 f987 933a 438b eab8 6c74 263a
00000180: 135f b539 309e a438 d8af c337 121c 56b7
00000190: 4179 0c38 0895 84b8 f6a5 d839 93b8 163a
000001a0: 0700 9dba fe9a f2ba 3911 9539 cd9d 1a3a
000001b0: 12b0 8a38 cffc 1f3a 6608 a239 31c8 9f38
000001c0: 69b6 a0b9 6b49 b0ba 9c80 9337 5770 c6b7
000001d0: 304f 3639 6273 10b9 6462 433a a3f3 d039
000001e0: 01ad d93a 8e6d fc3a 0b4b 1436 66d8 9bb6
000001f0: fc76 2a38 d08b 813a 2cc5 0d3a 805e b439
00000200: 6b6c 0cb9 6d3b 97b8 7121 0a38 6d8e 6035
00000210: e359 afba 07b5 7eba 7c2d 2b3b f6e9 bc3a
00000220: eff6 22b8 7763 4039 2a0c ddb8 2e2f 8d39
00000230: d758 2bba 8f07 5c39 df38 6a3a a22f bf39
00000240: 55f8 3eb9 d7d2 c2b9 f7c8 bab7 6bd3 4a38
00000250: b539 17b9 a7c5 3cb9 3151 25b9 ed4f 02b8
00000260: 542f 5338 015a f3b7 56fc c53a 3c40 4039
00000270: f8fb 833a dec4 513a e9bf 9938 8e28 143a
00000280: 3933 3a3a 9881 8339 120a e2b8 3fd3 45b8
00000290: 72e2 43b9 f8bd 75b9 7040 64b7 ba5c bcb9
000002a0: 9fcc 4cb9 3e2b 6139 c8fe b5b9 aadc 08ba
000002b0: fa96 1d3a 3710 1c3b f39a 4a37 6409 a0b8
000002c0: a17e 8eb8 6b9f 1aba 90d2 0f3a 7070 7f39
000002d0: 34d5 b138 3c2f 7cb6 fe28 af37 84f8 db38
000002e0: 4942 923a fe52 0939 8a0e ae35 730e 0739
000002f0: fdae ffb9 9310 43b9 3c42 5f3a 0de6 0b3a
00000300: 898c 1639 b126 8c38 a9bc 18b9 3289 a237
00000310: b775 3bb8 1efa 90b9 9d46 09ba b045 f5b9
00000320: dabc b5b9 65bc 28b9 5c54 1039 06c4 1939
00000330: b00a 4e39 d102 c5b7 7407 05b8 6fc9 5139
00000340: 0c6a 81b8 b6e5 443a b942 02b8 317a bf39
00000350: de36 a639 48f2 0839 bd45 76b7 e715 e238
00000360: b6d1 4d3a 4069 213a f507 6e39 b87e 503a
00000370: e7df 323a 8291 203b 137f 0539 074e c93a
00000380: 5811 1ab9 e18b beb9 dcc6 0739 db0b f639
00000390: fa9e 0a38 37a1 afb8 74ed 7238 eaa8 3f39
000003a0: f3bc f538 ff42 5d38 8c03 56b9 6975 35ba
000003b0: 30e0 f7b9 d300 96b9 7930 fd38 2e68 bd37
000003c0: 50c4 4338 46f1 d8b7 751d c739 923b f3b8
000003d0: 902f b13a 4a0d 2cb9 b589 a03a c3f8 6e3a
000003e0: a986 93b9 f97c 6339 8b28 4bba bd6b 9c38
000003f0: 6770 74b8 a154 b439 1065 093a 2ada 3839
2.0218555e-05 -3.0903382e-05 0.00030895567 -3.0914154e-05 -0.00038578955 7.940272e-05 0.0014288678 0.002129253
0.00036749803 0.0005550288 -0.00023745389 -0.000238316 -5.8558322e-05 5.984128e-05 0.00028752408 -0.00034396184
-0.00014258664 0.000513272 -2.1441303e-06 -7.92734e-06 0.0005553494 -0.00024276666 -0.0007076559 -0.00040060826
-4.8058235e-05 -2.0812322e-05 -0.0007992422 -0.0009719085 0.00084056566 0.000378983 -0.0011632312 -0.0005889534
0.00010415159 0.00046626263 -0.00013782091 7.3959905e-05 -0.00023669054 0.00040069825 -0.00052413275 0.00063217164
0.000752404 -3.115249e-05 -9.817524e-05 -0.0002987486 -0.00095623586 -0.00056102243 0.00020591002 0.0007158488
-0.00023091868 0.00061316066 -0.001902653 5.5159766e-05 -0.00018157596 -0.00031217618 8.118462e-06 -1.8093799e-06
3.749096e-05 2.4040778e-06 0.00030917572 -0.00031523834 -6.4641885e-05 -0.00043588103 -0.0010896913 -0.000779188
-5.6341232e-05 0.00010465864 -0.00014459532 0.00024081819 -0.0005405034 -0.000248779 4.8085843e-05 0.00073058304
-0.0006250444 -0.00020549193 -9.878026e-05 -0.00048593336 7.743491e-05 -0.00016436381 0.0 0.0
-0.0018886278 0.00020388255 0.00030371203 -5.005725e-05 -0.00046864757 -0.00025064184 0.000663085 0.00070702203
-0.0003703832 0.00047223587 -0.00010379618 -0.000118684045 0.000108508015 0.0011255733 -0.00011183929 0.00063497457
0.00034593846 7.849594e-05 2.3327695e-05 -1.276193e-05 3.3491528e-05 -6.32201e-05 0.0004132238 0.00057495496
-0.0011978158 -0.0018509326 0.00028432327 0.0005898148 6.6131484e-05 0.000610304 0.00030905305 7.6189994e-05
-0.00030653484 -0.0013449615 1.7583654e-05 -2.3655752e-05 0.00017386372 -0.00013775894 0.0007453321 0.00039854375
0.0016607345 0.0019258724 2.20974e-06 -4.644552e-06 4.064197e-05 0.0009883586 0.0005408104 0.00034402683
-0.00013391829 -7.21131e-05 3.293291e-05 8.365376e-07 -0.0013378229 -0.0009716306 0.002611964 0.0014412988
-3.8853785e-05 0.000183476 -0.00010540367 0.00026928767 -0.00065363705 0.00020983651 0.0008934866 0.00036465848
-0.00018212323 -0.0003715965 -2.226651e-05 4.835745e-05 -0.0001442198 -0.00018002708 -0.00015765872 -3.1068852e-05
5.0350398e-05 -2.9009769e-05 0.0015105109 0.00018334476 0.0010069599 0.0008002053 7.3313546e-05 0.0005651795
0.00071029697 0.00025082822 -0.000107783955 -4.71652e-05 -0.00018681007 -0.0002343579 -1.3604862e-05 -0.0003592724
-0.00019531183 0.00021473781 -0.00034712837 -0.000522087 0.0006011572 0.0023813376 1.2076215e-05 -7.631144e-05
-6.794674e-05 -0.0005898389 0.00054863933 0.00024360581 8.47973e-05 -3.757842e-06 2.0880714e-05 0.000104890234
0.001115867 0.00013096255 1.2968242e-06 0.00012879986 -0.00048767767 -0.00018602824 0.00085166446 0.00053367094
0.00014357468 6.682927e-05 -0.00014566131 1.9375791e-05 -4.4693905e-05 -0.00027652172 -0.00052366575 -0.00046781963
-0.00034663716 -0.00016091911 0.00013764336 0.00014664241 0.00019649672 -2.3485542e-05 -3.1716612e-05 0.00020006833
-6.170952e-05 0.0007511036 -3.1056556e-05 0.000365214 0.00031702867 0.00013060228 -1.467898e-05 0.000107805994
0.0007851379 0.0006157346 0.00022700413 0.0007953453 0.0006823525 0.0024500792 0.00012731207 0.0015358337
-0.00014693046 -0.00036343842 0.00012948684 0.0004692961 3.3049822e-05 -8.374679e-05 5.791844e-05 0.00018278105
0.00011717705 5.27529e-05 -0.00020409952 -0.00069220975 -0.00047278544 -0.00028610844 0.00012073009 2.2579068e-05
4.6674453e-05 -2.5861558e-05 0.00037978185 -0.00011598239 0.0013518203 -0.00016408149 0.0012248071 0.0009116048
-0.00028138355 0.00021694963 -0.0007749877 7.4587275e-05 -5.8278816e-05 0.0003439533 0.0005241195 0.0001762888

exp_avg_sq f4 [32, 120, 2]
00000000: 23a5 9733 3085 0b35 5e43 a735 fe84 0735
00000010: e486 9237 0ad3 de37 40c8 5a37 50fe 9437
00000020: 3de3 5736 d773 c636 3ac3 3a37 b5e2 d736
00000030: 7797 c235 e55e b135 17bd 0e37 4468 1837
00000040: 7f52 1036 fdbd e035 f89c a131 6897 8532
00000050: 58e6 1b37 39bc 7836 5695 8237 a1e8 a837
00000060: 2a90 3635 2c77 9c35 64e0 2937 18f5 1837
00000070: 169b be37 5322 b037 e05f 0138 0658 c937
00000080: 52e0 5036 5342 3f36 4a63 4734 4f03 b334
00000090: 0509 c437 7f2a be37 5a06 bd37 34d6 b637
000000a0: 18af e336 2edf 1c37 a8f1 a935 ec46 fc35
000000b0: adac d037 f357 a337 e2e5 c337 aa36 1938
000000c0: 7677 6f37 fab4 c137 bebf 5738 f41d 7e38
000000d0: d058 bf36 7990 6d36 ac23 e732 5a6b a932
000000e0: 2d94 9d32 e0a5 a432 fafc 2437 3bb9 2937
000000f0: 4348 1835 6740 9835 2636 b736 7317 bc36
00000100: 954c 2f35 8b22 4d35 c32c 8a34 c31b 2e35
00000110: eb18 9936 454a ea36 fe80 4236 382e ba36
00000120: 8f6c 1036 70b2 1e36 3acd b934 69e0 c935
00000130: ee12 b534 769b ec34 0000 0000 0000 0000
00000140: 9f5d 8d38 6e2c 6038 c024 4d36 3f8b 8a35
00000150: 1e60 d135 e5b1 0136 c04e 0e38 9c06 0938
00000160: cca0 1436 ec92 6136 af2f b435 9f82 d135
00000170: a893 bf36 4b50 2437 dcbb 4736 24df 0e36
00000180: d476 6436 e1c6 1f36 9b3f 0135 68f7 0835
00000190: a6d6 fd35 0a1c fc35 2a48 4038 8e22 dc37
000001a0: a0b4 1d38 3184 2738 1b53 f636 92de fd36
000001b0: 572c 7f36 d510 4536 0835 2836 ae9a 6b36
000001c0: fc21 4a37 3e60 3337 b480 c234 247d 3834
000001d0: 1234 9435 ab5a 1235 596b 8f36 0857 8136
000001e0: 0871 b037 cca2 b537 aaff 5031 cd59 8931
000001f0: 9392 1437 0751 0e37 75ff ac36 a210 8e36
00000200: 6ff1 d036 97c2 0c37 be51 2c33 6878 9432
00000210: 99f5 ac36 b4be 0737 e6f9 d837 c27c cc37
00000220: 7ba5 5c34 13ee 8834 c46e 0437 ee84 cd36
00000230: a582 9b37 6b5d 7237 3cab 6b37 7e14 a136
00000240: 663d 3d37 e9b4 0737 be7e 8134 8406 3b35
00000250: 859e 7e35 1e83 a735 cb16 3934 1fe7 7b34
00000260: f7bd 3534 87ee 9834 9d85 7737 61ce 8e37
00000270: 1cb7 eb37 057b 1b38 ecbc ca34 088d 1636
00000280: 0abe 2338 7bf0 2e38 e97d 9934 a6c5 5e34
00000290: 1877 4a36 8ede d835 73a4 4335 854e 7b35
000002a0: 3fd2 c236 11d0 0137 2c3c ed35 2a70 8136
000002b0: d59c dd36 76ca 5c37 5c2b 0936 6d4a 8036
000002c0: 5e4e 3037 07c3 1537 5bcb b236 f35a 8136
000002d0: 781d c634 7cd3 5134 c152 6536 0d1d b036
000002e0: b776 9b37 5916 8a37 aec4 4e34 0372 7934
000002f0: bedb c436 1356 0337 7acd 2337 6c20 7b37
00000300: 3d26 1f36 ba12 0d36 811a 8b34 b3f4 b634
00000310: c118 0937 cdbc 0437 54ca 1f36 9e1e 0536
00000320: adaf 9e35 8e39 5435 6a76 e835 59ee 3035
00000330: b72f 1f36 fc70 9c35 505e 9135 4a38 9735
00000340: b21b 9836 9560 a336 7660 0a36 5d71 cf35
00000350: ae55 9f36 5b42 3d36 da3a e634 11a6 a834
00000360: 0706 8036 995b df36 482d 5637 02e7 3437
00000370: 7ca3 6c37 059a ad37 b741 a537 92f4 9137
00000380: 08bd 0f37 b433 1937 0794 3635 4ef2 2735
00000390: 4493 a235 6ec0 e935 34a9 2d38 5afe 6238
000003a0: 7495 5635 6fd8 7435 5bba c036 582b 0237
000003b0: 7e5f aa35 a524 5c36 9b89 5a36 aee9 6636
000003c0: 2841 a533 3473 0334 e2d9 bf34 11f6 d634
000003d0: 62c3 6b37 7b78 c936 0183 4536 d42f 8436
000003e0: 6738 1c36 2557 c935 15f7 c536 9a6c 8636
000003f0: f189 8335 ffb0 2b35 eb49 be36 648a ae36
7.0615236e-08 5.197535e-07 1.2462076e-06 5.048495e-07 1.746737e-05 2.6562735e-05 1.3040437e-05 1.7761398e-05
3.2169767e-06 5.9143454e-06 1.1131919e-05 6.4338915e-06 1.4498208e-06 1.3215146e-06 8.5078855e-06 9.084182e-06
2.1505691e-06 1.6744594e-06 4.703562e-09 1.555209e-08 9.292351e-06 3.706444e-06 1.5566748e-05 2.0135487e-05
6.801007e-07 1.1657589e-06 1.012543e-05 9.116971e-06 2.2721983e-05 2.0996818e-05 3.0845287e-05 2.4002056e-05
3.1124987e-06 2.8499824e-06 1.856944e-07 3.3343755e-07 2.336922e-05 2.2669554e-05 2.2533513e-05 2.1795837e-05
6.785511e-06 9.350288e-06 1.2661812e-06 1.8796104e-06 2.487594e-05 1.9472069e-05 2.3352859e-05 3.6528952e-05
1.4273324e-05 2.3091667e-05 5.143857e-05 6.0586215e-05 5.7025827e-06 3.5399846e-06 2.6908161e-08 1.9723007e-08
1.8344588e-08 1.9167544e-08 9.834062e-06 1.0116312e-05 5.672957e-07 1.1343626e-06 5.4601287e-06 5.6055665e-06
6.530402e-07 7.641872e-07 2.5737071e-07 6.486045e-07 4.562656e-06 6.9823896e-06 2.8983336e-06 5.5486125e-06
2.1520862e-06 2.36477e-06 3.4608257e-07 1.5040979e-06 3.372765e-07 4.4071538e-07 0.0 0.0
6.740842e-05 5.344714e-05 3.0568772e-06 1.0322327e-06 1.5599687e-06 1.9326046e-06 3.392878e-05 3.26695e-05
2.2147315e-06 3.3613132e-06 1.3424923e-06 1.5609729e-06 5.709433e-06 9.793856e-06 2.976266e-06 2.1289534e-06
3.4043815e-06 2.380861e-06 4.8148803e-07 5.102397e-07 1.891244e-06 1.8783624e-06 4.5843575e-05 2.6242134e-05
3.7599937e-05 3.9939016e-05 7.341046e-06 7.565898e-06 3.802377e-06 2.9365085e-06 2.506482e-06 3.5107764e-06
1.2048051e-05 1.069164e-05 3.622896e-07 1.7181861e-07 1.1042014e-06 5.452118e-07 4.274229e-06 3.8546314e-06
2.103347e-05 2.165269e-05 3.0413312e-09 3.997434e-09 8.855614e-06 8.482725e-06 5.1557386e-06 4.233866e-06
6.2269896e-06 8.389957e-06 4.0121215e-08 1.7284222e-08 5.154591e-06 8.091029e-06 2.5865575e-05 2.437679e-05
2.0549298e-07 2.5505196e-07 7.893603e-06 6.124951e-06 1.8538276e-05 1.4446075e-05 1.404696e-05 4.8005595e-06
1.1279573e-05 8.0887485e-06 2.412034e-07 6.967241e-07 9.485305e-07 1.248063e-06 1.723776e-07 2.3460278e-07
1.6926047e-07 2.8485758e-07 1.47534565e-05 1.7023822e-05 2.809945e-05 3.706945e-05 3.776289e-07 2.2433833e-06
3.9039216e-05 4.1708798e-05 2.8590082e-07 2.0747265e-07 3.0169667e-06 1.6158026e-06 7.2882466e-07 9.361905e-07
5.8061264e-06 7.737443e-06 1.7675388e-06 3.857557e-06 6.604571e-06 1.3160161e-05 2.043983e-06 3.8233616e-06
1.0508664e-05 8.9265e-06 5.328487e-06 3.8550875e-06 3.6901815e-07 1.954158e-07 3.4171828e-06 5.2485907e-06
1.853272e-05 1.6461288e-05 1.9256797e-07 2.323141e-07 5.8668365e-06 7.828249e-06 9.763398e-06 1.4968315e-05
2.3715104e-06 2.1021538e-06 2.5910052e-07 3.4078184e-07 8.1716e-06 7.911772e-06 2.3810617e-06 1.9836366e-06
1.1823046e-06 7.905991e-07 1.731981e-06 6.591195e-07 2.372062e-06 1.1655789e-06 1.083079e-06 1.1266759e-06
4.533177e-06 4.869022e-06 2.061975e-06 1.5455695e-06 4.7485437e-06 2.8201819e-06 4.288366e-07 3.1413268e-07
3.815399e-06 6.6565813e-06 1.2765937e-05 1.0782622e-05 1.410476e-05 2.0694928e-05 1.9700134e-05 1.7399234e-05
8.5674765e-06 9.131549e-06 6.801569e-07 6.256495e-07 1.21128e-06 1.7415857e-06 4.1403997e-05 5.4119482e-05
7.9938695e-07 9.1212036e-07 5.7437405e-06 7.758696e-06 1.2693779e-06 3.2803885e-06 3.2564628e-06 3.440869e-06
7.695263e-08 1.2242236e-07 3.5735053e-07 4.0039643e-07 1.4052583e-05 6.0042926e-06 2.9431542e-06 3.9394745e-06
2.3278642e-06 1.5001029e-06 5.8998216e-06 4.006154e-06 9.800407e-07 6.396003e-07 5.6710464e-06 5.201715e-06

exp_avg f4 [32]
00000000: 0c4f 8d3b 0ac9 d23a 7dc2 723b abcb 293c
00000010: 0239 6c3c 809e dcbb 40ba 623b 68cd 873b
00000020: bf43 60bb f42d 0d3c 51eb 503b 5ef8 c0b7
00000030: 4d03 34ba 5a84 813c 0e95 e0bb 2dc2 603c
00000040: f1cf 8dbc 423a 643a 830a 983b 0c10 a63b
00000050: dc9e 883b eeb9 3fbb 094a e73b ef3d 2dbc
00000060: 3976 2c3c 1970 1d3a d389 283c 4e6a 82ba
00000070: fc3c 03bb 69bb 583c 9dea 34bc 6443 dbbb
0.0043124016 0.0016081643 0.0037042194 0.0103635 0.014417889 -0.006732762 0.0034595877 0.0041443594
-0.0034220067 0.008616913 0.003187854 -2.3003839e-05 -0.0006866947 0.01581018 -0.006853706 0.01371817
-0.017311068 0.0008706191 0.004639925 0.005067831 0.004169328 -0.002925511 0.007058386 -0.010573848
0.010526233 0.00060057786 0.010286766 -0.0009949894 -0.0020025363 0.013228276 -0.011042264 -0.006691383

exp_avg_sq f4 [32]
00000000: 4ece ff39 1279 0239 41c2 f438 5303 4d3b
00000010: dd43 863b 5641 803a bd2d 803a c998 a439
00000020: 5bd4 7c3a c135 0a3b 8638 a339 ad78 ba38
00000030: 5500 5037 be00 7f3b e797 3c3a 65b7 b63b
00000040: bff2 9e3b 2bae 8838 2f69 9d39 d31d c639
00000050: afac 253a 80aa d538 07da 0a3a 8564 323b
00000060: 1825 6e3b 9ab8 0339 0b9e 5a3b 0bb4 1939
00000070: 9d1f 8938 99bf 723b f63c 083b 7c94 053b
0.000487911 0.00012442868 0.00011671009 0.00312825 0.0040974454 0.0009785097 0.0009779256 0.0003139435
0.00096446805 0.0021089169 0.00031131896 8.891649e-05 1.2397843e-05 0.0038910354 0.0007194266 0.0055760616
0.004850715 6.517427e-05 0.0003002374 0.00037787724 0.00063199823 0.000101883896 0.0005296771 0.002722056
0.0036338028 0.00012561903 0.003335836 0.00014658288 6.5385575e-05 0.003704047 0.0020788289 0.0020382693
