data/Figure3_Supplement/015/checkpoint_0000500.pth (torch, 220026 bytes, 31 tensors)

net.0.weight f4 [32, 120, 2]
000000 51 d3 2a bd 49 f4 ad 3a 8a 75 96 bb c9 51 b5 bd
       -0.041705433 0.0013271655 -0.0045916485 -0.0885349
000010 7a 09 60 bd 12 ff 9e bb 66 f7 4b 3a d6 3a 08 3d
       -0.054696538 -0.004852184 0.00077807007 0.033259235
000020 c6 12 ee bc 5c 42 4b 3d 22 ba 42 3d 53 c9 85 bd
       -0.029061686 0.049623832 0.04754079 -0.0653254
000030 f9 44 41 bd d6 f5 e6 3b a6 fb b6 bd fc 7e e9 bc
       -0.047184918 0.007048349 -0.08934717 -0.028502934
000040 d1 67 86 bd 1b dc 26 bb 71 93 e5 bc 9f 9d 29 bd
       -0.0656277 -0.0025460783 -0.028024407 -0.041410085
000050 b9 b2 a6 3c 23 47 9b bd 12 e7 f3 bc 48 fc 18 3d
       0.020348893 -0.075819276 -0.029773269 0.03734997
000060 e1 30 91 3b f8 b6 72 bd cf ac d7 bc 71 57 7a bd
       0.0044308756 -0.059256524 -0.026327519 -0.061118547
000070 c9 84 49 bd 23 17 7e 3d c3 ca b3 bb d7 f9 a0 bc
       -0.0491989 0.062033784 -0.0054868176 -0.019650383
000080 d3 cd 8b 3d c0 1c 07 3d de a8 36 bc 01 b1 4f 3c
       0.06826367 0.032986403 -0.0111486595 0.012676478
000090 e7 7d 61 3c dd ca 19 bd fa 1e 6a 3c cb ae d8 bc
       0.013762928 -0.03754698 0.014289612 -0.026450535
0000a0 bd 64 fa 3b ee 36 82 3d ad dc 7e 3c 43 1f 5f 3d
       0.0076414035 0.06358133 0.015555543 0.054473173
0000b0 0f 99 38 bd fe 9d 8b bd f8 3a 8f bd 70 f1 31 bd
       -0.045067843 -0.06817244 -0.06993669 -0.043443143
0000c0 ac 58 29 3c 0e 30 af 3b 15 e5 57 3d 49 60 31 3d
       0.010336082 0.0053463047 0.052708704 0.043304715
0000d0 e6 a3 6b 3d 96 4d 12 bc 7d 12 fb 3c 18 df e7 3c
       0.057529353 -0.008929631 0.030648464 0.028304622
0000e0 1a 11 d3 bc 36 0b 30 bd e2 42 fe 3c 21 b8 57 3c
       -0.02576499 -0.04297944 0.031037752 0.013166458
0000f0 89 8a bc bd 9b 36 59 3d f9 a7 1d 3c f5 96 16 3d
       -0.09206111 0.05303059 0.009622567 0.036765058
000100 ea de 8e 3d 9f f4 35 3c 13 d7 d3 3b 9a 8d 97 bc
       0.06976111 0.0111056855 0.006464848 -0.018500138
000110 5b 9b 1b bd 8d f4 23 bd f8 f0 03 3d 44 c1 0d bc
       -0.037989955 -0.040028144 0.032212228 -0.008652035
000120 f4 1c 88 bb ec c8 28 3d e3 68 91 bc c3 46 42 3d
       -0.004153842 0.04120724 -0.01775021 0.047430765
000130 04 4f 57 bd 1e 71 14 bd a4 0c 45 3d fc fa 63 bd
       -0.05256559 -0.03624069 0.04810776 -0.05565928
000140 c7 08 a1 3d d6 74 4f bd b4 54 7e 3d e0 ad 93 3c
       0.07863002 -0.050648533 0.062092498 0.018027246
000150 e1 cb 40 3c 26 33 6f bc 92 75 a1 3d b5 8f 82 3d
       0.0117673585 -0.014599597 0.07883753 0.06375066
000160 ff ec c5 bc 3f 44 0c 3d fe fa 18 bd fd 2e 16 bd
       -0.02416086 0.034244772 -0.03734874 -0.036665905
000170 e1 a1 98 ba 24 35 7a 3d a5 ed 47 3d 5f a0 a6 3c
       -0.0011644923 0.061085835 0.04881062 0.020340143
000180 cd d6 1d bc 90 28 3b 3c 1a 03 1d bd 4b f2 22 3d
       -0.009633732 0.011423245 -0.038333036 0.03978185
000190 01 13 85 bc 7f af 8a 3d 79 c6 f3 bc f8 57 d7 3c
       -0.016244413 0.067717545 -0.029757725 0.026287064
0001a0 85 9e cf bc 2d 68 be bc 47 32 3a 39 6e 5e 54 bc
       -0.025344143 -0.023243034 0.00017757072 -0.012961967
0001b0 1d 0e 17 bc 99 bc 0d bd 5e c1 e7 bc 54 d2 a0 3c
       -0.009219673 -0.03460369 -0.028290447 0.019631542
0001c0 53 35 1e 3d 43 ac 94 3d 1b db 25 3d 22 5d 62 bc
       0.038625073 0.07259419 0.04049216 -0.01381615
0001d0 4a 9f 89 3a bc 49 a6 bd a6 10 50 3d 00 d1 a1 b9
       0.0010499742 -0.081195325 0.050797127 -0.0003086403
0001e0 ae ab 15 3d 5e e6 cf bc 5a 22 89 3d 86 a0 1c 3d
       0.03654068 -0.025378402 0.06696005 0.038239025
0001f0 e1 22 16 bc 65 7d 97 ba 88 c5 78 bb ef 02 1f bd
       -0.009163589 -0.0011557756 -0.0037959535 -0.038821157
000200 7a 7c ec b8 7c d8 a8 3c 91 c7 a4 3d 11 e0 bc ba
       -0.000112765425 0.02061104 0.08045877 -0.0014410039
000210 9a dc 64 bd fd e9 93 3d 53 2f c2 bc 0f c1 50 bd
       -0.055874445 0.07222364 -0.023704207 -0.050965365
000220 7e 9e 97 bc f4 ac f2 bc df da 1e 3d 38 25 96 3b
       -0.018508192 -0.029623486 0.03878295 0.0045820735
000230 4b 76 ea 3c 5b e8 ac bb 1e 3d 54 3d fc 7e a7 bc
       0.02862086 -0.0052767224 0.0518161 -0.020446293
000240 16 62 82 3d 87 61 fa 3c c2 e6 53 3c 1e c6 43 bd
       0.06366365 0.030564083 0.012933435 -0.04779636
000250 40 59 a1 bd 94 ef e9 bc 27 31 03 bd a0 cd 45 3d
       -0.07878351 -0.028556623 -0.032029297 0.048291802
000260 62 b7 c4 3b e2 c5 46 3d 09 7c ee 3b d2 f8 1f 3d
       0.0060033062 0.04852856 0.0072779697 0.039055653
000270 84 5c 88 bd af 31 80 bd d8 01 8d bd bc 14 c4 3b
       -0.06658271 -0.062594764 -0.06885117 0.005983917
000280 8d 14 2d 3d dd 11 91 3c c0 37 47 3d 40 04 0c bd
       0.042255927 0.017708713 0.04863715 -0.03418374
000290 a0 37 e0 bb c4 c4 2c b9 8d 78 57 bd 86 a8 51 3d
       -0.0068425685 -0.00016476499 -0.0526052 0.051186107
0002a0 fb 38 16 bd 77 6d 87 bd 5a 4f 47 bd 26 8b 71 3d
       -0.036675435 -0.06612676 -0.04865966 0.058970593
0002b0 e2 2a 21 bd 99 e0 33 3d 1b 5e 81 bc 6f 39 77 bd
       -0.039347537 0.043915365 -0.015791943 -0.060357507
0002c0 4b d0 cb b9 74 b3 0b 3c 8a 82 c1 bb 71 50 ab 3b
       -0.00038874368 0.008526672 -0.005905454 0.005228095
0002d0 94 42 9c 3d cc 37 ac 3d b5 ef 47 3d 17 24 4f bc
       0.07629886 0.0840908 0.048812587 -0.012642882
0002e0 f9 71 b9 bc c1 5c 04 3d 48 03 aa bd f6 df f0 bd
       -0.022637354 0.03231502 -0.08301407 -0.11761467
0002f0 5b 85 07 3d 3a dc 81 3d 1c fb 15 bc 3e e1 6b 3d
       0.033086162 0.06340833 -0.009154107 0.057587855
000300 87 b3 02 3d b6 45 1c bd c7 12 dd ba 35 1d 32 bd
       0.031909492 -0.03815242 -0.0016866558 -0.043484885
000310 f0 1b 78 bc 18 bf c7 bc cb 05 8d bc 3e 91 34 bd
       -0.01514338 -0.024383113 -0.017214676 -0.044083826
000320 cf 27 dc 3c da 9d b8 bc 54 10 95 3c 39 f6 8b bd
       0.026874451 -0.022536207 0.018196262 -0.068340726
000330 84 dd 73 3c 82 87 3c bd c2 ee 1f bd 4a 58 2b bd
       0.014884356 -0.046027668 -0.039046057 -0.041832246
000340 3f b6 89 bd 11 c2 77 3c 70 96 2a 3b 1e f8 3e bd
       -0.06724214 0.015121953 0.002602961 -0.04662334
000350 bd a5 db bc cb 85 33 bd d4 b7 2b 3d 59 eb 09 3d
       -0.026812429 -0.043828767 0.04192336 0.03367171
000360 9d 78 df 3b 60 41 69 3d db d6 bc 3b c9 87 7f bd
       0.006819798 0.056947112 0.0057629175 -0.062385354
000370 c9 25 8f bd a0 7f 1b 3c 66 c8 f8 bc b5 a0 54 bd
       -0.06989629 0.009490877 -0.030368995 -0.051911075
000380 c9 e5 2a bd 51 db 1c 3d bf 10 11 3c c9 7d 91 bc
       -0.041723046 0.038295094 0.00885409 -0.017760174
000390 cf 8c 92 bd 11 f9 8f 3b 81 bb 59 bc 13 4d 95 bb
       -0.07155763 0.0043937047 -0.013289333 -0.004556307
0003a0 45 1b 3a 3d 25 1f 91 bc bd 44 9d bc 27 0b d8 3c
       0.045436163 -0.017715046 -0.019197816 0.026372505
0003b0 d8 2a b7 bd a8 f5 74 3d 41 b9 1a 3c f4 e7 43 bd
       -0.08943719 0.05980459 0.009443582 -0.04782863
0003c0 29 c4 87 bb 2a 48 50 bc 17 3b 6a bd c7 9a 8b bd
       -0.004143257 -0.012712518 -0.05718526 -0.06816631
0003d0 b8 1b 4f 3d b0 94 94 bd e7 0c 24 bd 99 49 32 bd
       0.050563544 -0.072549224 -0.040051367 -0.04352722
0003e0 3f c7 1a 3d 6b 5e 1e bd 30 83 4c 3d 52 b0 dd 3a
       0.037787672 -0.038664263 0.049929798 0.001691351
0003f0 5e a6 c6 3c c7 db 38 bd a0 e9 75 3d 34 79 1d bb
       0.024249252 -0.04513147 0.060037255 -0.0024028542

net.0.bias f4 [32]
000000 3b 52 a4 3c 3d ba ec bc 65 21 8a 3b 4d 83 53 3d
       0.020058742 -0.0288974 0.0042154067 0.05163889
000010 f3 fa 88 3c da 46 5f 3d e6 9c 4b 3d 4b 9b 18 3d
       0.016721224 0.05451093 0.049710177 0.037257474
000020 ea 86 2c bc 67 cb 03 bd 8b 30 97 3c c1 24 c2 3c
       -0.010530213 -0.0321764 0.018455764 0.023699166
000030 1a 42 39 bd e7 98 9a 3c 40 78 1d bd e4 2f 57 3c
       -0.045229055 0.018871738 -0.038444757 0.013133977
000040 58 03 9a bb bb e8 63 bd 66 56 af bc 78 75 5f bd
       -0.0047001056 -0.05564187 -0.021403503 -0.054555386
000050 27 b4 70 3d 28 14 a0 3b ba f1 7b 3b c7 29 95 3b
       0.058765557 0.0048852153 0.003844364 0.0045520994
000060 83 f1 83 3c 77 51 25 3c c6 08 f6 bb 86 6a e6 ba
       0.016106373 0.0100902235 -0.00750837 -0.0017579354
000070 16 b6 c5 bb 2d f1 3e bd 2e 81 1b 3d 43 1a 84 3d
       -0.006033669 -0.046616722 0.037964992 0.064503215

net.2.module.0.weight f4 [32, 32, 3]
000000 e9 b2 97 bd a7 c7 4a 3d 7f c2 a6 bd 23 0b 45 bd
       -0.07407171 0.04950681 -0.08142566 -0.048106324
000010 f8 76 65 bd af 8b d9 3c 66 a6 95 3d fd 14 18 3c
       -0.05602166 0.026555864 0.073071286 0.009282348
000020 56 0b 91 3d bb c8 11 3d 7c d9 cd 3b 15 c9 99 3c
       0.0708224 0.035591822 0.0062820297 0.018772641
000030 ad 79 91 3d ff 8e a7 3d 44 50 c9 3d 9e ed cd 3d
       0.07103286 0.08181571 0.098297626 0.100550875
000040 c4 f6 21 bc d3 2c 3b bd 64 c9 94 bd 13 2a dd 3d
       -0.009885494 -0.045697045 -0.07264975 0.10799041
000050 be ce 0b 3e 25 dd 15 bd 9a 94 50 bd 2b 82 44 bd
       0.13653085 -0.036587853 -0.050922967 -0.0479757
000060 65 13 56 bb 48 89 b2 3d 0f 75 a1 3c 68 3c 8c bd
       -0.0032665369 0.087175906 0.019709138 -0.06847459
000070 04 61 a3 3d 72 62 fb 3c 30 da 65 3b 01 eb bb bc
       0.07977489 0.03068659 0.0035072677 -0.022939207
000080 7a eb 8d bd c3 76 01 3d 9b 36 50 3d df c7 e9 3d
       -0.06929679 0.0316074 0.050833326 0.114150755
000090 3f f1 b5 bd 80 b0 5c 3d 60 b5 d0 3c 0e e1 85 3d
       -0.08883905 0.05387926 0.025477111 0.065370664
0000a0 3d b6 a9 3d d0 be f8 3d 8b ea 76 bc ed 61 10 bc
       0.08286712 0.121457696 -0.015070568 -0.00881241
0000b0 06 ca 48 bd 6e 15 90 3b 80 d0 7e 3d 7d 58 ac 3d
       -0.04902079 0.004397086 0.06221056 0.08415315
0000c0 c8 49 d6 bc 42 c8 3f 3d 13 87 d5 bd cb 90 c7 bd
       -0.026158229 0.04682184 -0.10426154 -0.09744414
0000d0 25 95 99 3d d8 9b 61 bd af 1b a4 bc 26 16 20 3d
       0.0749915 -0.055080265 -0.020032732 0.039083622
0000e0 91 4d aa bd 42 9e c1 bd 1a be c0 bd ef f3 19 bc
       -0.08315576 -0.094540134 -0.09411259 -0.009396537
0000f0 f4 6a 96 bd fa df 50 bc 38 d9 85 3d bb 9b 57 3d
       -0.073446184 -0.012748713 0.06535572 0.05263875
000100 73 a4 ad bc 80 e4 04 be 3d 0d 54 bd 45 80 08 3d
       -0.02119658 -0.12977791 -0.051770438 0.033325452
000110 e5 14 14 3d f9 28 05 be 6d 2d ab bd c4 28 8e bd
       0.03615274 -0.13003911 -0.08358274 -0.06941369
000120 56 6a 4d 3d a3 bf ef 3c 9e 44 58 3c 3e 52 e8 3b
       0.050150238 0.029266184 0.013199953 0.007089882
000130 24 a4 12 bb 58 25 a0 bd fc 82 b9 bd f4 a7 6b 3d
       -0.0022375667 -0.07819623 -0.090581864 0.05753322
000140 73 12 d7 3c ba 83 88 bc 67 ee 00 3d e9 1e 62 bc
       0.026253914 -0.016664375 0.03147736 -0.013801315
000150 fd 24 b3 bc 38 d3 1c bd 79 e3 a5 bd c7 6e 1e 3d
       -0.021868223 -0.03828737 -0.081000276 0.038679864
000160 4e b6 6d bd 5e f4 04 3e c7 ab 8c 3c 5d d6 c1 3b
       -0.058035187 0.12983844 0.017171754 0.0059154467
000170 75 97 81 bd dd b7 a6 bd 1c 82 aa bc 3e 3f 8d bc
       -0.06327716 -0.08140538 -0.020813994 -0.01724207
000180 fa 7b 97 bd d3 bb 8f bd 3a 80 49 bd 2a d3 86 3d
       -0.073966935 -0.070182465 -0.049194552 0.06583245
000190 7b 39 21 3d 0b fb 0e bd 99 62 87 3d d9 65 9b bd
       0.03936146 -0.034907382 0.06610603 -0.07587785
0001a0 8f 26 c2 3d 58 11 49 bc f8 ea a3 3d 1f a3 7e bd
       0.09480011 -0.0122722015 0.08003801 -0.062167283
0001b0 76 47 6c bd ff 5e c0 bc 51 f4 33 3d b3 e1 46 3d
       -0.057685338 -0.023482798 0.04393417 0.048555087
0001c0 83 28 c3 bc a3 9a 70 bd 65 be 36 3d b0 a4 c0 bc
       -0.023823028 -0.058741223 0.044615168 -0.02351603
0001d0 48 1b 1c bd 9f 70 05 bc f1 14 3b 3d 17 f1 46 3d
       -0.038111955 -0.008144527 0.04567427 0.048569765
0001e0 a9 3f 21 3d ca 48 5a bc 78 84 39 bd 91 e4 b2 bd
       0.03936735 -0.013323018 -0.045292348 -0.08735002
0001f0 49 48 ab bd 4a 81 8b 3d 6a 1d a9 3d ee 2a 38 3d
       -0.08363397 0.06811769 0.082575634 0.044962816
000200 e9 c1 95 3c 84 0b f5 3b f2 69 36 bd e4 ea 80 3d
       0.01828094 0.0074781794 -0.04453463 0.06294802
000210 0c 9c d6 3b 58 80 ad bd b4 86 0a bc 53 29 eb bc
       0.006549364 -0.08471745 -0.008454967 -0.028706228
000220 f3 65 ae bd 49 5f 1f bd 0b 8b 1b 3d c3 80 38 3d
       -0.08515539 -0.03890923 0.0379744 0.04504467
000230 a1 3f 8c bd 0b 33 50 bd 5d 67 1e bc 59 75 50 3d
       -0.06848074 -0.05082993 -0.009668198 0.05089316
000240 65 a9 81 3d 35 f5 13 bd c9 83 f3 bd ba ae b9 3d
       0.063311376 -0.03612252 -0.118903704 0.090665296
000250 3b 36 f3 bb 40 f9 21 3d 0c 42 bb 3d 32 d2 7d bd
       -0.0074222363 0.039544344 0.09143457 -0.061968036
000260 e4 2c 7b bd ed 08 0b bd b7 59 bd 3c 87 b1 c7 bd
       -0.061322108 -0.03394406 0.023114068 -0.097506575
000270 af 7a 92 bd ff a8 f2 3c 5a f6 71 3a 0c 8e 85 3d
       -0.07152306 0.0296216 0.00092301297 0.06521234
000280 80 59 8d bd f9 29 1f bd e4 78 c9 bd 2d c0 3c 3d
       -0.069018364 -0.038858388 -0.09837511 0.04608171
000290 e4 4b c1 3d 2a 9a 86 3d dc cf e6 3c 1e d1 4b bd
       0.09438303 0.06572373 0.028175287 -0.049759977
0002a0 16 96 5d 3d df ac 3a 3d 94 c5 e6 bb 6e f5 97 bd
       0.05409821 0.04557502 -0.007042596 -0.07419859
0002b0 9a db 47 3d 75 8e 3f 3d 6d 7b 06 3d 84 ea 3d bc
       0.048793413 0.046766717 0.03283255 -0.011591557
0002c0 23 2f 0e bd 4e e6 e1 bc d1 55 15 bd 69 6a bf 3d
       -0.03471292 -0.027575638 -0.036458794 0.09346468
0002d0 7f 24 5e bd 9a fb f5 3c 25 3c 8d bc 22 4b 5a bc
       -0.054234024 0.0300272 -0.017240593 -0.013323577
0002e0 94 f0 14 bd 59 0d 96 3a b5 2a ce bc e5 96 9a 3d
       -0.036362246 0.001144807 -0.025166849 0.07548312
0002f0 89 90 b6 bd ae e6 0b bd 4b 35 88 3d 29 c8 ea 3c
       -0.08914287 -0.03415554 0.0665079 0.028659897
000300 c7 f1 25 bd 63 37 6f bc 01 1f 30 bd dd b1 c8 bd
       -0.04051378 -0.014600608 -0.042998318 -0.0979955
000310 03 21 86 bd 78 db bf 3c 1f 98 02 3d 58 47 c2 bd
       -0.06549265 0.02342008 0.031883355 -0.09486264
000320 08 c0 56 bd c3 d8 e7 bc c1 cc 93 3d 0c 30 78 bd
       -0.05242923 -0.028301602 0.07216788 -0.060592696
000330 e3 3e ab bd 80 27 39 3d 8c 71 d2 bd e1 8f 0e bd
       -0.08361604 0.045203686 -0.102755636 -0.034805182
000340 8f e0 80 bb 34 37 0d 3d e2 f9 e3 bb 68 2e b5 3c
       -0.0039330195 0.034476474 -0.0069572786 0.022116855
000350 6d 01 e2 bd 87 42 98 3d c4 a2 da bc fb af c5 bd
       -0.11035428 0.07434564 -0.02668894 -0.09652706
000360 cd d9 b6 3d 04 07 9b 3d ce 28 bd 3d ef a1 22 3c
       0.08928261 0.075696975 0.092362985 0.009926303
000370 c9 37 94 bd 14 31 8d bd 61 26 58 3d 09 0e b0 3d
       -0.07237203 -0.068941265 0.052770976 0.08596427
000380 39 b3 0e 3c 9e fd 1a 3c b8 18 a4 3a 18 f6 56 3d
       0.008709722 0.009459881 0.0012519574 0.052480787
000390 6e 7b d7 3d 4b f0 b0 bd cb 7b 08 3d 00 02 bf bd
       0.10521589 -0.08639582 0.033321183 -0.09326553
0003a0 93 49 25 bd a8 0e 00 bd 71 6d d1 3b 65 d1 78 3d
       -0.04035337 -0.031263977 0.0063912203 0.06074657
0003b0 37 24 bf 3d 45 6f a7 bd c0 b6 db 3c 64 54 48 3d
       0.09333079 -0.0817552 0.02682054 0.048908606
0003c0 e6 fd 53 bd b0 91 74 3b 2a 35 8b 3d 1f 96 a1 3d
       -0.05175581 0.0037318282 0.067972496 0.078899615
0003d0 a1 e1 bf 3b dc 68 8a bc 5c b7 9a bd 23 f0 7e bd
       0.0058557545 -0.016895704 -0.07554504 -0.06224073
0003e0 6b 98 9e 3b 87 a6 95 3d c6 5e 17 3d f0 b4 a9 bc
       0.004839947 0.07307153 0.036955617 -0.02071616
0003f0 39 69 e8 bd 76 ec e8 3d 48 0f 98 bd 86 67 59 bd
       -0.11348195 0.11373226 -0.0742479 -0.053077243

net.2.module.0.bias f4 [32]
000000 ac 59 bb bd c8 2b 18 3d b5 7d 2d 3d ba d0 8a bd
       -0.09147963 0.037151128 0.04235621 -0.06778093
000010 15 5a 56 3d 71 2d 67 bd db 93 47 3d c0 59 79 3d
       0.052332003 -0.05643982 0.04872499 0.060876608
000020 8f 0d 9c bd 8d 15 9c 3d 22 b1 44 3c 7a c1 44 3d
       -0.076197736 0.07621298 0.012005122 0.048036076
000030 9e d5 ce 3d 4f fe 7c 3a 8d e8 30 bd 87 30 99 bd
       0.10099338 0.0009650932 -0.043190528 -0.07479959
000040 1a d3 4b bd 1c 17 e5 bc e6 e6 90 3d 7e cf c0 3d
       -0.04976187 -0.027965121 0.070752904 0.09414576
000050 89 f0 03 bd c6 f6 a0 bd 72 08 8e 3d 86 73 da 3b
       -0.032211814 -0.07859568 0.069352046 0.0066666035
000060 44 d8 bd bc b6 8e ce bd a4 ec e0 bc a2 59 41 3c
       -0.023174413 -0.10085814 -0.027456589 0.011801155
000070 10 70 95 bd cd 26 b8 3c c5 32 3e bc 23 ac 0e bc
       -0.07296765 0.02247944 -0.011608784 -0.008708033

net.3.module.0.weight f4 [32, 32, 3]
000000 45 a9 16 bd d8 94 d2 3b 7e 1b b0 3d 3e bd 1b bd
       -0.03678252 0.006426435 0.08598994 -0.038022272
000010 c9 63 ad bd 90 5b 4e 3c 51 b5 a9 3d 61 45 3f bd
       -0.08466298 0.012595072 0.082865365 -0.046697024
000020 e9 e1 3c 3d b9 41 56 bd 31 67 fa bc a1 a3 2d 3c
       0.046113882 -0.05230877 -0.030566784 0.010598094
000030 dc 7a 2b 3d 5e 8e 11 3d 21 5b c2 3d c3 43 aa bd
       0.041865215 0.035536163 0.09490038 -0.08313706
000040 6e 4c a2 3d 1f 04 e0 bd a4 36 19 3d a4 46 9f 3d
       0.07924734 -0.10938286 0.037405625 0.077771455
000050 78 04 b4 bb c7 1b 8d 3d 47 79 a9 bd 59 41 94 3d
       -0.005493697 0.06890064 -0.08275085 0.072390266
000060 41 19 aa 3d c8 c7 05 bd 8c 4c 06 be 5c 11 be bd
       0.08305598 -0.03266123 -0.13115138 -0.09280655
000070 fc e3 02 3d 89 3a b5 3d 9f 83 b1 3d 13 0d 6a bc
       0.031955704 0.08849055 0.08667683 -0.014285344
000080 d5 83 dc 3d 99 82 e9 3c 56 ed b1 3b 96 15 d9 3d
       0.107673325 0.028504657 0.005429904 0.1059982
000090 88 3d 2c 3d 9f d0 e3 bc f4 1f 75 3d 34 75 2a 3d
       0.04205087 -0.02780944 0.059844926 0.04161568
0000a0 17 3c 4c 3c a6 ea d4 3d a9 8e 44 bd 08 a6 f9 bd
       0.012465498 0.10396318 -0.047987614 -0.12189871
0000b0 ab fb 8b bd 8d 44 36 3d 78 2c c9 3d fa 12 30 bd
       -0.06835111 0.04449897 0.09822935 -0.042986847
0000c0 85 87 ad bd 15 f2 4a bb e3 d5 52 bd e5 95 c0 3d
       -0.08473114 -0.0030967046 -0.05147351 0.0940359
0000d0 b5 77 8e bd 3b 6a c3 bd bf f7 93 bd b8 64 a9 3d
       -0.06956426 -0.09541746 -0.07224988 0.08271164
0000e0 a5 77 f1 3d 85 f0 22 3d 8e 12 7e bd 28 b2 6d 3d
       0.117903985 0.03978016 -0.062029414 0.05803123
0000f0 7f 8b 23 bd 3a 3e da 3c 2a fc 05 3d 7a 5a 88 bd
       -0.039927956 0.026641 0.032711186 -0.06657882
000100 36 68 14 3d 46 24 83 3d 53 3c aa bd ef 0d 84 bd
       0.036232196 0.06403403 -0.08312287 -0.0644797
000110 a2 ba 3a 3c f3 3a 8d 3d 7a 88 28 3c 39 42 ee bc
       0.011397036 0.06896009 0.010286445 -0.029084312
000120 bb d0 99 bd c3 f4 8b bc af ac 72 3c 0a 6d 91 3d
       -0.07510515 -0.017084485 0.014811679 0.07100876
000130 e9 1d 7c 3d 65 95 9f bc 84 2e d0 3b 34 6b 80 bc
       0.061551962 -0.019480417 0.0063532013 -0.015676118
000140 59 af 00 bd 90 86 f0 3c a9 9f 9c bb 7b cc 4b bc
       -0.031417225 0.02936104 -0.004779775 -0.012438889
000150 a0 f1 35 3d ca 45 8f 3c 4a 63 7d 3d 60 05 9d bd
       0.044419885 0.017489333 0.061862268 -0.07667041
000160 7f bc 5d 3d 4d f8 9f bd af 9a 7e bd 3f 09 14 3d
       0.054134842 -0.078110315 -0.062159237 0.03614163
000170 87 af 84 bd ad 4e 06 3d b7 d3 4e bd 92 39 e3 3c
       -0.06478792 0.032789875 -0.050494876 0.027737413
000180 de 23 93 bd 5f 39 ea 3d 36 3c 82 3c 25 37 92 bd
       -0.071845755 0.11436724 0.015897851 -0.07139424
000190 5b c3 3f bd bd 1d 58 3d 9d ad 3d bd 95 16 b5 bc
       -0.046817165 0.052762736 -0.04630815 -0.022105495
0001a0 40 85 b9 bd 8e 21 05 3d 50 82 56 3c fa a0 4c 3d
       -0.090586185 0.032502703 0.013092592 0.049958207
0001b0 fa 4b b7 bd ab cc 48 bd e3 f3 c2 3d 22 3e 6f 3d
       -0.08950038 -0.04902331 0.09519174 0.058408864
0001c0 f9 51 54 3c 3b 5d 96 bd d5 6f 05 3c 5d e2 2f bd
       0.012958997 -0.07342001 0.008144339 -0.042940486
0001d0 a3 e6 e6 3d 97 d5 86 bd f1 e7 7b 3d c2 81 8b 3d
       0.11274459 -0.06583708 0.061500493 0.06811859
0001e0 60 2c c0 3b 38 b1 df bc 98 8b df 3c 42 30 ac bd
       0.005864665 -0.027306184 0.027288243 -0.08407642
0001f0 99 72 2a 3d 45 30 a4 3c 75 b0 dc 3d a6 a6 9a 3d
       0.041613195 0.020042548 0.10775844 0.07551317
000200 9b 03 c1 3d 65 db b9 bd 76 34 82 39 48 01 a8 3d
       0.09424516 -0.09075049 0.0002483462 0.082033694
000210 a1 52 84 3c eb 32 c4 3d 38 eb c3 3d f1 88 b7 3d
       0.016152682 0.09580024 0.09566349 0.089616664
000220 21 bc ae bd 2a 9d ac 3d df 20 c1 bc 2f 68 82 bd
       -0.085319765 0.08428414 -0.023575244 -0.06367528
000230 cd d2 34 bd bb 77 a0 bd 1c a9 88 3d 51 a1 df 3c
       -0.044146348 -0.07835337 0.0667288 0.027298601
000240 4f 55 91 3d 88 94 89 3d 90 a4 a9 3c 28 b1 4a 3d
       0.070963494 0.06717783 0.020708352 0.049485356
000250 a6 d9 ac bd 78 fc dc 3d 49 9a 90 3c f2 d6 f5 3c
       -0.08439951 0.10790342 0.017651694 0.03000972
000260 ba 37 8d bd f7 79 cf bd e1 6e cb bd 1e e1 76 3d
       -0.068953946 -0.10130685 -0.09933258 0.060273282
000270 b4 85 44 3d f4 4b 96 3c 12 be 96 3d 0b e1 91 3d
       0.04797907 0.018346764 0.07360472 0.07123002
000280 1c 1e 35 bc 64 ab 9c 3d f2 71 cf bd 01 85 ce bd
       -0.011054542 0.07649878 -0.10129155 -0.10083962
000290 30 01 7f bd 40 fe b0 bd 98 c3 e1 3c c8 f2 f3 bd
       -0.062256992 -0.08642244 0.027559087 -0.11911541
0002a0 a6 76 57 bd ea c8 19 3d a9 d4 7a bd 93 b5 8f 3d
       -0.052603386 0.037545122 -0.061237965 0.070170544
0002b0 da 81 6a bd 9b 2f b2 ba cc 07 69 bc b7 5f 3f 3d
       -0.057252742 -0.001359451 -0.01422305 0.04672214
0002c0 32 2a ee bc 42 fd a9 3d 59 41 ff bc a0 97 3d 3d
       -0.029072855 0.08300258 -0.03115909 0.04628718
0002d0 4d ba 0a bd 62 e0 b8 b9 4d 0e ac 3d d0 44 a8 bc
       -0.033869077 -0.00035262393 0.08401165 -0.020540625
0002e0 47 a1 13 3d 6c 8d b4 3d fc 91 46 bd fc f8 85 3d
       0.036042478 0.088160366 -0.048479065 0.065416306
0002f0 9e aa 65 3d b3 8c 8e bd 63 1c aa 3d 5e a8 b0 3d
       0.056070916 -0.0696043 0.083061956 0.086258635
000300 12 ac 43 3d 0c ac 8c bd a1 61 24 3d ba cf 68 bd
       0.04777152 -0.06868753 0.04013217 -0.05683873
000310 1e e8 8b 3d c5 46 ef 3c ac 74 50 bd 11 2a 0f 3d
       0.06831382 0.02920855 -0.050892517 0.034952227
000320 e2 22 c5 bd 1f 95 22 3d 86 40 c3 bd cd 80 1f 3d
       -0.09625794 0.039692994 -0.09533791 0.038941193
000330 d9 0a 70 3d 89 1d 4a bd 3a cc 92 3b fc c0 bf bc
       0.058604095 -0.049344573 0.004479912 -0.023407452
000340 dd 8e 4b 3d fe 89 77 bc 22 9e 08 3d 77 fb d1 bd
       0.049696792 -0.0151085835 0.033353932 -0.10253041
000350 95 c4 c7 bd 71 0e 81 bd ae 5d a8 bd dd 66 1c 3c
       -0.09754292 -0.063015826 -0.08220993 0.009546009
000360 ad b8 c4 3d 0d f4 b9 3d b6 62 b1 bd 4b f7 5d 3d
       0.096055366 0.09079752 -0.08661406 0.054190915
000370 a1 3f be bd a7 9a c3 3d d3 78 04 3d 90 63 c2 bd
       -0.0928948 0.09550982 0.03234179 -0.09491646
000380 65 8b 5d 3d 6b fd c6 bc af 42 72 bc 8c 0c bc 3d
       0.054088015 -0.024290761 -0.014786406 0.091820806
000390 8a 4c 0c 3d 8b 6a f4 bb 09 d2 d7 bd 25 53 15 bd
       0.03425268 -0.00745899 -0.10538108 -0.036456246
0003a0 d8 76 78 3d 15 3f 70 3c 48 12 43 bd 45 94 36 bc
       0.060660213 0.014663477 -0.047624856 -0.011143749
0003b0 81 ea 56 bc 65 c2 53 bd 6e a1 1e 3d b1 fa 11 3d
       -0.0131174335 -0.05169906 0.03872817 0.03563947
0003c0 29 bd 2e 3c 65 e8 af bd 97 db 67 3d cc 06 8a 3d
       0.0106652165 -0.085892476 0.0566059 0.06739578
0003d0 08 3a 84 3d 4d 80 a8 3d 31 d1 aa bd b8 94 eb 3c
       0.06456381 0.082275964 -0.08340681 0.028757438
0003e0 a8 ec 94 3d 11 b6 b6 3d f7 58 ae 3d 97 6d 63 bc
       0.07271701 0.08921445 0.085130624 -0.013881109
0003f0 03 64 38 3d 70 c6 19 3d a5 e2 89 bd 6b 2d 9f bd
       0.045017254 0.03754276 -0.06732682 -0.07772335

net.3.module.0.bias f4 [32]
000000 a8 78 fc 3c 33 0c 2e bd 9a f9 c8 bd 3d 3c 58 bd
       0.030819252 -0.042492103 -0.09813233 -0.052791823
000010 8a dd 3e 3d 77 1f d5 bc a3 cb 6c 3d c3 d7 39 3a
       0.046597995 -0.02601598 0.05781139 0.0007089341
000020 fa 5f 52 bd 10 f2 f2 bc 9b 53 76 bc 5c 6d 0c 3b
       -0.05136106 -0.02965644 -0.015034582 0.0021427488
000030 03 3e 34 bd 49 3d c6 bd 53 e8 74 3d 08 58 99 bb
       -0.04400445 -0.09679658 0.059791874 -0.0046796836
000040 11 88 82 bb c1 f0 43 bd a9 61 89 3d 9f 19 71 3d
       -0.0039835055 -0.047837023 0.0670808 0.058862325
000050 21 80 60 bd 54 da 25 bd 76 b2 a6 3b 93 e5 ca bd
       -0.054809693 -0.040491417 0.005087192 -0.09907069
000060 71 0c a0 bd b0 58 ae 3d 39 63 b0 bc 20 dd f8 3c
       -0.07814873 0.085130095 -0.021531688 0.030378878
000070 36 1f 71 3d 5f 70 18 3d ce e7 03 bd dd aa b4 3d
       0.058867656 0.03721654 -0.032203488 0.08821652

net.4.module.0.weight f4 [32, 32, 3]
000000 f9 b8 a3 3d dc d0 41 3d f2 d9 c1 bc c1 b3 b5 bd
       0.07994265 0.047318324 -0.023663495 -0.08872176
000010 e1 35 32 bd 8b 4e 7a 3d 9f 23 31 bc f3 73 f5 3c
       -0.043508414 0.06111006 -0.010811715 0.029962515
000020 03 dd 19 3d 27 30 84 bc b0 7c 83 3c 56 75 0f 3d
       0.03756429 -0.016136242 0.016050667 0.03502401
000030 7b cc 97 3d 03 c6 a0 bd b6 86 23 3d 71 0c a3 3d
       0.074120484 -0.07850268 0.039923392 0.079613574
000040 02 f0 b0 bd cc 61 c0 3d 7d 60 3b 3d 01 d9 d3 3d
       -0.08639528 0.09393653 0.045746315 0.103441246
000050 70 d3 60 3d 56 ff 40 bd e2 f7 46 bd 60 2a a1 bc
       0.054889143 -0.047118507 -0.048576243 -0.019673526
000060 6f c5 3c 3c 48 9a 2c 3d 8a 12 d1 bd 9d 30 ae bd
       0.011521681 0.04213932 -0.10208614 -0.08505366
000070 88 9a 01 3d 7c e7 21 3c a7 bd 54 3c 37 d2 5c bc
       0.031641513 0.00988185 0.01298467 -0.0134778535
000080 fd 22 a7 3d 2f 56 05 bd 6b 22 42 bd 9a b3 bc 3d
       0.0816097 -0.032552894 -0.047396105 0.09213944
000090 76 c3 de 3b 43 cc d0 3d 2f df b6 3d 11 7c 9c bd
       0.006798203 0.1019521 0.08929288 -0.07640851
0000a0 a4 3a 3b bc 0a 8b 71 bd 3c 4d 96 3d 6c 62 a5 3c
       -0.011427555 -0.05897049 0.0733895 0.020188533
0000b0 e2 32 9f bd a8 04 40 3d 98 ad 1c bd 1d 7b 1e 3d
       -0.07773377 0.04687944 -0.03825149 0.03869163
0000c0 08 e6 ed bc fe a5 83 bd 82 22 b0 bd 48 34 4b 3a
       -0.029040352 -0.06428145 -0.08600332 0.0007751626
0000d0 0b f9 63 bd f1 31 46 bd 82 12 c1 3c ac f7 ba bc
       -0.055657428 -0.04838747 0.023568396 -0.022823177
0000e0 1f cd d9 3a 5e 1e 3a 3c 9e b1 d5 3d 30 d6 ac 3d
       0.0016616917 0.011359779 0.104342684 0.084392905
0000f0 bc a6 f5 3c 05 42 62 3d 3e 8c 95 3c 04 14 ce 3c
       0.029986732 0.055238742 0.01825535 0.025156029
000100 7d 47 b7 bc 06 75 9c bd 4f 67 b5 3c 05 98 bf 3d
       -0.022372955 -0.07639508 0.022143988 0.09355167
000110 a6 6e 8c bd f1 62 f9 bd b4 82 93 bd fb 17 03 3d
       -0.06857042 -0.12177075 -0.07202664 0.03200529
000120 7c 1e 88 3d 42 5d b8 3d c5 ad e6 bc f5 46 e0 3d
       0.066464394 0.090021625 -0.028159032 0.10951034
000130 42 ae 89 bd 51 26 1a 3d a8 fc 00 3b 6b 79 86 3b
       -0.0672269 0.037634198 0.0019681845 0.0041038296
000140 3c dc cb 3d a0 99 4c 3d c3 d7 82 bc ba 43 34 3d
       0.09954116 0.049951196 -0.015972024 0.0440099
000150 d6 52 4d 3d ff a0 92 3d 12 c4 d8 3c 45 65 af 3d
       0.050127827 0.07159614 0.026460681 0.085642375
000160 e3 e8 b8 bd c8 b9 75 3d a2 8a 90 bd 7e fa d0 3d
       -0.090287946 0.059991628 -0.07057692 0.102040276
000170 4e 05 e8 bd d6 d1 1a 3d 1e 03 c2 bd 64 d7 6e bd
       -0.11329137 0.03779777 -0.09473251 -0.05831088
000180 a0 1b d9 bc ba 63 0c 3c 0e 3d 11 bd 8d 0f bd bd
       -0.02650243 0.008568699 -0.035458617 -0.09231482
000190 03 63 8a 3d 4c d2 3d 3d f6 10 88 bd 32 c5 b6 3d
       0.06757166 0.046343133 -0.0664386 0.08924331
0001a0 60 d8 9d bd 8a ae 40 bc 58 09 b7 bd 36 f5 22 3d
       -0.07707286 -0.011760363 -0.08937329 0.039784633
0001b0 69 95 22 3d 78 5e c9 bc 97 fe 50 bc 0e ed 1e bd
       0.03969327 -0.024581179 -0.012756011 -0.03880029
0001c0 04 dc c2 3b 07 fa a3 3d d6 11 92 bd d6 d0 39 bd
       0.005946638 0.08006673 -0.07132308 -0.045365177
0001d0 f4 1b 45 bd 50 a4 aa 3d 49 9b 9f bd f9 12 65 bd
       -0.04812236 0.08332121 -0.0779329 -0.055926297
0001e0 e6 db 82 3b 1d e6 6e 3c 4b 6d 1c 3c ac 55 a1 3d
       0.003993499 0.0145812305 0.009547542 0.07877669
0001f0 4d 7d 86 bd 0f fe f8 bc cd c9 51 3d ff cf f1 bc
       -0.06566868 -0.030394582 0.051217843 -0.029518126
000200 86 a0 9a bc cb bf 69 3d c2 23 a9 3d 70 35 f8 3c
       -0.018875372 0.057067674 0.082587734 0.030298918
000210 9a d8 8e bd 2e 1b 9c 3d 73 0c c1 3c fb c6 d9 bc
       -0.06974907 0.076223716 0.023565507 -0.02658414
000220 a8 46 83 bc 53 d0 79 3c f6 15 d6 bd f7 5e 38 3d
       -0.016024902 0.015247422 -0.104534075 0.04501244
000230 bf b4 94 bd 34 63 59 3d 52 5c e0 3d d3 4c 47 bc
       -0.07261037 0.053073123 0.10955109 -0.012164312
000240 2e 38 ab bd a3 79 c8 bd 82 2a 02 be 85 d0 43 bb
       -0.08360325 -0.09788825 -0.12711528 -0.0029878926
000250 3b 51 60 bd 4f 24 02 bc ed 2c 59 bb 0d 1b 1a 3d
       -0.054764967 -0.007943227 -0.003313835 0.037623454
000260 e5 ff c1 3d a0 67 0c 3c 25 f6 a3 bd db 3d bf 3d
       0.09472636 0.008569628 -0.08005933 0.0933797
000270 b8 d4 a5 bc 80 a1 8e 3c c2 45 11 3b 2c 14 54 bd
       -0.020243034 0.017410994 0.0022166823 -0.05177705
000280 30 c8 0c 3d f6 e6 01 bd 7e e8 33 bc e8 aa 63 3d
       0.0343706 -0.031714402 -0.010980723 0.05558291
000290 1b 5f d2 bc 4e 21 31 3d 83 40 43 bd 7c 42 57 bd
       -0.025680115 0.043244652 -0.047668945 -0.05255364
0002a0 b7 9a 81 bd 27 b3 cd 3c 72 ae c0 3d 44 95 d0 39
       -0.06328338 0.02510984 0.09408273 0.00039784063
0002b0 02 e2 53 ba 33 c6 bb bc 10 4d d0 3d 32 8f 2e bc
       -0.0008082689 -0.022921657 0.101709485 -0.010654258
0002c0 8d b4 74 3d 22 6e a7 bc 44 9c 8e bd e4 96 d5 bd
       0.0597425 -0.020438258 -0.06963399 -0.10429171
0002d0 26 6b 8d bc 01 58 85 3c d1 f4 48 bd 74 ef 39 3c
       -0.017263006 0.016277315 -0.0490616 0.011348594
0002e0 7a 3c 9b 3d 8f a4 91 3d 99 d5 1e 3c a5 c7 aa 3c
       0.07579894 0.07111465 0.00969448 0.020847151
0002f0 29 f9 a6 bd 09 61 f4 3c d3 86 33 bd 5d 8e 20 bd
       -0.08152992 0.029831426 -0.04382975 -0.03919827
000300 4c 99 b3 3d 81 e1 dc bc f6 59 32 bb 08 a0 85 3d
       0.087694734 -0.026962997 -0.0027214265 0.06524664
000310 45 11 96 3d d5 61 a1 3c 80 b3 35 3d 80 86 a9 3d
       0.07327513 0.01969997 0.044360638 0.08277607
000320 cc 18 ab 3c 5c bb 07 3d 69 7d a9 3d eb 89 24 3d
       0.020885848 0.033137664 0.08275873 0.04017059
000330 2e f5 9f 3d 04 44 26 bd 61 b4 85 bd 1a ee 1a 3d
       0.07810436 -0.04059221 -0.06528545 0.037824728
000340 a8 1e 89 bd d1 a7 bb 3d 1e 66 7f 3d a1 3f d3 bd
       -0.066953 0.09162868 0.062353246 -0.103148706
000350 09 cb bb bd aa 7b 96 bc 54 cb 9a bd 7b cf 51 bc
       -0.09169585 -0.018369514 -0.07558313 -0.012805815
000360 5e 21 ba 3d 03 aa 8d 3c db dd ff 3c 7d a8 8c bd
       0.090883955 0.017292982 0.031233719 -0.06868074
000370 96 84 a8 bd cc 83 75 bd 18 2c 26 3d a3 ac 6b 3b
       -0.08228414 -0.059940144 0.040569395 0.0035961054
000380 63 9a 4c bd a1 ea df 3c 15 f8 2c bd f7 a7 40 bc
       -0.049951922 0.02733356 -0.042228777 -0.011758796
000390 87 af 4c 3c da a7 77 bc db 66 b4 bd ee 09 39 bd
       0.012493021 -0.0151157025 -0.088086806 -0.045175485
0003a0 2e 76 bd 3d 4b ce 68 3d ee 91 c6 bd 3d e3 76 3d
       0.092510566 0.05683736 -0.09695803 0.060275305
0003b0 e8 58 86 3d d3 24 f3 3b 90 ca a6 3d cf 57 07 3d
       0.06559926 0.0074201613 0.081441045 0.033042725
0003c0 9f 49 03 3d 76 f4 f3 3c 49 fe ba 3a 99 83 40 3d
       0.032052632 0.029779654 0.0014266457 0.0470005
0003d0 46 71 0a 3c ce 99 a1 3c 92 91 05 3d 05 48 15 3d
       0.008449858 0.01972666 0.03260953 0.036445636
0003e0 86 0b af 3d 8a e9 a3 3d 51 c5 c5 3d 55 a9 aa bd
       0.0854712 0.080035284 0.09656776 -0.08333079
0003f0 38 26 db bd 49 93 86 3c ce 0d ff 3c a6 f4 a8 bd
       -0.10700649 0.016427653 0.031134512 -0.08249788

net.4.module.0.bias f4 [32]
000000 81 09 b8 3d 4f 9a a0 bc 67 c5 7b bd e6 3e 38 bb
       0.08986188 -0.01960483 -0.061467554 -0.0028113662
000010 b3 32 5b 3d 90 cf ac 3b 38 a5 80 3d 3d 71 de bc
       0.053515147 0.005273767 0.06281513 -0.027153606
000020 f3 d5 93 3d 4c 9e 87 3c 2d 88 6c bd 63 fb 83 bd
       0.07218542 0.016554974 -0.057747055 -0.064444326
000030 b9 79 d2 3d 7f f2 a5 b9 d2 96 66 bd d2 14 1c 3c
       0.10277123 -0.00031651926 -0.056296177 0.009526448
000040 5e 26 19 bd ce f3 0b 3d 8d 1b 55 3c af 86 34 bd
       -0.037390105 0.034168057 0.013007057 -0.044073757
000050 85 e2 02 3d 03 b3 ae bd b9 8b b7 bd d1 5a 82 3d
       0.031954307 -0.085302375 -0.08962197 0.06364978
000060 54 60 21 bd 4e 8f ed 3b 3d 23 fa 3c 88 6f c5 3d
       -0.039398506 0.0072497493 0.030534381 0.096404135
000070 f5 c9 92 3b d2 5c 16 bd 9c a5 09 3c 47 ce b1 3b
       0.0044796416 -0.036709614 0.008401301 0.0054262015

net.5.weight f4 [3, 32, 3]
000000 77 dc d9 3c 28 ff b8 3d b7 61 5f bd bb 57 85 bd
       0.026594384 0.09033042 -0.054536548 -0.06510874
000010 13 2f c4 ba fe a1 21 3b 38 a3 3d bd 27 a5 51 bd
       -0.0014967642 0.0024663205 -0.046298236 -0.051182892
000020 0f 91 48 bd 5a 86 6d 3b 9d bb a5 3c 60 98 68 3d
       -0.048966464 0.003624341 0.020231063 0.05678594
000030 d0 fe 81 3d 20 5d 86 3d 72 9b a7 bd ec 3f 79 bd
       0.0634743 0.06560731 -0.08183946 -0.060851976
000040 8a 82 0f bc 50 1b c7 bc c5 61 ac bc b2 3d 62 3c
       -0.00875915 -0.024305016 -0.021042714 0.013808655
000050 94 4a be bd f5 04 90 3d 20 96 11 bd 23 95 a8 bd
       -0.092915684 0.070321955 -0.03554356 -0.082315706
000060 68 42 c6 3d 14 9a 1b bd fc 95 7a 3d 31 04 9a 3c
       0.09680635 -0.037988737 0.061178192 0.018800827
000070 9e 05 76 3d f7 b8 8f bc 77 96 86 bd 22 b8 e7 3c
       0.06006395 -0.017544253 -0.06571668 0.028286044
000080 9e a9 c1 3b 0a b0 8b bc 48 2a 8b 3d c3 f5 b2 bd
       0.0059101125 -0.017051715 0.06795174 -0.087382816
000090 8d cc 6c bb ee 2f 9a bc 1c c6 ab 3c ef 3e b7 bd
       -0.0036132664 -0.018821683 0.02096849 -0.089475505
0000a0 d0 63 94 bd ae c5 ee bc 3f ca 00 bd ae bb b6 3d
       -0.072456 -0.029146995 -0.031442877 0.08922516
0000b0 eb 8b 8a 3d af 5a 13 bd e3 00 a4 bd f7 87 e0 bd
       0.067649685 -0.035975154 -0.08007982 -0.10963433
0000c0 b4 66 b8 3d 89 a9 33 3d 36 59 ad bc f0 5b c3 bd
       0.09003964 0.043862853 -0.021160703 -0.0953902
0000d0 4d 79 d3 bd 8a 88 c0 3d 06 bc 88 3c 57 83 b0 bd
       -0.10325871 0.09401043 0.016691219 -0.08618801
0000e0 97 b2 50 bc fa ac 42 bd 1f 82 92 3d a9 62 a4 bd
       -0.012737892 -0.047528245 0.07153725 -0.080266304
0000f0 d3 b6 4b 3c 80 a3 85 bd c7 25 b2 bd d7 30 f4 3c
       0.012433725 -0.06525326 -0.08698612 0.029808445
000100 05 06 bb 3d 25 9c d3 bd b8 f3 c2 bc 3f 07 96 bd
       0.091320075 -0.103325166 -0.023797855 -0.07325601
000110 bf fb 8b bd 91 5a ac 3c b9 72 9a bc d1 74 9c 3b
       -0.06835126 0.02103928 -0.018853532 0.004774668
000120 86 44 8c bd 30 03 a1 bd 78 24 77 bd 51 85 fc bc
       -0.06849007 -0.07861936 -0.060337514 -0.030825289
000130 e5 b5 b8 3d 86 9c a0 3d fe 06 6a bd d9 dc be 3c
       0.09019069 0.078423545 -0.057135575 0.023298668
000140 1d 0b 3a 3d e6 26 a9 3d 58 15 0f 3d 31 37 bd 3d
       0.045420755 0.082593724 0.034932464 0.092390426
000150 79 30 d2 3c 5e 7b a3 bc 09 8b ca bb bf c5 b3 bd
       0.02565788 -0.019956287 -0.006181125 -0.087779514
000160 8f af 9c bd 87 90 9b 3d 12 0b b3 3d 65 28 ad 3d
       -0.07650673 0.07595926 0.08742346 0.0845497
000170 ad 98 4d 3d c1 1f c0 3d 02 d8 4e bd 8d e1 4d 3d
       0.05019443 0.093810566 -0.05049897 0.05026393
000180 ab 18 91 3c 89 0c 8f 3d cf 40 ad 3d 3b 8b 0c bb
       0.017711958 0.06984813 0.08459627 -0.0021445293
000190 33 c6 5f 3d cd c5 d1 3d 7f 47 5c bd b2 41 a2 bd
       0.054632377 0.10242806 -0.05377912 -0.07922687
0001a0 c5 89 80 bd ec 64 ee 3c ee 4e e2 3c 9f bf d8 3d
       -0.062762775 0.029100858 0.027625527 0.10583424
0001b0 6f 84 e5 3c 72 fd 84 bd 54 55 12 3b c0 52 22 3d
       0.02801725 -0.06493653 0.0022328692 0.039629698
0001c0 c5 a2 ca bb 7c d9 42 3d 13 66 d9 3d 2e a1 d7 bc
       -0.0061839544 0.04757069 0.10615172 -0.026321974
0001d0 e0 5a be 3d 56 b8 39 bc af 5d 45 3d 27 31 70 bd
       0.09294677 -0.011335453 0.048185047 -0.058640625
0001e0 4d bb a0 bd d6 3f 2a 3c 8d b9 b6 bd 95 bd cc 3d
       -0.07848225 0.010391196 -0.0892211 0.099970974
0001f0 f1 1f ab 3d 83 b3 be 3d 9e 5a 8e 3a 38 aa 7a 3d
       0.08355702 0.09311583 0.0010860746 0.06119749
000200 fe cb 9c 3d 59 8d 1e 3d 71 8f 30 3d 4f 28 69 3d
       0.07656096 0.03870902 0.043105546 0.056923207
000210 b8 ec 52 bc 74 bb 69 bc 05 22 28 3c 9d 94 f9 3d
       -0.012873821 -0.014265884 0.010262017 0.12186549
000220 3b d2 91 3d 1b 9e 98 3d 5b 71 02 3d 74 cc a0 3d
       0.071201764 0.07452031 0.031846385 0.07851496
000230 82 fd 4a bd 21 d6 4a 3c 5f 8f cc 3d 57 ed 8d 3d
       -0.04955817 0.012380154 0.09988283 0.069300346
000240 58 89 93 bd b6 98 15 bd e2 cb d8 bd 72 ac 3f bd
       -0.072039306 -0.03652259 -0.105857626 -0.046795316
000250 3b 24 a7 3c 14 27 9d bd 8f 6e bf 3c 22 5e 3c bd
       0.020403018 -0.07673469 0.023368148 -0.04598821
000260 cd c1 86 3d 07 d9 b5 bd b0 c3 96 bd 51 19 9d 3d
       0.06579933 -0.08879285 -0.07361543 0.07670844
000270 cc fc b3 3d 27 83 5f 3d 50 e9 d5 3b 88 eb fb 39
       0.087884516 0.054568436 0.006528057 0.00048049935
000280 2c f1 5d 3a 56 ae c5 3d 3d b2 dd 3a 09 a8 6c bc
       0.00084664184 0.096523926 0.0016914081 -0.01444436
000290 6a 96 c9 3d ef 3e 40 bd 33 b3 83 3d 5c 44 43 bd
       0.09843142 -0.04693502 0.06430664 -0.047672614
0002a0 47 76 d6 3d 88 6a b1 3c d3 79 80 bd db 5d 43 bb
       0.10471778 0.021657243 -0.06273236 -0.002981058
0002b0 14 e5 11 3c a5 57 3b bd 74 68 02 bd 8e 5d 68 3d
       0.008904714 -0.04573788 -0.031837896 0.056729846
0002c0 11 f8 3d bc 3f 7f 52 3b a7 e6 7b 3d 5b 0b 64 3d
       -0.011594788 0.0032119302 0.061499264 0.055674892
0002d0 38 81 40 bc 73 88 5b 3c 2f 7b 0d 3c 88 50 43 bb
       -0.011749558 0.013399231 0.008635326 -0.002980264
0002e0 c8 7a 0f bc 38 67 98 bd 22 5c eb bc b2 c2 d7 bd
       -0.008757301 -0.074415624 -0.028730456 -0.10535182
0002f0 a6 89 cc bd 95 bc b2 bd 9c 76 92 bd 38 8b 8e bd
       -0.09987192 -0.087273754 -0.07151529 -0.069601476
000300 0b 01 a0 3d ad 45 93 bd 4a e5 70 3d cc 38 84 3d
       0.07812699 -0.07191024 0.058812417 0.06456146
000310 d8 6c 6f bd 8b 9b 9b bc 45 08 9b 3d 25 4d 1f 3d
       -0.05845341 -0.018995067 0.07569937 0.03889193
000320 e9 83 5f bc 4a 8c 20 3d de 32 7e 3d 62 99 82 bc
       -0.01364229 0.03919629 0.06206023 -0.01594228
000330 72 ad 92 bd 83 6a b7 3d c5 c2 f3 bc 08 e6 f1 3c
       -0.07161988 0.089558624 -0.02975596 0.029528633
000340 4d ab a4 bd 7d f8 92 bd ac ea 60 bd 92 14 4f 3d
       -0.080404855 -0.07176302 -0.0549113 0.050556727
000350 58 65 34 bd 84 d2 62 3d c9 aa a6 3d a8 51 22 3c
       -0.04404196 0.055376545 0.081380434 0.009907164
000360 7d ff 8a 3d f7 9f c0 3d 7f 86 3e bb 6d 20 10 bd
       0.06787012 0.09405511 -0.0029071865 -0.035187174
000370 bc 2f 22 bc b6 e3 5d bd 2d 8b 85 bd d1 e1 d1 ba
       -0.009899076 -0.05417224 -0.06520686 -0.0016012733
000380 a9 ef 0d 3d 73 6b 90 bc 79 2c a8 bd d9 e8 79 bd
       0.034652386 -0.01762936 -0.082116075 -0.061013076
000390 ba 1a 6b bd 76 bb a0 3d de cb a1 bd 65 56 84 3d
       -0.057398535 0.07848255 -0.07900213 0.06461791
0003a0 0f 83 15 bc ff f2 22 3d cf 9d be bc 49 61 47 bd
       -0.009125485 0.03978252 -0.023268608 -0.048676763
0003b0 82 00 97 3d 00 0b 81 bd f4 3b 77 3c 04 83 2c bd
       0.07373144 -0.06300926 0.0150899775 -0.042117134
0003c0 49 c3 87 bd 9b e2 51 bc 79 1c 01 bd 42 ac 47 3d
       -0.066290446 -0.012810375 -0.031521294 0.048748262
0003d0 f5 81 3a bd 57 c4 a8 bb 5a 88 46 bd 6b 00 b9 bd
       -0.045534093 -0.0051503587 -0.04846988 -0.09033283
0003e0 08 20 33 3c 1a e4 21 3c 3e df a8 3d b2 21 ad bd
       0.01093293 0.009881044 0.08245705 -0.084536925
0003f0 34 06 66 3d 90 77 6b bd 59 64 11 bd 96 6f 5e bc
       0.05615826 -0.05748707 -0.03549609 -0.013576409

net.5.bias f4 [3]
000000 40 a9 7e bc 01 33 51 bd 81 b0 60 3d
       -0.015543282 -0.05107403 0.054855827

exp_avg f4 [32, 120, 2]
000000 e7 41 c9 b8 6b 81 fd b5 5a 2b 90 b9 ea 19 ee 37
       -9.596702e-05 -1.8887634e-06 -0.0002749812 2.8383878e-05
000010 92 f3 37 bb e3 cd a5 ba cb 0e 4f bb 49 c0 08 bb
       -0.0028068763 -0.001264986 -0.003159451 -0.0020866564
000020 18 c2 9d b9 e4 5c 1e ba ed 05 e3 ba 08 74 dd b9
       -0.00030089985 -0.00060410635 -0.0017320492 -0.00042238855
000030 d3 81 84 39 98 91 b2 b9 2d ab 65 ba 7d b6 e1 39
       0.00025273729 -0.00034059281 -0.0008761164 0.0004305131
000040 20 b8 e0 b9 1a 34 3e b9 04 8a 8b 37 75 0a 3c 38
       -0.00042861793 -0.00018139221 1.663436e-05 4.483243e-05
000050 06 1e 94 ba e3 98 49 ba f1 9a 7d ba 96 03 19 3a
       -0.0011300452 -0.00076903234 -0.0009674272 0.0005837021
000060 fa b0 cf b8 52 a6 30 b9 32 04 aa 3a 15 43 84 3a
       -9.9034936e-05 -0.00016846627 0.0012971221 0.0010090793
000070 06 08 50 3a 05 82 50 bb b0 43 fc ba 6c 24 2d bb
       0.0007935766 -0.003181578 -0.0019246247 -0.0026419414
000080 03 23 e3 b7 10 91 2c 39 5f fb 02 38 a6 1e 2f b8
       -2.7076812e-05 0.00016457238 3.1228523e-05 -4.1751795e-05
000090 04 4b ae 3a d0 31 7b 3b 8a 5e 02 b8 0a 3e 6b ba
       0.0013297503 0.003832925 -3.108246e-05 -0.0008973783
0000a0 27 3d 31 38 0b 3f 49 ba ef 85 58 b7 5b d5 e3 b6
       4.225704e-05 -0.00076769356 -1.2905787e-05 -6.789965e-06
0000b0 de e2 5c ba ef 4a 40 3a 33 66 4e ba f6 74 64 bb
       -0.000842614 0.0007335385 -0.0007873505 -0.0034859753
0000c0 ba a6 64 ba f4 7f 9d ba 4b 04 a5 39 0c c5 44 3b
       -0.0008722354 -0.0012016282 0.0003147445 0.0030024676
0000d0 96 6c 3c b9 c4 a8 2d 3a e4 1d 06 b7 7c 56 89 37
       -0.00017969529 0.00066245743 -7.993982e-06 1.6371945e-05
0000e0 f8 b0 dc 37 e1 b7 18 38 26 02 0a 3a 70 f6 2c b9
       2.6308451e-05 3.6410875e-05 0.00052646024 -0.00016495003
0000f0 1b 9e 4f 39 64 d0 5e 3a e8 08 7a ba 8c ca 81 b9
       0.00019799957 0.00084996806 -0.00095380703 -0.00024755707
000100 f8 7c c8 38 75 e8 9e b8 5d e4 e0 38 92 84 bc 36
       9.5600204e-05 -7.5773256e-05 0.00010723688 5.61827e-06
000110 55 e9 25 3a 51 3f 0e ba 13 d9 1a ba f6 ba 56 b9
       0.00063290197 -0.0005426305 -0.00059069804 -0.00020478279
000120 ea 22 b3 39 15 30 a6 38 ff 34 34 b7 73 85 99 39
       0.00034167554 7.924453e-05 -1.0741175e-05 0.00029281861
000130 f1 11 8a b9 c1 db cb b9 00 00 00 00 00 00 00 00
       -0.00026334779 -0.00038882907 0.0 0.0
000140 1d 8f e5 38 6c 8e b2 ba 94 1d 82 39 5c 2f 08 3a
       0.00010946228 -0.0013622767 0.0002481757 0.00051950454
000150 a9 de 46 39 71 6b 2d 39 14 1e 12 3b 69 05 10 3b
       0.00018965699 0.0001653859 0.002229576 0.002197588
000160 13 c6 13 3a c9 38 30 3a 28 5a e0 b9 81 9a 57 37
       0.00056371203 0.0006722329 -0.0004279178 1.2850972e-05
000170 fc d0 27 39 5d ab 1f 3a 7f c1 68 36 e3 69 3c b9
       0.00016004214 0.0006090904 3.4683324e-06 -0.00017968523
000180 c7 ad 4b 3a f6 42 9b b9 23 24 1c 38 3b 2e e5 b6
       0.00077697303 -0.00029613794 3.7226953e-05 -6.8301138e-06
000190 a1 c2 a8 b8 90 ed 2e b9 cc 54 5f 3a 09 67 7f ba
       -8.047117e-05 -0.00016682432 0.00085194106 -0.00097428315
0001a0 e6 fc 38 bb 10 42 ad bb 3a 97 9e 3a f9 98 f1 b9
       -0.002822691 -0.0052874163 0.0012099512 -0.00046081076
0001b0 1e fe a6 39 a6 21 54 3a a9 b4 63 3a 77 0c e9 b8
       0.0003185132 0.0008092172 0.0008686283 -0.000111126275
0001c0 d3 c4 09 3a 6d 33 9b ba a4 04 e0 b8 7b 4e 51 b6
       0.00052554643 -0.0011840888 -0.00010682017 -3.1189109e-06
0001d0 87 a8 29 b9 63 c6 04 b9 31 b4 b1 b9 8e a6 e1 39
       -0.00016179877 -0.00012662406 -0.00033894324 0.00043039437
0001e0 d8 46 fb 3a c0 5c e3 ba cc d6 9a b7 9c 71 11 b8
       0.0019170893 -0.0017346367 -1.8458253e-05 -3.46765e-05
0001f0 d3 cd 66 ba 57 50 bf 38 1e ab e8 39 39 6a ec b7
       -0.0008804474 9.122554e-05 0.0004437798 -2.8182856e-05
000200 dd a0 cf b8 e3 ca 43 3a 4d ea ea b8 8d 04 54 b6
       -9.900492e-05 0.0007468892 -0.000112016314 -3.159311e-06
000210 85 26 ca 39 34 13 d7 3a 49 61 24 bb 20 d6 0f bb
       0.00038557142 0.0016408921 -0.00250824 -0.0021947697
000220 cd 5d 3f 37 33 7f fb b8 ee 69 36 ba b9 5e 42 ba
       1.1406327e-05 -0.000119923054 -0.0006958534 -0.00074146275
000230 4d 19 2d ba 5c 6f cc 39 26 96 1b bb c9 b4 42 ba
       -0.00066031964 0.0003899288 -0.0023740618 -0.0007427452
000240 9e a2 a7 3a d0 8f 40 3b 9e 97 ae b9 f6 f5 26 b8
       0.0012789553 0.0029382594 -0.0003330083 -3.9806553e-05
000250 bd 37 17 3a a5 87 0b ba db ee ea b9 c9 92 12 b7
       0.00057684985 -0.0005322642 -0.0004480992 -8.736454e-06
000260 2e 2c 80 38 68 36 82 39 87 43 bc ba 5f 83 be b9
       6.111745e-05 0.00024836068 -0.0014363386 -0.00036337503
000270 9f 81 2b bb ed 49 8c b9 30 cd 39 39 e1 7f bb 39
       -0.002616979 -0.0002675796 0.00017719413 0.00035762697
000280 0f bd 5a ba 0d 49 1d bb 39 81 9c b9 99 be f6 b8
       -0.0008344212 -0.002399984 -0.00029850917 -0.00011765696
000290 34 e4 c4 39 6b 7c c5 39 8f fe 9f b8 b0 eb 70 39
       0.00037554058 0.00037667467 -7.629126e-05 0.00022975984
0002a0 8a 48 44 38 16 12 a2 39 c0 0a 92 b7 6c 15 db ba
       4.67976e-05 0.00030912523 -1.7409562e-05 -0.0016714758
0002b0 a6 c8 78 39 61 f1 f6 39 35 83 2e b9 fd 14 d1 b9
       0.0002372587 0.00047100618 -0.00016642812 -0.00039879224
0002c0 a5 5b 18 3b 19 c5 73 3a 80 c8 44 ba 4f be 1e 38
       0.0023247984 0.0009299084 -0.00075066835 3.7847374e-05
0002d0 bd 30 ff b8 6a 18 83 b9 12 4b 56 ba 4f 21 8d b9
       -0.00012168426 -0.00025004457 -0.00081746385 -0.00026918433
0002e0 a9 de 30 38 e1 4c 18 3a 20 de 2a b9 ce e0 22 39
       4.216904e-05 0.00058097957 -0.00016295211 0.0001553327
0002f0 f9 1d 4b ba 06 0b ea ba 15 14 8e 39 98 46 12 b9
       -0.0007748302 -0.0017856068 0.00027099313 -0.00013949943
000300 0d 67 09 39 89 da 58 b9 2d 67 9c b6 ba 9c de b8
       0.00013103728 -0.00020680776 -4.6611735e-06 -0.000106149775
000310 fb 8b 18 3b 3c 54 9c 3a 68 dc b4 b9 7c e7 6f 38
       0.0023276794 0.0011926959 -0.0003449649 5.7197627e-05
000320 ea 74 8b b8 e5 85 73 3a 74 41 ee 38 bd e4 16 39
       -6.6498134e-05 0.0009289666 0.00011360916 0.00014390326
000330 4a 67 23 ba 49 b2 01 ba 16 19 58 b9 64 89 ff b9
       -0.0006233348 -0.0004947526 -0.0002060871 -0.00048739754
000340 c0 5a f1 b9 13 f5 ff b9 f1 3a 9c b9 18 90 b7 b9
       -0.00046034716 -0.00048819985 -0.00029798553 -0.00035011838
000350 ff e2 8c b9 4f 70 f5 b9 50 d9 26 b8 66 96 86 38
       -0.00026872006 -0.00046813718 -3.9779872e-05 6.417632e-05
000360 2e 01 25 b9 f9 b5 8e ba 30 cf f6 ba 01 1c 24 b8
       -0.00015736066 -0.0010887972 -0.0018830057 -3.9126728e-05
000370 35 a1 0d 3a 53 a1 41 ba 94 87 33 ba 01 c3 7b 39
       0.0005402745 -0.0007386405 -0.0006848511 0.0002400987
000380 db af 1e ba 97 db 16 39 25 38 b2 38 9c ff ce 37
       -0.0006053426 0.00014386918 8.498159e-05 2.4676141e-05
000390 5f 2a 87 39 96 ad f7 b9 d6 f0 01 bb ee 9d 6f b9
       0.00025780775 -0.00047240843 -0.0019827387 -0.0002285165
0003a0 00 37 1e ba 40 be d6 38 5f e0 28 ba 00 1b 2a ba
       -0.00060354173 0.00010239752 -0.00064421253 -0.00064890087
0003b0 52 b4 dd 39 1e e6 8f 3a 59 ce 48 ba dd 1b 09 ba
       0.00042286754 0.0010978614 -0.0007660143 -0.0005230287
0003c0 d6 ba b3 b8 4a c6 a6 b8 ea 18 c3 b9 16 bd c6 38
       -8.570186e-05 -7.952431e-05 -0.0003721186 9.476596e-05
0003d0 66 9a d2 ba 5d 34 6e ba 66 fb dc 34 1d e7 d6 ba
       -0.0016067743 -0.0009086782 4.116111e-07 -0.0016395781
0003e0 e5 f1 80 39 3d 4d 88 b9 4e a0 ce b9 19 ae 60 ba
       0.00024594288 -0.00025997488 -0.00039410818 -0.00085708644
0003f0 14 ca 1c 39 e8 76 43 38 86 c8 0f ba 04 b0 cd b7
       0.000149526 4.6602363e-05 -0.00054848974 -2.4519868e-05
