data/Figure3_Supplement/015/checkpoint_0001000.pth (torch, 222010 bytes, 31 tensors)

net.0.weight f4 [32, 120, 2]
0	0xbd26f600	-0.040761948
1	0x3ca78f0c	0.020453952
2	0x3ba413e0	0.005007252
3	0xbde0bc1c	-0.10973379
4	0xbd5becde	-0.05369269
5	0x3c58adf6	0.013225069
6	0x3c12bffc	0.008956905
7	0x3cd39432	0.025827501
8	0xbc75c107	-0.014999635
9	0x3d488f2b	0.04896466
10	0x3d32b83d	0.043632735
11	0xbd7be5e4	-0.061498538
12	0xbd6e605c	-0.058197364
13	0xbb07e642	-0.002073661
14	0xbdb58e4a	-0.0886503
15	0xbd01e7e1	-0.031715278
16	0xbcfbc2b4	-0.03073249
17	0xb99399be	-0.00028152572
18	0xbd02859e	-0.03186571
19	0xbcfd3143	-0.030907279
20	0x3cadf722	0.021236006
21	0xbdb60271	-0.088871844
22	0xbd144c97	-0.036205854
23	0x3cface12	0.03061584
24	0xbb9a4c11	-0.004708775
25	0xbd601b6d	-0.054713655
26	0xbd109e8c	-0.035307452
27	0xbd838c5d	-0.064232565
28	0xbd18f516	-0.037343107
29	0x3d8ad9dd	0.067798354
30	0xbbe686ac	-0.007035097
31	0xbc70754d	-0.014676404
32	0x3d8c94fc	0.06864354
33	0x3d3c4794	0.0459667
34	0xbc50a4f2	-0.0127346385
35	0x3ca9d87c	0.02073311
36	0x3c6a1d9e	0.014289288
37	0xbd17aa37	-0.037027564
38	0x3cba5ba0	0.022748768
39	0xbbea664a	-0.007153307
40	0xbafdaa1b	-0.0019353064
41	0x3d7c335e	0.061572425
42	0x3bb38b17	0.0054792273
43	0x3d668bb9	0.056285594
44	0xbd39cfed	-0.04536431
45	0xbd97ce27	-0.07412367
46	0xbdabd636	-0.08390467
47	0xbd2beaeb	-0.041972082
48	0x3af1f0de	0.0018458625
49	0x3c78f57c	0.015195247
50	0x3d7cccc3	0.061718713
51	0x3d2400dc	0.040039882
52	0x3d68b3a9	0.056811962
53	0xbcebc5bc	-0.02878081
54	0x3d230895	0.039803106
55	0x3cdd93e5	0.02704806
56	0xbceffef6	-0.02929638
57	0xbd43029d	-0.047609914
58	0x3cdc7ca0	0.026914895
59	0x3cd50718	0.02600436
60	0xbdd901c5	-0.10596041
61	0x3d1afe03	0.0378399
62	0x3c21e441	0.00988108
63	0x3d436c11	0.047710482
64	0x3d7609a8	0.060067803
65	0x3b35a1e3	0.00277149
66	0x3bee36e0	0.007269725
67	0xbc94923e	-0.01813614
68	0xbd598839	-0.053108428
69	0xbd3b182b	-0.045677345
70	0x3c63c61e	0.013902215
71	0x3c889335	0.016671756
72	0x3ab2b905	0.0013635462
73	0x3cc8a782	0.024493936
74	0xbcf61b74	-0.030042388
75	0x3d3840af	0.044983562
76	0xbd2a8155	-0.041627247
77	0xbced53c4	-0.028970607
78	0x3d450ca4	0.04810776
79	0xbd63fafc	-0.05565928
80	0x3d9babc4	0.07601121
81	0xbd0fcadc	-0.03510557
82	0x3d8e6eea	0.06954749
83	0x3b506319	0.0031797348
84	0x3be63ecb	0.0070265285
85	0xbc1c2217	-0.009529612
86	0x3da2412b	0.07922586
87	0x3d4de1ce	0.050264172
88	0xbd227829	-0.039665375
89	0x3cf9011b	0.030396035
90	0xbcca2b40	-0.024678826
91	0xbd03f0fa	-0.032212235
92	0xbbd2cbdf	-0.0064329947
93	0x3d981265	0.074253835
94	0x3d299a62	0.041406997
95	0x3cb43691	0.021998676
96	0xbcb78069	-0.022400098
97	0xbc783fda	-0.015151942
98	0xbd11f90a	-0.035637893
99	0x3d73bccf	0.059506234
100	0xbc2ffb5a	-0.010741079
101	0x3d850482	0.064950004
102	0xbcc00a1a	-0.023442317
103	0x3c9e850b	0.01935055
104	0xbcd4237d	-0.025895828
105	0xbc985d49	-0.01859917
106	0xbbee377d	-0.0072697983
107	0xbcd64a73	-0.026158547
108	0xbc383982	-0.01124418
109	0xbd5c66b0	-0.053808868
110	0xbcd4a16e	-0.025955882
111	0x3ce72312	0.028214965
112	0x3d2019d8	0.039087147
113	0x3d87d920	0.0663321
114	0x3d23c4ac	0.039982483
115	0xbcaa9a67	-0.020825578
116	0x3b0f0233	0.002182138
117	0xbdd53a15	-0.10411469
118	0x3d456eca	0.04820136
119	0x3c8f6680	0.01750493
120	0x3d25dc72	0.040493436
121	0xbc826ae0	-0.015920103
122	0x3d904a2c	0.07045397
123	0x3d4ffe73	0.05077977
124	0xbc928825	-0.017887184
125	0x3b07d254	0.002072473
126	0x3bf5f1e1	0.007505641
127	0xbd61e5ad	-0.055150677
128	0xbbfca0da	-0.0077096047
129	0x3c6ebbd9	0.014571154
130	0x3dccc837	0.099991255
131	0xbbbfbd81	-0.005851448
132	0xbd5d518f	-0.05403286
133	0x3d8d66de	0.06904386
134	0xbca0d782	-0.019634012
135	0xbd147345	-0.036242742
136	0xbc64f457	-0.013974271
137	0xbcce6677	-0.025195343
138	0x3d2f03fc	0.04272841
139	0xbb646b5c	-0.003485403
140	0x3cacb5d9	0.021082805
141	0xbc475377	-0.012165896
142	0x3d795d60	0.060880065
143	0xbcbe8a29	-0.02325924
144	0x3d57b22b	0.05266015
145	0x3cbbafc7	0.022910966
146	0x3b6df18b	0.00363073
147	0xbd3103c7	-0.043216493
148	0xbd99c159	-0.07507581
149	0xbd366005	-0.044525165
150	0xbc7f69c1	-0.015589179
151	0x3d3dfe1e	0.046384923
152	0x3b8de576	0.0043303324
153	0x3d8997f6	0.067184374
154	0x3c055932	0.008138942
155	0x3d4ec109	0.05047706
156	0xbd7cdc7f	-0.06173372
157	0xbd853e58	-0.06506032
158	0xbd939aef	-0.072072856
159	0x3ad51a6d	0.0016258486
160	0x3d1269c1	0.035745386
161	0x3c686447	0.014184064
162	0x3d4db3fe	0.050220482
163	0xbcadb02f	-0.021202175
164	0xbcb502d7	-0.02209608
165	0x3bf3972b	0.007433792
166	0xbd45aaee	-0.048258714
167	0x3d67e41c	0.056614026
168	0xbc5428c5	-0.012949173
169	0xbd872e0c	-0.066005796
170	0xbd533103	-0.051560413
171	0x3d76591a	0.060143568
172	0xbd2c57fc	-0.042076096
173	0x3d430780	0.047614574
174	0xbc9167f1	-0.017749758
175	0xbd641000	-0.05567932
176	0xbc512cbe	-0.012767015
177	0x39349f8f	0.00017225578
178	0x3bcf5baa	0.006328066
179	0x3bb5fe96	0.0055540306
180	0x3dbeaa53	0.093098305
181	0x3dca94f8	0.09891695
182	0x3d541ccb	0.05178527
183	0xbc36d12b	-0.011158268
184	0xbcd05b23	-0.025434082
185	0x3c23b63a	0.009992177
186	0xbdd40146	-0.103518054
187	0xbe170066	-0.14746246
188	0x3d06308f	0.032761153
189	0x3d8d12f8	0.068883836
190	0xbb7ba167	-0.0038395764
191	0x3d8a4e7e	0.067532524
192	0x3ca68325	0.020326206
193	0xbd1f1ac6	-0.038843893
194	0xbb9958f5	-0.004679794
195	0xbcf359d6	-0.029705923
196	0xbd045af6	-0.03231331
197	0xbcd95201	-0.02652836
198	0xbc53d27e	-0.012928603
199	0xbd31ec45	-0.043438215
200	0x3cf9e1a1	0.030503096
201	0xbcefe10a	-0.029282112
202	0x3ceb56cb	0.02872791
203	0xbdb2638f	-0.087103955
204	0x3c966544	0.018358834
205	0xbd63dc2b	-0.05562989
206	0xbcc801be	-0.024414893
207	0xbd536fe1	-0.051620368
208	0xbd8b1f9c	-0.067931384
209	0x3c94de61	0.018172445
210	0x3b49033b	0.0030672092
211	0xbce837cd	-0.02834692
212	0xbcf33a0f	-0.02969077
213	0xbd08240a	-0.033237495
214	0x3d205d60	0.03915155
215	0x3cc1428a	0.023591299
216	0xbc0d3f86	-0.008621102
217	0x3d898e5f	0.06716608
218	0x3bf893f2	0.007585996
219	0xbd86efec	-0.0658873
220	0xbd7855a2	-0.06062854
221	0x3c47b03a	0.012188012
222	0xbce0d3f3	-0.027444815
223	0xbd7fc1b1	-0.062440578
224	0xbd15d776	-0.036582433
225	0x3cd04a2f	0.025425998
226	0x3c11fac2	0.008909883
227	0xbbee70ec	-0.007276645
228	0xbdab7087	-0.08371072
229	0xbbd68391	-0.0065464457
230	0xbc9c5651	-0.019084128
231	0xbc1a82e5	-0.009430622
232	0x3d74fb27	0.05980983
233	0xbd250431	-0.0402872
234	0xbc992495	-0.018694201
235	0x3d1ab8ab	0.03777377
236	0xbdd5c53e	-0.104380116
237	0x3da180c9	0.07885892
238	0x3bcbe660	0.006222531
239	0xbd80e58a	-0.06293781
240	0xb983fad0	-0.00025173137
241	0xbbdd9184	-0.0067617316
242	0xbd4ddd68	-0.050259978
243	0xbda0cf37	-0.07852023
244	0x3d73cc2e	0.059520893
245	0xbda2c3a6	-0.07947473
246	0xbd18c95b	-0.037301403
247	0xbd26f10f	-0.040757235
248	0x3d03abd6	0.032146297
249	0xbd14577f	-0.036216255
250	0x3d3fe6c2	0.046850927
251	0xbc9cbed2	-0.019133959
252	0x3c10c42d	0.008835834
253	0xbcdc991c	-0.026928477
254	0x3d7bb66e	0.061453275
255	0x39eeed4c	0.00045571697

net.0.bias f4 [32]
0	0x3ca98648	0.020693913
1	0xbce89409	-0.028390901
2	0x39de76c7	0.00042431636
3	0x3d509d0c	0.05093102
4	0x3c756530	0.014977738
5	0x3d5aa41a	0.053379156
6	0x3d48ae07	0.04899409
7	0x3d0c80a5	0.034302372
8	0xbc3e1001	-0.011600495
9	0xbd06ab1e	-0.032878034
10	0x3c7c2e48	0.015391894
11	0x3cb76078	0.022384867
12	0xbd4da8fc	-0.050209984
13	0x3c8e1661	0.017344655
14	0xbd241503	-0.0400591
15	0x3c4cf253	0.0125089465
16	0xbbe0fdd7	-0.0068661976
17	0xbd468c28	-0.048473507
18	0xbcba95a7	-0.022776438
19	0xbd67c5d6	-0.056585155
20	0x3d6ddc24	0.05807127
21	0x3b91243b	0.004429368
22	0x3b53d38c	0.0032322137
23	0x3b393eb0	0.0028266124
24	0x3c7dd626	0.0154929515
25	0x3c0f196f	0.008734091
26	0xbc06bedb	-0.008224214
27	0xbaf5b3f4	-0.0018745647
28	0xbbb309fa	-0.005463836
29	0xbd401210	-0.046892226
30	0x3d133ca2	0.035946496
31	0x3d810f87	0.0630179

net.2.module.0.weight f4 [32, 32, 3]
0	0xbd88f074	-0.06686488
1	0x3d501a5a	0.05080638
2	0xbd97f593	-0.074198864
3	0xbd6ad2c0	-0.057329893
4	0xbd7bc3f7	-0.061466184
5	0x3d1fecc0	0.03904414
6	0x3d9fa662	0.07795407
7	0x3c74ef42	0.014949622
8	0x3d7764a9	0.06039873
9	0x3d0ea6d0	0.034827054
10	0x3bd2ac5c	0.0064292382
11	0x3ccf0dfc	0.025275223
12	0x3d822f7f	0.063567154
13	0x3dce6821	0.10078455
14	0x3dce5a87	0.100758605
15	0x3dbbc9ff	0.09169387
16	0xbc878dd7	-0.016547127
17	0xbd84422e	-0.06457935
18	0xbd9b3b6a	-0.07579692
19	0x3de76615	0.112987675
20	0x3e129a8b	0.14316766
21	0xbd335e04	-0.043790832
22	0xbd42a754	-0.047522858
23	0xbd54db46	-0.051966928
24	0x3b6073e5	0.0034248766
25	0x3db8f3ae	0.09030853
26	0x3d17100f	0.03688055
27	0xbd8d0753	-0.068861626
28	0x3da41175	0.08011142
29	0x3d0dd8e8	0.034630686
30	0x3c2956bc	0.0103356205
31	0xbceac552	-0.028658543
32	0xbd895f72	-0.06707658
33	0x3cd93363	0.02651376
34	0x3d6ae13b	0.057343703
35	0x3deecf04	0.11660579
36	0xbdb3ca20	-0.08778787
37	0x3d5635d4	0.05229743
38	0x3c91ee28	0.017813757
39	0x3d670e0e	0.056409888
40	0x3da57d22	0.08080508
41	0x3dfb162f	0.122600906
42	0xbc9d2b06	-0.019185554
43	0xbc964455	-0.01834313
44	0xbd6dd407	-0.058063533
45	0x3b147cc8	0.0022657383
46	0x3d9daa84	0.07698539
47	0x3dbed258	0.09317464
48	0xbd0a163c	-0.03371261
49	0x3d4eff5c	0.0505365
50	0xbde25a7f	-0.11052417
51	0xbdc9c41f	-0.0985186
52	0x3d8e7120	0.06955171
53	0xbd6b3c58	-0.057430595
54	0xbc53126b	-0.012882809
55	0x3ce68e75	0.0281441
56	0xbda11b23	-0.07866504
57	0xbdb621e7	-0.08893185
58	0xbdbfe2c2	-0.093694225
59	0xbca3e72f	-0.020007698
60	0xbd94ffc9	-0.0727535
61	0xbc423732	-0.01185398
62	0x3da28e5e	0.07937311
63	0x3d6facdb	0.058514457
64	0xbcadf9e3	-0.02123732
65	0xbe04ce6d	-0.1296937
66	0xbd713239	-0.058885787
67	0x3d204a09	0.039133105
68	0x3d649a0f	0.055810984
69	0xbe062438	-0.13099754
70	0xbdb88f04	-0.09011653
71	0xbd9aeaa2	-0.07564284
72	0x3d668961	0.05628336
73	0x3d124be8	0.03571692
74	0x3cfd16cf	0.030894665
75	0x3c20dab3	0.009817767
76	0xbb89b4bc	-0.0042024534
77	0xbdac6c6f	-0.084191196
78	0xbdb6b688	-0.08921534
79	0x3d67f8ac	0.056633636
80	0x3d26254e	0.04056292
81	0xbc7e9e3d	-0.015540657
82	0x3d366cd4	0.04453738
83	0xbbe9d119	-0.007135522
84	0xbc951eb2	-0.018203113
85	0xbd0e9973	-0.03481431
86	0xbd9656a6	-0.07340746
87	0x3d189a6d	0.037256647
88	0xbd35b361	-0.044360522
89	0x3e102b2a	0.14078966
90	0x3c62e51a	0.013848567
91	0x3b821aad	0.003970465
92	0xbd97b73d	-0.07407997
93	0xbd8f3b7d	-0.06993768
94	0xbcdf32fe	-0.027245995
95	0xbcc591e5	-0.02411742
96	0xbd9de4f5	-0.07709686
97	0xbd89a255	-0.067204155
98	0xbd440136	-0.047852717
99	0x3d64e236	0.055879794
100	0x3d1247b2	0.035712905
101	0xbcf0df6f	-0.029403416
102	0x3d9a5f00	0.07537651
103	0xbda335ea	-0.07969268
104	0x3db5425e	0.08850549
105	0xbc906303	-0.017625337
106	0x3d9e0965	0.077166356
107	0xbd7e5e28	-0.062101513
108	0xbd8a6f66	-0.06759529
109	0xbb628f96	-0.0034570447
110	0x3d3d96f3	0.046286535
111	0x3d223fee	0.03961175
112	0xbcdbdcc3	-0.026838666
113	0xbd750057	-0.059814777
114	0x3d26063c	0.04053329
115	0xbca3516c	-0.019936286
116	0xbd408565	-0.047002215
117	0xbbba7c67	-0.0056910994
118	0x3d3afe95	0.045652945
119	0x3d4bc0a8	0.04974428
120	0x3d46fce3	0.048581015
121	0xbcb74f26	-0.022376608
122	0xbd54e29f	-0.051973935
123	0xbdc299ba	-0.09501977
124	0xbda9060c	-0.082531065
125	0x3d9d9030	0.07693517
126	0x3dbc1bbc	0.091849774
127	0x3d1650f6	0.036698304
128	0x3cd613c8	0.02613248
129	0x3a171b17	0.00057642296
130	0xbd4d89e8	-0.050180346
131	0x3d5b0602	0.053472526
132	0x3cb85b7c	0.02250456
133	0xbdb83b11	-0.08995641
134	0xbc16f0c5	-0.009212677
135	0xbd0baee9	-0.034102354
136	0xbda19d24	-0.078913
137	0xbd15019f	-0.0363785
138	0x3d2796ff	0.040915485
139	0x3d25fdef	0.040525373
140	0xbd759b06	-0.059962295
141	0xbd7814ec	-0.060566828
142	0xba84f6d1	-0.0010144358
143	0x3d686084	0.05673267
144	0x3d8ab28e	0.06772338
145	0xbd0d0a03	-0.034433376
146	0xbdea8a0d	-0.11452112
147	0x3dc5d7f8	0.096603334
148	0xbc4b2a46	-0.0124002155
149	0x3d337937	0.04381677
150	0x3dcbb1c6	0.09946017
151	0xbd83cb90	-0.06435311
152	0xbd831195	-0.06399838
153	0xbccd8e45	-0.025092253
154	0x3cbe70d8	0.023247167
155	0xbdd0ba65	-0.10191802
156	0xbda45f9a	-0.08026047
157	0x3d19f36e	0.03758567
158	0x3c1b5dec	0.009482842
159	0x3d8277ee	0.06370531
160	0xbd938570	-0.072031856
161	0xbd014b00	-0.031565666
162	0xbde69376	-0.11258595
163	0x3d5c1bfc	0.053737625
164	0x3dbb3f04	0.09142879
165	0x3d75af4a	0.05998162
166	0x3cbd91a3	0.023140734
167	0xbd560a7d	-0.052256096
168	0x3d6dd8d8	0.058068126
169	0x3d5e629e	0.054293267
170	0xba686ea3	-0.0008866584
171	0xbda49d46	-0.0803781
172	0x3d00de03	0.031461727
173	0x3d3ff886	0.04686787
174	0x3d018f4b	0.031630795
175	0xbca8b380	-0.020593405
176	0xbd1cc616	-0.038274847
177	0xbd068233	-0.03283901
178	0xbce85f09	-0.028365629
179	0x3db09505	0.08622173
180	0xbd43b48b	-0.0477796
181	0x3d056fd7	0.032577362
182	0xbc9a9704	-0.018870838
183	0xbc9d92a3	-0.01923496
184	0xbce726a3	-0.028216666
185	0x3beab6eb	0.007162919
186	0xbcd0587e	-0.025432821
187	0x3d93bba2	0.072135225
188	0xbdaa77d5	-0.083236374
189	0xbd03e927	-0.032204773
190	0x3d83648b	0.064156614
191	0x3d00b834	0.03142567
192	0xbceabc91	-0.028654369
193	0xbc99993d	-0.018749828
194	0xbd1fb577	-0.038991418
195	0xbdbbfae9	-0.09178717
196	0xbd8310c9	-0.06399686
197	0x3c8de349	0.017320292
198	0x3cf985a6	0.030459236
199	0xbdd260f1	-0.10272396
200	0xbd500e8f	-0.050795134
201	0xbd13e2a6	-0.03610482
202	0x3d9775c5	0.0739551
203	0xbd82cf55	-0.06387202
204	0xbdc37560	-0.09543872
205	0x3d340a11	0.043954913
206	0xbdd65384	-0.10465148
207	0xbd274816	-0.04084023
208	0xbb56ced2	-0.0032777083
209	0x3d14c7e0	0.03632343
210	0xbc3c3c39	-0.011488968
211	0x3cd27e38	0.025694951
212	0xbdd24d8c	-0.10268697
213	0x3da2b90c	0.07945451
214	0xbcfcab17	-0.0308433
215	0xbdc62b56	-0.096762344
216	0x3dd0f39e	0.10202716
217	0x3d832416	0.06403367
218	0x3db4f830	0.088364005
219	0x3c58872e	0.013215823
220	0xbd829df9	-0.06377787
221	0xbd82b449	-0.06382043
222	0x3d7179ea	0.058954157
223	0x3da49306	0.08035855
224	0x3c797d67	0.015227652
225	0xba0b2fcd	-0.0005309552
226	0x3b8d8477	0.0043187696
227	0x3d65ad98	0.056073755
228	0x3dee9f4a	0.11651476
229	0xbdc0172e	-0.09379421
230	0x3d09e88b	0.033669036
231	0xbdd9733d	-0.10617683
232	0xbd283ff0	-0.0410766
233	0xbd196cb3	-0.03745718
234	0x3c29a9ff	0.010355472
235	0x3d4d77e7	0.050163176
236	0x3daa1016	0.083038494
237	0xbdaad6ca	-0.08341749
238	0x3cec891c	0.028873973
239	0x3d526c7b	0.051372986
240	0xbd367a59	-0.044550274
241	0xbb4751c6	-0.003041373
242	0x3d74087f	0.059578415
243	0x3db481ba	0.08813806
244	0x3babb3d2	0.005239942
245	0xbc394191	-0.011307136
246	0xbd836985	-0.06416611
247	0xbd64c88a	-0.05585531
248	0xbb8717d8	-0.0041227154
249	0x3d8c89bb	0.068622075
250	0x3d0d29ac	0.03446357
251	0xbcb108c1	-0.02161062
252	0xbdf58c90	-0.11989701
253	0x3de9d30b	0.114172064
254	0xbda04666	-0.078259274
255	0xbd6b051f	-0.05737793

net.2.module.0.bias f4 [32]
0	0xbdb9bbe7	-0.09069043
1	0x3d1674d5	0.036732513
2	0x3d25b750	0.040458024
3	0xbd8a7f4f	-0.067625634
4	0x3d596f5e	0.053084724
5	0xbd60ddff	-0.054899212
6	0x3d484d14	0.048901632
7	0x3d71d5c3	0.05904175
8	0xbd9b796d	-0.075915195
9	0x3d9dc289	0.0770312
10	0x3c658175	0.014007916
11	0x3d4467d9	0.0479506
12	0x3dd3da85	0.10344414
13	0x3a9b4fee	0.0011849382
14	0xbd2fb6d0	-0.042898953
15	0xbd973352	-0.073828354
16	0xbd47d861	-0.04879034
17	0xbcc84866	-0.024448585
18	0x3d905023	0.07046535
19	0x3dbf26ed	0.093335964
20	0xbd03a296	-0.032137476
21	0xbd9d288b	-0.076737486
22	0x3d8aa0b8	0.06768936
23	0x3bf0ce2c	0.0073487964
24	0xbcb61e2a	-0.02223118
25	0xbdc493f7	-0.095985346
26	0xbcd0e429	-0.02549942
27	0x3c378e6e	0.0112033915
28	0xbd90d2ca	-0.07071455
29	0x3cc03798	0.02346401
30	0xbc437339	-0.011929327
31	0xbc198d88	-0.009372123

net.3.module.0.weight f4 [32, 32, 3]
0	0xbd09572b	-0.033530395
1	0x3b9b0738	0.004731085
2	0x3dc9908d	0.09842024
3	0xbd2c43b6	-0.04205676
4	0xbdbefde6	-0.09325771
5	0x3cb6656a	0.022265155
6	0x3db4fa61	0.088368185
7	0xbd25beb7	-0.040465083
8	0x3d2c5ecf	0.042082604
9	0xbd537eb6	-0.051634513
10	0xbd15840a	-0.036502875
11	0x3c8bf945	0.017086634
12	0x3d1a4c54	0.03767045
13	0x3d334598	0.04376754
14	0x3dddce82	0.10830404
15	0xbdc52eed	-0.09628091
16	0x3d988428	0.07447082
17	0xbe032bce	-0.12809679
18	0x3d087132	0.033311076
19	0x3da354ce	0.079751596
20	0xbb5c53a2	-0.0033619185
21	0x3d838805	0.06422428
22	0xbda66192	-0.08124079
23	0x3d9b7f2d	0.07592616
24	0x3db3e0b3	0.08783092
25	0xbcee2e82	-0.029074911
26	0xbe02f3ff	-0.1278839
27	0xbdb627a6	-0.08894281
28	0x3d0c56a8	0.03426233
29	0x3dc92e25	0.098232545
30	0x3dc926ec	0.09821877
31	0xbc94df9e	-0.018173035
32	0x3df30bbd	0.11867473
33	0x3cccbe2b	0.024993023
34	0x3baa47a0	0.0051965266
35	0x3dcffd3a	0.10155721
36	0x3d395ae3	0.045252692
37	0xbcb23e50	-0.021758229
38	0x3d8c1e1b	0.0684168
39	0x3d09bac0	0.033625364
40	0x3c441a5d	0.011969176
41	0x3dda7e27	0.10668593
42	0xbd664199	-0.056214903
43	0xbe045527	-0.12923108
44	0xbd9717f6	-0.07377617
45	0x3d2f6694	0.042822435
46	0x3ddec195	0.108767666
47	0xbd06be38	-0.03289625
48	0xbdb9e1e2	-0.09076287
49	0xbb5caf51	-0.0033673833
50	0xbd7b0352	-0.061282463
51	0x3dc2e9ed	0.09517274
52	0xbd9ebe22	-0.07751109
53	0xbdcb22b6	-0.0991873
54	0xbd8a15b5	-0.067424215
55	0x3d96e7f8	0.07368463
56	0x3e0cd70c	0.13753909
57	0x3d446121	0.04794419
58	0xbd63b010	-0.05558783
59	0x3d6cc6eb	0.05780689
60	0xbd2cd248	-0.042192727
61	0x3c8c0af3	0.017095065
62	0x3d50114b	0.05079774
63	0xbd7e7a50	-0.062128365
64	0x3d0aa568	0.03384915
65	0x3d910df1	0.07082737
66	0xbdbb0f0c	-0.09133729
67	0xbd82654b	-0.06366976
68	0x3c8bf91d	0.01708656
69	0x3d89e96d	0.067339756
70	0xb90b8c86	-0.00013308422
71	0xbd176e4f	-0.036970433
72	0xbda16145	-0.07879881
73	0xbc91551b	-0.017740777
74	0x3ce1914d	0.027535105
75	0x3d9d6ec5	0.07687143
76	0x3d69daa1	0.057093266
77	0xbce9d808	-0.028545395
78	0x3c0033f3	0.007824886
79	0xbc9b5c9e	-0.018965062
80	0xbc96fc9e	-0.018431004
81	0x3cec1940	0.028820634
82	0x3b7fd77b	0.0039038348
83	0xbbf37072	-0.007429176
84	0x3d2be6fe	0.04196834
85	0x3cae1064	0.02124805
86	0x3d9821fa	0.074283555
87	0xbd9fbd38	-0.077997625
88	0x3d8c2bd4	0.06844297
89	0xbda0f5f8	-0.07859415
90	0xbd82501f	-0.06362938
91	0x3d0f80fc	0.03503512
92	0xbd99f371	-0.07517136
93	0x3d1a22e9	0.03763095
94	0xbd5ab4ee	-0.053395204
95	0x3c92bcaa	0.017912228
96	0xbd982eb5	-0.07430784
97	0x3dec4692	0.11536898
98	0x3ca93598	0.020655438
99	0xbd9aaf21	-0.075529344
100	0xbd562fba	-0.05229161
101	0x3d6c9235	0.05775662
102	0xbd1f078e	-0.038825564
103	0xbc9f86c9	-0.01947345
104	0xbdc11c8b	-0.09429272
105	0x3ccd3a09	0.025052087
106	0x3ba43297	0.0050109136
107	0x3d5ab6da	0.053397037
108	0xbdc9f87a	-0.09861846
109	0xbd20634d	-0.0391572
110	0x3dd2d53f	0.1029458
111	0x3d35f93c	0.04442714
112	0x3c2ffce9	0.010741451
113	0xbda665d4	-0.08124891
114	0x3b8da15a	0.004322213
115	0xbd2de152	-0.04245121
116	0x3ddbbdd1	0.10729564
117	0xbd884868	-0.066544354
118	0x3d837281	0.06418324
119	0x3d91b46b	0.0711449
120	0x3c634c05	0.013873105
121	0xbceffcac	-0.029295288
122	0x3cbdeaf8	0.02318333
123	0xbdb29789	-0.08720309
124	0x3d25ea20	0.040506482
125	0x3ce4f0c4	0.027946837
126	0x3dfc210a	0.12310989
127	0x3d8afd5d	0.067866065
128	0x3dda4950	0.106585145
129	0xbdc9d2d2	-0.09854664
130	0xbbb6da26	-0.0055802045
131	0x3d9e4c0d	0.07729349
132	0x3ce2d8c4	0.027691253
133	0x3dbe1606	0.092815444
134	0x3dcaaa1b	0.09895726
135	0x3dac90c4	0.08426049
136	0xbdabcc80	-0.08388615
137	0x3db76eda	0.0895669
138	0xbcb02051	-0.021499785
139	0xbd78a7e6	-0.060706995
140	0xbd165e24	-0.036710873
141	0xbda592c3	-0.08084633
142	0x3d8d46ec	0.06898293
143	0x3d1a7f60	0.03771913
144	0x3d8c4000	0.068481445
145	0x3d871640	0.06596041
146	0x3cc20627	0.023684574
147	0x3d59d40e	0.053180747
148	0xbdbb82e7	-0.09155827
149	0x3de3ccdd	0.11123059
150	0x3cb6e935	0.022327999
151	0x3cbc5c26	0.022993159
152	0xbd72c4db	-0.059269767
153	0xbdb42e4e	-0.087978944
154	0xbdd6bd9f	-0.10485386
155	0x3d5a0e8e	0.053236537
156	0x3d26c082	0.040710934
157	0x3cbdf74e	0.023189213
158	0x3db053e0	0.08609748
159	0x3d8a812d	0.067629196
160	0xbc2ddb90	-0.01061143
161	0x3db51bc7	0.08843189
162	0xbddc5056	-0.1075751
163	0xbdc6042b	-0.09668764
164	0xbd83ca06	-0.06435017
165	0xbdbb5ea7	-0.09148913
166	0x3cbd7487	0.023126854
167	0xbdff1914	-0.12455955
168	0xbd708153	-0.058717083
169	0x3d2464a9	0.04013506
170	0xbd57e778	-0.05271098
171	0x3d845c45	0.064629115
172	0xbd833195	-0.064059414
173	0xbbcdeaba	-0.006284085
174	0xbc5b55fc	-0.0133871995
175	0x3d19a031	0.037506286
176	0xbce376ac	-0.027766548
177	0x3da4121d	0.08011267
178	0xbca607f8	-0.020267472
179	0x3d1cbae1	0.03826416
180	0xbd0dc741	-0.03461385
181	0x3b1a881e	0.0023579667
182	0x3db8135b	0.08988067
183	0xbcd8af52	-0.026450787
184	0x3d38c670	0.04511112
185	0x3dbb0bdf	0.091331236
186	0xbd4a93ca	-0.04945735
187	0x3d815054	0.063141495
188	0x3d6a4f1b	0.057204347
189	0xbd83c006	-0.0643311
190	0x3db2bc6d	0.087273456
191	0x3dae3f4d	0.085081674
192	0x3d5433d2	0.051807232
193	0xbd91f5ee	-0.071269855
194	0x3d3bb3ab	0.04582564
195	0xbd5397f7	-0.051658597
196	0x3d93d475	0.07218257
197	0x3cf32aee	0.029683556
198	0xbd4fa805	-0.050697345
199	0x3cdc9409	0.026926057
200	0xbdcf1921	-0.10112215
201	0x3d035686	0.032064937
202	0xbdba3ce6	-0.09093647
203	0x3d2c2f00	0.04203701
204	0x3d4223bd	0.047397364
205	0xbd4fb01e	-0.050705068
206	0x3a5d72d5	0.0008447592
207	0xbd0fc4c3	-0.035099756
208	0x3d446aca	0.047953404
209	0xbc71a4cb	-0.014748762
210	0x3d047e5a	0.03234706
211	0xbdcbe3e0	-0.09955573
212	0xbdbd82c3	-0.092534564
213	0xbd70e9f5	-0.05881687
214	0xbda87cfc	-0.08226964
215	0x3c1b5baa	0.009482304
216	0x3dd02612	0.10163511
217	0x3dadfbc8	0.08495289
218	0xbdacbce1	-0.08434463
219	0x3d714daa	0.058911957
220	0xbdac16d0	-0.08402789
221	0x3dd90550	0.105967164
222	0x3d29c8ea	0.041451372
223	0xbdcc081d	-0.09962485
224	0x3d8370c7	0.06417995
225	0xbcf38b94	-0.029729642
226	0xbc1bef05	-0.009517436
227	0x3dc731d5	0.097263016
228	0x3d39f76a	0.045401968
229	0xbc2c94d1	-0.0105335275
230	0xbdd634a8	-0.10459262
231	0xbd3f8b60	-0.046763778
232	0x3d72f715	0.059317667
233	0x3c000866	0.007814502
234	0xbd478a4b	-0.04871587
235	0xbc92b385	-0.017907867
236	0xbcd1bc7b	-0.02560257
237	0xbd491e35	-0.049101073
238	0x3d316580	0.04330969
239	0x3d265d5d	0.040616382
240	0x3c3dd0ee	0.011585457
241	0xbdbdb5a8	-0.09263164
242	0x3d4530db	0.048142295
243	0x3d935a3c	0.07194945
244	0x3d7cd0c6	0.06172254
245	0x3db5ed34	0.088831335
246	0xbda2dde5	-0.07952479
247	0x3cf35a63	0.029706186
248	0x3d950030	0.072754264
249	0x3dbc7499	0.09201927
250	0x3da2077c	0.07911584
251	0xbca913e1	-0.020639362
252	0x3d32b484	0.043629184
253	0x3d24547d	0.040119637
254	0xbd8e9684	-0.06962302
255	0xbda5939d	-0.080847956

net.3.module.0.bias f4 [32]
0	0x3cfea609	0.031085031
1	0xbd2bc30b	-0.041934054
2	0xbdca0ac4	-0.09865335
3	0xbd57bd69	-0.05267087
4	0x3d5028dc	0.050820217
5	0xbccc6523	-0.02495057
6	0x3d6d5631	0.057943527
7	0xbabdfa97	-0.0014494237
8	0xbd515961	-0.05111063
9	0xbce9d43c	-0.028543584
10	0xbc6a67f9	-0.014307016
11	0x3b201540	0.0024426728
12	0xbd1dc392	-0.03851659
13	0xbdc59c2b	-0.09648927
14	0x3d700b4f	0.058604535
15	0xbb9043a1	-0.0044025932
16	0xbb4ceac8	-0.003126787
17	0xbd435af4	-0.04769416
18	0x3d894e37	0.067043714
19	0x3d7f0bda	0.062267162
20	0xbd5c3a3c	-0.053766474
21	0xbd18a505	-0.03726675
22	0x3b94fce4	0.0045467485
23	0xbdc81375	-0.09769336
24	0xbd9d5d22	-0.07683779
25	0x3db2eeb5	0.08736936
26	0xbca6c7ba	-0.020358909
27	0x3cf7a231	0.030228706
28	0x3d792f32	0.060836025
29	0x3d1e322c	0.038622066
30	0xbd0256d3	-0.031821083
31	0x3db3b51f	0.087747805

net.4.module.0.weight f4 [32, 32, 3]
0	0x3d9c7955	0.0764033
1	0x3d5499d7	0.051904526
2	0xbc30bd10	-0.0107872635
3	0xbdc40a47	-0.09572273
4	0xbd457cd0	-0.048214734
5	0x3d8b734c	0.068091005
6	0xbbd1272c	-0.0063828435
7	0x3d2eb686	0.042654537
8	0x3d0de18c	0.034638926
9	0xbc81c42a	-0.015840609
10	0x3c4d89a5	0.012545024
11	0x3d2a000f	0.041503962
12	0x3d8cb511	0.06870473
13	0xbd9753a2	-0.073889986
14	0x3d4d0227	0.05005088
15	0x3d8a3839	0.06749005
16	0xbdbc2f77	-0.09188741
17	0x3dc4f82e	0.09617649
18	0x3d29632f	0.041354354
19	0x3dd883b7	0.105719976
20	0x3d4c56a4	0.049887314
21	0xbd5f56d9	-0.054526184
22	0xbd40363a	-0.046926714
23	0xbc0e440c	-0.008683216
24	0x3c5388f8	0.012911074
25	0x3d3e0c74	0.046398595
26	0xbdd617f7	-0.1045379
27	0xbda58af7	-0.08083146
28	0x3ce57257	0.028008623
29	0x3ce17906	0.027523529
30	0x3cd84e21	0.026404442
31	0xbc9a63dd	-0.018846447
32	0x3db83de4	0.0899618
33	0xbd059876	-0.0326161
34	0xbd42978b	-0.047507804
35	0x3dba17de	0.090865836
36	0x3c5d51e3	0.013508293
37	0x3ddc5040	0.10757494
38	0x3dc42d39	0.09578938
39	0xbdaf20a1	-0.08551145
40	0xbc4e77a4	-0.012601767
41	0xbd4316cd	-0.047629166
42	0x3d8fe437	0.070259504
43	0x3c21e8d6	0.009882173
44	0xbd8c01cb	-0.068362795
45	0x3d280597	0.041020956
46	0xbd0ee3f5	-0.034885366
47	0x3d5dbf26	0.05413737
48	0xbd0d8e2c	-0.034559414
49	0xbd78de53	-0.0607589
50	0xbdbfabb3	-0.09358921
51	0x3b2905b8	0.0025790762
52	0xbd68f5b9	-0.056874964
53	0xbd77247f	-0.06033754
54	0x3cd82aed	0.026387656
55	0xbccdc34d	-0.02511754
56	0x3c2c1898	0.0105039105
57	0x3cbcda41	0.02305329
58	0x3de00de8	0.109401524
59	0x3dc70cbc	0.09719226
60	0x3d0a44c5	0.03375699
61	0x3d4d1adb	0.05007444
62	0x3cecd089	0.028908031
63	0x3d059377	0.032611337
64	0xbce4f528	-0.02794893
65	0xbd858b6c	-0.06520733
66	0x3cb24bd2	0.02176467
67	0x3dc5d34f	0.096594445
68	0xbd7edfb2	-0.06222505
69	0xbdfc40e7	-0.12317067
70	0xbda01101	-0.07815743
71	0x3ccef604	0.025263794
72	0x3d82f140	0.06393671
73	0x3dbdebdf	0.092735045
74	0xbc811522	-0.015757147
75	0x3df2e372	0.11859788
76	0xbd986e02	-0.07442857
77	0x3c93a9ca	0.018025298
78	0x3bf9e409	0.007626061
79	0x3a430149	0.0007438851
80	0x3db3775a	0.08762999
81	0x3d388c84	0.04505588
82	0xbbffab5a	-0.007802409
83	0x3d545e85	0.051847953
84	0x3d5ef5e7	0.05443373
85	0x3d97f518	0.07419795
86	0x3d37ddad	0.04488914
87	0x3dacc6f2	0.08436383
88	0xbd94c122	-0.072634
89	0x3d773dc7	0.06036165
90	0xbd96dd2c	-0.07366404
91	0x3dcadc33	0.09905281
92	0xbe001472	-0.125078
93	0x3d07a2c8	0.033114225
94	0xbdc241b8	-0.09485191
95	0xbd9331c4	-0.071872264
96	0xbd0c9d58	-0.034329742
97	0x3c46f0c7	0.012142367
98	0xbcd16aee	-0.025563683
99	0xbdcd1d4f	-0.10015356
100	0x3d8148e9	0.06312735
101	0x3d5cb108	0.053879768
102	0xbd83da99	-0.064381786
103	0x3dc8ed3c	0.09810874
104	0xbd9b17fd	-0.07572935
105	0xbc6aa752	-0.014322119
106	0xbdc5b8e2	-0.09654404
107	0x3d299844	0.041404977
108	0x3d21f26b	0.03953783
109	0xbca002a5	-0.019532511
110	0xbbb38b52	-0.0054792548
111	0xbd497a73	-0.049189042
112	0x3b4e5ee5	0.0031489667
113	0x3daf31b6	0.085544035
114	0xbd9005a6	-0.07032327
115	0xbd361023	-0.044448983
116	0xbd5c5a6d	-0.053797174
117	0x3da9edda	0.0829732
118	0xbd9f62ce	-0.077825174
119	0xbd483a74	-0.04888387
120	0x3bc7d1bd	0.006098001
121	0x3c86cf2e	0.016456213
122	0x3b7d37ee	0.0038638073
123	0x3db0d4db	0.08634349
124	0xbd8b974b	-0.06815966
125	0xbc1d330b	-0.009594689
126	0x3d7ab01d	0.06120311
127	0xbd1981ee	-0.037477426
128	0xbbc80908	-0.0061045922
129	0x3d6ce949	0.057839666
130	0x3da0ff21	0.07861162
131	0x3ce9e1ab	0.02854999
132	0xbd8b6d20	-0.06807923
133	0x3d92c7e6	0.07167034
134	0x3cef84ff	0.029238222
135	0xbce366c5	-0.027758965
136	0xbc8455d3	-0.016154205
137	0x3cc76bfd	0.024343485
138	0xbdc39c56	-0.09551303
139	0x3d2c84d4	0.042118862
140	0xbd80ce14	-0.06289306
141	0x3d4da7c4	0.050208822
142	0x3de10658	0.10987538
143	0x3b9abdef	0.004722349
144	0xbdb4623c	-0.08807799
145	0xbdc19b5b	-0.0945346
146	0xbe058f74	-0.13043004
147	0xba90ae33	-0.0011038244
148	0xbd6732aa	-0.0564448
149	0xbc4ce57e	-0.012505887
150	0xbb3e3a2b	-0.002902637
151	0x3d137815	0.03600319
152	0x3dcbf0ee	0.09958063
153	0x3c85507f	0.016273735
154	0xbda33632	-0.07969321
155	0x3dd0aafb	0.10188862
156	0xbc6946bc	-0.014238056
157	0x3c8ece69	0.017432408
158	0x3bb2ee89	0.0054605645
159	0xbd5f70e4	-0.05455102
160	0x3cfb992e	0.03071269
161	0xbcabfae1	-0.020993652
162	0xbc2f92d6	-0.010716161
163	0x3d60b12b	0.05485646
164	0xbcbb5a3d	-0.022870177
165	0x3d27e26a	0.04098741
166	0xbd3e16a6	-0.046408318
167	0xbd7780ba	-0.060425498
168	0xbd67ff38	-0.05663988
169	0x3cc9e1f5	0.024643878
170	0x3ddaf949	0.106920786
171	0x3c1d46ad	0.00959937
172	0xbbde0a38	-0.0067761205
173	0xbd1e9def	-0.038724836
174	0x3de4d878	0.11174101
175	0xbc8fc36c	-0.01754924
176	0x3d5234fd	0.051320065
177	0xbcc8df79	-0.024520623
178	0xbd820264	-0.06348112
179	0xbddaf6b4	-0.10691586
180	0xbc378f64	-0.011203621
181	0x3c6e571e	0.014547138
182	0xbd053d45	-0.032529134
183	0x3ca52f2e	0.020164099
184	0x3daddc07	0.084892325
185	0x3d9d1fad	0.07672057
186	0x3bca91a9	0.006181915
187	0x3c96e9d8	0.018422052
188	0xbdacc145	-0.08435301
189	0x3cbf101b	0.02332311
190	0xbd201ffd	-0.039093006
191	0xbd279ce8	-0.04092112
192	0x3dc62dac	0.0967668
193	0xbcf37a4e	-0.029721405
194	0xbba5f837	-0.00506499
195	0x3d8f5372	0.06998338
196	0x3d9f02b6	0.07764189
197	0x3c9395f1	0.018015834
198	0x3d37a16e	0.044831686
199	0x3d928757	0.0715472
200	0x3c6eb9ce	0.0145706665
201	0x3ceb436d	0.028718675
202	0x3dbc78ad	0.092027046
203	0x3d202341	0.03909612
204	0x3d91405b	0.07092353
205	0xbd301844	-0.04299189
206	0xbd95c47e	-0.073128685
207	0x3cc7ef3d	0.02440607
208	0xbd83e0dc	-0.06439373
209	0x3dbd1eb7	0.09234374
210	0x3d7e8992	0.062142916
211	0xbdd279f7	-0.10277169
212	0xbdb46b0a	-0.088094786
213	0xbc8254a9	-0.01590951
214	0xbd9ba335	-0.07599489
215	0xbc71e50c	-0.014764082
216	0x3db90ce6	0.09035663
217	0x3c35dd14	0.011100072
218	0x3d006abe	0.031351797
219	0xbd824ce5	-0.06362323
220	0xbd905f43	-0.0704942
221	0xbd597630	-0.053091228
222	0x3d3b223a	0.045686938
223	0x3bcab485	0.0061860704
224	0xbd3ba25b	-0.04580913
225	0x3cc558da	0.02409022
226	0xbd1d188d	-0.03835349
227	0xbc082bd1	-0.008311228
228	0x3cc29cda	0.023756433
229	0xbc88c7a4	-0.016696759
230	0xbdb3ae82	-0.08773519
231	0xbd4c3631	-0.04985637
232	0x3db73535	0.08945695
233	0x3d401408	0.046894103
234	0xbdd1fe31	-0.10253561
235	0x3d66c7d5	0.05634292
236	0x3d60cb4b	0.054881375
237	0x3c412fdc	0.011791196
238	0x3dae96ed	0.085248806
239	0x3ce8da34	0.02842436
240	0x3d12e7e3	0.035865676
241	0x3cc5a2cb	0.024125477
242	0xbab49b4e	-0.0013779195
243	0x3d482223	0.04886068
244	0x3be06d78	0.006848987
245	0x3cb90f76	0.02259038
246	0x3cfcc236	0.030854326
247	0x3d17f9fd	0.03710364
248	0x3da860a2	0.08221556
249	0x3dac6d84	0.08419326
250	0x3dc1c9d9	0.094623275
251	0xbdb4bee5	-0.08825473
252	0xbde33055	-0.11093203
253	0x3c85f012	0.016349826
254	0x3ce840a5	0.028351137
255	0xbd9f19f4	-0.07768622

net.4.module.0.bias f4 [32]
0	0x3db7335d	0.08945344
1	0xbc9c5861	-0.019085111
2	0xbd7f7708	-0.062369376
3	0xbada489f	-0.0016653723
4	0x3d561d8d	0.052274276
5	0x3bcd0a64	0.006257342
6	0x3d835f60	0.06414676
7	0xbcefff63	-0.029296583
8	0x3d96e97a	0.07368751
9	0x3c8f73f5	0.017511347
10	0xbd6664d7	-0.056248512
11	0xbd82887a	-0.06373687
12	0x3dcf1be2	0.1011274
13	0x3a4c5ffc	0.0007796285
14	0xbd60141d	-0.05470668
15	0x3c289855	0.010290225
16	0xbd127802	-0.03575898
17	0x3d14dc72	0.036343046
18	0x3c63765f	0.013883202
19	0xbd334ffa	-0.043777443
20	0x3d057a90	0.032587588
21	0xbda9f178	-0.0829801
22	0xbdb5b06f	-0.08871543
23	0x3d88c2b4	0.06677762
24	0xbd1c0b8e	-0.038096957
25	0x3c08675f	0.008325427
26	0x3d01e0b2	0.031708427
27	0x3dc5a917	0.09651392
28	0x3befc350	0.0073169842
29	0xbd0e6021	-0.034759644
30	0x3c1a18d0	0.00940533
31	0x3bc8d03d	0.0061283396

net.5.weight f4 [3, 32, 3]
0	0x3ca7839a	0.020448495
1	0x3db5c24e	0.08874951
2	0xbd693a55	-0.056940395
3	0xbd8f5bf4	-0.069999605
4	0xbb97091d	-0.0046092407
5	0x3a1f4ee0	0.0006077122
6	0xbd34ae91	-0.044111792
7	0xbd5842e7	-0.052798178
8	0xbd3128a3	-0.043251645
9	0x3bf93eb9	0.007606354
10	0x3ccb39ac	0.024807774
11	0x3d29a7a2	0.041419633
12	0x3d8841aa	0.066531494
13	0x3d793c22	0.060848363
14	0xbd983588	-0.07432085
15	0xbd881dd2	-0.06646313
16	0xbb6d47fb	-0.0036206234
17	0xbcfea676	-0.031085234
18	0xbcc94f32	-0.024573896
19	0x3c85de29	0.016341286
20	0xbdc346e8	-0.09535009
21	0x3d899ad4	0.06718984
22	0xbd1718d5	-0.036888916
23	0xbdac66e4	-0.08418062
24	0x3dd124e0	0.102121115
25	0xbd09dd54	-0.03365834
26	0x3d7b3a8e	0.06133514
27	0x3c01ada1	0.0079149315
28	0x3d5d53f5	0.054035146
29	0xbd131bc7	-0.035915162
30	0xbd879fbd	-0.066222645
31	0x3cc43721	0.023952069
32	0xbc7c585b	-0.015401925
33	0xbc56ac31	-0.013102577
34	0x3d8d71f1	0.06906498
35	0xbdbe173e	-0.09281777
36	0xbb7b3889	-0.0038333258
37	0xbc51782f	-0.012785002
38	0x3c16aaa4	0.009195957
39	0xbdc41ed4	-0.095761925
40	0xbd885166	-0.066561505
41	0xbd00ad27	-0.03141513
42	0xbd0a6505	-0.033787746
43	0x3db5206f	0.08844077
44	0x3d9d2f98	0.076750934
45	0xbd22dcb9	-0.03976128
46	0xbdae88c9	-0.085221834
47	0xbdf32798	-0.11872786
48	0x3dc92821	0.09822107
49	0x3d3f5a7f	0.046717163
50	0xbc1d38a5	-0.009596025
51	0xbdd0b843	-0.10191395
52	0xbdcfb40c	-0.10141763
53	0x3dc1f946	0.09471373
54	0x3bd9d2ad	0.006647429
55	0xbdacd113	-0.08438315
56	0xbc8ebfd5	-0.017425457
57	0xbd0b310f	-0.033982333
58	0x3d925b9a	0.07146378
59	0xbdaaaa22	-0.083332315
60	0x3be312be	0.0069297245
61	0xbd8b9844	-0.06816152
62	0xbda6a059	-0.08136053
63	0x3d08980f	0.03334814
64	0x3dade8b3	0.084916495
65	0xbdd59c99	-0.10430259
66	0xbc8417cd	-0.01612463
67	0xbd9aa54d	-0.0755106
68	0xbd9beacc	-0.07613143
69	0x3ca24384	0.019807585
70	0xbc899cbc	-0.01679837
71	0x3c1b8f23	0.009494576
72	0xbda36c8c	-0.07979688
73	0xbd901dad	-0.0703691
74	0xbd769f07	-0.060210254
75	0xbcfe16e5	-0.031016776
76	0x3dab1e15	0.08355347
77	0x3daf0896	0.085465595
78	0xbd3a3a71	-0.04546589
79	0x3c9d655a	0.019213367
80	0x3d23f05b	0.040024143
81	0x3daff7eb	0.085922085
82	0x3d10b34b	0.035327237
83	0x3dc24b6c	0.09487042
84	0x3d11687a	0.035500027
85	0xbcbf057a	-0.023318041
86	0xbc58f071	-0.013240919
87	0xbdada4cb	-0.084786974
88	0xbd8346af	-0.06409966
89	0x3d962b01	0.07332421
90	0x3dbe7d84	0.09301284
91	0x3da74239	0.08166928
92	0x3d6273ee	0.05528634
93	0x3db103ef	0.086433284
94	0xbd54c882	-0.05194903
95	0x3d443d43	0.047909986
96	0x3c8d460e	0.017245319
97	0x3d87425e	0.066044554
98	0x3dbc16fd	0.09184072
99	0x3beb136d	0.0071739466
100	0x3d3ed698	0.04659137
101	0x3dcd4e45	0.10024694
102	0xbd557b2f	-0.05211943
103	0xbd94b21e	-0.07260536
104	0xbd7d3180	-0.061814785
105	0x3d08086d	0.03321116
106	0x3cb1b7ea	0.021694142
107	0x3dd9cb75	0.106345095
108	0x3cf02418	0.029314086
109	0xbd83f443	-0.064430736
110	0x3be8e248	0.007107053
111	0x3d31d561	0.043416385
112	0xbc153187	-0.0091060465
113	0x3d3fd10b	0.04683022
114	0x3ddc603d	0.107605435
115	0xbceacbc3	-0.028661614
116	0x3dc30a56	0.09523456
117	0xbc099761	-0.008397908
118	0x3d319114	0.043351248
119	0xbd660430	-0.056156337
120	0xbdb0ddf1	-0.08636082
121	0x3c3eaee1	0.011638374
122	0xbdae4567	-0.08509331
123	0x3ddebb07	0.108755164
124	0x3d95c15b	0.0731227
125	0x3dca7ce6	0.09887104
126	0x3c6cc1ba	0.014450485
127	0x3d698c98	0.057018846
128	0x3d980f64	0.074248105
129	0x3ce904b2	0.028444622
130	0x3d2b1088	0.041763812
131	0x3d628a44	0.05530764
132	0xbbf83e41	-0.0075757806
133	0xbc34a739	-0.011026197
134	0x3b85e8b5	0.0040865787
135	0x3e077bbd	0.13230796
136	0x3d8eea41	0.06978274
137	0x3dafbc68	0.085808575
138	0x3d0a8ccd	0.033825684
139	0x3d987617	0.07444399
140	0xbd5fa64c	-0.054601952
141	0x3c77d421	0.015126259
142	0x3dc871fd	0.097873665
143	0x3da4d3cf	0.08048212
144	0xbda5d32b	-0.08096918
145	0xbd25687e	-0.040382855
146	0xbdd95c57	-0.106133156
147	0xbd2d2b34	-0.04227753
148	0x3cc19f69	0.023635583
149	0xbda8a176	-0.08233921
150	0x3d14d81a	0.036338903
151	0xbd440643	-0.047857534
152	0x3d822b97	0.0635597
153	0xbdcf8a17	-0.101337604
154	0xbd8787ab	-0.066176735
155	0x3d99de99	0.0751316
156	0x3dc51f98	0.09625167
157	0x3d556c9f	0.052105542
158	0x3c9c643a	0.01909076
159	0xb8d5a45a	-0.00010187244
160	0xb8f6d9eb	-0.000117707845
161	0x3dca7d39	0.098871656
162	0xbc60e7bf	-0.013727128
163	0xbc001d83	-0.007819536
164	0x3dd3deec	0.10345253
165	0xbd622109	-0.055207286
166	0x3d7a9e13	0.061185908
167	0xbd48a194	-0.048982218
168	0x3deba2fe	0.11505698
169	0x3c949845	0.018139014
170	0xbd74783e	-0.059684984
171	0x3b6dce8e	0.0036286446
172	0x3c57ce3b	0.013171728
173	0xbd58880f	-0.05286413
174	0xbcf54aa8	-0.029942825
175	0x3d6b3311	0.057421748
176	0xbca19e8e	-0.019728925
177	0x3b0747d5	0.002064218
178	0x3d7176e2	0.058951266
179	0x3d6eea7c	0.05832909
180	0xbc6e621a	-0.014549756
181	0x3c7a010d	0.01525904
182	0x3c5191d6	0.012791118
183	0xba4b1026	-0.0007746242
184	0xbc0780cb	-0.008270453
185	0xbd875dcc	-0.06609687
186	0xbd0ff756	-0.035147987
187	0xbdd790a2	-0.105256334
188	0xbdddd414	-0.10831466
189	0xbdba7ef0	-0.09106243
190	0xbd8627d1	-0.06550563
191	0xbd947683	-0.07249167
192	0x3d8b0b00	0.067892075
193	0xbd9b5880	-0.075852394
194	0x3d91f833	0.07127418
195	0x3d8d9618	0.06913394
196	0xbd8335d1	-0.06406749
197	0xbc68e2b6	-0.014214208
198	0x3d9893b2	0.07450046
199	0x3d05d138	0.03267023
200	0xbc32fae3	-0.010924074
201	0x3d3f8fa5	0.04676785
202	0x3d8a2a1b	0.06746312
203	0xbc9ab0b3	-0.018883085
204	0xbd8ab7f4	-0.067733675
205	0x3daf93f4	0.08573142
206	0xbcd3cd1d	-0.025854642
207	0x3c9cb7d7	0.01913063
208	0xbda1e1f5	-0.07904426
209	0xbda1bb76	-0.078970835
210	0xbd765ace	-0.06014519
211	0x3d4147c5	0.047187585
212	0xbd2d25e9	-0.042272482
213	0x3d698ef5	0.0570211
214	0x3d9ed143	0.07754757
215	0x3c750ea1	0.014957101
216	0x3d8e868d	0.06959257
217	0x3db9f4a9	0.09079868
218	0x3bd99d2b	0.0066410503
219	0xbd0a020e	-0.033693366
220	0x3c351fbd	0.01105493
221	0xbd4dfccc	-0.050289914
222	0xbd9bcedb	-0.07607814
223	0x3b240778	0.0025028866
224	0x3cc5e1eb	0.024155578
225	0xbcd70f9d	-0.026252562
226	0xbdaa6a3a	-0.08321042
227	0xbd580b78	-0.052745312
228	0xbd79fb15	-0.061030466
229	0x3d910c63	0.07082441
230	0xbdb0a592	-0.0862533
231	0x3d651d80	0.055936337
232	0xbc4653a8	-0.012104906
233	0x3d08522f	0.0332815
234	0xbd0dd81b	-0.034629922
235	0xbd4f9302	-0.050677307
236	0x3d8506f1	0.064954646
237	0xbd785ddc	-0.060636386
238	0x3c9f2471	0.019426556
239	0xbcf31f68	-0.029678062
240	0xbd83c5e9	-0.06434233
241	0xbc8143d4	-0.015779413
242	0xbd0e5b68	-0.03475514
243	0x3d25383c	0.040336832
244	0xbd26fbb2	-0.04076738
245	0xbc257f2e	-0.010101123
246	0xbd54e5b3	-0.05197687
247	0xbdc75e25	-0.097347535
248	0x3c09c73c	0.008409318
249	0x3c231270	0.009953126
250	0x3d8c8e1a	0.06863041
251	0xbdb3d482	-0.08780767
252	0x3d6196c4	0.055075422
253	0xbd39af2e	-0.04533308
254	0xbd0db27d	-0.034594048
255	0xbc699980	-0.014257789

net.5.bias f4 [3]
0	0xbc71f904	-0.014768843
1	0xbd4fcb10	-0.050730765
2	0x3d58cf45	0.052932043

exp_avg f4 [32, 120, 2]
0	0xb7c19aea	-2.307953e-05
1	0xba03c980	-0.0005027279
2	0xba4825c0	-0.000763502
3	0xb9f1ad8e	-0.0004609641
4	0xb9d2d984	-0.00040216383
5	0x3aa1621d	0.0012312565
6	0xb9fc85ba	-0.0004816482
7	0x3a9f2f23	0.0012144785
8	0xb96af9e0	-0.00022409065
9	0x3a60add3	0.00085708237
10	0xbb21ce36	-0.0024689562
11	0xba383c4b	-0.00070280273
12	0x3a680d70	0.00088521
13	0x3a4e13e8	0.00078612426
14	0xb995a0b7	-0.00028539237
15	0xba9873fc	-0.0011631246
16	0xb9f1a145	-0.00046087257
17	0x39047e17	0.00012635473
18	0x367ada75	3.7380062e-06
19	0xb83c7191	-4.492846e-05
20	0xba1093b3	-0.0005515173
21	0xb7c16d34	-2.3058245e-05
22	0xba526ff2	-0.00080275454
23	0xba28e8a2	-0.00064433564
24	0x399fe8f7	0.00030500416
25	0x3888e96e	6.528465e-05
26	0x3735dcee	1.083988e-05
27	0xb97fdfad	-0.00024402021
28	0xb984c580	-0.0002532415
29	0xbae6c1af	-0.001760533
30	0xbad8020b	-0.0016480101
31	0xbac98c2e	-0.001537686
32	0xb880d0d4	-6.142413e-05
33	0x39830be3	0.00024995123
34	0x391cfd0a	0.00014971584
35	0x386b9872	5.6170342e-05
36	0xb9b6fc8a	-0.000349019
37	0x3a437f67	0.0007457644
38	0x3ae3bb54	0.0017374554
39	0xb99f4ed7	-0.00030385584
40	0x39d6924d	0.00040926263
41	0xb88941ce	-6.544926e-05
42	0x39c782f5	0.00038053808
43	0x39e619cc	0.0004388824
44	0xbaa79c8f	-0.0012787747
45	0x39368ad9	0.00017408597
46	0x3aca0952	0.0015414155
47	0x3901bd69	0.0001237296
48	0xba50e4d4	-0.00079686684
49	0x3ac2f1b2	0.0014873056
50	0xbba26e7a	-0.0049570175
51	0xbb5f32c7	-0.0034057365
52	0xba5d74e8	-0.00084479013
53	0x3aa78476	0.0012780565
54	0xb74a28bb	-1.2049622e-05
55	0xb5b4d315	-1.3472478e-06
56	0xb91f1c52	-0.00015173972
57	0x38126bcd	3.490951e-05
58	0x3966d62b	0.00022014293
59	0x3a386759	0.0007034443
60	0xba11faaf	-0.0005568666
61	0xb9ade837	-0.00033170145
62	0xbaaa294b	-0.0012982277
63	0xba8407b3	-0.0010073095
64	0xb60c498b	-2.0904433e-06
65	0xb8b963fb	-8.84011e-05
66	0x386e4cbb	5.6815083e-05
67	0x38518023	4.994882e-05
68	0xba604985	-0.0008555877
69	0xba30e263	-0.00067476014
70	0x39ee4691	0.00045447474
71	0x39d494d0	0.00040546665
72	0xbaeae499	-0.0017920911
73	0xb9fe0b35	-0.00048455005
74	0xb8d199b7	-9.994528e-05
75	0xb98b5f2f	-0.00026583063
76	0x390fd450	0.00013716635
77	0x39b5bd0d	0.00034663864
78	0x00000000	0.0
79	0x00000000	0.0
80	0xbab754c0	-0.001398705
81	0x3a764ca6	0.0009395577
82	0xb9a84d2d	-0.00032100957
83	0x39882a24	0.0002597134
84	0x396d5cae	0.00022636607
85	0xb9777e18	-0.00023602729
86	0x3b0a7ed7	0.0021132731
87	0x3b7898cb	0.0037932869
88	0xba3e530e	-0.0007260301
89	0x3a3e48b7	0.000725876
90	0xba1877c1	-0.00058161846
91	0xb9a267f8	-0.0003097651
92	0x3a184308	0.0005808328
93	0xbac1e5de	-0.0014793237
94	0xba714d64	-0.00092049525
95	0xba2b6e68	-0.0006539584
96	0x380f3748	3.414534e-05
97	0x398bb1e5	0.00026644688
98	0xb89f4686	-7.594847e-05
99	0xb79d76f7	-1.8771256e-05
100	0xb8e3448d	-0.00010836972
101	0x39df835f	0.00042631754
102	0xb99e9416	-0.0003024644
103	0x3b94ad26	0.0045372425
104	0xbac0467b	-0.0014669442
105	0xba5a35dc	-0.0008324066
106	0xb98cb8ef	-0.00026840667
107	0x3af65b71	0.0018795562
108	0x39f9f07a	0.0004767215
109	0x38ace5d1	8.244406e-05
110	0xba33e0fd	-0.0006861834
111	0xba97ee82	-0.0011591467
112	0xb9f74d3e	-0.0004716906
113	0x39bf9bfa	0.0003654657
114	0xb8adf696	-8.295213e-05
115	0x391acccf	0.00014762882
116	0x39bf28a3	0.00036460636
117	0x390c537a	0.00013382538
118	0x39b43dce	0.00034378323
119	0x38887ed3	6.508608e-05
120	0xbac12265	-0.0014734982
121	0xbad39678	-0.0016142866
122	0xb6cbdf2a	-6.075851e-06
123	0x36b97db3	5.528063e-06
124	0xb9ea2404	-0.00044658792
125	0x3a491ee7	0.00076721463
126	0xb9a4f678	-0.0003146415
127	0x3a6e2c4e	0.00090855814
128	0x367121d8	3.5931498e-06
129	0xb90aff80	-0.00013255887
130	0xb77c9fd8	-1.5057587e-05
131	0x37bc4ec2	2.244802e-05
132	0x38f7b6dc	0.00011811938
133	0xba80de5a	-0.0009831891
134	0xba9a29ef	-0.0011761765
135	0xba8c77fa	-0.0010716908
136	0xb7c18cfc	-2.3073044e-05
137	0xb6d71d61	-6.4109195e-06
138	0x3a32a84e	0.00068152405
139	0xb992f06b	-0.00028026415
140	0x3ab20299	0.0013581096
141	0x398b7d37	0.00026605438
142	0x38740fdd	5.8188907e-05
143	0xb95f7176	-0.00021309205
144	0x3b17fff2	0.0023193327
145	0x3a4a149f	0.0007708761
146	0x39844553	0.00025228653
147	0xb9572948	-0.00020519376
148	0xb9d5e3d2	-0.00040796265
149	0x398ca836	0.00026828208
150	0xb9542fcb	-0.000202357
151	0xb82924fc	-4.0327184e-05
152	0xb8928be4	-6.987879e-05
153	0xba49ed6c	-0.000770292
154	0x3a167ace	0.0005740345
155	0x3a1a13ef	0.0005877604
156	0xbab519aa	-0.0013816853
157	0x3ab5c9e5	0.0013869373
158	0x38ac90fd	8.228605e-05
159	0xb8856a0d	-6.361688e-05
160	0xb96bf227	-0.00022501555
161	0xba74ce5c	-0.0009338611
162	0x3911a72c	0.00013890554
163	0xb8eeedc5	-0.000113930124
164	0x3a14f651	0.0005682456
165	0xbacd7ca8	-0.0015677409
166	0x38a58ce4	7.894056e-05
167	0xb9a1d709	-0.00030868527
168	0x3b7bba68	0.0038410667
169	0x3ae5d978	0.0017536124
170	0xb8a0f8aa	-7.675712e-05
171	0xb9514d32	-0.0001996055
172	0x39eed757	0.00045555338
173	0x3a577eb5	0.000822048
174	0xb944f27b	-0.00018782348
175	0xb8602729	-5.3442232e-05
176	0x3aaf6f85	0.0013384676
177	0xbaf764de	-0.0018874665
178	0x39b4773e	0.00034421118
179	0xb8103f75	-3.4391374e-05
180	0xb9550e19	-0.00020318515
181	0x37453a12	1.1755636e-05
182	0xb9cbdb6c	-0.0003888266
183	0x3a585a57	0.0008253208
184	0xba328cd9	-0.0006811149
185	0xbad046c7	-0.0015890234
186	0x39a2293a	0.00030929764
187	0x39b94c3e	0.00035342755
188	0x392ed49e	0.00016673139
189	0x3a4d79a9	0.0007838258
190	0xba7bc88b	-0.00096047734
191	0xb87d3a8e	-6.0374434e-05
192	0xb9d72549	-0.00041035775
193	0xba0e46e3	-0.0005427433
194	0xb806a2fd	-3.2099884e-05
195	0x3842ceb4	4.644571e-05
196	0x39e8a6dc	0.00044374808
197	0x3aba745d	0.0014225353
198	0x390dcdf0	0.00013523526
199	0xb9e72d13	-0.00044093336
200	0xb99d178e	-0.00029962923
201	0xba262b21	-0.0006338824
202	0xb9f3e1e3	-0.0004651687
203	0xb95522c8	-0.0002032622
204	0xba5f5583	-0.0008519517
205	0x39e2a868	0.00043231552
206	0xb995238a	-0.00028445973
207	0x3910a7ad	0.00013795374
208	0xba2dc20d	-0.0006628342
209	0xba85089b	-0.0010149659
210	0x38f3ad95	0.00011619475
211	0xb9cd79a6	-0.00039191282
212	0xba1a9fd3	-0.00058984495
213	0xb97494a3	-0.00023325025
214	0xb97a0918	-0.00023845246
215	0x3865b30e	5.4764612e-05
216	0x3a38dca1	0.0007051919
217	0x3ac48cf3	0.001499562
218	0x3aa61aed	0.001267282
219	0x3a383af4	0.00070278277
220	0xbad28e65	-0.0016064165
221	0xbb1ccf23	-0.0023927174
222	0xba8423b9	-0.0010081447
223	0xb920bbdd	-0.00015328774
224	0xb8bd030b	-9.012789e-05
225	0x3a43a520	0.0007463265
226	0x36e2d7fa	6.760468e-06
227	0xb835a509	-4.3307464e-05
228	0xb9d7cd81	-0.00041161108
229	0xb606c585	-2.0082527e-06
230	0x3843c5ac	4.667572e-05
231	0x3aea6a83	0.0017884526
232	0xb74506ee	-1.17437285e-05
233	0x390cb9be	0.00013420635
234	0x3a110a45	0.00055328413
235	0xb91d72cc	-0.00015015452
236	0x39526aae	0.00020066902
237	0x3992826d	0.00027944465
238	0xb997b5a4	-0.00028936297
239	0x38c37b49	9.321288e-05
240	0xb94be0c0	-0.00019443315
241	0xb9600918	-0.00021365692
242	0xb8ae0f25	-8.2997874e-05
243	0xb99f8b22	-0.00030430505
244	0xba0a084f	-0.00052655203
245	0x394d75a0	0.00019594142
246	0xb999eecf	-0.0002936036
247	0xba02b3aa	-0.00049858785
248	0x3879065e	5.9372156e-05
249	0x399e04b5	0.00030139615
250	0x392ef97b	0.00016686872
251	0xb923b92c	-0.00015613873
252	0x3a1e1d73	0.000603161
253	0x38d67d79	0.00010227686
254	0xb9a503e6	-0.00031474157
255	0xb944f813	-0.00018784431
