data/Figure3_Supplement/019/checkpoint_0003500.pth (torch, 232001 bytes, 31 tensors)

net.0.weight f4 [32, 120, 2]
00000000: 22e5 35bd 6196 16bc 61fa e43c fefc 163c
00000010: fe59 903c 3091 52bd 3b91 483d e357 673b
00000020: c052 fbb9 3187 c1bb 38f5 1ebd 7821 c53b
00000030: d03a f4bc 1852 563b 0cfb 9d3d 3667 2b3d
00000040: 65c8 d53c 1517 1f3d 83fc 0bbd 55fc aa39
00000050: b0da 523c 4a14 b43d 22a1 9bbd 3e9f babd
00000060: 9f5d 0a3d 0ad5 21bd f86b 613c 4211 6abd
00000070: 030d 05bd f985 803d ba78 18bd d6be 5c3c
00000080: 3b87 bdbd 48a5 1f3d a9bc eebc 94b3 32bd
00000090: 288b 7cbd 09e0 21bd f9d8 5ebd 8f11 2abc
000000a0: 781a a4bd 3e98 afbd d313 b1bc 134e aabd
000000b0: 7061 f03c 7ccf 18bd 4e6d ae37 6539 2abd
000000c0: ccb5 3f3d e14c 573b 8d12 91bd 8ff7 84bc
000000d0: 702b 903c b988 44bd 8814 0bbd bdfe 873d
000000e0: bea2 8b3d d13e 7fbc 0f2b 8dbc 0131 003d
000000f0: 8871 b83d 7f98 bebc 47b0 503d ffe7 813a
00000100: 42b6 9bbc b2ec 25bd 0f98 183d dd25 593d
00000110: 1cfb c1bd f4ca b43c 0839 183d c0f6 ecbc
00000120: 76e3 a0bc 8d28 c4bc 6a8b 55bd ae8e 933c
00000130: 13ab cb3d 59b9 953c 73b1 c1bc f1d8 793d
00000140: a23f 0f3d 5fa2 6fbd f4f6 2cbb 1a8b 883c
00000150: 06c6 66bc 1372 863d 422f 0fbd da75 87bc
00000160: 4947 c83c d533 adbc 684b 873d c920 cf3d
00000170: dda2 39bd 7ccd 35bd f5d3 e73c ec10 f93d
00000180: 5734 bcbc 8f6b 1dbd 0ccf 21bd eb02 d63d
00000190: ec6f 033d a730 263d 6476 e63c 55e2 ebbc
000001a0: ff32 ab3a 1ae6 4d3c c661 943d e173 f8bc
000001b0: 0aae 86bb 4b69 093c 9919 0abd 59b8 a53d
000001c0: 5b78 2d3d 4df2 6fbd 1464 893d 568f 8b3d
000001d0: f53c 943d 0605 913d df16 67bd 60df fb3c
000001e0: 1a19 883c 6421 50bd 4056 d5bc 0b15 6dbd
000001f0: ba4c 9cbd 3c4f 21bd 4c97 eebd 7207 693d
00000200: f9be c33c bf02 56bd 52a9 aabd 032b 15bc
00000210: 2918 adbd 7f6d bbbd 0140 503c 6b4b 873c
00000220: d537 83ba 4e1a 873d f78c f13c 6c7e 26bb
00000230: 02f9 393d b6a0 433c e756 01bd aee9 0b3c
00000240: 1cf6 abbd 567e b4bd fc55 833d 08dc b4bc
00000250: 4437 b5bc ff54 753d b7a1 c8bc d15e 023e
00000260: d2e6 1abc 2f6f 003d b20e 603d f7d9 2dbb
00000270: 66d5 e5bc f15f 91bc d732 6a3d c20a 993c
00000280: 6084 60bd 4623 c8bd 1fac 8ebc 181d d1bd
00000290: decb d23c 2b80 333d 5600 8fbc cd4f 14be
000002a0: ab27 8dbd cf12 1bbd bf7d 45bd e734 dd3c
000002b0: 6f0e 243d 40e7 21bd 1e81 22bc 4229 823c
000002c0: f8d5 9c3b 2b95 58bd 0c89 7fbd e185 2ebb
000002d0: a95b 5fbc 321e 13bd a661 e43d 7c18 9c3d
000002e0: 7326 aabc 4f79 6f3d e5d2 92bd ddee b1bd
000002f0: 7390 bd3d 77c0 eebc 95f7 d03c fc20 6d3d
00000300: 41c6 d2bd 4db7 37bd 6d99 73bd 3bf0 233d
00000310: 35e4 ccbc 2525 b23d 908c 5bbd 343f dfbc
00000320: 00b5 42bc eef2 f13b d0c3 07bc d2e0 b43c
00000330: dcf5 39bd fb71 5cbc 5b9a 9d3d 1a1c 08bb
00000340: 8fb3 e8bd 6a79 a53d 5a93 8f3d 1c2b 113c
00000350: fd7f fd3b 6ec2 e8bb 813f 903d 7f98 173d
00000360: cfca bf3d b40c 783d 8576 96bc fcf5 183d
00000370: 5d90 753c 4c06 043d 85a3 93bd 4d6a afbb
00000380: d4da c8bc 7c33 1d3d 84c8 203c cce0 e13c
00000390: c67a f6bc fbe7 943d e991 08bd 44e2 163d
000003a0: 1b53 48bb d3c4 d43c 1a21 17bd 3eff bdbb
000003b0: ea45 57bd e2cc 703d 8179 903d 545b 8cba
000003c0: e4de 58bc 8bd7 e73c 25df 49bd 5905 fdbc
000003d0: d068 5dbd c51c 6cbd bd4b 403d 4336 a2bd
000003e0: cffe 063d f9f9 a73b a21c 053c 814b d23c
000003f0: b135 c2bb 359e ffbc 69f2 1ebc 3c44 673d
-0.04440797 -0.009191127 0.027951421 0.0092155915 0.017621037 -0.051407993 0.048966628 0.0035300187
-0.00047936104 -0.0059060086 -0.038808078 0.0060159527 -0.0298132 0.003270274 0.07713899 0.041846476
0.026096532 0.038840372 -0.03417636 0.0003261293 0.012869522 0.08792932 -0.07599093 -0.09112404
0.03378069 -0.03950981 0.013758652 -0.057145365 -0.032483112 0.06275553 -0.03722451 0.013473233
-0.09254309 0.038975984 -0.029142695 -0.04362829 -0.061656147 -0.039520297 -0.05440614 -0.010380163
-0.08012861 -0.0857396 -0.021615898 -0.08315673 0.029343337 -0.037307248 2.0793315e-05 -0.041558642
0.046804234 0.003285222 -0.070836164 -0.016231326 0.017598838 -0.04798195 -0.033955127 0.06640384
0.0681815 -0.015578941 -0.017232446 0.031296734 0.09006029 -0.023266075 0.05094936 0.0009911059
-0.019007806 -0.040508933 0.03725439 0.053014625 -0.094717234 0.022069432 0.037163764 -0.028926253
-0.019639712 -0.023945117 -0.05213491 0.01801237 0.09944739 0.018276857 -0.023644185 0.060997907
0.034972794 -0.05850446 -0.0026392313 0.016667891 -0.014085298 0.06564727 -0.034957178 -0.016535688
0.024448054 -0.02114288 0.066061795 0.10113675 -0.045321334 -0.04438542 0.028299311 0.12161431
-0.022974176 -0.038432654 -0.039504096 0.10449775 0.03208916 0.040573742 0.028132625 -0.028794447
0.0013061463 0.0125670675 0.07245211 -0.030328693 -0.0041101025 0.00838692 -0.033715818 0.08091802
0.042351108 -0.058580685 0.067085415 0.068144485 0.07238189 0.07081036 -0.056418296 0.030746162
0.016613532 -0.050813094 -0.026042104 -0.057881396 -0.07631822 -0.039382204 -0.11649951 0.056891866
0.023894774 -0.052248713 -0.083330765 -0.009104493 -0.08451874 -0.09151744 0.012710572 0.016515454
-0.0010011146 0.06596814 0.029486163 -0.0025404943 0.045403488 0.011940172 -0.031577017 0.0085396
-0.08396551 -0.08813159 0.064128846 -0.022077575 -0.02212108 0.05989551 -0.024491174 0.12731482
-0.009454446 0.031356033 0.054701515 -0.0026527622 -0.028055858 -0.017745944 0.05717739 0.018681888
-0.054813743 -0.09772353 -0.017416058 -0.10210627 0.025731977 0.043823402 -0.017456215 -0.14483567
-0.06892332 -0.037859734 -0.048215624 0.027002765 0.040052827 -0.039527178 -0.009918479 0.015888814
0.0047862493 -0.052876633 -0.062386557 -0.002663009 -0.013632693 -0.03591747 0.111514375 0.076218575
-0.020770287 0.0584653 -0.07169131 -0.08688138 0.09256067 -0.029144509 0.025508681 0.057892784
-0.1029172 -0.044852544 -0.05947249 0.040024024 -0.025011161 0.08698491 -0.053600848 -0.027251817
-0.011883974 0.007383696 -0.008286431 0.022079859 -0.045400485 -0.013454909 0.076954566 -0.0020768703
-0.11362373 0.080797985 0.07010527 0.008860376 0.0077362047 -0.007103256 0.070433624 0.037010666
0.093648545 0.06055899 -0.018367061 0.037343964 0.014988032 0.032232568 -0.07208923 -0.005353248
-0.024518408 0.038379177 0.009813432 0.027573012 -0.03008784 0.07270809 -0.033342276 0.036836877
-0.0030567113 0.02597276 -0.036896802 -0.0057982495 -0.05255691 0.05878914 0.07054425 -0.001070837
-0.013236735 0.028301021 -0.049285073 -0.030886339 -0.054055035 -0.057644624 0.04694723 -0.07920506
0.03295785 0.0051262346 0.008124502 0.025670769 -0.0059268107 -0.031203369 -0.00970135 0.056461558

net.0.bias f4 [32]
00000000: 609b c1bb f12f 87bc e476 2cbd d2b4 d0bb
00000010: 7267 e23c 9501 72bd 2174 46bd 6b79 9d3a
00000020: 6a26 22bd d4fd b93b 6579 d83c 05d8 22bb
00000030: 3aad 89ba e717 91bd 0df2 8a3b fc24 bd3c
00000040: 0c85 3ebd ac36 f6bb 56f1 4bbd f380 0cbd
00000050: 8dbe b63c b524 f8bb e64d 2d3c 6a4c 4ebd
00000060: 2294 1abb e689 1c3d 14d3 9bbd 149d 09bd
00000070: 7696 48bd cd70 293c efd1 25bc 4e29 2d3d
-0.0059084147 -0.016502352 -0.04210557 -0.0063692117 0.027637217 -0.05908354 -0.048450593 0.0012014335
-0.039587416 0.0056760106 0.026425073 -0.0024847996 -0.0010503896 -0.07084637 0.0042402805 0.023088925
-0.046513602 -0.0075138416 -0.049790703 -0.034302663 0.022307659 -0.007572735 0.0105776545 -0.050365843
-0.002358683 0.038217448 -0.07608619 -0.033597067 -0.048971616 0.010341835 -0.010120853 0.04227572

net.2.module.0.weight f4 [32, 32, 3]
00000000: b385 12bd b9b1 e8bd 21e3 a53c c279 2d3c
00000010: b847 e93d 471c 253d 9f1d eb3d b755 9a3d
00000020: 1785 2d3d 8d9e 85bc 1e39 11be 3490 c5bd
00000030: 7b19 18bd f76d 333d 7df5 71bd 62e7 e23d
00000040: 0805 38bd 1362 4c3d c6aa 553d f84a 213d
00000050: a768 373e 83ae 3abd 2987 9c3d 2376 73bd
00000060: bbcc c13b 3472 2e3c 8125 fd3d 4071 f1bd
00000070: e2e9 413c 96df 4cbe 51a2 65bd df40 b13d
00000080: a623 c1bd 3259 d2bd 7a4e 87ba 925d c5bd
00000090: c98e d03d 99df 84bd f093 08bd bcfa cbbd
000000a0: 4b97 913c 5232 9fbb b8d5 bd3d 5738 8abd
000000b0: 56df 58bc f12b b53c 06d0 c53d f5dc 1b3e
000000c0: f946 5ebc 1dd7 5f3c 26c7 c2bc f5ce 633d
000000d0: 9514 1a3d 2423 68be 4611 febd d93c 133c
000000e0: 1408 883d fc93 563d 0f78 d1bd f52e 41bd
000000f0: e3c3 593d 8338 e43d 2fd8 29bc f3f9 1abd
00000100: c169 883d 7acc 0f3e 2e98 95bd d15f 6bbd
00000110: 3491 40bc 18eb 22bd d1ec 9b3b 08f5 a8bc
00000120: e042 9cbd ec99 8bbd 33bb bf3d bf81 0e3d
00000130: 427c b13d 0e5d 093e 50a4 9bbd 0808 a8bd
00000140: 550f 31bd 248a 2f3c 317c ab3c e7f3 203c
00000150: 7453 02be 2089 dfbd 634a d4bd 16dd 7abd
00000160: 18d2 da3d 3b1e d6bc 81e8 a83d 2222 99bd
00000170: bb21 32bb 155e 82bd ba96 f6bd f0d9 5ebd
00000180: ad32 d6bd fffa be3c 47f5 993c 3b08 ec3d
00000190: 711e 3ebd ffe6 793d d6e0 e0bd 12ed f2bd
000001a0: 7295 973d ef7b c23b fa18 863d 6944 133d
000001b0: b17f e3bb 49eb 26bd 23d5 19bd 1c80 d23b
000001c0: 7bb9 e93d 04ef 033e 4cf7 d1bc 78a4 febc
000001d0: 9f4e 803b b53f 96bd 3322 eabc 83db 94bc
000001e0: 6013 d13d 9075 a03b 9ebc ca3d c4bc a23b
000001f0: 39c7 e8bd 9afc 05be 9747 2abd b712 12bd
00000200: a4d6 db3c bccc 26be 949c 9d3b b5f7 a0bd
00000210: a2ec 8fbd c17c 5f3d af2a 2abd 7c4a be3c
00000220: be82 f9bc e569 02bd 90c9 033d a895 c4bd
00000230: da1c 0ebd 922e bf3d 6d49 0a3d a8b1 853d
00000240: 1e39 e0bd b2eb cdbd e955 ef3c 23f6 11bd
00000250: ffad d1bd 21e1 90bd ccf0 65bb bcfa 903d
00000260: ad4b d0bd 1191 793d 625d 0d3d 6e13 a0bd
00000270: 82b0 453c b601 a2bd 9d7c c13d 4eca 713b
00000280: 5c60 9bbd 8210 81bd 55a1 babd 9c75 933c
00000290: 2243 02bd eb80 a93d a95c c6bc 606f ac3d
000002a0: e65f 903d 4c04 2abc b2a2 403e f9c1 d5bd
000002b0: 672a dfbc c86e 87bd 94f3 703c da7b 2f3d
000002c0: 8c3d 1f3d ff59 83bd 1a4d 88bd fa1c 7ebd
000002d0: eb52 11bc 84f3 643d 822f d7bc ffd4 0d3b
000002e0: 9bb0 013d d0d9 b83c fe54 123e f806 6cbd
000002f0: 5d81 153c 156c 923c 32b6 663d 5c1b dc3c
00000300: 91a7 b13d fa9a 18ba c812 f63b fdb7 b2bb
00000310: 11be 033e 6d1b 083e fb7b 8d3d ba10 d9bc
00000320: ed64 f53c 4974 97bd 2f04 abbd 0816 3bbd
00000330: 92a8 233d ec1c 36bd 2bf0 073e 4c0b 5c3b
00000340: 8530 9ebd ab8f b6bc 7967 d4bc 376d 6e3c
00000350: b3bf 91bb 6346 03bd 15d8 c03c b8ef 463d
00000360: 56c9 723d 7fd4 d73c 2f45 94bd 5ccf 44bc
00000370: 4041 9fbd ea21 a5bd dcd6 0cbc f9d1 e6bd
00000380: c9bd 163d 26b3 8b3c 22c6 93bd eea3 003d
00000390: 3586 703c d342 53bd b423 b1bd aee9 6dbd
000003a0: ba2a c23d c07a d53d e9b9 f73d 5747 c53d
000003b0: 68c3 b33d 34ab ecbc e4cc 21bd 892f 8f3c
000003c0: 18fe 13be 56e9 abbd c111 20bd dbaf e23d
000003d0: 413c 8dbc 0151 6fbd 82a5 9e3c eee4 6e3d
000003e0: 67e4 e43c 9632 73bd 7d9b 6e3c 9901 b73d
000003f0: 74f7 163c 042d ee3c bd7e be3d 1c37 8bbd
-0.035772037 -0.11362023 0.020249905 0.010588111 0.113906324 0.04031017 0.11480259 0.0753588
0.042363252 -0.016310954 -0.14181945 -0.09646645 -0.037133675 0.043806043 -0.059072006 0.11079289
-0.044926673 0.04989822 0.052164815 0.039378136 0.17911015 -0.045576584 0.07642967 -0.059438836
0.0059142984 0.010647345 0.12360669 -0.11789179 0.011835547 -0.20007166 -0.056063 0.08654951
-0.094306275 -0.10270919 -0.001032307 -0.09636988 0.10183484 -0.0648796 -0.03334421 -0.09959933
0.017772337 -0.0048582936 0.09269279 -0.06749027 -0.013236841 0.02211568 0.09658818 0.15221007
-0.013566726 0.013662127 -0.023776602 0.05561729 0.037617285 -0.22669655 -0.124056384 0.008986675
0.06642166 0.052387223 -0.102279775 -0.047163922 0.053165328 0.11143591 -0.010366484 -0.037836026
0.06660796 0.14042845 -0.073044166 -0.057464425 -0.011753369 -0.039774984 0.0047584553 -0.020624653
-0.07629943 -0.06816468 0.09361877 0.034791704 0.086662784 0.13414404 -0.075996995 -0.08204657
-0.043227512 0.010714088 0.020933243 0.009823776 -0.12727147 -0.109148264 -0.10365751 -0.061246
0.106846035 -0.026137462 0.082474716 -0.074772134 -0.002718075 -0.06365601 -0.120404676 -0.05440706
-0.104588844 0.023313044 0.018793715 0.11525007 -0.04641575 0.06101131 -0.10980384 -0.11861624
0.07401551 0.005935184 0.06547733 0.035953913 -0.0069427122 -0.04075173 -0.03755678 0.0064239632
0.11412331 0.12884146 -0.025630616 -0.031084284 0.0039156224 -0.0733637 -0.02858076 -0.018171078
0.102087736 0.004896827 0.09899257 0.0049663503 -0.11366124 -0.13084641 -0.04157218 -0.03566238
0.026835747 -0.16289037 0.0048099253 -0.07859746 -0.07027556 0.054562334 -0.041544612 0.023228876
-0.03045785 -0.03183927 0.032174647 -0.09598857 -0.034695484 0.093350545 0.03376143 0.06528026
-0.10948394 -0.10054721 0.02921577 -0.035635125 -0.10238265 -0.0707419 -0.0035086153 0.07079074
-0.10170684 0.06092936 0.034512885 -0.07816206 0.0120660085 -0.079104826 0.09447596 0.0036894265
-0.075867385 -0.06301977 -0.09112803 0.018000416 -0.031802304 0.08276542 -0.024214106 0.084196806
0.07049541 -0.010377001 0.18812063 -0.10437388 -0.027241899 -0.06612927 0.014706511 0.042842723
0.038877055 -0.0641365 -0.06655331 -0.062039353 -0.008869867 0.055896297 -0.02626777 0.0021641848
0.031662565 0.022564799 0.14290234 -0.057623833 0.009125081 0.017873803 0.0563261 0.026868515
0.08674539 -0.0005821433 0.007509563 -0.005454062 0.12865473 0.13291712 0.06908413 -0.026497234
0.029955352 -0.073952265 -0.08350407 -0.045675308 0.039955683 -0.044461176 0.1327521 0.003357607
-0.07724098 -0.022285303 -0.025928246 0.014552406 -0.004447901 -0.032049548 0.023540536 0.048568457
0.05927404 0.026346443 -0.07239758 -0.012012329 -0.07776117 -0.08063109 -0.008596148 -0.11270518
0.036802087 0.017053198 -0.07215525 0.031406336 0.014680435 -0.0515774 -0.08649388 -0.058084182
0.09480806 0.10423803 0.120960064 0.096327476 0.08777505 -0.02889023 -0.03950204 0.017478721
-0.14452398 -0.08394115 -0.03907943 0.11068698 -0.017240645 -0.05842686 0.01936603 0.058323793
0.027940942 -0.059374414 0.0145634385 0.089358516 0.009214271 0.0290742 0.09301517 -0.06797621

net.2.module.0.bias f4 [32]
00000000: 1e0a c23d 5b32 45bd 14b3 57bc c341 423c
00000010: 8a8c c0bd f224 af3d 494e 0d3d 45ce 2bbc
00000020: e539 6d3c ff9e 9a3d 80dc 9c3c 47f3 c43b
00000030: 3c01 d83d d354 79b9 15a3 68bd 7342 493d
00000040: 2d2a e2bc 2bfa a5bd d397 143c dbd9 75bd
00000050: 0e56 95bc 118b 44bd d00b 653d e0f4 ab3d
00000060: c346 a4bd 16a7 94bd 8401 b93d e94e afbc
00000070: 2ab5 a23d 9635 b23c 4a2b b73d 42c1 c63d
0.09474586 -0.048143726 -0.013165254 0.011856499 -0.09401806 0.08551969 0.034498487 -0.01048619
0.014479135 0.07549857 0.019148111 0.006010446 0.105471104 -0.0002377809 -0.056796152 0.049135637
-0.027608002 -0.081043564 0.009069401 -0.060022216 -0.01822951 -0.047984187 0.05591947 0.083963156
-0.08021309 -0.072584316 0.09033492 -0.021399932 0.079447106 0.021754067 0.089438036 0.0970483

net.3.module.0.weight f4 [32, 32, 3]
00000000: 2e30 503d 181b 06be 996a 053e 8516 00bd
00000010: 62a8 9fbb 7847 913c bde8 653d bd62 2abb
00000020: 6a7e 123e 44b8 3abd 50bf 993c ebf6 52be
00000030: db67 153e e3d1 09bc 0dc9 01bc 3bfe eb3d
00000040: 9a05 b5bd baca cdbd b139 d23c f07f c3bd
00000050: eb8d 663e 9654 6cbd 1bd8 c43d e380 1fbc
00000060: a0d3 92bc 3d5b b53d 2791 74bd a753 573d
00000070: 24fc b1bd 94ed d93a c85d 9e3b fba8 92bd
00000080: 6869 93bd b19b c3bb d9f5 adbb f2b7 ad3d
00000090: 3593 2c3d c49c 733d 6e8b ecbc cd02 c4bb
000000a0: e3c9 9e3d d979 b8bd dfff 9dbd 09bb b93d
000000b0: 1dfd e53c 41f4 143d 313e 64bd 7622 0e3e
000000c0: ebe2 b7bd 8248 e5bc 7408 19be 65df 263e
000000d0: 965c ee3c 2055 febb abb2 d3bd 99fa a33d
000000e0: e815 42be 834f 43bd 0c32 da3c 0be1 c63d
000000f0: c7d0 f2bc d120 94bc cf36 c43d 57cd 8e3d
00000100: d9ae a83b c465 9fbc d985 7ebd a2e0 e1bd
00000110: a5ac e53c 8008 583d 90e3 d7bd a3bb 4fbd
00000120: 7c20 34bd 1bd1 3ebd 3c44 253e 9782 8fbd
00000130: b235 bc3d c976 d3bd bc10 a93d 0698 a33d
00000140: 2f7c 463d db03 ac3b 6ae0 0e3d 8226 0a3d
00000150: b073 58bd 31a6 eabc b89d 57bc 02c7 3a3c
00000160: 6ba6 473d 5aa1 19bd ea59 d03c 8253 583c
00000170: 8740 07bd c8e6 483d b727 4bbd e0be 0f3e
00000180: 7282 adbd aaba d5bd c280 dd3d f141 bd3d
00000190: c60a c63c fcc9 b6bc e550 5cbd d15e bfbd
000001a0: 780a 333d 43c3 41bd c2e7 d93d ab3f 03be
000001b0: 3df3 353d bcdf 92bb 88a1 ef3d 2816 2d3c
000001c0: 6670 71bd 6c6e b6bc 9efd a4bd db08 0dbe
000001d0: d8bc b93b f6a0 133c 1aa8 bb3d c89a 133c
000001e0: 17dd 93bc 367d 123c b195 e2bb 4ac3 833d
000001f0: 31c9 983b 618d d9bd 08ce a9bd 19cc da3d
00000200: 15ef 14bd 56ba 00be d4ae d13d 5843 03bd
00000210: d6a7 1ebe 9dbd 4abd f59b 1abd 0634 ae3d
00000220: cae4 8b3d 2d90 f6bc a499 d7bd 3570 c03b
00000230: c18c 91bc 24fd 46bc 43fe 393d 9d1c 5dbd
00000240: 6e19 13bc 5e78 b8bd 1cfd 22bd 3de5 9abb
00000250: 3458 b63c 6aa4 18bd 70ad 12bd daec cb3d
00000260: 1361 06be 0cdd 0d3d 8a35 51bd af74 73bd
00000270: 7af7 2fbe 44bc f5bd b9e8 803b 0a27 f0bd
00000280: 9d30 b83c 54ce dfbc a165 5abc 6b66 fc3c
00000290: 182f 593d a71d b9ba 06ba ab3d 3719 b83d
000002a0: 18c3 ba3d a4e9 3e3c 634b d23c 781a d4bc
000002b0: dae5 dd3c 1d57 13be f72f 0a3e eafb 7b3d
000002c0: a3e7 183e d34d a5bd b0e2 adbd 78d0 143c
000002d0: 89b5 e53d 1a1c 00bd a8b8 fa3d a259 a43d
000002e0: 1bd2 333c 9ac0 86bd b6e1 fc3d 8d23 38bd
000002f0: 38ad 863c 17b1 5bbb 6001 423c df62 e7ba
00000300: 8019 9f3d 6a46 5f3d b149 fdbd 371b e33d
00000310: c475 2b3c 00c7 233e d1cc ba3d fb1c a3bc
00000320: d604 a43d 62b4 1bbe e47f 45bd a263 b9bd
00000330: 6387 093e 5923 6bbc 5cae 233e 1156 1dbd
00000340: 3843 383d 983b f4bc 184d 593d 92e5 94bc
00000350: 3d7f cdbd 3d41 143d e056 0a3e dbcc c93d
00000360: 4a26 61bd 6a38 e93c 8502 1e3d 7668 9fbd
00000370: 340e 3e3c 65dc bb3d 3b79 b33d a00f 93bd
00000380: 087f 933d 07e8 c23c c134 a5bb 6364 38bc
00000390: b034 4c3b 1a64 523d a6ac f3bd 61c8 943c
000003a0: ad54 61bd 4735 a43c 0fa0 ccbc 71c5 af3d
000003b0: d2e9 4c3d d985 5abc 622b 88bd 9717 23bd
000003c0: 944c ffbd 5bba 08bd 9ba3 fa3c 6eed 923c
000003d0: 265a f9bc 8c3a f53d 5d6e b3bc beec 933d
000003e0: 8921 08bc ea82 5ebd dd6f 00be b549 03bc
000003f0: 1a07 eebd 570a 593d 614a 28be 1b78 14bd
0.050827198 -0.13096273 0.13028945 -0.031271476 -0.0048723677 0.017734274 0.05613016 -0.0025998794
0.14306036 -0.045585886 0.018767983 -0.20602004 0.14590399 -0.008411857 -0.007921469 0.115231
-0.08838959 -0.10048433 0.025662275 -0.095458865 0.22515075 -0.057697855 0.09611531 -0.009735319
-0.017923176 0.08855293 -0.05970874 0.05257001 -0.0869067 0.001662659 0.004832957 -0.07161137
-0.07197839 -0.0059694876 -0.0053088483 0.084823504 0.042132575 0.059475675 -0.028875079 -0.005981779
0.077533506 -0.090076156 -0.07714819 0.09068877 0.028074795 0.03636575 -0.055723373 0.13880333
-0.08978828 -0.027988676 -0.14944631 0.16296156 0.029096883 -0.0077616125 -0.103368126 0.08006782
-0.18953669 -0.04768325 0.026635192 0.09710892 -0.029640568 -0.018082054 0.095807664 0.06972759
0.0051477966 -0.019457705 -0.062139366 -0.110291734 0.028036425 0.05274248 -0.10541451 -0.050716054
-0.043976292 -0.046586137 0.1613931 -0.0700733 0.09189929 -0.10325391 0.08255145 0.079879805
0.048458274 0.005249483 0.034881987 0.03372813 -0.052844703 -0.0286437 -0.013160162 0.011399986
0.048742693 -0.037507392 0.0254335 0.013203504 -0.033020522 0.049048215 -0.049598422 0.14037657
-0.08472146 -0.10435994 0.10815574 0.09241093 0.024175059 -0.02231311 -0.053788085 -0.09344257
0.043711156 -0.047305357 0.106399074 -0.12817256 0.044421423 -0.0044822376 0.117007315 0.0105643645
-0.058945082 -0.02226945 -0.08056186 -0.1377291 0.005668264 0.009010544 0.09162922 0.009009071
-0.01804976 0.008940985 -0.0069148173 0.06433733 0.0046626558 -0.10622669 -0.082912505 0.1068346
-0.03636082 -0.12571082 0.10238424 -0.032046646 -0.15493712 -0.049497236 -0.03774639 0.085060164
0.068307474 -0.030098045 -0.105273515 0.005872751 -0.017767312 -0.012145314 0.0454085 -0.053982366
-0.008978231 -0.09007333 -0.039792165 -0.0047270344 0.022258855 -0.037266172 -0.035809934 0.09957285
-0.13122968 0.034634635 -0.05107645 -0.05943745 -0.17184249 -0.119987994 0.0039339927 -0.11726196
0.022484118 -0.027320065 -0.013329894 0.030810555 0.053023428 -0.0014123217 0.083850905 0.08989184
0.091192424 0.011652384 0.025670713 -0.025891528 0.02708714 -0.143887 0.1349486 0.06151954
0.14932112 -0.080714844 -0.08490503 0.009082906 0.11216266 -0.0312768 0.12242252 0.080249086
0.010975386 -0.065797046 0.123477384 -0.04495578 0.016440019 -0.0033522302 0.011841148 -0.0017653367
0.077685356 0.05451051 -0.12367571 0.11089175 0.010465089 0.15993881 0.09121097 -0.01991128
0.08008735 -0.1520553 -0.04821767 -0.090522066 0.13430552 -0.014351689 0.15984482 -0.038412157
0.04498598 -0.029813573 0.053052038 -0.018175874 -0.100340344 0.03619503 0.13509703 0.09853526
-0.054968156 0.028469283 0.03857662 -0.07783596 0.011600066 0.09172896 0.08763357 -0.071807146
0.07201964 0.02379228 -0.005041689 -0.011254403 0.0031159334 0.051364996 -0.118981645 0.018161954
-0.055012394 0.020044936 -0.024978666 0.08582581 0.050027676 -0.013337576 -0.066488996 -0.03981742
-0.12465778 -0.033380847 0.030595591 0.01793548 -0.030438494 0.119740576 -0.021903211 0.07222889
-0.008308777 -0.054324068 -0.12542672 -0.008013179 -0.11622448 0.052988376 -0.16434623 -0.036247354

net.3.module.0.bias f4 [32]
00000000: 71d6 be3d 5f54 963b 9576 37bd b622 58bd
00000010: bc6f 253c 1412 ff3c 261b 56bd 0f75 8c3c
00000020: 934b b83d 612d a83c fcd4 db3c c654 41bd
00000030: 969f babb 210d bb3d 7047 013a a173 cdbd
00000040: 2f0e b3bc cb52 6a3d 0287 d63c af9e b13d
00000050: acc2 b93d 9a3e a8bd de3d 9fbd e3f2 8cbd
00000060: 9944 bbbd d6e7 a4bd 3d1a 2bbd 01ce f73c
00000070: 9536 c4bd e860 343d 90c1 d83c c0f8 4fbb
0.09318245 0.0045876945 -0.044790823 -0.052767478 0.01009744 0.03113655 -0.052271985 0.017145662
0.0899879 0.02052945 0.026834957 -0.047199987 -0.0056952937 0.091333635 0.00049316045 -0.1003182
-0.02185735 0.057207864 0.026187424 0.086728446 0.09070334 -0.08215065 -0.07775472 -0.068822645
-0.09143943 -0.08052032 -0.04177307 0.030249598 -0.09580723 0.04403773 0.026459485 -0.003173396

net.4.module.0.weight f4 [32, 32, 3]
00000000: 4df5 2a3e 2b09 2039 99a1 b23d 9a75 073e
00000010: 1a50 8c3b d7f1 83bc 7d4a 053e a33c 083c
00000020: f8d0 f6bc 44e6 24bd 17a1 a1bd 01d9 fdbd
00000030: bd0a 443d 53f2 903d bf8b 84bc c9f7 d03d
00000040: ab6c 8abd be78 b5bd 5a8e 103d 817c eebd
00000050: 15ff f23d 7458 9d3d d9f9 e2bb c419 b6bc
00000060: ccf7 123d 887b 9c3c c556 66bc 4d0b a03d
00000070: f8bc cc3c e84a d5bd 82e4 a3bc 70dc a83d
00000080: 741d 1cbc 7002 93bd d6de d13c 7196 b93d
00000090: d754 3f3c ac6b f2bd e1dc d03d f7d0 38bd
000000a0: f406 8cbb 15cd 8ebd a954 d43d 1a3d 54bd
000000b0: f148 243e 6293 80bd 777c 69bd f168 43bc
000000c0: 23b1 8ebb 84a7 903c 9889 73bd 209c 003e
000000d0: 5b1d 84bd 5e02 b7bc 5ed6 17be 0838 76bd
000000e0: f87a 0cbe f668 25be a508 443c d00e 183d
000000f0: 6096 bcbd 548e 863c 541e 02be 5434 aabd
00000100: aee1 783d 5239 22bc e957 dbbb f1b3 173d
00000110: 91e1 e23c 9366 f8bd 0bd6 493c 07ce 853d
00000120: a3e9 073e e850 a43a 0dac cc3d a4ca 2a3e
00000130: a6c9 9ebd 4dfd 863b cb75 093e 88cb 8bbd
00000140: 8128 d03c a6d9 d1bc f0db 33bd 57f3 aebd
00000150: db33 4fbd 57bc 41bc 214f 693c b505 e13d
00000160: 0414 bdbd 97b6 1abd e08f 6f3b bea7 bf3d
00000170: 9783 45bd 22f3 7d3c e025 c9bd c329 7d3c
00000180: 23da ca3b ac27 c5bd aa52 023d 803b 2f3d
00000190: a06c 8cbc e6fe e23d 5a48 3abd 80f0 c7bc
000001a0: 9dff 173d a4cc 003d 89ec 81bc 7b27 46be
000001b0: 16ad 623d 77c4 de3d 2a1e 9fbb 8b1b 233d
000001c0: 3441 c2bd 9483 b9bc 3ea8 a93d 0e75 96bd
000001d0: 63ec 683d 00c4 833d a5eb 753d f4ed 95bd
000001e0: d020 5dbd 67cf 973d 5873 b13d 6b14 953d
000001f0: b157 a93d 9812 1b3b 5295 173d 11f9 75bd
00000200: 9ec5 aebd bbc3 2c3c d7f9 9ebd 91b1 623c
00000210: c650 2ebe 3611 cebd c555 383d ee02 87bd
00000220: 5731 0b3d aaba 133d 155a bc3d 7a6e 9f3c
00000230: acd1 a23d 2091 acbd f8c4 ca3d 0581 123e
00000240: cad9 43bd 8e9e f3bd e029 d1bd aceb 9d3d
00000250: 2f8c d6bd beba 88bd b8e2 22bd 650d f33a
00000260: 8863 84bc 4d56 97bc 7801 403d 4706 9e3c
00000270: b6b7 a93c 3150 7cbd 5e69 d13d e44a 9a3d
00000280: 8a28 46bd 3072 05bb cad9 e3bd 612f 8dbd
00000290: 1b99 b2bd f019 95bd f101 4bbd 1c6f 7abd
000002a0: 2370 073d 77f6 61bd 971f 933d 5cf7 b1bc
000002b0: ae55 133d cbba 823d d798 8f3d 213e 98bd
000002c0: 6128 4abd f075 cfbd f4ad ccbd 67a3 02be
000002d0: 5516 cc3d 6720 9a3d 3bdd 2fbd cc10 233c
000002e0: 8ff2 87bd fa3b 25bd ff12 003e 0a79 293d
000002f0: 2bf0 8abd a940 023e 5f95 ac3b 33fc 76bb
00000300: cb53 553d e5a5 1d3d 4b2d 583c 6234 543d
00000310: dc6c 883d f2d2 a8bc cddc 803d 7d3e efbd
00000320: 275e 563d af4a dbbd ed79 09bc f97a 10bd
00000330: d29f 503d 5420 ef3d 2f73 903d ba03 063d
00000340: 4787 9ebd 7edc a33d 5d52 113d 88f7 02bd
00000350: 03de 9d3d 8d5a 283d fa41 353d b1bf 983d
00000360: 478a aabd a5fe d2bc 34c8 013d c6b1 c83a
00000370: 71e0 093c 5b2f bbbd 87e0 f5bc 800b 693a
00000380: 7e70 473d a0da 3c3d 7c94 5fbd 2501 adbd
00000390: bfb1 bfbd 800d c93d e94d 0abe 6def ab3d
000003a0: de77 9abd 7626 8fbc 892f 463c 2a8f 893b
000003b0: 23f0 b7bd de66 d9bc 6ff3 753d 21a4 123c
000003c0: 73a2 d5bc 4c3b 88bc 52e6 a4bb 15d8 883d
000003d0: dd5e febd d280 89bd 6b9f 5abd c322 103d
000003e0: 6e99 27bd aea6 2abe 4cb6 b1bc b58c 203d
000003f0: 31e5 ad3c 4202 353d ccf7 52bd cda7 abbc
0.16695137 0.00015262204 0.087222286 0.13228455 0.00428201 -0.01610653 0.13016696 0.008315238
-0.030128941 -0.04025866 -0.078920536 -0.12394906 0.047861803 0.0707747 -0.016179917 0.10203511
-0.06759008 -0.0886092 0.035292007 -0.11644841 0.11865059 0.07682887 -0.006926757 -0.022229083
0.03588085 0.019101873 -0.014058773 0.078146555 0.024992451 -0.10414678 -0.020006422 0.0824517
-0.009528507 -0.07178199 0.025618952 0.090618975 0.011677942 -0.11836943 0.10198379 -0.04512116
-0.00427329 -0.0697271 0.1036771 -0.051816083 0.1604345 -0.06278111 -0.057003465 -0.011926875
-0.0043546124 0.017658003 -0.05945739 0.12559557 -0.064509116 -0.022339996 -0.14827868 -0.06011203
-0.13718784 -0.1615332 0.011964952 0.0371235 -0.09208369 0.01642529 -0.12706882 -0.08310762
0.0607621 -0.009901362 -0.0066938293 0.03703684 0.02769545 -0.121289395 0.012319098 0.06533437
0.13272719 0.0012536319 0.099937536 0.16678864 -0.07753305 0.0041195513 0.1342384 -0.0682593
0.025409939 -0.025616478 -0.04391092 -0.08542507 -0.050586563 -0.011824689 0.014240057 0.10987417
-0.09232333 -0.037771787 0.0036554262 0.09358166 -0.048221197 0.015499862 -0.09821677 0.015451851
0.0061905547 -0.096267074 0.031817116 0.042781353 -0.01714164 0.11083774 -0.045479156 -0.024406672
0.037109006 0.03144516 -0.015859859 -0.19350998 0.05534085 0.108773164 -0.0048558908 0.03982119
-0.09485093 -0.02264575 0.08284043 -0.07346545 0.05686606 0.064338684 0.06003918 -0.073207766
-0.05398637 0.07412606 0.08664578 0.07279285 0.08268679 0.0023662206 0.037007637 -0.06005198
-0.08533786 0.010544713 -0.07762497 0.01383628 -0.17023 -0.100618765 0.04500367 -0.06592356
0.0339826 0.03606669 0.09196869 0.019461859 0.07950148 -0.08426118 0.0990085 0.1430703
-0.04781512 -0.11895476 -0.10213065 0.077109665 -0.10475957 -0.06676243 -0.039766997 0.0018543421
-0.016160741 -0.018473769 0.0468764 0.019290103 0.020717483 -0.061599914 0.10225175 0.075338155
-0.048378505 -0.002036225 -0.11125524 -0.068938024 -0.08720609 -0.07280338 -0.0495624 -0.06114112
0.033065926 -0.055166688 0.0718376 -0.021724395 0.035970382 0.06383284 0.07011574 -0.07433725
-0.049354915 -0.10129917 -0.099941164 -0.12757646 0.09965197 0.075257115 -0.04293559 0.009952735
-0.06638061 -0.0403404 0.12507246 0.041375197 -0.0678409 0.12719978 0.00526683 -0.0037686944
0.052081864 0.038488287 0.013194392 0.05180777 0.06661388 -0.020608399 0.062921144 -0.116818406
0.052335884 -0.10707604 -0.008390886 -0.035273526 0.050933667 0.11676088 0.070532195 0.032718398
-0.07740646 0.0800104 0.03547894 -0.031974345 0.07708361 0.04110198 0.044252373 0.07458437
-0.083271556 -0.02575619 0.03168507 0.001531177 0.008415327 -0.09139892 -0.03001429 0.0008889958
0.048691265 0.046106935 -0.054584965 -0.08447484 -0.09360074 0.09817028 -0.13506283 0.08395276
-0.07542394 -0.017474394 0.012096294 0.0041979747 -0.08981349 -0.026538309 0.06004661 0.008950264
-0.026078438 -0.016629837 -0.005032339 0.066818394 -0.124204375 -0.06714024 -0.05337469 0.0351894
-0.040917806 -0.16665146 -0.021693371 0.03919669 0.021227451 0.044191606 -0.05150585 -0.020954037

net.4.module.0.bias f4 [32]
00000000: ff1b c83d cd32 1a3d a076 42bd 8b2f 053d
00000010: 1104 553d 8b29 593d 1814 5cbc 0f1c 3f3d
00000020: 47a1 053d 1391 afbc 977c 33bd 00ad 92bd
00000030: f5b0 753c 39d9 51bd fed2 b03c 8e78 813d
00000040: 45b8 513d db4c 593d 5fbf 59bc efc5 4fbd
00000050: 6d58 563d 0b3b b5bc 21c0 0f3c 9148 843d
00000060: 98e1 8a3d cd71 4b3c 3f5b b1bc 416e ad3c
00000070: a327 573d 9fa8 12bd 4544 6f3d aac8 e53d
0.09770965 0.037646104 -0.04747641 0.032516044 0.05200583 0.053018134 -0.013432525 0.046657618
0.03262451 -0.021431481 -0.04381999 -0.071619034 0.014995803 -0.05123255 0.021584984 0.06321822
0.051201124 0.05305181 -0.013290255 -0.050725874 0.052330423 -0.02212288 0.008773834 0.064591534
0.0678131 0.012417269 -0.021649955 0.021170737 0.052528035 -0.03580534 0.058414716 0.11219914

net.5.weight f4 [3, 32, 3]
00000000: 90fd c43d 0bbb b5bd f597 a8bc d474 cd3d
00000010: 862a 043d d8a3 db3c 08f9 903d a703 b33b
00000020: acd1 ad3d 0a80 253d 93c9 0f3d 2617 76bd
00000030: b0ea cd3d 22c1 4d3d 7cea c53c f935 9b3d
00000040: 55ae 91bd 9ba7 0e3d fcf4 a03d 37b9 78bd
00000050: 2901 ca3c cd56 7dbd c5d4 743d beee dc3d
00000060: 5f72 d3bd 3b3d 7b3a 6651 d9bd 1b3d 2d3d
00000070: 83e2 74ba 11d1 2dbd 19a8 92bc d1b1 733d
00000080: f307 0b3e 44da a0bd d647 96bc 13f1 b73c
00000090: b345 01be 28ef 96ba 63c7 91bd 1f8e cc3d
000000a0: 24f7 8f3c 45b5 da3d 49dd 903c d123 93bd
000000b0: fb15 b9bd 9f43 aebd 9575 55bd 7516 903c
000000c0: 6b45 26bd a097 81bd 9d03 babd 0595 c23d
000000d0: 5c4c 843d e5e7 0ebc 5693 92bd d31d adbc
000000e0: c5e2 01be b0db b2bc e72e 94bd 8303 b73d
000000f0: f6b1 6ebd 0136 b53d 1ad5 15bd 8dae 253d
00000100: 7bad 94bd e30f 403c 7af6 e6bd c563 aebd
00000110: b41c 46bd 044b 13bd 78ad 4e3c 6595 1fbd
00000120: 950a f63c 5b15 a1bc 6d0d 37bb 1fd2 403d
00000130: 9cc3 12bd d9d3 08be 6b8d b03d 2543 c83c
00000140: de81 893d 8587 573c 0a23 a0bd 27e4 78bb
00000150: 745d ebbc 87ff fd3c d44b f33d 0b6e 5bbd
00000160: eefc 2e3d 6329 b3bd 9ad3 9e3c 5521 9ebc
00000170: aa5d aebd 9ddb 9c3d 4d02 b83b 4c0e e4bc
00000180: 6c62 86bd 9a81 dc3d 599b 8dbd d720 0ebd
00000190: 02d8 203d 6d05 d4bd ae4c 2bbd 2989 2cbd
000001a0: 83ae cdbc d6b3 503c 2533 703d b517 023e
000001b0: f4f9 f8bd 1fb9 9ebd 20b6 2f3d 9b82 f6bd
000001c0: a747 9abd 5465 e63c 40b1 65bd b547 a63d
000001d0: cb1f fcbd a6cb b9bc 6e41 833d f170 a13d
000001e0: 1657 babd 978c d9bc 5f67 a53c 992b cd3c
000001f0: 0aad 233d 5f00 dc3c facf a43d 4746 8a3d
00000200: 87c0 1b3c baba ed3d fc0f e23a e3a7 0139
00000210: 9fb5 8fbd bee5 473d 3c7f b43d 304a 433d
00000220: eec1 64bd 673a 43bd 5c3f 06bc 4e4b 87bc
00000230: 2015 b9bd d4c0 a1bd 710d 7cbd d647 f5bd
00000240: fdff 053d 33c2 afbd 29ba 563d 3fd3 dabd
00000250: d54d d63c ee27 ae3c c6a2 443d 2993 61bb
00000260: 9604 d23d 37d5 a93d 95cc 1bbc 42a7 1f3d
00000270: ff26 e73c b843 32bd 1213 71bd 6c52 103d
00000280: c347 113d 792f 00bc 02d6 1dbc 4240 2a3c
00000290: 61d7 223d 9419 733d 3b1b 913d 8b94 19bd
000002a0: f4d2 b0bd bc01 f6bc 69e8 d7bd 7e8b 5bbc
000002b0: e428 99bd 0e58 64bd b8eb 7abd ac97 53bd
000002c0: 50e9 b6bc 1e1c 57bb 49a6 1d3d 1c1a b53d
000002d0: 0a26 ffbb f3f4 2bbd c987 31bd 0893 e0bd
000002e0: 1aac a7bc 1f10 a33b 9a20 58bd e7b0 03bd
000002f0: 0dcc 393c 63c8 813d fb34 1a3d 43c5 dfbd
00000300: 9224 393d c4de 77bd 4cad 453c 58ea bbbc
00000310: 9fc8 e7bb cda0 a93d 20b2 11bc b566 4c3d
00000320: c5d7 b9bc 7b00 2c3a 9430 8ebc 9b6f e7bd
00000330: 4995 973d db4f 36bd b5c2 a4bc 4bd7 e13d
00000340: d189 933d 64bf 24bd ef83 a53c 085a dbbb
00000350: e08b da3d 55e2 d93c ce18 7cbd a5b7 8bbd
00000360: 467d 893d e389 1ebc 4942 953d 2c19 9fbd
00000370: d9f3 813d 04e6 6cbd e9bb c9bd 3ddd bcbc
00000380: 53f5 81bd c7aa 8bbd 8b33 6d3d c528 e8bc
00000390: 3498 8f3d c007 15bc a316 3abd 06a8 b9bd
000003a0: 4161 8b3d 19ea 43bd 1677 4f3c 19ff c6bc
000003b0: 8069 e33d f842 223d 0cad cebb 374b c63d
000003c0: 6aa7 033d 2bae 6fbc 69b8 fb3c 40e9 0ebd
000003d0: 65be 0d3d 8df6 e43c b484 debc 5269 153d
000003e0: cc22 e0bc 0772 c0bb 0846 95bd 8733 60bd
000003f0: b4a3 093d 444a 5a3d 0776 973d 0d8f 70bd
0.09618676 -0.08873566 -0.020580271 0.10032049 0.032267116 0.026811525 0.07078749 0.005463082
0.08487257 0.04040531 0.035104346 -0.06008067 0.10054529 0.050233014 0.024159662 0.07578654
-0.07113329 0.03482781 0.07859227 -0.06072351 0.024658756 -0.061850358 0.059773225 0.10787724
-0.10324549 0.0009584014 -0.10611229 0.042294603 -0.0009341614 -0.04243571 -0.01790242 0.05949575
0.13577251 -0.07854131 -0.0183448 0.02245382 -0.12624244 -0.0011515366 -0.07118108 0.09988045
0.0175739 0.10679106 0.017683642 -0.07184566 -0.090373956 -0.085089915 -0.052114088 0.017588833
-0.040593546 -0.06327748 -0.090827204 0.095010795 0.06459877 -0.00872228 -0.07157008 -0.021132385
-0.12684162 -0.02183327 -0.072355084 0.08936217 -0.058275186 0.08848191 -0.036580183 0.040449668
-0.07259651 0.011722538 -0.112774804 -0.08515123 -0.048367217 -0.035960212 0.0126146 -0.038960833
0.030034343 -0.019663503 -0.0027931586 0.047075387 -0.03583108 -0.13362063 0.08620723 0.02444608
0.06714223 0.013154869 -0.07819183 -0.0037977786 -0.028731085 0.031005634 0.118796974 -0.053571742
0.04272168 -0.08748128 0.019388009 -0.019303003 -0.08513959 0.076590754 0.0056155086 -0.027838849
-0.06561741 0.10766907 -0.06914396 -0.034699287 0.0392685 -0.103525974 -0.041821174 -0.042122994
-0.025107628 0.012738189 0.058642525 0.12704356 -0.1215705 -0.07750153 0.042898297 -0.1203663
-0.07533198 0.028124489 -0.056077242 0.08119146 -0.123107515 -0.022680115 0.06408964 0.0788287
-0.090986416 -0.026556296 0.020190893 0.025045203 0.039959945 0.026855646 0.08047481 0.067516856
0.009506351 0.11607881 0.0017247195 0.00012364941 -0.07017063 0.048803084 0.088133305 0.047678173
-0.05584901 -0.04766312 -0.008193817 -0.0165154 -0.090372324 -0.07898107 -0.061536256 -0.11976592
0.032714833 -0.085819624 0.05242363 -0.10684823 0.02616016 0.021259274 0.048006795 -0.003441999
0.10254781 0.08292621 -0.009509225 0.03897787 0.028216837 -0.043521613 -0.058856077 0.035234854
0.035468828 -0.007823818 -0.009633543 0.010391297 0.039756183 0.059350565 0.07085272 -0.037495177
-0.08633986 -0.030030124 -0.105423756 -0.013399957 -0.074785024 -0.055748038 -0.061259955 -0.051658317
-0.022328049 -0.0032823156 0.03848866 0.088428706 -0.007786517 -0.04198165 -0.043342385 -0.10965544
-0.020467807 0.004976287 -0.052765466 -0.03215113 0.011340153 0.06337049 0.037648182 -0.109262966
0.04520089 -0.06051518 0.012065243 -0.022938892 -0.0070734764 0.082826234 -0.008892566 0.049902637
-0.022685895 0.0006561351 -0.017357148 -0.11300584 0.07401521 -0.04450975 -0.020112375 0.11027392
0.07204021 -0.040221587 0.020204512 -0.006694082 0.1067121 0.026597181 -0.061547093 -0.06822137
0.06713347 -0.009676429 0.072880335 -0.07768473 0.063453384 -0.057836547 -0.09850294 -0.023054713
-0.0634562 -0.068196826 0.057910483 -0.028339753 0.07011452 -0.009096086 -0.045431744 -0.09065251
0.06805659 -0.047830675 0.01266267 -0.024291562 0.11104107 0.039614648 -0.00630725 0.09682315
0.03214208 -0.014628927 0.030727582 -0.034890413 0.034605402 0.027949596 -0.027162887 0.036477394
-0.027360342 -0.005872968 -0.07288748 -0.05473664 0.033603385 0.05329348 0.07395559 -0.058730174

net.5.bias f4 [3]
00000000: 3fb6 233d 2768 5e3d 5af3 a0bd
0.039968725 0.054298546 -0.078589156

exp_avg f4 [32, 120, 2]
00000000: 2138 f3b6 2087 08b7 16d2 23b7 2373 dcb7
00000010: 03e2 0e3b 5657 a43a 3b50 2f3a bb6a e639
00000020: 62fb 363a 2014 cb39 c3ea 5f3a 68ca 61b9
00000030: 9d7c 6ab8 9e6e 1037 a22d 683a d37d 9f3a
00000040: b089 b6b8 a191 4eb8 69ec c737 d70b 81b7
00000050: 9e3d 23ba 5c1f 97b9 0a79 d339 8d6d 81b8
00000060: d8f1 84b8 4d24 3ab8 bad8 0c36 eeee a13a
00000070: cc1e e2b7 b40d 1639 512c 71ba 714e 78ba
00000080: be8d cf39 73a8 3339 9506 5539 971d 2639
00000090: 7e99 bd39 5f97 2c3a 163e 4938 6b45 dd39
000000a0: 8380 ecb9 04bd 0dba 07ec 8937 65ae 2a39
000000b0: 4109 a33a dc4f 893a f8ec 58ba 2e69 71ba
000000c0: 6416 7839 44ca cb38 9e5e 103a 3201 833a
000000d0: d342 473a c7ec 213a 50b4 8a38 e001 9b38
000000e0: 2a69 afb8 fd79 b7b8 22fd b7b8 b84a 6b37
000000f0: c43a 5eb8 cbac 0738 19de e7b9 803d 9eb9
00000100: 3fa1 34b9 948c 6fb9 16e1 52b9 067a 90b8
00000110: fc48 aeb9 96f2 18b9 175c 6339 5a42 3b39
00000120: d13e 8539 9f3f 5239 f2d3 b8b8 bd96 0738
00000130: 6ff1 c3b7 0933 eab6 0000 0000 0000 0000
00000140: 0399 aab9 019a 85b9 a010 09b9 4543 5fb9
00000150: a1da 7939 9f96 9336 1e42 13b9 8db3 41b8
00000160: e6d7 5639 8cce 7039 154a c7b8 9689 52b9
00000170: cfa3 e6b8 bfd9 5eb8 386f cab8 f31d 93b9
00000180: a6c0 cc37 3d14 a939 7f59 4eb6 d64d e2b8
00000190: 97fe 0339 9a1b 2738 3a32 9139 ed70 7e39
000001a0: 3a08 ae38 d7fe 6c3a 6681 deb9 0600 bdb9
000001b0: 6eb0 0fb9 e5a0 9ab9 47dd 0a38 0bff 7f39
000001c0: c40c 94ba c0f2 a2b9 fd5d bbb8 01b3 cab8
000001d0: 93fd b338 6f1b 4439 2be3 21ba 03b2 8dba
000001e0: 853d 91b7 7bb7 5739 ed17 6434 9458 c236
000001f0: f92f 33ba 69dd 05ba a789 e3b7 3e77 7ab9
00000200: b804 d9b9 6998 09ba 95c1 08b8 a808 de36
00000210: 0522 fe38 984f c839 fe04 9639 5ed9 3d3a
00000220: e733 76b8 37cb d634 d3e5 42ba 8654 dab9
00000230: c1a0 d6b9 c7d4 b3b9 a4a6 40b9 609a e5b9
00000240: ee5d 7c38 dde3 9cb9 7dc7 4b38 abd7 aa36
00000250: c948 0cb8 bf08 1eb7 f762 4e38 8014 7437
00000260: 6c86 41b9 3d25 94b9 fbf6 693a 6f67 dc3a
00000270: 38ed 0339 9222 7b3a 0162 6cba aab0 73ba
00000280: e3ca 27b9 b830 3239 d961 ef36 bf83 98b8
00000290: 72c8 a238 906c efb7 d6c5 513a 3457 3c39
000002a0: c479 f1b8 d312 fbb8 f005 34b9 1d56 50b9
000002b0: 4aaa 12b9 377f afb8 fbda 51ba c2fe 61ba
000002c0: 9e1e bbb7 d9b2 14b9 4dac 2436 f977 4a39
000002d0: 518b 8f37 b8a0 61b8 e7a4 2db8 65cc a7b8
000002e0: aa45 00ba 7c91 92b9 46da 8239 0c41 9f38
000002f0: b20a 8838 50bc e937 a06e a6b9 4c90 0436
00000300: 546c 063a 37c3 1f3a 4ded d7b8 6e1e 4cb8
00000310: fc4e 1238 99d6 8038 1e86 ba38 328a a939
00000320: 0771 1cb8 4d0b 4c39 d117 7cb8 35f4 2cb9
00000330: a150 55b9 f3a9 65b9 36da 7fb9 e6b1 b8b9
00000340: b718 a339 ba3f f539 0ae8 87b8 1cd6 5db8
00000350: d93a 4a38 91ac 7e38 8803 9bb8 6736 8537
00000360: 3c0c 23b9 b326 e9b9 ba29 9839 3e67 1d39
00000370: b73a c0b9 5ba3 76ba 0f27 bab9 2797 393a
00000380: 98f2 0f36 42e3 c938 f9d1 f435 bdf9 4538
00000390: 37d6 2039 3d4e 9036 f0d0 cdba e764 d0ba
000003a0: b349 88b9 8063 c2b8 ac43 ce39 57de f739
000003b0: 2154 adb8 5c44 ed38 27cf 0c39 abcb 4e39
000003c0: f2dc 28b8 5d3e 2a39 47c8 5a39 5c24 b238
000003d0: 2a6a f43a 4fd2 bc3a 24b1 5eba 09c4 9eba
000003e0: 305b e8ba 4770 d2ba 4034 7ebb cdc2 53bb
000003f0: d5a7 2ab9 97e8 40b9 dd3a 573a e432 933a
-7.2484986e-06 -8.137693e-06 -9.7644715e-06 -2.6279658e-05 0.0021802194 0.0012538235 0.00066876755 0.0004394854
0.0006980208 0.00038734172 0.0008541757 -0.00021533074 -5.5906003e-05 8.608824e-06 0.00088568975 0.0012168236
-8.7040826e-05 -4.9249855e-05 2.3832736e-05 -1.5383512e-05 -0.0006227138 -0.0002882433 0.00040335237 -6.171605e-05
-6.3392974e-05 -4.4379663e-05 2.0987777e-06 0.0012354532 -2.695564e-05 0.0001431022 -0.0009200024 -0.0009472138
0.00039587723 0.00017133522 0.00020315715 0.00015842017 0.0003616325 0.00065838353 4.7979956e-05 0.00042204125
-0.00045109176 -0.00054068887 1.6441581e-05 0.0001627743 0.0012438671 0.001047607 -0.0008275057 -0.00092090934
0.00023659464 9.717469e-05 0.0005507263 0.0009994863 0.0007601205 0.0006176945 6.6139386e-05 7.391325e-05
-8.3642386e-05 -8.748842e-05 -8.77327e-05 1.4024488e-05 -5.2983654e-05 3.2347434e-05 -0.0004422523 -0.0003018193
-0.00017226207 -0.00022845186 -0.00020111012 -6.889184e-05 -0.00033242244 -0.0001458622 0.00021682713 0.00017858428
0.0002541454 0.00020050861 -8.8132816e-05 3.2326894e-05 -2.3358238e-05 -6.9796847e-06 0.0 0.0
-0.0003253893 -0.0002548248 -0.00013071531 -0.00021291997 0.00023827936 4.398476e-06 -0.00014043643 -4.6182005e-05
0.00020489059 0.00022965128 -9.502858e-05 -0.00020078415 -0.000109977664 -5.3131716e-05 -9.652827e-05 -0.0002806034
2.4408404e-05 0.0003224927 -3.0748486e-06 -0.00010791018 0.00012587976 3.984161e-05 0.00027693977 0.00024265396
8.298499e-05 0.00090406596 -0.0004243955 -0.00036048907 -0.00013703268 -0.00029493045 3.3107845e-05 0.00024413706
-0.0011295308 -0.0003107991 -8.9343615e-05 -9.665453e-05 8.582617e-05 0.00018702236 -0.0006175513 -0.0010810498
-1.7313994e-05 0.0002057235 2.1242859e-07 5.7919624e-06 -0.00068354566 -0.000510654 -2.7124608e-05 -0.00023886279
-0.0004139298 -0.0005248846 -3.2605214e-05 6.6171233e-06 0.000121180004 0.00038206275 0.0002861395 0.0007242168
-5.869931e-05 4.0008464e-07 -0.0007434759 -0.00041643175 -0.00040937032 -0.00034300072 -0.00018372625 -0.00043793302
6.016896e-05 -0.0002992441 4.858476e-05 5.091502e-06 -3.3446388e-05 -9.41957e-06 4.9206395e-05 1.4548306e-05
-0.0001845599 -0.00028256504 0.00089250476 0.0016815494 0.00012581504 0.00095800415 -0.0009017289 -0.00092960394
-0.00016001942 0.00016993552 7.134146e-06 -7.2724644e-05 7.762098e-05 -2.8541574e-05 0.0008002197 0.00017961563
-0.00011514456 -0.00011972119 -0.0001716835 -0.00019868505 -0.00013987083 -8.368346e-05 -0.0008005348 -0.0008621031
-2.2306394e-05 -0.00014181006 2.4538197e-06 0.00019308914 1.7111803e-05 -5.379386e-05 -4.139999e-05 -8.001252e-05
-0.0004893193 -0.00027955684 0.0002495816 7.593827e-05 6.4869775e-05 2.7863454e-05 -0.0003174441 1.9753525e-06
0.00051278365 0.0006094458 -0.000102961996 -4.866573e-05 3.4882672e-05 6.1434876e-05 8.8941524e-05 0.00032337155
-3.7298563e-05 0.00019459166 -6.0103663e-05 -0.00016494172 -0.000203433 -0.00021902453 -0.00024399985 -0.0003522776
0.00031108197 0.00046777521 -6.480522e-05 -5.288991e-05 4.821536e-05 6.0719034e-05 -7.391634e-05 1.5880169e-05
-0.00015549449 -0.00044470056 0.00029022788 0.00015011147 -0.0003666484 -0.0009408497 -0.00035505785 0.00070797134
2.1449869e-06 9.626757e-05 1.8240527e-06 4.7201047e-05 0.0001533859 4.3006426e-06 -0.0015702527 -0.0015899212
-0.00025994852 -9.269174e-05 0.000393418 0.00047277167 -8.264953e-05 0.000113137736 0.0001342861 0.00019721563
-4.0260093e-05 0.00016235696 0.00020864709 8.494474e-05 0.0018647362 0.0014405939 -0.0008495024 -0.0012112866
-0.0017727371 -0.001605519 -0.0038788468 -0.0032312155 -0.00016274986 -0.00018397193 0.00082103704 0.0011230377

exp_avg_sq f4 [32, 120, 2]
00000000: c53a 4f34 c25d 8634 00f8 b634 2d06 c034
00000010: 3e41 5038 b4ad 0538 0c59 4d36 6206 2c36
00000020: 4c0a bf36 41aa ac36 8f4e 0a38 c309 1938
00000030: 96cf 7735 5b23 8535 5121 0e37 ccf1 2137
00000040: 15f5 0a36 6a4d 0936 b648 0833 ff57 6f33
00000050: e1cd 0938 231e 4a38 e883 6537 e12f 4337
00000060: bd8d 2435 a050 6634 5876 7e38 6e86 4038
00000070: 6a3a be37 5ce7 ed37 8bed c437 6553 da37
00000080: 6aa7 b335 b0ea 0c36 af2c 0836 5ff5 1436
00000090: f1cb d237 de38 ee37 d37f a336 e437 d536
000000a0: ffe3 2237 ef2b ed36 c213 8e35 dfbf 7c35
000000b0: 298d 6838 c8f6 ec37 c4a4 3538 c524 0f38
000000c0: 6c0e 8136 bb8c 2d36 fbe5 d437 a151 1438
000000d0: 85ef 4536 0c2f 1636 2022 b732 e7dd 5733
000000e0: 8890 4c33 940b 3833 9380 2a35 ac6d 1535
000000f0: 5eb9 3635 7ba3 0735 245c bf36 a9b7 f336
00000100: 0646 1135 ebd1 be34 8e6f 5e35 51fc a035
00000110: ecb9 7c36 6d08 f336 197a 4b35 aa3f ef34
00000120: bc19 6735 52c8 5d35 6c97 ab34 561f 1f35
00000130: 2795 9533 8c99 8e33 0000 0000 0000 0000
00000140: 13bc 2936 dbbf f335 e8c0 e335 ef51 0236
00000150: 400d 0d35 eb5c 2f35 877e 8a35 2639 ae35
00000160: 5c9a 4035 9632 3435 2ba1 7d35 649d ac35
00000170: 08cf ab36 0c88 a836 53c1 4d36 a556 8c36
00000180: c4e9 8e36 f7e2 8a36 db0d 0834 4534 3334
00000190: 4cc5 c435 f9c2 c935 0c0d d036 6479 bf36
000001a0: 6a3a de37 927f 0238 0aec 2736 9e86 0236
000001b0: c7da 9236 e5b2 8a36 76e0 1836 530c 3a36
000001c0: cbcd c337 05cc 4237 034d 1e34 0c94 8934
000001d0: 21ae 2835 8713 2c35 3e1e 6637 9f84 ba37
000001e0: 2ca0 3e37 705c 0b37 c0a0 6d30 6872 2d30
000001f0: 0099 b036 5d14 0a37 cbb7 8036 922d 2b37
00000200: b981 8236 3ff7 1c36 ee32 c431 3cff 2932
00000210: ef32 4936 48ca 5c36 677e 9738 76e3 9c38
00000220: 5ae3 b433 075e 4534 a341 f536 c252 ee36
00000230: d280 b736 c661 aa36 47f7 da36 d207 d536
00000240: 4ae3 7336 e527 5436 4eab 7735 5fd0 1f35
00000250: 56c5 4135 2b73 4c35 c644 1b34 e03f 3634
00000260: 3ecf d735 69eb 3c36 40de 1c37 aea2 0237
00000270: e58b ec37 064f 0738 568f 3b37 3529 0e37
00000280: c376 b337 efcf 9937 7871 bb34 016f 6c34
00000290: 3e5c c734 b4e6 df34 78dc 3a37 a39a 9c36
000002a0: c74b 9b33 27be 9533 819b f835 4d24 2c36
000002b0: 144c a436 b368 5e36 14a5 b236 c7c7 d536
000002c0: 215d f136 c706 d136 bece d935 abd3 0236
000002d0: 373b 0e34 4db3 f533 a26a b734 9e5b e134
000002e0: 2e3e 2d37 2a30 6537 c35a 3435 4ca4 3635
000002f0: 0192 9634 4b76 4934 adf5 d436 9211 cd36
00000300: 1859 f136 dea0 1737 ef01 4434 95f1 ac34
00000310: c0ca 9835 655c 0936 2a4a af35 0c2b dc35
00000320: 4645 8235 4dc7 7235 ba1d 0135 310d 3935
00000330: 3079 2135 c78f 1035 9453 3736 7967 2636
00000340: 54b5 bb36 e247 7437 f0ac b533 0db8 7533
00000350: 21ed 4636 0fbc 6d36 f616 a335 32eb 9b35
00000360: 7f21 1136 e821 0836 3839 bb36 661b ec36
00000370: a648 9237 0f87 ab37 441e cb37 2996 0138
00000380: f140 1037 1150 2d37 9c74 a433 1495 9e33
00000390: 074e 9235 34c6 0e36 dd0f 9437 5b2e c837
000003a0: cc29 3735 7045 7435 67ef 8636 11c3 cc36
000003b0: c578 ae35 4a13 0236 c97a a435 5739 5c35
000003c0: 7345 f035 a6a7 af35 baaa 9e35 93b4 a735
000003d0: 9cd7 1339 cb6e 1639 56af a037 8032 6337
000003e0: 778c 9037 a7cd 8437 7dcb 7639 9145 7b39
000003f0: e544 a936 e069 b336 6c69 7938 634d 9738
1.9299758e-07 2.5027663e-07 3.4080585e-07 3.576728e-07 4.9651826e-05 3.1871445e-05 3.0599213e-06 2.5633713e-06
5.6934423e-06 5.1458196e-06 3.2974927e-05 3.6487134e-05 9.231675e-07 9.919562e-07 8.471617e-06 9.6526455e-06
2.070626e-06 2.0459652e-06 3.1731098e-08 5.5726556e-08 3.2855085e-05 4.818862e-05 1.36801755e-05 1.1634053e-05
6.130102e-07 2.144975e-07 6.0668535e-05 4.5901565e-05 2.2676966e-05 2.8360337e-05 2.3475635e-05 2.6026459e-05
1.3385263e-06 2.0998232e-06 2.0291588e-06 2.2196543e-06 2.5128918e-05 2.8398292e-05 4.8726592e-06 6.354401e-06
9.709037e-06 7.068265e-06 1.0585575e-06 9.4156525e-07 5.5444576e-05 2.8248309e-05 4.3307213e-05 3.41281e-05
3.8461785e-06 2.5860925e-06 2.5379462e-05 3.5361973e-05 2.9494706e-06 2.2379127e-06 2.1319522e-08 5.0260407e-08
4.76289e-08 4.285137e-08 6.3517035e-07 5.566642e-07 6.807003e-07 5.0529314e-07 5.70297e-06 7.263345e-06
5.4118607e-07 3.5542993e-07 8.286378e-07 1.1994363e-06 3.7659147e-06 7.2429452e-06 7.580107e-07 4.456354e-07
8.6091654e-07 8.262042e-07 3.1961406e-07 5.9277716e-07 6.965484e-08 6.64032e-08 0.0 0.0
2.5292436e-06 1.8160748e-06 1.6968961e-06 1.9419201e-06 5.2545874e-07 6.5327794e-07 1.0318626e-06 1.2980643e-06
7.1750196e-07 6.712884e-07 9.4484375e-07 1.2860805e-06 5.1202987e-06 5.022628e-06 3.065991e-06 4.182412e-06
4.2591437e-06 4.1391427e-06 1.2671028e-07 1.668969e-07 1.4660559e-06 1.5032412e-06 6.200402e-06 5.7063753e-06
2.6491663e-05 3.1113224e-05 2.5022332e-06 1.9449867e-06 4.376608e-06 4.1335466e-06 2.2780418e-06 2.7723333e-06
2.3341641e-05 1.1610803e-05 1.4742913e-07 2.5625957e-07 6.283827e-07 6.410341e-07 1.371611e-05 2.2234684e-05
1.1362175e-05 8.306568e-06 8.6448537e-10 6.3099614e-10 5.2630203e-06 8.230182e-06 3.8360936e-06 1.0203004e-05
3.8894036e-06 2.3389728e-06 5.710141e-09 9.895128e-09 2.9980981e-06 3.2900298e-06 7.223785e-05 7.4810276e-05
8.423258e-08 1.8381262e-07 7.30921e-06 7.102587e-06 5.4688217e-06 5.077777e-06 6.525693e-06 6.348805e-06
3.6342121e-06 3.1613683e-06 9.226395e-07 5.9535336e-07 7.2185264e-07 7.6163514e-07 1.446052e-07 1.6973308e-07
1.6079064e-06 2.815121e-06 9.350071e-06 7.786481e-06 2.8198536e-05 3.2260104e-05 1.1179442e-05 8.473454e-06
2.1393766e-05 1.8335848e-05 3.4914024e-07 2.2019596e-07 3.7133753e-07 4.1704845e-07 1.1137796e-05 4.6671644e-06
7.231534e-08 6.972942e-08 1.8522697e-06 2.5651127e-06 4.8964375e-06 3.314152e-06 5.324031e-06 6.371152e-06
7.1932013e-06 6.2294744e-06 1.622793e-06 1.9494717e-06 1.3246323e-07 1.1441316e-07 3.4163992e-07 4.1976176e-07
1.0326081e-05 1.3660678e-05 6.71873e-07 6.8039367e-07 2.804591e-07 1.8762618e-07 6.3466928e-06 6.1115215e-06
7.1927316e-06 9.037756e-06 1.8254626e-07 3.221327e-07 1.138389e-06 2.0468372e-06 1.3060101e-06 1.6403806e-06
9.705916e-07 9.0442046e-07 4.80995e-07 6.8937067e-07 6.0153525e-07 5.3853404e-07 2.7317774e-06 2.4796157e-06
5.5941437e-06 1.456027e-05 8.4599264e-08 5.72109e-08 2.9642326e-06 3.5425217e-06 1.2151129e-06 1.1616851e-06
2.162618e-06 2.0285315e-06 5.5796954e-06 7.0365377e-06 1.7438386e-05 2.044768e-05 2.421358e-05 3.0895844e-05
8.598189e-06 1.03302455e-05 7.658056e-08 7.3845655e-08 1.0900557e-06 2.1275018e-06 1.7650362e-05 2.3863444e-05
6.8233635e-07 9.099813e-07 4.0213813e-06 6.1023825e-06 1.2999159e-06 1.9382737e-06 1.2254687e-06 8.2039827e-07
1.7901606e-06 1.3087308e-06 1.1821605e-06 1.2495024e-06 0.00014099333 0.00014346388 1.9155133e-05 1.3542012e-05
1.7231547e-05 1.583139e-05 0.00023536193 0.00023963141 5.044613e-06 5.346941e-06 5.9464408e-05 7.2146555e-05

exp_avg f4 [32]
00000000: e835 cc3b 9883 1bba 192b 26bb 3096 9838
00000010: 5224 d8bb ed6e 8d3a 35eb f13b e28f fdbb
00000020: 6294 2f3c 7354 4fbb d75a b7bb 7b1d f23b
00000030: 741e 2c3c 6718 11bc 3016 e63b 1ec1 3b3b
00000040: b5c5 093c c5c1 f8bb e734 e03a d9e8 74ba
00000050: ca6c 1b3c bc37 453c d974 d43b cdcd d8bb
00000060: aecf 12bb 57f1 8c3b 683e 3abc 899c a03b
00000070: facd 4abc 5232 d4ba 0c15 31bc 423c 11bc
0.006232012 -0.000593239 -0.0025355278 7.2758994e-05 -0.0065961266 0.0010790505 0.007382775 -0.0077380994
0.01071653 -0.003163603 -0.0055955458 0.0073887683 0.0105053075 -0.008855916 0.007021688 0.0028649042
0.008408953 -0.0075914585 0.001710561 -0.00093425583 0.009486387 0.012037214 0.006483656 -0.0066163302
-0.0022401619 0.004301231 -0.011367418 0.004901473 -0.01237821 -0.0016189313 -0.010808241 -0.008864464

exp_avg_sq f4 [32]
00000000: 30bf 5e3a 689a 4b3b 53ea 4d3a 10e5 423b
00000010: 4995 e93a 9945 0c3a 84fd a93a 4f58 193b
00000020: 2909 913b bcd1 223b 10ed 8c3a d12c 1c3b
00000030: 7920 eb3a 5871 393b c206 f63a a3b1 cf3a
00000040: 7b75 6c3b ddb7 073b d85c 853a 5f46 7339
00000050: 7344 203b 6b82 463b f59d 3e3b d77f 0f3b
00000060: 1f00 633b 12d9 f939 edcb 543b 9d80 c83a
00000070: e0c1 113b e31e 3d3a a9e3 523b 3b34 283b
0.0008497117 0.0031067375 0.00078550464 0.0029738583 0.001782098 0.0005350947 0.001296923 0.0023398583
0.004426141 0.002484425 0.0010751802 0.0023830424 0.0017938755 0.0028296318 0.0018770325 0.0015845787
0.0036080766 0.0020708956 0.0010174764 0.00023200501 0.0024454861 0.0030290138 0.002908585 0.0021896267
0.0034637523 0.0004765471 0.0032470182 0.0015297119 0.0022240803 0.00072143803 0.0032179153 0.0025665897
