data/Figure3_Supplement/019/checkpoint_0002500.pth (torch, 228033 bytes, 31 tensors)

net.0.weight f4 [32, 120, 2]
-0.03336852 -0.012640256 0.016587077 0.014694164 0.023362594 -0.047373198 0.03613958 -0.0022049907
-0.0033875857 0.0033287243 -0.042240757 -0.0073890644 -0.019911151 0.0033443694 0.05805299 0.049099296
0.024831375 0.029109992 -0.032875985 -0.0013946532 0.011153435 0.079806104 -0.06843846 -0.076743536
0.042314827 -0.02166128 0.0118909385 -0.049797785 -0.029733896 0.06472265 -0.03475243 0.010075114
-0.07678322 0.030422475 -0.029482992 -0.035820916 -0.053009354 -0.036832057 -0.06199831 -0.0017556839
-0.057362255 -0.07699874 -0.026255764 -0.07743168 0.024798697 -0.04031654 -0.00035283001 -0.03316307
0.041120864 -0.0036851608 -0.058190756 -0.006500352 0.017260801 -0.037405655 -0.02236624 0.03724071
0.049197238 -0.019248854 -0.014377144 0.022491952 0.07708469 -0.031182483 0.042034335 -0.0034083251
-0.012147061 -0.03261819 0.031261083 0.056339696 -0.09786149 0.0066178697 0.036768448 -0.03937411
-0.022799678 -0.0064849514 -0.05748992 0.014131546 0.09715433 0.038038522 -0.023644185 0.060997907
0.040623076 -0.044325344 -0.0022933101 0.008516883 -0.022587577 0.058567494 -0.027648855 -0.0106984
0.031943746 -0.015039355 0.060395487 0.085970946 -0.049263183 -0.04123224 0.025083708 0.10966383
-0.020926287 -0.025864653 -0.041539565 0.07028566 0.027853552 0.034695137 0.027288416 -0.018601052
-0.0128026735 0.009434401 0.06412902 -0.031351916 -0.02086531 0.0038813292 -0.034612853 0.068287745
0.050587777 -0.052434497 0.06382628 0.06335648 0.08309872 0.076667614 -0.050055288 0.02542143
0.008110666 -0.047352556 -0.025737077 -0.06266689 -0.056756888 -0.033947952 -0.104325406 0.054036275
0.029320715 -0.048328925 -0.06044693 0.006971962 -0.086509556 -0.06675642 0.0008282119 0.013499296
0.0042053307 0.060868375 0.031208495 -0.0076685715 0.048404712 0.012919868 -0.015567042 -0.0024760051
-0.05424732 -0.08091215 0.06100195 -0.029273178 -0.01123615 0.07608491 -0.028157195 0.118159816
-0.041950222 0.027830655 0.034398485 -0.011021085 -0.03568731 -0.021220211 0.05333484 0.011859103
-0.058290936 -0.08885612 -0.0016276614 -0.09369932 0.037143927 0.039258868 -0.017468695 -0.11688046
-0.057865705 -0.009915535 -0.044952877 0.022186222 0.029245978 -0.037439447 -0.0023007935 0.014839851
0.00461337 -0.047254853 -0.047717758 -0.0021510713 0.0009171385 -0.043069635 0.0986981 0.0723029
-0.030759307 0.055897396 -0.056052227 -0.07275627 0.08607549 -0.028759958 0.024106655 0.05004392
-0.09607883 -0.042649444 -0.06353239 0.04300521 -0.04384588 0.070592225 -0.044123013 -0.039245654
-0.004197865 0.012309807 -0.0014937476 0.005011841 -0.036232665 -0.023289645 0.073903404 -0.005343675
-0.10321099 0.08854744 0.07027149 0.014427754 0.0026070995 -0.0032867983 0.06903369 0.03507916
0.085382015 0.06750769 -0.011756439 0.03858675 0.014776625 0.032617074 -0.06220602 0.007651252
-0.018449554 0.0399375 0.009839147 0.008790584 -0.02746739 0.06580322 -0.03504316 0.03696169
-0.0026346925 0.029765472 -0.03734121 0.0007661488 -0.042617396 0.057428103 0.06375196 0.0033226302
-0.014134949 0.024411978 -0.04073829 -0.02563447 -0.049998205 -0.048353083 0.048549563 -0.07346108
0.03777956 0.013281655 0.020067086 0.024750656 0.0010408396 -0.019389518 -0.012111974 0.056803357
00000000: 6ead 08bd 1419 4fbc 9fe1 873c cabf 703c
00000010: e962 bf3c 660a 42bd 1907 143d 9b81 10bb
00000020: 4202 5ebb ba26 5a3b a504 2dbd f71f f2bb
00000030: b61c a3bc 352d 5b3b f9c8 6d3d 581c 493d
00000040: 2b6b cb3c 1478 ee3c f8a8 06bd cccc b6ba
00000050: e6bc 363c 6271 a33d 7729 8cbd b72b 9dbd
00000060: 5052 2d3d ff72 b1bc 36d2 423c c3f8 4bbd
00000070: 8094 f3bc 4f8d 843d 9058 0ebd 1712 253c
00000080: 8540 9dbd 8e38 f93c 5186 f1bc f4b8 12bd
00000090: 5620 59bd 36dd 16bd f1f1 7dbd fa1e e6ba
000000a0: aff4 6abd 84b1 9dbd 5416 d7bc 8094 9ebd
000000b0: a326 cb3c f522 25bd 0bfc b8b9 00d6 07bd
000000c0: 5a6e 283d bd82 71bb 6e59 6ebd e800 d5bb
000000d0: 8666 8d3c ac36 19bd 6839 b7bc b789 183d
000000e0: 0b83 493d c6af 9dbc 1d8e 6bbc 0b41 b83c
000000f0: 94de 9d3d 6872 ffbc 322c 2c3d 355e 5fbb
00000100: 7704 47bc a79a 05bd 9f0b 003d 74c4 663d
00000110: 9b6b c8bd b7da d83b 839a 163d bf46 21bd
00000120: 64c6 babc b77f d4bb 8d7a 6bbd 0088 673c
00000130: d9f8 c63d 48ce 1b3d 73b1 c1bc f1d8 793d
00000140: 6264 263d 7e8e 35bd 5c4b 16bb 658a 0b3c
00000150: 9509 b9bc 78e4 6f3d da7f e2bc 5848 2fbc
00000160: 72d7 023d a067 76bc 4261 773d 8911 b03d
00000170: 31c8 49bd 23e3 28bd 597c cd3c 6e97 e03d
00000180: 9b6d abbc 1ce2 d3bc 6425 2abd eef1 8f3d
00000190: 222d e43c 7d1c 0e3d f58b df3c 3c61 98bc
000001a0: 4ec2 51bc bf92 1a3c 1356 833d de6a 00bd
000001b0: baed aabc e65d 7e3b 35c6 0dbd 72da 8b3d
000001c0: 2135 4f3d 8ec5 56bd 5ab7 823d 0bc1 813d
000001d0: a92f aa3d e903 9d3d c606 4dbd 9a40 d03c
000001e0: 99e2 043c c1f4 41bd 90d6 d2bc 8057 80bd
000001f0: e979 68bd 020d 0bbd 8fa8 d5bd 2455 5d3d
00000200: ff31 f03c 8df4 45bd 3397 77bd 0e75 e43b
00000210: ec2b b1bd 97b7 88bd 5c1c 593a 272c 5d3c
00000220: dfcc 893b 1e51 793d f5a8 ff3c a448 fbbb
00000230: 0544 463d dbad 533c e80c 7fbc 7944 22bb
00000240: 7032 5ebd 45b5 a5bd 2edd 793d 4ece efbc
00000250: d417 38bc 68d2 9b3d eba9 e6bc c6fd f13d
00000260: ffd3 2bbd 1dfd e33c 6de5 0c3d c891 34bc
00000270: db2c 12bd 02d6 adbc a275 5a3d af4c 423c
00000280: 7ac2 6ebd 33fa b5bd 4157 d5ba 6ee5 bfbd
00000290: 3b24 183d e8cd 203d 821a 8fbc 065f efbd
000002a0: 9704 6dbd c574 22bc 8220 38bd e1bf b53c
000002b0: 4395 ef3c 1b5a 19bd e9c8 16bb d922 733c
000002c0: c12b 973b 4e8e 41bd b273 43bd fdf8 0cbb
000002d0: 1f6c 703a c969 30bd 3b22 ca3d 8b13 943d
000002e0: f1fa fbbc abf4 643d 0597 65bd 3d01 95bd
000002f0: 5948 b03d 019a ebbc 527b c53c dafa 4c3d
00000300: fac4 c4bd 2fb1 2ebd 451d 82bd 3b26 303d
00000310: bd97 33bd a892 903d 55ba 34bd 0dc0 20bd
00000320: 3e8e 89bb 13af 493c dac9 c3ba 5f3a a43b
00000330: b468 14bd edc9 bebc ab5a 973d ff19 afbb
00000340: 4960 d3bd 5c58 b53d 80ea 8f3d 6362 6c3c
00000350: dfdb 2a3b 5367 57bb 8961 8d3d 2aaf 0f3d
00000360: c4dc ae3d 7941 8a3d 149e 40bc 240d 1e3d
00000370: a819 723c 7b99 053d bdcb 7ebd 5bb7 fa3b
00000380: 8523 97bc 8195 233d 6034 213c 6206 103c
00000390: 4b03 e1bc d7c3 863d 6b89 0fbd 2465 173d
000003a0: ceaa 2cbb b8d6 f33c 19f3 18bd 60d7 483a
000003b0: 948f 2ebd bb39 6b3d 6390 823d 7cc0 593b
000003c0: 4696 67bc a1fb c73c 31dd 26bd 61ff d1bc
000003d0: ebca 4cbd e20d 46bd e8db 463d c372 96bd
000003e0: bdbe 1a3d 4c9b 593c bb63 a43c e3c1 ca3c
000003f0: c86c 883a c4d6 9ebc 4d71 46bc a3aa 683d

net.0.bias f4 [32]
-0.0034476146 -0.0140021965 -0.041379116 -0.005501375 0.029252114 -0.056032028 -0.04594952 0.0031000741
-0.03699113 0.007644147 0.02784717 -0.0013595375 0.0018157738 -0.07064266 0.0070810737 0.026231498
-0.045440916 -0.0056987656 -0.049948934 -0.035650346 0.025136787 -0.0061876695 0.012145152 -0.04933602
-0.00083620986 0.04044838 -0.07477845 -0.03396261 -0.047278963 0.012492103 -0.007937496 0.044987377
00000000: 60f1 61bb 7869 65bc 267d 29bd e144 b4bb
00000010: 21a2 ef3c d781 65bd 9035 3cbd 9d2a 4b3b
00000020: 0384 17bd c17b fa3b c01f e43c 8232 b2ba
00000030: 42ff ed3a 19ad 90bd 5a08 e83b 70e3 d63c
00000040: 4120 3abd b6bc babb 4197 4cbd 1906 12bd
00000050: aaeb cd3c efc1 cabb 76fc 463c 9114 4abd
00000060: 1835 5bba 33ad 253d 7225 99bd 611c 0bbd
00000070: 96a7 41bd adab 4c3c 450c 02bc af44 383d

net.2.module.0.weight f4 [32, 32, 3]
-0.045400966 -0.10985543 0.009424932 0.0035995315 0.109087855 0.035446685 0.11486973 0.076335914
0.033175875 -0.014976361 -0.13818063 -0.090278156 -0.033541586 0.049524974 -0.057018586 0.09910945
-0.04267176 0.04957776 0.040111892 0.03949059 0.17369254 -0.043962583 0.06595392 -0.05864418
-0.0026208921 0.012715067 0.10773198 -0.10617406 0.014127395 -0.18518472 -0.049119357 0.09097598
-0.081007056 -0.099214755 -0.0040462487 -0.10220803 0.09580204 -0.06874923 -0.04203251 -0.09667235
0.020027427 -0.0060140747 0.08526368 -0.06889159 -0.02241255 0.01704214 0.086505756 0.14697646
-0.013701789 0.013072095 -0.022109186 0.065101914 0.030235814 -0.2125705 -0.11904592 0.01012834
0.06314556 0.052560937 -0.10088228 -0.060028 0.049064096 0.103785805 -0.008641014 -0.039829075
0.06151151 0.14397337 -0.06622407 -0.055633716 -0.008172086 -0.037163142 0.005347226 -0.010327785
-0.07862325 -0.069543734 0.087707944 0.037223216 0.08402198 0.12344174 -0.073563546 -0.07666624
-0.04561952 0.007885844 0.020415504 0.0060755904 -0.12200058 -0.101456076 -0.09174057 -0.062251177
0.105221845 -0.03862596 0.08158951 -0.07216303 0.00029566395 -0.05777121 -0.11507561 -0.048833966
-0.10405645 0.027424736 0.017577613 0.10791521 -0.042861663 0.05792667 -0.107420996 -0.11416875
0.06963871 0.013516614 0.067547046 0.045257468 -0.013082526 -0.038646773 -0.0377542 0.0014536382
0.11177323 0.12793395 -0.022181356 -0.026575722 0.0050174855 -0.07258099 -0.02671252 -0.017128779
0.099289685 0.008601677 0.093590826 0.008347387 -0.10709401 -0.1271421 -0.039686687 -0.037290286
0.03310359 -0.15510668 0.00788632 -0.07238999 -0.067255616 0.055768587 -0.037769344 0.032014903
-0.031319626 -0.032995496 0.026593858 -0.098554455 -0.03977966 0.08942611 0.02838011 0.06751258
-0.10975669 -0.10223851 0.03215772 -0.030767469 -0.09931682 -0.06540061 0.002970243 0.0771148
-0.09712832 0.063090585 0.039263465 -0.0766299 0.012731531 -0.07971787 0.09726439 0.008036693
-0.07208169 -0.05302984 -0.08318949 0.022498578 -0.035074048 0.080171525 -0.021546638 0.087754294
0.064288475 -0.009666258 0.18215972 -0.09961246 -0.029156875 -0.070984714 0.006970017 0.044624053
0.038094766 -0.060230333 -0.062950306 -0.05443762 -0.010136746 0.05614892 -0.022355001 0.0035180233
0.03245183 0.022000799 0.13477115 -0.05670665 0.0014333756 0.01878412 0.05841452 0.02534345
0.08015943 -0.0013085426 0.0020965945 -0.015962617 0.12834166 0.12554477 0.0698186 -0.015070034
0.022598762 -0.0677561 -0.08324077 -0.036511604 0.034482867 -0.044296928 0.12835738 -0.0049319505
-0.07801289 -0.023016669 -0.025042959 0.016706798 -0.009719168 -0.028937824 0.021974381 0.05115243
0.057006177 0.02329942 -0.07816243 -0.011991437 -0.08214278 -0.06847549 -0.009761619 -0.111821584
0.03981409 0.023820449 -0.07534566 0.036079496 0.02186113 -0.05191967 -0.0813653 -0.050609175
0.09110244 0.101090014 0.10908893 0.088088006 0.0771854 -0.037506256 -0.038762428 0.01621017
-0.14275073 -0.08163477 -0.03577665 0.1093714 -0.007097459 -0.04490945 0.02743583 0.05804936
0.033589598 -0.05739188 0.020009244 0.089217015 0.003328358 0.0292778 0.09428596 -0.06287885
00000000: 5df6 39bd e2fb e0bd 086b 1a3c 1ee6 6b3b
00000010: 7469 df3d 8b30 113d d240 eb3d 0156 9c3d
00000020: 6de3 073d 695f 75bc 397f 0dbe c1e3 b8bd
00000030: e762 09bd b3da 4a3d 528c 69bd e5f9 ca3d
00000040: 95c8 2ebd 0d12 4b3d 5e4c 243d e3c0 213d
00000050: 75dc 313e 1c12 34bd d912 873d e134 70bd
00000060: 46c3 2bbb db52 503c 96a2 dc3d c971 d9bd
00000070: 9776 673c 10a1 3dbe 6131 49bd 9d51 ba3d
00000080: 07e7 a5bd 1b31 cbbd 6596 84bb 7252 d1bd
00000090: dc33 c43d 65cc 8cbd 482a 2cbd 27fc c5bd
000000a0: 8f10 a43c b711 c5bb b99e ae3d 0917 8dbd
000000b0: 869a b7bc f59b 8b3c ee29 b13d ff80 163e
000000c0: 787d 60bc 572c 563c 531e b5bc 2754 853d
000000d0: 19b1 f73c 15ac 59be 59ce f3bd 56f1 253c
000000e0: 7652 813d 234a 573d 5e9b cebd ecdf 75bd
000000f0: 6ff7 483d a78d d43d 0a93 0dbc d023 23bd
00000100: 7ef3 7b3d c16d 133e 7ca0 87bd 2ee0 63bd
00000110: 37e4 05bc 6138 18bd c837 af3b df35 29bc
00000120: 3a05 a1bd f26c 8ebd 39a0 b33d 5f77 183d
00000130: b713 ac3d 06cf fc3d 7ca8 96bd 3103 9dbd
00000140: 89db 3abd a133 013c 6a3e a73c bf15 c73b
00000150: 71db f9bd 34c8 cfbd 7be2 bbbd 17fb 7ebd
00000160: 8d7e d73d 4136 1ebd 6718 a73d 36ca 93bd
00000170: 5803 9b39 81a1 6cbd c3ac ebbd 2006 48bd
00000180: 8c1b d5bd d7a9 e03c edfe 8f3c a602 dd3d
00000190: b68f 2fbd 8444 6d3d 8aff dbbd 4ed1 e9bd
000001a0: bd9e 8e3d ca74 5d3c 1b56 8a3d e55f 393d
000001b0: 1758 56bc 144c 1ebd 26a4 1abd 0188 be3a
000001c0: 5de9 e43d 1e01 033e adb5 b5bc 54b5 d9bc
000001d0: b869 a43b 58a5 94bd 37d4 dabc a751 8cbc
000001e0: 6458 cb3d 0cee 0c3c 8cac bf3d 7bc3 083c
000001f0: 1b54 dbbd 8a31 02be 828e 22bd b3bd 18bd
00000200: a197 073d 49d4 1ebe a035 013c 3441 94bd
00000210: 50bd 89bd 9a6d 643d 07b4 1abd 0f22 033d
00000220: 0249 00bd 4926 07bd 5ddb d93c ebd6 c9bd
00000230: ffef 22bd 0925 b73d 687d e83c 0944 8a3d
00000240: 1ec8 e0bd 6d62 d1bd d0b7 033d 0f0c fcbc
00000250: 9e66 cbbd c1f0 85bd 69a8 423b 5dee 9d3d
00000260: 36eb c6bd a335 813d bad2 203d 23f0 9cbd
00000270: e997 503c 1f43 a3bd 8d32 c73d 55ac 033c
00000280: 919f 93bd d135 59bd 405f aabd f04e b83c
00000290: cea9 0fbd f830 a43d 9382 b0bc 86b8 b33d
000002a0: ada9 833d 395f 1ebc 1488 3a3e 9e01 ccbd
000002b0: 66da eebc 6f60 91bd be64 e43b b6c7 363d
000002c0: 4209 1c3d 15b4 76bd 17ec 80bd fbf9 5ebd
000002d0: 9814 26bc 69fc 653d d621 b7bc a38e 663b
000002e0: 36ec 043d 053b b43c 7301 0a3e 3b45 68bd
000002f0: 1be0 bb3a 28e1 993c 1044 6f3d 119d cf3c
00000300: a12a a43d 6783 abba 0567 093b 09c4 82bc
00000310: ff6b 033e cf8e 003e 0efd 8e3d 4ee8 76bc
00000320: 0a21 b93c b6c3 8abd 237a aabd 318d 15bd
00000330: e83d 0d3d b270 35bd 1e70 033e 339c a1bb
00000340: 39c5 9fbd 748d bcbc e426 cdbc b2dc 883c
00000350: 253d 1fbc 040f edbc 9e03 b43c 3685 513d
00000360: 4f7f 693d 6dde be3c a013 a0bd bb77 44bc
00000370: 793a a8bd e13c 8cbd 33ef 1fbc b702 e5bd
00000380: 1914 233d 1a23 c33c d34e 9abd 18c8 133d
00000390: 1d16 b33c b8a9 54bd daa2 a6bd 914b 4fbd
000003a0: eb93 ba3d 4808 cf3d 046a df3d 7c67 b43d
000003b0: 6113 9e3d 29a0 19bd 5ac5 1ebd 31cb 843c
000003c0: 3f2d 12be 2130 a7bd 898a 12bd 1dfe df3d
000003d0: cd91 e8bb f9f2 37bd 1bc1 e03c 2ac5 6d3d
000003e0: 3f95 093d bf13 6bbd 6dea a33c 69b7 b63d
000003f0: 9520 5a3b ffd7 ef3c ff18 c13d a0c6 80bd

net.2.module.0.bias f4 [32]
0.09524085 -0.048337065 -0.013918013 0.010129689 -0.09429133 0.087620415 0.033460848 -0.011271515
0.014845443 0.07404044 0.018824127 0.0038047684 0.10509745 -0.0014682213 -0.05666937 0.05037811
-0.028636873 -0.08227609 0.0067146886 -0.06337526 -0.018935602 -0.048948783 0.055364512 0.08267893
-0.080305256 -0.07587948 0.08995753 -0.022419423 0.07822805 0.021498073 0.09029907 0.09751691
00000000: a20d c33d 16fd 45bd 6108 64bc fff6 253c
00000010: d01b c1bd 5572 b33d 3e0e 093d 29ac 38bc
00000020: 4d3a 733c 84a2 973d 0e35 9a3c 6c59 793b
00000030: 553d d73d 5571 c0ba 241e 68bd 4759 4e3d
00000040: e097 eabc 5e80 a8bd e406 dc3b e3ca 81bd
00000050: d61e 9bbc 857e 48bd e6c5 623d 9253 a93d
00000060: 1577 a4bd b366 9bbd a73b b83d f0a8 b7bc
00000070: 0736 a03d ba1c b03c b8ee b83d f2b6 c73d

net.3.module.0.weight f4 [32, 32, 3]
0.049887825 -0.115172505 0.112532854 -0.031398427 -0.00064251263 0.004190779 0.057710804 0.002831228
0.13389637 -0.04121567 0.013445122 -0.18251918 0.14676173 -0.0026706487 -0.01320259 0.09536569
-0.08314787 -0.09133226 0.017859405 -0.082247615 0.2011657 -0.05645826 0.08965771 -0.022351116
-0.025001658 0.09470854 -0.0601223 0.058555093 -0.08602717 0.005822391 0.007705528 -0.07492299
-0.05572535 -0.0067228866 -0.0047148154 0.0855639 0.05376065 0.05380548 -0.026578568 -0.008309085
0.08351031 -0.088982254 -0.07282454 0.09254277 0.012888674 0.034495573 -0.061508782 0.12659742
-0.08754621 -0.025405606 -0.13878344 0.1655077 0.02179438 -0.005915109 -0.09846032 0.07936035
-0.16755064 -0.042371854 0.031907957 0.08501215 -0.023094416 -0.028560907 0.10313683 0.060950182
0.0054046107 -0.017177565 -0.05827716 -0.10879385 0.039673805 0.057477 -0.10732316 -0.02592714
-0.0478515 -0.048232894 0.16357867 -0.06124458 0.08693097 -0.08918098 0.077364594 0.08977239
0.04097081 0.015489059 0.024080515 0.039356943 -0.049265824 -0.022305755 -0.029804146 0.0058200923
0.05206457 -0.046714872 0.022700349 0.016050875 -0.037450183 0.043421373 -0.044297308 0.12480391
-0.08208873 -0.09936296 0.108502686 0.09031261 0.028916253 -0.026273113 -0.050934684 -0.08831424
0.04614492 -0.044858325 0.10560551 -0.11761693 0.034220543 -0.0018152952 0.11249411 0.0067171752
-0.06398259 -0.023318626 -0.077614054 -0.12678963 -0.0010685555 0.0054303566 0.09416787 0.003201519
-0.01693658 0.014163279 -0.0084842 0.057358112 0.009876626 -0.10385203 -0.08638416 0.101823375
-0.030182581 -0.12126012 0.09952668 -0.023202894 -0.14104539 -0.049865842 -0.03207633 0.07844987
0.06945755 -0.03059318 -0.096871525 0.006955339 -0.023778267 -0.010362739 0.044381395 -0.05503995
-0.0096693635 -0.09471549 -0.03392528 -0.013151343 0.021533135 -0.040649723 -0.028377922 0.102789246
-0.11977796 0.03619274 -0.048804797 -0.05828573 -0.15954414 -0.12092152 0.008426499 -0.121795096
0.020798896 -0.024612818 -0.008771608 0.0295689 0.059220295 -0.010163656 0.08638268 0.09903187
0.08977496 0.013490299 0.027188674 -0.025043916 0.028567832 -0.1303749 0.11952212 0.06407138
0.14595827 -0.07208189 -0.08184671 0.018888209 0.10220249 -0.035534963 0.107352026 0.07127227
0.019542698 -0.06345629 0.11840937 -0.043610048 0.013185634 -0.005805255 0.011360566 -0.009197075
0.07179032 0.05440731 -0.11849585 0.10071266 0.008753781 0.151019 0.08697232 -0.009230724
0.08040191 -0.1404319 -0.042907197 -0.08024151 0.1260714 -0.013696954 0.15247522 -0.044763744
0.04190439 -0.039689142 0.053297475 -0.011677964 -0.094085 0.04463424 0.12953687 0.087873474
-0.054310612 0.018581966 0.044169985 -0.07911721 0.010546086 0.09290852 0.08133592 -0.07205746
0.06515055 0.029957574 -0.015231736 -0.0051756725 0.00839719 0.053147107 -0.11160587 0.019745996
-0.05832028 0.015882134 -0.024552103 0.08684557 0.049322687 -0.02217383 -0.06624017 -0.03972563
-0.12584443 -0.03039239 0.032790087 0.0030423487 -0.029528946 0.114560224 -0.008136898 0.07150118
0.00061698124 -0.049109098 -0.12534681 -0.0037640426 -0.1132963 0.051299594 -0.15791899 -0.035486113
00000000: 2d57 4c3d 90df ebbd a077 e63d a39b 00bd
00000010: 4b6e 28ba cd52 893b 2a62 6c3d 208c 393b
00000020: 211c 093e c3d1 28bd ee48 5c3c 4fe6 3abe
00000030: b548 163e 0d06 2fbb ad4f 58bc 164f c33d
00000040: 6e49 aabd 680c bbbd e34d 923c 7071 a8bd
00000050: 62fe 4d3e c740 67bd 769e b73d b019 b7bc
00000060: 47d0 ccbc 8df6 c13d cd42 76bd 77d7 6f3d
00000070: 032f b0bd c1c9 be3b a77e fc3b 3971 99bd
00000080: 4440 64bd a94b dcbb bd7e 9abb 203c af3d
00000090: 2134 5c3d 2363 5c3d 4cbb d9bc d422 08bc
000000a0: 7407 ab3d 543c b6bd 0825 95bd 1087 bd3d
000000b0: 042b 533c 3b4b 0d3d a2f0 7bbd c1a2 013e
000000c0: 6d4b b3bd 6b1f d0bc 3f1d 0ebe da7a 293e
000000d0: 218a b23c 88d3 c1bb 90a5 c9bd ae87 a23d
000000e0: 6592 2bbe 1c8e 2dbd ebb1 023d da1a ae3d
000000f0: 8030 bdbc 90f8 e9bc 6739 d33d e6a6 793d
00000100: 2919 b13b f7b7 8cbc 08b4 6ebd 4fcf debd
00000110: 0081 223d 016d 6b3d 3fcc dbbd 2765 d4bc
00000120: efff 43bd db8f 45bd 2b81 273e 99db 7abd
00000130: dd08 b23d 85a4 b6bd 5471 9e3d 96da b73d
00000140: 02d1 273d d2c5 7d3c 8044 c53c bf34 213d
00000150: f6ca 49bd 8fba b6bc d327 f4bc 79b6 be3b
00000160: a941 553d 1858 3fbd 15f6 b93c 207d 833c
00000170: 5d65 19bd 9cda 313d 1871 35bd 3199 ff3d
00000180: 231e a8bd cf7e cbbd a836 de3d d1f5 b83d
00000190: c7e1 ec3c b63a d7bc e3a0 50bd 19de b4bd
000001a0: 7502 3d3d 5dbd 37bd b447 d83d 25e1 f0bd
000001b0: d72a 0c3d 33ef edba 5063 e63d c01b dc3b
000001c0: 4e09 83bd b406 bfbc 1ef4 9ebd 24d5 01be
000001d0: c60e 8cba 22f1 b13b 16db c03d 93d0 513b
000001e0: 95be 8abc 190d 683c 5001 0bbc 57f0 6a3d
000001f0: 92d1 213c 60b0 d4bd 2eea b0bd c688 d03d
00000200: 7641 f7bc 3a57 f8bd a5d4 cb3d ff13 bebc
00000210: 346e 10be 2040 4cbd 7862 03bd 53aa a03d
00000220: c33f 8e3d 8c9e fabc 9464 c6bd 9de9 e33b
00000230: a4ca c2bc 7ac8 29bc 44c9 353d 9271 61bd
00000240: 406c 1ebc 32fa c1bd 3cf5 0abd bb78 57bc
00000250: 4266 b03c 5380 26bd d178 e8bc 2b83 d23d
00000260: 264e f5bd d73e 143d 8ae7 47bd 05bd 6ebd
00000270: 8a5f 23be b4a5 f7bd 4c0f 0a3c b56f f9bd
00000280: 7262 aa3c d2a0 c9bc cab6 0fbc 7a3a f23c
00000290: fb90 723d 7785 26bc 67e9 b03d 39d1 ca3d
000002a0: efdb b73d 6a06 5d3c c8ba de3c e628 cdbc
000002b0: 1607 ea3c ff80 05be 03c8 f43d db37 833d
000002c0: 1676 153e ac9f 93bd 3f9f a7bd 72bb 9a3c
000002d0: 8a4f d13d 1c8d 11bd 61db db3d 32f7 913d
000002e0: 0218 a03c 5ff5 81bd 9d80 f23d 73a0 32bd
000002f0: 8f08 583c 023a bebb ab21 3a3c 54af 16bc
00000300: ce06 933d 33da 5e3d f4ad f2bd 7042 ce3d
00000310: 056c 0f3c baa4 1a3e 8b1e b23d 763c 17bc
00000320: c2a9 a43d 61cd 0fbe 75bf 2fbd a955 a4bd
00000330: dc18 013e 3069 60bc 7722 1c3e 305a 37bd
00000340: f0a3 2b3d 1591 22bd 744e 5a3d ee54 3fbc
00000350: a3af c0bd 65d2 363d 50a5 043e 02f7 b33d
00000360: ce74 5ebd 3539 983c 96eb 343d 3408 a2bd
00000370: 7ec9 2c3c d246 be3d 7293 a63d dd92 93bd
00000380: a76d 853d 9669 f53c 888e 79bc b098 a9bb
00000390: 5e94 093c c8b0 593d 9e91 e4bd 5bc2 a13c
000003a0: 3fe1 6ebd 401b 823c 7e21 c9bc 17dc b13d
000003b0: 9606 4a3d e4a5 b5bc eda8 87bd 58b7 22bd
000003c0: 5ddd 00be 76f9 f8bc e64e 063d 2462 473b
000003d0: b0e6 f1bc 8d9e ea3d a050 05bc 366f 923d
000003e0: e9bc 213a 9f26 49bd ea5a 00be 28ae 76bb
000003f0: e407 e8bd 861f 523d 84b5 21be e359 11bd

net.3.module.0.bias f4 [32]
0.09226703 0.0036569822 -0.0465974 -0.055356674 0.009868427 0.031834256 -0.054173045 0.016705016
0.09021879 0.014810427 0.026416553 -0.050086964 -0.00654321 0.090735324 -0.00060247065 -0.10068192
-0.022681622 0.055727445 0.02417143 0.08567018 0.09106462 -0.085491076 -0.07848601 -0.071050085
-0.09084847 -0.08333833 -0.041980937 0.02855738 -0.09761556 0.04359121 0.026912471 -0.0032029836
00000000: 7ff6 bc3d fba9 6f3b eadc 3ebd aebd 62bd
00000010: 2faf 213c a364 023d 8ee4 5dbd f5d8 883c
00000020: a1c4 b83d 6fa7 723c 8767 d83c fd27 4dbd
00000030: 6c68 d6bb 71d3 b93d 1fef 1dba 5332 cebd
00000040: cfce b9bc 7642 643d 2a03 c63c d973 af3d
00000050: 1680 ba3d f215 afbd 46bd a0bd b582 91bd
00000060: c30e babd 49ad aabd 34f4 2bbd 2bf1 e93c
00000070: abea c7bd b28c 323d 8b77 dc3c 26e9 51bb

net.4.module.0.weight f4 [32, 32, 3]
0.1578353 0.00867432 0.07080339 0.12386996 0.0053279772 -0.017325304 0.121569395 0.010222676
-0.031862903 -0.026358394 -0.08511154 -0.1109336 0.03229435 0.07736172 -0.020779938 0.07600001
-0.061434112 -0.08792934 0.023852741 -0.09899106 0.10656063 0.0703415 -0.010580652 -0.020380009
0.023121301 0.017751474 -0.008270578 0.07704357 0.021382472 -0.10075847 -0.01045281 0.07769997
-0.010016363 -0.06406547 0.01924523 0.104267634 0.02145382 -0.12727587 0.09627125 -0.052447498
0.0012410559 -0.073043115 0.093664154 -0.0465507 0.15673377 -0.055992816 -0.06315888 -0.023932934
0.014125244 0.015481068 -0.047925763 0.11567035 -0.07323922 -0.025368359 -0.13948633 -0.061865028
-0.12535794 -0.15224214 0.010161154 0.03564434 -0.0861439 0.0058085937 -0.12733737 -0.09011226
0.062065955 -0.013466585 0.0027989247 0.033552933 0.031296447 -0.110541634 0.007927444 0.067472294
0.1186613 0.0029791966 0.10097747 0.16110228 -0.07862114 -0.00040208732 0.12302516 -0.06792899
0.03276531 -0.02080471 -0.04776817 -0.0982529 -0.055898476 -0.008827006 0.00842967 0.09333034
-0.085794844 -0.03461809 -0.014925467 0.09933205 -0.045800116 0.0086589465 -0.09301192 0.007956725
0.004711138 -0.093653925 0.026273409 0.03549563 -0.015007199 0.105415545 -0.04499913 -0.020236438
0.036096405 0.0380686 -0.017814582 -0.18252592 0.042650156 0.109789 -0.0064655235 0.028667275
-0.097689256 -0.022027941 0.087627664 -0.061920416 0.04535532 0.05848817 0.06345871 -0.062473055
-0.051241223 0.076860644 0.088162564 0.07124115 0.08914029 0.0054488787 0.033096626 -0.07038423
-0.08549138 0.0151050445 -0.078809045 0.028264051 -0.1658265 -0.1051735 0.05191882 -0.07032409
0.04450063 0.032515712 0.09489469 0.025181662 0.07154979 -0.07656606 0.10057604 0.13170035
-0.044572946 -0.12621187 -0.08805773 0.072002366 -0.10067112 -0.07092233 -0.027151009 0.006422862
-0.0017169334 -0.016105285 0.051750403 0.024449423 0.024539584 -0.060613576 0.10281188 0.06793392
-0.048583467 -0.0023772148 -0.108446285 -0.08125048 -0.08094735 -0.070896685 -0.05038078 -0.059345312
0.03888869 -0.051034667 0.06678781 -0.023704182 0.041747864 0.06239381 0.07219904 -0.069785304
-0.041875992 -0.092406265 -0.09634929 -0.124208 0.08866172 0.07538005 -0.047243968 0.008939981
-0.0581552 -0.032791108 0.118636526 0.039595332 -0.06710084 0.12186517 0.007227313 -0.014409402
0.052703995 0.03858725 0.011996422 0.049767766 0.06938424 -0.031225648 0.059136845 -0.1088324
0.04802323 -0.10245618 -0.0032824874 -0.030257331 0.04110475 0.11659436 0.067837045 0.027596366
-0.076496184 0.07123416 0.039640993 -0.027081816 0.07819192 0.045117978 0.041925184 0.07498809
-0.07936709 -0.031928957 0.035064086 -0.0019031392 0.0076966626 -0.08523019 -0.03051896 0.0023684474
0.036867343 0.049379047 -0.05786197 -0.08154025 -0.087047145 0.096314274 -0.12709376 0.08140432
-0.07313457 -0.022988932 0.011622823 0.001957131 -0.07496146 -0.024468739 0.05906666 0.0063597946
-0.025919495 -0.019032285 -0.0068718353 0.05417641 -0.12023204 -0.06610612 -0.044420205 0.03363931
-0.027820446 -0.15629007 -0.025306493 0.034902167 0.022402197 0.042246826 -0.053589657 -0.028156545
00000000: 949f 213e bc1e 0e3c 5e01 913d 89af fd3d
00000010: 5096 ae3b cced 8dbc 60f9 f83d 037d 273c
00000020: ad82 02bd 8fed d7bc f64e aebd 2831 e3bd
00000030: 1547 043d d26f 9e3d b03a aabc e5a5 9b3d
00000040: 56a2 7bbd 4c14 b4bd d366 c33c d3bb cabd
00000050: 763c da3d 340f 903d 795a 2dbc faf3 a6bc
00000060: e268 bd3c 8a6b 913c 5281 07bc 05c9 9d3d
00000070: 4b2a af3c 755a cebd 4342 2bbc 2921 9f3d
00000080: ac1b 24bc c234 83bd 2ca8 9d3c 458a d53d
00000090: ecbf af3c 9b54 02be dc29 c53d 30d3 56bd
000000a0: edaa a23a a197 95bd fed2 bf3d f2ab 3ebd
000000b0: d17e 203e b958 65bd 7159 81bd 000f c4bc
000000c0: 916d 673c 4ea4 7d3c ce4d 44bd 94e4 ec3d
000000d0: 72fe 95bd 4ed1 cfbc 81d5 0ebe 2f66 7dbd
000000e0: d55d 00be 5de5 1bbe f87a 263c cdff 113d
000000f0: 376c b0bd 0456 be3b ba64 02be c78c b8bd
00000100: df38 7e3d f4a2 5cbc 2a6e 373b cd6e 093d
00000110: b430 003d a763 e2bd 1ce2 013c ea2e 8a3d
00000120: b204 f33d a03e 433b 47cd ce3d fff7 243e
00000130: 1f04 a1bd 3fcf d2b9 9df4 fb3d 5b1e 8bbd
00000140: eb34 063d a46e aabc 8ea8 43bd d138 c9bd
00000150: cdf5 64bd 269f 10bc 991c 0a3c fa23 bf3d
00000160: 35b5 afbd b3cb 0dbd f289 74bc 9a6e cb3d
00000170: e798 3bbd 41de 0d3c 097d bebd ec5c 023c
00000180: e45f 9a3b a1cd bfbd 553b d73c de63 113d
00000190: c1e0 75bc 1be4 d73d 0251 38bd e3c6 a5bc
000001a0: d3d9 133d d2ed 1b3d e3ef 91bc 13e8 3abe
000001b0: eeb1 2e3d 0ed9 e03d bedc d3bb a2d7 ea3c
000001c0: 4e11 c8bd f173 b4bc 2276 b33d 43a0 7dbd
000001d0: 80c6 393d 4b91 6f3d a4f6 813d bfe3 7fbd
000001e0: 51e2 51bd 1d69 9d3d 938e b43d e1e6 913d
000001f0: 2f8f b63d 828c b23b 5490 073d 9b25 90bd
00000200: 1b16 afbd 267b 773c a366 a1bd 038a e73c
00000210: 6cce 29be 3465 d7bd d4a8 543d 1406 90bd
00000220: 4b46 363d 322f 053d 2658 c23d c649 ce3c
00000230: b288 923d abce 9cbd d0fa cd3d 75dc 063e
00000240: 1f92 36bd af3d 01be 9c57 b4bd fa75 933d
00000250: a92c cebd ba3f 91bd cb6b debc df76 d23b
00000260: ba0a e1ba 3bef 83bc 3bf8 533d 284a c83c
00000270: 3d07 c93c f145 78bd 098f d23d f020 8b3d
00000280: 75ff 46bd 0ccb 1bbb 1619 debd a766 a6bd
00000290: b9c7 a5bd 4832 91bd 145c 4ebd 1214 73bd
000002a0: bf49 1f3d ba09 51bd 0cc8 883d 462f c2bc
000002b0: cfff 2a3d a790 7f3d 17dd 933d 99eb 8ebd
000002c0: 2986 2bbd 7f3f bdbd c752 c5bd c460 febd
000002d0: 4794 b53d db60 9a3d e482 41bd 0079 123c
000002e0: 2634 6ebd f84f 06bd b5f7 f23d b72e 223d
000002f0: 2a6c 89bd 7294 f93d 18d3 ec3b 6a15 6cbc
00000300: 25e0 573d aa0d 1e3d a48c 443c 49d9 4b3d
00000310: 5319 8e3d eecc ffbc 7a39 723d 85e3 debd
00000320: 02b4 443d 8cd4 d1bd 001f 57bb 39de f7bc
00000330: 745d 283d 06c9 ee3d 26ee 8a3d c611 e23c
00000340: 08aa 9cbd 37e3 913d 985e 223d afda ddbc
00000350: 1623 a03d a1cd 383d beb9 2b3d 5b93 993d
00000360: 368b a2bd f0c7 02bd 5c9f 0f3d c172 f9ba
00000370: 4934 fc3b 2a8d aebd e602 fabc f437 1b3b
00000380: 3602 173d af41 4a3d ac00 6dbd 93fe a6bd
00000390: c645 b2bd 6b40 c53d de24 02be 4fb7 a63d
000003a0: 94c7 95bd 4953 bcbc a76d 3e3c 3643 003b
000003b0: 6585 99bd aa72 c8bc e2ef 713d d365 d03b
000003c0: 1f55 d4bc 98e9 9bbc 222d e1bb 15e8 5d3d
000003d0: 373c f6bd a562 87bd f6f1 35bd 60c9 093d
000003e0: b4e7 e3bc 810a 20be 904f cfbc 93f5 0e3d
000003f0: d084 b73c 020b 2d3d d480 5bbd 8ea8 e6bc

net.4.module.0.bias f4 [32]
0.09509348 0.036940552 -0.04858283 0.030473284 0.051617436 0.05338521 -0.016476624 0.044533912
0.03146713 -0.023861418 -0.045883447 -0.0749496 0.013524664 -0.053077977 0.020949876 0.063366696
0.050886612 0.05262245 -0.015687404 -0.053146616 0.051417172 -0.024872074 0.007934524 0.06371881
0.06778172 0.011717479 -0.021817742 0.01990692 0.051239163 -0.03780464 0.057509575 0.109400176
00000000: 5fc0 c23d fa4e 173d cafe 46bd 1ca3 f93c
00000010: ce6c 533d 73aa 5a3d fcf9 86bc 3169 363d
00000020: ade3 003d 0579 c3bc 48f0 3bbd 2d7f 99bd
00000030: 8d96 5d3c 4b68 59bd 139f ab3c 66c6 813d
00000040: 7b6e 503d a38a 573d df82 80bc 44b0 59bd
00000050: d09a 523d 85c0 cbbc ceff 013c 027f 823d
00000060: 24d1 8a3d abfa 3f3c 1fbb b2bc d613 a33c
00000070: 28e0 513d 0ad9 1abd 298f 6b3d 330d e03d

net.5.weight f4 [3, 32, 3]
0.09531614 -0.09003839 -0.02042528 0.09930736 0.032782163 0.025887981 0.06853981 0.0061794496
0.08220942 0.041393224 0.038454026 -0.05160536 0.1002203 0.052863725 0.025345758 0.074687816
-0.071258485 0.033494372 0.08485411 -0.05986848 0.02012188 -0.06426025 0.06630314 0.10474875
-0.10256971 -0.0014996403 -0.10348403 0.040092662 0.005326274 -0.038743835 -0.023213034 0.057966232
0.13304156 -0.08080632 -0.01770105 0.016992783 -0.12513281 -0.002558613 -0.067131855 0.096234195
0.023113526 0.10290355 0.020088948 -0.07797653 -0.08653459 -0.081359506 -0.05321329 0.015778001
-0.038547345 -0.07522923 -0.082981914 0.093976915 0.06684801 -0.0070043677 -0.068933 -0.020341258
-0.12548332 -0.024146533 -0.065781906 0.08456288 -0.056351546 0.086489856 -0.033987217 0.03923634
-0.07358135 0.011463429 -0.10965199 -0.09073802 -0.049340613 -0.03783461 0.010203887 -0.03437227
0.029839935 -0.01819124 -0.00475215 0.048726268 -0.042739544 -0.1275018 0.08470334 0.027433021
0.06649051 0.014245562 -0.08224853 0.006151823 -0.029960819 0.030799184 0.11419742 -0.04858297
0.042601872 -0.08336437 0.02146868 -0.026084833 -0.07767456 0.075848274 0.004683851 -0.024174856
-0.06231251 0.10580809 -0.07244634 -0.03086863 0.036170203 -0.099342026 -0.040475454 -0.04851086
-0.029899947 0.017374791 0.057892088 0.123378366 -0.11343404 -0.078743994 0.041343167 -0.12475134
-0.07765119 0.033173162 -0.053103175 0.07869744 -0.120342046 -0.01827257 0.061446335 0.07782188
-0.09299789 -0.023549723 0.022962442 0.025432065 0.04259695 0.018208096 0.0785296 0.07090245
0.01444794 0.11282327 0.0030333137 -0.0014468285 -0.070967615 0.052388504 0.08256778 0.0430502
-0.05559531 -0.050016057 -0.004579231 -0.017828155 -0.08385748 -0.07384855 -0.06825304 -0.115680434
0.032306395 -0.085744046 0.05477299 -0.10249073 0.021118473 0.022630617 0.04404472 -0.0047939527
0.101934806 0.08678637 -0.005291477 0.03144476 0.029667206 -0.042307146 -0.056284785 0.03594863
0.036392566 -0.007560127 -0.0042603146 0.010767336 0.046018217 0.050476857 0.07133641 -0.03642197
-0.07879532 -0.0348954 -0.105480656 -0.011955405 -0.07619104 -0.058796987 -0.060358573 -0.055731975
-0.025307806 -0.002493511 0.03276354 0.08038919 -0.005429424 -0.03789223 -0.04532718 -0.108796194
-0.020312566 0.006063031 -0.053936563 -0.035741843 0.011765666 0.065102085 0.03664668 -0.107150875
0.043662805 -0.060911056 0.008010551 -0.027140629 -0.0038144249 0.08385455 -0.008360611 0.054813266
-0.02213643 0.0057833185 -0.020020906 -0.11869436 0.07005392 -0.05165908 -0.0153260315 0.11632806
0.07162145 -0.0406744 0.012910025 -0.0036450243 0.1075514 0.026778236 -0.06435662 -0.06290397
0.061487887 -0.009679178 0.07369812 -0.07485422 0.059873756 -0.0544429 -0.09795868 -0.019918516
-0.06944571 -0.06827275 0.063257374 -0.028090987 0.06293784 -0.010277448 -0.047248222 -0.08538109
0.06333546 -0.05323459 0.0069875265 -0.028747752 0.099547826 0.02347044 -0.008223194 0.08994538
0.032890543 -0.017609645 0.0244659 -0.043894198 0.039057557 0.034312718 -0.03181405 0.035536807
-0.029882845 -0.0022261257 -0.087915525 -0.05117383 0.03400243 0.05728715 0.07420921 -0.061138537
00000000: 1c35 c33d 0c66 b8bd eb52 a7bc a861 cb3d
00000010: 9746 063d 0813 d43c 9a5e 8c3d fb7c ca3b
00000020: 6a5d a83d f18b 293d f881 1d3d 2460 53bd
00000030: 4d40 cd3d a287 583d e8a1 cf3c edf5 983d
00000040: f8ef 91bd 6531 093d fec7 ad3d a738 75bd
00000050: a4d6 a43c e19a 83bd f1c9 873d 8386 d63d
00000060: 1110 d2bd 948f c4ba 6fef d3bd 3438 243d
00000070: 0688 ae3b dbb1 1ebd 4329 bebc 006e 6d3d
00000080: 0c3c 083e c97d a5bd cb01 91bc 7334 8b3c
00000090: d122 00be 67ae 27bb 6d7c 89bd 6f16 c53d
000000a0: 9458 bd3c 19bf d23d 9491 a43c 29b2 9fbd
000000b0: 0c39 b1bd d09f a6bd 2ef6 59bd de40 813c
000000c0: d2e3 1dbd c811 9abd 6cf2 a9bd f876 c03d
000000d0: 9ce7 883d e584 e5bb bf2c 8dbd b6a2 a6bc
000000e0: b37e 00be f3ce c5bc aab8 86bd 4e2f ad3d
000000f0: e1d0 66bd 9821 b13d 2e36 0bbd 49b6 203d
00000100: d2b1 96bd 1bd1 3b3c 3991 e0bd dbd4 b9bd
00000110: 6219 4abd 77f8 1abd 342e 273c f0c9 0cbd
00000120: e172 f43c cc05 95bc ecb7 9bbb 3295 473d
00000130: a90f 2fbd d58f 02be f278 ad3d 37bb e03c
00000140: 2d2c 883d 3866 693c eb71 a8bd 3b95 c93b
00000150: 6470 f5bc 924e fc3c 56e0 e93d f0fe 46bd
00000160: 4d7f 2e3d f0ba aabd 16df af3c dcaf d5bc
00000170: d713 9fbd 5756 9b3d fd7a 993b 590a c6bc
00000180: 673b 7fbd e9b1 d83d bf5e 94bd 36e0 fcbc
00000190: 3527 143d d573 cbbd 97c9 25bd 53b3 46bd
000001a0: bcf0 f4bc 9455 8e3c 4120 6d3d ccad fc3d
000001b0: 1b50 e8bd 8844 a1bd 7457 293d a17d ffbd
000001c0: 9607 9fbd 95e0 073d b782 59bd 202c a13d
000001d0: e475 f6bd 5bb0 95bc 27af 7b3d 1461 9f3d
000001e0: ae75 bebd 59eb c0bc bb1b bc3c e856 d03c
000001f0: 247a 2e3d 2529 953c 20d4 a03d 4e35 913d
00000200: 0db7 6c3c e30f e73d 8fca 463b 82a3 bdba
00000210: 7857 91bd 5495 563d 4c19 a93d 6855 303d
00000220: e8b7 63bd a3dd 4cbd 600d 96bb 5a0c 92bc
00000230: 78bd abbd e93d 97bd 40c8 8bbd dde9 ecbd
00000240: b653 043d 939a afbd a559 603d a9e6 d1bd
00000250: a600 ad3c d863 b93c 3c68 343d 9716 9dbb
00000260: 32c3 d03d 0dbd b13d 2064 adbb 38cc 003d
00000270: a408 f33c 424a 2dbd e08a 66bd df3e 133d
00000280: 5f10 153d f1ba f7bb 1c9a 8bbb 7b69 303c
00000290: 997d 3c3d d2c0 4e3d d318 923d 342f 15bd
000002a0: 715f a1bd 7bee 0ebd 3e06 d8bd 9ae0 43bc
000002b0: 0c0a 9cbd 1cd5 70bd 8d3a 77bd 3647 64bd
000002c0: 5152 cfbc 2c6a 23bb 1033 063d 16a3 a43d
000002d0: 4fe9 b1bb e234 1bbd fea8 39bd 8ad0 debd
000002e0: 8a66 a6bc 64ac c63b 96ec 5cbd 0a66 12bd
000002f0: c8c4 403c 3e54 853d d41a 163d eb71 dbbd
00000300: c5d7 323d df7d 79bd b03e 033c 0656 debc
00000310: 6efb 79bb efbb ab3d f2fa 08bc e083 603d
00000320: 7557 b5bc fe81 bd3b e202 a4bc 0716 f3bd
00000330: 6e78 8f3d 7998 53bd 091a 7bbc 683d ee3d
00000340: 44ae 923d 339a 26bd 9284 533c 5ce1 6ebb
00000350: e943 dc3d 085e db3c 67cd 83bd ccd3 80bd
00000360: b9da 7b3d 6a95 1ebc 0aef 963d 2b4d 99bd
00000370: 2f3e 753d 85ff 5ebd 8f9e c8bd 282c a3bc
00000380: 8d39 8ebd 95d2 8bbd 158d 813d 121f e6bc
00000390: 8ee5 803d be62 28bc 5a87 41bd 48dc aebd
000003a0: 06b6 813d 830c 5abd 9ff7 e43b 6880 ebbc
000003b0: bbdf cb3d 1545 c03c 93ba 06bc 4935 b83d
000003c0: 3cb8 063d 1a42 90bc b66c c83c 67ca 33bd
000003d0: d1fa 1f3d 7e8b 0c3d 734f 02bd 0b8f 113d
000003e0: decc f4bc 31e4 11bb 0e0d b4bd a69b 51bd
000003f0: 2246 0b3d eea5 6a3d 00fb 973d 676c 7abd

net.5.bias f4 [3]
0.039610457 0.052886374 -0.07904018
00000000: 933e 223d 629f 583d d1df a1bd

exp_avg f4 [32, 120, 2]
-4.763674e-05 -0.00012692888 -0.00025660245 -0.00035644582 -0.0018032986 -0.0010821538 -0.0004607506 -0.00038030816
8.791054e-05 5.5979086e-05 -0.001340408 -0.0013105334 -0.00034387532 -0.0005851488 -0.0006332512 -0.0006920247
-0.0004892897 -0.0005560829 2.266395e-05 2.203791e-05 -0.0012612279 -0.0014808634 -0.00067708 -0.0005294042
-0.00021684622 -3.1633906e-05 -0.00020217261 7.925253e-05 -0.00090713514 -0.0004804682 -0.00019381264 -0.0006325552
-0.00020425163 0.000104492705 -4.2299565e-05 -0.00013170748 -0.0013576114 -0.0017020345 -0.00024948598 -0.00015309303
0.0002173269 -0.00019362925 -0.0003894084 -0.00017557733 -0.0012146358 -0.0015924282 -0.00043742722 -0.00056506984
-0.0010296584 -0.00065630884 7.814186e-05 -7.904513e-05 0.00097298995 0.00075354485 2.1158765e-05 -2.7841417e-05
-6.279922e-05 -2.663672e-05 -0.00017416758 -0.0002369596 -9.583833e-06 -4.1487037e-05 -3.1830412e-05 -0.0005353441
0.00012406621 6.913194e-05 -2.8315608e-05 -0.0003233323 -5.077671e-05 -3.425627e-05 -0.00010574318 -0.00014151914
0.00026716437 0.00027190192 -0.00028356438 -0.0002927705 2.6830789e-05 1.3954329e-05 0.0 0.0
-0.0005528569 -0.00055822724 0.0002180704 0.0001954299 -4.2984924e-05 6.5240376e-05 0.00015107184 -1.9075592e-06
-0.0002883889 -0.00010608431 0.00013802819 0.00021753379 -0.00022048867 3.0513653e-05 -6.811042e-05 -5.0457646e-05
-0.00011607423 9.839265e-05 -3.880162e-05 -0.00013630865 0.00020180728 0.000109287736 0.00015572151 -1.7455743e-05
-0.00110622 -0.0016037377 -0.00042301827 -0.00037252772 -2.752995e-05 -6.6113403e-06 -0.00012995707 0.000116234114
-0.0012533054 -0.0012287253 -6.518378e-05 -0.00019013336 -0.00012061994 8.789167e-05 -0.0005209581 -0.00072358805
-0.0008380854 -0.00076915557 2.7096555e-06 -1.259204e-06 -0.0011471169 -0.000984397 -0.00022348756 -0.0012912552
-0.0007043519 -0.00040038378 9.157503e-06 6.2609615e-06 -5.250933e-05 -8.404668e-05 -0.002355904 -0.0024695715
-0.00011735531 -0.00021043794 -0.00086532196 -0.0006873249 2.3650522e-05 7.9947604e-05 -0.0004189305 -0.00051594066
-0.0004538232 -0.00034580525 -0.000274912 -0.0002985892 5.1277162e-05 0.00014461893 -2.2978595e-06 -3.148893e-05
0.00039969062 -0.00022530092 -0.0006871003 -0.0009444289 -0.0013768206 -0.0012769179 -0.00019612852 -0.000993236
0.00011857367 -0.00034157335 -3.6342e-05 0.00012256792 -6.578005e-05 -2.7692195e-05 -0.00051437755 -0.00056206825
-2.1367918e-05 5.9096852e-05 -0.00044675634 -0.000722762 -9.940415e-05 -0.00027064185 -0.00022640631 3.440249e-05
-9.442693e-05 0.00015014154 9.447262e-05 2.9353932e-05 0.0002214782 0.00013263733 -0.00015746066 -0.00017267831
-0.00046007303 -0.00051540625 -0.00016583905 -6.836819e-05 -0.0001760924 -9.848048e-05 -0.00030342542 -0.0008502538
0.00021932946 0.00039900403 -0.00012905059 -0.00012035553 -0.00032542655 -0.00058817735 -8.9205805e-06 7.482774e-05
0.00020508928 9.622199e-05 -0.0001785831 -0.00023228159 -0.00014670481 -0.00013597253 -0.00035396309 -0.00037450806
-7.885064e-05 -0.00045111662 8.350501e-05 -1.5051135e-06 -0.00048761853 -0.0005377786 -0.00021076752 -0.00020540212
0.00010231052 -0.00012561843 -0.0010976178 -0.0009619262 -0.0005083988 -0.0017568447 -0.00067373144 -0.00033470674
-0.00033903244 -0.0002836402 -7.871086e-05 -9.0890186e-05 0.000112038506 -6.0303802e-05 -0.0007508244 -0.0010409844
-0.0001195861 -0.000100705955 -0.00023832757 8.033516e-05 -0.0005658776 -0.0005647199 -0.00017354693 -0.00015434624
0.0006706412 0.0007368245 0.00024841272 0.00030716826 -0.0005921369 0.000101451806 0.0009822763 0.000791907
0.00075510197 0.0006017087 0.0026044303 0.0008214604 9.4635936e-05 8.946743e-06 -0.0024622479 -0.002081836
00000000: 8fcd 47b8 3618 05b9 9988 86b9 59e1 bab9
00000010: a95c ecba 0ed7 8dba e690 f1b9 1964 c7b9
00000020: 9d5c b838 16cb 6a38 a1b0 afba 34c6 abba
00000030: 2a4a b4b9 ac64 19ba c500 26ba fe68 35ba
00000040: ad43 00ba 17c6 11ba 761e be37 0dde b837
00000050: c94f a5ba 8819 c2ba 127e 31ba b7c7 0aba
00000060: 3761 63b9 a6ae 04b8 4cfe 53b9 6134 a638
00000070: cfcc 6dba 5ae7 fbb9 2f3a 4bb9 10d2 25ba
00000080: 612c 56b9 1823 db38 d06a 31b8 f51a 0ab9
00000090: e1f1 b1ba cd16 dfba 71cd 82b9 9987 20b9
000000a0: 3fe2 6339 f508 4bb9 8329 ccb9 2e1b 38b9
000000b0: 6a34 9fba 06b9 d0ba 7d56 e5b9 3221 14ba
000000c0: 9af5 86ba 240c 2cba 17e0 a338 08c5 a5b8
000000d0: 4010 7f3a 8a89 453a 1a7e b137 fd8c e9b7
000000e0: 13b3 83b8 ec71 dfb7 c1a0 36b9 5c78 78b9
000000f0: 40ca 20b7 5e02 2eb8 a581 05b8 5656 0cba
00000100: c517 0239 edfa 9038 4e87 edb7 ed84 a9b9
00000110: 14f9 54b8 64ae 0fb8 70c2 ddb8 c164 14b9
00000120: 3212 8c39 0f8e 8e39 5eab 94b9 fe7e 99b9
00000130: ae12 e137 631d 6a37 0000 0000 0000 0000
00000140: 99ed 10ba ff55 12ba d4a9 6439 50ec 4c39
00000150: b64a 34b8 a9d1 8838 0a69 1e39 9e03 00b6
00000160: e732 97b9 9579 deb8 a9bb 1039 c819 6439
00000170: fa32 67b9 92f7 ff37 81d6 8eb8 7ca2 53b8
00000180: e16c f3b8 2758 ce38 ecbe 22b8 13ee 0eb9
00000190: 3b9c 5339 6831 e538 2d49 2339 ec6d 92b7
000001a0: 95fe 90ba 8234 d2ba 8dc8 ddb9 d34f c3b9
000001b0: 1ef0 e6b7 fbd6 ddb6 1645 08b9 b7c2 f338
000001c0: f345 a4ba 2e0d a1ba 47b3 88b8 895e 47b9
000001d0: 56f5 fcb8 7b52 b838 e890 08ba 2caf 3dba
000001e0: f6b2 5bba 28a1 49ba 87d7 3536 ec01 a9b5
000001f0: db5a 96ba e206 81ba fc57 6ab9 563f a9ba
00000200: 42a4 38ba 9aea d1b9 2da3 1937 4015 d236
00000210: 773d 5cb8 3842 b0b8 8365 1abb 89d8 21bb
00000220: a71c f6b8 01a9 5cb9 c6d6 62ba 982d 34ba
00000230: 1c65 c637 8ba9 a738 e6a3 dbb9 3140 07ba
00000240: 1eef edb9 324d b5b9 1022 90b9 f78b 9cb9
00000250: 6f12 5738 d9a4 1739 ed34 1ab6 fb12 04b8
00000260: 918d d139 c13e 6cb9 851e 34ba 8d93 77ba
00000270: 6f76 b4ba 415e a7ba d9a7 4db9 782f 82ba
00000280: c1aa f838 3315 b3b9 ed6d 18b8 9385 0039
00000290: 65f3 89b8 894c e8b7 4bd7 06ba c357 13ba
000002a0: 413f b3b7 c3de 7738 9f3a eab9 bd77 3dba
000002b0: 3277 d0b8 efe4 8db9 7b67 6db9 644b 1038
000002c0: 1207 c6b8 506f 1d39 9a1f c638 173d f637
000002d0: 9a3c 6839 9014 0b39 061c 25b9 fb10 35b9
000002e0: f535 f1b9 541c 07ba 15e5 2db9 e460 8fb8
000002f0: 72a5 38b9 4e87 ceb8 1215 9fb9 91e3 5eba
00000300: cefb 6539 6a31 d139 c151 07b9 6267 fcb8
00000310: 039e aab9 ea2f 1aba 9aa9 15b7 d6ec 9c38
00000320: 3c0d 5739 caca c938 0942 3bb9 9d90 73b9
00000330: c6d4 19b9 d993 0eb9 1f94 b9b9 9f59 c4b9
00000340: 9d5c a5b8 d983 ecb9 691f af38 4e03 cab5
00000350: 0da7 ffb9 b6f9 0cba 7a01 5db9 3661 57b9
00000360: 8b8f d638 71b8 03b9 f1dd 8fba c629 7cba
00000370: 1146 05ba ed45 e6ba 5a9d 30ba 947b afb9
00000380: 2ac0 b1b9 8bb5 94b9 9211 a5b8 4c9c beb8
00000390: 37f6 ea38 b7ee 7cb8 f9d2 44ba a471 88ba
000003a0: 4cca fab8 1932 d3b8 92e7 79b9 9c79 a838
000003b0: 6757 14ba b609 14ba 26fa 35b9 01d8 21b9
000003c0: f8cd 2f3a 7527 413a 643d 8239 6d0b a139
000003d0: a239 1bba 86c2 d438 b9bf 803a fb97 4f3a
000003e0: 09f2 453a fdbb 1d3a 17af 2a3b 4657 573a
000003f0: 4877 c638 f819 1637 aa5d 21bb 6a6f 08bb

exp_avg_sq f4 [32, 120, 2]
1.781921e-07 2.453139e-07 3.4619083e-07 3.5350007e-07 4.1704265e-05 2.9842862e-05 3.4799273e-06 3.1660536e-06
5.146567e-06 4.9787986e-06 2.6591319e-05 2.846515e-05 1.0277012e-06 1.0236724e-06 7.858338e-06 1.0213244e-05
2.1709607e-06 2.2064016e-06 2.0234738e-08 3.615131e-08 2.5867213e-05 3.6711685e-05 1.1615279e-05 1.0844876e-05
6.5296956e-07 2.1857603e-07 4.524371e-05 3.39549e-05 1.928166e-05 2.4587125e-05 2.3982075e-05 2.505263e-05
1.3665234e-06 2.033026e-06 1.6583043e-06 1.9083884e-06 2.6287868e-05 2.8526256e-05 3.985787e-06 5.7286893e-06
9.219418e-06 6.5374456e-06 9.772434e-07 1.0292189e-06 5.830758e-05 2.7488106e-05 3.6425263e-05 2.894847e-05
2.923252e-06 2.0500336e-06 2.6675722e-05 3.5967125e-05 2.979907e-06 2.454801e-06 2.179033e-08 4.224707e-08
5.044786e-08 4.369401e-08 7.030153e-07 5.7322023e-07 6.2691237e-07 4.951345e-07 6.4882092e-06 9.330154e-06
6.5904993e-07 4.0782973e-07 7.039656e-07 1.2541824e-06 3.4912819e-06 6.0799525e-06 5.5848983e-07 3.3286733e-07
8.6301486e-07 9.844938e-07 2.9420335e-07 5.0729744e-07 5.8327227e-08 5.486947e-08 0.0 0.0
2.064055e-06 1.5657274e-06 1.8724589e-06 2.2722468e-06 5.7515024e-07 6.568816e-07 1.3406615e-06 1.7764646e-06
7.628531e-07 9.0040385e-07 1.0415674e-06 1.605106e-06 4.2182187e-06 4.498375e-06 2.655498e-06 3.6233137e-06
3.5005037e-06 3.3578629e-06 1.300674e-07 1.5904682e-07 1.286917e-06 1.242545e-06 3.9851743e-06 3.7154318e-06
2.4314095e-05 2.9964305e-05 2.6052114e-06 2.1196981e-06 3.6357233e-06 3.5005198e-06 2.1920891e-06 2.6097146e-06
2.5293333e-05 1.2352047e-05 1.5617735e-07 2.872806e-07 4.866936e-07 4.6234723e-07 1.2986088e-05 2.0864998e-05
1.1986372e-05 9.0499725e-06 1.2690464e-09 1.0842527e-09 5.596703e-06 8.4477715e-06 4.0172695e-06 9.753744e-06
4.2210495e-06 2.8209288e-06 7.773753e-09 1.5742105e-08 3.5023425e-06 4.618218e-06 5.8372032e-05 6.501384e-05
8.8620446e-08 1.807373e-07 6.402738e-06 6.3407924e-06 5.551424e-06 4.972745e-06 5.8438304e-06 5.342608e-06
4.065811e-06 3.193338e-06 9.1494206e-07 6.895107e-07 8.6570606e-07 8.710974e-07 1.283466e-07 1.5887704e-07
1.431495e-06 2.7483738e-06 6.601828e-06 5.4243064e-06 2.455282e-05 2.7745155e-05 8.5988095e-06 6.138762e-06
2.1055166e-05 1.9624184e-05 3.789833e-07 2.5196994e-07 2.9384123e-07 3.0278554e-07 1.1362538e-05 5.6194167e-06
9.095863e-08 8.683671e-08 1.756339e-06 2.3476787e-06 4.16555e-06 2.981256e-06 4.5725037e-06 5.5558235e-06
8.202075e-06 7.223522e-06 1.514147e-06 1.7336636e-06 1.3162347e-07 9.184707e-08 3.9420107e-07 4.9466377e-07
1.00691905e-05 1.3943624e-05 6.9168107e-07 6.9488357e-07 2.779684e-07 1.8461535e-07 6.4206615e-06 6.233373e-06
6.3018883e-06 7.433223e-06 1.5519416e-07 3.1192383e-07 9.571249e-07 1.6624537e-06 1.3577865e-06 1.6198753e-06
1.0401413e-06 9.924086e-07 4.2973267e-07 4.6021196e-07 6.0304444e-07 4.638597e-07 2.511064e-06 2.6702176e-06
6.3564444e-06 1.4879851e-05 9.5325184e-08 7.212693e-08 3.1752104e-06 3.762626e-06 1.0237193e-06 1.0058759e-06
2.134451e-06 2.2261424e-06 5.265377e-06 6.4745545e-06 1.5276697e-05 1.8000255e-05 2.3260547e-05 2.8908742e-05
9.737531e-06 1.1010377e-05 7.673003e-08 6.932764e-08 1.0193986e-06 2.1733454e-06 1.7162747e-05 2.4030072e-05
7.0213105e-07 8.935148e-07 3.7936918e-06 5.7310817e-06 1.5773562e-06 1.920784e-06 1.1423472e-06 8.346366e-07
1.8085302e-06 1.308437e-06 1.2394995e-06 1.3394051e-06 0.00015920545 0.00016365253 2.0994985e-05 1.5429017e-05
1.9056755e-05 1.800303e-05 0.00021537297 0.00021991918 4.7645385e-06 4.796688e-06 5.1718984e-05 6.307603e-05
00000000: 1255 3f34 b0b3 8334 1bdc b934 aec8 bd34
00000010: 9deb 2e38 0f57 fa37 b288 6936 6378 5436
00000020: adb0 ac36 8e0f a736 6c10 df37 72c8 ee37
00000030: 8bef 8935 1e65 8935 4ed7 0337 8d59 2b37
00000040: d2b0 1136 b111 1436 a9d0 ad32 c944 1b33
00000050: 6bfd d837 dffa 1938 3edf 4237 63f2 3537
00000060: ba47 2f35 b9b1 6a34 10c4 3d38 cc6a 0e38
00000070: 0dbf a137 7340 ce37 1d2d c937 1d28 d237
00000080: 6369 b735 1f6f 0836 e792 de35 dd11 0036
00000090: c484 dc37 ab4b ef37 a6bd 8536 1139 c036
000000a0: 19ad 1a37 3b5c db36 d429 8335 b123 8a35
000000b0: 4a8f 7438 4296 e637 54c7 1838 5ed6 f237
000000c0: 162d 4436 4f93 0936 adc5 df37 68db 1638
000000d0: 6afa 4736 29bd 2436 712d bb32 2573 3533
000000e0: 02ac 5833 12aa 3b33 d8b6 3c35 65df 1935
000000f0: 1749 2835 62e9 0435 4bb5 d936 b588 1c37
00000100: 91e9 3035 b1f3 da34 26f8 3c35 6155 a835
00000110: c44b 6a36 6502 cc36 21eb 1535 f0b4 b234
00000120: eea9 6735 f322 8435 00f3 9d34 372d 0835
00000130: 7783 7a33 9fa9 6b33 0000 0000 0000 0000
00000140: 3284 0a36 fc25 d235 3351 fb35 e77c 1836
00000150: 0664 1a35 8f54 3035 c7f0 b335 dc6e ee35
00000160: dec6 4c35 48b3 7135 fccb 8b35 066f d735
00000170: 398a 8d36 bff0 9636 1c35 3236 0e28 7336
00000180: 32ea 6a36 a557 6136 a8a8 0b34 75c6 2a34
00000190: 22ba ac35 85c5 a635 63b8 8536 a256 7936
000001a0: 1ff6 cb37 db5b fb37 31d5 2e36 2340 0e36
000001b0: 40fd 7336 79ea 6a36 ce1b 1336 8e22 2f36
000001c0: 052d d437 a33b 4f37 b4b1 2734 8c3b 9a34
000001d0: 54a5 0235 8538 f834 d3de 5937 3e07 af37
000001e0: 1319 4937 56d5 1737 9a6a ae30 c004 9530
000001f0: 50cb bb36 e7ba 0d37 15cc 8636 03a4 2337
00000200: 8aa2 8d36 304f 3d36 548d 0532 4139 8732
00000210: c909 6b36 31f6 9a36 7ed4 7438 0a58 8838
00000220: 9b4f be33 b110 4234 1ad7 d636 fec2 d436
00000230: 5e46 ba36 8edb a636 1f16 c436 a744 b336
00000240: 0d6d 8836 214d 5636 579a 7535 d116 3935
00000250: de62 6835 5cd5 6935 a5cf 0934 ca97 2a34
00000260: cb21 c035 b470 3836 4585 dd36 7002 b636
00000270: c8f6 cd37 44be e837 9b43 1037 90fb cd36
00000280: a09f b037 9d9e a437 1177 cb34 7c46 8734
00000290: 3bc1 9d34 878e a234 bba1 3e37 6c8e bc36
000002a0: 0955 c333 fc7a ba33 59bb eb35 d08c 1d36
000002b0: cdc5 8b36 9711 4836 826d 9936 296c ba36
000002c0: a59b 0937 9561 f236 b239 cb35 3ab0 e835
000002d0: 6254 0d34 763d c533 95a2 d334 09c9 0435
000002e0: d8ee 2837 69ef 6937 f6ab 3935 0988 3a35
000002f0: b03b 9534 ae3a 4634 1071 d736 4428 d136
00000300: cf74 d336 e66a f936 72a3 2634 7c76 a734
00000310: 9076 8035 7921 df35 303d b635 7e6a d935
00000320: fc9a 8b35 e632 8535 02b6 e634 0d13 f734
00000330: e6e0 2135 6408 f934 c083 2836 fd31 3336
00000340: 7149 d536 79a4 7937 93b5 cc33 33e4 9a33
00000350: b315 5536 6c81 7c36 ba66 8935 a201 8735
00000360: 973d 0f36 d664 1536 3ead b036 0040 d936
00000370: 7526 8037 41ff 9637 a51f c337 0d81 f237
00000380: 615e 2337 36b9 3837 c8c6 a433 46e1 9433
00000390: 45d2 8835 cad9 1136 b8f8 8f37 3094 c937
000003a0: 147a 3c35 dfd9 6f35 2197 7e36 9e4d c036
000003b0: 8cb5 d335 d1e6 0036 c052 9935 ca0b 6035
000003c0: a0bc f235 8e9d af35 e15c a635 9cc5 b335
000003d0: 63f0 2639 249a 2b39 631e b037 906d 8137
000003e0: 12dc 9f37 3605 9737 bed5 6139 1b9a 6639
000003f0: 13df 9f36 3cf3 a036 d6ec 5838 b047 8438

exp_avg f4 [32]
-0.008013512 0.011630428 0.0073687267 -0.0057548294 0.010929968 0.0016439058 -0.007391859 0.0106766345
-0.0044121128 0.00028667753 0.005413336 -0.013583339 -0.013517619 0.0127434265 -0.0052384017 -0.0012788534
-0.016625691 0.013120382 -0.005887981 0.001342271 -0.0149856405 -0.017814178 -0.01470901 0.011223212
0.011713029 -0.007049698 0.016611908 -0.008349125 0.009982728 0.00574021 0.013047307 0.014122422
00000000: 1b4b 03bc 8d8d 3e3c 5c75 f13b 0293 bcbb
00000010: 9c13 333c 5378 d73a 6837 f2bb 0ded 2e3c
00000020: 7c93 90bb 354d 9639 5b62 b13b a78c 5ebc
00000030: 0179 5dbc cec9 503c e6a6 abbb 339f a7ba
00000040: 9a32 88bc dff6 563c f7ef c0bb 24ef af3a
00000050: 5586 75bc 0aef 91bc 0ffe 70bc 90e1 373c
00000060: 01e8 3f3c 2701 e7bb b215 883c c5ca 08bc
00000070: 998e 233c 5f18 bc3b 5fc4 553c bb61 673c

exp_avg_sq f4 [32]
0.00077974034 0.0033771344 0.0011892013 0.0033524625 0.0023056564 0.00048347132 0.001112122 0.0026006247
0.004100632 0.002471369 0.0010802313 0.0027538862 0.0017514441 0.0030017893 0.0018003485 0.0017722818
0.004621499 0.0020970898 0.0012100551 0.00023446113 0.0027700611 0.0034293658 0.0038751322 0.002085408
0.004291525 0.0005651019 0.0036436298 0.0017518131 0.0019454084 0.0009131879 0.0036674265 0.0027067498
00000000: 7d67 4c3a ea52 5d3b f9de 9b3a fdb4 5b3b
00000010: 7f1a 173b 6c7a fd39 9fc4 913a 3e6f 2a3b
00000020: 985e 863b b1f6 213b 8c96 8d3a 8b7a 343b
00000030: b690 e53a abb9 443b acf9 eb3a e94b e83a
00000040: f26f 973b 546f 093b b69a 9e3a aed9 7539
00000050: ea89 353b 36bf 603b eef5 7d3b 57ab 083b
00000060: ec9f 8c3b 5923 143a f7c9 6e3b 189d e53a
00000070: 13fd fe3a 0163 6f3a 3559 703b ba63 313b
