data/Figure3_Supplement/037/checkpoint_0000500.pth (torch, 225792 bytes, 31 tensors)

net.0.weight f4 [32, 120, 2]
000000 0a 10 88 bd ed f9 8e bd 12 0d ad 3c 7e 42 af bc
       -0.06643684 -0.06981263 0.021124396 -0.02139401
000010 f3 cb 89 bc 31 bf a5 3c 8e a7 1b 3d 67 68 b9 3c
       -0.016820883 0.020232769 0.03800159 0.02263279
000020 43 37 6f 3d 50 53 5a 3b 18 22 1a 3d c1 34 10 3d
       0.05840231 0.0033313818 0.03763017 0.03520656
000030 ed 7c 19 3d de af c6 3c 02 c7 0d 3d 27 04 1b 3c
       0.037472654 0.024253782 0.034613617 0.009461439
000040 67 4e 2a bd bb 53 bd bc c8 68 bb 3a e9 ce 32 bd
       -0.041578677 -0.023111215 0.0014298195 -0.043654356
000050 c0 65 f0 bc e6 ff 1e bd 5f 1e 59 3d 06 09 e9 3c
       -0.029345393 -0.038818263 0.05300748 0.028446686
000060 0c 66 07 bd b5 99 0b bd b8 6b 41 bd 63 05 53 3c
       -0.033056304 -0.034082133 -0.04722187 0.012879702
000070 65 7e 5b 3d 28 9c 58 3d 62 16 50 3c b9 66 cd 3c
       0.053587336 0.052883297 0.012700649 0.025073396
000080 7b 68 64 3c d1 5a 0e 3d a9 96 c2 3b f8 d5 33 3c
       0.013940926 0.034754578 0.0059383702 0.010976307
000090 e2 de f6 bc b7 67 af bc 1d 64 48 bd 3e a5 8a 3d
       -0.030135576 -0.02141176 -0.0489236 0.06769799
0000a0 21 df 4c 3d 5c 0b ec 3c c6 ac 25 3d 35 62 94 3c
       0.05001748 0.02881401 0.040447973 0.018113235
0000b0 b1 dc 8f bc fb 5e 37 bd 06 66 85 bd dd 89 8d 3b
       -0.017561289 -0.044768315 -0.065136 0.004319413
0000c0 74 d4 0f 3d 7d 84 26 bd cb 55 96 bc 3a a6 88 3c
       0.03511472 -0.040653694 -0.018351456 0.016680826
0000d0 07 cf 28 bd 07 1b 5a bd 36 ec 70 bc 8a c7 e9 bb
       -0.04121306 -0.05324843 -0.014704755 -0.0071343826
0000e0 5c fa 82 bc 53 bc 92 3b a5 6c 78 bb 1f 19 f5 3c
       -0.015988521 0.0044780164 -0.0037906554 0.029919205
0000f0 77 6e 1a 3d 0e 6c d6 bc 4a bb 69 bd 71 cf e4 bc
       0.037703004 -0.026174571 -0.05706338 -0.027930947
000100 aa 28 cc 3c 2c e3 d8 3c 97 85 3e bd f0 e5 2f bd
       0.024921734 0.026475511 -0.04651412 -0.042943895
000110 d9 62 19 3d 91 c0 e3 3b e8 f5 fa bc a3 ca ea bc
       0.037447784 0.006950446 -0.030634835 -0.028661078
000120 1d 83 28 bd 69 b5 00 3c 59 7b 1b 3d ea 87 fb 3a
       -0.041140664 0.007855752 0.03795943 0.0019190286
000130 3b 8d 55 3d 2a ff 31 bd 6a 2d 0f 3d d1 53 29 bd
       0.05213664 -0.043456234 0.03495542 -0.0413397
000140 13 36 23 bd eb c2 d8 bc 92 d8 68 3d 69 69 d2 3c
       -0.03984649 -0.026460132 0.056847163 0.02568503
000150 e6 2c 13 3d ed 09 c3 bc 37 cd 1c 3d b3 63 68 3d
       0.03593149 -0.023808444 0.038281646 0.056735706
000160 74 a0 3c 3d fe 3c 8d 3c 79 fa 41 bc 7a c9 d2 3c
       0.046051458 0.017240997 -0.0118395025 0.025730837
000170 c1 07 10 bd 89 59 73 bd 6e 8d 08 bd 51 d4 ce 3c
       -0.035163645 -0.05941156 -0.033338003 0.025247725
000180 f7 4f 60 bd 61 7e 8b 3d ef 00 9a bc eb 21 a1 3b
       -0.05476376 0.06811214 -0.018799273 0.0049173734
000190 68 9c 5c 3d 2d 84 2e bd 9b 8e 9d bb 70 b0 17 bc
       0.053860098 -0.04260652 -0.0048082597 -0.009258375
0001a0 e3 8b 3b 3d 9e df 11 3d c1 b7 75 3d 78 c8 23 bd
       0.045787703 0.03561365 0.059989695 -0.039986104
0001b0 3c dc 88 bd 9a f5 2d 3c 53 df f6 3c 03 d9 7a 3c
       -0.066826314 0.010617638 0.030135786 0.015310529
0001c0 b1 78 ce 3c 87 ef 37 bd 04 58 a0 bc 85 e2 65 3c
       0.025204035 -0.044906165 -0.01957322 0.014031057
0001d0 6c 9a b8 bc 9b 47 a2 bd 2d d4 49 bd 63 9f 82 bc
       -0.022534572 -0.07923814 -0.049274612 -0.015945142
0001e0 9e 01 8e bd b8 2e 14 bd 59 39 65 bc fe af 39 3d
       -0.06933902 -0.036177367 -0.0139907235 0.045333855
0001f0 91 83 fd bb d7 fe 79 bb 69 28 4d bd f2 ae a5 bc
       -0.007736631 -0.003814628 -0.050087366 -0.020225022
000200 65 88 12 bc 28 6a 42 3b ff a6 80 bc 3e 00 82 3d
       -0.008943652 0.0029665325 -0.01570463 0.063477024
000210 4d 7c 52 3d 6d 17 37 3d bc 3b c5 3c fb 55 6c bb
       0.051388074 0.044700075 0.024076335 -0.003606199
000220 76 b3 35 bd 3c eb 0e bd c7 df 92 3c f8 8c 0e 3d
       -0.0443606 -0.034892306 0.017928971 0.034802407
000230 d3 bb 10 bd f2 7b 46 bd 44 27 25 3d f8 d7 a4 38
       -0.035335373 -0.048458047 0.04032065 7.860357e-05
000240 11 b1 10 3d b0 c2 db bc 75 04 0f bc a8 ee 78 bd
       0.035325114 -0.026826233 -0.00872909 -0.060774475
000250 39 21 35 3d ba 12 6c bd 18 a0 07 3d 5f 6d b7 3c
       0.044221137 -0.057635047 0.03311166 0.02239102
000260 42 6d 0b bd 94 86 43 bb ed 9b ed bb cb a0 80 3d
       -0.034039743 -0.0029834853 -0.007251254 0.06280669
000270 42 96 30 3d 55 d2 a4 bc b3 42 37 3d ea 30 07 bc
       0.043112047 -0.020119825 0.044741344 -0.008251408
000280 55 77 51 3d bb 32 b0 bc 49 b7 88 bc c5 f1 ee b9
       0.051139195 -0.021508565 -0.01668896 -0.0004557503
000290 fc af f8 3c a1 8a 7c bd 22 f2 98 bc 2f 19 69 3d
       0.030357353 -0.061655644 -0.018670145 0.056908783
0002a0 99 41 14 bd 76 0f e8 3c bc b2 77 3c ba ef 58 3d
       -0.03619537 0.028327685 0.015118297 0.052962996
0002b0 2c 8d f5 3c 96 ce a7 ba 67 73 4b bc c5 6c 81 3d
       0.029974543 -0.0012802656 -0.012417651 0.06319574
0002c0 31 f0 83 bc 04 a2 f7 3c c8 5b b5 3c a8 2d 80 3c
       -0.016105743 0.030228622 0.022138491 0.01564677
0002d0 b9 46 32 3d 44 96 ce 3c 79 37 13 bd 79 8b 30 bd
       0.043524478 0.025218137 -0.035941575 -0.04310176
0002e0 a0 fc b9 3b a4 7a 2f bd f8 32 2c bd eb 1c 1e 3d
       0.005675867 -0.04284157 -0.042040795 0.038601797
0002f0 f5 7a 64 bd e1 5c 20 3d a6 b5 08 bc 3a 30 45 3d
       -0.055781323 0.039151076 -0.00834409 0.048141696
000300 fc 02 e6 3a 5a e9 62 bd 84 bf e1 3c 28 ea f5 3c
       0.0017548497 -0.055398323 0.027557142 0.030018881
000310 5b d4 11 3a ce 5a 0e 3d d8 98 88 bd 7a c1 44 3d
       0.00055629545 0.034754567 -0.06669778 0.048036076
000320 3b 73 e1 bc 12 23 88 3d e8 2c a0 bc 3d 27 f5 bc
       -0.027520766 0.06647314 -0.019552663 -0.029925937
000330 66 b6 96 bb 59 70 3d 3b 45 08 84 3c 84 46 b7 bc
       -0.0045993803 0.0028906076 0.016117224 -0.022372492
000340 a6 23 40 bd 4f bd 6a bd 7f 52 96 3d 0c 82 25 3d
       -0.046908997 -0.057309445 0.07339954 0.040407225
000350 30 ee e7 bc ba 19 ce 3c b9 74 78 bd 09 45 2d 3d
       -0.028311819 0.025158752 -0.06065819 0.042302165
000360 01 3f 91 3d 2b f8 6e 3d 8b 8f 8c 3d b5 92 9e 3c
       0.07092095 0.05834214 0.06863316 0.019357065
000370 43 d4 c0 bd 3a 9c ee bc b5 6d b5 bc a5 30 2d 3d
       -0.09415486 -0.029127229 -0.022147039 0.04228272
000380 94 04 3e 3d 51 ae 9f bd 39 fb 50 bc 1f 7a 23 bd
       0.046391085 -0.0779692 -0.012755209 -0.039911386
000390 2c 5d 95 3d f7 ac 33 3d db 1d 49 3d 1c b1 5a 3d
       0.07293162 0.043866124 0.049100738 0.05339156
0003a0 4e 99 b8 3c 66 50 21 bd 05 77 3e bd 4d 88 65 bd
       0.022534039 -0.039383315 -0.046500225 -0.05603819
0003b0 f7 03 26 3d 4b 92 f6 3c 58 06 41 bd 31 52 79 bd
       0.040531125 0.030099055 -0.04712519 -0.0608694
0003c0 dd 12 55 bd df 76 c0 39 9a 83 00 bc d8 5f 77 3d
       -0.052019943 0.0003670966 -0.007843876 0.060394138
0003d0 c6 e5 3f 3d 5a 91 e2 3c 74 14 5c bc 55 c1 27 3d
       0.04684999 0.0276572 -0.013432611 0.04095586
0003e0 a8 7c 36 3c d4 bf ab 3d a9 7b 27 bd 57 3c 4a 3d
       0.011138119 0.08386198 -0.040889416 0.04937395
0003f0 9a 80 0b bd ad 80 76 bc 68 29 db 3c 43 20 c1 3c
       -0.03405819 -0.015045327 0.026753142 0.023574954

net.0.bias f4 [32]
000000 00 45 02 bd 6a ea 64 3d 74 6f cc 3c 60 61 ee bc
       -0.031804085 0.055887617 0.024955489 -0.029099166
000010 5a 0d 10 bc 78 c2 1d bc a9 0c 52 3c 7f 47 2e 3c
       -0.008792246 -0.0096288845 0.012820401 0.010637163
000020 38 58 26 3d 12 eb 47 bd 94 00 8a bc 24 45 44 3d
       0.040611476 -0.048808165 -0.016845979 0.0479175
000030 f0 8b 7b 3d c3 ae 45 bd d9 2a 60 3c 49 db 33 3d
       0.06141275 -0.04826237 0.013682091 0.0439103
000040 8e b2 26 3b 39 04 f7 bc df 48 af 3c f5 4a 49 3d
       0.0025436017 -0.03015338 0.021397052 0.04914375
000050 eb aa ab 3c b9 43 97 3c 7d f1 2b bd 72 69 47 3d
       0.020955523 0.01846491 -0.041978348 0.048684545
000060 06 72 27 bc 5a e8 23 bd 94 f3 6b 3d e4 77 14 3c
       -0.010220056 -0.04001651 0.05760534 0.009061787
000070 02 8b 44 bd 2b 56 a8 3b 08 f2 64 3d 97 9b 7f bb
       -0.04798413 0.005137225 0.05589488 -0.003900265

net.2.module.0.weight f4 [32, 32, 3]
000000 ae e1 70 bd 1c 11 f2 bc d7 03 12 3c 99 f0 75 bc
       -0.058808975 -0.029549174 0.008912048 -0.015010976
000010 d9 6d b5 bd 4e b8 b0 3c fc 93 a8 bd ec 7e 99 b9
       -0.088588424 0.021572258 -0.08231351 -0.00029276998
000020 7b ff e4 3d 48 b8 a7 bd a5 6f f5 3c ba 2e 5a bd
       0.111815415 -0.08189446 0.029960463 -0.05326722
000030 12 02 ce 3d b5 04 ca 3c 75 0b e5 bd 3d 55 92 3d
       0.10058989 0.024660448 -0.11183826 0.07145164
000040 4f 84 39 3d 5d a9 e9 bd 27 d5 ae 3d bc c4 7b 3d
       0.045292195 -0.114092566 0.08536749 0.061466917
000050 15 5b cc 3b 5f a1 ed 3c 0b 24 f2 bd 59 d0 82 bd
       0.0062364438 0.029007612 -0.11823281 -0.063873954
000060 39 9b 76 bd 75 9d d3 bd 34 01 62 3d 08 2d ea 3b
       -0.060206626 -0.10332767 0.05517693 0.0071464814
000070 9e a8 5d bd fa 34 49 3b c7 4c 3e bd c3 a8 c8 3c
       -0.054115884 0.0030701743 -0.04645994 0.024494534
000080 ae a2 43 bd fc d3 97 3d 17 a7 ca bb 8b 0a 46 3d
       -0.047762565 0.0741348 -0.0061844694 0.0483499
000090 95 c3 39 bd fb 27 a5 bc c7 8d a9 bd 58 5f 0b 3d
       -0.045352537 -0.020160666 -0.08278995 0.034026474
0000a0 fa 37 10 3d 4e 9a 7d 3d 81 25 61 3c a3 e8 30 3c
       0.035209633 0.061914735 0.013741852 0.010797652
0000b0 7e bd 08 3d 83 8a a6 bd fd 73 52 bd 4d f8 38 bd
       0.03338384 -0.08131888 -0.051380146 -0.045158673
0000c0 08 6d 3b 3d 30 5c 8d 3d 34 a6 c4 3d a3 5c 54 3d
       0.045758277 0.06902349 0.09602013 0.051846158
0000d0 8f 2c cb 3c b5 74 b2 3d 48 00 6f 3d ff 36 91 3c
       0.02480152 0.08713666 0.058349878 0.01772642
0000e0 91 68 fa 3d 64 6a 9b bc aa b4 94 bd 0d 91 13 bd
       0.12226976 -0.01897163 -0.072610214 -0.036027003
0000f0 d7 e2 a3 3c c1 5b e2 bd da 07 c6 3d de 28 2c bb
       0.020005627 -0.11052657 0.09669466 -0.0026269476
000100 57 49 ed 3a 46 09 61 bd d7 29 18 3d 24 78 d3 bd
       0.0018103522 -0.054940484 0.037149277 -0.103256494
000110 34 4f 41 bd f4 b6 97 bd dd 2f 61 3d fe e5 7f bc
       -0.047194675 -0.074079424 0.054977287 -0.015618799
000120 2a 6f 05 3d e2 88 3d 3d 60 07 88 3a 19 d2 a0 3d
       0.032576717 0.04627312 0.0010378174 0.07852573
000130 43 25 84 bd a6 6d f3 3c 45 de c3 3d 6a dd f7 3c
       -0.064524196 0.02971537 0.09563879 0.030256946
000140 fc 33 97 bc 4a ad c7 3d 54 db cc 3d b1 12 28 3d
       -0.018457405 0.09749849 0.10002771 0.04103345
000150 73 89 6a 3d d5 80 32 bc 03 02 9b 3d 77 4d 53 bd
       0.057259988 -0.010894974 0.07568743 -0.051587548
000160 38 a4 f1 3b dc 04 d3 3d 86 61 96 bd 6e 85 c1 3c
       0.0073743127 0.10303661 -0.0734282 0.023623195
000170 1b da 2c bd e0 71 1f 3b 0f 23 b5 3d 35 3b b9 3d
       -0.04220019 0.002432935 0.088445775 0.09044496
000180 ba e2 32 3d 27 18 fb 3c 53 03 15 bd c6 e9 90 bd
       0.043673255 0.030651165 -0.036380123 -0.07075839
000190 1d b7 cb 3c 57 77 7d bd 74 f2 98 bd 3a d0 8d ba
       0.024867589 -0.06188139 -0.07468119 -0.0010819503
0001a0 e4 b1 b4 bd b8 7d 55 3d 06 3e 7a 3c 4a 0a 8b bd
       -0.088229924 0.052121848 0.015273577 -0.06789072
0001b0 7e c7 c8 3c 50 15 39 bd 7b 4e 90 3c 49 b6 29 bd
       0.024509188 -0.04518634 0.017615547 -0.041433606
0001c0 09 43 3f bb fa c5 ae bd 19 69 b7 bd 75 5a 57 bd
       -0.0029184243 -0.08533855 -0.08955593 -0.0525765
0001d0 f4 ca 9a 3d 36 39 87 3d 65 1d 9b bc 31 c4 4c bd
       0.075582415 0.06602709 -0.018934915 -0.04999179
0001e0 0c 29 21 3d d6 3f 0a bd b3 f9 0b 3d 26 3f ca 3c
       0.039345786 -0.033752285 0.03417368 0.024688315
0001f0 cc 1a 0a 3b d5 20 68 3d 19 3f 10 3d a3 f7 34 bd
       0.00210731 0.056671936 0.035216425 -0.044181477
000200 d9 7a b1 bd d9 f4 a2 3d f3 3a 4e 3d af 70 34 bd
       -0.086660095 0.07956857 0.050349187 -0.044052776
000210 41 c6 2e bd 6c e4 2c bd b5 e7 42 3d e0 7d 43 bd
       -0.04266954 -0.042210028 0.047584254 -0.047727466
000220 06 3b 00 3d 9e 31 bf bd 25 4c 0f bc 38 1a bd 3d
       0.03130629 -0.093356356 -0.008746182 0.092335165
000230 09 6c 97 3d 18 dd b5 bd 1e ec 81 bd 24 27 88 bd
       0.07393653 -0.08880061 -0.06343864 -0.066480905
000240 41 fb 68 bb 41 bf 01 bd 54 8c 11 3d 19 8c f6 bc
       -0.003555015 -0.031676535 0.035534218 -0.0300961
000250 63 cd 26 3d 48 4c 1a bd 65 1b ec bc d3 97 36 bd
       0.040723216 -0.037670404 -0.028821656 -0.044578385
000260 cf e5 7b 3d 05 3e 17 3d 1c 38 6d 3d f5 50 bc 3c
       0.06149846 0.03692438 0.05791484 0.022987822
000270 dd 43 a0 3d ba fa 39 bd 8e 07 a3 3c 7e 15 ab bd
       0.07825444 -0.045405127 0.019901063 -0.08353709
000280 d9 42 1c 3d a5 96 0f 3d 91 2a b1 3c 51 3e 86 3d
       0.03814969 0.035055775 0.021626743 0.06554855
000290 47 40 d9 3d 32 f8 65 bd de ff 0f 3d 80 66 a3 3d
       0.10607963 -0.0561449 0.035156123 0.07978535
0002a0 92 eb b1 bd 77 31 a9 3d 72 04 92 3d f1 47 b6 3d
       -0.086875096 0.08261388 0.07129754 0.089004405
0002b0 1b 1e 2d bd 7f 3b d2 3d 4d 0c 13 bd 6c cd 68 3d
       -0.04226504 0.10265254 -0.035900403 0.05683653
0002c0 e9 88 94 bd 2a b4 0b bd 4a 7a 0a 3c 65 52 03 bd
       -0.07252676 -0.034107365 0.008452008 -0.032061
0002d0 de 38 ec 3c e7 cd 8c bd a4 a3 aa 3c ea 79 f0 bd
       0.02883571 -0.0687521 0.020829983 -0.11742003
0002e0 71 32 4b 3d 34 9e 37 3d 1d ca 89 3d 88 88 8f bd
       0.04960865 0.04482861 0.06728003 -0.07008463
0002f0 fe a5 1e 3d 01 c4 be 3d 37 c2 94 3d 7d 3f cc 3d
       0.03873252 0.093147285 0.07263606 0.09973047
000300 01 33 26 bd bf c0 d0 3d c3 96 91 3d 26 55 c5 3d
       -0.040575985 0.101930134 0.07108834 0.096353814
000310 0b 75 cb bc 81 97 7d bd 0f 25 cc bd 95 ba 8b bd
       -0.024836084 -0.061912064 -0.09968006 -0.06822697
000320 68 97 a2 bd f0 fe b1 bc 22 08 89 3d b0 0d 3c 3d
       -0.07939035 -0.021728009 0.06691004 0.04591149
000330 0f 5d 73 3d 5c 24 1a bc 88 f6 9c bd a9 e0 42 3d
       0.05941492 -0.009408083 -0.076642096 0.047577534
000340 ae b3 ad 3d 9a 18 81 bd ac 6d 1d 3d 0a 85 bc bd
       0.08481537 -0.063035205 0.03843467 -0.09205063
000350 51 1b af 3d d2 0d bc 3d 5f c6 9d bd 10 24 33 bd
       0.08550132 0.091823235 -0.07703852 -0.043735564
000360 ec bb 75 3d 2b 3b ad 3c 05 4d 0a 3d bf 4c c4 3d
       0.05999367 0.021146378 0.033764858 0.09584951
000370 87 d1 d1 3d dc 16 8d bc 13 41 9b bd db 3c ed 3c
       0.10245042 -0.017222814 -0.07580771 0.028959682
000380 ae 42 b4 3c 6c e3 13 3d a1 c1 cf 3d 2e 22 91 3c
       0.022004452 0.03610556 0.10144354 0.017716493
000390 52 5b a9 bd a2 26 cd ba 6b 7e 89 3d 07 43 11 3c
       -0.08269371 -0.0015651772 0.067135654 0.008866078
0003a0 66 68 60 3d d5 70 e5 bc 74 2f f4 3c 4e 21 ca 3d
       0.054787062 -0.028007904 0.029807784 0.098696336
0003b0 d4 89 a4 bd 9d e1 92 bc a0 c6 e1 bc 6a a3 c3 bd
       -0.08034101 -0.017929846 -0.027560532 -0.09552653
0003c0 65 5d a6 3c f1 86 62 3d fd 92 53 3d c5 4e 14 3d
       0.020308206 0.05530447 0.05165385 0.036207933
0003d0 f7 45 d0 bd b7 a1 19 3d dd ef 8f bc 67 9d a7 3d
       -0.10169595 0.03750774 -0.01757043 0.08184319
0003e0 cc 05 11 bd 98 ea 92 bd 57 51 35 bc 77 a6 a3 bc
       -0.03540592 -0.071736515 -0.011066756 -0.019976838
0003f0 28 28 71 bc a2 bf 37 3c f5 dc c7 bd ab 25 88 bc
       -0.014719047 0.011215122 -0.09758941 -0.016619524

net.2.module.0.bias f4 [32]
000000 7e a0 dc 3b dc f7 6a 3c 67 e0 a3 3b b0 17 25 3c
       0.0067329993 0.014341321 0.005001116 0.010076448
000010 40 d0 9a bd b6 bb 57 3d e8 1f cb 3d 74 f0 a8 3c
       -0.07559252 0.05266925 0.09918195 0.02062247
000020 e2 8b 95 bd cf a7 5d 3d 17 cb d8 bc 4b 8e 4e 3c
       -0.07302071 0.054115113 -0.026464028 0.0126071675
000030 26 ba f8 3c b3 b3 83 3d 3b 1a cb 3d d9 f9 d2 bc
       0.0303622 0.06430759 0.099171124 -0.025753902
000040 18 2e 56 bd 74 b4 66 3d c6 60 b1 3d 09 b9 2a 3d
       -0.052290052 0.056324437 0.08661036 0.04168037
000050 5b 9d 86 bd df 2c 90 3d 5a c9 22 bd 14 f2 94 3d
       -0.06572982 0.070398085 -0.039742805 0.07272735
000060 1c cb a1 bd 6c cb 8e b9 05 54 bd 3d de 06 80 bd
       -0.07900068 -0.00027235912 0.09244541 -0.0625131
000070 0d c7 91 bd 35 df 70 bb 56 fa a2 bd b3 5d 53 bd
       -0.07118044 -0.0036754136 -0.07957904 -0.05160303

net.3.module.0.weight f4 [32, 32, 3]
000000 96 e2 82 bd bf 99 45 3d 8c 85 f4 3c 1f a9 66 3d
       -0.06390874 0.048242327 0.029848836 0.05631363
000010 0c 1c c0 bd fe 63 42 bd b9 98 9a bd bd 60 d4 bd
       -0.093803495 -0.04745864 -0.07548661 -0.10370014
000020 d1 13 40 3d ca 86 a7 bd 0f 42 80 3d a6 96 1b bd
       0.0468939 -0.08180006 0.062626 -0.037985466
000030 4d 3e 95 3d 80 be bc 3d 3d f0 82 3d 68 55 20 bd
       0.072872736 0.092160225 0.06393478 -0.03914395
000040 27 1a 4b bd f6 30 83 bd 72 9c 29 3d 23 cc 63 3d
       -0.049585488 -0.06405823 0.041408964 0.0556146
000050 c9 87 e0 3d 71 1d 82 3c ef 1a 9d bc bc 01 93 bd
       0.10963399 0.01588318 -0.019177882 -0.07178065
000060 e1 8a 9f 3d 50 3c f7 bc b4 e7 21 3d a6 c0 5f 3c
       0.07790161 -0.030180126 0.03952761 0.013656771
000070 e2 c0 84 3d a6 54 4a 3d 84 56 63 3c 75 e4 99 bd
       0.06482102 0.049397133 0.013875607 -0.07514278
000080 02 a7 24 3d 2c b9 a7 3d 1b 20 a4 3d f7 ca b0 3d
       0.040198334 0.081896156 0.08013936 0.086324625
000090 7b 41 3f 3d 70 cb bf bd 09 2f d3 bd 42 b0 77 3d
       0.046693306 -0.093649745 -0.103117056 0.060470827
0000a0 08 d4 cd bc ac dc b5 3c 3a 13 79 bd 28 36 74 3d
       -0.025125518 0.022199951 -0.06080935 0.05962196
0000b0 61 f4 8c 3d 69 3a ba 3d da 09 ca 3c e6 f7 2b bd
       0.06882549 0.09093172 0.0246629 -0.04198446
0000c0 8a ed 2f bd 8c 7d 8e bd 3a f8 ab 3d f5 93 24 bc
       -0.042951144 -0.0695754 0.08396955 -0.010045041
0000d0 ac e2 56 3c 99 fa bd 3c 99 7b 53 bd 12 25 cd bd
       0.013115566 0.023190783 -0.051631544 -0.10016836
0000e0 bb 47 27 3c 93 4c a2 bb 61 b0 a8 3b 29 32 31 bc
       0.010209973 -0.004952976 0.005147979 -0.010815182
0000f0 27 18 82 bd 7d f3 b1 bc 5d 28 52 bd d3 36 76 3d
       -0.06352263 -0.02172255 -0.051308025 0.06011088
000100 92 44 82 bd d3 fd a2 3d 54 ac db bd cb e3 81 3c
       -0.06360735 0.079585694 -0.10726228 0.01585569
000110 13 42 6e 3d 7d 5e fe 3c 44 7d 1d 3c 3e e3 88 3d
       0.058168482 0.031050915 0.009612385 0.06683968
000120 57 1b 58 3d f1 a5 ab bd e1 69 ce bd 42 60 66 bd
       0.05276045 -0.0838126 -0.100787885 -0.056244142
000130 09 6b 9a 3c c3 82 b4 bd 29 d6 82 3d 91 f9 47 3d
       0.018849866 -0.08814003 0.06388504 0.04882199
000140 bb 4a a6 bd 44 e7 97 3d 6b 88 22 3d 55 9d 82 bc
       -0.081197225 0.07417157 0.03968088 -0.015944162
000150 fb c2 6a 3c c1 3b bb 3d 32 94 32 bc 30 24 51 bc
       0.0143287135 0.091422565 -0.01089959 -0.012764975
000160 06 d3 be 3d 35 56 11 3d 5e 9b 07 bd 73 b4 25 bd
       0.09317593 0.035482604 -0.033107154 -0.040455293
000170 ed 6d af bd 24 6d 74 3d bc ed 0d 3b 70 de a2 3d
       -0.085658886 0.059674397 0.0021656593 0.07952583
000180 db ab 89 bc f7 e8 c7 3c 1c f6 87 bd a3 76 84 bd
       -0.01680558 0.024403078 -0.066387385 -0.06467941
000190 7e 1f 3f 3d c2 41 dd 3b 25 8a a0 bc cd ae 07 bd
       0.046660893 0.0067522237 -0.019597122 -0.033125687
0001a0 8d 92 85 bc 9e b9 e9 bc 1b 65 28 bc 47 66 16 3d
       -0.016305232 -0.028530892 -0.010278012 0.036718633
0001b0 db c1 85 bc 5a 8f c5 bc ed 97 74 3d 6d 22 ad bd
       -0.016327789 -0.024116207 0.0597152 -0.08453832
0001c0 99 c6 f2 3c 55 14 3c bd 1f 73 95 3d 52 18 f8 bc
       0.029635714 -0.045917828 0.07297348 -0.030285034
0001d0 9b 97 18 bc 79 77 1d bc a9 b1 f8 bc 01 42 af 3d
       -0.009313489 -0.009611004 -0.030358152 0.08557511
0001e0 c1 ad 87 3d ae 3f 18 bd f5 f7 a6 bc 8c eb a4 3c
       0.06624938 -0.037170105 -0.020381907 0.020131849
0001f0 a2 69 72 bc 91 eb a7 bd 52 e0 85 3c 41 21 a9 3d
       -0.014795693 -0.081992276 0.016342316 0.08258296
000200 72 b4 e3 bc f4 30 8b bd 6d 00 b1 bd 52 15 83 bd
       -0.027796004 -0.067964464 -0.08642659 -0.06400551
000210 86 ff b0 3d 49 de 1d 3d c8 66 64 bd 38 eb d1 3d
       0.08642487 0.038542066 -0.055762082 0.102499425
000220 fe 37 c8 bc 6c ad a9 bb 37 a0 11 bd 6f 97 98 bc
       -0.024440762 -0.005178144 -0.035553183 -0.018626897
000230 02 cb 3f 3d de 52 00 3d 2d 0c bb 3c b0 53 cc bc
       0.046824463 0.03132903 0.022832954 -0.024942249
000240 54 97 bd bd b3 aa b3 3d 54 ab ce 3d aa af 0d bd
       -0.09257379 0.08772793 0.10091272 -0.034591354
000250 b8 da c3 bd ca 95 5a 3d e4 0c 98 ba ef 2a 1c 3c
       -0.09563202 0.053365506 -0.0011600521 0.009531721
000260 c4 55 79 bd 0a 1b 61 3b fc 7a 56 bd 66 72 a5 3d
       -0.060872808 0.0034348392 -0.05236338 0.080784604
000270 43 ff 98 3d e2 15 e2 bd 71 4e 95 bd e4 e2 66 bd
       0.07470562 -0.1103933 -0.07290352 -0.056368724
000280 c7 63 bb 3d 89 6d e0 ba 27 a6 b4 bd 51 13 1c 3d
       0.091498904 -0.0017122488 -0.088207535 0.03810436
000290 5f 84 9d bd 15 bd 41 bc db 5b 91 bd 6e be 90 3d
       -0.076912634 -0.011824866 -0.07097598 0.070675716
0002a0 01 19 3f bd d9 31 2c bd 95 24 d5 3d 47 fd 84 3c
       -0.046654705 -0.042039726 0.10407368 0.016234053
0002b0 bc 2f ae bd 09 bd 81 3c e1 85 b3 bd fa bd 1b 3d
       -0.08505198 0.01583721 -0.0876577 0.038022973
0002c0 0a 94 3d 3d e4 c0 cd 3d 43 2b a2 bd 43 33 d7 bd
       0.04628376 0.100465566 -0.07918408 -0.10507824
0002d0 1c 1f 1a 3c e8 b4 82 bc 7b 93 ad bd 54 bd 60 bc
       0.009406831 -0.015955403 -0.08475395 -0.013717014
0002e0 77 14 39 bd 1b 37 c8 bd 07 72 82 3c 66 dc 21 3d
       -0.045185532 -0.097761355 0.015923513 0.03951683
0002f0 eb 36 cb 3c 33 f0 cb bc 8b dd 0b bd b6 0d 39 3d
       0.02480646 -0.02489481 -0.034146827 0.04517909
000300 00 f8 ba 3d 89 63 76 bd d3 58 18 bd 87 ff 2a bd
       0.091293335 -0.060153518 -0.037194084 -0.041747596
000310 f1 06 9c 3d b2 e7 b3 bd a2 45 97 3d f1 75 8e bd
       0.076185115 -0.08784427 0.07386328 -0.06956089
000320 d0 7f 3d 3d cb 58 a5 3d c6 5b d5 3c bb c6 bc bc
       0.04626447 0.080735765 0.026044738 -0.02304398
000330 53 5e 62 bd b1 17 3a bd 3b 8a 20 bd 1b 65 2d 3d
       -0.055265736 -0.04543275 -0.039194327 0.04233275
000340 b1 29 ac bd 68 ea 60 bc 1d 55 ad 3d e7 32 29 3d
       -0.084063895 -0.013727762 0.084635 0.04130831
000350 8b da a4 bd 3b ff 69 bd bf 6a 9a bb d0 d3 e8 bc
       -0.08049496 -0.057128172 -0.004712432 -0.028421313
000360 6b db dd 3d 67 76 fd bc ca 5f 8f bd 3f ce 9b bc
       0.10832866 -0.030940248 -0.07000692 -0.019019244
000370 48 a1 95 bd 85 44 66 3d 4c 5d ab 3d 11 8a c5 bd
       -0.073061526 0.05621769 0.08367404 -0.09645475
000380 9e b0 bb 3c df cf c8 3d 9a b3 b9 bd b7 d9 3d bd
       0.022911366 0.09805273 -0.090674594 -0.046350207
000390 af 6f 2a bb 27 50 61 3d a7 05 28 bd 9d e0 a5 bd
       -0.002600651 0.05500808 -0.041021015 -0.08099482
0003a0 68 e5 8b 3d 68 c1 9e 3d ab 5a b8 3d 3b 1e 96 bd
       0.06830865 0.07751733 0.090016685 -0.07329985
0003b0 98 08 9d bd 67 ed 02 3d 0d 03 9d 3d 64 e9 b3 ba
       -0.07667655 0.031964686 0.076665975 -0.0013726172
0003c0 c2 ed 91 bd 62 c8 3b 3d d8 0a c1 bd 05 87 9c bd
       -0.07125427 0.045845397 -0.094258964 -0.076429404
0003d0 6e c3 5c 3c 89 16 81 bd 49 c2 b4 bd 1c 63 b9 bb
       0.013474328 -0.06303126 -0.088261195 -0.0056575667
0003e0 06 bb 2c bc 15 c4 88 bd 4d 01 3d 3c e8 b8 2d bc
       -0.010542637 -0.06678025 0.011535955 -0.010603167
0003f0 33 78 7c 3d de 36 9c 3d d8 7c e3 3b c9 fd 87 3d
       0.06163807 0.076276526 0.006942373 0.066402026

net.3.module.0.bias f4 [32]
000000 34 82 04 3d 8c 4d 40 bd 57 ff 73 3d ab 84 87 bc
       0.032350734 -0.046948954 0.059569683 -0.016542753
000010 4f d5 6c bc 2a 23 11 bd da f5 16 3b 7e fd c1 3d
       -0.014455154 -0.035433926 0.0023034723 0.09472178
000020 80 68 8e bd 5f 34 c2 bc f1 86 ad 3d 0f bb 09 bd
       -0.069535255 -0.023706613 0.08473004 -0.03362566
000030 f6 51 ba 3d bc a4 8f bd fc cb d4 bc 41 3b fc bc
       0.09097664 -0.070138425 -0.025976174 -0.030789973
000040 a6 9b 38 3d b1 a2 b5 bb 3d 47 9e 3d ee c1 1d bd
       0.045070313 -0.005543076 0.077284314 -0.038515024
000050 52 e2 19 3d b1 67 fd 3c 95 25 ab 3c 28 77 8d 3c
       0.03756935 0.030933233 0.020891944 0.017268732
000060 74 1e 45 bd ee ee d1 bd 1a fc b6 bd 82 2c 00 bd
       -0.048124745 -0.1025065 -0.08934803 -0.031292446
000070 50 31 ef bb f8 60 d4 bd 6c b0 cf 3d 26 71 54 3d
       -0.0072995797 -0.10370058 0.10141072 0.05186572

net.4.module.0.weight f4 [32, 32, 3]
000000 5f 93 80 bc 9f a7 52 bd 28 22 6f bd d8 40 96 bd
       -0.015695272 -0.051429387 -0.058382183 -0.07336587
000010 4a ae 49 bd 23 90 9a bd 63 7d a8 3d 7f 1b b3 3d
       -0.04923848 -0.07547023 0.082270406 0.08745479
000020 e4 53 a5 bd fd 62 c4 bb 1b d6 47 bc 57 05 aa 3d
       -0.080726415 -0.0059932456 -0.012197043 0.083018
000030 2a 1f 57 bd 77 a7 bb b9 8c 27 6f 3c bc 89 e0 ba
       -0.052519955 -0.0003579219 0.014596831 -0.0017130892
000040 e7 2b c6 3d 03 ba 44 bd 58 0b 55 bb a5 07 97 3d
       0.096763425 -0.048028957 -0.0032507982 0.07374505
000050 9d b7 3c bd e9 d0 99 bd a1 e8 94 3d 79 34 eb 3c
       -0.046073545 -0.075105496 0.07270933 0.028711544
000060 63 b5 a6 3d 38 2c b0 3d b8 50 5f bd 47 9f 96 3d
       0.081400655 0.08602184 -0.05452034 0.073545985
000070 18 ea 3f bd 8d e1 0a bd 7b 07 b2 3d 66 c6 88 bd
       -0.04685411 -0.03390651 0.08692833 -0.066784665
000080 3b 8b aa 3d fe b6 ba bd 7c a5 e9 bc 01 33 74 3c
       0.08327337 -0.09116934 -0.028521292 0.014904738
000090 c5 0d af 3d c5 3e 1f bd 71 9d 59 bd 7f 9c c9 3d
       0.08547548 -0.03887822 -0.053128663 0.098443024
0000a0 6d f2 d2 bc 13 91 a2 bd e4 7f af bd 4f a7 c3 3d
       -0.025750363 -0.07937827 -0.08569315 0.09553396
0000b0 fd fb 7d 3d d8 e3 ae bc 7c ef 3e 3d 49 42 7b 3d
       0.062007893 -0.021348879 0.04661511 0.06134251
0000c0 83 60 aa 3c 6a 3d 26 39 6d df b8 3d 97 7f 03 3d
       0.020797973 0.00015853872 0.0902699 0.0321041
0000d0 fc ca e0 bc 48 a7 2b 3d 7b 89 82 3d e7 1a 9a 3d
       -0.02744054 0.04190758 0.063738786 0.075246625
0000e0 76 8c 31 bd cf 22 7e 3d 08 96 5e bd d4 5a 9a 3c
       -0.043346845 0.062044915 -0.0543423 0.018842138
0000f0 6c de 21 bd d7 1f 9c 3c 4c 9f a6 bd 5d 6e 96 3d
       -0.03951876 0.019058151 -0.08135852 0.07345269
000100 ed d4 97 3d cf da 81 bd 68 94 48 bd 14 a5 e9 bc
       0.07413659 -0.063405626 -0.048969656 -0.028521098
000110 f4 c9 ac 3d f7 ff c6 3d c6 3b 2f bd 29 2f 82 bd
       0.08436957 0.0971679 -0.042781614 -0.06356651
000120 9c 71 82 bc ea 06 bb 3d 76 39 50 bd fd 2f 0c bd
       -0.015923314 0.09132178 -0.05083605 -0.034225453
000130 ad 2b 04 bd 29 8e 60 bd c5 11 ab 3d 59 24 b6 3d
       -0.032268215 -0.054823074 0.08352999 0.088936515
000140 f7 07 81 3c f4 ef b3 bc 17 d5 93 bd 2b 36 1e bd
       0.015750868 -0.021965005 -0.07218378 -0.038625877
000150 88 ce c1 3c fd d3 b5 bd 9e e2 c8 bd ba 6d 1b bd
       0.023658052 -0.08878324 -0.09808849 -0.03794644
000160 66 47 6d 3d 76 27 01 bc e8 15 46 bd 32 3c 09 bd
       0.05792942 -0.007882943 -0.048360735 -0.033504672
000170 92 64 d5 ba d0 6c 1e bd e4 2c 1f 3d d1 73 2c 3d
       -0.0016280583 -0.03867799 0.03886117 0.04210264
000180 d2 8e c1 3b d8 f0 d6 bc 8b 5e 43 bc 9f 30 52 3d
       0.005906918 -0.02623789 -0.011924396 0.0513159
000190 c6 26 0a bb eb 39 59 3d fa d3 4e 3d e7 fb 19 bb
       -0.002108024 0.05303375 0.050495125 -0.0023496093
0001a0 70 5a 55 3d 21 b4 48 3d f6 27 1d bd 70 0e 10 3d
       0.0520882 0.04899991 -0.038368188 0.03517002
0001b0 c9 f5 7e 3d 07 b9 16 3d 87 9d 7c 3d 26 28 a5 bc
       0.062246118 0.03679755 0.061673667 -0.020160746
0001c0 d1 d3 50 bc e7 5e be 3c f6 aa 94 3d e6 43 72 bd
       -0.0127458135 0.023238612 0.07259171 -0.059146784
0001d0 88 5d 06 bd 10 87 be 3d 1b 95 1c bc 66 20 02 bd
       -0.032804042 0.09303105 -0.009557034 -0.03176918
0001e0 7e d8 36 3c ab d0 c7 bc 81 fe 91 3d 31 64 55 3d
       0.011160014 -0.024391493 0.07128621 0.052097503
0001f0 bd 22 19 bd cc 09 d9 bd 4b e1 7f bc 6d d9 f6 bc
       -0.037386645 -0.10597572 -0.015617679 -0.030132974
000200 84 ff 54 bc 19 3b 52 3d 17 aa 09 3b 88 61 1e 3d
       -0.013000373 0.05132589 0.0021005922 0.03866723
000210 67 28 81 3d ec 3b 13 bc 56 fa d1 3d 2c 26 0d 3d
       0.06306534 -0.008986454 0.10252826 0.03446023
000220 ef 98 c2 bd 49 ad fe ba ab 3e 97 3d 86 a4 00 bd
       -0.09501826 -0.0019430305 0.07385 -0.0314069
000230 a2 71 97 3d 34 26 82 3d 2d a0 a5 3d 88 23 c3 bd
       0.073947206 0.06354943 0.08087192 -0.095282614
000240 c5 4a 1a ba 64 0f 98 bc 37 ba 58 bd f5 af 8d 3d
       -0.00058857753 -0.018562026 -0.052911963 0.06918327
000250 88 3a 31 bd bd 23 88 3d a0 93 4b 3c 61 b6 94 3d
       -0.04326871 0.066474415 0.012425333 0.072613485
000260 06 66 99 bd f7 93 83 3d da 83 8c bd 98 5d 89 bc
       -0.074901626 0.064247064 -0.06861086 -0.016768262
000270 46 64 a5 bd 55 f0 8f 3d fa 52 cb 3d ab f6 85 bd
       -0.08075766 0.070282616 0.09927936 -0.06541189
000280 99 90 2b 3d 9e e9 2a 3d c0 4b af bd a1 18 4c 3d
       0.041885946 0.0417267 -0.0855937 0.049828175
000290 01 cc f3 bc 5f 5c 7d bb c9 c7 34 3d 15 8b 92 3d
       -0.029760363 -0.0038659794 0.044135842 0.07155434
0002a0 da 25 13 bd e2 63 ac 3d 75 c1 b2 3b c0 f6 ac 3d
       -0.03592477 0.08417489 0.005455191 0.08445501
0002b0 c9 e1 94 bd f9 34 95 bc 70 26 ba 3d 10 f9 63 3d
       -0.072696276 -0.018213736 0.090893626 0.055657446
0002c0 58 77 1d 3d 0b 2c a2 bd 65 e4 66 bd 35 97 18 bd
       0.038443893 -0.07918557 -0.056370158 -0.037253577
0002d0 7b f0 9a 3b 0d 54 b5 3d 6d a2 8c bd 07 cc 82 3d
       0.0047283745 0.08853922 -0.06866918 0.063865714
0002e0 0e c9 22 3c fa 38 61 bd e5 ec da bc a9 33 01 3d
       0.0099356305 -0.054985978 -0.026724288 0.031543408
0002f0 10 e5 bd bb 03 f7 12 bd da b3 e2 3c 6a 8a 08 3d
       -0.0057951286 -0.0358801 0.02767365 0.033335127
000300 5c b9 d5 bd c4 7f d3 bc c4 2c 87 3d 28 ff 60 bd
       -0.10435745 -0.02581776 0.06600335 -0.054930836
000310 0b d4 13 bd ff f7 f5 bc 77 7d 36 3d 08 b6 a7 bd
       -0.03609089 -0.03002548 0.044553246 -0.081890166
000320 46 82 87 3d 7b df 94 bb 6b 62 66 3d db 4a a6 3d
       0.066166446 -0.0045432425 0.056246202 0.08119746
000330 f9 da 3c bd 78 0a c0 3c f1 d1 75 bc 7e c3 49 3d
       -0.046107266 0.023442492 -0.015003667 0.0492587
000340 87 f2 a3 3d a8 4b 99 3d 93 7c 82 3c 09 20 b0 bd
       0.08005243 0.074851334 0.015928542 -0.0859986
000350 4e 00 b0 bd e1 7c 25 bd d4 7d 0d bd 85 a8 65 bd
       -0.08593808 -0.040402297 -0.034543827 -0.056068916
000360 5e db 25 bd a3 30 7f 3d f0 2a 77 3c 59 8c b2 bd
       -0.040492408 0.062302243 0.015085921 -0.087181754
000370 bd ba 81 3a ed 33 80 bc 5e 61 db 3d 62 28 83 bd
       0.0009897571 -0.01564976 0.10711931 -0.06404187
000380 5c 70 90 3d 35 01 22 bc dc 6a c0 3d 33 f0 c0 bd
       0.07052681 -0.009887983 0.09395382 -0.09420814
000390 72 bd b0 bd 34 56 fc 3c ca 4a c1 bd 45 3c ba bd
       -0.08629884 0.030802824 -0.09438093 -0.09093527
0003a0 e0 e3 84 3d d4 52 ac 3c 3a 6e 7e bd f8 0c a5 bb
       0.06488776 0.02103559 -0.06211684 -0.0050369464
0003b0 2a 65 99 bd 5f 30 61 3d 1b 95 e1 bc da 80 c4 bc
       -0.07489999 0.05497777 -0.02753692 -0.023987222
0003c0 6a f4 95 bd 6d b6 33 bd b9 10 9c 3c 2a 66 c4 3d
       -0.07322009 -0.043875147 0.019050943 0.09589799
0003d0 5f c1 9d bc 44 6f 78 3d 01 36 4c bd 1b c5 04 bd
       -0.019257246 0.060652986 -0.04985619 -0.032414537
0003e0 90 ef c0 bc 26 41 ef 3c 4b 64 6d 3d c6 6e 8e bd
       -0.023551732 0.02920587 0.057956975 -0.06954722
0003f0 cc 24 79 bd d0 6b d7 3d 7e 3f 78 3d e0 af 54 3d
       -0.060826108 0.105186105 0.060607426 0.05192554

net.4.module.0.bias f4 [32]
000000 af 49 63 3d e2 95 ec 3b 25 e4 a4 3d b2 57 bd bd
       0.055490192 0.007220016 0.080513276 -0.09245242
000010 fb cf a2 3c d1 39 90 3d ab b0 9d bd af ed 11 bd
       0.019874563 0.070422776 -0.07699712 -0.035627063
000020 da 7d 90 bd e5 eb b1 bd b4 c9 da bc 1e 81 0a bd
       -0.07055254 -0.086875714 -0.026707508 -0.033814542
000030 ed 40 9e bd db b2 be bd ff 2d 55 bd a9 07 16 bd
       -0.07727227 -0.09311458 -0.05204582 -0.0366284
000040 85 55 ae bd 27 a3 72 bc 53 ac 93 bd d5 a4 5c 3d
       -0.08512405 -0.014809406 -0.072106026 0.053868134
000050 25 96 a6 3d af f3 8c bd 23 5a 62 bb 39 54 98 3d
       0.081341065 -0.068824165 -0.003453859 0.07437939
000060 04 9f a8 bd 69 e4 ac bd 32 83 ea bc cf 65 5a bd
       -0.08233455 -0.08442003 -0.028627012 -0.05331975
000070 2b 6d c1 3c 72 47 0c bd 7f e5 cd bd 2a 02 76 bd
       0.023611626 -0.034247823 -0.100535385 -0.060060658

net.5.weight f4 [8, 32, 3]
000000 df d1 72 bd 3e f4 ca bc 99 f1 58 3d 0e bc ad bd
       -0.05928218 -0.024774667 0.05296478 -0.08483134
000010 ca 32 ae bd 07 b1 b2 bd 22 d9 48 bd 41 0f 42 3d
       -0.08505781 -0.087251715 -0.0490352 0.04737783
000020 ec 36 c6 3c 9a 92 8a bd 28 5e ed bc f9 3e a6 3b
       0.02419611 -0.06766243 -0.028975561 0.005073425
000030 f1 97 43 3d b2 5d a7 3d 7c 57 91 bd b8 cc 73 3d
       0.047752324 0.08172168 -0.070967644 0.059521407
000040 9b 44 19 3d e4 2e 47 3d a3 13 29 3d 85 47 bd bd
       0.037418943 0.048628703 0.041278493 -0.09242157
000050 f9 ae cc bd fd 48 cf 3d e7 be 13 bc 55 49 82 bd
       -0.09994311 0.10121343 -0.009017683 -0.06361643
000060 93 01 61 3d 25 5e b8 3d 9c 4c c1 bd a2 51 e1 3d
       0.054933142 0.09002332 -0.0943844 0.11001898
000070 ec d6 ef 3a 71 32 15 bd 24 f1 b1 3d a3 6d b8 bd
       0.0018298305 -0.036425058 0.08688572 -0.090052865
000080 23 6f 93 3d e7 6e 21 3d 10 61 0b 3b 37 45 16 bd
       0.07198932 0.039412405 0.002126757 -0.036687102
000090 e7 c9 83 3b c3 29 d6 bb 70 dd cd bd fa bf ee 3b
       0.0040218714 -0.00653574 -0.100520015 0.007286069
0000a0 53 fa 6e 3d 78 f4 b0 3d e3 32 3a bc 62 33 8b bd
       0.058344197 0.08640379 -0.011364671 -0.0679691
0000b0 a3 5d 73 bd 96 f4 2c 3d f9 52 57 bd e6 42 42 bb
       -0.05941547 0.042225443 -0.052569363 -0.0029641925
0000c0 96 cb d6 3d 90 80 92 bd 54 e5 3d 3c 85 ee 9e 3d
       0.1048805 -0.071534276 0.011590321 0.07760338
0000d0 4a 43 33 3d 3b cb 6f 3c 23 90 97 bc 03 81 5b bd
       0.043765344 0.014635856 -0.018501347 -0.053589832
0000e0 65 ae 91 3d be bb 39 3d 8c 88 3a bd a2 dc d7 bd
       0.07113341 0.04534506 -0.045540377 -0.10540129
0000f0 d8 32 75 bb 3f 5f b0 bb 37 f0 8e 3d c8 8c 24 bd
       -0.0037414338 -0.005382448 0.06979411 -0.040173322
000100 dc ef 80 bc ee 84 8f 3d 4e 2a 38 3d 4b 0b 84 3d
       -0.015739374 0.07007776 0.04496222 0.064474665
000110 71 b9 3b bd d4 99 58 3c 95 36 19 3b 4b 0e 14 bd
       -0.045831148 0.013220269 0.002337848 -0.036146443
000120 78 d9 b4 bd c7 9d af bc 13 98 5a 3c c2 d4 3e bc
       -0.08830541 -0.021437539 0.013341921 -0.011647405
000130 2e 7c 8d bd 73 e9 cc 3d 8a e0 a4 3c ad c4 59 3d
       -0.06908451 0.100054644 0.0201266 0.05316608
000140 f6 eb ac 3d f5 0a f6 3c 70 15 3a bd 28 01 be 3d
       0.084434435 0.030034522 -0.0454306 0.09277564
000150 48 5b 9a 3d 8c 32 9a bc 1b 81 39 3d 99 9c 06 bd
       0.07536942 -0.01882293 0.04528914 -0.032864187
000160 b4 e9 4c 3d d0 57 9b bd bb 4b fe bc e8 3d 8c bd
       0.050027564 -0.07585108 -0.03104197 -0.06847745
000170 e9 e2 bd bd 2e 41 bb bd d8 d8 ab 3d 18 8d d2 bd
       -0.09271795 -0.091432914 0.08390969 -0.10280818
000180 50 62 00 3e 95 b0 7e 3b 68 95 43 bd 4a 58 1d bd
       0.12537503 0.0038862575 -0.047749907 -0.038414277
000190 c3 49 48 bd 72 33 6d 3d 67 af 42 bd 07 d2 91 bc
       -0.04889847 0.05791039 -0.047530558 -0.017800344
0001a0 8d 49 ba 3d f6 db 63 3d fe 24 02 bd 59 19 8e bd
       0.0909606 0.055629693 -0.03177356 -0.069384284
0001b0 e0 7c 58 3d 57 51 b5 3d e2 5e 9b 3c 92 7c b7 3d
       0.052853465 0.08853405 0.018966142 0.08959307
0001c0 2c 97 7f bc 70 0c 2f bd f2 89 9a bd 74 db c9 3d
       -0.015600007 -0.04273647 -0.07545842 0.098563105
0001d0 ba 7e 5b bd 0e 3a 33 bc dd 57 a7 3d 82 69 c9 bd
       -0.053587653 -0.010939134 0.081710555 -0.09834577
0001e0 19 8c 21 bd 7d d0 c2 bd 2d a2 52 bc eb ac bf 3d
       -0.03944025 -0.09512422 -0.0128560485 0.09359153
0001f0 b7 b2 bf 3c 32 81 df bd 8a df a3 3c 44 98 4a bd
       0.023400648 -0.10913314 0.020004053 -0.049461618
000200 c6 a4 70 bd af 9b ee bc 8d 62 cd 3c 3a 17 3e bd
       -0.05875089 -0.02912697 0.025071407 -0.04640887
000210 45 27 3c 3d 1d 7b 96 3d 65 85 33 3d cf 07 9a 3d
       0.045935888 0.07347701 0.043828387 0.075210206
000220 cd 36 cc bb e6 91 31 3d 89 77 33 3d 94 11 e9 3d
       -0.0062321187 0.04335203 0.04381517 0.11380306
000230 55 ce 75 bc 0b e3 5a bd 76 4e c5 bd 6c 4c 58 3b
       -0.015002807 -0.05343918 -0.09634106 0.0033004535
000240 c2 71 18 3d 4c e2 51 bd a6 3a 8d bd 66 2a 5d bd
       0.037217863 -0.051241204 -0.06895952 -0.053995512
000250 7e e8 39 bd 81 b7 5f 3c c4 de 05 3d ad cd 6b bd
       -0.045387737 0.013654591 0.03268315 -0.057569195
000260 b2 81 aa bd d8 f6 02 3d e3 9a 04 3d 96 65 7a bd
       -0.08325519 0.03197369 0.032374274 -0.061132036
000270 0f 4a 54 3d ab b1 8d 3d 08 7f cb bd 9f 30 50 bc
       0.05182844 0.06918653 -0.09936339 -0.012706905
000280 6b e1 18 3d 80 3d 2a bc e8 ad d5 3d 44 16 54 3d
       0.03732435 -0.010390639 0.104335606 0.051779047
000290 13 38 67 3d f1 7a c9 bd 7d 1b f0 bc 34 5d ad 3d
       0.05644996 -0.09837902 -0.029309982 0.08465043
0002a0 f9 b1 80 3b 5f 7c c3 bd 63 90 8d 3d 89 42 c1 bd
       0.003927466 -0.09545206 0.06912305 -0.09436519
0002b0 bc e3 79 3c 35 0b 9b 3d a8 c9 87 bd e1 34 c2 3d
       0.01525205 0.07570497 -0.0663026 0.09482742
0002c0 c2 d8 b0 bd 02 3b bc bd 65 46 b7 3d 79 c5 4e 3d
       -0.08635093 -0.09190942 0.089489736 0.050481293
0002d0 1e 21 ab 3d 81 56 4b bd 6e da 7a bd b8 e2 c7 bd
       0.08355926 -0.049643043 -0.061243467 -0.0976004
0002e0 96 61 db bc 17 6b 29 bb f8 2a 07 bc 1a f4 13 3d
       -0.026779931 -0.0025851184 -0.008249991 0.036121465
0002f0 c5 50 00 bc 16 14 03 3d a1 91 de bd a7 35 5b bd
       -0.007831757 0.032001577 -0.1086762 -0.053517964
000300 3f 67 51 3d 35 e7 b0 bd a9 a7 c6 3d 7e 64 7c bd
       0.051123854 -0.08637849 0.096999474 -0.061619274
000310 62 56 b1 bd 17 3a cf 3d 83 e1 73 3d db 12 2a 3d
       -0.08659054 0.10118502 0.059541237 0.04152189
000320 40 41 50 bd 5a 00 8a bd 89 bd 5e bd b2 3b b5 bd
       -0.050843477 -0.06738348 -0.054379974 -0.088492766
000330 40 3c be 3c 76 9b b9 bc 25 fe 5e 3c ec c4 32 3d
       0.023222089 -0.022657137 0.013610397 0.04364483
000340 a1 f5 b6 bc f7 5e 3f 3d 1f 9d 4c bd be 14 1d bd
       -0.022333922 0.046721425 -0.04995453 -0.03834986
000350 60 83 a7 3d 2b 39 cc 3c 0c 01 69 bd 79 f0 6c bd
       0.08179355 0.024929604 -0.056885764 -0.05784652
000360 ec 02 b6 bc bc ef 33 3d cb 7a eb 3d 10 49 16 bd
       -0.02221819 0.0439298 0.1149803 -0.03669077
000370 fa 5c e9 bd 57 da 6e 3d 64 57 e7 bc 53 5e 1a bd
       -0.11394687 0.058313694 -0.028239913 -0.03768761
000380 2a 9d 63 bd d8 3a a3 3d d0 68 be 3d e3 7a 91 bd
       -0.055569805 0.07970208 0.09297335 -0.07103517
000390 8f 4e 2c bd 00 51 83 3d 1d 66 06 3d 83 cf a3 bd
       -0.042067107 0.06411934 0.032812227 -0.07998564
0003a0 ad b2 90 bd 8d bb 38 3d 33 1e 86 bd e6 6e b1 3d
       -0.0706533 0.045100737 -0.06548729 0.0866373
0003b0 a3 66 43 bd 22 4c a2 3c f5 42 3b 3d 6c 39 29 3d
       -0.047705304 0.019811694 0.045718152 0.041314527
0003c0 4d a9 c5 bc 64 69 ff 3c a9 f2 e0 bb 9f 81 9a 3d
       -0.02412858 0.031178184 -0.006864865 0.075442545
0003d0 51 e5 93 bc 59 08 0b bd af 24 8f 3d b2 4b 4d 3d
       -0.018053683 -0.033943508 0.06989419 0.050121017
0003e0 48 e8 c6 bd 11 99 4f 3d 95 a4 17 bc 4e d4 c3 3d
       -0.09712273 0.050683085 -0.009255548 0.09561978
0003f0 87 f0 4a 3d b4 08 3d 3d b5 1c 53 b8 7e 58 19 3c
       0.04954579 0.046150878 -5.0333056e-05 0.009359477

net.5.bias f4 [8]
000000 8b 0e 6a 3d 87 e1 a1 bd 3d f8 8c bd dc 08 67 3d
       0.057142776 -0.07904344 -0.06883285 0.056404933
000010 f8 f9 8f 3c 0d df 79 3d 93 56 3b bd eb 50 8b 3c
       0.01757525 0.061003733 -0.04573686 0.017006358

exp_avg f4 [32, 120, 2]
000000 bc 3c 60 38 1d cc 17 38 36 79 03 3a 8b 75 2d 37
       5.3462325e-05 3.61913e-05 0.0005015315 1.0338971e-05
000010 5d 28 97 b9 d1 f5 03 b9 1d 52 1c b9 1f 89 20 3a
       -0.00028831037 -0.00012584707 -0.00014907909 0.0006123948
000020 0d 8c 81 3a 7b 05 ed 39 9b aa ce 38 f6 33 ca 3a
       0.0009883657 0.00045208246 9.854623e-05 0.0015426863
000030 44 3c db 39 e5 4b 00 b9 68 3a f1 ba 56 7b 11 39
       0.00041815836 -0.00012235304 -0.0018404247 0.00013874224
000040 7b d4 6c 3a 6b 69 09 3a 28 8a ca 39 b0 3e 99 b8
       0.00090343476 0.0005241844 0.00038631377 -7.307285e-05
000050 52 c6 95 ba a1 82 29 3a 31 5e 0c ba 24 ef 18 3b
       -0.0011426902 0.00064663036 -0.0005354612 0.0023335898
000060 eb 41 a4 38 e9 c3 c3 37 97 59 30 b9 3c fc 80 3b
       7.8324076e-05 2.333704e-05 -0.00016818043 0.0039363187
000070 54 7d 33 3a c3 31 ef b8 c7 b0 8d b9 28 4c 38 3a
       0.00068469835 -0.00011405677 -0.00027025325 0.0007030391
000080 1a 12 12 3a 8c 81 91 39 8c f8 c7 39 9d b2 9b 39
       0.00055721554 0.00027753075 0.0003814142 0.0002969698
000090 18 ac a8 ba 44 8f 42 39 54 3b fd 3a 5a 25 c8 3a
       -0.0012868671 0.00018554652 0.0019320049 0.0015269921
0000a0 93 60 43 bb ea 03 35 ba d3 3f 50 3a 48 9b 9e b9
       -0.0029812201 -0.00069051853 0.0007944081 -0.00030251802
0000b0 d6 d9 8d ba bb c2 60 b9 5c d9 8a 3a 0d 69 bd b8
       -0.0010822366 -0.00021434847 0.0010593343 -9.0317895e-05
0000c0 ad 0d 94 3a 66 97 8b ba 3e 20 ef b9 29 c6 31 3b
       0.001129558 -0.0010649979 -0.00045609655 0.002712617
0000d0 89 a9 30 3a 18 10 91 ba f1 5b ab b9 97 2b 3f 39
       0.000673913 -0.0011067418 -0.00032684163 0.00018231418
0000e0 4a b5 da b9 43 26 04 3a 27 e5 90 39 fc d7 3b 39
       -0.0004171527 0.0005041102 0.00027636552 0.0001791417
0000f0 48 5c 15 b8 43 5c 5a b9 09 25 38 39 67 ae 29 b9
       -3.5610312e-05 -0.0002082447 0.00017561404 -0.00016182066
000100 09 d5 97 39 b6 c7 9e 39 5a 41 7b 3a 80 21 82 36
       0.00028959688 0.00030284905 0.0009584628 3.878202e-06
000110 09 65 17 ba e8 c0 07 ba ba 5c de 39 c8 4b 9f b8
       -0.0005775248 -0.00051785866 0.00042412226 -7.595826e-05
000120 a7 df f0 b9 61 8e 39 3a fb 60 4e 39 28 66 a5 b9
       -0.00045943 0.0007078406 0.00019681819 -0.00031547365
000130 95 72 c2 b6 5a 6d 2d 38 00 00 00 00 00 00 00 00
       -5.7949896e-06 4.1348256e-05 0.0 0.0
000140 b0 02 28 ba 05 33 9a 3a 55 a6 29 39 fd 27 89 3a
       -0.0006409092 0.0011764473 0.0001617906 0.0010464188
000150 26 6f 9f 39 ec 48 cf 39 9a 1a 3f ba 05 a6 a9 39
       0.00030409655 0.00039536448 -0.0007290036 0.00032357886
000160 f1 1e 80 39 27 32 bd b9 2e f4 b4 39 bf e3 58 ba
       0.00024437116 -0.00036086256 0.00034514203 -0.0008273683
000170 03 86 35 3a c7 94 31 b9 ac bf 36 ba f8 1d 7b ba
       0.00069245714 -0.0001693546 -0.00069713104 -0.0009579356
000180 24 47 1c 3a 44 ae 04 3a ad 21 e7 39 8f 70 d6 36
       0.00059615285 0.0005061368 0.00044084844 6.3908005e-06
000190 51 89 f4 39 a2 ee 14 39 ae 99 6a 3a 6b b4 bb ba
       0.00046641615 0.00014203278 0.00089492917 -0.0014320737
0001a0 4b eb eb 3a 28 97 81 3b 34 21 08 3b c1 b6 07 b8
       0.00179992 0.003954787 0.0020771744 -3.235671e-05
0001b0 d3 ee 48 ba 61 fd 22 3a 86 9d 1a 3a b8 2f 9d 36
       -0.0007664982 0.0006217566 0.00058981066 4.68452e-06
0001c0 1a 88 84 ba 57 2c 25 3a a2 e3 44 b9 b0 a7 88 b6
       -0.0010111362 0.00063008576 -0.00018776816 -4.0726372e-06
0001d0 2c ce ad 38 b4 50 6c 39 0c 5a 8d ba c8 dd b0 b9
       8.287685e-05 0.00022536778 -0.0010784282 -0.00033734576
0001e0 03 52 a9 39 64 9b e8 39 1f 45 b1 37 eb ba 31 b9
       0.00032295295 0.00044366263 2.1132231e-05 -0.00016949668
0001f0 1a f6 0d 3a 3a 3f 23 3a 23 a9 8c ba 63 49 98 3a
       0.0005415395 0.0006227378 -0.0010731559 0.0011618551
000200 ca 0d f7 38 a9 e0 06 3a 87 c5 5d 37 a4 69 35 b7
       0.00011780446 0.00051451713 1.3218617e-05 -1.0813037e-05
000210 b9 a4 9a b9 3b 15 22 bb 5b 36 d5 ba 30 a5 20 bb
       -0.00029495897 -0.0024731893 -0.001626681 -0.0024512522
000220 12 bd 6e 39 3d 6b 6a 39 9d 3e 16 ba ae 55 c8 b6
       0.00022767883 0.00022355928 -0.0005731376 -5.970439e-06
000230 56 2a 09 3a 71 22 3b ba ae b9 97 b9 c3 22 f0 b9
       0.0005232444 -0.0007138616 -0.00028939307 -0.00045802267
000240 24 5c c5 ba bd 91 3a 3a b9 9e 53 3a fb ef bb b9
       -0.0015057367 0.00071170536 0.0008072663 -0.0003584622
000250 68 4d ee 39 93 54 51 b9 cf d8 f8 b7 6b 9f 43 b9
       0.0004545257 -0.000199633 -2.9664863e-05 -0.00018656037
000260 fc 20 4b b9 3d bf 40 b9 eb b7 56 3a 2b 5a 38 3b
       -0.00019371876 -0.00018381789 0.0008190858 0.0028129916
000270 e2 40 6c 3b 5b bc 49 39 42 93 8b b9 bb 16 d1 39
       0.0036049415 0.00019239022 -0.00026621862 0.00039880522
000280 23 d8 02 bb 2d df 63 ba 86 3b 03 39 9d da ef b9
       -0.0019965253 -0.00086926186 0.00012515308 -0.00045748512
000290 cd 0b b7 b9 a7 e8 19 3a a3 aa 41 bb 95 1d 32 bb
       -0.00034913272 0.0005871155 -0.002955117 -0.0027178277
0002a0 5f e7 b0 b9 85 da 8b b9 94 c8 fd 3a dc 97 ac 39
       -0.0003374172 -0.00026674956 0.0019362145 0.0003291954
0002b0 9d 4c af ba ee be c3 39 0d c9 3f b9 b2 05 44 ba
       -0.0013374273 0.00037335552 -0.00018290077 -0.00074776553
0002c0 16 b9 2f 3a 44 bf 2b b9 5b 63 cd b7 0f 70 6f b9
       0.00067033 -0.00016379083 -2.448417e-05 -0.00022834561
0002d0 1e 15 3e b7 5b a8 10 39 16 ff 1c b9 e4 ab 0d ba
       -1.1329799e-05 0.00013795627 -0.00014972346 -0.0005404337
0002e0 3b 98 2b 3b 0d 7b 76 39 7b 2d dd b9 bc 45 be b8
       0.0026183266 0.00023506228 -0.0004218629 -9.072895e-05
0002f0 f9 01 58 b8 57 fb b9 3a 4c 57 3a b9 97 6e cf b8
       -5.150025e-05 0.0014189285 -0.00017770863 -9.891128e-05
000300 67 70 cb 3a fb 39 0f 39 72 31 ad b9 68 00 54 38
       0.0015521169 0.00013659142 -0.0003303397 5.0545117e-05
000310 db bd 2a 3a 6a 08 87 3a 90 2a 8d 38 b1 88 13 3a
       0.0006513276 0.001030219 6.731332e-05 0.00056279736
000320 c7 fd ac 39 58 08 97 39 15 b9 6f 38 54 b7 37 b7
       0.00032995475 0.0002880718 5.715441e-05 -1.0950334e-05
000330 b5 80 a8 b9 47 b8 4f b9 03 46 3b b9 9e b5 60 ba
       -0.0003213935 -0.00019809707 -0.00017859791 -0.0008571985
000340 79 cd b5 39 56 70 a9 3a f8 46 cd 39 ac c8 b7 39
       0.000346761 0.0012927155 0.00039153523 0.00035053992
000350 16 0c 75 3a 46 0b 21 bb aa 18 7f b9 be fb 63 b9
       0.0009347809 -0.002457337 -0.00024327883 -0.00021742188
000360 4c 83 9b 3a a9 2d 04 ba fa 0d 13 ba 3a 07 c0 3a
       0.0011864691 -0.0005042204 -0.00056096877 0.0014650591
000370 10 fd e5 39 6d f8 c8 ba 61 54 0d 38 11 ce 72 3b
       0.0004386683 -0.0015332826 3.3695604e-05 0.0037049095
000380 5c 97 8f 39 84 d6 1c 3a 3f 2e e9 39 3f f2 34 39
       0.00027387857 0.0005982893 0.0004447568 0.00017256381
000390 29 5e c4 b8 bf f0 3d b9 c8 8a 43 3a 0e 61 4e 3a
       -9.363547e-05 -0.0001811413 0.00074593397 0.00078727386
0003a0 65 23 52 39 77 03 10 ba 1c 77 8a ba f4 9c f1 b8
       0.00020040346 -0.00054936804 -0.0010564062 -0.0001152101
0003b0 30 92 3f 3a 5e 61 ed b9 a1 c0 4d b9 7c 4d 35 3a
       0.00073078554 -0.00045276707 -0.00019622083 0.0006916148
0003c0 72 70 b0 b7 39 0c 7e b8 a2 c1 47 b9 1b ce 9d b9
       -2.1033196e-05 -6.0569702e-05 -0.00019050253 -0.00030098934
0003d0 71 ac 93 3b 2d 1e 52 3b 08 79 dd b9 9a 7b 74 ba
       0.0045066406 0.0032061443 -0.0004224258 -0.00093262794
0003e0 11 26 c5 ba 8f 95 95 3a 40 22 ef b9 dd e1 8c ba
       -0.0015041252 0.001141237 -0.0004561115 -0.0010748465
0003f0 b3 5f 35 ba ad 71 66 ba f3 e3 b3 b9 cf d8 04 bb
       -0.00069188623 -0.0008790743 -0.00034311376 -0.002027083
