data/Figure3_Supplement/037/checkpoint_0001000.pth (torch, 227776 bytes, 31 tensors)

net.0.weight f4 [32, 120, 2]
000000 4d 4b 9b bd 0a 8b b2 bd 08 9e 04 3d 87 06 48 bd
       -0.07582722 -0.08717926 0.032377273 -0.04883435
000010 29 8e ed bc c7 50 7b 3c 23 40 4a 3d 3b b6 f4 3c
       -0.028998451 0.015339083 0.04937757 0.02987205
000020 8b ee 87 3d 9c 38 31 3b a7 02 06 3d 60 15 28 3d
       0.06637295 0.0027041798 0.032717373 0.04103601
000030 6f 4b 15 3d 34 16 a3 3a 91 fe 2c 3d c8 15 30 bb
       0.036448892 0.001244253 0.04223496 -0.0026868451
000040 fe be 76 bd 44 ae aa bc be f5 a9 bc 90 85 13 bd
       -0.060240738 -0.02083505 -0.020747062 -0.036016047
000050 71 78 be bc bf 31 c5 bc 03 5e 27 3d 46 09 9a 3c
       -0.02325079 -0.024071572 0.04086114 0.01880325
000060 ba 7e 36 bd 6d b2 2b bd 48 01 42 bd 48 b5 9a 3b
       -0.04455445 -0.041918207 -0.047364503 0.0047213174
000070 c5 33 61 3d 4d 0c 60 3d df cf a9 3b 8a f1 f8 3c
       0.054981012 0.05469923 0.005182251 0.030388612
000080 15 ca a2 3c 89 68 48 3d 05 d5 dc 3a 24 16 a4 3c
       0.01987175 0.048927817 0.0016848153 0.020030089
000090 34 6c a5 bc a3 7d b7 bc ad ec 69 bd 1c 87 96 3d
       -0.020193197 -0.022398775 -0.057110477 0.07349989
0000a0 0c 53 3b 3d 83 a2 9c 3c 86 26 8d 3c 92 3b e8 3c
       0.045733497 0.01912046 0.017230283 0.028348718
0000b0 22 f4 ea bc 5c 69 32 bd c0 c2 92 bd 91 81 4e ba
       -0.028680865 -0.04355751 -0.07166052 -0.0007877583
0000c0 e8 8a 1c 3d 4b 70 2f bd d8 22 b5 bc 56 6a b4 3c
       0.03821841 -0.0428317 -0.022111341 0.022023361
0000d0 61 e2 2c bd 8f 85 32 bd 06 43 94 bc 7c 0f 1f bc
       -0.04220808 -0.043584403 -0.018098366 -0.009708282
0000e0 85 71 81 bc 50 d8 f3 3b 4f 56 12 3b 95 f6 37 3c
       -0.0158012 0.007441558 0.0022329276 0.011228223
0000f0 17 e4 b2 3c 1d 27 4e bc d1 95 7b bd 21 48 23 bd
       0.021837277 -0.0125825675 -0.061422173 -0.03986371
000100 00 a2 9e 3c 87 32 b6 3c d4 06 5c bd 2a 68 41 bd
       0.019364357 0.02224089 -0.05371745 -0.04721848
000110 e2 37 de 3c 6d 40 a4 3b f8 6c 23 bd e1 e0 9d bb
       0.027126256 0.005012563 -0.039898843 -0.0048180674
000120 b5 2c 2e bd bb c4 79 3c 6b 03 be 3c c8 1d 8f bc
       -0.042523105 0.015244658 0.02319499 -0.017470255
000130 26 91 52 3d 49 b3 49 bd 6a 2d 0f 3d d1 53 29 bd
       0.051407956 -0.049243245 0.03495542 -0.0413397
000140 fe a5 0e bd 10 3c d9 bc 98 c1 6f 3d 14 1a cc 3c
       -0.03482627 -0.026517898 0.058534235 0.024914779
000150 84 6a d4 3c 7e 14 e1 bb 2b 47 31 3d 84 da 93 3d
       0.025929697 -0.006868898 0.04328076 0.07219413
000160 9e eb 66 3d ec e5 d7 3c 2b 14 a9 bc 5d d3 0a 3d
       0.056377046 0.026354752 -0.0206395 0.033892978
000170 4b d1 fb bc 9c 0e 55 bd 1a f3 23 bd 3f ae 13 3d
       -0.030739447 -0.052015886 -0.04002676 0.036054846
000180 c8 24 75 bd 97 03 8b 3d e4 c7 83 bc 10 a6 83 3c
       -0.05984953 0.06787794 -0.016086526 0.016070396
000190 dc 71 38 3d 0c 22 56 bd 79 7c 8c 3b f5 7d eb bb
       0.04503046 -0.052278563 0.0042872992 -0.007186646
0001a0 9d 09 19 3d 3b bd bc 3c 64 e4 70 3d a0 c6 2b bd
       0.037362684 0.02303945 0.05881156 -0.04193747
0001b0 39 4a 78 bd d0 19 37 3b e1 56 15 3d 9f 32 81 3c
       -0.06061766 0.002793897 0.036459807 0.015771208
0001c0 0f 0f cf 3c 48 b3 61 bd f6 ba ca bc 15 a8 0c 3c
       0.025275735 -0.055102617 -0.024747353 0.008584996
0001d0 71 ee 81 bc ff 99 ab bd 3e 79 46 bd f4 4f a9 bc
       -0.015860768 -0.08378982 -0.04845547 -0.020668007
0001e0 7b c9 88 bd a9 dd fd bc 93 e6 9b bc 62 80 4e 3d
       -0.06679054 -0.030989485 -0.019030845 0.050415404
0001f0 d0 76 42 bc 20 38 e3 bb 44 5b 5f bd 11 2d 13 bd
       -0.011869147 -0.006934181 -0.054530397 -0.03593165
000200 3c 0e d4 b9 54 51 36 3a 67 ce b0 bc 29 aa 5d 3d
       -0.00040446396 0.0006954868 -0.021582795 0.054117355
000210 fb 40 38 3d 07 ed 51 3d 17 bf bb 3c 20 79 f0 bb
       0.044983845 0.051251438 0.022918267 -0.007338658
000220 a2 22 46 bd 94 5a 00 bd 63 d2 c3 3c 7d dc e4 3c
       -0.048372872 -0.031336382 0.023904031 0.027937168
000230 78 37 2a bd 20 c7 33 bd 4b 11 1a 3d c5 9e 5f bc
       -0.041556805 -0.043891072 0.037614148 -0.013648693
000240 30 f8 0f 3d 31 7a 06 bd 89 1a af bc c4 ab 85 bd
       0.0351488 -0.032831375 -0.021374958 -0.06526902
000250 95 eb fe 3c 2a 40 5a bd f7 6c 3c 3d 4b c2 2c 3d
       0.031118194 -0.053283848 0.046002354 0.04217748
000260 4c fd 47 bd 83 ab 61 3a 88 b2 f0 bb b8 5c 73 3d
       -0.048825547 0.0008608626 -0.0073455013 0.059414595
000270 a7 e5 0f 3d 31 d6 73 bc 2c 02 0d 3d 81 8c e1 bb
       0.035131123 -0.01488261 0.0344259 -0.0068832044
000280 ef 66 4b 3d 1e 7f ac bc 0e d8 3d bd 9f 48 cf 3b
       0.049658712 -0.021056708 -0.046348624 0.006325796
000290 e8 26 ef 3c a6 c0 98 bd 85 b2 51 bc bf 83 54 3d
       0.029193357 -0.0745862 -0.01279891 0.051883455
0002a0 2c 84 32 bd 28 f1 e6 3c 11 3f 51 3c d6 d1 35 3d
       -0.04358308 0.028191164 0.012771384 0.04438957
0002b0 1d 78 07 3d 52 a3 1a bc 3f 05 79 bc 6f cc 84 3d
       0.033073533 -0.009438353 -0.015199005 0.06484305
0002c0 65 dc 8a bb e1 ad a3 3c 35 de c0 3c 27 32 3c 3c
       -0.004237699 0.019980373 0.023543457 0.011486567
0002d0 ea 0e 6b 3d a7 8a 12 3d 7d b4 43 bd 73 8c 3d bd
       0.05738727 0.03577676 -0.04777955 -0.04627652
0002e0 80 57 0d 3c 06 e3 1f bd 2a 1f 55 bd 8c 0a 2c 3d
       0.008626819 -0.039034866 -0.052031673 0.042002246
0002f0 e5 35 67 bd 95 1b 44 3d 13 f4 3f bb fc 2a 45 3d
       -0.056447882 0.047877867 -0.0029289767 0.048136696
000300 1b 4f 08 3c f3 20 4d bd 20 83 1f 3d 3a 62 b6 3c
       0.008319641 -0.05008025 0.03894341 0.022263635
000310 35 77 75 3b 15 97 bd 3c 1e eb 93 bd 67 00 59 3d
       0.0037455086 0.02314333 -0.072225794 0.0529789
000320 71 43 d9 bc 56 d4 a7 3d f3 26 a5 bc d0 6b 0e bd
       -0.026521416 0.08194797 -0.020160174 -0.034770787
000330 e1 d5 10 3c 0a 5e 17 bb e6 7a bf 3c 49 32 e2 bc
       0.008840055 -0.0023096823 0.023374032 -0.027611868
000340 51 87 31 bd 09 d0 9c bd 2a d2 b4 3d 4e 3f d1 3c
       -0.04334194 -0.07656867 0.08829148 0.025542881
000350 4b 64 ab bc 8b dd d4 3c 92 97 f0 bc f8 71 6b 3d
       -0.020921847 0.025984546 -0.02936915 0.057481736
000360 78 95 87 3d c3 ee 7a 3d 66 59 8b 3d de d5 01 3c
       0.06620306 0.061262857 0.06804161 0.007924525
000370 f0 d4 d5 bd a0 ec 02 bd 82 b0 21 bc 28 14 f3 3c
       -0.10441005 -0.031963944 -0.009868743 0.029672697
000380 a4 55 47 3d b7 fe 9e bd 76 1c a2 bc 76 6c 2b bd
       0.048665658 -0.07763427 -0.019788962 -0.041851483
000390 9b ff 82 3d 21 50 4e 3d 0d d6 1e 3d cd 51 44 3d
       0.06396409 0.050369386 0.038778353 0.047929574
0003a0 a2 a4 93 3c 8f 9a 03 bd 7c 4b 32 bd 68 af 95 bd
       0.018022839 -0.03212982 -0.04352902 -0.07308847
0003b0 f2 2d 6f 3d 7c 58 36 3d a3 14 46 bd 4d b8 a1 bd
       0.058393426 0.04451798 -0.048359524 -0.07896481
0003c0 14 b6 73 bd a4 8f e5 3c f6 f1 53 bc b3 22 93 3d
       -0.059499815 0.028022595 -0.012936106 0.07184353
0003d0 fe 11 1f 3d 9b 80 e6 3c 88 ae 74 bc d9 98 28 3d
       0.038835518 0.028137496 -0.01493419 0.041161392
0003e0 e4 36 9c 3c 79 61 9c 3d dc 0d 59 bd 70 4a 61 3d
       0.019069143 0.07635779 -0.052991733 0.05500263
0003f0 39 5f f0 bc d1 fe 5b bc 28 e0 31 3d 4c e3 74 3c
       -0.02934228 -0.013427452 0.043426663 0.01494677

net.0.bias f4 [32]
000000 e5 ef 02 bd 2f c7 65 3d 4f dd b8 3c 2e 7c 03 bd
       -0.031967063 0.05609816 0.022566466 -0.03210085
000010 25 39 d7 bb 55 68 63 bc c5 9c 2a 3c dd 81 d4 3b
       -0.0065680915 -0.013879855 0.010413353 0.0064852075
000020 55 81 2a 3d d7 da 57 bd a2 27 8f bc 5d 6b 39 3d
       0.041627247 -0.052698936 -0.017474953 0.045268405
000030 98 1c 71 3d ca 51 3e bd 69 9b 8d 3c cf 9f 2a 3d
       0.05886516 -0.04646472 0.01728602 0.04165631
000040 7c e8 92 3b 48 c5 e6 bc 41 8e 87 3c 59 8b 45 3d
       0.0044832807 -0.028170243 0.016547324 0.048228595
000050 ec d3 a8 3c 9e e6 8a 3c 7d cb 16 bd 5d 51 37 3d
       0.020608865 0.01695567 -0.036815155 0.04475533
000060 fa b8 29 bc ce c1 2b bd 88 2f 77 3d d0 71 17 3c
       -0.010359043 -0.041932873 0.060348064 0.009243444
000070 27 39 52 bd 36 df 31 3c e0 ee 5d 3d f8 e7 99 bb
       -0.051324036 0.01085644 0.054182887 -0.0046968423

net.2.module.0.weight f4 [32, 32, 3]
000000 a2 d7 52 bd 12 75 15 bd f7 a0 81 bb 3c cf dd bb
       -0.051475175 -0.0364886 -0.003955956 -0.006769089
000010 ac 98 bb bd d2 6c e1 3c d8 86 ac bd 04 d1 e1 bb
       -0.09159979 0.02751771 -0.08424157 -0.0068913717
000020 ca d8 f2 3d 80 dd 96 bd 35 34 f8 3c f6 02 60 bd
       0.118577555 -0.073664665 0.030298332 -0.054690324
000030 97 b6 d4 3d 99 e7 c2 3c f3 41 e0 bd fe 7b 87 3d
       0.10386389 0.023792075 -0.10950079 0.066154465
000040 44 c9 24 3d 75 96 f6 bd 37 14 a4 3d 04 64 5a 3d
       0.040231004 -0.12040416 0.08011668 0.05331804
000050 1f 5f 3d 3c 89 12 0f 3d 5f 89 df bd 2f e1 81 bd
       0.011558323 0.034929786 -0.10914873 -0.063417785
000060 12 87 7a bd ba 48 c9 bd 93 cd 50 3d 00 be 46 3c
       -0.06116397 -0.098283246 0.0509773 0.0121302605
000070 dc 21 54 bd 9f e0 fe 3a 84 c3 3d bd 34 69 4e 3c
       -0.051790103 0.0019445604 -0.046329036 0.012598325
000080 7a 30 2c bd 7b 16 ab 3d 99 8c 18 bc b8 0e 43 3d
       -0.04203842 0.08353897 -0.009310865 0.04762146
000090 70 69 3d bd fe 7e 99 bc d4 66 b7 bd f6 86 de 3c
       -0.04624313 -0.018737312 -0.0895516 0.027163964
0000a0 a5 cc fc 3c da fa 69 3d fb 74 a6 3b c6 fa b3 3c
       0.0308593 0.057123996 0.005079863 0.021970164
0000b0 73 43 36 3d 02 e1 a7 bd 36 7a 77 bd c0 f3 25 bd
       0.04449792 -0.08197214 -0.060419284 -0.04051566
0000c0 65 0e 48 3d 0d 25 86 3d 0e 00 c9 3d bc 38 5a 3d
       0.048841853 0.065500356 0.098144636 0.053276762
0000d0 08 01 a8 3c 8f 28 ab 3d 73 64 63 3d 48 df 88 3c
       0.020508304 0.08357345 0.055515718 0.016708031
0000e0 35 0f f3 3d ae 31 de bb fe 14 88 bd 30 c5 27 bd
       0.11868135 -0.0067808246 -0.06644629 -0.040959537
0000f0 3d bb 52 3c 7b 35 dc bd 81 f7 c6 3d 80 04 42 3c
       0.012862024 -0.10752388 0.097151764 0.011841893
000100 09 ef bf 3b c0 19 6a bd 8f d1 0a 3d 4a 42 d6 bd
       0.0058573526 -0.057153463 0.033891257 -0.104618624
000110 ea c0 5a bd 79 5f 80 bd 83 f9 57 3d ab 13 80 bc
       -0.053406633 -0.0626821 0.052728187 -0.015634378
000120 00 45 0d 3d 55 3a 5a 3d c8 dd 0b 3b 27 47 a3 3d
       0.03448963 0.053278286 0.0021341909 0.079725556
000130 73 f1 7e bd ff 0e c8 3c 25 38 e9 3d 86 69 df 3c
       -0.062241983 0.024421213 0.11387662 0.027271997
000140 07 e6 92 bc 74 23 f3 3d 79 2c d6 3d 5b 8b 2a 3d
       -0.017931951 0.118719965 0.10457701 0.041636806
000150 6c fe 8a 3d 79 e6 08 bc b5 ab 92 3d bf fb 3a bd
       0.06786808 -0.00835573 0.07161657 -0.04565024
000160 65 86 e6 3b d4 9a eb 3d 33 71 b5 bd f7 5b 8b 3c
       0.007035064 0.115041405 -0.08859482 0.017011626
000170 03 c3 2e bd f4 99 a7 3b 88 a0 b2 3d e4 cb ba 3d
       -0.042666446 0.005114788 0.08722025 0.0912092
000180 e8 56 1f 3d 7f c6 23 3d 93 73 3e bd d7 f1 98 bd
       0.03890124 0.039984223 -0.04649694 -0.07468002
000190 f5 79 ec 3c a4 92 85 bd ff 9b 99 bd 68 41 fa ba
       0.028866747 -0.0652211 -0.07500457 -0.0019092979
0001a0 25 1f b8 bd eb 22 46 3d 7c a4 5c 3c 2e 41 7d bd
       -0.08990315 0.048373144 0.0134669505 -0.06182974
0001b0 cc 65 8f 3c 61 f1 25 bd 69 73 d0 3c ac 8d 3a bd
       0.017504595 -0.0405134 0.025445657 -0.045545265
0001c0 05 42 0a bb 25 5c a5 bd 09 24 bf bd 66 f1 43 bd
       -0.002109648 -0.08074216 -0.09333045 -0.047837637
0001d0 1a 81 8e 3d f4 e7 68 3d 13 4a 9d bc 07 da eb bc
       0.06958218 0.056861833 -0.01920036 -0.028790487
0001e0 45 c9 1e 3d 4f e4 e9 bc 53 53 1f 3d e9 ef d6 3c
       0.038766164 -0.028551249 0.038897824 0.026237445
0001f0 47 b8 97 3b aa 87 43 3d b2 79 a7 3c d3 01 2c bd
       0.004630122 0.0477368 0.020443771 -0.041993927
000200 f4 f6 a0 bd 6a 1a a4 3d 72 06 5d 3d 7e aa 3e bd
       -0.078596026 0.080128506 0.053961225 -0.046549313
000210 08 ed fd bc c3 2e 29 bd aa e1 1b 3d c8 b6 3a bd
       -0.030996814 -0.04130436 0.038057007 -0.04558447
000220 27 c5 02 3d 44 b6 ad bd 51 26 13 bc be 02 b6 3d
       0.0319263 -0.0848203 -0.008981303 0.08887242
000230 87 e5 96 3d 7a 32 b4 bd 35 2c 73 bd 1e a5 88 bd
       0.073679976 -0.0879869 -0.05936833 -0.066721186
000240 67 19 6c ba 1f ba e4 bc b2 44 2f 3d 6c 76 15 bd
       -0.0009006471 -0.02792078 0.042790122 -0.03648989
000250 7d ec c4 3c 49 85 06 bd ea 61 b0 bc 64 8d 25 bd
       0.024038548 -0.032841954 -0.021531064 -0.040418044
000260 3b ae 8d 3d 12 0c ef 3c 5d 6d 67 3d 3b 3b 64 3c
       0.069179974 0.02918056 0.05650078 0.013930137
000270 ae 8b 99 3d 17 8a 40 bd b6 87 cb 3c a0 a1 bb bd
       0.07497345 -0.047006693 0.024844985 -0.09161687
000280 13 de 1e 3d 85 06 12 3d df 23 2e 3c 04 92 8f 3d
       0.038786005 0.03565075 0.0106286695 0.07010272
000290 3b 62 fd 3d 6b 14 6d bd 97 04 07 3d 3c 40 ab 3d
       0.123722516 -0.0578808 0.03296336 0.08361861
0002a0 86 ab b7 bd 98 7f bd 3d 28 3b a7 3d 77 a9 b5 3d
       -0.089682624 0.09252852 0.0816558 0.088702135
0002b0 99 77 2d bd 77 04 db 3d b0 40 32 bd 83 9a 77 3d
       -0.042350385 0.10694211 -0.043518722 0.06045009
0002c0 b0 ec 98 bd e7 05 20 bd 2b 0f c3 3b df b8 df bc
       -0.074670196 -0.03906813 0.005952736 -0.027309833
0002d0 86 d6 fe 3c 0a aa 87 bd 0f de 88 3c fb 28 e1 bd
       0.031108152 -0.06624229 0.016707448 -0.109941445
0002e0 2f d1 4b 3d 78 59 39 3d 48 49 78 3d e9 93 7d bd
       0.04976004 0.04525134 0.06061676 -0.061908636
0002f0 56 95 14 3d f2 73 bf 3d 0a 4b 92 3d ca 5c c9 3d
       0.03627523 0.09348287 0.07143219 0.09832151
000300 8d f1 43 bd 25 8b d1 3d d2 f1 ac 3d 8f 74 be 3d
       -0.047837783 0.10231618 0.08444561 0.092995755
000310 89 50 d0 bc 72 ef 84 bd d3 fc d0 bd 67 92 98 bd
       -0.025429027 -0.06490983 -0.102044724 -0.07449799
000320 99 e3 a1 bd 90 22 e5 bc f7 6a 96 3d 8e aa 48 3d
       -0.07904739 -0.027970582 0.07344621 0.04899078
000330 76 d6 82 3d b4 9a f6 bb aa b5 bb bd 4d 50 4f 3d
       0.063885614 -0.0075257663 -0.09165509 0.05061369
000340 67 91 bb 3d b7 c7 7a bd bf 24 3f 3d 59 96 bd bd
       0.09158593 -0.06122562 0.046665903 -0.09257192
000350 b9 d2 91 3d 03 8a b3 3d e0 20 a1 bd 87 32 60 bd
       0.0712027 0.08766558 -0.078675985 -0.054735687
000360 2e e5 6c 3d bb c9 cb 3c 29 47 38 3d 2d eb c2 3d
       0.05783575 0.024876466 0.04498974 0.095175125
000370 f3 2d cc 3d 0e 49 b3 bc 00 92 99 bd 28 7f db 3c
       0.099697016 -0.021885421 -0.074985504 0.026794031
000380 dc 7a ad 3c d7 34 f0 3c 6b a4 d7 3d 8e 5b fb 3b
       0.021176748 0.029322071 0.10529407 0.0076708263
000390 9f 9c b8 bd 5a d8 ab bb 1c 71 a5 3d 4c 5c 1a 3c
       -0.09014248 -0.005244297 0.080782145 0.009421419
0003a0 f6 11 61 3d 38 fc f4 bc c9 be 1b 3d d1 72 b0 3d
       0.05494877 -0.029905424 0.038023744 0.086156495
0003b0 6e af b9 bd dc b9 aa bc 15 6d ec bc 89 ae ce bd
       -0.09066664 -0.020840578 -0.028860608 -0.10091884
0003c0 1d f4 7f 3c d2 db 4f 3d a3 df 29 3d 02 7e 43 3d
       0.015622166 0.050746746 0.041473042 0.047727592
0003d0 99 b0 be bd d0 b0 14 3d 17 45 ba bc 47 14 ab 3d
       -0.09311027 0.036301434 -0.022738023 0.08353477
0003e0 f4 61 03 bd 42 db 8c bd 7e eb 83 bc e0 9a 15 bc
       -0.032075837 -0.068777576 -0.016103502 -0.009131163
0003f0 a5 1b 8f bc f2 05 64 3b ed cd c2 bd 7c eb e1 bc
       -0.017469237 0.0034793583 -0.095119335 -0.027578108

net.2.module.0.bias f4 [32]
000000 05 50 15 3c 7a b9 55 3c 2c 9f 8a 3b 58 b7 ec 3b
       0.009113316 0.013044709 0.0042304005 0.0072240047
000010 1b 76 97 bd bf e2 54 3d 18 21 cc 3d 7a 70 92 3c
       -0.07395574 0.051974054 0.0996725 0.017875899
000020 75 93 95 bd f2 9e 5e 3d a8 41 dd bc 0e 8e 2b 3c
       -0.07303516 0.0543508 -0.027008846 0.01047088
000030 82 72 e5 3c 15 73 82 3d 44 71 ce 3d 73 26 e7 bc
       0.028008703 0.063696064 0.100801975 -0.028216576
000040 e0 e9 51 bd 0b 05 67 3d 3c 80 a4 3d 22 49 25 3d
       -0.05124843 0.056401294 0.08032271 0.040352948
000050 ba ef 85 bd ca ec 8e 3d 04 65 15 bd 37 6b 8d 3d
       -0.06539865 0.06978758 -0.03647329 0.06905215
000060 6b 20 a0 bd 54 26 a1 3a a3 c8 c0 3d 50 cb 79 bd
       -0.07818683 0.0012294748 0.094132684 -0.06098491
000070 67 40 94 bd fc d4 62 ba 31 58 a9 bd d5 f4 4a bd
       -0.07238846 -0.0008652953 -0.08268774 -0.049549896

net.3.module.0.weight f4 [32, 32, 3]
000000 4d 8e 58 bd fd eb 34 3d ca 47 9b 3c 96 c7 81 3d
       -0.052870084 0.04417037 0.01895513 0.06336896
000010 66 7b c1 bd c3 e0 34 bd 0d 3d 9c bd 50 77 e6 bd
       -0.094473645 -0.044159662 -0.07628832 -0.11253226
000020 14 25 50 3d ca 48 9f bd b3 4f 74 3d 55 16 16 bd
       0.05081661 -0.07777555 0.05964632 -0.03664239
000030 32 83 98 3d 6f a2 b6 3d 0a 9e 86 3d 2b 51 38 bd
       0.074468985 0.089177005 0.06573112 -0.044999283
000040 85 ae 5b bd 68 e4 86 bd 9a 96 2b 3d 90 1a 57 3d
       -0.05363323 -0.06586534 0.04189167 0.052515566
000050 da e6 fa 3d b4 e5 b4 3c 33 7c ca bb 40 9f 95 bd
       0.12251063 0.022082187 -0.0061793565 -0.07305765
000060 e4 2d 8e 3d bc 65 c4 bc 7d b6 04 3d b0 61 ac 3c
       0.06942347 -0.023974292 0.032400597 0.021042675
000070 fc 2b 8f 3d 15 7d 55 3d a8 bb 58 3c 9c be a9 bd
       0.06990811 0.05212124 0.0132283345 -0.08288309
000080 03 d2 25 3d 45 29 c6 3d 47 f1 a1 3d 7a 6f ab 3d
       0.040483486 0.0967584 0.07907348 0.08370872
000090 29 f8 36 3d 7d 27 b9 bd 78 9a e3 bd f6 03 6e 3d
       0.044670258 -0.09040735 -0.11113447 0.058109246
0000a0 7e 5d 02 bd 11 bf a0 3c b7 b0 93 bd f8 2a 92 3d
       -0.031827442 0.019622358 -0.0721144 0.07137102
0000b0 8e 85 9f 3d 6f 57 b6 3d ba 7e 3f 3c 19 9a 0e bd
       0.077891454 0.089033954 0.011687929 -0.034814928
0000c0 1f ef 28 bd ad 53 98 bd e8 76 b2 3d 71 a7 2f bb
       -0.04124367 -0.07437835 0.08714086 -0.0026802684
0000d0 86 b4 52 3c 04 d3 87 3c 76 47 55 bd d4 3b c9 bd
       0.012860423 0.016580112 -0.052070104 -0.098258644
0000e0 c1 16 2f 3c 11 87 8a 3b 72 3d e5 3b f7 e8 8a bc
       0.010686577 0.004227527 0.0069958502 -0.01695679
0000f0 c3 ba 89 bd f8 84 b1 bc c7 03 55 bd 1f c2 95 3d
       -0.06725075 -0.02166985 -0.052005555 0.07312416
000100 4b d4 7e bd 7f fe a2 3d 49 09 e9 bd 6c 1f 53 3c
       -0.062214177 0.079586975 -0.11378724 0.0128859095
000110 d4 ca 4a 3d a5 2e 3d 3d 22 3d 2e 3c 38 8d 8c 3d
       0.04950984 0.04618706 0.010634692 0.06862873
000120 cb 91 51 3d 57 9a a2 bd 5f 6c d8 bd ae af 5e bd
       0.05116443 -0.07939594 -0.10567545 -0.05436676
000130 43 42 8d 3c 8e 83 c4 bd c7 d1 a4 3d d4 1b 56 3d
       0.01724351 -0.095954046 0.08047824 0.052272633
000140 03 fd 96 bd 99 0a b8 3d 73 8b 39 3d 26 a2 47 bc
       -0.07372477 0.08986396 0.045299005 -0.012184655
000150 39 ff b8 3c 5d 17 c0 3d aa 11 01 bc 95 73 04 bc
       0.022582637 0.09379456 -0.007877747 -0.0080841975
000160 da 56 c3 3d 99 ba 2f 3d ba ff 5a bd c0 9d 4a bd
       0.0953805 0.042902563 -0.053466536 -0.04946685
000170 29 e6 b0 bd 6c 78 67 3d 02 7b 19 bb 94 dc a0 3d
       -0.086376496 0.056511328 -0.0023419266 0.07854572
000180 08 7e b2 bc f6 06 f0 3c 5b dd 9b bd 81 0e 82 bd
       -0.021788612 0.029300194 -0.076105796 -0.06350423
000190 12 0d 45 3d eb a9 b7 3b 4b b4 81 bc a9 2e 0e bd
       0.048108168 0.0056049726 -0.01583304 -0.034712467
0001a0 77 86 7e bc 01 a7 f5 bc 91 85 62 bc d5 24 34 3d
       -0.015534989 -0.02998686 -0.01382579 0.04398044
0001b0 fd 14 d4 bc b8 1d a9 bc b1 66 82 3d 93 53 b0 bd
       -0.025888914 -0.020644054 0.06367243 -0.086096905
0001c0 f4 9d fc 3c 82 b1 24 bd 69 e4 87 3d 65 b1 dc bc
       0.030837037 -0.040208347 0.06635363 -0.026940057
0001d0 b2 5a c0 bb 06 7e 60 bc 1a a1 f5 bc ef 5a d5 3d
       -0.0058701867 -0.013701921 -0.029984046 0.10417735
0001e0 cb 0a 8a 3d e8 7d fe bc d7 8c a4 bc 8a e9 b2 3c
       0.0674034 -0.031065896 -0.020086689 0.021839876
0001f0 fd 1f 46 bc c9 d6 b9 bd aa 87 a6 3b 3e 11 ab 3d
       -0.012092588 -0.0907417 0.0050820904 0.08352898
000200 81 77 8a bc 6b 96 85 bd dd ad b7 bd 87 ea 85 bd
       -0.016902687 -0.065228306 -0.08968709 -0.06538873
000210 2b 3e c0 3d a2 09 33 3d b1 20 70 bd f5 af d8 3d
       0.093868576 0.04371036 -0.058624927 0.10580436
000220 36 59 d3 bc 49 b1 87 39 8f 40 0c bd f8 94 89 bc
       -0.025799375 0.00025881294 -0.034241255 -0.016794667
000230 09 17 3c 3d 2b d2 ea 3c 8e 75 de 3c 7c 5c c0 bc
       0.045920406 0.028664669 0.027155664 -0.0234816
000240 99 94 c3 bd 30 29 ac 3d 81 ff de 3d 93 26 29 bd
       -0.09549827 0.084062934 0.10888577 -0.041296553
000250 65 a4 ef bd 39 9e 56 3d b2 4d 1f 3c ad 1e 6e 3c
       -0.11701278 0.052396987 0.009723114 0.014533681
000260 4a 3c 64 bd fe 0d 0a 3b 7e e3 62 bd a1 8c 97 3d
       -0.05572156 0.002106547 -0.055392735 0.0739987
000270 d3 33 8e 3d c3 f7 e5 bd 57 6f 85 bd ce 93 64 bd
       0.069434784 -0.112288974 -0.06515377 -0.05580502
000280 7f aa c6 3d 37 1d 41 bb fb f8 c5 bd 16 61 31 3d
       0.09700488 -0.0029466876 -0.0966663 0.04330548
000290 ab 21 8a bd 80 6a 26 bc b9 a9 97 bd ea dd a1 3d
       -0.06744703 -0.0101572275 -0.07405419 0.07903655
0002a0 9b a9 41 bd 88 81 17 bd 9c 3a f0 3d 7c 29 1a 3c
       -0.04728089 -0.036988765 0.11729929 0.009409305
0002b0 ab 69 b1 bd 0f 45 96 3c 27 c5 b6 bd 96 f8 29 3d
       -0.08662733 0.018343477 -0.089243226 0.041496836
0002c0 42 8b 50 3d 92 70 d5 3d 5b 7c a4 bd dd 1d d0 bd
       0.050914057 0.10421862 -0.080315314 -0.10161946
0002d0 b7 de 8f 3c 23 ef 5f bc a2 47 b8 bd ef a5 f4 bb
       0.017562253 -0.0136678545 -0.08998038 -0.00746607
0002e0 7e 35 40 bd 1c f0 c8 bd db aa 49 3c 18 53 50 3d
       -0.046926014 -0.09811422 0.0123088015 0.050860494
0002f0 14 a0 d5 3c 1f 14 cd bc e1 5c 1c bd 97 86 3b 3d
       0.026077308 -0.025034009 -0.038174514 0.04578265
000300 14 8e a7 3d e6 64 73 bd b0 48 10 bd 92 e9 29 bd
       0.08181396 -0.059422396 -0.03522557 -0.041482516
000310 54 0f 9b 3d d1 af b2 bd fb 77 8f 3d 4e 81 94 bd
       0.07571283 -0.087249406 0.07005306 -0.072512254
000320 5d eb 3e 3d 01 fb 9a 3d d4 5a 0e 3d 31 2e a3 bc
       0.04661118 0.075674064 0.03475459 -0.019919487
000330 5c 64 4e bd 3d 19 1d bd a7 d9 49 bd f6 a8 2a 3d
       -0.05038868 -0.038354147 -0.049279835 0.04166504
000340 31 0c a1 bd 7c fe 13 bc aa 1f b8 3d b8 56 1c 3d
       -0.078636535 -0.009032842 0.089904144 0.03816864
000350 5d 77 c2 bd 21 ad 81 bd 57 27 f4 bb 79 fa 11 bd
       -0.09495423 -0.0633185 -0.0074509787 -0.03563926
000360 70 ef dc 3d 8c 93 f1 bc df a6 72 bd 0e 6a 31 bc
       0.107878566 -0.029489301 -0.059241172 -0.010828508
000370 ac bf 96 bd 92 21 52 3d dc a5 ad 3d 08 e6 db bd
       -0.07360777 0.051301546 0.08478901 -0.10737234
000380 2d 66 b5 3c 70 24 bd 3d c8 56 ac bd a1 02 61 bd
       0.022143448 0.092354655 -0.0841499 -0.054934148
000390 b7 e2 dc bb b4 8f 6a 3d ea a7 f5 bc bf 17 a6 bd
       -0.0067408937 0.057265952 -0.029987294 -0.08109998
0003a0 1a 84 91 3d a0 4c 9e 3d a9 11 c6 3d e4 43 a7 bd
       0.071052745 0.07729459 0.09671337 -0.08167246
0003b0 74 ff ab bd c5 90 06 3d 08 0f 9b 3d 6f 78 d5 bb
       -0.08398333 0.032852907 0.07571226 -0.006514601
0003c0 4a bf 94 bd b2 2c 24 3d 32 e9 d0 bd 47 11 88 bd
       -0.07263048 0.040081687 -0.102007285 -0.066439204
0003d0 d6 57 a1 3c 2d 4d 85 bd b8 0c bd bd 70 b9 a3 bb
       0.019695204 -0.06508861 -0.092309415 -0.004996471
0003e0 8c 3e e5 bb de e0 7b bd 82 f9 0f 3c d2 ad a4 bb
       -0.0069959816 -0.061493747 0.008787515 -0.005025604
0003f0 0f 20 80 3d d7 07 8e 3d 69 39 12 3c cc 66 5d 3d
       0.06256115 0.06935089 0.00892482 0.054053113

net.3.module.0.bias f4 [32]
000000 08 7c 11 3d 02 e9 3a bd de f5 6e 3d 61 92 96 bc
       0.035518676 -0.04563237 0.058339946 -0.018380346
000010 65 b8 50 bc 79 dd 08 bd 69 5f 76 3b ef f0 be 3d
       -0.012739276 -0.033414338 0.003759349 0.09323298
000020 26 dc 8d bd 2e 97 d7 bc 2c 92 ae 3d 0c 89 0b bd
       -0.069267556 -0.026317205 0.08523974 -0.034066245
000030 0b 20 b7 3d 05 b1 8d bd 88 c2 c7 bc fd e9 03 bd
       0.089416586 -0.069185294 -0.024384752 -0.03220557
000040 b4 c3 3b 3d 50 de b9 bb b7 d3 95 3d c0 9f 27 bd
       0.045840934 -0.0056722537 0.07315772 -0.040923834
000050 dc a2 1b 3d cd a0 fe 3c 0c 09 c5 3c 84 95 71 3c
       0.03799711 0.031082535 0.024052165 0.01474512
000060 63 14 3f bd 25 dc cf bd ab 35 b6 bd 5f a0 ed bc
       -0.0466503 -0.10149411 -0.08896955 -0.029007135
000070 cd be 13 bc 80 e6 d3 bd 4c 11 cb 3d 7b 07 56 3d
       -0.009017658 -0.10346699 0.099154085 0.052253228

net.4.module.0.weight f4 [32, 32, 3]
000000 b3 94 a8 bb cd 01 57 bd 21 cd 8a bd 6d 04 80 bd
       -0.0051446795 -0.05249195 -0.067774065 -0.06250844
000010 a1 f7 56 bd 46 ea 98 bd 10 ce a4 3d ee 25 9f 3d
       -0.05248225 -0.07466559 0.08047116 0.077709064
000020 72 3b 9b bd 9c 79 dc 3a fa 08 9a bc b3 d8 aa 3d
       -0.07579698 0.001682091 -0.018803108 0.08342113
000030 49 06 58 bd f5 06 8f bb 3b da ae 3c 43 d1 60 bc
       -0.05274037 -0.004364843 0.021344295 -0.013721767
000040 21 f3 b6 3d 6e 20 4b bd a3 27 1b bb 1e 21 90 3d
       0.08933092 -0.049591474 -0.0023674748 0.070375666
000050 30 ba 0f bd 61 a5 8d bd 8c a0 aa 3d 04 bf f4 3c
       -0.03508967 -0.06916309 0.08331403 0.02987624
000060 a2 a0 8e 3d 9f 1b bb 3d 51 a7 60 bd 9d e9 aa 3d
       0.06964232 0.09136128 -0.054847065 0.083453394
000070 aa 1a 3e bd 49 6a 11 bd cc cb b7 3d d6 94 93 bd
       -0.046412148 -0.035501752 0.08974418 -0.072061226
000080 1a 43 a1 3d de 6c a4 bd a6 cf 04 bd c1 34 24 3c
       0.07874127 -0.08028577 -0.03242459 0.010022343
000090 6b 60 b5 3d 41 42 28 bd 24 f5 72 bd 84 72 c8 3d
       0.08856281 -0.04107881 -0.059315816 0.09787467
0000a0 76 c0 08 bd 0f cf a2 bd 5a 79 c4 bd 64 4f e0 3d
       -0.03338667 -0.079496495 -0.095934585 0.109526426
0000b0 0e d3 8a 3d a1 a6 cc bc 08 a1 0a 3d e3 3f 88 3d
       0.06778537 -0.024981799 0.033844978 0.066528104
0000c0 da 33 84 3c 81 e3 81 bb 13 c7 c6 3d c7 84 37 3d
       0.016138006 -0.003963888 0.09705939 0.04480436
0000d0 c5 5f f5 bc 3c b9 1b 3d 95 51 7e 3d bb 9b 97 3d
       -0.029952893 0.03801845 0.06208952 0.0740275
0000e0 65 0e 2c bd c9 48 96 3d fe a6 5b bd 59 06 62 3c
       -0.042005915 0.073381014 -0.053626053 0.013795459
0000f0 50 3f 37 bd d7 b1 98 3c f3 a3 ae bd c3 1c b4 3d
       -0.044738114 0.018639488 -0.085273646 0.08794548
000100 71 d1 8f 3d e5 7f 84 bd 59 19 60 bd de c4 ef bc
       0.0702237 -0.064697064 -0.054711673 -0.029268678
000110 bf 1f a0 3d bb 41 df 3d 80 9e 4d bd c8 fc 7e bd
       0.07818555 0.10901209 -0.050199986 -0.06225279
000120 7b 5c 68 bc df e1 b7 3d 3c 01 66 bd 24 92 f8 bc
       -0.014182205 0.08978628 -0.05615352 -0.030343123
000130 4b 52 11 bd 99 bd 69 bd 91 9e cb 3d 91 27 c0 3d
       -0.03547887 -0.05706558 0.099423535 0.09382547
000140 6f a4 c0 3c 1f 68 3a bc 62 72 92 bd 0f 12 1e bd
       0.023515908 -0.0113773635 -0.07150723 -0.03859144
000150 13 89 d5 3c 81 82 b3 bd 60 a7 c4 bd 5e b3 0f bd
       0.026066339 -0.08765126 -0.09602237 -0.035083167
000160 06 fa 72 3d ab 50 a6 bb 3e 71 88 bd 7e 8c 1c bd
       0.059320472 -0.0050755343 -0.06662224 -0.03821992
000170 84 74 25 bb 65 88 2e bd a4 5a 15 3d e7 94 34 3d
       -0.002524645 -0.042610545 0.036463395 0.044087317
000180 94 f9 e1 38 b1 76 cd bc d9 af b6 bc e6 c9 48 3d
       0.000107753236 -0.02508101 -0.022300648 0.04902067
000190 3a ea 39 3b 60 1c 53 3d bf d0 5f 3d 12 a2 2f bb
       0.002836837 0.051540732 0.054642435 -0.0026799482
0001a0 b7 71 72 3d 21 1e 39 3d 28 46 2a bd 6f 98 29 3d
       0.05919048 0.04519475 -0.041570812 0.041405138
0001b0 10 60 66 3d 76 72 16 3d 85 4d 88 3d 1a c4 97 bc
       0.056243956 0.036730252 0.06655411 -0.018526126
0001c0 01 d6 53 bc 31 be 07 3d 75 a1 91 3d bb 1b 57 bd
       -0.0129294405 0.033140365 0.071108736 -0.05251668
0001d0 af e6 0b bd 9c 66 b3 3d 4a ea 38 bc 28 ae 7d bc
       -0.034155544 0.087598056 -0.011286328 -0.015483417
0001e0 32 aa 94 3c 62 6a ba bc 32 c5 94 3d 75 61 72 3d
       0.018147562 -0.022755805 0.072641745 0.059174974
0001f0 b4 ff 0d bd a1 ca e3 bd dc 6f f6 bc 89 0f e1 bc
       -0.034667686 -0.11122633 -0.030082636 -0.027473228
000200 8f 2e d7 ba 45 ce 5c 3d 4b 15 30 ba 86 48 10 3d
       -0.0016417074 0.05390765 -0.000671704 0.035225414
000210 08 fa 89 3d ad 8b 01 bc ed fb ce 3d 7c 67 1d 3d
       0.06737143 -0.007906836 0.10106645 0.03842877
000220 45 61 c7 bd 5e e7 5e ba 94 d8 98 3d cc a9 02 bd
       -0.097353496 -0.00085031043 0.07463184 -0.031900212
000230 7b d4 95 3d 48 07 70 3d e3 9d ad 3d 64 cc bf bd
       0.07315918 0.058600694 0.0847738 -0.09365156
000240 70 97 3e bb e2 1b 97 bc bb ac 36 bd a2 ce 89 3d
       -0.0029081963 -0.018445913 -0.044598322 0.06728865
000250 7f b2 65 bd d8 f3 81 3d 4f ed a0 3c 33 66 a0 3d
       -0.05607843 0.06345338 0.019644408 0.07831993
000260 45 77 8e bd 95 ee 78 3d 08 b6 8d bd 4e e3 cf bc
       -0.069563426 0.060774405 -0.06919485 -0.025376942
000270 bc 0b ab bd e8 cf 8f 3d 97 5a db 3d d8 d0 91 bd
       -0.083518475 0.07022077 0.10710638 -0.07119912
000280 33 f8 2b 3d 61 88 2b 3d 9c a7 c2 bd dc 27 46 3d
       0.041984748 0.041878108 -0.09504625 0.048377857
000290 43 d0 cf bc 87 05 8d ba f0 1f 23 3d 76 b5 99 3d
       -0.025367862 -0.0010759094 0.03982538 0.07505314
0002a0 42 3e 20 bd f0 b6 bc 3d 5c 70 8b 3c 86 54 9e 3d
       -0.039121874 0.0921458 0.01702135 0.07730965
0002b0 92 1d 94 bd 44 ed 61 bc 38 45 b7 3d 56 ac 75 3d
       -0.072322026 -0.013789479 0.08948749 0.059978805
0002c0 d7 e1 34 3d 03 74 9a bd a5 22 71 bd 40 2f ea bc
       0.04416069 -0.07541659 -0.05887093 -0.028586984
0002d0 05 e3 0e 3c 9f ec bd 3d 20 cc 95 bd 3f 17 8d 3d
       0.008721118 0.092736475 -0.073143244 0.068891995
0002e0 c4 05 17 3c 09 85 66 bd 63 d3 13 bd b0 d3 29 3d
       0.009217683 -0.056279216 -0.036090266 0.041461647
0002f0 e7 3d 18 bb 5d d0 13 bd 98 b0 b3 3c cd 1d 0c 3d
       -0.0023230256 -0.036087383 0.021934792 0.034208108
000300 e0 96 e4 bd dc 6e e0 bc d7 11 81 3d d2 8f 6e bd
       -0.111615896 -0.027396612 0.06302231 -0.058242626
000310 fa 3f 19 bd 62 ec e4 bc 73 10 19 3d 36 20 ad bd
       -0.03741453 -0.027944747 0.037369203 -0.084534094
000320 0c f9 87 3d 0e 86 20 bc 4b 5e 7e 3d 8a 93 aa 3d
       0.06639299 -0.009797586 0.062101644 0.08328922
000330 e4 0e 3d bd 82 82 fd 3c f4 df cf bc 1f 1e 53 3d
       -0.04615678 0.03094602 -0.025375344 0.051542398
000340 df e5 ae 3d ad 1c a9 3d 10 e1 9d 3c fb 3f b4 bd
       0.08539938 0.082574226 0.019272357 -0.08801266
000350 73 6e c3 bd a3 4c 36 bd 8a 09 10 bd 6c 9f 85 bd
       -0.09542551 -0.04450668 -0.035165347 -0.06524548
000360 9b 88 1e bd 91 1c 81 3d d5 23 d2 3c 4e 30 ad bd
       -0.038704496 0.06304277 0.025651852 -0.08456479
000370 91 bb 33 3b 4d f9 86 bc 02 8e df 3d 90 e4 a1 bd
       0.002742503 -0.016476298 0.10915758 -0.07904923
000380 2a 5c 8a 3d 75 7f 8f bc f2 f1 ce 3d 49 81 ce bd
       0.0675586 -0.017516831 0.10104741 -0.10083253
000390 01 93 b9 bd ab 49 04 3d 0d 3e b5 bd 03 18 c5 bd
       -0.09061242 0.032296818 -0.08849726 -0.096237205
0003a0 a4 dc 81 3d 78 32 bb 3c a3 a9 54 bd 36 4d 2b bc
       0.06340912 0.022851214 -0.05191959 -0.01045542
0003b0 cf e4 a4 bd 9f df 6c 3d 56 6c d4 bc bb 76 03 bd
       -0.08051454 0.05783045 -0.025930565 -0.032095652
0003c0 05 7c 96 bd 20 c5 3a bd b8 ca 02 3c 18 ca ce 3d
       -0.073478736 -0.04559815 0.007982902 0.1009714
0003d0 ed 35 41 bc 31 f0 74 3d 93 75 62 bd 80 69 08 bd
       -0.011792642 0.059799377 -0.05528791 -0.033303738
0003e0 b1 1f b9 bc 34 7f 13 3d cb 1c 66 3d 3b c1 6f bd
       -0.02259812 0.036009982 0.056179803 -0.05853389
0003f0 f4 8e 72 bd 51 c3 c9 3d 67 50 83 3d f1 68 33 3d
       -0.059218362 0.09851707 0.0641182 0.04380125

net.4.module.0.bias f4 [32]
000000 ab 93 6b 3d d2 f2 05 3c 01 23 a3 3d 18 3e bd bd
       0.057513874 0.008175569 0.07965661 -0.09240359
000010 ec 8e 9d 3c 62 3a 8f 3d 6d 23 9d bd 01 72 11 bd
       0.01923319 0.069935575 -0.076727726 -0.035509113
000020 d6 7c 90 bd 91 21 b4 bd b4 22 e5 bc 73 d3 0f bd
       -0.070550606 -0.08795465 -0.02797065 -0.035113763
000030 80 07 a0 bd 1a 19 bb bd aa e5 4c bd 6f 44 16 bd
       -0.078139305 -0.09135647 -0.050023712 -0.036686357
000040 ee 86 af bd b6 b7 74 bc 7d 5a 98 bd 99 c7 5d 3d
       -0.08570658 -0.014936378 -0.07439134 0.05414543
000050 9d 40 a4 3d de c9 8c bd 03 32 c8 ba d2 6c 8e 3d
       0.080201365 -0.068744406 -0.0015273694 0.069543496
000060 86 21 a9 bd b5 5f aa bd 9b 9c e2 bc 27 c1 50 bd
       -0.08258347 -0.08319036 -0.027662566 -0.050965454
000070 1c 96 b0 3c 17 3c 03 bd 36 1b d2 bd 6d 75 70 bd
       0.021555953 -0.032039728 -0.10259096 -0.058705736

net.5.weight f4 [8, 32, 3]
000000 d6 7b 71 bd 6a 7e d1 bc 17 4a 5d 3d 70 a0 b7 bd
       -0.05895599 -0.025572974 0.054025736 -0.08966148
000010 5f fe a6 bd b6 17 ab bd 5d d8 2c bd d5 39 4b 3d
       -0.08153986 -0.08354132 -0.042198528 0.0496157
000020 24 c2 a9 3c e6 0b 86 bd ab a9 d5 bc 39 fe c5 bb
       0.020722456 -0.06545238 -0.02608188 -0.0060422686
000030 42 f2 50 3d 03 79 a7 3d f5 ee ab bd d3 80 73 3d
       0.051012285 0.08177378 -0.08395187 0.05944903
000040 c4 83 d2 3c 13 e0 2e 3d 20 53 30 3d 42 df c3 bd
       0.025697596 0.042694163 0.043048024 -0.095640674
000050 dd 3e cf bd 16 b1 c8 3d 69 c4 d8 bb 09 06 8c bd
       -0.10119412 0.097994015 -0.006615211 -0.068370886
000060 19 3b 6e 3d da 0f af 3d 7c b9 c7 bd 8b 9b e3 3d
       0.05816183 0.08547945 -0.09752175 0.11113652
000070 8b 74 50 bb 7e c2 1a bd 66 8e c0 3d 3b ea b1 bd
       -0.0031807746 -0.03778314 0.0940216 -0.08687254
000080 f6 0e 93 3d ef 37 07 3d b8 97 8f 3b 52 a8 03 bd
       0.07180588 0.033012327 0.0043821 -0.032142945
000090 72 1f b8 bb 05 dc 27 bb 14 20 cc bd 64 95 36 3c
       -0.005618983 -0.002561332 -0.09967056 0.011144016
0000a0 31 4b 79 3d c4 46 b0 3d 58 3c 88 bc 41 5b 8b bd
       0.060862724 0.086072475 -0.016630337 -0.06804515
0000b0 a7 df 8a bd 4b a9 34 3d 3f 41 4c bd 05 b7 c7 bb
       -0.067809395 0.044106763 -0.04986691 -0.0060948157
0000c0 2d 3a da 3d e4 67 8f bd 3e 52 7d 3c 08 4f aa 3d
       0.106556274 -0.070022374 0.015461503 0.08315855
0000d0 0d 34 3e 3d 79 c1 c7 3c 9c 0d e6 bc 60 fb 6e bd
       0.04643636 0.024384247 -0.028082661 -0.0583452
0000e0 4e a1 9b 3d af 2f 44 3d 55 49 2c bd f6 51 d6 bd
       0.07599126 0.047897037 -0.042062122 -0.104648516
0000f0 0f 5c 9f bb a3 dc 1d bc 45 85 8a 3d 04 f7 31 bd
       -0.004863269 -0.009635123 0.067637004 -0.043448463
000100 fd 39 11 bc b9 38 92 3d bb be 24 3d 90 50 89 3d
       -0.008863923 0.07139725 0.040220957 0.06704819
000110 33 78 41 bd 88 80 84 3c b2 12 32 3a 69 92 1d bd
       -0.04723377 0.01617457 0.0006792947 -0.038469706
000120 b6 4e b5 bd 19 13 9d bc 15 7c 35 3c 53 e0 99 bb
       -0.088529035 -0.019174146 0.011076947 -0.004695931
000130 0b 98 89 bd 2f d6 bc 3d 2f 04 8a 3c 6d c7 5f 3d
       -0.06718453 0.0922054 0.016847698 0.054633547
000140 ba d3 ae 3d a0 7d f7 3c 49 af 40 bd 8a 1e be 3d
       0.085364774 0.03021127 -0.047042165 0.092831686
000150 18 d4 9e 3d 03 ec c4 bc bd 83 14 3d 65 f2 d8 bc
       0.077552974 -0.02403832 0.036258448 -0.02648277
000160 a1 c5 52 3d ee 1c a8 bd f3 d1 dc bc 64 01 87 bd
       0.051458005 -0.08208643 -0.02695558 -0.06592062
000170 45 cd c3 bd 3e aa b8 bd ac 9e a6 3d 98 f2 ce bd
       -0.095606364 -0.09016846 0.08135733 -0.10104865
000180 1e ab 00 3e 88 6b 0d 3b b7 79 35 bd c7 b7 26 bd
       0.12565276 0.0021578986 -0.04430553 -0.040702607
000190 1c c7 2a bd 5a c9 86 3d 06 7e 64 bd a3 28 35 bc
       -0.04169379 0.065813735 -0.055784248 -0.011057052
0001a0 fa 59 c4 3d 3f fe 82 3d bb b6 18 bd ac fd 8b bd
       0.09587474 0.0639615 -0.03728364 -0.068354934
0001b0 2d 6d 61 3d b4 18 b2 3d 70 03 aa 3c 43 70 ab 3d
       0.05503576 0.08696118 0.020753592 0.083710216
0001c0 63 45 9a bc 00 b3 22 bd 6f 50 aa bd 8d e5 e3 3d
       -0.018831914 -0.03972149 -0.08316123 0.11127768
0001d0 47 eb 5e bd 9b 55 22 bc 3a e2 aa 3d 44 23 e4 bd
       -0.054423597 -0.009908105 0.083439305 -0.11139539
0001e0 2f 4a 22 bd 4b 5d b4 bd 06 dd 8a bc 72 cc bc 3d
       -0.03962153 -0.08806857 -0.016951095 0.09218682
0001f0 38 ab 99 3c f2 f1 ec bd ff 96 c7 3c 3b 30 61 bd
       0.018758401 -0.11569585 0.024363993 -0.054977637
000200 fc 73 75 bd 89 2a 26 bd 7d f1 b1 3c ee 74 3f bd
       -0.059925064 -0.04056791 0.021721596 -0.046742372
000210 41 b8 25 3d 97 5c 87 3d 9c bb 2d 3d 5d 29 a5 3d
       0.04045892 0.06609457 0.042415246 0.0806453
000220 76 bd ca bb d1 6c 30 3d 99 4b 4d 3d 92 57 03 3e
       -0.0061871363 0.043072525 0.050120924 0.12826374
000230 55 39 99 bc fc 2e 82 bd 9f 39 c7 bd 21 5b fa 39
       -0.018704096 -0.06356618 -0.09727787 0.00047751612
000240 39 2c 0a 3d 5d ba 2e bd b4 9d 8f bd 95 68 48 bd
       0.03373358 -0.0426582 -0.07012501 -0.048927862
000250 f3 e9 4a bd 83 67 76 3c 27 29 07 3d eb b7 7d bd
       -0.049539518 0.015039328 0.03299823 -0.061942976
000260 bd 33 b0 bd db 61 01 3d 67 54 e7 3c 6b 4b 6f bd
       -0.08603618 0.031587463 0.028238488 -0.058421534
000270 2d 36 79 3d 6a f0 80 3d e8 27 c6 bd 4e 19 c7 bc
       0.06084268 0.06295855 -0.0967558 -0.024304058
000280 d6 19 1f 3d 83 e9 30 bc 74 fb de 3d 9d f8 55 3d
       0.038843 -0.010797861 0.108878046 0.05223905
000290 40 1c 70 3d aa 77 cd bd 2e 9a 03 bd c3 72 ac 3d
       0.05862069 -0.1003259 -0.03212946 0.084203266
0002a0 85 57 de 3a 95 83 d4 bd 1b 4a 77 3d ef ce c9 bd
       0.0016963339 -0.1037666 0.060373407 -0.098539226
0002b0 28 c4 74 3c cf b0 9d 3d 7c da 87 bd 94 98 c3 3d
       0.014939345 0.07699739 -0.066334695 0.09550586
0002c0 20 c0 bc bd f0 33 c4 bd db e8 be 3d 0b 0b 27 3d
       -0.092163324 -0.09580219 0.093217574 0.040782016
0002d0 51 d5 9c 3d bc 8b 4e bd f1 ed 74 bd 2f 4a c5 bd
       0.076578744 -0.05042623 -0.05979723 -0.0963329
0002e0 de 4d b6 bc 4e fe 60 bb 24 84 81 bc 1f c0 04 3d
       -0.022253927 -0.0034331265 -0.01581008 0.032409783
0002f0 35 a7 ae bb 1f 0f 0e 3d cd 9b da bd 60 93 77 bd
       -0.005329991 0.03468239 -0.10674248 -0.060443282
000300 68 7b 4d 3d df d1 c4 bd 51 56 cb 3d 24 28 66 bd
       0.050166517 -0.09610342 0.09928573 -0.056190625
000310 02 51 aa bd ba fb cf 3d 77 f8 5e 3d c8 18 39 3d
       -0.08316232 0.10155435 0.054436173 0.04518965
000320 23 f2 68 bd 3d 9a 8d bd b8 68 4d bd ea 5b c3 bd
       -0.056871545 -0.06914184 -0.050148696 -0.095390156
000330 87 db e0 3c 73 af b4 bc 5c a5 7a 3b 61 43 3e 3d
       0.027448429 -0.022056317 0.0038245535 0.046450976
000340 57 4f be bc fa f9 3d 3d 8e 5e 42 bd db 6a 24 bd
       -0.023231192 0.046380974 -0.047453456 -0.040140968
000350 4b f2 9e 3d cf 45 05 3d 05 3b 8b bd c4 65 4e bd
       0.077610575 0.032537278 -0.067983665 -0.05039002
000360 2d 6e eb bc 8f 98 08 3d 93 ef eb 3d 0e 24 e8 bc
       -0.02873906 0.033348616 0.115203045 -0.028337505
000370 e9 c2 d7 bd dd 01 7f 3d eb 87 f6 bc 13 4b 11 bd
       -0.10535223 0.062257636 -0.030094108 -0.035471987
000380 fc 6f 63 bd 81 b5 9c 3d 2f 6d ba 3d 20 a1 81 bd
       -0.05552672 0.076518066 0.09102856 -0.0632956
000390 bc df 32 bd 9f ee 8e 3d 07 f1 14 3d 73 25 b8 bd
       -0.0436704 0.06979107 0.036362674 -0.08991518
0003a0 8f a4 79 bd a3 9c 1f 3d 8a 16 61 bd 29 e7 a5 3d
       -0.06094795 0.03896774 -0.054953136 0.08100731
0003b0 ee 2b 69 bd c2 3c ae 3c 8d 15 3f 3d 1d 7e 21 3d
       -0.05692666 0.021269206 0.04665141 0.03942691
0003c0 98 8a c0 bc b3 38 fd 3c 9d fe fe bb d4 6a 92 3d
       -0.023503587 0.030910825 -0.007781817 0.07149282
0003d0 fe 24 66 bc b5 80 20 bd 5d 78 93 3d 4d 8d 51 3d
       -0.014046906 -0.039185245 0.07200692 0.051160146
0003e0 26 25 c5 bd 2a 0d 56 3d 17 38 eb bb 4d 32 d4 3d
       -0.09626226 0.052258648 -0.0071783173 0.103611566
0003f0 03 03 40 3d 72 9b 2f 3d 18 ad 82 bb e0 bd 15 3c
       0.046877872 0.042872854 -0.0039879195 0.009139508

net.5.bias f4 [8]
000000 a4 8d 66 3d ca c1 9e bd 98 23 8a bd ca 64 5f 3d
       0.056287423 -0.07751806 -0.0674507 0.05453948
000010 4f 66 93 3c 11 87 74 3d 5b 69 30 bd 8c 26 75 3c
       0.01799312 0.059699122 -0.043069225 0.014962804

exp_avg f4 [32, 120, 2]
000000 f0 6c bc 39 65 f1 1a b7 78 84 e1 38 62 8c d1 38
       0.0003593932 -9.235319e-06 0.0001075351 9.992045e-05
000010 4d 43 03 3a 98 b7 a7 ba 28 2c e2 b9 79 86 5e 3a
       0.0005007282 -0.0012795804 -0.00043138978 0.0008488666
000020 9c 2a 5e ba 0c 44 f4 b9 07 9e 0d bb 66 f5 66 3a
       -0.0008474977 -0.00046590006 -0.0021609084 0.0008810371
000030 ab 58 df 38 1b 19 af b6 78 12 c0 39 9b fe 1a 3a
       0.00010649984 -5.218329e-06 0.00036634854 0.0005912573
000040 da de 19 3a 39 58 3f ba 6e 1f 14 37 83 b2 62 b8
       0.0005869694 -0.0007299218 8.828805e-06 -5.404885e-05
000050 dc 94 0d b9 3e c4 03 39 83 9a 95 b9 4e 77 c3 b9
       -0.00013502262 0.0001256624 -0.00028534615 -0.00037282187
000060 e8 20 37 b9 fb 36 7f b9 75 53 bf ba 36 52 1b 3a
       -0.00017464499 -0.00024339177 -0.0014597016 0.0005925031
000070 3a c1 0d bb 97 54 a7 39 75 a7 42 3b 9b 63 8b ba
       -0.0021630065 0.00031915747 0.0029701863 -0.0010634543
000080 8d c4 d2 38 3b 67 ca b8 74 c2 2f b9 b7 b1 a7 b9
       0.00010050191 -9.651339e-05 -0.0001676174 -0.0003198513
000090 8c 47 e3 b9 d5 6c 5d b9 1d 60 05 ba a3 14 01 3a
       -0.0004335012 -0.00021116745 -0.00050878694 0.00049240346
0000a0 c7 b1 2b 3b 54 42 56 39 25 0c 9c 38 5c 4c 2e 39
       0.0026198493 0.0002043334 7.440922e-05 0.00016622379
0000b0 6b 25 b4 39 73 85 00 3a 39 d6 25 39 53 54 07 3a
       0.00034360154 0.0004902698 0.0001581543 0.00051624066
0000c0 fd 45 5f 39 13 84 36 3a 1d e9 3d b6 c5 ff 8b b9
       0.0002129301 0.00069624296 -2.8298884e-06 -0.0002670271
0000d0 85 f4 1a 3a 37 47 48 b8 de 25 6f b8 45 15 cd 38
       0.000591107 -4.775004e-05 -5.7017307e-05 9.7791235e-05
0000e0 a0 25 55 39 c5 b8 59 b9 5e 84 b2 b9 00 93 2c 39
       0.0002032728 -0.00020763565 -0.00034049427 0.0001645796
0000f0 94 d8 8b 39 ee e2 d1 b9 38 c9 4b 39 57 a2 83 39
       0.0002667351 -0.00040032662 0.00019434548 0.0002510722
000100 74 49 03 37 f9 c8 d2 b7 9c 30 fa 38 39 3e 01 3a
       7.825311e-06 -2.5127536e-05 0.00011929983 0.00049302314
000110 54 ca a0 38 1d 88 1b 3a 7b ac 8b b8 b5 54 ae b7
       7.667081e-05 0.0005933063 -6.6601635e-05 -2.0781861e-05
000120 f3 27 cc 39 db 64 25 3a fe 07 93 b8 a8 53 17 39
       0.00038939677 0.0006309279 -7.010995e-05 0.00014431647
000130 bf 2a a8 b8 1d 8a d6 37 00 00 00 00 00 00 00 00
       -8.018826e-05 2.5575102e-05 0.0 0.0
000140 ab ca fa 3a ff 81 a1 39 5c 69 4c ba 46 07 f6 b8
       0.0019133886 0.00030805168 -0.0007797682 -0.00011731549
000150 b2 bb d3 b7 1c 71 fb 36 a0 dc f5 37 f0 da 2e ba
       -2.5240563e-05 7.4935506e-06 2.9309012e-05 -0.00066701975
000160 e9 99 ae 39 c5 eb 9a 39 a4 06 0b 39 10 5b cb b8
       0.00033302538 0.0002954883 0.00013258547 -9.696756e-05
000170 92 55 3e ba cc a8 a6 ba 63 d4 b5 b9 23 d8 24 ba
       -0.0007260676 -0.00127151 -0.0003468125 -0.00062883104
000180 e8 63 70 b9 78 51 83 b9 75 60 8b 39 dc b4 45 39
       -0.00022925402 -0.00025046966 0.00026584012 0.0001885476
000190 a3 e1 0a 3a a2 66 16 b9 03 37 52 ba ed 5d 20 bb
       0.0005297905 -0.00014343348 -0.00080190616 -0.0024470047
0001a0 6b 12 bf ba 96 3b c6 ba 9f 5c 43 ba 41 d3 99 ba
       -0.0014577633 -0.0015123959 -0.0007452461 -0.0011735932
0001b0 20 ec 84 b8 2f 24 03 ba 92 7d 27 ba ca 54 11 b9
       -6.338232e-05 -0.0005002645 -0.0006389256 -0.00013859864
0001c0 fa 9f b0 ba 1f 55 4f 3a 99 ad 7a 39 0c bf a8 b8
       -0.0013475411 0.00079091074 0.00023906528 -8.0464495e-05
0001d0 c0 e3 14 ba a3 6c 9c b9 d9 cc 6f b9 d2 0f bf ba
       -0.00056796893 -0.0002983558 -0.00022869128 -0.0014576858
0001e0 29 94 77 3a 3b 26 a3 3a a7 d6 06 37 e9 b0 83 38
       0.000944438 0.0012447307 8.037e-06 6.279519e-05
0001f0 da bc 85 39 b3 f8 3b 37 7b c0 2d ba d9 70 53 3a
       0.00025508442 1.1203973e-05 -0.0006628108 0.0008065827
000200 7d 9f 53 b8 39 e5 46 3a b8 f4 0e b9 d3 30 b1 36
       -5.0454855e-05 0.00075872574 -0.0001363334 5.280695e-06
000210 5e 2c a8 39 d1 77 53 39 50 02 48 ba ea b1 c6 3a
       0.00032076513 0.00020167163 -0.0007629739 0.0015159224
000220 ca 7f 5d 38 02 81 19 b8 8b 15 1e 39 cf 62 7c 3a
       5.280952e-05 -3.659819e-05 0.0001507608 0.0009627761
000230 2d 03 c0 39 dc 17 79 b8 f2 f2 81 3a 34 cc c4 39
       0.0003662346 -5.9388447e-05 0.0009914322 0.00037536176
000240 57 a4 a0 b8 e2 bc 2c 3a f4 59 c5 37 78 1a 85 39
       -7.660005e-05 0.0006589425 2.3526118e-05 0.00025387458
000250 b5 34 d9 39 4f 27 e9 39 05 4c 0f b9 a4 b6 75 37
       0.00041428735 0.0004447051 -0.00013665862 1.4645662e-05
000260 04 dd 73 b9 3d 9a 69 b8 e9 9b 81 39 9a 0f 4f 3a
       -0.0002325662 -5.5695175e-05 0.0002472096 0.0007898748
000270 82 68 82 3b 74 9d e0 3a b5 28 64 ba cd 89 6a ba
       0.0039797435 0.0017136768 -0.00087035756 -0.00089469255
000280 71 da 01 3b 98 6b f8 3a 40 91 55 39 e5 2f 9c b8
       0.001981404 0.0018952964 0.00020367373 -7.447581e-05
000290 b9 cf 17 ba c9 11 86 39 14 dc a5 3a f4 18 c0 3a
       -0.0005791146 0.00025571723 0.0012654089 0.0014655874
0002a0 90 8e a6 b9 24 54 a6 b9 89 d4 ab 39 f8 a0 b1 39
       -0.00031768205 -0.00031724677 0.00032774013 0.00033880002
0002b0 e6 b4 be b6 eb 41 85 3a e6 b5 6c ba a8 8d 88 ba
       -5.6835006e-06 0.001016674 -0.00090297905 -0.0010418193
0002c0 61 d6 2e b9 32 5b b2 39 28 7a 28 b9 62 dc 3b b9
       -0.00016673795 0.00034018751 -0.00016067235 -0.00017915809
0002d0 9f 35 db 38 c8 76 b7 b9 fe 50 42 38 21 3d 84 b8
       0.000104527215 -0.0003499298 4.6328634e-05 -6.3056366e-05
0002e0 50 65 00 3b 46 02 10 3a 51 7b 0d 3a 77 cf dc b9
       0.0019591637 0.0005493503 0.0005397099 -0.00042116243
0002f0 46 fe 4d 38 e6 e8 05 3a 9b c1 0e 39 34 bc d2 b6
       4.911262e-05 0.0005108252 0.00013614299 -6.2803974e-06
000300 90 d1 16 ba d3 0e 2e ba c2 93 72 b7 55 aa a2 b8
       -0.0005753273 -0.0006639782 -1.4458727e-05 -7.756489e-05
000310 4a b3 92 38 57 42 90 3a 2b aa b7 b9 da 55 be 39
       6.995218e-05 0.0011006099 -0.00035031265 0.00036303588
000320 7d c0 31 ba 13 23 d0 3a 0e f0 a7 39 17 e2 8e 38
       -0.0006780697 0.0015879594 0.00032031577 6.8132e-05
000330 35 6a 32 ba b4 8b fa b9 4d 2f 24 b9 3e e2 88 b9
       -0.0006805987 -0.00047787803 -0.0001565788 -0.00026108505
000340 99 47 08 3a 52 f1 58 3a f3 e8 21 b6 e4 f0 e7 b7
       0.0005198657 0.00082757056 -2.4126464e-06 -2.764952e-05
000350 4e 20 6f ba af 68 9a b9 7f c8 f2 b7 94 4c 6a 39
       -0.000912194 -0.00029451164 -2.8942011e-05 0.00022344507
000360 e1 64 b7 b8 1f 33 95 39 32 c3 8d 39 84 dd 78 ba
       -8.74491e-05 0.00028457583 0.00027039048 -0.00094934576
000370 e1 8d c7 ba b5 99 f3 ba 1f 5f 00 ba 00 a7 44 3a
       -0.0015224778 -0.0018585237 -0.00048969866 0.00075016916
000380 0f 4c 19 39 64 81 7a ba 47 74 e9 38 02 4e eb 38
       0.00014619551 -0.0009556024 0.00011131964 0.00011220203
000390 c3 0b ce 39 4f 0d 75 b9 88 6b b9 3a 26 60 42 39
       0.00039300145 -0.00023369979 0.0014146427 0.000185371
0003a0 36 a7 a8 b8 13 75 60 ba 0e 45 94 ba d3 10 03 3a
       -8.04201e-05 -0.00085623673 -0.0011312084 0.00049997604
0003b0 e1 01 69 b9 f8 c4 20 ba 6b 89 3f 39 5e 27 ff 38
       -0.00022221312 -0.0006132866 0.00018266372 0.0001216668
0003c0 90 8a 88 39 62 a0 d5 38 1d 70 19 ba 47 74 3c ba
       0.00026043179 0.00010186505 -0.0005853193 -0.00071889575
0003d0 69 b5 a4 ba 18 1a b6 ba d5 f9 2a ba 6e a0 db ba
       -0.0012566271 -0.0013893275 -0.0006522213 -0.0016756186
0003e0 fc 37 51 b9 55 a4 08 b9 41 f8 12 3a 09 45 70 3a
       -0.00019952649 -0.00013031189 0.0005606451 0.00091655605
0003f0 55 16 44 39 d9 77 83 b9 c6 4f 0e 3a d9 62 0d b9
       0.00018700336 -0.0002507556 0.0005428757 -0.00013483631
