data/Figure3_Supplement/032/checkpoint_0004000.pth (torch, 239809 bytes, 31 tensors)

net.0.weight f4 [32, 120, 2]
00000000: 8c1c dd3d 5b20 babc a169 8d3b 3505 62be
00000010: e6f1 34bc 0ca9 e5bd 820a 9b3d dd52 033c
00000020: 4e0b 9cbd 06b9 613d ecac 96ba 9163 68be
00000030: 1732 d3bb 8667 403d 62c5 4b3d c338 7b3d
00000040: aeaa 27be b9b3 2e3d 7d0c b2bd 51bc 3abd
00000050: bed1 9bbd dd01 c63c 2404 26bd 7057 1bbe
00000060: f5ec 063d d7f6 3bbe f57b 61bd 44fb c5bd
00000070: e9f4 9bbd a7f5 7fbc 488d 82be 0b96 12be
00000080: 426b d23d 5d03 5cbd ed07 763d 74cb 03be
00000090: 80ee e3bd 4a3d b8bd 1ea0 9cbd 3c2c acbd
000000a0: 4848 8fbd f8d0 7d3c d6b4 b13d f90b f5bd
000000b0: 04f1 e33b 8fac b1bd 2a3f 86bd 81f5 9cbd
000000c0: 72bc b33d 943b 5c3d 577e 1fbd de89 6dbd
000000d0: f0f9 f2bd 5dd3 29be 8dbd 13bd 05e1 07be
000000e0: 9091 5d3d 82c3 37bc 6753 6c3c 86f3 d3bd
000000f0: 7a95 3f3d 2ac9 6d3d 6465 983d a155 613d
00000100: f87a 67bc 2dde ca3a 08e2 ab3d 84bf 94bd
00000110: 8ed7 8ebc d1f6 2d3d 375b 2cbe 6936 8cbd
00000120: 3b9c bcbc f81d 14be d477 9d3d e4e3 b73d
00000130: cd78 e0bc 8b97 8fbd dba1 06bd 542b 2dbd
00000140: ff13 ce3c 764b 43bd c8ba bebc 71dd 413d
00000150: 584c 7bbd 570b d43c e8b8 923d 1bb0 153d
00000160: 7134 573d 22ca 953c ff19 423c 5d37 7dbe
00000170: 1d3b 303c 8c43 543d e132 4f3d 5676 a83d
00000180: 8876 983c b696 6cbc a51e 9dbd f7db 2bbd
00000190: 6d74 763d 6488 033d 21fb 90bc f7b2 afbc
000001a0: 6840 daba 9411 17bd 7555 51be 3f48 83bd
000001b0: 9cfc 003e 455a 7ebd b249 f9bd a8d1 893d
000001c0: 1deb c73d 5c1d 0fbe ac77 b43d 418d 983c
000001d0: 9e18 3abe ba65 25bd ddea 87bc 8a35 00bd
000001e0: 3388 90bc 3155 a53d 2929 2bbd d3f3 0dbe
000001f0: 7e1b 513d 79a1 2a3d 1282 2fbe 5844 3c3d
00000200: 5471 5f3d 4d27 bbba 00be 67bd e44c 463c
00000210: 4f0c 043e 2e8f a2bd 99eb 09bd c9bc 103d
00000220: 8949 ee3c 5613 bdbd d03b fb3d 4a17 473d
00000230: 9301 c43d 3000 eabd c11f 993c 864c 6ebd
00000240: ee89 a43d 5818 0bbc e396 9f3d 74c3 3a3d
00000250: 527f ee3d 2fe4 8f3c 72ec c3bc e659 cb3d
00000260: 2b00 0dbc f580 633d 748a 17be 8cf9 893d
00000270: ad03 5abd 77ae bdbd e0c7 45be 0e03 8b3b
00000280: 3ec6 193c 7431 a33d e191 3bbd 2d28 813c
00000290: 011e d43d dbf1 ccbc ddd4 883c 2e5f 903c
000002a0: 6194 663c 3702 c23d 4911 fbbb bfcb 13be
000002b0: 4de8 0fbe eca8 4cbc 9913 f73d 862d c8bd
000002c0: 96b5 313c af26 3e3c 10d2 1e3e 7148 833d
000002d0: 4123 0d3d 395b 14be eede e6bd 080b 90be
000002e0: e414 6cbc 144f a5bd dd17 cc3d a5fc 213c
000002f0: 9d1a 863d 26fb b33c 24dd 453d 1b30 843d
00000300: 9f07 86bd 3ed8 babc f8af f63b c760 9ebc
00000310: c05d 7bbe b7a3 48bc 5ea3 023e 8c32 9abc
00000320: 3405 0fbd 4cf9 88be 68a8 223d 82eb 38bb
00000330: 0b3c 013d 3867 89bd 4188 0ebd b778 2a3d
00000340: f4da 973d 9946 813d 2cd3 1abc cac6 06bd
00000350: 1642 b93d 0730 50bd 86d8 f43c dfbc 2f3c
00000360: 6cc8 a93d 0fe4 933c 705a 153d 9987 293d
00000370: b59f 2f3d 261e 09bd e068 843d 3bc9 fc3c
00000380: 3bd3 743d be30 f73c abe9 8b3d b3a7 153d
00000390: c52b acba 8508 a3bd 4d3e 63bd 9b39 7d3d
000003a0: cb80 003e bc15 25bc 9988 adbd f68c abbd
000003b0: 5433 43bd 3dfa 10be 813b d5ba 585d 913d
000003c0: 2373 72bc e5f4 ea3c 824a e5bd 2b04 cdbd
000003d0: 89f4 3b3d 798b 6a3d 5d39 cebd 647f 64bd
000003e0: b57a 223c 46a4 01bd 64c3 82bd 6c41 17bc
000003f0: 2d82 29be 3720 e33c a369 0fbe 0b1a 9ebb
0.107964605 -0.022720506 0.0043155705 -0.22072299 -0.011044001 -0.11213884 0.075703636 0.008015362
-0.07619344 0.055108093 -0.0011495627 -0.22694232 -0.00644518 0.046973728 0.049748786 0.06133343
-0.16373703 0.042651866 -0.08693788 -0.04558975 -0.076083645 0.02417081 -0.040531293 -0.15170074
0.032940824 -0.1835588 -0.055049855 -0.09667066 -0.07615072 -0.015622533 -0.25498414 -0.1431505
0.10274364 -0.053714145 0.060066152 -0.1287058 -0.11129475 -0.08996065 -0.076477274 -0.084068745
-0.069962084 0.015491717 0.0867707 -0.11965174 0.0069562215 -0.08675491 -0.06555016 -0.07664014
0.087761775 0.053767756 -0.038938846 -0.05799281 -0.11864078 -0.16584535 -0.03606944 -0.13269432
0.054093897 -0.011216046 0.014424182 -0.10349183 0.04677341 0.058053173 0.07441214 0.055013303
-0.014128439 0.001547759 0.083927214 -0.07263091 -0.017436769 0.04247171 -0.1683167 -0.068463154
-0.023023715 -0.14464557 0.07688871 0.089790136 -0.027401352 -0.070113264 -0.0328692 -0.04227765
0.02515602 -0.047679387 -0.023282424 0.047330324 -0.061352104 0.025884314 0.07164174 0.0365449
0.052540246 0.018284861 0.011847018 -0.2472815 0.010756281 0.05182223 0.05058563 0.08225696
0.018611208 -0.014440229 -0.076718606 -0.04195782 0.060169626 0.032112494 -0.017697873 -0.021447642
-0.0016651275 -0.036882 -0.20442756 -0.06410264 0.12596363 -0.062097806 -0.121722594 0.06729442
0.09761641 -0.13976043 0.08811888 0.018622043 -0.18173453 -0.040380217 -0.016591484 -0.03130106
-0.01764307 0.080728896 -0.0417873 -0.13862543 0.05105161 0.0416579 -0.17139462 0.045963615
0.054551437 -0.001427868 -0.056577682 0.012103293 0.1289532 -0.079374656 -0.03367195 0.03533629
0.029087799 -0.09232204 0.12267268 0.048606195 0.09570613 -0.11425817 0.0186919 -0.058178447
0.080341205 -0.008489691 0.07792451 0.045596555 0.11645378 0.017564861 -0.023916457 0.09929256
-0.008605997 0.055542905 -0.1479891 0.067370504 -0.05322616 -0.09261792 -0.19314528 0.0042423075
0.0093856435 0.07968417 -0.045793418 0.015766228 0.10357285 -0.02501767 0.016703064 0.01762351
0.014073462 0.09473079 -0.0076619727 -0.14433192 -0.1405346 -0.012491446 0.12064285 -0.09774308
0.010846516 0.011605903 0.1550982 0.064103015 0.03445745 -0.14487924 -0.11272989 -0.28133416
-0.014409278 -0.080717236 0.09965489 0.009886895 0.06548045 0.021970343 0.0483066 0.06454488
-0.06544422 -0.02280819 0.0075283013 -0.019333256 -0.24547482 -0.012246064 0.12757632 -0.01882293
-0.03491707 -0.26752698 0.039711386 -0.0028216545 0.031551402 -0.067091405 -0.03479791 0.04161903
0.07414809 0.063122936 -0.009449761 -0.032904424 0.09045808 -0.050827052 0.029888403 0.010726183
0.082901806 0.018053083 0.0364632 0.04138908 0.042876918 -0.033476017 0.06465316 0.030857673
0.059771758 0.03017461 0.06831678 0.036536884 -0.0013135603 -0.07960609 -0.055479337 0.061822515
0.1254913 -0.010075983 -0.084733196 -0.083764955 -0.047656372 -0.14157958 -0.0016268344 0.07097882
-0.014797959 0.028681228 -0.11195852 -0.100105606 0.045887504 0.057261918 -0.10069535 -0.05578555
0.009916951 -0.031650804 -0.06384924 -0.009231906 -0.16553564 0.027725322 -0.14005141 -0.004824882

net.0.bias f4 [32]
00000000: 26cd 9cbd 4352 f3bc 7e50 e1bc 4022 11bc
00000010: 38c3 933c 86d9 e1bc 5094 673d dd00 3bbc
00000020: f090 debc 3db6 9abc 2238 073c 04f4 57bd
00000030: b2df debc 161a 243c ceb1 7ebd 8406 70bd
00000040: 2f1e 0abc 8ff4 593d 4d9e 8ebc b974 84bd
00000050: 49c5 bdbc 8407 9dbd fd16 343c 6982 813c
00000060: 8eec 223d 9afb 1c3c 34af 7736 5928 afbd
00000070: f505 0f3d 0d92 273b 8ba3 e93c 8d8f 543d
-0.076563165 -0.029702311 -0.027504202 -0.0088582635 0.018037423 -0.027569544 0.056537926 -0.01141378
-0.027168721 -0.018885726 0.008253129 -0.052722946 -0.027206276 0.010015985 -0.062181287 -0.058599964
-0.008430048 0.053211745 -0.017409468 -0.064675756 -0.023165362 -0.07667449 0.010991809 0.015809255
0.039776377 0.009581471 3.690785e-06 -0.085526176 0.03491779 0.002556923 0.028520366 0.051894713

net.2.module.0.weight f4 [32, 32, 3]
00000000: 1d34 1f3d eedb b4bc 10d4 493e 38f8 db3d
00000010: bf8b 093c 6417 823d aa04 473e 71c7 a0bd
00000020: e5a1 c93d e6d1 3a3e 59d8 91bd c22e 833d
00000030: f99b c5bc 9d69 3ebd a4ff 82bd 16dc d2bd
00000040: 9636 7b3d 4e74 04be 38a4 303e 7d99 ca3d
00000050: 99cc edbd 7504 73bd 44cc 703b c03e 873d
00000060: d4f3 31be 1128 5f3c d3cf fe3c fc85 3a3d
00000070: 957c 843c e595 88bd aca5 c43d ba57 a2bd
00000080: a35c 223d b117 f33d a4de a5bd df36 7cbd
00000090: 0475 86bd c886 013e df5a c53d b839 f6bd
000000a0: 5bfa 6bbd 5857 c93c 1465 d73c 63c1 8abd
000000b0: 6cd3 6bbb a154 d9bd db3a dabd 62eb 4ebd
000000c0: f5cd 34be 95b7 953d ad06 973d 893b 163d
000000d0: 8032 283e e83c a1bd 1f06 06bd f9d4 313d
000000e0: 02f3 163e 57f7 3cbe 1f82 ab3c bc30 edbd
000000f0: 8ef6 54bc 5d10 0bbd c518 f03c d137 76bd
00000100: fdc0 163c 6919 faba bad6 e1bc 6744 523c
00000110: 76e7 7b3d 3cbe 8e3d a173 fe3c 5dec ec3d
00000120: d124 7d3d f213 50bd 4712 843d 43ce 4d3d
00000130: c997 b5bd cd0c 9b3d ec82 953d 06fb 3d3c
00000140: f1c8 95bd e477 59bb 48d9 73bd d76f c03d
00000150: b3ec b63d 0e3a 10bd 3d4b f33d eb6b 41be
00000160: 6433 08bd 7717 00bc 49af dbbd addd 7bbb
00000170: b24f 15bd a848 ba3c bfc0 5d3d 549a c1bd
00000180: 5acb 423d 949c a53d deb7 0f3c 0efc 453e
00000190: 9e86 943d aa14 573e 78c0 8d3d 90c3 2a3d
000001a0: 5803 ba3c 8e13 b2bb 2fb4 07be 15c7 b93d
000001b0: e980 faba 9de9 3b3d fb65 d43d 2832 a8bd
000001c0: f191 9abd db0f 26bb d71d a8bd 6634 c9bd
000001d0: 8ff6 57bd b5c8 a4bd 14e0 ec3d e43d 3dbe
000001e0: 50be 923c 0dc5 bdbb d286 30bd 1a48 173d
000001f0: bca2 033e 5527 8b3e 6ac4 f9bc b71b 8a3c
00000200: 834d 1e3e 0d49 293e caba 59be e86b d23d
00000210: d48f cfbb eb5e b9bd 5500 bfbd c5d5 c8bd
00000220: 9edd 263e ac85 3a3d 6f5e 593c ce00 22bd
00000230: 8db7 733e 883c 6fbd e647 dbbd eb55 943c
00000240: 2b9d 50bd 53b5 5abd 1b50 1fbe e335 993a
00000250: a08e b0bd 471e 013d c763 a73c a75e 9c3d
00000260: 7f74 20be 9961 b43c 595e 063c 9e61 3abc
00000270: cacc 7bbd 1f2f e8bc 8890 e13d 9ea6 1bbc
00000280: 880e a5bd 530d b53d b7d7 1c3e 4be6 093d
00000290: d97f 023e 2125 573c fa2d 26bc 72aa a93d
000002a0: 25be 983a 800a 87bc 4ea1 1fbd 14e3 a2bd
000002b0: 55fc 79bd 83a7 263d f344 ed3c bf1e 28bb
000002c0: b24f 863d 7491 08be 42b4 90bd 339f 22be
000002d0: 0610 b53c e9a1 11bc 7b83 1ebe b903 c4bd
000002e0: 232d 923d d2f4 ab3c 3f70 d6bd 4c63 c03d
000002f0: 524b f5bd 76e6 d13b c2fb ffbc 4544 3ebd
00000300: c518 b6bd e80c 1e3c ca53 98bd b53e 293e
00000310: 20e8 18bb 7f58 373e 736a f53c 9a69 88bd
00000320: 90b0 ed3d e6f5 b03d 154f 183d 07a9 6c3e
00000330: cbe7 0a3e 1920 38bd cca7 373d 35a3 90bd
00000340: f82e dbbd d855 edbb 6a62 343c 3f17 94bd
00000350: 8942 05bd f83d 2b3d 43fa 4f3c 4149 f4bd
00000360: c2d8 47bd 71d4 dfbd ce5f 2cbd d873 5bbc
00000370: c97a 523d 53df aa3d a5c2 703d e574 d0bc
00000380: 382a cb3d c98b a13c ed67 1d3d 23da cf3c
00000390: 099e f23c 6530 bdbd 5dde 1bbd de1e 22bd
000003a0: 69ef 6f3c df41 1e3e 7a53 c53c e711 843c
000003b0: b7e7 393e d265 b0bd 7f14 b0bd 82a2 08bd
000003c0: 6874 afbc 247b 8c3d 11cb 23be 7957 44bd
000003d0: 385f 56bd 769a 8ebc 794d fbba 8b33 a7bc
000003e0: ad3c 02be 51ff 953c 7db5 4c3d d264 a8bd
000003f0: b22b 85bc 00b6 fdbb ff60 423e d40c a23d
0.03886806 -0.022077527 0.19709802 0.10740703 0.0083951345 0.06352118 0.19435373 -0.078505404
0.09845332 0.18244132 -0.07121343 0.06405403 -0.024122225 -0.04648744 -0.06396416 -0.10295884
0.061331354 -0.12934992 0.17250144 0.09892557 -0.116112895 -0.059330422 0.0036742846 0.066037655
-0.1737817 0.013620392 0.031104958 0.045537934 0.016172687 -0.06669215 0.09601912 -0.07926889
0.039639127 0.11869753 -0.08099106 -0.061575767 -0.06565288 0.12649071 0.09636473 -0.12022728
-0.057611804 0.024577782 0.026293315 -0.06775167 -0.0035984172 -0.10611845 -0.10655757 -0.050517447
-0.17656691 0.07310406 0.0737432 0.03667787 0.16425514 -0.07872945 -0.03272068 0.043415997
0.14741138 -0.18453728 0.02093607 -0.11581561 -0.012998236 -0.033951152 0.029308686 -0.060111824
0.009201285 -0.0019081059 -0.02756821 0.012833691 0.061500035 0.06969878 0.031060996 0.1156852
0.06180269 -0.05080027 0.064487986 0.050245535 -0.08866841 0.07570801 0.07300362 0.011595493
-0.07313717 -0.0033183033 -0.059533387 0.09396332 0.089318655 -0.035211615 0.11879585 -0.18888824
-0.033252135 -0.007818094 -0.10726792 -0.003843169 -0.036452956 0.022739723 0.054138895 -0.09453264
0.047557212 0.080865055 0.008771865 0.19334432 0.07252239 0.21003976 0.06921476 0.04169041
0.022706673 -0.00543446 -0.13252328 0.09071175 -0.0019111905 0.045877088 0.10371014 -0.082126915
-0.07547367 -0.002533904 -0.082088165 -0.09824447 -0.05272537 -0.08046094 0.11566177 -0.1848064
0.017913014 -0.0057913125 -0.043097325 0.036933996 0.12855047 0.27178445 -0.030489165 0.016858919
0.15459256 0.16531773 -0.2126266 0.10274488 -0.0063342843 -0.09051307 -0.09326235 -0.09806398
0.16295478 0.045537636 0.013267144 -0.03955155 0.23800488 -0.058407336 -0.10707073 0.018107375
-0.050931137 -0.05339558 -0.15557902 0.0011689033 -0.086209536 0.031523015 0.02043332 0.07635241
-0.1566944 0.022019194 0.008201205 -0.011375813 -0.0614746 -0.028342782 0.11013895 -0.009500174
-0.08059412 0.08840432 0.15316664 0.03366689 0.12744083 0.013131411 -0.010142798 0.08284463
0.0011653347 -0.016484499 -0.03897219 -0.07953468 -0.06103166 0.040687095 0.028963542 -0.0025653092
0.065581694 -0.13336736 -0.070656314 -0.15881042 0.022102367 -0.0088887 -0.15479843 -0.095710225
0.071375154 0.020990763 -0.10470628 0.093939394 -0.11977257 0.006405647 -0.031247977 -0.046451826
-0.08891443 0.009646632 -0.074378565 0.16527827 -0.0023331717 0.17904852 0.029957986 -0.06660767
0.11605942 0.086406514 0.037184794 0.23111354 0.13564985 -0.044952486 0.044837758 -0.07062379
-0.10702318 -0.0072428994 0.011009792 -0.07230996 -0.032534156 0.041807145 0.012693944 -0.119280346
-0.0487907 -0.10929192 -0.042083554 -0.0133943185 0.05138663 0.08343377 0.058779377 -0.025446365
0.09920162 0.019719975 0.03842919 0.02537257 0.029616373 -0.09237746 -0.03805386 -0.03958022
0.014644482 0.15454815 0.024087656 0.016121818 0.18154798 -0.08613171 -0.08597659 -0.033358105
-0.021417812 0.06859425 -0.15995432 -0.047934983 -0.0523369 -0.017407637 -0.0019172869 -0.02041032
-0.12718458 0.01831022 0.04997777 -0.08222355 -0.016256187 -0.0077426434 0.18982314 0.07912603

net.2.module.0.bias f4 [32]
00000000: 8e62 02bc 3670 96bd c76a bf3d bbbb 653d
00000010: 47a3 7ebd 0ed1 7a3c 380e 98bc 63bf 843d
00000020: f601 b33d 5c3f 823d 5e8b 01bd 7052 b53d
00000030: e5fa 4ebb 9f59 cf3d 0240 4fbd e8ad 71bc
00000040: 1908 a4bd ce92 423b 0257 953d c545 003d
00000050: 47b2 c53d d736 b7bd 4cff ff3d 7ec6 6f3a
00000060: 9c55 a63d 1349 023c 1e5d 8fbd fb4a eebc
00000070: 2a73 8dbd a2b3 79bd 6ba1 6b3c 6046 b63c
-0.007958068 -0.07345621 0.09346538 0.056087237 -0.062167432 0.015308632 -0.018561468 0.064818166
0.087406084 0.06359741 -0.03162705 0.08853614 -0.003158265 0.10124516 -0.050598152 -0.014750935
-0.08009357 0.0029689553 0.07291986 0.031316537 0.09653144 -0.08946007 0.12499866 0.0009146704
0.081217974 0.007951993 -0.070001826 -0.029088488 -0.069067314 -0.060962327 0.014381747 0.022250354

net.3.module.0.weight f4 [32, 32, 3]
00000000: a49f cd3c d742 b4bd 6735 c73d c1e1 853c
00000010: bfd1 0d3e 8b3b 9bbd f12c 023d c524 5d3d
00000020: 1173 9ebd c523 053d 6427 753d 4198 9a3c
00000030: 3878 32bd 1fdd 553d 5b23 babd 67a0 a33d
00000040: ca17 953c 0954 6ebb e8e7 ab3b 8b04 ba3c
00000050: 8a9b 7abd 5da1 2b3e bf21 573d 6607 dbbd
00000060: 41f2 54bd 888c 8bbc b926 653d 858c bcbc
00000070: 76a2 41bd 4c7d 03bd 5965 1b3d 4eb8 0c3e
00000080: 66b1 c13c 580d a83b 39be 353d ffac 96bd
00000090: 4c7d 253e 0d8d 0a3c f198 3b3e 4211 33bd
000000a0: f7d6 273c 916e febd 6dd0 9cbd 82d4 eabd
000000b0: 4aee 8dbd e451 16bd 6b72 31bd d38c 043d
000000c0: 49ab 95bd 9c89 d23d 8670 e13d f5f4 e4bc
000000d0: 5595 16bd 2659 103d 8525 c93d e97e 23bc
000000e0: db68 5b3d fc45 00be 93ab 94bd f338 b0bd
000000f0: 8749 d93d 42aa bbbd 77cc f4bd 8f58 4bbd
00000100: ceb8 21bb c19a 45bd ab78 ccbd 8d40 d53d
00000110: 0bca e53c c526 f13d 3380 b23d e134 1b3d
00000120: fbc1 5dbd 85cc dabd a84e e23d 083c 0ebe
00000130: 4622 b4bd 5aa7 9cbc 96c0 873c f970 a9bc
00000140: 40df 9b3d 1a52 393c f0f8 e0bd d4dd 0a3e
00000150: c10b 093e c643 bc3b f9b5 a83d b343 29be
00000160: 67df b6bd 7d00 51bd 2b1d 6e3d dada 09be
00000170: af3e 19bd 567e 8dbd 1fe7 a33c 5453 35be
00000180: 4b92 9a3d f71d d03d e0ee 0cbd a32d 1e3d
00000190: f6fa 74bd 453f 633e 7036 ac3d 658b dabd
000001a0: 202c 373e bc5a 3dba 1639 70bd 4f3f 013e
000001b0: c58e 9b3c 69b2 9e3d 67f1 cf3d cbff 05bd
000001c0: 46de 563d f1f7 5abd afde 323e 04da b83d
000001d0: 776e 3d3e dd81 10bd fd66 78bd 1bbb 12bd
000001e0: 8ff9 c43c 0de6 84bd b355 363d 5961 063e
000001f0: aa6e e73c a66f a03e a7df c7bd 615a 46bd
00000200: 33f2 abbc cdad 383e 6cab 8bbc a257 0c3e
00000210: d15e f13d 3fe5 a13c b503 dfbd 9aa6 a3bc
00000220: 5663 c23b 0208 803d b1bc 4dbd df1b f1bc
00000230: a2f5 c43c 0321 e5bd ba6f 693d 317b 06be
00000240: 9521 0abe 3f39 0bbd bd3d d8bd b541 2bbc
00000250: c6db d73d e1be a83d ed76 213d a388 75bc
00000260: dc23 e2bd da7c d3bc 0a88 883d a391 10be
00000270: a18b 92bd 86f4 193d 9526 063e 8f57 43bd
00000280: 5bd8 86bd 8aac 0cbc 9371 0b3e efec b33c
00000290: a697 7a3e 0cfb 093d fdf7 b6bc c2eb eebd
000002a0: eac8 debc 24cd 0cba 5afc f5bd 7d7c f8bd
000002b0: d22c f8bc f593 503d 4388 453d fa54 fe3d
000002c0: 1a7f 453e 97ca 3abc dc7f 0bbc 8bfb bcbd
000002d0: 32eb ef3c dd99 683d f078 12be 85e3 b5bd
000002e0: 5209 b8bc 91be 6bbd c0d5 06be 5528 2d3d
000002f0: 8f5e b2bc d3d1 243d f16a e03b b36e 6a3d
00000300: 4b79 1bbe e45a 7abd 6d81 9d3d a4ae 18bd
00000310: 56d8 c3bd 7ec7 7e3c 9d42 82bd 0a07 20be
00000320: e662 4d3e 09bb 83bd 7837 d93d 89c0 933d
00000330: 2620 d73d eb9c 9cbd 27b8 3b3e a883 943c
00000340: 0b0c 78bd dcda c4bd bd00 adbc ca63 15bc
00000350: 5a6f 063e 0fd2 50bd f848 5c3d f0c4 673d
00000360: abd4 febd 4f75 8bbd bed5 95bd fca1 7d3e
00000370: 4c7b 823d a9a3 fc3d b85f e3bd a2c7 b73c
00000380: 0ed1 253d 6bbe 8fbd dede 043e ea65 273e
00000390: 9fc2 1c3d e838 033d 1510 b23b 11d9 95bb
000003a0: 5956 1e3d ee60 0abd 4e11 1c3e 8e4b 9c3d
000003b0: ab26 113e 40de 323d 2bf6 90bb 0a90 10be
000003c0: 2bf0 0ebe 3ba2 dfbd 6cd2 f9bd 64c3 cbbc
000003d0: 3a66 b23d 0f18 803d 4a2e c5bc 2b9e 263d
000003e0: 50c4 99bd 2b23 bcbb 70e8 52bc da86 48be
000003f0: 38e9 023e 8cdd e03d 6d9c 883e 2f78 9d3d
0.025100537 -0.08801811 0.097269826 0.016343 0.13849543 -0.07579716 0.03178114 0.053990144
-0.07736791 0.032504816 0.05985202 0.018871428 -0.04357168 0.05221283 -0.09088775 0.07989579
0.01819982 -0.0036366007 0.0052461512 0.022707244 -0.06118349 0.16760774 0.052522417 -0.106947705
-0.051988844 -0.017034784 0.055945132 -0.023016224 -0.047274075 -0.032101914 0.03793845 0.13742182
0.02364416 0.005128544 0.044370864 -0.07357215 0.16161078 0.008456481 0.18320061 -0.04371763
0.010244123 -0.124234326 -0.076569416 -0.11466314 -0.06930216 -0.03669919 -0.043322008 0.032360863
-0.07308061 0.10280153 0.1100779 -0.027948836 -0.036763508 0.03524127 0.098216094 -0.009978988
0.053566795 -0.12526697 -0.07259288 -0.08604612 0.10609727 -0.091633335 -0.11953061 -0.049645003
-0.0024676803 -0.048243288 -0.09983953 0.10412703 0.028050443 0.11774973 0.08715858 0.037892226
-0.054140072 -0.1068354 0.11050159 -0.13890088 -0.087956 -0.019122768 0.016571324 -0.020683752
0.07610941 0.011311078 -0.10984981 0.13561183 0.1338339 0.005745384 0.082378335 -0.16529731
-0.08929329 -0.051025856 0.058133285 -0.13462391 -0.037413295 -0.06908862 0.020007668 -0.17707568
0.075474344 0.10161965 -0.034407496 0.03861774 -0.059809648 0.22192104 0.08408821 -0.10671119
0.17887926 -0.00072232983 -0.05864819 0.12621807 0.018988976 0.07748873 0.10153466 -0.032714646
0.05245807 -0.05345911 0.1746776 0.09025958 0.1849917 -0.035280097 -0.060645092 -0.03582297
0.02404478 -0.06489191 0.044515323 0.13123073 0.02825101 0.3133518 -0.09759455 -0.048426036
-0.020989513 0.1803505 -0.017049514 0.13705304 0.11785663 0.019762633 -0.10889379 -0.019976903
0.005932252 0.06251527 -0.05022878 -0.029432235 0.024042908 -0.11187937 0.056991316 -0.13132931
-0.13489373 -0.03399014 -0.10558651 -0.0104526775 0.10539965 0.08239532 0.039420057 -0.01498619
-0.11041996 -0.02581637 0.066665724 -0.14118056 -0.07155538 0.03758671 0.13100655 -0.047690924
-0.06584235 -0.008586058 0.13617544 0.021963565 0.24471912 0.033686683 -0.022335047 -0.11666061
-0.027195413 -0.00053711445 -0.12011023 -0.12133119 -0.03029481 0.050922353 0.048225652 0.12418552
0.19286767 -0.01140084 -0.008514371 -0.092276655 0.029286955 0.05678736 -0.14303946 -0.088812865
-0.022465382 -0.057554785 -0.13167477 0.04227479 -0.021773605 0.040239166 0.006848686 0.057234477
-0.15182988 -0.061121836 0.07690702 -0.037275925 -0.09562747 0.015550492 -0.06360362 -0.15627685
0.20057258 -0.064321585 0.10606283 0.072144575 0.10504179 -0.07647117 0.18331967 0.018129185
-0.06055836 -0.096120566 -0.021118516 -0.00911803 0.13128415 -0.050981577 0.053780526 0.0565843
-0.12442907 -0.06809484 -0.07316159 0.24768823 0.06371173 0.12335903 -0.11102241 0.02243406
0.040482573 -0.07018741 0.12975642 0.16347471 0.038271543 0.032036692 0.005434046 -0.0045729955
0.038656566 -0.033783846 0.15240976 0.076315984 0.14174907 0.043668985 -0.0044238768 -0.14117447
-0.13958804 -0.10919615 -0.12198338 -0.024873443 0.087109044 0.06254589 -0.024069924 0.040678184
-0.07508147 -0.005741497 -0.0128728 -0.19582692 0.12784278 0.10979757 0.26681843 0.07688939

net.3.module.0.bias f4 [32]
00000000: 5408 2cbc 7930 15bd 32bb a6bc 6595 1f3d
00000010: f34b ce3d 30b9 29bd 7d92 883d fa61 d73c
00000020: daf8 1f3d e6e7 763c 3915 c53c 1a06 b63d
00000030: 07ee 773d b38c 4fbd e10d 88bd c6f3 abbd
00000040: 1064 e73d 0621 aa3d 06f4 2abd e0d0 f73d
00000050: 81b0 c83d d305 e13d 1216 6ebd 79f9 a93d
00000060: 50a7 503d bd61 ed3d 7e89 2abd ba85 a8bd
00000070: 6b0d 84bd 1faa 54bd de54 3ebd d39e c3bc
-0.010500032 -0.03642318 -0.020352934 0.038960833 0.1007308 -0.041436374 0.066685654 0.026291836
0.039055683 0.015069937 0.024057971 0.088878825 0.060529735 -0.05067129 -0.06643272 -0.083961055
0.11298382 0.0830708 -0.041736625 0.121003866 0.097992904 0.10987439 -0.058126517 0.08299536
0.05094081 0.11590908 -0.04163503 -0.08228631 -0.06447872 -0.051920053 -0.046467654 -0.023879444

net.4.module.0.weight f4 [32, 32, 3]
00000000: 84bc cbbc a75e b7bd 5e17 5e3a 9216 f4bc
00000010: e2ad fa3d 64a6 7abd d95b fc39 c9f6 b6bd
00000020: 3624 3a3c edb7 133d 5f93 633d c337 ffba
00000030: 739f 01bd ba93 ad3d ee90 5dbe d762 3b3c
00000040: 36c1 e23c 5fe3 d0bd d6c9 0a3e 4ce2 70bd
00000050: 95ca 193e cd26 8fb9 0b99 98bd c217 4c3b
00000060: b33f bd3d 4449 b5bc 3f0b 35bd 33ba eabd
00000070: 2db5 afbd 6ed1 48be e485 ecbc bbd4 de3d
00000080: edbc e73d 7d97 373d e049 5b3d bc05 903c
00000090: 1bdb af3d 870a 043d 6bf9 473c b8b8 8abd
000000a0: 1d2f 433d bdc8 5b3d e5e5 5bbd 4c59 c53d
000000b0: 86e0 8b3c 21d7 05bd 667f e2bb c5ac 11be
000000c0: 63a0 1bbd cd77 423d 981d 343d 370b b43d
000000d0: a3b2 4f3d 07f2 b5bc 04f6 ed3d 7b83 513c
000000e0: 1742 ec3d 20ba d4bc 9568 0b3d c8e5 ab3d
000000f0: 2346 933d 22ff c7bd f988 8dbb 676d 4e3d
00000100: b401 cd3c e4f4 98bd 449c 3bbd 3bfa 543e
00000110: 8e01 31bd 6e42 d53d 85d3 843d 561c f9b9
00000120: e81d 10bd 20ea eebd 8308 553d bd07 43bd
00000130: 47db 8c3d 16e6 a5bd 1166 ea3c 8805 c9bc
00000140: 831a 90bd 4ee2 5d3d fe4b 87bd 15df 3fbc
00000150: 0a93 4e3d 41db bebc 4fa3 bd3d ea4c 18bd
00000160: 4d06 093b 7af4 5dbd f8bb c23d d034 aebd
00000170: b9d2 56bd a2a6 20bd 8aa0 a03d 328a 3dbe
00000180: 957b b33d 21b5 9d3d c7e1 f73c 9413 d43d
00000190: 5cc9 03bc 2516 fc3d f7d5 b93d f814 9a3c
000001a0: 260e ba3d 9b35 f23c 84eb 693d f613 cebc
000001b0: b937 f03d 7b71 88bd 2fb5 163d 10a2 1fbc
000001c0: 13fa 933b f5d0 87bd ddb5 e73d 11fb d63d
000001d0: 60cf 553d f022 8c3d 1f6b 8cbd ca5b 62bb
000001e0: 4a66 113c fbb7 643d b15c cfbd e173 253e
000001f0: 6bcd d53d 2046 283e 81be 0a3d 1a3a b63d
00000200: 48ba 733d 3a84 203d 5fa5 e63c 90c8 373e
00000210: 24ae 98bd a139 903c 0456 763d b121 94bd
00000220: de09 c4bb ed74 2bbc 7a1d c73c c7fe a53d
00000230: c86b 8c3d e7df 71bd 477a 87bd 4287 02be
00000240: a246 20be e321 51bd 646f f9bc 25c6 6cbc
00000250: a1ae bdbc 158b cd3d 18de 2a3d 7f6a 82bd
00000260: 5569 b4bd 31a6 3bbd 92af 4e3d 13e9 b23c
00000270: 9948 6dbc 1447 a9bd b66c af3d 36e4 1c3e
00000280: df2d 99bd 1761 efbd df31 103e e965 813d
00000290: be57 883d f567 843d 9c5a aa3d 0b65 cc3c
000002a0: da03 8a3d c06b ad3c 993a 04be e664 94bc
000002b0: 63e1 a33d 7c7f cb3d 240e 2e3e f06e ce3a
000002c0: 0d17 873c a8e9 6cbe 7457 8fbd fee3 c0bd
000002d0: 85e8 0dbd 595f 1b3d 6cbc babd d879 19be
000002e0: 2eb1 f03d 9dcc b2bd 0944 ae3b 687d 003d
000002f0: 63bf 0dbd 96be 37bd d49c bbbc 2309 543d
00000300: 0fe1 ffbc 11a3 1fbe 02e2 1fbd 695b d8bc
00000310: bcd4 4ebb 5936 043e 2dd7 b8bc ddc8 5fbe
00000320: 3871 503e 032d 34bd c47c 56bc 8965 0c3e
00000330: c6cc 71bd e22f 003d 2857 153c f24b f73d
00000340: 6772 443b b33c 89be 4515 f4bd 33e2 973c
00000350: 2e23 fa3c e931 c2bd b657 983c 2eb1 04be
00000360: 88e2 bd3d e8b1 523d b701 a3bc 1147 98bd
00000370: 258f 963d 98c8 053e 3516 3f3d 5979 2a3b
00000380: 5b88 b43d 8625 583d 505c 85bc a33a 893e
00000390: 6482 f53c f8c3 25bd 8ba8 e3bc 7c44 ca3d
000003a0: 8bf9 d33d 7171 04bd 0571 c5bd bb5e d7bd
000003b0: f918 27ba 37b0 00be cf3b dd3b 2aca 1bbe
000003c0: 4edb 003e 5e2f 083d 6734 0cbe 1606 953c
000003d0: 2cf7 b33d a87a 72bd b8fb 003e 5353 c93c
000003e0: 8e04 613d 24d8 ee3b 0159 b33c a18d f23d
000003f0: b7ea 87bd 4e10 93bd 2d96 183e 7229 673b
-0.024870165 -0.089536004 0.000847211 -0.029795919 0.12240197 -0.06119384 0.00048133617 -0.08933789
0.011361172 0.036064077 0.055560466 -0.0019471574 -0.031646203 0.08475442 -0.21637318 0.0114371395
0.02768002 -0.101996176 0.13553557 -0.058809564 0.15018685 -0.00027303994 -0.07451066 0.003114209
0.09240665 -0.022129662 -0.04420018 -0.11461296 -0.085794784 -0.19611141 -0.028872438 0.10880419
0.113153316 0.044822205 0.05353725 0.01758086 0.08586713 0.032236602 0.012205462 -0.067735136
0.047652353 0.053658236 -0.05368604 0.09636173 0.017074835 -0.032675866 -0.0069121597 -0.14226063
-0.037994754 0.047477532 0.043973535 0.087912016 0.05070747 -0.022210134 0.116191894 0.012787695
0.11536043 -0.025967658 0.034035284 0.08393437 0.07191112 -0.097654596 -0.004319307 0.050397303
0.025025226 -0.07468584 -0.045803323 0.2079858 -0.043214373 0.10413061 0.06485657 -0.00047514093
-0.03518477 -0.116657495 0.05201007 -0.0476148 0.06877761 -0.08100526 0.028613122 -0.02453877
-0.07036307 0.0541709 -0.06606291 -0.011710902 0.050433196 -0.023297908 0.09259664 -0.037182726
0.0020908297 -0.05418823 0.095085084 -0.08506167 -0.052447055 -0.039221413 0.078431204 -0.18509749
0.08763806 0.07700563 0.030259026 0.10355297 -0.008043613 0.12308911 0.09074014 0.018808827
0.0908473 0.029566577 0.05710937 -0.025156002 0.11729378 -0.0666227 0.036793884 -0.009743229
0.004515895 -0.06631652 0.113139845 0.10497106 0.05219972 0.06842601 -0.06856369 -0.0034539574
0.008874485 0.05583952 -0.10125101 0.16157486 0.10439571 0.16433 0.033873085 0.08897801
0.059503824 0.0391886 0.028155027 0.17947602 -0.0745509 0.017605605 0.060140625 -0.072329886
-0.0059826216 -0.010464889 0.024306048 0.081052355 0.06856495 -0.05905142 -0.066151194 -0.1274691
-0.15651944 -0.051057708 -0.030448623 -0.014451538 -0.023154559 0.100362934 0.04171571 -0.06367969
-0.08809153 -0.04581279 0.050460406 0.021839654 -0.014482641 -0.0826551 0.08565657 0.1532143
-0.07479452 -0.1168844 0.14081524 0.06318266 0.066573605 0.06465141 0.083180636 0.024950525
0.06739016 0.021169543 -0.12912978 -0.018114518 0.080019735 0.09936425 0.16997582 0.0015749615
0.016490484 -0.23136008 -0.06999102 -0.09418486 -0.034645576 0.037932727 -0.0911797 -0.14987886
0.11752544 -0.08730433 0.005318169 0.031369597 -0.03460635 -0.04485949 -0.02290193 0.051766526
-0.031235246 -0.15589549 -0.039033897 -0.026410775 -0.0031559905 0.12911357 -0.022563541 -0.21853967
0.2035569 -0.04398824 -0.01309127 0.13710608 -0.059033178 0.031295665 0.009115018 0.12075032
0.0029975416 -0.26804122 -0.11918119 0.018540477 0.030534353 -0.09482176 0.018596511 -0.12958214
0.09271723 0.051439196 -0.019898279 -0.0743543 0.073515214 0.13064802 0.046652038 0.002601227
0.0881507 0.05277016 -0.01627937 0.2680255 0.029969402 -0.040470093 -0.027790328 0.098763436
0.10350331 -0.03233475 -0.096406974 -0.10516115 -0.00063742656 -0.1256722 0.0067515145 -0.15213838
0.12583658 0.033248298 -0.13691865 0.018191379 0.08787379 -0.059199005 0.12596023 0.024575865
0.054935984 0.0072889496 0.021893026 0.1184342 -0.06636565 -0.07180844 0.14901038 0.0035272506

net.4.module.0.bias f4 [32]
00000000: 20d8 ae3c c255 963c 755f 55bd da89 523d
00000010: 2ea7 a93c 90ac 933d 39e9 9a3d 7357 1e3d
00000020: 9bb6 50bd 448c 9e3c d5b5 303d e397 ebbc
00000030: 8308 c13d c920 e6bc cd48 35bd 6b95 9dbd
00000040: 7985 e5bb f3de b83c 030a de3c 441c 05bd
00000050: 94e2 b23d e084 08bd c516 a73d d2ff 74bc
00000060: 6c8a 15bd 9ab7 7dbd afd1 3dbd 899b 083e
00000070: cc55 4d3d 289e 3abc 1629 393d d47d 3d3d
0.02134329 0.01835144 -0.052092988 0.051400997 0.0207096 0.07210648 0.07564015 0.038657617
-0.050955396 0.019353993 0.04314216 -0.028758949 0.094254516 -0.028091805 -0.04425888 -0.07694515
-0.0070044366 0.022567248 0.027104383 -0.03249766 0.087346226 -0.033329844 0.0815864 -0.01495357
-0.036508963 -0.061942674 -0.046342548 0.13340582 0.05013065 -0.011390246 0.0452052 0.046262577

net.5.weight f4 [8, 32, 3]
00000000: 5290 0a3d b296 5c3c cc4c 09bd 1ff0 dfbc
00000010: e7a0 9abb d932 4f3b 8b0d edbc 0b7b 1a3d
00000020: 2135 3e3c b5ad 11be e62c 27bd e6af 3cbd
00000030: 492e bcbc df87 203c da56 633d 770d 00bd
00000040: d04a 2c3d bdb3 973d b84b 53bd 586d 1b3d
00000050: 5cb9 01bd 7e6a 803d 7ae1 8039 65c8 b03d
00000060: fcdc a23d 7b5c 103d dbe4 febc c358 f43d
00000070: cc41 143d 101f 013e 7067 eabd 5fac f93c
00000080: 7e5a 9abd c813 923c 3bfb 2b3b 8e00 683d
00000090: 1361 aebc 42ab 023c 56ab 2ebe 1bdf ac3c
000000a0: eb72 a73d 92e0 b9bd f481 ca3c 9d22 833d
000000b0: a363 b93c 5861 733d 5da5 323d 1628 1bbc
000000c0: 793d 97bd d25f 8bbd 8cef 7ebd b4b7 a53c
000000d0: 9545 debc 4aff 80bd 20c0 a93c 814b 063d
000000e0: 436c 04bd 979a 413d 9787 dc3c 93c5 a9bd
000000f0: 7120 f0bc e019 89bd 606f 473d eaa5 173e
00000100: d523 c73c 2dc3 b9bc ff00 693d cf11 403d
00000110: ebb7 203d b3d9 aabd d2d2 723c a5a5 9d39
00000120: 43ca a8bd 5277 a2bd 178e e4bd 29e8 a13d
00000130: 3bd2 5c3c 9aee e73d 5db9 07bd 2e62 eebb
00000140: 0a47 3e3d 42e1 453d 10a9 383d dff9 b9bc
00000150: 8256 a43d 07a3 8dbc 0d2a 25be a246 0b3d
00000160: a620 f23c 0593 c13d f48f 1bbd 7bf1 493d
00000170: 40c4 133d 01da c93d 9d78 383d 0d20 273d
00000180: a286 b13c dbaa fabc 3287 a03d 8135 083d
00000190: 14b7 c03d 51fa a23c e80c 6ebd 1a04 95bd
000001a0: 51bd 9d3d b841 b13d 9cef ba3c 6074 3abb
000001b0: 88e8 7fbd 22f7 a5bd 3635 d2bc b313 3f3d
000001c0: 5a98 1abd a300 f9bd 0d3d bd3d 1fd2 59bd
000001d0: 4191 ae39 d26d 49bc 8f4f feba 1791 4abd
000001e0: c5d5 19be faed 2fbd 1554 dfbd f392 093d
000001f0: 9c0f 47bd bf21 5fbc 1eea c63d eb89 b9bb
00000200: 89fe 483d b128 0b3e 1ef1 243d 1209 ee3c
00000210: 68be 82bd 94d6 34bd b3e8 e43d 22a4 f6bd
00000220: c889 f4bc 892b 0f3d f457 11bd c2e8 003d
00000230: cc38 783d 2f93 49bd a1ff 403c 3959 90bd
00000240: 4470 c4bd 05ec 0bbd ed83 02be 4108 e03b
00000250: 0ae5 aa3c a362 d3bc 62e8 593d e979 2cbc
00000260: a5c2 b03d c0fe ddbb 79bc eb3c 5fe8 513d
00000270: 9d26 a33d 501a b0bc d2f4 ed3d 3760 633c
00000280: 5109 223d 296d adbd deac 1e3d c710 843d
00000290: 7a9d cb3d 3972 5dbc ae51 913c cce1 c63d
000002a0: 5ee7 163d 6ae9 e139 006b 0c3d 759b ed3c
000002b0: 791e 8fbd e456 503c 069e c33d c7e2 86bd
000002c0: 4140 3e3d 8730 47bd aa8e c83c f8eb b2bb
000002d0: 5193 083d 189d beb9 8605 853d ff91 d7bd
000002e0: 6eb0 cc3c 05d0 9dbd 4376 463c 7a82 8ebd
000002f0: 53d0 f2bd 6b0a 89bc 3278 98bc 499b b4bd
00000300: e28d 99bc 4880 a8bd 2679 6f3b b8ad f1bd
00000310: 47be 933c 2aca aabd 8ad7 96bc 34e2 113c
00000320: 931e c6bd fb48 ba3d 46ab 253d 6e47 923c
00000330: 2c99 96bd 6ab2 933d 84d7 d7bc 73be e2ba
00000340: 2049 bbbd b44f 413e 038c 993d 0c97 e33c
00000350: 326b 78bc 5f0b 0fbe bb98 223d 4ba3 45bd
00000360: 5fbc 933d 24b2 473d d5d3 6d3d 8957 bfbd
00000370: d024 33bb 2f82 26be e8c2 883d bc38 8fbd
00000380: 08e2 8a3d b3e7 06be 3717 cebb 49db 30be
00000390: 84d0 a63d ab9d bebd 230e e73d e0e1 713d
000003a0: 8dd1 0fb9 2e81 093c 29eb 123b d30f 0ebd
000003b0: 40bf 07be 421e 783c 9b57 d23c 6afa 913d
000003c0: 654f 143e e2ec 9a3d 2dd2 fa3d b324 5fbd
000003d0: f36b 573d 960c 6a3d f5b6 8bbc a6f3 2dbd
000003e0: 837b 8abc 4df1 b63c 43f0 1f3d 3ea4 783d
000003f0: 0b8f a7bd 3111 2bbc bd52 d7bd 1177 4cbe
0.03382904 0.013463663 -0.033520505 -0.027336178 -0.004718888 0.0031616 -0.028937122 0.037715
0.011609347 -0.1422642 -0.040814303 -0.046066187 -0.02297129 0.009798019 0.05550275 -0.03126284
0.042063534 0.07407329 -0.051585883 0.037946075 -0.031670913 0.06270312 0.00024582056 0.08631972
0.07952306 0.035244446 -0.031114986 0.119309925 0.03619556 0.12609506 -0.114455104 0.0304777
-0.07536791 0.017831698 0.0026242274 0.056641154 -0.021286523 0.007975401 -0.17057547 0.021102479
0.08176216 -0.090760365 0.02472017 0.06403086 0.022630518 0.059419006 0.043614734 -0.009470006
-0.07384772 -0.06805386 -0.06224017 0.020229198 -0.027132789 -0.062986925 0.020721495 0.03278685
-0.03232981 0.04726657 0.026920123 -0.082896374 -0.029312344 -0.066943884 0.0486902 0.14809385
0.024309078 -0.022676075 0.056885716 0.046891984 0.039237898 -0.08342304 0.014820771 0.00030068788
-0.08241703 -0.07932915 -0.11159914 0.07905609 0.013477857 0.113248065 -0.03313576 -0.0072748875
0.046454467 0.048310526 0.045083106 -0.022702156 0.080243126 -0.017289652 -0.16129322 0.034002908
0.029556584 0.0945187 -0.03797908 0.04930256 0.03607583 0.09856034 0.0450369 0.04080205
0.021670643 -0.030599048 0.078382865 0.03325415 0.094099194 0.01989475 -0.058117777 -0.07276173
0.07702125 0.08655113 0.022819333 -0.0028450713 -0.06247762 -0.081037775 -0.025660139 0.046649646
-0.03774295 -0.121583246 0.0924016 -0.053178903 0.0003329609 -0.01229425 -0.0019402372 -0.049454775
-0.15022953 -0.04295156 -0.10904709 0.033587407 -0.04859887 -0.013618886 0.09712623 -0.005662193
0.04907087 0.13589741 0.04026901 0.02905706 -0.06383973 -0.04414995 0.11177196 -0.120430246
-0.029850855 0.034953628 -0.03548427 0.031471975 0.06060104 -0.04921263 0.011779697 -0.07048268
-0.095917255 -0.034160633 -0.12745638 0.0068369214 0.020861167 -0.02580387 0.053200133 -0.0105271125
0.086308755 -0.0067747533 0.028776394 0.051246997 0.07966349 -0.021496922 0.116189614 0.01387792
0.039559666 -0.08468086 0.038739078 0.064485125 0.09942146 -0.013516002 0.017739143 0.09711036
0.036841743 0.0004308925 0.03428173 0.029004792 -0.06988234 0.012716029 0.09551625 -0.06586223
0.046447996 -0.048630264 0.02448209 -0.0054602586 0.033343617 -0.00036356668 0.06495194 -0.105258934
0.024986472 -0.07705692 0.012113157 -0.0695848 -0.11856141 -0.0167286 -0.018612001 -0.08818681
-0.018744413 -0.08227593 0.0036540716 -0.11800712 0.018035067 -0.08339341 -0.018413324 0.008904029
-0.096738 0.09095951 0.040446542 0.017856326 -0.07353434 0.07211764 -0.026347883 -0.001729919
-0.09144807 0.1887806 0.07497408 0.027781986 -0.015162276 -0.13969181 0.039696436 -0.04825143
0.07213663 0.048753873 0.058063347 -0.09342868 -0.0027335174 -0.16260599 0.066778004 -0.06993243
0.06781393 -0.13174324 -0.0062893885 -0.1727115 0.0814524 -0.093074165 0.11281993 0.0590533
-0.00013715606 0.008392615 0.0022417998 -0.03468306 -0.1325655 0.015143933 0.02567654 0.07127841
0.14483412 0.07564713 0.12247119 -0.05447836 0.052593183 0.05714091 -0.017055014 -0.04246869
-0.016904598 0.022331858 0.03904749 0.06070351 -0.0818158 -0.0104411105 -0.10513828 -0.19967295

net.5.bias f4 [8]
00000000: 8257 593d 77fd 14bd 7c8a 22bd 2603 82bd
00000010: 7f0c 16bd 02f0 37bd ceb7 593d 2fdc 1a3d
0.05306197 -0.036374535 -0.03968285 -0.06348257 -0.03663301 -0.044906624 0.053153805 0.03780764

exp_avg f4 [32, 120, 2]
00000000: 5fce d1b8 98b5 fdb8 77ea a437 fc3d 93b8
00000010: 3c2e 6aba 0291 65ba e34d 163b d27c 953a
00000020: 3cd8 05ba 5614 63ba aa65 ef39 f69e 9fb9
00000030: fb54 293a 1d45 f939 0c33 8839 1cc1 3c39
00000040: 25af 4e36 2b3f 49ba e7f5 9c37 0436 7237
00000050: 7ac8 1d3a 93dd ec39 759c 57ba acc1 5e38
00000060: b1ed 73b9 7d5f 5bb9 81fa 0bba 0d49 e839
00000070: ce56 d6b8 4221 7aba 6c7e 063a e1a1 e438
00000080: 0a78 9139 9ad7 e238 41ed a7b9 5514 8cb9
00000090: 0095 44ba 7050 5539 02e1 0c3a 2d92 883a
000000a0: a115 77ba 8d55 99ba d114 9037 abb6 d939
000000b0: b287 a8ba 9be3 aeb9 892f 16b8 f228 6738
000000c0: bc88 663b fdd8 553b 640a 413a 66eb 933a
000000d0: 1ab1 193a 7d40 8f3a f6e5 6338 981b 9c37
000000e0: 6584 aeb8 18df fcb7 3bd2 593a f804 f539
000000f0: 4b23 f239 706e 083a b496 073a f4af bfb9
00000100: d856 20b9 b05e 41ba 0838 a7b8 b095 e638
00000110: 9e6c 61ba 7fc4 9bba 8bb5 1a38 2ae2 9ab8
00000120: d674 9a39 c63f d339 b7d5 8ab9 4de5 d3b9
00000130: 91ca 063a 1236 b039 0000 0000 0000 0000
00000140: 8d44 673a a6bd 1b3b d781 9139 67f1 243a
00000150: 52c5 5e39 ac17 53b8 7081 7139 e202 cf39
00000160: c3f7 81b9 5864 33b9 8809 9439 13d3 f2b8
00000170: bae1 6739 d7cc 76b9 b793 7938 44bf ec39
00000180: 6eee 9238 43a3 8b3a 0ea9 2f39 4d6c fd38
00000190: 4bc0 78ba 1837 36ba ae38 85b9 6230 f039
000001a0: d5c5 92b7 de47 4d39 7afd 8639 e3e7 6fb9
000001b0: 0751 b339 0f66 7439 3d5e 40b9 3f41 17b9
000001c0: 77e6 11bb f2a1 7cba 9aa7 45b8 fadb a2b8
000001d0: 671d d938 ce92 c338 77af 5a39 2187 05ba
000001e0: 3fe5 df3a e677 4e3b 4bde 82b6 47d6 b7b5
000001f0: ad39 9038 b76b 153a 606d 71b8 adc2 b8ba
00000200: 0dd8 53ba 07cf 84ba 5792 22b8 e1b5 f7b7
00000210: 25e8 833a 52c6 a33a dc52 c339 ba31 63ba
00000220: a832 a038 e408 cf37 8771 f6b9 563e 21ba
00000230: 79ba 7338 9ded 10b9 0b6f d5b9 bcbc 85ba
00000240: e534 8a3a 26e6 2b3a 09f3 0fba e533 2cba
00000250: d103 af39 1a37 2437 568c 19b9 09ea 50b9
00000260: ae85 8138 ed1e 1db8 4ac9 973a a18d 843a
00000270: 34ca 4ebb a2f9 37bb f6c3 8f37 e2e8 1eba
00000280: 0721 2ebb 6ca2 17bb eb51 0739 7544 ad38
00000290: 6895 e7b9 c0e3 84b9 4741 fd39 6112 6f3a
000002a0: 8998 eb39 d7cb 2c3a 14bf 2b3a 2a51 263a
000002b0: a319 4c3a 8924 4e3a f3bd 043a fa01 fb35
000002c0: 7de2 5f3a c77d 9339 03de 1d3a 5112 21b9
000002d0: 2be3 4138 4f84 d3b7 3a25 e03a 51dd 1a3a
000002e0: cf82 103a cc78 9bb9 3146 40b7 1001 ddb9
000002f0: 2a70 8f39 bd07 57b9 6031 d5ba 496c f0ba
00000300: 4738 8d39 0eaf da39 9002 e3b8 39d3 92b8
00000310: bb46 22b8 561d 2aba 7425 3dba 0fca 6eba
00000320: 76df 57b9 c13b b9b8 2afc 1039 bbbf 86b8
00000330: 28df 1638 6463 5e39 6ff8 c1b9 4d81 6eba
00000340: eef3 72bb 2f62 16bb 2105 06b9 e08d 05b9
00000350: 4e6e e03a 6489 813a c681 36b8 050f f4b7
00000360: fd08 b9ba e972 95ba f32d d0ba 8f1d 70ba
00000370: ef19 82b9 3328 173a 6178 47ba 4e33 873a
00000380: 9038 1fbb 6cb4 eeba 9999 b939 dc49 1839
00000390: 37a8 b439 beb3 2a39 573f 22bb a4ec 0fbb
000003a0: ae6a 263a e3a8 c939 5e8f 0bbb c8b0 b0ba
000003b0: 28ec 4e39 d17e 4039 929e ce38 90db 90b8
000003c0: 0c48 f138 7e49 adb8 fb22 7c39 ab76 1c38
000003d0: 5bc8 443b 946d 5ab9 fedd ac3a c29c 123b
000003e0: 306d fd39 9907 cb3a e5fe f73a fbf0 0fba
000003f0: 4581 ac37 0f6a 71ba 58cb d639 b335 3aba
-0.00010004336 -0.000120978046 1.9659505e-05 -7.021052e-05 -0.0008933281 -0.00087572646 0.0022934608 0.0011404997
-0.0005105769 -0.0008662393 0.00045661378 -0.00030445278 0.00064595015 0.00047544474 0.00025977974 0.00018001016
3.079834e-06 -0.0007676954 1.8711156e-05 1.44369005e-05 0.0006018948 0.00045178513 -0.0008224913 5.3109296e-05
-0.00023262833 -0.0002092104 -0.0005339757 0.00044304915 -0.00010220484 -0.0009541699 0.00051305327 0.000109020395
0.0002774599 0.00010816679 -0.0003202949 -0.0002671803 -0.00074990094 0.00020343228 0.0005374105 0.001041954
-0.0009425525 -0.001169847 1.7175831e-05 0.00041525564 -0.0012857823 -0.00033357445 -3.5807057e-05 5.5112825e-05
0.0035176715 0.0032630556 0.0007363914 0.0011285364 0.0005862877 0.0010929253 5.4335185e-05 1.8609499e-05
-8.321627e-05 -3.0144627e-05 0.000830922 0.00046733744 0.00046184132 0.0005204445 0.0005172298 -0.00036561454
-0.00015291141 -0.0007376475 -7.973617e-05 0.00010995136 -0.0008599254 -0.0011884122 3.6885536e-05 -7.3854186e-05
0.00029460219 0.0004029257 -0.0002648064 -0.000404159 0.0005141879 0.00033609621 0.0 0.0
0.00088221655 0.0023764162 0.00027753293 0.0006292075 0.00021245077 -5.0328366e-05 0.0002303177 0.00039484265
-0.00024789394 -0.00017108151 0.0002823586 -0.00011578775 0.00022113966 -0.00023536697 5.9503796e-05 0.00045155932
7.0062335e-05 0.0010653514 0.00016752278 0.00012084153 -0.0009489103 -0.00069509586 -0.00025409966 0.00045812415
-1.7496679e-05 0.00019577096 0.00025747326 -0.000228792 0.0003420191 0.00023307673 -0.00018345653 -0.00014424788
-0.0022262612 -0.0009637169 -4.712455e-05 -7.765736e-05 0.00010352843 9.325669e-05 0.00020855466 -0.0005093683
0.001708187 0.003150457 -3.90018e-06 -1.3696925e-06 6.877198e-05 0.00056999497 -5.756074e-05 -0.0014096104
-0.00080812053 -0.00101325 -3.87601e-05 -2.9529388e-05 0.0010063691 0.0012495017 0.00037255033 -0.00086667726
7.63883e-05 2.4680463e-05 -0.0004700536 -0.00061509514 5.810938e-05 -0.00013821428 -0.0004070926 -0.0010203342
0.0010544328 0.0006557427 -0.0005491232 -0.0006569012 0.00033381445 9.787991e-06 -0.00014643496 -0.0001992361
6.176099e-05 -3.746052e-05 0.0011580375 0.001011301 -0.0031553628 -0.0028072377 1.713818e-05 -0.0006061924
-0.0026569979 -0.0023137582 0.0001290512 8.262034e-05 -0.0004417107 -0.0002534669 0.00048304556 0.0009119865
0.0004493634 0.0006591654 0.0006551605 0.0006344492 0.00077858026 0.00078637205 0.0005063705 1.8701533e-06
0.0008540524 0.00028131736 0.0006022157 -0.0001536098 4.6226352e-05 -2.5214771e-05 0.0017100938 0.00059076125
0.0005512656 -0.00029653904 -1.14604345e-05 -0.00042153196 0.00027358654 -0.0002050688 -0.0016265325 -0.0018342818
0.00026935546 0.00041710626 -0.00010824681 -7.001166e-05 -3.8689683e-05 -0.0006489357 -0.0007215359 -0.00091090886
-0.00020587243 -8.8326175e-05 0.00013826849 -6.4253305e-05 3.5970617e-05 0.00021208596 -0.00036996926 -0.0009098247
-0.0037071663 -0.0022946706 -0.00012781147 -0.00012736721 0.0017122717 0.0009882865 -4.3513042e-05 -2.909406e-05
-0.0014117059 -0.0011402044 -0.0015882835 -0.0009159678 -0.00024814854 0.0005766183 -0.00076091854 0.0010314973
-0.0024295188 -0.0018211729 0.0003540039 0.00014523364 0.00034457605 0.00016279423 -0.0024756992 -0.0021961117
0.0006348294 0.00038463538 -0.002129517 -0.0013480419 0.00019733666 0.0001835779 9.8523815e-05 -6.907352e-05
0.00011505195 -8.262972e-05 0.00024045624 3.7303816e-05 0.0030026648 -0.00020830921 0.0013188717 0.0022371267
0.0004833727 0.0015489935 0.0018920569 -0.0005490926 2.0564194e-05 -0.00092092244 0.00040968764 -0.0007103339

exp_avg_sq f4 [32, 120, 2]
00000000: 629e 1135 2ab7 7a34 83c9 0636 badc 5735
00000010: c201 5438 f97e d337 b47c 1738 cb3f ca37
00000020: f787 e636 da05 5437 d620 d738 8930 2638
00000030: 96fc 6d36 2a33 a436 d90a 1d38 13cc 2f38
00000040: 31c6 8f35 54ae 5d36 a4da 8e31 60cb 7131
00000050: d7bd db37 7d4f 2238 7905 1a38 b33d a337
00000060: 92a0 1e35 beff f134 acf6 5038 b9be 2838
00000070: d261 b637 2cff be37 a2af 2937 29f4 9637
00000080: 2d71 a636 e0d8 5c36 4c6d c935 a62a 7935
00000090: 3ea4 0738 c271 1b38 fd95 6337 8631 8237
000000a0: 71b9 5837 2264 9037 9e3a 8536 aa80 f735
000000b0: 5f58 2d38 cca1 d337 db2d e238 5306 d638
000000c0: 3a90 c338 953c 9738 950d 7538 e9cc 6f38
000000d0: 5b63 5c36 c585 1336 bd71 0733 144f 1932
000000e0: 8c31 cd33 ca6a 0334 3ab5 9236 4dc7 1236
000000f0: 8d9f 1236 f67c 1036 a6b2 7b37 2143 6337
00000100: d2e1 fc34 cde6 5736 f264 7c35 205c c034
00000110: c367 1438 ee52 5a38 d82b f834 7362 da35
00000120: efbd c936 b3f6 5636 8f5f ec35 5446 1836
00000130: 2dcd d535 8b54 3d35 0000 0000 0000 0000
00000140: e191 c238 42aa a538 bfab 3437 fbd8 1b37
00000150: 6435 e735 b7c6 3036 b9fe a337 29ad 9d37
00000160: 63a8 a736 7b40 9136 1011 6836 cf02 6035
00000170: 4b2b b136 2d59 fa36 78d6 cf36 8841 dc36
00000180: e980 cc36 082c 0737 a73a 9335 57c7 6935
00000190: 3e6e 4336 525f 2936 c7e0 c237 57e2 9637
000001a0: 470a c138 505f 9c38 8b63 3a36 bed7 9c36
000001b0: 5a1d ef36 f786 5536 a914 ca36 1d10 0537
000001c0: 09d7 2838 8043 5b37 0659 8135 e291 9335
000001d0: b15c 6f35 684f b235 b79a dd36 7657 f436
000001e0: 9425 3538 a262 9438 c5e7 ec31 129e a331
000001f0: f2ea 5838 5dde 2f38 c473 a636 c5e0 3c37
00000200: 6343 1d37 7b97 2a37 7619 fd32 c005 4433
00000210: d39c f337 9abd 5737 e29f 5e39 9336 8539
00000220: f59e 2736 73f4 1935 c2bc c237 1502 5f37
00000230: 3452 0538 e62f 6c37 136e 7d37 1e79 1237
00000240: f36a b837 ca6f 8637 90c9 3c36 88bf 2936
00000250: f0f2 b036 324b 9936 27a6 0e35 e48b 5435
00000260: a31b 4334 1baf ba34 b9a1 8437 1bd2 3a38
00000270: 4e1c 2339 d078 f638 69cc a635 4f68 7336
00000280: b633 ce38 b967 0439 db32 4e35 442e 8a35
00000290: 29ce 2a36 9f0e aa35 051c 2137 ae4c 1137
000002a0: 6c88 1237 125f 2637 6d57 b836 c444 6436
000002b0: 6227 0737 7c52 3237 388b 3c37 6d94 9b36
000002c0: ecae 2937 6eca 4037 0401 6437 2e5a 3037
000002d0: b3f8 ce35 29bb a434 a95f c136 c342 fa35
000002e0: e9cc 2538 f6ee d737 5de2 3a37 ba0b cb36
000002f0: 2c3a 5d36 c2da 0036 dae0 4e38 700f 7f38
00000300: a1c5 1b36 9a70 2c36 8e7d 9c34 8f4b 6a34
00000310: a8da aa35 ac54 a536 796a 2c37 1ec4 6336
00000320: 693b 6a36 b6d1 d035 33c5 2635 f800 9035
00000330: 31b7 b736 b91f 5136 db48 7636 98f4 e136
00000340: 78ef 8738 456b a138 80c7 a535 4f12 8135
00000350: 7d16 d637 f4ee 8437 2a44 8135 83b0 9635
00000360: 81fa 3237 c009 fe36 738c de37 5b90 bb37
00000370: 9fd5 6138 2c4a 3438 e2ed 1f39 b414 2539
00000380: c5ad b237 d209 7f37 9971 c835 5626 a435
00000390: c1e7 f336 3b07 9036 ab3c 0139 acf0 3d39
000003a0: 5ec5 af35 7ef8 4e35 65cf 9837 b59f c137
000003b0: 9afc 8336 2c08 4536 2a8c 4c36 470a 6a36
000003c0: 1cbc f635 cca0 8336 ce6a 9036 ee8e 8936
000003d0: fdd7 8a39 b88d 6839 b391 dc37 0a88 1238
000003e0: 7d6e 0438 793c df37 c690 9639 9cf8 bd39
000003f0: 3efa ab36 ef08 4f37 3cec 1238 3f7c b338
5.4247187e-07 2.3349699e-07 2.0084851e-06 8.041494e-07 5.0546376e-05 2.5212286e-05 3.6117344e-05 2.4109982e-05
6.8703625e-06 1.2637547e-05 0.00010258115 3.9622686e-05 3.5462776e-06 4.893537e-06 3.744182e-05 4.191331e-05
1.0712012e-06 3.3033039e-06 4.1576005e-09 3.518572e-09 2.6195235e-05 3.869784e-05 3.6721558e-05 1.9459845e-05
5.909325e-07 4.5075825e-07 4.9820796e-05 4.0231946e-05 2.1741642e-05 2.2768589e-05 1.0114078e-05 1.799509e-05
4.960361e-06 3.2908792e-06 1.5007477e-06 9.282179e-07 3.233947e-05 3.7060825e-05 1.3565176e-05 1.5520269e-05
1.291778e-05 1.7212766e-05 3.970533e-06 1.844038e-06 4.1328716e-05 2.5228503e-05 0.00010785061 0.00010205493
9.325189e-05 7.2115254e-05 5.84252e-05 5.7172878e-05 3.2840387e-06 2.198257e-06 3.153558e-08 8.923752e-09
9.555069e-08 1.2239175e-07 4.3722366e-06 2.1871704e-06 2.1848566e-06 2.153041e-06 1.5002361e-05 1.3545884e-05
4.7102964e-07 3.217184e-06 9.402421e-07 3.5829817e-07 3.5382585e-05 5.2052485e-05 4.62255e-07 1.6270918e-06
6.012378e-06 3.2032083e-06 1.7611181e-06 2.2690701e-06 1.5929451e-06 7.0531013e-07 0.0 0.0
9.277813e-05 7.899526e-05 1.0768824e-05 9.28924e-06 1.722638e-06 2.634171e-06 1.9549729e-05 1.8796492e-05
4.9965906e-06 4.3288433e-06 3.4580626e-06 8.345059e-07 5.280051e-06 7.460962e-06 6.194048e-06 6.5641398e-06
6.094681e-06 8.056879e-06 1.0969424e-06 8.708934e-07 2.9121434e-06 2.5238446e-06 2.3231272e-05 1.7986791e-05
9.2048715e-05 7.456413e-05 2.7774101e-06 4.674278e-06 7.126172e-06 3.1818033e-06 6.0224743e-06 7.931169e-06
4.025459e-05 1.3069133e-05 9.637158e-07 1.0994811e-06 8.916932e-07 1.3285144e-06 6.6043244e-06 7.2819485e-06
4.318876e-05 7.075562e-05 6.894853e-09 4.761895e-09 5.1717223e-05 4.1930343e-05 4.9606624e-06 1.1258006e-05
9.373619e-06 1.0168059e-05 2.9464655e-08 4.5640036e-08 2.9040884e-05 1.2859144e-05 0.00021231131 0.00025408398
2.4977464e-06 5.735266e-07 2.32145e-05 1.3292321e-05 3.178623e-05 1.4077848e-05 1.5105604e-05 8.730478e-06
2.1984311e-05 1.60261e-05 2.8131508e-06 2.5294448e-06 5.2734904e-06 4.568509e-06 5.3140906e-07 7.917972e-07
1.8170844e-07 3.4772606e-07 1.5810934e-05 4.454153e-05 0.00015555436 0.00011752697 1.2427455e-06 3.6270537e-06
9.8324774e-05 0.0001262714 7.6814985e-07 1.0295266e-06 2.5451975e-06 1.2670242e-06 9.602872e-06 8.660527e-06
8.734041e-06 9.916506e-06 5.493805e-06 3.4014674e-06 8.055797e-06 1.0628832e-05 1.1238088e-05 4.636639e-06
1.0113912e-05 1.1491224e-05 1.35900955e-05 1.0511414e-05 1.5420577e-06 3.0683557e-07 5.7629845e-06 1.8645882e-06
3.9529903e-05 2.5741272e-05 1.1139168e-05 6.0512366e-06 3.2965427e-06 1.920082e-06 4.9323637e-05 6.0811115e-05
2.3211835e-06 2.569554e-06 2.9148617e-07 2.1820436e-07 1.2729624e-06 4.9272403e-06 1.0276789e-05 3.3939791e-06
3.4903298e-06 1.5558242e-06 6.212678e-07 1.0729118e-06 5.4751513e-06 3.1161892e-06 3.6699264e-06 6.733997e-06
6.481906e-05 7.697059e-05 1.235152e-06 9.616577e-07 2.552126e-05 1.5846897e-05 9.631087e-07 1.1227243e-06
1.0667952e-05 7.570925e-06 2.6529864e-05 2.2359358e-05 5.384313e-05 4.2984422e-05 0.0001525204 0.00015743339
2.1300171e-05 1.5201471e-05 1.4934222e-06 1.2230109e-06 7.268944e-06 4.292376e-06 0.00012324999 0.00018114102
1.3095957e-06 7.7102584e-07 1.8216388e-05 2.3081762e-05 3.933511e-06 2.9360044e-06 3.0479955e-06 3.48747e-06
1.8383175e-06 3.9228235e-06 4.303968e-06 4.0995574e-06 0.00026482335 0.00022178038 2.629389e-05 3.493581e-05
3.1574153e-05 2.6611831e-05 0.00028718094 0.00036234118 5.125329e-06 1.23402415e-05 3.5029123e-05 8.558528e-05

exp_avg f4 [32]
00000000: 6ca1 babb 3015 b63c f264 3f3c 800b d43b
00000010: 0e0e 783c 359f eabb 15d6 9f3b 7acc 863b
00000020: fe44 0dbc ea8e 7d3c f732 b8bb c954 e93b
00000030: a4b8 d5ba 0444 f93b 87fd 6c3c 3e05 57bc
00000040: bbca a2bc 45e7 12ba b5b3 5bbb 64b1 ccba
00000050: 161e 413c 22a1 143c c0aa 883c 902a 3ebc
00000060: 5847 19bc 74e7 303c f2ed 0c3c 5417 11bc
00000070: 6290 8fb8 4eef b5bb 4f23 afbb 1cc2 ef3b
-0.0056955125 0.0222269 0.011681782 0.0064710975 0.01514007 -0.0071600922 0.0048778155 0.004113731
-0.008622406 0.015475968 -0.00562131 0.007120703 -0.0016305638 0.007606985 0.0144647425 -0.013123808
-0.01987206 -0.000560392 -0.0033523862 -0.0015616831 0.011786958 0.00907162 0.016682982 -0.011606827
-0.009355389 0.01079737 0.008601652 -0.0088556595 -6.845665e-05 -0.005552209 -0.0053447853 0.007316841

exp_avg_sq f4 [32]
00000000: 1ec2 013b 29d4 ba3b 5943 823b f9a0 2d3b
00000010: a7b1 823b 2654 ad3a f273 233a 2865 153a
00000020: d19b 363b 0485 e73b 0e59 f83a 7e9d fb3a
00000030: d680 ef3a 1f96 103b 0942 873b b779 d73a
00000040: 0c84 df3b 1566 0f3a de21 533b 088b b63a
00000050: ded0 a33b 431c ed3a cacb fa3b ad79 9c3b
00000060: 3e05 263b 13ca 973b c150 293b 2250 113b
00000070: 366e 203b 80ad 553b 4b7a 5a3b a1f9 0b3b
0.001979954 0.005701561 0.0039753136 0.0026493652 0.003988463 0.0013223931 0.0006235234 0.00056989724
0.002786387 0.0070654172 0.0018947439 0.0019196717 0.0018272649 0.0022062135 0.004127745 0.0016439472
0.006821161 0.00054702285 0.0032216231 0.0013926933 0.004999264 0.0018090088 0.007653688 0.004775247
0.0025332714 0.0046322434 0.0025835487 0.0022173007 0.0024479753 0.0032604635 0.0033337052 0.0021358507
