data/Figure3_Supplement/006/checkpoint_0000500.pth (torch, 220032 bytes, 31 tensors)

net.0.weight f4 [32, 120, 2]
0	0xbd1c4045	-0.03814723
1	0xbb4b50c3	-0.003102348
2	0xbcdacd6b	-0.026709279
3	0x3ac3ce16	0.0014938738
4	0x3d6ba966	0.057534598
5	0xbd21faf9	-0.039545987
6	0xbc5577af	-0.013029023
7	0xbd4557e3	-0.04817952
8	0xbc671552	-0.014104204
9	0x3cad565f	0.021159349
10	0x3d170c37	0.036876883
11	0x3d345336	0.04402467
12	0x3d593b8d	0.053035308
13	0xbc257a0e	-0.010099901
14	0xbcdf448e	-0.02725437
15	0x3cb4b57c	0.022059195
16	0xbcda8ab2	-0.026677463
17	0x3ceb9ed3	0.028762257
18	0xbd2ebdc3	-0.04266144
19	0xbd2bacfc	-0.041913018
20	0xbd849cde	-0.064752325
21	0x3cb7519e	0.022377785
22	0x3d4bc811	0.049751345
23	0xbcf3a774	-0.029742934
24	0x3c51c52a	0.012803355
25	0xbce57263	-0.028008645
26	0xbd826ab1	-0.06368006
27	0x3c42f161	0.0118983695
28	0xbd2e367b	-0.042532425
29	0x3cb37b80	0.021909475
30	0xbd5336e8	-0.051566035
31	0xbd6e8fc6	-0.05824258
32	0xbd77b274	-0.06047292
33	0xbd2dd4e0	-0.04243934
34	0x3cc068f3	0.023487544
35	0xbd616306	-0.055026077
36	0xbab6cd92	-0.0013946763
37	0xbca56d23	-0.020193642
38	0xbc85e89e	-0.016346272
39	0xbce2387b	-0.027614823
40	0xbd89607e	-0.067078575
41	0x3d578564	0.052617446
42	0x3d6b10e3	0.05738915
43	0x3ce406f5	0.027835349
44	0xbd553568	-0.052052885
45	0xbc8c7bc3	-0.017148858
46	0xbc97117a	-0.01844095
47	0x3d315291	0.043291632
48	0xbc5f4e45	-0.013629501
49	0xbd6ba109	-0.057526622
50	0xbd2ddde5	-0.042447943
51	0xbd7cc2e4	-0.0617093
52	0xbd0b28b4	-0.033974364
53	0x3cccf603	0.025019651
54	0xbcecd41a	-0.028909732
55	0xbca50d20	-0.02014786
56	0x3b0f9170	0.0021906756
57	0x3c95d484	0.018289812
58	0xbcca344a	-0.024683136
59	0xbb18f090	-0.0023336746
60	0xbc92bdfb	-0.017912855
61	0xbd835450	-0.06412566
62	0xbbf55c5f	-0.007487818
63	0x3cdab6e1	0.026698532
64	0x3d3aa1ed	0.04556458
65	0x3d383b5b	0.04497848
66	0x3c19ec2f	0.009394689
67	0xbb83f469	-0.0040269387
68	0x3c2145da	0.009843314
69	0x3d2a1634	0.04152508
70	0xbd047848	-0.03234127
71	0xbd399ebc	-0.045317397
72	0xbd7b1075	-0.06129499
73	0x3d17f29b	0.0370966
74	0xbd270a36	-0.040781222
75	0xbbfaba9e	-0.007651641
76	0xbd35acd0	-0.04435426
77	0xbc11744f	-0.008877828
78	0xbca870d0	-0.020561606
79	0x3d3b26bb	0.045691233
80	0xbcbf8aef	-0.023381678
81	0x3d707e79	0.058714364
82	0x3d12c5c8	0.03583315
83	0xbcdfc2db	-0.027314594
84	0xbd4f2eea	-0.05058185
85	0xbce181ba	-0.027527679
86	0xbbf7757a	-0.007551846
87	0xbd4e95bc	-0.050435767
88	0x3c6dd583	0.014516237
89	0xbba92dcb	-0.0051629297
90	0xbd0f3400	-0.0349617
91	0x3d7f1e0e	0.06228452
92	0xbc6cf4c8	-0.014462657
93	0x3d56998c	0.052392527
94	0xbbe206df	-0.0068977918
95	0x3d888562	0.06666066
96	0x3c773df1	0.015090452
97	0x3c8c7367	0.017144872
98	0xbd7fdb98	-0.06246528
99	0x3c020ef4	0.007938135
100	0xbd27cfb1	-0.040969554
101	0x3d94207a	0.07232757
102	0x3c44d4cd	0.012013626
103	0x3bfe5881	0.0077620153
104	0xbd56ffed	-0.052490164
105	0xbc8b609d	-0.017013842
106	0x3bdc8e60	0.0067308396
107	0xbd753cbb	-0.05987237
108	0xbb8c13b1	-0.0042748083
109	0x3b9f2f67	0.0048579457
110	0x3d3ce5ca	0.04611758
111	0xbd71748d	-0.058949042
112	0x3ce449c2	0.027867202
113	0xbcc54c15	-0.02408413
114	0x3d4447d2	0.047920056
115	0xbca43adc	-0.020047598
116	0x3ce3b247	0.02779497
117	0x3c9ca25d	0.01912039
118	0xbd003a43	-0.031305563
119	0xbc5ef998	-0.0136093125
120	0xbd1990c3	-0.03749157
121	0xbd44630e	-0.04794603
122	0x3d1aff69	0.037841234
123	0x3d2da7b6	0.04239627
124	0x3d0f4d5b	0.03498588
125	0x3d1b5cee	0.03793042
126	0xbd8706c6	-0.06593089
127	0xbcb6cb95	-0.022313872
128	0x3d21357e	0.039357655
129	0x3c9e0911	0.019291433
130	0xbcd42e4e	-0.025900986
131	0xbd14ea7c	-0.036356434
132	0x3cbf0637	0.023318393
133	0x3cd96cf7	0.026541216
134	0x3b23c523	0.0024989329
135	0xbd18a085	-0.03726246
136	0xbd246236	-0.040132724
137	0x3d90dd8b	0.07073506
138	0x3d4bfeb9	0.04980347
139	0xbd194ba2	-0.037425645
140	0x3c90555a	0.017618824
141	0xbbbc5168	-0.005747009
142	0x3d4edb6f	0.050502237
143	0xbd0b5c7a	-0.03402374
144	0x3d92f677	0.07175916
145	0x3d81db7e	0.06340693
146	0xbce63a1a	-0.028103877
147	0xbab55ddf	-0.001383718
148	0x3d6c4461	0.0576824
149	0xbd607eff	-0.054808613
150	0x3d45bfdf	0.048278686
151	0xbd09dc38	-0.033657283
152	0xbd6a9160	-0.057267547
153	0xbd4e40f2	-0.050354905
154	0x3d0aa1ef	0.03384584
155	0xbcaeff40	-0.021361947
156	0x3ca36231	0.019944282
157	0xbbe53c1d	-0.0069956915
158	0x3d4ab0b7	0.049484935
159	0x3b9b620c	0.0047419127
160	0x3d3db33f	0.04631352
161	0x3cf428c5	0.029804597
162	0x3d87495e	0.066057906
163	0x3c200a96	0.009768149
164	0xbd2a3493	-0.041554045
165	0x3d554e5b	0.05207668
166	0xbccade1e	-0.024764117
167	0x3c708ff1	0.014682756
168	0x3c3653b0	0.011128351
169	0xbc9c8cb0	-0.019110054
170	0x3d4518f4	0.0481195
171	0xbd8d3db6	-0.06896536
172	0x3cfab3ba	0.030603278
173	0xbd3c3e2c	-0.04595773
174	0xbd1d91fe	-0.038469307
175	0xbc7e33c7	-0.015515274
176	0xbca482ed	-0.020081962
177	0xbc94ea52	-0.018178139
178	0x3c2efb33	0.010680008
179	0xba226506	-0.0006194863
180	0x3c5e8e6f	0.0135837635
181	0x3d47bc19	0.04876337
182	0xbd0fea34	-0.035135463
183	0xbbd56732	-0.006512546
184	0x3d2aea82	0.04172755
185	0xbc50e254	-0.012749273
186	0x3d6849cc	0.056711003
187	0xbd21967b	-0.03945015
188	0xbd77ac53	-0.060467076
189	0x3c5c8aae	0.013460798
190	0xbbb3966e	-0.005480579
191	0x3d318f3b	0.043349486
192	0xbbae9cb9	-0.0053287414
193	0xbd954086	-0.072876975
194	0x3cc6b0a8	0.024254158
195	0xbd1f9e0b	-0.03896908
196	0x3d7317e9	0.059348974
197	0xbc8d42d2	-0.017243776
198	0xbc8a77d3	-0.01690284
199	0xbd681d71	-0.056668703
200	0x3d042c42	0.03226877
201	0x3c5f4447	0.013627118
202	0xbd4c4a54	-0.049875572
203	0xbc3b711f	-0.011440544
204	0x3d628f23	0.055312287
205	0xbcb47ffc	-0.022033684
206	0xbc97434a	-0.018464703
207	0x3d39614a	0.045258798
208	0x3cb917de	0.022594389
209	0x3d2444db	0.04010473
210	0x3a4ec245	0.0007887225
211	0x3cb1b900	0.02169466
212	0xbc3db5c4	-0.011578981
213	0x3cf3d8ef	0.029766528
214	0x3ceff1b5	0.02929006
215	0x3d857c9d	0.06517909
216	0x3d47aeaa	0.048750557
217	0x3caa1696	0.020762723
218	0x3b5cf25b	0.003371379
219	0x3c1d6f22	0.009609016
220	0x3ce3ae22	0.027792994
221	0x3c730fc0	0.014835298
222	0xbbd787be	-0.006577461
223	0x3b92b3fa	0.0044770213
224	0x3c656d9a	0.014003182
225	0x3d7000fc	0.05859469
226	0xbbb1801f	-0.0054168846
227	0xbd0ec701	-0.034857754
228	0x3cf7e449	0.030260222
229	0x3d67de09	0.056608234
230	0x3cf63afe	0.030057427
231	0x3d64cf12	0.05586154
232	0x3bda8a5e	0.0066693267
233	0x3c270014	0.01019289
234	0x3cc7fd16	0.024412673
235	0xbd351eae	-0.04421871
236	0xbbb67ed4	-0.0055693183
237	0xbbc07017	-0.005872737
238	0x3d8607e6	0.06544475
239	0xbd6842c6	-0.056704305
240	0x3bf07274	0.0073378626
241	0xbc096bcf	-0.00838752
242	0x3b2741a9	0.0025521314
243	0xbc96723c	-0.018365018
244	0x3d5340d9	0.051575515
245	0x3cf1c167	0.029511167
246	0xbcc5c348	-0.024140969
247	0xbccf3133	-0.025292015
248	0x3d2069d4	0.039163426
249	0xbd1736ec	-0.036917612
250	0xbd427de4	-0.04748334
251	0x3d1becdc	0.038067684
252	0x3d5d373d	0.054007757
253	0x3d13133c	0.035907015
254	0xbb4bad03	-0.0031078465
255	0x3cd5d79b	0.026103785

net.0.bias f4 [32]
0	0x3cecf1ec	0.028923951
1	0xbcc6787e	-0.024227377
2	0xbd599f3d	-0.053130377
3	0xbd337b9b	-0.04381905
4	0xbd8154ed	-0.063150264
5	0x38d8a50a	0.000103304235
6	0x3d12ba7f	0.035822388
7	0xbcb92c7a	-0.022604216
8	0x3d0d2d9f	0.034467336
9	0x3cbe441c	0.023225836
10	0xbc81830c	-0.015809558
11	0xbd4fc1d5	-0.050721962
12	0x3c78eabc	0.015192684
13	0x3cc0a7bd	0.023517484
14	0xbb3f10d3	-0.0029154315
15	0x3d2d139f	0.04225504
16	0xbcab5a9a	-0.020917226
17	0xbc2dbbbd	-0.010603842
18	0x3d18e0d1	0.037323777
19	0xbc23a5a2	-0.00998822
20	0x3d5d1467	0.053974535
21	0x3d5d2d87	0.053998496
22	0xbd428a98	-0.047495455
23	0x3d332fc5	0.04374673
24	0x3c445e64	0.011985395
25	0x3d591b9f	0.053004857
26	0xbd158706	-0.03650572
27	0xbcca053c	-0.0246607
28	0xbd25920d	-0.040422488
29	0x3d3954b2	0.045246787
30	0x3cb7f336	0.02245484
31	0x3c533cd9	0.012892925

net.2.module.0.weight f4 [32, 32, 3]
0	0x3dadc000	0.08483887
1	0x3da7ecb2	0.08199443
2	0xbd39fa0c	-0.04540448
3	0xbce7175c	-0.02820938
4	0xbd396f10	-0.045271933
5	0x3d160c42	0.036632784
6	0x3d8a6f3c	0.067594975
7	0x3d9075a1	0.07053686
8	0xbda33960	-0.07969928
9	0x3ceb958e	0.028757837
10	0x3dc64711	0.096815236
11	0xbddd0549	-0.10792024
12	0xbdc4f421	-0.096168764
13	0xbca03dd1	-0.019560726
14	0x3ced2b4f	0.028951315
15	0x3c2a9e52	0.010413723
16	0xbdb35ee9	-0.08758337
17	0x3dbed606	0.093181655
18	0x3dc17d1b	0.0944769
19	0xbd318708	-0.043341666
20	0x3c33a1a0	0.010963827
21	0x3d61f671	0.055166665
22	0xbd478edb	-0.048720222
23	0xbd1ebb00	-0.038752556
24	0x3da51117	0.080599
25	0xbdac95ec	-0.08427033
26	0x3d94c1db	0.072635375
27	0xbd56fcca	-0.052487172
28	0xbd8288fd	-0.06373785
29	0x3ca5980d	0.020214105
30	0x3d826fcd	0.063689806
31	0x3cddefb5	0.02709184
32	0xbd83dac5	-0.06438211
33	0xbd7eca6f	-0.062204774
34	0xbd8982c3	-0.06714394
35	0xbdb0003e	-0.08593796
36	0x3bc23cbc	0.0059276503
37	0xbd917e70	-0.07104194
38	0x3cb91b6f	0.02259609
39	0x3d1b3276	0.03788992
40	0xbdb25e48	-0.08709389
41	0xbd3993d9	-0.045307014
42	0xbd0c0869	-0.034187708
43	0xbda224ec	-0.079171985
44	0xbd8450e9	-0.06460745
45	0xbdb0a33c	-0.086248845
46	0xbd9cb98f	-0.0765258
47	0x3dd7bd4e	0.10534154
48	0xbd84032b	-0.06445917
49	0xbda0bb7f	-0.07848262
50	0x3d324064	0.04351844
51	0xbd6d87a5	-0.05799069
52	0x3d999b73	0.07500353
53	0x3dbb8b05	0.09157375
54	0x3d86f5ba	0.06589837
55	0xbdbab446	-0.09116416
56	0x3d9361a3	0.07196357
57	0x3d941872	0.07231225
58	0xbdb7513f	-0.08951043
59	0xbc4a4056	-0.01234444
60	0xbdb74fcf	-0.08950769
61	0x3d20c06c	0.039246008
62	0x3d045c26	0.032314442
63	0x3c33a842	0.010965409
64	0x3cc49247	0.023995532
65	0xbd565446	-0.052326463
66	0xbddb64ac	-0.10712561
67	0xbdba230a	-0.090887144
68	0xbc99391b	-0.018703988
69	0xbd6170bb	-0.05503915
70	0x3c320436	0.010865262
71	0x3dbc329d	0.09189341
72	0x3cf188b1	0.029484125
73	0xbdf01cd8	-0.117242515
74	0x3d91ab70	0.07112777
75	0xbd13aa3f	-0.03605103
76	0x3d0c0882	0.0341878
77	0x3bf6e2ca	0.0075343596
78	0x3dd0a589	0.10187823
79	0x3d1fffe8	0.03906241
80	0xbda04115	-0.078249134
81	0xbc5a3160	-0.013317436
82	0xbc807fc2	-0.01568592
83	0x3c7848f7	0.015154115
84	0x3d70cee1	0.058791045
85	0xbd965a8d	-0.0734149
86	0x3d05d3b8	0.032672614
87	0xbbfb9483	-0.007677616
88	0x3d6f576e	0.05843299
89	0x3c9f013a	0.019409765
90	0x3c14a318	0.009072088
91	0xbd5a1ec1	-0.053251985
92	0x3d524dbc	0.051343665
93	0xbd769a5a	-0.060205795
94	0x3d10c0f8	0.03534028
95	0x3d34113c	0.04396175
96	0x3cc0dcf1	0.023542853
97	0xbdcf546a	-0.101235226
98	0xbdc2ac6b	-0.09505542
99	0xbdbab823	-0.091171525
100	0x3dbeefb4	0.093230635
101	0xbda8e42c	-0.08246645
102	0xbd36a59f	-0.044591542
103	0x3dc476ef	0.09592997
104	0x3d63a666	0.05557861
105	0xbb8472e6	-0.0040420173
106	0x3d97be44	0.07409337
107	0x3d0997bb	0.033591967
108	0xbdab07b7	-0.08351081
109	0xbc899dfb	-0.016798964
110	0x3d5a3fc4	0.053283468
111	0xbd03aff8	-0.03215024
112	0x3d9f9040	0.077911854
113	0x3db52ce8	0.08846456
114	0xbd35e7ea	-0.044410624
115	0x3dc16701	0.094434746
116	0xbc6de297	-0.014519355
117	0xb964b3e1	-0.00021810785
118	0xbca3d534	-0.019999124
119	0xbb9b7331	-0.0047439565
120	0xbd872fe6	-0.06600933
121	0x3da5f97b	0.08104225
122	0xbd96455d	-0.07337449
123	0x3ca48b84	0.020086057
124	0xbc8aff59	-0.016967462
125	0x3d7a8367	0.06116047
126	0x3da9585d	0.08268807
127	0x3cd3c84a	0.025852341
128	0x3da78d69	0.08181269
129	0xbd9f6f23	-0.077848695
130	0x3d52d506	0.051472686
131	0x3ce53318	0.027978465
132	0x3cd603b6	0.026124816
133	0xbd92539e	-0.07144855
134	0xbd1aace8	-0.037762552
135	0x3db96160	0.09051776
136	0x3ddbbfbe	0.10729931
137	0x3da8ef2e	0.08248745
138	0xbd4afd11	-0.04955775
139	0xbd52ae50	-0.05143577
140	0x3d82dfcf	0.06390344
141	0xbd9ba62c	-0.07600054
142	0xbdc04311	-0.09387792
143	0x3d6361f8	0.055513352
144	0x3dafa677	0.085766725
145	0x3c8cd24d	0.017190123
146	0xbad3ff42	-0.0016174095
147	0x3dc5dfb4	0.096618086
148	0x3d2a0e41	0.0415175
149	0xbdc29e52	-0.095028535
150	0x3d0a737b	0.033801537
151	0x3da229f9	0.07918162
152	0xbd2ff07a	-0.042953946
153	0xbca7a470	-0.020464152
154	0x3cb8cf01	0.022559645
155	0xbc35e1c9	-0.011101195
156	0xbc995209	-0.018715875
157	0xbd950ff9	-0.07278437
158	0xbd59cb10	-0.05317217
159	0x3ca71d1c	0.020399623
160	0x3dbf0edd	0.09329007
161	0xbd1008cb	-0.035164636
162	0x3c99374f	0.018703131
163	0x3d89f08a	0.06735332
164	0x3daf28ec	0.08552727
165	0x3d400530	0.046879947
166	0xbd6a49eb	-0.0571994
167	0x3c5c7f58	0.0134580955
168	0xbdb9322d	-0.090427734
169	0x3d07f98f	0.033196982
170	0xbcf610c8	-0.030037299
171	0x3cc9aba6	0.024617981
172	0x3dbbfef7	0.0917949
173	0xbdc72137	-0.09723132
174	0x3d006e2f	0.03135508
175	0xbd25a60b	-0.040441554
176	0x3d7e4c24	0.062084332
177	0x3d89771d	0.06712172
178	0xbb394d27	-0.0028274746
179	0x3d704a8a	0.058664836
180	0xbd95de85	-0.07317833
181	0xbd9e04c6	-0.07715754
182	0x3d0a14ce	0.033711247
183	0x3dc40e02	0.09572984
184	0xbdbd62db	-0.09247371
185	0xbdb940b0	-0.09045541
186	0x3dab0c58	0.08351964
187	0x3d0510c1	0.03248668
188	0xbc014e28	-0.007892169
189	0xbd235be3	-0.039882552
190	0x3db914df	0.09037184
191	0xbd80c7b6	-0.06288092
192	0x3d8307f1	0.06397999
193	0x3c945f25	0.018111775
194	0xbdb3d0f6	-0.087800905
195	0xbc4a33bc	-0.012341436
196	0x3d5eb45c	0.054371223
197	0x3d92b5dd	0.07163594
198	0x3b5d63f1	0.0033781494
199	0x3d559b0b	0.052149814
200	0x3dcbb5b3	0.09946766
201	0x3d989466	0.0745018
202	0xbda06489	-0.078316756
203	0x3d529c1e	0.051418416
204	0xbd81324d	-0.06308422
205	0x3d613e3d	0.054990996
206	0xbdca6213	-0.098819874
207	0xbd429638	-0.04750654
208	0x3dc32a3c	0.0952954
209	0xbd25c09f	-0.0404669
210	0x3d4d4823	0.050117623
211	0x3d4f363c	0.05058883
212	0x3d1dc46b	0.038517397
213	0xbd37e43d	-0.0448954
214	0xbd94f081	-0.07272435
215	0xbd4486e5	-0.047980208
216	0x3c93c980	0.018040419
217	0xbd40c11c	-0.047059163
218	0xbdd8185f	-0.105515234
219	0x3d5e39be	0.054254286
220	0xbcd730a1	-0.026268305
221	0x3b9d31fd	0.004797219
222	0x3dc2c27c	0.09509751
223	0xbdb04b9f	-0.086081736
224	0xbc9f23de	-0.019426282
225	0x3c1559b7	0.009115628
226	0xbd9d497b	-0.07680031
227	0x3d905fe9	0.070495434
228	0xbd61d38c	-0.055133387
229	0x3c9b6f28	0.018973902
230	0xbda300a5	-0.07959107
231	0xbd132bfa	-0.03593061
232	0xbdc14bed	-0.0943831
233	0xbd8431d8	-0.064548194
234	0x3d8d0b22	0.06886889
235	0x3ae5ffd8	0.0017547561
236	0xbd9f285c	-0.0777137
237	0xbd84d5e1	-0.06486107
238	0x3dc4b8a4	0.0960553
239	0x3dd3eff0	0.10348499
240	0x3dba7de4	0.09106043
241	0x3d109e84	0.035307422
242	0xbcb432a9	-0.021996813
243	0xbb061e0b	-0.0020464684
244	0xbc41ae14	-0.011821289
245	0x3b598c4d	0.0033195198
246	0xbd73f924	-0.05956377
247	0xbdbaa1ba	-0.09112878
248	0x3d98b817	0.07456987
249	0xbd8a1bb2	-0.06743564
250	0x3c5aca95	0.013353963
251	0x3c5e975c	0.013585892
252	0x3d42a4d3	0.04752047
253	0xbd845d6a	-0.0646313
254	0xbd85b5b0	-0.06528795
255	0x3c102cd9	0.008799755

net.2.module.0.bias f4 [32]
0	0xbd27af4a	-0.040938653
1	0xbc6ee5cf	-0.014581158
2	0x3dc06903	0.093950294
3	0xbd920de1	-0.071315534
4	0xbdbf86d5	-0.09351889
5	0x3d2618ec	0.04055111
6	0x3c972a42	0.018452767
7	0x3d61905f	0.055069324
8	0x3d84f710	0.06492436
9	0x3c805ef0	0.01567027
10	0xbcd67fd0	-0.026183993
11	0x3d96a569	0.07355768
12	0xbd9c7565	-0.07639579
13	0xbd9e8d28	-0.07741767
14	0x3d54211e	0.051789396
15	0x3da9851f	0.08277344
16	0x3d3de214	0.046358183
17	0x3db45aa0	0.08806348
18	0xbd731ce3	-0.05935372
19	0xbd9bf24e	-0.07614575
20	0x3d9b877e	0.075942025
21	0xbdc9a00a	-0.09844978
22	0xbc147642	-0.009061398
23	0xbc9ac99a	-0.01889496
24	0xbd2de321	-0.042452935
25	0xbd0268e6	-0.03183832
26	0xbd2885d6	-0.04114326
27	0x3d7e06a5	0.062018055
28	0x3d97c790	0.074111104
29	0x3cb34d5f	0.02188748
30	0x3dbaf494	0.09128681
31	0xbd25c209	-0.04046825

net.3.module.0.weight f4 [32, 32, 3]
0	0xbdb43612	-0.087993756
1	0xbdcc8e0b	-0.0998803
2	0xba513519	-0.00079806295
3	0x3d1fbeb9	0.039000247
4	0x3dad37fe	0.08457945
5	0x3d902485	0.070382155
6	0x3b88a6f6	0.004170294
7	0x3db01ec8	0.08599621
8	0x3d72a889	0.05924276
9	0x3d3bbc4f	0.045833882
10	0x3c02c18f	0.007980718
11	0x3d23fa70	0.040033758
12	0xbd4cbd25	-0.04998507
13	0x3d3e36ed	0.0464391
14	0xbc2f57af	-0.010702058
15	0xbda475c5	-0.08030275
16	0xbc800deb	-0.015631637
17	0xbdbba650	-0.09162581
18	0x3dbbc905	0.09169201
19	0xbd103832	-0.035209842
20	0xbce94331	-0.028474422
21	0xbdaae306	-0.083440825
22	0xbbb97cc7	-0.0056606266
23	0xbdcaceec	-0.099027485
24	0xbd945fee	-0.0724486
25	0xbd51af44	-0.051192537
26	0x3d707f29	0.05871502
27	0xbda47fd0	-0.08032191
28	0xbd33cfdb	-0.0438994
29	0x3d8bfdce	0.06835519
30	0x3d46c41e	0.048526876
31	0x3bc16a05	0.005902531
32	0xbc8d375d	-0.017238313
33	0xbd1f9fd8	-0.0389708
34	0x3d8f9da6	0.07012491
35	0xbdb0da81	-0.08635426
36	0xbd29f7f1	-0.04149622
37	0xbcc40cd5	-0.0239319
38	0xbdb41b2c	-0.08794245
39	0xbd9170b5	-0.07101575
40	0xbd81f8ae	-0.0634626
41	0x3c176e0f	0.009242549
42	0x3d1f6007	0.03890994
43	0x3da2572c	0.07926783
44	0xbdab8741	-0.08375407
45	0xbcfaa5f4	-0.03059671
46	0x3dd7e7b6	0.10542242
47	0x3b890e4e	0.0041826135
48	0x3c920095	0.017822543
49	0x39ea0253	0.0004463369
50	0xbd4757f1	-0.04866785
51	0xbdb0d26a	-0.08633883
52	0x3db5c17c	0.08874795
53	0xbd51ca94	-0.051218584
54	0x3d0aee39	0.033918593
55	0xbda4b7d3	-0.08042874
56	0x3dbed295	0.09317509
57	0xbccf9b81	-0.025342705
58	0x3db054bd	0.086099125
59	0xbd2aa1d0	-0.041658223
60	0x3d1407c9	0.036140237
61	0xbd8b204d	-0.0679327
62	0x3ccb2283	0.02479673
63	0x3c83c1f6	0.016083699
64	0x3d25523e	0.040361635
65	0x3ca2ba0b	0.019864103
66	0x3d7f4c57	0.062328663
67	0x3b818810	0.0039529875
68	0xbda5076b	-0.080580555
69	0xbd669ea3	-0.05630363
70	0xbda20aa4	-0.07912186
71	0xbd824b17	-0.063619785
72	0xbdbf976a	-0.09355052
73	0xbcaf5584	-0.021403082
74	0xbda97a3d	-0.08275268
75	0x3db024b8	0.086007535
76	0x3db9a640	0.09064913
77	0xbd014ce5	-0.031567473
78	0x3dd5d1ea	0.104404286
79	0x3dcfdc7c	0.10149476
80	0x3d874f7f	0.066069596
81	0x3d939aa2	0.07207228
82	0xbd446c50	-0.047954857
83	0xbc01c270	-0.007919893
84	0x3dcba22a	0.0994304
85	0x3d109c76	0.035305463
86	0x3dabfc63	0.08397748
87	0xbdb20c4c	-0.08693752
88	0xbdbb4d93	-0.091456555
89	0x3d7bc079	0.061462853
90	0x3d4589c4	0.048227087
91	0x3ce2686a	0.02763768
92	0x3da338df	0.07969832
93	0x3d16d0bc	0.03682016
94	0x3d90b58c	0.07065877
95	0x3d0922e1	0.03348053
96	0x3d783550	0.060597718
97	0x3da55578	0.080729425
98	0x3d6fd4b7	0.05855247
99	0xbd82d26c	-0.06387791
100	0x3da087a8	0.078383744
101	0xbc0574bf	-0.00814551
102	0xbdb41242	-0.08792545
103	0xbd60900c	-0.054824874
104	0xbdc58399	-0.09644241
105	0xbdb476d8	-0.0881173
106	0xbba6f729	-0.0050953818
107	0x3d37cdd5	0.04487403
108	0xbbe840d1	-0.007087805
109	0xb9a4efbf	-0.00031459142
110	0xbc161e80	-0.009162545
111	0xbcdec41d	-0.027193123
112	0x3d8285ac	0.06373152
113	0x3da05843	0.078293346
114	0xbda9a312	-0.08283056
115	0xbd193c6e	-0.037411146
116	0xbdbb594e	-0.09147893
117	0xbc59e0ca	-0.013298223
118	0xbd7432f6	-0.059618913
119	0x3d9ab8cd	0.07554779
120	0xbc82f926	-0.015987944
121	0x3d520141	0.051270727
122	0xbd0e5827	-0.034752037
123	0xbd76619f	-0.060151692
124	0x3d2f369f	0.0427767
125	0x3d6be874	0.05759473
126	0xbd635fe0	-0.055511355
127	0x3c781916	0.0151427
128	0xbdc5a44e	-0.09650479
129	0x3d76ac9c	0.060223207
130	0x3d2abb75	0.04168268
131	0xbd11a197	-0.035554495
132	0x3d89d339	0.06729741
133	0xbde4eb68	-0.11177713
134	0xbd930e46	-0.07180457
135	0xbdaa0871	-0.08302391
136	0x3d86ed71	0.06588257
137	0xbcd3406f	-0.02578756
138	0xbcf303e1	-0.029664936
139	0x3ad57fb4	0.0016288669
140	0x3d014672	0.031561323
141	0x3dc70217	0.097171955
142	0x3d3bae9b	0.045820814
143	0xbd923652	-0.07139267
144	0x3d9e8ed6	0.077420875
145	0xb9b330a1	-0.00034177772
146	0x3d1c80d1	0.038208786
147	0xbcb20e43	-0.021735316
148	0x3d9f6735	0.07783357
149	0x3d604788	0.054755718
150	0xbd58be76	-0.052916013
151	0xbd678ac0	-0.056528807
152	0x3aba9ac1	0.0014236794
153	0x3d20ed7b	0.03928898
154	0xbd84ea40	-0.06489992
155	0x3d63fe8e	0.055662684
156	0x3c3d6478	0.011559598
157	0x3bbad706	0.0057019023
158	0xbd158632	-0.03650493
159	0xbb1b986e	-0.0023741978
160	0xbd63239e	-0.05545389
161	0xbd96f19c	-0.07370302
162	0x3d7acd3b	0.06123088
163	0x3db8109d	0.08987544
164	0xbcea28bd	-0.028583879
165	0xbdc4ccfa	-0.09609409
166	0x3d8da8ae	0.06916939
167	0x3c0a7699	0.008451127
168	0x3ce547c1	0.027988316
169	0xbcd549cc	-0.026036166
170	0xbd86b832	-0.06578101
171	0xbbf6ea97	-0.0075352895
172	0xbd27eaae	-0.040995292
173	0x3c86075a	0.016360927
174	0xbb427967	-0.0029674412
175	0xbd797d74	-0.060910657
176	0xbc77e3aa	-0.015129963
177	0x3dc251a9	0.09488232
178	0x3d838bd5	0.06423155
179	0xbb659722	-0.003503271
180	0xbc555609	-0.013021001
181	0xbdaa4074	-0.08313075
182	0xbd9c9906	-0.076463744
183	0x3d18b12a	0.03727833
184	0x3d3a6c17	0.04551324
185	0xbd699de9	-0.05703536
186	0x3da3768f	0.07981598
187	0x3dbf1bc1	0.093314655
188	0x3cce6793	0.025195872
189	0xbd1ea316	-0.03872975
190	0xbc8b0135	-0.016968349
191	0xbd29d3a7	-0.041461613
192	0xbd85868e	-0.06519805
193	0xbcfaa45d	-0.030595953
194	0xbb870522	-0.004120485
195	0xbdbbc95b	-0.09169265
196	0xbdd957f9	-0.106124826
197	0xbc4c2b78	-0.012461536
198	0x3ca9c860	0.020725429
199	0x3d97742d	0.07395206
200	0x3d7a3921	0.06108964
201	0xbd64dd86	-0.055875324
202	0xbcc265e6	-0.02373023
203	0xbb9f348e	-0.00485856
204	0x3dc01802	0.09379579
205	0x3c3eaa1a	0.011637235
206	0xbc694068	-0.014236547
207	0x3d2ce62b	0.042211693
208	0xbc95ec50	-0.01830116
209	0xbded8b67	-0.115988545
210	0xbce619fd	-0.028088564
211	0x3d591007	0.0529938
212	0x3d0720b8	0.032990187
213	0x3cbff02f	0.023429958
214	0xbcdf2041	-0.02723706
215	0xbd824107	-0.06360059
216	0xbdbd0a9a	-0.09230538
217	0xbd97af19	-0.07406444
218	0xbb8eaecb	-0.004354333
219	0xbd149084	-0.036270633
220	0xbdbb88fa	-0.091569856
221	0xbd5c5101	-0.05378819
222	0x3d364079	0.04449508
223	0xbd58d42c	-0.052936718
224	0x3d1e7991	0.038690154
225	0xbd71ffc7	-0.05908182
226	0xbcbf62b5	-0.023362497
227	0xbd4ba93b	-0.049721938
228	0x3d4b8800	0.049690247
229	0xbd050ce5	-0.032483
230	0x3d543c4f	0.051815327
231	0xbdb3e6ff	-0.087842934
232	0xbd4f77ac	-0.050651237
233	0x3cfccd25	0.03085954
234	0x3dc07510	0.09397328
235	0x3d97d129	0.07412941
236	0xbd1af6cb	-0.037833016
237	0x3ca860bf	0.020553945
238	0xbd30d70b	-0.04317383
239	0xbcf88b4b	-0.030339858
240	0xbdc53fe8	-0.0963133
241	0x3d2a1a82	0.041529186
242	0x3dc81e1b	0.09771367
243	0x3d5867b3	0.05283327
244	0x3d357b07	0.04430678
245	0x3d9b747f	0.07590579
246	0xbce00b2f	-0.027349083
247	0x3cebf243	0.028802043
248	0xbdb300ee	-0.08740412
249	0x3d3608d0	0.044441998
250	0xbdacf820	-0.084457636
251	0xbd97724d	-0.07394848
252	0x3d9703d3	0.07373776
253	0xbd561776	-0.052268468
254	0xbd0fb3fc	-0.035083756
255	0xbd7095e1	-0.058736686

net.3.module.0.bias f4 [32]
0	0x3d7af6cc	0.06127052
1	0x3d9d8290	0.076909184
2	0x3db1ae8e	0.08675872
3	0xbdaf33b1	-0.08554781
4	0x3d1f271d	0.03885566
5	0xbdc8ac5a	-0.097984985
6	0xbd61a147	-0.055085447
7	0xbd737603	-0.059438717
8	0x3c9d779a	0.01922207
9	0x3c54e365	0.012993668
10	0xba38abb2	-0.00070446276
11	0xbbd46502	-0.0064817676
12	0xbd6bde26	-0.057584904
13	0x3db3e583	0.0878401
14	0xbd8a78a3	-0.06761291
15	0x3d8dff15	0.06933419
16	0xbd12f7ec	-0.035880968
17	0x3cd2fd64	0.025755592
18	0x3dc4ffef	0.09619128
19	0xbd03a031	-0.032135192
20	0xbd4892dd	-0.048968185
21	0x3d3029d8	0.043008655
22	0x3d73b924	0.059502736
23	0x3d647d88	0.05578378
24	0x3d855607	0.06510549
25	0x3d22613d	0.039643515
26	0x3d2e8c10	0.042614043
27	0xbd389aad	-0.045069385
28	0x3d4b4664	0.049627677
29	0x3c877fa3	0.016540354
30	0xbd44990e	-0.047997527
31	0xbbb185ea	-0.005417575

net.4.module.0.weight f4 [32, 32, 3]
0	0xbdb63c6d	-0.08898244
1	0x3d50ca50	0.05097419
2	0xbdadac54	-0.084801346
3	0xbd8a1e8a	-0.06744106
4	0x3d2402cd	0.040041734
5	0xbd71c64f	-0.059027012
6	0x3dcd94f3	0.100381754
7	0xbd858759	-0.06519956
8	0xbcf9af2b	-0.030479034
9	0xbd20219f	-0.039094564
10	0x3dab8442	0.083748356
11	0xbcd67447	-0.026178492
12	0x39c63899	0.00037807671
13	0x3d93b614	0.07212463
14	0x3c669ed4	0.0140759535
15	0x3d9085fe	0.07056807
16	0xbd7cf2d8	-0.06175503
17	0x3cfa1850	0.030529171
18	0x3d027de7	0.03185835
19	0x3d06ed45	0.03294112
20	0xbdb78340	-0.08960581
21	0x3ca9b82e	0.020717707
22	0x3bcb694c	0.0062076207
23	0x3c85a69b	0.016314795
24	0x3c821f21	0.015883984
25	0xbd8036f5	-0.06260482
26	0xbd830e31	-0.06399191
27	0x3da9be1c	0.082882136
28	0x3d1ea9fa	0.03873632
29	0xbc45ce28	-0.012073077
30	0xbd354427	-0.04425445
31	0x3d317b7b	0.04333065
32	0xbd79f243	-0.061022054
33	0xbb968e33	-0.004594588
34	0xbda6f7bb	-0.081527196
35	0x3ccbcfa5	0.024879286
36	0x3c8b9fba	0.017043937
37	0xbc1c3a86	-0.009535437
38	0xbdb11793	-0.086470746
39	0x3ca945e1	0.020663204
40	0x3dcf9f1f	0.10137772
41	0x3d0187e3	0.031623732
42	0xbdbcd0e1	-0.09219528
43	0xbd9d5cf7	-0.07683747
44	0x3dbaf745	0.09129194
45	0xbdcfdf21	-0.1014998
46	0x3d868027	0.06567412
47	0xbbb9c431	-0.00566914
48	0x3dab1995	0.08354489
49	0xbde1cb51	-0.11025108
50	0x3dbab096	0.09115712
51	0xbd83c9b9	-0.0643496
52	0xbd046d53	-0.032330822
53	0x3d2460ee	0.0401315
54	0xbcffb6a2	-0.031215016
55	0x3d6473ef	0.055774625
56	0xbc9d3804	-0.01919175
57	0xbcdf6034	-0.027267553
58	0xbda53677	-0.08067029
59	0x3dd526c9	0.10407788
60	0x3d0c478a	0.034247912
61	0xbd832842	-0.06404163
62	0xbd8154aa	-0.063149765
63	0x3db7d2e1	0.08975769
64	0x3dad86d6	0.084729835
65	0xbc6dc53c	-0.014512356
66	0x3d206cf3	0.039166402
67	0xbdb750f8	-0.089509904
68	0xbd3eafcf	-0.046554383
69	0xbd850bd3	-0.06496396
70	0x3d1f5233	0.03889675
71	0x3c7df983	0.015501383
72	0xbd0bd0ac	-0.034134552
73	0xbdae028e	-0.08496581
74	0x3d27e734	0.040991977
75	0x3d07441d	0.033023942
76	0xbdca8ee7	-0.09890538
77	0x3da7d17f	0.08194255
78	0x3d0fd010	0.035110533
79	0x3d5a863a	0.053350665
80	0xbc4d40b7	-0.012527636
81	0x3ca920c8	0.020645514
82	0xbda6b0e8	-0.08139211
83	0x3ac5bb8d	0.0015085802
84	0x3af29f36	0.0018510583
85	0xbc751d5c	-0.014960613
86	0xbd43c7d4	-0.047797993
87	0xbd37be0a	-0.04485897
88	0x3ce10cf4	0.027471997
89	0x3c0dfc0a	0.008666048
90	0xbd60eac9	-0.05491141
91	0xbd8c6d46	-0.0685678
92	0xbbc38031	-0.0059662093
93	0xbd302331	-0.04300231
94	0x3dbb2d31	0.09139479
95	0xbdb6d99f	-0.08928227
96	0xbd95237a	-0.07282157
97	0x3d7a5afa	0.06112192
98	0xbcd80603	-0.026370054
99	0xbdbd98e8	-0.0925768
100	0xbdb6a1a4	-0.08917549
101	0xbdd83c1a	-0.105583385
102	0x3c6a09f8	0.014284603
103	0x3c4dd53e	0.012563048
104	0x3cda5955	0.026653925
105	0x3d39508f	0.045242842
106	0xbdb711cf	-0.089389436
107	0xbda7a030	-0.0818485
108	0xbd01e563	-0.0317129
109	0xbd798b9b	-0.060924154
110	0xbdb8fd59	-0.09032697
111	0x3dcc1bb5	0.09966222
112	0xbd9a455f	-0.07532763
113	0x3d16ace5	0.03678598
114	0xbd1affde	-0.03784167
115	0xbd2debf6	-0.042461358
116	0xbda984e3	-0.08277299
117	0xbb9dbbb5	-0.004813636
118	0xbd0ed355	-0.03486951
119	0x3d3a801f	0.045532342
120	0xbaf90ae9	-0.0019000444
121	0xbc921ec5	-0.017836938
122	0xbdb3bf2b	-0.08776697
123	0x3d01e8fb	0.031716328
124	0x3cb71ad3	0.022351658
125	0x3cc27fea	0.023742635
126	0x3cbed870	0.023296565
127	0xbd615fa7	-0.05502286
128	0x3ca132da	0.019677568
129	0x3d0d864c	0.034551904
130	0x3c9c657b	0.019091358
131	0xbd94fc7a	-0.072747186
132	0x3c8ddb1f	0.0173164
133	0x3c133359	0.00898441
134	0x3cdbfbd5	0.026853481
135	0xbc868685	-0.016421566
136	0xbd3a517c	-0.045487866
137	0xbd72d727	-0.059287217
138	0xbdcc5daf	-0.09978806
139	0x3c37cbe3	0.011218044
140	0x3c8c6737	0.01713906
141	0x3dae6660	0.0851562
142	0x3dc862dc	0.09784481
143	0x3c779928	0.015112199
144	0x3cfc92d9	0.030831741
145	0x3cc28dc9	0.023749249
146	0x3dd02ad2	0.10164417
147	0x3c83813f	0.01605284
148	0x3d08913d	0.033341635
149	0x3d5fdd3c	0.054654345
150	0xbc03c855	-0.008043368
151	0x3c91dee5	0.01780648
152	0xbbe1bf82	-0.0068892846
153	0xbd4c9c4d	-0.049953748
154	0xbdac89ce	-0.08424722
155	0x3d5310c8	0.051529676
156	0x3db41c50	0.08794463
157	0x3d530389	0.051517043
158	0x3dc25892	0.0948955
159	0xbd0e210b	-0.03469948
160	0x3d1ca345	0.038241643
161	0xbdaefe59	-0.08544607
162	0x3da4de28	0.080501854
163	0xbc3df75b	-0.011594619
164	0x3d596a4c	0.05307989
165	0x3ce16b78	0.027517065
166	0xbd4df23e	-0.05027985
167	0xbdd20525	-0.102548875
168	0x3c0d6076	0.008628955
169	0x3d7e192d	0.06203573
170	0x3d16a780	0.036780834
171	0xbd8ded94	-0.0693008
172	0x3c8939be	0.016751166
173	0x3dc141a0	0.09436345
174	0xbd58e4c1	-0.05295253
175	0x3d0661c8	0.032808095
176	0x3beb928f	0.007189102
177	0x398fd263	0.00027431836
178	0x3d055350	0.032550156
179	0x3badafda	0.005300504
180	0xbc507ae1	-0.012724609
181	0x3d154131	0.036439124
182	0x3d36210d	0.044465113
183	0xbd9eb56e	-0.07749449
184	0xbde7a058	-0.1130988
185	0xbcaa18aa	-0.020763714
186	0x3d2156a9	0.039389286
187	0x3d8ace71	0.06777657
188	0xbd95a560	-0.073069334
189	0xbd664b2d	-0.056224037
190	0x3d71256b	0.058873575
191	0x3ca0c744	0.019626267
192	0xbdbb9246	-0.09158759
193	0xbdbe42e7	-0.09290104
194	0x3d4936cc	0.049124524
195	0x3c8f6984	0.017506368
196	0xbdadf5a8	-0.08494121
197	0xbdb2e388	-0.087348044
198	0x3da37c9a	0.0798275
199	0xbd50e759	-0.05100188
200	0xbd1344c2	-0.035954244
201	0x3d6c5cff	0.057705875
202	0x3d54cac9	0.051951203
203	0x3c63d749	0.013906308
204	0xbd9d59c9	-0.07683141
205	0x3d05479b	0.03253899
206	0x3d8a5b45	0.067556895
207	0xbd9d5eab	-0.07684072
208	0xbdcdb5dc	-0.100444525
209	0xbcdbba41	-0.026822211
210	0xbdd49e88	-0.103818
211	0x3cd53d94	0.02603034
212	0x3d137549	0.036000524
213	0xbd39158f	-0.045186576
214	0x3d82ecf5	0.06392852
215	0xbd83faa8	-0.06444293
216	0xbcb3c62b	-0.02194508
217	0x3c909bff	0.01765251
218	0x3d5b11f4	0.05348392
219	0xbdd140c6	-0.10217433
220	0x3dadc9d7	0.084857635
221	0x3beeac5c	0.0072837304
222	0xbce5a490	-0.028032571
223	0xbd44260a	-0.04788784
224	0x3d9dfd78	0.07714361
225	0x3d75ac05	0.059978504
226	0x3dafd58c	0.08585653
227	0x3db7706a	0.08956988
228	0x3c49340a	0.0122804735
229	0x3c6c6685	0.014428739
230	0x3d2c280e	0.042030387
231	0x3c5d7f25	0.013519083
232	0xbc0578c9	-0.008146473
233	0x3d9dfab1	0.07713831
234	0x3d883593	0.066508435
235	0xbd336062	-0.04379309
236	0xb98ebdc0	-0.00027225725
237	0x3c111252	0.008854466
238	0x3d0e497a	0.03473804
239	0xbd656309	-0.05600265
240	0x3db05f15	0.086118855
241	0x3d4a890b	0.0494471
242	0xbd68027d	-0.056642998
243	0x3c6b3bb4	0.014357496
244	0xbd4ce48d	-0.05002265
245	0xbd8439db	-0.064563476
246	0x3dc0d303	0.09415247
247	0xbd39b0ec	-0.04533474
248	0x3cccfa63	0.025021737
249	0x3cb88e46	0.022528779
250	0xbd519998	-0.05117187
251	0xbd4f9296	-0.050676905
252	0xbcd54418	-0.026033446
253	0xbd1ee259	-0.03879008
254	0x39208fcc	0.00015312358
255	0x3dc5ac21	0.096519716

net.4.module.0.bias f4 [32]
0	0xbb608fba	-0.0034265355
1	0x3d9f8818	0.0778963
2	0xbdab908a	-0.08377178
3	0x3cb6f5f9	0.022334086
4	0x3d189485	0.037251014
5	0x3d7cf5c7	0.06175783
6	0xbd1fc3c5	-0.03900506
7	0xbd700ddf	-0.05860698
8	0x3b62a19f	0.0034581197
9	0xbd641275	-0.055681664
10	0xbd9e701a	-0.077362254
11	0x3d94629f	0.07245373
12	0x3cecf598	0.028925702
13	0x3d42f621	0.047598008
14	0x3d57b7f8	0.05266568
15	0xbdbf9149	-0.09353883
16	0xbd40a0ca	-0.04702834
17	0xbcd23328	-0.025659159
18	0x3d7751ce	0.06038075
19	0x3c59765e	0.01327285
20	0xbd649614	-0.05580719
21	0xbb38477e	-0.0028118785
22	0xbdba5de3	-0.09099939
23	0x3d4f5cbf	0.05062556
24	0x3c3a9edd	0.011390415
25	0x3cdb5835	0.026775459
26	0xbc753f30	-0.014968678
27	0x3d05d50b	0.032673877
28	0xbd8c6255	-0.06854693
29	0xbd28c01d	-0.04119884
30	0x3d1729ed	0.036905218
31	0x3d916292	0.07098879

net.5.weight f4 [3, 32, 3]
0	0xbacec94a	-0.0015776542
1	0xbdb189ac	-0.08668837
2	0x3db884d0	0.09009707
3	0xbdc0c8e4	-0.09413317
4	0x3c40d7ae	0.011770172
5	0xbc61a15c	-0.013771381
6	0xbc7c9778	-0.015416972
7	0x3c6acb7d	0.014330742
8	0x3d73c02e	0.05950945
9	0xbc60830b	-0.013703118
10	0x3d51b743	0.051200163
11	0x3c164be3	0.009173366
12	0x3d86cb14	0.06581703
13	0x3dce2237	0.1006512
14	0x3c5e2ca8	0.013560452
15	0x3d901efd	0.070371605
16	0xbc72056d	-0.014771801
17	0x3c7414ee	0.014897568
18	0xbd723c27	-0.059139397
19	0xbdc317d1	-0.09526027
20	0xbcd41394	-0.025888242
21	0xbc1b1670	-0.009465799
22	0xba71b42a	-0.0009220267
23	0x3ccbeac1	0.024892213
24	0xbd2843a8	-0.041080147
25	0xbcada503	-0.021196848
26	0xbd92db3f	-0.07170724
27	0x3d111b05	0.03542616
28	0x3c978a71	0.018498631
29	0x3d0cc24b	0.03436498
30	0xbdb29aa8	-0.087209046
31	0xbd7a4f20	-0.061110616
32	0x3dc9af05	0.098478355
33	0xbdac1d13	-0.08403983
34	0x3d93a882	0.07209875
35	0x3befdc1a	0.0073199393
36	0x3d65dc61	0.056118373
37	0xbda035fc	-0.07822797
38	0xbd43c2f0	-0.04779333
39	0x3c686c4d	0.014185977
40	0xbda37b1c	-0.079824656
41	0x3d1db399	0.038501356
42	0x3d50af94	0.050948694
43	0x3d97a057	0.07403629
44	0x3b7eff25	0.0038909402
45	0x3bfce366	0.0077175377
46	0xbca384f5	-0.01996086
47	0x3dd43c38	0.10363048
48	0xbda4713a	-0.08029409
49	0x3db4bcce	0.08825074
50	0x3dc38acb	0.09547957
51	0x3c420cf1	0.011843906
52	0x3d290155	0.041261036
53	0xbdc4a133	-0.09601059
54	0x3bb4ae0d	0.0055139125
55	0x3cc048b2	0.023472164
56	0x3d54d2af	0.051958736
57	0x3cfb33ff	0.030664442
58	0xbd112aa0	-0.03544104
59	0xbdaf0d7c	-0.08547494
60	0xbc94c3e3	-0.018159812
61	0x3d965eac	0.07342276
62	0x3db8f4d2	0.09031071
63	0x3b46056e	0.0030215639
64	0xbd91739f	-0.07102131
65	0x3d771744	0.060324922
66	0x3d6e3b1e	0.058161847
67	0xbd919e31	-0.07110251
68	0xbd72f8de	-0.05931937
69	0xbdc8ba36	-0.09801142
70	0x3d9dbf7c	0.07702538
71	0xbdc7ae7a	-0.09750076
72	0xbdb6896d	-0.08912931
73	0x3dac6a15	0.08418671
74	0x3da94be6	0.082664296
75	0x3dc31b3f	0.09526681
76	0xbd992578	-0.0747785
77	0x3dba270d	0.090894796
78	0x3daf0be7	0.08547192
79	0x3dc3e295	0.095647015
80	0x3d2d5be3	0.042323958
81	0x3cc4323e	0.023949739
82	0x3db2c6b5	0.087293066
83	0x3d9aaf7d	0.07553003
84	0xbdb6f27f	-0.08932971
85	0xbc591585	-0.01324976
86	0x3db03030	0.08602941
87	0x3c4e1466	0.012578106
88	0x3dc33d21	0.09533144
89	0x3d98568e	0.07438384
90	0xbd130a8d	-0.035898734
91	0x3d419d10	0.047268927
92	0xbdc2b11b	-0.095064364
93	0x3ca56208	0.020188347
94	0x3d430e96	0.047621332
95	0xbd439e71	-0.047758523
96	0x3db3bf50	0.08776724
97	0x3d84bb10	0.06480992
98	0xbda4de0c	-0.080501646
99	0x3c8e4f67	0.017371846
100	0x3c4fff86	0.012695199
101	0xbdcd7202	-0.10031511
102	0x3d43b3e3	0.047778975
103	0x3cdb6436	0.026781183
104	0x3d3ce394	0.046115473
105	0xbd18ba9a	-0.037287332
106	0xbdce113a	-0.100618795
107	0x3da658b8	0.081223905
108	0xbd872f7d	-0.066008545
109	0x3dadcee8	0.0848673
110	0x3d1aeba1	0.03782237
111	0x3c58faf9	0.01324343
112	0xbc3a7a99	-0.011381769
113	0xbda396ff	-0.079877846
114	0xbd67a031	-0.056549255
115	0x3d6118df	0.05495536
116	0xbdd00f48	-0.10159165
117	0xbdca3b15	-0.0987455
118	0xbdaddadf	-0.08489012
119	0x3dbc6e62	0.09200741
120	0x3c9add71	0.01890442
121	0xbdad32f5	-0.08456985
122	0xbd5d89aa	-0.054086365
123	0xbc20bc6f	-0.009810551
124	0x3c89a55d	0.016802484
125	0x3db65eaf	0.08904778
126	0x3d4ab342	0.04948736
127	0xbc46b6bc	-0.012128528
128	0xbdbdb7b1	-0.09263552
129	0xbdc8b3f6	-0.0979995
130	0x3dc82a1d	0.097736575
131	0xbaabbf9f	-0.0013103372
132	0xbdc8bccd	-0.09801636
133	0xbbbcd0b2	-0.005762183
134	0xbd4cc9ff	-0.049997326
135	0xbdd79919	-0.10527248
136	0xbdb8f090	-0.09030259
137	0x3d27712a	0.040879406
138	0xbd83091e	-0.06398223
139	0xbd54ba2a	-0.051935352
140	0xbdb28473	-0.08716669
141	0x3c2a7aef	0.010405286
142	0xbd5652ab	-0.052324932
143	0xbda41d6f	-0.080134265
144	0x3ca55675	0.020182827
145	0x3d6a94ab	0.057270687
146	0x3d9f0d76	0.07766239
147	0xbcc76a26	-0.024342608
148	0xbd1ad332	-0.037799068
149	0xbdbec732	-0.09315337
150	0xbd514ced	-0.051098753
151	0xbcfbb875	-0.030727604
152	0xbd5ecffc	-0.054397568
153	0x3d099f02	0.033598907
154	0xbd428c3e	-0.047497027
155	0x3c2d3af3	0.010573137
156	0xbda4e5cc	-0.08051643
157	0xbda13e6a	-0.07873233
158	0xbda84199	-0.08215637
159	0x3db5b9c0	0.088733196
160	0xbc8949c6	-0.01675881
161	0x3d9c1a79	0.07622237
162	0xbd6c8032	-0.057739444
163	0xbcb867ad	-0.022510374
164	0x3d3b72ed	0.0457639
165	0x3ccb16ac	0.024791084
166	0xbd0eb49a	-0.034840204
167	0xbce36653	-0.027758753
168	0xbd9e2c89	-0.07723338
169	0xbd2db649	-0.04241017
170	0xbd8babea	-0.068198994
171	0xbd023d3b	-0.031796675
172	0xbd013b43	-0.031550657
173	0x3c861554	0.016367592
174	0x3d3ddbe1	0.04635227
175	0x3daf85ee	0.08570467
176	0xbda60fd3	-0.08108487
177	0xbdaca21a	-0.08429356
178	0xbd477307	-0.048693683
179	0x3ce9bb71	0.028531762
180	0xbd575a41	-0.052576307
181	0xbbd55531	-0.0065103997
182	0x3cc91a60	0.02454871
183	0xbd56ac5b	-0.052410465
184	0x3d718714	0.05896671
185	0x3d18fa61	0.037348155
186	0x3d722cf1	0.05912489
187	0xbbed5b14	-0.0072435234
188	0xbda56025	-0.08074979
189	0x3c9d4bc4	0.019201167
190	0x3d9bc914	0.07606712
191	0xbc979cc0	-0.018507361
192	0x3d23c420	0.03998196
193	0xbdbb4a2e	-0.09145008
194	0xbd489d52	-0.048978157
195	0x3d0bb6dd	0.03410994
196	0x3d6ed5ee	0.058309488
197	0x3c423ea7	0.011855758
198	0x3c328ef8	0.010898344
199	0x3da86b83	0.08223631
200	0xbd2cd0ba	-0.042191245
201	0x3d795f2e	0.060881786
202	0x3d2ccfd8	0.042190403
203	0x3cce222d	0.02516278
204	0x3d631cc0	0.05544734
205	0x3daf99d5	0.08574263
206	0x3da080cb	0.07837065
207	0xbd7d9f36	-0.061919414
208	0x3d21508a	0.03938345
209	0x3d833aa8	0.06407672
210	0x3d85029d	0.06494639
211	0xbd1a3411	-0.03764731
212	0xbc09cade	-0.008410184
213	0xbd15b605	-0.03655054
214	0x3d9197cf	0.07109033
215	0xbc991862	-0.018688384
216	0x3dd0516f	0.10171782
217	0xbd8ccfe5	-0.0687559
218	0x3d40aa60	0.047037482
219	0x3d80ebc3	0.06294968
220	0x3d9c0a30	0.076191306
221	0x3d5312a3	0.051531445
222	0xbd9c4a3b	-0.07631346
223	0x3d6bd06b	0.05757181
224	0x3d31059b	0.043218236
225	0x3d171875	0.03688856
226	0xbdc3b246	-0.09555487
227	0xbdb12801	-0.08650208
228	0x3d63fa99	0.05565891
229	0xbc2c0b56	-0.01050075
230	0xbd836950	-0.06416571
231	0x3d28e6bd	0.041235674
232	0x3d254cf5	0.040356595
233	0xbd3c83be	-0.046024077
234	0x3bc28fdf	0.005937561
235	0xbd7f653f	-0.062352415
236	0xbcaeab25	-0.021321842
237	0xbc811312	-0.015756164
238	0x3dc45365	0.09586219
239	0xbdacc588	-0.084361136
240	0x3daa3853	0.08311524
241	0x3d6d11bc	0.05787824
242	0x3d4cb048	0.049972802
243	0xbd96bee4	-0.07360628
244	0x3b8154b8	0.003946867
245	0xbca61e17	-0.02027802
246	0x3cfc7122	0.030815665
247	0xbd8161e6	-0.06317501
248	0x3d2ffdda	0.0429667
249	0x3da01af3	0.0781764
250	0xbbf597a4	-0.0074948836
251	0x3d9cc561	0.076548345
252	0x3d39ff08	0.045409232
253	0x3d292041	0.041290525
254	0x3d64460b	0.05573086
255	0x3d563981	0.052300934

net.5.bias f4 [3]
0	0x3cb470e0	0.02202648
1	0x3d8a4d71	0.06753052
2	0xbd37e5d3	-0.04489691

exp_avg f4 [32, 120, 2]
0	0xb90a7ee3	-0.00013207975
1	0x3807fa15	3.2419415e-05
2	0xb7e890ab	-2.7723921e-05
3	0x3987b5bf	0.00025884618
4	0xbaf39bb7	-0.0018585835
5	0xba984451	-0.001161704
6	0x39446f93	0.00018733581
7	0x388293c7	6.226409e-05
8	0x3a01d40d	0.00049525575
9	0xb6ae4844	-5.194017e-06
10	0x3781e15d	1.5482941e-05
11	0xb935a22c	-0.00017321919
12	0x393887fb	0.00017598264
13	0x385cfecb	5.2689382e-05
14	0xb9f0b49b	-0.0004591093
15	0xba31e7a8	-0.00067865336
16	0x38b980d5	8.845484e-05
17	0x37889448	1.6281512e-05
18	0x38789632	5.9267688e-05
19	0xb8bd14e8	-9.0161164e-05
20	0xba499a5a	-0.00076905417
21	0xba05db5e	-0.00051062356
22	0xb9cd7d6f	-0.00039194102
23	0x398b78ca	0.0002660214
24	0x380a6ba3	3.300201e-05
25	0x37ec8005	2.8193006e-05
26	0xba853670	-0.0010163318
27	0xbac8a882	-0.0015309008
28	0xba75eeea	-0.0009381609
29	0xba294038	-0.0006456408
30	0x3b0efd40	0.002181843
31	0x3b626fe4	0.0034551555
32	0x3a2d7eb7	0.0006618308
33	0xba1e2186	-0.0006032217
34	0x39a8f033	0.0003222242
35	0x379ad84a	1.8458948e-05
36	0xbb1869c6	-0.0023256405
37	0xbacde3db	-0.0015708165
38	0x37146e31	8.847143e-06
39	0x3aa908ea	0.0012896333
40	0xba48551a	-0.00076420757
41	0x3a4bcae5	0.0007774069
42	0x3a0e7b89	0.0005435278
43	0xba356e3a	-0.0006921027
44	0x39a63eeb	0.00031708865
45	0xba76b5c8	-0.0009411243
46	0xbb1ded36	-0.0024097688
47	0x3ae6b3dc	0.001760121
48	0x39bab46b	0.00035611106
49	0x3a548e53	0.0008108366
50	0xbabe659c	-0.0014526132
51	0xba97ab23	-0.0011571388
52	0x39ccc014	0.00039053021
53	0x39d0b1c5	0.000398053
54	0x38da3741	0.00010405342
55	0x38a9ffb5	8.106177e-05
56	0xb94ac22a	-0.00019336553
57	0x3918123f	0.00014502647
58	0xb8c5611d	-9.411781e-05
59	0x37c34524	2.3278008e-05
60	0xb98e1c5c	-0.0002710548
61	0xb879d02f	-5.9560112e-05
62	0xb9f27bb0	-0.0004624999
63	0xb9bd3412	-0.00036087685
64	0x3893ee9b	7.05395e-05
65	0xb8cd7150	-9.796268e-05
66	0xb9dd7de0	-0.0004224619
67	0x38964a3f	7.166387e-05
68	0xb794a48b	-1.7719596e-05
69	0xb8d48084	-0.00010132886
70	0x392ce186	0.00016487212
71	0xb97f8119	-0.00024366788
72	0x389f0d27	7.5841606e-05
73	0xb7acf5ea	-2.061851e-05
74	0x390d4b4e	0.00013474861
75	0xb8ef89ec	-0.00011422098
76	0x380de75e	3.3832497e-05
77	0x390d7d6f	0.00013493536
78	0x00000000	0.0
79	0x00000000	0.0
80	0xb8c6b54a	-9.4751435e-05
81	0xb9d443c9	-0.00040486295
82	0x39568b80	0.00020460598
83	0x394f5adf	0.0001977491
84	0x37e83676	2.7681916e-05
85	0xb774f141	-1.4599705e-05
86	0x3a8a964f	0.001057336
87	0x3b6fc6ee	0.0036587077
88	0xb8353a3a	-4.320799e-05
89	0xb940d2f1	-0.00018389129
90	0x3824f5eb	3.9329676e-05
91	0xb93db160	-0.00018090522
92	0xb9822ef4	-0.00024830515
93	0xb7feef19	-3.0390498e-05
94	0x38ed6ac2	0.00011320926
95	0x3929bb85	0.00016186952
96	0x3b484181	0.0030556621
97	0xb99580a4	-0.0002851534
98	0x399ce49a	0.0002992496
99	0xb9522ce8	-0.0002004389
100	0x3821ec65	3.860555e-05
101	0xb944c35f	-0.00018764798
102	0x3bcf6b3a	0.006329921
103	0x3bc8dfe5	0.006130206
104	0x3a1e3580	0.0006035194
105	0xbb3f3344	-0.0029174844
106	0x388cf04b	6.720478e-05
107	0x39cd7bc2	0.00039192854
108	0xba00faee	-0.0004920204
109	0x39c54427	0.00037625546
110	0xba0a0eaa	-0.00052664673
111	0xb8255001	-3.9413575e-05
112	0xb9fc835d	-0.0004816306
113	0x3a40af8a	0.0007350376
114	0xb842d960	-4.645565e-05
115	0xb985dcbe	-0.00025532203
116	0x391d63b6	0.00015009832
117	0xb809130f	-3.2681095e-05
118	0x39d1dd93	0.00040028672
119	0xba462756	-0.0007558962
120	0x3a2c7b7f	0.00065796816
121	0xba17abcc	-0.00057857926
122	0x37ca4067	2.4110266e-05
123	0xb7067719	-8.014752e-06
124	0x39c83792	0.00038188376
125	0x3ab18eb0	0.0013546553
126	0xba002838	-0.00048888056
127	0xb9ac3b66	-0.00032850652
128	0xb87902a9	-5.9368704e-05
129	0xb90a8f20	-0.00013214024
130	0xb87cedaa	-6.0302824e-05
131	0xb60cb924	-2.0969392e-06
132	0xba0ed9e9	-0.0005449341
133	0xba729576	-0.0009253839
134	0xba69fd38	-0.0008925977
135	0xba65c3c8	-0.00087648304
136	0x38043a8d	3.1525782e-05
137	0xb8e0ef69	-0.00010725746
138	0xb91195b4	-0.00013884046
139	0x39b465ac	0.00034408027
140	0x392d4162	0.00016522923
141	0xb9f40c09	-0.00046548274
142	0x3aec2dee	0.0018019059
143	0xba68b25d	-0.0008876676
144	0xba6201b2	-0.00086214684
145	0x3a1d11f3	0.00059917493
146	0x39f11c1d	0.00045988048
147	0xb745ae43	-1.17826885e-05
148	0xba238236	-0.00062373595
149	0x398a31c1	0.0002635848
150	0x38ab8bed	8.1799786e-05
151	0xb95ad936	-0.00020871017
152	0xb920c3d6	-0.00015331744
153	0xba3927a6	-0.0007063098
154	0xba71dbfd	-0.0009226201
155	0xbae6006a	-0.0017547731
156	0xbb5cdd51	-0.003370125
157	0xbacc61ad	-0.0015593074
158	0x3a908341	0.0011025445
159	0xb9e7ba79	-0.00044198686
160	0xba6607d5	-0.0008774971
161	0xba757424	-0.00093633146
162	0xb716ba5a	-8.984085e-06
163	0x384f9ecc	4.9500537e-05
164	0xb9d09f57	-0.0003979157
165	0xb960b8b6	-0.00021431115
166	0xbad80ae5	-0.0016482739
167	0xba6ed9a6	-0.00091114116
168	0x38cefc12	9.869797e-05
169	0xb89efdff	-7.5813376e-05
170	0xba57baf9	-0.000822946
171	0xb9d67485	-0.00040904075
172	0x3a0b9824	0.00053251
173	0xba494661	-0.0007678029
174	0x39965f21	0.00028681106
175	0xb98367a7	-0.00025063494
176	0x3b0d743e	0.0021584178
177	0x3a134beb	0.00056189176
178	0xba167d2d	-0.00057406985
179	0xb8e33523	-0.00010834101
180	0xb844c066	-4.6909227e-05
181	0xb96f3a34	-0.00022814499
182	0x3979820c	0.00023794937
183	0x39b8ec68	0.0003527135
184	0xba2f8bc1	-0.0006696545
185	0xba7bed0f	-0.00096102146
186	0x38763a05	5.8705005e-05
187	0xb9015a33	-0.00012336
188	0xb9d1453b	-0.00039915167
189	0x394f0ced	0.00019745874
190	0xb9b443f8	-0.00034382916
191	0xbab4dc87	-0.0013798632
192	0xb9d1b103	-0.0003999547
193	0x38b3ebb9	8.579292e-05
194	0xbadd3c3e	-0.0016878915
195	0xb90258b2	-0.00012430808
196	0xb9a84cb8	-0.00032100617
197	0xba36b95a	-0.00069703686
198	0xb92788ca	-0.00015977319
199	0xb9d178f2	-0.00039953698
200	0x38b1b214	8.473187e-05
201	0xb8a3193c	-7.777146e-05
202	0x3879bd39	5.9542454e-05
203	0x39495641	0.00019200986
204	0xb95ff262	-0.00021357232
205	0xb883617e	-6.264726e-05
206	0xba38f252	-0.00070551515
207	0xb97e9334	-0.00024278165
208	0xbab0c61f	-0.0013486779
209	0xbaad462f	-0.0013219769
210	0x38d54be8	0.0001017077
211	0xb8b60b85	-8.680582e-05
212	0x39938ff8	0.0002814529
213	0xb9f22d8a	-0.00046191766
214	0xb8fd2770	-0.00012071326
215	0xb9a9c133	-0.00032378137
216	0xba8168e4	-0.0009873179
217	0xba6237fe	-0.00086295593
218	0xba1d2208	-0.0005994146
219	0xb93071c3	-0.00016827048
220	0xba4362ef	-0.0007453402
221	0x3b26b603	0.0025438077
222	0xb9c9673d	-0.00038414626
223	0x381bead8	3.7173595e-05
224	0x398ac951	0.00026471404
225	0xb9af318b	-0.00033415513
226	0x38260e87	3.9591014e-05
227	0xb902e74d	-0.00012483932
228	0xb8a5d3ed	-7.907287e-05
229	0x39512229	0.00019944519
230	0xbb4d8819	-0.0031361638
231	0x36debed1	6.6383295e-06
232	0x38f60c30	0.00011732464
233	0x3769dc5e	1.39391905e-05
234	0xba9f92a7	-0.0012174443
235	0x398ffea3	0.00027464805
236	0xb8ec9516	-0.00011281126
237	0xb902b948	-0.00012466789
238	0x397c1924	0.00024041958
239	0xb7472e32	-1.187208e-05
240	0xb8c87551	-9.558595e-05
241	0xb68b34d5	-4.1486733e-06
242	0x378a1ca6	1.6464222e-05
243	0x385522f4	5.081571e-05
244	0x3b3c13c2	0.00286983
245	0x3a160298	0.00057224324
246	0x3a8144ae	0.0009862387
247	0x393cd4f9	0.00018008416
248	0x3a5d841a	0.00084501656
249	0x3a15365a	0.0005691998
250	0x39dab2ef	0.00041713516
251	0x3a92bb26	0.0011194691
252	0x396c97e9	0.00022563305
253	0x399316aa	0.0002805491
254	0x3977461e	0.00023581876
255	0x3a14785c	0.0005663687
