data/Figure3_Supplement/006/checkpoint_0002000.pth (torch, 226048 bytes, 31 tensors)

net.0.weight f4 [32, 120, 2]
00000000: 6a48 5cbd 66f0 043c 7146 0bbd cbd7 2cbc
00000010: adae 3c3d ac68 4cbd 967b 85bb 50b6 76bd
00000020: 07eb ffba a497 993c 52f3 be3c cb3f 293d
00000030: 50bb 5d3d 36bf 7d3b 6127 72bc aba9 063d
00000040: e77e 00bd ab9b 983c e7d9 67bd 96ae 0cbd
00000050: b272 4cbd 9108 823c f05d 423d 9cc7 73bd
00000060: 85c2 a03b 6f6a a8bc 87eb 58bd 488f 643c
00000070: e5af eabc a5c5 253c 7778 57bd 2921 57bd
00000080: b696 6bbd adb5 5ebd 0849 bd3c 0319 6bbd
00000090: 92e1 be3c e2e8 1bbb 2fcb 3abc eaab 10bd
000000a0: 9c9f 84bd 405e 323d a912 503d 63e2 c03c
000000b0: e729 3fbd 3019 0cbd 7b97 d9bc 2e3a d13c
000000c0: 4e10 b4bc 60fd 9bbd 1940 00bd 2d3a 9bbd
000000d0: 3589 09bd 90a2 153d 13ea 87bc 69b6 e8bc
000000e0: 9146 8d3c ef01 7c3c 4e70 cbbc c7bd a9bb
000000f0: 948b d6bc 3c2a 8cbd f6e0 da3b c95e 2f3c
00000100: 902b 3e3d ee6d 573d 6e43 093d eb88 4bbc
00000110: 2dec 14bc 3eb9 a63c f0f9 0cbd dcca a5bc
00000120: a24b 73bd 1c88 813c 269c 41bd 179b 233b
00000130: f308 36bd b939 91bc d070 a8bc bb26 3b3d
00000140: abdc a1bc 7042 833d d025 613d 5707 48bc
00000150: b17d 56bd 3c01 11bd d2d6 56bb 656f 4fbd
00000160: cd77 593c 80b1 9ebc 1d2b 54bd 10d5 303d
00000170: db61 62bc b07f 6b3d fdc1 99ba b57f 8f3d
00000180: 73a7 303c 59ce 9a3c bc02 8abd 9764 ee3c
00000190: 6c93 41bd d49e 593d a229 463c 6d50 a13b
000001a0: 8412 66bd a7e9 62bc a184 733c 9603 58bd
000001b0: 88e3 3cbc 128a b0ba cad7 773d 7c40 73bd
000001c0: df54 c73c 75c3 07bd 826d 0b3d 39f8 99bc
000001d0: 78a2 973c 8a21 0a3d 1883 3ebd 6a98 2a3c
000001e0: 9d92 7bbd 8307 35bd 069a 0a3d 32e6 1c3d
000001f0: 025d 173d 317a 193d 290b bbbd c3e4 daba
00000200: 270c dd3c 210f b93c 3291 b3bc b601 2dbd
00000210: a18e 313d 5374 233d 6c40 803c 29b6 3bbd
00000220: 7453 42bd f4b7 c23d e20c 7b3d 3191 3ebd
00000230: f252 423d 8223 9bbc b21c 4f3d 2ff7 1fbd
00000240: 7164 913d d774 883d 321b 2ebd 6ad9 8a3c
00000250: f12e 823d aead 91bd 3957 c03c aede a5bc
00000260: 9878 61bd a56a 5bbd 4435 1b3d 2cce b5bc
00000270: 278e 933c cd23 5fbc 1c8d 4f3d 82fa 873c
00000280: ea11 873d 2dfd 0a3d 371c 973d 4f24 c03c
00000290: a60b 6dbd 2ba8 7f3d 1110 bbbc 57fc ff3c
000002a0: 4c96 a73c fc7a 0fbd d4b6 223d 4b61 73bd
000002b0: 9f3d 933c 26fa 29bd 0965 0fbd 8c1c 96bb
000002c0: f6d7 c3bc 355f bcbc 7ede 14ba 99ce cb3b
000002d0: f765 bb3c 1f54 563d 179a cbbc 68c7 92bb
000002e0: 1255 293d 275d ce3b ef47 da3c d69f 30bd
000002f0: ad61 6cbd a372 ad3a a319 28bd 1a23 5e3d
00000300: f776 7bbc d71a b1bd 02fe ae3c 4f99 01bd
00000310: 4494 513d 7da2 c9bc 6f94 20bc 5de6 6abd
00000320: 7935 f63c 541f 813c 527b 88bd 4fdc 86bc
00000330: 0f63 7f3d 6a43 2ebc 65d6 56bd 809b 513d
00000340: 3147 053c 9750 003d a28f 2abc 2678 c03b
00000350: e92e 7cbb 09f4 803c 1c90 ba3c 8b88 463d
00000360: 96cb 3e3d 2e79 f73c 7f78 45bb e73a b33c
00000370: 7351 123d fb37 b03c 3d95 433c c289 6c3b
00000380: 358c 04ba d7d1 8e3d d53f 533c 1032 e6bc
00000390: 0804 3a3d 1b87 8e3d e24c 0b3d 52fd 7e3d
000003a0: 40bd a0ba b174 b63c 06fd 653c 414e e1bc
000003b0: 7c8d aebc a65f dbbb 8a62 983d 6186 4cbd
000003c0: d882 343c a136 743c 54c2 c63c 6885 cabc
000003d0: 2626 623d 469c bb3c 310b 27bd 0448 c3bc
000003e0: f7ee 223d f84b 0dbd 6a3e 32bd cda9 5b3d
000003f0: 7d03 603d 64c2 3f3d f34a 22bc a6d5 073d
-0.053779997 0.008113956 -0.034002725 -0.010549496 0.04606502 -0.04990451 -0.0040735705 -0.06023246
-0.0019525 0.018749066 0.023309384 0.041320603 0.054133713 0.0038718707 -0.0147798965 0.03287665
-0.031371024 0.018628916 -0.056604292 -0.034346186 -0.04991407 0.015873225 0.047452867 -0.059516534
0.004906001 -0.020558564 -0.05295899 0.013950177 -0.028648326 0.010117923 -0.05260512 -0.05252186
-0.057516776 -0.05437248 0.023106113 -0.0573969 0.02330092 -0.0023789932 -0.011400982 -0.0353202
-0.064757556 0.043546915 0.050799046 0.02354545 -0.04667082 -0.03420371 -0.02656149 0.025540438
-0.02198043 -0.07616687 -0.03131113 -0.075794555 -0.033578116 0.036531985 -0.016591107 -0.028407292
0.017245563 0.01538132 -0.024833824 -0.005180094 -0.026189603 -0.06843993 0.0066796495 0.010703751
0.046428263 0.05259507 0.03351157 -0.0124227805 -0.009089512 0.020352002 -0.034418046 -0.020238332
-0.0593983 0.015811972 -0.047268055 0.0024964267 -0.04444213 -0.01772772 -0.020561606 0.045691233
-0.019758543 0.06409156 0.0549677 -0.012208781 -0.052365962 -0.035401568 -0.0032781851 -0.050643343
0.013273192 -0.019371748 -0.05179893 0.043171942 -0.013817276 0.05749482 -0.0011730787 0.0700678
0.0107821105 0.018897222 -0.06738803 0.0291007 -0.047259733 0.053129986 0.012094887 0.0049229176
-0.05617 -0.013849652 0.014863164 -0.052737795 -0.011528857 -0.0013468883 0.060508527 -0.05938767
0.024332462 -0.033145387 0.03403998 -0.01879512 0.018510088 0.03372339 -0.04651174 0.010412315
-0.06141912 -0.044196617 0.033838294 0.03830547 0.036953934 0.037470046 -0.09132988 -0.0016700256
0.026983334 0.022590222 -0.02191982 -0.04223796 0.043348912 0.039905857 0.015655719 -0.04582802
-0.04744287 0.095077425 0.061291583 -0.046525184 0.047442384 -0.01893783 0.050564475 -0.039054092
0.07099236 0.066629104 -0.042506404 0.016949374 0.063566096 -0.07113205 0.023479091 -0.020247784
-0.055046648 -0.0535685 0.037892595 -0.022193037 0.01801212 -0.013619375 0.05067168 0.016598944
0.06595214 0.033932853 0.073784284 0.023454813 -0.057872437 0.062416237 -0.02283481 0.031248255
0.02045741 -0.035029396 0.03972514 -0.059418958 0.01797372 -0.041498326 -0.035008464 -0.00458104
-0.02390669 -0.022994617 -0.0005678906 0.0062196967 0.022875769 0.052326318 -0.02485375 -0.0044793375
0.041340895 0.0062977257 0.026645629 -0.04312118 -0.05771034 0.0013233017 -0.041040074 0.054232694
-0.015348188 -0.086476974 0.021361355 -0.031640347 0.051166788 -0.024613613 -0.009801014 -0.057348598
0.030054795 0.015762009 -0.066641465 -0.016462473 0.06235033 -0.01063619 -0.052450556 0.051173687
0.008134649 0.031326856 -0.010410221 0.005873698 -0.003848011 0.015741365 0.022773795 0.04847006
0.046580873 0.03020915 -0.0030131636 0.021878673 0.035722207 0.021511069 0.011937437 0.0036092852
-0.0005056293 0.069736175 0.012893637 -0.028100044 0.045414 0.06959363 0.034008868 0.062253304
-0.0012263432 0.02227244 0.014037376 -0.027503135 -0.0213077 -0.006694752 0.0744067 -0.04993284
0.011017524 0.014905603 0.024262585 -0.024721816 0.055212162 0.022901665 -0.040782157 -0.02383805
0.039778676 -0.034496278 -0.043516554 0.05362873 0.054690827 0.046816245 -0.009905565 0.033162735

net.0.bias f4 [32]
00000000: dce6 093d 6081 d8bc 6994 71bd 3e38 31bd
00000010: 8a96 7fbd 297d 07bc 7462 083d 1694 f3bc
00000020: fa55 e13c 8420 633c 7565 35bc 48c8 4ebd
00000030: fc25 5b3c 0f55 a23c 2646 3739 1455 1b3d
00000040: 06f2 c1bc 520f 52bc 5d3a 163d 02b5 29bc
00000050: 9cad 4c3d 2cfb 3a3d 7ec4 63bd 5edd 303d
00000060: aff3 c43b 6df2 843d 8057 24bd b949 b8bc
00000070: d2d0 04bd 2d0e 373d f509 9d3c 0f16 993c
0.03366743 -0.026428878 -0.058979426 -0.043266527 -0.062399425 -0.008269587 0.033297017 -0.029733699
0.027506817 0.013862733 -0.0110715525 -0.05048397 0.013375755 0.01981595 0.00017478372 0.037922934
-0.023674976 -0.012821035 0.036676753 -0.010358097 0.049970254 0.045649692 -0.05560731 0.043179862
0.0060104947 0.064915515 -0.04012251 -0.022496091 -0.03242571 0.044691253 0.019169787 0.018687276

net.2.module.0.weight f4 [32, 32, 3]
00000000: 3250 983d e360 ac3d 1624 34bd 1280 e4bc
00000010: 12fc 13bd e340 c13c ff7b 833d 587a 963d
00000020: 64e5 ccbd eae8 ef3c 5ee1 cf3d 4d2e f9bd
00000030: b4a0 bbbd 8171 82bc f073 8f3c 3e09 91ba
00000040: 56d9 aabd 0425 ba3d e9db c33d b2a9 37bd
00000050: a4f7 fa3b fdb2 4d3d c1d3 0bbd b5b3 d4bc
00000060: 052a a53d 4ee1 a3bd f897 923d 6b48 29bd
00000070: cce3 55bd 83a7 933b ba25 8e3d 1a65 293d
00000080: e984 95bd 1cd1 84bd cf20 bbbd 37af cebd
00000090: e736 88bc f2c9 a6bd d2b9 c53c e8d2 293d
000000a0: 7470 a5bd b349 4ebd 89e8 10bd b9d3 9dbd
000000b0: d9bb 9abd 169a 9ebd 9fff 9bbd 3355 bf3d
000000c0: 1bc6 9abd 0e42 bbbd c1a0 4e3d 7667 2ebd
000000d0: 4501 8c3d 88a9 bb3d ee91 893d fd0d 96bd
000000e0: 986e 773d cb7e b13d 7ef0 b4bd 23d6 79bc
000000f0: 2f49 9cbd 1737 6b3d f439 0d3d 6a88 003d
00000100: 0f8e a33c 7975 52bd 4ee3 d2bd 7c95 bbbd
00000110: 39a2 05bd 6a51 80bd 059b 8a3a 7086 cf3d
00000120: 61d1 b23c 61bc 09be 4ac0 523d 91e3 1fbd
00000130: d889 3d3d 89df 4dbb d26a b63d b687 163d
00000140: da61 aabd 521f 9ebc feb7 21bc d743 ac3c
00000150: 3dfa 553d 9550 97bd 2702 123d 30d7 99bc
00000160: cf39 9f3d b301 f83c 2b36 5d3c 0afd 76bd
00000170: 9685 7a3d 43f7 8ebd 7bbe 7a3c 3044 1e3d
00000180: 24fa d93c 3184 c9bd 6f75 a0bd 79b6 adbd
00000190: 4362 d23d 8603 97bd a3d9 27bd 5d0e ce3d
000001a0: bd82 6a3d 30ae 073c 4a4e c83d 366c d63c
000001b0: a70e b7bd 5210 e8bc 81a0 183d bb51 ccbc
000001c0: c947 ba3d 6a03 ca3d c79b 2ebd 48ff c53d
000001d0: b168 8abc 5eb5 a0bb 31af 47bb 09f0 ad3b
000001e0: e06a 95bd f6b5 a63d e075 9cbd 9836 b63c
000001f0: b16d a8ba 0892 4f3d 5855 b13d 9eb3 003d
00000200: debc ad3d 770e 47bd 4fff 513d f794 803c
00000210: b7bc 8e3c 1049 babd dab4 5cbd 9a26 c93d
00000220: 1610 fe3d c0a7 a53d 8b33 36bd 749a 3bbd
00000230: 4e35 6c3d 83f9 86bd 885b b2bd 582f 7d3d
00000240: 15c7 9b3d dcb1 0e3c 81ed 743b a004 c63d
00000250: 36d9 483d ff96 d1bd 6526 ef3c 8edc a13d
00000260: 72de 77bd 0728 4bbc df5f f53c 6504 45bc
00000270: 283b e9bc 954f 96bd 170d 6dbd adf1 853c
00000280: 8cb6 a53d 93b2 58bd 0d7e b63c f8d3 943d
00000290: 3ad6 b43d c4f0 493d 3727 6dbd 4e92 b83c
000002a0: bd9f 97bd 03b2 293d 6c42 eebc ad76 ed3c
000002b0: a41b cc3d b6d0 b8bd 7ce3 123d 5a0c 0bbd
000002c0: 5d6c 723d bc6b 6d3d 350b c3bc 4d6d 693d
000002d0: 1f68 9dbd eb3b 9dbd 4472 043d aff0 ab3d
000002e0: cc59 d2bd a621 c3bd df31 b13d 0d14 193d
000002f0: a5c5 1fbc ae71 92bc 527c 993d f608 23bd
00000300: 30d3 1d3d 17d6 9d3c bcf0 b4bd 524e bebc
00000310: e51f 0b3d 7718 763d c626 33bb 485e 443d
00000320: 905d d23d b06d ae3d df7a a2bd bc4c 4f3d
00000330: 434e 78bd 6e7c 5a3d 6437 d4bd 656c 32bd
00000340: ccc1 bc3d e4a4 86bd 8b77 103d 7c5f 383d
00000350: 6d6c 3d3d 53d1 38bd 391b 8dbd 7cbc 12bd
00000360: 7cfe a43c d2f4 38bd e115 f1bd 9b8c 243d
00000370: 647e 08bd 2380 aeba 5307 ba3d 1fa4 92bd
00000380: cd4f 14bd 7137 e1bb a47b c2bd fdf2 9e3d
00000390: 5b54 38bd ee02 eb3c 23fd 72bd 5611 50bd
000003a0: d287 dcbd 8c67 5fbd c4e4 873d 3496 28bc
000003b0: a857 b3bd 615f 84bd 84b5 b83d 1794 bf3d
000003c0: 1359 b33d 8e3f 2c3d 08bb d9bb 6658 d7ba
000003d0: 83ad 1fbd 9f58 a03b 0c35 47bd f36e a7bd
000003e0: e0b4 713d 8a66 bbbd 5af8 05bc 8b52 fc3c
000003f0: 2776 653d 0a52 50bd 0c77 b1bd ce50 833c
0.07437171 0.08416917 -0.043979727 -0.0278931 -0.036129065 0.02359051 0.06420135 0.07347554
-0.1000469 0.029285867 0.10150407 -0.12167034 -0.09161511 -0.015923264 0.017511338 -0.0011065376
-0.08342235 0.090890914 0.09563429 -0.04483957 0.0076589156 0.050219525 -0.03413749 -0.025964597
0.08064655 -0.08001958 0.07157892 -0.04132883 -0.052219197 0.004506053 0.069407895 0.041356184
-0.07300741 -0.06485197 -0.09137117 -0.10092013 -0.016627742 -0.08143987 0.024136458 0.0414609
-0.08078089 -0.050363254 -0.035378013 -0.077063985 -0.0755536 -0.07744233 -0.07617115 0.09342422
-0.07557317 -0.09143458 0.050446276 -0.042579137 0.0683618 0.09163195 0.06717287 -0.07326887
0.060408205 0.08666762 -0.08834933 -0.015248808 -0.07631146 0.057425585 0.034479097 0.031380095
0.0199652 -0.051381562 -0.10297261 -0.09159371 -0.03262541 -0.062655285 0.0010574764 0.10133064
0.021828355 -0.13450767 0.051452912 -0.039035384 0.046274036 -0.0031413755 0.08907093 0.036750518
-0.08319445 -0.019302044 -0.009870527 0.021028442 0.0522406 -0.07388417 0.035646584 -0.018779367
0.07774698 0.030274248 0.013501684 -0.06029991 0.061162554 -0.06980755 0.015304203 0.038639247
0.026608534 -0.09839667 -0.07834899 -0.084820695 0.10272648 -0.07373719 -0.04097904 0.10061333
0.057253588 0.008281276 0.097805575 0.026174646 -0.089383416 -0.028328095 0.037262443 -0.024941316
0.09095723 0.098639324 -0.04262903 0.09667832 -0.016895624 -0.004904433 -0.0030469412 0.0053081554
-0.072957754 0.08140175 -0.0763967 0.02224283 -0.0012850073 0.050676376 0.08658856 0.031421296
0.08483289 -0.04859778 0.051268872 0.015696032 0.01742397 -0.09095967 -0.05388341 0.09821816
0.12405412 0.080886364 -0.04448275 -0.045801595 0.057668023 -0.06590559 -0.087088645 0.06181273
0.07606331 0.008709397 0.0037373009 0.09668851 0.049035273 -0.10233878 0.029193113 0.079033956
-0.060514875 -0.01239968 0.029952941 -0.0120249735 -0.02847059 -0.07339398 -0.05787381 0.016350592
0.08091459 -0.052904677 0.022276903 0.07266992 0.08829923 0.049301878 -0.057898726 0.022530701
-0.074035145 0.04142953 -0.029084407 0.028987253 0.099662095 -0.090241835 0.035861477 -0.033947326
0.059185375 0.05796407 -0.023809055 0.056989003 -0.07685875 -0.07677444 0.032335535 0.08395516
-0.10271034 -0.09527902 0.0865209 0.037372638 -0.009751712 -0.017876472 0.07494415 -0.039803468
0.038531482 0.019267125 -0.08834979 -0.023230705 0.033965964 0.060081925 -0.0027336343 0.047941476
0.10271752 0.08517015 -0.07933592 0.05061029 -0.06062151 0.05334132 -0.103621274 -0.043560404
0.09216651 -0.06574419 0.035270255 0.045012936 0.04624598 -0.045121502 -0.06889958 -0.035824284
0.020140879 -0.045155354 -0.11771751 0.040173154 -0.03332366 -0.0013313334 0.09083428 -0.0716021
-0.036208916 -0.006873064 -0.09496239 0.0776119 -0.045002323 0.02868792 -0.05932344 -0.050797783
-0.10768093 -0.05454211 0.066354305 -0.010289717 -0.087569535 -0.064635046 0.09018996 0.09354418
0.08757224 0.042052798 -0.0066446103 -0.0016429543 -0.038983833 0.004893377 -0.048634574 -0.08175459
0.059010386 -0.09150417 -0.008176887 0.030801078 0.056020882 -0.05085949 -0.086652845 0.016029742

net.2.module.0.bias f4 [32]
00000000: 19d9 0cbd 8812 a9bc e78c b43d 934a 95bd
00000010: 067f bfbd 853b 073d fd37 7b3c 52d6 503d
00000020: 9fca 6c3d ffc1 2e3c d782 d6bc 4942 953d
00000030: f5f1 9cbd 3a0b a3bd 9960 5f3d 62fa 993d
00000040: 260e 2f3d 8f59 b13d 6308 72bd 2c97 9dbd
00000050: 80d0 913d 5680 cbbd 6dc9 81bc eb78 96bc
00000060: 9915 46bd 8e9c e6bc 8997 2abd fe70 803d
00000070: 0c86 a43d a084 aa3c a187 b03d e06b 18bd
-0.034386728 -0.02063872 0.088159375 -0.072896145 -0.093504 0.033015747 0.015333173 0.05098564
0.057810422 0.010666369 -0.026185436 0.072880335 -0.07663337 -0.07961126 0.054535482 0.0751846
0.042738102 0.0865966 -0.05909003 -0.07694849 0.07119846 -0.099365875 -0.015843118 -0.018368205
-0.04836044 -0.028150823 -0.04164842 0.062715515 0.0803338 0.020815194 0.08619619 -0.037212253

net.3.module.0.weight f4 [32, 32, 3]
00000000: 0dbd cdbd 84ce ccbd 2751 d33b 3be8 1c3d
00000010: d063 b83d d517 5a3d 0f02 8c3b d3e6 b13d
00000020: 0cfa 293d 5db6 283d 5a44 bc3b 56f9 d83c
00000030: d840 28bd 6772 573d 4cf2 aebc 992e acbd
00000040: 9803 ffbb 57a9 bcbd bd93 c63d a384 29bd
00000050: 0224 0ebd 58ba b6bd 667b dc3b 4e62 b2bd
00000060: 3dc6 91bd f7f6 3ebd 31ac 7b3d 37bd 8ebd
00000070: bef0 dcbc dfd0 633d 554e 503d 17f7 cf3c
00000080: ea26 68bc 38f9 1dbd 1c8e 2e3d 239b cebd
00000090: 2f68 90bd 7956 0abd 71b1 b8bd 05bb 8dbd
000000a0: 3cf4 7fbd 6c3a a93b 4fe7 283d ed19 b13d
000000b0: c307 b6bd d942 bfbc 1cbc d13d 034e e8bb
000000c0: bac7 813c 2044 39bc 3d0d 23bd 0ce7 96bd
000000d0: 67fe b23d 28d7 3bbd e7df ef3c ceae 81bd
000000e0: bb6b ab3d 97d0 40bc 6427 a83d d650 3dbd
000000f0: aa1e 463d 120f 51bd 60dd 013d 64d0 143d
00000100: a722 1a3d 2fcb c53c a1e9 753d 09d9 f73b
00000110: 8db3 b4bd 7b1c 7fbd a8a9 bcbd b2ce 5abd
00000120: d891 c3bd dcb1 25bd 6296 d3bd 4bd0 a33d
00000130: cc34 d03d aa3b 20bd d3f6 bd3d 925e c93d
00000140: 6352 753d 2fdd 8e3d 8236 27bd 5c8c c3bb
00000150: 86df cd3d c78b 113d 74c3 be3d 306f c9bd
00000160: b1ab 98bd b1d9 a33d 0b9e 613d 4731 a93c
00000170: 72da b73d 219f ff3c 9768 423d 2c25 f83c
00000180: 76ef 6e3d edc2 a63d ded3 9d3d 0a74 60bd
00000190: 8694 ae3d bc98 9db9 1e70 b2bd f869 63bd
000001a0: a49e bfbd c1db 94bd 7116 933c a0b6 2d3d
000001b0: 9491 f7bb b2af 94bb 3820 89bc 5155 adbc
000001c0: 1a63 963d 692e a93d 6b40 a8bd 6d67 16bd
000001d0: fb6a bbbd 7022 9abc 07ad 5ebd 78b8 aa3d
000001e0: 7611 cbbc d5bb 3a3d b6a6 2ebd 0413 79bd
000001f0: 1821 793d f2fa 513d 2846 81bd d31a bb3c
00000200: 6735 babd e4e0 a63d d6fe 1e3d f9b9 35bd
00000210: 2ad1 8b3d ebae f8bd 257d b0bd ffc6 a0bd
00000220: dbb4 9e3d abce 97bc 5520 f0bc c7db 3a3b
00000230: 06fb c43c a952 d33d 305d 483d b822 8ebd
00000240: f90f 8b3d b4b1 15bc 6571 2b3d cfac e9bc
00000250: 0b7b 973d 0da3 433d b21c 6ebd 0ed5 52bd
00000260: 2a82 b7bc 82c8 4c3d e0c0 66bd f8e5 7e3d
00000270: 13b9 c5bb a37e c63b 797a 2cbd d960 7ebc
00000280: f88c 8abd 512f b5bd a688 733d c559 c53d
00000290: c796 b1bc 6768 c4bd 8a75 923d 9d8c b03c
000002a0: 7603 413d 31ba fdbb ef46 7fbd 3a09 75bb
000002b0: 233b 09bd b3e2 cc3c b685 943b a683 70bd
000002c0: 671a f9bb dc18 a13d 0a19 5d3d 99fb d9bb
000002d0: 19a8 babc f4c9 c2bd 3859 9dbd a78a f83c
000002e0: cc7f 293d a767 86bd 2aa5 a63d a1c4 c23d
000002f0: a2bb 8a3c b4e0 b4bc ed3e c7bc c96d 0fbc
00000300: 14d9 a6bd d708 ffbc 76b9 67bb 726d c1bd
00000310: e95a ffbd 11fb aebc bf9a 073c 95b2 833d
00000320: 75cf 863d 79e5 3fbd cbe9 4fbc 82f1 183b
00000330: 84e1 c83d d14f 6b3c 6687 adbc 5bc4 413d
00000340: 092e bcbc 320e 0dbe 5cd9 19bd cf5d 203d
00000350: 67b2 3c3d 09ce 9f3c 2ce1 d1bc cd2e 5ebd
00000360: 4de7 b9bd d9b1 97bd 0bb3 3dbc 2610 4bbd
00000370: cab5 ccbd 168d 7bbd 88c3 2d3d 3e9e f7bc
00000380: f7c0 e93c e9da 9cbd ea61 41bd 8bc3 2cbd
00000390: 325e 7b3d 6bc8 8ebc ffe1 7a3d e8cc b7bd
000003a0: 1628 79bd ec3e 493d a48c c63d f394 823d
000003b0: ea78 3ebd d293 913c a83d 35bd 8755 15bd
000003c0: a743 debd 7480 3b3d 00da da3d 76b2 6f3d
000003d0: 6d08 b83c 8dc6 903d 1e11 a8bb 086d 223d
000003e0: dfed c3bd 0728 e43c 31c7 dfbd 266a 7dbd
000003f0: 5b3d 923d cead 35bd 5c29 40bd 3f54 4cbd
-0.10045824 -0.10000327 0.006448883 0.03830741 0.09003413 0.053245384 0.0042727063 0.08686604
0.04149823 0.04118954 0.005745453 0.02648608 -0.041077465 0.052599337 -0.02135577 -0.08407325
-0.007782411 -0.092119865 0.096961476 -0.041386258 -0.03470231 -0.08922261 0.0067285774 -0.087101564
-0.07117889 -0.046622243 0.06144351 -0.069696836 -0.026970264 0.055619117 0.050855953 0.025386376
-0.014169434 -0.03856775 0.042615995 -0.10088184 -0.070511214 -0.033773873 -0.09018219 -0.06920437
-0.06248878 0.005164435 0.041236218 0.08647523 -0.08888199 -0.023347305 0.10240957 -0.007089378
0.015842307 -0.011307746 -0.039807547 -0.073682874 0.0873993 -0.045859486 0.02928157 -0.063321695
0.08370157 -0.011768482 0.08210638 -0.04621967 0.048369087 -0.051039763 0.03170526 0.03633155
0.037630703 0.024144737 0.06003726 0.0075637144 -0.08823309 -0.06228302 -0.09212047 -0.053419776
-0.09549302 -0.040452823 -0.103314176 0.07998713 0.1016632 -0.0391194 0.092755936 0.09832491
0.059893023 0.06975781 -0.040823467 -0.00596766 0.10052399 0.035533693 0.093146235 -0.098356605
-0.074546225 0.08000506 0.055082362 0.02065338 0.08977212 0.031203808 0.047463026 0.030291162
0.058333836 0.08142648 0.07706426 -0.054798163 0.08524422 -0.0003005917 -0.08712791 -0.05552098
-0.0935643 -0.07268477 0.017955037 0.042410493 -0.007555196 -0.004537546 -0.016738996 -0.021158846
0.07343121 0.08260805 -0.08215412 -0.03671973 -0.09151264 -0.01881525 -0.05436423 0.08335966
-0.0247886 0.045589287 -0.042639457 -0.06080915 0.060822576 0.05126471 -0.06312209 0.02283994
-0.09092217 0.08148363 0.03881725 -0.04436681 0.06827004 -0.12142738 -0.086176194 -0.078504555
0.07749339 -0.018531164 -0.029312292 0.0028512345 0.024045479 0.103185005 0.048916996 -0.06940216
0.06790156 -0.009136606 0.04185619 -0.028524784 0.073965155 0.04776292 -0.058132835 -0.051472716
-0.022400934 0.049995907 -0.056336284 0.062231034 -0.0060340255 0.0060575767 -0.042108987 -0.01552602
-0.06765169 -0.088469155 0.05945649 0.09636263 -0.021678342 -0.09590226 0.07151325 0.021551425
0.04712244 -0.007743143 -0.062323507 -0.0037389533 -0.033503663 0.025010442 0.004532541 -0.0587193
-0.0076020244 0.0786607 0.053978957 -0.006652307 -0.022785233 -0.09511176 -0.07683033 0.030339552
0.041381642 -0.06562739 0.08136971 0.0951016 0.016935173 -0.022079803 -0.024321998 -0.008754202
-0.08146873 -0.031132145 -0.0035358346 -0.09444703 -0.124685116 -0.021359952 0.00827664 0.06430546
0.06582538 -0.0468497 -0.012690018 0.002333731 0.09808639 0.014362291 -0.021182727 0.0473064
-0.02297117 -0.13774946 -0.037560806 0.039151963 0.046068575 0.019507425 -0.025620066 -0.05424385
-0.0907732 -0.074069686 -0.011578332 -0.049575947 -0.09995611 -0.061413847 0.0424228 -0.030226823
0.028534396 -0.07658941 -0.04721252 -0.04217867 0.06136913 -0.017429551 0.061250683 -0.0897463
-0.060829245 0.049132273 0.09694794 0.06376066 -0.04650203 0.017770682 -0.044248253 -0.03645852
-0.108527474 0.0457768 0.106861115 0.058519803 0.022464955 0.070691206 -0.0051289937 0.03965476
-0.09566855 0.027851118 -0.109266646 -0.06186881 0.07140609 -0.044355206 -0.046914443 -0.04988503

net.3.module.0.bias f4 [32]
00000000: 3ce2 883d 1172 903d 6fb2 a93d 54de b4bd
00000010: a59e 203d e500 d4bd bfce 6cbd 7f30 77bd
00000020: 8084 553c 02c2 0e3c afb1 8dbb fd01 53bb
00000030: 1989 75bd 6d5c b03d 9b82 85bd 2c95 823d
00000040: 4006 1bbd 8544 c23c 86ae c23d 1358 13bd
00000050: 93ec 5bbd b6c9 303d ce97 5a3d 65d9 6a3d
00000060: c9ed 743d 2f38 323d 48a7 293d 5f3a 30bd
00000070: e4c9 5b3d 389e 8e3c ed26 54bd 3a9b bebb
0.06683776 0.070530064 0.08285987 -0.08831468 0.039213795 -0.10351733 -0.057814356 -0.060348984
0.013032079 0.008713247 -0.00432416 -0.003219723 -0.0599452 0.08611379 -0.06519052 0.063761085
-0.037847757 0.023714313 0.09505944 -0.035972666 -0.05369241 0.043161117 0.05336743 0.05733623
0.059797082 0.043510612 0.041419297 -0.043024417 0.053659335 0.017409429 -0.051794935 -0.0058168443

net.4.module.0.weight f4 [32, 32, 3]
00000000: 024d b9bd 708e 473d c942 abbd 506f 80bd
00000010: 0c50 393d a961 97bd 32a2 c93d 877f 72bd
00000020: 26fd 20bd a2cf 22bd 7e18 ad3d 4e5b 12bd
00000030: a682 4a3c c12e a13d b63e 7d3a dc6c 803d
00000040: 555c 55bd fb32 df3c 77dc 0d3d 0dc7 bf3c
00000050: 7b13 c2bd c7e6 4c3c b365 a43c 723d be3c
00000060: 0017 9f3c 46ad 70bd a6a9 7bbd fae9 ba3d
00000070: d629 683d 6d34 adbc 2771 56bd 8f48 853d
00000080: b64b 5fbd c7c4 d03a 80b2 e2bd ca9c e73b
00000090: e0f6 01bc 28dd aabc 569f c0bd 826e c93c
000000a0: bdea c43d 020b c53c 27d8 c0bd af7f 91bd
000000b0: a16e a73d 044b bdbd 6509 883d ca6f 60bc
000000c0: fee9 8c3d e7f5 fdbd 9407 cc3d b359 47bd
000000d0: d2a4 08bd 6308 3d3d e7b6 04bd d7c4 9c3d
000000e0: 5610 d8bc 2db7 c6bb a182 bbbd 9a6c cd3d
000000f0: debb 413d d715 3abd 74e0 55bd 3d46 d33d
00000100: 37e5 a93d 8db5 40bc 63c5 153d 6702 b2bd
00000110: a8df 48bd 626e 81bd a99d c73c dbbd e73c
00000120: b991 28bd c496 c7bd 3e48 d13c 1fde ba3c
00000130: d576 b6bd 3f5f 973d b9d0 d83c c6d3 5a3d
00000140: f447 53bc 68f1 953c b1bd 9abd 18ba ba3b
00000150: b8b2 c43b d235 6fbc 8697 fbbc 62e8 6abd
00000160: a8d7 213d 9fbf d63c 364b 40bd b44b a8bd
00000170: a4ab aa3a 87d5 42bd ff46 923d 403f babd
00000180: 3c66 96bd cc9d 523d 0477 94bc fb97 b1bd
00000190: f89f babd 9e13 e2bd bf27 0f3c 557f ee3b
000001a0: 2e91 de3c 9f7f 803d 9e32 87bd 367f a5bd
000001b0: 92eb 04bd 2abd 88bd e4bf d1bd c5a7 e73d
000001c0: 5138 74bd 7afd 243d 9359 1ebd c433 10bd
000001d0: 79e4 a1bd 6c7d 35ba 4923 cdbc 2e37 5f3d
000001e0: 9b98 0bbc 125e bfbc 2880 c3bd 4181 d03c
000001f0: 7af2 cd3c 9748 e03b 74b3 a53c 6320 3bbd
00000200: 2c17 cc3c 2789 573d 6b4a 5e3c d222 a9bd
00000210: 1e53 b33c e835 363c 43f3 cf3c 040d 86bc
00000220: b0cc 01bd d0a2 86bd 6c76 c8bd cb07 783c
00000230: dce7 f43b 3b2d b63d fe72 cf3d f622 903c
00000240: eea7 123c ae81 883c 135e e63d 2061 e93b
00000250: d461 fe3c 2769 403d 55c3 98bb 54fd bc3c
00000260: 5e4a 03bd 4d5f 6cbd 5f98 b9bd 4646 443d
00000270: a05d 9a3d ef4c 5e3d d916 aa3d afdb 23bd
00000280: b90f 0b3d 580b ccbd 1256 983d 9c7f 4bbc
00000290: 7254 4d3d 20b4 b53c fb20 40bd f082 c8bd
000002a0: ef86 533c 7c0e 913d 55a5 0b3d e7cc 96bd
000002b0: f785 413c a314 c03d a4c1 77bd dec1 bc3c
000002c0: 547c 483c 9e2d b3bb b3bd ed3c 82a6 b63b
000002d0: 18d8 ccbc 8b0d a93c 37fb 443d e914 99bd
000002e0: f230 e1bd 881a 01bd ebab 213d f899 853d
000002f0: 94fb a7bd 81a8 66bd 32c2 313d 8aae 483d
00000300: f2be cfbd e39f d4bd eae2 513d 2948 b23c
00000310: f99b cebd 004e cabd b59a 983d 0ee3 57bd
00000320: 71cc febc ed9c 853d fc65 773d cfc0 173c
00000330: ac7b 8ebd ce79 293d 978a 713d 23f2 98bd
00000340: bffe d9bd 30b0 38bd e4da fcbd f3ee 443c
00000350: 77ef 363d 48da 54bd d8fd 6d3d 8bfe 6dbd
00000360: 95cf c3bc ae11 7f3c 46f2 443d 4a5f ebbd
00000370: 6abc 8f3d 69ed a5bb 1682 08bd 593f ccbc
00000380: 05d3 a03d 7a0f 623d ab51 783d 0219 b43d
00000390: e32f 913c c77a bf3c da30 5e3d 0bf9 0d3c
000003a0: 6398 cabc b979 b43d 8831 933d 5c68 44bd
000003b0: 1e11 b6bb d1b8 273c 1908 123d 834f 5cbd
000003c0: 8a23 923d 0172 6a3d b08d 4bbd 8b93 ab3c
000003d0: e52d 61bd 80f8 8bbd 8082 ed3d a4d6 f1bc
000003e0: 3c9b 7e3c cc73 9d3b a289 a3bd 62c5 2fbd
000003f0: a1b0 b4bc a482 c0bc b904 0fbc 7bca cf3d
-0.09047891 0.048719823 -0.08362348 -0.06271231 0.045242354 -0.07391674 0.098453894 -0.05920365
-0.03930392 -0.039748795 0.08451937 -0.035731606 0.012360251 0.07870246 0.0009660529 0.06270763
-0.052090008 0.02724599 0.03463408 0.023410344 -0.09476372 0.0125061935 0.020068025 0.023222659
0.019420147 -0.058758996 -0.061441086 0.09126659 0.056680523 -0.021143163 -0.052354004 0.0650798
-0.054515563 0.0015927785 -0.110692024 0.0070682513 -0.007932395 -0.020857409 -0.09405391 0.024588827
0.09615085 0.0240531 -0.09416228 -0.07104432 0.08175398 -0.09242824 0.06642417 -0.013698528
0.06880568 -0.12400418 0.09962383 -0.04866953 -0.03336031 0.046150576 -0.03240099 0.07654732
-0.026374977 -0.0060643167 -0.09155775 0.1003048 0.047298305 -0.045430984 -0.05221601 0.10316131
0.082956724 -0.011762035 0.036565196 -0.086918645 -0.04904142 -0.06319882 0.02436717 0.028288772
-0.041154597 -0.09745553 0.025547143 0.022810994 -0.08909384 0.073912136 0.026466714 0.05342462
-0.012895573 0.018303588 -0.07555712 0.0056984536 0.0060027502 -0.014600234 -0.0307119 -0.057350524
0.039512306 0.026214419 -0.046946727 -0.08217564 0.0013021124 -0.047566917 0.07142448 -0.09094095
-0.073437184 0.051420018 -0.018123157 -0.08671566 -0.09112543 -0.11038898 0.008737504 0.0072783628
0.027168836 0.06274342 -0.06601451 -0.08080904 -0.03245122 -0.06676705 -0.10241678 0.113112964
-0.05962402 0.040280797 -0.038659643 -0.035205618 -0.07904906 -0.00069232914 -0.02504124 0.054495983
-0.008520271 -0.023360286 -0.09545928 0.025452258 0.025140036 0.006844591 0.020227171 -0.045685183
0.024913393 0.052621033 0.013567547 -0.082585946 0.02189022 0.011121251 0.02538455 -0.016363628
-0.031689346 -0.06574023 -0.09788212 0.015138577 0.007473929 0.08895346 0.10129355 0.017594796
0.00895117 0.016663399 0.11248412 0.007122174 0.031052507 0.04697528 -0.0046619573 0.023070015
-0.032053344 -0.057708073 -0.090622656 0.04791858 0.07537389 0.05427259 0.08305139 -0.04000443
0.03395054 -0.09963101 0.074382916 -0.012420561 0.05012936 0.022180617 -0.046906453 -0.09790599
0.012910589 0.07082841 0.03409322 -0.07363301 0.011811725 0.09378936 -0.060487404 0.023041662
0.012236673 -0.0054680845 0.02902112 0.0055740485 -0.025005385 0.02063634 0.04809114 -0.074746914
-0.10995664 -0.031519443 0.039470594 0.06523508 -0.082022816 -0.05631304 0.04339809 0.04899458
-0.10143842 -0.103820585 0.051241793 0.021762924 -0.10088343 -0.098781586 0.07451383 -0.05270677
-0.031103345 0.06524072 0.060399994 0.009262278 -0.06957182 0.041375928 0.05897006 -0.07468059
-0.10644292 -0.0450899 -0.123464376 0.012019861 0.044661965 -0.05196598 0.058103412 -0.05810408
-0.023902694 0.01556818 0.048082612 -0.11492784 0.07018359 -0.005063702 -0.033327185 -0.02493255
0.07852749 0.05519054 0.06062476 0.08793832 0.01772303 0.023373974 0.054245807 0.0086653335
-0.024730867 0.08812279 0.07187182 -0.047951087 -0.0055562397 0.010236935 0.035652254 -0.053786766
0.07135685 0.05723763 -0.04969567 0.020944377 -0.05497541 -0.06834507 0.115971565 -0.029521294
0.01553994 0.004805064 -0.07985236 -0.04291285 -0.02205688 -0.023499794 -0.008729153 0.10146042

net.4.module.0.bias f4 [32]
00000000: b7c7 673b a55d 903d 153b adbd 282b 9c3c
00000010: 8b52 113d 3fe6 6c3d 2bf9 2bbd 6767 6cbd
00000020: 876d 80bb 42e9 6fbd 30bc a8bd 8f99 9c3d
00000030: 9828 db3c 7f6f 313d 6567 5b3d 84b0 c6bd
00000040: 60f2 4abd ec65 c8bc 488c 773d 6551 f73b
00000050: 9ca0 6cbd d685 12bb 858b c1bd fb17 523d
00000060: 6129 f73b b2bc 013d f965 8cbc 560f 103d
00000070: c097 7fbd 0d5c 20bd edc5 143d 9901 9d3d
0.0035366842 0.07049111 -0.08458535 0.019063547 0.03547911 0.057836767 -0.041985672 -0.0577158
-0.0039193067 -0.05857206 -0.08239019 0.076464765 0.026752755 0.04331922 0.0535654 -0.097016364
-0.049547553 -0.024462663 0.060436517 0.007547545 -0.057770357 -0.0022357604 -0.09450439 0.0512924
0.0075427745 0.031674094 -0.017138468 0.035170875 -0.06240058 -0.039150286 0.03632157 0.0766632

net.5.weight f4 [3, 32, 3]
00000000: 28a2 173b 170b d7bd c3fa ad3d 3068 abbd
00000010: 90e1 6f3c 8d4b 04bc 0337 81bc d251 ce3b
00000020: c178 8d3d a9c5 febc ee3f 543d 6f25 aebb
00000030: 9fcb 803d 4731 de3d 70a7 d73c 0e00 873d
00000040: 01fc 9ebc 1a7b 973c 109a 85bd 22af cfbd
00000050: 9ebe 06bd 596a 7abc ff29 4bbc 19cb a73c
00000060: a1a0 0cbd 994b 6dbc 311a 9cbd 28bc f03c
00000070: e62b 593c 276b 1a3d 9a13 cabd 65e0 97bd
00000080: eb23 f73d 3a46 a9bd a9b2 b83d 6c5b 43bc
00000090: 057f 863d 82f4 97bd e4a6 6dbd f42b 5f3c
000000a0: 1855 97bd bc33 d93c be7f 4e3d be89 9e3d
000000b0: 5192 fd3b e764 473b a50c b5bc 2422 da3d
000000c0: 2fef 97bd 6438 b93d e315 ca3d c7e2 7a3c
000000d0: eadd 493d 34d3 dabd e859 553a cd64 bb3c
000000e0: b47e 8f3d 2276 163d f2d0 fdbc 122b cdbd
000000f0: b0fa bebc aa30 9b3d 8c75 e73d a332 b63b
00000100: 37d0 6fbd 2420 803d 498c 813d 41ed acbd
00000110: 1b8b 52bd b5af d0bd 403b 9b3d 2677 ddbd
00000120: 2645 b6bd 1a5d a03d 4189 993d 65df d03d
00000130: 7c05 a2bd 417f e43d e4e3 a53d 1700 9c3d
00000140: b763 2c3d 137a de3c 91e4 a33d 5ecb 9e3d
00000150: 887e a0bd f059 3cbc 324e a53d 75f3 bf3c
00000160: 139d a23d 4e31 843d 21ca f3bc 5934 6f3d
00000170: 48c8 e7bd 7c70 073d d15c f63c 6979 5cbd
00000180: f82f a53d 721f 7e3d 356e a4bd c2e9 5e3c
00000190: 1db3 213c 0dcf f3bd 3864 563d 58fc d33c
000001a0: 5195 4b3d b392 cbbc 4fa5 dfbd 7d07 9b3d
000001b0: 56f6 6fbd 1d9c b83d 02dd 303d 4088 3f3c
000001c0: 03a6 a3bc 9d55 c5bd b619 89bd 907c 543d
000001d0: 65e5 e8bd aa41 b8bd 3c5f c0bd e3c0 b93d
000001e0: a662 9c3c efc5 a6bd e4cc 6abd 90ed d93a
000001f0: 468c 1d3c 507e 753d c4ca 703d 0af4 4dbb
00000200: 8ea1 c6bd 252e 01be f178 993d 2171 f83b
00000210: 0056 c2bd e7ac 5cbb 8cc7 21bd f558 ddbd
00000220: 9943 b6bd 7a5c c93c 9319 8abd 8e14 49bd
00000230: 21ee bebd e1f1 413c fc40 71bd c65d aabd
00000240: 84f2 cf3c 7db6 863d 5621 a53d 18b4 cbbc
00000250: 1c53 08bd cf1f cfbd f874 3dbd 233e 8dbc
00000260: 394b 6abd 91df ee3c d785 51bd 0b18 713a
00000270: 7eaa 88bd 0185 8abd 1402 bebd 5ded b93d
00000280: f751 75bc dc61 b03d 0494 84bd fd8e 0abd
00000290: 64b7 1e3d dd73 9a3c 5e3c 02bd 6211 edbc
000002a0: b188 aebd 3690 76bd 94b0 a6bd bb60 0bbd
000002b0: 650c febc 22b0 cbba 9007 143d e76d af3d
000002c0: 910d 91bd 69b4 a3bd 48cb 31bd 33d6 ea3c
000002d0: 9dad 4ebd a3b4 043c 219b 7f3c 1745 55bd
000002e0: 176a 953d 2200 1c3d e46c 713d a797 2abc
000002f0: 9c57 afbd d9dc 323c 171e 5b3d 3a6f 4abc
00000300: 3994 e03c 87de c1bd e3b3 40bd 9496 ee3c
00000310: 2e00 503d aec1 273c 466f 2b3c a3e3 b13d
00000320: 7141 01bd 22af 963d 91d2 4c3d ef9b fd3c
00000330: e66f 513d 18de a73d eea3 893d 832f 57bd
00000340: e9d4 163d 8bcf 673d f23a 5b3d 1625 2cbd
00000350: d1bc 893a 72d2 efbc b575 903d 5957 7dbc
00000360: 6b4a bb3d d645 9bbd 1af0 1d3d 3a05 473d
00000370: 5583 853d bea1 203d be86 83bd b1a5 8a3d
00000380: aaed 0a3d fa4b 1a3d aafa cdbd 0847 99bd
00000390: 7d05 a13d ee18 3b3a aaa0 55bd 80d0 053d
000003a0: 0b4b 113d d070 0abd 3ca4 f83b 3f57 82bd
000003b0: af64 cdbc 4f2c 2dbc 384b c53d fffc 94bd
000003c0: df41 a93d 1ee3 953d 2fe4 4d3d 9f87 a4bd
000003d0: 0d42 8ebb e6a8 b3bc 46fc 263d 1b70 86bd
000003e0: 73cf c23c f699 5a3d 9228 a0bc 4a91 b13d
000003f0: d526 113d 19e5 323d 2262 1c3d 5e71 453d
0.0023137424 -0.10500162 0.084950946 -0.083694816 0.014641181 -0.008074653 -0.015773302 0.006296375
0.069077976 -0.031100111 0.05181878 -0.005314521 0.06288838 0.10849243 0.026324958 0.06591807
-0.019407274 0.018491317 -0.06523526 -0.10140826 -0.03289663 -0.015284144 -0.012400149 0.020482587
-0.034332875 -0.014483356 -0.07622183 0.029386595 0.013255095 0.037699845 -0.0986702 -0.07415847
0.12067398 -0.08265348 0.09018452 -0.011923652 0.06567196 -0.07419683 -0.058020487 0.013621319
-0.07389277 0.026513927 0.050414793 0.07741116 0.0077383895 0.0030425133 -0.022100756 0.10651043
-0.074186675 0.09043959 0.09867456 0.015312857 0.0492839 -0.10684815 0.0008138702 0.022875214
0.070065886 0.036733754 -0.030983422 -0.10017981 -0.023312896 0.07577641 0.11301717 0.0055602356
-0.05854818 0.0625613 0.063255854 -0.0844369 -0.051402193 -0.101897635 0.075796604 -0.108137414
-0.08899908 0.07830258 0.07496882 0.10198859 -0.07911202 0.11157084 0.08100107 0.07617205
0.042087283 0.027157819 0.0800258 0.07753633 -0.07836634 -0.011496052 0.08071555 0.023431519
0.07940116 0.064547166 -0.029759469 0.058399532 -0.113174975 0.033066258 0.030073555 -0.053826723
0.0806579 0.062041707 -0.08028833 0.013605537 0.009869364 -0.11904726 0.05234167 0.025877163
0.049702946 -0.024850225 -0.10920202 0.07569788 -0.058584534 0.09014151 0.04317952 0.011690199
-0.019976621 -0.0963547 -0.06694357 0.051876605 -0.113718785 -0.089968994 -0.093931645 0.09069993
0.019090008 -0.081432216 -0.057324305 0.0016626585 0.009615963 0.059934914 0.058787122 -0.0031425976
-0.09698783 -0.12615259 0.07493771 0.0075818454 -0.094890594 -0.0033672394 -0.039496943 -0.10807983
-0.08899612 0.02458023 -0.06743159 -0.049091868 -0.09322763 0.011837454 -0.058899865 -0.08318667
0.025384195 0.065777756 0.08062999 -0.024866149 -0.033282384 -0.10113489 -0.04625413 -0.017241543
-0.057200644 0.02915934 -0.05115303 0.0009197003 -0.06673144 -0.0676365 -0.0927774 0.090784766
-0.014973155 0.08612415 -0.06473544 -0.03382777 0.038749114 0.018854076 -0.031795852 -0.028938953
-0.085221656 -0.060196124 -0.08139148 -0.034027796 -0.03101177 -0.0015540163 0.036140025 0.08565884
-0.07082666 -0.07993395 -0.043406755 0.028666591 -0.05045854 0.008099708 0.01560095 -0.052067842
0.07295626 0.038086064 0.058941737 -0.010412133 -0.08561632 0.010916912 0.053495493 -0.01235562
0.027414428 -0.09466272 -0.047046553 0.029124536 0.05078142 0.010239048 0.010463541 0.086859964
-0.03155655 0.07357623 0.0500055 0.030958144 0.051132105 0.08196658 0.0672072 -0.052535545
0.03682414 0.056594413 0.05352301 -0.042027555 0.0010508542 -0.029275153 0.07053701 -0.01546272
0.091450535 -0.075816795 0.038559057 0.04858897 0.0651919 0.03921675 -0.064221844 0.067698844
0.03391806 0.037670113 -0.10057576 -0.07484251 0.07862375 0.00071371987 -0.052155174 0.032669544
0.035471957 -0.033798993 0.0075879376 -0.06364297 -0.025072424 -0.010569646 0.096334875 -0.07274818
0.08264517 0.0731871 0.05026644 -0.0803368 -0.00434137 -0.021931123 0.04076793 -0.06564351
0.02378056 0.053369485 -0.019550595 0.0867029 0.035437424 0.043675516 0.038179524 0.04820382

net.5.bias f4 [3]
00000000: 4b0c c93c 3afd 8b3d 2e70 4fbd
0.024541995 0.068354085 -0.050644092

exp_avg f4 [32, 120, 2]
00000000: c533 d636 26d3 cbb8 20a0 51b9 2776 4739
00000010: 5433 6d3a 00d2 0cba 10d8 0db8 9b36 3cb9
00000020: f9cc b635 bd50 b9b9 0e94 9139 c47c 3b3a
00000030: 8c28 6037 f94a f437 7b3c 05ba 30ee 2439
00000040: 4d5f 19b9 256a 6139 416b 9eb6 3f69 55b8
00000050: 72b1 fbb9 79a6 c839 7ffc cb3a 4675 0d39
00000060: 9f33 fab5 4712 6f38 60d1 b23a bf4b 9aba
00000070: 2759 62ba 23fe 45ba 2727 31bb 2586 94ba
00000080: 31ce 3338 980c 4738 af66 3fb8 b61e ef38
00000090: 5e4c 83b7 fc6f 02ba a582 a4ba a761 6f3a
000000a0: 2f22 b4b9 ce12 c1b9 d1f3 f738 5d2c c3b7
000000b0: 78c7 013a 8d95 b238 bbea 12bb 77c2 95ba
000000c0: b2d4 d8b8 7dbc 043a a651 20ba 9697 163a
000000d0: 6dbc 8cb8 c1f6 2e39 18b1 74b8 1eef 9238
000000e0: 843b 7539 9187 13b9 4da1 9639 df95 3cb9
000000f0: a911 88b8 80a6 fd38 bc81 6ab9 0248 27b8
00000100: a139 a2b7 a0f5 9d36 0e34 93b9 fcf3 6e39
00000110: 94a9 cc37 d2ff daba 1a6f 78b7 776b 41b9
00000120: 09da 0b39 417d 9937 a87a 1339 1074 00b7
00000130: 89c7 2a38 756b 53b8 0000 0000 0000 0000
00000140: c6be 05ba 941b 1db9 37ad 1f39 0b86 97b8
00000150: b760 08b9 03bc 5739 2940 e1ba 5240 88bb
00000160: 7972 7839 67d6 afb9 69a0 c638 3320 05b9
00000170: 0328 8cba d312 793a 5f87 8839 7629 9eb9
00000180: 4691 22ba e596 c139 e842 1936 f853 4237
00000190: d1f5 64b7 6a07 22b7 597e f7bb 7d7a 7cba
000001a0: d83c 35b8 3c6e 0ab8 ae21 9239 98b5 e037
000001b0: 34d9 98b9 aa1e d737 f64b 8739 2784 5d37
000001c0: ed5c 3bba ad4f 39ba 8ab2 7cb6 5e9a e7b8
000001d0: 1020 8eb8 ebb5 74b9 9ba2 d638 8af3 7cb9
000001e0: f95f 4eb9 a9c5 48ba 1055 5036 4998 8eb6
000001f0: 3781 83bb 14da 0aba f017 82ba fd45 8938
00000200: 5a00 3839 515d 2239 185b ecb7 e75b b2b7
00000210: 5e91 003a 4724 78ba ffc3 a2ba 89cd 6938
00000220: fced e437 5a1e dbb8 ea9b f138 6b41 68ba
00000230: 39cf 143a 1429 dfb9 7e17 3eba 07fe c438
00000240: 2775 80b9 0ca7 50ba 98c0 4d39 c89d e437
00000250: 0a3b 01b9 2e82 d138 4442 2339 b396 2db9
00000260: bfc1 00ba d9a0 afb7 cb2d af39 bf86 6dba
00000270: a304 a73a d0f0 80bb 7938 3d3a a55f 60ba
00000280: 4044 cf3a fce5 29ba 462c 7eb9 a79c 60b9
00000290: d686 09b9 2fb8 71b9 88f8 11ba 037e a5b9
000002a0: 59bd ddb9 956b 6e37 3bd1 6539 eb6a e0b8
000002b0: 8a2f ff39 3962 9238 1688 9eb9 1f33 1bb7
000002c0: abf9 f2b9 18e7 3139 0374 22ba 2d22 a4b9
000002d0: faab 92b8 8fde 9fb8 e84b 3439 cca7 3439
000002e0: 0d71 e938 7d26 883a 5f8b b239 0235 3b37
000002f0: 0743 e1b8 f7dc 0fb9 3a06 e8b9 384c fd39
00000300: 4d61 8739 af96 0939 1c29 a23a 1042 6eb9
00000310: 86ee 3eba b88d 1738 9933 0439 dc58 8538
00000320: 96be a9b8 b7af e0b7 03df 0bb8 d09b 2739
00000330: 6fd1 57b9 c8fb 6dba 3c09 f238 49d4 21ba
00000340: c412 8e39 d0d2 c739 082a e538 2d25 7538
00000350: 5cc8 d0b9 cc34 0f39 25e9 c9b8 e2a4 dab8
00000360: ddf2 6939 cf9c a139 1ea4 a539 d11a e8b9
00000370: 6e44 61bb d3e9 f8b8 6f5a 6e3a 6a08 a3b9
00000380: 024c 3e3a 298e 19b9 e1cc d2b8 70cc 02b8
00000390: 8f60 70b8 262b 6db9 0543 443b 9eae 80bb
000003a0: 677f 9639 5e22 e4b9 080f 4bb8 dc84 86b9
000003b0: 8c8f 4e39 55ab 8fb7 67f7 0fb8 a768 e337
000003c0: 9f5e 0eb9 dbd4 2137 e40c 44b9 13b0 d2b7
000003d0: f506 57b9 4e4e adba 5872 8939 2c05 5539
000003e0: 62e4 c1b9 4a8e c1b9 d6c9 a0b9 be5b 1dba
000003f0: 0e98 a8b9 ed46 4439 332a d5b9 1303 db38
6.3837238e-06 -9.719124e-05 -0.00019991444 0.00019022134 0.0009048481 -0.00053718686 -3.3818244e-05 -0.00017949419
1.3619712e-06 -0.00035346104 0.00027766865 0.00071520754 1.3360881e-05 2.9121979e-05 -0.00050825597 0.0001572899
-0.0001462672 0.00021497214 -4.721253e-06 -5.0881175e-05 -0.00048006658 0.00038271004 0.0015562921 0.00013490496
-1.8641475e-06 5.6999063e-05 0.0013642721 -0.0011771842 -0.00086345006 -0.0007552823 -0.0027031393 -0.0011331482
4.2868956e-05 4.7457026e-05 -4.563358e-05 0.000114021284 -1.5651978e-05 -0.00049757934 -0.0012551142 0.0009131678
-0.00034357744 -0.0003682584 0.00011823292 -2.326647e-05 0.00049506826 8.5155574e-05 -0.0022417742 -0.0011425753
-0.000103393 0.00050634873 -0.0006115682 0.0005744634 -6.710817e-05 0.00016685856 -5.8339065e-05 7.0063616e-05
0.00023387192 -0.00014069515 0.00028730408 -0.00017984908 -6.488275e-05 0.00012094993 -0.00022364309 -3.9882965e-05
-1.933874e-05 4.707559e-06 -0.0002807681 0.0002278834 2.4397661e-05 -0.001670832 -1.480782e-05 -0.00018445948
0.00013337297 1.8297347e-05 0.00014064705 -7.656417e-06 4.071699e-05 -5.0406397e-05 0.0 0.0
-0.0005101975 -0.0001498296 0.00015227949 -7.2252085e-05 -0.00013006 0.00020574038 -0.0017185259 -0.004158058
0.00023693767 -0.00033538343 9.4712545e-05 -0.00012695864 -0.0010693077 0.0009501401 0.000260408 -0.00030167
-0.0006201457 0.00036924254 2.2837721e-06 1.1582852e-05 -1.3647093e-05 -9.657679e-06 -0.0075529036 -0.0009631289
-4.3210428e-05 -3.3004428e-05 0.00027872383 2.6787442e-05 -0.00029153528 2.5644276e-05 0.00025805802 1.3203396e-05
-0.0007147331 -0.00070690626 -3.765485e-06 -0.000110436915 -6.77706e-05 -0.00023337423 0.00010234603 -0.00024123318
-0.00019681444 -0.0007658848 3.1043928e-06 -4.249658e-06 -0.0040132063 -0.00052967784 -0.0009925347 6.5457054e-05
0.00017547738 0.00015484287 -2.8175811e-05 -2.1262049e-05 0.0004904474 -0.0009465855 -0.001241803 5.574295e-05
2.7290538e-05 -0.00010448387 0.00011520817 -0.00088598457 0.00056766305 -0.0004256448 -0.00072514254 9.3933246e-05
-0.00024501348 -0.0007959462 0.0001962207 2.725319e-05 -0.00012324392 9.9901445e-05 0.00015569577 -0.00016554706
-0.0004911683 -2.0936526e-05 0.0003341272 -0.0009060911 0.0012742471 -0.003934957 0.0007218193 -0.0008559174
0.0015813187 -0.0006481109 -0.00024239821 -0.00021420662 -0.00013115568 -0.00023052165 -0.0005568345 -0.00031565138
-0.0004229348 1.4210954e-05 0.00021917086 -0.000107010674 0.0004867281 6.980118e-05 -0.000302375 -9.2506225e-06
-0.00046343854 0.00016966125 -0.00061970967 -0.0003130598 -6.993856e-05 -7.6231656e-05 0.00017194415 0.00017228647
0.00011131363 0.0010387447 0.00034054645 1.115841e-05 -0.00010741321 -0.00013719859 -0.00044255127 0.00048312708
0.000258217 0.00013121472 0.0012371871 -0.00022722059 -0.00072834676 3.613319e-05 0.00012607723 6.3584856e-05
-8.0940474e-05 -2.6784704e-05 -3.334788e-05 0.00015984406 -0.00020582018 -0.0009078351 0.00011541179 -0.00061732956
0.00027098332 0.00038113305 0.000109274 5.8447175e-05 -0.0003982213 0.00013657211 -9.6278534e-05 -0.00010425762
0.00022311085 0.00030825144 0.0003159353 -0.00044270468 -0.0034373063 -0.00011869115 0.0009092455 -0.00031096052
0.0007259251 -0.00014644176 -0.00010051742 -3.1184813e-05 -5.7310386e-05 -0.00022618155 0.0029947173 -0.003927066
0.00028705152 -0.00043513154 -4.841297e-05 -0.0002565746 0.00019699166 -1.7126711e-05 -3.432427e-05 2.7109241e-05
-0.00013577424 9.645907e-06 -0.00018696819 -2.5115942e-05 -0.0002050659 -0.0013222189 0.0002621587 0.0002031519
-0.00036981987 -0.00036917842 -0.00030667958 -0.00060027454 -0.00032156747 0.00018718439 -0.00040657967 0.000104433064

exp_avg_sq f4 [32, 120, 2]
00000000: 1470 8334 4b66 8234 49a8 b234 8608 0535
00000010: 1ba2 6737 f77b 1b37 73cb 5e36 f107 5b36
00000020: 8fa0 5836 3dcd 3636 2a4b d837 74bc ab37
00000030: 1426 9235 ff4a 7635 257f fa36 eb0f 2337
00000040: df72 9835 e147 f135 7a71 9b33 b5b6 6033
00000050: f69d f036 2b3d 2037 8459 2637 7078 fe36
00000060: 21ed 5334 19cc fb33 a0fa 8137 74d2 af37
00000070: e042 6d37 42d3 7037 cd9b d938 2d72 3238
00000080: 8e97 d635 4920 c235 6d11 5334 f7b7 4934
00000090: 0774 9337 f773 a337 755a 1737 7d0b 3137
000000a0: f2aa 1b37 89af 4237 30b4 6235 743c 6d35
000000b0: 000e dc36 d845 0937 a18b a937 6b4a c737
000000c0: fe18 0437 7310 0437 ea8c 5337 8675 7337
000000d0: 89c5 0736 682d 1336 3bfe 8833 d9d0 f533
000000e0: 370a 2434 ae52 4d34 6397 e235 cb9d a735
000000f0: ebf6 1735 c52a f134 f165 0336 988e 0d36
00000100: 0ac6 3434 3bc3 a134 7a0b 7135 07fc 4c35
00000110: bed4 ed36 1d60 0937 8f37 0335 d287 0735
00000120: ef61 5735 7fc1 8e35 011c bf34 d7b1 eb34
00000130: 6386 3334 5e8b 4034 0000 0000 0000 0000
00000140: 8aa4 3e37 ef19 7937 8f99 c735 cff7 f735
00000150: 5e75 1835 8ce4 3235 d3ee d437 26b1 1239
00000160: 1365 9f35 0148 9035 2cf8 9035 83cf e235
00000170: 0062 9a36 fdb7 bc36 521e e135 a040 f635
00000180: 0f2e 0038 3845 7736 b001 8c34 20bf cb34
00000190: de71 4b34 bbd0 8834 bb2e fe39 1ee1 e138
000001a0: d9dc 5f37 93ed 7d37 5230 8e36 a022 3a36
000001b0: 2aeb 6b36 d973 6636 3946 b635 f438 9535
000001c0: a45c d136 9139 be36 1423 e033 1d2d ac33
000001d0: a526 f734 0c95 0135 bc54 e736 b9a7 0337
000001e0: bd75 f436 fb0a e836 4315 4632 8ae3 9632
000001f0: 00a5 e238 a3d9 0938 9755 8936 4883 a236
00000200: 1415 9f35 02ba a535 c77f 6233 5906 cf32
00000210: da93 fa36 2b38 0437 3946 f037 728d bf37
00000220: d23f 0334 7e17 6e34 2277 8b36 9869 5a36
00000230: 7fd2 8e36 b212 6f36 62a9 0638 a977 a036
00000240: 2c1d a336 9ab8 9d36 278f 2335 7651 0d35
00000250: 720b 8635 52ea 3135 b70b 3f34 474e 3834
00000260: dfaf ed35 35f7 2c36 6a0f 1737 f097 e236
00000270: c9e9 ec38 c63c d638 3e6d d936 da6f 1337
00000280: 28dd b237 b9b7 bc37 3884 7835 5751 2035
00000290: e5b7 5a35 993f a735 722b 1237 bcef 2f37
000002a0: 99e1 3d36 935b 1736 635f c335 b925 b735
000002b0: 35fa 8536 0d2b 6e36 f09a 8536 a387 b336
000002c0: b274 ff37 9824 8936 206f 3f36 ff7e 3d36
000002d0: 292b 2d34 d1b5 5334 d609 9835 b339 9335
000002e0: 1fb7 4137 e32f e536 1b63 5336 3319 3236
000002f0: 2919 d534 69af 6235 dc62 da36 3921 e436
00000300: e8db 1436 6f23 b935 55ab c537 b946 7534
00000310: 038e 3036 c485 0336 3e94 2c35 c87e 3d35
00000320: 8c06 c435 f656 b335 b494 9234 7e6d 8d34
00000330: 1fab a935 10c0 a335 5dda 5b36 7697 9836
00000340: 14f6 0737 1f9d 0c37 fd2b ed34 5892 0335
00000350: 84bf 0236 d5b8 0936 84dd 3135 07d1 6635
00000360: 349d ca35 6adf be35 0a5d df36 5489 e636
00000370: 2d31 d238 9399 1538 5065 b637 2dd2 b237
00000380: 8a4b 2236 c948 2736 92cf 8834 fb28 7c34
00000390: 337d 6435 e0d6 7435 4fac b938 7709 db38
000003a0: 5029 3a35 1ca3 8035 8704 3c36 c5d1 1a36
000003b0: 35bf 9835 91c2 9635 5335 cf35 3547 7b35
000003c0: 2538 1c34 425a 1734 ed17 7c34 80b3 8334
000003d0: 534f 8737 123f 7937 9efe 5d36 2ea1 3d36
000003e0: 8126 4136 5e3e 1536 198f b537 c20f cf37
000003f0: 2f92 3735 e2d2 3535 886a 0637 811b 1137
2.44822e-07 2.4288815e-07 3.3277527e-07 4.9558764e-07 1.3806416e-05 9.267583e-06 3.3199e-06 3.2638166e-06
3.2279966e-06 2.7239578e-06 2.5784208e-05 2.0472544e-05 1.088893e-06 9.1751275e-07 7.465382e-06 9.719263e-06
1.1358314e-06 1.7976819e-06 7.238391e-08 5.2320235e-08 7.1709464e-06 9.550985e-06 9.915213e-06 7.5838107e-06
1.9737173e-07 1.17252235e-07 1.5494705e-05 2.0959626e-05 1.4141871e-05 1.4354302e-05 0.000103763865 4.254484e-05
1.5988351e-06 1.4463523e-06 1.9657246e-07 1.878651e-07 1.7577795e-05 1.9485115e-05 9.0213625e-06 1.0552697e-05
9.278521e-06 1.1604171e-05 8.445377e-07 8.837735e-07 6.5581407e-06 8.182098e-06 2.021139e-05 2.3757302e-05
7.873632e-06 7.871643e-06 1.2609389e-05 1.4511292e-05 2.0231548e-06 2.1931137e-06 6.379238e-08 1.1446691e-07
1.5277406e-07 1.9122191e-07 1.6882371e-06 1.2488393e-06 5.6611196e-07 4.4920867e-07 1.957986e-06 2.1093638e-06
1.6835853e-07 3.0130636e-07 8.9796197e-07 7.636267e-07 7.087917e-06 8.188214e-06 4.888215e-07 5.0489064e-07
8.0236254e-07 1.0636139e-06 3.5596898e-07 4.3901557e-07 1.6719564e-07 1.7932095e-07 0.0 0.0
1.1363192e-05 1.4847595e-05 1.4871347e-06 1.8475056e-06 5.6795204e-07 6.6642747e-07 2.538358e-05 0.00013989638
1.187584e-06 1.0749792e-06 1.0801064e-06 1.6898706e-06 4.6009663e-06 5.6242557e-06 1.6772631e-06 1.8347237e-06
3.0560474e-05 3.6846159e-06 2.607826e-07 3.7950758e-07 1.8947273e-07 2.5483845e-07 0.00048481472 0.000107707674
1.3343256e-05 1.513529e-05 4.237555e-06 2.7736314e-06 3.5154612e-06 3.4340103e-06 1.3580494e-06 1.1117941e-06
6.23947e-06 5.669143e-06 1.04371935e-07 8.01758e-08 4.6035453e-07 4.8273137e-07 6.894201e-06 7.847259e-06
7.285473e-06 6.915417e-06 1.1529951e-08 1.7565771e-08 0.000108072534 3.2866035e-05 4.092882e-06 4.8432594e-06
1.1852558e-06 1.2347593e-06 5.273594e-08 2.4100858e-08 7.467793e-06 7.880891e-06 2.864293e-05 2.283484e-05
1.2223543e-07 2.2174024e-07 4.1563917e-06 3.2545995e-06 4.2564347e-06 3.5624657e-06 3.210584e-05 4.782302e-06
4.8611746e-06 4.700455e-06 6.0930546e-07 5.2645134e-07 9.987109e-07 6.627862e-07 1.7792523e-07 1.7164813e-07
1.7709061e-06 2.577389e-06 9.00389e-06 6.7530127e-06 0.00011296903 0.00010215635 6.4798214e-06 8.787925e-06
2.1322237e-05 2.2496899e-05 9.2579603e-07 5.972301e-07 8.147893e-07 1.2460979e-06 8.7123935e-06 1.048663e-05
2.829451e-06 2.2554057e-06 1.4556393e-06 1.3645541e-06 3.992837e-06 3.5489822e-06 3.981746e-06 5.350406e-06
3.045271e-05 4.0871782e-06 2.8525901e-06 2.8237116e-06 1.6127582e-07 1.9717051e-07 1.1327745e-06 1.0969146e-06
1.1546333e-05 6.8303066e-06 3.1499137e-06 2.6538735e-06 3.9692648e-07 8.4446816e-07 6.508415e-06 6.798797e-06
2.218172e-06 1.3793887e-06 2.3564013e-05 2.2843132e-07 2.6308705e-06 1.9598383e-06 6.4290714e-07 7.059248e-07
1.4605043e-06 1.3361848e-06 2.7302815e-07 2.6342963e-07 1.2641284e-06 1.2200344e-06 3.2760647e-06 4.5475854e-06
8.103922e-06 8.381233e-06 4.4176696e-07 4.901426e-07 1.9482986e-06 2.0522177e-06 6.6259986e-07 8.598585e-07
1.5095925e-06 1.4221125e-06 6.656749e-06 6.8705212e-06 0.0001002274 3.5667395e-05 2.1743268e-05 2.1317124e-05
2.418385e-06 2.4927306e-06 2.5483e-07 2.3484237e-07 8.511881e-07 9.120977e-07 8.8535824e-05 0.00010444497
6.9350517e-07 9.584214e-07 2.8016818e-06 2.306989e-06 1.1380531e-06 1.1232497e-06 1.5438221e-06 9.3608406e-07
1.4549057e-07 1.4095806e-07 2.3478033e-07 2.4531255e-07 1.6130192e-05 1.4856241e-05 3.3079773e-06 2.8257014e-06
2.8781653e-06 2.2239033e-06 2.1643516e-05 2.468366e-05 6.838554e-07 6.773463e-07 8.011826e-06 8.649077e-06

exp_avg f4 [32]
00000000: 3180 f3ba 9f8c beb9 ddc7 9c3a 1b67 a63b
00000010: 9b70 423b ab5a 5c3a 7ed4 bfba f93d 773a
00000020: d5e0 abb7 9a3f a638 ffeb 36b8 8fca 00ba
00000030: df5b 133b d53c c0ba 16ab d3ba 282f 06b9
00000040: 1f8a 8d3b 1c8d 98ba eda1 423a a236 87ba
00000050: 6198 923a 9bd0 6a3a c146 e83a d2b3 1bbb
00000060: cdda 4a3a 1ae7 38bb 4fb3 303a 9ea4 3dba
00000070: 4ee4 01bb 3767 a73a 5611 09bb 5e5f 01bb
-0.0018577633 -0.00036344395 0.0011961419 0.005078209 0.002966917 0.00084058446 -0.0014635471 0.0009431537
-2.0489484e-05 7.9273435e-05 -4.361197e-05 -0.0004912996 0.002248518 -0.0014666567 -0.001614901 -0.00012796803
0.004319444 -0.0011638734 0.00074246415 -0.0010315964 0.0011184328 0.0008957476 0.0017721282 -0.0023758304
0.00077382923 -0.002821392 0.0006740586 -0.00072343077 -0.0019819918 0.0012771849 -0.0020914874 -0.001974068

exp_avg_sq f4 [32]
00000000: ce28 1538 7b79 ef38 5c5b 1038 1cfc 8439
00000010: f1e7 5b39 70ee e238 f62f cb39 e340 b538
00000020: 7d7a 9c39 c81a c638 300f 0338 580a 4d38
00000030: 96ea 6f38 1efa 5939 d833 1439 a433 a039
00000040: 05eb ed39 938c e538 3bd5 f138 4e5e f538
00000050: 78c5 0039 5d01 3e38 6339 bc38 6c56 aa38
00000060: acfe 6639 3507 f938 7b2b 2539 6f47 1939
00000070: 7c80 5238 1c9f 3639 c9df 8038 ea03 9638
3.556237e-05 0.000114190356 3.441736e-05 0.00025364838 0.00020971872 0.00010820932 0.0003875491 8.642839e-05
0.000298459 9.446364e-05 3.124698e-05 4.8885442e-05 5.7200516e-05 0.00020787909 0.00014133693 0.00030556053
0.00045379266 0.00010945755 0.00011531493 0.00011700076 0.00012280594 4.53008e-05 8.975228e-05 8.122329e-05
0.00022029382 0.00011874588 0.00015751824 0.00014617828 5.0187562e-05 0.00017416145 6.145199e-05 7.1532864e-05
