data/Figure3_Supplement/031/checkpoint_0000500.pth (torch, 225794 bytes, 31 tensors)

net.0.weight f4 [32, 120, 2]
00000000: 5872 fab9 194b 05bc cfe3 8b3d 264d f93c
00000010: 23be e43b 2624 9ebc 68dd eabc 88b5 233d
00000020: dd78 f23c 970f 5fbd 4eb3 afbd 22b8 033d
00000030: 454b d53c fe97 ac3d 1b3d 553b b71e 543c
00000040: 8e03 30bd 69c2 30bd 9a76 bbbb 4738 a23c
00000050: 8a2e 96bc 2d59 80bd 7ae7 9abd 5d92 a4bc
00000060: 7202 4c3c fae0 dbbb e3ae 8ebc 4302 7ebd
00000070: 79f7 a93c 945d 0d3c 7a99 733c d683 433d
00000080: 762b c5bc 4b6f 76bd 4172 e7bc 0b48 d73c
00000090: bf40 c93c c590 b2bc d259 bdbc f75f f13b
000000a0: b6f7 8fbd 0079 97bc 5b07 c83b f71e ee3c
000000b0: 09a8 873b ece0 cbbc 8436 f13a 954d 0f3d
000000c0: 71ca 53bd d252 2abc 87a5 a83c 4a20 563d
000000d0: eee8 eb3c 8fcf 563d 2724 943d 6835 893d
000000e0: a48a 6e3d d0db e63c 3041 3c3b f785 3bbd
000000f0: 7905 13bd 513c 69bd 8163 903d 4a35 d43c
00000100: b673 873c 6e3f 8f3c c594 63bd 6711 b13b
00000110: 68d2 5d3d 2f4a b93c 9e71 9b39 85b8 8b3d
00000120: 6d5c 453d 788b 26bc 4544 273d aa36 4c3d
00000130: e341 db3b b288 153d 31eb ecbc e64c 0fba
00000140: 0c2d 65bd 26ac 40bd 468a 4c3c 5d40 82bd
00000150: ed02 993c 1aff 4f3c faa2 35bd c916 79bb
00000160: d279 aaba aa77 613d bf90 023d f0a7 a73d
00000170: 04e8 16bc 7ad0 5d3c f942 9c3d b08d 15bd
00000180: e70e e5bc 3415 41bd 1d87 6ebc 27fb 8c3c
00000190: 0a53 07bc 3d5f e73c cfcb 753d 7f6b e3bc
000001a0: 404d 65bc 4dad b33c f715 8dbc 4c94 293d
000001b0: 01ab 2b3d 6180 82bc 73ff bd3c 1b08 27bd
000001c0: 0df2 523d 54d4 a93a ddc5 70bd 52d6 163b
000001d0: b8f4 173c 4331 153c d6df abb8 4c16 fbbb
000001e0: 0cf2 233a f759 4b3c 87f4 543d 565a 5abc
000001f0: d440 4abd f9dd 853c ea4c 0c3d 2994 b73c
00000200: 5b9c 753d 4a39 2fbd 1717 a5bd 9371 21bc
00000210: ea65 a23c 360f f8bb aa23 17bd e8c7 553d
00000220: 23d5 3dbc 0bfd 4ebb 1a14 f63c 9351 6abb
00000230: 60de 633d c791 51bb ce20 533d b8f4 173d
00000240: 95dc 0bbd 8316 8fbc daf5 3b3c b628 ab3c
00000250: 7d9c 4fbc 0212 123d 9f5a 8d3c 3cda 973c
00000260: 5791 923d ab4a aa3d 0c0d a6bd e5e7 3a3d
00000270: 6b7b 94bd 94f7 73b9 3160 893c 04f6 cebd
00000280: 224f 733d e91a d2bc 2abd ddb9 0626 813d
00000290: 58ab 3ebc 39e4 52bd 372a cd3d 075f 023c
000002a0: d155 d3bc b342 e2bc eb03 093d 964f 833d
000002b0: 16b5 8e3d cae9 4a3d 24ce 1c3d 1121 843c
000002c0: 3e31 f03c 80a5 c439 7731 3fbd 78db d2bb
000002d0: 8aa2 cd3c 62b3 35bd 04b9 b53c b345 213d
000002e0: 43ff d53c 25b2 7b3d b7a3 2fbd ac66 27bd
000002f0: 366c b53c 628a ce3c a704 13bd d792 453c
00000300: 16c7 84bd f27f dbbc 968d 423d 32dc d6bc
00000310: f5ee b1bc cf4a 46bd 27d6 f1bc cf98 28bd
00000320: eb42 5d3c a461 aebc 4cd4 613c f234 993c
00000330: 8fde a53d b93f 10bc ba76 34bc c8e3 683d
00000340: 6a69 cbbc 338b 143d f296 ce3c 3e03 7abd
00000350: cd7a bdbc a0ca 613d d596 4cbd 9f6e 8dbc
00000360: bd05 9238 7dd4 073d b924 cfbc f147 55bc
00000370: d14b 2bbc 3021 7abd 4200 84bc b049 823d
00000380: da86 273c 99eb 413d 6396 9cbc 3cbe 34bd
00000390: 4abf a4bd 106a 01bc 2f18 20bd 9643 fc3c
000003a0: 8e87 cebb e8d0 903d 58e3 623d 3ff2 8dbd
000003b0: 4181 02bd e3bc 673c a25a f33c 50c8 9bbc
000003c0: e1b3 023d d7f9 dd3c 49fd 60bc cd23 423d
000003d0: 3d9d 4ebc 3399 0c3d b1c4 9dbc ac78 c2bc
000003e0: 1e18 b9bc 9f73 64bd 9a08 15bc a6d6 c73c
000003f0: aa77 b33d a3b6 d03d 23a6 3f3d 7f5d 45bd
-0.0004776891 -0.00813558 0.068305604 0.030432295 0.006980674 -0.019304346 -0.028670028 0.039968044
0.029598648 -0.054458227 -0.085791215 0.032158025 0.026036868 0.08427428 0.0032537642 0.012946776
-0.04297214 -0.043154154 -0.0057209255 0.019802226 -0.018332738 -0.06267009 -0.07563682 -0.020089323
0.012451755 -0.006710169 -0.017417377 -0.062013876 0.020747887 0.008628268 0.014868135 0.04773315
-0.024068575 -0.06016473 -0.028252723 0.02627947 0.024567006 -0.021797547 -0.023114119 0.007366176
-0.07029669 -0.018490314 0.0061043925 0.0290675 0.0041399044 -0.024887525 0.0018403088 0.034986097
-0.051706735 -0.010395722 0.020586742 0.052276887 0.028797593 0.052444037 0.07233458 0.066996396
0.058237687 0.028180987 0.0028725378 -0.045782056 -0.03589389 -0.056942288 0.07050229 0.025904316
0.016534667 0.0174863 -0.0555618 0.005403686 0.054155737 0.022618381 0.00029648555 0.06822304
0.048183847 -0.010165088 0.04083659 0.04985682 0.006691204 0.036507316 -0.028920742 -0.0005466476
-0.055951163 -0.047039174 0.012484139 -0.063599326 0.018678153 0.012695098 -0.04434488 -0.0038007966
-0.0013006276 0.05504576 0.031876322 0.081863284 -0.00921059 0.013538474 0.076299615 -0.036512077
-0.027961208 -0.04713936 -0.014558581 0.017209603 -0.008259544 0.028243655 0.06000882 -0.02776122
-0.013995469 0.021933222 -0.017222388 0.041401193 0.04191113 -0.015930356 0.023193097 -0.040779214
0.05150037 0.0012956955 -0.058782447 0.0023015928 0.009274654 0.009105983 -8.195608e-05 -0.00766257
0.00062540243 0.012411586 0.051991012 -0.013327202 -0.04937823 0.016341196 0.03425304 0.022409515
0.059963565 -0.042779244 -0.08061045 -0.009853738 0.019823987 -0.0075701727 -0.036899246 0.0521926
-0.01158646 -0.003158393 0.030038882 -0.0035754188 0.055631995 -0.003197776 0.051544957 0.037098616
-0.03414591 -0.01746679 0.01147219 0.020893436 -0.012671587 0.035661705 0.017255126 0.01853668
0.071566276 0.08315023 -0.08107957 0.045631308 -0.072501026 -0.00023266516 0.0167695 -0.101055175
0.05940164 -0.025647597 -0.00042293343 0.063060805 -0.011637531 -0.05148718 0.100178175 0.007957227
-0.025797756 -0.027619695 0.033451002 0.06411664 0.06968133 0.049539365 0.03828253 0.016129049
0.029320356 0.0003750734 -0.046678033 -0.006434854 0.025101919 -0.044360526 0.022182949 0.03937311
0.026122695 0.06144919 -0.04288074 -0.0408694 0.022146326 0.02521247 -0.03589311 0.012058935
-0.06483285 -0.026794408 0.047498308 -0.026228044 -0.021720389 -0.048411187 -0.029521061 -0.041161355
0.013504724 -0.021286793 0.013783526 0.018702004 0.0809909 -0.008804255 -0.011014635 0.056857854
-0.024830539 0.036265563 0.02521846 -0.06103825 -0.023129845 0.05512488 -0.049948532 -0.017264662
6.962891e-05 0.03316163 -0.025286065 -0.01301764 -0.010455088 -0.061066806 -0.016113404 0.06361711
0.010225022 0.047343824 -0.019114679 -0.044126734 -0.08044298 -0.007898822 -0.039085563 0.030793946
-0.0063027805 0.07071096 0.055392593 -0.069309704 -0.031861547 0.014144155 0.029706303 -0.019016415
0.031909827 0.027096672 -0.013732263 0.047397424 -0.012610731 0.03432579 -0.019258829 -0.023739181
-0.022594508 -0.055774327 -0.009096289 0.024394345 0.087630585 0.10191085 0.0467893 -0.048184868

net.0.bias f4 [32]
00000000: 6c66 eb3c d99e 2f3d 7e51 3e3d 1fe8 fc3c
00000010: bd0a 4b3d fe62 4a3d 67b6 473d 2044 54bd
00000020: 51ff 4b3d d265 233d 5a61 22bd f9ba c4bc
00000030: d472 9b3c 66ee 5bbc 3c20 833c 4fad 683d
00000040: d727 0b3d fa70 29bd 5236 423c ccb2 18bb
00000050: a4c8 a63c 7318 433d e09c 28bb ba3f 21bd
00000060: 894d 43bb 871f 2e3d 410a 233d b4c8 1d3d
00000070: 6a45 f0bb 016f 6bbd 4285 ce3c a079 83bc
0.028735362 0.0428761 0.046464436 0.030872403 0.049570788 0.049410813 0.048757937 -0.05182278
0.049804036 0.039892025 -0.039643623 -0.024014937 0.018975653 -0.013423538 0.016006581 0.056805905
0.03397354 -0.04136751 0.011853771 -0.002329993 0.020359345 0.04763074 -0.002572827 -0.039367415
-0.0029800853 0.042510536 0.0398047 0.038521484 -0.0073324936 -0.05747891 0.025210027 -0.016049206

net.2.module.0.weight f4 [32, 32, 3]
00000000: 8171 aa3d 3a40 ab3d 714c 75bc e255 df3c
00000010: 6ab6 bc3b 9c11 6abc 8d08 8ebd 2654 403d
00000020: e8d8 0c3d 69f7 f03d 7d0a 97bd 2e43 94bd
00000030: ca45 ebbc feaa e73c 9f78 6a3d ef9a 9bbd
00000040: 78c2 193c a888 ddbc 57d4 c33d 670c d73d
00000050: 7e13 53bd 2dbe ec3c baac 333d f0df 38bd
00000060: 2740 963d 0440 a0bd eed1 d5bc 5941 4cbd
00000070: 90c1 753c c446 72bd 19c3 a2bd 3681 c5bc
00000080: e1de 63bc b465 003e 33ad dd3d 01d6 08bb
00000090: 124b 29bd 164b 6f3d df33 843d bebe 753d
000000a0: b69a bd3d 691b 8d3d a069 213d 0251 a1bb
000000b0: afb7 18bd eef5 afbd 80fb cfbd 6aec aa3d
000000c0: 3d54 253d b839 f4bd 7349 663d 3445 bf3d
000000d0: b166 5c3c 3975 a5bd de06 733d ae34 5f3c
000000e0: 6b10 b4bb c7ed 553a 9557 3b3d 4e73 e03d
000000f0: 2755 f2bc 5c7e f5bd 84bd 113d 1579 dc3c
00000100: c2b7 d7bc 8897 95bc 640f 6bbd 496d a63c
00000110: 33a7 b53d 0a4c 45bd 3cf7 e0bd 237b 6f3d
00000120: 8893 66bd 1663 273c 38a8 8ebd b40b dbbc
00000130: 0d5c 89bc 667c bebc 9441 993d b640 30bc
00000140: 847f adbd 40ae cf3d 73a6 983c 6b9e 2abd
00000150: a2d4 103d 088f ed3c 6a47 9cbd 4fc0 993c
00000160: 5c3f f83b e46f debc 3dfe 12be 1fc5 863d
00000170: 5375 f0bc acbe fd3d e63c ad3d ff13 233d
00000180: 3c0c f43d 97cf 783d 37c5 73bd 1b9a db3d
00000190: ab80 dd3c 5383 b53d 26b0 ab3d 96e4 c43d
000001a0: 3359 903d 7e80 a03d 7553 9cbc 0a74 b43c
000001b0: 6e5f fc3d 20ed 9a3d aa09 993d c72c 6f3d
000001c0: 1a4a 493d 5dcd 4d3d add0 af3d 1ced 65bb
000001d0: 9120 a03d 31d5 d43d b551 db3b 6b97 953d
000001e0: b6e7 86bd b898 a3bd f5ae b9bc 9290 8dbc
000001f0: f4ac d0bc bfa6 ddbd ba3c 86ba 6724 9dbd
00000200: 27c5 f53d 7959 b03c 046d c1bd e077 75bd
00000210: 451d a33a 8771 88bc 53d5 8b3d 681e 07bd
00000220: 38dc 9f3d 276d 10bd e43d 3e3d cce1 9ebc
00000230: c41e 5cbd 1014 aebd c126 dabd feb4 0a3d
00000240: c5e1 a53c eac0 42bd a5ab bb3d 1635 f83d
00000250: f4db 293c 2b06 393c b592 d1bd b1dc 8dbc
00000260: c10a b1bc c594 de3c e55e 98bd 7398 8fbd
00000270: 3b4d 34bd ec33 803d 0220 243c a45e fabd
00000280: b26c 10bd f31b bc3d 406d bcbc 2f7d 7dbd
00000290: 378f adbd 7740 a8bd d5a9 893c 0661 933d
000002a0: a0f4 e9bc 0640 f83d 5f11 2ebd e05a d4bd
000002b0: 19a0 a1bd 69d9 acbd 9d52 f1bd 1db1 0bbd
000002c0: 8412 4b3d 6cd0 513d 6fe0 d03c 77e0 f13d
000002d0: ae44 c03d da8d 42bd 57d8 0cbd a55d 923d
000002e0: 78bf 953d 6ef5 133d 7019 883d f912 b3bd
000002f0: fb49 1d3d c67e 9b3d 1c67 73bd 6a5e 0a3e
00000300: 3731 ecbc 857a 613d 855f d5bd e3f8 133d
00000310: 5005 7e3d 6554 d6bd 805c fd3d 4ff9 6e3d
00000320: 4905 0a3d ae5c 703d 4768 65bb 468d febc
00000330: 22b6 2f3d 87a9 993b 7def 22bd 48cf 283d
00000340: 3ea7 983d 83bf 363d 4443 803d 7198 c7bd
00000350: 531b 60bc fe0c 0b3d 8433 c73b 5a60 5abd
00000360: 9658 03bd 046e 94bd 1fe7 443d 90e2 e43c
00000370: 3d58 27bc 18b0 be3d 18fe 82bc 06d3 8ebc
00000380: d0f6 923c 4ca9 923a c17b 00bd d69d 7c3d
00000390: 64a9 4e3d 7a5b 49bd cf7b a1bd 3063 0e3c
000003a0: e089 a2bd 9630 ef3b 5715 153c 2a6c 07bb
000003b0: 3fc9 ecbd 516a 45bd d9a4 4cbd 3d8d da3d
000003c0: d6c5 aa3d b4a7 51bd 8913 babb fbe2 553d
000003d0: 4583 333d 3843 153d f028 96bd 8f38 ddbc
000003e0: bf9b 33bd 2957 803d 1be0 8cbd 3542 9c3d
000003f0: e800 bdbd 16ce 5dbd aa45 433a 8df8 cebd
0.083224304 0.083618596 -0.014971838 0.027262632 0.00575905 -0.014286425 -0.06935225 0.04695525
0.034386545 0.1176594 -0.07375047 -0.07239376 -0.028719801 0.028279778 0.05724394 -0.075979106
0.009384744 -0.027042702 0.09561985 0.105004124 -0.05153226 0.028899277 0.043865897 -0.04513544
0.07336455 -0.0782471 -0.026101079 -0.049867008 0.014999762 -0.05914952 -0.07947368 -0.024109464
-0.013908119 0.12538797 0.10824051 -0.002087951 -0.04133136 0.058421217 0.06455206 0.05999636
0.092580244 0.06889994 0.039407372 -0.004922987 -0.03728455 -0.08591829 -0.10155392 0.08345874
0.04036354 -0.119250715 0.05622239 0.09339371 0.013452218 -0.08078999 0.05933272 0.0136234
-0.0054951212 0.0008160737 0.04573782 0.109594926 -0.02958162 -0.11986992 0.035581127 0.026913205
-0.02633274 -0.018260732 -0.057387725 0.020315783 0.08869781 -0.04816822 -0.10984656 0.05846704
-0.05629304 0.010216495 -0.06965679 -0.026738979 -0.016767526 -0.023252677 0.07483211 -0.010757616
-0.08471587 0.101406574 0.018634057 -0.041654985 0.035359032 0.028998867 -0.07630809 0.018768458
0.0075759124 -0.027152963 -0.14354797 0.065805666 -0.02935282 0.123898834 0.08458881 0.03981399
0.11916396 0.060744848 -0.05951425 0.10722753 0.027038893 0.08862939 0.08383207 0.09613912
0.070482634 0.07837008 -0.019082764 0.022027988 0.12322889 0.07564759 0.074725464 0.058392312
0.049142934 0.050244678 0.085847236 -0.0035083955 0.078187115 0.103922255 0.00669309 0.07304271
-0.06587164 -0.07988113 -0.022666434 -0.01728085 -0.025473095 -0.1082282 -0.0010241487 -0.07672959
0.120004945 0.021527039 -0.09444621 -0.059928775 0.0012444636 -0.016655697 0.06827798 -0.032987982
0.07805675 -0.035260346 0.046445742 -0.019394778 -0.053740278 -0.0849992 -0.10651923 0.033864014
0.020249257 -0.04754726 0.09163598 0.121195 0.010367382 0.011292974 -0.1023306 -0.017317148
-0.021611573 0.027170548 -0.07439975 -0.07011499 -0.044018965 0.06259903 0.010017397 -0.122250825
-0.03525991 0.091850184 -0.023001313 -0.061886963 -0.08474582 -0.08215421 0.016804615 0.0719624
-0.02855903 0.121215865 -0.042497035 -0.103688955 -0.07891864 -0.08439905 -0.11783335 -0.034104455
0.049578205 0.051224157 0.025497643 0.118103914 0.093880996 -0.04749856 -0.034386005 0.071467675
0.073119104 0.036122732 0.06645477 -0.08743853 0.03840063 0.075925395 -0.059424505 0.13512579
-0.028832061 0.055048484 -0.104186095 0.03612603 0.062016785 -0.10465316 0.123711586 0.058343228
0.033696447 0.058682136 -0.003500478 -0.031073224 0.042898305 0.0046893987 -0.039779175 0.041213304
0.07453774 0.044616234 0.0626283 -0.09745873 -0.01367839 0.033947937 0.006079139 -0.053314544
-0.032066904 -0.07247546 0.048071977 0.027940065 -0.010213909 0.09310931 -0.015990302 -0.017434608
0.017939955 0.001118937 -0.03136802 0.06167396 0.050454512 -0.049159504 -0.07884943 0.00869064
-0.07936454 0.007299493 0.009099326 -0.0020663836 -0.11561822 -0.048197094 -0.0499619 0.1067147
0.083385155 -0.051185325 -0.0056785983 0.05221842 0.04382636 0.036441058 -0.07332027 -0.027004508
-0.043849703 0.062666245 -0.06878682 0.076298155 -0.092286885 -0.054151617 0.00074490404 -0.10106001

net.2.module.0.bias f4 [32]
00000000: 7dd4 c1bd d74c 7a3c f3db 63bd 0ee7 42bd
00000010: ab65 1c3d 64ae 3f3d f02d c63d c45a 653d
00000020: 8aeb 763d 64f6 08bd aea1 f1bc 0ecb 76bd
00000030: 48d1 423d 0700 95bd d5e4 3e3c 5bbf cd3c
00000040: f983 cfbc 93ee 433d f280 bb3d cfd0 b9bc
00000050: 7fce d8bd 6750 aabd 2da6 883d 4bcb 50bd
00000060: dd9e cd3d 9163 b83d 3858 d03d 22e9 fabc
00000070: e073 9c3c 2d2e ca3d fcb4 c43c c731 d13c
-0.09464357 0.015277109 -0.05562968 -0.047583632 0.038182896 0.04679717 0.09676731 0.055994764
0.06028322 -0.0334381 -0.02949604 -0.06025224 0.047562867 -0.07275396 0.0116512375 0.02511566
-0.025331484 0.047834944 0.09155454 -0.022682576 -0.10586261 -0.08316117 0.066723205 -0.050975125
0.100400664 0.09003366 0.101730764 -0.030628745 0.019098222 0.098720886 0.024012081 0.025536431

net.3.module.0.weight f4 [32, 32, 3]
00000000: 3bcd 173e 421b 5cbd de45 acbd 720f b83d
00000010: 6882 cabc 654f 6cbc f6ff 85bd 28b1 123c
00000020: 45a3 f13a 8d1f b83c 00a4 573d f54b 4bbc
00000030: 0620 043e 7dea e03c 7471 c3bc f6b7 143d
00000040: 2925 99bd 51bd 47bc f027 f6bc 867f 913b
00000050: dcfc 993d 8d2a ad3d cbcb b7bc e48b 863c
00000060: 4a1a aa3d 9403 ad3d c42a 62bd 3ace 92bd
00000070: d4f0 fb3c eadc 9d3d 1ef0 1d3d 8c8a 063d
00000080: 72a3 f0bd ce29 82bc 2982 a63d 21ad 933d
00000090: d862 57bc cf05 24bc 4bd7 04be 6c16 033d
000000a0: 2fac 87bd f45b c83c e440 cc3b f8d4 51bd
000000b0: bf1b 50bc ea37 c53c 539a c2bd bdf7 c23d
000000c0: 4a9b 66bd 57da 9b3d 4823 b2bd a541 c03c
000000d0: 93ee 9cbd e5c8 543d 4c2e 863d a654 0cba
000000e0: 2edf e53b d11d a4b8 4e1a 85bd 868b 20bc
000000f0: 3cde 8fbd acf7 cabd 583e 65bd 2779 be3d
00000100: 7544 693c ba2d 0abc 922e aabd c87b c2bd
00000110: da06 a9bd 6c01 05be 5ee8 48bd 3ff7 423d
00000120: ac6d c23d 67ce 103d d5e9 7fbd 094d 803d
00000130: f4dd 77bc ea96 f33d 4038 b5bc ac0b afbd
00000140: c37b b83c 222b a33d c880 c93c 7c77 debd
00000150: 8bf4 eb3a 0975 cbbb a6b0 dbba c88c 5bbd
00000160: b3f2 a5bd e11f dfbd 12af e8bd 9a5c 673d
00000170: e8e3 75bd 04bc 57bc 5da2 4d3d 316e a5bd
00000180: 4056 0f3e 3c15 ad3d 4d14 063d d4eb b23d
00000190: 3670 0e3d 145c 193d 4a23 cabd 202f 603b
000001a0: 4831 dcbd 4348 e93d 9b29 893d cfb3 e83d
000001b0: f79d dcbc 37dd b23d 5449 93bd bc94 81bc
000001c0: 81a7 b83d b602 6a3d a375 84bd bacf 9f3c
000001d0: 10f1 9d3d 4da0 d03d df8d 5bbd 7aee b8bd
000001e0: 0b98 7dbd 9efd bd3d 51e1 863d 0202 f0bc
000001f0: 0410 c3bd f7d4 4b3d 4acd 9ebd 39bc cc3d
00000200: bfed bc3c e9ee b33d cae1 a13d f9a4 8a3c
00000210: c8c8 ea3d 413d 8f3d f9ae d43d 09c0 23bc
00000220: ad4e ea3c c573 683d e988 573d c77a 913c
00000230: f229 7d3d c3fa b43d 9e16 febc a7f2 21bd
00000240: 89dc acbd 9b2a c1bb 6e5e 553d bed4 95bc
00000250: b913 74bd 8ad8 69bd 505b 59bc 40a3 153d
00000260: 4879 b73d 3c6d 4e3d 8a51 7cbd f81a 88bd
00000270: 3c19 ffbb f079 41bd b1ce 923d 2309 203d
00000280: c34c 2ebd fa9b 08bd 70fb 473d 8cdd 233d
00000290: 75d0 6f3d 280e 5b3a e177 853a cd24 6d3b
000002a0: 64d1 7c3d 8067 b73d acd0 80bb a694 ddbd
000002b0: 12c1 643d d531 563d 3b69 063d 9362 de3c
000002c0: f04c d83b a620 3a3b 5401 a03d 0c1d a3bd
000002d0: d0e3 de3d eb25 fc3c 65dc a7bc cc94 1fbd
000002e0: 5e86 b03c 6d2c ca3c f647 dfbd d1ae 6c3d
000002f0: 85cf 943d e5b8 903d dca3 633d 091b 88bd
00000300: 4bfa 933b db70 45bd bfc2 2dbd 7257 86bd
00000310: 612d 47bd 1015 84bd 9f7f 663d e30a 11bd
00000320: 475f 89bc 0936 aabd 2c05 c13d f790 b23c
00000330: 53de cdbd 9d14 10bd c822 98bd 2737 893d
00000340: e746 c1bc 215b 493d 65d3 a9bd 2cc8 95bc
00000350: cdc7 813c a7c6 043d e223 ce3c 6b03 ad3c
00000360: 1884 bc3c eb1b 5a3d 65ec b73d 8ea9 ae3d
00000370: bb75 4e3b ee2b 863d 7154 ffbc 9d68 cebc
00000380: 007f 70bc f187 6a3d e3ef cfbd 984d bbbd
00000390: 042a d83d 3b8c 93bd f5fc 303d fbc1 903c
000003a0: 1c2c 443d a035 a53d de76 613c a86e ebbd
000003b0: 8faf b1bc 4605 81bd 0485 8dbd 87af 83bb
000003c0: 0f46 de3d 463d bc3d 5e26 a53d 45c8 f13c
000003d0: d9fe 76bd d2b3 5abd fb12 debc 5821 35bd
000003e0: c6a7 a43d 4313 8e3d b28c 69bd 2bef 83bd
000003f0: 6e08 c03c e5de 423d ec25 f83c 91ac 42bd
0.14824383 -0.053736933 -0.084117636 0.08987321 -0.024720386 -0.014423226 -0.06542961 0.00895337
0.0018435499 0.022475982 0.052646637 -0.012408246 0.12902841 0.027455563 -0.02385781 0.03630825
-0.07477791 -0.012191133 -0.03004834 0.004440251 0.07518932 0.084553815 -0.022436043 0.016424127
0.083057955 0.08447948 -0.055216566 -0.07168241 0.030754484 0.07708152 0.03855907 0.032846972
-0.11749925 -0.015889075 0.08130295 0.07210756 -0.013146125 -0.0100111505 -0.12972753 0.032003805
-0.06624638 0.02445791 0.0062333215 -0.051228493 -0.012701928 0.024074513 -0.09502091 0.095199086
-0.05630044 0.076100044 -0.086981356 0.023468802 -0.07662692 0.0519494 0.06551799 -0.000535319
0.0070151305 -7.825683e-05 -0.06499158 -0.00979889 -0.0702481 -0.09910521 -0.05596766 0.09300452
0.014237513 -0.008433754 -0.08309664 -0.09496266 -0.0825326 -0.12988824 -0.049049728 0.047599073
0.094935745 0.03535309 -0.06247886 0.06264693 -0.015128601 0.11894019 -0.022121549 -0.08547148
0.022519952 0.07967211 0.02459754 -0.108626336 0.0018001957 -0.00620902 -0.0016761019 -0.053601056
-0.08102932 -0.10894752 -0.11361517 0.056484796 -0.0600318 -0.013167385 0.05020367 -0.08077658
0.13997746 0.08451316 0.032734204 0.08736387 0.03477498 0.03744133 -0.09870012 0.0034207776
-0.10751587 0.11390736 0.06697389 0.11362421 -0.026930792 0.087336 -0.071917206 -0.015817992
0.09016324 0.05713149 -0.0646775 0.019508231 0.07711995 0.10186825 -0.053602096 -0.09029861
-0.061912578 0.09276889 0.065859444 -0.029297832 -0.09524539 0.049763646 -0.077539995 0.09996838
0.023062585 0.08785803 0.07904394 0.016924368 0.11464077 0.06994105 0.10384936 -0.009994515
0.028601969 0.05675103 0.052620802 0.01775874 0.06180758 0.088368915 -0.031016644 -0.039538052
-0.08440501 -0.0058949715 0.05209201 -0.01828992 -0.05958912 -0.057091273 -0.0132663995 0.03653264
0.089586794 0.050397143 -0.0616012 -0.06645769 -0.0077849906 -0.04723543 0.071683295 0.039071213
-0.042553674 -0.033351876 0.048823774 0.040006205 0.05854841 0.00083562965 0.0010182821 0.0036185265
0.061723128 0.08955288 -0.0039311256 -0.10819368 0.05584819 0.052293617 0.0328152 0.027146613
0.0066009685 0.0028400808 0.07812753 -0.079645246 0.108832955 0.0307798 -0.020490834 -0.038960263
0.021548446 0.024679387 -0.10902397 0.057783905 0.07266144 0.07066516 0.05557619 -0.066457815
0.004515921 -0.04820333 -0.042422052 -0.065596476 -0.04862726 -0.0644933 0.056274053 -0.035410773
-0.016769065 -0.08311088 0.094248146 0.02179764 -0.100521706 -0.03517591 -0.07428509 0.066999726
-0.02359338 0.049159173 -0.082922734 -0.018283926 0.015842343 0.032416012 0.025163595 0.021119794
0.023012206 0.05324928 0.089806356 0.08528434 0.0031503278 0.06551348 -0.031168194 -0.025196368
-0.014678717 0.05725855 -0.10153177 -0.09145659 0.10554889 -0.07204481 0.04320999 0.017670622
0.04789363 0.08066869 0.01376125 -0.114957154 -0.021690158 -0.06299834 -0.06910136 -0.004018727
0.10853206 0.091913745 0.080639586 0.029514441 -0.060301635 -0.053394146 -0.02710866 -0.044221252
0.08039813 0.06937268 -0.057018943 -0.06442102 0.02344152 0.04757585 0.03029152 -0.047527853

net.3.module.0.bias f4 [32]
00000000: 7c19 8bbd cfb3 9a3b ee55 bd3d 72a3 bcbd
00000010: 367b 263d 6e79 5dbd d6b2 cb3d 9f26 883d
00000020: 5941 bebd a294 213d 4d43 86bd ea81 85bc
00000030: 199d 10bb 9714 563d 65d4 c23d 519f 97bd
00000040: 3dbe 1f3d d61c b63c e94b 8bbc 257c 62bb
00000050: 43ae bbbd 609e a53b 7e0d edbc 0054 b3bd
00000060: 6fd1 b8bd 7b6d babd a735 1e3d 3037 57bc
00000070: fcaa b0bc 1918 b7bc c9b1 18bd 13fe 94bd
-0.0679197 0.004721142 0.092449054 -0.09210862 0.040644847 -0.054070882 0.099462196 0.066479914
-0.09289808 0.039448388 -0.06555805 -0.0162973 -0.0022066294 0.05226573 0.09513167 -0.07403434
0.038999785 0.022230547 -0.01700397 -0.003455886 -0.09164097 0.00505428 -0.028937098 -0.08756256
-0.09024321 -0.09102913 0.038625386 -0.013135716 -0.021565907 -0.022350358 -0.037278924 -0.07275023

net.4.module.0.weight f4 [32, 32, 3]
00000000: c3a5 403c 168c 61bd 6ad1 66bb 70c4 4c3d
00000010: 27dd 9cbc f789 1b3d e464 8b3c 03dd 7c3d
00000020: e0ad aebc 76d2 a53d 3042 a3bd 19a2 913c
00000030: 273a 003d 4817 00bc c019 8ebd 43df d7bc
00000040: fdad 65bd 2f89 a5bb 9705 0f3e b87c 2cbd
00000050: 50aa e2bd 63a4 d13d 896c dc3c a938 bc3d
00000060: 3ab0 0bbd 7f27 ba3d c1f1 f0bd f074 08be
00000070: e8a0 0bbd 93ec fe3d b98a c5bd 1e5f efbc
00000080: facd 0dbb fc01 2d3d 32bc 9b3d d364 633d
00000090: acb8 e7bc 2a89 0b3d f699 d4bd 61e5 9ebb
000000a0: 5e3c 8a3d dcf3 f63d fd4e 12bd c097 a2bc
000000b0: 61b8 5f3d 8445 8ebd 3c59 81bd 515e 3e3d
000000c0: 8a6a 033d 4c39 5f3d 8ae3 8ebd 7a8c c53d
000000d0: 94af b03c c8c2 c73c 9650 5ebd d86c 82bd
000000e0: a436 f93d a782 9dbd 55df cebd 0d2f 88bd
000000f0: 633e eabc 9670 483d e67e 69bd d783 b53d
00000100: 35f5 e5bc 19b6 5fbc 6589 7fbd 4dd1 ecbc
00000110: 5c75 c5bd d6c1 1ebe fd53 f7bd 6388 0bbd
00000120: 2132 6abd f169 86bd 5be3 04bd 32bc 2fbd
00000130: 0fea 86bd 8e38 8a3d 97d5 813d 6899 dabb
00000140: 5e17 16bd 56f7 663d 888b e7bc 885d 34bb
00000150: 925c 23bc 50c2 2ebd 40c8 cabd dc6b f53d
00000160: cc42 aebd 3198 a7bd d0f6 d6bd 1f7b 9f3d
00000170: dae2 613d 97f5 b73d 0e1c 8a3d d16c d2bd
00000180: 38d2 31bd c858 713d 3941 59bc 70a4 bb3b
00000190: d9cb 873d eba4 a8bc d16a c1bd 386a 853c
000001a0: 3032 45bd ef0a c53d e4ce a53d 5e92 123d
000001b0: bfb0 87bd 2894 d23d 45e1 8ebd e575 d1bd
000001c0: 5fc2 a43c c9d6 743d 7f64 e43d de77 473d
000001d0: 44d0 13bc 7800 d53d 9745 c03d 240a d7bc
000001e0: 890c 6f3d d4cb 86bd dbf6 433d 3925 9dbd
000001f0: 0cf3 4abd 43fa 69bd 6e08 cabd 9d6e 15bd
00000200: 3f1f b3bc be73 813d 17c8 4b3c 1909 ce3c
00000210: c689 863d 7eff b1bd 8a9c be3d 798a fe3c
00000220: 3558 4e39 039c c93d 5613 05bd 62c6 f63c
00000230: b034 32bd bfdb bdbd 8164 a8bd 5d15 3cbd
00000240: 2a96 99bd cb53 923d 5128 49bd bf60 ce3d
00000250: 1379 3a3d cada 723d 2ed4 debc fa06 5dbd
00000260: 71d0 de3c dee2 c73b 3819 683d 291f 45bd
00000270: 5b64 3b3d 7e21 d7bd 741d 8dbd 7a89 85bd
00000280: a77c 093d e36c 673d 7bb5 71bd da3b 7ebc
00000290: 79d9 b4bc d565 c5bb 0174 3fbd 5541 5e3d
000002a0: f4d5 4a3d 7790 34bd 901c 2fbd b829 bcbd
000002b0: 190e 1abd 3520 adbd 4b74 333d 8a4e 90bd
000002c0: 5a25 ab3d bcd8 5bbd 83c0 70bd e4df 54bc
000002d0: 5dfd aa3c 333f ea3a 6288 4abd 4c47 f23d
000002e0: 3745 64bd 0ead 0fbd e307 29bd a882 ac3d
000002f0: 4b3d a8bc e51f 033e 14a2 0cbd ef03 fbbc
00000300: 831e 01be 5d22 6d3d 5a34 c6bd 7f6e 8f3c
00000310: 13ef 95bd 8d60 8c3d 9d36 ae3d 2cc3 48bd
00000320: de67 fe3c 9c56 8abd 636d 82bd 96a8 a3bd
00000330: 5b25 ff3c fbcb d1bc 3a4e 2b3d 137a db3d
00000340: 787d ac3d bf33 403d 3797 d7bc c1fc d6bd
00000350: 4e70 a3bd aa60 f9bd 6f78 9f3d f4d1 a03d
00000360: ae38 e6bd 7b27 edbc dc8b 2e3d fce1 913c
00000370: 8145 e03d c083 333d f1f5 ae3d f8b9 b43d
00000380: a6a1 6d3d c71d 73bd bd44 563d 7d0f bc3c
00000390: 0af8 8d3d d498 5fbd ae1a c7bd 0bcc c63d
000003a0: 17b1 a5bc b24d 68b9 9d2b a5bd ab29 913c
000003b0: 758c b7bd 35fc 1f3c 1d24 2f3c 3f1b 22bd
000003c0: dd49 cc3d 4f81 62bd 40ce dfbd 43ec 623d
000003d0: 12b0 6e3d 5abc 233c 2abd 193c 4167 a6bc
000003e0: 4714 023e a791 0c3e 1d21 d73d 177a 653d
000003f0: 3522 88bd f0c8 50bd 9fb8 dabc eccc 16bd
0.011758271 -0.055065237 -0.0035220035 0.049992025 -0.019148422 0.03797337 0.017015882 0.06173421
-0.021323144 0.08096783 -0.07971609 0.01777749 0.03130546 -0.007818051 -0.06938505 -0.026351577
-0.05607413 -0.005051754 0.13966976 -0.04211113 -0.11067641 0.102364324 0.026907222 0.091904946
-0.03410361 0.090895645 -0.11764861 -0.13325858 -0.034089 0.12447467 -0.096456 -0.02922016
-0.0021637664 0.04223822 0.07604255 0.055516075 -0.0282863 0.034066357 -0.10380928 -0.0048491214
0.067497954 0.12058231 -0.03571986 -0.01984775 0.054619197 -0.06946853 -0.06315848 0.046476666
0.032084025 0.054498002 -0.069769934 0.096459344 0.021568097 0.024384871 -0.05427607 -0.063684165
0.12168625 -0.076909356 -0.10101191 -0.06649599 -0.028594201 0.048935495 -0.057005785 0.08863037
-0.028071025 -0.013654255 -0.06238689 -0.028908396 -0.09641525 -0.1550363 -0.12076566 -0.034065615
-0.057176713 -0.065631755 -0.032443386 -0.042904086 -0.06587612 0.06749068 0.06339567 -0.0066711195
-0.03664338 0.05638822 -0.028264776 -0.002752157 -0.009970801 -0.04266578 -0.09901476 0.11983463
-0.08508834 -0.08183325 -0.104962945 0.07787155 0.055147983 0.089823894 0.06743632 -0.10274661
-0.04341337 0.05892256 -0.013260179 0.0057263896 0.06630678 -0.020586452 -0.09444202 0.016286
-0.048143566 0.09621226 0.08096102 0.035784118 -0.066255085 0.10282165 -0.069765605 -0.10227565
0.020112215 0.059775148 0.111519806 0.0486983 -0.009021822 0.1040048 0.09388273 -0.026249953
0.058361564 -0.06581846 0.04784284 -0.07673115 -0.049548194 -0.057123434 -0.09864889 -0.036482442
-0.021865485 0.06320904 0.012437842 0.025150822 0.06569247 -0.086913094 0.09307201 0.031071888
0.0001967855 0.0984421 -0.032489143 0.030123893 -0.043507278 -0.09270429 -0.082222946 -0.04591881
-0.07499345 0.071448885 -0.049110714 0.100770466 0.04552562 0.059290685 -0.027200785 -0.05396173
0.027199002 0.0061000427 0.056664675 -0.04812542 0.045750003 -0.10504435 -0.06890383 -0.06520362
0.033566143 0.056500327 -0.059010964 -0.015517199 -0.022076355 -0.006024102 -0.04674149 0.054261524
0.049520448 -0.044083085 -0.04275185 -0.09187645 -0.0376111 -0.08453409 0.043812077 -0.0704623
0.083567336 -0.05367349 -0.058777343 -0.012992833 0.020872766 0.0017871618 -0.04944647 0.11830005
-0.05573007 -0.035077147 -0.041267287 0.08423358 -0.02053704 0.12805136 -0.034334257 -0.030641524
-0.12609296 0.0578941 -0.09677954 0.017508743 -0.073209904 0.06854353 0.085065104 -0.049014255
0.031055387 -0.06754801 -0.0636852 -0.079911396 0.031145742 -0.02560996 0.04182265 0.10716643
0.08422369 0.04692435 -0.026317222 -0.10497428 -0.07980405 -0.1217664 0.07786643 0.078525454
-0.112412795 -0.02894949 0.04261385 0.017807953 0.10950757 0.04382682 0.08543003 0.08824533
0.058015488 -0.05935457 0.052311648 0.022956604 0.06932075 -0.054589108 -0.097218856 0.09706887
-0.020226045 -0.00022154188 -0.08064959 0.017720064 -0.08962337 0.009764721 0.010689762 -0.039576765
0.09975026 -0.0552991 -0.10928011 0.055401098 0.058273382 0.009993637 0.009383479 -0.020312907
0.12703048 0.13727437 0.10504363 0.056024637 -0.066471495 -0.05097288 -0.026699362 -0.036816522

net.4.module.0.bias f4 [32]
00000000: b926 2b3d 9c92 8fbd be33 4cbd 839e 613d
00000010: a101 afbc 35c5 abbc a32b ad3d cfb3 85bd
00000020: 70e9 74bd 1c21 d23d ff1b 353d 7b03 adbd
00000030: 8017 593d 2a57 993d 6c95 78bd beb5 c33d
00000040: 68dc 4fbd 3129 acbd 30c9 aa3d 34e3 b9bd
00000050: 5bc3 573d 84a4 c23d 6e6d 9c3c 0cfa b63d
00000060: 9d3f 16bd 58c3 6abd dab9 a83c 10be b8bd
00000070: d9f1 a43d 1614 8e3d ad01 e2bb 9365 c5bc
0.041784976 -0.070103854 -0.049854033 0.05508281 -0.021363081 -0.02096806 0.08455589 -0.065284364
-0.059792936 0.10260221 0.044216152 -0.084479295 0.053000927 0.07487328 -0.060689375 0.09556149
-0.050747305 -0.08406294 0.08339155 -0.09076539 0.05267654 0.09504035 0.019095149 0.089344114
-0.03668176 -0.0573152 0.020596433 -0.090206265 0.08053941 0.06937425 -0.0068971724 -0.024096286

net.5.weight f4 [8, 32, 3]
00000000: c7db c4bc 5018 07bc 2bc9 d8bb 0cc4 8e3d
00000010: 8ad0 063d ddb1 65bc 2851 c0bd 13d8 9abc
00000020: 9e01 99bc 1bd9 dd3d 13ae d33b d66e f23d
00000030: 1993 e23d 9a5a 173d 4115 45bd 6abd 9dbc
00000040: 2e04 963d 55de c0bd 2095 343b 5bff 88bd
00000050: 1934 b03d ad02 e43c cca5 743d e405 7e3d
00000060: cf4f 94bd d199 82bc da6e 943d d0f8 b3bd
00000070: 75fd 9abd f26e 65bc bd72 acbd 4183 3bbc
00000080: 5238 cabd 4633 50bd 80a2 fb3c b7a7 a93d
00000090: aa04 c2bc 3fa9 adbc b756 703d 51d2 d7bd
000000a0: b252 78bd 73a9 a73c 2789 853d 0cc5 f83a
000000b0: 4e06 053e 56f9 ccbd 1586 db3b b46c f9bd
000000c0: 321c ecbb 5e1b 2f3d 4a6e bd3d 9ea7 bdbd
000000d0: efca 0d3d 7e93 f93d c0fe d73c 9119 af3d
000000e0: 12cc 1f3b 5ebf 4abc bee2 933d e0bd acbd
000000f0: dd4e 7b3d 04d0 8e3c 0ea2 f93d 4482 7d3d
00000100: 6417 ccbd 053f c33c 7281 353d 5d42 cbbc
00000110: 7920 45bc 5795 193d 5be2 233c 65b8 b0bd
00000120: d524 c8bd 382b 0c3d c5bc cebc 6f88 a9bd
00000130: 0bb1 c13d 68c4 dfbd c82d 633d 8d5a 9abd
00000140: ebed a93c e60c 633d 40d2 583c e4ab 8bbd
00000150: 14b0 b6bc af07 c23b 0fbc 083d f828 8a3d
00000160: 0b67 7fbd 9e73 6abc fe51 8abd 9e15 263d
00000170: da43 04bc d42d 843d 0664 e13c 7348 6f3d
00000180: 584d e43b ccec 0d3d d4d7 24bd 903d 5fbd
00000190: 904a 683d aae8 84bd 9e3b d63a 40ce 51bd
000001a0: bd73 2fbd db3c 003d 2e45 1fbc d305 b33d
000001b0: 9acb 893d 8619 973d e8b0 8e3d 1c3d 10bd
000001c0: 9e7e af3d addb 84bd 9ef5 18bd ff4f d83d
000001d0: 2a96 143d 2bda 12bd df39 21bd 361b e8bc
000001e0: fe1f aa3c 585d 983d 5551 41bd b410 7ebd
000001f0: dca6 133d 7e11 9b3d 8571 443a a520 bbbd
00000200: 4159 bcbd b482 11bd 4329 04bc 65ae 53bd
00000210: 98a5 9abd 0e7d 4ebd c814 77bd 1536 623d
00000220: e5d9 a9bd ef9c a0bd 5fa8 9c3d 043d 10bd
00000230: e778 cd3d ab60 543d 931a 713d 844e 933c
00000240: 7d38 2fbd b691 b4bb b629 a83d ec26 c4bb
00000250: 2048 c0bb d8f6 323d e04f 66bc 8692 b53d
00000260: b6c8 f83c 9740 633b 7d56 b0bc edc8 b03b
00000270: 891e 603c b7b1 30bd 103a 26bc 5106 ef3b
00000280: 5c8a 8c3d d3ef 733c 64cc 9fbd 9064 b13d
00000290: ee44 983d 3628 943d f425 9c3d 9fa9 9bbd
000002a0: 1c48 293d 8594 8bbd d83b 35bd 7855 71bd
000002b0: 0419 93bd 7b74 c43c 46d4 3d3d 8090 a53c
000002c0: bd62 84bc 1908 84bd f146 a03d a323 1cbd
000002d0: 1b4f 4bbc 7664 ba3c 4de7 b23d 3205 83ba
000002e0: 678c a7bd 55aa a53b b547 a2bd 851f b0bd
000002f0: fe53 5dbc b840 6b3c 7326 1dbd 2d78 22b9
00000300: 8c13 0e3d b74f 20bd 1ace 07bd 7091 bf3d
00000310: 2437 913d 83a4 373a 4e54 c63d 2577 52bd
00000320: d5cb 08bd 050d 67bd 74a3 c6bc db1c 14ba
00000330: e538 6f3d 0507 043c 3b27 633b 8972 41bd
00000340: 5a39 39bd fd26 11bc 312c c7bc af56 253d
00000350: 7023 11bd 7918 8cbd e925 973d 082c 663d
00000360: 3454 53bc e62f a53c d657 c53d 6c5d cbbc
00000370: 0114 563d 62c8 f3bb 8e02 ad3d 5134 873c
00000380: d78d e43d aa15 303d f32c 2bbd bef4 d5bd
00000390: 86dd b23d f7ee 9d3d 0961 753d 1f15 94bc
000003a0: fa6d 69bd e956 20bd 9281 ef3c a6d2 90bd
000003b0: 2519 2f3a 3745 273c 228c 8b3d 7ebe acbc
000003c0: dbd7 c33d 4ef7 a0bd 4c10 d9bb 2c74 113d
000003d0: b17f ddbc 8c10 823d 2645 45bd 2bba 473c
000003e0: 9985 7cbd abe9 153e 2d0f a63d 8667 5b3d
000003f0: a6b8 623b 8da5 d83c cd79 61bd dd0e 55bd
-0.02403058 -0.008245543 -0.006615778 0.06970987 0.032913722 -0.014019457 -0.09390479 -0.01890186
-0.018677529 0.10832425 0.0064599602 0.118375465 0.11063213 0.03695164 -0.048115972 -0.019255359
0.07325016 -0.094174065 0.0027554706 -0.0668933 0.08603687 0.027833307 0.05972843 0.062017336
-0.07241785 -0.015942486 0.07247706 -0.087876916 -0.07567874 -0.014003502 -0.08420322 -0.011444868
-0.098740235 -0.05083015 0.030717134 0.08283942 -0.023683865 -0.021198867 0.058676448 -0.105381615
-0.06062574 0.020466542 0.065203 0.0018979623 0.12990686 -0.100084946 0.0066993334 -0.121789366
-0.0072055096 0.04275071 0.092495516 -0.09260486 0.03461736 0.12186335 0.026366591 0.08549798
0.002438311 -0.012374727 0.07220982 -0.08434653 0.061354507 0.017433174 0.121891126 0.06189181
-0.09965399 0.023833761 0.0443129 -0.024811918 -0.012031668 0.037495937 0.010002698 -0.086289205
-0.0977265 0.034220904 -0.025236497 -0.08277976 0.094575964 -0.109261334 0.055463582 -0.075368024
0.020743331 0.055432223 0.013233721 -0.06819895 -0.022300757 0.005921326 0.03338247 0.067460954
-0.06235413 -0.014309792 -0.0675392 0.04054796 -0.008072818 0.064540535 0.027513515 0.058418702
0.006967228 0.034649655 -0.040244892 -0.05450207 0.056711733 -0.0648969 0.0016344672 -0.051222086
-0.042834986 0.031308036 -0.009721084 0.08741345 0.06728287 0.07377915 0.06967336 -0.03521453
0.08569072 -0.06487212 -0.037343614 0.10562133 0.03627602 -0.035852592 -0.03936183 -0.028333288
0.020767208 0.07439679 -0.047196705 -0.062027648 0.0360478 0.07571696 0.00074937224 -0.09137086
-0.09196711 -0.03552504 -0.008066478 -0.051679987 -0.07551116 -0.05041223 -0.060322553 0.055227358
-0.08293513 -0.07842433 0.07649302 -0.03521444 0.10032826 0.051850002 0.058863234 0.017981775
-0.04277848 -0.005510534 0.08211081 -0.005986085 -0.005867973 0.04369244 -0.01405713 0.08865838
0.030369144 0.003467595 -0.021525616 0.005395046 0.013679155 -0.043138232 -0.010145679 0.007294454
0.068623275 0.0148887215 -0.07802656 0.08661759 0.07435022 0.07234232 0.076244265 -0.07600712
0.041328534 -0.06815437 -0.044246525 -0.0589194 -0.07182506 0.023981323 0.046345018 0.020210505
-0.016160363 -0.06446857 0.07826031 -0.038119923 -0.012408997 0.022752982 0.087355234 -0.0009996055
-0.081810765 0.0050557056 -0.07923833 -0.08599762 -0.013508795 0.014358692 -0.038366746 -0.00015494293
0.03468661 -0.039138522 -0.03315554 0.09353912 0.07090595 0.000700541 0.096840486 -0.051383156
-0.033397514 -0.0564089 -0.024247862 -0.0005650052 0.05840387 0.008058314 0.0034660834 -0.04722837
-0.04522071 -0.008859393 -0.024313064 0.04036587 -0.035434186 -0.06840605 0.07380278 0.056194335
-0.012898494 0.020164441 0.09635894 -0.02482482 0.05226517 -0.007439659 0.08447753 0.016504439
0.11159866 0.04298941 -0.041790914 -0.104470715 0.087336585 0.077115946 0.059906993 -0.018076478
-0.056989647 -0.039145384 0.029236589 -0.07071428 0.0006679467 0.010209373 0.068138376 -0.021086928
0.095626555 -0.078596696 -0.006624257 0.03551118 -0.027038427 0.06350812 -0.04816165 0.012190382
-0.061650846 0.14639919 0.08108363 0.053565525 0.0034594922 0.026446128 -0.0550478 -0.052016128

net.5.bias f4 [8]
00000000: 29b5 363d 4c0f a4bd 7a0e b4bd af4f fdbc
00000010: 4a7a 06bc 8684 81bd 3379 723d 1b8d da3c
0.04460636 -0.0801073 -0.08791824 -0.030921785 -0.008207867 -0.06324105 0.059197616 0.026678612

exp_avg f4 [32, 120, 2]
00000000: eec8 6b39 aa8a 4b39 c191 2fb9 46f5 f638
00000010: 959d f5ba d8c8 b7ba f76c ae39 d7b7 b93a
00000020: 6375 6eba dca7 e5b8 d815 d73a 96bb b8ba
00000030: dc7e 1139 6af6 5639 a6e5 c138 8bfc f939
00000040: 4a7b 9739 66ba 243a 1c5c 2ab8 608c a4b7
00000050: 44f3 d7ba 9f68 e1ba b850 5f3a f3cc 643a
00000060: 81cc d837 ee30 11b9 5a1e 4cb8 440d 6439
00000070: 94f5 41bb 2675 37bb 1149 89b9 e5a5 0f3b
00000080: a8e8 3fba 9934 68ba 0325 fc38 466c 6437
00000090: 973e f73a 6237 ec3a c46f ddb9 fbd5 9eb9
000000a0: 6130 0aba 5e25 4839 f246 bb39 4980 eeb7
000000b0: e4a3 d938 17ed ac3a c4d6 053b 25dc 023b
000000c0: 6f3e c13a 77a8 6d3a f6ca 9cba 62b0 1fbb
000000d0: d043 adba fe11 acba f519 ea38 3fc5 1d39
000000e0: a8e3 ddb8 3d04 85b8 df8e 32b9 1098 cbb8
000000f0: 31f5 0e39 672b 8438 334c 2e3a 8107 873a
00000100: 3d74 45b9 4da8 bbb9 b536 41b8 9d0d 09b9
00000110: 97e9 d0ba 3007 e0ba 2f8d b0b9 9d9d 043a
00000120: 77d6 4339 d9e9 b8b8 bd48 f439 7160 3f39
00000130: fedd 1bba 1cd0 42ba 0000 0000 0000 0000
00000140: df66 f93a b9f4 943a 613b 953a f301 263a
00000150: cd78 a639 84f3 8139 1b39 fe37 bda5 7c39
00000160: 1d57 7039 938f f3b9 97db fc39 6f64 0639
00000170: f2a5 7b39 b29b 1138 50ad edb9 27de f7b8
00000180: c467 3039 0af1 e3b9 0661 5239 29ca 1539
00000190: 8bab eb38 62a9 8c39 da36 e3ba da29 b9ba
000001a0: d2fa f43a cc5f eb3a 4d8a ec39 fe8b d83a
000001b0: 7534 3bba 8ab7 22ba 55ea a339 2002 273a
000001c0: c875 483b db0f f23a a032 a239 a678 c438
000001d0: 391b 0b39 8e85 a639 5bd0 78b9 d044 b339
000001e0: 4031 9039 4259 7f39 a1b6 2db8 0ede 67b8
000001f0: 60ff dc3a 1c2d fe3a aaeb 0138 0462 cbb8
00000200: d6ff c939 2d4f 0e3a be57 2838 1177 5e38
00000210: dfc8 86ba 12cd 963a 74b1 163a 8848 d1ba
00000220: 93fc acb8 38b6 5cb9 062e 8f3a 53b5 393a
00000230: fb58 3bba fe9c 48ba eecf 1239 68c5 9db9
00000240: 6381 52ba 7551 d0ba 90fa bbb7 fa22 86b9
00000250: 2477 9a3a 18e4 583a d1bd e738 db81 f038
00000260: b726 c2b9 0929 b2b9 27e7 713a cbb4 eeb8
00000270: 8d7a 4f3b 950e 873b 6ebc 4bb8 517a b839
00000280: a0fc d23a 3a50 7dba b381 69b9 e0c6 0639
00000290: 71b4 da38 5417 4b39 cb85 71bb 838c f9ba
000002a0: 77a7 d239 86cb 40b8 ee36 2eb9 3249 7339
000002b0: fc06 92ba 2ed8 92b9 0a07 42ba 1201 a6ba
000002c0: cb0f c539 7947 48b8 c38e 8aba 7eef 46ba
000002d0: fa4e 38b8 f6fa 1339 3339 e1b6 ee54 3db9
000002e0: 9795 a2ba 8580 58b9 266a 9038 48b3 83b8
000002f0: 37b6 2bb8 c66a 8a39 9752 9e3a e796 563a
00000300: 39a2 5b3a bfb6 4e3a 0316 c739 2d31 2b39
00000310: 5226 3cb8 a00e 8738 9876 1eb5 6031 9f39
00000320: dada 733a 4df2 323a 45b3 53b8 39dd 5838
00000330: b162 3939 668a f039 33a2 f9b9 8ab4 ac38
00000340: 29e6 3d3a 95b3 d239 dad6 8fb9 f8a8 34b9
00000350: e329 123a 6331 ad3a ceb3 4bb8 7e67 2339
00000360: eca5 023a c006 033a 102d afba ff13 b0ba
00000370: 536c 88ba 9c48 75b9 43d7 2c3b 0ce0 423b
00000380: 36b7 96ba d67b 35ba 3bd3 de38 7d8b a437
00000390: 0502 9a3a 134e 333a 383c 863b 7280 373b
000003a0: 1954 1cba 8894 3dba 8b3e 28ba 650d d139
000003b0: 90d7 b6b8 3549 cbb9 9831 bdba 39a9 7cba
000003c0: a5a2 a639 d195 eb38 f547 3138 e9cd 5839
000003d0: 02c2 bfba 7848 bdba 4cab 8d3a f9e5 6e3a
000003e0: a8fb f8b9 0fda 8539 9d2e b539 cb22 ffb9
000003f0: fc1b 53b8 3afc 8839 c6a7 1f3a 8e06 acb9
0.00022486199 0.00019411245 -0.00016743598 0.0001177588 -0.001873898 -0.0014021648 0.0003326905 0.0014169168
-0.00090964715 -0.00010950837 0.0016409708 -0.0014093991 0.00013875536 0.00020500427 9.2457325e-05 0.0004768114
0.00028892822 0.0006283879 -4.0616942e-05 -1.961569e-05 -0.0016475697 -0.0017197317 0.0008518803 0.00087280496
2.5844436e-05 -0.00013846505 -4.8665657e-05 0.00021748716 -0.002959584 -0.002799341 -0.00026185115 0.002191895
-0.000732074 -0.00088579353 0.0001202319 1.3615068e-05 0.0018863258 0.0018021876 -0.00042235677 -0.00030295536
-0.0005271491 0.00019087407 0.00035720278 -2.8431548e-05 0.00010377893 0.0013193217 0.00204222 0.0019967642
0.0014743338 0.0009065936 -0.0011962343 -0.0024366607 -0.0013219062 -0.0013127921 0.000111628244 0.00015046167
-0.000105805055 -6.342724e-05 -0.00017028626 -9.708118e-05 0.00013633516 6.302335e-05 0.0006648928 0.0010301919
-0.00018830686 -0.00035792813 -4.6065736e-05 -0.0001307041 -0.0015938756 -0.0017091986 -0.00033674526 0.00050588866
0.00018676544 -8.817361e-05 0.000465935 0.00018251107 -0.000594586 -0.00074315234 0.0 0.0
0.001902785 0.0011364437 0.0011385494 0.0006332688 0.0003175199 0.0002478623 3.0305751e-05 0.00024094335
0.00022920636 -0.00046455543 0.00048228793 0.0001281665 0.00023999045 3.4715697e-05 -0.0004533329 -0.00011819257
0.00016823324 -0.00043476402 0.00020063305 0.00014285058 0.000112376256 0.0002682908 -0.0017335073 -0.0014126853
0.0018690473 0.0017957627 0.0004511647 0.0016521213 -0.00071413006 -0.0006207159 0.00031264374 0.0006370861
0.0030587781 0.001846786 0.00030936766 9.368481e-05 0.00013266214 0.00031761493 -0.00023728742 0.0003419281
0.00027502514 0.00024351946 -4.14165e-05 -5.5281496e-05 0.0016860776 0.0019392106 3.0975476e-05 -9.698051e-05
0.0003852832 0.0005428668 4.0136038e-05 5.3039814e-05 -0.0010283253 0.0011505208 0.00057484885 -0.001596705
-8.248645e-05 -0.00021048717 0.001092375 0.00070842094 -0.0007146743 -0.0007652788 0.00014001105 -0.00030092453
-0.00080301444 -0.0015893417 -2.2408814e-05 -0.0002558453 0.0011784774 0.0008273735 0.000110502944 0.00011468279
-0.00037031408 -0.0003398138 0.0009227865 -0.000113824 0.003165874 0.0041216114 -4.857446e-05 0.00035186348
0.0016097017 -0.0009663139 -0.00022268928 0.00012853323 0.0001042866 0.00019368279 -0.0036853428 -0.0019039068
0.00040179092 -4.5965913e-05 -0.00016614396 0.00023201553 -0.0011140998 -0.00028008356 -0.00074015616 -0.0012665114
0.00037586535 -4.775028e-05 -0.0010571111 -0.00075887877 -4.394257e-05 0.00014112503 -6.7121814e-06 -0.00018056083
-0.00124042 -0.00020647242 6.886227e-05 -6.2799605e-05 -4.0939278e-05 0.00026400964 0.0012079057 0.00081859383
0.000837836 0.00078855077 0.00037972638 0.0001632615 -4.485838e-05 6.440026e-05 -5.9032163e-07 0.0003036363
0.0009302326 0.0006826267 -5.0473278e-05 5.1704443e-05 0.0001767974 0.00045879482 -0.0004761383 8.235227e-05
0.00072440744 0.0004018812 -0.00027435162 -0.00017229083 0.00055756996 0.0013213571 -4.8566428e-05 0.00015583445
0.0004983831 0.0004998259 -0.001336487 -0.0013433694 -0.001040826 -0.0002339207 0.0026373423 0.0029735593
-0.0011498693 -0.0006923055 0.0001062513 1.9615278e-05 0.001174987 0.0006839942 0.004096534 0.0028000143
-0.0005963459 -0.0007231911 -0.0006418011 0.00039873566 -8.718588e-05 -0.0003877372 -0.0014434336 -0.0009638253
0.00031783167 0.00011233579 4.2267104e-05 0.00020676073 -0.0014629962 -0.0014441153 0.0010808497 0.0009113248
-0.00047489745 0.00025530203 0.0003455774 -0.00048663313 -5.0332383e-05 0.00026127865 0.0006090369 -0.0003281128

exp_avg_sq f4 [32, 120, 2]
00000000: d40c 2335 2dbe d834 63b4 5b35 a53b 0c35
00000010: 1bb7 0b38 bb43 f137 7e85 0f37 c97b 5437
00000020: 3779 cd36 6bbf 9c36 dba4 8837 9117 b237
00000030: 38b1 d235 9918 0136 4370 9937 f0ad a237
00000040: a502 c135 86a4 c135 ab8e 4a32 7056 9832
00000050: 3c50 6837 c54b 2537 7285 b437 f967 c137
00000060: 6fde 1235 8b26 3035 381e de37 5f46 6637
00000070: a964 0038 18cf b637 5a31 7638 0326 7a38
00000080: 22aa 2436 02cc e235 fcdd a035 732d ac35
00000090: bcd1 6538 e51b 2b38 47b9 7737 1a6a 9037
000000a0: 793c 5a37 5d37 8b37 78a3 f536 a172 d636
000000b0: a4b1 b537 2a57 9537 4c4b 9d38 a814 ab38
000000c0: f85b 4e37 78c1 7637 91d9 5238 f73e 8d38
000000d0: c914 7636 4e48 a436 251f 0d34 5ae4 a633
000000e0: 5909 8033 5c52 d633 c8df f935 75fa e335
000000f0: 990f e335 a386 eb35 4ce6 b036 ec02 aa36
00000100: 9dbf f334 c7ae 2e35 f8ab 8934 61e9 a834
00000110: fb0e ae37 9065 9137 074b 4537 108f 0337
00000120: 86e4 f335 e0d3 0136 dbe0 a135 a7f3 8035
00000130: 9255 6735 7929 4b35 0000 0000 0000 0000
00000140: 19d9 c837 8aef dc37 6db2 b936 84eb 4036
00000150: d5fb d635 bd24 b935 c199 d136 c414 0237
00000160: 133b 8836 3067 8636 10fb 0336 d882 4e36
00000170: b78a 0037 501f dd36 5270 8636 079d 3936
00000180: db42 5636 7907 5b36 d905 fc34 9fdb 5535
00000190: 97c2 d035 6fbb be35 01f7 a937 557c 9537
000001a0: fe11 8538 7272 b138 5f2e 2037 c566 6637
000001b0: 115c f136 5191 8236 cd5e b236 574b 8e36
000001c0: 9787 7137 e787 5037 4b82 1235 9a05 1e35
000001d0: ca4a 9b35 47c4 9835 4ff7 5137 5d1d 4837
000001e0: 64ee 8d37 3f1f 8f37 5674 7e32 9ecc a432
000001f0: 12b7 2137 a160 5437 5b2a 0637 e629 2637
00000200: f1e4 a136 cad1 5a36 be9a ca32 c96a 0833
00000210: 27d3 1337 6a1c e436 9c93 7038 74a3 a938
00000220: 4315 0e35 f5e2 3f35 10b4 1237 7488 be36
00000230: 13a1 6b37 610b 3637 3f65 7337 c432 6037
00000240: de2b b036 bd35 bf36 0251 9d35 2760 c335
00000250: 4c58 8436 5f00 b036 94d1 6935 12ad 0735
00000260: 9379 0a36 679c 1f36 4099 b037 240a 0438
00000270: 902a 8238 56f4 aa38 b599 9336 00bb 2136
00000280: 8e21 d938 5d71 ba38 076d bf35 d274 9235
00000290: 7130 bd35 9152 7235 6dca 0737 883e 1837
000002a0: 6e56 3436 cb28 3a36 4404 4e37 4c4a 8837
000002b0: 6ca3 0037 a2a2 f036 8160 d536 d11a eb36
000002c0: 6331 1737 9205 1437 9515 7136 390a 9d36
000002d0: 8088 9b34 5c79 5734 125b 9436 2374 a436
000002e0: 4c94 0338 ba16 0038 5543 9b35 9a55 1136
000002f0: 7d88 1936 0a49 1136 0594 9637 eac0 c137
00000300: 4e28 5835 93e9 b135 8fb0 2b35 019c 8934
00000310: 630f 8536 9dde 5936 3c2c 2736 4b3f 2536
00000320: 7a45 da35 273a c635 a09c 5535 8434 6135
00000330: 4ede dd35 7c7e bd35 4378 4436 7b2a 3d36
00000340: 4f43 1837 a29d 3637 4118 4735 234e 0e35
00000350: 29de e736 7a88 1537 7ba8 f334 0229 2635
00000360: 2600 4736 ffdf 8036 db86 2d37 98f9 2c37
00000370: 56cd b437 e4dc 9137 6be0 1138 8e50 4738
00000380: 450c 9537 a85a 8e37 3644 5835 bdd0 6035
00000390: 43a1 1736 11fb 7236 f7cb 9738 fe99 bd38
000003a0: cfec 3236 9548 c335 127d 2637 ea28 b936
000003b0: 4e12 dc35 a924 2e36 b310 7836 4b7e 2a36
000003c0: 1a62 fc34 923f a734 e3a1 b734 b2e4 cf34
000003d0: 77db a137 15cf ab37 a6c3 9636 d30d 9e36
000003e0: b876 6036 3e51 2336 9d48 8437 6b20 6e37
000003f0: 5a1a 9135 3e1b ab35 0348 2737 5e88 ee36
6.07409e-07 4.0371506e-07 8.1846355e-07 5.224086e-07 3.3310713e-05 2.8760978e-05 8.554545e-06 1.2665006e-05
6.1235874e-06 4.6714463e-06 1.628923e-05 2.1230228e-05 1.5697797e-06 1.9236816e-06 1.8291297e-05 1.93929e-05
1.438039e-06 1.4427503e-06 1.17903864e-08 1.7734436e-08 1.3846959e-05 9.852408e-06 2.1519812e-05 2.3055809e-05
5.471292e-07 6.5621197e-07 2.6478534e-05 1.3725453e-05 3.0611325e-05 2.1792526e-05 5.8696933e-05 5.9640046e-05
2.4536935e-06 1.6897686e-06 1.1985535e-06 1.2828226e-06 5.4793185e-05 4.0795556e-05 1.47654855e-05 1.7215545e-05
1.3007892e-05 1.6595872e-05 7.3205993e-06 6.3910416e-06 2.1659602e-05 1.7802773e-05 7.5003685e-05 8.157763e-05
1.229997e-05 1.4707788e-05 5.0270526e-05 6.735132e-05 3.6668955e-06 4.8959982e-06 1.3142979e-07 7.771514e-08
5.962165e-08 9.9801326e-08 1.8617075e-06 1.698571e-06 1.6917357e-06 1.7548049e-06 5.272019e-06 5.066735e-06
4.5401694e-07 6.5074386e-07 2.5643362e-07 3.1462244e-07 2.0749392e-05 1.733264e-05 1.1759584e-05 7.841518e-06
1.817142e-06 1.9345825e-06 1.2060876e-06 9.607655e-07 8.6178727e-07 7.5683744e-07 0.0 0.0
2.3942952e-05 2.6337588e-05 5.534201e-06 2.8747318e-06 1.6017535e-06 1.3794266e-06 6.2465847e-06 7.753439e-06
4.059993e-06 4.005524e-06 1.9666659e-06 3.0772553e-06 7.661692e-06 6.5899585e-06 4.006587e-06 2.765855e-06
3.19274e-06 3.2637893e-06 4.6942912e-07 7.9668274e-07 1.5553841e-06 1.4210653e-06 2.026139e-05 1.782008e-05
6.3452855e-05 8.461335e-05 9.54754e-06 1.3732996e-05 7.1930776e-06 3.891219e-06 5.3158496e-06 4.2407005e-06
1.4396289e-05 1.2429408e-05 5.457884e-07 5.886774e-07 1.1570166e-06 1.1382007e-06 1.2514952e-05 1.1927766e-05
1.691952e-05 1.7061479e-05 1.4811198e-08 1.9185162e-08 9.638972e-06 1.2658683e-05 7.996884e-06 9.904126e-06
4.824826e-06 3.2606645e-06 2.3586264e-08 3.1762088e-08 8.8110455e-06 6.7982373e-06 5.735793e-05 8.0889935e-05
5.293006e-07 7.148331e-07 8.744202e-06 5.6783265e-06 1.40445945e-05 1.0850695e-05 1.4507502e-05 1.336326e-05
5.2503156e-06 5.6984995e-06 1.1720988e-06 1.4556616e-06 3.9441857e-06 5.245252e-06 8.710424e-07 5.054327e-07
2.0634368e-06 2.3783884e-06 2.1052198e-05 3.1480697e-05 6.206811e-05 8.151743e-05 4.3988352e-06 2.4099718e-06
0.000103536164 8.890287e-05 1.426234e-06 1.0911847e-06 1.4095696e-06 9.0272175e-07 8.093758e-06 9.074465e-06
2.6872399e-06 2.7739904e-06 1.227955e-05 1.624706e-05 7.667444e-06 7.1714903e-06 6.359129e-06 7.0066676e-06
9.0118e-06 8.822784e-06 3.592436e-06 4.6801547e-06 2.8970317e-07 2.0067586e-07 4.4213457e-06 4.901101e-06
3.1370946e-05 3.0538744e-05 1.1567996e-06 2.165651e-06 2.2878223e-06 2.1649198e-06 1.795032e-05 2.3097225e-05
8.052492e-07 1.3255507e-06 6.395939e-07 2.5631746e-07 3.9655e-06 3.2465098e-06 2.4910687e-06 2.4623757e-06
1.6262486e-06 1.4769074e-06 7.95766e-07 8.389545e-07 1.6530482e-06 1.4118409e-06 2.9276277e-06 2.8187922e-06
9.0755775e-06 1.0884747e-05 7.416857e-07 5.3012826e-07 6.9101993e-06 8.912868e-06 4.5384863e-07 6.1899493e-07
2.9653397e-06 3.840774e-06 1.0343002e-05 1.0310112e-05 2.155329e-05 1.7388207e-05 3.47797e-05 4.752032e-05
1.7767898e-05 1.6969934e-05 8.056553e-07 8.3750257e-07 2.259462e-06 3.620695e-06 7.2382325e-05 9.0409056e-05
2.6661908e-06 1.4549756e-06 9.923491e-06 5.5181927e-06 1.6396605e-06 2.594936e-06 3.69646e-06 2.5405486e-06
4.7010036e-07 3.1152427e-07 3.4204194e-07 3.8723152e-07 1.9294892e-05 2.0481219e-05 4.493125e-06 4.7103763e-06
3.3447704e-06 2.4336182e-06 1.576944e-05 1.4193453e-05 1.0811011e-06 1.2748421e-06 9.970742e-06 7.108828e-06

exp_avg f4 [32]
00000000: 71b3 26ba 8fc6 33b8 3296 113a 2d30 6cb9
00000010: 9ccb 203a b1da 31ba 3fed 98ba 8126 92ba
00000020: 973e b0ba 7507 a239 5836 17ba fca8 183b
00000030: 6e1d 03bb 398f 6f3a a91b 323a 82d7 dd3a
00000040: f364 17ba 6106 20ba 3910 f5b9 3807 55ba
00000050: fe20 83b9 6559 873a 1a81 db38 7017 503b
00000060: c74f 16ba 4164 58b8 d733 013a f9cf b8ba
00000070: 9335 14ba 699f c6b9 cb71 15b9 4501 10bb
-0.00063591363 -4.2861848e-05 0.0005553692 -0.00022524661 0.0006133856 -0.0006784602 -0.0011667385 -0.0011150391
-0.0013446388 0.00030904604 -0.0005768291 0.0023294082 -0.0020006555 0.00091384683 0.0006794283 0.0016925188
-0.00057752355 -0.0006104466 -0.00046742128 -0.0008126381 -0.00025010848 0.0010326324 0.00010466781 0.003175225
-0.00057339336 -5.159178e-05 0.0004928684 -0.0014100067 -0.0005653735 -0.00037884273 -0.00014252138 -0.0021973413

exp_avg_sq f4 [32]
00000000: 7755 313a 50a2 be39 660d 043a 0bcc 393a
00000010: f297 e839 b4a4 b738 da6f b939 d07d 0b39
00000020: d4fe 8339 05c0 ba39 3a95 b839 1111 a939
00000030: 186c 123a 6690 4e38 d917 ba39 c8c6 f639
00000040: 00bb 6838 82f5 9039 0b2e 3d39 1b6a 1f3a
00000050: 9271 6f38 1fcb 2839 da69 0239 a750 a739
00000060: 5889 d138 be38 5639 6efd 9139 13e3 d339
00000070: 2831 2639 5088 8d39 f83a 8d39 8a7e 263a
0.00067647494 0.00036360556 0.0005037397 0.0007087595 0.00044363696 8.756798e-05 0.00035369286 0.00013302942
0.0002517613 0.0003561975 0.00035206397 0.00032246907 0.0005585565 4.924871e-05 0.00035494452 0.0004706888
5.5487268e-05 0.00027648738 0.00018041597 0.00060811796 5.708781e-05 0.00016097397 0.00012437199 0.00031912813
9.991479e-05 0.00020429768 0.00027845375 0.0004041424 0.00015849306 0.00026995176 0.0002693755 0.0006351253
