data/Figure3_Supplement/027/checkpoint_0000500.pth (torch, 225792 bytes, 31 tensors)

net.0.weight f4 [32, 120, 2]
0	0x3b8d3eb7	0.0043104547
1	0xbd0ccbd3	-0.03437407
2	0x3d671637	0.05641767
3	0x3d34f5fb	0.044179898
4	0x3cd76f46	0.026298176
5	0x3c7fa5b4	0.015603472
6	0xbcd0cdb3	-0.02548871
7	0x3c15e646	0.00914914
8	0x3d8a61ba	0.06756921
9	0xbd5a5bae	-0.05331009
10	0x3bedacb8	0.0072532557
11	0x3ba0735d	0.004896565
12	0x3c451c11	0.012030617
13	0xba7063ab	-0.0009170125
14	0xbc8fb8d3	-0.017544186
15	0xbd1afa1e	-0.037836187
16	0x3d53df87	0.051726844
17	0x3cf6cd8f	0.030127315
18	0xbb1b7989	-0.0023723564
19	0x3d25d036	0.04048177
20	0xbda2c7b8	-0.079482496
21	0xbc2d3217	-0.010571024
22	0xbbe97bc3	-0.0071253492
23	0xbd51ba6e	-0.051203184
24	0x3d425f6f	0.047454294
25	0x3c7b72e6	0.015347218
26	0xbd218e32	-0.03944225
27	0xbd0605fb	-0.032720547
28	0x3d35ea59	0.044412944
29	0x3bf0c692	0.00734789
30	0x3d3ab7ac	0.04558532
31	0x3cca51b6	0.024697166
32	0x3d558876	0.052132092
33	0xbd19a09f	-0.037506696
34	0xbd2a02fa	-0.041506745
35	0xbb10b9a8	-0.0022083316
36	0xbd02e6b7	-0.031958308
37	0x3c80b4fd	0.015711302
38	0xbd418fb3	-0.047256183
39	0x3d272ddb	0.040815216
40	0x3ce21544	0.02759803
41	0xbd1164a8	-0.035496384
42	0xb9886252	-0.00026013196
43	0xbd1601fe	-0.036622994
44	0xbd944c60	-0.0724113
45	0x3d4b1811	0.0495835
46	0xbd86f80e	-0.065902814
47	0x3d5846ac	0.052801773
48	0xbcb01355	-0.021493593
49	0x3d69f0cb	0.057114404
50	0x3a344cf7	0.0006877924
51	0xbca732ed	-0.020410025
52	0xbd40fe9e	-0.047117822
53	0xbd0d80bf	-0.03454661
54	0xbce7d5f3	-0.028300261
55	0x3d3b50f7	0.04573151
56	0x3cf9a155	0.030472437
57	0x3d101794	0.035178736
58	0x3cbd9d00	0.023146152
59	0x3d6f2040	0.058380365
60	0x3d524eef	0.05134481
61	0x3d784a9c	0.060618028
62	0xbd1fe83b	-0.03903983
63	0xbbc13f17	-0.0058974135
64	0xbc87b502	-0.016565803
65	0xbc5f25ed	-0.013619882
66	0xbd1f31ff	-0.03886604
67	0xbbee7a71	-0.0072777797
68	0xbd06e870	-0.032936513
69	0x3d02dca7	0.03194871
70	0x3ccec26a	0.025239188
71	0x3bc52540	0.0060164034
72	0xbd3f1871	-0.04665417
73	0xbd20a5c4	-0.039220586
74	0x3d2cacce	0.042156987
75	0xbcc5a051	-0.024124296
76	0x3d8b30bc	0.06796405
77	0x3d1661da	0.036714412
78	0xbd5f4a65	-0.054514308
79	0x3d4a5e40	0.04940629
80	0xbd3c097f	-0.045907494
81	0xbd15c91b	-0.036568742
82	0x3d841c57	0.06450718
83	0x3d208274	0.03918691
84	0x3c3dcfe5	0.01158521
85	0x3d926f14	0.07150093
86	0x3d81852b	0.06324228
87	0xbd801316	-0.0625364
88	0x3c979114	0.018501796
89	0x3c83edbe	0.016104575
90	0xbbb23615	-0.005438576
91	0xbd879a26	-0.06621198
92	0x3d1df11a	0.03856001
93	0xba4e4105	-0.0007867965
94	0x3d07332c	0.033007786
95	0x3b2dc031	0.002651226
96	0x3d150f33	0.03639145
97	0x3d267fb6	0.04064914
98	0xbd07b737	-0.03313371
99	0xbca0dd26	-0.019636702
100	0x3ca70a8b	0.02039077
101	0x3d80f9ae	0.062976226
102	0x38ec1a82	0.000112582944
103	0x3d5b8959	0.05359778
104	0x3bb26408	0.0054440536
105	0xbd0cd59a	-0.034383394
106	0xbc2bb28d	-0.010479582
107	0xbd84c814	-0.064834744
108	0xbd565542	-0.052327402
109	0x3b18a653	0.0023292496
110	0xbd80c35b	-0.06287261
111	0xbc8540ef	-0.016266314
112	0xbd49b803	-0.049247753
113	0xbd1eb721	-0.038748864
114	0x3cccefe7	0.025016738
115	0xbd028da5	-0.031873364
116	0x3ca21d19	0.019789265
117	0xbc9cf232	-0.019158456
118	0xbd5a4513	-0.05328853
119	0xbd74dbbe	-0.059779875
120	0x3c95f931	0.0183073
121	0xbbaa450c	-0.0051962193
122	0xbd5515f6	-0.052022897
123	0xbd682ead	-0.05668514
124	0x3d422202	0.047395714
125	0x3d29dbf9	0.041469548
126	0x3d9715ca	0.07377203
127	0xbd185d85	-0.037198562
128	0x3a3ce83e	0.00072062376
129	0x3d766434	0.060154155
130	0x3c83ee41	0.01610482
131	0x3ccd0e87	0.025031341
132	0x3d9d4624	0.07679394
133	0xbd10e8a6	-0.03537812
134	0x3cf398d7	0.029735966
135	0xbcf16352	-0.029466305
136	0x3d79b861	0.060966853
137	0x3c6d8608	0.014497288
138	0xbcaa0b63	-0.020757383
139	0xbccaef3e	-0.024772283
140	0x3cf9f952	0.030514393
141	0x3c6f7b8e	0.01461686
142	0x3cb96844	0.022632726
143	0xbd7aa154	-0.06118901
144	0xbd34ed7e	-0.044171803
145	0xbbaafa17	-0.0052178013
146	0x3d4549bd	0.048166025
147	0x3bc797ce	0.0060910946
148	0xbd344350	-0.044009507
149	0xbced1f7e	-0.02894568
150	0xbd81e4c9	-0.063424654
151	0x3ce43a93	0.027859962
152	0xbd0d278e	-0.03446155
153	0x3d434247	0.04767063
154	0x3c7074cb	0.014676283
155	0x3d142a21	0.03617299
156	0xbcfd0103	-0.030884271
157	0x3c901606	0.017588627
158	0xbd6f236c	-0.05838339
159	0x3bf5a21b	0.007496131
160	0x3cab4bf2	0.020910237
161	0x3d859382	0.065222755
162	0x3d879463	0.066200994
163	0xbd551cbc	-0.052029356
164	0xbccda399	-0.025102424
165	0xbb3714ae	-0.002793591
166	0x3d0e9dc4	0.034818426
167	0x3d785d60	0.060635924
168	0x3c2fe0ff	0.010734796
169	0xbce71690	-0.028209
170	0x3d0416fc	0.032248482
171	0xbd216726	-0.03940501
172	0xbc83f1ca	-0.016106505
173	0x3bd5ac8d	0.006520814
174	0xbd3afc01	-0.045650486
175	0xbc7cdac4	-0.015433017
176	0xbd3f42b9	-0.04669449
177	0xbbd012ec	-0.006349912
178	0xbd0f625f	-0.035005923
179	0x3c3722e8	0.011177756
180	0x3d56f18a	0.052476443
181	0x3ce62417	0.02809338
182	0x3ceeac87	0.029135002
183	0xbb7b48e7	-0.0038343014
184	0x3d35b0af	0.04435795
185	0xbd19a7b7	-0.03751346
186	0xbd325901	-0.043541912
187	0xba33734f	-0.00068454904
188	0xbd62786c	-0.055290624
189	0x3c1bc699	0.009507799
190	0xbcb85ce8	-0.022505239
191	0x3ce3085f	0.027713953
192	0x3d348446	0.04407146
193	0xbd5d297e	-0.05399465
194	0x3d75c7d4	0.060005024
195	0xbcd172ea	-0.02556749
196	0xbd15cab3	-0.036570262
197	0xbd8ae019	-0.067810245
198	0xbd416d4f	-0.047223385
199	0xbd295747	-0.041343
200	0xbc72a503	-0.01480985
201	0x3d01f9bc	0.031732306
202	0xbd4df91b	-0.050286394
203	0x3d708a94	0.05872591
204	0xbd344642	-0.044012316
205	0x3cceda70	0.025250643
206	0xbbbbc1f2	-0.005729907
207	0xbcdd4a53	-0.02701298
208	0xbd4fd1b6	-0.050737105
209	0xbbe53e7a	-0.006995973
210	0x3d064c12	0.03278739
211	0x3c9e0dfe	0.019293781
212	0x3d4c1db4	0.049833015
213	0xbd10e40f	-0.035373744
214	0xbcbe7984	-0.023251303
215	0xbd0c58ca	-0.034264363
216	0x3b60c70f	0.0034298336
217	0xbcf8ec36	-0.030386072
218	0xbc4dff53	-0.012573081
219	0x3d9d64cf	0.07685243
220	0x3d7cea40	0.061746836
221	0x3c8ae4b2	0.016954754
222	0x3d35115f	0.04420602
223	0xbbe23568	-0.006903339
224	0xbd97e3a6	-0.07416467
225	0x3c885d19	0.016645955
226	0xbcee80a4	-0.029114075
227	0xbd81ed7d	-0.063441254
228	0xbd7a1cf5	-0.06106277
229	0xbd396a5e	-0.045267455
230	0x3bc4eb14	0.006009469
231	0xbb633607	-0.0034669654
232	0x3d26d7a3	0.04073299
233	0x3d2fda80	0.042932987
234	0x3d7b56b2	0.061361976
235	0x3c90455f	0.017611204
236	0xbd1418a4	-0.03615631
237	0xbd09faad	-0.03368633
238	0xbce24f30	-0.02762565
239	0x3d88047c	0.0664148
240	0xbcddfe50	-0.027098805
241	0xbbfea3ce	-0.007770992
242	0x3d59a2f7	0.05313393
243	0xbc1d7c88	-0.00961221
244	0x3d874977	0.06605809
245	0x3a63cb7b	0.0008689684
246	0xbd2b806f	-0.04187053
247	0xbd8d61ca	-0.069034174
248	0x3d245644	0.04012133
249	0x3d168b09	0.036753688
250	0xbd065c65	-0.032802958
251	0x3c770bb8	0.015078478
252	0xbc9a8fac	-0.018867336
253	0x3d90db2f	0.07073056
254	0x3bec1a04	0.0072052497
255	0xbd10162b	-0.03517739

net.0.bias f4 [32]
0	0xbc096895	-0.008386751
1	0x3b36b4d9	0.002787879
2	0xbd481308	-0.048846275
3	0xbd44ef42	-0.048079737
4	0xbcb938c6	-0.02261008
5	0x3cfea1f4	0.031083085
6	0x3cbc8581	0.023012878
7	0xbd193f18	-0.037413687
8	0xbcd55dd8	-0.026045725
9	0xbd135457	-0.035969105
10	0xbd3ffd9a	-0.046872713
11	0x3d21057e	0.03931188
12	0xbc94c405	-0.018159876
13	0x3d652f01	0.05595303
14	0x3cab9e10	0.020949394
15	0xbd0ecb7d	-0.03486203
16	0xbd3314ee	-0.043721132
17	0xbd0e1acd	-0.034693528
18	0xbd34c2f3	-0.04413123
19	0x3d30e6a6	0.043188713
20	0xbce6d64b	-0.028178355
21	0x3c843df6	0.016142827
22	0x3d75a971	0.059976045
23	0x3d6ce0be	0.05783152
24	0x3d3cc383	0.046084892
25	0xbd62566e	-0.055258207
26	0xbcc84c2f	-0.02445039
27	0xbca87dca	-0.020567793
28	0xbc80c623	-0.015719479
29	0xbd80139c	-0.0625374
30	0xbd80ee48	-0.062954485
31	0xbd5c9a15	-0.05385788

net.2.module.0.weight f4 [32, 32, 3]
0	0x3da16c30	0.07881963
1	0x3d1012bf	0.035174128
2	0x3cb7fd19	0.022459554
3	0xbdcd8e48	-0.100369036
4	0xbdc2fb1e	-0.09520553
5	0x3dd48555	0.103769936
6	0x3d3e73df	0.046497222
7	0x3d0eb153	0.03483708
8	0x3d7daa3b	0.061929923
9	0xbdab64fb	-0.0836887
10	0xbd10e904	-0.03537847
11	0x3d630974	0.055428937
12	0xbc91b150	-0.017784745
13	0x3dbf9110	0.0935384
14	0x3d41acb9	0.04728386
15	0xbd48b665	-0.04900207
16	0xbdb7b741	-0.089705
17	0x3d0ce1fa	0.034395196
18	0xbcf2bad3	-0.0296301
19	0xb980838b	-0.0002451207
20	0x3d80cffb	0.06289669
21	0x3caca4f6	0.021074753
22	0x3d02ec17	0.031963434
23	0xbdbf3f65	-0.093382634
24	0xbd6062df	-0.05478179
25	0xbcabc34f	-0.020967154
26	0x3d83ad01	0.06429482
27	0xbcdabbf7	-0.026700957
28	0xbd6904f2	-0.05688948
29	0xbd97e299	-0.07416267
30	0x3be4c8f3	0.006981963
31	0xbc1f7d58	-0.009734474
32	0x3dc16356	0.09442775
33	0x3d6c7960	0.05773294
34	0x3ca68f97	0.02033214
35	0xbd677025	-0.056503434
36	0x3d327454	0.04356797
37	0x3da61c80	0.08110905
38	0x3dc58596	0.0964462
39	0x3d145a95	0.0362192
40	0xbd940c10	-0.07228863
41	0x3cdfcdf8	0.027319893
42	0x3d13aa44	0.03605105
43	0x3d8dc4bb	0.06922289
44	0xbda01238	-0.07815975
45	0x3da744f2	0.08167447
46	0xbdb5cfe1	-0.088775404
47	0x3d0d2a6b	0.03446428
48	0x3d4c2491	0.04983956
49	0x3d4b32a7	0.049608853
50	0xbb224bb6	-0.0024764366
51	0x3bb5cf2f	0.00554838
52	0xbdc535fd	-0.09629438
53	0xbd4c90d1	-0.049942795
54	0xbdc33d91	-0.09533227
55	0xbce11d7a	-0.027479876
56	0xbd1f95da	-0.03896127
57	0x3d9ed45d	0.07755349
58	0xbce85027	-0.028358532
59	0xbace3d9d	-0.0015734915
60	0x3c631a7c	0.013861295
61	0xbcaea148	-0.02131714
62	0xbdcd9e3b	-0.10039946
63	0xbc929e7d	-0.017897839
64	0x3d825f3f	0.06365823
65	0xbd9c059d	-0.07618258
66	0x3daa1045	0.083038844
67	0x3c8f1df1	0.017470332
68	0xbc81fe73	-0.015868401
69	0xbd392d5b	-0.04520927
70	0x3da35468	0.079750836
71	0xbdba387f	-0.09092807
72	0x3c670d99	0.014102363
73	0xbd68b221	-0.056810502
74	0xbd62c1ee	-0.055360727
75	0xbc0016f4	-0.007817972
76	0xbcc600d6	-0.02417032
77	0x3db7a216	0.08966462
78	0x3db3594a	0.08757265
79	0xbbdd3531	-0.0067507257
80	0x3d98d6dc	0.07462856
81	0xbdb87ac6	-0.09007792
82	0xbd679186	-0.056535266
83	0xbc1c6d8f	-0.009547605
84	0xbdc58176	-0.09643833
85	0xbd91f93b	-0.07127615
86	0xbd9bba09	-0.07603843
87	0x3d689278	0.05678031
88	0x3dd067d8	0.101760566
89	0x3dd86dd3	0.10567822
90	0xbd5f5480	-0.054523945
91	0xbaef43d3	-0.0018254466
92	0x3d6dd505	0.05806448
93	0x3da7389f	0.081650965
94	0x3c63bae5	0.01389954
95	0xbdc3fc5e	-0.095696196
96	0xbd7750c0	-0.060379744
97	0x3dbb05af	0.091319434
98	0xbdc4eccd	-0.09615479
99	0x3d02704e	0.031845383
100	0x3dadfb7c	0.084952325
101	0x3d51577e	0.05110883
102	0xbd48d1ae	-0.04902809
103	0x3d9cffbd	0.07665966
104	0x3db5a5e4	0.08869532
105	0x3ddb7ae8	0.10716802
106	0x3d43a823	0.04776777
107	0x3db67023	0.08908107
108	0xbd426980	-0.047463894
109	0x3db50a50	0.088398576
110	0xbd07695b	-0.03305946
111	0xbd86246c	-0.06549916
112	0x3c577dd6	0.01315256
113	0x3d4fcc90	0.050732195
114	0x3d8ac996	0.06776731
115	0xbc43dc3d	-0.011954364
116	0xbda79cf8	-0.08184236
117	0xbd0a5fbe	-0.033782713
118	0x3dc17125	0.09445409
119	0x3b3460cf	0.0027523523
120	0xbd1c6b11	-0.038188044
121	0xbd8a602f	-0.06756627
122	0x3c9e3595	0.01931266
123	0xbd886dfa	-0.06661601
124	0xbc024606	-0.007951265
125	0x3c53f00b	0.012935649
126	0xbdab7743	-0.08372357
127	0xbdcc1b5e	-0.099661574
128	0xbd03732d	-0.032092262
129	0x3c317ed4	0.010833461
130	0xbd56b560	-0.052419066
131	0x3dbc86a8	0.09205371
132	0xbd08033a	-0.033206202
133	0x3c3dcbc2	0.011584224
134	0x3cf9f823	0.030513829
135	0xbdb10341	-0.08643199
136	0xbda42cd0	-0.0801636
137	0xbda4db01	-0.08049584
138	0x3caeddb0	0.021345943
139	0xbd9e966e	-0.07743536
140	0xbc37468a	-0.011186251
141	0x3d85034e	0.06494771
142	0x3d98872d	0.07447658
143	0x3d9c54c4	0.07633355
144	0x3b7bc67c	0.0038417866
145	0x3cd29c4a	0.02570929
146	0xbd63f4a9	-0.055653248
147	0x3d605f89	0.05477861
148	0x3d90fca0	0.070794344
149	0x3ba62616	0.005070458
150	0xbca06d7e	-0.01958346
151	0x3da7238a	0.081610754
152	0x3d8f8f62	0.0700977
153	0xbd866438	-0.06562084
154	0xbd26e268	-0.04074326
155	0xbc15433f	-0.009110271
156	0xbc33fc58	-0.010985456
157	0x3dd3f4f6	0.10349457
158	0xbd86d8e4	-0.06584337
159	0x3d3b5f29	0.04574505
160	0x3d5582c3	0.052126657
161	0x3ce03522	0.027369086
162	0xbd925bc3	-0.071464084
163	0x3ccf799e	0.025326546
164	0x3d955952	0.07292427
165	0xbcde5d75	-0.027144173
166	0xbcd8af26	-0.026450705
167	0xbd904cab	-0.07045873
168	0x3da801ad	0.08203445
169	0x3da8ebe6	0.08248119
170	0xbdcec08e	-0.10095321
171	0x3db2dc07	0.08733373
172	0xbceab875	-0.02865241
173	0x3d9efa1d	0.07762549
174	0x3d28750f	0.04112726
175	0x3dd8ceb8	0.105863035
176	0x3c993c0e	0.018705394
177	0xbd47011b	-0.04858504
178	0x3da6ab7c	0.08138177
179	0x3dc5e570	0.09662902
180	0x3c2e77d2	0.010648685
181	0x3d748ea8	0.05970636
182	0x3bc4c3e3	0.006004797
183	0x3d042dde	0.032270305
184	0xbcc04ef0	-0.02347514
185	0xba33d89f	-0.0006860587
186	0xbd173608	-0.036916763
187	0xbd8d7c64	-0.06908491
188	0x3dba199a	0.09086914
189	0xbaad0571	-0.0013200474
190	0xbd0694ba	-0.03285668
191	0x3d2b9414	0.041889265
192	0xbd84ad28	-0.064783394
193	0x3cdb01eb	0.026734313
194	0xbd852346	-0.065008685
195	0xbcad4b86	-0.021154176
196	0x3c34305a	0.010997856
197	0xbd754e74	-0.05988927
198	0x3c8fb7b6	0.017543655
199	0xbd3b050d	-0.045659114
200	0x3d4eb2bb	0.05046342
201	0xbd83c7a9	-0.064345665
202	0x3d1fc27b	0.03900383
203	0x3dcc4809	0.09974677
204	0xbd99d5a9	-0.075114556
205	0x3ce91e0f	0.028456716
206	0x3d11444d	0.035465527
207	0x3d32bd0d	0.043637324
208	0xbd235982	-0.039880283
209	0xbdbdb866	-0.09263687
210	0x3ce715c9	0.02820863
211	0x3d9ddb83	0.07707884
212	0x3d7e9150	0.0621503
213	0x3d735abd	0.059412707
214	0xbdb44d16	-0.088037655
215	0x3d138093	0.03601129
216	0x3d5a9057	0.05336031
217	0x3d540280	0.051760197
218	0xbccec7ae	-0.0252417
219	0x3d63b62d	0.05559366
220	0xbd2b310a	-0.041794814
221	0x3b5bacc1	0.0033519717
222	0xbcda4983	-0.026646381
223	0xbdd2f41f	-0.10300469
224	0x3d5ff1c2	0.054673918
225	0x3c8d4ed7	0.017249508
226	0x3dae2a1e	0.08504127
227	0x3b7098cd	0.003671217
228	0xbdaefc3c	-0.08544204
229	0x3d57e093	0.052704405
230	0x3d79cf76	0.060988866
231	0x3d955b1b	0.072927676
232	0x3ca716f7	0.020396693
233	0x3d35b47c	0.044361576
234	0xbdb51653	-0.08842149
235	0x3dc231e8	0.09482175
236	0x3cec46e7	0.028842403
237	0xbd3d86db	-0.046271186
238	0x3d1d048c	0.038334414
239	0x3d3caf98	0.046065897
240	0xbd1a9242	-0.03773714
241	0xbd91ff5d	-0.07128785
242	0xbc6f662e	-0.014611764
243	0x3db1014a	0.08642824
244	0xbca79cc8	-0.020460501
245	0xba7375e6	-0.00092872826
246	0x3dabe8bc	0.08394
247	0x3daa635e	0.08319734
248	0xbb526454	-0.0032103257
249	0x3d952600	0.072826385
250	0xbc84c06e	-0.016205039
251	0x3da34d87	0.079737715
252	0xbd2ebff2	-0.042663522
253	0x3c903d26	0.017607283
254	0xbd9264a0	-0.07148099
255	0x3d498050	0.049194634

net.2.module.0.bias f4 [32]
0	0xbd22b354	-0.039721802
1	0x3d822422	0.06354548
2	0xbd073ed0	-0.033018887
3	0xbcbd9382	-0.023141626
4	0xbd408928	-0.047005802
5	0xbd79dd21	-0.0610019
6	0xbd91d6b2	-0.07121028
7	0xbd3e2af2	-0.046427675
8	0xbdb76568	-0.089548886
9	0xbda653b0	-0.08121431
10	0xbd9950ce	-0.074861154
11	0xbd09d236	-0.03364774
12	0xbbba1ee1	-0.0056799506
13	0x3d857f66	0.0651844
14	0x3d76a876	0.06021925
15	0xbb1e2500	-0.002413094
16	0x3db1c031	0.08679236
17	0xbcece1e3	-0.028916305
18	0xbdc35f49	-0.095396586
19	0xbd2d1d23	-0.042264115
20	0x3d277846	0.040886186
21	0x3da24318	0.07922953
22	0xbd9adbe6	-0.075614735
23	0x3d1a5b8d	0.037684966
24	0x3dc66ead	0.096890785
25	0x3da9302c	0.08261141
26	0xbda49a7e	-0.080372795
27	0x3d9a09f4	0.0752143
28	0x3d4f1795	0.0505596
29	0xbd8928de	-0.06697248
30	0x3d3bca38	0.045847148
31	0xbdbacb00	-0.091207504

net.3.module.0.weight f4 [32, 32, 3]
0	0x3d2afa1b	0.041742425
1	0xbd5d230f	-0.053988513
2	0xbdb2b1dd	-0.08725331
3	0xbd6391e4	-0.055559054
4	0xbd1aaf60	-0.037764907
5	0x3d31cc01	0.043407444
6	0x3d2e6e72	0.042585798
7	0x3dad1080	0.08450413
8	0xbcd88e59	-0.026435064
9	0x3daa6ece	0.083219156
10	0xbd9b3a35	-0.075794615
11	0xbdbb9a6a	-0.091603115
12	0xbd79011d	-0.060792077
13	0xbd633eb7	-0.05547973
14	0xbdb1e692	-0.08686556
15	0xbdc31926	-0.09526281
16	0xbd8ff79f	-0.07029652
17	0xbd03bd31	-0.03216285
18	0x3cee5cc2	0.029096965
19	0x3daddafa	0.08489032
20	0xbdbf5011	-0.09341443
21	0xbd536bc0	-0.05161643
22	0xbd1cb068	-0.03825417
23	0xbda067c8	-0.07832295
24	0xbd593e85	-0.05303814
25	0x3d830b60	0.06398654
26	0xbda2793f	-0.07933282
27	0xbd10981c	-0.035301313
28	0xbc9a666c	-0.018847667
29	0xbd88ae7d	-0.06673906
30	0x3c92d36a	0.017923076
31	0xbd85eaef	-0.06538951
32	0x3d973015	0.07382218
33	0x3c2c7dd5	0.010528048
34	0xbdad7293	-0.08469119
35	0x3c6902e0	0.014221877
36	0x3d1e5014	0.038650587
37	0x3c34195b	0.010992373
38	0xbcc5eb63	-0.024160093
39	0xbdafe824	-0.08589199
40	0x3d3d3d89	0.046201263
41	0xbd45f6a7	-0.04833093
42	0xbd9212be	-0.07132481
43	0x3d5fa9aa	0.054605164
44	0x3d373736	0.044730388
45	0x3c557137	0.013027481
46	0xbcf8fd99	-0.030394362
47	0x3c73a09c	0.014869835
48	0xbc8f97bc	-0.017528407
49	0x3db5c854	0.088761
50	0xbda953c4	-0.0826793
51	0x3dcdc2c5	0.10046915
52	0xbdb21c89	-0.08696849
53	0x3d01ba9e	0.031672113
54	0xbd76318c	-0.060105845
55	0xbdc02d46	-0.09383635
56	0x3a26628a	0.0006347081
57	0x3dc775d6	0.09739272
58	0x3d0fdb58	0.035121292
59	0xbcc63f5e	-0.024200138
60	0xbb8c2944	-0.00427738
61	0xbdb42b4b	-0.0879732
62	0xbd9ddc20	-0.07708001
63	0xbdb01f76	-0.08599751
64	0x3d863336	0.065527365
65	0xbc79e40e	-0.015252126
66	0x3da1a445	0.0789266
67	0xbc69ace1	-0.014262409
68	0x3bcba454	0.006214658
69	0xbd6c6d29	-0.05772129
70	0x3c900858	0.017582104
71	0x3cd54f58	0.02603881
72	0xbbd9da6c	-0.0066483524
73	0xbd696353	-0.05697949
74	0x3b1a387c	0.0023532202
75	0xbc989f64	-0.01863069
76	0x3d83da55	0.06438128
77	0x3d835fa8	0.06414729
78	0xbd42ce2b	-0.0475599
79	0xbd9fc20b	-0.07800683
80	0xbd069276	-0.03285452
81	0xbd8dbbd4	-0.06920591
82	0x3d29a472	0.041416593
83	0xbd7cf207	-0.061754253
84	0xbb3d84ed	-0.0028918341
85	0x3dbffd59	0.09374494
86	0xbd9c9ffa	-0.076477006
87	0xbdac1d42	-0.08404018
88	0xbcd10b02	-0.025517944
89	0x3b797ffe	0.0038070674
90	0x3d8688f0	0.065690875
91	0xbd5bd433	-0.053669166
92	0x3d565a14	0.052332
93	0x3d3209b3	0.04346628
94	0xbcb46d90	-0.0220249
95	0x3ca3fd73	0.020018315
96	0xbd590696	-0.052984796
97	0xbca00cba	-0.019537318
98	0x3cbab560	0.022791564
99	0x3d0918f9	0.03347108
100	0xbdacc044	-0.08435109
101	0x3d0ab830	0.03386706
102	0xbd0399e1	-0.032129172
103	0x3d78ae1e	0.060712926
104	0xbcce692c	-0.025196634
105	0x3dd504a1	0.104012735
106	0x3d3eff0e	0.046629958
107	0x3c94c3da	0.018159796
108	0xbd99aa86	-0.07503228
109	0xbdbaeffe	-0.09127806
110	0xbb81634c	-0.0039486047
111	0x3d6667e3	0.056251418
112	0xbd7a4b1e	-0.061106794
113	0x3c5ccded	0.013476831
114	0xbc471ac1	-0.012152375
115	0x3d9b9ff3	0.07598867
116	0xbdbefc41	-0.09325457
117	0xbd5c6770	-0.053809583
118	0xbd16056b	-0.03662626
119	0x3d898a47	0.067158274
120	0x3d94532c	0.07242426
121	0x3d3765c4	0.044774786
122	0x3c37c020	0.01121524
123	0x3dbaaf68	0.09115487
124	0xbd3045fd	-0.043035496
125	0xbcda1549	-0.026621478
126	0x3c8bbbcc	0.017057322
127	0xbc592f77	-0.013255945
128	0x3dc9b37a	0.098486856
129	0xbd3909ab	-0.045175236
130	0xbd39665e	-0.04526364
131	0xbd005e3f	-0.03133988
132	0x3c1f0910	0.0097067505
133	0xbdd245fc	-0.10267255
134	0x3d8cdfa5	0.06878594
135	0xbd65a6bf	-0.056067225
136	0xbd271247	-0.040788915
137	0xbc262944	-0.010141674
138	0xbd7f7289	-0.06236509
139	0xbd3334ce	-0.04375153
140	0xbd37e579	-0.044896577
141	0xbd274d56	-0.040845238
142	0x3d9e4e79	0.07729811
143	0xbd93e5ad	-0.072215416
144	0x3d96ad70	0.07357299
145	0x3dc1af8e	0.094573125
146	0x3dad0b51	0.08449424
147	0x3d8bb202	0.06821062
148	0x3d779f35	0.060454566
149	0x3d63e055	0.05563386
150	0xbc522ded	-0.012828332
151	0xbd066605	-0.032812137
152	0x3da4b443	0.08042195
153	0xbce2da78	-0.027692065
154	0x3c3f21e5	0.011665796
155	0xbca021e3	-0.019547408
156	0xbd1ca4b4	-0.03824301
157	0x3d7e6cda	0.062115528
158	0x3c01d879	0.007925146
159	0xbcaf1572	-0.02137253
160	0x3d3a9957	0.045556393
161	0xbc01707e	-0.007900355
162	0x3daa883e	0.083267674
163	0xbd022906	-0.031777404
164	0xbcd01d77	-0.025404675
165	0xbccabe34	-0.024748899
166	0x3d84f215	0.06491486
167	0x3d22c0e3	0.039734732
168	0xbc91c404	-0.017793663
169	0x3da96f37	0.08273166
170	0x3cd560ed	0.026047194
171	0x3d546940	0.051858187
172	0x3db1738c	0.08664617
173	0xba932d45	-0.0011228701
174	0xbdb77c89	-0.089593
175	0x3d6b7616	0.057485662
176	0xbd17404b	-0.03692655
177	0xbd9d3b35	-0.076773085
178	0x3c8be94e	0.017079022
179	0x3cb30849	0.021854537
180	0x3d8a2ab7	0.067464285
181	0x3bd4b40b	0.0064911894
182	0xbc86f834	-0.016475774
183	0xbdc835fd	-0.097759224
184	0x3da3886d	0.079850055
185	0x3d83b982	0.06431867
186	0xbd32c6b8	-0.043646544
187	0x3d34e465	0.044163126
188	0x3cce4572	0.025179598
189	0x3ceb266e	0.028704848
190	0xbdc3e8d6	-0.09565894
191	0x3db252da	0.08707209
192	0x3d991f0a	0.07476623
193	0x3cf86dd7	0.030325813
194	0x3d826026	0.06365995
195	0xbd0b3a1f	-0.033990975
196	0xbda150bd	-0.07876728
197	0x3d8d3607	0.068950705
198	0x3d25c7b2	0.040473647
199	0xbc32a96c	-0.010904651
200	0xbd4fd8d9	-0.05074391
201	0x3b344911	0.0027509371
202	0xbdcd5e02	-0.10027696
203	0x3d91743c	0.07102248
204	0xbd6d976f	-0.058005746
205	0xbc2b927a	-0.010471934
206	0xbc97065c	-0.01843565
207	0xbd1262f2	-0.035738893
208	0xbd025867	-0.03182259
209	0x3d974315	0.07385842
210	0xbd9b03c0	-0.07569075
211	0xbd2a84c5	-0.041630525
212	0x3d57c2b4	0.052675918
213	0x3cd7b850	0.026333004
214	0x3d1091af	0.035295185
215	0x3db96302	0.09052087
216	0x3dc027c9	0.093825884
217	0xbd759a22	-0.059961446
218	0xbd1ebe74	-0.03875585
219	0x3d1e6792	0.03867299
220	0xbc160497	-0.009156368
221	0xbd987c23	-0.07445552
222	0x3dad90e4	0.08474901
223	0x3ca450db	0.020058086
224	0xbd324d88	-0.04353097
225	0xbd2a9a88	-0.04165128
226	0xbd7ee368	-0.06222859
227	0xbdb65e66	-0.08904724
228	0x3dc4ebad	0.09615264
229	0x3c20210e	0.009773506
230	0x3d1d0856	0.038338028
231	0xbd7eabde	-0.062175624
232	0xbd636305	-0.055514354
233	0x3d573279	0.05253837
234	0x3d4f9430	0.050678432
235	0x3d8a40e8	0.06750661
236	0x3d60f686	0.054922603
237	0xbdb2f0d9	-0.08737344
238	0xbdadd707	-0.08488279
239	0x3cc3e02b	0.023910603
240	0xbda13e5f	-0.078732245
241	0x3dc7f505	0.09763531
242	0xbd97ce07	-0.074123435
243	0x3d075c90	0.03304726
244	0xbd4a9a35	-0.04946347
245	0x3dc84a14	0.09779754
246	0xbd9381b2	-0.07202472
247	0x3de56b87	0.1120215
248	0x3d83932e	0.06424557
249	0xb9eee01c	-0.00045561872
250	0x3dabbff7	0.08386224
251	0x3dde658b	0.108592115
252	0xbda3f342	-0.08005382
253	0x3db2c237	0.0872845
254	0x3dcb019e	0.09912418
255	0x3dc39b5f	0.09551119

net.3.module.0.bias f4 [32]
0	0x3cad5b1e	0.021161612
1	0x3d9de863	0.0771034
2	0x3d310858	0.043220848
3	0xbcd63510	-0.026148349
4	0xbb057595	-0.0020364274
5	0xbdca81d0	-0.09888041
6	0xbd4af0a1	-0.049545888
7	0x3d8b2000	0.06793213
8	0x3da10be8	0.07863599
9	0x3d51c415	0.05121239
10	0x3dc56a64	0.09639433
11	0x3d06abdf	0.032878753
12	0x3d2fc88d	0.04291587
13	0xbd92b132	-0.071627036
14	0x3dbbcb58	0.09169644
15	0xbdd16879	-0.10225005
16	0x3d0cf741	0.034415487
17	0xbdaf4399	-0.08557815
18	0xbd126af2	-0.035746522
19	0xbd7cd143	-0.061723005
20	0xbb8bf668	-0.0042713173
21	0xbcf74eda	-0.030188967
22	0x3cd63f4e	0.026153233
23	0x3d829c5f	0.06377482
24	0xbb6d3682	-0.003619582
25	0xbd2bca5b	-0.041941028
26	0x3b92b79e	0.0044774553
27	0x3dac81f6	0.084232256
28	0x3d4427c0	0.04788947
29	0xbd504154	-0.05084355
30	0x3dbae405	0.091255225
31	0x3dc66bb0	0.096885085

net.4.module.0.weight f4 [32, 32, 3]
0	0xbbaeeba8	-0.005338151
1	0xbd8ce254	-0.06879106
2	0x3d8c0f32	0.06838836
3	0x3d8a7247	0.06760078
4	0x3db2a951	0.08723701
5	0x3c077a25	0.008268868
6	0xbc4862dd	-0.012230602
7	0x3d9ad2e7	0.07559758
8	0xbb643e18	-0.003482705
9	0xbc657b7f	-0.014006495
10	0xbca479be	-0.020077582
11	0xbc594ed1	-0.01326342
12	0xbdbb5d83	-0.09148695
13	0x3bf6c15b	0.007530374
14	0x3d010976	0.031503163
15	0x3d7f7d64	0.06237544
16	0xbda1625c	-0.07880089
17	0x3d5aa771	0.05338234
18	0x3dbfc1a3	0.09363105
19	0xbdc2a668	-0.09504396
20	0x3d435b7e	0.047694676
21	0x3721b632	9.6387685e-06
22	0xbd58eee5	-0.052962203
23	0x3d536ce0	0.051617503
24	0x3d6a5226	0.05720725
25	0x3cf93aaf	0.03042349
26	0xbd98d925	-0.07463292
27	0xbd1a5a1a	-0.037683584
28	0xbdaf2b2f	-0.085531585
29	0x3a5418c4	0.00080908486
30	0xbda4f470	-0.08054435
31	0xbd7f95aa	-0.06239859
32	0x3de8faa0	0.11375928
33	0xbc7eb2d1	-0.015545563
34	0xbdb84ef3	-0.08999433
35	0x3c63cf22	0.013904365
36	0xbc059fdc	-0.008155789
37	0x3c6533f0	0.013989434
38	0x3cb4776e	0.022029605
39	0x3d352da0	0.044232965
40	0x3da16fff	0.0788269
41	0x3dc41fdd	0.0957639
42	0x3d248219	0.040163133
43	0x3da284d6	0.07935493
44	0xbd8ec4b4	-0.06971112
45	0xbd6f0ef1	-0.05836386
46	0xbd30868f	-0.043097075
47	0x3c9a0e4d	0.018805647
48	0xbd96ac19	-0.07357044
49	0xbd8c702b	-0.06857332
50	0xbd195ba9	-0.03744093
51	0x3d2b311a	0.041794874
52	0x3d9489f6	0.072528765
53	0x3c8d40df	0.017242847
54	0xbd34ede6	-0.04417219
55	0x3dbfdb43	0.09367993
56	0xbc8c59f6	-0.01713274
57	0xbd8c83d2	-0.0686108
58	0xbd0643e7	-0.0327796
59	0x3d9a4dcc	0.0753437
60	0xbd8534cf	-0.06504213
61	0xbd6f5fdb	-0.058441024
62	0xbd70a444	-0.058750406
63	0xbd85d5db	-0.0653493
64	0xbcc8546a	-0.024454314
65	0xbcbae253	-0.022812998
66	0x3c0d498b	0.008623491
67	0xbbc5cf32	-0.0060366625
68	0x395a21f8	0.00020802754
69	0x3d1dffa6	0.038573883
70	0x3d23b7b1	0.039970104
71	0x3afb5adf	0.0019176862
72	0x3da42967	0.08015709
73	0xbd4fdbdf	-0.050746795
74	0xbdca53ad	-0.09879241
75	0x3d70798a	0.05870966
76	0x3d2817b1	0.04103822
77	0xbdad1362	-0.084509626
78	0xbd3403c8	-0.04394892
79	0x3c2355fc	0.009969231
80	0xbcb8d10c	-0.022560619
81	0xbd768383	-0.060184013
82	0x3d036438	0.032077998
83	0xbd994cad	-0.07485328
84	0x3d50381a	0.050834753
85	0xbdae883f	-0.08522081
86	0xbc83ad8b	-0.016073963
87	0xbc58886a	-0.013216117
88	0x3c287c01	0.010283471
89	0xbd971970	-0.07377899
90	0xbc021e2a	-0.007941762
91	0x3c4c3b3c	0.012465294
92	0xbd22a120	-0.039704442
93	0xbd768ead	-0.06019466
94	0x3dcbfeba	0.099606946
95	0x3d92b0c9	0.07162625
96	0x3c9f560a	0.019450206
97	0xbd89610d	-0.06707964
98	0x3da64501	0.0811863
99	0xbd914830	-0.07093847
100	0xbd44a7de	-0.048011653
101	0x3d89b481	0.067238815
102	0xbd1b60cf	-0.03793412
103	0x3dd113fa	0.10208888
104	0xbdb8644e	-0.090035066
105	0x3dd710b0	0.1050123
106	0xbca05b6f	-0.019574849
107	0x3d397f14	0.045287207
108	0x3d86b6c4	0.065778285
109	0x3dcf91f5	0.10135261
110	0x3c52d705	0.012868647
111	0xbdb1312e	-0.086519584
112	0x3d36c78e	0.044623904
113	0x3dc37740	0.095442295
114	0xbd765712	-0.06014163
115	0x3c9e1b9b	0.019300273
116	0x3d7a42a6	0.061098717
117	0x3d91a326	0.07111196
118	0xbc8ff627	-0.01757343
119	0xbc252f70	-0.010082111
120	0xbc8fa337	-0.017533882
121	0x3cd7ba67	0.026334
122	0x3d37e666	0.04489746
123	0xbd57030f	-0.05249315
124	0xbcbbd0a6	-0.02292664
125	0x3db5477c	0.08851525
126	0x3d94f562	0.072733656
127	0x3d4fecb3	0.050762843
128	0xbd091da3	-0.03347553
129	0xbd5fd77b	-0.054648858
130	0x3cce69be	0.025196906
131	0x3d47f779	0.048819993
132	0x3d557828	0.052116543
133	0x3dcada48	0.09904915
134	0xbda4ca68	-0.080464184
135	0x3d8e61a6	0.06952219
136	0xb9d4fe01	-0.0004062504
137	0x3dbb54a0	0.09147
138	0x3bbcc43b	0.005760697
139	0x3d664472	0.05621762
140	0x3cef2306	0.029191505
141	0x3d80908e	0.062775716
142	0x3d4540b6	0.048157416
143	0x3dc66a6b	0.09688266
144	0x3daecd2c	0.08535227
145	0x3da75d56	0.08172099
146	0xbd9bfa19	-0.07616062
147	0x3dc80535	0.09766618
148	0xbd44502e	-0.047928028
149	0x3d9cbf02	0.07653619
150	0xbdcb2208	-0.099186
151	0xbd641a68	-0.055689245
152	0x3d506333	0.050875854
153	0x3ccf5bd3	0.02531234
154	0xbd70a893	-0.058754515
155	0xbc249636	-0.010045579
156	0xbc121a73	-0.008917439
157	0x3da03a5f	0.078236334
158	0x3da4b65c	0.08042595
159	0x3d053b41	0.032527212
160	0x3b87738d	0.004133648
161	0xbd993b4e	-0.074820146
162	0xbc9535fb	-0.018214216
163	0xbdae1bc9	-0.08501393
164	0xbd244a9a	-0.040110208
165	0x3d25a04b	0.04043607
166	0x3da2a40a	0.07941444
167	0xbd35a55d	-0.044347156
168	0x3d15a0dc	0.03653036
169	0x3c19cf76	0.009387841
170	0xbdb30dba	-0.087428525
171	0x3dab5ff9	0.08367915
172	0x3d48d864	0.04903449
173	0xbc4d11e2	-0.012516471
174	0xbdc92e78	-0.09823316
175	0x3d2a6e3a	0.041609026
176	0x3dc0f04a	0.094208315
177	0x3d91db6b	0.07121929
178	0xbd7a5ab6	-0.061121665
179	0xbcd6a969	-0.026203828
180	0xbd6d4b0c	-0.0579329
181	0x3dd43a3f	0.10362672
182	0xbd87da7b	-0.06633469
183	0x3c5e7e55	0.013579925
184	0x3dc48eea	0.09597571
185	0x3d2fec6d	0.042950083
186	0x3da961a4	0.082705766
187	0xbda2130f	-0.079137914
188	0x3cb2d2fd	0.021829123
189	0xbdb2292f	-0.086992614
190	0xbcff8fc1	-0.031196477
191	0xbcb58c57	-0.022161646
192	0xbd975f3a	-0.0739121
193	0x3b4ab699	0.003093159
194	0xbd985422	-0.07437922
195	0x3d8ec4db	0.06971141
196	0xbc9b91a3	-0.018990343
197	0x3c8eb14e	0.01741853
198	0x3dbc7c0b	0.09203347
199	0xbd721d65	-0.059110064
200	0xbdbdeabf	-0.0927329
201	0x3d09e5eb	0.033666532
202	0xbd6c332f	-0.057666
203	0x3d80a85c	0.06282112
204	0xbc6d0b74	-0.014468063
205	0xbd286854	-0.04111512
206	0x3b14ea15	0.0022722532
207	0x3dc0e495	0.094185986
208	0xbd6dba60	-0.05803907
209	0x3d9a5469	0.07535631
210	0x3d7d6356	0.061862312
211	0x3ccc065b	0.024905374
212	0xbbc3becc	-0.0059736725
213	0x3c1f74f2	0.009732472
214	0xbca00f37	-0.019538505
215	0xbdc03d2a	-0.09386666
216	0xbca1d713	-0.019755876
217	0xbc042581	-0.008065582
218	0xbdae793c	-0.08519217
219	0x3daf9ecc	0.0857521
220	0x3dc24b60	0.09487033
221	0xbbf2ecaf	-0.007413469
222	0x3dab3061	0.08358837
223	0xbdbfc969	-0.09364588
224	0xbc94a270	-0.018143862
225	0x3cf2507a	0.02957939
226	0x3d35f4fc	0.04442309
227	0x3d64b319	0.055834863
228	0x3db91abf	0.090383045
229	0xbcfb363c	-0.03066551
230	0xbd19b2ba	-0.037523963
231	0x3b901f1d	0.0043982402
232	0x3d8be971	0.06831635
233	0xbd27798b	-0.040887397
234	0xbd11fa65	-0.035639185
235	0x3d717e01	0.058958057
236	0xbdbb82e3	-0.09155824
237	0xbce86eea	-0.0283732
238	0x3d913a0d	0.070911504
239	0xbd6ba568	-0.05753079
240	0x3cd19829	0.02558525
241	0x3db9c327	0.090704255
242	0xbd685b09	-0.056727443
243	0xbd4c8941	-0.049935583
244	0x3c66b156	0.014080366
245	0xbd8a282a	-0.06745942
246	0xbd82ef14	-0.06393257
247	0x3dbf8819	0.093521304
248	0xbdbee95e	-0.09321855
249	0xbd2d4819	-0.042305086
250	0x3d17c96c	0.037057325
251	0xbd3cf70b	-0.046134036
252	0x3dbafb05	0.091299094
253	0x3b4b710d	0.0031042725
254	0x3d9e6f98	0.077361286
255	0x3ccfec26	0.025381159

net.4.module.0.bias f4 [32]
0	0x3cfb3cf7	0.030668719
1	0xbd037709	-0.032095943
2	0x3c1aecf4	0.009455908
3	0xbd8ff75a	-0.070296004
4	0x3cfca195	0.030838767
5	0x3dabb49a	0.083840564
6	0xbc445d7c	-0.011985179
7	0x3d26ce06	0.040723823
8	0xbd2c5d6d	-0.042081285
9	0x3bc2abb5	0.005940879
10	0x3dbed3d9	0.093177505
11	0x3c1276b0	0.00893943
12	0xbd97d6d6	-0.074140236
13	0x3d34a0ee	0.044098787
14	0x3d4f3e5e	0.050596587
15	0x3c9ca54a	0.019121785
16	0xbc12e657	-0.00896605
17	0x3dc61685	0.09672264
18	0x3d43185c	0.047630653
19	0x3cb2490d	0.021763349
20	0xbb91d50e	-0.004450447
21	0x3d81eaa7	0.063435845
22	0xbd7dbfd9	-0.06195054
23	0x3d2ce5b4	0.04221125
24	0x3d61907b	0.055069428
25	0x3d2839ba	0.041070677
26	0xbd80ed8a	-0.06295307
27	0x3d9289aa	0.071551636
28	0xbd8fd79c	-0.07023546
29	0x3883f74c	6.2926294e-05
30	0x3ca3f7b6	0.020015579
31	0x3da10c1b	0.07863637

net.5.weight f4 [8, 32, 3]
0	0xbdc66dcc	-0.09688911
1	0xbc5f2018	-0.013618492
2	0x3c8c7583	0.017145878
3	0x3db17b25	0.08666066
4	0xbbc441c2	-0.0059892843
5	0x3da5f79d	0.08103869
6	0x3d08e682	0.033422954
7	0x3d5e4309	0.05426315
8	0xbd956379	-0.072943635
9	0xbd62b240	-0.055345774
10	0xbc0f70f5	-0.008754958
11	0x3dbc2662	0.091870084
12	0xbd349003	-0.044082653
13	0xbd4258fa	-0.047448136
14	0xbd87cd05	-0.06630901
15	0xbd1a64c8	-0.03769377
16	0xbc69aed2	-0.014262872
17	0x3a6b915a	0.00089861976
18	0xbda52afb	-0.080648385
19	0x3c9c132e	0.019052114
20	0x3c9f0345	0.019410739
21	0xbd817bba	-0.06322427
22	0x3c8ac4da	0.01693957
23	0x3cbcfb93	0.023069179
24	0xbd9a07a5	-0.07520989
25	0x3d3a341f	0.045459863
26	0xbdca78d5	-0.09886328
27	0xbd61bd1e	-0.055111997
28	0xbd268cbc	-0.04066156
29	0x3da377ca	0.07981832
30	0xbd9cf996	-0.07664792
31	0xbd961624	-0.07328442
32	0xbda1e46b	-0.079048954
33	0xbbd74836	-0.0065698875
34	0x3dbab76b	0.091170155
35	0xbddce353	-0.10785546
36	0x3d5d4a97	0.054026213
37	0xbde00530	-0.109384894
38	0xbd1bf381	-0.03807402
39	0xbdadaa15	-0.08479706
40	0xbba04170	-0.0048906133
41	0xbd546f1c	-0.051863775
42	0x3d54ea30	0.05198115
43	0xbcf43b0b	-0.02981331
44	0xbd4232a2	-0.04741157
45	0xbda4c0c5	-0.0804458
46	0x3c19b051	0.009380416
47	0xbdb1ee29	-0.086880036
48	0x3d96c1bb	0.0736117
49	0xbd96531e	-0.07340072
50	0x3c9408d3	0.018070614
51	0x3be3f394	0.006956527
52	0x3da6de62	0.08147885
53	0xbd84fa93	-0.06493106
54	0x3dd24d5b	0.10268661
55	0x3dcd4a30	0.10023916
56	0x3dac7cf2	0.08422269
57	0x3d31c303	0.04339887
58	0xbd48d32f	-0.049029525
59	0x3d7353dc	0.059406146
60	0x3ddb2053	0.10699525
61	0xbd310af2	-0.04322333
62	0xbd7a7b39	-0.06115267
63	0xbdbf8e50	-0.09353316
64	0x3d25c8f2	0.04047484
65	0xbd2becb9	-0.041973803
66	0x3d819ac4	0.06328347
67	0xbd65e6d0	-0.056128323
68	0x3d3d8cea	0.046276964
69	0x3d6b534a	0.057452478
70	0x3d4e3d49	0.050351415
71	0xbdc29aaf	-0.0950216
72	0x3c641339	0.013920599
73	0xbcf86fe2	-0.030326787
74	0x3d0c437b	0.034244042
75	0x3d6fb7bf	0.058524843
76	0x3d5716d3	0.052512
77	0xbd903315	-0.07040993
78	0x3cab025a	0.020875145
79	0x3da44015	0.08020035
80	0x3dc9cce9	0.09853537
81	0xbd862507	-0.06550031
82	0xbd358dc6	-0.04432466
83	0xbd30ce0b	-0.043165248
84	0xbcfd4f3d	-0.030921573
85	0x3bfe4d84	0.0077607054
86	0x3b78f877	0.0037989893
87	0x3bb7c23d	0.005607872
88	0xbcc17ddb	-0.023619583
89	0xbd32c89f	-0.04364836
90	0xbc78f68f	-0.015195503
91	0x3ceb455b	0.028719595
92	0xbdaee9b6	-0.085406706
93	0x3d1cd6c7	0.038290765
94	0x3dcdb821	0.100448854
95	0x3d1fb4d9	0.03899083
96	0xbcb32952	-0.021870289
97	0xbd16b854	-0.036796883
98	0x3d89dff7	0.06732171
99	0xbdbe5cbd	-0.09295032
100	0xbb05e9ae	-0.0020433473
101	0x3d74f01f	0.05979931
102	0x3d7df1dd	0.061998237
103	0x3d80a469	0.06281359
104	0x3d6e39fa	0.05816076
105	0xbccee7cd	-0.025257016
106	0x3b8f14a1	0.004366473
107	0xbc81b1be	-0.015831824
108	0xbd1cd53a	-0.038289286
109	0x3d997b8d	0.074942686
110	0x3db25d23	0.08709171
111	0xbdb893fe	-0.09012602
112	0xbc07d92a	-0.008291522
113	0x3c610050	0.013732985
114	0xbdbb84cd	-0.09156189
115	0xbd9471f3	-0.072482966
116	0x3d3dcceb	0.046338003
117	0xbd712507	-0.058873203
118	0x3dad628f	0.08466064
119	0xbd58e89a	-0.0529562
120	0xbd694dfe	-0.056959145
121	0x3d50bf3b	0.05096362
122	0x3d90c452	0.07068695
123	0xbd9ae972	-0.075640574
124	0xbd523f3e	-0.051329844
125	0x3daf767e	0.085675225
126	0xbd5c8aaa	-0.053843178
127	0x3d814617	0.06312197
128	0x3d9ef1b7	0.07760947
129	0xbd3e757f	-0.04649877
130	0xbd7d0648	-0.06177357
131	0x3db5b521	0.08872438
132	0xbdd217fe	-0.102584824
133	0xbd6401f3	-0.05566592
134	0x3d8da382	0.06915952
135	0xbdb01243	-0.08597233
136	0xbd17203a	-0.036895968
137	0xbd2cd865	-0.042198557
138	0x3d30e2ee	0.043185167
139	0x3dbf718e	0.09347831
140	0xbda41024	-0.08010891
141	0xbd9286c8	-0.07154614
142	0xbc8a7780	-0.016902685
143	0xbc6d20a9	-0.014473119
144	0x3d609cd2	0.054837056
145	0xbd9b0797	-0.07569807
146	0xbcc99164	-0.02460546
147	0xbd87726d	-0.06613622
148	0xbd473d09	-0.048642192
149	0x3c3164e0	0.010827273
150	0xbd9293b5	-0.07157079
151	0xbb94b2bf	-0.0045379098
152	0xbbb9bd67	-0.0056683305
153	0xbb36f9a8	-0.0027919803
154	0x3d9af058	0.07565373
155	0x3bc19b65	0.005908417
156	0x3d932bf6	0.07186119
157	0xbbf989ba	-0.0076152952
158	0xbc51cf8d	-0.012805832
159	0xbd7e9273	-0.062151384
160	0x3d014f3e	0.031569712
161	0x3d24f1be	0.040269606
162	0x3bb5783d	0.005538015
163	0x3d6a530e	0.057208113
164	0xbcb12114	-0.021622218
165	0xbdb55f0e	-0.08856021
166	0x3c9c8e8c	0.01911094
167	0xbc2f0b1c	-0.010683801
168	0xbd44c901	-0.048043255
169	0xbda05e29	-0.078304596
170	0xbd1f7c51	-0.038936917
171	0x3b5182a7	0.0031968744
172	0x3c315f39	0.0108259255
173	0x3c416052	0.01180275
174	0x3cd00a76	0.025395613
175	0xbd4b92de	-0.04970061
176	0x3d86d721	0.06584001
177	0x3d3c042d	0.04590242
178	0xbd8780d7	-0.06616371
179	0xbbab7f0b	-0.0052336506
180	0x3d3666a7	0.04453149
181	0xbca36e31	-0.019950004
182	0xbd18f5c8	-0.03734377
183	0xbb55d0be	-0.003262564
184	0xbd1809a0	-0.037118554
185	0xbbfc1c16	-0.007693778
186	0x3cb459e4	0.02201552
187	0xbc98f094	-0.018669404
188	0xbc8c7b5b	-0.017148664
189	0xbd6db32f	-0.05803221
190	0x3dbc6666	0.091992185
191	0xbd770eb4	-0.060316756
192	0xbd9a6707	-0.07539182
193	0xbce64c2c	-0.028112493
194	0x3cfbf157	0.030754728
195	0x3c43336a	0.011914114
196	0xbdb5598f	-0.088549726
197	0x3d8622d7	0.06549614
198	0xbb80aabe	-0.003926604
199	0xbdc0b29c	-0.09409067
200	0x3dc36028	0.09539825
201	0x3d21a4c1	0.039463762
202	0xbdd9e657	-0.10639637
203	0x3d0f56c7	0.034994867
204	0x3b92a683	0.004475416
205	0xbd90ed22	-0.070764795
206	0xbcd4acb5	-0.02596126
207	0xbc9f642a	-0.019456942
208	0x3c414f78	0.011798732
209	0x3daff71a	0.08592053
210	0xbd39ff12	-0.04540927
211	0x3dc8f501	0.09812356
212	0xbc987324	-0.01860959
213	0x3d1cac45	0.038250227
214	0xbc94dbe8	-0.018171266
215	0xbdd9a103	-0.10626414
216	0xbd89c3d9	-0.06726808
217	0xbd86a736	-0.06574862
218	0xbd751a00	-0.05983925
219	0x3da2a0c7	0.07940822
220	0x3c5fc494	0.013657708
221	0x3d94b9fa	0.07262035
222	0xbb88f0b2	-0.0041790837
223	0x3dd7d9c6	0.10539584
224	0xbcebac8d	-0.028768802
225	0xbddca708	-0.10774046
226	0x3da25384	0.079260856
227	0x3d3bf902	0.04589177
228	0xbbb78bda	-0.0056013884
229	0xbdc3231c	-0.09528181
230	0x3d7a3369	0.061084185
231	0x3d8c16c2	0.06840278
232	0xbd3ebf37	-0.046569075
233	0xbb603f18	-0.0034217294
234	0xbd2930e4	-0.04130639
235	0xbda38ae0	-0.07985473
236	0xbcd155a1	-0.025553526
237	0x3d83523b	0.064121686
238	0xbbcaae3a	-0.00618532
239	0xbdd57abd	-0.10423801
240	0x3c4ebbf4	0.012618054
241	0xbdd45f0d	-0.10369692
242	0x3d8cabb9	0.06868691
243	0x3c527618	0.012845539
244	0x3d236c8c	0.03989844
245	0xbd073379	-0.033008073
246	0xbbca7adc	-0.0061791968
247	0xbd7d1564	-0.061787978
248	0xbd29aa56	-0.04142221
249	0xbd9a4f80	-0.07534695
250	0x3d506ebd	0.05088686
251	0xbcd8fdaf	-0.026488153
252	0x3d601db3	0.054715823
253	0x3dc4cd4b	0.09609469
254	0xbd9b6c77	-0.075890474
255	0x3d3942d1	0.045229737

net.5.bias f4 [8]
0	0x3c5a2a77	0.0133157885
1	0x3dc1a255	0.094547905
2	0xbaf90b24	-0.0019000513
3	0x3d7d023a	0.0617697
4	0x3c39cc79	0.011340254
5	0xbc09d8c8	-0.008413501
6	0xbcfd60d6	-0.030929964
7	0x3c94a610	0.018145591

exp_avg f4 [32, 120, 2]
0	0x378193e2	1.5446862e-05
1	0x37745ab2	1.456465e-05
2	0xb8e298bc	-0.00010804969
3	0xb8142ee4	-3.532962e-05
4	0xbadb543c	-0.0016733478
5	0xb85af04e	-5.219905e-05
6	0x3916b611	0.0001437294
7	0xb928cccc	-0.00016098021
8	0xba179846	-0.00057828834
9	0xb895decc	-7.146373e-05
10	0xb9850a53	-0.0002537543
11	0x39c3c7f0	0.00037342263
12	0xb79d46d6	-1.8748844e-05
13	0x38ce5b56	9.839858e-05
14	0x3823fbe0	3.9096805e-05
15	0x3a0b8ce2	0.00053234224
16	0x397e6ffd	0.00024265047
17	0xb906c5be	-0.000128529
18	0xb77305f0	-1.4485311e-05
19	0x37b422b9	2.1473841e-05
20	0xb96618ce	-0.0002194375
21	0x3a027a87	0.00049773644
22	0x39f2cae3	0.00046309
23	0xb8b505ec	-8.6318556e-05
24	0x36b214aa	5.307219e-06
25	0x3829225e	4.0324747e-05
26	0xba54d073	-0.00081182196
27	0xba5a0cbf	-0.00083179394
28	0xb96ebe3b	-0.00022768315
29	0x3913fbb6	0.00014112782
30	0x3ac2d63f	0.0014864876
31	0xbabf54ad	-0.0014597379
32	0x393379ed	0.00017116191
33	0x39942df5	0.00028263
34	0x388aa7c9	6.611605e-05
35	0xb79432ce	-1.7666633e-05
36	0x3a42a211	0.00074246625
37	0xb93f7dc2	-0.00018262028
38	0xb956c458	-0.00020481774
39	0x38b716c5	8.730361e-05
40	0x3a62ab41	0.00086467346
41	0x384f2448	4.9386435e-05
42	0x38d4dabf	0.000101496924
43	0x389afc25	7.390258e-05
44	0x384a2e61	4.8203747e-05
45	0x39921b0f	0.0002786745
46	0x3909792a	0.00013110475
47	0xb97485a7	-0.00023319443
48	0x39e608a3	0.00043875453
49	0xb9066ab0	-0.0001281898
50	0xb9b67737	-0.00034802567
51	0xb9d94c88	-0.00041446486
52	0x38e99075	0.00011137213
53	0x3880b4e3	6.1372084e-05
54	0x37044390	7.883544e-06
55	0x389f5c0e	7.598857e-05
56	0xb8372380	-4.3663662e-05
57	0xb76d7a7e	-1.4154821e-05
58	0xb9206985	-0.00015298098
59	0xb70ec110	-8.50881e-06
60	0x386b49d1	5.6097113e-05
61	0xb91f2739	-0.00015178033
62	0xb94c9a56	-0.0001951245
63	0xb833e092	-4.2886073e-05
64	0xb86c546f	-5.634542e-05
65	0x383c55f1	4.4902732e-05
66	0xb899ab4b	-7.327514e-05
67	0xb8996023	-7.3135154e-05
68	0xb9afea6e	-0.00033553265
69	0xb85ceb9b	-5.2671512e-05
70	0x38f36cfc	0.00011607443
71	0x389a6202	7.3615476e-05
72	0xb84d199a	-4.8899652e-05
73	0x38ceca5e	9.860539e-05
74	0xb7ef73a8	-2.8544877e-05
75	0xb7c1bee4	-2.3096283e-05
76	0xb79f01e6	-1.8955161e-05
77	0xb8252361	-3.9372015e-05
78	0x00000000	0.0
79	0x00000000	0.0
80	0x392fc72c	0.00016763498
81	0xb8b1d92a	-8.480468e-05
82	0x34b2fafc	3.33377e-07
83	0x3845d8f6	4.717052e-05
84	0xb844139a	-4.6748297e-05
85	0xb904b893	-0.0001265726
86	0x3a84b6d4	0.0010125288
87	0xb8cbe346	-9.722127e-05
88	0xb884c0fe	-6.330198e-05
89	0xb851e94d	-5.004676e-05
90	0xb826f64b	-3.9806862e-05
91	0x38af56f9	8.36085e-05
92	0x3a11a856	0.0005556395
93	0xb9194fdb	-0.00014620966
94	0xb8cefaa3	-9.86953e-05
95	0xb9393355	-0.00017662098
96	0xba820112	-0.0009918532
97	0xbacd4b07	-0.0015662619
98	0xb8aa1e35	-8.111858e-05
99	0x35a16b46	1.2026655e-06
100	0xb81e0ec9	-3.7683905e-05
101	0xb834f08d	-4.3139375e-05
102	0x3b9612b1	0.004579865
103	0xbb8617ce	-0.004092193
104	0xb91fc004	-0.00015234953
105	0xb960f19e	-0.00021452314
106	0xb81b5947	-3.7038026e-05
107	0xb96ca79a	-0.0002256915
108	0x3898e7a8	7.291074e-05
109	0x395c4630	0.00021006982
110	0xb808ff1b	-3.2662512e-05
111	0x396ddf2f	0.00022685224
112	0x37dc7080	2.627843e-05
113	0xb8860a72	-6.3915635e-05
114	0xb6dbd75d	-6.55178e-06
115	0x389d2f7b	7.495187e-05
116	0x38c774ef	9.51084e-05
117	0x38b07c4e	8.4154875e-05
118	0x392e7d44	0.00016640598
119	0x39b1440a	0.00033810764
120	0x38982f1e	7.256701e-05
121	0x399fee3e	0.00030504348
122	0x3695ca20	4.4640765e-06
123	0x37dbfc39	2.6224285e-05
124	0x3b516f00	0.003195703
125	0xba318e65	-0.00067732326
126	0x3975a024	0.00023424678
127	0x38f9e969	0.00011916721
128	0xb80ad81c	-3.310303e-05
129	0xb802dd1c	-3.120034e-05
130	0xb7ba0dab	-2.2179293e-05
131	0x3786a2c3	1.6049837e-05
132	0xb996b8b6	-0.0002874785
133	0xb7f96f2c	-2.9734882e-05
134	0x3a8b879e	0.0010645275
135	0x3a242c32	0.0006262689
136	0xb7ae0ed4	-2.0749321e-05
137	0xb822b893	-3.8795708e-05
138	0x399b7741	0.00029652755
139	0x3917ed59	0.00014488901
140	0xb97fd498	-0.00024397892
141	0xb913fd28	-0.0001411332
142	0xba0b48a8	-0.0005313256
143	0xbadc5f10	-0.0016812999
144	0x39869384	0.0002566838
145	0xb7d05ce3	-2.4838786e-05
146	0xb8640c8c	-5.437112e-05
147	0x37db4e5b	2.6143322e-05
148	0xb923545e	-0.0001557632
149	0x3802c311	3.1176085e-05
150	0x36e095f0	6.6931752e-06
151	0xb84d0d0b	-4.8887956e-05
152	0x3862c86f	5.4069267e-05
153	0xb77473a0	-1.4570454e-05
154	0xb918c054	-0.00014567497
155	0x3a07d1fb	0.0005181131
156	0xba9a871d	-0.0011789534
157	0x3b4175b0	0.002951961
158	0xb906fd8e	-0.00012873692
159	0x398b3258	0.00026549655
160	0xba2bf1aa	-0.0006559143
161	0xb84527c7	-4.7005506e-05
162	0xb93323cd	-0.00017084107
163	0xb64e42e7	-3.0735334e-06
164	0xb7b9249b	-2.2070764e-05
165	0x38b9799d	8.84414e-05
166	0x37d58420	2.5453104e-05
167	0xba1dde7e	-0.00060222286
168	0x380680a1	3.2067885e-05
169	0xb90a5b6c	-0.00013194763
170	0xb8ae0981	-8.298737e-05
171	0xb860d157	-5.3600725e-05
172	0x37ad79fa	2.0680007e-05
173	0xb9f494ec	-0.00046650262
174	0xb9c1622a	-0.00036884967
175	0xb9977326	-0.00028886757
176	0xba64e9c2	-0.00087323424
177	0xbacdc4ff	-0.0015698968
178	0x392bd3c9	0.00016386727
179	0xb8d810d0	-0.00010302814
180	0x37a1fcc2	1.9310395e-05
181	0x36889102	4.069997e-06
182	0xb79b8826	-1.8540839e-05
183	0x373f178e	1.1389971e-05
184	0x3a8d8b80	0.001079902
185	0xb829caf8	-4.048177e-05
186	0x389f6503	7.600526e-05
187	0x384f699a	4.9450995e-05
188	0x37f5c2dc	2.9297014e-05
189	0x390cd838	0.00013431988
190	0xb99a6cec	-0.00029454322
191	0x3a09e328	0.0005259984
192	0x38cd5228	9.7904645e-05
193	0x395d90f7	0.00021130206
194	0xbbe994a8	-0.007128317
195	0x395741ca	0.00020528506
196	0xb9ba454c	-0.00035528315
197	0xb931453d	-0.00016905829
198	0x38759a5f	5.855632e-05
199	0x3726610a	9.916965e-06
200	0xb79b359b	-1.8502402e-05
201	0xb96c7135	-0.00022548887
202	0x38b9c422	8.85802e-05
203	0x37b8da35	2.203612e-05
204	0x38a456da	7.836307e-05
205	0x394ebcae	0.0001971598
206	0x3801e24b	3.096675e-05
207	0xb883d3d2	-6.2860214e-05
208	0x3a02e606	0.00049933826
209	0x381c55e6	3.7273297e-05
210	0xb7120f59	-8.7058515e-06
211	0xb600f465	-1.9215743e-06
212	0x38f55f11	0.00011700218
213	0x39b842d5	0.0003514501
214	0xb88007d1	-6.1049715e-05
215	0x38b05987	8.40901e-05
216	0xb9387fe6	-0.00017595253
217	0xb991d185	-0.0002781266
218	0xb7151c74	-8.887717e-06
219	0xb93dd9d1	-0.00018105588
220	0x3b393eb3	0.0028266131
221	0xba9918f6	-0.0011680413
222	0xb9515707	-0.00019964213
223	0xba542244	-0.0008092264
224	0xb72c5de9	-1.0273864e-05
225	0x3930f81b	0.00016877094
226	0x38654820	5.4665026e-05
227	0x38bdfe6f	9.059614e-05
228	0xb79fc8dd	-1.9047811e-05
229	0xb926672d	-0.0001586943
230	0x38248c0b	3.9231072e-05
231	0x3b3c1a6a	0.0028702267
232	0xb912684f	-0.00013962503
233	0x3730cc5b	1.0537998e-05
234	0x395a4956	0.0002081742
235	0x399f126a	0.00030340563
236	0x38b17d67	8.463376e-05
237	0x391e5ca3	0.00015102564
238	0x3869f7a7	5.5782173e-05
239	0x3943c0a5	0.00018668415
240	0xb8111d65	-3.459807e-05
241	0xb8b2d9df	-8.528283e-05
242	0xb95c3d58	-0.00021003687
243	0x37e459a1	2.7221455e-05
244	0xbab04a75	-0.0013449924
245	0x3899ae3a	7.328061e-05
246	0xb91a9556	-0.00014742216
247	0xba056a16	-0.00050893554
248	0xba41458a	-0.0007372728
249	0x38ae104c	8.300002e-05
250	0xbb032ec6	-0.0020016893
251	0xba8095f9	-0.000981032
252	0xb9d601ee	-0.00040818698
253	0x38fa5a25	0.0001193772
254	0xba58a140	-0.0008263774
255	0xba0d2ffd	-0.0005385874
