data/Figure3_Supplement/033/checkpoint_0001500.pth (torch, 229762 bytes, 31 tensors)

net.0.weight f4 [32, 120, 2]
000000 ba 38 12 bd 56 a2 0f 3d 2a f6 f1 3b 32 33 45 bd
       -0.03569863 0.035066925 0.0073840814 -0.048144527
000010 6e 3d a2 bd 97 3b 12 bc 14 90 c0 bb d4 28 2a 3d
       -0.07921873 -0.00892534 -0.0058765505 0.041542843
000020 34 c3 f8 3c 96 bc be bc cb e0 6a bd 9f e5 bd bd
       0.030366518 -0.023283284 -0.057343286 -0.092723124
000030 5d 4a 60 bd 10 88 67 bd 00 34 82 bd d2 9f fa 3c
       -0.05475842 -0.056526244 -0.063575745 0.030593786
000040 bc 74 43 bd aa 94 70 bd 71 23 1c 3d 88 b5 8a 3d
       -0.04771875 -0.058735527 0.038119737 0.067729056
000050 b1 d6 a2 3a 13 7c 43 3d 35 d5 35 3d 04 94 25 bb
       0.0012423602 0.04772575 0.044392783 -0.0025265226
000060 ff 65 84 bd 09 25 3e bc 6f bf c1 ba 22 1c 66 bc
       -0.06464767 -0.01160551 -0.0014781783 -0.014044793
000070 17 fd 58 bd 1a 5a 8a bd b3 6c 85 bc 67 c9 fd bc
       -0.05297574 -0.06755467 -0.016287183 -0.030979825
000080 cb 45 56 bd 78 79 6c bc fb d0 95 bd 3a fc 24 3d
       -0.052312654 -0.014433257 -0.073152505 0.040279604
000090 44 44 d9 3c c0 ca dd ba 3a 26 68 3b 77 64 ab 3b
       0.02652181 -0.0016921386 0.0035423175 0.005230482
0000a0 2b 3b 2e 3d 7a 7c 03 3d 95 87 e8 bc 6b 4e 20 3c
       0.042536896 0.032101132 -0.028384963 0.009784321
0000b0 94 dc a1 3c 5f 01 ba bc e2 5b 4b bd 2d 1e c7 bd
       0.0197585 -0.022705732 -0.049648173 -0.097225524
0000c0 77 00 a7 bd b8 3d 16 bd 34 42 73 3d e9 c2 94 3d
       -0.081543855 -0.036679953 0.059389308 0.07263739
0000d0 4e 1e 32 bc 81 36 5a 3d 88 1d de 3c 01 95 b6 bd
       -0.010871483 0.053274635 0.027113691 -0.08915139
0000e0 0e 4b 1a 3d ac e1 3d bd 75 ae 76 3d 9c 55 d7 3c
       0.037669234 -0.046357796 0.06022497 0.026285939
0000f0 eb b9 03 bd 17 c6 b4 3d b9 78 92 bd 0b c8 24 bd
       -0.032159727 0.08826845 -0.07151932 -0.04022984
000100 90 16 86 3d 04 0f b6 3c bb 25 ea bc e3 4c 80 3d
       0.06547272 0.022223957 -0.028582444 0.06264665
000110 75 16 91 bc e3 29 61 bd 39 4e 0a bd 5e d5 85 3a
       -0.017710904 -0.054971587 -0.033766005 0.0010210683
000120 c4 24 16 3d 9b 00 c4 3d 28 39 1d 3d 2c cc f8 bd
       0.036656156 0.09570428 0.038384587 -0.12148318
000130 10 b7 96 3c c6 c9 c1 bc e1 3e 18 3d 23 cd 23 3d
       0.018397838 -0.023655783 0.03716934 0.039990555
000140 44 56 d1 bd d6 86 0a 3d a4 05 d5 bb 7a be 8b bd
       -0.10221532 0.033819996 -0.0065009166 -0.0682344
000150 ff b1 b7 bb 17 8c 86 bd 0f 7b 0e bd ba bc 95 bd
       -0.0056059356 -0.06569689 -0.034785327 -0.07311387
000160 d6 35 7b bd e9 19 9e bb 89 22 9e 3d 44 3a cf 3d
       -0.06133064 -0.004824866 0.07721431 0.10118535
000170 4a ac 85 bc 19 04 9f 3d 50 8f 2d 3c e9 6b a8 bc
       -0.016317505 0.077644534 0.01059325 -0.020559268
000180 a2 c5 4b bd 99 09 9b bd 52 b9 99 3c 0d f9 82 3c
       -0.049749024 -0.0757019 0.018765125 0.015987897
000190 63 5e 0c bc 3f 78 a6 bd 7d 75 2a 3d 43 03 2e 3d
       -0.008567425 -0.08128404 0.04161595 0.04248358
0001a0 1d d6 3b 3c 2d 47 d2 3a 8e 0f 8b bd d5 a8 03 3d
       0.011464623 0.001604294 -0.06790076 0.032143433
0001b0 a5 2f ed ba 9a 9f 8b 3b 66 ff 8b 3d a2 24 3f bc
       -0.0018095864 0.0042609693 0.06835823 -0.011666449
0001c0 40 03 44 3d af 45 87 bc 3d af ec bc a3 e9 12 bc
       0.047854662 -0.01651272 -0.028892154 -0.008966836
0001d0 d1 15 43 bd d8 36 80 3d 05 b6 78 3d 49 e9 d6 37
       -0.047628228 0.062604606 0.060720462 2.561942e-05
0001e0 12 2a c8 3c 3c 0a 87 bd cb ce 39 3d ed c4 f9 3d
       0.024434123 -0.06593749 0.04536323 0.12195764
0001f0 90 34 7e bc 2f db 69 bd c7 59 c0 3d 56 6d e9 bc
       -0.015515462 -0.057093795 0.09392124 -0.028494518
000200 0e b1 5a 3c 27 55 94 3c 23 43 1f bb d3 b5 e7 3c
       0.013347877 0.01810701 -0.0024301491 0.028284943
000210 81 c4 eb bc d1 11 04 bd 13 e9 c5 3c 55 88 4b 3d
       -0.028780224 -0.032243554 0.02415899 0.049690563
000220 e3 d8 aa 3d e2 15 ae bb 58 24 71 bd ec 98 0e bc
       0.08342149 -0.005312667 -0.05887255 -0.008703452
000230 16 62 79 3c 7a 0a e8 bb 24 47 68 3d 63 ce 0f 3a
       0.015221139 -0.007081327 0.05670847 0.0005485771
000240 60 d9 25 bd 20 eb 2c bd f0 31 1e 3d 26 82 94 bb
       -0.040490508 -0.04221642 0.038621843 -0.0045321165
000250 5f 3d 1c bc 5c e1 84 3d eb 34 42 3c 2a b7 d3 3b
       -0.009536116 0.064882964 0.011853437 0.006461044
000260 fa 04 cb 3d cf c1 11 3d 0f ab 9d bc 83 e9 b1 bc
       0.099130586 0.03558522 -0.019246606 -0.021717792
000270 53 b7 d2 39 bd 92 9f bc ae cd 2c 3d 9c a1 42 3d
       0.00040190908 -0.01947915 0.04218834 0.047517404
000280 7b 7b f4 3c 60 5c 4a 3d a6 1a 8a 3d a9 b3 54 3d
       0.029844036 0.049404502 0.06743364 0.05192915
000290 23 0f b9 3b 03 a2 09 3c 97 3f 85 bd 01 fe d1 bc
       0.0056475564 0.008400443 -0.065062694 -0.025633814
0002a0 91 35 f0 3c 1a 63 25 bd 69 be 8f bc b2 87 61 bd
       0.029322417 -0.040377714 -0.01754685 -0.05506105
0002b0 0b c5 ac bd df df 99 bd 66 11 15 3d 24 85 ab bc
       -0.084360205 -0.07513403 0.036393546 -0.02093751
0002c0 d4 d9 62 bc 6e fd 0c 3d a6 6c fe 3c 56 72 99 3d
       -0.01384588 0.034421377 0.031057667 0.07492511
0002d0 de 29 db 3b 95 4f a9 3d 16 08 2c 3c 46 76 ff bb
       0.0066883406 0.08267132 0.010499975 -0.0077960817
0002e0 24 9f 0f bd d1 16 e8 3a b9 fb 3e bc 5e f9 78 bd
       -0.035063878 0.0017706995 -0.011656695 -0.06078469
0002f0 fc 86 0c 3b 4d 91 09 bd 57 a5 23 3c e4 13 d9 bc
       0.0021442762 -0.033585835 0.009988151 -0.026498742
000300 d8 16 ef bc 0d 39 a3 bc a1 55 40 3c 1c cf 5f bd
       -0.029185697 -0.019924665 0.0117391655 -0.054640874
000310 56 50 78 3d 7b 0f 39 bc 8b 97 54 bd b7 5d 74 bd
       0.06062349 -0.011295195 -0.051902335 -0.059659686
000320 1f f3 58 3c 89 96 b4 3c 33 ac 35 3d e9 f6 25 bd
       0.013241558 0.022044437 0.044353675 -0.040518675
000330 63 8e 1b 3d b6 c2 ea 3b b1 f0 3b bd 9c 15 e5 3c
       0.037977587 0.0071643246 -0.045883838 0.027964406
000340 40 35 5a bd 72 2a 12 bd a4 b6 82 bb 3e 0f 23 bc
       -0.05327344 -0.03568501 -0.0039890576 -0.0099523645
000350 44 5b 28 3d 18 2a 5e 3c d5 53 0e bd b5 46 08 3d
       0.041102663 0.013559841 -0.034747917 0.033270556
000360 77 b4 0d 3d 97 c8 e4 bc 20 e1 14 3d 5e 0b 30 3c
       0.034595933 -0.02792768 0.03634751 0.010744898
000370 32 86 4a bd c7 04 30 3d c5 57 16 bd 82 8c ac bb
       -0.049444385 0.042973306 -0.036704797 -0.0052657733
000380 ca 25 20 bc 11 1f 14 3c 6d 7c 32 bd 2b 25 84 bd
       -0.009774635 0.00904061 -0.043575693 -0.06452402
000390 e4 0a 9b 3c 0d 58 30 3d ed 3c fe 3b 53 2c 69 bd
       0.018926091 0.04305272 0.0077587278 -0.056927036
0003a0 8c 8e 29 3b 74 e5 11 bd 7a 49 29 3d 91 c9 ec 3c
       0.0025872318 -0.035619214 0.04132984 0.028904708
0003b0 8b 5d e7 bc 31 c8 c0 3c b5 89 c9 bc ea a8 22 3d
       -0.028242847 0.023532959 -0.024601797 0.03971187
0003c0 ef 5a 2d 3c 5b be f5 3a 79 7a a4 3c 62 04 50 bd
       0.010580762 0.0018748747 0.02007793 -0.05078543
0003d0 89 b4 28 bd f0 7a f2 3c a1 4d eb bc 61 fa 46 3d
       -0.041187797 0.029599637 -0.02872354 0.048578624
0003e0 a3 39 9e 3b da 9c 86 bc db f2 18 bd f4 84 71 3c
       0.004828648 -0.016432215 -0.03734098 0.014741171
0003f0 d4 bc eb ba 15 91 ca bc 06 02 67 bd 56 f7 1c bc
       -0.0017985352 -0.024727384 -0.056398414 -0.009580454

net.0.bias f4 [32]
000000 2b 93 a3 bc c9 d3 95 3c 1d 72 02 bc 06 0d 5f 3d
       -0.019967636 0.018289464 -0.007961777 0.05445578
000010 59 ce 6f 3b 67 28 9e bb 5e 55 35 bd 01 3b 42 3d
       0.0036591499 -0.0048265937 -0.044270866 0.04741955
000020 84 1a 31 bd e7 0f cb bc 4e 8d 59 bd 7e 3a 1f bd
       -0.043238178 -0.024787856 -0.053113274 -0.038874142
000030 64 19 9f bc 67 37 41 3d 28 ba fc bb 5b b7 3c 3d
       -0.019421287 0.047171976 -0.0077126212 0.0460733
000040 45 85 19 bd ca f3 98 3b 10 a4 c9 3c b9 98 44 bd
       -0.03748061 0.004667734 0.024614364 -0.04799721
000050 2f 2c 47 bc 26 d3 d6 3c 35 dc d4 3c d1 47 4c 3d
       -0.01215653 0.02622373 0.02598391 0.049873177
000060 49 fa 76 bc fd 3f 16 bc 3e a3 16 3d a0 e6 3f 39
       -0.015074321 -0.009170529 0.036776774 0.00018301094
000070 4d da 54 bd 37 24 b9 3c 88 c4 36 3c 34 8a 3a 3d
       -0.051966 0.022600276 0.011155255 0.045541957

net.2.module.0.weight f4 [32, 32, 3]
000000 2f 57 38 3d 33 d8 a6 bd cd 8d 82 bd 69 20 69 bd
       0.04500502 -0.081467055 -0.063747026 -0.056915674
000010 84 d0 d0 3b 8f 7a a4 3d a0 a1 b8 3d ff c3 01 3d
       0.0063725132 0.08031189 0.090152025 0.031681057
000020 7a be 3f 3d 13 4e a5 3d b7 52 c9 3c a6 35 09 3d
       0.046812512 0.08071532 0.024575574 0.03349843
000030 62 ca f2 3c b7 68 a2 bd f3 f2 a9 bd 42 37 37 bd
       0.02963752 -0.07930129 -0.08298292 -0.044730432
000040 66 01 96 3c 73 0c f9 bc a0 eb cf bd 7a 88 c8 3c
       0.018311214 -0.030401444 -0.10152364 0.02447914
000050 98 77 8b bd d7 f7 d3 3b 1b 2b 0d bd a0 78 94 bd
       -0.0680992 0.006468754 -0.034464937 -0.0724957
000060 09 f6 f6 3c 21 3f 9b 3d fe 96 a8 bd 6a 58 be 3d
       0.030146616 0.075804 -0.082319245 0.092942074
000070 25 e4 4e 3d 68 89 d9 3d f0 1b 1a 3d da 9b 04 be
       0.050510544 0.10621911 0.0376243 -0.12950078
000080 63 e3 20 bd 69 da 6e 3d eb b1 cc 3d b9 ff 9d 3d
       -0.039279353 0.05831376 0.09994873 0.07714791
000090 a6 a7 92 bd 2c 55 06 3d 5c 9a b6 bd b2 8e 63 bc
       -0.07160883 0.03279607 -0.089161605 -0.013889002
0000a0 43 75 79 3c f6 15 50 bc 3d d2 69 3d f1 1b 69 3d
       0.015225711 -0.012700548 0.057085264 0.056911413
0000b0 da 75 b0 bd f2 49 ac 3d 46 f2 88 3d b2 9b 5f bd
       -0.086162284 0.084125414 0.06686835 -0.054591842
0000c0 f4 b3 4e 3b aa 7b 94 3d 9c 51 b8 bd ef cd 9d 3d
       0.0031540366 0.072501495 -0.08999941 0.07705294
0000d0 ca d9 d2 3c 79 64 ee bc 13 0d a8 3d 7c b6 af bd
       0.025738616 -0.029100643 0.08205619 -0.08579728
0000e0 6c 97 97 3c 48 08 6e 3c a6 85 49 3b b4 93 9b 3d
       0.01850482 0.014528342 0.0030749827 0.075965315
0000f0 13 24 d1 bd 6b 3e 01 3a 95 51 ef bb c9 08 8b bd
       -0.10211959 0.00049302605 -0.0073034265 -0.06788785
000100 f6 72 dc 3a 84 a1 f5 3c 8b f6 99 3d 18 5e b7 3c
       0.0016818929 0.029984243 0.075177275 0.022383735
000110 69 80 8e 3b c1 aa 8c 3d 51 cb a3 3d 00 a0 8a 3d
       0.004348804 0.06868506 0.07997764 0.06768799
000120 1f 24 48 3c a4 5b bb bd 25 e0 58 bd 21 40 f6 bc
       0.012215643 -0.091483384 -0.052948136 -0.030059876
000130 ad 0f f1 bd 34 cd ab bd be 82 82 3d 95 67 a1 bd
       -0.11770568 -0.08388749 0.06372593 -0.07881085
000140 3f f6 b4 3d d1 b2 78 3a 58 dc d3 3d 71 10 af ba
       0.0883603 0.0009487095 0.103447616 -0.001335634
000150 3b 91 f7 3c cd 28 c1 bc e3 df 07 bd 7b a3 ba bd
       0.030220618 -0.023579026 -0.0331725 -0.09113213
000160 e2 28 28 bd 32 55 7b 3d 7b 18 9b bc 54 c6 15 3d
       -0.041054614 0.061360545 -0.018932572 0.036566094
000170 0a cc f4 bc a9 cd 46 3c 71 2b 89 bc 90 76 06 bd
       -0.02988245 0.012133994 -0.016744347 -0.032827914
000180 1a db 8f 3d 3e 04 0a bd 85 ae 3c bc e8 e2 c7 3d
       0.07024212 -0.033695452 -0.011516218 0.09760076
000190 de e3 c1 3b c0 89 2e 3d 4e 7a c9 bd af e7 a8 bc
       0.0059170565 0.042611837 -0.09837781 -0.020618288
0001a0 48 80 89 bb ff 0f 20 3d bc f3 b6 bb 44 21 7f 3d
       -0.0041962005 0.039077755 -0.0055832546 0.062287584
0001b0 af ac b9 3d 80 88 fd bb c6 ff 91 3d f8 14 68 bd
       0.0906614 -0.0077372193 0.07128863 -0.056660622
0001c0 50 84 c9 3b 05 a6 b5 bd e2 40 f7 bc c1 70 94 bc
       0.006149806 -0.08869556 -0.030182306 -0.018120172
0001d0 3e e7 cc 3c d8 48 ae 3d 39 af eb bb 4e 60 d3 bd
       0.025012609 0.085099876 -0.007192519 -0.10321103
0001e0 16 0f 94 3d aa 7c c3 3d 52 76 6a bd a5 69 98 3d
       0.0722944 0.09545262 -0.057241745 0.07442025
0001f0 c7 d2 bc bd b9 d4 76 3d e9 d2 d1 bc 84 72 eb bb
       -0.0921989 0.060261462 -0.025613265 -0.007185282
000200 6e fc 17 be a6 61 04 3d d0 2e f7 bc 83 e6 5f bd
       -0.14842388 0.032319687 -0.03017369 -0.054663192
000210 89 96 5f 3d bb ab 86 3d c9 7e 90 bd f3 90 cd bd
       0.05458692 0.06575724 -0.07055432 -0.100374125
000220 00 0e 5a 3d c7 4f 19 3c dc 24 ae bd b1 03 a5 bd
       0.053236008 0.009357399 -0.08503124 -0.08057345
000230 90 22 db 3d b6 00 3f bd a4 05 85 3d f5 31 5c 3d
       0.10699952 -0.046631537 0.064952165 0.05375858
000240 cd 80 84 bd cb d4 d7 3b 73 af 9d bd 8e db 13 bc
       -0.06469879 0.006586646 -0.0769948 -0.009024514
000250 09 bd a8 bd 7e 92 65 bd 54 c3 1e 3c 22 2a 27 3d
       -0.082391806 -0.05604791 0.009690125 0.040811665
000260 3f e4 85 bd b4 6c 2a bc f0 40 20 bd 83 13 7e bd
       -0.06537675 -0.010401893 -0.03912443 -0.062030327
000270 1f 0c 6f 3d 48 4f 3b 3d 81 68 c2 bd 80 14 ee 3b
       0.05836117 0.045729905 -0.09492589 0.0072656274
000280 b2 f4 b4 bd 41 dd 0f bd ea 91 f0 bd 7f d3 bc 3d
       -0.088357344 -0.035123114 -0.11746581 0.09220027
000290 38 47 fb bb 84 be 0d bc c6 40 55 bd 80 6b bd 3d
       -0.007668402 -0.0086513795 -0.052063726 0.092490196
0002a0 0c 4c ab bd d5 20 51 3c f9 79 85 3d 54 31 ef bd
       -0.08364114 0.012764175 0.06517405 -0.116793305
0002b0 50 18 a9 bd 9f 58 10 3b 5c 64 59 bc 71 18 a5 3d
       -0.0825659 0.0022025479 -0.013268556 0.080613025
0002c0 67 79 f3 bd 1c 1c 94 bd e5 f1 08 3d 70 9d 01 bd
       -0.1188839 -0.07231924 0.033433814 -0.031644285
0002d0 ac 59 1c 3c 78 18 8b 3d ce d1 c8 bb d8 9e cc 3b
       0.009542864 0.067917764 -0.0061285263 0.0062445216
0002e0 c9 40 d3 bc ff cf 1d bd 52 ff ab bc 6b 0b ba 3d
       -0.025787728 -0.03852844 -0.02099577 0.09084209
0002f0 d0 c4 d1 bd 53 95 fd 3c 7e 25 45 3d 75 b0 af bd
       -0.10242617 0.030954992 0.04813146 -0.085785784
000300 52 aa 08 3d e4 b3 30 bd aa 69 9c 3d fd 7c 07 bd
       0.033365555 -0.043140307 0.07637341 -0.033078182
000310 6c 71 64 3c 0e 57 87 bd fd 2c 40 bd 58 61 e6 bc
       0.0139430575 -0.06608401 -0.046917904 -0.028122589
000320 63 bc ac bd 68 c4 6e 3d 59 55 5c 3d 3d 9e 14 3d
       -0.084343694 0.058292776 0.05379233 0.03628372
000330 4b 74 30 bd 4c 43 15 3d 05 78 96 3d 01 e1 5e bd
       -0.043079656 0.036441132 0.07347111 -0.0544138
000340 fd df 61 3d b3 e4 54 bc 04 6b aa 3c 28 ec f7 b9
       0.055145252 -0.012993979 0.020802982 -0.0004728746
000350 b7 69 d0 bd 3b 59 ac bd 99 42 b6 bd 6a b1 5b 3d
       -0.101764135 -0.08415457 -0.08899421 0.053635992
000360 de 44 91 bd f4 52 58 3d 3f 73 f0 bd c3 1a 19 3c
       -0.070932135 0.052813485 -0.117407314 0.009344759
000370 25 ad 42 bd 04 75 22 bc 83 5b c1 3d 98 e5 89 bd
       -0.047528405 -0.009915594 0.094412826 -0.06733245
000380 9f 6e 20 3c 8b e9 9e 3b a9 33 8a bd 0c f3 be 3c
       0.009791999 0.004849618 -0.06748135 0.023309253
000390 0f cc 08 3d 2f 5e be bd 71 42 8f 3b 2a 37 81 3a
       0.03339773 -0.09295308 0.004371934 0.0009858359
0003a0 f6 dd 7c bd 7a cf 33 bd 9c 99 3e bd ae 93 27 bd
       -0.061735116 -0.043899037 -0.046533212 -0.040912323
0003b0 2f 1c 7a bc 4a 8f af 3d 67 22 90 3d 89 d8 2a bd
       -0.015265509 0.08572252 0.07037812 -0.04171041
0003c0 5f 8b 0c 3d 6c 59 66 3d 0a bf dc bc 0a ba bf bd
       0.034312602 0.056237623 -0.026946563 -0.09361656
0003d0 d7 d1 19 bd 77 19 d1 3d 58 74 df bc 32 1d cc bd
       -0.037553634 0.10209935 -0.027277157 -0.09966506
0003e0 3d 21 ac bd 11 99 af 3d d4 70 37 bd 8a 4f 4e bd
       -0.08404777 0.08574117 -0.044785336 -0.050368823
0003f0 8f 61 81 bd c7 29 03 3d 77 dc 02 bb 74 96 54 3d
       -0.06317436 0.032022264 -0.0019967833 0.051901296

net.2.module.0.bias f4 [32]
000000 ec 70 42 3d 23 3f a3 bd c4 91 6b bd ab 98 17 3b
       0.047470972 -0.07971027 -0.05751206 0.0023131769
000010 81 9d 9b 3c 31 1e 4b 3d 93 27 a1 bc a9 ac 24 bd
       0.018996002 0.04958934 -0.01967219 -0.040203724
000020 7d d6 c8 bd d3 40 46 3d 11 1c ee 3c a4 31 9f 3d
       -0.098065354 0.048401665 0.029066117 0.0777314
000030 df fc c9 3d 5d 44 02 bd 5b 37 96 bd 11 43 c3 3c
       0.098626845 -0.031803478 -0.07334777 0.02383569
000040 01 fd b4 bd 04 8a 05 bd f6 01 7c 3c 33 1a ba bc
       -0.08837319 -0.032602325 0.015381327 -0.02271757
000050 1f 27 6e 3d 40 4c 9f bd cb 8f 6f bd 4d a5 82 bc
       0.058142778 -0.077782154 -0.05848674 -0.015947962
000060 0b b0 41 bd 49 89 94 3d 6f ec 07 bc 92 8b c0 3d
       -0.04728703 0.072527476 -0.008296116 0.09401621
000070 c6 c7 56 bd 71 24 bc bb 47 74 c1 bd 8a 49 b9 3c
       -0.052436613 -0.005741649 -0.09446006 0.022618074

net.3.module.0.weight f4 [32, 32, 3]
000000 05 c4 2a bd 2d e8 c7 bd eb 2d 3f bc 30 9d c4 bb
       -0.041690845 -0.09761081 -0.011668663 -0.0060001835
000010 46 52 99 bc 43 e9 47 bd a2 03 5c bd 11 82 50 bc
       -0.018715989 -0.04880644 -0.053714402 -0.012726323
000020 cd 96 ec bc 34 cf 40 bd 73 34 83 bd fd 36 32 bd
       -0.028880501 -0.047072604 -0.06406488 -0.043509472
000030 53 2c e4 3c bd 59 0b 3d b7 ae 99 3d 8d 7b 96 bd
       0.027853167 0.034021128 0.07504027 -0.07347784
000040 fa 34 ad bd e5 88 47 3c c7 9c 9e 3d 95 66 60 bd
       -0.0845737 0.012178634 0.07744747 -0.05478533
000050 41 35 9a 3c 1e 57 ac 3b c0 2c 57 3c 78 77 fe bc
       0.018824222 0.0052594086 0.013133228 -0.031062827
000060 ba 12 a1 3d fd fb 45 3d 40 a5 4c 3d 6a 6f 3f 3d
       0.078649 0.048336018 0.049962282 0.046737112
000070 42 ed e8 3c 7b 13 8f 3d 4b 5b 90 3c 4b e8 16 bd
       0.028433446 0.069861375 0.017621657 -0.036842626
000080 3a 0c 78 3c 44 72 9f 3d ae 0e a2 3d 41 c7 a3 3c
       0.015139634 0.07785466 0.07912956 0.019992473
000090 eb 96 cd bd 61 d5 f0 bb ad 4c 69 bd 6e 4c be bc
       -0.10038551 -0.0073496555 -0.05695789 -0.023229804
0000a0 4d 6c 6e 3d 6f ce 15 bc cb ad 1e bd 44 38 52 3c
       0.058208752 -0.009143456 -0.03873996 0.012830798
0000b0 f3 16 cf bd 7a e7 f4 3d cc 2c 97 3d 09 f0 c7 bc
       -0.10111799 0.11958213 0.07381591 -0.02440645
0000c0 64 99 3b 3d 53 e3 c9 bb 33 b7 d1 ba 4f 70 89 3d
       0.04580058 -0.0061611324 -0.0016000032 0.06710874
0000d0 2d e7 58 bd 52 f8 0c 3d ab 7e 88 3d 33 42 91 bd
       -0.05295484 0.034416504 0.06664785 -0.070927046
0000e0 39 29 78 bd b9 c5 49 3d 76 24 af bd 95 14 0a bc
       -0.060586188 0.04926083 -0.08551876 -0.008427759
0000f0 52 af aa bd ba f0 b1 3d c3 3e 0a bd 5d 93 9e 3d
       -0.08334221 0.08688493 -0.03375126 0.07742951
000100 e3 b3 26 bc 42 89 a4 3d 63 4e 13 bd 08 46 db bd
       -0.010174724 0.08033992 -0.035963427 -0.10706717
000110 16 c7 04 be 0d 45 bf bc 5f 0f 3c 3c ae 5e f4 3d
       -0.1296657 -0.023348356 0.011478274 0.11932121
000120 8d 46 e7 bd 4f 3f 7e bd be ea 6e 3c be 9b 4b 3b
       -0.11292753 -0.062072095 0.014582334 0.0031068171
000130 61 5c 55 3d 60 8a ba ba 1f e6 f9 3b 0b 9a a1 bd
       0.052090053 -0.0014231913 0.0076263095 -0.078907095
000140 e9 1b 65 bd 81 e1 39 3b d4 0d 51 bd 6e 11 d5 bb
       -0.05593482 0.002836317 -0.05103858 -0.006502322
000150 4a 7d 63 3d 06 5e 0d 3d 1d 97 74 3c 88 f9 af bc
       0.055539407 0.034513496 0.014928606 -0.02148129
000160 95 e0 12 bd f1 5a e9 3c 82 7f 68 bc d4 bf 27 3b
       -0.03585871 0.028485747 -0.0141905565 0.0025596516
000170 d6 5e 50 3c 21 68 ab bd 34 d8 02 3d 1d e6 62 3c
       0.012717923 -0.083694704 0.03194447 0.013848809
000180 bf b7 9c bd 0e 37 f0 bc e0 99 31 bd b7 af 04 bd
       -0.07652234 -0.029323127 -0.043359637 -0.032394137
000190 85 7b ce bb b8 0d 3c bd 59 9c 8f 3d db 34 1c bc
       -0.006301346 -0.04591152 0.07012243 -0.009534086
0001a0 fb b9 62 3d 44 ce cb bd ea 53 94 bd 1a 34 43 3d
       0.055353146 -0.099514514 -0.07242568 0.04765711
0001b0 c8 6f aa bc ca a2 09 bd c0 13 1f 3c f5 21 93 bd
       -0.020805255 -0.033602513 0.009709299 -0.07184211
0001c0 7b 81 91 3d 19 90 d7 bd e5 21 84 3d 7b 1e 8e 3d
       0.071047746 -0.10525531 0.06451777 0.069394074
0001d0 f2 67 b7 3d 0d b6 7c 3d a7 f2 36 bc 6f 81 f2 bb
       0.08955373 0.061697055 -0.011166251 -0.0074006836
0001e0 71 2f 23 3c e4 50 c6 3d fa f0 d6 3c d5 5e 4c bd
       0.009960041 0.096833974 0.026237953 -0.049895126
0001f0 f4 70 62 3c a7 a2 25 3d a0 c5 23 3d fb 8c 4b 3d
       0.013820875 0.04043832 0.03998339 0.049694996
000200 5a bc 0c 3d ab e9 09 bd d4 3e 45 3d 60 0d de 3c
       0.034359314 -0.03367011 0.04815562 0.027105987
000210 ea bf 05 be 34 05 c7 bd ab 73 76 bd 66 b3 e1 bd
       -0.1306149 -0.09717789 -0.060168903 -0.11020546
000220 9a 01 bd 3c bb 52 59 3d df c5 f8 bc 5b 6f 27 bd
       0.023072053 0.053057414 -0.03036779 -0.04087768
000230 c0 c5 0d bd a6 cf bb bd f7 bb a8 3d e9 64 87 3d
       -0.034612417 -0.09170465 0.082389764 0.06611044
000240 e0 ba 6a bb a2 18 6a 3d cd b4 4f 3d 3e f8 7b bd
       -0.0035816953 0.057152398 0.050709534 -0.06151604
000250 d5 9c 49 3d 11 d3 bc bc 0a 82 26 3d 2e cc e9 3d
       0.049221832 -0.023049863 0.04065136 0.11415897
000260 89 af 23 bd 81 ec 11 bd cf 24 d7 bb e3 95 ca ba
       -0.039962325 -0.03562594 -0.006565667 -0.0015456047
000270 ad 8d 0b 3d e0 55 a4 3d bc a7 4f 3d a9 36 53 bc
       0.03407066 0.08024192 0.050697073 -0.01289145
000280 df 48 8e bd 77 43 a9 3d e4 81 28 3d 92 51 c6 3c
       -0.06947493 0.08264821 0.0411395 0.024208818
000290 56 ca 61 bd ac fc 52 bd 5b 10 8e bd c0 a3 e2 bb
       -0.055124603 -0.051510498 -0.06936713 -0.006916493
0002a0 7e cd 02 bc d7 2e df 3b 80 d6 6a bd cb 1f d7 bc
       -0.0079835635 0.0068110037 -0.05733347 -0.026260277
0002b0 46 42 a0 bd cc 3a 3e 3c ef 47 9e 3d 0c 61 17 bd
       -0.07825141 0.011610698 0.07728564 -0.036957785
0002c0 81 1e 88 bd 41 cf c9 3d 0a 6a e4 3d 17 21 df 3b
       -0.06646443 0.09853984 0.11153038 0.0068093645
0002d0 70 ff 38 3d 8c a6 84 3d 3f 9d d7 3c 2f 9f 2b 3d
       0.04516548 0.06477079 0.026320098 0.041899856
0002e0 a5 f8 fc bc 2b 36 b8 bd 98 7c 5a 3c 69 ef e4 bb
       -0.030880282 -0.08994707 0.0133353695 -0.0069865477
0002f0 ea f6 92 3d dd f9 6d bc 0a cb 8e 3d cc f5 79 bd
       0.07176001 -0.014524904 0.069723204 -0.061025426
000300 49 bf ed bb 3f e4 f9 bc ae 3f b3 3d 00 de 8a 3d
       -0.007255469 -0.030504344 0.0875238 0.067806244
000310 2f 2c e9 3c 8c 32 01 3e 09 dd c1 3d 8a 98 ef bd
       0.028463451 0.12616938 0.09465987 -0.116990164
000320 ad 58 a9 bc c6 57 b2 3d e0 f8 69 3d 44 94 08 3d
       -0.020672167 0.08708148 0.05712211 0.033344522
000330 b8 f5 5c bb 1a 05 bd 3d 66 34 13 3d 6b d8 b2 bd
       -0.0033715796 0.09229489 0.035938643 -0.08732685
000340 69 1c 7d 3d 91 e5 10 be 8b df 67 bc 36 95 a3 3d
       0.061794672 -0.14150073 -0.014152418 0.07987444
000350 59 3e 8e bd d0 35 0c bd c8 27 bf bd 38 55 a4 bd
       -0.069454856 -0.034231007 -0.093337595 -0.08024067
000360 04 99 97 3b 3d 08 bb bd 57 97 28 3c b2 41 e4 bc
       0.004626395 -0.09132431 0.0102899885 -0.027863357
000370 83 97 46 bd ca 5d dd bd af 36 8c bd fd bc 32 3d
       -0.048484337 -0.108089045 -0.068463676 0.043637265
000380 0e 07 42 3d d4 6a bf bd 30 bb 90 3d 4d d4 b7 bc
       0.04737001 -0.09346548 0.07066953 -0.0224401
000390 e7 e2 d1 bd eb 1b ac 3d d1 fc 84 bd 69 f6 20 3d
       -0.10248356 0.084037624 -0.064935334 0.039297495
0003a0 df f9 c9 3d e7 34 0e bd 40 55 26 3d 8c f9 21 bc
       0.09862112 -0.03471842 0.040608644 -0.009886157
0003b0 1f eb 8c bd 8d ab 7f bd 85 44 8f bd 9d fa 89 3c
       -0.06880783 -0.062419463 -0.06995491 0.016843135
0003c0 8d 88 3f bd 59 46 ce 3c d6 62 2f bd 12 41 a8 bd
       -0.046761084 0.025180029 -0.042818867 -0.08215536
0003d0 87 72 30 bb af 40 d2 bc 8d 83 a5 3d 6f d8 23 3d
       -0.0026923732 -0.02566561 0.08081732 0.04000133
0003e0 d2 78 8c bd 90 4b 74 bc a3 f5 a1 bc 24 12 95 bd
       -0.06858982 -0.014910594 -0.019770449 -0.07278851
0003f0 06 f0 f5 bc eb 7c 03 3d 79 79 ed bc bc fe 99 bd
       -0.030021679 0.032101553 -0.028988587 -0.0751929

net.3.module.0.bias f4 [32]
000000 a8 8d 96 3b 79 f0 7d 3c fa e1 b1 bd 98 db 87 bd
       0.0045945235 0.015499228 -0.0868568 -0.06633681
000010 11 e9 aa 3d 0e 76 c2 3d 74 1f a0 3d fc e3 d1 3d
       0.08345235 0.094951734 0.07818499 0.10248563
000020 89 ac 2d 3c c7 53 87 3d 62 f9 ad bd a6 e9 14 bd
       0.010600218 0.06607776 -0.084948316 -0.036355637
000030 f0 5c 5f bd ed e9 5f bd 82 e8 98 bd 49 28 57 3b
       -0.05453199 -0.05466645 -0.07466222 0.0032830408
000040 d1 14 0f bd 34 36 a7 bd ab e0 5f bc 1d 84 b2 bc
       -0.03493196 -0.08164635 -0.013664405 -0.021791512
000050 08 ba 1b 3d 22 f7 77 bd 6d 03 a7 3d 5e 6c a4 bc
       0.03801921 -0.06053842 0.0815495 -0.020071205
000060 08 29 12 3d 6a 35 b6 bd 05 50 09 3d f6 76 3a 3d
       0.03568366 -0.08896907 0.03352358 0.045523606
000070 4c f5 bb 3d 3a 68 d0 bc 5c 65 a2 bc 4b d9 22 bd
       0.09177646 -0.025440324 -0.019823723 -0.039758008

net.4.module.0.weight f4 [32, 32, 3]
000000 7a bd 96 bd 39 8a 3c 3d d5 5c 37 3d 7a 3f 91 bd
       -0.073603585 0.046030257 0.044766266 -0.07092185
000010 02 93 a5 3d 57 8f c3 bb 5c fd 32 bd cf 7a 3a bd
       0.0808468 -0.005968015 -0.043698654 -0.045527276
000020 ac de 94 bd 35 ef 2c bd c2 f4 9f bd c5 ac c3 3c
       -0.07269034 -0.042220313 -0.07810356 0.023886094
000030 73 35 ab bd b2 35 4c bd ef 9b 76 3b 75 e5 46 3c
       -0.08359804 -0.049855895 0.0037629565 0.012139668
000040 7f 66 8d bd 56 d1 e2 3d dc b8 d2 bd 24 fa 95 bd
       -0.06904315 0.11075084 -0.102891654 -0.07323101
000050 c1 51 c1 bc d8 54 72 3d 9b d5 81 bd b0 00 46 3b
       -0.023598554 0.059162945 -0.0633957 0.0030212812
000060 10 cb 68 3d a3 dd c4 ba 56 98 22 3c be 37 86 bd
       0.05683428 -0.0015019666 0.009924015 -0.06553601
000070 0d a5 c7 3d 8b 2f 84 3c 89 7a 1a bd 35 ac 98 bd
       0.09748278 0.016135952 -0.037714515 -0.07454721
000080 4c 5f 31 bd 47 0c 15 bb 92 7d 49 bd 9f 58 a8 3d
       -0.043303773 -0.0022742914 -0.04919202 0.08220028
000090 6d ea c7 3c 44 0b 8d bc 73 b4 4f 3d 96 b8 9b 3c
       0.024403775 -0.017217286 0.0507092 0.019008916
0000a0 f3 26 1b 3d d6 5a 0a 3d c7 0a c9 bd 0e f3 85 bd
       0.03787894 0.033778034 -0.09816509 -0.065405
0000b0 fd dc 43 bc c9 33 84 3d 5d 91 24 3d 07 4a f4 bc
       -0.011954543 0.0645519 0.04017769 -0.029820455
0000c0 b1 16 31 bd a3 f9 61 3d db 6a 9c 3a cd aa 2d 3d
       -0.04323453 0.055169713 0.0011933701 0.042399216
0000d0 fb af e0 bc a4 76 97 bd 49 4e a7 bd 8c 01 ce bd
       -0.027427664 -0.07395676 -0.081692286 -0.10058889
0000e0 de af a3 3d cd e7 aa bd c2 40 82 bd fa a4 3c 3d
       0.079925284 -0.08344994 -0.06360008 0.04605577
0000f0 27 20 2f bd f4 5d d3 bd dc 05 68 bd 25 a5 bb bd
       -0.042755272 -0.103206545 -0.056646213 -0.09162358
000100 d5 0c 88 3a 60 d3 b8 3d ab 5d 91 3d be 96 0d bc
       0.0010379801 0.090246916 0.07097944 -0.008641897
000110 db 9f a5 bd ec 27 6f bd aa 58 c2 3d 3d 17 b8 3d
       -0.08087131 -0.05838768 0.094895676 0.08988807
000120 57 45 96 bc 4c 2c 1b 3d 64 da 24 bd c1 89 82 3d
       -0.01834361 0.03788404 -0.040247336 0.06373931
000130 fd 42 ef bd cc 21 4c bc d0 20 3a 3c 80 f8 b9 bd
       -0.11682699 -0.01245923 0.011360362 -0.09080601
000140 50 b0 e3 bd d4 6d c0 bd cc c8 d9 3d 3f 16 c4 3d
       -0.11117613 -0.09395948 0.10634002 0.095745556
000150 ab c5 8e 3d f0 32 bb bb 70 e5 3e 3d 45 0e b8 bc
       0.06971296 -0.0057128593 0.046605527 -0.022467742
000160 55 63 b5 3d fb 62 12 bd 31 14 03 3d 6f 79 b9 bb
       0.08856837 -0.035738926 0.032001678 -0.005660228
000170 34 c8 aa bc f0 64 de 3a ab e6 f4 3c 6b 67 9c 3d
       -0.020847417 0.0016967338 0.029895147 0.07636913
000180 c9 c9 d7 3a ec 96 7d 3c ec c6 38 bd d7 44 46 bd
       0.0016463335 0.015477877 -0.04511158 -0.048405495
000190 41 0a a8 bd 19 ac 8e bd 44 eb 04 3d 7a cb e5 bd
       -0.08205081 -0.06966419 0.03245093 -0.11220451
0001a0 d7 31 9d 3d cf a0 97 bd f3 b7 dd bb dd 5c d3 bc
       0.07675522 -0.07403719 -0.006766313 -0.025801117
0001b0 52 13 03 be 72 98 98 3d 2e 4f 96 bd cd ae 70 3c
       -0.12800339 0.07450952 -0.07339321 0.014690113
0001c0 c7 2b d2 bc 5e 2d a1 3d ea 72 87 3d 92 8f 37 bd
       -0.02565564 0.07869981 0.06613715 -0.044814654
0001d0 11 fa de 3d a6 49 85 3d 9c 71 92 bd 63 93 c0 bd
       0.1088754 0.06508188 -0.071505755 -0.09403112
0001e0 c5 10 b1 bd da 52 53 3d 7f fa 54 3d 37 b3 4e be
       -0.08645777 0.051592685 0.051996704 -0.20185553
0001f0 29 4d c0 bd b6 4d b2 ba 89 d3 eb bd 7f af 5d bd
       -0.09389717 -0.0013603482 -0.115149565 -0.054122444
000200 cd c2 4e bd 94 94 b6 3d 02 8f 76 3d 8a dd b0 bd
       -0.050478745 0.08915058 0.060194977 -0.08636005
000210 c5 59 03 ba 79 e3 83 3d 14 63 7e 3d 9a 2d 84 bd
       -0.000501063 0.06439871 0.062106207 -0.0645401
000220 8e 47 bb 3d 10 e1 5d 3d 7b 1e 93 bd be 00 b9 3d
       0.09144507 0.054169714 -0.07183548 0.09033345
000230 b3 50 9d 3d 45 6a 76 3d 7b 85 b6 bd 37 99 54 bd
       0.07681408 0.06015994 -0.08912178 -0.05190393
000240 db 7a d7 bd a7 f6 16 bd 20 21 3a bd 16 40 db bc
       -0.1052148 -0.03685632 -0.045441747 -0.026763957
000250 1b d0 7a 3d a7 c2 c1 bd ca 21 5d bd 7a 72 b6 bd
       0.06123362 -0.09460955 -0.053987302 -0.089085534
000260 e4 26 dd bc 6d 69 7d bd 18 f0 9d bd 32 f2 8f bd
       -0.026996084 -0.06186812 -0.0771181 -0.07028617
000270 4a f4 5f 3d 4b 7c 80 bd c2 bb 82 ba e4 5f fc 3c
       0.05467633 -0.06273707 -0.0009974169 0.030807443
000280 10 bf ca bd ec 7d e6 bd a2 ba 18 3e 2a 8b d2 bc
       -0.098997235 -0.112544864 0.14914945 -0.025701124
000290 1f 38 3f bd 9f f8 85 3d 27 3a 45 bd 89 04 67 bd
       -0.04668438 0.06541561 -0.04815116 -0.05640081
0002a0 00 67 ef 3d 75 af 3e 3a 63 21 c4 bd 88 32 b6 3d
       0.116895676 0.000727407 -0.095766805 0.08896357
0002b0 38 5f bf bd af da 7a bd f1 79 d0 3d 5c 04 a1 3d
       -0.093443334 -0.06124371 0.101795085 0.078621596
0002c0 8c 05 9a bd ad 68 c7 3d 5a 89 a9 3d 21 39 cb ba
       -0.07520589 0.09736762 0.08278151 -0.0015504697
0002d0 a7 8d 06 3d c7 ca 79 3d 0d 6d bf bd ec 0a 3a bd
       0.032849934 0.0609844 -0.09346972 -0.045420572
0002e0 7f 85 86 3d 9f cd 0a be 15 49 71 bd 79 76 d4 3c
       0.06568431 -0.13555 -0.058907587 0.025935398
0002f0 8d 7f 3d 3c a8 f3 b9 bd 28 01 9b bd f4 e2 ff 3c
       0.011566055 -0.09079677 -0.0756858 0.03123615
000300 49 76 07 bd a6 06 90 bd d6 af 91 3d a6 15 01 3e
       -0.03307179 -0.07032518 0.07113616 0.12605914
000310 b8 c0 d1 bb 93 0f 9b 3d 7b a5 3c 3d 6e 5d d0 bd
       -0.0064011477 0.0757133 0.046056252 -0.1017407
000320 56 e8 1e 3d f3 9d 4c 3d 71 99 9a bc 2a 06 1c bd
       0.03879579 0.04995532 -0.018871995 -0.038091816
000330 1b c2 1e be 08 0b 0b bd 6c a3 38 bd c8 a0 de bd
       -0.15503733 -0.033946067 -0.045077726 -0.1087051
000340 21 83 77 3c 28 b9 0c 3c 23 16 08 3c e8 b8 a0 3d
       0.015106947 0.008589067 0.008306059 0.07847768
000350 08 57 58 3d dc 14 c5 bd 93 00 11 3c da c1 1f bd
       0.052817374 -0.09623119 0.008850235 -0.03900323
000360 fb 59 22 3b cf 8c 81 bd aa 56 af bd 91 16 03 be
       0.002477287 -0.06325685 -0.08561452 -0.12801577
000370 1c 42 aa bd 19 76 a6 bd 3f 08 fc bc 3c ec 7b bc
       -0.083133906 -0.08127994 -0.03076565 -0.015376147
000380 79 ca e4 3d 03 e1 ad 3c 8a 98 a3 3d d6 ad 8b 3d
       0.11171431 0.021225458 0.07988079 0.06820266
000390 4c c8 00 3d 1d ec 2f bb 9e 50 53 bd 1d f5 28 bd
       0.031441018 -0.0026843615 -0.051590554 -0.041249383
0003a0 19 fe 39 bc 1a 45 bd 3d 06 63 c8 3d e2 25 85 3d
       -0.0113520855 0.09241696 0.09784512 0.06501366
0003b0 31 f6 d8 3c 37 e3 c0 bd 3a 73 ba bd ac 9a 22 b4
       0.02648458 -0.09418338 -0.09104009 -1.5143695e-07
0003c0 2e e5 1d 3d 62 7c 59 bd 18 96 b6 3c 5b 66 a8 bd
       0.03854864 -0.053097136 0.022288367 -0.08222648
0003d0 aa d2 c7 bd 5a 62 b0 bd b9 06 7b bd 1f 8f da bd
       -0.09756978 -0.08612509 -0.061285708 -0.106718294
0003e0 b5 ac 76 bd e7 d3 b1 bd 4e 1f 78 3d 3a 30 18 3c
       -0.0602233 -0.08682995 0.06057673 0.009288842
0003f0 96 2e 89 3c 28 c1 83 3d b7 e1 69 3c fd 6d b3 bd
       0.016745847 0.06433326 0.014275006 -0.08761213

net.4.module.0.bias f4 [32]
000000 68 60 aa bd ae 88 85 3d be 9d b8 bd 65 53 b9 bd
       -0.08319169 0.0652021 -0.09014462 -0.09049109
000010 cf bc 37 bc 5f 42 9a bd 39 5e ba 3a 8d 7f 02 3d
       -0.011214449 -0.075321905 0.0014218754 0.031859923
000020 04 fb 92 3b d8 72 6f bb b1 02 2b bc c1 b0 46 bd
       0.00448549 -0.0036536958 -0.010437653 -0.04850841
000030 54 bc b1 3d e0 68 98 bb f9 e5 6d 3d aa d5 05 3d
       0.08678499 -0.004651174 0.058080647 0.03267447
000040 a8 14 0e bd 26 d9 a4 3d 0b 74 83 bd 87 e5 19 3c
       -0.034687668 0.0804923 -0.06418618 0.0093931025
000050 36 da 9d 3d 2a 2b 97 3d 9f 26 95 bd 1d 65 2c 3d
       0.07707636 0.0738128 -0.07282757 0.042088617
000060 76 3c bd 3d e8 1e cb 3d 8f 0b 74 bb 0d bd 8f 3d
       0.09240048 0.09918004 -0.0037238335 0.070184804
000070 b0 79 91 3d b4 85 82 bc b7 04 b0 bd 61 3b fe 3c
       0.07103288 -0.015932895 -0.08594649 0.031034173

net.5.weight f4 [8, 32, 3]
000000 06 d7 5c bd 99 30 6c bd 2e 7b f4 3b 8f bd bd bd
       -0.053916 -0.057663534 0.007460973 -0.09264671
000010 e7 54 68 3c 80 16 6d bb 8a a1 ae bd 3b d4 8a 3d
       0.014180399 -0.003617674 -0.08526905 0.06778761
000020 98 62 f0 3c fd f2 ef bb 29 f8 ac bd b9 02 cb bd
       0.029343888 -0.0073226676 -0.0844577 -0.09912629
000030 27 9f 17 3d ca 6b 65 3d bc 41 13 3d e2 be aa 3c
       0.037017014 0.056011 0.03595136 0.020842973
000040 19 f2 31 bc 19 57 f2 3d a1 51 9d bc 7f 0f 5d 3d
       -0.010860943 0.11833019 -0.019203963 0.053969856
000050 5a d8 04 3e aa eb 9d bd 12 ed 54 3c b2 a5 35 bd
       0.12973157 -0.07710965 0.012995975 -0.044347472
000060 00 96 8c 3d c2 e5 94 3d 59 48 59 3d b1 ba c9 3c
       0.06864548 0.07270385 0.05304751 0.024625154
000070 a3 2f b9 bb a7 b3 d0 bd aa 56 c2 3d 33 54 9d bd
       -0.0056514307 -0.10190516 0.09489186 -0.07682075
000080 03 9a e6 bc d4 65 16 bd 4e ee a1 bc 02 5e 3a bc
       -0.02814961 -0.036718205 -0.019766953 -0.011374952
000090 6e a1 b5 3d 0d 05 52 3d 29 52 e3 3c a9 63 66 3d
       0.08868681 0.051274348 0.027749138 0.056247387
0000a0 13 9d af bd c5 63 bd 3c d4 35 df bd 09 7b b7 3d
       -0.085748814 0.023118863 -0.10898939 0.08959014
0000b0 5e 9f 87 3d 2e 6e b3 3c 20 ed 5e 3c 05 e6 46 3d
       0.06622194 0.021903124 0.01360634 0.048559207
0000c0 07 fd d6 3d 4f 77 99 bd 77 c0 6c 3d 71 e6 31 bd
       0.1049748 -0.074934594 0.057800736 -0.043432657
0000d0 62 72 23 3d 26 c0 9b bd 6c dd 99 3c 11 57 23 3c
       0.039904006 -0.07605009 0.01878234 0.009969489
0000e0 cf 01 f6 3d 2b 8c c8 3c 7c 4c 18 bd fd 25 5c 3d
       0.12012064 0.0244809 -0.037182316 0.053747166
0000f0 da 68 02 3e 8b ca d0 3d 0c 5a 62 3c 8d 5f c1 3b
       0.1273531 0.10194882 0.013815414 0.005901283
000100 ee 59 8b bd 7f 82 20 3d 3c 07 89 bc ae bd 4a 3d
       -0.06804262 0.03918695 -0.016727082 0.0494973
000110 ab 75 12 bd 02 37 91 3c e8 3f 11 3d e3 49 c0 bc
       -0.03575675 0.017726425 0.035461336 -0.023472732
000120 b2 f1 a3 bd a2 40 71 bd c6 c7 66 bd 9b 7b ab bd
       -0.08005084 -0.05889953 -0.056342863 -0.08373185
000130 a8 54 56 3c c2 61 38 3d 7c e6 b1 bd ae f8 a6 bd
       0.013081707 0.045015104 -0.086865395 -0.08152901
000140 4e 2d 66 3d 96 ba e5 bd 0f e1 e4 bc fe 0d 41 3d
       0.05619555 -0.11217229 -0.027939348 0.047132485
000150 36 5b 36 bd bb fe 3b 3d e4 04 49 3d 13 9d c7 bc
       -0.04452058 0.045897227 0.04907693 -0.024366891
000160 70 ca 0a 3d 54 46 44 bd 52 17 2a bc e5 70 6d 3d
       0.033884466 -0.047918633 -0.010381537 0.057968993
000170 ad 90 ac 3d 34 19 5f 3d 40 44 9b 3c 7e 5b ab 3d
       0.08426032 0.054467395 0.018953443 0.0836706
000180 92 9a 59 3b bc 0b 94 bd 12 5b a7 3b cc 90 d0 bc
       0.0033203703 -0.07228801 0.005107292 -0.02545967
000190 d2 a8 62 3d 17 9b bd bd 43 8f a4 3d b7 92 34 3d
       0.05533678 -0.09258097 0.080351375 0.04408523
0001a0 ac 4d be 3d 03 be 2d bd 85 11 b7 3d 66 bd 87 bd
       0.092921585 -0.042417537 0.089388885 -0.06627922
0001b0 43 26 8b bd 2a 62 9c 3d c4 91 20 bd c2 92 55 bd
       -0.06794407 0.07635911 -0.039201513 -0.052141912
0001c0 37 4f 00 3d 7b b4 27 bd da d2 80 bd 90 c9 cc bc
       0.031325545 -0.040943604 -0.06290217 -0.024998456
0001d0 90 00 94 bd e8 69 64 3c 53 e2 7a 3d b5 c8 aa 3d
       -0.0722667 0.013941266 0.061250996 0.08339063
0001e0 db 43 ba bd a1 3b 99 3b f3 65 f3 bd af 09 9d bd
       -0.09094974 0.004676298 -0.1188468 -0.076678626
0001f0 12 94 92 bd 09 c6 5f 3d a3 d9 ae 39 ea 40 9a bd
       -0.071571484 0.05463222 0.00033350018 -0.075319126
000200 38 01 ea 3c 85 97 08 bd e9 13 30 ba af e4 e1 3d
       0.028565034 -0.033347625 -0.0006716834 0.11029946
000210 b8 c2 98 3a 2f ab 51 bd d8 fa 80 3d 26 d5 a1 bb
       0.001165471 -0.051188644 0.06297845 -0.0049387394
000220 ef 47 d3 bd 36 08 1c bc 86 9a 08 bd 32 0c 4a 3c
       -0.103164546 -0.009523442 -0.03335049 0.012332009
000230 01 29 ed 3c db da c7 3c a0 d2 05 3c e8 f1 9d 3d
       0.028950216 0.02439635 0.008167893 0.077121556
000240 ff 55 ba 3d 7f 04 2f bd 11 06 c7 bd cc 80 ca 3d
       0.09098434 -0.042728897 -0.09717954 0.09887847
000250 76 75 32 bc 31 07 a5 bc 53 46 a2 3c 44 63 74 bd
       -0.010892263 -0.02014503 0.019808924 -0.05966498
000260 d4 de aa bb 99 4a 98 bd 6f e0 d2 bd 05 b2 d1 bd
       -0.0052145515 -0.074361034 -0.102967136 -0.10239033
000270 37 e9 94 bd a8 62 9f 3d c6 27 c0 bd 38 fe d6 3d
       -0.07271045 0.07782489 -0.09382586 0.10497707
000280 61 e7 1f bd 5e 10 24 bd 66 92 1c bd 35 25 d2 bd
       -0.03903902 -0.04005467 -0.038225554 -0.10261003
000290 9f fb d6 bc ba 00 88 bc 94 3d ab 3b 76 38 0f 3d
       -0.02624303 -0.016601909 0.0052258465 0.034965955
0002a0 3c 75 4c 3d 79 9f 94 bd 1e 9c f4 bb 9e 24 06 bd
       0.04991649 -0.072569795 -0.0074648997 -0.032749765
0002b0 29 2d aa bc 04 f6 8a bd 42 e9 52 3d ab bb c7 bd
       -0.020773487 -0.06785205 0.051491983 -0.09752592
0002c0 90 1b f6 3c 1c 07 e9 3d ce 06 af bc 23 75 54 3d
       0.03004244 0.11378309 -0.02136555 0.051869523
0002d0 8c 7a 2c bd c6 99 5f 3d 19 41 10 bd 36 e8 ef bd
       -0.042109057 0.05459001 -0.035218332 -0.117142126
0002e0 6d 34 ba bd e7 67 f7 3c d8 a1 8c bd d7 34 16 bb
       -0.09092031 0.030200912 -0.06866807 -0.0022919679
0002f0 bf 04 ec 3c 23 17 e7 bd 96 39 6d 3d 07 6d 58 bd
       0.028810857 -0.1128371 0.057916246 -0.05283835
000300 1e cc 82 3d 12 f8 79 bd 6b a9 0b bd ce 31 4c 3d
       0.063865885 -0.061027594 -0.034097116 0.049852185
000310 55 4f 97 3b 29 84 b6 bd 9d db 9e 3d e0 bd 86 3d
       0.0046176114 -0.08911926 0.07756732 0.065791845
000320 4f 05 86 3d 3c 63 f8 3b e8 45 12 3c e4 f2 a1 bd
       0.06543981 0.007580189 0.0089278 -0.07907656
000330 48 d6 f8 bd 27 09 ea bd cd 4a a2 bd 17 d9 ca bd
       -0.12150246 -0.11427527 -0.07924423 -0.09904688
000340 12 95 c8 bd db c9 ac 3c 39 cb ac bd 00 91 b6 3d
       -0.09794058 0.021092346 -0.08437199 0.08914375
000350 26 02 99 bd 45 f8 1b 3d 81 1c ad 3d 6c 85 be bb
       -0.07471113 0.038078565 0.08452702 -0.005814245
000360 7a d6 9a bd d9 69 d5 3b f6 ae c2 bc e8 e4 f9 bd
       -0.075604394 0.006512862 -0.023765069 -0.122018635
000370 58 7f 83 3c 12 12 18 3b 6e 90 e8 3c 88 b9 4c 3d
       0.016051933 0.002320413 0.028389182 0.049981624
000380 1d 29 5b bd 02 b1 4a 3d 93 90 b3 3d 51 9f a9 3d
       -0.053506006 0.049485214 0.0876781 0.0828234
000390 37 e0 64 bd dc d3 cb 3c c2 d8 58 bd 71 d1 aa bd
       -0.05587789 0.024881296 -0.05294109 -0.08340729
0003a0 17 63 20 3d 3d 90 59 bb 3a f6 df 3c 54 5a 81 bd
       0.039157 -0.0033197545 0.02733909 -0.06316057
0003b0 fc 99 b2 bc 3c 97 96 3d da 5b 70 3c f0 2a 8d bc
       -0.021801941 0.073530644 0.014670337 -0.017232388
0003c0 bf 5e 88 bb f7 32 72 3c 53 74 e7 bd d9 6f 34 3d
       -0.0041616852 0.014782659 -0.11301484 0.04405198
0003d0 fe 1b 01 3d 39 9f 5b 3d 57 eb 3e bd 13 07 bb 3c
       0.031520836 0.053618643 -0.046611156 0.022830522
0003e0 53 7d 46 bd 33 3a 6f 3d 80 2b 98 3d 06 b9 f6 bd
       -0.048459362 0.058405112 0.07430172 -0.12047009
0003f0 6d 1d 39 3d 71 21 8d 3d 7a 74 f8 bc d9 d6 c2 bd
       0.04519408 0.06891144 -0.030328978 -0.09513635

net.5.bias f4 [8]
000000 c8 97 ac bb 5e 41 27 bc 23 7e 96 ba bb fb 4a 3d
       -0.005267117 -0.010208456 -0.0011481683 0.049556475
000010 f6 41 4f bc 51 f4 7d 3d 22 87 9e 3c 74 a6 62 3d
       -0.012650004 0.062000576 0.019351546 0.055334523

exp_avg f4 [32, 120, 2]
000000 7f d7 7e b8 2e 28 74 b7 db 81 19 b9 e6 53 cc 38
       -6.0759015e-05 -1.4552888e-05 -0.00014639592 9.743105e-05
000010 6e 0f 44 39 97 0a 70 b8 fe 7e c2 39 45 c2 51 ba
       0.00018697765 -5.723032e-05 0.0003709718 -0.00080016657
000020 2a 14 42 39 cb 76 34 39 7f 56 4d b9 ef 01 a1 b9
       0.00018508793 0.00017210392 -0.00019582546 -0.00030709754
000030 27 28 f3 b7 d9 bb 8c 38 05 47 4b ba d9 47 64 ba
       -2.8986555e-05 6.7107096e-05 -0.0007754418 -0.0008708216
000040 47 39 c1 b6 30 93 4a 37 7e 40 68 b7 02 0a 72 36
       -5.758516e-06 1.2074408e-05 -1.3843293e-05 3.6066635e-06
000050 26 19 4e ba 7e 64 70 ba 0b d3 9c b9 ba 41 0f b8
       -0.0007862024 -0.0009170248 -0.00029911878 -3.415507e-05
000060 ed cf 0c b8 c1 ad b6 36 25 90 d5 39 bc 97 53 ba
       -3.3572247e-05 5.4442503e-06 0.00040733922 -0.00080716214
000070 5f c5 02 ba 84 4b 3b b9 90 05 f2 b9 91 04 61 ba
       -0.0004988517 -0.00017861841 -0.0004616198 -0.00085837493
000080 24 f5 89 37 57 96 47 39 07 d4 86 b8 17 bb 19 b9
       1.6445825e-05 0.00019034125 -6.429111e-05 -0.00014660913
000090 7e fb 18 bb f6 2b a9 ba 05 39 6b 39 e8 14 89 38
       -0.002334326 -0.0012906778 0.00022432588 6.536563e-05
0000a0 ac d8 74 b9 3b ad 8f b8 bb b5 ef b8 68 85 3e b8
       -0.0002335037 -6.851038e-05 -0.00011430258 -4.5423774e-05
0000b0 25 5b 50 ba 8d 37 40 39 42 51 39 ba 9f d6 7e 38
       -0.0007948152 0.00018331241 -0.00070692983 6.07582e-05
0000c0 e0 c1 c9 39 c2 0e d1 b8 12 75 e3 ba 46 99 43 bb
       0.00038482156 -9.9686455e-05 -0.0017353615 -0.0029845997
0000d0 a4 b0 2e b8 ab f6 e7 b9 1b df a1 b6 b1 ae b9 b6
       -4.1649342e-05 -0.00044243535 -4.824147e-06 -5.5337664e-06
0000e0 63 05 96 38 e2 9e 5b 38 13 b6 7a 38 d9 7c 29 b8
       7.153561e-05 5.236164e-05 5.9774215e-05 -4.0409013e-05
0000f0 81 48 80 b9 38 c9 14 b9 67 b5 d0 b8 c4 04 37 b9
       -0.00024468082 -0.0001418934 -9.952002e-05 -0.00017454015
000100 9c 2c c1 b8 0c 59 56 39 5b c4 6a b9 ce 29 a2 38
       -9.211266e-05 0.00020441803 -0.00022389127 7.732549e-05
000110 89 dc 8a ba c6 2a 3a ba 30 a6 fa b8 91 2e a5 b9
       -0.0010594289 -0.00071017107 -0.00011951884 -0.00031505947
000120 c9 98 04 b8 11 6c 86 b9 c6 6e 77 b9 ef bc 16 b9
       -3.1613545e-05 -0.00025638987 -0.00023597022 -0.00014375498
000130 23 9d 64 38 da e7 09 b7 00 00 00 00 00 00 00 00
       5.450578e-05 -8.2198185e-06 0.0 0.0
000140 60 f0 80 38 be 00 53 39 9f cd d2 38 5e 7f 42 39
       6.148289e-05 0.00020122805 0.0001005188 0.0001854873
000150 54 7e 8c b9 65 8c d9 b8 2f df ae ba fc 28 a4 b9
       -0.00026797003 -0.00010373517 -0.001334166 -0.00031311053
000160 37 33 07 b9 49 60 cb 38 b0 1c bb 38 be 83 14 38
       -0.00012893682 9.697729e-05 8.922198e-05 3.5408644e-05
000170 6d b9 c8 b9 06 8e f8 b8 5f 68 cd 39 c5 b2 0a 36
       -0.00038285126 -0.000118520155 0.0003917841 2.066766e-06
000180 4d bd 69 39 a4 3e 9a 39 a8 15 22 b7 7e 23 84 38
       0.00022291132 0.0002941984 -9.660995e-06 6.3008614e-05
000190 34 8f ba 37 b8 00 51 39 79 26 8b ba 0c 1b ed b8
       2.2239612e-05 0.00019932061 -0.0010616324 -0.000113060785
0001a0 85 2e a3 b9 10 de 50 ba b9 83 fc b8 d0 9f 9f 39
       -0.00031124442 -0.000796766 -0.00012040832 0.00030445913
0001b0 c6 4a 2a ba 24 43 38 ba 54 b5 19 b9 31 c1 a8 b9
       -0.00064961275 -0.00070290477 -0.00014658767 -0.00032187396
0001c0 44 80 62 ba 06 e3 92 ba bb e8 ba b8 39 94 55 b7
       -0.0008640329 -0.0011206574 -8.9125206e-05 -1.27303e-05
0001d0 f1 ce 26 b9 60 ba 89 39 03 e9 92 b9 2c a9 4d b8
       -0.00015908085 0.00026269536 -0.00028020897 -4.9033362e-05
0001e0 35 d5 7e b9 df f7 d1 b9 09 cc dd b5 f2 30 34 b6
       -0.00024302753 -0.00040048265 -1.6525165e-06 -2.685058e-06
0001f0 10 f2 22 39 c5 46 bd b9 42 f8 04 ba 99 61 93 b9
       0.00015539699 -0.00036101617 -0.00050723937 -0.0002811074
000200 3a 99 0f b8 58 8d a5 b8 d4 ed ac b7 2d 22 c7 37
       -3.423656e-05 -7.8941404e-05 -2.0614745e-05 2.3738563e-05
000210 a0 4e 2a b9 85 dc a6 39 41 c3 af b9 08 75 12 3a
       -0.00016241753 0.00031826287 -0.00033524077 0.0005586897
000220 1c ec e8 37 49 ba 65 38 f8 42 1a 39 ec f9 17 ba
       2.7766502e-05 5.4771346e-05 0.00014711532 -0.0005797434
000230 ac 0f 91 b9 09 61 d2 b9 c7 8f ad 37 ca c6 99 39
       -0.00027668232 -0.00040126618 2.0690159e-05 0.00029330543
000240 93 ee 91 b9 a0 04 0a b9 fa 38 c6 37 86 57 8c b8
       -0.00027834307 -0.00013162429 2.3629971e-05 -6.692023e-05
000250 f0 83 11 39 50 28 4f 38 38 f2 b6 b8 bd 38 23 b7
       0.00013877428 4.939019e-05 -8.723553e-05 -9.7287675e-06
000260 de 26 01 ba 88 dc 36 ba bd 5c 13 3a 36 98 38 3a
       -0.0004926751 -0.0006975611 0.0005621424 0.0007041724
000270 52 66 06 ba 53 37 eb b8 57 12 97 38 06 57 91 39
       -0.0005126941 -0.00011215978 7.203657e-05 0.00027721393
000280 e4 f3 42 ba c1 9c 5b b9 ef 67 a3 38 63 66 43 b8
       -0.0007436855 -0.00020943863 7.791805e-05 -4.6586978e-05
000290 eb 1f 83 38 24 b8 de b7 04 54 a1 b9 5f 4b 8b 38
       6.252512e-05 -2.655021e-05 -0.0003077091 6.6420755e-05
0002a0 8a 5a f5 38 78 24 08 b9 43 31 17 b7 5a 4d fd b8
       0.000116993746 -0.00012983556 -9.011771e-06 -0.00012078388
0002b0 ca 48 e6 38 9e 4a 2c 39 8e 74 36 ba a8 eb 7a b9
       0.00010980813 0.00016430995 -0.0006960117 -0.00023929647
0002c0 68 5a d1 b9 d5 d9 e6 b9 36 4e 14 ba 18 cc 0b ba
       -0.00039930944 -0.00044031316 -0.0005657406 -0.00053328415
0002d0 3c 2d 4f 39 f2 e7 a9 b5 ee 1d 86 b8 68 db 72 39
       0.0001975791 -1.2658986e-06 -6.395193e-05 0.00023160654
0002e0 af 01 e2 3a 53 3e d5 b9 66 ae c4 38 92 15 15 39
       0.0017242933 -0.0004067296 9.3784925e-05 0.00014217783
0002f0 a6 92 03 39 71 cf 35 39 89 9e 2c ba 10 90 5d 39
       0.00012547764 0.00017338783 -0.0006584903 0.0002112987
000300 0b 30 b8 b8 08 80 74 38 d4 b6 e4 b9 d6 0b 2c 38
       -8.7827524e-05 5.829337e-05 -0.00043623766 4.101902e-05
000310 ec 8f 7b b9 df e4 9c b9 80 19 99 38 7e 5f d4 38
       -0.0002399084 -0.0002992516 7.300358e-05 0.000101267346
000320 7c 34 ec b9 f9 d9 02 ba fd e6 2a b9 20 d4 0f b9
       -0.00045052532 -0.0004991587 -0.00016298513 -0.00013716565
000330 94 83 1c 39 fc 5a 73 39 cd 54 13 ba 60 02 e3 b9
       0.00014926336 0.0002320818 -0.0005620241 -0.00043298583
000340 55 c6 49 ba 9e bd f6 b9 9d f6 37 37 78 b6 59 b8
       -0.0007697095 -0.00047062052 1.0965069e-05 -5.190677e-05
000350 e5 5c d0 39 ae 81 bf b9 b0 9c ae b8 2d aa 0d b8
       0.00039742063 -0.00036526978 -8.326152e-05 -3.377551e-05
000360 e1 a3 38 39 db 3e 22 39 64 19 5e ba c7 71 6e 37
       0.00017608657 0.0001547294 -0.00084724114 1.4212396e-05
000370 02 3c 47 ba 65 ac 63 ba 40 ce 64 ba 90 87 89 38
       -0.00076001894 -0.00086850516 -0.00087282434 6.5579196e-05
000380 dc ee f4 b9 4e 07 a0 b9 6b bd 3e 36 33 a9 de 38
       -0.0004671727 -0.0003052302 2.8422462e-06 0.00010617301
000390 26 d3 d5 39 79 0a 85 39 a7 3a 9c ba 0c e5 22 ba
       0.00040783844 0.0002537554 -0.0011919335 -0.000621394
0003a0 0a 3c b5 b8 39 fa c6 b8 73 76 ec b9 c9 a4 b5 b9
       -8.641936e-05 -9.487983e-05 -0.0004510168 -0.00034645785
0003b0 1b 17 cb b8 b2 df ce b9 85 92 3a 39 2e cc 29 39
       -9.684098e-05 -0.00039458048 0.00017792925 0.00016193159
0003c0 a5 89 14 b8 67 52 81 38 eb 84 4a b8 55 e8 91 b6
       -3.541414e-05 6.166548e-05 -4.8284342e-05 -4.3483838e-06
0003d0 db 82 1b ba d7 25 02 b8 a7 9b a1 b8 40 75 64 39
       -0.000593228 -3.1029656e-05 -7.706071e-05 0.00021787453
0003e0 6b cf 47 39 ec 01 63 b8 0d 97 00 39 ce 34 01 b9
       0.00019055388 -5.4122807e-05 0.00012263302 -0.0001232207
0003f0 ae bc a3 39 88 24 1b 39 44 cf 48 b9 4e 5b cd b7
       0.0003123036 0.00014795561 -0.00019150699 -2.4480421e-05
