data/Figure3_Supplement/033/checkpoint_0002000.pth (torch, 231810 bytes, 31 tensors)

net.0.weight f4 [32, 120, 2]
00000000: b323 0abd 91ce 093d 99d4 943c 8073 70bd
00000010: c2ec b9bd cff9 84bc d280 01bc e045 253d
00000020: 39c1 1e3d d1d9 87bc 5f2c 65bd 17bf b6bd
00000030: a6ef 70bd 5f0d 86bd 3b42 80bd 0f6c 183d
00000040: ebcd 0dbd 6dfa 8ebd 5142 3a3d b3c6 713d
00000050: 79d1 6ebb ea10 5a3d a973 493d d6b1 323b
00000060: 0ab1 81bd ed9f 3fbc 808a 7abb 1d62 8dbb
00000070: 69b7 2cbd adfa a2bd 2d54 79bc a300 f3bc
00000080: e4be 31bd d471 d4bc cb87 95bd 4ce6 293d
00000090: 9268 f33c 250a 663b db45 1eb9 c5bc ef3b
000000a0: f65a 1e3d 94d1 dc3c 7989 03bd 4825 a23c
000000b0: f89b f93c c323 ddbc 3a41 40bd 46d5 bfbd
000000c0: 5ed9 a3bd f7b3 23bd b03c 7e3d 5d4e aa3d
000000d0: 1450 a539 0a3c 743d e5a5 023d a2dd d3bd
000000e0: 3c8c 433d e6bf 74bd ea5d 623d 2464 d93c
000000f0: 1695 acbc a0dd aa3d d177 94bd 240b 09bd
00000100: 4e5a 943d 9c6d 8f3c 6fff fabc 0b7f 923d
00000110: 66be 9fbc 992a 53bd 7ea2 14bd 2fb3 3f3c
00000120: d9a2 9f3c ac52 d33d 7793 0e3d 5240 f9bd
00000130: 7173 9c3c ad81 06bd e13e 183d 23cd 233d
00000140: 82c5 c2bd f6a5 1a3d 3cf0 24ba cbdb abbd
00000150: 5ea6 8dbc a71d 88bd 0457 11bd f153 97bd
00000160: 0c84 82bd e3ed 23bc 1832 a43d 562d d13d
00000170: 8019 0ebc e28c ac3d bc59 18ba abeb e6bb
00000180: 96db 53bd d189 a6bd b489 803c 1d35 b83c
00000190: 5632 91bc ffa4 d4bd 0e6f 373d 722d 0e3d
000001a0: 0dd0 683c b915 003c 18e7 92bd 7129 043d
000001b0: 2366 393c b6b4 ccba adca 593d 460e 09bc
000001c0: c91a 4c3d c6b0 a1bc 278c d9bc 79e2 0bbc
000001d0: e541 52bd 4041 6f3d 1e6a 8d3d 9ca7 413c
000001e0: 2153 9d3c ce0b 89bd cbd7 4a3d f663 053e
000001f0: 4fa2 9fbc b700 7ebd 6d79 c33d d791 c1bc
00000200: ac08 913c 1209 a23c 249d 043c c8e2 0d3d
00000210: cff4 21bd bb4e 11bd 8345 c03c 445b 473d
00000220: 631b 953d a733 213c 3a32 69bd 0fcd 11bc
00000230: 10e7 d03b 934b 69bc 7b3b 6e3d 1849 d73a
00000240: 5a65 0dbd 70e5 2abd 67b6 1a3d c27d 493b
00000250: 678d 4cbc 474f 7a3d 47cb 4f3c 6b95 123c
00000260: 016a eb3d 80ef 2a3d 2a15 c0bc d31b f9bc
00000270: 476f fcbb b511 babc 9c13 563d 8d25 5f3d
00000280: 2cd1 d43c ec60 3e3d 6896 9d3d 3d4f 773d
00000290: 6c7e 263c c6af e33b 4938 a8bd 5219 3ebd
000002a0: 033d ae3c e14c 0dbd 674f b0bc 630f 6dbd
000002b0: ed76 b2bd 2be9 a1bd d6cf 203d 063a cabc
000002c0: 93fb ccbb d7d8 063d 8165 ec3c 332d a63d
000002d0: a84a 863c bfef c33d 50ed 4a3c e477 bcbb
000002e0: 53f2 11bd ee19 34bb aa9f 39bd 8068 88bd
000002f0: 1690 cd3b ffa1 0cbd 4262 563c 1276 14bd
00000300: 7beb 09bd 67a0 a4bc b0a7 2d3c fab5 44bd
00000310: 31b9 653d 9069 be39 1a9a 7bbd d99b 9dbd
00000320: a71d eb3c d275 603c de86 203d 3233 4ebd
00000330: 2d81 143d f9c1 7abb 3446 50bd c347 f93c
00000340: 12e1 6fbd 3e74 2fbd 076b b1bb dada 97bb
00000350: db72 243d 8172 253c cd97 f9bc 4dd4 ec3c
00000360: 804a 2a3d ac9b acbc dab9 193d 9edc 493c
00000370: 41fd 49bd 6d89 333d 7849 09bd 3641 10bc
00000380: 646f 18bc 483a 4b3c d734 96bc e112 67bd
00000390: 1320 053c 7c10 2e3d 04e7 de3b ec4a 5ebd
000003a0: 56f5 d339 51e6 14bd ec80 383d 3d8e 0d3d
000003b0: 5b7e 0bbd b8e0 2e3d d20f 2cbd cdda f13c
000003c0: 0afb 0a3b 140e f239 fb68 6b3c 5099 4cbd
000003d0: 5d4e 00bd 50e1 9e3c 5df0 a8bc 09d2 233d
000003e0: 475d a239 ff58 00bd c5e4 21bd 1543 a63c
000003f0: 6d1f d6b8 20a1 49bc ac6c 3dbd addf aaba
-0.03372545 0.033644263 0.01816778 -0.0587039 -0.09078361 -0.0162324 -0.007904248 0.04034984
0.03875849 -0.016583355 -0.05595052 -0.08923166 -0.058822297 -0.06545519 -0.062626325 0.037212428
-0.034620207 -0.06981359 0.0454734 0.059027385 -0.0036440773 0.053238787 0.049182568 0.0027266643
-0.06332596 -0.011695844 -0.0038229525 -0.0043146745 -0.0421671 -0.07957969 -0.015217823 -0.02966339
-0.043394938 -0.025933184 -0.07301291 0.041479394 0.029712949 0.0035101261 -0.00015094077 0.0073162043
0.038660966 0.026955403 -0.032113526 0.019793168 0.03046988 -0.026994592 -0.046937205 -0.093668506
-0.08000444 -0.03996655 0.062069595 0.08315728 0.00031530915 0.05962757 0.03189649 -0.103450075
0.04774116 -0.05975332 0.055265345 0.026537009 -0.021067183 0.08343053 -0.07249416 -0.03345789
0.07243787 0.01750832 -0.030639378 0.07153138 -0.019499969 -0.051554296 -0.036287777 0.011700436
0.019486832 0.10318503 0.034808602 -0.12170471 0.019098016 -0.032838512 0.03716934 0.039990555
-0.09510328 0.03775593 -0.0006291901 -0.083915316 -0.017291244 -0.06646281 -0.035483375 -0.073890574
-0.06372842 -0.010005447 0.08017367 0.10213725 -0.008673072 0.08425309 -0.00058117113 -0.007047137
-0.051723085 -0.08131755 0.015690662 0.022486264 -0.017724197 -0.10383033 0.044783644 0.03471131
0.014209759 0.007817679 -0.07172984 0.032266084 0.011315855 -0.0015617821 0.053171802 -0.008365219
0.04983023 -0.019737612 -0.026556088 -0.008537882 -0.051332373 0.058411837 0.06905006 0.011819746
0.019204678 -0.06691705 0.049522202 0.13026413 -0.019486574 -0.0620124 0.095446445 -0.023629112
0.01770433 0.019779716 0.008094106 0.034640104 -0.03954011 -0.035475474 0.023470646 0.048671022
0.07280614 0.009838975 -0.056932665 -0.008898987 0.006375201 -0.01423921 0.058162194 0.0016424982
-0.034520485 -0.041722715 0.03777161 0.0030745124 -0.012484885 0.06111076 0.012682742 0.008946757
0.11494828 0.04173231 -0.023447592 -0.030408775 -0.007703695 -0.022713521 0.052264795 0.05447917
0.025978647 0.04647915 0.07694703 0.060378302 0.010161977 0.006948444 -0.082138605 -0.046410866
0.021269327 -0.034497146 -0.021522237 -0.057876002 -0.087140895 -0.079058014 0.039260708 -0.02468587
-0.006255576 0.03292164 0.028856995 0.0811409 0.01639302 0.09567212 0.012385681 -0.0057515968
-0.03563149 -0.0027481276 -0.045318283 -0.06660557 0.00627328 -0.03433418 0.01308495 -0.036245413
-0.033671837 -0.020096017 0.010599062 -0.04802511 0.056084815 0.00036318274 -0.06142626 -0.07695741
0.028700663 0.013699966 0.03919112 -0.050341792 0.036256004 -0.003826259 -0.0508482 0.030429726
-0.058564253 -0.042835467 -0.00541437 -0.0046342434 0.040148597 0.010098101 -0.030467892 0.028909827
0.041574955 -0.021070324 0.037530757 0.012320666 -0.049313787 0.04383223 -0.03351733 -0.00880461
-0.009303901 0.012404032 -0.018335743 -0.05641449 0.008125323 0.04249619 0.0068024416 -0.05427067
0.00040427846 -0.03635246 0.045044824 0.034559477 -0.03405605 0.042694777 -0.042007275 0.029523278
0.002120676 0.00046168326 0.014368291 -0.049950898 -0.031324733 0.019394547 -0.020622427 0.039995227
0.00030968545 -0.031334873 -0.039524812 0.02029566 -0.00010210169 -0.012306482 -0.046246216 -0.0013036631

net.0.bias f4 [32]
00000000: aa99 9bbc f1a2 8b3c a42a fabb ed62 663d
00000010: 9522 fd3a 5aaa e4bb 3f09 3abd d8ea 3b3d
00000020: bbe2 34bd d228 c7bc 7a35 5dbd fcc4 22bd
00000030: 7cb6 a6bc 3779 393d 382d d5bb 8167 353d
00000040: 95b3 1ebd d7ab 8d3b 3b62 c13c 3098 46bd
00000050: 52ff 6cbc 580f bc3c 1c8f ce3c 3232 463d
00000060: b02e 80bc da4d 1ebc 0dba 123d a9e8 85ba
00000070: bc52 5bbd 8ba5 b83c 7691 2b3c c510 353d
-0.018994171 0.01704547 -0.0076344777 0.056246687 0.0019312674 -0.0069783153 -0.045418974 0.04587826
-0.04416154 -0.024311457 -0.054006077 -0.03973864 -0.020350687 0.045281615 -0.0065056346 0.044288162
-0.03874548 0.0043234634 0.02360641 -0.04848498 -0.01446517 0.022956535 0.025214724 0.048387714
-0.015647262 -0.009662116 0.035821963 -0.0010216433 -0.0535457 0.022539875 0.010471692 0.044205446

net.2.module.0.weight f4 [32, 32, 3]
00000000: b0bb 493d 2a02 a1bd 70e9 8dbd d4fa 55bd
00000010: 64a7 3b3c 0203 993d aaf3 d53d 7036 163d
00000020: 3928 403d 3d09 b23d 5442 f03c d17e 003d
00000030: 79ee ea3c 5e73 a9bd e805 92bd ddcd 2bbd
00000040: d2b9 193d b0f1 0dbd ad2c e2bd 31f1 c03c
00000050: 4bf6 8cbd 031f 913a 7214 fdbc aba5 93bd
00000060: 7dfa 0c3d 08ec 9b3d a828 abbd df85 be3d
00000070: a298 3b3d fb8a e63d db56 143d 114f 0cbe
00000080: 4b2e 1abd 0561 663d 395f c83d 4055 9a3d
00000090: f4ab 8dbd 5cc4 9c3c e992 aabd d605 90bc
000000a0: d28c c33c a110 03bc 1f66 823d 89cc 723d
000000b0: ddb9 aebd f7b7 b53d 215d 793d 1ee7 4cbd
000000c0: 00bd acba 076a 913d 1faf b6bd c54f 963d
000000d0: 659a e53c 10bc 87bc 2395 983d f152 b0bd
000000e0: d693 863c a002 d93c ae03 243c 73fe 963d
000000f0: 19b8 c2bd 5a64 10bc 4fa4 11bc 3ab7 93bd
00000100: e007 1c3b dc57 0e3d cb92 853d 549d bd3c
00000110: f382 b83a e2ee 9a3d ad1e 953d fc6a 8b3d
00000120: 5a19 843c dbc5 b2bd a195 44bd 5a7e c7bc
00000130: 5cac d9bd d3c3 c3bd 97c3 7f3d 5f44 a4bd
00000140: bb17 a53d 16f6 2dbb 9814 d23d 60a2 923b
00000150: f62e f53c 979d 95bc bbe1 3dbd 34f0 a1bd
00000160: 4045 52bd fd3d 833d 50e7 6fbc d160 0e3d
00000170: 3d2c debc bb83 2f3c 960e 34bc d897 21bd
00000180: 9363 a23d 0264 25bd 9403 86bc 2720 cb3d
00000190: 4604 6f3a ff88 2d3d 7b56 c6bd 2253 a1bc
000001a0: 8fb9 08bc 612b 4d3d d407 c7bb 0f96 803d
000001b0: 3f4a cf3d 78c6 7dbc 5b9b 8f3d e615 64bd
000001c0: df31 023c 5a2e e3bd c557 c4bc cf1c 64bc
000001d0: cf5a e33c 8665 a53d 5d1b d3bb f9e3 d1bd
000001e0: e640 9f3d 879b bb3d 7899 74bd aed7 8c3d
000001f0: 16e0 b6bd 5739 6b3d 282d ebbc 9fec 833a
00000200: 8f14 1dbe c65c e53c 6d04 2dbd 469b 5dbd
00000210: b364 6f3d b862 593d 5a3a 9fbd aaea d5bd
00000220: bfe4 7b3d fb27 043c 5da2 a5bd cd5a 9abd
00000230: 60c2 f23d cbc9 e8bc 34ca 6e3d 6451 703d
00000240: 3ab4 81bd b954 823c 9719 93bd 01ca 27bc
00000250: 9b91 99bd 0809 67bd 4716 6e3c 8673 3c3d
00000260: 9137 93bd 1e00 35bc c018 12bd 4d9c 7cbd
00000270: 5dec 3b3d 029a 4e3d d47b c5bd dabb 6e3c
00000280: 1328 b5bd f0bc 1ebd 0946 e7bd b398 bd3d
00000290: 77e1 ef3a 6e79 a73a 534f 4dbd 2f3f d33d
000002a0: 9c82 9dbd 686e b03b f1a7 873d e45a f2bd
000002b0: 7b8c adbd 22d0 34bb f4b8 9bbc 1b0b a33d
000002c0: 127d f4bd 3750 a7bd 4162 233d a853 16bd
000002d0: 46b0 1b3a 1c48 7c3d a695 65bc 71bf 103c
000002e0: e94c 19bd fc7e e8bc 2737 13bc b54e bc3d
000002f0: 1c95 cabd 9af1 113d 438f 343d b1f4 c4bd
00000300: e6f0 fd3c 2f34 30bd 8430 923d 0272 0abd
00000310: 1a30 a33c 1c9e 45bd f447 3fbd 77ea 91bc
00000320: 7f87 abbd 9917 713d 2ee3 543d b624 183d
00000330: 660e 06bd 36f8 043d 6fdf 8d3d 1b53 68bd
00000340: a892 693d 60eb 3fbc 7121 b23c 6bf7 02bc
00000350: a7c2 e2bd a18a a6bd 19bf bbbd ff37 5f3d
00000360: cec0 91bd 7339 593d 8d22 f2bd b437 463c
00000370: e41c 4fbd 711b b1bc ed4c d13d f9ae 87bd
00000380: c120 8f3c 66ec ec3b 46dd 86bd eb08 a93c
00000390: 083e 133d 3244 bebd f0c4 743b d8b8 703b
000003a0: 1518 85bd 25e1 29bd 4148 38bd d411 29bd
000003b0: 9767 56bc 39ed a43d 39dd 913d 38d5 2ebd
000003c0: 4b3d 073d cc55 3f3d 5180 10bd f6be bebd
000003d0: b81c 35bd 1e8d cf3d e72c b8bc aa53 d6bd
000003e0: 0c7e aebd e478 a93d 55e9 3cbd 7fe9 41bd
000003f0: abaf 87bd 07c2 fe3c f52c 18bc b453 4f3d
0.04925126 -0.07861741 -0.0692929 -0.05224116 0.011453483 0.07471277 0.10446866 0.03667301
0.04691336 0.08693168 0.029328503 0.03137094 0.028678166 -0.08273958 -0.07130033 -0.041944373
0.037530728 -0.03465432 -0.110436775 0.023552509 -0.06882914 0.0011071864 -0.030893538 -0.07209333
0.03441857 0.07613379 -0.08357364 0.09302878 0.04579986 0.11256977 0.036215644 -0.13702036
-0.037641805 0.05624487 0.09783787 0.075357914 -0.06917563 0.0191366 -0.08328802 -0.017580908
0.02387086 -0.00799957 0.06367134 0.05927709 -0.08531544 0.08872979 0.06087983 -0.050025098
-0.0013178885 0.07100301 -0.089201204 0.073394336 0.028027723 -0.016569167 0.074503206 -0.0860957
0.016427916 0.02649051 0.010010643 0.07372751 -0.0950777 -0.008812988 -0.008889272 -0.07212682
0.0023808405 0.034751758 0.06522139 0.023146309 0.0014077112 0.075650945 0.072812416 0.06807515
0.01612537 -0.08729144 -0.04799426 -0.024352241 -0.10628578 -0.09558835 0.06244239 -0.08020853
0.08061167 -0.0026544384 0.10257834 0.004474923 0.02992962 -0.018263621 -0.04635785 -0.07907143
-0.051335573 0.06408308 -0.014642552 0.0347603 -0.027120704 0.010712559 -0.010989806 -0.03945145
0.079291485 -0.040378578 -0.016359128 0.09918242 0.0009117763 0.042366978 -0.096844636 -0.019692961
-0.008345022 0.050090197 -0.006073931 0.062786214 0.10121583 -0.015489213 0.070120536 -0.055684946
0.0079464605 -0.11092825 -0.023967633 -0.013922884 0.027753262 0.08076005 -0.006442471 -0.102485605
0.0777605 0.09160524 -0.05971667 0.06877075 -0.0892946 0.05742773 -0.028708056 0.0010065025
-0.15339874 0.02799834 -0.04224055 -0.05410316 0.058445644 0.05307266 -0.077748016 -0.10445149
0.061497446 0.008066173 -0.08087609 -0.0753685 0.1185348 -0.028416535 0.058298305 0.05867137
-0.063332036 0.01590954 -0.07182615 -0.010241033 -0.07498475 -0.056405097 0.0145316785 0.04600861
-0.07188333 -0.011047391 -0.035668135 -0.061672498 0.04587971 0.050439842 -0.09642759 0.0145711545
-0.08845534 -0.038754404 -0.11292655 0.09257641 0.0018301447 0.0012777278 -0.050124478 0.10314786
-0.076909274 0.005384255 0.06623829 -0.11833742 -0.0847406 -0.0027589877 -0.019009091 0.079611026
-0.11937918 -0.08169597 0.039888624 -0.036700875 0.00059390476 0.061592206 -0.01401273 0.008834706
-0.037426863 -0.028380863 -0.008985317 0.091947 -0.098917216 0.0356308 0.044081938 -0.09616984
0.030998658 -0.043018516 0.0713816 -0.033800133 0.019920398 -0.048246488 -0.04669948 -0.017811997
-0.08375453 0.058860395 0.051974468 0.037144385 -0.032728575 0.032463275 0.06927382 -0.05671988
0.057024628 -0.011713833 0.021744462 -0.007993559 -0.11072283 -0.0813191 -0.09167308 0.05449676
-0.07116853 0.053033303 -0.11822996 0.012098242 -0.05056466 -0.02161953 0.102197506 -0.0662517
0.017471673 0.0072303293 -0.06585173 0.020634135 0.03594783 -0.09290351 0.003734883 0.003673127
-0.06498734 -0.04147448 -0.04499078 -0.041276768 -0.013086221 0.08053059 0.07122273 -0.04268381
0.033017438 0.04671268 -0.035278622 -0.09313767 -0.04421684 0.10134338 -0.022482349 -0.104651764
-0.08520135 0.08275011 -0.04612096 -0.04734182 -0.06625303 0.031098379 -0.009288062 0.050616935

net.2.module.0.bias f4 [32]
00000000: 5619 4b3d 9a07 9fbd 5b52 68bd 82d8 543b
00000010: 70a3 9d3c 3459 483d 34da a7bc bce6 23bd
00000020: 4a9a c8bd d305 473d 02ba eb3c 4b0e 9e3d
00000030: b3ad c93d 68e0 02bd 09b9 89bd e5e5 c23c
00000040: 50a6 b4bd 22dc 00bd a220 823c bf61 b1bc
00000050: ab6d 6a3d 3155 a2bd 2b60 6dbd 36fd 86bc
00000060: 630e 3ebd 992d 963d 16a4 febb 5889 bf3d
00000070: e8d2 4ebd a2f5 9bbb eb35 c1bd 6b36 b83c
0.04958471 -0.07765122 -0.056719165 0.0032477682 0.019242972 0.048913196 -0.02048979 -0.040014967
-0.09795053 0.04858954 0.028775219 0.0771757 0.098475836 -0.03195229 -0.06724746 0.023791263
-0.08820784 -0.031459935 0.015884701 -0.021653054 0.057233494 -0.07926405 -0.05795304 -0.016478162
-0.04640044 0.07332916 -0.0077710254 0.09352368 -0.050494105 -0.0047595063 -0.09434112 0.022486886

net.3.module.0.weight f4 [32, 32, 3]
00000000: f048 22bd d671 cabd 9a9d 3ebc a0f7 afbb
00000010: 7ff3 93bc 321b 4dbd 5bce 3abd b6a7 21bc
00000020: 76d1 f1bc 6a30 38bd 1417 81bd 55f4 2fbd
00000030: bba0 b03c 4fcd f13c 9fda b13d 077b 97bd
00000040: 4a66 93bd eda7 f93b 5302 993d 25e5 61bd
00000050: 25c3 663c 9f87 3c3b c7a3 9a3c 468b edbc
00000060: 0c5e ad3d df87 4b3d c269 4a3d eb77 3b3d
00000070: 9350 c93c 67c3 993d 058e 433c 95b0 34bd
00000080: 8edf 6a3c 3826 a43d 0ce2 993d 545a 6a3c
00000090: 0e59 cfbd 3345 94bc ce75 4cbd bd89 cdbc
000000a0: b04e 803d 1925 adbb db99 04bd 9f56 623c
000000b0: 1ba3 c9bd 513c fc3d fea4 8b3d 57fe cabc
000000c0: 2187 3f3d e085 d8bb 7d4b cfbb e63b 893d
000000d0: ae6f 58bd dba4 2e3d fb0e 7d3d eebf 98bd
000000e0: 2598 80bd 8f60 763d 41c7 a1bd 8a8c 4dbc
000000f0: 8b25 9bbd 63ba 9f3d ba1f 20bd a5b5 8e3d
00000100: 5dad 63bc e95b a73d 2930 35bd 0e3a ddbd
00000110: cb99 05be 81cb a3bc 4501 713b 4bba f43d
00000120: 2740 dfbd 5461 75bd e388 963c 8b5c a73b
00000130: ba57 753d 1345 ecbb ea9d ba3b 2d08 a0bd
00000140: 3b2d 7abd 3569 db38 842c 53bd 4f3e 9db9
00000150: 0f02 6a3d 071a 1c3d 1298 40bb 4bd7 2fbc
00000160: 9f9e 40bd 803b 1c3d 3976 5abc 0617 0dba
00000170: 5a64 453c 5f58 a9bd d460 103d e6cc 993b
00000180: ba35 8abd bbcc 04bd 4b12 20bd 3070 20bd
00000190: d20c 56bc 9573 3abd 7728 923d 339b e7bb
000001a0: d20d 4f3d 1b8b c1bd 69d5 99bd 8f0e 563d
000001b0: ed85 bbbc 81dc 0dbd b1dd 413c ff8d 92bd
000001c0: 67b2 9a3d 2e1e efbd aaad 903d e6d2 923d
000001d0: f485 bb3d 361f 743d 84a8 45bc ff0c eabb
000001e0: 44b9 483c 50ff c63d ee43 ae3c e6c1 40bd
000001f0: f8e8 d03c abe4 2f3d dd60 cc3c 627e 733d
00000200: fb1d f43c 72d6 00bd 4c3b 303d d180 e03c
00000210: f534 09be 3ef2 d9bd 49c4 84bd c376 eebd
00000220: a6dc d73c 027f 5f3d 904d d0bc 973e 13bd
00000230: 0890 cbbc f24f acbd d421 983d 81d4 8d3d
00000240: 449b 4ebb 3b9a 893d 1536 503d 27e1 7dbd
00000250: 1ca1 4e3d 7509 cfbc a836 263d 2ceb f33d
00000260: bbc8 22bd b4c8 27bd 95c3 b0ba 77a9 b73b
00000270: 23e9 ca3c e48b a33d 0099 593d b39a 47bc
00000280: 2ac4 90bd 75a6 b63d 3a99 313d 08a2 7d3c
00000290: f16a 43bd b80b 49bd 7a8c 89bd 45b6 4939
000002a0: 442f 50ba 9918 25b9 5ef6 75bd 42ef a8bc
000002b0: 7449 a9bd df5c 503c 8c19 9b3d 55cd 16bd
000002c0: a455 8fbd 2790 c43d c3f8 ea3d 8427 843b
000002d0: 4090 3e3d a082 6e3d 4355 bd3c 099c 2a3d
000002e0: 982a 23bd 7bd9 b1bd 0ad0 b13c 8e92 06bc
000002f0: d9d1 9a3d eb58 69bc 71ed 803d b629 90bd
00000300: 87e1 1bbc b2f8 d2bc 7120 ab3d bc35 903d
00000310: 842c 0b3d 9f05 0e3e e0e3 b63d 14ac eabd
00000320: 9728 b2bc fa85 b93d ce60 633d 280b 103d
00000330: c8b9 153c ab88 b53d d0fc f33c 2d5c b6bd
00000340: 7229 833d fdc8 0cbe 1295 58bc 0ed0 9e3d
00000350: 5f4e 9dbd f6fe fcbc 6de5 c4bd 72d0 9fbd
00000360: 9c72 c13b 88d3 b8bd 2d62 043c 0da0 d0bc
00000370: 12bb 4dbd 7135 02be b36c 85bd 88e7 4d3d
00000380: b26f 623d eea6 b9bd 401c 963d 7a41 afbc
00000390: d0cf cfbd 8424 af3d 8dd4 86bd 2f2b 2b3d
000003a0: 0bb4 c83d 68fe efbc 00d3 273d cf99 2bbc
000003b0: 7597 8fbd ecd0 85bd 1e7d 88bd 56df 4e3c
000003c0: 2be3 48bd 49c9 a33c cbcd 46bd ee0a a5bd
000003d0: 1ee4 c6bb 76cb cabc a1b9 b23d 78bd 163d
000003e0: a52f 98bd c6cb 77bc b4bb 93bc ee88 8ebd
000003f0: 3878 0fbd 6bbf 003d cc17 06bd c4e3 9abd
-0.03962034 -0.09884994 -0.011634255 -0.0053700954 -0.018060444 -0.050074764 -0.045606952 -0.009866646
-0.029518824 -0.044968046 -0.0630323 -0.042957623 0.021561017 0.029516844 0.08684277 -0.073965125
-0.071972445 0.0076188953 0.074711464 -0.05515017 0.014084612 0.002876736 0.018876923 -0.028997075
0.08465204 0.049690124 0.049417265 0.04576866 0.024574554 0.07507973 0.011935716 -0.044113714
0.014335526 0.08015102 0.07513818 0.0143037625 -0.10124408 -0.018099403 -0.049917035 -0.025090093
0.062650084 -0.0052839634 -0.03237329 0.013814597 -0.09845563 0.12316192 0.06818579 -0.024779482
0.04675973 -0.006607756 -0.0063261376 0.06700878 -0.05284088 0.042637687 0.061781865 -0.07458483
-0.06279019 0.06015068 -0.07899333 -0.012545714 -0.0757552 0.07799222 -0.039092757 0.0696824
-0.0138963135 0.08171827 -0.044235382 -0.10802089 -0.13046949 -0.0199945 0.0036774438 0.11949595
-0.10900908 -0.059907272 0.01837582 0.0051074675 0.059898116 -0.0072103827 0.0056950944 -0.078140594
-0.06107829 0.0001046233 -0.051556125 -0.00029991797 0.05713087 0.03811076 -0.0029387516 -0.010732482
-0.047026273 0.03814268 -0.013333851 -0.0005382154 0.012047851 -0.082688086 0.035248592 0.0046936153
-0.06748529 -0.03242181 -0.039079946 -0.03916949 -0.01306458 -0.045520384 0.07136624 -0.0070680617
0.05055029 -0.094503604 -0.07511408 0.052259978 -0.02289101 -0.034634117 0.0118326405 -0.0715599
0.07553559 -0.11675678 0.07064374 0.07169132 0.09156409 0.059600078 -0.012064103 -0.0071426625
0.012251202 0.09716666 0.021272626 -0.047059916 0.025501713 0.042942684 0.024948532 0.0594467
0.029799452 -0.03145451 0.0430253 0.027405174 -0.13399108 -0.10641907 -0.06482751 -0.11643746
0.02635033 0.054564483 -0.02542761 -0.035948362 -0.024848953 -0.08413686 0.07428327 0.069252975
-0.003152565 0.0671887 0.050832827 -0.0619823 0.050446615 -0.025273064 0.040579468 0.1191009
-0.039742213 -0.04096289 -0.0013486022 0.0056049186 0.024769371 0.079856664 0.053124428 -0.012182879
-0.07068665 0.08918468 0.04335902 0.015480526 -0.04770941 -0.04908344 -0.06716247 0.00019236754
-0.00079416134 -0.0001574479 -0.060049407 -0.0206219 -0.08265963 0.012717455 0.07573232 -0.036816914
-0.069987565 0.095978074 0.11473229 0.004033031 0.046524286 0.058230042 0.023111945 0.041652713
-0.039835542 -0.08684059 0.021705646 -0.008213652 0.075595565 -0.014242391 0.06295288 -0.07039206
-0.009514219 -0.025753353 0.08355797 0.07041499 0.033978 0.13869332 0.089301825 -0.114586025
-0.02174787 0.09058757 0.055512242 0.03516689 0.009138532 0.08863958 0.029783636 -0.089043
0.064043894 -0.13748546 -0.013219135 0.07754527 -0.07680964 -0.030883294 -0.09614072 -0.0780343
0.005903555 -0.090247214 0.008080048 -0.025466943 -0.050227232 -0.12715699 -0.06514873 0.050269634
0.055282302 -0.090650424 0.07329607 -0.021393526 -0.10147059 0.08551887 -0.065835096 0.04178923
0.097999655 -0.029296115 0.04097271 -0.010473683 -0.0701131 -0.06533989 -0.06664489 0.01262649
-0.04904477 0.019993441 -0.048536103 -0.08058725 -0.006069674 -0.02475522 0.08726812 0.036801785
-0.074309625 -0.015124267 -0.01803384 -0.06959711 -0.03502676 0.03143255 -0.03273754 -0.07562974

net.3.module.0.bias f4 [32]
00000000: b311 bc3b 0479 823c b35b b0bd f4cd 85bd
00000010: dcfa aa3d 6d24 c13d 44d0 9e3d ae43 d23d
00000020: d81f 2f3c 476d 883d 6e31 afbd 2dd5 15bd
00000030: 289a 5cbd 71ca 5dbd 149a 8ebd d5c8 d33a
00000040: f8d8 0bbd f849 a1bd 029b 5abc 1979 a9bc
00000050: a3ec 173d 0e54 7cbd 550a aa3d 1c22 a9bc
00000060: 87c1 153d b509 b4bd 2469 093d df4c 3b3d
00000070: 027d ba3d 1353 c9bc 7c1f a5bc 3f88 21bd
0.0057394146 0.015926845 -0.0861124 -0.06533423 0.08348629 0.09430776 0.07754567 0.10266815
0.0106887445 0.06661468 -0.0855435 -0.036580253 -0.053857952 -0.05414814 -0.06962982 0.0016157875
-0.034142464 -0.078754365 -0.013342621 -0.020687627 0.03709091 -0.0616036 0.08302752 -0.020646147
0.036561515 -0.08790914 0.033547536 0.045727607 0.091058746 -0.024575746 -0.020156614 -0.039436575

net.4.module.0.weight f4 [32, 32, 3]
00000000: d915 8dbd c39b 2b3d c855 4f3d 77f5 94bd
00000010: b224 a93d bb88 36bc 0945 22bd dc96 3bbd
00000020: 3b0b 94bd af91 3dbd 3a61 a5bd 7e62 a53c
00000030: 7113 b7bd 4a3f 4cbd 4308 2b3c 5480 443c
00000040: 2ab6 87bd ad74 dc3d 5737 d9bd 0b84 9fbd
00000050: f02e e0bc d226 713d 676e 73bd 9d41 533b
00000060: a7b6 763d 5bc4 78ba 06bd f73b 69e6 8ebd
00000070: 4e26 b83d 9dd2 a83c 5199 36bd 23fb acbd
00000080: 8478 4cbd a9dd 4fbb b4a8 4dbd 030a 963d
00000090: c0ee ab3c 1c71 debc 13b7 533d 949a 553c
000000a0: 2add 2b3d ffde 183d b001 c1bd b950 88bd
000000b0: a707 27bc 6a57 873d f24b 063d 08a5 00bd
000000c0: b046 3dbd 9048 5e3d b225 d7bb d23d 1d3d
000000d0: 0bf3 cbbc 4f62 95bd 5d26 b9bd b368 d3bd
000000e0: ece8 9d3d 9793 9fbd 8731 79bd 0fa3 213d
000000f0: c219 11bd 148a dfbd 5668 64bd 30bb cdbd
00000100: 9abd bbbb 2952 c33d 395b 8c3d d031 c6bb
00000110: d144 aebd 243d 7bbd 8028 b53d 0636 b73d
00000120: f5b8 7fbc bc7c 263d ee80 14bd 564e 8e3d
00000130: 6b25 e9bd 3f75 98bc c59e 443c 2c47 b9bd
00000140: d4aa f4bd 94c2 c1bd 3971 e13d c0a3 ca3d
00000150: 217c 983d fdb4 18bb 9b65 013d e73e 8cbc
00000160: c138 ac3d 5ef9 dcbc 94f3 003d 8f0c 1fbc
00000170: f028 8fbc 535d c23b 02fd dd3c c7e1 8f3d
00000180: 1332 113c edf1 4a3c fded 2ebd 9423 57bd
00000190: b9bb babd 56cb 8abd 6c8c 033d 4fd4 dabd
000001a0: 5e66 8a3d e1f2 91bd 3980 59bc c4f2 a0bc
000001b0: 6c74 04be 1331 a23d 70af 8fbd d0b9 6a3c
000001c0: 161f b5bc 7f13 933d d92c 953d 08d3 39bd
000001d0: e7f1 e63d fa2d 7f3d d913 8dbd 3250 bfbd
000001e0: 86f1 b3bd 859d 543d e022 3d3d dd2e 54be
000001f0: 9707 b4bd 08ba 8d3b 5172 00be c561 41bd
00000200: 6130 60bd f3d6 c53d 2b8a 733d 75ac b9bd
00000210: a322 35bb f06e 6b3d ad0c 8f3d 0dca 90bd
00000220: 46fc c23d a8a7 663d 9347 87bd 2d41 c33d
00000230: 5640 ae3d e818 863d 0ec0 c9bd 9abd 4bbd
00000240: 8d61 dbbd 1bc6 e2bc 4487 29bd f5c3 f3bc
00000250: 81f7 803d 694f d1bd 4c4b 75bd 3d6a adbd
00000260: 1b49 debc e892 82bd fd44 95bd 9bdc 79bd
00000270: a8de 3e3d 9f6d 81bd b32f bb3a 689d e53c
00000280: 291e d1bd 61fc debd 05fb 243e 41bb 0ebd
00000290: 7e06 2bbd 9c66 773d d002 42bd 7fd4 51bd
000002a0: d861 033e 1abf 92ba 145d c6bd 66cc c53d
000002b0: fd0c cfbd 3435 6abd 4227 cb3d e737 a53d
000002c0: 470d 9bbd 8332 c73d 0414 b03d 6117 19bc
000002d0: 85d9 203d 8718 5f3d 0231 c9bd 9f78 49bd
000002e0: 1402 723d 639c 0ebe d5fc 47bd f498 d73c
000002f0: 90bc 4d3c ce83 b6bd 0314 aabd a1f5 e13c
00000300: 400f 12bd 3281 94bd da94 733d 51e3 073e
00000310: 0926 71bb a89c b23d 4d01 343d f7af cbbd
00000320: 3c34 153d 80b4 553d 90fb 8fbc c8b4 19bd
00000330: 683c 18be ea7a 09bd 98a8 3bbd 5bc0 dfbd
00000340: b7a2 9c3c 8184 493c 130c e83b 5e75 9b3d
00000350: 3cb0 4b3d aae0 c0bd 8ee0 e03b a580 15bd
00000360: ee95 0e3a c8a9 6ebd 0f6f b1bd 01b0 0abe
00000370: 398c a3bd 5b61 b1bd ade5 e6bc cf2e 25bc
00000380: a04e fc3d 5083 c73c f28f 9e3d 9175 853d
00000390: 6c77 de3c b16e dbba cdb6 5ebd 7236 1ebd
000003a0: 1dbb 25bc 6a20 cf3d 7da1 c93d 97b7 823d
000003b0: 25c8 ca3c 7d7f cbbd babd a9bd 3abb 8b3b
000003c0: 1100 033d 8844 71bd a855 9c3c 62a0 abbd
000003d0: 81c4 ccbd 9b7c b2bd b00c 80bd 01a9 debd
000003e0: 0192 70bd 1ae8 b1bd cb7a 823d ffaf 893c
000003f0: 59d7 533c 2d20 853d c9f3 713c 8fcc b4bd
-0.06888933 0.041896593 0.050618917 -0.07273381 0.08258952 -0.0111409975 -0.03961662 -0.045798168
-0.072287045 -0.046281513 -0.08075185 0.020188566 -0.08939255 -0.049865045 0.0104389815 0.011993486
-0.06626542 0.10764442 -0.10606258 -0.07788857 -0.027366132 0.058874913 -0.05943146 0.0032235153
0.060232785 -0.00094897085 0.007560375 -0.06977541 0.08991681 0.02060824 -0.044579808 -0.08446338
-0.04991962 -0.0031717813 -0.050209716 0.07326128 0.020987868 -0.027153544 0.051688265 0.013037343
0.041958965 0.03732204 -0.0942415 -0.066560216 -0.010194696 0.0660847 0.03278727 -0.031407386
-0.04620999 0.05426842 -0.006565773 0.038389035 -0.024896165 -0.072941415 -0.0904052 -0.10322704
0.07710442 -0.077918224 -0.06083825 0.039462145 -0.035424955 -0.10915008 -0.055763565 -0.10045469
-0.0057293894 0.09537155 0.06853337 -0.0060484186 -0.085092194 -0.061337605 0.088456154 0.08945851
-0.015608062 0.0406463 -0.03625577 0.06948535 -0.1138409 -0.018610595 0.012000744 -0.09046778
-0.119466454 -0.09460941 0.11007924 0.09894514 0.07445551 -0.0023301237 0.03159104 -0.017119838
0.084092624 -0.026974376 0.031482294 -0.009707584 -0.017475575 0.0059315353 0.027098183 0.070254855
0.008862036 0.012386781 -0.042707432 -0.052524164 -0.091178365 -0.067770645 0.03211634 -0.10685026
0.06757806 -0.071264036 -0.0132752 -0.01964701 -0.12935036 0.079195164 -0.07015884 0.014326528
-0.02210955 0.07181453 0.07283945 -0.04536727 0.11276608 0.062299706 -0.06888551 -0.09341468
-0.08786301 0.051908035 0.046175838 -0.20721002 -0.0879051 0.004325155 -0.12543608 -0.04721238
-0.054733638 0.09660139 0.05945794 -0.09066097 -0.0027639053 0.057478845 0.069848396 -0.07069788
0.095207736 0.056312233 -0.066054486 0.09533916 0.08508365 0.06547719 -0.09851085 -0.049741365
-0.10711966 -0.027682355 -0.041388765 -0.029756526 0.062972076 -0.102202244 -0.05988626 -0.08467529
-0.027134469 -0.063756764 -0.07288549 -0.0610014 0.04659906 -0.06319737 0.0014281183 0.028029159
-0.10210831 -0.10887981 0.16111381 -0.034846548 -0.04175424 0.06040059 -0.047365963 -0.051228043
0.12830293 -0.0011195869 -0.09685722 0.096581265 -0.10109899 -0.057179645 0.09919597 0.08067303
-0.07570892 0.09726431 0.08597568 -0.009343953 0.039269943 0.05446675 -0.098238006 -0.0491873
0.059084013 -0.13926844 -0.048825104 0.02631805 0.012557164 -0.089118585 -0.08304598 0.027582945
-0.035659075 -0.072512046 0.059468128 0.13270308 -0.0036796352 0.08721286 0.043946553 -0.09945672
0.036426768 0.05217409 -0.017576009 -0.037525922 -0.14866793 -0.033564486 -0.04581508 -0.10925361
0.019120557 0.012299658 0.0070815175 0.075907454 0.049728617 -0.09417851 0.0068627065 -0.036499638
0.00054392114 -0.058267385 -0.08663761 -0.13543703 -0.0798573 -0.08661147 -0.02818569 -0.010081961
0.12319684 0.024354607 0.07742299 0.06516565 0.027156554 -0.0016741363 -0.05437355 -0.03862614
-0.010115412 0.10113604 0.098452546 0.06382673 0.02475364 -0.09936426 -0.082881406 0.0042642625
0.031982485 -0.058903247 0.019083813 -0.083802 -0.09998418 -0.08715173 -0.0625242 -0.10872079
-0.05873299 -0.08686848 0.06371077 0.016807554 0.012929761 0.06500278 0.014767596 -0.08828079

net.4.module.0.bias f4 [32]
00000000: 04a0 a7bd b559 873d c509 b7bd 3186 b8bd
00000010: bde5 3dbc 3b6c 9bbd f609 633a ef89 043d
00000020: daf8 8d3b 6238 0cbb 8cad 3dbc 6419 46bd
00000030: 96dc b03d fb36 86bb 8c83 7c3d 5908 fd3c
00000040: a327 0bbd 6679 a63d 4b09 83bd 584a 2b3c
00000050: dbf6 993d 35ef 973d 42d3 93bd 4f13 2b3d
00000060: 9ace be3d 6c04 d03d fac7 68bb 967c 903d
00000070: 504f 8d3d 898c 6dbc 6931 afbd 3795 fd3c
-0.081848174 0.06608907 -0.0893741 -0.0900997 -0.011590418 -0.07589003 0.0008660847 0.032358106
0.004332644 -0.0021395911 -0.011577021 -0.048364058 0.086358234 -0.0040959097 0.06164889 0.03088777
-0.033973347 0.08128624 -0.06398257 0.010454737 0.07517787 0.07418672 -0.072180286 0.04176646
0.0931675 0.101570934 -0.0035519586 0.07055013 0.06899893 -0.014498838 -0.08554346 0.03095494

net.5.weight f4 [8, 32, 3]
00000000: a2bc 64bd 039d 41bd c1ca 863b fe5f b8bd
00000010: fbf9 2b3c 4c60 9b3a 8eb4 b1bd 5340 963d
00000020: d289 dc3c a983 463a 62d4 a3bd 83f0 cfbd
00000030: 9043 283d 577b 583d d715 153d 0b34 623c
00000040: fab2 12bc cf4f f43d 3220 97bc e509 4a3d
00000050: 464a 063e c656 9abd 298b 2a3c 71de 37bd
00000060: f761 883d 6756 9c3d f937 773d 6689 bc3c
00000070: 897a 8abb 261b eebd 714f c83d 93db 98bd
00000080: a5a9 bebc 72d3 adbc 44df 76bc dd08 5fbc
00000090: d2c6 c03d ed7c 533d 0a19 113d 9116 733d
000000a0: dd6c b5bd f183 fb3c ea65 e9bd d230 bf3d
000000b0: 1377 893d f2e0 ab3c 4067 803c 6892 4a3d
000000c0: 5a80 d73d fcc1 99bd d214 883d eb93 23bd
000000d0: ea33 1d3d 1a1e 99bd bbf3 9d3c f4ad 1d3c
000000e0: a54c fe3d f2ce a03c 8668 36bd a22a 6b3d
000000f0: 8826 023e f332 ce3d 5d67 4e3c 0dd0 213c
00000100: 463f 91bd ba7b 293d 7e10 ecbb 5745 4d3d
00000110: 884e 05bd 018c a93c dbe1 0f3d 127f aebc
00000120: ee1a a1bd 0d31 73bd f09e 7cbd 2bcd bdbd
00000130: f14e 6a3c 6f5b 313d 39bb bdbd fbbb a5bd
00000140: ec62 713d ec1f e9bd 1748 dbbc 048c 443d
00000150: 5b5d 2abd a35f 383d 0f47 413d 26f2 b8bc
00000160: 28f9 f73c 1726 4ebd e6e6 1abc 256d 753d
00000170: 813a b43d a37c 5e3d 7498 bc3c 8655 b23d
00000180: 7964 073c bb1e 94bd c6e2 88bb 7b4d e2bc
00000190: cd93 663d c5a1 b7bd 1a0f 9d3d 7151 373d
000001a0: 637e c63d 2064 30bd 6971 ab3d 7820 87bd
000001b0: 0859 7cbd 5403 ac3d cdb1 2cbd 7ac3 74bd
000001c0: 3e24 d33c 4cc2 3abd ac98 88bd eb54 d2bc
000001d0: ca0f a1bd 9b0d 773c 88ff 833d dd74 aa3d
000001e0: 1ed1 babd 2043 233b 68c2 f3bd 1a0c 9cbd
000001f0: f802 89bd 4692 7a3d b43c c53a 8835 8dbd
00000200: b0ac 083d acb6 f6bc b0a7 0cbb 2227 eb3d
00000210: 9a86 0c3c 9e40 48bd 0c14 783d 0c74 8fbb
00000220: c4b6 cfbd cda6 9cbc 0eba 21bd 357f 343c
00000230: aa2c ba3c 6bec e53c 5bf6 003c 2ecf a93d
00000240: 3e3d b23d 0077 41bd d60d d2bd 66d4 de3d
00000250: 8a2d 10bc 68af d5bc 1ae8 943c e2fb 6bbd
00000260: 7aa7 28bc ac23 afbd 7ddf d8bd 4eef dcbd
00000270: 89a9 9cbd 4331 a13d f9cd c0bd 947e d63d
00000280: 5aaa 18bd 7813 45bd 3c19 1bbd ea37 dbbd
00000290: ee16 c7bc f4fd 81bc ea84 1b3c a06d 0f3d
000002a0: acc3 383d d5d1 9dbd 1d61 dfbb 39f3 febc
000002b0: 93f6 f1bc 6f5e 81bd 5ec4 583d 74b3 cabd
000002c0: 0072 eb3c 95db f33d ac30 c3bc 124c 503d
000002d0: c1be 32bd c06e 673d 5c82 fcbc 1ef2 f6bd
000002e0: 8391 b8bd 2b27 de3c 8d09 90bd feed fdba
000002f0: 9822 ca3c 32d9 e2bd 812a 5b3d c308 4ebd
00000300: 1c74 5d3d d5b3 80bd ece0 0dbd c622 523d
00000310: 377e e03b b4d7 bebd 5c67 a53d 610b 7a3d
00000320: c846 853d ed34 c33b ac75 113c b275 a4bd
00000330: 805d febd d8a3 dfbd 8422 a4bd ede0 bfbd
00000340: 2f90 d0bd f649 9e3c e8d7 b2bd 2a21 af3d
00000350: beb4 a1bd b0bd 273d de84 af3d 2c87 1ebc
00000360: 7a3f 9abd ba55 873b 957c c8bc dfd1 f8bd
00000370: 7cf1 843c 713e 2b3c b919 043d bc6e 573d
00000380: 8209 5fbd 5a1b 673d ac0a a83d 0957 a53d
00000390: 1693 70bd 6481 f03c fa41 5abd 8e0b a3bd
000003a0: bb3a 2e3d 9ef4 ccbb c02b f83c 3777 75bd
000003b0: c6b5 eebc db32 943d 7462 933c a613 29bc
000003c0: f16a f6bb df62 333c a697 eabd e1b0 4d3d
000003d0: cbcd ff3c 05f4 643d ffb2 41bd bdfc b23c
000003e0: 7b8e 39bd fa2f 733d bd9e 9c3d 06fd 03be
000003f0: 8777 243d b34e 903d dae5 c1bc cdec c2bd
-0.055843957 -0.04726888 0.0041135256 -0.09002684 0.010496612 0.001185426 -0.08677016 0.073364876
0.026921187 0.00075727195 -0.07999493 -0.10153296 0.041080058 0.052852 0.03639778 0.013806353
-0.008953804 0.11929285 -0.01844797 0.049325842 0.1311427 -0.07536082 0.010409155 -0.04488987
0.0665931 0.076336674 0.060356114 0.023014735 -0.004226033 -0.11626272 0.09780777 -0.074637555
-0.023274252 -0.021218989 -0.015067879 -0.013612953 0.09412922 0.05163281 0.03542427 0.059347693
-0.08858655 0.030702563 -0.11396392 0.093354836 0.06712165 0.020981286 0.015674233 0.04945603
0.10522528 -0.07507703 0.06644596 -0.039935987 0.038379587 -0.074764445 0.019281259 0.009623993
0.124169625 0.01962993 -0.044533275 0.057413705 0.12710011 0.100683115 0.012597886 0.009876263
-0.070921466 0.04137776 -0.0072041145 0.050114956 -0.032545596 0.020696642 0.035127502 -0.021300826
-0.078664646 -0.05937295 -0.061675012 -0.09267648 0.014301048 0.04330009 -0.092642255 -0.08092495
0.05893223 -0.11383042 -0.026767774 0.04798509 -0.041592937 0.04501308 0.047186907 -0.022576403
0.030270174 -0.050329294 -0.009454465 0.05991854 0.08800221 0.05431808 0.023021914 0.087077186
0.008263701 -0.07232424 -0.004177424 -0.027624836 0.056293298 -0.08966402 0.07668896 0.044755403
0.09692075 -0.043064237 0.08371241 -0.0659799 -0.061608344 0.08399072 -0.04216175 -0.059756733
0.025774118 -0.045595452 -0.06669745 -0.025675258 -0.0786434 0.015078927 0.06445223 0.08323071
-0.09121917 0.0024911836 -0.119023144 -0.07619496 -0.06690019 0.061174653 0.0015047998 -0.06894976
0.033367813 -0.030116402 -0.0021462254 0.11482073 0.008577013 -0.04888975 0.060565993 -0.0043778475
-0.10142282 -0.019122506 -0.039484076 0.011016657 0.022726376 0.028066834 0.007871236 0.082914695
0.08703087 -0.047232628 -0.10256545 0.108803555 -0.00879992 -0.026084617 0.01817708 -0.05761326
-0.010293836 -0.08551726 -0.10589502 -0.10787831 -0.07649524 0.07870724 -0.09414286 0.104733616
-0.037271835 -0.04811427 -0.037865862 -0.10704024 -0.024302926 -0.015868165 0.009492138 0.035016656
0.045108482 -0.07706038 -0.0068169967 -0.031121837 -0.029536521 -0.0631684 0.052921645 -0.09897509
0.028740883 0.11907116 -0.02382692 0.050853796 -0.04363895 0.056502104 -0.030823879 -0.12057899
-0.09012129 0.027118286 -0.07033072 -0.0019373295 0.024674699 -0.11076583 0.05350733 -0.050301325
0.05406581 -0.062843 -0.03463833 0.051302694 0.0068509835 -0.09318486 0.08076355 0.061046008
0.06507641 0.005957237 0.008878153 -0.08030261 -0.124201775 -0.109199226 -0.08014396 -0.09369073
-0.10183751 0.019322377 -0.08732587 0.085512474 -0.07895802 0.040952384 0.08570264 -0.009675782
-0.075316384 0.0041300924 -0.024473468 -0.12149405 0.01622843 0.010451899 0.032251094 0.05259584
-0.054452427 0.05642257 0.082051605 0.08073241 -0.058734022 0.029358573 -0.053285576 -0.07961188
0.04253648 -0.0062547466 0.0302943 -0.059928145 -0.02913941 0.072362624 0.017991282 -0.010319626
-0.0075200726 0.010948866 -0.11454706 0.050217513 0.03122606 0.055896778 -0.047289845 0.02184903
-0.045301896 0.059371926 0.076474644 -0.1288949 0.040153053 0.07046261 -0.023669172 -0.095178224

net.5.bias f4 [8]
00000000: aa67 e2bb 584b 24bc ba79 8fba 20a5 463d
00000010: 99d7 2dbc c673 7f3d 3cc1 963c c61e 5c3d
-0.0069093304 -0.010027729 -0.0010946312 0.04849732 -0.0106104845 0.06236627 0.018402688 0.053740285

exp_avg f4 [32, 120, 2]
00000000: 0f46 ee37 af47 9138 dec6 cdb8 8d43 9db8
00000010: 7f33 7f37 d433 7139 6754 8cb9 4bec df39
00000020: 3f99 14b9 eab0 52b7 daa3 deb8 227c 43b7
00000030: f03b 46b8 c77b 9f38 16b8 ccb9 e60b 04ba
00000040: fb10 26b9 66d0 ac38 1f7d 8736 142b 9fb5
00000050: 5fca 3d37 7795 04b7 c5ef 9eb9 b042 e0b8
00000060: bcad 2238 1217 42b8 11cd 8db9 8eca b0ba
00000070: 44ed 84b9 b742 9bb9 5444 20bb 1db5 8c38
00000080: ad1b 28b9 0290 0eb9 2b29 7738 d8c9 d6b7
00000090: 445d 5738 8278 5cba 8822 cfb9 12b2 4eba
000000a0: d424 9fb9 e234 96b9 ac97 bc36 a90f 92b9
000000b0: 84ba 97b9 b1b7 79b9 7b3a c1b9 83c0 06ba
000000c0: 1ee3 dd39 c0a8 96b8 1089 51ba 5426 3eba
000000d0: d04e 83b9 3ba2 b8b8 09d6 08b7 82f2 31b7
000000e0: e7d3 ad37 e76b c8b7 f889 6e39 86c8 6839
000000f0: 7371 4cb9 e0bc 09b9 9ba8 c2b8 19c5 8bb8
00000100: db63 3638 4e3f c9b7 d962 8137 2679 9337
00000110: 87e9 1ab9 5acc 90b9 af0a 5936 c76f c8b8
00000120: fa6c c9b8 45b9 4fb9 4b65 9138 7f56 ee37
00000130: 9422 0bb9 38f2 c538 0000 0000 0000 0000
00000140: 4d16 b0b8 bba7 90b9 998e 25b9 1abf 55b8
00000150: 37c9 a7b8 dd67 15b9 8d29 ad39 1610 4aba
00000160: feed 3439 23b9 5838 da10 cf38 c7b0 0d39
00000170: a877 c0b9 2f49 2fb9 8aab aab9 9007 4ab9
00000180: 15cb f839 93e0 9639 a6ba 03b7 9101 49b7
00000190: 4f69 9c38 f43c 4f38 3f3c 97ba 2eca 28b9
000001a0: 8308 efb9 63a6 e5b8 091b 1938 948c 8f39
000001b0: 9592 0aba 4ee4 12b9 c447 4a39 102f 10b9
000001c0: e78d aa37 f084 bab9 b77f 6d38 a09f 9b38
000001d0: 16bb 00b9 0d39 1a39 69e5 8338 1b30 07ba
000001e0: fdb7 d3b9 2185 9db9 0104 25b5 7a35 0736
000001f0: 31c1 5dba fcd7 04ba 3653 4138 301b e9b9
00000200: 7494 f1b9 1433 e7b9 0096 cc36 b518 35b5
00000210: bbc1 42b8 5eca 8db9 4788 6ab8 86d6 1bb9
00000220: cc43 02b8 a3a3 2ab9 42b9 19ba 6fad c6b9
00000230: 3305 94b8 8f84 ba38 8355 03b7 8dc6 acb8
00000240: 4a00 3a39 a81c da39 73e4 66b9 7e79 ec38
00000250: 4931 a5b8 faca 2d39 03f4 9838 000e 0739
00000260: b001 80b9 e42e edb8 f145 8cb9 d3df 6fb8
00000270: 69d8 fc39 5933 63ba 5a2c 63b9 0384 ce39
00000280: e766 3ab9 ae33 81ba c5d5 bbb8 0966 bab8
00000290: f512 1f39 4431 ba37 0a31 d1b8 6b69 c1b8
000002a0: 91b3 6e38 4d5d 16b8 6a2e d739 83ac b938
000002b0: 93b3 2838 20e3 4b39 be72 e138 bbee 2eb8
000002c0: 234f b8b9 310a 14b9 58ca 023a 5ba2 ac38
000002d0: 1cf6 d0b7 52f1 21b8 0bd8 2c39 d428 0d3a
000002e0: 9bb3 afb9 acf5 92b9 7597 9036 6a69 e1b7
000002f0: 0b47 2bb9 9f74 6d38 ec72 8bb8 df8d 9cb8
00000300: b1ef 07ba ed27 07ba 7b61 1c39 ae30 afb6
00000310: 6daa 5bba 75ef 21ba 51b1 d638 4846 cd38
00000320: e83a 7bb9 7ce9 9639 a268 5ab7 5184 ce38
00000330: c471 bfb8 de3b 8db7 bdb8 4a37 a789 55b7
00000340: edc3 1638 22f9 6db8 044c b1b7 fd3a 90b8
00000350: eb40 51b9 09ce 2c39 8004 9cb8 d1c1 bdb8
00000360: 7601 bfb8 d360 f2b8 62f2 8ab9 ed75 98b9
00000370: f64a 46ba 01f3 24ba c5c1 4739 00f3 433a
00000380: 22f3 f3b9 cc0a 14ba 571c 83b8 11b8 83b8
00000390: 35d4 13b9 7d9c 4b39 a7d6 793a db85 abba
000003a0: b1c6 0038 5339 7838 6a71 9eb7 85e2 f0b8
000003b0: b8a0 6a38 a319 b838 9a85 53b9 fe4b 7139
000003c0: de35 dc37 be0b b337 e9fb a3b6 187c 2539
000003d0: 571b 5938 330d eab8 f5b9 8e39 4e72 0538
000003e0: 8aa5 15b8 4985 4439 fc57 d738 4d44 a0b8
000003f0: c16e 2838 5650 b1b8 edc8 73b7 71ee 2c3a
2.8404434e-05 6.927491e-05 -9.812204e-05 -7.498926e-05 1.5211174e-05 0.00023002859 -0.00026765766 0.00042709926
-0.00014171469 -1.2558166e-05 -0.00010616305 -1.1651808e-05 -4.72627e-05 7.604766e-05 -0.00039047067 -0.00050371734
-0.0001583732 8.240416e-05 4.0378795e-06 -1.185896e-06 1.1312396e-05 -7.902613e-06 -0.0003031475 -0.00010693574
3.8785613e-05 -4.627469e-05 -0.00027046402 -0.00134881 -0.0002535378 -0.0002961361 -0.002445479 6.709455e-05
-0.00016032039 -0.00013595822 5.892773e-05 -2.5604779e-05 5.1346855e-05 -0.0008410291 -0.00039507844 -0.0007884811
-0.00030354282 -0.0002864963 5.6204935e-06 -0.00027858958 -0.0002893993 -0.00023814921 -0.000368554 -0.0005140381
0.0004232162 -7.1839895e-05 -0.0007993141 -0.0007253636 -0.00025044987 -8.8040215e-05 -8.156066e-06 -1.0606485e-05
2.0721882e-05 -2.3892104e-05 0.00022748846 0.00022199945 -0.00019497219 -0.000131357 -9.282046e-05 -6.664749e-05
4.348518e-05 -2.3990546e-05 1.5424028e-05 1.758018e-05 -0.0001477358 -0.00027618074 3.2341738e-06 -9.557563e-05
-9.604725e-05 -0.00019810077 6.933006e-05 2.8412089e-05 -0.00013268954 9.438809e-05 0.0 0.0
-8.396488e-05 -0.0002759079 -0.00015788748 -5.0961135e-05 -8.00066e-05 -0.0001424844 0.0003302809 -0.00077080855
0.00017254797 5.1670835e-05 9.873668e-05 0.00013512663 -0.00036710245 -0.00016716564 -0.00032552733 -0.00019267038
0.00047453554 0.0002877755 -7.851666e-06 -1.1980898e-05 7.458275e-05 4.9409413e-05 -0.001153834 -0.00016097046
-0.00045591974 -0.00010950563 3.650322e-05 0.00027379824 -0.00052861247 -0.00014008695 0.00019290956 -0.00013750442
2.0331658e-05 -0.0003557573 5.6624147e-05 7.4207084e-05 -0.00012276726 0.00014707838 6.289298e-05 -0.00051570096
-0.00040382138 -0.00030044562 -6.1473116e-07 2.0147695e-06 -0.0008459269 -0.00050675846 4.6092282e-05 -0.0004446148
-0.00046077708 -0.0004409781 6.097136e-06 -6.746371e-07 -4.643363e-05 -0.0002704439 -5.5916866e-05 -0.00014861868
-3.1057556e-05 -0.00016273423 -0.00058640924 -0.0003789472 -7.0581584e-05 8.893862e-05 -7.828118e-06 -8.238582e-05
0.0001773845 0.0004160155 -0.00022019613 0.000112759866 -7.876993e-05 0.0001657418 7.2933755e-05 0.00012879819
-0.0002441532 -0.00011309775 -0.0002675499 -5.7190493e-05 0.00048226424 -0.0008667014 -0.00021664929 0.00039389738
-0.00017776676 -0.0009857321 -8.9566725e-05 -8.888177e-05 0.00015170484 2.2195869e-05 -9.975031e-05 -9.222593e-05
5.6910856e-05 -3.584968e-05 0.00041042577 8.85362e-05 4.0221563e-05 0.000194442 0.000107502085 -4.1707168e-05
-0.00035154176 -0.00014118176 0.0004989258 8.23184e-05 -2.4910136e-05 -3.861014e-05 0.0001648368 0.0005384807
-0.00033512418 -0.0002803033 4.3091663e-06 -2.6871177e-05 -0.00016334296 5.6613815e-05 -6.6494424e-05 -7.465085e-05
-0.0005185558 -0.0005155791 0.00014913634 -5.2210735e-06 -0.00083795824 -0.00061773445 0.00010237343 9.788253e-05
-0.0002395917 0.0002878419 -1.3018174e-05 9.847491e-05 -9.12878e-05 -1.6836388e-05 1.2083151e-05 -1.2727839e-05
3.5945257e-05 -5.6737226e-05 -2.1135442e-05 -6.8774425e-05 -0.00019955977 0.00016479952 -7.439498e-05 -9.0483234e-05
-9.107862e-05 -0.00011557494 -0.00026502 -0.0002907956 -0.00075642706 -0.0006292314 0.00019050304 0.00074748695
-0.0004652972 -0.0005647361 -6.2518455e-05 -6.280852e-05 -0.00014098066 0.00019417885 0.0009530582 -0.0013086157
3.0702624e-05 5.9181195e-05 -1.888788e-05 -0.00011486284 5.593963e-05 8.778579e-05 -0.00020172299 0.0002301186
2.6251128e-05 2.134393e-05 -4.8871048e-06 0.00015781855 5.1762294e-05 -0.00011160448 0.000272229 3.1816126e-05
-3.567854e-05 0.00018741669 0.00010268387 -7.6421165e-05 4.015747e-05 -8.4549814e-05 -1.453071e-05 0.000659681

exp_avg_sq f4 [32, 120, 2]
00000000: 079f 3b33 9dea 9c33 7e18 9a34 3fea 7534
00000010: 3992 9636 57ef fe36 9dfb 1237 41c9 dc36
00000020: 8af9 bf35 a0c0 ab35 f3aa 4336 2509 5836
00000030: 8682 d434 23b2 9e34 72f6 3736 5859 d936
00000040: 464d 9b34 c8c9 b634 142b ef31 ac8f 9431
00000050: 7684 1d37 a891 2f37 56c9 ee36 bb86 bb36
00000060: 799b 7333 6cb8 bb33 1eb4 9c37 901b 2337
00000070: ada9 e136 94c7 b236 b013 ca37 c3d7 b937
00000080: 73dd 3d35 43bd 5a35 bdc6 2f33 a90e ef33
00000090: 18b9 4837 469a 4337 4aa6 7736 99f3 9336
000000a0: 6f62 7336 d939 7336 acf9 d334 3517 d434
000000b0: 1a8f 0537 7a6a 0c37 7f5a 4437 0aba 0e37
000000c0: fcdf b935 49fe 3236 76f7 dd37 4a6f 1038
000000d0: 347a a035 f8ef 1236 e450 a331 2675 6431
000000e0: 0d6c 1833 4b5a d832 cb0b e735 5439 1436
000000f0: 3453 7134 f9e2 b834 c6e5 c835 9c12 f135
00000100: c150 4e34 f986 4f34 e21f 0734 f8f4 1434
00000110: ab92 2e36 bd22 fc35 2cf3 1935 4e5e d034
00000120: ca40 7535 6a85 9735 acfd e833 6326 9a33
00000130: fdb5 8234 0c04 7b34 0000 0000 0000 0000
00000140: 22df 2a36 adcd 1337 23d3 5335 319b 9c34
00000150: ea30 a934 8286 6c34 2f67 7c37 5fd2 4337
00000160: 33d7 c934 576b 1a35 c1fd 7a35 9841 8d35
00000170: 6e81 fd35 206b 3d36 3f19 ac35 8753 8035
00000180: 743e da36 5379 8c36 06a3 5034 cec5 4934
00000190: 4f87 ae34 c746 3234 31ff 3a38 cfb0 ef37
000001a0: c249 8d37 90eb 7737 170b 7b36 e008 9536
000001b0: 870c 0036 e22d d635 9e4e f835 af1d 9c35
000001c0: 72df b136 642f 7b36 90cb 8233 d1ec a433
000001d0: 6c28 b634 cca0 c334 70fe 3236 3a87 2636
000001e0: b8ae de36 c8ce a936 456d 1d2f f082 e12f
000001f0: 3dea 3337 1573 de36 8ea5 5f36 b3f4 3236
00000200: a2f9 0236 5895 1536 8a8c 3b33 a59a be31
00000210: cd3b 1d36 9d0b 5136 829e 9b37 1981 b537
00000220: 7051 d033 cd12 a933 1484 2e36 66f6 4936
00000230: 67d4 ba36 3675 9c36 28b5 0137 e51f 5f36
00000240: 983f c035 a43e c935 43a3 1f34 2398 7b34
00000250: 47ab 7035 6011 8135 dcc5 cb33 5831 f233
00000260: 8b46 3735 1bad 4235 722d 6336 f23e 7036
00000270: 469c 9837 157c c837 f78c ac35 3160 2136
00000280: 2584 9937 1859 ad37 c0ce ca33 47af 1b34
00000290: 1229 7035 f43b 6735 235b 9f35 bd48 b435
000002a0: 84b8 a435 c01e 7335 50e7 a535 0389 a535
000002b0: 8545 e235 7207 3d36 4193 f635 ac80 cd35
000002c0: 0b20 e336 6a45 4936 ee9d dd35 7727 dc35
000002d0: 6c61 5934 d44a 2734 e45c 3836 66d7 fb36
000002e0: 5afe 0238 f2eb 8f37 32b1 4134 db04 7e34
000002f0: 7cd2 8735 44a6 9235 24f2 5e36 ec75 4136
00000300: 9726 9c35 0ea3 eb35 493c 5236 65fe ee33
00000310: ec23 7936 a46a 2a36 8b51 3435 14ee 5a35
00000320: 9ae6 de34 551b 0235 90ed 6b34 671e 5c34
00000330: a62f 7735 031d 9a35 e89a 1935 5983 5d35
00000340: 56bf 1936 4742 2736 0f79 3834 ef6c ae34
00000350: bf3c 8337 a538 d336 906f 5534 c865 9f34
00000360: 5818 6335 a31e 8035 c3c7 9e36 18cf 9536
00000370: a210 5337 2e5c 4737 1ed4 0a37 a603 4137
00000380: 6eeb 1936 69a5 3636 e0a8 8233 7ae4 9d33
00000390: 8ccb 7f35 466e 8c35 25d7 a237 cb58 ad37
000003a0: 4c42 0d34 9695 1b34 55fc e135 641e 0436
000003b0: 1645 0c35 60e5 0b35 25e2 4e35 4eda 8f35
000003c0: 024e 2c33 269b 4433 e599 6734 c88e 2434
000003d0: db4c bd36 ca0b c036 6e01 3336 f20b 2836
000003e0: 76a3 3f35 83ac 4935 b58d 3036 f60c 8c36
000003f0: 407c e834 88d7 ac34 e57f dc35 6354 0336
4.3683965e-08 7.306992e-08 2.8702556e-07 2.2902621e-07 4.487371e-06 7.5976527e-06 8.760861e-06 6.57994e-06
1.4303234e-06 1.2796554e-06 2.915677e-06 3.219183e-06 3.9583045e-07 2.9559405e-07 2.7412575e-06 6.477505e-06
2.8927224e-07 3.4046957e-07 6.960713e-09 4.3237005e-09 9.38877e-06 1.0464726e-05 7.1163913e-06 5.588719e-06
5.6719248e-08 8.741412e-08 1.8680523e-05 9.7219745e-06 6.7252754e-06 5.3280473e-06 2.4089444e-05 2.215419e-05
7.073024e-07 8.148674e-07 4.0926114e-08 1.11319714e-07 1.1964024e-05 1.1658825e-05 3.690266e-06 4.4093e-06
3.6267118e-06 3.6243493e-06 3.9483473e-07 3.9504963e-07 7.960736e-06 8.369441e-06 1.1703581e-05 8.507175e-06
1.3848762e-06 2.667208e-06 2.6460486e-05 3.443592e-05 1.1956495e-06 2.1895376e-06 4.7531206e-09 3.3244958e-09
3.548853e-08 2.518677e-08 1.7214273e-06 2.2087088e-06 2.2475143e-07 3.4437815e-07 1.4968034e-06 1.7961315e-06
1.9214623e-07 1.932748e-07 1.2584454e-07 1.3872693e-07 2.6013392e-06 1.8785573e-06 5.7350803e-07 3.8811635e-07
9.136389e-07 1.1289205e-06 1.08494845e-07 7.178166e-08 2.43468e-07 2.3377669e-07 0.0 0.0
2.5461854e-06 8.80977e-06 7.891087e-07 2.917018e-07 3.1514293e-07 2.2028146e-07 1.5044395e-05 1.1671887e-05
3.7595746e-07 5.752567e-07 9.350152e-07 1.0524409e-06 1.8887638e-06 2.822555e-06 1.2822346e-06 9.561053e-07
6.504177e-06 4.186449e-06 1.9430817e-07 1.8791545e-07 3.2508476e-07 1.660329e-07 4.458352e-05 2.8573353e-05
1.6842856e-05 1.4777193e-05 3.740837e-06 4.441579e-06 1.9080778e-06 1.5957596e-06 1.850032e-06 1.1631545e-06
5.3010235e-06 3.74295e-06 6.0906245e-08 7.679922e-08 3.3929553e-07 3.6438576e-07 2.667217e-06 2.481464e-06
6.6364555e-06 5.060665e-06 1.4317887e-10 4.1020298e-10 1.0723769e-05 6.629513e-06 3.3325955e-06 2.66665e-06
1.9516815e-06 2.228966e-06 4.366715e-08 5.547309e-09 2.3429632e-06 3.1150187e-06 1.855125e-05 2.1636997e-05
9.700568e-08 7.8730956e-08 2.60049e-06 3.0094757e-06 5.567959e-06 4.6628074e-06 7.731178e-06 3.3248155e-06
1.4323623e-06 1.4993898e-06 1.4867423e-07 2.3431544e-07 8.965621e-07 9.616306e-07 9.4889145e-08 1.1277979e-07
6.8275466e-07 7.2522533e-07 3.3852089e-06 3.5799426e-06 1.8192583e-05 2.3899638e-05 1.2856025e-06 2.404686e-06
1.8300556e-05 2.0664695e-05 9.4439656e-08 1.4499265e-07 8.946673e-07 8.614145e-07 1.1872947e-06 1.3432215e-06
1.2272653e-06 9.05693e-07 1.2360779e-06 1.2333334e-06 1.6858545e-06 2.8167528e-06 1.8371285e-06 1.5311139e-06
6.7688575e-06 2.9991738e-06 1.6511747e-06 1.6402763e-06 2.0245142e-07 1.558031e-07 2.7472206e-06 7.5054586e-06
3.12313e-05 1.7156799e-05 1.8038989e-07 2.365736e-07 1.0119543e-06 1.0926237e-06 3.3221522e-06 2.882788e-06
1.1634137e-06 1.755632e-06 3.132753e-06 1.1129013e-07 3.71248e-06 2.5394047e-06 6.7173886e-07 8.155778e-07
4.1518507e-07 4.846855e-07 2.1972505e-07 2.0500157e-07 9.208401e-07 1.1482338e-06 5.722236e-07 8.252005e-07
2.2910149e-06 2.4923518e-06 1.7180376e-07 3.2489285e-07 1.5644704e-05 6.2948843e-06 1.9877757e-07 2.9690113e-07
8.4599515e-07 9.54566e-07 4.7320223e-06 4.464655e-06 1.2580453e-05 1.1882787e-05 8.274828e-06 1.1504546e-05
2.2935815e-06 2.7216395e-06 6.084315e-08 7.352442e-08 9.52911e-07 1.0462907e-06 1.941209e-05 2.0664555e-05
1.3155767e-07 1.4489919e-07 1.6837245e-06 1.9687222e-06 5.22546e-07 5.211532e-07 7.7070064e-07 1.0717865e-06
4.011782e-08 4.5775913e-08 2.1569538e-07 1.5325634e-07 5.641586e-06 5.7234183e-06 2.667391e-06 2.5040904e-06
7.139091e-07 7.512937e-07 2.6308528e-06 4.173834e-06 4.330377e-07 3.2194316e-07 1.64285e-06 1.956964e-06

exp_avg f4 [32]
00000000: 874f 17bb 07c1 99b9 ae1b 783b dd28 1cbb
00000010: 273a e8bb 098e e3bb e48c 19bc da71 0ebb
00000020: 7b76 c8bb 0837 74bb 0130 883b fb9e 8e3b
00000030: e3af b4bb 0353 68bb 8501 893b 4677 eabb
00000040: 6959 13bc 20ee 143b 7fd5 d5bb 9293 b2bb
00000050: 2206 b9bb 1937 1dbb 69da 533b 6382 b5bb
00000060: dcbc 0b3c 040a 8e3b fbdc e23b 192f 213c
00000070: 2f50 673b 3ff8 7e39 edfb 1abb ddce 13bc
-0.0023088173 -0.0002932625 0.0037858295 -0.0023828067 -0.0070870104 -0.006944422 -0.00937197 -0.0021735341
-0.0061176396 -0.0037264246 0.004156113 0.004352448 -0.0055141314 -0.003544987 0.0041810893 -0.007155332
-0.008993485 0.0022724941 -0.006525695 -0.0054497207 -0.005646483 -0.002398914 0.0032326228 -0.005539225
0.008528914 0.00433469 0.0069233156 0.009837889 0.0035295596 0.00024315807 -0.0023648695 -0.009021488

exp_avg_sq f4 [32]
00000000: 2c30 9739 46c4 2238 09d0 593a 7d92 c138
00000010: d955 703b 686d b03a 5d71 493b 6eff 7d3a
00000020: be9e 083b 7be6 1b3a fe7c 233a 4636 2c3a
00000030: 4303 e23a 0500 453a e784 5a3a 1171 123b
00000040: 90f5 973b 4879 df39 16cd 4f3b ae7c f83a
00000050: 4d04 f03a 52b6 2739 6693 5b3a 5e23 663a
00000060: 6942 693b 8f70 023a a127 a63a 9b87 713b
00000070: 29e7 6c39 f0a3 fa37 4332 c439 2702 903b
0.00028836855 3.8806604e-05 0.0008308893 9.230243e-05 0.0036672263 0.001346034 0.0030737736 0.0009689246
0.002084657 0.0005947125 0.0006236582 0.00065693667 0.0017243404 0.00075149565 0.0008335844 0.0022345225
0.0046374276 0.00042624236 0.0031707934 0.0018958056 0.0018311829 0.0001599428 0.0008376151 0.0008779074
0.0035592562 0.0004975879 0.0012676605 0.0036854509 0.00022592828 2.9878662e-05 0.0003742148 0.004394788
