data/Figure3_Supplement/017/checkpoint_0004000.pth (torch, 234049 bytes, 31 tensors)

net.0.weight f4 [32, 120, 2]
000000 0a 76 bf 3b cf 16 ab bc 2e d0 6a bd 18 7f 11 3d
       0.005842929 -0.0208849 -0.057327442 0.035521597
000010 dc 01 2f bd bf 5a a0 bd 52 96 dd bd 0d a0 95 3b
       -0.042726383 -0.078298084 -0.10819687 0.0045661987
000020 5e 47 35 bd c6 05 0b 3d 9b 5c 38 bd 8e 0a 59 bc
       -0.044257514 0.033941053 -0.04501019 -0.013247145
000030 d1 06 80 3c 7b 4b 50 3c b0 15 21 bb f9 be 40 3d
       0.01562825 0.012713308 -0.0024579577 0.047057126
000040 4e e0 bc bb 18 a3 da bb cf 5d ca 3d 8a a7 28 be
       -0.005764044 -0.0066722743 0.09881174 -0.16470161
000050 61 ea cb bc fc 37 e1 bd da d0 b0 bd d1 ad 96 bc
       -0.024892034 -0.10997006 -0.08633585 -0.018393429
000060 83 21 5d bd cc ad ab 3c c7 9b 83 3c 9d 80 a2 bc
       -0.053987037 0.020956896 0.016065491 -0.019836718
000070 1b ef 84 bd f0 79 75 bd b6 98 5c 3d 52 f9 ba 3c
       -0.06490918 -0.05993074 0.053856574 0.022823963
000080 b6 51 b2 bd bf 19 ec 3c d9 07 ff 3d 72 ae 11 3d
       -0.087069914 0.02882087 0.12452669 0.035566755
000090 4b 40 97 bc cd db 7b 3c 23 c5 9a 3d 50 05 71 3d
       -0.018463274 0.015372229 0.07557132 0.058842957
0000a0 90 df ab 3d 88 64 bc bd 31 1c dc 3d 66 2d 84 bc
       0.083922505 -0.09198862 0.107475646 -0.016134929
0000b0 51 3e 6e 3c f9 3c 84 3c d5 d7 86 3c 72 f2 db 3d
       0.014541225 0.016142355 0.016460339 0.10739602
0000c0 0d 22 2a bd 04 cb d2 3c 5f 5d b3 bc 54 6e 2a 3d
       -0.04153638 0.025731571 -0.021895109 0.041609123
0000d0 51 0b f4 bd c2 c8 21 bb 93 a0 f3 3b a3 3a ad 3d
       -0.11916221 -0.0024686311 0.0074349134 0.0845845
0000e0 e0 bf 2a bd af 0a 26 3d 77 06 4e 3b 00 c7 0a bc
       -0.041686893 0.040537532 0.0031436959 -0.008470297
0000f0 7c f3 05 bd 31 84 fc bd ee 94 e8 bd 5f 71 dd bc
       -0.032702908 -0.12329901 -0.11356531 -0.027031599
000100 ea fa 84 bd e2 80 02 be 5f 93 72 bd ec db 70 bd
       -0.064931706 -0.12744477 -0.059222575 -0.058803484
000110 71 95 32 3d 8c 99 88 bd 78 f1 9f bd f2 75 89 3d
       0.04359955 -0.06669912 -0.078097284 0.067119494
000120 c2 91 ef bd c4 9e 77 bd 5d f0 f2 bc 0f 33 1c bd
       -0.11697723 -0.060454145 -0.02965563 -0.03813463
000130 aa ad ba bd c1 49 65 3c a2 bb 6b bc c9 89 77 3c
       -0.09115155 0.013994635 -0.014387997 0.015108534
000140 a8 9f f6 3c ed ba 83 3d 2a b8 4e 3d 13 9e 1d bd
       0.030105427 0.06432138 0.0504686 -0.03848083
000150 e8 b9 11 bd 15 38 59 3d 65 20 52 3d 52 db 06 bd
       -0.035577685 0.053032 0.051300425 -0.032924004
000160 65 10 9a bc a3 fa aa bc d0 45 ae bd bd 3e 20 bd
       -0.018806646 -0.020871466 -0.085094094 -0.039122332
000170 c4 72 ac 3d 33 32 39 bb f9 bd f6 3c a8 6c ed 3b
       0.08420327 -0.002825868 0.030119883 0.007245619
000180 19 7b c1 3d ec 1a 8e bd f2 55 22 be bb 5a 04 bc
       0.09447307 -0.06938729 -0.15853098 -0.008078272
000190 94 3d 95 3d d6 25 06 be b0 13 61 bd a6 18 4d 3d
       0.07287136 -0.13100371 -0.054950416 0.050072335
0001a0 f2 25 22 3d 44 99 a3 3d 93 66 e4 bd fb 7b 71 3d
       0.03958697 0.079882175 -0.11152377 0.058956128
0001b0 d4 1d 34 3d bd 69 7f bd e6 44 33 3c 10 55 eb bc
       0.04397376 -0.0623567 0.01094172 -0.028727084
0001c0 4d 0a 77 3c 3b c8 c9 bd 6e b4 e0 bb 4a 01 62 bc
       0.0150781395 -0.09852644 -0.0068574464 -0.013794253
0001d0 fd 3c b1 bd 09 b1 ef bd 87 63 4a bd 23 55 08 3c
       -0.08654211 -0.11703689 -0.049411323 0.008321079
0001e0 05 3a 87 bd 6a 0b 29 bd 69 49 79 bd 88 39 0a bc
       -0.06602863 -0.04127065 -0.060861025 -0.008436568
0001f0 61 9a c5 bc 7b ff 00 bd 31 ef f5 bd 28 c8 97 bd
       -0.024121465 -0.031493645 -0.12008513 -0.07411224
000200 9b cf 1d 3c f3 c2 03 bd 15 95 fd bc 8e d6 59 3d
       0.0096320165 -0.03216834 -0.030954877 0.05318313
000210 b3 bf d0 3c 2e fa 19 bd e8 0a b3 bd 6c 89 bc bc
       0.025482034 -0.037592106 -0.087423146 -0.023014747
000220 f7 a1 ab 3c 34 f5 f3 bc 23 c9 2f bc 9d ab 0c 3d
       0.020951254 -0.029780008 -0.010729107 0.03434335
000230 11 18 59 3c 5e d8 e8 ba 82 8b 51 bd ec 3b 9b bd
       0.013250367 -0.0017764678 -0.051158436 -0.075797886
000240 7c 66 f8 3b d8 d7 0f bd 92 29 b8 bd 2e 9e 3f bd
       0.0075805765 -0.035117954 -0.08992304 -0.04678171
000250 82 cf 09 bd 92 b6 8c 3c 54 08 90 3c 0c 14 0a bd
       -0.03364516 0.0171769 0.017582096 -0.033710524
000260 8e b6 34 be 49 a4 22 be 12 48 cc 3b 96 7a 9c 3d
       -0.17647764 -0.15882982 0.0062341774 0.07640569
000270 22 a6 99 3d fe 78 10 3d 87 f2 be bc fd 8f 0f be
       0.075023904 0.035271637 -0.023309005 -0.14019771
000280 59 e0 6c 3d 6c 37 b3 bd 05 c3 b9 3d ae 68 32 be
       0.057831142 -0.08750805 0.090704 -0.17422745
000290 79 ca 55 3d 3b d5 85 3d 44 b9 bd 3d 6c 4b 2b bd
       0.052195046 0.06534811 0.09263852 -0.041819975
0002a0 6d fb d6 3c a0 46 14 3e 09 14 0a be 5a 80 20 bd
       0.026242936 0.14480066 -0.13484205 -0.039184906
0002b0 87 e8 56 bd 17 6b 92 bc 3b 9a 0c 3d 95 19 81 3d
       -0.05246785 -0.01787333 0.034326773 0.063037075
0002c0 f4 33 18 3d 29 b2 d7 3d 71 f1 1d bd 2d 75 22 3d
       0.03715892 0.10532028 -0.038560335 0.03966253
0002d0 11 80 b2 3d 9c 1f 54 3c c6 6f 3c bd ea 6c 8d 3d
       0.08715833 0.012946989 -0.046005033 0.06905539
0002e0 15 b7 3f bc 93 d4 2f 3b a3 0b dd bd 3b 9b 8d bd
       -0.011701365 0.0026829585 -0.10793235 -0.069143735
0002f0 70 c7 e1 3b a2 a7 17 3d cc d0 15 ba 57 af da 3b
       0.00689023 0.0370251 -0.0005715012 0.006673734
000300 fa 42 2c 3c 77 f7 39 3d c5 53 96 3d 26 65 a2 b9
       0.010514015 0.045402016 0.073401965 -0.0003097441
000310 7e 12 b1 bc 3a 0e 04 3d 14 ea 6d bc ac c2 12 bd
       -0.021615263 0.03224013 -0.014521141 -0.035830185
000320 10 fd 1f bd 5a 03 07 be 5a 36 cf bc b7 fa e6 ba
       -0.0390597 -0.13184872 -0.025294472 -0.0017622326
000330 fc e5 88 bc 85 51 c7 3b 4f 7a 03 3d d3 d1 bc bb
       -0.016711228 0.006082716 0.032099064 -0.0057623177
000340 7b 10 4a be 45 2c 31 bc 19 af 55 3e 7b e1 5e 3e
       -0.1973285 -0.010813777 0.20867576 0.21765701
000350 b9 6f 2a be 58 31 9e bd 28 a5 cb bd 00 b0 98 bc
       -0.16644181 -0.07724255 -0.099436104 -0.01863861
000360 61 33 34 bd 72 5e 48 bd 06 26 c0 bd 79 61 68 bd
       -0.04399431 -0.048918195 -0.093822524 -0.056733582
000370 9a 6c 54 bd cd 50 9f bd e1 19 c1 bc 5e a1 dd bc
       -0.051861383 -0.077790834 -0.02357191 -0.027054485
000380 f7 03 83 3c a4 5e 00 be 85 d9 20 3d 99 0e 52 bd
       0.015993102 -0.12536103 0.039269943 -0.051283453
000390 0b 18 c4 3d 48 cb 6d bd 65 31 74 bd aa f2 6d bb
       0.09574898 -0.058055192 -0.05961742 -0.003630797
0003a0 c7 6d 8a 3d f3 00 72 3b 48 4c d3 bd 75 78 a5 3c
       0.067592196 0.0036926835 -0.10317284 0.02019904
0003b0 32 78 8f 3c dc a3 df bc 88 dd b0 3c 44 6f c7 bd
       0.017513368 -0.027299814 0.02159001 -0.09738019
0003c0 66 cf 0d 3d 06 9c 90 bd 5f 22 7c 3d ec b2 50 3c
       0.03462162 -0.07061009 0.061556216 0.012737971
0003d0 ca ba c2 bc a0 5d 05 3d bc 39 29 3d 58 f3 be 3b
       -0.023770709 0.03255999 0.041314825 0.0058273487
0003e0 5b fd 84 3d b3 5e 95 bb 5b 5f 05 3d a8 e5 17 3d
       0.06493636 -0.004558408 0.03256164 0.03708425
0003f0 15 9d 64 bd 2d 64 2c bc a3 b6 99 bb 11 77 91 3d
       -0.055813868 -0.010521931 -0.0046909614 0.07102788

net.0.bias f4 [32]
000000 1d f2 1f bd 8a 0e 70 bb 2a bc 8a bd 8f f4 05 3d
       -0.039049257 -0.003662976 -0.06774171 0.032703932
000010 09 31 6e 3c 9b b4 84 bd 58 44 3b 3d 25 43 a5 bc
       0.014538058 -0.0647976 0.045719475 -0.020173619
000020 76 f8 06 bd 2b bb a9 bc 9f 69 5d bd 19 d5 3a 3c
       -0.032951795 -0.020719131 -0.054055806 0.0114033455
000030 3d 20 40 3d fe 4a 37 3d 9c fe e1 3c 9d 37 85 3b
       0.046905745 0.044749252 0.027587228 0.0040654675
000040 c2 d2 30 3c 9f b5 55 bd 80 4e 5a 3d c7 1b 58 bd
       0.010792436 -0.05217516 0.05329752 -0.052760866
000050 5c 3b 55 3c 22 58 84 3c be 51 23 3d 26 7b 6e 3c
       0.013014641 0.016155306 0.039872877 0.014555728
000060 a2 ee 45 bc e6 3c e0 bb 78 31 f2 3c 04 e1 4d 3d
       -0.01208082 -0.006843197 0.029564604 0.05026342
000070 d9 62 b4 3c a1 2e 09 bd 2c 95 f3 3c e9 dd 19 3d
       0.02201979 -0.033491734 0.029734217 0.037565146

net.2.module.0.weight f4 [32, 32, 3]
000000 80 2f be 3d f4 53 2b bd 8f 04 1b 3e 0b 09 20 ba
       0.09286404 -0.04182811 0.15138458 -0.0006104863
000010 9e 69 9c bd ad 50 0b bd eb 48 2c 3d 41 6b 84 3d
       -0.076373324 -0.034012485 0.042061727 0.064657696
000020 6c b9 e0 3c 2d 78 5c bc ce e9 23 3d 6c ff 4e bd
       0.027432166 -0.0134563865 0.040017895 -0.050536558
000030 3d dc eb bc 55 3d b2 bd 85 cb 01 be cd e3 77 3c
       -0.028791541 -0.087031044 -0.12675293 0.0151299955
000040 a1 c9 af bd 4a cb 06 3d a2 6f ea bc 18 63 62 3c
       -0.085833795 0.032908715 -0.028617684 0.013817571
000050 0e 77 38 bd 00 87 4c bd 22 8d 2a bd d4 99 b9 bd
       -0.045035414 -0.049933434 -0.0416385 -0.090625435
000060 ee 33 12 3e 52 c9 02 3e 54 dc e3 3c 19 ac 96 bd
       0.14277622 0.1277211 0.027815022 -0.07357044
000070 df 3a 24 bd 93 51 13 bd c0 6e 0f be 2b 14 1f bc
       -0.040095206 -0.035966467 -0.14007092 -0.009709398
000080 aa e8 f8 bd b1 f1 40 3e 79 91 d3 3d f1 3a 4e 3d
       -0.12153752 0.18842198 0.10330481 0.05034918
000090 07 3e f3 3d b7 8d db bd 17 77 d0 3d 48 9d 20 bd
       0.11877065 -0.10720389 0.101789646 -0.039212495
0000a0 92 4f f2 3d ac b0 33 3d ea de 97 bd a2 9f 42 3d
       0.11831583 0.04386966 -0.07415564 0.04751552
0000b0 97 77 2e bd 0b e4 3e bd 96 aa 8d bd ee 28 97 bc
       -0.04259452 -0.046604197 -0.06917302 -0.018452134
0000c0 f4 93 9a bd c8 b3 fc bc f8 c9 81 bd 05 7e 4d 3e
       -0.07547751 -0.030847445 -0.063373506 0.20067604
0000d0 93 d2 84 3d cb 9f 0f 3d 33 9f b0 3c 93 8b 8c bd
       0.06485476 0.0350645 0.021560287 -0.06862559
0000e0 2d 76 48 bd c9 de 02 3e 28 a8 48 3d 37 d8 99 bd
       -0.048940826 0.12780298 0.04898849 -0.07511943
0000f0 c7 bf 81 bd 1e c3 a4 bc 47 31 16 3d 1c 87 05 bc
       -0.06335407 -0.02011257 0.03666809 -0.008149888
000100 8b 0d 70 bd d9 ab a1 bd 56 fc 19 bd cb 5a a4 bc
       -0.058606666 -0.078941055 -0.037594162 -0.020062825
000110 53 74 5d bb 4b 44 87 3d 75 63 6b ba 55 91 ac 3d
       -0.0033791258 0.06604823 -0.0008979359 0.084261574
000120 1d 7f cb bd d6 c2 ad 3c 24 aa 63 3d 63 4a b3 bd
       -0.09936354 0.02121107 0.05558218 -0.087544225
000130 11 9c 88 bd 24 84 e5 bd ea a7 0d bb 82 a8 c4 bb
       -0.06670392 -0.112068444 -0.0021614977 -0.006001533
000140 1a 5e 96 3d b4 7f 22 3e a2 34 8e 3d 34 d8 63 3d
       0.07342167 0.15869027 0.06943633 0.05562611
000150 7d 08 fa 3d 59 9e 9d 3b 0d a3 ac 3d 57 29 f7 bd
       0.1220865 0.0048101363 0.08429537 -0.12068432
000160 d1 8e 06 3d 54 77 3c bd 04 fb 36 bd 49 57 b4 3d
       0.032851044 -0.046012238 -0.04467298 0.08805711
000170 30 b9 a1 3d 8c f0 04 3e ce 4b bc 3d c5 1d 08 3d
       0.0789665 0.12982386 0.09194146 0.033231515
000180 44 1f 29 be 08 08 4a 3d 61 6a 60 bd 63 24 1c 3e
       -0.16515833 0.049324065 -0.05478895 0.15248255
000190 a2 72 fe bc 7b 27 7b bc c1 e2 31 bc 32 64 0e bd
       -0.03106052 -0.015329237 -0.010857285 -0.034763522
0001a0 76 03 8b bc 82 94 22 bd 39 52 da bd 30 32 a0 bb
       -0.016969424 -0.03969241 -0.10660214 -0.0048887953
0001b0 d4 e0 0b 3d 8c 4e 99 3d 31 26 4f 3d e3 da 2d 3d
       0.03414996 0.07485685 0.05057353 0.042445075
0001c0 50 9b 8f bc fb 01 73 bc 44 f9 f5 bb a2 c6 7b bb
       -0.017530113 -0.014832015 -0.0075065214 -0.0038417955
0001d0 f2 7f 93 3b 4e d8 46 3e 2f 81 54 bd fa ec a1 3d
       0.0045013363 0.19418451 -0.05188101 0.07906528
0001e0 c3 a9 4c bd 68 30 e0 bc 8f b9 0d bd 60 d3 a8 3c
       -0.049966585 -0.027366832 -0.03460079 0.020608604
0001f0 42 19 71 3d 06 a3 44 3c 79 a8 0f 3e 01 e7 93 3d
       0.05886198 0.012001758 0.14029111 0.07221795
000200 f7 98 08 3e 3e 0b 46 be 7d 70 f7 bd f8 75 8b bc
       0.13339601 -0.19340226 -0.12082002 -0.017024025
000210 d0 33 3d be a0 3a 23 3d 15 49 bc bd 3f 4f a6 bd
       -0.18476796 0.03985083 -0.09193627 -0.08120584
000220 96 33 be 3c a5 70 13 bd 46 18 4c 3e 6d 66 ae 3c
       0.023217957 -0.035996098 0.19931135 0.021289075
000230 88 a7 11 3d 8c 03 c8 bd 44 a3 c5 bd 47 aa f5 bd
       0.03556016 -0.097663015 -0.09650281 -0.119953685
000240 96 48 dd bd a3 09 7b bd 19 50 19 bd 78 7a cf bd
       -0.1080486 -0.061288487 -0.037429903 -0.10130781
000250 9e db 0b be c6 18 48 3d 28 ec a9 3d 3d dd 05 3d
       -0.13657996 0.04885175 0.08296996 0.032681692
000260 d5 13 22 3c 07 ef e8 bc 18 ef 91 bd 25 99 f7 bc
       0.009892424 -0.02843429 -0.07125682 -0.030224392
000270 b2 85 4e 3c 48 fc 91 3a b4 19 f6 3d 7e ef a4 3d
       0.012605118 0.0011137808 0.12016621 0.08053492
000280 a4 ba a3 3d 98 2f c7 bd 45 b4 29 bd 12 cb 27 bc
       0.07994583 -0.09725875 -0.041431684 -0.010241287
000290 ef 96 ec 3b db e6 27 be be 11 b2 3c f3 32 a8 3d
       0.007220141 -0.16396658 0.021736976 0.08212843
0002a0 8a 18 ee 3d 6a f6 a0 3d bd 1f 7f 3d 56 0a 44 bd
       0.11625774 0.078595 0.062286127 -0.04786142
0002b0 5f 10 08 bd c0 06 1c 3d a9 b3 da bd b4 26 d0 3d
       -0.033218738 0.038092375 -0.10678799 0.10163632
0002c0 0a 94 8c 3d e1 fa 0b be 87 a8 1d bc bc 18 22 bd
       0.06864174 -0.13669921 -0.0096227 -0.03957437
0002d0 f2 2a b5 bd 49 32 89 bd 21 3c 18 be 36 2e 1e 3d
       -0.08846082 -0.06699044 -0.14866687 0.03861829
0002e0 fd 36 2e 3d 2b 98 35 bd de 5f e1 3c 1e 72 35 bd
       0.04253291 -0.04433457 0.027511533 -0.044298284
0002f0 82 4c c9 3d f6 db 72 bd 8d d2 fd bc 60 71 85 bd
       0.09829046 -0.059291802 -0.030984187 -0.06515765
000300 47 b6 7f 3c 6b d5 7c 3d 35 da 3f 3b d2 f6 6c bd
       0.015607423 0.06172697 0.0029274349 -0.057852574
000310 0f 5c 9c 3d 08 dc 82 bd 99 24 95 3d 76 1f 01 be
       0.07634746 -0.06389624 0.07282371 -0.12609658
000320 ee ee a5 3d 0a 08 e3 bc e3 28 ac 3d 37 5f f6 3d
       0.08102213 -0.027713794 0.08406236 0.120298795
000330 bd b8 f4 bc b3 17 9c 3d ea 6f 0e 3e 39 d8 11 bd
       -0.029873246 0.07621708 0.1390988 -0.035606597
000340 e7 9b 06 3d 83 5a 82 3d 88 1a 81 3d d6 74 9e bd
       0.032863524 0.0636492 0.063038886 -0.077371284
000350 d7 44 8f bd d2 8e d7 bd 42 f9 a5 3d c3 d6 93 3d
       -0.06995552 -0.10525288 0.08104183 0.07218697
000360 c9 2b fb 3c 7b ce 04 bc b5 1f bf bd 03 1a a8 3d
       0.030660527 -0.008105869 -0.093322195 0.08208086
000370 1c 8b 1d 3d 03 1b 25 3e bb e1 67 3d 24 7f 08 bd
       0.038462743 0.16123585 0.056611758 -0.033324376
000380 96 81 b8 bd 8c 5b 4e bc 79 c6 0c bd d5 68 06 3e
       -0.090090916 -0.012595069 -0.034368966 0.13125928
000390 18 a7 16 3e 95 af c2 bd b6 5a fa 3d 89 5d 5f bd
       0.14712179 -0.09506146 0.12224333 -0.05453256
0003a0 50 f1 46 3b 7a 26 10 3e 71 79 6f 3d 62 b0 ca 3d
       0.0030356236 0.14077178 0.058465425 0.098969236
0003b0 bd 50 e2 bd 25 a7 32 3c a4 fa 16 bd f6 a2 79 3c
       -0.11050556 0.010904108 -0.036860123 0.015236607
0003c0 8c ef ba 3b 67 c2 79 3c 3f 55 0e bd 31 e0 13 3e
       0.0057048257 0.015244103 -0.034749266 0.14440991
0003d0 0d 52 f6 bb 1b 6a 71 bd ce 18 1e bd ae 62 2a bc
       -0.0075171054 -0.05893908 -0.038597874 -0.010399504
0003e0 fa bc d3 bb af 5c 02 bc c0 d5 05 3d 4d 26 34 bd
       -0.0064617367 -0.007956668 0.03267455 -0.04398184
0003f0 25 7e 14 bc ed 59 9f bc f3 f9 06 bd b5 e7 47 bd
       -0.009063278 -0.01945206 -0.032953214 -0.048804957

net.2.module.0.bias f4 [32]
000000 32 46 8f bc 27 23 82 3d b9 4e 71 bd d1 8f a8 bd
       -0.017489526 0.06354361 -0.058912966 -0.08230556
000010 e3 f1 30 bd 38 1a 8d bd 55 ff a7 3d 4e 40 30 3c
       -0.04319943 -0.068897665 0.082029976 0.010757519
000020 60 5c 02 3d 63 87 61 3d 0d 6f eb 3b 0f a9 68 bb
       0.031826377 0.055060755 0.007184869 -0.0035501157
000030 79 0b 09 3a c9 e5 dc bc fc 3a 2e bc ac f4 65 3d
       0.0005227845 -0.026965039 -0.01063418 0.05614154
000040 8e 2b c9 3d b9 d0 69 3d dd 1c ce 3c 4b 05 e1 bc
       0.098227605 0.05708382 0.025160247 -0.027468344
000050 27 00 aa bd 69 dc 96 bc 78 3f 99 bd 85 de cd 3d
       -0.0830081 -0.018415647 -0.07482809 0.10052208
000060 24 04 7c bd 5c eb bc 3c 1e 01 e9 bc 85 d2 cf bc
       -0.061527386 0.023061447 -0.028442916 -0.025368938
000070 36 6e d5 3d ae 76 38 bd b5 33 0b bd a2 a8 75 bc
       0.10421412 -0.045035057 -0.03398486 -0.0149938185

net.3.module.0.weight f4 [32, 32, 3]
000000 69 5c 90 3d c8 92 33 bc 81 61 e9 3c e3 dd 5f be
       0.07048876 -0.010960288 0.028488876 -0.21861987
000010 b3 ca 04 3e f0 b6 22 3c be 7c 15 3e 97 65 70 bd
       0.12967949 0.009931311 0.14598367 -0.058690634
000020 f2 d6 14 3b 78 33 99 bc 62 7c 60 3c b4 07 a1 bc
       0.0022711125 -0.0187013 0.01370153 -0.019656993
000030 c6 c8 86 bd 99 5b 49 bd b3 f4 43 3d 87 1c a3 bd
       -0.06581263 -0.04915962 0.047840785 -0.079644255
000040 8c b3 9a bd 65 99 8b bd af 2e be 3c 87 bf 2c 3d
       -0.07553777 -0.06816367 0.02321562 0.042174842
000050 69 4d a1 bc 23 14 e4 bd 9e 04 bb bd 73 72 2e bb
       -0.019690232 -0.11136653 -0.0913174 -0.002661851
000060 55 1b 5a bd 6d 4c 92 bd c5 84 1c 3d e7 bb a2 ba
       -0.053248722 -0.07143483 0.038212556 -0.0012415618
000070 3c 64 79 bd c3 73 11 3e db a9 2d be ec da dd bd
       -0.060886607 0.14204316 -0.16959326 -0.10832772
000080 5c d9 b8 3d ee f0 29 3e 53 bd e2 3d 6c 8e d3 3d
       0.09025833 0.16595814 0.11071267 0.10329899
000090 2f e6 6f 3e 77 7d 58 bd 45 98 72 bd 00 00 0f 3e
       0.23427652 -0.052854028 -0.059227247 0.13964844
0000a0 d9 d9 4c 3d 5e 59 b1 3d ff 6a 83 bd 35 6c 10 3d
       0.050012443 0.086596236 -0.06416892 0.035259444
0000b0 20 f9 6d bc 3d 38 2b 3e da 3f 59 3c 0e cb eb 3d
       -0.014524728 0.16720672 0.013259852 0.11513339
0000c0 1d de 58 3d b4 09 32 bd 03 cb 03 be 4b e8 20 3e
       0.0529462 -0.043466285 -0.12870412 0.15713613
0000d0 18 7f 03 3a ed d6 a1 3d 94 49 c9 bc 65 ba e1 bb
       0.0005016192 0.07902322 -0.024571218 -0.006888675
0000e0 82 52 65 bc 4b 20 ea 3d 88 60 85 3d ac fb 0f 3c
       -0.013996722 0.11431941 0.065125525 0.008788031
0000f0 a2 ac 4d 3d 36 93 6a 3d ff 67 f6 bd 7b 89 5b bc
       0.050213464 0.057269298 -0.120315544 -0.013399477
000100 b4 3c 85 3d 80 f3 d0 3d a6 d0 82 bd 9d ba f4 bb
       0.06505719 0.10202694 -0.06387453 -0.007468535
000110 ed 1c 3c 3d 4f a9 9f 3d f8 cf 87 3d 3e c0 c5 3c
       0.045926023 0.07795965 0.06631464 0.02413952
000120 80 46 28 bd 62 41 8f 3c 8c 22 c1 bc 86 54 c5 39
       -0.04108286 0.017487232 -0.023576044 0.00037637743
000130 69 f7 7e bd 21 f3 12 3c 9d 87 e9 39 df ff e9 bd
       -0.062247667 0.008969099 0.00044542263 -0.11425757
000140 28 e9 51 3d 63 96 3a 3e 24 4c 4b 3d 65 45 eb 3b
       0.051247746 0.1822143 0.04963316 0.0071799033
000150 79 e1 ab 3d 4b 61 84 bc 79 92 57 3d aa 98 12 be
       0.08392615 -0.016159674 0.05262992 -0.14316049
000160 1d 2a 36 bd 02 e4 d5 3d 67 67 76 be 59 df 80 bd
       -0.044473756 0.1044388 -0.24062882 -0.062926
000170 11 e1 30 bd 96 35 13 3e 7d 2d 1f 3e 83 48 26 3d
       -0.04318339 0.1437591 0.15544696 0.040596496
000180 7e ed 97 bc 55 ab 8f 3d 17 ca 26 3e 1f 7b dd 3d
       -0.018545862 0.07015101 0.16288029 0.10814499
000190 26 03 1a bd 33 f2 1e 3d 97 d9 b8 bd 0c 79 08 be
       -0.03760066 0.038805198 -0.09025877 -0.13327426
0001a0 4a ac 15 3d 84 d7 ed 3c 06 b3 35 3d e0 8f 09 bd
       0.03654126 0.02903343 0.044360183 -0.033584476
0001b0 67 3f 87 3b ec 7d fc 3c 64 57 86 3d 89 35 b4 3d
       0.004127431 0.030821763 0.06559637 0.087992735
0001c0 be dd 97 3c ac 2c f5 bb 59 8d 01 3d 1f 3d 8b 3b
       0.018538352 -0.007482132 0.03162894 0.0042492296
0001d0 1b d4 4b bd 64 77 5e 3e 4a cf 96 bc 4b fa b1 3c
       -0.049762826 0.21725231 -0.01840939 0.021725794
0001e0 9b b0 54 bd a9 49 f6 3d 81 24 8b 3d b9 7a 27 be
       -0.051926237 0.12025768 0.06794072 -0.16355409
0001f0 a4 ca 22 be 87 c5 67 3e 75 06 25 3e 24 fb ba bd
       -0.15897614 0.22633944 0.16115744 -0.091299325
000200 25 78 2e 3d 00 52 62 3d 05 f8 ae 3d 4a 9f af 3c
       0.042595048 0.055253983 0.085434 0.02143826
000210 92 4b 02 be 37 85 27 bd 2e 34 4a 3e ff 5e 93 bd
       -0.1272414 -0.040898528 0.19746467 -0.071958534
000220 85 32 5a 3d 25 9e b9 3c c3 01 4f 3e d6 50 58 bd
       0.053270835 0.022658417 0.20215516 -0.052811466
000230 f8 07 32 be 8f a4 ad 3d 5c f5 f9 3c d7 7d 31 3e
       -0.17385852 0.08478653 0.030512504 0.1733316
000240 4e 73 7e bc b1 7a 70 3d b2 0d 79 3d c0 cf e2 bc
       -0.0155304205 0.058710758 0.060804076 -0.027686954
000250 d4 fc 6b 3c c1 5a 8c 3d e0 ed 1d 3e 07 aa 32 bd
       0.014403541 0.068532474 0.15422773 -0.043619182
000260 9a 5a 7a be 44 65 56 be 3a d5 db bd a0 c6 26 bd
       -0.24448624 -0.20937067 -0.10734029 -0.040716767
000270 e8 cc 49 bc 86 73 8f bb a2 4e 2e 3d 14 f7 0f 3e
       -0.01231692 -0.004377785 0.04255546 0.14059097
000280 6f 9b 54 3b c4 c6 2e be 07 46 a8 3c e6 4f a0 bc
       0.0032441278 -0.1706801 0.020541204 -0.019569349
000290 0a 30 e0 bb 97 94 27 be 82 53 dc 3d a5 cf 62 3e
       -0.006841664 -0.16365276 0.10758115 0.22149523
0002a0 e3 74 a4 bb 10 73 12 3e a6 3b 2e be f1 29 cb bd
       -0.005018817 0.14301705 -0.17014942 -0.09920109
0002b0 5c d0 85 3d e0 b3 5e bd 74 a8 a8 bd 32 72 aa bd
       0.06533882 -0.05437076 -0.08235255 -0.08322562
0002c0 c2 47 18 3e 6e 43 03 be 44 77 8d 3c 0e 41 7d 3d
       0.14871123 -0.12818691 0.017268784 0.06182962
0002d0 0c c1 c4 3c 03 f3 90 3d e5 18 2c 3e 39 f7 8b 3b
       0.024017833 0.07077601 0.16806372 0.0042714146
0002e0 05 27 83 3c 30 e1 b5 bd fb 40 57 3e 37 de c2 bd
       0.016009817 -0.08880842 0.21020882 -0.0951504
0002f0 67 d7 d8 bc 4a 24 5f be f6 01 4e bd 8f 68 d1 3d
       -0.0264699 -0.21791187 -0.05029484 0.10225021
000300 bd 11 92 3c 4f fa f5 bc e2 a0 1b 3e 46 b3 ea bd
       0.017830724 -0.030026583 0.1519809 -0.11459975
000310 a4 6b 38 bc 1e e5 d8 bd 38 6d c9 bc 23 f9 f3 bc
       -0.011256132 -0.10590576 -0.024588212 -0.029781884
000320 0f 1b 19 3c 12 c2 70 bd f8 f0 4b bd 06 0b be 3d
       0.00934483 -0.05877883 -0.049790353 0.09279446
000330 59 31 a4 bd 7b 63 22 be b5 41 d2 bd 74 e5 d0 bd
       -0.08017225 -0.15858261 -0.10266439 -0.10200015
000340 3e 8d bf bc 6a 21 97 bd 52 8c d6 bd f0 22 cc bd
       -0.02338278 -0.0737942 -0.10475983 -0.09967601
000350 ee e7 c4 3c af 58 88 3c c5 92 7b bc 9e 19 e7 bd
       0.024036374 0.01664385 -0.015354817 -0.11284183
000360 97 5e a9 3c d6 aa 97 bc fe 04 d0 3d bc d7 66 bc
       0.020674987 -0.018514078 0.10157202 -0.014089521
000370 a0 ba 27 3d b4 23 33 3e 2b 35 75 bd 8e 6a 9e bb
       0.040949464 0.17494088 -0.059865158 -0.0048344797
000380 6d 67 57 3d ec 36 50 bd f0 cb 5b 3d 7c 37 39 bc
       0.05258887 -0.050833628 0.053661287 -0.011304732
000390 76 8c f1 3d 39 d4 c1 bd fc 94 00 3e a9 08 ee 3c
       0.11794369 -0.094643064 0.12556833 0.029056864
0003a0 58 51 a2 bd d5 8b ee 3d cb f4 03 be 44 5b aa 3d
       -0.07925671 0.116477646 -0.1288635 0.08318189
0003b0 78 8b 35 be e3 e4 08 3e 48 10 75 bc af 7a 34 bd
       -0.17728984 0.13368563 -0.014957495 -0.044062313
0003c0 ce 99 9b 3d f6 2f 55 3d ce 17 ea 3c 25 a6 8b 3d
       0.07597695 0.052047692 0.028575804 0.06818799
0003d0 09 bd 8e bd 8e f6 32 3e 28 fb bc 3c 73 f6 9c bd
       -0.06969649 0.17476866 0.02306898 -0.07664194
0003e0 a6 95 e3 bc e4 22 e3 3c 8e 53 3f 3d 8e ce 96 3b
       -0.027781319 0.027726598 0.046710543 0.00460226
0003f0 35 10 8b bc 52 cd 0d bd 48 ef fa 3c e4 5e 75 bd
       -0.016975502 -0.034619637 0.030631676 -0.059904948

net.3.module.0.bias f4 [32]
000000 c1 a1 13 3b f5 19 ad 3d f1 5a 80 3d b5 f4 37 3d
       0.0022526833 0.084522165 0.06267346 0.044911105
000010 cd 88 05 3d a8 bf a2 bc 4f e5 ca 3c 3b dd 10 bd
       0.032601167 -0.01986678 0.024767546 -0.03536723
000020 ac 0b 57 bd 09 05 93 bd eb de d4 bc 7f 33 d0 3c
       -0.052501366 -0.07178695 -0.025985202 0.02541518
000030 c7 07 22 3d 36 20 98 3d f6 a7 6e 3c cd d9 03 3e
       0.0395582 0.07428019 0.014566412 0.12876053
000040 06 d3 0e 3a 10 7b 51 3d 5f 32 f6 bc 88 9f 85 bd
       0.0005448315 0.051142752 -0.030053316 -0.06524569
000050 ff 49 cc 3b 92 7b 84 3c 04 f4 90 3d 7f 43 81 bd
       0.006234407 0.016172204 0.07077792 -0.06311702
000060 b8 23 f8 3b ec 4d 4f bd 2b f6 35 bd d0 38 8c bd
       0.0075726174 -0.05061142 -0.044424217 -0.068467736
000070 22 bb 0d bd 08 48 40 bd 45 bd 8b bd 0a 58 3e 3d
       -0.034602292 -0.046943694 -0.0682321 0.04647068

net.4.module.0.weight f4 [32, 32, 3]
000000 d9 81 34 3e 03 76 5d 3c 6c 96 14 3e bc 61 65 bd
       0.17627658 0.013516906 0.14510506 -0.05600141
000010 7a 37 6a 3d e7 0f d4 bc 21 cb fe 3d b9 1e a2 3c
       0.057181813 -0.02588649 0.124410875 0.01979004
000020 87 c5 5b bd 46 76 f6 3d 09 78 83 3d f6 70 1c 3d
       -0.053655174 0.120342776 0.06419379 0.038193665
000030 a9 04 b8 bc f7 20 32 3c 50 6c 07 3d ef 42 a8 3d
       -0.02246316 0.010872117 0.03306228 0.082158916
000040 e0 71 af 3c c9 96 3e 3e 5d 95 8f 3d ca 50 c0 3d
       0.021416605 0.18612207 0.07010911 0.09390409
000050 4b 7a 2a be 09 d3 db 3b 48 a0 9b 3c 61 2f 25 3e
       -0.16648214 0.006708507 0.018997326 0.16131355
000060 78 cf 62 3c 83 92 74 3c 92 04 3f be 94 02 96 bc
       0.01384341 0.014927509 -0.18654087 -0.018311776
000070 07 6b 5e 3d 90 be b9 3c 9a ac 42 bd 74 e1 22 3d
       0.054301288 0.022673875 -0.047527887 0.03976579
000080 00 d7 1e 3e f9 8e 71 3c 48 33 00 3d c4 9e b7 bc
       0.15511703 0.01474356 0.031298906 -0.022414573
000090 5b 7a 9f 3d f7 2b 8d bb 1d b2 1c be 7b f5 fb 3d
       0.07787009 -0.0043082195 -0.1530232 0.12302681
0000a0 9d 08 81 bd c8 ea f5 3d 1e b3 77 3c 46 64 0c bd
       -0.06300471 0.120076716 0.015118388 -0.034275316
0000b0 cc 2e 9c 3d 84 91 68 3d 85 10 0e 3d 53 ab cc 3d
       0.07626113 0.0567794 0.034683723 0.09993615
0000c0 46 3a 0e be 36 c3 a5 bd 45 60 d3 bd 66 7b 09 3e
       -0.13889417 -0.08093874 -0.10321096 0.13425979
0000d0 07 c1 a5 3d 4d ac 42 be eb b7 13 be 49 07 ac 3d
       0.08093458 -0.1901104 -0.14425628 0.08399827
0000e0 0f 7f 10 3e 24 57 38 3d 1d 1b 5a 3d b4 e0 93 3b
       0.14110969 0.04500498 0.053248513 0.0045128707
0000f0 84 f5 7e bc d4 b2 0f 3d 10 c8 94 bd cb e8 88 3c
       -0.015561465 0.035082653 -0.072647214 0.016712567
000100 0d c4 f5 3c 75 e2 07 3e 10 53 bc bd 28 e4 1b 3e
       0.03000071 0.1326998 -0.091955304 0.15223753
000110 ee b4 17 be e9 9c 9f bd b7 5f da bc 1a 46 4f 3b
       -0.14815113 -0.077936 -0.026656969 0.0031627477
000120 60 d5 80 bd 93 97 3e bc 32 27 98 bc e4 49 cb bd
       -0.06290698 -0.011632818 -0.018573377 -0.09926203
000130 c7 eb 94 3d 50 7b 32 3d 3f 48 0f bd 9f 2d db bc
       0.072715335 0.04357463 -0.03498101 -0.026755152
000140 12 66 ff bd bf cb 86 bd 44 ef be bc 3c 24 34 be
       -0.1247064 -0.0658183 -0.02330745 -0.17591947
000150 5e 60 d5 3d c4 a0 ef bd 01 d5 25 be 60 d9 c5 bd
       0.10418771 -0.117005855 -0.16194536 -0.096606016
000160 9d 37 e0 bd d1 94 4d 3d d9 c3 1d bc 39 e8 bf 3d
       -0.109481074 0.05019075 -0.009629213 0.09370465
000170 61 14 fa 3d 3b 84 44 3d 40 18 3c 3d 0f 0f 95 bd
       0.12210918 0.047977667 0.045921564 -0.07278263
000180 4b db de bc 77 8f 41 bd 38 41 88 3c c3 3b 7a 3d
       -0.027204176 -0.04725596 0.016632661 0.06109215
000190 24 7a 08 be fa ee c7 3d d1 54 b2 bd 5a be c0 3d
       -0.13327843 0.09762378 -0.08707584 0.09411307
0001a0 02 30 bc 3d 83 9e 8e 3d 30 f4 9f 3d 3d 0e f6 3c
       0.09188844 0.069638275 0.07810247 0.030036086
0001b0 09 b8 bd bd 94 4c 3e 3b ec 81 e8 3c e9 cf e9 bd
       -0.092636175 0.0029037343 0.028382264 -0.11416609
0001c0 c2 6c f2 bd 7f 37 04 3e 89 99 51 bb fe a9 28 bd
       -0.1183715 0.12911795 -0.0031982383 -0.041177742
0001d0 c2 9f c7 bd 74 7b a7 bd b7 7b c6 bd bd cb 87 bd
       -0.09747268 -0.08177844 -0.096915655 -0.06630657
0001e0 29 61 b4 3b 54 df 48 bd 8a 24 f0 bd 9d dc 10 be
       0.0055047465 -0.049041107 -0.11725719 -0.14146657
0001f0 4b b5 35 3d 6d ba 17 3e 01 f9 dc 3c 8f f9 9c 3c
       0.044362348 0.1481721 0.026974203 0.019161968
000200 fb 23 d4 bb 62 7b a2 3c 22 9f b8 bc fa ac 1c 3d
       -0.006474016 0.019834224 -0.022536818 0.0382509
000210 3d 67 56 3d dd a5 f9 bc d4 05 67 3b e3 07 89 bd
       0.05234455 -0.030474598 0.0035251277 -0.066909574
000220 ec 4f 8c bc e0 9b 76 3c f5 44 41 3c 41 2f 87 3c
       -0.017127953 0.015051812 0.011796226 0.016502025
000230 58 b0 cf bd 7d f8 a7 bd ee 5b b7 bd 35 6e 17 3e
       -0.10141057 -0.08201692 -0.08953081 0.14788134
000240 8e af d7 3d 77 db b5 3d cc 5f 84 bd 77 20 ca bd
       0.10531531 0.0887975 -0.06463584 -0.098694734
000250 fb 04 f0 3b 81 ce ca 3d 44 21 1d 38 c9 fc d5 bd
       0.0073248125 0.09902669 3.7462698e-05 -0.104486056
000260 a6 d2 9a 3d ff 1c b7 bd a4 83 0d 3d 4f 4c 0d 3e
       0.07559709 -0.089410774 0.03454937 0.1379864
000270 b6 fa 9d bd b9 4b 58 3b b8 f0 e4 3c b3 38 af 3d
       -0.07713835 0.0033004119 0.027946815 0.085557364
000280 7e 85 98 bd f2 10 ff 3d 87 e8 b6 bd da cb a4 bc
       -0.074473366 0.12454404 -0.0893107 -0.020116735
000290 46 43 4b bd 7f af bb 3d 48 d1 46 bd 36 7c 1c 3e
       -0.049624704 0.091643326 -0.04853943 0.15281758
0002a0 e4 83 06 bd bb 7e b1 bc 06 a6 00 be 15 96 d9 3d
       -0.032840624 -0.021666875 -0.12563333 0.10624329
0002b0 5e f7 36 bd 8b ee f5 3b 36 58 9e bc 31 43 79 3d
       -0.0446695 0.007505243 -0.019329172 0.060855094
0002c0 43 ea b8 3d 2c d8 d0 bd 37 aa 4d bd ea 5c cb 3c
       0.09029057 -0.101974815 -0.050211158 0.024824578
0002d0 8c 43 f0 3c 84 e4 69 bd b8 d4 d4 3d 12 94 8a bb
       0.029329084 -0.057102695 0.103921354 -0.004229077
0002e0 39 b9 b5 bc 4a f2 d3 bd 99 e8 9b bc 50 99 59 bd
       -0.022183048 -0.10348947 -0.01903181 -0.053124726
0002f0 73 b4 cd bd 45 e0 cf bc ee 5f 05 3d 80 c4 cb ba
       -0.100441836 -0.025375495 0.03256219 -0.0015546232
000300 ad a5 d9 3d 76 5a 8c bb 45 86 e9 3b 60 08 09 3c
       0.10627303 -0.0042832447 0.007126602 0.008363813
000310 eb 5b af 3d f6 3a 83 3d 88 fb 79 3d 93 06 8a 3d
       0.08562454 0.0640773 0.061030895 0.06739535
000320 35 54 5c 3e 07 5e 0a 3d 07 8a be 3d 08 46 26 3e
       0.21516497 0.033781078 0.093036704 0.16237652
000330 f1 8b de 3d dc e6 14 bc 7f 38 b7 3b 29 61 66 3d
       0.108665355 -0.009088244 0.0055914517 0.056245003
000340 be f8 a5 3d e6 be dc bd 94 42 0d be 53 c2 9e 3d
       0.081040844 -0.107785985 -0.13794929 0.07751908
000350 31 0b a5 bd b8 7d 6e bd b4 ee 06 be de 1d 60 3d
       -0.08058775 -0.058225363 -0.13176996 0.054715984
000360 f2 d2 19 bd 3b 63 12 3e 28 88 e6 bd a7 97 9e ba
       -0.03755469 0.14295666 -0.112564385 -0.0012099639
000370 54 49 e7 3c 15 09 0b 3e 97 db 88 bd f3 d4 2e bd
       0.028233208 0.13577683 -0.066825084 -0.042683553
000380 ac 33 96 3d 79 12 bb 3c 0c cd 4e bb 5b 4a f3 3d
       0.073340744 0.022835957 -0.0031555323 0.118794166
000390 a8 63 28 3d cd e3 b5 bd 83 26 15 3e b9 de 8b 3c
       0.041110665 -0.0888134 0.14565472 0.017073976
0003a0 9a 41 b2 3d ab e9 15 bd ae fc 98 bd 0e 38 c9 bd
       0.08703919 -0.036599796 -0.0747007 -0.09825145
0003b0 1d 85 0a bd 29 8f 3a 3a 03 ef bc bb b3 53 0b 3e
       -0.033818353 0.00071166694 -0.005765797 0.13606147
0003c0 03 58 06 be 98 08 dc 3c 0a 5e 2b bd 36 f5 96 3d
       -0.13119511 0.026859567 -0.04183773 0.07370989
0003d0 17 31 36 3d 6e 71 aa 3d 51 ea b6 bd 20 57 9d bd
       0.04448041 0.08322416 -0.08931411 -0.076826334
0003e0 1b 02 38 3c be f4 31 3d ca c9 15 bd 80 36 fb 3d
       0.011230971 0.043446295 -0.036569394 0.122662544
0003f0 4e 79 0a bd d8 12 9e 3b bb e7 10 3d a9 3f 6e bc
       -0.03380709 0.0048240237 0.035377245 -0.014541545

net.4.module.0.bias f4 [32]
000000 ff a0 3b 3d 23 31 33 3d 66 57 86 bd 7a f7 c4 bc
       0.045807835 0.043748032 -0.06559639 -0.024043787
000010 40 77 5f 3d 6a 13 09 3d 6b b5 13 3d 59 f3 6f bd
       0.054557085 0.03346578 0.036061686 -0.058581684
000020 3c 1b 57 3d b0 d8 85 bd c3 22 59 3d 8f fa 2f 3d
       0.052516207 -0.065354705 0.053011667 0.04296356
000030 0b 5e 87 3d 8f f4 63 bd 08 2d e1 bc c9 ba bf bc
       0.06609734 -0.05565315 -0.027487293 -0.023404496
000040 14 4c 9a 3d 9a 66 18 3d 85 ec 3f bd d6 1a e2 3d
       0.07534042 0.037207223 -0.046856422 0.11040275
000050 2c fd 0e 3d fb e7 11 bd 51 41 3c bc c8 d3 3d 3d
       0.034909412 -0.035621624 -0.011490182 0.04634455
000060 83 62 18 bb 7e dc c2 bd 79 15 ef 3d 77 a8 b2 bd
       -0.0023252077 -0.09514712 0.116740175 -0.08723538
000070 57 7e a9 3b 5b af a3 3d 81 55 79 bc 5b 59 87 3d
       0.0051725316 0.07992431 -0.01521814 0.0660884

net.5.weight f4 [3, 32, 3]
000000 2a 17 d0 bc 64 c0 77 bd aa a4 8e 3d 06 c5 10 3d
       -0.02540167 -0.060486212 0.06965001 0.035344146
000010 ff e4 de 3c b9 5c a2 bd 8d 81 d7 bd f6 06 e3 3c
       0.027208803 -0.07927842 -0.10522757 0.02771328
000020 7e 52 02 be 95 42 17 be 90 e5 7d bd 6b 82 97 bd
       -0.12726781 -0.14771493 -0.061986506 -0.07397922
000030 55 ae 3b bd 2e 45 8c 3b 8e c3 b0 bd e8 16 15 3e
       -0.045820553 0.004280708 -0.08631049 0.1455952
000040 1f 57 63 bd 3c 71 20 bc 4b 81 e9 3c d6 ed 49 bd
       -0.055503007 -0.009792622 0.028504035 -0.049299084
000050 5d a7 52 bd 22 3b 3c bd 67 93 c5 3d 01 ed b1 3c
       -0.05142914 -0.04595483 0.096472554 0.021719458
000060 45 d5 63 3d 6c 3d 94 bd dc fb 7d 3c e5 e0 16 bd
       0.05562331 -0.07238278 0.0155019425 -0.03683557
000070 df 29 4b bd 38 38 e4 bd aa d6 7b 3c 88 84 1f 3d
       -0.04960048 -0.111435354 0.015371004 0.03894475
000080 ed 61 7f 3d 06 98 e0 bd 3d e9 72 bc 91 7f a4 bd
       0.06234925 -0.10966496 -0.014826116 -0.08032144
000090 45 eb e0 bb ab e2 76 bc d9 db 97 bd 56 95 13 bb
       -0.006863984 -0.01506869 -0.074149795 -0.002251943
0000a0 d4 56 76 bd 1c 1a 26 bd c4 05 03 3e 4f ab 68 3d
       -0.0601414 -0.040552244 0.12795168 0.056803998
0000b0 5f be 1e 3e b8 38 8a bd e6 20 bb 3d 86 00 b1 bd
       0.15502308 -0.067490995 0.09137134 -0.08642678
0000c0 9b 60 a9 bd fa e3 63 3c a8 8a 2e 3d c2 05 c3 bd
       -0.08270379 0.013909334 0.0426127 -0.095225826
0000d0 63 1e bc bd 42 4b 9e bc 50 46 8b 3d 8f 88 ae 3d
       -0.09185483 -0.019322995 0.068005204 0.0852214
0000e0 f0 d3 14 bd 01 15 9a 3d e0 71 93 3b 77 bb 0f be
       -0.03633493 0.075235374 0.004499659 -0.14036356
0000f0 62 43 c6 bd 61 00 6d bd 58 3d b2 bd c5 f1 29 3d
       -0.09680821 -0.05786169 -0.08703107 0.041490335
000100 d4 8a cb 3c 42 a4 1e 3d 35 46 b5 3c 0f 15 ab 3c
       0.024846472 0.038730867 0.022128204 0.020884065
000110 8d 5e a8 bd 86 4d 0b 3e 99 86 6c bb 6a 5b c9 bc
       -0.08221159 0.13603792 -0.0036090969 -0.024579722
000120 4c a8 ef bd 65 fd d4 bc d6 d8 61 3d 02 76 7b bc
       -0.11702022 -0.025999734 0.05513843 -0.0153479595
000130 94 e7 53 3d f5 f3 3c 3d d2 67 8a 3c 73 dd b3 3d
       0.051734522 0.046131093 0.016895209 0.087824725
000140 5e 51 cb bd c4 4b ef bc 27 ab ab bd 0a 50 d1 bc
       -0.09927629 -0.029210933 -0.08382254 -0.02555086
000150 1a 23 e7 3d dd bb e9 bc 58 b1 05 3c 52 6c 47 3d
       0.11285992 -0.028531963 0.008159958 0.048687287
000160 f8 e4 c3 3d 68 38 d4 3d 2d ae e8 bb b6 79 a8 3d
       0.09565157 0.10362321 -0.0071008415 0.082263395
000170 ea 55 e3 3d 10 dd d1 bd e5 49 9f 3d 31 fc 9a bd
       0.11100371 -0.102472425 0.07777766 -0.07567633
000180 85 04 01 bd 1d 91 aa 3c 23 9a ec bd 29 46 3d 3d
       -0.03149845 0.020821149 -0.11552837 0.046209488
000190 f2 b5 71 3d d1 a8 75 bc ed 90 b3 bd d8 7f 85 bd
       0.059011407 -0.014993862 -0.08767877 -0.06518525
0001a0 c1 d9 98 bd f2 80 82 bd f0 4a 27 bd 02 5c 88 bd
       -0.07463408 -0.063722506 -0.04084295 -0.06658174
0001b0 5c 7d aa 3b db 4e 81 bd 2c 32 9d bd ef 60 44 3c
       0.0052029323 -0.063138686 -0.07675585 0.011986001
0001c0 ef 2d 1d bd 59 fb b4 bd 0e 66 59 3c ba c2 62 3d
       -0.038373884 -0.08837003 0.013268961 0.055361487
0001d0 c3 ec 84 3d c7 a3 b2 bd 5d 8d c3 3c 45 7c a7 bd
       0.06490471 -0.08722644 0.023871118 -0.081779994
0001e0 51 5c ac 3c d2 27 39 bd bd 9e cb 3d c4 fa 6b bc
       0.021040114 -0.04520399 0.09942386 -0.014403049
0001f0 1e 6a c1 3c 82 22 9a bd 6c 52 7b 3d cc 9b 25 3d
       0.02361017 -0.07526113 0.0613579 0.040431783
000200 d6 9a 88 bd 40 62 a1 bd 46 a1 09 bb f1 24 dd 3c
       -0.066701576 -0.07880068 -0.0021000667 0.026995154
000210 18 e4 97 bd 00 d1 b1 bb 4d 7c 54 bd 17 26 0f bd
       -0.07416552 -0.005426526 -0.051876355 -0.034948435
000220 ca fe 6e bd 3d ac a7 bd d2 b1 30 bd 92 63 38 3d
       -0.058348455 -0.08187149 -0.043138333 0.045016833
000230 33 9e 95 3d c1 76 37 3d f4 c2 7a bc c1 29 95 bd
       0.07305565 0.044790987 -0.0153052695 -0.072833546
000240 4a cb d8 3d 46 cb c3 3d 9d 94 20 3c 77 72 cc bd
       0.10585649 0.09560256 0.009801057 -0.0998277
000250 65 04 49 bd f7 96 fb bb f7 5f 93 3d b7 75 0e 3d
       -0.049076457 -0.0076779085 0.07196038 0.03478023
000260 00 76 4d bd 26 8c cd 3d 7a 6f 81 3d bf 1f 5a bb
       -0.05016136 0.10036497 0.063200906 -0.0033283082
000270 1d c3 01 3d 28 05 44 3d 1b 39 bc bc a1 cb c3 bd
       0.031680215 0.04785648 -0.022976449 -0.095603235
000280 4d c3 48 bd b0 95 2b bd 12 c1 66 3d c5 14 83 3c
       -0.04901438 -0.0418908 0.05633647 0.016001115
000290 cb 59 a5 3d 23 65 35 3d 8b 5d a3 bd 52 6c 33 3c
       0.08073767 0.044285905 -0.07976826 0.010951119
0002a0 bc 7a 8e bd f4 00 b0 3c 10 2a c4 3d dd 2b b6 bc
       -0.069570035 0.02148483 0.09578335 -0.022237713
0002b0 4f 42 b8 bb bb 6f 84 bd 30 06 92 3d d9 bb 82 bd
       -0.005623139 -0.064666234 0.071300864 -0.06383485
0002c0 d8 1d bd bc 84 05 5b bd b5 16 25 bc 91 fc 11 3d
       -0.02308552 -0.053472057 -0.010076215 0.035641257
0002d0 73 af 92 3c 56 03 a6 bc 2e 64 60 bc 9d e0 51 3d
       0.017905926 -0.020265263 -0.01369576 0.0512396
0002e0 06 de 89 3c 06 c9 ff bc f6 1a 03 bc 9b 90 6e 3d
       0.016829502 -0.031223785 -0.008002033 0.058243375
0002f0 3c e0 71 3d da cf 09 3d 1c bc 6b 3d 35 0e 8f 3c
       0.059051737 0.03364549 0.057552442 0.01746283
000300 1a 1e 18 3c 66 5e 62 bd de 07 cd 3d ce d7 b5 bc
       0.0092845205 -0.055265807 0.10011266 -0.02219763
000310 27 07 cd 3c 38 59 81 3d be de 81 3d 0f 32 9f 3b
       0.025027825 0.06315845 0.06341313 0.0048582624
000320 30 60 2b bd d7 35 0e bd 75 a1 61 3c d0 3f 71 3d
       -0.04183978 -0.034719314 0.0137714045 0.058898747
000330 5e 8b ca 3c 2a 28 21 3d 92 41 e0 bb 5f 70 f5 3d
       0.024724659 0.039344944 -0.006843754 0.11984324
000340 05 5c 2c 39 c6 cf 02 3e 90 69 66 bd c9 0b ac bc
       0.00016437478 0.12774572 -0.056253016 -0.021001713
000350 0b 30 dd bd c7 35 d2 3d 6e db 98 3d 93 8b c9 3d
       -0.10800179 0.102641635 0.07463728 0.09841075
000360 0f ab 0b bd 90 8e 7d 3d dd 11 d4 bd fd de 38 3d
       -0.03409868 0.061903536 -0.1035497 0.045134533
000370 e1 03 58 3d 84 4b a5 3d 10 c2 7a bd 66 9c 15 3c
       0.052738074 0.08071044 -0.06122023 0.009131527
000380 a3 9f d7 3d 2a 2b c1 3d e6 82 2c 3d dc 8c 9c 3d
       0.10528495 0.09432061 0.042117022 0.07644054
000390 0a 8e b6 3d de 5d 5e 3d 0c c3 78 bd 24 c0 81 3d
       0.089138106 0.054288737 -0.060732886 0.06335476
0003a0 96 d0 64 3d 2f a0 e0 3d 40 a5 65 3d 9f 99 09 bc
       0.055862986 0.109680526 0.056065798 -0.0083984425
0003b0 6e 2f 5d 3d de 33 a3 bd aa 82 81 3d c7 ca a6 3d
       0.05400031 -0.07968877 0.0632375 0.081441455
0003c0 55 e2 3b be bc 21 b5 bd 49 74 d4 bd fb ef af 3d
       -0.18348058 -0.08844325 -0.10373742 0.085906945
0003d0 59 14 d7 bc 7b a5 26 3c 43 e0 d9 bc 36 0e 0a 3d
       -0.02625482 0.01017129 -0.026596194 0.03370496
0003e0 0c d0 ae 3d a7 d4 75 bd 97 f3 fb bc 91 14 0f 3d
       0.085357755 -0.060017254 -0.030755801 0.034931723
0003f0 03 fc df bd e7 58 bc bc 2a 09 9b bd 84 74 fa 3d
       -0.10936739 -0.02299161 -0.07570107 0.12229255

net.5.bias f4 [3]
000000 23 a4 7c 3d 5d fc 55 bd ea 82 7b 3d
       0.06167997 -0.052242626 0.061404146

exp_avg f4 [32, 120, 2]
000000 6b e6 7c 39 a0 55 d8 38 6d d7 b0 b8 ca a1 1e b9
       0.0002411843 0.000103156315 -8.43246e-05 -0.00015128325
000010 eb 65 ed ba 33 4c 0a bb 3f e9 1a ba 70 0b 53 ba
       -0.0018112039 -0.0021102547 -0.000590939 -0.00080507156
000020 c1 9c 18 b9 cb ba 1e ba 37 a8 2b b9 46 f9 c3 ba
       -0.00014554245 -0.0006055056 -0.00016370496 -0.0014951609
000030 f1 ed 66 38 98 00 5f b9 e1 75 b6 39 0c 79 05 3a
       5.5057873e-05 -0.00021267158 0.00034801572 0.0005091585
000040 64 2e a9 39 f7 2a d2 39 eb cf b3 b8 33 91 50 b8
       0.00032268756 0.00040086333 -8.574113e-05 -4.972629e-05
000050 e3 30 81 ba fe 71 44 b9 a5 35 23 bb 0a b8 42 bb
       -0.0009856488 -0.00018734482 -0.00249038 -0.0029711747
000060 45 07 73 39 cf 28 48 39 bc 83 cf bb 17 1b a5 bb
       0.00023176994 0.00019088689 -0.0063328426 -0.0050386298
000070 d5 a3 7a 3a d6 35 7d 3a df 99 cb bb 79 d5 cc bb
       0.0009561156 0.0009659206 -0.006213411 -0.006251034
000080 f7 59 4a 3a 7e 16 93 3a 26 2a b1 3a ff ed 33 3a
       0.0007719094 0.0011221913 0.001351659 0.0006863772
000090 e1 35 33 3b 5e 5d 01 3b 4a 59 4a bb 0e f0 f2 ba
       0.0027345347 0.001973949 -0.0030875974 -0.0018534677
0000a0 d5 72 01 ba b2 6a 17 3a 24 93 a5 b7 8c 82 ba 38
       -0.0004938071 0.0005776092 -1.973805e-05 8.8934874e-05
0000b0 7a fa a7 ba 40 0c 99 b9 f8 8d f0 ba eb cd 96 ba
       -0.0012815737 -0.0002919156 -0.0018352857 -0.001150546
0000c0 b1 e0 d9 ba 15 05 ba ba 65 2f 02 3b 29 c2 1a 3b
       -0.0016622749 -0.0014192188 0.0019864675 0.0023614264
0000d0 be 79 06 b9 7b 19 4d ba 8c 81 32 39 82 f1 87 37
       -0.00012824588 -0.0007823926 0.00017023663 1.6205715e-05
0000e0 a6 fc 40 b7 0b c1 8e 37 7f 87 b1 39 06 9c 11 39
       -1.1502916e-05 1.7017612e-05 0.00033861023 0.00013886401
0000f0 7e 13 80 b9 f1 22 0b b9 83 27 69 ba a4 ed 96 ba
       -0.00024428585 -0.0001326909 -0.00088941323 -0.0011514914
000100 ec b6 9c b8 1a 3d 87 b8 6e b3 e3 37 61 ac 0a b9
       -7.4727315e-05 -6.448683e-05 2.7144062e-05 -0.00013224922
000110 53 39 0d b9 79 b0 9a 39 dc 52 bd b9 d6 2f 85 b9
       -0.00013468163 0.0002950465 -0.00036110624 -0.00025403377
000120 b9 d6 cd 38 92 20 e2 38 82 3c c2 b9 77 7d 0a ba
       9.815157e-05 0.000107825865 -0.00037047645 -0.0005282978
000130 5e 6b 2e b7 82 8c 93 b7 00 00 00 00 00 00 00 00
       -1.0396207e-05 -1.7589195e-05 0.0 0.0
000140 74 de 5d 39 3c cf 64 38 fd 5b 57 3a b2 f9 e0 39
       0.00021159073 5.4552438e-05 0.00082153064 0.00042910647
000150 2e bd ff 39 44 70 80 39 18 1d d7 38 18 8f 0c b9
       0.0004877834 0.00024497707 0.00010257418 -0.00013404747
000160 c7 e3 e6 38 49 e2 4e 38 b1 d4 2b 39 ce 51 95 39
       0.000110096815 4.932497e-05 0.00016387065 0.00028480444
000170 3f e0 86 3a 94 df bf 3a f3 06 00 39 78 b0 84 39
       0.0010290219 0.0014638775 0.0001220962 0.0002530848
000180 d9 cd 73 3a 7d 37 1e 3a d0 b4 66 b8 8c 55 e5 37
       0.0009300388 0.000603549 -5.5004668e-05 2.7338763e-05
000190 9d ed c5 38 3c 36 af 38 30 38 20 b9 c4 01 a1 b9
       9.437951e-05 8.354752e-05 -0.0001527972 -0.00030709628
0001a0 de b2 0d bb a6 5c e1 ba 51 1d 9a 39 ea ac 1b 3a
       -0.0021621506 -0.0017193749 0.0002939501 0.0005938547
0001b0 c2 6d 67 ba e3 b6 18 ba c9 f9 d0 b8 31 ec e9 38
       -0.0008828306 -0.0005825592 -9.964739e-05 0.000111543
0001c0 d1 ce 1a bb 4e 7d a6 ba 10 47 77 39 5b 98 ac 38
       -0.0023621807 -0.0012702139 0.00023582228 8.2299775e-05
0001d0 08 57 72 b9 0b 8f c4 38 a1 ba f4 3a 88 57 06 3b
       -0.0002311134 9.372652e-05 0.0018671342 0.002049895
0001e0 ac 6d c0 b9 4d 06 29 38 24 80 8f 36 6d 93 ac b5
       -0.00036702806 4.0298608e-05 4.2766496e-06 -1.2857905e-06
0001f0 15 23 81 3a 96 13 8a 3a 62 f6 8e 39 19 d4 3e 3a
       0.0009852374 0.0010534402 0.0002726792 0.000727953
000200 ef 20 4f 3a 92 f3 11 3a 0a 8f 7b b8 1a 2c ff b8
       0.0007901331 0.0005567606 -5.997628e-05 -0.00012167562
000210 7d 88 80 3a 2e 45 7e 3a 3c 01 ed b9 3a fc a8 ba
       0.0009806302 0.00096996396 -0.00045205082 -0.0012892552
000220 29 33 3f 39 eb 37 9a 39 ac 9d 7e 38 6b 0c ae b9
       0.00018234238 0.0002941483 6.0705162e-05 -0.00033197118
000230 a5 d2 91 ba 25 6e a3 ba e3 39 1b 39 ef 64 95 37
       -0.0011125399 -0.0012468739 0.00014803516 1.7809185e-05
000240 a4 79 df b8 d3 2b 30 38 f4 10 86 39 b7 56 51 39
       -0.00010656126 4.2002484e-05 0.00025571103 0.00019964097
000250 ae c9 f1 b8 be c5 3d 39 07 5d 74 b2 45 ff 13 b9
       -0.00011529341 0.0001809811 -1.4223821e-08 -0.00014114108
000260 f4 65 8d 39 16 c4 90 39 5c cb f3 ba 42 de 2e bb
       0.00026969577 0.00027611916 -0.0018600035 -0.002668277
000270 0a ba 83 bb 7e de 21 bb c8 d7 ef 39 6f 17 3b 3a
       -0.0040199803 -0.0024699266 0.00045746402 0.0007136976
000280 63 64 84 b8 78 fb ac ba fd 57 9e b8 96 56 14 b9
       -6.312949e-05 -0.0013197502 -7.550416e-05 -0.00014146636
000290 17 85 25 37 c7 15 b8 b8 e6 97 90 ba 0b 20 f4 b9
       9.865754e-06 -8.77786e-05 -0.0011031597 -0.0004656318
0002a0 ee 4e 1e b9 45 75 d1 b8 67 6c f4 39 77 ed 0d 3a
       -0.00015097458 -9.98774e-05 0.00046620073 0.0005414108
0002b0 67 2b cd b9 1b a1 85 ba 88 d7 e1 39 88 b2 27 39
       -0.00039132984 -0.0010195108 0.00043075928 0.00015992869
0002c0 53 01 d8 b9 8f b1 76 b9 93 d0 9a b6 64 88 5b 39
       -0.00041199717 -0.00023526534 -4.613839e-06 0.00020936277
0002d0 e5 06 10 b8 0d b6 20 b8 46 d3 23 b9 45 21 4c b9
       -3.4338696e-05 -3.831652e-05 -0.00015623597 -0.0001946735
0002e0 c3 bd 62 b9 ce 88 05 ba 8a c5 2c 3a 31 74 1c 3a
       -0.00021623731 -0.0005093933 0.0006590715 0.00059682416
0002f0 bc 36 14 39 37 1e a1 36 f7 60 d0 b8 6c 25 7f b9
       0.0001413477 4.8016914e-06 -9.936274e-05 -0.00024332636
000300 72 03 82 b9 e0 7c e3 b9 da b3 49 b8 d0 32 3a b9
       -0.000247981 -0.00043389853 -4.8089634e-05 -0.00017757271
000310 a3 27 ef b7 7b 1b 80 b8 97 db cf b8 35 34 cd b7
       -2.8509477e-05 -6.108634e-05 -9.911431e-05 -2.4462215e-05
000320 b9 9d ad 39 5e 95 72 39 3b 48 a0 39 86 72 41 39
       0.00033114644 0.00023134562 0.00030571394 0.00018448578
000330 fb 9f 87 b9 19 e2 ca b9 93 f6 5f b9 ff 73 c6 38
       -0.000258684 -0.00038696898 -0.00021358793 9.462982e-05
000340 4a 43 f6 b9 e7 61 0d ba 10 1c 43 b8 f6 f1 19 b8
       -0.0004697091 -0.0005393312 -4.6517758e-05 -3.6703386e-05
000350 99 26 1a 39 bb 9b 19 39 f9 b5 89 37 ad ac bd b7
       0.00014700963 0.00014649231 1.641641e-05 -2.2610964e-05
000360 bf 68 b5 39 a8 11 e3 39 0d 71 dd b9 43 20 36 ba
       0.00034601052 0.0004330997 -0.00042236634 -0.00069475564
000370 50 c4 fd b9 19 a4 f6 b8 dd b9 98 3a cf 6d 89 3a
       -0.00048402185 -0.0001176076 0.0011652071 0.0010484996
000380 4a 2a d3 b9 f1 df df b9 ae e5 50 b7 cd a1 8e b8
       -0.00040276564 -0.00042700724 -1.2451243e-05 -6.8012254e-05
000390 6c a1 2a ba b6 3f 7e b9 0a a3 9a 3a 1f 87 4a 3a
       -0.0006509039 -0.00024247062 0.0011797857 0.0007725823
0003a0 48 67 b8 38 e0 46 45 39 4a b8 2f 3a 02 cb 3b 3a
       8.793041e-05 0.00018813787 0.00067031814 0.00071637344
0003b0 89 61 ff 38 5c 0a 0c 3a 26 c1 bf b9 bd ed 5c b9
       0.00012177515 0.000534212 -0.00036574266 -0.000210694
0003c0 e9 30 69 b9 97 af ce b8 5f 71 c4 37 da 70 84 b8
       -0.00022238832 -9.8555516e-05 2.3417813e-05 -6.315271e-05
0003d0 81 44 e3 ba 54 31 7a ba fa 54 a5 b8 a7 1d f9 b8
       -0.0017339141 -0.00095440936 -7.883641e-05 -0.000118787684
0003e0 28 08 6d 39 6d eb 96 39 63 63 ee ba 90 45 cb ba
       0.0002260512 0.00028785635 -0.0018187579 -0.0015508402
0003f0 19 c1 96 39 4a 84 a1 39 3c 2c 4b ba 8e ba bd 39
       0.00028754098 0.00030806876 -0.0007750427 0.00036187883
