data/Figure3_Supplement/026/checkpoint_0003000.pth (torch, 235772 bytes, 31 tensors)

net.0.weight f4 [32, 120, 2]
000000 06 ac 8d 3c df 01 3b 3b 97 81 13 bd b4 81 b7 bd
       0.017293941 0.002853505 -0.03601226 -0.08960286
000010 1f c8 31 3d 6d de b8 3d 49 e2 b2 3c ac c0 47 bd
       0.04340374 0.09026799 0.021836417 -0.04876773
000020 19 41 c2 bc 9a 00 89 bd c3 29 9c 3c b2 60 c3 bd
       -0.023712682 -0.06689568 0.019062882 -0.095399275
000030 55 57 60 bd df 9d 66 bb 86 36 a6 bd e9 45 0a be
       -0.054770786 -0.0035189313 -0.08115868 -0.13503231
000040 3a 36 76 bd 6c 21 7e bd 0c 32 52 3d e6 62 49 3d
       -0.06011031 -0.062043592 0.05131726 0.049166583
000050 03 60 52 3d 5d 88 42 bd 7a 8e 1c 3d 23 aa 3e 3d
       0.051361095 -0.047493327 0.038221814 0.046548974
000060 a9 1b a5 bd 5b 95 95 3c 2f 90 c4 bc ee 92 42 bd
       -0.080619164 0.018259695 -0.023994533 -0.047503404
000070 da 19 86 bd 7f b6 10 bd c5 94 a0 bc db 10 ff 3b
       -0.065478995 -0.03533029 -0.019602189 0.0077839918
000080 9d 47 9a bc 1a e8 32 3d 61 0c 48 3d 7c ad 1b 3d
       -0.018832976 0.04367838 0.04883993 0.038007244
000090 40 f9 96 3c c8 e5 2a 3d 82 4b 3b 3d 72 4e a6 3c
       0.018429399 0.041723043 0.045726307 0.020301078
0000a0 41 4a ee 38 d9 89 4c 3d 08 6a 15 bd 2a 08 93 bd
       0.00011362555 0.04993615 -0.036478072 -0.071792915
0000b0 97 68 92 bb 03 7e 9f bc 7d 02 6c bb c2 16 0c bc
       -0.0044680345 -0.019469267 -0.0036012225 -0.008550348
0000c0 dc d1 0f bd d9 e0 d5 3b 56 81 be bb 91 5a b3 bb
       -0.035112247 0.006527048 -0.005813758 -0.005473443
0000d0 6e d5 2e bd e7 b5 e7 bc 49 b1 80 3d ef ec 49 3d
       -0.04268401 -0.02828498 0.062838145 0.049298223
0000e0 05 6a a2 3d 9a 33 96 3d c7 c0 62 3d e4 cb bc 3d
       0.07930378 0.07334061 0.055359628 0.092185766
0000f0 9d 47 92 3d e1 ad cc bd 54 a1 84 3c 21 05 35 bd
       0.071425654 -0.09994102 0.016190208 -0.044194344
000100 d7 60 2e bd 4a 34 dc 3d df 8d ec bb e4 e5 9b 3d
       -0.042572822 0.10752161 -0.007219061 0.076122075
000110 73 75 b1 bc fa f2 86 3d 23 04 2f 3d b4 ad af bc
       -0.02166245 0.06589313 0.042728554 -0.021445133
000120 a5 b4 c4 bd fe a2 76 3d 53 ef dd bd c8 05 25 3d
       -0.09604768 0.060214035 -0.10836663 0.040288717
000130 33 f4 82 3d f8 66 8f 3c 22 cb 19 bc 7c ca 27 3a
       0.063942336 0.017505154 -0.00938681 0.0006400717
000140 b3 dd 81 3c 69 ee 68 bc f9 b1 f8 3c 63 58 ad bb
       0.015852785 -0.014216998 0.030358301 -0.0052900775
000150 e7 a3 60 bc 33 10 e5 3d 1a d7 c1 3d dc 01 c4 3c
       -0.013710952 0.111847304 0.094648555 0.023926668
000160 e8 02 3b bc 11 13 63 bd 24 9f 43 bc 0a 38 b3 3d
       -0.011414267 -0.055438105 -0.011939798 0.08750923
000170 8b 90 de bd 1d f8 6f 3d 36 23 1a 3d f1 4e 9b bb
       -0.10867413 0.05858623 0.037631236 -0.004739635
000180 bf ba 7b 3d 9d 94 6d bd 74 db d5 3d 7a 16 b9 bd
       0.06145739 -0.058003057 0.10442248 -0.0903749
000190 ee b8 36 bc 4f c1 1d be a1 7c 00 bd 0d ac a5 3b
       -0.011152489 -0.15405773 -0.031368855 0.0050559104
0001a0 a1 cb 33 bd 72 2a 3f 3c 06 6a 9a 3b a1 72 04 3c
       -0.043895368 0.011667835 0.004712346 0.00808397
0001b0 28 c3 8a bc 71 3a 94 bd 3b 43 d2 3a 97 41 07 3c
       -0.01693876 -0.07237709 0.0016041765 0.008255384
0001c0 83 37 ed 3c b4 42 3d 3d 60 5d 5c 3b 6e 63 75 bc
       0.028957134 0.04620619 0.0033624992 -0.014977319
0001d0 37 8b d9 3c 56 55 d1 bc 2e 12 2e 3d 64 ca 1a 3d
       0.02655564 -0.025553387 0.042497806 0.03779067
0001e0 b1 ad ae 3a e7 0b 28 bc 44 de c6 bd c3 b5 d7 3d
       0.001332691 -0.010256744 -0.097103626 0.10532715
0001f0 b5 8b d6 bd c1 d9 10 bd d3 ae 69 3c ac c8 67 3d
       -0.10475866 -0.035363916 0.014262873 0.05658786
000200 68 89 24 3d 5a d9 b8 3c d5 97 fc bc 19 95 98 bd
       0.040170103 0.022564579 -0.030834118 -0.07450313
000210 a6 32 82 bd b9 dc 44 bc c9 33 3d bd 66 c9 45 3a
       -0.06357317 -0.012015515 -0.046191964 0.00075449643
000220 af 74 33 3d ea 4e 71 bd b4 ce 2f bd fd 4b ab bb
       0.04381245 -0.05891315 -0.042921737 -0.0052275644
000230 33 75 e9 bc 61 79 0a 3d b4 81 ac 3d 83 d3 38 bc
       -0.028498268 0.033807162 0.084231764 -0.011280897
000240 02 78 86 3d 5f 39 57 3b 28 01 26 3d 4e e0 e7 bc
       0.065658584 0.0032840592 0.040528446 -0.028305199
000250 fe a8 e8 bc dd 98 d9 3b 92 41 af 3d a5 be a0 bd
       -0.028400894 0.006640537 0.085574284 -0.078488626
000260 00 1b 84 bd 3e b2 87 3b 1c 41 6d 3d 5d 20 22 3d
       -0.06450462 0.004141121 0.05792342 0.039581645
000270 eb b9 c6 3c b0 80 3c bc 30 09 f4 bc a4 b9 ca bc
       0.024258574 -0.011505291 -0.029789537 -0.024746723
000280 2e ee d1 bc 52 58 de b9 01 9c d1 3b b8 ac b0 3c
       -0.025626268 -0.00042408943 0.006396771 0.021566734
000290 8d 16 30 3c d2 7b d8 3d f3 28 3b 3d 49 e5 03 bd
       0.010747564 0.10570492 0.04569335 -0.032201085
0002a0 f6 09 1a 3c 2a 29 24 3c f9 a6 92 bd 62 21 7e bc
       0.009401789 0.01001958 -0.07160754 -0.015510889
0002b0 24 5b d7 3b 89 31 dc 3b a0 e0 a0 bb 12 ca 47 bc
       0.006572144 0.0067197722 -0.00490959 -0.012194173
0002c0 92 4a e4 3c 57 31 f0 bb 93 28 90 bb d1 e8 6e bd
       0.02786759 -0.0073301005 -0.004399368 -0.0583275
0002d0 39 33 24 3c 52 76 15 bd e8 ac 3a bd 9b b0 51 3d
       0.010021978 -0.036489792 -0.045575052 0.051193815
0002e0 cb 98 38 bd 52 4b 36 bb 05 cb 25 bc 4f 0c 5f 3d
       -0.04506759 -0.002781589 -0.010119204 0.054455098
0002f0 a0 09 12 3d ad e8 05 3d 94 90 17 3d fa c0 e3 3c
       0.03565371 0.0326926 0.037003115 0.02780198
000300 1e b5 a1 bd 1b 83 7e bd be 9c 97 3d 24 33 f3 3b
       -0.078958735 -0.06213675 0.07402943 0.007421868
000310 70 e7 19 3c a0 57 d6 bc 18 fb a0 3d 7a 75 ae bc
       0.009393558 -0.02616483 0.07860392 -0.021296252
000320 88 5d bc 3d 2b 5d 24 3d c0 c7 f1 3c 14 9b cf ba
       0.09197527 0.040127914 0.029514194 -0.0015839064
000330 95 f8 5a bd d4 c1 96 bd ec d4 3d 3d da 1e 14 bd
       -0.053459723 -0.073611885 0.046345636 -0.036162235
000340 8e c5 b3 3d d8 0c dd bc 00 e3 04 bd 16 82 38 3d
       0.08777915 -0.026983663 -0.032443047 0.045045935
000350 e5 c6 ca bc a1 7d 2f 3d 9f 40 c5 3c cd 76 46 bd
       -0.024753043 0.04284442 0.024078665 -0.04845314
000360 bd 42 d7 bc 45 11 ae ba f1 e7 b7 3d 77 1f ae 3c
       -0.02627694 -0.0013280293 0.08979786 0.021255238
000370 bf 69 35 3d 70 89 d0 3c 2a 41 39 bd 73 5a d6 3b
       0.0442903 0.02545616 -0.04522816 0.006541544
000380 2e 86 2c bd 44 ca 2e 3d e9 62 1f bd 13 f8 39 bd
       -0.04212015 0.042673364 -0.038912687 -0.045402598
000390 d8 a3 04 3e 8c 4c 54 3d fd da 1c 3d b7 ac 89 bb
       0.12953126 0.051830813 0.03829478 -0.0042014974
0003a0 08 45 38 bc 21 87 e5 3b dd 2b 54 3d b5 09 5e 3d
       -0.011246927 0.007004634 0.051799644 0.054208476
0003b0 d3 98 8b bd 09 ba 3f bd ab 1d 00 be 6f 88 ed 3c
       -0.06816258 -0.046808276 -0.12511317 0.02899572
0003c0 97 52 83 bd ac 02 ce 3c 6c 0c 1f 3c 8e 2e e8 bb
       -0.06412237 0.025147758 0.009707551 -0.007085628
0003d0 70 b4 93 3d 1a 8e 1b bd 91 8a c3 3c c0 22 e0 3c
       0.0721215 -0.037977315 0.023869785 0.02736032
0003e0 f4 e3 18 3d e4 45 55 3d 00 51 33 3d 85 91 f5 3c
       0.037326768 0.052068606 0.04377842 0.029976616
0003f0 28 8d e4 bb f2 74 07 3d e7 11 70 3d d9 5f 97 3d
       -0.006974835 0.033070512 0.058610823 0.07391328

net.0.bias f4 [32]
000000 35 16 1f bc 9b 71 9c bb 66 c6 e0 3c e6 23 34 bd
       -0.009709884 -0.004774285 0.027438354 -0.043979548
000010 35 16 8c 3d eb 4b 05 3b bd 2f 50 bd 5a b5 16 3d
       0.06840173 0.002033944 -0.050826777 0.036794044
000020 21 ce 56 bd 6f c1 15 bd 86 c8 03 bd 9b 89 0d bd
       -0.052442674 -0.036561426 -0.032173656 -0.03455506
000030 ec a7 9d bc 73 f2 38 bd 7b 70 37 3c 18 7e 49 3d
       -0.01924511 -0.045153093 0.011196251 0.049192518
000040 d8 6e 42 bd b0 9a 40 bd a3 21 8a bd 77 df d0 bc
       -0.04746899 -0.04702252 -0.06744697 -0.025497181
000050 4f c5 78 3c 1e 12 db 3c 41 04 3d bd 96 5c 8f bd
       0.015183761 0.026742037 -0.046146635 -0.07000081
000060 73 b2 64 bc 08 e4 dc bc f5 0b 49 3d 26 a3 f9 bc
       -0.013958561 -0.026964203 0.04908367 -0.030473303
000070 c4 7b e8 bc b6 08 dc 3c 8c 90 0f bd e1 7f 71 3c
       -0.028379329 0.026859622 -0.03504996 0.014739961

net.2.module.0.weight f4 [32, 32, 3]
000000 be a6 5b bd 0c fc 93 3a bf 91 0f 3d c6 a9 8f bd
       -0.053625815 0.0011290326 0.035051104 -0.070148036
000010 5c b2 1f bd d4 5f 0c 3c 83 c7 11 bd 55 75 a6 bd
       -0.038988456 0.008567769 -0.03559066 -0.08127848
000020 e0 41 95 3c 8d d9 c6 bc 18 8b 16 3d 59 4c b6 bd
       0.018219888 -0.024273658 0.036753744 -0.08901281
000030 fc af 23 bd 56 70 98 3d d0 7b 8b 3d 6f e1 e5 bd
       -0.039962754 0.074433014 0.06810725 -0.11224639
000040 4e c3 6c bd d6 da 10 3d c7 a4 f6 3d 14 aa b4 bd
       -0.057803445 0.03536495 0.120431475 -0.08821502
000050 16 db 76 bd c4 cb 8a bd 35 75 82 3d 63 58 02 3e
       -0.06026753 -0.067771465 0.06370012 0.1272903
000060 49 8f 5c bd 0a 4f f2 bd f9 d7 47 bd fa 8e 07 3d
       -0.053847585 -0.11831482 -0.048789952 0.033095337
000070 4b ca 5e 3d 53 f8 31 3d fd 08 46 bb fa f1 a0 bd
       0.05439214 0.04344971 -0.003021776 -0.07858653
000080 e5 90 32 3d 05 66 8a bd 1a 6c da bd f7 6d c1 3d
       0.043595213 -0.0675774 -0.1066515 0.09444802
000090 96 08 9b bd ea 9a d2 3b af 75 97 bc d7 b7 75 bd
       -0.07569997 0.0064271586 -0.018488733 -0.059989776
0000a0 e8 da 68 bd 8d bb 23 bc a4 39 42 bd 36 58 ae bc
       -0.05684939 -0.009993446 -0.04741825 -0.021282297
0000b0 10 1f 98 3d e5 55 e9 3d 00 f0 9a 3d d9 76 c0 bd
       0.074278 0.11393336 0.075653076 -0.093976684
0000c0 60 a5 08 bd 59 c3 13 3d 93 a3 9e bd 0f 4f 98 bd
       -0.03336084 0.03607497 -0.07746043 -0.07436954
0000d0 c9 94 cd bd 3b 10 5a bd 6d 6b 36 bd d4 58 87 bc
       -0.10038144 -0.053238135 -0.044536043 -0.016521849
0000e0 f5 c4 95 bd 3f 92 03 3d 8e 34 c1 3d 2b f9 8e bd
       -0.07312957 0.032121893 0.09433852 -0.06981119
0000f0 48 87 6d bd 3b 88 d7 bd 25 fa a3 3d 77 5a 2b 3d
       -0.057990342 -0.10524031 0.08006696 0.04183432
000100 a0 37 92 3d 68 37 4a bc ce cc 1f bd d3 ec 48 3d
       0.07139516 -0.012342311 -0.039013676 0.04905398
000110 65 07 f8 3c 0a 0d 96 bd c1 4a 81 3d 4a 98 65 3c
       0.030276963 -0.07326706 0.06313086 0.014013359
000120 cd a5 21 bc c9 4b a8 bd f4 9f b0 3d f8 5b 65 3b
       -0.00986619 -0.0821758 0.08624259 0.0034997445
000130 57 25 5b bd 50 ea 02 3e e9 db 10 bd 8e ae b9 3d
       -0.053502407 0.12784696 -0.035365973 0.09066497
000140 d4 d8 53 3c 53 9e 11 3e c4 dd c2 3d 53 b3 51 3d
       0.012930114 0.14220552 0.09514955 0.051196408
000150 2d 39 39 3d 46 6e 12 bd b2 8a 1c 3d 11 aa bd bd
       0.045220543 -0.035749696 0.038218208 -0.09260953
000160 e2 53 8f bd 85 af 47 bc c0 58 b8 3d 4d 78 55 bd
       -0.06998421 -0.012187843 0.09001303 -0.05211668
000170 0e 9e 40 3d 1d 85 05 be 7e 45 8c 3c f6 25 5a bd
       0.047025733 -0.1303906 0.01712298 -0.05325886
000180 b3 14 22 bc d3 ce 09 3b 94 2f 31 3d 5d 36 19 bc
       -0.00989263 0.0021027818 0.043258265 -0.00935134
000190 6a 09 17 bc 40 39 1a 3d 22 95 72 bd 11 42 2b 3d
       -0.009218553 0.037652254 -0.059224255 0.041811053
0001a0 c7 46 7e 3a 41 21 db 3d 7a fc 11 3d 2a b0 fb 3d
       0.00096998777 0.10699702 0.03564117 0.1228946
0001b0 22 08 f7 3d 4b 40 b9 bd bb f9 20 bd 41 bf d4 3c
       0.12062098 -0.09045466 -0.03930066 0.025970103
0001c0 fd ee 7f bd f8 28 c5 bc 2e ac 0a 3c 4e e2 1e 3d
       -0.062483776 -0.024067387 0.008463902 0.03879004
0001d0 86 ab 07 3d b7 e1 b7 3b 2e 84 d3 bd b8 4b 03 be
       0.033122562 0.005611624 -0.10327946 -0.12821853
0001e0 88 0c 90 bd 4b 3d c4 3b 8e 2f 31 3d fe dd a6 bd
       -0.0703364 0.005988752 0.043258242 -0.081478104
0001f0 9b 9b 0b bd a7 d5 22 bd 6d 26 dd 3d e8 02 ce bd
       -0.034083944 -0.039754536 0.10798345 -0.10059148
000200 83 f3 ef 3d 48 9c 98 3d c6 2b 0d 3d 3f e3 0e bd
       0.11716368 0.07451683 0.034465574 -0.034884688
000210 81 92 d0 3d 8f cb a9 3d 35 10 b3 3d bd 0e 8a bd
       0.101841934 0.08290779 0.087433256 -0.06741092
000220 98 b4 92 bd f5 03 c9 bc 29 5b 97 3d ab 08 9f bd
       -0.07163352 -0.02453802 0.07390434 -0.07765325
000230 9d 43 22 bd 8b 90 be 3d e5 c9 b7 bd a6 d1 82 bd
       -0.039615262 0.09304913 -0.08974055 -0.063876435
000240 df b5 a1 bd ca e3 b7 3d 9b 9c af bd 0b 59 aa 3d
       -0.07896017 0.08978994 -0.08574792 0.08317765
000250 fa 7b 9f 3d 30 26 dd bb 00 58 c1 bc 3b b0 d6 3d
       0.077873185 -0.006748937 -0.023601532 0.10482832
000260 95 91 85 3d 1b b6 bd 3d 94 d6 5c bd d3 d6 3a 3d
       0.06521908 0.092632495 -0.053915575 0.04561503
000270 0a b8 57 3d 60 40 15 bc 96 ee dd bb 8e 72 9f 3d
       0.052665748 -0.0091095865 -0.0067728264 0.077855214
000280 14 00 20 3d c7 6d 85 b9 db 48 57 bd d5 55 07 be
       0.039062575 -0.00025449527 -0.052559715 -0.13216336
000290 a5 be 09 be 1e c1 9a 3d ea f7 11 3d 8a cd b6 bd
       -0.13451631 0.075563654 0.03563682 -0.08925922
0002a0 68 bc 43 bd 87 80 37 bc 14 79 08 3e a1 8c d1 3d
       -0.0477871 -0.011200077 0.13327438 0.10231901
0002b0 48 5f ad 3d c2 d4 d5 3c 44 2a 19 bd 89 24 d0 3d
       0.08465439 0.026102427 -0.037393823 0.101632185
0002c0 67 a7 3a 3d e2 42 14 3e d8 c0 47 3d 22 3d d0 3d
       0.045569804 0.14478639 0.048767895 0.1016791
0002d0 aa 8f 2b bc 08 38 98 3b 78 cb be bd b3 8c c9 bc
       -0.010471264 0.0046453513 -0.09316152 -0.024603223
0002e0 19 ed 6f 3d dd 6c 6e 3d c8 1d 67 bc 7e 9c a0 bd
       0.058575723 0.05820929 -0.0141062215 -0.078423485
0002f0 cb c3 c3 3c 6c 7a 13 bd a6 55 4f 3d 79 1e eb bc
       0.023897072 -0.036005422 0.05061879 -0.028701054
000300 a5 ba d6 3d 55 a9 42 3a 5f 2b 2f bc 77 f7 a7 bd
       0.10484818 0.0007425745 -0.010691493 -0.08201497
000310 62 71 9e bd 51 fa 8b 3d d3 80 8f 3d 73 6e c4 3d
       -0.0773647 0.068348534 0.07006993 0.09591379
000320 08 63 df bd 5f f1 2b 3c a9 53 14 bd 42 b9 b3 bd
       -0.109075606 0.010494559 -0.036212597 -0.087755695
000330 1a da 95 3d dc 95 b4 bb 67 ae c4 bd 2a 09 4e bd
       0.0731699 -0.0055110287 -0.09603577 -0.05030171
000340 99 9e 97 bd fe eb 43 bd 8e 36 7b bd 96 73 2c bc
       -0.07403297 -0.04783248 -0.061331324 -0.010525605
000350 f8 1a 9f bc ee dd 0e 3d 2c 06 cf 3d c3 87 cb 3d
       -0.01942204 0.034879617 0.10108599 0.09938004
000360 16 38 df 3c 49 0a 6b 3d a9 ed e2 bd ba 67 55 3d
       0.027248424 0.057382856 -0.11080486 0.052100874
000370 bc b2 34 39 87 03 d7 3d 57 f9 62 bd 20 10 22 bd
       0.00017232721 0.1049872 -0.05541357 -0.03956616
000380 bb c5 2e bc 77 92 34 bd 2a 55 81 bb 41 24 8c bc
       -0.01066726 -0.044084992 -0.00394692 -0.017107131
000390 57 8e 56 3d 25 2b 88 bd 23 d0 81 3c 57 a9 ba 3d
       0.05238184 -0.06648854 0.015846318 0.0911433
0003a0 b6 6e 23 38 e3 24 15 bd f5 0f 00 3c 46 09 09 bd
       3.8965336e-05 -0.03641213 0.007816304 -0.03345611
0003b0 9e e6 9a bd 16 27 93 bd fc 54 4b bd a1 e0 6f bd
       -0.07563518 -0.071851894 -0.049641594 -0.058563832
0003c0 23 77 b2 3b ba 0b cb 3d a1 a0 8f 3d 08 0a 84 3d
       0.005446331 0.09914346 0.070130594 0.06447226
0003d0 90 60 9a bd 68 be 19 bc df ad bc bc 36 bb 26 bd
       -0.07537949 -0.009383775 -0.023032127 -0.040705882
0003e0 84 7c 9f bd 69 d8 3d 3c 58 f2 d0 3c 56 1b a0 3d
       -0.07787421 0.011587241 0.025506184 0.07817714
0003f0 bf 34 b1 bd c0 28 20 bd e5 5e 3b bd 1b b0 82 3c
       -0.08652639 -0.039101362 -0.045744795 0.015953114

net.2.module.0.bias f4 [32]
000000 dd 17 66 bd e3 c3 ee bc 98 63 21 3c 7e b9 ec 3c
       -0.0561751 -0.02914614 0.009850405 0.028897043
000010 87 72 9b bd 0b ea b6 3d 3f c9 af bd 85 82 95 3d
       -0.07590204 0.08931359 -0.085833065 0.07300285
000020 77 e3 bc 3d 07 d8 06 bb a5 26 9b 3d 54 a6 31 3b
       0.09223073 -0.002057554 0.0757573 0.0027107196
000030 0c 67 35 bb a4 a6 44 3d c7 5d 47 3c af 52 26 bd
       -0.002767983 0.048010483 0.012168354 -0.040606197
000040 98 83 f3 3c 29 8d fc 3b e6 af fb ba 1d 0c 77 3d
       0.029725835 0.0077072573 -0.0019202202 0.060314287
000050 24 11 34 3c 88 50 cd 3c fa da d8 bd 14 fc 77 3d
       0.010990415 0.025062814 -0.105886415 0.060543135
000060 df 06 1d bd 62 96 90 bd 70 ab b4 3c 67 a2 6e 3d
       -0.03833663 -0.07059933 0.022054404 0.058260348
000070 c6 79 ce b9 bf 61 d6 3c 84 b6 28 bd da 35 c8 bc
       -0.0003938211 0.026169656 -0.041189685 -0.02443974

net.3.module.0.weight f4 [32, 32, 3]
000000 d1 e1 08 3d 8f 1f 32 3d 9e 26 ea bb 72 10 1c bd
       0.03341848 0.043487128 -0.007145717 -0.03810162
000010 34 da c7 bd ff 0d b9 bd a6 df ce bd 95 a2 a1 3d
       -0.09758416 -0.09035873 -0.10101251 0.07892338
000020 04 03 be bd 1f 15 40 3d 94 33 87 bd 1d 5f 89 bd
       -0.09277919 0.046895143 -0.066016346 -0.067075945
000030 1b c1 d1 bb 99 21 a3 3d c8 b7 8f 3d 0a ca 98 3d
       -0.006401194 0.079653926 0.07017475 0.07460411
000040 4c 1a 97 3b aa 45 8c bd ff c1 63 bd 17 12 99 bd
       0.004611289 -0.06849225 -0.05560493 -0.074741535
000050 52 92 c1 bb 56 c2 44 3d bd 39 a0 3d 9a 5f b0 bc
       -0.0059073353 0.048036896 0.07823513 -0.021529961
000060 90 b8 1b 3d 75 b7 6c bd 59 ac a3 bd 01 cf 8e bd
       0.03801781 -0.057792146 -0.07991857 -0.069730766
000070 2b 0d c5 3c 9e ec ca 3d 31 06 05 b9 da 33 b2 3d
       0.02405413 0.099084124 -0.00012686175 0.08701296
000080 77 40 1c 3d 4d ab a6 3d 68 41 36 3c 7c d1 8c bc
       0.038147416 0.08138142 0.0111239925 -0.017189734
000090 52 7d 69 3d d1 de 2e bd a5 e1 a6 bb 7b 28 56 3d
       0.05700428 -0.042692963 -0.005092817 0.0522847
0000a0 cd 32 9f 3d 44 17 06 3e de a9 bd bd 28 7f eb bd
       0.07773361 0.13094813 -0.09260915 -0.114988625
0000b0 de c4 7b 3c b9 c5 2c bc f6 84 3e 3d f0 14 0b bc
       0.015366761 -0.010545188 0.04651352 -0.008488879
0000c0 10 eb 37 bb 14 c2 57 bd bc b5 c1 bc ec 51 87 bd
       -0.0028063692 -0.05267532 -0.023646228 -0.06607422
0000d0 0b 89 8d 3d 21 2c 8c 3d 11 60 ab 3c 9c 59 66 3d
       0.069109045 0.068443544 0.020919831 0.056237802
0000e0 0a af 39 bd da d9 09 3e e2 ca b6 bd 48 7d 3c 3d
       -0.045332946 0.1346201 -0.089254156 0.046017915
0000f0 80 d5 e4 3d e2 6c 91 bd d1 52 9d 3d cb 96 66 3d
       0.111735344 -0.07100846 0.076818116 0.05629615
000100 ca be 9d 3b 07 d2 70 bd e9 96 ce 3c a7 17 a4 bd
       0.0048140036 -0.058794048 0.025218444 -0.08012324
000110 b4 7d 55 bd 7a f2 a6 3d 93 6a a4 3d 87 d2 02 3e
       -0.052121833 0.081517175 0.0802814 0.12775622
000120 6a e1 0e 3e 48 e0 d1 bd f0 73 a3 3d f7 26 fb 3d
       0.13953176 -0.102478564 0.07981098 0.12263291
000130 70 63 13 3c 1d 22 0a 3d a4 16 a5 bb 92 9e 90 3d
       0.008995876 0.03372394 -0.0050380994 0.07061495
000140 02 20 11 3d 2d c1 6f bd 10 8b ac 3d 5e d4 ea bd
       0.035430916 -0.058533836 0.084249616 -0.11466287
000150 a2 4d 0d be f4 a4 18 bc ea 51 44 bd 6f a2 95 3d
       -0.13799146 -0.009316672 -0.04792968 0.073063724
000160 13 2a 82 bd 35 55 ce 3d 02 e9 d3 3d 18 c3 57 bd
       -0.06355681 0.10074846 0.10347177 -0.05267629
000170 5a 33 87 3d e0 e5 43 3c 79 92 03 bd 36 1f bd bd
       0.066015914 0.011956662 -0.03212211 -0.09234469
000180 7c cf e3 3d fa ce ff bd 39 4b c4 3d 50 d2 16 3d
       0.11123559 -0.124906495 0.0958466 0.036821663
000190 19 3e 80 3c 49 92 27 bd 30 4f 84 3d 58 a0 03 3d
       0.01565461 -0.040910993 0.06460416 0.032135338
0001a0 03 0a fb bc 00 95 50 bd 23 55 9c 3b ff 2e b7 3d
       -0.030644422 -0.050923347 0.0047708913 0.08944511
0001b0 cf 65 37 3b 38 31 c6 3c f7 8f af bd 33 41 cf 3d
       0.0027984267 0.024193391 -0.08572381 0.10119858
0001c0 6d a3 fd bc 7c 3c c4 bd 7f 1e d0 bd e7 d1 b4 3d
       -0.030961717 -0.09581849 -0.10162067 0.08829098
0001d0 e1 13 ec bd 05 a4 65 3d 2f 4e 8a 3d ac f4 c4 3c
       -0.11527229 0.056064624 0.067531936 0.02404245
0001e0 f3 4e 51 bd e5 4a 08 be e2 f2 6b 3d c5 c9 63 3d
       -0.051100682 -0.1330982 0.057604678 0.055612344
0001f0 24 ee 09 3d 07 b6 1c bd d2 9d 00 3c 9d 32 ee bc
       0.033674374 -0.038259532 0.007850127 -0.029076869
000200 56 43 2e bd 63 87 7b bc 46 24 43 bd 3f 18 e4 bc
       -0.042544685 -0.015352103 -0.047642015 -0.027843593
000210 dd f0 cf bd 36 a4 ea bb f8 f9 9d 3d d4 ad 9f 3d
       -0.10153363 -0.0071606888 0.077136934 0.07796827
000220 d1 8b 23 3d 93 e4 19 bd 39 59 7b bc 04 6e e5 bd
       0.03992826 -0.0375715 -0.015341097 -0.112026244
000230 bc 09 a2 3d d6 33 ad 3c eb 87 d0 bd c7 bb a5 3d
       0.07912013 0.021142881 -0.10182174 0.08092456
000240 46 a2 ce 3b 19 b1 27 3c a0 17 4f bd f8 76 a7 3d
       0.0063059656 0.010235094 -0.05055964 0.08176988
000250 f9 4f d3 3b ec fa 89 3d c8 32 82 3d 89 d0 09 bd
       0.0064487425 0.06737313 0.06357342 -0.03364614
000260 d9 5b f6 bc cf 98 c2 3d 80 48 f8 bc 75 da 85 bb
       -0.030073093 0.09501802 -0.030308008 -0.00408488
000270 db 90 16 3e 67 06 ac 3d 6c fb 4c bc 89 76 80 3d
       0.14703695 0.08399659 -0.0125111155 0.06272609
000280 34 c4 51 3d 85 e4 ad bd cc 1a a0 3d 32 b3 f9 bc
       0.051212505 -0.08490852 0.07817611 -0.030480955
000290 56 ab d1 bc 1c bc da 3c 57 d9 5f 3d 87 73 ff bd
       -0.025594395 0.026701026 0.05465063 -0.12473207
0002a0 84 58 95 3d 91 6f 89 3d 4f 19 10 3d 3a 4a 5a bc
       0.07292274 0.06710733 0.035180386 -0.013323361
0002b0 91 18 c6 3d 5f f5 45 bd f5 22 a6 3d 19 25 19 bc
       0.096726544 -0.048329707 0.08112136 -0.009347224
0002c0 bb 9f eb bc c8 8c 40 3d c0 c9 21 3d e1 c3 3a 3c
       -0.028762689 0.04700926 0.039499044 0.01139924
0002d0 74 37 aa bb ca 15 a2 bd b8 ba 72 3d 2e da e4 3d
       -0.005194599 -0.07914312 0.0592601 0.11174427
0002e0 bd c7 a5 3d 78 49 ab bd a0 d2 5a bd 4b 9f fa 3c
       0.08094738 -0.083636224 -0.053423524 0.030593535
0002f0 bd 62 0a bc 1a 4c df bb b0 97 ab bd f3 0c ae 3d
       -0.008446393 -0.006814492 -0.083785415 0.084985636
000300 73 c2 73 bd 67 82 35 3d 15 84 69 3d 25 31 a5 bd
       -0.059511613 0.044313814 0.05701073 -0.08066014
000310 61 0e 9f 3d 43 79 82 bd d0 1b 9a bd e4 4d 12 3d
       0.077664144 -0.06370785 -0.07524836 0.035718814
000320 55 b4 b7 bd 35 bc c1 bd 64 52 f6 bc d9 a1 2c 3d
       -0.089699425 -0.09459726 -0.030068584 0.042146537
000330 7b 2d 89 bd 95 13 e6 3d 4e 05 90 bc b7 25 a3 3d
       -0.06698128 0.11234204 -0.017580654 0.07966178
000340 e4 f8 c6 3d c1 9f c4 3d 02 d5 c5 3c 98 3c 96 3d
       0.09715441 0.09600783 0.024149422 0.07335776
000350 65 1c c5 3d b0 48 7a bd 84 75 2f bd b1 63 ad 3d
       0.096245565 -0.061104476 -0.04283668 0.0846628
000360 07 6d 63 bd 20 ab 2c 3d b9 81 f9 bd f0 23 b2 bd
       -0.0555239 0.042155385 -0.12182946 -0.08698261
000370 ca 98 26 3d 03 c8 59 bc af 68 9d bd 78 6b a6 3c
       0.040673055 -0.013292315 -0.076859824 0.020314917
000380 9d 36 93 bd f2 e8 c0 bd be 27 2e bd 20 c5 56 bc
       -0.07188151 -0.09419431 -0.04251837 -0.013108522
000390 5b b9 9f bd a7 42 91 bd 22 82 43 3d 69 03 ae 3b
       -0.077990256 -0.07092791 0.047731526 0.005310465
0003a0 8c 67 8a 3c eb 17 33 bd 16 be c2 bd e5 21 a0 ba
       0.016895078 -0.04372398 -0.09508912 -0.0012217133
0003b0 46 5b 55 3d ea 58 fe 3c 36 28 8f b9 d5 8f b6 bd
       0.052089 0.031048257 -0.00027305045 -0.089141525
0003c0 d9 b8 23 bd 24 af 4a bc 5a 98 d4 bb 93 2f 67 bd
       -0.039971206 -0.012370858 -0.0064878883 -0.056441855
0003d0 6a 25 e4 3b 87 23 e2 bb f5 80 ce bc d3 ab 87 3d
       0.006962468 -0.006901208 -0.025207976 0.0662457
0003e0 35 e0 55 3c cf a9 d5 3c 0a 5f 53 3c 06 f5 45 3b
       0.013053943 0.026081948 0.012901077 0.003020586
0003f0 49 65 21 3d a4 d5 1a bd 6e c4 8a bd 69 ad a2 bd
       0.039403234 -0.0378014 -0.06775747 -0.079432316

net.3.module.0.bias f4 [32]
000000 4a 9c 2f bc 33 53 1e bc 33 48 5a 3d 6f b6 98 3d
       -0.010718415 -0.009663391 0.05329151 0.074566714
000010 84 69 92 3d 02 ee be 3d ff 3c ac 3d 01 00 c8 bd
       0.07149032 0.0932274 0.084100716 -0.09765626
000020 1e bd be 3c f9 93 15 3d 65 42 05 bd 8f fb a5 bd
       0.023283537 0.03651807 -0.032534022 -0.081046216
000030 f7 2c ab bd 4d 33 31 bc 31 92 23 bd a2 9a 02 3d
       -0.08358186 -0.010815454 -0.03993434 0.03188575
000040 fb ea 17 bd 77 1b b3 3d e9 de 45 bc e6 a1 17 3d
       -0.03708933 0.08745473 -0.012077072 0.037019633
000050 78 ce 61 3d 64 7a 7f bd fe ba fe 3c 4c 79 69 3d
       0.055128545 -0.06237258 0.031095024 0.057000443
000060 a5 2e 9d bd 64 20 9d 3d eb 86 dd 3c 2a 24 10 bd
       -0.07674912 0.07672194 0.027041873 -0.03519074
000070 51 1c 3d 3d 4d d2 73 3b bd 19 a4 3d 1a d8 0f bc
       0.046169583 0.0037204206 0.08012722 -0.00877955

net.4.module.0.weight f4 [32, 32, 3]
000000 31 38 0a 3d d0 28 47 3d 82 71 2c bd 75 0c 5d bc
       0.033744995 0.048622906 -0.042100437 -0.0134917395
000010 4e 05 8b 3d ef a9 77 3d b8 30 e1 bd f5 60 bf 3c
       0.06788121 0.060464796 -0.109956205 0.023361662
000020 83 c2 10 bd f7 77 f1 bd 3f ff 07 bd 0e 9b 0b be
       -0.03534175 -0.117904596 -0.033202406 -0.13633367
000030 bf 48 02 3d 1c f3 57 3d 5a e5 56 3b 75 65 60 3d
       0.031807657 0.05272208 0.0032790513 0.054784257
000040 73 48 9f bd ea a7 c6 bc 39 41 56 3d 37 c2 2c 3d
       -0.077774905 -0.02424999 0.052308295 0.042177405
000050 d7 c8 85 3b 00 3c 9a 3d 64 8d 82 bd 8d b7 7b 3d
       0.00408278 0.07530975 -0.06374624 0.061454345
000060 97 cb 48 3d 3a 91 a7 bd 5f f7 3d bc 57 3a ce 3c
       0.049022283 -0.08181997 -0.011594622 0.025174303
000070 ec 69 e5 3d 15 8c 9c ba 25 74 8f bb 1b 89 5f bd
       0.112018436 -0.0011943603 -0.004377859 -0.054574113
000080 4a 3a 5d bd dc 4c 5e 3d 18 0c 6a bd 2e 2f 1d bd
       -0.054010667 0.054272518 -0.05714044 -0.038375072
000090 8c 1e b2 3d 8d ec 38 3d 86 c4 ad 3d d9 fe c5 3d
       0.086972326 0.045147467 0.084847495 0.09667749
0000a0 3f 38 0f bd 89 3b 24 bd 1e 5b ed bc 83 33 38 bd
       -0.03496575 -0.04009584 -0.028974112 -0.044971
0000b0 b0 3a 18 bd 7c e1 7b bc c1 9e 6e 3d d5 68 d4 bc
       -0.037165344 -0.015373584 0.05825687 -0.025928894
0000c0 d8 d4 1b bd 8c 87 dd bd 13 87 8f 3c a2 5a 02 3d
       -0.03804478 -0.10816869 0.017520463 0.031824715
0000d0 44 50 c9 bd bc fe 2f ba 50 93 7e bd 34 5c 42 bd
       -0.098297626 -0.00067136786 -0.062152207 -0.047451213
0000e0 5e b6 e5 3c 0d 96 ae bb 67 e4 92 3d 82 fd 09 bc
       0.028041061 -0.005327946 0.071724705 -0.008422257
0000f0 53 cf ec 3d 76 1d a7 bd 7f ae 68 3c ea 33 92 3d
       0.115629815 -0.08159916 0.014201759 0.07138808
000100 4d 17 90 bd 63 1b be bd 0f 65 90 3d dc d5 3c bd
       -0.07035694 -0.09282567 0.070505254 -0.04610239
000110 48 2a 5a 3d d2 bf df 3d 9c cd 8b 3b a8 93 62 3d
       0.05326298 0.10925259 0.004266454 0.055316597
000120 72 01 8b 3d bb 90 96 3c 10 18 87 3d 0b 87 f4 3d
       0.06787385 0.01837956 0.065963864 0.1193982
000130 37 e7 e0 bd 2f 1d 3d bc e1 df ad bd 13 9c 35 3c
       -0.10981601 -0.011542602 -0.08489967 0.011084574
000140 45 18 c3 3d ad 30 00 3e 52 74 a3 3d 04 2d c5 bd
       0.095261134 0.12518568 0.07981171 -0.09627727
000150 cb 64 76 3d 03 49 b6 3d c2 8b b6 bd 81 44 ae bd
       0.060154717 0.08900645 -0.089133754 -0.0850916
000160 77 eb 82 bd 16 87 1d 3d 2e f8 ce bc 43 66 a7 bb
       -0.063925676 0.038458906 -0.025264826 -0.005108626
000170 cf b8 6d 3d a1 40 11 be 9e fa 47 bd f8 b0 76 bd
       0.058037575 -0.1418481 -0.04882299 -0.060227364
000180 35 bd c5 3d eb 43 d7 3b d1 d7 35 bd c9 c7 44 3c
       0.09655229 0.0065693757 -0.04439527 0.012010523
000190 a8 34 78 bd f6 3a c6 3c b1 ba 98 bd d0 92 a4 b9
       -0.060597092 0.024198037 -0.074574836 -0.000313899
0001a0 ca 98 b7 bd d5 56 81 3d 7c ab 81 bc 0c 86 19 3d
       -0.08964689 0.0631539 -0.01582884 0.037481353
0001b0 a5 10 0a 3d 3a 04 f9 bd 3d d0 34 3c c9 7c 91 bc
       0.03370728 -0.12159009 0.011035976 -0.017759698
0001c0 94 65 8c 3c b9 e2 c7 3c c9 0a 8c 3d 5d 9e b4 3d
       0.01713828 0.024400102 0.068379946 0.08819268
0001d0 31 a4 cd bd 95 f9 f7 3c 1c ed c1 bd f9 d5 d7 bd
       -0.10041083 0.030270377 -0.09469053 -0.10538859
0001e0 1b 12 78 3d fa 55 b7 bd 33 a9 e4 bd 1f 12 ce bd
       0.06056414 -0.089519456 -0.11165085 -0.1006205
0001f0 ee af 81 bc fe 2c e9 3c 0b a3 ff ba 43 7b 8b bc
       -0.01583096 0.028463837 -0.0019503547 -0.01702655
000200 e7 f5 91 bd e9 4f f3 bc 7e b4 85 3c 89 42 ce bd
       -0.0712698 -0.02970119 0.016321417 -0.10071284
000210 2d ab 92 3d 3c 93 0a bc 13 b6 98 bb 8b 82 08 3d
       0.071615554 -0.008457955 -0.004660377 0.03332762
000220 94 10 d2 3c da 15 51 bd 27 9b f3 3d cf e6 83 bc
       0.02564267 -0.05104623 0.11894827 -0.016101269
000230 9c a4 72 bc 15 88 4e bc 18 af aa 3d 98 ae 96 3d
       -0.014809754 -0.012605687 0.08334178 0.0735752
000240 7e 97 90 bd e4 ce 73 bd 0d d4 3f bc f1 0d 72 3d
       -0.07060145 -0.05952348 -0.011708272 0.059095327
000250 de 06 a0 3c 7a 7b 9b bb c6 9e 4d bd 30 a0 9d bd
       0.019534525 -0.004744944 -0.050200246 -0.07696569
000260 27 96 e4 bc d1 4e 71 3d a1 7e ac bd 35 4e 82 bd
       -0.02790363 0.058913056 -0.0842259 -0.06362573
000270 88 62 46 3d e9 07 c9 3d c0 9c 1e 3d 1b bc 9c bd
       0.04843381 0.09815962 0.038723707 -0.07653066
000280 b8 9a 9e bd 2b 28 21 bd c3 13 4a bd 60 35 1e 3d
       -0.07744354 -0.039344948 -0.049335252 0.03862512
000290 1f 80 b1 3c 0f be 03 3e 5e 99 f7 3c 72 63 8d 3d
       0.021667538 0.1286547 0.030224498 0.06903733
0002a0 91 82 c2 3c 95 df 8c bd 25 b0 41 bd c5 f3 3d 3d
       0.0237439 -0.068785824 -0.047287125 0.046375055
0002b0 3d 2e 27 3d 35 b6 51 bd 94 db 31 3c 59 d3 44 bd
       0.04081558 -0.051199157 0.010855574 -0.04805312
0002c0 f9 fe 56 bd 82 80 53 bd a9 d1 cd 3d 24 07 74 3c
       -0.052489255 -0.051636226 0.10049755 0.014894281
0002d0 2e a3 c9 3d d8 54 c0 bd 37 88 4d bc 41 63 a7 3c
       0.09845577 -0.09391183 -0.012544683 0.02043307
0002e0 58 d4 86 3d 5f e6 14 3b 42 58 dc 3d ec a6 21 bc
       0.0658347 0.002272032 0.10759021 -0.009866457
0002f0 e2 9f b6 bd ff 33 be bd 58 d4 0d 3d 28 52 c2 3d
       -0.08917214 -0.09287261 0.034626335 0.09488326
000300 f3 e9 02 bd c6 0a 85 3d 5e e6 80 bd 1e bd 69 3d
       -0.031961393 0.064961955 -0.06293939 0.05706512
000310 2a b9 b2 3c 3c 13 03 be c2 7b fc 3c e8 39 f5 3b
       0.021816809 -0.12800306 0.030820731 0.0074837096
000320 79 43 57 3d f5 9e af bc e5 1a 16 bd c8 ec 1e 3d
       0.05255458 -0.021438101 -0.036646742 0.03880003
000330 d9 11 54 3d dd f8 01 3d a1 e8 7c 3d eb 28 a8 3b
       0.051774833 0.031731475 0.06174529 0.005131831
000340 d2 03 85 bd e7 27 52 bc 22 e5 13 39 df b2 cf 3d
       -0.06494869 -0.012826896 0.00014104371 0.10141539
000350 b4 1c 2b 3d 72 9f 99 3b 33 1e bf bc 82 61 a7 ba
       0.04177542 0.004688197 -0.02332983 -0.0012770148
000360 2f 3d b2 bd eb 84 a8 3b be e9 c4 bd f6 cb b2 3d
       -0.08703076 0.005142798 -0.09614895 0.08730309
000370 8e d0 8c 3c 4f c2 e8 3b 9f da bb 3d b0 37 d0 bd
       0.01718929 0.0071032415 0.09172558 -0.101668715
000380 ac dd 2b 3d d2 1f 1b bd 29 f5 3d 3d d6 22 a1 3d
       0.04195945 -0.037872143 0.04637638 0.078679726
000390 cd ca 99 3d 40 3e d0 3c 5f a6 88 bd 40 f8 08 bd
       0.07509384 0.025420308 -0.06672358 -0.033439875
0003a0 ef bb b8 3c a3 d3 1d bd 48 59 a8 bd 4a 57 6c 3d
       0.022550551 -0.03853191 -0.08220154 0.057700433
0003b0 aa 69 57 bc f1 a9 86 3d b4 60 6d bd 6c 18 2b 3c
       -0.013147751 0.065753825 -0.05795355 0.010442834
0003c0 5b 76 80 bd 17 32 54 3d 8c 22 e0 bd cf bb c4 bb
       -0.062725745 0.051805582 -0.10944089 -0.006003834
0003d0 ea 43 f8 bc 60 26 38 3d f6 a9 98 3d ee 4e 47 3b
       -0.030305821 0.044958472 0.074542925 0.0030412036
0003e0 85 93 10 bc aa 01 c6 bb f6 3b 40 bd f8 f7 06 3b
       -0.008824234 -0.006042679 -0.046932183 0.0020594578
0003f0 2d a6 c5 bd 4c a4 85 bd 27 c4 e2 3d 18 0d 90 3d
       -0.09650836 -0.06525478 0.11072569 0.070337474

net.4.module.0.bias f4 [32]
000000 20 dd cb bc ba ce a0 3c b1 c1 d9 3c a0 06 7e bd
       -0.024885714 0.019629825 0.026581617 -0.062018037
000010 d2 e0 c5 bd 2f 00 9e 3b 23 48 79 bd d1 5b 81 bd
       -0.09662022 0.004821799 -0.06085981 -0.06316341
000020 6a 6c 9e 3d c0 58 0d 3d 3f 8d a3 bc 24 9b c3 bd
       0.07735522 0.034508467 -0.019964812 -0.09551075
000030 4d 58 d7 3d 54 10 9d bd 3e 8c 22 3d 8c 83 26 3c
       0.10514889 -0.0766913 0.039684527 0.010163199
000040 f7 40 8b bd 04 94 89 3c 0c 15 aa bd b8 fc 90 bd
       -0.067995004 0.016794212 -0.083047956 -0.07079452
000050 81 23 92 3d 2a c7 30 bb 8e cd 53 bd d4 20 83 bd
       0.07135678 -0.002697418 -0.051709704 -0.06402746
000060 d5 db 52 3c 0e 57 84 3d 7e 0e 0c 3d d3 01 98 bd
       0.012869795 0.06461917 0.03419351 -0.07422223
000070 71 a6 98 bd bc 6e db bd 1b fc b2 3d f9 3b 48 3d
       -0.07453621 -0.1071448 0.087394916 0.04888532

net.5.weight f4 [8, 32, 3]
000000 5f 8c c3 3c d3 6b 78 bd ed e7 0b 3d 6a 96 38 3d
       0.023870645 -0.060649704 0.03415673 0.04506532
000010 c0 0d f2 bb 32 b6 07 bc eb 56 cc 3d 13 f3 82 bd
       -0.007386893 -0.008283185 0.09977516 -0.06394019
000020 c4 4a 5c 3d 43 9e c6 3d 14 d8 48 bd 76 48 4b 3d
       0.05378224 0.09698155 -0.049034193 0.04962965
000030 c1 4c c9 3c 2e e7 3a 3d 3d 44 34 3d 65 8e 46 3d
       0.024572732 0.045630626 0.04401039 0.04847564
000040 f0 85 96 3d c4 56 b7 bd 67 ac 9a 3d 9f 37 8a bd
       0.07349765 -0.08952096 0.075524144 -0.0674889
000050 a2 cd 9f 3d b5 8c fa bb 3c 7d 62 3d 19 1e bc 3d
       0.07802893 -0.007646168 0.055295214 0.09185428
000060 8f 60 93 bd 9f 9e b9 3d c1 ab 2c 3c 9f 9c cc 3d
       -0.071961515 0.09063458 0.010538996 0.099908106
000070 b6 4d a4 3d 3a 78 1f 3c cd 4b d2 3d bd e6 2e bd
       0.08022635 0.009733254 0.10268364 -0.042700518
000080 40 89 7d 3d 18 49 aa bd c0 72 86 bd 02 f8 2b bd
       0.06189847 -0.08314723 -0.065648556 -0.041984566
000090 76 fe 4e 3d 09 69 80 3d 04 30 92 3d ee 2a ee bc
       0.05053564 0.06270034 0.071380645 -0.029073205
0000a0 13 99 94 bc 5d c9 6a bd b5 67 a7 bd 52 aa 05 bd
       -0.018139398 -0.05732094 -0.081740774 -0.032633133
0000b0 f2 ad c5 bd 58 19 20 bd d8 73 85 bd 38 e9 b6 bc
       -0.09652318 -0.03908667 -0.06516236 -0.022328004
0000c0 4f 05 75 3d e3 6e 2b bb 4f 03 b3 bd 3d c1 4b 3d
       0.059819516 -0.0026158623 -0.087408654 0.049744833
0000d0 39 b3 37 bd 32 02 d4 3c a3 02 51 bd 6d 1e 46 bd
       -0.044848654 0.025879953 -0.051027905 -0.04836886
0000e0 75 bd 91 bd d6 49 5b 3d 44 0c 46 bd 58 a5 94 bd
       -0.07116214 0.053537212 -0.04835154 -0.07258099
0000f0 06 ff a8 bd 25 13 42 3b 06 72 92 bd 31 5a 0d 3e
       -0.08251767 0.0029613462 -0.071506545 0.13803937
000100 f2 89 71 3d 7a 14 49 bc a5 34 6b bd bf 0a 70 3d
       0.058969446 -0.012272948 -0.057423253 0.058604
000110 04 3d a4 bd a2 4c 4b bd 16 bf d1 3c c0 a0 85 3d
       -0.0801945 -0.04963363 0.025603812 0.06524801
000120 77 d1 e0 ba 5d 0d 58 3c 22 61 7c 3d a2 3c 77 3c
       -0.0017152269 0.01318678 0.06161607 0.01509014
000130 f7 2b ef bc c5 5f 36 3d 5c 4b 86 bd 4c f5 9c 3d
       -0.029195769 0.044524927 -0.065573424 0.07663974
000140 2f c3 a0 bc 7a b5 fa bd a0 f3 a0 bc e2 24 c6 3c
       -0.01962432 -0.12241645 -0.01964742 0.024187509
000150 ee 6d 93 3d ad 96 fa 3b d6 f9 90 3d 87 36 0a bd
       0.07198702 0.0076473565 0.070789024 -0.033743408
000160 55 9c 46 3c 35 97 d8 bc 37 82 85 bc be ec cd bd
       0.012122233 -0.026439289 -0.016297443 -0.100549206
000170 6a 0c a2 bd c4 e8 9e 3c 06 dc a1 bd 99 01 a4 3d
       -0.07912524 0.0193981 -0.07903294 0.08008117
000180 40 d2 18 3e f2 fe e9 3b 8c 44 22 bd ea f7 59 bc
       0.14923954 0.0071409876 -0.039616153 -0.013303736
000190 2c e1 2a 3d c2 7b fb bb 62 f7 b9 3d f4 ec e4 bd
       0.041718647 -0.007674665 0.09080388 -0.11178008
0001a0 d3 78 6b 3d c7 94 2d 39 57 16 ba 3d a7 77 f7 3c
       0.057488274 0.0001655399 0.09086292 0.030208422
0001b0 2a e1 6a 3b c4 35 47 bd 1a 5b 6a 3d 20 c2 f7 3b
       0.0035839775 -0.04863526 0.057215787 0.0075609833
0001c0 f5 50 b9 bd 76 ff 36 bc a7 79 04 bd 3c d2 c3 bd
       -0.090486445 -0.011169305 -0.03234258 -0.095615834
0001d0 ba 21 e6 bd 0b 82 d4 3d e1 9c d3 ba 97 8a d5 3d
       -0.112369016 0.10376366 -0.0016144776 0.104268245
0001e0 a4 68 b8 bd bf 7c ac 3b c2 27 e4 3c a6 48 eb bd
       -0.090043336 0.0052638943 0.02785099 -0.11488466
0001f0 20 5a 50 3d af a9 1f bd 6e 3d 36 3d 48 aa 99 3c
       0.0508672 -0.038980182 0.044492178 0.018757954
000200 6c 86 04 3d ce 69 34 bc 87 c5 c8 3d fe 7e 58 3c
       0.032354757 -0.011011554 0.098033 0.013213871
000210 49 73 da 3c 2e f0 c2 bd 61 aa 4e 3d 01 4b 65 3d
       0.0266663 -0.09518467 0.050455455 0.055979732
000220 2e 9f ba bc b4 0b 3c bd 14 a9 b3 bd 69 c3 ed 3d
       -0.02278098 -0.0459096 -0.087724835 0.11609537
000230 be d5 b4 3c 71 3f f6 bd e9 3f a6 bd da ce fc 3b
       0.022074576 -0.12023819 -0.08117659 0.0077150883
000240 5a 85 80 3d 07 0e d2 3b 7b 44 33 3c bc 2f 86 39
       0.06275435 0.0064103636 0.01094162 0.00025594037
000250 db 8c 6d bd 3d 47 15 3d fc 48 b3 bc 08 c3 13 3d
       -0.05799566 0.03644489 -0.021885388 0.03607467
000260 d9 29 a0 bd 44 d9 a7 3c f7 7b 27 3d 7b 3a b7 bd
       -0.07820482 0.020489343 0.040889706 -0.08946701
000270 db 3f 85 3d 89 5e a1 3d 78 4f 8e 3d f4 cb 86 bd
       0.0650632 0.07879359 0.06948751 -0.0658187
000280 7c bc ec 3c 34 35 d8 bd ec 89 0d 3d af a5 02 3e
       0.02889847 -0.10557023 0.03455536 0.12758516
000290 18 2e 88 3c bf e3 23 3d 71 e6 94 3c f1 07 c0 3c
       0.016623542 0.040012117 0.01817629 0.023441287
0002a0 33 bd 0b 3d 82 b4 c1 3d dd aa 96 bd 48 99 a7 bc
       0.03411598 0.09458257 -0.07356808 -0.020458832
0002b0 3e d6 2a 3d e8 f3 37 3c 6a 9b 1e 3b 5b 0d 2b 3d
       0.041708224 0.011227585 0.002420152 0.041760784
0002c0 c6 50 96 bd ee 40 24 3c d5 fe cf 3d 31 45 91 3c
       -0.07339625 0.010025246 0.10156027 0.017733188
0002d0 3a 88 1e 3d 3c 2e c8 3d e4 7e 57 bd d7 cd ba 3d
       0.038704135 0.097744435 -0.052611247 0.09121292
0002e0 c8 15 62 3d 01 37 1a 3e 82 b5 bc bd ab 5d 99 bb
       0.055196553 0.15060045 -0.09214307 -0.0046803555
0002f0 ce 3f 8e 3d f6 f7 95 bc fa 1b 54 bd ec 17 fd bd
       0.069457635 -0.018306714 -0.051784493 -0.12358078
000300 cc d9 a0 bc 3c 4d aa 3d ca b9 ae bd c4 32 bf 3d
       -0.019635104 0.083155125 -0.0853153 0.09335855
000310 e2 cd 4b 3b 92 71 a3 3c eb e8 51 bd 8a 98 f3 bc
       0.0031098058 0.019951615 -0.05124752 -0.029735822
000320 89 01 0e be 3a eb d9 bd a1 b8 87 3d 53 49 b7 bc
       -0.13867773 -0.10640569 0.06627012 -0.02237383
000330 01 87 05 be f3 95 dc 3a 76 cd 9f 3c 0a 6e d8 bc
       -0.13039781 0.0016829356 0.019507151 -0.026419658
000340 84 81 90 3d 3e 56 80 3d af 79 e2 3d 50 a0 b8 3d
       0.07055953 0.062664494 0.110583656 0.09014952
000350 a6 22 66 bd 16 5e 69 bd 4f bb 87 3d ac 5a 3b bd
       -0.056185387 -0.056974493 0.06627523 -0.04574077
000360 62 45 b1 bc af c7 72 bd dd 67 94 3c cc 76 9c 3c
       -0.02163953 -0.059272464 0.018115932 0.019099616
000370 85 82 cf 3d e6 7b c5 bd 11 78 0f 3d ac 07 9e 3c
       0.101323165 -0.096427724 0.035026614 0.019290768
000380 2d 5d 0b 3d 5c 3e 87 bd 20 01 94 3d 12 ca b9 bd
       0.034024406 -0.06603691 0.07226777 -0.09071745
000390 5a ba 4c bd b1 2d a0 3c 2e ce 56 3d 7a 73 c9 bd
       -0.049982406 0.019553037 0.052442722 -0.098364785
0003a0 d6 2e b5 bd a4 65 83 3b 79 79 51 bd 4a 02 a7 3d
       -0.08846824 0.0040099192 -0.051141236 0.081547335
0003b0 e1 66 a3 bd cd 20 57 bd dc fb 88 3d d2 de 91 bc
       -0.07978607 -0.052521516 0.06688663 -0.017806444
0003c0 60 ac ae bd 83 46 76 3b a3 51 98 3d f5 34 86 3c
       -0.08528972 0.003757865 0.07437446 0.016382674
0003d0 7f d8 51 bd 47 e1 46 3d be 01 b7 3c 1f 59 58 3c
       -0.051231857 0.048554685 0.022339698 0.013204842
0003e0 c4 35 15 3c a7 39 38 bd 62 79 6f 3d 7f 86 75 3d
       0.009107057 -0.044976857 0.05846537 0.05994272
0003f0 f8 3a 90 bc 6e 6f ba 3d d2 e3 1f 3c 9d 94 c2 3d
       -0.017606243 0.09103285 0.009758906 0.09501002

net.5.bias f4 [8]
000000 fc 4c db bc 54 d5 a9 3d f9 0c 30 b8 e7 3d 3e bd
       -0.026770107 0.08292642 -4.197375e-05 -0.046445753
000010 c4 4b 87 3d f4 b9 35 3d ef 02 9a bd 47 8b a2 3c
       0.06606248 0.04436679 -0.07520091 0.019841803

exp_avg f4 [32, 120, 2]
000000 0c ec 00 39 f9 2b f7 38 81 c7 84 39 22 23 65 39
       0.00012294966 0.00011786068 0.00025325644 0.0002185223
000010 8f c0 ca ba e7 e5 57 3a ac 67 51 3a 1f 34 83 3a
       -0.0015468764 0.0008235857 0.00079881656 0.001001004
000020 fe e3 8f ba 68 95 f8 b9 d0 42 f3 3a e1 08 45 3b
       -0.0010977981 -0.00047413562 0.001855934 0.0030065107
000030 bf 2c 45 3a d7 de 22 3a 2a ce 3a ba da 1f 83 ba
       0.00075216213 0.00062130153 -0.0007126058 -0.0010003999
000040 c3 e2 96 ba 63 4d 18 3a a1 94 38 39 03 41 af 38
       -0.0011511672 0.00058098714 0.00017602976 8.35676e-05
000050 75 e3 33 3a 5a 02 dc ba 9b 0c 91 3a 97 3f f1 3a
       0.0006862202 -0.0016785369 0.0011066379 0.0018405792
000060 46 3a 72 39 42 43 01 b9 1a 7c 42 ba 3d 0d d5 b9
       0.00023100627 -0.00012327454 -0.0007419005 -0.0004063639
000070 ed 37 15 ba 14 c9 0c 3a c0 cc 57 b8 87 70 74 bb
       -0.00056922325 0.0005370539 -5.1450683e-05 -0.0037298517
000080 99 6d 1d 38 1d 64 b6 38 f0 84 87 39 15 70 53 b9
       3.7533788e-05 8.697084e-05 0.00025848253 -0.00020164282
000090 eb cd 23 bb 62 3e 45 3b 33 f7 10 39 6a 90 e5 38
       -0.0024994563 0.0030096998 0.00013824999 0.0001094647
0000a0 e5 01 d3 b9 2c 8a b2 b9 41 cf f3 b7 c4 39 f9 39
       -0.00040246468 -0.00034053752 -2.9064367e-05 0.0004753602
0000b0 7e 1b 29 38 65 74 06 3b e2 ed 27 bb d6 29 97 3a
       4.0318344e-05 0.0020516154 -0.0025623967 0.0011532854
0000c0 ed 40 65 b8 ba cc f2 3a da 36 c8 3a ef e6 75 3a
       -5.465832e-05 0.0018524148 0.0015275136 0.000938042
0000d0 de be e1 b9 e5 59 c2 39 3e 85 f2 38 6f 3e df b7
       -0.0004305755 0.0003706954 0.000115642775 -2.6612744e-05
0000e0 d3 d5 9a b7 bc 46 14 b8 f2 21 ca 39 57 f4 52 b9
       -1.84578e-05 -3.5351826e-05 0.00038553734 -0.00020118184
0000f0 01 85 c0 37 33 4d 3d 39 48 42 50 3a 70 89 bc 37
       2.2950118e-05 0.00018053204 0.0007944447 2.2475346e-05
000100 d2 a0 ad 37 40 9a 58 37 c4 24 7b b9 4b a5 be 39
       2.0698095e-05 1.2910517e-05 -0.00023950922 0.00036362777
000110 b1 08 ce 39 03 e7 99 b9 59 49 10 3a e8 b4 a8 39
       0.00039297857 -0.0002935455 0.0005504094 0.00032178243
000120 ab 84 b7 39 b2 e9 1b 39 3b 70 19 b9 80 99 a5 39
       0.00035003325 0.0001486901 -0.00014633026 0.0003158562
000130 bb fa 9b b9 9a 8d 72 b9 00 00 00 00 00 00 00 00
       -0.00029750713 -0.00023131669 0.0 0.0
000140 b4 cf 4b 38 14 0f bd 3a 9d 06 2c b7 51 70 27 39
       4.859241e-05 0.0014424049 -1.0253539e-05 0.00015968202
000150 77 30 21 3a 68 cc 7b 3a 29 51 17 ba 86 3e c9 b9
       0.00061488844 0.0009605349 -0.00057722867 -0.0003838429
000160 27 b7 4f 3a bc 48 b1 39 57 ca 87 b9 d8 55 be b8
       0.0007923715 0.00033814262 -0.00025899961 -9.075896e-05
000170 d0 8f e7 39 2c bc c9 b9 ef 84 aa b9 84 10 1c 3a
       0.00044166902 -0.00038477906 -0.0003252397 0.0005953389
000180 b3 0b 4c ba df 1f 8d b7 e1 91 5c 38 ab 57 f0 38
       -0.0007783726 -1.6823351e-05 5.2587948e-05 0.00011460421
000190 c0 3a 5d 37 fb 2d 12 3a 11 b8 b0 ba 4f 6d e7 b9
       1.3186305e-05 0.00055763096 -0.001348259 -0.00044141195
0001a0 2a e4 2b ba ee 0d 40 3a 26 66 17 b9 0c e8 5e 3a
       -0.00065571314 0.00073262944 -0.00014438535 0.00085032056
0001b0 51 0c 5e b9 59 68 2d b8 60 34 4d 39 38 73 6f b6
       -0.00021176158 -4.1343596e-05 0.00019569835 -3.5680841e-06
0001c0 a5 98 6a 3a 6a 1c fa 3a 0e 93 1a b9 e1 0c 84 b9
       0.00089491374 0.0019081954 -0.00014741367 -0.00025186597
0001d0 69 dc 3e 39 d2 e6 9f b8 76 8d 0a b9 59 c3 a0 b9
       0.00018201921 -7.6247044e-05 -0.00013213404 -0.00030663123
0001e0 64 2a 9d 39 df 4c 7f 3a 73 15 6e b7 60 dd 4d b8
       0.00029976957 0.0009738933 -1.41908995e-05 -4.908198e-05
0001f0 20 7f 82 b9 0a 5a 74 3a 99 01 3c ba 2f 0a 21 b9
       -0.00024890248 0.0009321278 -0.0007171869 -0.0001535795
000200 4d 28 9b 38 1e 93 80 3a 7b 49 cc b8 33 22 44 38
       7.3984826e-05 0.0009809469 -9.741165e-05 4.6761892e-05
000210 f7 45 03 3b c0 ab bb 39 4b 54 06 3b ee 29 1a 39
       0.0020030716 0.00035795383 0.002049702 0.00014702204
000220 7c 39 05 b8 3d cd 0f 39 d7 de f7 b9 01 17 b4 37
       -3.1763208e-05 0.00013714 -0.0004727754 2.1468384e-05
000230 49 72 1f 39 7f ec 26 3a ad 1d 4a ba bf a8 89 b9
       0.00015205996 0.0006367638 -0.00077101105 -0.00026256402
000240 cb 2f 1e ba 40 f3 d6 b8 53 9e 37 3a c6 2c 24 ba
       -0.00060343434 -0.00010249624 0.0007004488 -0.0006262775
000250 45 30 af 39 8d f3 eb 39 42 ca a3 b8 b1 40 ce b8
       0.00033414565 0.00045004152 -7.810119e-05 -9.834895e-05
000260 bf 1f 67 ba 49 54 0c ba 3e f4 6e ba c6 5e 11 ba
       -0.0008816681 -0.00053531356 -0.00091153744 -0.00055454334
000270 0c 7d 08 3a db 93 c5 3a 8f 6a 9c ba 65 05 6a 3a
       0.0005206622 0.0015073972 -0.0011933612 0.00089271954
000280 2a 87 6c 3a 1b 87 4b 3a 8c 8b 83 b8 25 9f 9d 38
       0.00090228266 0.0007763968 -6.2725594e-05 7.515986e-05
000290 53 be 49 3a b6 ea 2c ba 5b b5 26 3b 52 c8 81 ba
       0.0007695902 -0.0006596254 0.0025437686 -0.0009901619
0002a0 d3 a7 dc 39 a9 38 a0 3a c2 a4 28 3a 71 70 68 38
       0.0004208671 0.0012223917 0.0006433242 5.541783e-05
0002b0 9c 7c c7 ba 3c 53 30 3a 74 87 86 ba 10 d1 09 39
       -0.0015219632 0.000672627 -0.0010263757 0.0001314322
0002c0 d2 2f 41 ba 98 25 a3 38 97 2e fb b9 2e 8f 29 3a
       -0.00073694915 7.779448e-05 -0.00047909163 0.0006468174
0002d0 f0 15 c4 39 7c a8 81 b8 c3 36 8c b9 a0 23 c5 b9
       0.00037400378 -6.182582e-05 -0.00026743682 -0.0003760131
0002e0 4e b7 70 3a c7 7d 59 3a fa d7 fe 38 a6 2e 6c ba
       0.0009182588 0.00082966354 0.000121518926 -0.00090096367
0002f0 08 ff 7f 39 21 3c dc 39 43 a2 ad 39 d0 b1 19 ba
       0.00024413702 0.0004200647 0.00033118026 -0.0005862983
000300 b2 e2 eb b9 19 12 90 ba cd cd 98 38 5e e3 cc b8
       -0.00044991594 -0.0010991722 7.286258e-05 -9.7698285e-05
000310 64 d1 ac 38 cd 13 be b9 a6 e8 8a 3a f2 d7 64 b9
       8.240601e-05 -0.00036254377 0.0010597899 -0.0002182422
000320 63 ce 4e b9 34 45 38 3a 6e a5 64 b9 0c 55 07 b9
       -0.00019722576 0.0007029355 -0.00021805402 -0.00012906286
000330 b2 96 14 b7 d1 c2 39 b9 06 09 62 ba 17 7f 73 b9
       -8.856574e-06 -0.0001771555 -0.00086225604 -0.0002322163
000340 25 eb d6 ba f5 91 5d 3a c8 11 1a b9 8b 0f 41 39
       -0.0016396983 0.000845223 -0.00014693209 0.00018411705
000350 64 2a ac b9 b2 a7 53 ba 22 fc fd 38 37 22 3d b9
       -0.0003283798 -0.0008074 0.000121109435 -0.0001803719
000360 ce 1d 9a ba 96 7e bf ba d2 17 5b 3a 60 80 fd 38
       -0.001175815 -0.0014609869 0.00083577365 0.00012087892
000370 49 e2 db 3a 84 71 d7 b9 af b3 05 bb b1 77 3f 3b
       0.0016775812 -0.0004109257 -0.002040129 0.0029215629
000380 ec 5b a5 39 ec cf 79 ba 3b a8 1a b9 01 ee 8e 39
       0.0003153974 -0.0009529579 -0.00014749255 0.00027261677
000390 d1 71 a6 38 f7 ae 03 b9 ae 74 e8 ba 2d 8f 22 ba
       7.936697e-05 -0.00012558313 -0.0017734969 -0.00062011444
0003a0 50 5a 75 b9 f2 ca 1e 3a c8 0e 41 ba 76 a7 7e ba
       -0.00023398665 0.0006057463 -0.00073645683 -0.00097142847
0003b0 53 6e 89 b9 50 1a bb b8 34 23 a9 39 dd 19 22 ba
       -0.00026212874 -8.921756e-05 0.0003226042 -0.00061836635
0003c0 a8 a2 8b b9 67 e5 89 b9 9a 9a b3 b8 ea 0d 56 b9
       -0.00026633334 -0.00026301594 -8.564182e-05 -0.00020413814
0003d0 37 30 94 ba 3e 31 7d ba c1 99 b6 b7 f1 08 fa ba
       -0.0011305873 -0.0009658522 -2.1767688e-05 -0.0019076151
0003e0 61 9b bf ba f5 57 e2 ba ea ca 96 39 ad 1e c6 3a
       -0.001461845 -0.0017268645 0.00028761412 0.0015115343
0003f0 6b d6 b2 b9 68 6d b5 38 2a 8d 06 bb ca 31 a4 bb
       -0.0003411056 8.651131e-05 -0.0020530918 -0.005010818
