data/Figure3_Supplement/023/checkpoint_0000500.pth (torch, 225786 bytes, 31 tensors)

net.0.weight f4 [32, 120, 2]
-0.066769145 -0.052533437 0.02051767 -0.0008390502 -0.03214622 0.09145367 -0.04843434 -0.034557898
-0.04152025 -0.05076943 -0.06529145 -0.015163728 -0.075517006 -0.015009557 0.017733542 -0.015353013
-0.057955705 0.056889568 0.062007718 0.034049645 -0.03568161 -0.015409111 -0.057966158 -0.02613234
-0.0210705 0.01058284 0.08656888 0.021577707 0.0052726464 -0.05488336 -0.0094036795 -0.0632623
-0.027271226 0.012189298 0.011600667 -0.008542646 0.0143378265 0.036375083 0.048262667 0.04905745
-0.020212362 0.050311595 0.06541014 0.049081072 0.026651427 0.0063209813 0.042381324 -0.024198148
0.08475329 0.028195191 0.0012352689 0.050941143 -0.016814193 -0.0036239545 0.059108216 -0.054607194
0.0009839433 0.032806627 0.01744807 0.008714302 0.053418417 0.060451973 0.06676443 -0.042316955
0.03524014 -0.03679604 -0.029508838 0.05457958 -0.010734884 -0.06754429 -0.012875682 -0.0645103
0.069395 -0.05886703 -0.0006429051 0.009913317 -0.020410305 0.045628406 0.035998367 0.045056127
0.014945437 0.061987057 -0.023377951 0.0007329711 0.032763746 0.055876438 -0.043528195 0.05633519
-0.02727848 -0.034019917 -0.026697146 0.034105007 0.046787187 -0.022202544 0.015277243 0.03367927
0.024029268 0.046500742 -0.0066066966 -0.02112599 0.012137136 -0.045413468 -0.035247628 -0.008709163
0.015241986 -0.06654459 -0.04268334 0.0055705397 -0.03423203 -0.027203614 0.021657497 -0.017962143
-0.011503713 -0.036291957 0.02489469 0.001869584 0.043546513 0.04882324 0.044633426 -0.00041597255
-0.014914693 0.014665053 -0.019432481 -0.03415238 -0.038354978 0.04299099 -0.05266028 -0.044984687
-0.00022642652 0.059002012 0.019410077 -0.05092088 0.0633298 0.02548094 0.004705413 -0.0035961515
0.05023573 0.0049386206 -0.0013046755 -0.030190714 0.0375739 0.042094655 0.036015972 0.006977542
-0.043133587 -0.030833652 -0.038920853 -0.014164086 0.021195153 -0.049788732 0.08401489 -0.06551837
-0.01403819 0.031625718 0.055429902 0.015606715 0.05489543 0.0059682424 0.044985667 0.055005103
0.0004893811 0.00016027447 0.015945567 0.03211041 -0.058830716 0.047272224 -0.05870669 0.025555896
-0.03131971 0.10627916 0.043097313 0.018502837 0.021692272 -0.011026207 -0.06186333 -0.0038385151
-0.039841566 0.013455401 -0.064665854 0.0625722 0.001846321 -0.0689358 -0.057649117 0.041427895
-0.050927237 -0.027939344 0.0037356156 0.038083028 -0.03393691 -0.033248283 -0.06859874 0.05850958
-0.047329567 0.051104426 -0.011661723 0.03834518 -0.028956657 0.029683681 -0.051630117 -0.004477524
0.047569927 0.046365306 0.008778373 0.03253493 0.039366834 0.05251284 -0.07306168 -0.010100295
-0.04283916 -0.03594891 -0.032044753 0.053565368 -0.0033498323 -0.044153187 -0.045201413 -0.027506704
-0.07497447 0.027571669 -0.0046734107 -0.0077183116 0.03073302 0.052414436 -0.07317103 0.0007170734
-0.0085919155 -0.042437844 -0.018239735 0.037028894 0.044467255 -0.043117218 -0.038560934 -0.0428377
0.056452375 0.018696312 0.019132651 0.06300081 -0.039724443 -0.055409703 -0.07509519 0.03970139
-0.059528448 0.037957188 0.038570434 -0.04535369 -0.038522962 0.042675443 0.058234457 0.05674551
0.026915723 -0.014735785 -0.023511762 0.07519832 -0.05839037 0.033966348 -0.01233719 -0.012414683
00000000: 43be 88bd 4d2d 57bd ac14 a83c b5f3 5bba
00000010: c1ab 03bd 104c bb3d 1663 46bd 958c 0dbd
00000020: 2311 2abd 9bf3 4fbd 86b7 85bd 4971 78bc
00000030: a9a8 9abd a5ea 75bc ef45 913c 348b 7bbc
00000040: f662 6dbd 0905 693d cefb 7d3d a477 0b3d
00000050: e126 12bd 7f76 7cbc ec6d 6dbd 7d13 d6bc
00000060: 0b9c acbc a663 2d3c 064b b13d bbc3 b03c
00000070: 2ac6 ac3b 60cd 60bd e411 1abc aa8f 81bd
00000080: e867 dfbc 9fb5 473c b910 3e3c 74f6 0bbc
00000090: 34e9 6a3c 0afe 143d 13af 453d 77f0 483d
000000a0: 6594 a5bc 8813 4e3d c0f5 853d 3c09 493d
000000b0: 1854 da3c 3c20 cf3b 0a98 2d3d 323b c6bc
000000c0: 2293 ad3d 9af9 e63c bfe8 a13a a9a7 503d
000000d0: ebbd 89bc de7f 6dbb 751b 723d cbab 5fbd
000000e0: a9f7 803a 3e60 063d 41ef 8e3c 6fc6 0e3c
000000f0: 45cd 5a3d 7d9c 773d cabb 883d 8b54 2dbd
00000100: f757 103d 72b7 16bd 85bc f1bc d68e 5f3d
00000110: 5ee1 2fbc a954 8abd 86f4 52bc fa1d 84bd
00000120: f71e 8e3d 8e1e 71bd a288 28ba 776b 223c
00000130: 8333 a7bc dae4 3a3d 0673 133d c68c 383d
00000140: b5dd 743c 24e6 7d3d 1e83 bfbc dc24 403a
00000150: 4733 063d b1de 643d 9f4a 32bd babf 663d
00000160: 1e77 dfbc 7858 0bbd f9b3 dabc b1b1 0b3d
00000170: eca3 3f3d 1ce2 b5bc 674d 7a3c 46f3 093d
00000180: 07d9 c43c 9077 3e3d fd7c d8bb 6a10 adbc
00000190: d7da 463c 7903 3abd d15f 10bd e1b0 0ebc
000001a0: 86b9 793c 8848 88bd bad4 2ebd 1389 b63b
000001b0: e336 0cbd 1dda debc 106b b13c 5825 93bc
000001c0: 127a 3cbc e0a6 14bd f3ef cb3c d40c f53a
000001d0: d45d 323d e1fa 473d 8ad1 363d e416 dab9
000001e0: c25c 74bc b145 703c de30 9fbc 5ee3 0bbd
000001f0: 1c1a 1dbd 5217 303d 4eb2 57bd dd41 38bd
00000200: e86c 6db9 18ac 713d e201 9f3c 6a92 50bd
00000210: 0eb3 813d 67bd d03c dd2f 9a3b 69ad 6bbb
00000220: fbc3 4d3d 27d4 a13b a501 abba 8452 f7bc
00000230: 17e7 193d 726b 2c3d 7c85 133d dda3 e43b
00000240: d8ac 30bd db96 fcbc 796b 1fbd 7c10 68bc
00000250: 75a1 ad3c 45ef 4bbd 0010 ac3d 7f2e 86bd
00000260: 7000 66bc f889 013d 770a 633d 4fb3 7f3c
00000270: 08da 603d 3f91 c33b e442 383d 084d 613d
00000280: cf49 003a 5a0f 2839 47a0 823c 3586 033d
00000290: 7af8 70bd 85a0 413d 6d76 70bd 995a d13c
000002a0: 1949 00bd e3a8 d93d cf86 303d 4393 973c
000002b0: feb3 b13c 44a7 34bc 6764 7dbd 998f 7bbb
000002c0: e930 23bd 0b74 5c3c 886f 84bd db25 803d
000002d0: 4100 f23a 362e 8dbd 7b21 6cbd 4cb0 293d
000002e0: 1499 50bd 0de1 e4bc 3bd1 743b f3fc 1b3d
000002f0: 6e01 0bbd 5a2f 08bd 7f7d 8cbd bea7 6f3d
00000300: a6dc 41bd e052 513d d010 3fbc d60f 1d3d
00000310: 8336 edbc 312b f33c 1a7a 53bd 32b8 92bb
00000320: afd8 423d 8ce9 3d3d 2ad3 0f3c 5943 053d
00000330: 1e3f 213d b417 573d 5da1 95bd b57b 25bc
00000340: 1d78 2fbd 2a3f 13bd 5c41 03bd 5c67 5b3d
00000350: dc88 5bbb f9d9 34bd 1e25 39bd bd55 e1bc
00000360: 378c 99bd fbdd e13c 6923 99bb e4e9 fcbb
00000370: d0c3 fb3c 85b0 563d b1da 95bd fbf9 3b3a
00000380: 1bc5 0cbc 4ed3 2dbd 7f6b 95bc 9cab 173d
00000390: 4c23 363d ae9b 30bd 12f2 1dbd 9676 2fbd
000003a0: 9b3a 673d 0229 993c 14bc 9c3c 9206 813d
000003b0: 19b6 22bd 49f5 62bd 82cb 99bd ed9d 223d
000003c0: 1ad4 73bd ff78 1b3d 08fc 1d3d cac4 39bd
000003d0: 41ca 1dbd 72cc 2e3d 4187 6e3d fb6d 683d
000003e0: 5d7e dc3c 5d6e 71bc bd9b c0bc 9401 9a3d
000003f0: be2a 6fbd 4c20 0b3d ed21 4abc f466 4bbc

net.0.bias f4 [32]
0.0005488078 0.014921686 0.058703978 -0.053380348 -0.03078352 -0.06769407 -0.0036142424 0.03276655
0.049666513 -0.00094359915 -0.010952741 -0.030466495 0.042229112 0.03756998 0.008175768 -0.042175815
0.0060997047 -0.012114913 0.022668054 0.018939247 0.030790603 -0.017102405 -0.0029388617 -0.037385568
-0.028091282 -0.011362371 0.024527248 -0.041868176 -0.042401683 -0.06321867 0.0336025 -0.012758175
00000000: dedd 0f3a 167a 743c 9573 703d 5aa5 5abd
00000010: b82d fcbc 30a3 8abd eddc 6cbb 3836 063d
00000020: 1d6f 4b3d de5b 77ba 2073 33bc df94 f9bc
00000030: 6ff8 2c3d fbe2 193d a8f3 053c 8cc0 2cbd
00000040: 08e0 c73b a17d 46bc 5bb2 b93c 7b26 9b3c
00000050: 933c fc3c 581a 8cbc eb99 40bb 9c21 19bd
00000060: b01f e6bc 3d29 3abc 5eed c83c f77d 2bbd
00000070: 63ad 2dbd ca78 81bd c6a2 093d aa07 51bc

net.2.module.0.weight f4 [32, 32, 3]
0.028483545 -0.048223123 -0.082332626 -0.07603376 0.053730246 0.10391181 0.029325027 -0.05955446
0.04687658 -0.023921577 0.045416128 0.074113496 -0.11306557 0.024192056 0.053439252 -0.009536851
-0.07759672 -0.08242906 -0.09922993 0.017187297 0.0076642316 -0.037997253 0.059091248 0.04768304
-0.08710135 0.012933925 0.07845936 0.035161994 0.0782675 -0.08518427 0.045653094 0.011785955
0.035411414 -0.04636037 0.04144089 0.07531412 0.02092466 -0.09019362 -0.085725605 -0.061056167
-0.025029171 -0.07467127 -0.002897556 -0.06996191 0.095763035 -0.002536394 0.0285086 0.027223166
-0.005428625 -0.100413665 0.034065835 0.05741959 -0.042605665 -0.037373714 0.034498807 -0.02141578
0.058431193 -0.0720539 -0.08693443 0.07594506 -0.04149791 -0.009734447 0.036068387 -0.0045340857
-0.07467908 -0.08879201 -0.051412527 -0.10630204 -0.04256003 0.004684717 -0.055036016 -0.017293453
-0.083217554 0.09049042 -0.03591362 -0.011207241 0.035214275 0.055496316 0.045082226 -0.013667198
-0.040309783 0.024532879 -0.0031932823 -0.026902728 0.051504776 -0.06125113 0.0038402919 -0.024396643
0.021656834 -0.092559256 -0.034499094 0.078855276 -0.046229783 -0.0054133753 0.076652214 -0.01353673
0.05080457 0.042353358 0.04142025 0.0575404 0.08957008 -0.023917016 -0.0912324 0.07186497
-0.04991047 -0.0031792885 0.059358254 0.01572612 -0.010738607 -0.054948952 -0.03548344 -0.039862625
0.028703166 0.033271793 0.073503844 0.076500215 0.05305002 0.061413053 0.07106124 -0.0059787887
-0.07937478 0.05182481 0.041113883 0.026767474 0.07866523 -0.041815236 -0.019648667 0.018966248
0.0039823814 0.02914158 -0.05399715 -0.053121332 -0.07212423 -0.08877865 0.010580218 -0.028430164
-0.027327292 0.05362205 0.043673433 0.112443775 -0.012156831 0.061458793 0.07431962 0.027848084
-0.014342181 -0.045232393 -0.077320606 -0.017811425 0.068067275 0.022065727 -0.03150094 -0.0003116021
-0.0476125 0.031478185 -0.020917842 0.10441888 -0.016112534 -0.07276566 0.011120874 0.016723674
-0.023338119 -0.075392604 -0.06521629 0.10302387 -0.06898954 0.06837395 -0.050720956 0.04136544
-0.06918309 -0.07409025 0.053873662 -0.031231893 -0.07734898 -0.103091314 -0.03289514 0.008407014
0.03731312 0.109038234 0.011125333 0.061096273 0.03564202 -0.0433712 -0.08649551 -0.07550194
-0.009718064 0.016063122 0.08630478 -0.058533795 0.11774783 0.025636952 -0.100153245 -0.057834018
-0.015321811 0.08000646 0.08814293 0.14585903 -0.021812428 -0.021818342 0.058398627 -0.018467229
-0.089197874 0.06459369 0.08177632 0.034640055 0.07556423 -0.022794979 0.09381435 0.009761706
-0.01921879 0.039370645 0.12389123 0.100128934 0.0025005892 -0.03672342 0.06944398 0.05471956
-0.04422131 0.06563217 0.03485616 -0.00043298907 -0.03433725 -0.11151355 0.039251227 -0.010650809
-0.017501147 0.03020852 0.053220186 0.05978535 -0.058503553 0.04083935 0.05960687 0.030391904
0.038248345 0.044765156 -0.007307058 0.017680624 0.11260301 -0.09409503 -0.10171426 -0.02969092
-0.040953588 0.035007678 0.06783706 -0.0023684825 0.031950455 0.07110347 0.034408048 -0.07457074
-0.07903486 0.1478185 -0.006210412 0.096158855 -0.06697231 0.02366441 -0.07086747 -0.062913105
00000000: 5356 e93c 9c85 45bd 029e a8bd 97b7 9bbd
00000010: 3f14 5c3d b7cf d43d 0a3b f03c 61ef 73bd
00000020: a801 403d 2ff7 c3bc 4306 3a3d d1c8 973d
00000030: ec8e e7bd 6b2e c63c 1ee3 5a3d 7440 1cbc
00000040: 07eb 9ebd 91d0 a8bd 1039 cbbd 60cc 8c3c
00000050: 3c24 fb3b 02a3 1bbd aa09 723d 4b4f 433d
00000060: 3162 b2bd d0e8 533c 4daf a03d 0606 103d
00000070: b64a a03d 1775 aebd bdfe 3a3d e119 413c
00000080: 8f0b 113d 5fe4 3dbd ecbd 293d 4a3e 9a3d
00000090: 316a ab3c 6fb7 b8bd e890 afbd 0816 7abd
000000a0: fa09 cdbc 40ed 98bd ece4 3dbb 3148 8fbd
000000b0: 691f c43d a139 26bb de8a e93c 1e03 df3c
000000c0: 9be2 b1bb aea5 cdbd 9e88 0b3d ce30 6b3d
000000d0: 4783 2ebd 2e15 19bd 9f4e 0d3d 2570 afbc
000000e0: 8c55 6f3d ff90 93bd ae0a b2bd 1589 9b3d
000000f0: b6f9 29bd 3b7d 1fbc 72bc 133d ab92 94bb
00000100: 58f1 98bd 96d8 b5bd f195 52bd e2b4 d9bd
00000110: 6d53 2ebd 4182 993b 726d 61bd 00ab 8dbc
00000120: f76d aabd 0b53 b93d 291a 13bd 939e 37bc
00000130: d83c 103d 1b50 633d 24a8 383d 62ec 5fbc
00000140: df1b 25bd 2df9 c83c 6346 51bb 1c63 dcbc
00000150: acf6 523d 77e2 7abd 68ad 7b3b 78db c7bc
00000160: ac69 b13c b58f bdbd ec4e 0dbd e07e a13d
00000170: 715b 3dbd af62 b1bb d6fb 9c3d 29c9 5dbc
00000180: 7418 503d b77a 2d3d 48a8 293d 7caf 6b3d
00000190: 8570 b73d 9eed c3bc 0dd8 babd f12d 933d
000001a0: ec6e 4cbd 9c5b 50bb a421 733d 10d4 803c
000001b0: fbf0 2fbc 2712 61bd 1557 11bd fe46 23bd
000001c0: e722 eb3c 0148 083d 2f89 963d 25ac 9c3d
000001d0: fa4a 593d 418c 7b3d 8e88 913d b7e9 c3bb
000001e0: 3f8f a2bd 4146 543d 0867 283d 7647 db3c
000001f0: 3c1b a13d 7446 2bbd 3ef6 a0bc 1b5f 9b3c
00000200: a37e 823b 53ba ee3c 1e2c 5dbd c195 59bd
00000210: deb5 93bd 95d1 b5bd a758 2d3c 60e6 e8bc
00000220: 7cdd dfbc cba2 5b3d eae2 323d ec48 e63d
00000230: 722d 47bc 37bc 7b3d e334 983d aa21 e43c
00000240: 78fb 6abc 9a45 39bd 445a 9ebd 44e9 91bc
00000250: db66 8b3d 2fc3 b43c 2107 01bd 875e a3b9
00000260: 5305 43bd 45ef 003d e55b abbc 91d9 d53d
00000270: 6ffe 83bc 2a06 95bd 5434 363c 1600 893c
00000280: 952f bfbc 7067 9abd 1e90 85bd 2efe d23d
00000290: 634a 8dbd a407 8c3d c7c0 4fbd cf6e 293d
000002a0: ddaf 8dbd a1bc 97bd a1aa 5c3d 07da ffbc
000002b0: 2469 9ebd 8a21 d3bd 0ebd 06bd 93bd 093c
000002c0: a4d5 183d 704f df3d 0747 363c 1640 7a3d
000002d0: 5efd 113d 00a6 31bd 8f24 b1bd c3a0 9abd
000002e0: 8438 1fbc cf96 833c 8fc0 b03d 22c1 6fbd
000002f0: c625 f13d 9604 d23c 251d cdbd 5de3 6cbd
00000300: 5508 7bbc 6dda a33d 4884 b43d 125c 153e
00000310: faaf b2bc 61bc b2bc 6633 6f3d 9648 97bc
00000320: 60ad b6bd b249 843d 587a a73d bbe2 0d3d
00000330: 6bc1 9a3d 89bc babc bd21 c03d 90ef 1f3c
00000340: b970 9dbc 1d43 213d afba fd3d 6610 cd3d
00000350: ede0 233b 4c6b 16bd a538 8e3d 9e21 603d
00000360: 6821 35bd 296a 863d 55c5 0e3d cf02 e3b9
00000370: 37a5 0cbd 3761 e4bd e5c5 203d bb80 2ebc
00000380: 915e 8fbc dc77 f73c 69fd 593d 7ce1 743d
00000390: 6ca1 6fbd 2a47 273d 5526 743d 71f8 f83c
000003a0: 4caa 1c3d ab5b 373d 0c70 efbb f5d6 903c
000003b0: 689c e63d e5b4 c0bd 914f d0bd 5f3a f3bc
000003c0: f3be 27bd 3664 0f3d 28ee 8a3d 8b38 1bbb
000003d0: 7bde 023d b29e 913d 74ef 0c3d 8bb8 98bd
000003e0: 07dd a1bd bc5d 173e b680 cbbb efee c43d
000003f0: c728 89bd dddb c13c f722 91bd 96d8 80bd

net.2.module.0.bias f4 [32]
-0.075240776 -0.04766091 -0.0417325 0.018837925 -0.060147658 0.03201041 -0.028295562 0.0534194
0.034466546 -0.020885963 0.058809742 0.07587946 0.006841172 -0.08807582 -0.04015065 0.07978172
0.04015802 0.05933947 -0.013855782 -0.078528635 -0.05269099 0.07325704 0.09358858 0.026464762
-0.056249093 -0.044413928 -0.04415219 0.05260955 -0.08555936 0.045464754 -0.028652264 -0.064288475
00000000: d617 9abd 1638 43bd b3ef 2abd fe51 9a3c
00000010: 645d 76bd 591d 033d 18cc e7bc 4dce 5a3d
00000020: cb2c 0d3d 0a19 abbc 7ce2 703d b166 9b3d
00000030: e92b e03b 1861 b4bd 0275 24bd 9964 a33d
00000040: bc7c 243d f20d 733d 5d03 63bc 9fd3 a0bd
00000050: 82d2 57bd c907 963d 5fab bf3d a1cc d83c
00000060: 7365 66bd 61eb 35bd edd8 34bd 1d7d 573d
00000070: bf39 afbd 4039 3a3d 27b8 eabc ada9 83bd

net.3.module.0.weight f4 [32, 32, 3]
0.052234285 0.10023664 -0.052264813 0.09142444 -0.031370603 -0.0063974815 -0.045060616 -0.07505141
0.014528901 0.021809636 0.0025700033 -0.03432281 0.001650646 -0.05512411 0.06397766 0.04925723
-0.1086314 0.014988538 0.014045126 -0.0017948924 0.03928452 -0.020797618 0.070484534 -0.027507538
-0.026475074 0.0869721 -0.08714168 0.06675058 -0.021575885 -0.060562227 0.028395532 0.0068426603
-0.058322158 -0.09933832 -0.05980997 0.041061074 -0.054681614 0.08812795 0.05594534 -0.025281264
0.06388824 -0.027310697 0.08134178 -0.070690684 0.08369047 -0.038340203 0.098265946 -0.04570136
-0.084281616 0.07595432 -0.05871486 -0.0034109938 -0.0688043 0.13272892 0.090714656 -0.087419845
-0.071361415 -0.057924625 0.09251118 0.045003735 -0.050484266 -0.06888376 0.08631443 0.0583078
0.029838936 -0.002227774 0.047150295 -0.024357012 0.09605751 -0.0056933146 -0.039240956 -0.034820292
-0.08539212 0.11423256 0.01328174 0.00887534 0.08666904 -0.033261053 0.070722066 0.056009054
-0.022597453 0.04701721 -0.022616254 0.054854836 -0.07277924 -0.006885284 -0.0971085 -0.08332393
0.033815205 -0.066296756 -0.000839529 0.010998691 -0.0010350519 -0.04591725 0.018414142 -0.11367341
0.046947148 -0.10364116 -0.008917569 -0.054872915 0.0749944 -0.053709153 -0.05167517 -0.10179581
0.010825908 0.065177724 0.050793957 0.039360378 0.10826031 0.025880951 -0.062318113 0.03784423
-0.047172137 0.034368157 0.10083243 -0.044028934 0.08897668 -0.103514016 -0.057956852 -0.062397208
-0.102629304 0.068024 -0.089494064 -0.11826496 0.047144093 0.09956073 -0.022243744 -0.0076375883
-0.071048774 -0.04431813 0.05037057 -0.016117482 -0.044266395 0.013327941 -0.041853532 0.06216691
0.057219546 -0.10165633 0.031819716 -0.02623165 -0.095397346 0.07026847 0.06826357 0.11906304
0.02080245 -0.006946314 -0.044211973 0.08074266 0.109798625 0.10394186 -0.0984418 -0.07071379
-0.091678225 0.13403495 -0.053963684 -0.04113761 -0.030992344 0.0786885 0.077578105 0.006868375
0.039738823 0.054607846 0.09343188 0.10170888 0.087997705 -0.12145336 0.052719556 -0.06793288
-0.009696799 0.048378333 0.0902313 -0.08497015 -0.05080744 0.068452515 -0.024181427 0.0032582926
-0.043187678 -0.01029272 -0.039062954 0.05879985 -0.038888916 -0.061530117 -0.0063205576 0.051683683
0.03872584 0.047800723 0.05175345 0.11172525 0.10679383 0.0048184018 -0.08180627 0.011997597
0.0029834372 -0.096879296 -0.09577816 0.074967 0.0140981255 -0.043941237 0.04262354 -0.10314863
-0.09728219 0.09269405 0.027548032 -0.031991214 0.063515745 -0.03570548 -0.030603886 -0.038581613
-0.05136451 0.018453293 0.10388258 0.085665226 0.08131084 -0.12766972 0.06419338 -0.036774628
-0.057587143 -0.08414771 0.017103558 -0.057395328 0.08847853 0.012701907 0.056926712 0.10435523
-0.03459775 0.038509395 -0.010124442 -0.05950815 0.08010116 -0.05726854 0.05136126 -0.054223888
-0.100886114 0.064975135 0.045206334 0.023829157 0.060485125 0.114915796 -0.10765294 0.078623556
-0.043001857 0.032142963 -0.07255929 0.01687905 -0.002084179 -0.028375532 -0.010300941 0.022398481
-0.098856404 -0.026228057 -0.07029211 0.0046212603 -0.06082053 0.0019496827 -0.07414051 0.005329724
00000000: 9ef3 553d de48 cd3d a113 56bd bd3c bb3d
00000010: 767e 00bd f7a1 d1bb 7b91 38bd 8eb4 99bd
00000020: a10a 6e3c 1faa b23c 806d 283b 1396 0cbd
00000030: 7d5a d83a d2c9 61bd b806 833d f3c1 493d
00000040: 247a debd 7c92 753c 871d 663c 9842 ebba
00000050: cee8 203d c45f aabc 325a 903d 7d57 e1bc
00000060: 41e2 d8bc 6e1e b23d 5677 b2bd 87b4 883d
00000070: e9bf b0bc 1910 78bd bf9d e83c 6538 e03b
00000080: 37e3 6ebd e471 cbbd 4dfb 74bd a82f 283d
00000090: d4f9 5fbd 6d7c b43d f126 653d a71a cfbc
000000a0: d6d7 823d afba dfbc 8596 a63d 47c6 90bd
000000b0: e965 ab3d 9e0a 1dbd a83f c93d 5931 3bbd
000000c0: d79b acbd f08d 9b3d fe7e 70bd fb8a 5fbb
000000d0: 45e9 8cbd 17ea 073e 9bc8 b93d 2d09 b3bd
000000e0: ef25 92bd 5f42 6dbd 8076 bd3d d655 383d
000000f0: 97c8 4ebd ee12 8dbd 9fc5 b03d 29d4 6e3d
00000100: c970 f43c d8ff 11bb ab20 413d 5b88 c7bc
00000110: cdb9 c43d fc8e babb 20bb 20bd b99f 0ebd
00000120: 10e2 aebd c3f2 e93d a89b 593c e069 113c
00000130: 8a7f b13d be3c 08bd bbd6 903d c069 653d
00000140: 4b1e b9bc 1e95 403d b945 b9bc 77af 603d
00000150: 480d 95bd f39d e1bb d2e0 c6bd bda5 aabd
00000160: d081 0a3d 98c6 87bd d613 5cba db33 343c
00000170: 94aa 87ba ba13 3cbd 41d9 963c 9bcd e8bd
00000180: a74b 403d d141 d4bd ff1a 12bc 6cc2 60bd
00000190: aa96 993d 21fe 5bbd 58a9 53bd 527a d0bd
000001a0: 265f 313c e67b 853d 530d 503d 5938 213d
000001b0: 95b7 dd3d 4a04 d43c 4741 7fbd 8d02 1b3d
000001c0: 9237 41bd a0c5 0c3d 3c81 ce3d af57 34bd
000001d0: 6839 b63d 28ff d3bd 2a64 6dbd 3794 7fbd
000001e0: 502f d2bd 2b50 8b3d aa48 b7bd e634 f2bd
000001f0: 2a1a 413d 7fe6 cb3d 8338 b6bc bc44 fabb
00000200: 0582 91bd ed86 35bd 5f51 4e3d cf08 84bc
00000210: ae50 35bd 705d 5a3c 9c6e 2bbd bba2 7e3d
00000220: 0b5f 6a3d 3231 d0bd 6455 023d c2e3 d6bc
00000230: af5f c3bd eae8 8f3d c5cd 8b3d 53d7 f33d
00000240: e669 aa3c e89d e3bb 9d17 35bd 685c a53d
00000250: 1ade e03d 78df d43d db9b c9bd 64d2 90bd
00000260: cbc1 bbbd 7540 093e 0609 5dbd e97f 28bd
00000270: a8e3 fdbc 7027 a13d 45e1 9e3d 1b10 e13b
00000280: 2dc5 223d 7aac 5f3d 3759 bf3d bf4c d03d
00000290: 2438 b43d 8abc f8bd 76f0 573d 6520 8bbd
000002a0: 53df 1ebc 5c28 463d 30cb b83d d404 aebd
000002b0: 761b 50bd d530 8c3d 2118 c6bc 1489 553b
000002c0: 90e5 30bd cca2 28bc 7a00 20bd 1dd8 703d
000002d0: fc49 1fbd 0107 7cbd ae1c cfbb 45b2 533d
000002e0: fd9e 1e3d b1ca 433d 6dfb 533d 35d0 e43d
000002f0: b9b6 da3d afe3 9d3b 0c8a a7bd 9291 443c
00000300: c585 433b a768 c6bd 5727 c4bd 4c88 993d
00000310: d3fb 663c bafb 33bd 0596 2e3d 973f d3bd
00000320: e33b c7bd 61d6 bd3d 69ac e13c 3809 03bd
00000330: 8b14 823d e93f 12bd 00b5 fabc c107 1ebd
00000340: 9863 52bd 5c2b 973c 64c0 d43d 4071 af3d
00000350: 4c86 a63d dabb 02be d277 833d fea0 16bd
00000360: 7fe0 6bbd a255 acbd c31c 8c3c 5d17 6bbd
00000370: 3b34 b53d a91b 503c fc2b 693d 32b8 d53d
00000380: 5fb6 0dbd 07bc 1d3d fde0 25bc d1be 73bd
00000390: 140c a43d 6b92 6abd 2f60 523d de19 5ebd
000003a0: 619d cebd af11 853d 472a 393d 5d35 c33c
000003b0: 40bf 773d f958 eb3d 2579 dcbd 6305 a13d
000003c0: b722 30bd 57a8 033d f799 94bd ef45 8a3c
000003d0: b996 08bb ce73 e8bc 47c5 28bc 057d b73c
000003e0: 3a75 cabd 39dc d6bc 4ff5 8fbd f16d 973b
000003f0: f31e 79bd 7f8c ff3a fbd6 97bd f7a4 ae3b

net.3.module.0.bias f4 [32]
-0.049086533 -0.010502693 0.01031925 -0.09735732 -0.010230192 -0.058250714 -0.04968941 0.02307013
-0.069950506 0.07016936 0.0696227 -0.046337806 0.02374188 0.046638656 -0.080398254 0.016907606
0.08909437 -0.083974585 0.09340588 -0.042004574 0.035939194 0.07355929 -0.0026219129 -0.015496294
-0.0036458867 -0.048248228 -0.05779766 0.103290856 0.06763255 -0.034430075 0.082325585 -0.09871676
00000000: f60e 49bd 7d13 2cbc 1212 293c 4663 c7bd
00000010: 899c 27bc 4d98 6ebd 1f87 4bbd 92fd bc3c
00000020: 3642 8fbd f4b4 8f3d 5996 8e3d b6cc 3dbd
00000030: 557e c23c 2d08 3f3d d7a7 a4bd d281 8a3c
00000040: 1c77 b63d defa abbd 954b bf3d fd0c 2cbd
00000050: fa34 133d 41a6 963d 66d4 2bbb 2be4 7dbc
00000060: d4ef 6ebb ef9f 45bd 3dbd 6cbd 288a d33d
00000070: ef82 8a3d 8d06 0dbd 519a a83d 032c cabd

net.4.module.0.weight f4 [32, 32, 3]
-0.094568044 0.07206682 0.092760205 -0.061806533 0.017536657 0.03897997 0.05196492 -0.030153563
0.093480475 -0.08825497 0.008334388 -0.025979789 0.027513413 -0.059983887 0.06745176 0.061441515
-0.0024910923 -0.060216825 0.014249895 0.019877518 0.093095526 -0.10192363 -0.025956817 -0.037772126
0.06472343 0.09082822 0.0014429239 0.026389223 -0.0017558691 0.115929775 -0.03223528 0.00018181358
-0.03764429 0.08880101 -0.012163942 -0.0102179255 -0.050306916 -0.09659133 0.038961537 -0.08759336
0.07963792 0.06679559 0.079888985 -0.09794677 0.09380525 -0.06728199 0.01616719 0.07155719
0.094978824 0.015465169 -0.10825982 0.013009978 0.10767176 0.09526652 0.0772245 0.05464122
-0.0655283 -0.096431345 -0.007503153 -0.025335256 0.045986447 0.0118803345 -0.064889096 0.031892862
-0.0422444 -0.0077235214 0.104831934 -0.009131906 0.08461495 -0.048493784 -0.068669654 -0.09134378
0.026299467 -0.07078539 0.045382436 -0.08346117 -0.08182252 0.040991534 0.07573913 -0.048407145
0.030037608 0.0008152436 0.07200812 -0.03341008 0.057554998 -0.03907686 -0.02534185 0.05828924
0.090262 0.086398326 -0.031918 0.07063894 0.04486788 -0.020090653 -0.033290487 -0.029262977
-0.0596796 -0.04368277 0.043831848 0.06642312 0.016721876 0.026832025 -0.07659629 -0.048982073
-0.05573729 -0.06263401 0.067648895 0.0058581647 0.027433151 0.023462912 -0.03653216 -0.074592344
0.057913475 0.02800085 0.02477744 -0.05212228 -0.06723019 -0.069260515 -0.09756972 -0.0141602475
-0.09700719 0.04046167 -0.10638888 0.063643895 -0.031941604 0.06623081 0.0037612265 0.028549356
0.007384402 0.0910491 0.08069304 0.09781856 -0.03513668 0.08765278 0.07426653 0.04880886
0.008598582 -0.07092251 -0.109197214 -0.060610086 0.035222072 -0.11718183 0.077827044 0.06626764
0.047368165 -0.011937218 0.105542764 0.05878213 -0.056228485 0.11071564 0.028845804 -0.105122715
0.044011887 0.093599305 0.064169906 0.0684407 0.09918846 0.04760414 -0.024830062 0.07134759
-0.0062951874 0.018870827 0.030347921 0.062688634 0.021874096 -0.014058735 -0.069878615 -0.01019925
0.020444306 -0.0032665418 0.08389527 0.08263316 0.054216765 0.06990676 -0.09305489 -0.090610236
0.020260762 0.018875197 0.070511274 0.059180204 -0.075034216 -0.05308012 -0.06851351 -0.1260193
-0.052095614 -0.054302216 0.1006705 -0.028200807 -0.029369436 0.06197267 0.0029961604 0.06815588
0.0650556 -0.008354 -0.060541004 0.0934553 0.051707838 0.050920367 0.043215144 -0.09477474
-0.012448528 -0.11986154 -0.048417732 0.090379015 -0.06765867 0.0006757633 -0.06732865 -0.11449981
0.09807601 0.06986761 -0.04320854 -0.07499049 0.086504854 0.054950356 -0.03622305 -0.08628156
-0.022214366 0.07781575 0.05840682 0.031104255 -0.08680848 0.08381051 0.008456201 -0.043620527
0.026931114 0.04471894 -0.03095389 -0.08155577 -0.07200775 0.095592104 -0.018763896 -0.02157344
-0.005828119 -0.0023509634 -0.11344502 -0.019359875 0.059121896 0.10016469 -0.09999608 0.005952805
-0.094730034 0.005421465 0.025793154 -0.010536234 -0.090575285 0.09318597 -0.01601934 0.058740724
0.07365247 -0.075788595 0.02053375 -0.08728848 -0.027004626 -0.047463387 0.07032857 0.024615465
00000000: e4ac c1bd c597 933d 10f9 bd3d d928 7dbd
00000010: 09a9 8f3c 76a9 1f3d 2bd9 543d 9b04 f7bc
00000020: b172 bf3d 06bf b4bd f58c 083c 91d3 d4bc
00000030: cf63 e13c aab1 75bd 2624 8a3d 19aa 7b3d
00000040: 9841 23bb eba5 76bd 6478 693c 2dd6 a23c
00000050: dea8 be3d 56bd d0bd 64a3 d4bc f2b6 1abd
00000060: b88d 843d 2504 ba3d 7e20 bd3a 362e d83c
00000070: 3125 e6ba 976c ed3d 2409 04bd 36a5 3e39
00000080: e630 1abd 4edd b53d 454b 47bc 1669 27bc
00000090: a00e 4ebd add1 c5bd 2296 1f3d 2664 b3bd
000000a0: 3519 a33d 20cc 883d d69c a33d 5198 c8bd
000000b0: f81c c03d 24cb 89bd 0e71 843c 938c 923d
000000c0: 4284 c23d 9f61 7d3c 53b7 ddbd ce27 553c
000000d0: 0383 dc3d 181b c33d e127 9e3d 79cf 5f3d
000000e0: b433 86bd cc7d c5bd 02dd f5bb e28b cfbc
000000f0: 495c 3c3d bca5 423c 93e4 84bd 17a2 023d
00000100: 7708 2dbd 9815 fdbb 20b2 d63d fd9d 15bc
00000110: 9a4a ad3d 6ba1 46bd ada2 8cbd 7312 bbbd
00000120: fb71 d73c eef7 90bd efe2 393d b1ed aabd
00000130: 9192 a7bd bde6 273d 1e1d 9b3d 9246 46bd
00000140: 6e11 f63c 12b6 553a fe78 933d 02d9 08bd
00000150: cabe 6b3d 0f0f 20bd b699 cfbc b3c0 6e3d
00000160: 49db b83d 9bf1 b03d 73bc 02bd 26ab 903d
00000170: 62c7 373d 2795 a4bc 9b5b 08bd e9b8 efbc
00000180: 9972 74bd b4ec 32bd 0689 333d d808 883d
00000190: 51fc 883c d6ce db3c 84de 9cbd 6da1 48bd
000001a0: c94c 64bd 4346 80bd 818b 8a3d d9f5 bf3b
000001b0: 7dbb e03c 4b35 c03c bfa2 15bd dfc3 98bd
000001c0: ae36 6d3d 0a62 e53c 0ffa ca3c 2c7e 55bd
000001d0: fbaf 89bd 75d8 8dbd a2d2 c7bd 6200 68bc
000001e0: b5ab c6bd 23bb 253d 6ae2 d9bd bb57 823d
000001f0: 33d5 02bd 05a4 873d e97e 763b 57e0 e93c
00000200: dbf8 f13b f377 ba3d 6442 a53d 1955 c83d
00000210: 7beb 0fbd 4d83 b33d 0d19 983d cdeb 473d
00000220: 11e1 0c3c d23f 91bd caa2 dfbd 4842 78bd
00000230: 0545 103d 07fd efbd c963 9f3d 54b7 873d
00000240: 1f05 423d 5294 43bc ce26 d83d 88c5 703d
00000250: d74f 66bd e2be e23d 094e ec3c 944a d7bd
00000260: cf45 343d feb0 bf3d 836b 833d a32a 8c3d
00000270: 5223 cb3d 8ffc 423d 6a68 cbbc af1e 923d
00000280: dc47 cebb fe96 9a3c 349c f83c e662 803d
00000290: 4e31 b33c 9c56 66bc 851c 8fbd c11a 27bc
000002a0: d17a a73c 7a13 56bb 49d1 ab3d 933b a93d
000002b0: 6612 5e3d 462b 8f3d 9093 bebd dc91 b9bd
000002c0: e6f9 a53c 28a0 9a3c 3768 903d f166 723d
000002d0: 8aab 99bd 8a6a 59bd d050 8cbd 340b 01be
000002e0: 3662 55bd 006c 5ebd 562c ce3d 6105 e7bc
000002f0: 2c98 f0bc 0ed7 7d3d 3b5b 443b 4f95 8b3d
00000300: df3b 853d 37df 08bc d8f9 77bd 7e65 bf3d
00000310: 99cb 533d e091 503d 5d02 313d 4219 c2bd
00000320: e9f4 4bbc f879 f5bd ac51 46bd a218 b93d
00000330: a190 8abd b525 313a 9ae3 89bd e07e eabd
00000340: 13dc c83d c016 8f3d 70fb 30bd 9d94 99bd
00000350: 7529 b13d a013 613d 9f5e 14bd 63b4 b0bd
00000360: e7fa b5bc dd5d 9f3d fd3b 6f3d 5ace fe3c
00000370: a5c8 b1bd d8a4 ab3d e18b 0a3c 70ab 32bd
00000380: a49e dc3c 352b 373d 0393 fdbc b606 a7bd
00000390: cd78 93bd cbc5 c33d beb6 99bc c8ba b0bc
000003a0: cef9 bebb 9f12 1abb dd55 e8bd 9a98 9ebc
000003b0: cd29 723d 2523 cd3d bfca ccbd bf0f c33b
000003c0: d201 c2bd 8ba6 b13b 2a4c d33c 2ba0 2cbc
000003d0: 897f b9bd 49d8 be3d fe3a 83bc 1d9a 703d
000003e0: 1bd7 963d 0d37 9bbd 6536 a83c 4dc4 b2bd
000003f0: ce38 ddbc f868 42bd 6d08 903d 5fa6 c93c

net.4.module.0.bias f4 [32]
0.023746474 0.026822614 0.01160419 -0.08279229 -0.013471881 -0.016724505 -0.064612284 0.020312764
0.06535591 0.035374317 0.03369219 -0.059737857 0.038141448 -0.04512539 -0.067712866 0.05731381
0.021371799 0.015912767 -0.090270616 0.081984095 -0.02377828 -0.009455255 0.07437797 0.05892801
-0.024910549 0.028264092 -0.036497783 0.03446582 -0.05015124 -0.038397875 0.10695462 0.015368833
00000000: f787 c23c 19bb db3c 801f 3e3c 018f a9bd
00000010: 2ab9 5cbc d401 89bc 7253 84bd f466 a63c
00000020: 52d9 853d a9e4 103d d200 0a3d afaf 74bd
00000030: 353a 1c3d 67d5 38bd 0bad 8abd e3c1 6a3d
00000040: e913 af3c 7e5b 823c cddf b8bd 47e7 a73d
00000050: abca c2bc 37ea 1abc 7a53 983d 7f5e 713d
00000060: 3511 ccbc 198a e73c b37e 15bd 082c 0d3d
00000070: 636b 4dbd 1747 1dbd 060b db3d 8fcd 7b3c

net.5.weight f4 [8, 32, 3]
0.10252694 -0.014929522 -0.10027398 -0.06926661 -0.047287174 -0.059838824 0.025454737 0.060181055
0.095195495 -0.020364916 0.05867888 -0.022321694 -0.019916587 -0.08415079 -0.06759643 -0.07819469
0.0052824398 -0.086205654 -0.057872154 -0.050999664 0.013102067 0.08034071 0.058430538 0.023785625
0.03665326 0.046304926 0.05493412 0.06429881 0.038459595 -0.10898726 -0.029609025 0.09338387
-0.08084853 -0.1035804 0.0095175225 -0.007806469 0.03417104 0.053203434 0.040559728 0.06356918
0.06917336 -0.07614854 0.08675158 -0.03523141 0.0017250516 0.077676184 0.012488426 -0.08510502
0.10375053 -0.059578173 -0.09420267 0.069302514 -0.045512855 -0.047093462 -0.011213947 -0.064534105
-0.04132932 -0.029247923 -0.029116038 0.064511925 0.0064666294 -0.06410124 -0.0875202 0.05988351
0.084117904 0.04993203 0.07345734 0.0075745797 0.029523721 -0.0021887904 -0.061675046 0.09969498
-0.06310726 -0.0042181257 -0.026113445 -0.06891785 0.067875646 0.10782037 -0.049080655 0.011327759
-0.054178882 -0.010235516 -0.09854426 -0.015394246 -0.020618934 0.011574182 0.027485646 0.015319654
-0.032421708 0.009454422 0.00069834833 0.038189072 -0.03228902 0.031564757 -0.057532746 0.08374676
-0.087347195 -0.09412075 -0.049760155 -0.09568148 -0.08962987 0.086230375 -0.07025255 0.08496004
0.023264172 -0.020317076 0.06299556 -0.09610104 0.0338871 0.05787296 0.0706758 -0.081276745
-0.07878075 0.03102631 -0.06687677 -0.040975843 -0.06403351 0.048950158 -0.06824856 0.029729523
0.020368826 0.089352205 0.010273108 -0.025135396 -0.080001354 0.0038279789 -0.05688794 -0.007904668
-0.026506938 -0.10926055 0.038064536 0.059555553 -0.034950413 0.030307041 -0.04921606 0.08070979
0.084638014 0.04830505 0.07238996 -0.08093383 -0.06216094 -0.07508622 -0.050176617 0.00600508
-0.04674685 0.04199592 -0.038251594 0.05303877 0.06220201 -0.09990743 -0.04662396 -0.07249549
0.08622964 -0.0048571825 -0.10302744 -0.078182004 0.050187558 0.040141672 -0.017471885 -0.054511406
0.07085562 -0.07652193 0.080793306 -0.053139694 0.014148296 0.09611491 0.08870235 -0.015847612
0.08210851 -0.00075902283 -0.056579467 0.07130724 0.076658465 -0.089022905 -0.075900145 -0.06523206
0.07222956 0.09001617 0.07357364 0.02725386 0.05502828 -0.01243558 0.11166107 -0.085602626
-0.023965519 0.017637216 0.09982177 -0.047862932 0.08592977 0.09347237 0.09794433 -0.10463451
-0.07145185 -0.06771004 0.049789112 0.050516654 -0.009938215 -0.050483193 0.08214944 -0.028980438
-0.061530348 0.020549718 0.05642966 -0.03462877 0.002280503 -0.06588016 -0.026917486 -0.09457427
0.04583464 -0.07690208 0.019847978 -0.064118244 0.021352604 0.024657622 0.05397044 -0.073028706
-0.02681498 -0.037054177 -0.039452065 0.039313737 0.09456823 0.030984389 -0.06398993 -0.02910543
0.008945437 0.037276167 0.07830739 0.081343345 0.05270317 0.051183097 -0.07844193 -0.039154835
-0.013244346 0.047764413 0.043614786 -0.08422876 0.023336826 -0.073236585 -0.0028194122 -0.0845772
0.04430982 -0.06694765 0.040101364 0.07746346 0.012578482 0.031483576 -0.019935064 -0.04895854
-0.11592057 0.06665196 0.009246256 0.06008049 0.095346056 0.04416166 0.039925043 -0.051736586
00000000: a5f9 d13d f49a 74bc 725c cdbd a7db 8dbd
00000010: 32b0 41bd 8e19 75bd 7486 d03c 6980 763d
00000020: dbf5 c23d 53d4 a6bc 4459 703d fcdb b6bc
00000030: 1c28 a3bc 4057 acbd ff6f 8abd 8a24 a0bd
00000040: 5118 ad3b 978c b0bd 5a0b 6dbd 06e5 50bd
00000050: 0daa 563c ac89 a43d dc54 6f3d 12da c23c
00000060: bb21 163d 3caa 3d3d 9a02 613d 18af 833d
00000070: cf87 1d3d b634 dfbd a08e f2bc 0b40 bf3d
00000080: ea93 a5bd f621 d4bd 62ef 1b3c 69cd ffbb
00000090: eff6 0b3d d8eb 593d f521 263d 8f30 823d
000000a0: c3aa 8d3d c4f3 9bbd d0aa b13d d04e 10bd
000000b0: 201b e23a b114 9f3d 419c 4c3c 8a4b aebd
000000c0: 287b d43d 3e08 74bd 54ed c0bd 7aee 8d3d
000000d0: b06b 3abd 13e5 40bd b4ba 37bc 752a 84bd
000000e0: ef48 29bd 5799 efbc c284 eebc d41e 843d
000000f0: 05e6 d33b 8347 83bd ca3d b3bd 6948 753d
00000100: 0246 ac3d 8785 4c3d cd70 963d 2e34 f83b
00000110: bbdb f13c cf71 0fbb f99e 7cbd e22c cc3d
00000120: 613e 81bd 3438 8abb ddeb d5bc cd24 8dbd
00000130: 6302 8b3d edd0 dc3d cc08 49bd 1198 393c
00000140: adea 5dbd deb2 27bc 93d1 c9bd 2638 7cbc
00000150: 0ae9 a8bc a3a1 3d3c 9429 e13c 49ff 7a3c
00000160: a0cc 04bd b8e6 1a3c 5d11 373a 256c 1c3d
00000170: 7e41 04bd 0c4a 013d 75a7 6bbd 6c83 ab3d
00000180: 16e3 b2bd 61c2 c0bd 4ed1 4bbd a7f4 c3bd
00000190: de8f b7bd 8d99 b03d 92e0 8fbd 88ff ad3d
000001a0: 8194 be3c ff6f a6bc d103 813d 9fd0 c4bd
000001b0: 33cd 0a3d 320c 6d3d 79be 903d 6c74 a6bd
000001c0: cd57 a1bd e32a fe3c b0f6 88bd 49d6 27bd
000001d0: 0024 83bd f67f 483d e7c5 8bbd 548b f33c
000001e0: 86dc a63c 4afe b63d 8a50 283c bfe8 cdbc
000001f0: c0d7 a3bd d4de 7a3b 5403 69bd 9582 01bc
00000200: 1425 d9bc ffc3 dfbd 8fe9 1b3d 86f0 733d
00000210: 2a28 0fbd 7946 f83c c896 49bd 2d4b a53d
00000220: b256 ad3d 84db 453d 3041 943d a3c0 a5bd
00000230: 789c 7ebd cec6 99bd ff85 4dbd 43c6 c43b
00000240: a079 3fbd ea03 2c3d b4ad 1cbd 2e3f 593d
00000250: 89c7 7e3d 449c ccbd c4f8 3ebd 8478 94bd
00000260: 2a99 b03d 0029 9fbb 0d00 d3bd e31d a0bd
00000270: 7891 4d3d 986b 243d 3321 8fbc 5a47 5fbd
00000280: c01c 913d 88b7 9cbd f676 a53d 02a9 59bd
00000290: 41ce 673c e5d7 c43d 94a9 b53d dad2 81bc
000002a0: 8228 a83d 29f9 46ba dfbf 67bd 8809 923d
000002b0: 1dff 9c3d a451 b6bd 8971 9bbd 6398 85bd
000002c0: 17ed 933d 665a b83d c7ad 963d 7d43 df3c
000002d0: 5565 613d 9abe 4bbc 8fae e43d 6e50 afbd
000002e0: 5653 c4bc ec7b 903c 5b6f cc3d ec0b 44bd
000002f0: f2fb af3d 716e bf3d 0997 c83d 9e4a d6bd
00000300: 5955 92bd 90ab 8abd abef 4b3d 8dea 4e3d
00000310: e5d3 22bc 77c7 4ebd f73d a83d 6268 edbc
00000320: 3f07 7cbd e257 a83c ca22 673d e6d6 0dbd
00000330: 7e74 153b 2dec 86bd 0f82 dcbc 28b0 c1bd
00000340: 1abd 3b3d d67e 9dbd 3a98 a23c 6d50 83bd
00000350: a8eb ae3c c8fe c93c 1c10 5d3d 1390 95bd
00000360: 17ab dbbc 1fc6 17bd 7d98 21bd 7107 213d
00000370: fdac c13d f9d2 fd3c 270d 83bd 836e eebc
00000380: e28f 123c e5ae 183d a05f a03d 5797 a63d
00000390: 47df 573d 5ea5 513d 2aa6 a0bd d260 20bd
000003a0: d0fe 58bc 9ea4 433d 6ba5 323d 2180 acbd
000003b0: df2c bf3c 10fd 95bd e3c5 38bb d036 adbd
000003c0: 377e 353d d91b 89bd 5441 243d 2aa5 9e3d
000003d0: fa15 4e3c ecf4 003d dc4e a3bc c088 48bd
000003e0: c467 edbd d380 883d 9c7d 173c f616 763d
000003f0: cb44 c33d dbe2 343d 7188 233d bee9 53bd

net.5.bias f4 [8]
-0.067927554 -0.08733016 0.037829272 0.06886484 0.059226245 -0.049145628 0.01777587 -0.030299278
00000000: 9a1d 8bbd 28da b2bd def2 1a3d 0209 8d3d
00000010: 3897 723d ed4c 49bd b49e 913c 3136 f8bc

exp_avg f4 [32, 120, 2]
-0.00013326207 -2.763227e-05 -3.24427e-05 -0.00023676999 -0.0022807363 -0.0006130332 -0.0006520573 -0.0015629622
-0.0003781188 -0.00011366366 -3.2653537e-05 0.0011694256 5.097662e-05 -0.0003861225 -0.00034743335 0.00038500375
0.00035419688 -2.7535862e-06 -2.3133687e-05 -2.9213486e-05 0.00035231025 -0.0014950883 -0.00054011634 -0.00019966249
-2.866159e-05 7.149466e-05 -0.0028195884 -0.0009598887 0.0007931601 -1.0241347e-05 -0.0016496185 0.0002481282
3.3594536e-06 0.00019265663 -2.7967839e-05 8.167001e-05 5.403278e-05 0.00026538194 0.0003182631 0.00060242956
-0.00034086054 0.0007572574 -0.00016802689 -3.6676553e-05 -0.00047952743 0.00063869404 -9.813286e-06 0.0013002246
0.00080212724 0.0003082987 0.00012845862 0.0016909045 -0.0001427713 -0.00036826235 -3.5530218e-05 -2.0620104e-05
0.00013386337 5.7588844e-05 -0.00010364875 0.0007291363 -0.00022524715 0.00038371666 -0.00048097 -0.0001514894
3.908895e-05 -4.850839e-05 6.2637184e-05 -7.1944785e-05 0.00055879215 0.00036924583 0.00025397429 0.00043426699
0.00014351397 0.00026563057 -3.5993093e-05 9.429999e-05 0.00010232478 0.000100210025 0.0 0.0
0.0003339033 0.00035347242 2.544361e-05 -0.00023983855 0.00036121855 0.00019690803 -0.0005404304 -0.00053723727
-0.00014320797 -1.5523456e-05 0.00023724535 -0.00013883889 0.0005683948 0.00044163154 -0.00038087505 -4.1539533e-05
0.0005055149 -0.0014199624 0.00014765863 -9.2644535e-05 7.287575e-05 4.4537213e-05 -0.000675452 0.0012134374
-8.71471e-05 0.0011414121 -0.0010579983 -0.00051338196 0.00037751935 0.000798961 -0.00015459437 0.00016717368
0.00012280731 0.00019230635 0.00017119631 0.00012621358 0.00014654831 -0.00024124565 0.00043344777 0.0002985582
0.00026370824 0.0002090116 3.0525819e-06 2.849493e-05 6.325027e-05 0.0011762968 0.000116347954 0.00028381974
7.890782e-05 1.7664952e-05 4.963349e-05 6.561138e-05 5.5723693e-05 5.8679852e-05 0.0008129108 7.020699e-07
-6.0300503e-05 -9.324061e-05 0.0005322192 -1.7907965e-05 0.00014120505 -3.5013058e-05 0.0006824408 -0.00018068368
0.00013733079 0.0004148578 -0.00020562687 -7.3146307e-06 -4.8721948e-05 -3.5382036e-05 -0.00017456526 -8.2218445e-05
0.00027424202 0.00024069745 -0.00035473763 0.00019963215 -0.00026293585 0.00029232912 -0.000535949 -0.00030933414
0.00019815758 0.0010428637 -0.00036372707 -0.00014294116 -1.1242079e-05 0.00014680643 -0.00016701994 0.00051155477
-0.0002281786 -0.00080833834 0.00024937658 -1.6537368e-05 -0.0007061186 0.00012898435 0.00043704995 0.00018637975
0.00010433057 0.0002798411 0.0002615954 0.00013573388 -6.1204475e-05 9.487838e-05 -0.00146797 -0.0007057149
0.00026688518 -0.00059787254 0.00023651008 0.00025446963 -0.0004899975 -0.0007409751 0.00026468758 0.0010804103
0.00031297465 -0.00022721173 -0.0017612875 -3.0490875e-05 0.00056687155 0.0004571699 -0.00019864849 -0.000606587
-9.567818e-05 -0.0002141384 0.00019610173 -4.0579576e-05 -6.817681e-05 -0.00015715226 0.00029251352 0.00036811974
0.00035430907 0.00080825336 8.267809e-05 -8.489886e-05 -0.00028772242 -0.0010934781 7.73869e-05 0.000113869915
0.00015127848 -3.7282894e-05 0.00010307807 0.00013499187 -0.0017302235 0.0004329183 0.000860526 -0.00045205865
-0.00029616643 -0.00011482602 -1.5523045e-05 5.5777622e-05 0.00034142064 -0.00022811678 9.443769e-05 -0.00018088699
-0.00030698022 -7.225329e-05 -0.00032498874 9.230434e-05 -1.9907644e-05 4.3897995e-05 0.00023382055 0.00038723944
0.00021127154 0.000100506295 0.0005175056 0.00021961024 0.00026339034 -0.0011542147 0.00080787856 0.0003073438
0.00015568321 -6.617133e-05 0.0011676908 0.00094372075 3.6822326e-05 -3.8978298e-05 -0.0009174464 -0.0016935829
00000000: 44bc 0bb9 d9cb e7b7 1513 08b8 7645 78b9
00000010: 6878 15bb f6b3 20ba d3ee 2aba 4fdc ccba
00000020: 3f3e c6b9 b65e eeb8 78f5 08b8 6947 993a
00000030: bbcf 5538 7c70 cab9 b727 b6b9 54da c939
00000040: 80b3 b939 40ca 38b6 370f c2b7 7c0f f5b7
00000050: 48b6 b839 d7f6 c3ba 9896 0dba 7e5c 51b9
00000060: 4c6e f0b7 67ef 9538 d8c8 38bb 0aa1 7bba
00000070: 13ec 4f3a 40d2 2bb7 0338 d8ba 3417 8239
00000080: f972 6136 df03 4a39 7a9c eab7 4146 ab38
00000090: 41a1 6238 f622 8b39 8ddc a639 5dec 1d3a
000000a0: 87b5 b2b9 af82 463a 6030 30b9 26d5 19b8
000000b0: 1569 fbb9 086e 273a bea3 24b7 4c6c aa3a
000000c0: d945 523a 27a3 a139 d9b2 0639 57a1 dd3a
000000d0: e1b4 15b9 5613 c1b9 4806 15b8 56f9 acb7
000000e0: ad5d 0c39 8d8b 7138 005e d9b8 8223 3f3a
000000f0: 5230 6cb9 942d c939 b32a fcb9 20d9 1eb9
00000100: 71f3 2338 7d75 4bb8 155c 8338 10e1 96b8
00000110: e87b 123a 5697 c139 da27 8539 54ae e339
00000120: 3d7c 1639 5544 8b39 4af7 16b8 ecc2 c538
00000130: 3397 d638 d927 d238 0000 0000 0000 0000
00000140: be0f af39 4452 b939 bd6f d537 2c7d 7bb9
00000150: ef61 bd39 1979 4e39 acab 0dba 62d5 0cba
00000160: 192a 16b9 5e38 82b7 10c5 7839 4895 11b9
00000170: 5400 153a c88a e739 2fb0 c7b9 bc3a 2eb8
00000180: 8884 043a 081e baba d0d4 1a39 284a c2b8
00000190: dfd4 9838 78cd 3a38 d110 31ba 340c 9f3a
000001a0: bec2 b6b8 6f9b 953a 88ac 8aba 7b94 06ba
000001b0: caed c539 5d71 513a 9c1a 22b9 584b 2f39
000001c0: d6c5 0039 d8a5 4939 2983 3339 3358 0439
000001d0: c3aa 1939 e3f6 7cb9 6040 e339 ce87 9c39
000001e0: 5242 8a39 202a 5b39 f5da 4c36 6508 ef37
000001f0: 3ba5 8438 f92d 9a3a d5ff f338 a4cd 9439
00000200: 507b a538 322f 9437 8e2d 5038 d798 8938
00000210: dcb8 6938 031f 7638 8519 553a e075 3c35
00000220: 2ceb 7cb8 2c8a c3b8 a084 0b3a 1039 96b7
00000230: 7110 1439 fcda 12b8 d4e5 323a e875 3db9
00000240: 7400 1039 4581 d939 8b9d 57b9 3370 f5b6
00000250: cb5a 4cb8 2c67 14b8 810b 37b9 b16c acb8
00000260: 24c8 8f39 bb63 7c39 14fc b9b9 5954 5139
00000270: a7da 89b9 c043 9939 ee7e 0cba 202e a2b9
00000280: 85c8 4f39 b3b0 883a 9fb2 beb9 7ae2 15b9
00000290: 5d9c 3cb7 0df0 1939 1322 2fb9 dc19 063a
000002a0: 3a43 6fb9 abe6 53ba c2be 8239 bab9 8ab7
000002b0: d11a 39ba f93f 0739 da23 e539 ef6e 4339
000002c0: 0ccc da38 a3b7 9239 be26 8939 c953 0e39
000002d0: e75a 80b8 71f9 c638 e668 c0ba baff 38ba
000002e0: b9ec 8b39 8cba 1cba b1ff 7739 566a 8539
000002f0: 2d73 00ba ff3d 42ba c4c5 8a39 8e9c 8d3a
00000300: bf16 a439 af3f 6eb9 00db e6ba a8c6 ffb7
00000310: 1b9a 143a 4eb0 ef39 4c4c 50b9 5d03 1fba
00000320: d5a6 c8b8 578a 60b9 a8a0 4d39 fd33 2ab8
00000330: 25fa 8eb8 3dc9 24b9 805c 9939 3200 c139
00000340: 8fc2 b939 f7e0 533a 7663 ad38 ba0b b2b8
00000350: 73d9 96b9 0953 8fba c74a a238 72cd ee38
00000360: 82a0 1e39 3460 1cb8 9e2b d838 9b8c 0d39
00000370: abc8 e2ba 50f9 e239 ec94 613a 4902 edb9
00000380: c946 9bb9 c0ce f0b8 7c37 82b7 c4f2 6938
00000390: b400 b339 a232 6fb9 d90c c638 7bac 3db9
000003a0: 30f2 a0b9 b186 97b8 4063 aab9 8493 c138
000003b0: 57ff a6b7 1d1f 3838 ba2d 7539 6606 cb39
000003c0: c688 5d39 e8c6 d238 37a9 073a 2d47 6639
000003d0: a717 8a39 0549 97ba d0c7 533a fd22 a139
000003e0: e53e 2339 76c5 8ab8 340d 993a 0764 773a
000003f0: ac71 1a38 a17c 23b8 c980 70ba 36fb ddba

exp_avg_sq f4 [32, 120, 2]
3.7544623e-08 5.0143033e-08 1.5133516e-07 1.797572e-07 5.5968753e-06 7.667354e-06 4.1075496e-06 4.9191394e-06
7.8408874e-07 8.67385e-07 4.191695e-06 4.8962597e-06 3.0579068e-07 3.6444425e-07 3.0059132e-06 2.4808141e-06
2.5956354e-07 3.3941208e-07 3.1796668e-09 3.80786e-09 3.0683989e-06 6.268238e-06 3.6755437e-06 3.909399e-06
7.4756024e-08 8.169125e-08 1.9059453e-05 9.645211e-06 4.6540626e-06 2.9218809e-06 1.8879055e-05 2.3359351e-05
4.4313092e-07 4.8324335e-07 5.5140163e-08 4.7762708e-08 6.5646263e-06 7.0984147e-06 3.5927724e-06 3.0323772e-06
2.213461e-06 3.0995216e-06 3.244964e-07 3.6539024e-07 5.411081e-06 5.4783864e-06 1.1147211e-05 8.390539e-06
3.7602576e-06 2.7524716e-06 1.0710307e-05 1.2596514e-05 8.8373025e-07 9.3044844e-07 7.6689926e-09 6.000226e-09
1.9374689e-08 8.717048e-09 5.256402e-07 5.367879e-07 2.5753113e-07 3.3983e-07 1.2959674e-06 7.3923667e-07
9.326829e-08 1.0072213e-07 1.3201537e-07 1.4866467e-07 1.4213692e-06 1.428337e-06 5.457937e-07 2.5365676e-07
5.9364544e-07 3.8834446e-07 1.15328994e-07 6.994966e-08 6.027691e-08 5.136705e-08 0.0 0.0
3.7711518e-06 4.269173e-06 3.3088787e-07 4.0695943e-07 3.0403092e-07 3.2904066e-07 4.6538116e-05 4.1575484e-05
2.3159717e-07 1.7225767e-07 2.8348447e-07 4.00035e-07 1.3131206e-06 1.34173e-06 6.829039e-07 9.101097e-07
2.0930396e-05 2.3759703e-06 1.3088028e-07 6.689617e-07 8.5988574e-08 8.658239e-08 9.369261e-05 7.005276e-05
6.866097e-06 4.8921083e-06 3.936812e-06 1.0565496e-05 7.5523445e-07 1.0008681e-06 5.401435e-07 5.641596e-07
2.2108488e-06 1.893442e-06 1.3454147e-07 6.944302e-08 1.7843226e-07 2.0468214e-07 1.7493725e-06 1.274895e-06
3.254282e-06 3.7944271e-06 5.474152e-09 3.863541e-09 1.43015e-05 1.8803845e-05 1.1357637e-06 1.0045462e-06
9.186768e-07 1.6058902e-06 9.517773e-09 8.984449e-09 2.1231758e-06 1.961631e-06 1.1072555e-05 8.824788e-06
4.5502407e-08 5.319394e-08 1.4512024e-06 9.892287e-07 2.5765241e-06 2.3527098e-06 1.8405546e-05 2.8707923e-06
1.0519651e-06 1.2507801e-06 1.0737306e-07 9.0047195e-08 3.8700009e-07 2.9021922e-07 1.1314766e-07 4.8029126e-08
2.189373e-07 3.8083394e-07 3.9299266e-06 2.9150617e-06 1.6625672e-05 1.3442501e-05 1.6970505e-06 2.054791e-06
7.99699e-06 7.3183105e-06 1.199783e-07 1.12599e-07 2.7886483e-07 4.6417992e-07 8.026467e-07 1.4365086e-06
4.374284e-07 1.4398598e-06 7.340542e-07 6.574421e-07 2.2156687e-06 2.1758703e-06 9.968674e-07 8.879265e-07
1.9817682e-05 2.4279411e-06 6.195778e-07 1.2648065e-06 3.7041424e-08 3.3069202e-08 5.1811e-06 4.4493727e-06
5.9422455e-06 1.0611217e-05 1.8596658e-07 2.101794e-07 2.7743656e-06 7.670861e-06 1.4809548e-06 2.0100258e-06
9.934706e-07 2.3573903e-06 2.161674e-05 3.9101025e-07 6.9994917e-07 9.542962e-07 3.6723253e-07 3.4066363e-07
7.506018e-07 1.939674e-06 7.7829924e-08 9.9848826e-08 4.3124507e-07 7.615801e-07 4.179318e-07 6.0359054e-07
1.4576024e-06 1.6672483e-06 2.0003391e-07 2.416727e-07 4.438712e-06 5.2759938e-06 1.3700675e-07 1.5145233e-07
4.544281e-07 6.3380486e-07 2.0584143e-06 1.936104e-06 1.6087955e-05 2.1017968e-05 7.2620765e-06 8.79548e-06
1.0779846e-06 8.74504e-07 2.6678542e-08 5.298559e-08 6.657181e-07 4.0865638e-07 1.2815812e-05 1.3172397e-05
1.3142122e-07 2.2050375e-07 1.5068244e-06 2.0096184e-06 2.754535e-07 3.7723572e-07 3.138278e-07 4.837701e-07
2.3860323e-07 2.7028855e-07 7.399541e-07 5.265516e-07 3.572412e-05 3.6986945e-05 2.3788927e-05 2.569396e-05
5.931812e-06 5.1809666e-06 2.792584e-05 3.6312515e-05 1.6138558e-06 2.1794147e-06 1.4105449e-05 1.6634629e-05
00000000: c040 2133 d95c 5733 b17e 2234 4803 4134
00000010: cbcc bb36 09a3 0037 95d3 8936 160f a536
00000020: 2b7a 5235 3ed6 6835 63a6 8c36 8d4a a436
00000030: 8d2b a434 d6a8 c334 32b9 4936 107c 2636
00000040: 245a 8b34 7138 b634 4a81 5a31 4ad6 8231
00000050: b1ea 4d36 c153 d236 5ca9 7636 7b2d 8336
00000060: 8f89 a033 3d6e af33 dde1 9f37 ded1 2137
00000070: 182a 9c36 8815 4436 765e 9e37 d3f3 c337
00000080: 73e7 ed34 3bb8 0135 40d3 6c33 a723 4d33
00000090: b645 dc36 eb2e ee36 5c1b 7136 d87f 4b36
000000a0: f88a 1436 6001 5036 7236 ae34 da2a c434
000000b0: d590 b536 fbd2 b736 e804 3b37 17c5 0c37
000000c0: bc58 7c36 1ab7 3836 6bb0 3337 9e55 5337
000000d0: 7b39 6d35 eec3 7935 96c0 0332 8c2a ce31
000000e0: 646d a632 fcc1 1532 b819 0d35 c917 1035
000000f0: cf42 8a34 e171 b634 1af1 ad35 f56f 4635
00000100: c94a c833 944c d833 1cc0 0d34 a2a0 1f34
00000110: e0c5 be35 49b5 bf35 a882 1235 522e 8834
00000120: 015b 1f35 a87d d034 c9aa f733 3b37 9633
00000130: 9571 8133 ab9e 5c33 0000 0000 0000 0000
00000140: e513 7d36 eb3f 8f36 e2a4 b134 147c da34
00000150: b139 a334 01a7 b034 ec31 4338 5661 2e38
00000160: f2ac 7834 d4f5 3834 cf31 9834 64c4 d634
00000170: 7b3e b035 7e15 b435 cc50 3735 434e 7435
00000180: af93 af37 dc72 1f36 1988 0c34 b392 3335
00000190: b8a8 b833 2cef b933 d67c c438 4ae9 9238
000001a0: 5363 e636 e426 a436 f518 8436 7642 3137
000001b0: 51bb 4a35 9155 8635 61fe 1035 c170 1735
000001c0: 185e 1436 2c22 fe35 7a76 1034 b420 9533
000001d0: 1697 3f34 99c6 5b34 fbcb ea35 0f1d ab35
000001e0: 2464 5a36 c3a3 7e36 2617 bc31 11c0 8431
000001f0: 7af0 6f37 f3bc 9d37 8b70 9835 f2d3 8635
00000200: fd9a 7635 f889 d735 9c83 2332 065a 1a32
00000210: e27b 0e36 90a4 0336 43c4 3937 2d0e 1437
00000220: 6d6e 4333 5b77 6433 efc6 c235 a4c5 8435
00000230: 59e8 2c36 3fe3 1d36 9c65 9a37 d6a7 4036
00000240: 3f31 8d35 7ae0 a735 f794 e633 f85f c133
00000250: e3c4 cf34 6dcf 9b34 95fb f233 9548 4e33
00000260: 0715 6b34 6b75 cc34 d0dd 8336 61a0 4336
00000270: 5c77 8b37 1a87 6137 36c6 e335 0ae5 0936
00000280: cf2a 0637 cf8f f536 62d3 0034 f4cd f133
00000290: e4b6 9534 6734 f934 7675 5735 0fce c035
000002a0: b4d7 ea34 3541 c135 d20b 4535 147b 3035
000002b0: e6b0 1436 2b05 1236 1acc 8535 d859 6e35
000002c0: 263e a637 b6ef 2236 1051 2635 6cc2 a935
000002d0: 7a17 1f33 f907 0e33 4fd9 ad36 d24b 9536
000002e0: 8063 c736 d406 3237 1bae 4734 acad 6134
000002f0: 3d2f 3a36 19b2 0037 38c5 c635 fbe3 0636
00000300: 6457 8535 a833 1e36 9855 b537 0aec d134
00000310: 24e4 3b35 5e15 8035 0e28 c534 74e4 b634
00000320: f77c 4935 582b 0236 7423 a733 796c d633
00000330: df85 e734 636f 4c35 1c60 e034 6d06 2235
00000340: d6a2 c335 37c6 df35 e7c8 5634 3ebf 8134
00000350: 3ff0 9436 7108 b136 211c 1334 e69e 2234
00000360: 1ff8 f334 bd22 2a35 4a23 0a36 03ee 0136
00000370: 9ff4 8637 be4f b037 c3ac f336 4d90 1337
00000380: 45af 9035 75bf 6a35 bc2a e532 4692 6333
00000390: cdb3 3235 4e65 db34 7e03 5737 04ff 5c37
000003a0: ca1c 0d34 9cc3 6c34 183e ca35 fbdc 0636
000003b0: 0ae2 9334 e286 ca34 2a7c a834 6edc 0135
000003c0: 6119 8034 2d1c 9134 42a1 4635 5a58 0d35
000003d0: 7bd6 1538 6e22 1b38 558e c737 5c89 d737
000003e0: e109 c736 2ad8 ad36 4942 ea37 444e 1838
000003f0: aa9b d835 0f42 1236 71a6 6c37 988a 8b37

exp_avg f4 [32]
0.0014979226 0.0152370585 0.0021485619 0.00473058 0.0040534413 -0.0075021097 0.016486702 -0.008546676
-0.010684106 -0.001940368 0.003632571 0.00635155 -0.0047504217 -0.0027500421 0.0022264887 0.0034493392
-0.0003668713 0.011118573 -0.0035195148 0.020781815 -0.00035213446 -0.009708732 0.0037107687 -0.014685687
0.0126327975 -0.012354083 -0.0034188745 0.009854607 -0.011279 -0.01259117 0.0041507413 -0.013239367
00000000: f155 c43a dba4 793c e3ce 0c3b fb02 9b3b
00000010: bbd2 843b 42d4 f5bb 1f0f 873c 5b07 0cbc
00000020: 630c 2fbc f253 feba 6e10 6e3b aa20 d03b
00000030: 6da9 9bbb 0d3a 34bb 48ea 113b 4f0e 623b
00000040: a258 c0b9 ad2a 363c a9a7 66bb a03e aa3c
00000050: b09e b8b9 6011 1fbc 5e30 733b 3c9c 70bc
00000060: cbf9 4e3c c868 4abc 320f 60bb 3875 213c
00000070: 8ecb 38bc 324b 4ebc f102 883b eee9 58bc

exp_avg_sq f4 [32]
5.0570387e-05 0.0012680356 7.382449e-05 0.00010569111 0.00015225634 0.00026987208 0.0014471815 0.000491019
0.0005446034 4.051527e-05 3.0024055e-05 0.00024376577 0.00021363529 5.5579167e-05 8.516852e-05 9.346208e-05
4.506359e-05 0.00040595728 0.0001275047 0.0016318166 6.0859642e-05 0.00048424533 9.53668e-05 0.0010318288
0.00055543333 0.00090445386 0.00013560274 0.0004107525 0.00052601186 0.00043253714 0.00025935893 0.0010002352
00000000: 8a1b 5438 3734 a63a 39d2 9a38 7ca6 dd38
00000010: 00a7 1f39 9e7d 8d39 5aaf bd3a bab7 003a
00000020: b7c3 0e3a f1ee 2938 2bdc fb37 609b 7f39
00000030: 4903 6039 ad1d 6938 809c b238 1201 c438
00000040: a902 3d38 aad6 d439 c8b2 0539 aee2 d53a
00000050: 8b43 7f38 4fe2 fd39 a9ff c738 6e3e 873a
00000060: 809a 113a df18 6d3a 9530 0e39 445a d739
00000070: 0fe4 093a 27c6 e239 91fa 8739 531a 833a
