data/Figure3_Supplement/023/checkpoint_0003000.pth (torch, 235770 bytes, 31 tensors)

net.0.weight f4 [32, 120, 2]
00000000: a08a 21bd dd95 cbbd 1ec8 033d 5097 733c
00000010: d6a0 6abc dd41 ac3d 1fb6 6dbb 32d9 3cbd
00000020: db37 cbbd 5de3 a7bd a435 00bd a8de b9bb
00000030: e324 e0bd 7b29 29bd 2446 193d 8dc3 4abc
00000040: b86d 5bbd 35ac 0d3d 6da4 6c3d 7a8f 89bb
00000050: eddd d4bc 7595 37bc d005 733c 46ea 4bbc
00000060: 535b 2ebd 07ca 523c 5eb9 c33d 7c03 943d
00000070: 0dfe 0fbc 7202 83bd b4b4 aebc 5a58 97bd
00000080: 1351 2ebd 3a2a ecba 758c 97bc 07ec 3ebd
00000090: b3ec 023c f4de 9d3c be37 8e3d 109b 1c3d
000000a0: 32cc 2dbb 0729 773d 171e b83d 8d1b f23c
000000b0: e2ad 843d 32f9 253c 9e56 343d 1529 c9bc
000000c0: 0ca2 a23d c31c 07bc d762 0fbc f605 b03c
000000d0: 5608 133b 898b f8bc ed92 9a3d 2484 a3bd
000000e0: 8562 3d3b e129 0d3d b3d9 99bb 13c2 a1bd
000000f0: 74d0 b23d 77e6 613d f186 a73c e60c c3bd
00000100: a640 003d 2e80 88bd f2ba 20bd bc99 203d
00000110: 3bd7 0bbd 49af 8cbd ef72 88bd c277 17bd
00000120: ce18 a13d fca5 7cbd 9ce7 36bc f7b9 023d
00000130: 3323 2abd f7ea cb3b 0673 133d c68c 383d
00000140: 57af e4bc e69f 843d c799 10bc abaa 5ebc
00000150: b0b6 8d3d 0d37 553d 8a93 5cbd db4d 473d
00000160: 4428 dabb 9db3 00bd d1c7 63bc 54c1 2b3c
00000170: db71 413c 63c3 413b b7a6 6fbb 0ea4 c73c
00000180: 7915 ff3c ae6d c23d c819 d1bb c55d 1fbd
00000190: 20d8 8abc 8595 2ebd 6cbb 74bc 2854 45bc
000001a0: dc9f d83c 04a6 81bd 8b3d 6abd f7c3 36bc
000001b0: 4bde b9bc a4bf 7bbc 3e23 f13c 0441 fabb
000001c0: 98bc 4c3d 893c 5bbc 6e11 383c 5c3f 273c
000001d0: b3b9 0b3d 0220 6c3d 9d20 313d acb1 ffbb
000001e0: 6e27 18bd 6474 4cbc 9d14 de3b df33 2dbd
000001f0: 6c12 66bd 722a 383d 2cdf 2cbd 6e1c 1bbd
00000200: 61cc 9f3c 71e0 853d 476b a7bb 4632 2fbd
00000210: 77fc c23d 7896 463b 2eb8 32bc 0fa5 7d3c
00000220: f85a 5e3d 9923 16bc 2ced ddba 98c5 9eb9
00000230: 7f54 ac3d 342b 2e3d af07 0b3d 092e 873c
00000240: 9a4f 7abd 691a 11bd 3fef 473b 1fff 3cbd
00000250: 5a05 2a3d 8731 85bd fa28 c73d f6ae 80bd
00000260: f37b 80bd 5e24 a0bd 5a82 ac3d 1fa9 c13c
00000270: 08f8 273d 73e4 073c 8eaf 333d 0885 613d
00000280: f7cf c9bc ed39 abbc 201a a3bc 391c 393d
00000290: ba7e d2bb 60b7 8c3d 4ad1 df3c 739c 133e
000002a0: 5705 033c 02f5 cd3d e441 20bc 7c8b 71ba
000002b0: be42 123d 1311 703d d616 4cbd 42ba 393d
000002c0: 6067 2dbd 03ae 8e3c 1688 ecbd 13cb a9bc
000002d0: 685a f7bc 1f36 b4bd 52e9 a6bd cdde ee3c
000002e0: 852d a1bd 61df febc 825b 98bd 6c66 053d
000002f0: 2475 5dbd 683c 43bd 6861 b5bd dd28 113d
00000300: 20e8 51bd 767f b83c 266b adbc d77a f93c
00000310: c7dc 1bbc 1a1f a9ba ed48 09bd 881e f73c
00000320: dac9 933c f385 8b3d d557 90bd d04b 34bc
00000330: adf4 443c 2d3a 263d c453 26be 70bc bdbb
00000340: 9e1d abbd 262a 79bd ddc0 a4bd 03b5 f83c
00000350: e172 923c 040f 68bd ca13 0cbd 9b6c 91bd
00000360: 29a1 26bc 64ba eb39 6f83 7c3c 58a1 1f3d
00000370: c520 85bb 174f 723c 45f6 97bd dc12 f23c
00000380: ea36 8ebb 9122 aebc c7cd 683d 0110 733d
00000390: 0f90 c33c e3bf 84bd 8ac3 29bd 4639 24bd
000003a0: 5d29 c23d cb72 133c dcd2 883c 6e36 0a3d
000003b0: 24f7 7dbd f42d 93bd 98ce 4ebd e125 b63d
000003c0: ebe1 57bd e067 3d3d 019b 4d3c c1dd 58bd
000003d0: aaf8 96bd 7bda a23c bf45 853d b1b5 5c3d
000003e0: 0712 873c e6d3 a33c 0a67 76bd 8638 a03d
000003f0: a5d5 49bd 5852 573d a87c 4f3c d64f 6d3c
-0.039438844 -0.099406935 0.03217327 0.014867619 -0.014320573 0.08411 -0.0036271883 -0.04610557
-0.09922763 -0.08197663 -0.031301156 -0.0056722946 -0.109445356 -0.041299324 0.037420407 -0.0123757245
-0.053571433 0.034588058 0.057773996 -0.004198012 -0.025984729 -0.011205067 0.014832929 -0.012445992
-0.042567562 0.01286555 0.0955684 0.07227227 -0.008788598 -0.06396951 -0.0213264 -0.073898986
-0.042557787 -0.0018017956 -0.018499592 -0.046611812 0.007991004 0.019271351 0.06944226 0.038233817
-0.0026519415 0.06034186 0.08990114 0.029554153 0.06478478 0.010130214 0.044027917 -0.024555722
0.07941064 -0.008246603 -0.008751593 0.021487217 0.0022435389 -0.030339973 0.07547555 -0.07984188
0.0028897834 0.034463767 -0.004695141 -0.07898345 0.087311655 0.05515143 0.020450087 -0.095239446
0.031311654 -0.06665073 -0.039240785 0.039209113 -0.034140807 -0.068693705 -0.06662547 -0.036979444
0.07866059 -0.061681733 -0.011163618 0.03191563 -0.041537475 0.0062230784 0.035998367 0.045056127
-0.02791564 0.06475811 -0.008825726 -0.013590495 0.069196105 0.052054454 -0.05385164 0.048658233
-0.006657632 -0.031421293 -0.01390262 0.010483105 0.01180693 0.0029565922 -0.0036567876 0.02437022
0.031138169 0.09493576 -0.006381247 -0.038907785 -0.01694876 -0.04262306 -0.014937263 -0.01204399
0.026443414 -0.06330493 -0.0571876 -0.01115512 -0.022689005 -0.015365515 0.02943575 -0.007637145
0.049984545 -0.013381132 0.011234624 0.010207977 0.034112643 0.057647713 0.043243993 -0.0078031626
-0.037146978 -0.012478922 0.0067773596 -0.042285796 -0.056169912 0.044962354 -0.04220502 -0.03786891
0.019506635 0.065369494 -0.005109224 -0.042772554 0.0952081 0.0030302089 -0.01090817 0.015481248
0.054285973 -0.009163761 -0.0016931645 -0.00030283327 0.08414554 0.04252167 0.033942875 0.016501443
-0.06111107 -0.035425577 0.0030507592 -0.04614174 0.04150901 -0.06503587 0.097246125 -0.06283371
-0.062736414 -0.078194365 0.084233 0.023640214 0.041008025 0.008294213 0.043868594 0.05505851
-0.024635298 -0.020901645 -0.019909918 0.04519293 -0.0064237984 0.068709135 0.027321476 0.1441515
0.007996879 0.10056497 -0.009781335 -0.0009214205 0.03570818 0.058610033 -0.049826466 0.045343645
-0.042334914 0.01741696 -0.11549394 -0.020726716 -0.030194476 -0.08799385 -0.08149971 0.029158974
-0.0787001 -0.031112375 -0.07439329 0.03256838 -0.054066792 -0.04766503 -0.088564694 0.03543936
-0.051246762 0.022521716 -0.021169256 0.030454082 -0.009513087 -0.0012902946 -0.033516813 0.030165926
0.018040586 0.06812658 -0.07048003 -0.011004403 0.012021226 0.040582824 -0.16242892 -0.0057902858
-0.083552584 -0.06083121 -0.08044598 0.03035975 0.017877044 -0.056654945 -0.03419856 -0.07100793
-0.0101702595 0.00044961565 0.015412196 0.03897223 -0.0040627443 0.014789364 -0.07420019 0.029550008
-0.0043400424 -0.021256717 0.05683687 0.059341434 0.023872403 -0.06481912 -0.041446246 -0.040093683
0.09480546 0.008999537 0.016702108 0.033743314 -0.06200327 -0.07186499 -0.050489992 0.088939436
-0.052705687 0.04624164 0.012549163 -0.052945856 -0.07371648 0.01987957 0.06507444 0.053884212
0.016488088 0.019998502 -0.06015686 0.07823281 -0.049276013 0.052568763 0.012663998 0.014484366

net.0.bias f4 [32]
00000000: 7cd9 c7bb d90a 273c 37c3 3f3d a38d 5dbd
00000010: 6329 d0bc 9d01 8dbd 93e6 f1bb 1861 de3c
00000020: 6015 323d 0715 83bb 6114 acbc 767f 02bd
00000030: cd40 083d 0d08 e13c 5124 14ba 17c8 4abd
00000040: 26d8 1fbc d24c 94bc 63d4 9d3c 4021 3f3c
00000050: ae66 153d 2c4a b7bc 3b0b 29bc 77f6 2cbd
00000060: c8c3 07bd 7b4f 4fbc e95d 963c 7b3f 4dbd
00000070: b964 40bd d57a 85bd b236 d83c 4a7a 4abc
-0.006098924 0.010195457 0.04681703 -0.054090153 -0.02541036 -0.06885073 -0.007382223 0.027145907
0.043477416 -0.0040003094 -0.021005811 -0.031859837 0.033264924 0.02746966 -0.00056511635 -0.049507227
-0.009756124 -0.018103037 0.019266313 0.011665642 0.036474876 -0.022374235 -0.010317619 -0.042227235
-0.033145696 -0.012653227 0.018355327 -0.050109368 -0.046971057 -0.06517569 0.026393268 -0.012358258

net.2.module.0.weight f4 [32, 32, 3]
00000000: 2347 653d 80fb 79bd 8250 dabd 29db b3bd
00000010: 62c3 843d 5aee b73d c57b 103d 931b 3bbd
00000020: 0de3 923d c2c4 c7bc a737 223d 1bcd 8d3d
00000030: 5345 15be a19d 133d 3362 a43d e4f0 7d3c
00000040: 0987 26bd 8a39 7fbd 35e3 dabd 5155 e53c
00000050: df50 65bc 3165 3abd 1a57 a93d 5171 a13d
00000060: 48b3 bcbd f4f5 98bb 4692 df3d 994a 813d
00000070: 4ef8 ea3d 0c6d babd 8ba6 493d 43ab a2bb
00000080: e7b3 f83b 6bc2 9cbd c245 9a3c d457 883d
00000090: 4d68 d23c 28c5 d3bd 1b35 abbd 86dd 96bd
000000a0: 8b7c ffbc e90d 82bd 3c4d 5eba 6a75 96bd
000000b0: a9c2 c53d 6b05 463b f9c8 3d3d 5bad bf3a
000000c0: 43f7 3d3c 27c2 cbbd 168c dd3c 4f55 9d3d
000000d0: 6c93 13bd 88a9 8abd 2d3e 253d cdba 45bc
000000e0: e3c2 553d 35c2 d0bd 22c5 e5bd 5291 9d3d
000000f0: 7e9c c4bc 809e 09bc e9dd 433d ad79 893c
00000100: 0a59 b5bd 426a dfbd ff52 7dbd 9967 f5bd
00000110: f1b6 4fbd e6e2 2f3d 9c1d 3dbd 4156 e7bc
00000120: 2fba e4bd 485d 723d 2fe3 09bd 45fc f03c
00000130: 60d0 283d e34b b73d 4e68 383d cdfb 03bd
00000140: 307c 9cbd 3c45 55bb fb71 da3b 8d2b fbbc
00000150: 8c95 733d 0691 6bbd e977 503c 8cea 77b9
00000160: ab83 013d 51c6 91bd 87a6 c8bc 9c52 963d
00000170: 3c6c 96bd 80fc 80bc 0f86 793d 9b26 16bb
00000180: d337 ad3c af73 e93b a6d8 c63a 5ff4 873d
00000190: 8d2e 883d db4e f0bc 1a2f cfbd 7b41 9f3d
000001a0: ebfe 87bd a770 54bc 9848 673d 8bb1 fc3b
000001b0: 9c11 63bc f9da 7bbd 0030 e9bc ff8a 6fbd
000001c0: b90e 023c 8a5a 3fbc 5a5b a43d cd65 ae3d
000001d0: 289c 453d c288 943d 8295 8e3d da1a f9bb
000001e0: ef61 8cbd 5413 693d c777 033d f4aa 443d
000001f0: 9276 af3d 5af3 23bd 0d7a acbc 47b7 b63c
00000200: e490 1b3c 1309 bd3c 33fd 7ebd a908 29bd
00000210: 2328 a7bd 11be f8bd a287 59bd 87b4 abbc
00000220: 0bd7 e0bc 582f 863c 8ba9 613d f646 013e
00000230: 906b 133c eb9a 3d3d 0f01 923d 5dd0 4e3d
00000240: 0f2a 783c 5c94 ccbc 74ce 98bd ac38 03bc
00000250: 206d 853d 888c 503d 8719 5ebd 2623 b2bc
00000260: 0869 8ebd c4db 513d 9761 3bbc 6c77 0f3e
00000270: c7a6 c0bb 7e24 a5bd 7907 393c bedd 373b
00000280: 18da 96bb 4387 bbbd f925 42bd c98d e83d
00000290: ec56 89bd 172d 103d eb9a 64bd c663 ad3b
000002a0: 6001 a1bd 5543 abbd 3b78 903d 0eb4 3bbd
000002b0: 9272 7dbd a49f 00be 931e 1bbd f19d a8bb
000002c0: dcc6 c83c 7c3f e93d 6ad1 673c 59f7 963d
000002d0: a5a9 873c c54e 7cbd 9fe7 d6bd dc70 a0bd
000002e0: 9175 24bc 3c92 3cbc d724 653d 4f20 a4bd
000002f0: d987 f93d 4207 e33c d18e b6bd 928a 57bd
00000300: f09a 25bd 4613 8b3d f637 a53d 9880 383e
00000310: d618 31bd d537 bbbc 6ac5 283d eb29 84bc
00000320: 0b18 ddbd 0d8c 923d 24a9 e63d d7b3 d53c
00000330: 5cf6 913d dba9 b8bc e486 b93d 0e03 ecbc
00000340: 41a7 27bd 4b12 913c f03a 113e 39b6 b73d
00000350: a223 073c e21f 47bd 4901 6a3d d8b5 213d
00000360: b339 15bd 63a2 b23d c507 133d 1004 41bc
00000370: 0577 1dbd 41fe dcbd 9137 1e3c d179 54bc
00000380: 289c e03c bd5f 383d 451f 563d d653 593d
00000390: 56e4 b7bd 0707 a23c 87df 9d3c 99dc 333d
000003a0: bc14 323d 1065 323d 36b0 7a3c 23de e23c
000003b0: 1465 053e 9170 bfbd 68f6 05be fb8d 15bd
000003c0: 1d3a 17bd 26d0 403c b90b b33d 7cff c83c
000003d0: 14c5 d03c 0705 a53d cc3d 193d 1851 b0bd
000003e0: 09aa 49bd 646b 593e 5d8f 073d 05bc f43d
000003f0: c6d1 cdbd 056b 163d d130 87bd d866 cfbd
0.055976044 -0.061030865 -0.10659887 -0.08782036 0.06482579 0.08981009 0.035274286 -0.045680594
0.07172213 -0.024385814 0.039603855 0.069238864 -0.14577226 0.036039 0.080265425 0.015499327
-0.040656123 -0.062310733 -0.106878676 0.027994784 -0.013996332 -0.04550666 0.082685664 0.078829415
-0.09213883 -0.004667992 0.10916571 0.063130565 0.114731416 -0.0910283 0.049231093 -0.0049642636
0.0075898054 -0.0765427 0.018832091 0.06657377 0.0256845 -0.10340339 -0.083597384 -0.07366471
-0.031187316 -0.063503094 -0.0008480137 -0.07346614 0.09656269 0.0030215632 0.04633424 0.0014623808
0.011594596 -0.09949141 0.027044337 0.07682287 -0.036029264 -0.06770617 0.0403425 -0.012068463
0.05218781 -0.10193292 -0.11219241 0.07693733 -0.024000403 -0.008399606 0.047819052 0.016781652
-0.088548735 -0.10908939 -0.06184673 -0.1198265 -0.050711576 0.042940997 -0.046170816 -0.028239371
-0.11168324 0.05917099 -0.033663925 0.029417166 0.041214347 0.08950021 0.045021348 -0.032222558
-0.076408744 -0.0032542488 0.0066664196 -0.030660415 0.05946879 -0.057511352 0.012723901 -0.00023643131
0.03161971 -0.07117904 -0.024493469 0.07339975 -0.07344863 -0.015745401 0.060918864 -0.0022911194
0.021144783 0.0071243863 0.0015170767 0.06638407 0.06649504 -0.029334476 -0.10116406 0.07776161
-0.066404186 -0.012966312 0.056465715 0.0077115945 -0.013859179 -0.061488125 -0.028465271 -0.058482166
0.0079380805 -0.011679301 0.080252364 0.08515511 0.048244625 0.07252647 0.0696211 -0.007602078
-0.06854617 0.0569032 0.03209665 0.048014596 0.08567537 -0.040027 -0.021054292 0.02230419
0.009494994 0.023075616 -0.06225319 -0.041268025 -0.08161952 -0.12145627 -0.053107865 -0.020960106
-0.02744629 0.016379997 0.05509333 0.12624726 0.008997813 0.04629032 0.07129108 0.05049168
0.015146746 -0.024973087 -0.07461253 -0.008009117 0.065149546 0.05091527 -0.054223564 -0.021745276
-0.06953627 0.051234975 -0.011436841 0.140104 -0.0058792564 -0.08063601 0.0112932855 0.0028055753
-0.0046036355 -0.091566585 -0.047399495 0.11355168 -0.06706032 0.03519925 -0.055811804 0.005291435
-0.078615904 -0.08362452 0.07054182 -0.04582601 -0.06187684 -0.12560898 -0.037870955 -0.005145781
0.024508886 0.11389062 0.014149049 0.073713966 0.016560385 -0.061598558 -0.10493397 -0.07834026
-0.010037796 -0.011509474 0.055943336 -0.08013975 0.12184114 0.027713422 -0.08913959 -0.052622385
-0.040430963 0.067907855 0.08067314 0.18017805 -0.043236576 -0.022853771 0.041203894 -0.01613327
-0.107956015 0.07155619 0.1126273 0.02608673 0.071270674 -0.02254193 0.090589315 -0.02881005
-0.04093099 0.017708918 0.14182639 0.08970303 0.008248242 -0.04861439 0.057130132 0.03948006
-0.03643198 0.08722379 0.03589608 -0.011780754 -0.038443584 -0.107906826 0.009656803 -0.012968496
0.027418211 0.04501318 0.052275915 0.053058468 -0.089790985 0.019778742 0.019271625 0.04391155
0.043476805 0.043553412 0.015300801 0.027693814 0.1302684 -0.09347642 -0.13082278 -0.036512356
-0.036920656 0.011768376 0.0874247 0.024535887 0.0254846 0.080575995 0.03741245 -0.086092174
-0.049234424 0.21232373 0.033095706 0.119499244 -0.10049777 0.036723156 -0.06601108 -0.10127038

net.2.module.0.bias f4 [32]
00000000: 6fe2 86bd 947c 3dbd 71cb 35bd 6c23 923c
00000010: 9155 53bd 49c5 0e3d 5962 d7bc d95e 633d
00000020: 2112 193d 68b9 97bc f2cf 4d3d b623 9b3d
00000030: 27a0 c53b 54ff 9bbd 1236 0bbd 3b55 a13d
00000040: 68db 103d 2610 7e3d 38f8 31bc 76b5 a0bd
00000050: 4597 3dbd 601c 983d 2c7e b93d 0dc4 ef3c
00000060: 7b18 64bd 4fc9 21bd 04e5 26bd 835e 393d
00000070: 9c95 abbd 3854 593d 6b7d febc e7f3 71bd
-0.065861575 -0.046261385 -0.04438347 0.017839156 -0.051595274 0.034856115 -0.026292013 0.055510376
0.037370805 -0.018521026 0.05024714 0.07575171 0.0060310545 -0.07617059 -0.033987112 0.078775845
0.035365492 0.06202712 -0.010862403 -0.07847111 -0.04628684 0.07427287 0.090572685 0.029268289
-0.05568741 -0.039498623 -0.04074575 0.04525615 -0.08378145 0.053058833 -0.031065663 -0.059070494

net.3.module.0.weight f4 [32, 32, 3]
00000000: ba05 3d3d 6589 793d 9282 d8bd fb6e c73d
00000010: 44c7 0cbd 2e5a 55bc 82da 55bd a579 9cbd
00000020: 268e d43c 4a16 ad3c c081 793b 645c f5bc
00000030: 2842 3fbc 0100 2dbd ec4c 713d dfcd 873d
00000040: 5b3f 94bd 5141 243c a1ba c63c 22f5 323c
00000050: 8093 ef3c 351f a9bc cd9a b83d c73b 18bd
00000060: 8272 8ebc d01b 943d f7f9 81bd 62fa b23d
00000070: 9554 223b 7ee3 5ebd af65 df3c ac75 48bb
00000080: 66d5 97bd 7796 f6bd 73df 78bd 2e34 453d
00000090: ccf2 9ebd b4b9 293d 60b1 b93c 712f b6bc
000000a0: 148e 3d3d 9117 92bd 25e8 c23d de5b a4bd
000000b0: b91e 973d 6066 45bd f9b7 e93d 9707 90bd
000000c0: 44c1 5abd ab25 b03d db0b d7bd f534 9d3c
000000d0: 4575 55bd 3a02 2a3e 9979 f23d f1d4 bbbd
000000e0: 3345 d5bd f2c7 9ebd dce0 763d 746e 973d
000000f0: db28 5cbd aba5 74bd c103 c83d d2e6 aa3d
00000100: a475 cc3c 4d65 e0bc af96 543d f120 adbc
00000110: bc55 0e3e 9b62 c83c b5ee 14bd b9cc 9dbd
00000120: 1bf9 c1bd bd05 ab3d 413d 7c3c 59aa 173d
00000130: f817 e43d 2e7b a8bb 4446 863d 2f22 eb3c
00000140: cfd5 99bd e638 1e3d 0493 20bc 57f2 603d
00000150: fc01 96bd 27c8 c8bc d1ef 1abe 93e2 4ebd
00000160: e46d 463d 92c1 61bd 0871 65bc e8eb 4fbc
00000170: 15b7 d4bc 20e7 8cbd 5582 b03a 9e0f d4bd
00000180: c8c0 693a 8b29 0bbe f5e8 4cbc 84d2 6fbd
00000190: e5ca 503d 8914 8ebd 2a2b 5fbd 83c8 d2bd
000001a0: d02d 04bc 160c 5f3c a744 323d 80e6 253c
000001b0: ef30 173e 195d db3c fa43 debd dc4a 36bc
000001c0: c129 84bd f4e1 0b3b 9524 fa3d 6233 d4bc
000001d0: 0f7b be3d b592 f6bd 16d0 97bd 8eb9 a6bd
000001e0: e26d cebd b597 963d 8684 abbd bce7 04be
000001f0: 2ca2 6f3d 60db f73d 0d3d d3bc 7e31 30bc
00000200: 57a3 a2bd 3e16 36bc 1bc8 3b3d 9c43 acbb
00000210: 9897 44bd 5d9a afbb 8577 cabd ebfb 8f3d
00000220: 817b 053d eda1 18be 1803 1e3d a70f 3bbc
00000230: 6d9b 98bd 563f 553d c6ac 873d ecc5 2d3e
00000240: e73f 243d 6c7a 903c 3217 05bd 95c9 aa3d
00000250: 4b85 e63d 5042 063e 1000 08be 7879 a6bd
00000260: e494 f0bd 7de5 263e 2322 7dbd c6ac b2bc
00000270: 1492 01bc 84b2 a33d 3b27 813d ca3a c3bc
00000280: f7b6 9c3d d9d8 1b3d b664 fd3d a78c 023e
00000290: 6c6b ec3d 15b0 1bbe de22 3c3d 9370 e8bd
000002a0: f8ca 33bd b2e2 7d3c 6366 e63d 43f0 b0bd
000002b0: f670 31bd 8a33 3e3d afda d0bc e75c f03b
000002c0: 353b 9cbc 6c4b 47bd d248 fdbc bd30 8a3d
000002d0: 7870 68bd f993 9ebd bae4 20bd 50d2 c43c
000002e0: 3af9 5d3d e88f 2d3d f061 8e3c b3af cb3d
000002f0: 0fd4 e43d 0333 223b 4abc aebd e37a 903c
00000300: 0cfd b1bc 57b8 d1bd e17c d0bd 764c cb3d
00000310: 4b4d e73a a9ac 31bd 0c25 1a3d 9f3e c0bd
00000320: f271 f3bd c44b 963d f437 403d 6ff4 92bd
00000330: 3e1d 7d3d 958f 0fbd 0c64 62bd 115b cabd
00000340: 12b2 6dbd 36b4 763c f157 d63d fe24 933d
00000350: 428c a63d 6d54 19be 335d 223d 0384 b7bd
00000360: 8640 8fbd 9312 70bd d648 c63c 0d60 84bd
00000370: 23ab c53d 8471 ec3b c69b 5c3d 2bf1 c93d
00000380: d488 82bc 891e 4f3d 877e a2bc 2349 7dbd
00000390: 206c 8f3d dc24 4abd a97e 503c fa29 39bd
000003a0: c3fc a8bd 99d8 8b3d d210 7b3d 27fa 133d
000003b0: 980b 9c3d 15a7 1b3e c502 07be 39a6 953d
000003c0: e626 4abd 86a0 ad3c cf1f 50bd 8901 6f3c
000003d0: c563 18bc d617 85bb 6afb f2bc 35de 583c
000003e0: 3ffe 96bd 299f cd3c ebbb 15bd 7dce e33c
000003f0: 32df 4bbd ae8c d73c e512 a2bd 3386 90bd
0.04614804 0.060922045 -0.10571779 0.09737965 -0.034369722 -0.013021989 -0.05221034 -0.07640389
0.025946688 0.021128792 0.0038071722 -0.029951282 -0.011673488 -0.04223633 0.05891125 0.06631064
-0.072386466 0.010025338 0.024258913 0.010922702 0.029245138 -0.020644763 0.09013901 -0.037166383
-0.017388586 0.07231867 -0.06346505 0.08739163 0.0024769653 -0.054416172 0.027270166 -0.0030587716
-0.074137494 -0.12040418 -0.060759973 0.048145466 -0.077611536 0.041436866 0.022667587 -0.022239419
0.046278074 -0.07133401 0.09516934 -0.08025335 0.07378907 -0.048193336 0.11412043 -0.07032698
-0.05340697 0.086009346 -0.10500308 0.019190291 -0.05211379 0.16602412 0.11839599 -0.09171475
-0.10413589 -0.0775298 0.060273036 0.07394114 -0.0537499 -0.059728306 0.09766341 0.08344807
0.02495844 -0.027392054 0.051901516 -0.021133872 0.13899893 0.024461081 -0.03636046 -0.077050634
-0.09471341 0.08350704 0.015395463 0.03702769 0.11137384 -0.0051416373 0.06556371 0.028702823
-0.07511484 0.03862848 -0.009800676 0.054918613 -0.07324597 -0.024509503 -0.15130545 -0.050509047
0.048444644 -0.055116244 -0.0140039995 -0.012690522 -0.025966207 -0.06880021 0.0013466576 -0.10354541
0.0008916971 -0.13590066 -0.012506713 -0.058550373 0.050974745 -0.069375105 -0.054484524 -0.10292151
-0.008067563 0.013613721 0.043522503 0.010125756 0.1476476 0.02677779 -0.10852809 -0.011126246
-0.064532764 0.0021344395 0.12214009 -0.025903407 0.09300815 -0.12039701 -0.07412736 -0.081408605
-0.10079552 0.073531546 -0.08374886 -0.12979025 0.05850427 0.12102389 -0.025785947 -0.010753987
-0.07941311 -0.011113701 0.045845132 -0.005257083 -0.047996134 -0.0053589777 -0.09886078 0.070304714
0.032588486 -0.1490552 0.03857717 -0.011417306 -0.0745152 0.052062355 0.06624751 0.16970032
0.040100005 0.0176365 -0.032492824 0.0833923 0.11255892 0.13111234 -0.13281274 -0.08128637
-0.11747149 0.1629848 -0.061800133 -0.0218109 -0.007908363 0.079930335 0.06306311 -0.023831744
0.07652085 0.0380486 0.12372725 0.12748967 0.115439266 -0.15203889 0.04593169 -0.11349597
-0.043894738 0.015495943 0.112499975 -0.08639576 -0.04332062 0.04643587 -0.025494901 0.0073352936
-0.0190712 -0.048655912 -0.030918512 0.06747577 -0.056747884 -0.07743067 -0.03928063 0.024026066
0.05419276 0.042373568 0.017380685 0.09945621 0.111732595 0.0024749644 -0.08532007 0.017636722
-0.021727107 -0.10240238 -0.10180069 0.09926693 0.0017646936 -0.043377552 0.037632987 -0.09386944
-0.11886968 0.0733867 0.04692836 -0.07175528 0.061795466 -0.03504904 -0.055271193 -0.09880651
-0.05803115 0.015057614 0.10465992 0.0718479 0.08132221 -0.14973612 0.039639663 -0.08960726
-0.06994729 -0.058611464 0.024204653 -0.06463633 0.09651782 0.0072156806 0.053859495 0.09860452
-0.015934385 0.05056623 -0.019835724 -0.061837327 0.07003045 -0.049351558 0.012725511 -0.045206048
-0.082513355 0.06828422 0.061295338 0.036127236 0.07619399 0.15200455 -0.1318465 0.07307095
-0.049353503 0.021194708 -0.050811585 0.014587768 -0.009301131 -0.0040616794 -0.0296609 0.013236572
-0.07372712 0.025100308 -0.036556166 0.027808422 -0.049773403 0.026312198 -0.0791376 -0.070568465

net.3.module.0.bias f4 [32]
00000000: 9f6b 2fbd 5faf dcbb 445c 5b3c a06e bcbd
00000010: 52fb 08bc a24b 64bd 27aa 44bd 83b3 d63c
00000020: 58c8 88bd 3ec6 883d aef2 6a3d 786d 35bd
00000030: 1cbf ba3c 386a 4a3d 4320 95bd e200 823c
00000040: 2df0 993d 5f73 9dbd 9b2b c73d 7456 29bd
00000050: e42d 1f3d 5076 963d a641 bcbb 47b7 43bc
00000060: bcd7 89bb 5dae 31bd e755 42bd 324d c73d
00000070: 7578 8d3d b538 abbc 863b a53d 61c2 bcbd
-0.042827245 -0.006734773 0.013388697 -0.092007875 -0.008360701 -0.05573619 -0.048013832 0.026208645
-0.066788375 0.06678437 0.057360344 -0.04429385 0.022796206 0.049417704 -0.07281544 0.015869562
0.07516513 -0.07688021 0.09725114 -0.041342214 0.038862124 0.07346785 -0.0057451306 -0.011945552
-0.0042066257 -0.043379176 -0.047445204 0.09731521 0.06907741 -0.020901063 0.08067994 -0.09216762

net.4.module.0.weight f4 [32, 32, 3]
00000000: 6a6c 02be bf3c b03c 7cc2 943d 85fe 87bd
00000010: 7b9b 573c 81c5 5f3d 16b6 3a3d cffd f2bc
00000020: eeb5 e13d c6ef d0bd 319d 9a3b fa3a 96bc
00000030: a248 6b3c 8743 25bd 967a 713d b018 213d
00000040: 4639 9b3c ceee 5fbd da44 c83c 1077 533d
00000050: 1ffe bd3d 0475 f0bd a2da 8ebc 55f2 2ebd
00000060: 504a 733d 567d 8b3d b93b e83c d510 113d
00000070: cade 863b 0831 253e f44f 09bd 8a4c ed3a
00000080: 228a 63bd 73d9 a63d 004e aebc 10fd 8fbc
00000090: 4787 6bbd ab8a f6bd 1ba7 3abc bd4b 90bd
000000a0: 20cd 8d3d e888 643d 42a3 b13d ea5a e2bd
000000b0: afc2 b43d 4bfc b0bd 483d b23c 80d7 453d
000000c0: 127c f13d 088b 3a3d c530 bebd 9f0e 1a3d
000000d0: a5d2 fe3d daa7 f43d 8dcb b63d eccd 403d
000000e0: e30e b9bd c19e c5bd 89af 03bd 605f 32bc
000000f0: 6023 103d 1c5d c23c 14db 56bd 18e2 2b3d
00000100: 86e3 e9bc 681f b2bb a695 003e 76f3 8bbb
00000110: 26a2 c73d 515e 32bd 099a 7dbd 7b4e 08be
00000120: f6aa e53c efee eebd 3ebb 043d 5362 93bd
00000130: 3833 7abd 25d8 863d 38b6 913d c42f 8fbd
00000140: f29f 433c 58bb 81bc 7329 c13d c6f7 b3bc
00000150: 551f 943d a9eb f0bc 64d4 a2bd a4f7 9c3d
00000160: 036a d43d 2c26 c73d a181 5cbd 6b93 8a3d
00000170: 6119 603b 3284 08bd ad2b 50bd 74c7 24bd
00000180: 4f23 84bd ce8c 66bd a718 8d3d ea86 b83d
00000190: 5dce 803c 3918 753c fc95 9cbd 2823 5bbd
000001a0: 7be3 9abd 74be 0cbe 961a ad3d 31d1 aebc
000001b0: 6547 323d 056c c43c 07e7 99bd 49c2 e1bd
000001c0: a088 2f3d 75e5 9c3c 864a 053d 3cee 07bd
000001d0: aada adbd 836f b4bd 126d ddbd 1126 87bc
000001e0: f2d5 c6bd 2f99 403d 31e4 b6bd 7888 633d
000001f0: 8a22 eebb 4479 a73d 7fa5 9c3c 6e57 a03c
00000200: 038b a5bb 1393 ee3d 4d26 513d 4890 ce3d
00000210: e364 b0bc 957b c33d 2597 c43c a018 e63c
00000220: aafb c9bc bf0e c6bd a7c7 13be c562 38bd
00000230: 8e54 913d 9aaf 15be cd74 b23d 0356 e43d
00000240: c51f 403d d7d1 203c df70 023e 2707 673d
00000250: 713f 64bd 888d ee3d a476 dc3b 6752 d2bd
00000260: 8e92 583d a15f b23d 0e30 623d 21a9 a33d
00000270: b5b6 0c3e eabe 0c3d f5c8 0ebd 7d96 2f3d
00000280: 2c32 c83c e586 563c 9152 773d 8833 933d
00000290: f768 ea3c 822d 22bd 3b35 7ebd bbf1 0cbd
000002a0: 7df7 abbc 5297 c5bc 42d1 a33d 1049 a13d
000002b0: bc18 613d 2967 4a3d b74c c4bd b9ab b4bd
000002c0: c5d6 6a3d c2a0 003b 1e65 c13d bd4b 843d
000002d0: df06 eabd 59b1 3abd 14c2 76bd bb77 20be
000002e0: b1ae 13bd 35f5 17bd 7242 a03d 77f6 ccbc
000002f0: fa8c 10bd 7140 4e3d 497a 10bc 2c06 913d
00000300: f981 343d 53d8 aebc 197a 73bd c740 ed3d
00000310: 4ad0 2e3d b005 843d 33d3 333d d401 b4bd
00000320: a89f 80bc a5c5 45be 40ff 0dbd 503c 9c3d
00000330: fe6f 8dbd ab51 d93b 8f71 b0bd fe8c 24be
00000340: 219a d23d 572a 643d 02a6 5cbd d3f0 b2bd
00000350: 34af 9c3d 2f66 303d 56e2 24bd 1d83 0fbe
00000360: 793f 1fbd 2884 c43d 4ea2 843d 3351 123c
00000370: cdef a6bd d78a df3d 083c 0f3d 1806 4fbd
00000380: 7339 1e3d 3cef 8e3d cb1a 10bd 6c45 a3bd
00000390: 934c b2bd 79cd df3d d60b 4dbd 26bc 1abd
000003a0: f43d c0bb 7c18 9eba b688 0ebe 0f32 09bb
000003b0: f24e 9b3d 5b51 d53d 0cd6 f6bd a5ce acbb
000003c0: 232a c5bd 3178 0e3c 21ff 4d3d 6c0f cbbc
000003d0: a851 d0bd e9c2 dd3d 56a2 b2bc 27e8 7b3d
000003e0: a1d4 993d 73c9 81bd 0a2f 363d d09d 8bbd
000003f0: 071a 893c ca73 c6bc f4cf 9a3d 0981 2ebd
-0.12736669 0.021513341 0.072636575 -0.066403426 0.013159628 0.054631714 0.045583807 -0.029662041
0.110210285 -0.10201983 0.0047184457 -0.01833867 0.014360579 -0.040347602 0.058954798 0.039330184
0.018948209 -0.0546711 0.024446893 0.05162722 0.092769854 -0.11741069 -0.017438237 -0.042711575
0.05939704 0.06811015 0.02834879 0.035416443 0.004115914 0.16131985 -0.033523515 0.0018104475
-0.055551656 0.08146944 -0.021277428 -0.017576724 -0.057502057 -0.120381676 -0.01139238 -0.07045696
0.0692389 0.055794626 0.08673717 -0.11052497 0.088261954 -0.08641871 0.021757737 0.04830122
0.11791243 0.045542747 -0.09286646 0.0376116 0.12442521 0.11946078 0.08925543 0.047071382
-0.090360425 -0.096494205 -0.032149825 -0.010886997 0.035189986 0.023726039 -0.052455023 0.041963667
-0.028550874 -0.005435873 0.12557086 -0.004270966 0.09747724 -0.04354698 -0.061914477 -0.13311188
0.028035622 -0.11666667 0.03240513 -0.07196488 -0.061084002 0.06584195 0.071148336 -0.069915324
0.011939989 -0.015836403 0.09431734 -0.021968734 0.072325386 -0.029409247 -0.079506665 0.07664421
0.10371783 0.097240776 -0.05383456 0.06766399 0.0034194815 -0.033329196 -0.050822902 -0.040229276
-0.06452047 -0.056286626 0.06889468 0.09010108 0.015723402 0.014959388 -0.07645795 -0.053500324
-0.0756292 -0.13744527 0.084523365 -0.021339985 0.04352512 0.023977289 -0.07514768 -0.11023385
0.042854905 0.019152382 0.032541774 -0.033186182 -0.084889725 -0.08810332 -0.10811819 -0.016497644
-0.097087756 0.047021087 -0.08930243 0.05555007 -0.007267301 0.081774265 0.019121883 0.01957294
-0.005051972 0.11649146 0.051061917 0.10086113 -0.021532482 0.09545056 0.023997853 0.028087914
-0.024656136 -0.09670781 -0.1443163 -0.04501607 0.07096206 -0.14617768 0.08713684 0.11149218
0.046905298 0.009815655 0.1273837 0.056403305 -0.055724565 0.11648089 0.0067280103 -0.10269623
0.05287414 0.08709646 0.05522161 0.07991243 0.13741572 0.034361757 -0.034859616 0.042868126
0.024437986 0.013093685 0.060381476 0.07187563 0.028614504 -0.03959418 -0.062062483 -0.03441022
-0.020992035 -0.024120007 0.07998897 0.07875264 0.05495523 0.049414787 -0.09584945 -0.08821816
0.057333726 0.001962707 0.09443115 0.064597584 -0.11427092 -0.04557929 -0.06024368 -0.15670674
-0.03605527 -0.037099082 0.078251734 -0.025019867 -0.035290696 0.050354425 -0.008818218 0.07081255
0.044069264 -0.021343386 -0.059442613 0.11584621 0.04267911 0.06446397 0.043902587 -0.08789411
-0.01570113 -0.19313677 -0.034667253 0.07628691 -0.069061264 0.00663205 -0.086154096 -0.16069409
0.10283304 0.05570444 -0.053869255 -0.0873734 0.07650605 0.0430662 -0.040254913 -0.1401486
-0.03887889 0.09595519 0.0647627 0.008930492 -0.08151207 0.109151535 0.03496936 -0.05054292
0.038629007 0.06979224 -0.0351818 -0.079722255 -0.087060116 0.10927863 -0.050060116 -0.03777709
-0.0058667604 -0.001206174 -0.13919339 -0.0020934378 0.07583417 0.10415908 -0.12052545 -0.0052736574
-0.096271776 0.008695648 0.050292138 -0.024787627 -0.10171825 0.10828192 -0.021805923 0.061500695
0.07511259 -0.063372515 0.044478454 -0.0681721 0.016736044 -0.024225134 0.07559195 -0.042603526

net.4.module.0.bias f4 [32]
00000000: 8afc d63c 7c0f fe3c 0c22 b83c 1b0a abbd
00000010: f4db 59bc eb4f 76bc 0c38 81bd f8c4 d73c
00000020: 17da 8f3d da33 0f3d 80bf f93c 289b 65bd
00000030: 2c5c 1f3d 2f76 26bd e720 80bd 07b3 6f3d
00000040: 6fb5 743c 5e39 c83c 9ed4 b7bd 372d ab3d
00000050: 2c92 a5bc fca3 1dbc 3f5b 943d 96bf 743d
00000060: 9776 c8bc d35d f63c 66d9 d6bc ae86 053d
00000070: 8c14 3cbd ea79 f6bc e519 dc3d 0c54 a43c
0.026243467 0.031013243 0.022477172 -0.08351537 -0.01329707 -0.015033702 -0.06309518 0.02633904
0.07024019 0.03496156 0.030486822 -0.05605617 0.03890626 -0.040640052 -0.062562756 0.058520343
0.014935835 0.024441417 -0.089761004 0.083582334 -0.020211302 -0.009621616 0.07243966 0.059753023
-0.02447061 0.030074036 -0.02622671 0.032599144 -0.045918033 -0.03008743 0.107471265 0.020059608

net.5.weight f4 [8, 32, 3]
00000000: c113 d63d 8573 56bc 582d f5bd abe9 63bd
00000010: 8dda 26bd f169 10bd d0ec d53c d4a1 843d
00000020: 9dca d23d 0076 d8bc bae6 843d 90d6 c2bc
00000030: 15ac 9abb a6dd 9bbd aa32 54bd 6065 31bd
00000040: 11e1 a43b 5b7d abbd d952 81bd 5999 4abd
00000050: 3700 1fbb 610a ce3d 4e1e 6e3d 8aed 923c
00000060: 44ac 113d 389a 513d e709 723d 00cd 773d
00000070: f29b 463d 05b5 10be 6bc4 e4bc 1f33 8f3d
00000080: 919a 90bd 90c1 fabd 644c b73c 3e18 88bc
00000090: 65aa 143d fd8e 463d 1e9b 623d bf73 7e3d
000000a0: 3f14 7e3d 3d74 8fbd 9a49 ba3d c16e 22bd
000000b0: 165e 383c 296a b13d 3e20 833c dc3a d4bd
000000c0: 9143 d43d 2c34 58bd 51ef debd 42e1 933d
000000d0: 9cca 64bd 65fa 85bd 44d5 25bc bb1b 90bd
000000e0: f980 f7bc 4f1a 2dbc d22a 02bd 6b01 b43d
000000f0: 2c7a 4e3c 0cf2 41bd 8871 b1bd 387a a43d
00000100: ab7d a13d 751f 693d 4fe1 8d3d 8b1f bc3b
00000110: b737 393d 70ee c83b 2fb7 5bbd e7e0 d63d
00000120: ad56 a9bd 674c 743c 7243 30bc 759d 4bbd
00000130: 8baf 713d 79e3 e23d 9fcd 82bd e8a5 04bc
00000140: 8869 82bd 8ad2 31bb e7a0 b3bd b20c 69bc
00000150: 8ae7 cbbb 840f bd3c 1d29 de3c c66c 8a3c
00000160: 2c6d f8bc a7fd c3bb 8cd1 5c3c fd22 043d
00000170: 924e b4bc e671 193d cda9 25bd 10a9 973d
00000180: ea05 89bd f3da c5bd 9db3 54bd 15c6 ecbd
00000190: 0733 a6bd d2ae a03d 567b 74bd 9abb aa3d
000001a0: 5b22 743c f3c9 34bc 34b9 453d d7d8 c7bd
000001b0: e86e 023d d344 6b3d e6e1 963d df06 85bd
000001c0: 8e2e 46bd 536f 6c3d 8eb4 99bd 1251 31bd
000001d0: f1ae 87bd ea1e 553d 17e3 97bd c490 f83c
000001e0: d878 123d 1deb c03d d13b 513c ac92 2abd
000001f0: 364a 9abd 034d 4ebc 928d 5abd a079 85bb
00000200: a8e8 46bc 39ff f2bd b2d5 8e3d 0a28 753d
00000210: f1ac 4fbc e539 103d 332a cebb 2033 fa3d
00000220: ed39 c73d f641 423d cfb1 a43d be8a 9dbd
00000230: a0bf 99bd e809 94bd 93f7 66bd 95c3 ab38
00000240: 8d29 4fbd 4c5f 123d 3fd4 6bbd 5a14 013d
00000250: eed1 1e3d 3bb9 09be 996c eabc 69ef a4bd
00000260: e07a a43d fbc1 d1bc c242 fabd 249a 96bd
00000270: b2f7 473d 10c4 263d 3b6e 04bd fdf8 4bbd
00000280: 92c6 8b3d eec7 72bd 3469 923d 2166 4ebd
00000290: da86 90bb 0df5 de3d 8db8 b53d f734 873a
000002a0: 7b24 953d 4787 a63c d846 85bd af2d 933d
000002b0: dd1a ab3d 57e7 cbbd e8fa acbd e5af 12bd
000002c0: ba13 bf3d 6649 ce3d f44e 853d 1660 c23c
000002d0: 2a71 a73d 7e46 b13c 6067 0d3e 6cd9 a0bd
000002e0: 42b0 1bbd 9646 f5bb acb9 eb3d 4592 37bd
000002f0: 246c d63d fcbe c53d 11d7 db3d d854 cfbd
00000300: 22a7 81bd 580f 6dbd b34e 833d 58e5 8a3d
00000310: 180d 1ebd 001c 73bd af0a c53d 468e 2ebd
00000320: c10d 89bd 7f43 053d 079e 4b3d b556 0ebd
00000330: d0c8 ccbc 6e56 b2bd d7db fabc c1a5 f0bd
00000340: 2fb8 f73b 3405 f0bd a22b e73c c044 98bd
00000350: b8d9 0e3d 749f 813c bfce 573d d6a1 55bd
00000360: bad3 f6bc b835 f3bc b485 37bd cbca d63c
00000370: cbe1 a83d c190 473d 4b95 7ebd 55ad 11bd
00000380: 1946 37bc 8583 613d 8f48 9c3d 0b73 963d
00000390: 2bec 7d3d ec43 4b3d 52e4 d5bd 1b58 b7bd
000003a0: a9e1 7ebb 2e02 633d 06ce 273d 2e4d a5bd
000003b0: 54e9 a03c 1022 98bd b187 353b 3123 c1bd
000003c0: 6619 123d 5533 94bd 1cb3 4c3d 8d8f 873d
000003d0: 2c8a adbb 6f5e 143d b2f3 1cbd 3e94 2ebd
000003e0: 031c cdbd 4d43 ca3d a6a2 413c 1d12 8a3d
000003f0: 1a9c ae3d 3be0 bd3c 6311 8c3c 9e49 35bd
0.104529865 -0.013089065 -0.11971539 -0.055642765 -0.04073577 -0.035257284 0.026113898 0.06476179
0.10292552 -0.026423454 0.0648932 -0.023783952 -0.004720221 -0.076106355 -0.05180613 -0.04330957
0.005031713 -0.08373519 -0.0631463 -0.04946265 -0.0024261603 0.10060573 0.05813437 0.017935533
0.035564676 0.051172465 0.059091475 0.060498238 0.048488565 -0.14131553 -0.02792569 0.069921724
-0.07060731 -0.1224395 0.022375293 -0.016613122 0.036295313 0.048476208 0.055323713 0.062122103
0.062031027 -0.070045926 0.0909607 -0.039656404 0.011252901 0.086628266 0.016006585 -0.10362789
0.1036445 -0.05278413 -0.1088549 0.07220699 -0.055857286 -0.065418996 -0.010121647 -0.07036539
-0.030212866 -0.0105653545 -0.031779118 0.08789333 0.01260237 -0.047349975 -0.086642325 0.08031124
0.078852974 0.056914765 0.0692774 0.005741065 0.04521915 0.0061319396 -0.053641494 0.104921155
-0.08268485 0.014910794 -0.010758268 -0.04971071 0.0590053 0.11078543 -0.06386875 -0.008096196
-0.06367785 -0.0027133548 -0.08770924 -0.014224218 -0.00622267 0.023078687 0.027119214 0.01689757
-0.030325495 -0.0059811655 0.013477694 0.03225993 -0.022010121 0.037462138 -0.040445138 0.07405293
-0.06690581 -0.09660902 -0.051929105 -0.11561219 -0.081152014 0.07845844 -0.059687935 0.083365634
0.014900769 -0.011034477 0.048272327 -0.09758156 0.03184405 0.057438683 0.073673055 -0.06495451
-0.04838424 0.057723355 -0.07505141 -0.043290205 -0.06625164 0.052031435 -0.07416361 0.030342467
0.035759777 0.09419844 0.012770609 -0.041643783 -0.07533686 -0.012591603 -0.05335767 -0.0040733367
-0.0121404305 -0.11865086 0.06974353 0.059852637 -0.01267551 0.035211463 -0.0062916516 0.122167826
0.09727845 0.047426187 0.08041727 -0.076924786 -0.07507253 -0.07228452 -0.05638845 8.1903454e-05
-0.050576735 0.035735413 -0.05757546 0.03151355 0.038774423 -0.13449566 -0.028616237 -0.08053476
0.08031249 -0.025605192 -0.12219764 -0.07353619 0.048820205 0.040714324 -0.032331686 -0.049798
0.06824984 -0.0592727 0.07148972 -0.050390366 -0.004410607 0.108865835 0.08873091 0.0010315467
0.07282349 0.020328177 -0.06507653 0.07186448 0.08354733 -0.09956234 -0.08446294 -0.035812277
0.093299344 0.100725934 0.065092 0.023727458 0.08175881 0.021640059 0.13808966 -0.0785397
-0.03800989 -0.007485221 0.115100235 -0.044817228 0.10469845 0.09655568 0.1073438 -0.101236045
-0.06330706 -0.05787596 0.06411495 0.06782025 -0.038586706 -0.059352875 0.09621178 -0.04261615
-0.066920765 0.032535072 0.049711253 -0.03475066 -0.024998099 -0.087078914 -0.030622406 -0.11750365
0.007559798 -0.117197424 0.028219048 -0.07434988 0.0348756 0.015823103 0.052687403 -0.052156292
-0.030130256 -0.029688701 -0.044805244 0.026219746 0.082461916 0.048722032 -0.062154096 -0.035565693
-0.011186146 0.055057067 0.07631027 0.073461615 0.061992805 0.049625322 -0.10443939 -0.08952352
-0.0038891828 0.055422 0.040967964 -0.080713615 0.01964251 -0.07428372 0.0027699287 -0.0943054
0.035668753 -0.07236353 0.0499755 0.06619177 -0.0052960124 0.03622287 -0.038318343 -0.042621844
-0.100151084 0.09876118 0.011818564 0.06741736 0.08525868 0.02317821 0.017098134 -0.04425966

net.5.bias f4 [8]
00000000: cf52 80bd 84ac acbd 7551 183d 38ce 813d
00000010: a106 6f3d 69a5 43bd f254 693c 591b e2bc
-0.062657945 -0.08431342 0.03718706 0.06338161 0.05835593 -0.04776517 0.014241444 -0.027600931

exp_avg f4 [32, 120, 2]
00000000: 951d 9637 1ddf 11b8 d957 27b9 b1d4 e5b8
00000010: 0d1d 3039 1747 a239 16e7 20b9 1564 6bb9
00000020: 566f 0339 dd42 40b9 b91c 8c3a 1397 003a
00000030: a657 6438 da2c 4db8 cd3d f2b8 353d 3f3a
00000040: 721f 3438 6b6f 5538 e2db 27b7 3060 a3b5
00000050: b0fd 6f38 66cf 4839 9df0 db39 5fc7 283a
00000060: d81f 3838 1b8c 83b8 ba07 1aba 7cf5 6bba
00000070: 36ce e239 834f 5a3a d2dc 913a 2b0e 763a
00000080: cec0 d039 b1be 1139 275b 3cb8 d47a deb7
00000090: 0544 003a 3065 4839 30a9 0539 524b 65b9
000000a0: 87e1 9339 620e 013a 2ff0 7139 c2a9 3839
000000b0: f679 ac39 1a2f 4839 ed72 693a 8a44 913a
000000c0: 9001 343a 7ddb bb3a 8e1b b1b9 bb76 8a3a
000000d0: 745b 4338 a2f3 2e38 54ea 3a37 4bb2 1737
000000e0: b689 5d38 98e4 9338 a379 9939 8b71 a039
000000f0: 769f f4b8 3d14 05b9 b3b6 3539 d51e 1938
00000100: 9ad4 f737 8270 9338 ed90 f238 4392 d438
00000110: cac7 ce39 af1a 2539 89b7 aa38 e54a 19b8
00000120: be5f 5ab9 d303 47b8 8d69 70b8 f9be 1938
00000130: 5abd 89b8 ef52 79b7 0000 0000 0000 0000
00000140: a0fd 113b 0613 d03a a1d0 1638 8425 d838
00000150: 97c2 89b8 59cb dcb8 a778 bcb7 38f4 b539
00000160: 973f 1a39 1686 0938 f593 8a37 7b01 0639
00000170: 8b81 4bb9 f4f5 1138 04f7 1cb9 9224 9fb9
00000180: 560c af39 9b64 1e39 96bd ee37 d752 a4b7
00000190: 433b 86b8 43db a1b8 4933 a43a c6d8 c23a
000001a0: ff97 b839 6fd9 ad39 c599 4c38 dbd3 e739
000001b0: 73a1 54b7 83e8 0439 a3a3 063a bbbd e939
000001c0: 7d6d 5b39 3759 80b9 b635 2e37 8995 e535
000001d0: 95a5 bb38 46c5 5ab8 c289 71b9 e3c7 80b8
000001e0: 579b 323a d0d4 9a39 3c01 6936 297b 0736
000001f0: aacd 1fb9 79d0 b937 4f13 ac39 f504 a939
00000200: 5d08 a538 2525 df38 1def 9936 7099 5837
00000210: bd34 18ba 1317 81b9 d1d6 f439 0cc4 483a
00000220: 7638 1cb8 5514 00b8 5602 dbb8 1bdc 2538
00000230: 4bc0 34b9 6083 32b9 cf55 2bb7 6166 283a
00000240: 3e58 e438 7f66 4eb9 ee63 29b9 b3d0 bab8
00000250: d79e 5e38 a2cf c938 459e 4737 8bc0 0f38
00000260: 7183 14b9 be0d 4db9 f1a6 e238 d04a d2b7
00000270: 46a3 c4b9 5d0d ffb9 07ed b339 888a 2c3a
00000280: da5c 1639 973b d9b9 4bbe 1b38 96ea b1b8
00000290: c3ea 5d39 6318 7639 a8aa 7b39 0ff0 d438
000002a0: 97a0 5cb9 176d 083a 2785 fe38 760b 8938
000002b0: 11fd 8db9 2379 ce39 7adc 83b9 bca2 bd38
000002c0: f416 d639 0ebe a039 0eb0 fc39 b4e0 4f3a
000002d0: d283 5b38 645e 23b7 a718 6e38 148d 523a
000002e0: 6623 fb38 fa61 88b9 b5c8 27b7 0a04 59b9
000002f0: e241 adb7 025b 1638 4740 f739 a7f2 d939
00000300: 9fe7 68b9 fd5b dfb8 bd23 163a 7925 2939
00000310: 32f5 fcb4 1177 e7b8 60b2 3b37 51bc 7739
00000320: 5bce 70b7 dfe7 6ab8 f5e6 d438 15c3 b038
00000330: f8f9 5e38 8c26 03b9 ed4e b2b7 707c 0b39
00000340: c999 c639 9a68 ed39 70e4 76b8 917c 4ab8
00000350: ab4d 88b9 03b6 07ba 1944 9838 8b2a bf38
00000360: 70eb a9b8 af8f 63b9 49c1 fe39 bf69 1d3a
00000370: 4fef 24ba aa56 7bb9 d4a3 723a 6906 993a
00000380: b961 2c3a baf5 4f3a 5d14 c037 5e88 9137
00000390: 364b 54b8 e7f6 9838 1f82 edb8 b381 073a
000003a0: 7018 d6b8 c6ef 01b9 e03d 6638 d953 5539
000003b0: d56a 3139 54c9 0e39 bb1d d338 f2e8 2e39
000003c0: 44db 4138 c957 2838 993d fbb7 63ca 7338
000003d0: 6e74 b1b9 4ddd 12ba 4181 98b9 716a 12b9
000003e0: bcc3 7db9 ec4a 17ba 1971 00bb b774 e8ba
000003f0: d273 a4b9 71ff 8fb9 a15e 72ba ff3f f9ba
1.7895169e-05 -3.4778484e-05 -0.00015959087 -0.00010959188 0.0001679549 0.00030952014 -0.00015344875 -0.0002244863
0.0001253461 -0.00018335455 0.0010689712 0.00049053243 5.4441065e-05 -4.891758e-05 -0.000115509705 0.00072951923
4.294463e-05 5.0886923e-05 -1.0005171e-05 -1.2172441e-06 5.7218305e-05 0.00019150748 0.00041950206 0.00064384
4.3898675e-05 -6.2726634e-05 -0.0005875785 -0.00090011186 0.00043259718 0.0008327888 0.0011128432 0.00093862665
0.00039816502 0.00013899316 -4.4907585e-05 -2.6521659e-05 0.0004892948 0.00019111182 0.00012746896 -0.00021867201
0.00028206056 0.00049231027 0.00023073026 0.00017610847 0.00032897264 0.00019091033 0.000890537 0.0011083048
0.0006866688 0.001433238 -0.000337806 0.0010563949 4.6576795e-05 4.1711734e-05 1.1141023e-05 9.041813e-06
5.281876e-05 7.052085e-05 0.0002927306 0.00030602174 -0.000116645286 -0.00012691408 0.00017329566 3.6506757e-05
2.9543695e-05 7.0304624e-05 0.00011566454 0.00010136191 0.00039440236 0.00015745567 8.140418e-05 -3.6547794e-05
-0.00020825767 -4.744886e-05 -5.731876e-05 3.66559e-05 -6.5679385e-05 -1.4860866e-05 0.0 0.0
0.0022276416 0.001587481 3.5957088e-05 0.000103066704 -6.568914e-05 -0.00010528294 -2.246753e-05 0.00034704967
0.00014710274 3.2788223e-05 1.651978e-05 0.00012779787 -0.00019407847 3.4799756e-05 -0.0001496934 -0.0003035409
0.00033387792 0.00015105533 2.8460094e-05 -1.9588899e-05 -6.400656e-05 -7.717919e-05 0.0012527491 0.0014865629
0.0003520846 0.00033159132 4.87806e-05 0.00044217598 -1.2673775e-05 0.00012675118 0.0005136078 0.00044582583
0.00020926255 -0.00024480533 1.0383714e-05 1.710535e-06 8.947697e-05 -5.2158975e-05 -0.0002303487 -6.1407474e-05
0.00068133086 0.00029531727 3.4720424e-06 2.0188256e-06 -0.00015240037 2.2150796e-05 0.00032820783 0.00032237885
7.869371e-05 0.00010640387 4.587592e-06 1.2910328e-05 -0.00058061985 -0.0002462199 0.00046699357 0.0007658608
-3.724588e-05 -3.0536514e-05 -0.00010443169 3.9544055e-05 -0.00017237772 -0.00017024344 -1.0212373e-05 0.0006423947
0.000108883236 -0.00019683874 -0.00016154323 -8.9080444e-05 5.3076856e-05 9.6231015e-05 1.1898174e-05 3.4273176e-05
-0.00014163346 -0.00019555443 0.00010807615 -2.5068788e-05 -0.0003750568 -0.00048647347 0.0003431814 0.0006581922
0.00014339705 -0.00041433863 3.7132104e-05 -8.483713e-05 0.00021163658 0.00023469473 0.000240008 0.00010153662
-0.0002104066 0.0005204244 0.000121364654 6.534804e-05 -0.00027082165 0.00039381636 -0.00025150535 9.042534e-05
0.00040834362 0.0003065918 0.00048196357 0.0007929907 5.2336436e-05 -9.737534e-06 5.676658e-05 0.00080318865
0.00011975206 -0.0002601294 -1.0000706e-05 -0.00020696237 -2.0653886e-05 3.5847544e-05 0.00047159402 0.00041570255
-0.0002221153 -0.00010650603 0.00057273713 0.00016131056 -4.711706e-07 -0.00011037116 1.11876e-05 0.00023625909
-1.4353161e-05 -5.6005894e-05 0.00010151967 8.428671e-05 5.3161726e-05 -0.00012507493 -2.1256006e-05 0.0001330243
0.00037880082 0.00045282097 -5.886372e-05 -4.8276564e-05 -0.0002599781 -0.0005176963 7.260609e-05 9.115514e-05
-8.1024016e-05 -0.00021701933 0.00048590664 0.0006004832 -0.0006291763 -0.0002396951 0.00092559797 0.0011674884
0.0006575841 0.00079330395 2.2897666e-05 1.7348848e-05 -5.0614784e-05 7.293914e-05 -0.000113252776 0.0005169168
-0.00010208867 -0.00012391721 5.48939e-05 0.00020344499 0.00016919833 0.00013617176 0.00010066802 0.00016680712
4.6218993e-05 4.0136078e-05 -2.9950215e-05 5.8124202e-05 -0.00033846818 -0.00056024344 -0.00029088 -0.00013963298
-0.00024200877 -0.0005771357 -0.0019598661 -0.0017734979 -0.0003136681 -0.00027465404 -0.0009245668 -0.0019016265

exp_avg_sq f4 [32, 120, 2]
00000000: 1768 5f33 3c4c 1333 c146 d434 0bdc a134
00000010: fb21 8437 ba8f a837 f29c 8436 5ede a636
00000020: a8c6 f435 d8ca 1136 b5d5 e336 9c35 e336
00000030: 69fa 5535 6edb 4b35 fb90 fa36 9e81 ac36
00000040: e443 f834 e681 4335 7253 0331 5d4d fc30
00000050: e722 2e37 8939 3737 c4c4 6337 b80b 8537
00000060: 216e a633 aee3 9533 7d81 6b38 97aa 3538
00000070: a7b7 1f37 0f52 0137 6893 ca37 07b3 d137
00000080: b2eb a235 7a28 aa35 3234 bb33 59f9 3733
00000090: 401c 1c37 eca0 2137 314a db37 f42b da37
000000a0: 7da1 a436 6cf6 e536 2f42 2d35 8573 3a35
000000b0: 5261 a237 63ab ae37 edab 3a38 a48c 0338
000000c0: a310 0a38 5dfc b537 5487 9c37 f312 a737
000000d0: 8a71 da35 ecf4 c235 9692 5b32 4d04 8f31
000000e0: cd88 4133 2894 f332 ea35 2936 133b ac35
000000f0: 9c61 e034 1075 1f35 23fa 3036 5bab de35
00000100: 881f f233 1292 3f34 0aa5 c034 adeb e934
00000110: d538 1936 d67d 1836 fd56 6035 7354 6735
00000120: 9e1d 5235 3e3b e734 d35c 1434 7b5b 8434
00000130: 3796 5634 11af 2034 0000 0000 0000 0000
00000140: eb03 1b38 f548 2a38 0aac 3535 7c68 4b35
00000150: 25df 8435 3713 7335 27ca 9f37 15ff a637
00000160: 30d8 7835 fe71 7535 5a2b 0f35 04e2 1035
00000170: 9f2e 2636 acbd 1636 827e ba35 2ee6 c735
00000180: 261e 2037 ac1d 7f36 a789 1f34 4e58 f034
00000190: 21b8 9334 139b 5034 fefd 3238 79da 1338
000001a0: 271a 9f37 d152 4c37 da61 7836 2ef8 c636
000001b0: d4c3 e535 6e66 0236 ebe7 c935 14d3 e035
000001c0: bf1d d036 5d28 bd36 fc7e 8933 1f12 2e33
000001d0: 6981 d634 78b0 ff34 6ffc 6236 e08c 0e36
000001e0: 63c6 e036 4337 db36 0edd 2e31 e2ce 0c30
000001f0: e24f d336 ffd0 3b37 e321 1136 899e 1836
00000200: ee60 1c36 943a 5836 1156 6c32 65b6 2732
00000210: f852 2e36 d12d 4936 ded1 9f37 90c2 c737
00000220: 5179 3834 32e0 2d34 91de 6136 8279 5436
00000230: 9de0 1f37 faf4 1437 a130 3b37 a9ab d136
00000240: 7e3b 3436 491e 4236 4fe7 9b34 a20e 4034
00000250: 5034 8035 654f 1535 103d 6434 8464 a433
00000260: 00b1 b234 cd38 da34 e4c7 b937 f08c 9437
00000270: fb51 7e38 7065 3638 13a4 4836 a70a 9a36
00000280: f3e2 8037 2a3d 6937 c337 c934 3fe2 6134
00000290: ae21 8835 9344 f035 27f4 5f35 4c13 8435
000002a0: 060c 9536 aeea e736 d367 ad35 6877 d535
000002b0: 9f9c f436 55b6 1237 1930 c435 e91d d935
000002c0: 571d 0337 c3a1 7036 9e8e 0436 7f90 5336
000002d0: e757 ff33 8768 db33 a7ea 1f36 1b44 fe36
000002e0: a231 0037 d558 7337 c444 5634 ace0 0e35
000002f0: e67f 0b36 4db2 4636 ed26 6a36 0004 c536
00000300: 96a1 cc35 1a8f 0536 c0e6 8837 48d7 ca34
00000310: f64b 0d36 e856 5736 d9ec 4535 88a7 7335
00000320: 0df8 5f35 e4a3 6c35 f93a c533 cdfd 2f34
00000330: 882f 9135 884a ac35 c303 1535 6369 6435
00000340: f798 0d36 bee5 1836 7870 0035 8183 dc34
00000350: 2f3a 8b36 a658 c936 75fd 4134 0ac4 4334
00000360: 7d13 ae35 851a cf35 1f40 b436 1c2c bf36
00000370: 8994 5d37 66cc 7a37 1a0f 6037 621a c837
00000380: a484 8836 b30e 7536 bbb1 9d33 b185 0234
00000390: 56cd de35 c1c1 5135 4210 a837 4050 a737
000003a0: efbc e634 5aa0 be34 2f94 0c36 2ce4 6236
000003b0: cd00 e634 b385 0235 da41 0b35 8844 9b35
000003c0: e804 1a34 b37f 5734 1637 6235 1770 4a35
000003d0: d629 0438 16ca 2c38 9240 a837 441a 9437
000003e0: 9b3e b036 0f8c af36 c0fc c037 da6c eb37
000003f0: 0856 e235 47d9 0b36 2d45 7037 9002 8737
5.2015903e-08 3.429544e-08 3.9539557e-07 3.014869e-07 1.575145e-05 2.0094089e-05 3.9521774e-06 4.9730725e-06
1.8237233e-06 2.1724754e-06 6.790006e-06 6.771368e-06 7.971308e-07 7.5942705e-07 7.4674585e-06 5.141089e-06
4.6242997e-07 7.283219e-07 1.9110442e-09 1.8357401e-09 1.03793345e-05 1.0921046e-05 1.3576067e-05 1.5860292e-05
7.75001e-08 6.979768e-08 5.614896e-05 4.3312637e-05 9.519898e-06 7.708105e-06 2.4148918e-05 2.4998108e-05
1.2138537e-06 1.2677767e-06 8.71736e-08 4.2834788e-08 9.304902e-06 9.633815e-06 2.6141382e-05 2.6008092e-05
4.9063806e-06 6.853419e-06 6.454383e-07 6.94585e-07 1.9357223e-05 2.0822225e-05 4.4505974e-05 3.1363816e-05
3.2917258e-05 2.1694397e-05 1.8659666e-05 1.9916775e-05 1.627531e-06 1.4525408e-06 1.27808075e-08 4.1623367e-09
4.5060734e-08 2.8356297e-08 2.5214345e-06 1.2832191e-06 4.1794272e-07 5.9402464e-07 2.6371642e-06 1.659016e-06
1.1274739e-07 1.7841401e-07 3.588287e-07 4.357111e-07 2.2831857e-06 2.2723011e-06 8.357309e-07 8.6177096e-07
7.8274195e-07 4.3070207e-07 1.3817343e-07 2.4653477e-07 1.9984951e-07 1.496485e-07 0.0 0.0
3.695853e-05 4.0599105e-05 6.7678104e-07 7.577544e-07 9.89971e-07 9.0552516e-07 1.9048412e-05 1.9907524e-05
9.2701794e-07 9.143549e-07 5.3334736e-07 5.3973076e-07 2.4763065e-06 2.2462145e-06 1.3894899e-06 1.4893646e-06
9.543763e-06 3.8015232e-06 1.4858107e-07 4.4767734e-07 2.7514855e-07 1.9427925e-07 4.2675056e-05 3.5251e-05
1.8966455e-05 1.217863e-05 3.7011837e-06 5.9297518e-06 1.7118823e-06 1.9431131e-06 1.5043164e-06 1.6750732e-06
6.202346e-06 5.637338e-06 6.402658e-08 4.0529013e-08 3.9954764e-07 4.762585e-07 3.382356e-06 2.124165e-06
6.6988155e-06 6.533142e-06 2.5445988e-09 5.12257e-10 6.2975896e-06 1.1194729e-05 2.1626408e-06 2.2742045e-06
2.3302232e-06 3.2220605e-06 1.3756577e-08 9.762151e-09 2.5976315e-06 2.9978003e-06 1.9052004e-05 2.3813249e-05
1.718047e-07 1.6193442e-07 3.3657163e-06 3.1661189e-06 9.529435e-06 8.8785255e-06 1.1157391e-05 6.2486693e-06
2.685672e-06 2.892588e-06 2.90393e-07 1.7886717e-07 9.551968e-07 5.562236e-07 2.1256369e-07 7.655129e-08
3.3283868e-07 4.0646992e-07 2.21468e-05 1.7708604e-05 6.063467e-05 4.3486652e-05 2.9897826e-06 4.5907977e-06
1.536447e-05 1.3902123e-05 3.747974e-07 2.1037066e-07 1.0142592e-06 1.7901351e-06 8.342926e-07 9.840383e-07
4.4419457e-06 6.911657e-06 1.2919721e-06 1.5904488e-06 7.2899998e-06 8.744731e-06 1.4617136e-06 1.6176465e-06
7.81504e-06 3.5856945e-06 1.9752547e-06 3.1525558e-06 1.1890352e-07 1.02169956e-07 2.3829432e-06 7.5777184e-06
7.640951e-06 1.45046115e-05 1.995532e-07 5.3226063e-07 2.078706e-06 2.9608084e-06 3.4891375e-06 5.871523e-06
1.5246212e-06 1.990184e-06 1.6319915e-05 3.778207e-07 2.1054852e-06 3.2088083e-06 7.373288e-07 9.0768344e-07
8.3434935e-07 8.8155343e-07 9.1842544e-08 1.6390477e-07 1.0817175e-06 1.283669e-06 5.55123e-07 8.5089977e-07
2.1099675e-06 2.2783493e-06 4.784738e-07 4.1073875e-07 4.1492963e-06 6.000587e-06 1.8066733e-07 1.8232109e-07
1.2969682e-06 1.543042e-06 5.3718827e-06 5.6973786e-06 1.320721e-05 1.4948751e-05 1.33549565e-05 2.3854143e-05
4.0685572e-06 3.65164e-06 7.343211e-08 1.215583e-07 1.660005e-06 7.8140516e-07 2.0034731e-05 1.994532e-05
4.2978306e-07 3.550693e-07 2.094788e-06 3.3809438e-06 4.284142e-07 4.862333e-07 5.187736e-07 1.1568345e-06
1.4344153e-07 2.0069892e-07 8.427172e-07 7.5413976e-07 3.1510215e-05 4.1196203e-05 2.0057229e-05 1.7655206e-05
5.252497e-06 5.2317114e-06 2.300588e-05 2.8064871e-05 1.686335e-06 2.0839086e-06 1.4321221e-05 1.6094447e-05

exp_avg f4 [32]
00000000: b055 903b dc07 15bc 59d9 54bb d952 8bbb
00000010: 4d81 81bb 8ecd a53c 899b 78bc 9370 e93b
00000020: a272 973b ad64 87ba 6fde 87bb f6d5 89bb
00000030: 8819 743c 16a5 613a 0227 aebb 5f34 e7bb
00000040: a48c 04bb 5797 74bc ddf9 d43b 2609 bbbc
00000050: 2fb9 16ba 278e 4d3c 4c51 1cbc 1978 a03c
00000060: 1118 3bbc 71b3 903c 9fc8 a43b f48d 58bc
00000070: b7ba 673c 88ab 8d3c d469 5cbb ff5e 453c
0.004404746 -0.009096112 -0.0032478182 -0.0042518196 -0.0039521814 0.020239618 -0.015173801 0.0071240156
0.0046218196 -0.0010329686 -0.004146389 -0.0042064143 0.014898665 0.00086076686 -0.0053147087 -0.0070558037
-0.002022543 -0.01492866 0.0064995126 -0.02283151 -0.00057496404 0.012546099 -0.009540867 0.019588517
-0.011419312 0.01766369 0.0050287987 -0.013217438 0.014143637 0.017293707 -0.0033632414 0.012046575

exp_avg_sq f4 [32]
00000000: 3597 d239 5db4 df3a 444f a038 ef7f 9739
00000010: cc16 7e39 e64d 6a3b 29c9 493b 01d7 5e3a
00000020: f1ac 953a d688 2238 8afd a039 4bbb 043a
00000030: f4f0 273b 0cc0 3139 04ef eb39 a8fe 3c3a
00000040: 3db3 9838 5a69 363b 8ae4 253a d224 e23b
00000050: 790a cd37 9065 cd3a fbea c03a 4eea b43b
00000060: f2f7 e43a df16 293b 282b e839 756e fb3a
00000070: 53f7 8e3b f81a 283b 94b3 0839 afb1 2a3b
0.0004016698 0.0017067302 7.644159e-05 0.00028896282 0.0002423182 0.0035751997 0.0030790067 0.0008500666
0.0011419338 3.875125e-05 0.0003070648 0.0005063309 0.0025625797 0.00016951578 0.00045000773 0.00072095776
7.2813105e-05 0.002783379 0.00063283055 0.006901362 2.4442781e-05 0.0015670527 0.0014718467 0.0055210954
0.0017468913 0.0025800986 0.00044282642 0.0019182699 0.0043629794 0.002565084 0.00013036869 0.002604585
