data/Figure3_Supplement/021/checkpoint_0003500.pth (torch, 232001 bytes, 31 tensors)

net.0.weight f4 [32, 120, 2]
0	0xbd1f8eca	-0.038954534
1	0x3dd6cce4	0.104882985
2	0xbd860433	-0.0654377
3	0xbdad7f13	-0.08471503
4	0x3da4a843	0.08039906
5	0xbca981c6	-0.020691764
6	0xbd118e27	-0.035535958
7	0x3d302509	0.04300407
8	0x3bb73413	0.0055909245
9	0x3c9f2e8d	0.019431377
10	0x3c8a20a0	0.01686126
11	0x3b9b11c6	0.0047323434
12	0x3d9d6d56	0.0768687
13	0x3cdf593b	0.027264228
14	0xbc6cfdec	-0.014464837
15	0xbb33f896	-0.0027461401
16	0x3d69a50b	0.057042163
17	0x3d187d6f	0.037228998
18	0x3d62d9e4	0.055383578
19	0xbd51c7ae	-0.05121582
20	0xbbb3b946	-0.005484733
21	0xbcb40c66	-0.021978568
22	0x3bf7819d	0.007553293
23	0x3cbd9fe5	0.023147533
24	0x3bc54f6d	0.006021431
25	0xbd53d482	-0.051716335
26	0xbd12c711	-0.035834376
27	0xbc7bdb30	-0.015372083
28	0x3bab04e0	0.005219087
29	0x3d8d7182	0.069064155
30	0x3c74b4ff	0.014935731
31	0xbcc40a36	-0.02393065
32	0xbd378a3b	-0.04480956
33	0x3c5627b0	0.013070986
34	0x3d7362a7	0.059420254
35	0xbd72e9c3	-0.059304964
36	0xbdc03c0c	-0.09386453
37	0x3c81a495	0.01582555
38	0xbc418c49	-0.011813232
39	0x3c61149a	0.013737822
40	0xbd34c1fc	-0.04413031
41	0xbc8583cb	-0.016298195
42	0xbd9e84ec	-0.077401966
43	0xbc3f16a3	-0.011663112
44	0xbba13742	-0.0049199173
45	0xbd21c10d	-0.03949075
46	0xbd8032c8	-0.06259686
47	0x3d499887	0.049217727
48	0xbe02aabb	-0.12760441
49	0xbd549121	-0.05189622
50	0x3ce655e3	0.028117126
51	0x3c56b417	0.01310446
52	0x3cf7267e	0.030169722
53	0xbd67acf0	-0.05656141
54	0xbd76ffed	-0.060302664
55	0x3de05274	0.10953227
56	0xbd96b0f1	-0.07357968
57	0x3d980f3a	0.07424779
58	0x3c805f40	0.015670419
59	0x3e04bee6	0.12963447
60	0x3cabb227	0.020958973
61	0x3df604c4	0.12012628
62	0xbd8302c7	-0.06397014
63	0x3d3fa872	0.0467915
64	0x3ca0e408	0.019639984
65	0x3d5acfd5	0.05342086
66	0x3d86d8f3	0.065843485
67	0xbd9ff0f7	-0.07809632
68	0xbd3c1e53	-0.045927357
69	0x3bfbc66a	0.007683565
70	0xbd96aa96	-0.073567554
71	0xbd1b72d3	-0.0379513
72	0x3d38c768	0.045112044
73	0xbc1fbaba	-0.009749109
74	0xbd3c5106	-0.045975707
75	0xbc3e4357	-0.011612735
76	0x3cca5a67	0.02470131
77	0xbcba1b71	-0.022718163
78	0x3d5d2bb9	0.053996775
79	0x3d2d7810	0.04235083
80	0xbdc169c5	-0.09444002
81	0xbcbcfed4	-0.02307073
82	0x3d63fdaf	0.055661853
83	0x3d426289	0.04745725
84	0xbc8441d8	-0.016144678
85	0xbd738c7d	-0.059460152
86	0x3d8f9933	0.07011642
87	0x3a5fcab3	0.00085369794
88	0xbd456ac6	-0.04819753
89	0x3d762603	0.060094845
90	0x3c0599b2	0.00815432
91	0xbd9e2168	-0.077212155
92	0x3d612254	0.05496438
93	0x3d5b0c07	0.053478267
94	0x3c790314	0.015198488
95	0x3d8134cd	0.06308899
96	0x3c3ff115	0.011715193
97	0xbdb4eeb2	-0.0883459
98	0x3e1d2014	0.15344268
99	0xbc878939	-0.016544925
100	0xbd7f2932	-0.062295146
101	0xbc6a48fd	-0.014299628
102	0xbd0dda9e	-0.034632318
103	0xbc312fe4	-0.010814641
104	0xbd783c07	-0.06060412
105	0xbd78f618	-0.06078157
106	0x3cb79ffb	0.022415152
107	0xbbd72d97	-0.006566714
108	0xbbe4082d	-0.0069589824
109	0xbd5df623	-0.054189812
110	0x3b9ebc62	0.0048442343
111	0xbcc5048d	-0.024050022
112	0xbd753323	-0.05986322
113	0xbd800a1b	-0.062519275
114	0x3d53a58e	0.051671557
115	0x3cc88b9a	0.02448063
116	0xbbec7cf6	-0.007217045
117	0x3d7a71a3	0.06114353
118	0xbde74f5f	-0.11294436
119	0xbb988258	-0.00465421
120	0x3a46f865	0.0007590114
121	0x3c679bc5	0.014136259
122	0x3cb422ae	0.021989193
123	0xbe2adf3b	-0.16686718
124	0x3d4104c6	0.047123693
125	0xbc1456d8	-0.009053908
126	0x3d460f35	0.048354346
127	0xbd1961c9	-0.03744677
128	0xbd14fb07	-0.03637221
129	0x3bb06642	0.005383284
130	0xbd245598	-0.04012069
131	0x3d5a7327	0.053332474
132	0xb95b9752	-0.00020941839
133	0xbc3763e5	-0.01119325
134	0xbcd76bde	-0.026296552
135	0x3d476fa8	0.048690468
136	0x3d17d4b0	0.03706807
137	0xbd295965	-0.04134502
138	0x3d2a449b	0.041569334
139	0x3c1359f1	0.008993612
140	0xbc952c01	-0.01820946
141	0xbc743f23	-0.014907631
142	0x3b2d2b9e	0.0026423703
143	0xbd879417	-0.06620043
144	0xbce729dc	-0.028218202
145	0xbd07a6bb	-0.03311799
146	0x3c000113	0.007812756
147	0x3de3fb40	0.111319065
148	0x3cf20f80	0.029548407
149	0x3d39bc0a	0.045345344
150	0x3d940870	0.07228172
151	0x3ca107c2	0.01965702
152	0x3d773909	0.060357127
153	0x3b3f93ff	0.00292325
154	0x3c2b7753	0.010465461
155	0x3cd1fcf1	0.025633307
156	0x3c56d1c4	0.013111535
157	0x3c0096b5	0.007848431
158	0x3cb560c5	0.02214087
159	0x3d200125	0.03906359
160	0xbc348d24	-0.011019979
161	0xbd39af8b	-0.045333426
162	0xbc52dfc0	-0.012870729
163	0xbd257d0f	-0.04040247
164	0xbd0c7d00	-0.034298897
165	0xbca96be9	-0.020681338
166	0xb93b5ae9	-0.00017867576
167	0xbdc6164c	-0.096722215
168	0xbcbfb4c6	-0.02340163
169	0xbc2d5744	-0.010579888
170	0xbcf79e9a	-0.030226994
171	0x3d84fa8c	0.064931005
172	0x3cb214b0	0.02173838
173	0xbd9ff1ef	-0.07809817
174	0x3d39bd31	0.045346443
175	0xbce8dc9e	-0.028425511
176	0x3d36115d	0.044450153
177	0xbce6451c	-0.028109126
178	0x3dabaf77	0.08383077
179	0x3d406dce	0.046979718
180	0x3da16105	0.07879833
181	0xbd89c326	-0.06726675
182	0x3d31311b	0.04325972
183	0x3cff882a	0.031192858
184	0xbd151347	-0.036395337
185	0x3d09f92b	0.03368489
186	0x3cf184f6	0.029482346
187	0x3d2f6b2d	0.04282682
188	0xbbeafef2	-0.007171505
189	0xbd54781e	-0.051872365
190	0x3daca946	0.08430724
191	0x3d565f05	0.05233671
192	0x3d311139	0.043229315
193	0x3d19c8b5	0.037544925
194	0x3caab0d9	0.02083628
195	0xbcd84a41	-0.026402595
196	0x3cf22272	0.02955744
197	0xbd606bcc	-0.054790303
198	0x3d247a89	0.04015592
199	0x3d84924c	0.064732164
200	0x3d8a52bf	0.06754064
201	0xbcb65a29	-0.022259789
202	0xbcb3e0c8	-0.02195777
203	0x3d072787	0.03299668
204	0xbcdf9b94	-0.027295865
205	0x3bf35045	0.0074253404
206	0xbd53015e	-0.051514976
207	0xbceda219	-0.029007958
208	0x3d2b6463	0.041843783
209	0xbd7d51f8	-0.06184575
210	0xbd58a899	-0.052895162
211	0xbd1489e3	-0.03626431
212	0x3d5db411	0.054126803
213	0xbd9aea8a	-0.07564266
214	0x3d29a387	0.041415717
215	0xbdaa42e3	-0.08313539
216	0x3ad080d8	0.0015907539
217	0xbaf9485a	-0.0019018755
218	0xbbbe56c5	-0.0058086836
219	0x3c1944ab	0.009354751
220	0xbd22c932	-0.039742656
221	0x3d37078a	0.044684924
222	0x3d2157be	0.039390318
223	0xbd3be301	-0.045870785
224	0xbcb6b996	-0.022305291
225	0x3c66672e	0.014062686
226	0xbde6ea39	-0.11275143
227	0xbc3cf1e0	-0.011532277
228	0xbd128432	-0.035770603
229	0xbc7692c6	-0.015049642
230	0xbc967663	-0.018366998
231	0xbd31433d	-0.043277014
232	0x3cba52cc	0.022744559
233	0x3dd87333	0.105688475
234	0xbd307717	-0.043082323
235	0xbc6d6bda	-0.014491046
236	0x3dbaad96	0.0911514
237	0xbca5bdb9	-0.020232068
238	0xbdf59c39	-0.11992688
239	0x3cc0d684	0.023539789
240	0x3d84f468	0.06491929
241	0x3d12df22	0.035857327
242	0x3dfd47fc	0.123672456
243	0x3ddcd04e	0.107819185
244	0x3d2fea1e	0.04294788
245	0xbd6c1ce3	-0.057644736
246	0x3ce01cd8	0.027357504
247	0x3d45fad7	0.048334923
248	0xbc2de102	-0.010612728
249	0xbdba6dfa	-0.091030076
250	0x3d5bf525	0.053700585
251	0x3b676ee5	0.00353139
252	0xbd957e51	-0.072994836
253	0x3d33eb97	0.043925848
254	0xbd3f651d	-0.04672729
255	0x3cda6607	0.026659979

net.0.bias f4 [32]
0	0xbb19c2ca	-0.002346205
1	0x3c6e9723	0.014562401
2	0x3cf49b8e	0.02985933
3	0xbc3e8142	-0.011627497
4	0x3c122992	0.008921044
5	0x3d14ddce	0.036344342
6	0xbd85a859	-0.065262504
7	0xbcda29f8	-0.02663134
8	0xbbe6a267	-0.007038403
9	0x3d245124	0.040116444
10	0x3d4cf174	0.050034955
11	0xbcfc70a6	-0.030815434
12	0x3c9632d2	0.01833478
13	0x3c0f85c5	0.0087599205
14	0xbb6f8cef	-0.0036552509
15	0x3d2009c4	0.039071813
16	0xbd057725	-0.03258433
17	0xbc9ffe3c	-0.019530408
18	0xbd1a607e	-0.03768968
19	0xbd225991	-0.0396362
20	0x3d4cfb62	0.050044425
21	0xbccce3c6	-0.025010955
22	0xbc162cf6	-0.009165993
23	0x3d03d0b0	0.03218144
24	0xbd8ff309	-0.07028777
25	0x3bbee069	0.0058250916
26	0x3b8d8a87	0.0043194923
27	0x3d2aa8cb	0.04166488
28	0x3d28b290	0.041185915
29	0x3d379d85	0.044827957
30	0x3ce5b4a9	0.028040247
31	0x3d1e0fa7	0.038589146

net.2.module.0.weight f4 [32, 32, 3]
0	0xbcc3088b	-0.023807785
1	0x3d40949e	0.047016732
2	0xbdb6d880	-0.08928013
3	0x3d6237ca	0.055228986
4	0x3c4c9169	0.01248584
5	0x3d09fc14	0.033687666
6	0x3cdd6348	0.02702488
7	0xbd6ba003	-0.057525646
8	0x3dc1020a	0.09424217
9	0xbda17499	-0.07883567
10	0xbdbbad33	-0.091638945
11	0x3ba6994b	0.005084192
12	0x3cf87cc6	0.030332934
13	0x3d9d8e0d	0.0769311
14	0x3d27bc44	0.04095103
15	0x3d795e01	0.060880665
16	0x3db8c7ba	0.0902247
17	0xbd2b3714	-0.041800573
18	0x3dcd884a	0.10035761
19	0x3e00d969	0.12582935
20	0x3c3f681b	0.0116825355
21	0xbd548b79	-0.051890824
22	0xbdcca1bd	-0.09991787
23	0x3dcd9e4b	0.100399576
24	0x3b7d4f54	0.003865202
25	0x3d35423d	0.044252623
26	0xbd94c7cf	-0.07264673
27	0x3d7890d7	0.060685005
28	0xbdd21bc3	-0.102592014
29	0x3cbf980c	0.023387931
30	0xbdc314e5	-0.0952547
31	0xbd91c1f0	-0.07117069
32	0xbcdbc6f9	-0.026828276
33	0x3d46c222	0.048524983
34	0xbdec0543	-0.11524441
35	0x3d474f8b	0.048659842
36	0xbdd83675	-0.10557262
37	0xbbfe0832	-0.007752442
38	0xbce0f5d1	-0.027460964
39	0xbd8340f3	-0.064088725
40	0xbd151731	-0.03639907
41	0x3d89e488	0.06733042
42	0xbd8dcd28	-0.06923896
43	0x3c3a298f	0.011362447
44	0xbccf3ab8	-0.025296554
45	0xbd316de1	-0.04331768
46	0xbdd7198d	-0.1050292
47	0x3d3485f7	0.04407307
48	0xbdbeae78	-0.09310621
49	0x3cd3f624	0.025874205
50	0x3de763ef	0.11298358
51	0x3d4b1b26	0.049586438
52	0x3ce3ae25	0.027793
53	0xbd99340b	-0.074806295
54	0x3dcb3a1e	0.09923194
55	0x3d92663c	0.07148406
56	0xbd965a56	-0.07341449
57	0x3de0cf8d	0.10977087
58	0xbdb04102	-0.08606149
59	0x3d060060	0.0327152
60	0xbddad126	-0.10684423
61	0xbd9f41b2	-0.07776202
62	0x3ddb27a9	0.10700924
63	0xbcce2e45	-0.025168547
64	0xbd210ef5	-0.039320905
65	0xbcb59754	-0.022166885
66	0xbdbe8523	-0.093027376
67	0x3d4e0b11	0.050303522
68	0xbdc4e256	-0.09613483
69	0xbd975414	-0.073890835
70	0x3d858a4a	0.06520517
71	0x3c6808d6	0.014162263
72	0x3dc41467	0.09574204
73	0x3bea962d	0.0071590156
74	0xbc979fca	-0.01850881
75	0xbd959c5d	-0.073052146
76	0x3c6ff66a	0.014646152
77	0xbcf32ae4	-0.029683538
78	0x3c9c83d4	0.01910583
79	0xbd77956b	-0.06044523
80	0x3cbfee47	0.02342905
81	0xbd5c1d5d	-0.05373894
82	0x3d0bde57	0.034147587
83	0x3d9834a4	0.074319154
84	0x3c4ceb67	0.012507296
85	0x3d4b60fb	0.049653035
86	0xbc847e5e	-0.016173538
87	0x3c88d5f9	0.016703593
88	0x3dd1978a	0.10233982
89	0x3c0a29e5	0.00843284
90	0x3d8c03fe	0.06836699
91	0x3d43ab9d	0.047771085
92	0x3d93c052	0.072144166
93	0xbac4bdce	-0.001501018
94	0xbd44d353	-0.048053097
95	0xbdb5f84f	-0.08885252
96	0x3d850388	0.06494814
97	0xbd04674b	-0.03232507
98	0x3d70ac8e	0.05875831
99	0xbda3998c	-0.07988271
100	0x3ced7630	0.02898702
101	0x3bda0bb9	0.0066542295
102	0x3cc1fcd7	0.023680134
103	0x3d99b920	0.07506013
104	0x3df5af7a	0.1199636
105	0xbd272610	-0.040807784
106	0x3d9c75fb	0.076396905
107	0xbdbace22	-0.09121348
108	0xbd915baf	-0.070975654
109	0x3c9fa9fc	0.019490235
110	0xbda58c6f	-0.08083426
111	0xbcb9cc02	-0.022680286
112	0x3d7fe20a	0.062471427
113	0xbce77a69	-0.028256612
114	0x3db2d623	0.087322496
115	0xbd8884d4	-0.0666596
116	0x3d8e0229	0.06934006
117	0xbdb95355	-0.090490974
118	0xbc88ca7d	-0.016698116
119	0x3d0c3547	0.034230497
120	0xbdd375c9	-0.103252
121	0xbcb10b93	-0.021611964
122	0xbcba82b1	-0.022767397
123	0x3d2d9fc5	0.042388696
124	0x3d54a4ea	0.051915087
125	0x3d8ed62b	0.06974443
126	0x3d718e21	0.058973435
127	0xbc13fabb	-0.009031947
128	0xbcdbae8f	-0.026816634
129	0x3dfbf48a	0.123025015
130	0x3de0345a	0.10947485
131	0x3d890135	0.06689683
132	0x3dbb41a6	0.09143381
133	0xbc7ce611	-0.0154357115
134	0xbcaf8ff9	-0.021430956
135	0x3e2bfdbb	0.16796009
136	0x3d8babb2	0.06819858
137	0xbd181cc4	-0.037136808
138	0x3d515973	0.051110696
139	0xbdbcd9af	-0.09221207
140	0x3cea950f	0.02863553
141	0x3d751e20	0.059843183
142	0x3d87d004	0.06631473
143	0xbd20f3a3	-0.03929485
144	0x3ce7a689	0.028277652
145	0x3d40b2b6	0.047045432
146	0xbd549c7f	-0.05190706
147	0xbc6a4932	-0.014299678
148	0xbc494c84	-0.012286309
149	0xbd4425d5	-0.047887642
150	0x3de5868e	0.11207305
151	0x3d7a29d7	0.061075058
152	0x3cae1d78	0.021254286
153	0x3d5d2bd4	0.053996876
154	0xbd9589c4	-0.07301667
155	0xbd6e9646	-0.05824878
156	0xbd1581f4	-0.036500886
157	0xbd9d392a	-0.07676919
158	0x3d5ecb9e	0.054393403
159	0x3d8f4cc9	0.069970675
160	0xbc798243	-0.015228811
161	0xbd84bb77	-0.064810686
162	0xbd4977db	-0.04918657
163	0xbc49cdd0	-0.012317136
164	0x3da21b77	0.07915395
165	0xbd074caa	-0.033032097
166	0xbc8ac36b	-0.016938886
167	0x3da5f6b0	0.081036925
168	0x3c107dda	0.008819068
169	0xbcaa04e0	-0.020754278
170	0x3dabc8a8	0.083878815
171	0x3d9f6811	0.07783521
172	0xbdb52324	-0.08844593
173	0xbd70467d	-0.058660973
174	0x3d815ea1	0.06316877
175	0x3c3ceabf	0.011530577
176	0xbdc7dbd6	-0.09758727
177	0x3b3a637f	0.0028440652
178	0x3b6876c7	0.0035471187
179	0xbb81d8d6	-0.0039626164
180	0x3df20448	0.11817223
181	0x3d8132cc	0.06308517
182	0x3c01afeb	0.007915477
183	0xbdb0ec01	-0.08638764
184	0x3c5a86d6	0.013337811
185	0xbd97ebc1	-0.07418013
186	0xbb7e83f3	-0.0038835972
187	0xbcb1c094	-0.021698274
188	0xbda09c6e	-0.078423366
189	0x3d7a3c20	0.061092496
190	0x3d204ba9	0.039134655
191	0x3c92852b	0.017885765
192	0x3c8a9b95	0.01691989
193	0x3ca50294	0.02014283
194	0x3ddb9de2	0.10723473
195	0x3da4a186	0.08038621
196	0xbdcf633a	-0.10126348
197	0x3dc65288	0.0968371
198	0xbdbd5485	-0.092446364
199	0xbceadbf5	-0.028669337
200	0x3d15f19e	0.036607377
201	0xbd9aed98	-0.07564849
202	0x3ca4e869	0.020130353
203	0xbb9a5d91	-0.004710861
204	0xbd827a61	-0.06370998
205	0xbd0e6add	-0.03476988
206	0xbdb46a9a	-0.08809395
207	0x3d89ef3e	0.06735085
208	0x3d83c842	0.064346805
209	0x3c1eeb5d	0.00969967
210	0xbccb35c3	-0.024805909
211	0x3d246a71	0.040140573
212	0x3e084390	0.13307023
213	0x3dba9629	0.09110672
214	0x3d9b2585	0.07575516
215	0xbe05c1b5	-0.13062175
216	0xbd288288	-0.04114011
217	0x3bad032c	0.005279919
218	0xbbc0903b	-0.0058765686
219	0xbd93a60c	-0.07209405
220	0xbda32c96	-0.079674885
221	0xbd8b3ad5	-0.06798331
222	0x3d692225	0.05691733
223	0x3dab5af7	0.083669595
224	0x3cc0cb0d	0.023534322
225	0xbd0d9770	-0.03456825
226	0x3d190c01	0.037364963
227	0xbb568af5	-0.0032736633
228	0x3dccadd7	0.09994095
229	0xbe0070b4	-0.12542993
230	0xbc915e12	-0.017745052
231	0x3dd1a9e8	0.10237485
232	0xbdb5665b	-0.088574134
233	0x3d8fc82b	0.07020601
234	0xbc7d1eb2	-0.015449213
235	0x3cdaf582	0.026728395
236	0x3dd95ee5	0.10613803
237	0xbc912dc1	-0.017722012
238	0xbc15b182	-0.009136559
239	0x3ccbbdc0	0.024870753
240	0x3c0b44ca	0.008500287
241	0x3d8a2311	0.0674497
242	0x3c2b20db	0.010444845
243	0xbd27c494	-0.040958956
244	0xbda3a82e	-0.07991062
245	0xbc49c34e	-0.012314631
246	0xbd4e6e87	-0.050398376
247	0x3dc89464	0.09793928
248	0x3e17e505	0.14833458
249	0x3b5475ca	0.003241884
250	0x3db965da	0.0905263
251	0x3dbe2fed	0.09286485
252	0x3d6a08c4	0.057137266
253	0xbc103019	-0.00880053
254	0xbdb1decf	-0.086850755
255	0xbdb50a6b	-0.08839878

net.2.module.0.bias f4 [32]
0	0x3d80aaed	0.062826015
1	0xbcc3823d	-0.023865813
2	0xbc6d24d0	-0.014474109
3	0xbda4f12a	-0.08053811
4	0xbcffa5e0	-0.031207025
5	0xbd827201	-0.06369401
6	0x3c65d929	0.014028826
7	0xbda240fa	-0.079225495
8	0x3d16fe36	0.03686353
9	0xbd85db32	-0.06535949
10	0xbda8d6ba	-0.08244081
11	0xbd0eac21	-0.034832124
12	0x3d39d4b7	0.045368876
13	0xbd97472f	-0.07386624
14	0xbd75f5ee	-0.06004899
15	0x3d97c451	0.07410491
16	0xbd0843ef	-0.03326791
17	0x3d79378e	0.060843997
18	0x3bbec110	0.0058213547
19	0xbcb97753	-0.022639906
20	0xbd9a83aa	-0.07544644
21	0x3d69c826	0.057075642
22	0x3d46033e	0.048342936
23	0x3d3ba966	0.045815848
24	0x3cc3f41b	0.02392011
25	0xbc1f6f58	-0.009731136
26	0xbd3ad3e9	-0.04561225
27	0xbb15d99c	-0.00228653
28	0xbc387b1b	-0.011259819
29	0xbd37be2c	-0.044859096
30	0x3d270d4f	0.040784176
31	0xbd26b7a4	-0.040702477

net.3.module.0.weight f4 [32, 32, 3]
0	0xbdb52778	-0.08845419
1	0xbd2dae9b	-0.042402845
2	0x3d397b5e	0.045283668
3	0xbd178c2b	-0.03699891
4	0x3c59c53a	0.013291651
5	0x3d5ab88f	0.053398665
6	0x3d6179f3	0.05504794
7	0x3c52eb3c	0.012873467
8	0xbd9d3abb	-0.076772176
9	0xbd84b062	-0.06478955
10	0xbd4f5ed5	-0.05062755
11	0xbdbf2261	-0.09332729
12	0x3dc57ba4	0.09642723
13	0x3d82e2aa	0.06390889
14	0xbd9aa5ed	-0.07551179
15	0x3d2b029c	0.041750535
16	0x3c92b1fc	0.017907135
17	0xbdaee022	-0.08538844
18	0x3d13fbca	0.036128797
19	0xbd81217a	-0.06305213
20	0xbdb5e5e0	-0.08881736
21	0x3b8982f8	0.004196521
22	0xbd4aac8a	-0.049480952
23	0x3a985000	0.0011620522
24	0x3dc59b20	0.09648728
25	0x3dce58a5	0.10075501
26	0xbd22d058	-0.039749473
27	0x3ddcd9c3	0.10783722
28	0xbdd5cf7b	-0.104399644
29	0x3dcb85a4	0.09937599
30	0xbda463af	-0.08026826
31	0xbcf6077b	-0.030032864
32	0xbc8933a3	-0.016748255
33	0xbd8b7b01	-0.068105705
34	0xbda51569	-0.08060724
35	0x3c74ba90	0.014937058
36	0xbdc34be5	-0.0953596
37	0xbd107891	-0.03527123
38	0x3d8804b5	0.06641523
39	0x3ccf0b96	0.02527408
40	0xbdaaf4d7	-0.08347481
41	0xbdb79e96	-0.08965795
42	0x3c805cd4	0.015669264
43	0xbacf28af	-0.0015804971
44	0xbdc9f2b8	-0.09860748
45	0xbd3520b3	-0.044220638
46	0x3d8a4ec3	0.06753304
47	0x3ce96840	0.028492093
48	0xbdb014f3	-0.08597746
49	0x3da51ca3	0.08062103
50	0x3da7d54b	0.08194979
51	0xbd1c97be	-0.03823065
52	0xbcfa7efd	-0.03057813
53	0x3d0d749b	0.03453503
54	0xbd63c509	-0.05560783
55	0x3dcf0dc2	0.10110046
56	0xbd8da932	-0.06917037
57	0xbdc27265	-0.09494475
58	0xbda3f1a0	-0.08005071
59	0xbd6368a3	-0.05551971
60	0xbdc2f40a	-0.09519203
61	0xbd9d05e8	-0.07667142
62	0x3c8d5a17	0.017254872
63	0x3c2a4ade	0.010393826
64	0x3cd2af2e	0.025718298
65	0xbd5f52c4	-0.05452229
66	0x3d86b178	0.06576818
67	0x3c93bd66	0.018034648
68	0x3ced8307	0.028993143
69	0x3dda0cda	0.106469825
70	0xbd0abe59	-0.033872936
71	0xbe07a6e1	-0.13247253
72	0xbb3a5412	-0.0028431457
73	0xbd9a226c	-0.07526097
74	0xbdc09f13	-0.09405341
75	0xbdc1255b	-0.09430953
76	0x3ca86f0c	0.020560764
77	0xbd19f84e	-0.037590317
78	0x3cc6e755	0.02428023
79	0x3d030323	0.031985413
80	0x3d1c7253	0.038194966
81	0x3c4fda05	0.012686257
82	0x3d636eaf	0.055525478
83	0x3d4837ba	0.04888127
84	0xbdfcb508	-0.123392165
85	0x3d0b7083	0.034042846
86	0xbafbc061	-0.0019207114
87	0xbce4801a	-0.027893115
88	0x3d8f8d04	0.070093185
89	0x3bd13be6	0.0063853143
90	0x3d97c96c	0.07411465
91	0x3d4270e6	0.04747095
92	0xbaaeb585	-0.0013329244
93	0xbdb252dc	-0.087072104
94	0x3d9a39c5	0.0753055
95	0x3c9e6a07	0.019337667
96	0xbd3d94f2	-0.046284623
97	0xbd5442f1	-0.051821653
98	0x3d3d4136	0.046204768
99	0x3ce45f4f	0.027877478
100	0xbb9b01d1	-0.004730441
101	0xbcb352e9	-0.02189012
102	0x3d519612	0.05116851
103	0x3ddfe027	0.109314255
104	0xbd5d2f66	-0.05400028
105	0xbd7cdef3	-0.06173606
106	0xbd93d026	-0.072174355
107	0x3db07a55	0.08617083
108	0xbd73abcd	-0.059490014
109	0xbdae99f6	-0.085254595
110	0xbd8e50dc	-0.069490165
111	0x3d007f4d	0.031371403
112	0xbd80bc67	-0.06285935
113	0x3d7785a6	0.06043019
114	0x3d8b222a	0.06793626
115	0xbd0e3194	-0.03471525
116	0x3d15ee07	0.036603954
117	0xbd68be05	-0.05682184
118	0x3ced285d	0.02894991
119	0xbd9a43eb	-0.075324856
120	0xbcbc763b	-0.023005595
121	0xbd46efe8	-0.048568636
122	0xbd195231	-0.0374319
123	0xbc7d77f9	-0.015470498
124	0x3d815b56	0.06316249
125	0x3d988abc	0.074483365
126	0xbc96de62	-0.018416587
127	0x3d24d73c	0.040244326
128	0x3c8780b7	0.016540868
129	0xbd72bd16	-0.059262358
130	0xbdb18e8d	-0.086697675
131	0x3d16ad82	0.036786564
132	0x3d85faaa	0.06541951
133	0xbbce4a7f	-0.0062955017
134	0xbd950b6e	-0.07277571
135	0x3e0a8d5b	0.13530485
136	0x3d40c9dd	0.04706751
137	0xbdb0b648	-0.086285174
138	0x3d393e79	0.045225594
139	0xbd978a01	-0.07399369
140	0x3dabe07f	0.083924286
141	0x3dc68551	0.09693397
142	0x3db3d484	0.087807685
143	0x3cfa36b7	0.030543668
144	0xbd0fbf69	-0.035094652
145	0x3da54a02	0.080707565
146	0x3beb4f53	0.007181087
147	0xbccc89f1	-0.02496812
148	0xbc497ec4	-0.01229829
149	0xbc54cba0	-0.012988001
150	0x3dc3d57c	0.09562203
151	0x3cf0d888	0.029400125
152	0xbd2b179f	-0.041770574
153	0xbd22dec5	-0.03976323
154	0xbd4b6a7d	-0.049662102
155	0xbddba24e	-0.107243165
156	0x3d6712d8	0.056414455
157	0xbd9e71d4	-0.07736555
158	0x3b45502a	0.0030107596
159	0x3db9afe9	0.09066755
160	0x3db19146	0.08670287
161	0x3e008ced	0.12553759
162	0x3de0635b	0.109564506
163	0xbd7088a0	-0.058724046
164	0x3d4b24cd	0.049595643
165	0xbd1f3b4f	-0.03887492
166	0x3d548e94	0.051893786
167	0xbdd44964	-0.10365561
168	0xbd29234d	-0.04129343
169	0xbd5e663d	-0.05429672
170	0x3d036a23	0.03208364
171	0xbd79636a	-0.060885824
172	0xbca6dce7	-0.020369006
173	0xbd4efc7e	-0.050533764
174	0xbd596751	-0.053077046
175	0xbd02d0b2	-0.03193731
176	0x3d6fec05	0.058574695
177	0x3d1673bf	0.036731478
178	0xbd72b82d	-0.059257675
179	0xbdb51996	-0.08842771
180	0x3dd49563	0.10380056
181	0x3c20a836	0.00980573
182	0xbdbad256	-0.0912215
183	0xbd4af02c	-0.049545452
184	0xbc8fee33	-0.017569637
185	0x3d849325	0.06473378
186	0xbd7a8ec1	-0.061171297
187	0x3d6f32ac	0.058397934
188	0x3d9202a9	0.07129414
189	0x3e081b3b	0.13291638
190	0x3d062e26	0.032758854
191	0xbd968f42	-0.07351543
192	0xba95e4fe	-0.0011436043
193	0x3d9887d3	0.074477814
194	0x3debade8	0.11507779
195	0x3d9259d3	0.07146039
196	0x3d932402	0.07184602
197	0x3d1b4df8	0.037916154
198	0xbd2e9579	-0.042623017
199	0x3d0cb2fe	0.034350388
200	0x3dc1486a	0.0943764
201	0x3d888605	0.06666187
202	0x3e05297a	0.13004103
203	0x3d1c14cd	0.038105775
204	0x3d686d2b	0.056744736
205	0xbda3246d	-0.07965932
206	0xbd4bcb67	-0.049754526
207	0x3db1948a	0.0867091
208	0xbddd99fe	-0.10820387
209	0x3d7b71fe	0.06138801
210	0x3d7d2376	0.061801396
211	0x3c6f4768	0.014604427
212	0x3d952fad	0.07284484
213	0xbdcdfd5a	-0.100580886
214	0xbc0e9315	-0.008702059
215	0xbd804212	-0.06262602
216	0xbb8f04ca	-0.0043645846
217	0x3d5ba45b	0.05362354
218	0xbdb8ec56	-0.090294525
219	0x3c1be034	0.009513903
220	0xbd14badc	-0.036311015
221	0xbd5396cb	-0.05165748
222	0x3cf418d3	0.029796993
223	0xbd1f2278	-0.03885123
224	0xbb8af913	-0.0042411177
225	0xbd03b122	-0.03215135
226	0x3c84cd2c	0.016211115
227	0x3d4a2354	0.049350098
228	0x3d6d1168	0.057877928
229	0xbd75f697	-0.06004962
230	0x3d96e250	0.073673844
231	0x3e09187c	0.13388246
232	0x3d8493c1	0.06473494
233	0x3dd52346	0.104071185
234	0xbabc43dc	-0.0014363485
235	0xbd96447d	-0.07337282
236	0x3c88b052	0.016685639
237	0xbdf19056	-0.11795108
238	0x3da2fccf	0.07958376
239	0xbd6bd0ab	-0.05757205
240	0xbcd958a7	-0.02653153
241	0x3b2e9862	0.002664112
242	0x3d3576ac	0.044302627
243	0xbdc243f1	-0.09485615
244	0xbdac3394	-0.08408275
245	0xbd443de7	-0.047910597
246	0x3d7060b6	0.05868598
247	0xbd7f44e2	-0.06232155
248	0x3db2be69	0.08727724
249	0xbd87d7d7	-0.06632965
250	0xbcb0a377	-0.021562321
251	0xbd0ec1c2	-0.03485275
252	0xbb9cc971	-0.004784756
253	0x3d7c66de	0.06162154
254	0xbca1c413	-0.019746816
255	0x3d01b325	0.031664986

net.3.module.0.bias f4 [32]
0	0xbb68945f	-0.0035488827
1	0x3bf786dd	0.0075539188
2	0xbcd3266e	-0.02577516
3	0x3d86fa45	0.06590704
4	0xbc4efc76	-0.012633434
5	0x3c2820cc	0.010261726
6	0x3ce3316a	0.027733523
7	0xbdc56050	-0.09637511
8	0x3d867c09	0.065666266
9	0x3d84abaf	0.064780585
10	0x3d00dc8b	0.031460326
11	0xbd924aa3	-0.07143142
12	0x3b54d93c	0.0032478115
13	0xbba47356	-0.005018632
14	0xbd6a1065	-0.05714454
15	0x3b89d297	0.0042060125
16	0x3cc3df90	0.023910314
17	0x3c28603c	0.01027685
18	0xbd120c8f	-0.035656508
19	0xbdd209c1	-0.10255767
20	0xbc2d9da1	-0.010596664
21	0xbc2941ab	-0.010330598
22	0x3c1be191	0.009514228
23	0xbcafb455	-0.021448294
24	0x3c47f509	0.012204417
25	0x3d5df1db	0.05418573
26	0xbd8cde53	-0.068783425
27	0xbca5da72	-0.020245764
28	0xbd90c29d	-0.070683695
29	0xbd71f152	-0.05906803
30	0xbba69175	-0.005083258
31	0xbd9973e2	-0.07492806

net.4.module.0.weight f4 [32, 32, 3]
0	0x3d5b8acd	0.053599168
1	0x3dbe2fd7	0.092864685
2	0xbdb5ac32	-0.08870734
3	0xbc9273b0	-0.01787743
4	0xbd955610	-0.07291806
5	0x3cdf4760	0.027255714
6	0x3d87e7f5	0.06636039
7	0x3d96d59e	0.07364963
8	0xbd7b903a	-0.061416842
9	0xbd8dc792	-0.06922831
10	0x3db7e8de	0.08979963
11	0xbd559da6	-0.0521523
12	0xbdc2082f	-0.09474217
13	0xbd96b40a	-0.073585585
14	0xbd31833c	-0.043338045
15	0x3c1103a8	0.008850969
16	0x3dacda50	0.08440077
17	0x3c6fd93a	0.014639193
18	0xbda74e75	-0.08169261
19	0x3da8331d	0.08212874
20	0x3da864be	0.0822234
21	0x3dc87871	0.097885974
22	0xbd2d996b	-0.04238264
23	0x3d1ac91c	0.03778945
24	0xbc4056e3	-0.011739465
25	0x3d98e407	0.07465368
26	0xbddd0e4f	-0.10793745
27	0xbd7c9a0e	-0.061670355
28	0x3d440dae	0.04786461
29	0xbd954213	-0.07287993
30	0xba9753c5	-0.0011545351
31	0xbd25dfd2	-0.040496655
32	0x3d9b8b7f	0.07594966
33	0xbddb466b	-0.107067905
34	0xbd260524	-0.040532246
35	0x3dd821be	0.10553311
36	0x3d445079	0.047928307
37	0xbd91bf24	-0.07116535
38	0xbb945b89	-0.0045275134
39	0x3cf02bc6	0.029317748
40	0xbd8128e5	-0.06306628
41	0x3dca4772	0.09876908
42	0xbdb3ac8f	-0.08773147
43	0xbd169684	-0.036764637
44	0xbd72d88c	-0.059288546
45	0x3c0c19de	0.008551089
46	0x3c21dfd7	0.009880028
47	0x3d53fbd1	0.051753823
48	0x3d1bf335	0.038073737
49	0x3d85d9dd	0.06535695
50	0x3d409a5d	0.047022212
51	0xbc4edb39	-0.012625509
52	0xbdded045	-0.10879568
53	0x3d5187ac	0.051154777
54	0x3cb872ed	0.022515738
55	0xbd856e95	-0.065152325
56	0x3c951c27	0.0182019
57	0x3de036b4	0.10947934
58	0x3d2944e3	0.04132546
59	0xbd3a9b27	-0.04555812
60	0xbd94cac1	-0.07265235
61	0xbd69be78	-0.05706641
62	0xbd058003	-0.032592785
63	0xbd96e311	-0.07367528
64	0xbc8ae4e9	-0.016954856
65	0xbdd8995a	-0.105761245
66	0xbd346a27	-0.044046547
67	0x3d790f26	0.060805462
68	0xbdbbfae0	-0.0917871
69	0xbd13f7ae	-0.036124878
70	0xbcb0c2b8	-0.021577224
71	0x3d6a60fb	0.057221394
72	0xbbe07d14	-0.006850848
73	0xbdad0535	-0.08448259
74	0x3ce82fcf	0.02834311
75	0xbd43e3fd	-0.04782485
76	0x3d12046c	0.03564875
77	0xbc82b1f0	-0.015953988
78	0x3d190de4	0.037366763
79	0xbc96cace	-0.018407252
80	0xbd644e31	-0.05573863
81	0xbdba6d72	-0.09102906
82	0x3c8eeeb0	0.0174478
83	0x3d2e45cc	0.042547032
84	0x3c270227	0.010193384
85	0x3b8815de	0.0041529974
86	0x3d5463a3	0.051852833
87	0x3b0b96e0	0.0021299645
88	0xbdb117fa	-0.08647151
89	0x3d954dd0	0.07290232
90	0x3d2e0800	0.0424881
91	0xbc2a1d0a	-0.0103829
92	0x3cd107fd	0.025516504
93	0xbc7fd996	-0.015615841
94	0x3d647261	0.055773143
95	0xbd842a3b	-0.06453367
96	0xbbf3576e	-0.007426194
97	0xbd4f1d83	-0.050565254
98	0xbd81d072	-0.06338586
99	0x3c079cc1	0.008277119
100	0xbc57ee17	-0.013179324
101	0x3d86f48e	0.06589614
102	0x3dc354c0	0.09537649
103	0xbd80326b	-0.062596165
104	0xbbd0a546	-0.0063673584
105	0xbdaf06bc	-0.08546206
106	0x3d1b7396	0.03795203
107	0x3daa56a2	0.08317305
108	0xbdbf707b	-0.09347626
109	0x3d74fe06	0.059812568
110	0xbdbc46ba	-0.091931775
111	0x3dee2084	0.116272956
112	0xbd9b5654	-0.07584825
113	0x3d9a405d	0.075318076
114	0xbc5b2df1	-0.0133776525
115	0xbce52c5b	-0.027975252
116	0xbda8dcb8	-0.08245224
117	0xbdc13717	-0.09434336
118	0xbda43a37	-0.08018916
119	0x3d765c3c	0.060146555
120	0xbbd2dc71	-0.00643497
121	0xbdbf6089	-0.093445845
122	0xbda08462	-0.0783775
123	0xbd474d4e	-0.048657708
124	0x3ddd89ff	0.10817336
125	0xbd71ef51	-0.05906612
126	0x3dd61049	0.10452325
127	0x3cb2575e	0.021770176
128	0xbdceb9c2	-0.10094024
129	0xbd51ad2f	-0.05119055
130	0x3d111e52	0.035429306
131	0x3d3052a3	0.04304756
132	0x3e0f7192	0.14008167
133	0xbb679bb5	-0.0035340611
134	0x3d2e02f6	0.042483293
135	0xbd11e13e	-0.0356152
136	0x3d7dff97	0.062011328
137	0xbcc7d296	-0.024392407
138	0x3a887b22	0.0010412673
139	0xbd703437	-0.058643546
140	0xbcfb25e8	-0.030657724
141	0xbdaae8ac	-0.0834516
142	0xbc2fd299	-0.010731363
143	0xbd241562	-0.040059455
144	0xbd1bef0a	-0.038069762
145	0x3c6e3c25	0.014540707
146	0xbca775fe	-0.020442005
147	0x3dabf7a0	0.0839684
148	0xbc0ebe28	-0.008712329
149	0xbdcc5646	-0.09977393
150	0xbd659627	-0.0560514
151	0xbc575434	-0.013142634
152	0xbc0c8651	-0.008576945
153	0x3d46ad38	0.048505038
154	0x3cd7f010	0.026359588
155	0xbd7e3203	-0.062059414
156	0xbd8fe5af	-0.070262305
157	0x3cba1bc0	0.02271831
158	0x3d941d4f	0.07232153
159	0x3d6bfd5d	0.057614673
160	0xbdb4108e	-0.0879222
161	0x3e0b0b14	0.13578445
162	0xbd19e83d	-0.037574995
163	0x3d9ac144	0.07556394
164	0xbd2f01b5	-0.042726237
165	0xbdc3b682	-0.09556295
166	0x3d25dd31	0.040494148
167	0x3d671381	0.056415085
168	0xbcec0c8b	-0.028814575
169	0x3d452336	0.048129283
170	0x3ddff0bd	0.10934589
171	0x3baac4c8	0.0052114464
172	0x3d7fa522	0.062413342
173	0xbd8a6afe	-0.067586884
174	0xbc399e4e	-0.011329247
175	0xbdbf5415	-0.09342209
176	0xbdaebdd9	-0.08532304
177	0xbd9e0207	-0.077152304
178	0xbdd139b4	-0.10216084
179	0x3d41b2af	0.047289547
180	0x3de50772	0.11183061
181	0x3dac2f05	0.08407406
182	0x3d499b6d	0.04922049
183	0x3d3c1b17	0.045924272
184	0x3c20ce12	0.009814756
185	0x3ba975b1	0.0051715006
186	0x3dd5bf7b	0.104369126
187	0xbd752afb	-0.059855442
188	0x3c3c1dbc	0.011481699
189	0x3dd2549f	0.102700464
190	0xbcf004a1	-0.029299082
191	0xbd59dfc9	-0.053191934
192	0x3d4b66c9	0.04965857
193	0x3c092d02	0.008372547
194	0x3dc1e946	0.094683215
195	0xbe234ebb	-0.15948002
196	0xbd8ad05a	-0.06778021
197	0xbb80d209	-0.003931288
198	0x3d921671	0.071331866
199	0x3c5de3f6	0.01354312
200	0xbd1ff097	-0.039047804
201	0x3ce509de	0.027958807
202	0x3e02b42a	0.1276404
203	0x3b04485d	0.0020184733
204	0xbd331b81	-0.0437274
205	0x3da6a73c	0.08137366
206	0xbbb6273b	-0.005558876
207	0xbd16a19c	-0.036775216
208	0xbd935f09	-0.07195861
209	0xbdbfaf9d	-0.093596675
210	0xbd9a85e4	-0.07545069
211	0xbd2a9014	-0.04164131
212	0x3dbaaf99	0.09115524
213	0xbb34c324	-0.0027582133
214	0x3daee753	0.08540215
215	0xbce46034	-0.027877904
216	0xbcb91008	-0.022590652
217	0xbd134927	-0.035958435
218	0x3dc73702	0.09727289
219	0xbbd7d4da	-0.006586653
220	0xbd8b3fcc	-0.06799278
221	0x3cec1ec8	0.028823271
222	0x3d61cdae	0.055127792
223	0xbc8b9474	-0.017038561
224	0xbd354cec	-0.04426281
225	0xbb01147a	-0.0019696043
226	0xbd0e2327	-0.034701493
227	0xbcb2e726	-0.021838736
228	0xba176024	-0.0005774519
229	0xbc58cc75	-0.01323234
230	0xbc5d86c4	-0.0135209
231	0x3d58e1ff	0.0529499
232	0xbc8c784b	-0.017147204
233	0x3cff3841	0.031154754
234	0x3da22890	0.07917893
235	0xbad06bc4	-0.0015901257
236	0x3df53ab9	0.11974091
237	0xbd4245ea	-0.047429956
238	0x39d7f8e4	0.00041193434
239	0xbdaa46a2	-0.083142534
240	0xbd6ac0e2	-0.057312854
241	0x3d2a153c	0.041524157
242	0x3dc6453a	0.09681173
243	0xbd6deccd	-0.05808716
244	0x3c98412d	0.018585766
245	0xbd3e7537	-0.046498504
246	0xbdf6c836	-0.12049906
247	0xbdd09a9a	-0.10185738
248	0x3b12d4d8	0.0022404697
249	0x3ddfb62f	0.10923421
250	0xbd8faf03	-0.07015803
251	0x3db9e590	0.09076989
252	0xbdb79a2c	-0.08964953
253	0xbc2641ed	-0.010147554
254	0xbc90a994	-0.017658986
255	0x3c42f69f	0.011899619

net.4.module.0.bias f4 [32]
0	0xbd43c8db	-0.047798973
1	0x3d226db4	0.039655402
2	0xbbac2dba	-0.0052544745
3	0x3dc66c77	0.09688657
4	0x3d9f3793	0.07774272
5	0xbd755999	-0.0598999
6	0xbc856fa9	-0.016288595
7	0x3d6be3bc	0.05759023
8	0x3da0261f	0.07819771
9	0xbc4ed636	-0.012624314
10	0x3d1dee2a	0.03855721
11	0x3d35c129	0.044373665
12	0x3dc0b86b	0.09410175
13	0x3d4165cc	0.04721622
14	0x3d8b8f12	0.06814398
15	0xbd405c00	-0.046962738
16	0xbca1a7db	-0.01973336
17	0xbd84c991	-0.06483758
18	0x3d63823d	0.055544127
19	0xbbb41923	-0.0054961606
20	0xbd4e9343	-0.05043341
21	0xbd82c6b2	-0.063855544
22	0x3d9c7a27	0.07640486
23	0xbd873038	-0.06600994
24	0xbd237c96	-0.039913736
25	0x3bea9497	0.0071588266
26	0x3d4f52a9	0.05061594
27	0xbbfd47a8	-0.0077294894
28	0x3c9bb38e	0.019006517
29	0x3dab1bc5	0.08354906
30	0xbd82ed58	-0.06392926
31	0xbc7bdb1d	-0.015372065

net.5.weight f4 [3, 32, 3]
0	0x3cd8118b	0.026375553
1	0x3d9e3755	0.077253975
2	0x3b632f00	0.0034665465
3	0xbd664cc4	-0.056225553
4	0xbd8ceb63	-0.06880834
5	0xbd229282	-0.039690502
6	0x3dbe2aca	0.09285505
7	0x3cfaa11c	0.030594401
8	0x3d75b821	0.059990052
9	0x3da45628	0.080242455
10	0x3cee96b8	0.029124603
11	0xbd9763bb	-0.07392069
12	0xbda06812	-0.0783235
13	0x3c066084	0.008201722
14	0x3d99d720	0.07511735
15	0x3db09d85	0.086237945
16	0xbd13e847	-0.03611019
17	0xbddcbb10	-0.10777867
18	0xbdd2998b	-0.10283192
19	0xbd6da45a	-0.058018066
20	0xbd13afe7	-0.036056425
21	0xbd3a6555	-0.045506794
22	0x3d92b3d0	0.07163203
23	0x3d52f43e	0.05150246
24	0x3d84ebf9	0.06490321
25	0x3db36ec1	0.08761359
26	0xbddbf7c5	-0.10740618
27	0x3dbedc87	0.09319406
28	0xb90b2973	-0.00013271514
29	0x3e09b7c2	0.13449004
30	0x3d7da07b	0.061920624
31	0xbc527c27	-0.012846983
32	0x3dea1cd4	0.1143128
33	0x3d976df2	0.07394017
34	0xbd0cf5f7	-0.034414258
35	0x3ce0c275	0.027436474
36	0xbc72b109	-0.014812716
37	0xbd8aea0f	-0.067829244
38	0xbcfb517c	-0.030678503
39	0xbd1265e5	-0.035741705
40	0xbc329fb6	-0.010902336
41	0xbd1ec0ce	-0.03875809
42	0xbdb014bd	-0.085977055
43	0x3c19cc4e	0.009387089
44	0xbd87c800	-0.06629944
45	0xbd9ecb44	-0.077536136
46	0xbdb2d954	-0.08732858
47	0xbcdc0faa	-0.026862938
48	0x3bb8c991	0.005639263
49	0x3d24c3c4	0.04022576
50	0xbc9be90e	-0.019032028
51	0xbd538f02	-0.051650055
52	0xbdc14472	-0.09436883
53	0xbdf07fd9	-0.11743135
54	0xbd85c50d	-0.06531725
55	0x3d2a130d	0.041522074
56	0x3dd62175	0.104556
57	0xbd9f85f4	-0.077892214
58	0x3dab9769	0.083784886
59	0x3d27bb2b	0.04094998
60	0xbc9e0648	-0.019290105
61	0x3d8e4fe7	0.06948834
62	0xbdd8e56f	-0.10590636
63	0x3d7588af	0.059944805
64	0xbc31903b	-0.01083761
65	0xbb372f8a	-0.002795192
66	0x3d100dc3	0.035169374
67	0xbcbc434c	-0.022981308
68	0xbcf218de	-0.029552873
69	0xbd1889c9	-0.037240777
70	0xb9f3bcc1	-0.00046489204
71	0x3d8ac563	0.0677593
72	0xbd45cee2	-0.048293002
73	0xbc0d6146	-0.008629149
74	0x3c5f31a4	0.013622675
75	0xbd353511	-0.04424006
76	0x3d571bbe	0.05251669
77	0x3cb96949	0.022633212
78	0x3bb770bb	0.0055981553
79	0xbdadc560	-0.08484912
80	0xbdcf14e6	-0.10111408
81	0x3d924cd9	0.07143564
82	0xbca6a91c	-0.02034431
83	0xbcc8015d	-0.024414713
84	0x3c2226b5	0.009896924
85	0xbd8c863a	-0.06861539
86	0x3d6ac66a	0.05731813
87	0xbd2e8267	-0.04260483
88	0xbd96c90f	-0.07362568
89	0xbc8c7d87	-0.0171497
90	0xba888828	-0.0010416554
91	0x3be176c6	0.006880614
92	0x3d160152	0.036622353
93	0xbd89e839	-0.06733746
94	0xbd4e4971	-0.050363008
95	0x3d454fb9	0.048171733
96	0x3cc19ef4	0.023635365
97	0xbd58a8cf	-0.052895363
98	0x3d615431	0.05501193
99	0xbd82fcf4	-0.06395903
100	0x3c119db0	0.008887693
101	0xbd1cb2bf	-0.038256403
102	0xbb4474cc	-0.0029976843
103	0x3d3acb80	0.04560423
104	0xbde27d26	-0.110590264
105	0xbc27cf07	-0.01024223
106	0x3d514038	0.051086634
107	0x3d56ee79	0.05247352
108	0xbd17fa3f	-0.037103888
109	0x3d503cdf	0.0508393
110	0x3d3f0aeb	0.04664127
111	0xbba08414	-0.0048985574
112	0xbd9e35ea	-0.07725127
113	0x3d999d12	0.07500662
114	0x3d445adb	0.04793821
115	0xbd2399bf	-0.039941546
116	0x3d68c0fc	0.05682467
117	0x3c26cd25	0.010180746
118	0xbd904517	-0.07044428
119	0xbd5ca71e	-0.053870313
120	0xbd94c930	-0.07264936
121	0x3c357733	0.011075783
122	0x3d4cd5c3	0.050008547
123	0x3d884d48	0.06655365
124	0x3d971073	0.07376184
125	0xbbb8ffd6	-0.0056457324
126	0x3cf80eeb	0.030280551
127	0xbd85a972	-0.0652646
128	0xbe08f986	-0.13376436
129	0xbddc0666	-0.10743408
130	0xbd03bf23	-0.032164704
131	0x3ce372b6	0.02776466
132	0xbdb25384	-0.087073356
133	0xbc005a2d	-0.007834
134	0xbda2d4e8	-0.07950765
135	0xbd86f67f	-0.06589984
136	0xbb6dbf0d	-0.0036277205
137	0xbbcb8d9d	-0.00621195
138	0x3c557be0	0.013030022
139	0xbbecf4a6	-0.007231313
140	0xba98a3c7	-0.0011645489
141	0xbd1b0641	-0.03784776
142	0x3d02b125	0.03190722
143	0xbcc4cf0a	-0.024024505
144	0x3c8c3b0d	0.017118001
145	0xbdd9befa	-0.10632129
146	0x3dc72a49	0.09724862
147	0xbcc2fcf6	-0.023802262
148	0x3b96ec5c	0.004605813
149	0x3d967a5f	0.07347559
150	0xbcb2e4cd	-0.021837616
151	0x3d2961fb	0.041353207
152	0x3d3ea42f	0.046543296
153	0xbd9a465f	-0.075329535
154	0xbdf7fc1f	-0.12108635
155	0x3ca74dc8	0.020422831
156	0xbd01379e	-0.03154718
157	0x3d6a26c9	0.057165895
158	0xbdc2ca22	-0.0951121
159	0x3d6455a3	0.055745732
160	0xbca45da9	-0.020064192
161	0xbd926eed	-0.07150064
162	0x3d7a6518	0.061131567
163	0xbdb3de85	-0.087826766
164	0xbd452bb0	-0.048137367
165	0x3d7b13ac	0.061298057
166	0x3d8f5aa1	0.06999708
167	0x3de2b8bf	0.11070394
168	0xbe04895b	-0.12943022
169	0xbd8f1631	-0.069866545
170	0xbd79edc1	-0.061017755
171	0x3c5f2813	0.013620394
172	0xbc6c0ff8	-0.014408104
173	0xbe1cb166	-0.15302047
174	0x3b503612	0.003177051
175	0x3d15fabd	0.036616076
176	0xbd89fffd	-0.06738279
177	0x3dafe27b	0.085881196
178	0x3d379a22	0.044824727
179	0xbd6ad279	-0.05732963
180	0x3dbff4d4	0.09372869
181	0x3cf85aa2	0.030316655
182	0xbd5f98ed	-0.0545892
183	0x3d60a5e1	0.054845694
184	0xbd78cc5a	-0.06074176
185	0x3bee00cc	0.0072632786
186	0x3d8f2d9f	0.069911234
187	0xbde406cb	-0.11134108
188	0x3c25da3d	0.010122833
189	0x3d928d64	0.07155874
190	0xbd35cc41	-0.044384245
191	0x3d1f85a0	0.038945794
192	0xbd0f523c	-0.034990534
193	0x3cbc9988	0.023022428
194	0x3d8a73e5	0.067603864
195	0xbd0a7af7	-0.033808675
196	0x3da2ac67	0.079430394
197	0x3c15aebe	0.0091359
198	0xbd69bda1	-0.05706561
199	0x3d33b644	0.043874994
200	0x3c797bec	0.015227299
201	0xbc9e46df	-0.019320903
202	0x3ddbd373	0.1073369
203	0xbdde9b4b	-0.108694635
204	0x3d3702eb	0.044680517
205	0xbd7ea431	-0.062168304
206	0x3d6e63f3	0.058200788
207	0xbd059809	-0.032615695
208	0x3da01138	0.07815784
209	0x3d588147	0.052857663
210	0x3de71ed1	0.11285175
211	0x3dd9cc8f	0.106347196
212	0xbd99fb3a	-0.07518621
213	0xbc746aed	-0.014918071
214	0x3d9aaf3e	0.07552956
215	0xbcf50167	-0.029907895
216	0x3d16db90	0.036830485
217	0xbbeb3b9b	-0.0071787364
218	0x3d9dec61	0.07711101
219	0x3d5d7609	0.054067645
220	0x3d819cc6	0.0632873
221	0xbca4702c	-0.020073019
222	0xbd7defac	-0.061996147
223	0xbd48dce2	-0.049038775
224	0x3bccfc25	0.006255644
225	0x3dcdb148	0.10043579
226	0xbc36d499	-0.011159086
227	0xbbc8acc0	-0.006124109
228	0xbc3806bc	-0.011232074
229	0xbdbb56c8	-0.091474116
230	0x3dda929d	0.106724955
231	0x3b462f65	0.0030240652
232	0xbd9bc1d5	-0.0760533
233	0x3cf56d5b	0.029959371
234	0xbb5f07cd	-0.003403175
235	0xbaf4cf2b	-0.0018677464
236	0xbd2dd092	-0.042435236
237	0xbbbf6bd3	-0.005841711
238	0xbdc50a46	-0.096211
239	0x3cb6322a	0.022240717
240	0xbdbaec64	-0.09127119
241	0xbc9af3ec	-0.01891514
242	0x3d7187dc	0.058967456
243	0x3d85e63c	0.06538054
244	0x3d9ee46f	0.07758414
245	0xbd878481	-0.0661707
246	0x3ced0718	0.028934047
247	0x386f7727	5.709301e-05
248	0xbd03ab5c	-0.032145843
249	0xbda5c38f	-0.080939405
250	0xbd43a53f	-0.047765013
251	0x3c6ea942	0.014566721
252	0x3d682d23	0.05668367
253	0x3dd9fece	0.10644303
254	0x3d40120e	0.04689222
255	0xbdca6df6	-0.09884255

net.5.bias f4 [3]
0	0x3ca8ac24	0.020589896
1	0xbda716cb	-0.08158644
2	0x3a9fbcfa	0.0012187057

exp_avg f4 [32, 120, 2]
0	0xb9d1f3a9	-0.00040045127
1	0x3996e3bd	0.00028779908
2	0x395e07f7	0.00021174537
3	0xba500068	-0.0007934631
4	0x3af0a077	0.0018358369
5	0x3af316f0	0.0018546265
6	0x3a75dd9d	0.0009379031
7	0x3ab11849	0.0013511266
8	0xba056fbc	-0.0005090197
9	0x3a1ce6d4	0.0005985324
10	0x3a4449bc	0.0007487794
11	0xba4d8961	-0.00078406004
12	0x3a4c79cd	0.0007800132
13	0x390d0ab2	0.00013450792
14	0xb9f3a796	-0.00046473433
15	0x3925d4f0	0.00015814952
16	0xba0650e5	-0.00051237486
17	0x3921c73a	0.00015428374
18	0x3898b6ef	7.281999e-05
19	0xb90fbbf1	-0.00013707556
20	0x38e2da79	0.000108172135
21	0x3a44b965	0.00075044326
22	0x39f5dbf3	0.00046893916
23	0x39974df0	0.00028859032
24	0x3952267e	0.000200415
25	0xb9386d29	-0.00017588273
26	0x3a7e8e81	0.0009710566
27	0xb9bbfc77	-0.0003585552
28	0x3b295504	0.0025838027
29	0x3a1dd1ad	0.0006020319
30	0x3a6a3d8a	0.00089355616
31	0x3a893f66	0.0010471165
32	0xb971bfc5	-0.00023054991
33	0x3b1311ba	0.0022440986
34	0x39206999	0.00015298127
35	0x393ad558	0.00017817819
36	0x3a6a3035	0.0008933575
37	0x3a81a8ee	0.0009892264
38	0x369e3950	4.715439e-06
39	0x3a74e93e	0.0009342617
40	0xb9b509eb	-0.000345304
41	0xb959aef6	-0.0002075991
42	0x39696c06	0.00022260853
43	0xb9962087	-0.00028634464
44	0xbadc2d3a	-0.0016798147
45	0x3a1005ba	0.00054940174
46	0x3b081c2d	0.0020768747
47	0xb9b841d0	-0.0003514425
48	0x3a00aa15	0.00049081567
49	0x3a98bb0e	0.0011652426
50	0xba2e94ee	-0.00066597655
51	0xbb569542	-0.0032742773
52	0xba18abec	-0.0005823958
53	0x3a24b76c	0.00062834355
54	0xb9011007	-0.0001230837
55	0x387a003c	5.9604863e-05
56	0x388cff01	6.7232184e-05
57	0x3913215d	0.00014031441
58	0xba3af03d	-0.0007131135
59	0x39bbca0b	0.00035817953
60	0xb90cbfb1	-0.00013422851
61	0xb9c5c607	-0.0003772231
62	0xba5a983c	-0.0008338725
63	0x3ab29af7	0.0013626505
64	0x3822df0c	3.883154e-05
65	0xb8acb963	-8.23613e-05
66	0x39add388	0.00033154734
67	0xb96e71a4	-0.00022739783
68	0x38aef032	8.3417064e-05
69	0x37c72a3d	2.3742317e-05
70	0xb7fef746	-3.0394305e-05
71	0x3885ea7f	6.3856125e-05
72	0xb902ca1d	-0.00012473059
73	0xb9c08c9b	-0.00036725853
74	0xb99de1c2	-0.00030113576
75	0xb82c52d6	-4.1085143e-05
76	0xb7f79351	-2.9513294e-05
77	0xb9d4a3d5	-0.00040557855
78	0x00000000	0.0
79	0x00000000	0.0
80	0xbac5bd71	-0.0015086365
81	0x38b0b1fd	8.425487e-05
82	0x3806cb47	3.2137406e-05
83	0xba9ada9f	-0.0011814422
84	0x39219faa	0.00015413636
85	0x39add76c	0.00033157633
86	0xb8e28681	-0.00010801573
87	0x3788b682	1.629745e-05
88	0xb8ff58d0	-0.0001217589
89	0xba058fc6	-0.0005094971
90	0x3a39d650	0.0007089125
91	0xb9212c4e	-0.00015370661
92	0x3a9698e5	0.0011489658
93	0x3ae0eb7e	0.0017160026
94	0x3ac028df	0.0014660618
95	0x3a640885	0.0008698779
96	0xb7c624db	-2.3620601e-05
97	0xb9e096c3	-0.00042836936
98	0xb8988608	-7.27289e-05
99	0x390385ad	0.00012542932
100	0xb9ed0bb5	-0.00045212885
101	0x3a8dedb8	0.0010828292
102	0x39d23983	0.0004009717
103	0x3abb7dd5	0.0014304469
104	0x39f4225c	0.00046564906
105	0xba3ae745	-0.0007129799
106	0x3955b9e0	0.00020382507
107	0xb80f2b56	-3.4134217e-05
108	0xbb1f6e23	-0.0024327121
109	0xba422e66	-0.00074074266
110	0x39da74fd	0.00041667363
111	0x3a4ae315	0.00077395263
112	0xba7fa136	-0.00097515003
113	0x3ac1c7a7	0.0014784232
114	0xb885b9bd	-6.376531e-05
115	0xba0873ba	-0.0005205233
116	0xb983f347	-0.00025167523
117	0xb90bae10	-0.00013320916
118	0x3a1cafec	0.0005977142
119	0x3ad6d178	0.0016389331
120	0x3afe7ad8	0.0019415272
121	0xbb0dc781	-0.0021633806
122	0x3892554e	6.977712e-05
123	0x37e48cb8	2.7245245e-05
124	0x3a020c33	0.0004960924
125	0x399d4ecb	0.0003000408
126	0x3a07ab80	0.0005175397
127	0xba260424	-0.00063330145
128	0x36c5b0c3	5.8916353e-06
129	0xba572379	-0.0008206885
130	0x358ece05	1.0639784e-06
131	0x36dc37bd	6.5629997e-06
132	0xb9996b01	-0.00029262158
133	0x39ed75b9	0.00045291873
134	0xbaabf879	-0.0013120315
135	0xba9c9114	-0.0011945092
136	0x39595d2d	0.00020729443
137	0xb8a2cafe	-7.762572e-05
138	0xb983097c	-0.00024993333
139	0x3b079d82	0.0020693247
140	0xbad6256a	-0.0016338055
141	0x3b1de84e	0.0024094763
142	0xba9d11f9	-0.0011983506
143	0x39d851c2	0.00041259645
144	0x3a8dcf5c	0.0010819244
145	0x3a260bc8	0.0006334153
146	0x399adbe7	0.0002953701
147	0x39ce49d7	0.00039346397
148	0x392af2f9	0.00016302978
149	0xb80c1380	-3.3396762e-05
150	0x39abe0a1	0.00032783023
151	0x3829f7e3	4.0523602e-05
152	0x39c7c426	0.0003810238
153	0xb939bf00	-0.00017714128
154	0x39bf1d73	0.000364523
155	0xb89b5c7e	-7.408204e-05
156	0x3aba5ed1	0.0014218931
157	0xbb0b2477	-0.0021231452
158	0xba24cb31	-0.00062863814
159	0x3a1743a8	0.00057702744
160	0x3a0d11f0	0.0005381396
161	0xba83318b	-0.0010009272
162	0xb958266d	-0.0002061368
163	0xb988550c	-0.00026003306
164	0x399d50ee	0.0003000567
165	0xb8c0832f	-9.179708e-05
166	0x3a1086c6	0.0005513247
167	0x38abda1c	8.1945414e-05
168	0x38c4301d	9.35497e-05
169	0x36ca879a	6.035855e-06
170	0xba013ed0	-0.0004930319
171	0xba1ad8f4	-0.00059069623
172	0xb8e04ffc	-0.000106960506
173	0x398ccef6	0.0002685708
174	0x388bda09	6.668649e-05
175	0xba1f80ba	-0.00060845504
176	0x3a1d1e69	0.0005993606
177	0x3a499214	0.0007689309
178	0x3a591233	0.0008280605
179	0xb9925679	-0.00027911717
180	0x38bd65a3	9.0311536e-05
181	0xb7096abb	-8.1906865e-06
182	0xb99ffef3	-0.00030516795
183	0xb8b693a8	-8.7059394e-05
184	0x3a101049	0.0005495591
185	0x3b08312a	0.0020781257
186	0xba49cace	-0.0007697762
187	0xb9151ff6	-0.00014221654
188	0x38fa558d	0.00011936864
189	0x39c6b683	0.00037901485
190	0x39190e15	0.00014596463
191	0xb9973b50	-0.00028845156
192	0xba2811de	-0.0006411354
193	0x39276212	0.00015962895
194	0xb97be9b6	-0.0002402429
195	0x385e43b5	5.299198e-05
196	0xba7be6e6	-0.00096092967
197	0x3a090540	0.00052269176
198	0x39316199	0.00016916393
199	0xb929f901	-0.00016209857
200	0xba78107b	-0.0009462905
201	0xb97faf7d	-0.0002438407
202	0xb9d18ef2	-0.0003997009
203	0x39e0a0b6	0.00042844348
204	0xba0e0c09	-0.00054186635
205	0x3923bb0b	0.0001561457
206	0xb8dafd0f	-0.00010442186
207	0xba93dfdd	-0.0011281926
208	0xb92e6a1f	-0.00016633466
209	0x371eec92	9.472615e-06
210	0x398846f5	0.00025992809
211	0xb98ba386	-0.0002663398
212	0xb9cb4711	-0.00038772126
213	0x39e43889	0.0004352967
214	0xba129838	-0.00055921404
215	0xb85869e6	-5.159704e-05
216	0xba0e181e	-0.0005420464
217	0xb9af0abb	-0.00033386596
218	0xba95339b	-0.0011383177
219	0x3a87ed6a	0.0010370438
220	0x3aead35a	0.0017915771
221	0x3a56c219	0.0008192375
222	0x3a5d40d0	0.0008440139
223	0x3a45d213	0.0007546257
224	0x39ba5c30	0.0003554537
225	0x3a1a22e9	0.0005879836
226	0x393f1ae0	0.00018225191
227	0xb74bdb9f	-1.2150877e-05
228	0xb9373ca5	-0.00017474832
229	0x38fec585	0.00012148455
230	0x3963152b	0.00021656293
231	0xbac89cf9	-0.001530557
232	0xb60352e6	-1.9568774e-06
233	0xba049cc3	-0.00050587597
234	0x380c471d	3.344483e-05
235	0x3921712b	0.00015396315
236	0xb9e3ee57	-0.0004347439
237	0xb8b24e6e	-8.50231e-05
238	0x39a8bf2f	0.000321859
239	0x395e5cf3	0.00021206196
240	0xb9137ba3	-0.0001406507
241	0x39134770	0.00014045625
242	0xb8e96c97	-0.00011130532
243	0x397ea761	0.00024285681
244	0xbb3ad62c	-0.0028509004
245	0xb98e894f	-0.00027186653
246	0x3a0533ed	0.0005081285
247	0xba8fccde	-0.0010971089
248	0x3854bd6c	5.072115e-05
249	0xba9557bc	-0.0011393945
250	0xbb2ea894	-0.0026650773
251	0xba0aa938	-0.0005289498
252	0xba142f9d	-0.0005652847
253	0xb99972fe	-0.0002926811
254	0xb98c4adf	-0.00026758664
255	0xbaa70960	-0.0012743883
