data/Figure3_Supplement/038/checkpoint_0000500.pth (torch, 225793 bytes, 31 tensors)

net.0.weight f4 [32, 120, 2]
000000 18 c1 34 3d 82 b1 3c bc 4a ee bf 3c 4c e2 d8 bc
       0.04412946 -0.011516931 0.023429055 -0.026475094
000010 d9 f4 bb bc b2 1c 87 3d de d4 74 3c 2e ab 1f 3d
       -0.0229439 0.0659727 0.01494333 0.03898161
000020 51 c3 6f bd 18 59 82 bd 48 fe 26 bd 0e f1 0f 3d
       -0.058535878 -0.063646495 -0.040769845 0.035141997
000030 17 37 1e bd ae 4c 7d bb 06 b0 a8 3c e8 ae f9 bb
       -0.038626757 -0.003865044 0.020591747 -0.0076197274
000040 29 d6 b3 bc bc 19 51 bd 1a c8 85 3c 75 8a a6 bb
       -0.021952705 -0.051049933 0.016330767 -0.0050824233
000050 bb 3b 27 bd a0 7a 20 3c 0e b6 7d bc 26 e1 18 3b
       -0.040828448 0.009794861 -0.0154853 0.0023327558
000060 06 bd 99 3d a8 3d 12 bd 96 3a 0f bd ca 09 34 3d
       0.075067565 -0.03570333 -0.03496798 0.043954648
000070 34 28 c7 bb f4 9b 8f bc 6b ef 76 3d 21 85 06 3d
       -0.0060777906 -0.017530419 0.06028692 0.032841805
000080 6b b6 22 bd ae 56 4a 3d 94 74 0e 3d 83 07 b1 bc
       -0.03972475 0.04939907 0.034779146 -0.021610027
000090 4a 80 54 3d b4 36 df 3b a5 59 b3 3c cd e9 aa 3b
       0.05188016 0.006811941 0.021893332 0.0052158595
0000a0 79 ec 4c 3d 94 70 0e bc e6 99 d9 3c fe 09 86 3d
       0.050030205 -0.008693833 0.026562642 0.065448746
0000b0 94 9c 83 bc d5 1f 13 3b ce e3 60 3d 0c e7 5b bd
       -0.016065873 0.0022449393 0.05490475 -0.05368714
0000c0 39 96 0e bb f1 ea 3e bc 4e b0 6a bd 20 7f 02 3c
       -0.002175702 -0.011652694 -0.057297044 0.007964879
0000d0 22 57 85 bd fc db b0 3c 5f 6f 95 3b f2 b5 32 3d
       -0.0651076 0.021589272 0.0045603956 0.043630548
0000e0 ce 7a 3c 3c 81 24 0d 3d 1d b3 ef 3c 13 17 7d bd
       0.011503888 0.03445864 0.029260213 -0.061789583
0000f0 d0 32 7d bd e0 9e 86 bd 43 25 53 3d a2 b1 0e 3d
       -0.061816037 -0.06573272 0.051549207 0.034837373
000100 a5 66 d4 bc 3f 28 67 3b 71 f1 b1 3d b7 38 7a bc
       -0.025927851 0.0035271791 0.086886294 -0.015272311
000110 a1 0c 29 bc bb 52 b0 bb 25 14 5d 3c 49 ee 2f 3b
       -0.010317952 -0.005380956 0.013493572 0.002684491
000120 0b b8 7a 3c 5d b3 55 bc 10 e0 66 bc 35 6e 08 bc
       0.015302668 -0.013043252 -0.014091507 -0.008327057
000130 2e 87 fe bc d3 0c 2f bc b9 f1 61 3d d4 50 cf 3c
       -0.031070318 -0.01068421 0.055162165 0.025307097
000140 f0 1e 8a bc 1e ef fc bc 39 d2 19 bd 72 da 40 3d
       -0.016860455 -0.030875739 -0.037554 0.047083326
000150 35 40 42 3d c7 4d fc ba 68 0e c4 bc a6 73 89 3d
       0.047424514 -0.0019249254 -0.02393265 0.06711511
000160 8e 0e 37 3d 96 6a cf bb b6 fc ad 3d 7f bd 2b 3d
       0.044691615 -0.0063298447 0.084954664 0.041928764
000170 91 6f 41 bd be a3 5d 3c e7 6d eb 3b fc 18 08 3c
       -0.04722554 0.013527809 0.0071847322 0.008306738
000180 06 2f 29 bd 02 99 17 3d 44 1e f3 3b ea e3 f3 3b
       -0.04130461 0.037011154 0.0074193794 0.007442941
000190 99 87 57 bd 15 12 3e bd 2b fd a3 bd 9c f9 da bb
       -0.05261955 -0.046403963 -0.08007272 -0.006682588
0001a0 7f 3f eb bc 08 76 1a bd 46 47 60 3d 80 2e f5 3c
       -0.0287168 -0.03771022 0.05475547 0.0299294
0001b0 16 b7 ca bc 05 fb 38 3d b3 21 90 bb a9 8a 68 3c
       -0.024745505 0.045161266 -0.0043985485 0.014193215
0001c0 80 2a 63 3c 72 24 88 3c 78 b0 d1 bc 71 44 e4 bc
       0.013865113 0.016618941 -0.025596842 -0.027864667
0001d0 19 87 be 3c 3c 08 15 3d 9d bc a6 3c c3 ef 62 3b
       0.023257779 0.036384806 0.02035361 0.0034627772
0001e0 d8 b3 99 3c 32 1b 38 3d fb eb a3 bd ee 3e 50 bd
       0.018762514 0.04494781 -0.08003994 -0.050841264
0001f0 d0 b4 66 bd bd 2e e0 bc a2 e2 a6 3c d8 39 63 3d
       -0.05632478 -0.027366037 0.020371739 0.055475086
000200 36 d2 50 3d 4d 31 8a bd 05 28 a9 3c 44 6a df 3a
       0.050981723 -0.06747685 0.020648966 0.001704522
000210 c0 64 cf 3c ff d7 29 3d a0 3b a7 3c 6f 6c 8e bd
       0.025316596 0.041465756 0.020414174 -0.06954276
000220 76 31 cb 3c da 50 30 3c 3f 63 fb bc 6e 0f 54 3d
       0.024803858 0.010761464 -0.030686973 0.051772527
000230 70 3c d8 3c 51 70 28 3d 14 93 6b bd 28 06 16 ba
       0.026396006 0.04112274 -0.05751331 -0.0005722963
000240 3f 82 a2 3c 23 7d 84 3c 32 48 67 3d de 9c bc 3d
       0.019837497 0.016172951 0.056465335 0.092096075
000250 0e 86 38 bd a2 35 54 3c 54 72 88 3c 69 98 bb 3c
       -0.04504972 0.01295224 0.016656078 0.022899823
000260 67 95 0e bd c1 35 2e 3d 27 1d 0f bd 16 3f 52 bc
       -0.03481045 0.042531732 -0.03493991 -0.012832424
000270 9d 35 50 3d 2b 36 6d 3d bc 41 c2 3c ef 27 ba bc
       0.05083238 0.057912987 0.023712985 -0.02272412
000280 92 ea 8e bc 4b 8b 2f 3d 0c 0c 89 bd 81 fe 9b bd
       -0.017445836 0.04285745 -0.06691751 -0.07616902
000290 9f cc 14 bd 8d e5 1f bc 8b 19 ee 3c 1f 2e 79 3d
       -0.036327954 -0.009759319 0.029064914 0.060835
0002a0 1b 85 44 bb 74 4a f4 3c fd bd 26 bd 63 b9 4c 3d
       -0.0029986564 0.029820658 -0.04070853 0.049981486
0002b0 6e e4 c0 bc 5d 28 dd 3c f4 43 a1 3c 5b 41 30 3d
       -0.023546424 0.026996786 0.019685723 0.043031078
0002c0 a0 12 22 bd 12 26 bd 3b 8e 7a 8b bd 94 2d 8b 3d
       -0.039568543 0.0057723606 -0.06810485 0.06795803
0002d0 92 34 d9 bb 70 46 e3 bc 62 41 4e 3d 4b 39 e7 bc
       -0.0066285813 -0.027743548 0.050355323 -0.028225562
0002e0 c4 1d 67 bb 86 ef ad 3c 8d 53 8d 3c 76 a5 20 3d
       -0.0035265544 0.021232378 0.017251754 0.039220296
0002f0 65 73 97 3d a0 7b 6a bc 52 87 19 bb 4d 96 9e 3c
       0.07395057 -0.014311701 -0.0023426604 0.019358778
000300 57 c0 d6 3c 3b 93 2b 3d 51 a8 cf 3b bc d3 b9 3c
       0.026214762 0.041888457 0.0063372036 0.02268397
000310 50 fa 1e bd f7 a5 25 bd c7 b7 5d 3c 21 30 12 bd
       -0.038812935 -0.04044148 0.013532585 -0.03569043
000320 6d 07 2c 3c 2f 99 9e bd 39 c3 30 3d c8 9a af 3c
       0.010499817 -0.07744061 0.04315493 0.02143611
000330 dd fe f5 39 12 7f 97 3c 98 3d 27 bd 81 83 41 3d
       0.0004691993 0.018493209 -0.040830225 0.047244553
000340 c7 78 b1 3c 02 c6 84 3d d4 35 21 bd 51 1c 09 bd
       0.021664036 0.064830795 -0.039357975 -0.03347427
000350 c4 ac 72 bd 4e 32 87 bc 19 12 94 bc 2c 85 16 3c
       -0.059246793 -0.01650348 -0.018075036 0.009187024
000360 e1 ac 87 3d 96 bd 21 3c bf 02 04 bd 5c b6 ba 3c
       0.06624771 0.009871861 -0.03222918 0.022792034
000370 8e 29 f8 3b 0e 64 69 3d 02 5b 8d bc f4 8f d7 3c
       0.007573313 0.056980185 -0.01725531 0.02631376
000380 e0 e5 1f 3c 2e f2 4b 3d 65 60 0c bd 00 24 35 bd
       0.009759396 0.049791507 -0.034271616 -0.044223785
000390 ca 50 d3 bc 1e 36 a9 3c e2 82 bb 3c ed c8 f6 bc
       -0.02579536 0.020655688 0.022889558 -0.030125106
0003a0 e6 fe a6 bc 7e aa 00 bd 70 3b 92 3d 47 96 97 bc
       -0.020385217 -0.031412594 0.07140243 -0.018504275
0003b0 50 d5 30 3d 1f 8b c6 bc 96 fd 39 3d 5c 58 59 bd
       0.04317218 -0.02423626 0.045407854 -0.05306278
0003c0 69 09 3c 3d 64 10 8a 3c fe 75 6e bd d1 6a c7 3c
       0.04590741 0.016853519 -0.058217995 0.024342926
0003d0 d6 60 c6 bc 88 31 da bc 89 c8 f9 bc 12 b8 8c bb
       -0.024216097 -0.026634946 -0.03049113 -0.004294404
0003e0 05 ad ba bb 67 46 7a ba db 6d a9 bc ed 5f 97 bd
       -0.005696895 -0.0009547234 -0.020682266 -0.07391343
0003f0 d2 d2 2e bc f4 c5 85 3c 73 49 75 bc 11 11 72 bd
       -0.010670381 0.016329743 -0.014971125 -0.059098307

net.0.bias f4 [32]
000000 46 4a a3 3b 29 04 c4 bc c3 b0 4e 3d b5 4d 86 bd
       0.0049832193 -0.023927765 0.05046154 -0.0655779
000010 eb eb 19 bd d5 a5 cd 3c ab 93 2f bd 07 b2 b0 bc
       -0.037578505 0.025103489 -0.042865437 -0.021569265
000020 14 f0 9a 3c 6f df c9 3c 4f 3a 8b bc db e7 5a 3c
       0.018913306 0.024642674 -0.016995577 0.013360943
000030 a5 a4 b5 3c 27 8c 13 3b 4a b0 45 3c ab 63 7b 3d
       0.022173235 0.0022513957 0.012065956 0.061374348
000040 a8 d3 64 3d b5 86 34 3d 52 32 4f bd 44 63 42 bd
       0.055865914 0.04407378 -0.0505851 -0.04745795
000050 8b 64 1b 3d 75 b1 ff 3c d7 22 93 39 a4 15 13 3d
       0.037937682 0.031212548 0.00028063983 0.03590931
000060 3d 08 05 3d 73 e0 9e 3b 4c 27 36 bd b7 d0 11 bd
       0.03247856 0.004848534 -0.04447107 -0.035599437
000070 c2 63 2f bd 01 a5 3b bd 97 03 52 bd 73 33 50 3d
       -0.042819746 -0.045811657 -0.051272955 0.050830316

net.2.module.0.weight f4 [32, 32, 3]
000000 f2 dc d6 3d 1d 16 96 3d f4 e4 c0 3d 38 a5 f0 bd
       0.10491361 0.073284365 0.09418669 -0.11750263
000010 1d e0 51 bd 25 dc 93 3d d8 58 90 bd a9 7a c9 bd
       -0.05123912 0.072197236 -0.070481956 -0.09837849
000020 fc 96 c7 3d a4 bc 88 bc 9f 6d af 3d ab d3 00 bd
       0.09745595 -0.016691513 0.085658304 -0.031451862
000030 3a 85 1b 3d 34 98 98 3c dd 7d f5 3c cd 18 91 3c
       0.03796885 0.018627264 0.029967243 0.017712021
000040 82 a7 bb bb 87 60 84 bc d7 cb a6 3b 38 65 f2 bc
       -0.0057267556 -0.01615931 0.0050902176 -0.02958928
000050 7b 47 c7 bd c1 b7 b3 bd e8 08 78 3d 06 30 59 bd
       -0.09730431 -0.08775283 0.06055537 -0.053024314
000060 b5 d1 9a bd 7b b6 89 bd 16 6c a6 bd 9a 56 6f bd
       -0.0755953 -0.067242585 -0.081260845 -0.0584322
000070 70 89 87 bd 48 a0 8a 3d dd b4 77 bd be b8 cd 3d
       -0.06618011 0.067688525 -0.06047522 0.100450024
000080 93 67 41 bd fc a6 d1 bb 87 8a e0 3b 79 5d a4 3d
       -0.047217917 -0.00639808 0.0068524512 0.08025641
000090 ef 1a 2c bd 05 76 3b 3c 29 0d 1b bb 32 de 91 3d
       -0.042017873 0.011441712 -0.0023658967 0.071224585
0000a0 13 f2 ed 3c 16 fe 60 3d 40 50 8f bd 3a a5 12 3d
       0.029046094 0.054929815 -0.06997728 0.035802104
0000b0 30 5f fd bd 79 9f 4c 3d 87 29 80 3c cd 5f df bc
       -0.12371671 0.049956772 0.015644802 -0.027267361
0000c0 d5 62 ab 3d 04 bc 31 3d 52 88 93 3d 8b e9 f4 bc
       0.0836846 0.043392196 0.072037354 -0.029896518
0000d0 b9 14 71 3d 58 f2 3a 3d 1d 84 10 3e b6 5a 04 bc
       0.058857653 0.045641273 0.14112897 -0.008078268
0000e0 35 03 27 3c 7a 72 aa bd 35 8c 88 bd 00 4a e7 bc
       0.010193636 -0.08322616 -0.06667367 -0.028233528
0000f0 42 7a e3 bb a2 af 18 bd 0c 81 ba 3d 86 fa c9 bc
       -0.0069420645 -0.03727687 0.09106645 -0.024655592
000100 ff d5 61 bc 80 3a 9d 3d 91 32 58 bd af 6b 77 3d
       -0.013783931 0.076771736 -0.0527826 0.06040543
000110 ab d8 98 bd ca a0 a3 bd 34 df d8 bc 9c e2 97 bd
       -0.07463201 -0.079896525 -0.026473619 -0.07416269
000120 98 f0 62 3d 0e 29 0a bd 72 df 1b 3d 7d c0 f4 3d
       0.05540523 -0.03373056 0.03805489 0.11950777
000130 e0 c1 05 3a e4 ea f4 3c e9 e6 ac 3b e4 48 ac bd
       0.0005102437 0.02989716 0.00527655 -0.0841234
000140 75 61 02 bc 93 36 5f 3d 01 aa 8b 3d de 2b 6c 3d
       -0.007957806 0.054495405 0.06819535 0.057659023
000150 44 8d dc 3d 17 1a b3 3d aa b3 77 bd 83 7c d2 3c
       0.10769132 0.087452106 -0.060474075 0.025694137
000160 75 ec 49 bd 38 5d d2 3b 41 19 44 3c 58 a8 ad 3c
       -0.04929777 0.006419804 0.011968912 0.021198437
000170 30 c0 44 bc 21 30 15 bd 80 bf 55 3d ee e3 22 3d
       -0.012008712 -0.036422852 0.05218458 0.039768152
000180 21 ff 06 bd 36 c4 6d bd 36 66 d5 3d 93 40 5a 3d
       -0.032958154 -0.05804845 0.10419886 0.05328424
000190 ea ce 94 bd cb b0 0c 3e 56 bd f8 bc 75 d0 3d 3d
       -0.07266028 0.13739316 -0.03036372 0.04634138
0001a0 2d 8b ed 3c bc fb 04 3c f0 67 59 3c d6 be 7d 3d
       0.028997028 0.008116659 0.01326941 0.061949573
0001b0 30 d1 85 3d bc 65 e6 3c 47 43 ed bd 56 b9 59 3c
       0.0653404 0.028124683 -0.11585098 0.013288816
0001c0 60 5d d7 bd 30 a4 09 3e d6 3b 7d bd b4 df b0 bd
       -0.10515857 0.13441539 -0.061824642 -0.08636418
0001d0 61 1a c3 bd 3e 6c 46 3d b2 e2 be bd 2f d2 15 bd
       -0.09526516 0.04844307 -0.093205824 -0.0365774
0001e0 56 0e 0d bc 8a f3 ac 3d 18 4c bb bd 21 e3 4d 3d
       -0.008609375 0.08444889 -0.09145373 0.050265435
0001f0 9f 82 e7 3b 8a d2 7b 3c 44 f2 54 3d 4c 85 ed bd
       0.007065132 0.015370021 0.051988855 -0.1159769
000200 68 a4 f9 3c a8 9b 8e bd 7e 77 bd 3d a1 0f 85 bc
       0.030473903 -0.06963283 0.09251307 -0.016242804
000210 36 5a 4d 3d 01 c5 8b 3d 4b 05 78 3d a3 cf 15 bc
       0.05013486 0.06824685 0.060551923 -0.009143743
000220 f5 78 85 bd 0e e7 dd bd ad e0 92 bd 27 c1 b4 bd
       -0.06517211 -0.10835086 -0.0717176 -0.088259034
000230 13 68 a9 bd d7 41 6b bd ef 6c bb bb 7a f1 06 be
       -0.08271804 -0.057435837 -0.005719773 -0.13178053
000240 67 00 48 bd 55 b3 d4 3c 3a 5a 8f 3d c3 05 33 bd
       -0.04882851 0.025964418 0.06999631 -0.043706667
000250 b3 86 07 bb 77 3a 0f 3b 6c 6e 7c 3d 3a 5f 12 bd
       -0.0020679652 0.0021854916 0.061628744 -0.035735346
000260 75 ad 9a 3d a8 0f d9 bc 7a c4 ef 3d 31 16 2e bd
       0.075526156 -0.026496723 0.11707397 -0.042501632
000270 94 65 9d bb 8a 6d a6 bc e0 cf d1 3c 2d 90 99 3d
       -0.004803369 -0.020315904 0.025611818 0.074982025
000280 33 36 81 bd a3 c2 d1 3d e0 fc 8a 3d 04 3c 0d bc
       -0.06309166 0.10242202 0.06786513 -0.008620266
000290 38 e7 f5 bc 34 f6 36 bc b1 3c ef bc 71 46 f5 ba
       -0.03001748 -0.011167098 -0.029203745 -0.001871301
0002a0 f0 eb af bd f1 b8 80 bd 19 fb 9b 3d f7 b8 8e 3d
       -0.085899234 -0.06285275 0.076162525 0.06968873
0002b0 7d ee 77 3d d5 2a 8e 3d 27 4b 1e 3b 87 66 b4 3d
       0.060530175 0.06941763 0.002415368 0.08808618
0002c0 aa 4c ed bd 2b 3f a4 bd 82 f9 40 3d 97 a0 cc bc
       -0.11586888 -0.08019861 0.04711295 -0.024978919
0002d0 0b 28 53 bd af 0f 10 bd a7 a2 96 bd 97 45 d2 bc
       -0.05155186 -0.035171207 -0.07355242 -0.025667949
0002e0 e3 d7 b4 3c 8b 04 27 bd cb 84 8b 3d 19 e7 8f 3c
       0.022075599 -0.040775817 0.068124376 0.01756625
0002f0 96 4e a3 bc a1 7d 5c bd a4 e8 91 bd 62 ae d4 3c
       -0.019934934 -0.053830747 -0.07124451 0.025962058
000300 33 67 7f 3b 01 69 81 3c 25 bf b5 3c d5 08 90 3c
       0.0038971424 0.01579714 0.022185871 0.017582336
000310 37 8a ce 3d 92 94 42 3d 6a 3d b2 3d a4 f9 6c bd
       0.10084956 0.04750497 0.0870312 -0.057855263
000320 4c d4 a4 bc c1 f1 98 3d dd b5 bc 3d fb a1 4d 3d
       -0.020120762 0.07467986 0.09214375 0.050203305
000330 c0 b3 b8 3d 8c 0a 02 3c 14 d4 c5 3d 0b 8a ba bd
       0.090186596 0.007937085 0.09659591 -0.09108361
000340 8b 0f 97 bd 07 c0 9a 3d 1d 6c 57 3c 49 79 a5 3d
       -0.073760115 0.075561576 0.013148335 0.08079774
000350 4f 34 36 3d 19 51 dd bc b7 c1 80 bd 02 2e dc bc
       0.04448348 -0.02701621 -0.06286948 -0.026877407
000360 d9 9f 41 3d 86 fe ed 3c 71 6c 99 3d 13 02 5e 3d
       0.047271583 0.02905203 0.07491387 0.054201197
000370 7c 93 38 3d d4 23 11 bc ed 11 cb 3d 79 1f 38 3d
       0.045062527 -0.00885864 0.099155284 0.04495189
000380 0d 85 af bb 3c 70 b6 3d a8 e3 e9 3d e8 83 65 bd
       -0.005356437 0.08908126 0.11420375 -0.056034
000390 f5 3f 86 3c 4e 92 80 3a 50 72 d2 bc 0e 6c ac 3d
       0.016387919 0.0009809227 -0.025689274 0.08419047
0003a0 fa d2 c7 3d 3f 1d 6e bd c1 33 44 3d 9b 5b c6 3d
       0.097570375 -0.05813336 0.04790092 0.09685441
0003b0 22 0e e7 3d a7 45 a7 bd 3e 07 6a bd 7b 31 91 3d
       0.112819925 -0.08167582 -0.057135813 0.07089516
0003c0 c3 69 c8 3d 94 2b 87 bd 96 c4 db 3c 48 5a a7 bd
       0.097857974 -0.06600109 0.026827138 -0.08171517
0003d0 95 4a 83 bd 2a 09 eb 3b a0 16 b6 bc 17 66 1a bd
       -0.0641071 0.0071727233 -0.022227585 -0.037695017
0003e0 ae 36 82 bd 08 64 8c 3c 36 65 95 bd e1 3c 84 3c
       -0.063580856 0.017137542 -0.07294695 0.01614231
0003f0 ab 02 46 3c 47 87 be 3d 7f ce ce bc 55 ec e2 bd
       0.012085597 0.09303146 -0.02524495 -0.11080233

net.2.module.0.bias f4 [32]
000000 d0 8a 5f bd 9c 36 7d 3d e0 35 16 3d cc e6 40 bc
       -0.05457574 0.061819658 0.036672473 -0.011773776
000010 be e1 90 bd d6 04 60 3d 7b d3 b6 3c 72 76 2e 3d
       -0.07074307 0.054692112 0.022317639 0.042593427
000020 0e 92 7d 3d 89 59 b0 bd 37 23 9d 3d 28 94 99 3d
       0.061906867 -0.086108275 0.07672732 0.07498962
000030 c3 94 9b 3d f7 28 d3 bc c2 f3 4d 3c 12 24 38 3a
       0.075967334 -0.02577637 0.012570323 0.0007024418
000040 26 01 5c bd da f0 a6 bb fd cc 20 bd 2f 1b 9c bd
       -0.053712033 -0.0050946297 -0.039257992 -0.07622372
000050 63 9a b6 3d 34 e8 89 3d 8d b2 b9 3d c6 00 bd 3c
       0.08916166 0.06733742 0.09067259 0.023071658
000060 94 17 9d 3d 4d 14 26 bc a6 cd 68 bd 8e b9 2f bd
       0.07670513 -0.010136676 -0.056836747 -0.042901568
000070 3a dc 17 bd d7 a6 9c 3c bc 8e 12 bd 24 c2 bb bd
       -0.03707526 0.019122524 -0.035780653 -0.09167889

net.3.module.0.weight f4 [32, 32, 3]
000000 cf 8c 58 3b 8f 02 84 bc 2d eb c1 3d ee 28 af bd
       0.0033042913 -0.016114501 0.09468684 -0.085527286
000010 ea 85 1e bd e6 f8 a6 bd 74 70 d0 bc a2 15 cf bd
       -0.03870193 -0.08152942 -0.025444247 -0.10111548
000020 7e 65 c4 3c d0 3d c4 bd 6b ef f9 3c bc 83 9a 3d
       0.023974176 -0.09582102 0.030509671 0.075446576
000030 97 22 0c be 9f bd 7f bd 3e c8 bf ba f4 28 be 3d
       -0.1368507 -0.062436696 -0.001463182 0.09285155
000040 bd 55 64 bd dd 3e 9a 39 45 dd 27 3d 92 04 0a 3e
       -0.05574583 0.00029420006 0.040982503 0.13478306
000050 94 1c 00 3d df 8b f6 bc f6 8f 3a 3d 5c c0 8d 3d
       0.031277254 -0.030095993 0.045547448 0.06921455
000060 44 00 d9 bd c3 03 31 3d ee 1a b9 bc f4 a8 c3 3d
       -0.10595754 0.043216478 -0.022595849 0.095537096
000070 cd 53 28 bd ce 0c 65 3d 88 d4 76 3d 67 c4 3f bc
       -0.041095544 0.055920415 0.06026128 -0.011704541
000080 57 2a c6 3c bc e9 b4 bd 0d 27 9f bc 79 e1 59 3d
       0.024190111 -0.08833644 -0.0194278 0.053193543
000090 fa 07 03 3e d4 ad 4a 3d 18 8c a4 3d fc ce 95 3d
       0.12796012 0.04948218 0.08034533 0.0731487
0000a0 56 b2 c4 bd a9 c6 95 3c 0d b2 13 be 0b 7f b4 bd
       -0.096043274 0.018283205 -0.1442339 -0.08813294
0000b0 f2 87 96 bc 3a dc 42 bd 8c a1 63 bd 8b 1a a6 3d
       -0.01837537 -0.047573306 -0.055573985 0.081105314
0000c0 ac 9c 2f bd 19 ec ba 3d d6 1a bb bd c8 17 f3 bc
       -0.042874023 0.09127063 -0.09135978 -0.029674426
0000d0 c3 a2 03 bc 93 d8 b4 bd 48 e0 ab bc 4b 43 86 bd
       -0.008034411 -0.08830371 -0.02098097 -0.06555804
0000e0 9b f4 82 bd 66 9d 53 3d 88 7b 9a 3d 95 c8 66 3d
       -0.06394311 0.05166378 0.07543093 0.056343634
0000f0 0c 17 a2 bc 5b f7 dd 3d c5 ff 79 3d 20 2b 8b 3d
       -0.01978638 0.10838195 0.061034936 0.06795335
000100 bd 7e 6c bd 45 6f 85 bd c9 fe c8 bd 14 10 40 3d
       -0.057738055 -0.065153636 -0.098142214 0.046890333
000110 c5 92 c0 3c 8f 6f 84 3d 9f 44 98 bd 75 93 0f bc
       0.023507485 0.064665906 -0.074349634 -0.008763184
000120 c4 2e a5 3d 35 53 b9 3b 41 a4 79 bd b8 2b a7 3d
       0.080655605 0.005655671 -0.06094766 0.081626356
000130 a3 d8 2d bc e2 d1 0a 3d 59 fe e0 3d 26 26 a4 3d
       -0.010610732 0.033891566 0.10986013 0.08015089
000140 0e 95 e0 bc e5 cc 4c bd 3b d5 c5 bd 8c 69 bd bd
       -0.027414825 -0.05000009 -0.09659811 -0.09248647
000150 7b b2 ba 3d 8f 2d 38 3d 91 d4 82 bd 1d c4 9a 3d
       0.09116074 0.044965323 -0.063882 0.07556937
000160 16 c7 78 bd 5a fc 8d bd 4d aa 34 3d 4a 6c a1 bd
       -0.06073674 -0.06932898 0.044107724 -0.078819826
000170 7d 46 9c bd 91 3a c9 3c ac 01 a1 bd 34 f7 2b bd
       -0.07630632 0.02456406 -0.07861647 -0.0419838
000180 0e 65 97 bd 7b 87 66 bd b8 6b be 3b 54 2a 1e 3d
       -0.073923215 -0.056281548 0.005811181 0.038614586
000190 ef e3 a4 bd 39 66 45 3d d8 46 81 bd 45 30 09 3d
       -0.080512874 0.04819319 -0.063123405 0.0334933
0001a0 83 36 dd bd 74 2c e2 3d dc 8d bd 3d 6a 2a 30 bd
       -0.10801413 0.11043635 0.09255573 -0.0430092
0001b0 e4 f0 c7 bc c2 1a 93 bc 2c 58 d5 bd 2c ef a6 3d
       -0.024406858 -0.017957095 -0.10417208 0.08151087
0001c0 05 ef 23 3d 61 ba 1a 3e 1c 17 c7 3d 86 a5 bb 3d
       0.04002287 0.1511016 0.09721205 0.091624305
0001d0 b4 e9 64 bd 29 fb 5c 3d 6a b4 23 3d 42 52 ab bc
       -0.05588694 0.053950462 0.039966978 -0.020913247
0001e0 67 5f 89 bd a1 c8 76 3d 1d fe ca 3d 34 33 2d 3d
       -0.0670765 0.06024993 0.099117495 0.04228516
0001f0 df 91 c3 bd 65 26 d2 bd fb 4d 5a 3d f1 fe 5c bd
       -0.09549307 -0.102612294 0.053297024 -0.05395407
000200 38 18 4c b9 68 3d 5e bd 00 25 0d 3c 97 14 43 3d
       -0.00019463978 -0.05425778 0.0086147785 0.047627058
000210 bd f5 a9 3d 1b 4c 7b 3d 18 9b 09 ba 33 79 60 3c
       0.08298824 0.061351877 -0.0005249246 0.013700771
000220 f8 21 e5 3a bb 52 82 bb 87 ba d9 3d d8 5b 8e bd
       0.0017481437 -0.0039771474 0.106312804 -0.069511116
000230 04 4d 89 3d dc ba a6 bd e0 66 9d 3d 93 e9 93 bc
       0.06704143 -0.08141109 0.076856375 -0.018055713
000240 ae f0 5d bd 56 e5 aa 3d 14 59 de bc 11 89 c0 3a
       -0.05418461 0.083445236 -0.027142085 0.0014689286
000250 dd b1 7a 3c 3c 26 5c 3d 55 7b fa 3b 25 53 19 3c
       0.015301195 0.0537474 0.007644097 0.009358202
000260 bd 35 82 bc 3c 3a bd 3d 6e c0 57 bd 88 db f5 bc
       -0.015894765 0.09239623 -0.05267375 -0.030011907
000270 16 6b d5 bd 19 c0 a8 bc 9d cd a8 3d d0 0d 2b 3d
       -0.10420816 -0.020599412 0.082423426 0.04176122
000280 2b 1e c5 3c 54 ad b9 bd c6 ca 3a bd 2a b6 cc b9
       0.024062237 -0.09066263 -0.045603536 -0.00039045635
000290 6b 31 b2 bc 9f c0 4c 3d c8 0a ca bd 1f bc db 3d
       -0.02175208 0.049988385 -0.098653376 0.107292406
0002a0 68 b8 35 3c 75 16 bb 3d 08 97 ce 3c 83 be 25 bd
       0.011091329 0.09135143 0.025218502 -0.04046489
0002b0 1b aa ac 3d 89 0a e5 bd 71 66 60 3d 68 f5 22 3d
       0.084308825 -0.1118365 0.054785196 0.03978482
0002c0 7f f2 27 3d 9b b4 c4 3d 86 36 f9 3c b0 80 92 3b
       0.041002747 0.0960476 0.030421507 0.004470907
0002d0 93 2c 76 bd 54 2d f0 3d b9 c5 b2 bb 00 77 0f bd
       -0.060101103 0.11727396 -0.0054556993 -0.035025597
0002e0 c3 62 8c 3d a7 cf ae bc e8 3a 99 bd ea d9 a6 bd
       0.06854775 -0.02133925 -0.074819386 -0.081470326
0002f0 ea f8 6a 3d fd 8b 04 bd 58 d7 43 bd 7d 8f 55 3d
       0.05736629 -0.032360066 -0.04781279 0.052138794
000300 c0 2d 8d 39 ba ed c5 bd 13 ac 22 bd 0b 8d 81 bc
       0.00026927702 -0.09664483 -0.039714884 -0.015814325
000310 c7 9a 87 3c b8 7f 86 bd 25 e2 8a 3d 60 f8 2b 3c
       0.016553296 -0.06567329 0.06781415 0.010496229
000320 cd 67 6e bd 20 22 1b bd 8a ad 11 3d 8d 87 d8 3d
       -0.05820446 -0.03787434 0.03556589 0.10572729
000330 2e 03 1b 3e 73 d9 2b 3c e8 9f 96 3d b7 35 f7 39
       0.15137932 0.010488856 0.073547184 0.00047151532
000340 f7 da 9f bb 9f 26 5c bc ea 84 6d 3c 7e b2 17 ba
       -0.0048783976 -0.013436942 0.014497021 -0.000578679
000350 5f 88 0e 3e b9 95 c3 3d b1 c6 34 bc 76 03 ee 3d
       0.13919209 0.09550042 -0.0110337 0.11621754
000360 a0 ae bd bb f7 91 60 bd af ab 2b bc c9 62 c0 bd
       -0.005788639 -0.054826703 -0.010477944 -0.09393842
000370 d2 77 90 3d aa 53 22 3d 10 e4 5c 3b 5a 5d 35 bd
       0.07054104 0.03963057 0.0033705272 -0.04427848
000380 05 a5 0a 3d e6 cf 91 3c c1 4b ca 3d d8 a8 92 3d
       0.03384878 0.017799329 0.0987773 0.07161111
000390 0e 2c b4 bc bc 84 b5 bd 26 90 e2 bd c7 42 24 3d
       -0.021993663 -0.08863208 -0.110626504 0.040102746
0003a0 d3 aa a6 3d 1a e8 fa 3b 2d 21 9d 3d 61 89 c1 3d
       0.08138051 0.007657063 0.076723434 0.09450031
0003b0 00 bd 02 bd f6 2f 3e bd 5f 68 45 3d 63 80 1c 3d
       -0.031918526 -0.046432458 0.04819524 0.038208377
0003c0 74 95 2c 3c a2 fa aa bc 6e 20 f1 3d fa 55 bf bd
       0.010533679 -0.020871464 0.117737636 -0.093425706
0003d0 0b ab 52 bd 0b aa 9c bd 5e fe 30 bd 41 36 8d bd
       -0.05143265 -0.076496206 -0.043211333 -0.06895114
0003e0 c8 be a5 bd 5a dd 6e 3d f2 04 44 bd 63 70 38 3d
       -0.08093029 0.058316566 -0.04785628 0.045029055
0003f0 5f b3 83 3d 7a 65 a9 bc be f7 ce 3c bb ea 9b 3c
       0.06430697 -0.02067827 0.025264617 0.019032827

net.3.module.0.bias f4 [32]
000000 e7 8d a7 bd 0a 02 92 3d 7c 0a c9 bc 22 58 7e 3d
       -0.081813626 0.07129295 -0.024541132 0.06209577
000010 9b 1a 8a 3b f7 10 1b 3d 37 b4 a3 bd 22 2b 87 3d
       0.0042145974 0.037857976 -0.07993358 0.06600024
000020 f2 fe d3 bd 37 95 75 3d 7c 51 cb 3d 23 f9 73 3b
       -0.10351361 0.059956755 0.09927651 0.0037227354
000030 3e c7 cb 3d f7 d2 24 3d 84 6d a6 3d 27 ed 05 3c
       0.09950112 0.040240254 0.08126357 0.008174217
000040 fc 7c 48 bd 0b 7d 2c bd b8 f8 68 3c 4b 50 cf bd
       -0.04894732 -0.042111438 0.014219455 -0.101227365
000050 fd 9c a7 bc b1 ef 65 bd 55 7f 8e bd 16 89 a2 bd
       -0.0204606 -0.05613679 -0.069578804 -0.07936303
000060 d5 fe 89 3d 1d 61 7c bd c4 12 ec 3c 20 02 ba bd
       0.067380585 -0.061616052 0.028817542 -0.090824366
000070 20 6e b2 bb fe a0 46 3d 5f 63 a9 bd ed 9c 96 3d
       -0.005445257 0.048493378 -0.08270907 0.0735415

net.4.module.0.weight f4 [32, 32, 3]
000000 69 31 f2 3c 6f 56 58 3d b4 16 63 3d b7 7a 70 3c
       0.029564576 0.052816804 0.055441573 0.014677695
000010 25 25 97 bd ba 48 fe 3c e1 c7 fe bd 32 ff d9 bd
       -0.07380132 0.031040538 -0.124404676 -0.10644378
000020 a7 5a 09 be 9d 20 be 3d 0c 8a 4a bd 2d fd fd 3d
       -0.13413487 0.09283564 -0.049448058 0.12401805
000030 19 72 ea bd 30 2c 2a 3d 79 d5 fb bd 1d 73 0c bc
       -0.11447544 0.041546047 -0.12296576 -0.008572367
000040 50 9b ee 3c 71 52 2a 3d 5a d8 00 be 50 02 90 3d
       0.029126793 0.04158253 -0.12582532 0.07031691
000050 a0 0f 88 bd dc 23 98 bb 82 71 bd 3d 85 a7 bf bd
       -0.06643605 -0.0046429466 0.092501655 -0.09358124
000060 77 ff 21 bd ff 90 7e bd 3d ca e5 3c 04 21 73 3d
       -0.03955027 -0.062149998 0.028050536 0.059357658
000070 b9 1e fa 3c f0 6a a3 bd 9f b2 ab bc 30 7e e7 bc
       0.030532228 -0.07979381 -0.020959197 -0.028258413
000080 b3 52 51 bd d2 5a bd bd 6b c3 a7 bc 55 6c a1 bb
       -0.05110426 -0.09245838 -0.020478925 -0.0049262443
000090 b0 75 75 bd 75 db ed bc 23 0c 35 3d 9f 16 15 3d
       -0.05992669 -0.02903531 0.044201028 0.036398526
0000a0 42 5f 0f bd ae 63 8d 3d 1c 5b 8b bd b2 16 df bc
       -0.035002954 0.06903778 -0.06804487 -0.027232502
0000b0 c6 86 e8 bd 1c ee 65 bc 01 ea 74 bd e4 d1 9d 3d
       -0.11353831 -0.0140338205 -0.059793476 0.07706049
0000c0 a4 e1 af 3c f9 ab 91 3d 5d 11 c2 bd 3d c6 13 bd
       0.021469899 0.07112879 -0.09475968 -0.036077727
0000d0 e8 c1 2f bd e4 2b f0 3c e2 97 f0 3b 39 8d 8c 3b
       -0.042909533 0.029317804 0.0073423246 0.004289296
0000e0 91 f4 f8 3d cf a0 13 3d 32 11 2d 39 64 a1 86 bd
       0.12156022 0.03604203 0.00016504971 -0.065737516
0000f0 97 d8 46 bd af b7 04 bc 27 76 d1 3c 6c 47 9c 3d
       -0.0485464 -0.008100434 0.025569035 0.0763081
000100 31 10 b8 bb 16 99 4f 3d 92 cc 20 bd 16 62 a4 bc
       -0.0056171645 0.050683104 -0.039257593 -0.020066302
000110 cb 7b a6 bd c2 15 79 bd b1 a0 9d 3d d5 07 79 bc
       -0.081290804 -0.060811765 0.07696665 -0.015199621
000120 9c 87 ab 3a 57 70 28 bd 78 f4 30 3d 2d ad 6a 3d
       0.0013086679 -0.04112276 0.043201894 0.05729406
000130 5e 26 5a 3d 40 4d 9a bd 9c ed ae 3c 93 5b 83 bd
       0.053259246 -0.075342655 0.021353535 -0.06413951
000140 66 0e 65 3d 4a 6a 2d 3d 47 99 df bc 9b de 3b bb
       0.055921935 0.042337693 -0.027294768 -0.0028666619
000150 ec 84 89 3c 79 06 d9 bd 21 fe 9b 3d 3b 9e 28 3d
       0.016787015 -0.10596938 0.076168306 0.041166525
000160 9e f3 99 bd ce 9d 3a bd a9 e3 56 3d a1 c8 63 3c
       -0.075171694 -0.04556065 0.052463207 0.013902814
000170 0c 92 ba 3d 53 97 ab bd 08 02 cd bd 97 7d 80 bb
       0.091098875 -0.08378472 -0.10010153 -0.0039212215
000180 35 b9 ec 3c f9 47 91 bd 89 4d 02 3e fb 94 16 3c
       0.028896907 -0.07093806 0.1272489 0.009190793
000190 6d 89 3d 3d c5 38 8d 3d 62 c8 ff bd 2b 9d b1 bd
       0.046273638 0.068955936 -0.12489392 -0.086725555
0001a0 93 3d 1d 3c ea e2 6a 3d 5e f1 a2 bd 83 e5 d9 3c
       0.0095972 0.05734531 -0.079561934 0.026598698
0001b0 50 e8 bb bd 15 98 5b 3d 93 69 82 bd 10 e0 99 3d
       -0.091751695 0.053611834 -0.06367793 0.0751344
0001c0 c8 c0 d3 3d 48 cb 9e 3d 2e 7c e4 3a 15 a7 85 3d
       0.103395045 0.077536166 0.0017432028 0.06526009
0001d0 f4 08 97 3d 69 ae a4 bd ac 48 81 bd 9e bf 92 bc
       0.073747545 -0.080410786 -0.06312689 -0.017913636
0001e0 01 88 8c bd 32 6b ed bd 57 85 97 3d d1 aa 99 bd
       -0.06861878 -0.115927115 0.073984794 -0.07503284
0001f0 a0 9e 4a bd 11 00 97 bd d1 1b 28 3c 62 b6 a0 3d
       -0.049467683 -0.073730595 0.010260538 0.07847287
000200 e9 24 74 3d cb c4 05 3c 7d cc 62 bb c2 85 fc bc
       0.059605513 0.008164595 -0.0034606748 -0.0308255
000210 08 ed c2 3d ae 9e 8a bc b3 26 4b bd 48 6d 53 bc
       0.095178664 -0.016921367 -0.049597453 -0.012904473
000220 0e 76 18 3d d6 18 d7 bd cf cc 0c 3d b9 dc 0b be
       0.03722196 -0.10502784 0.03437501 -0.13658418
000230 69 e4 a1 bd ea 43 aa bd d7 8d 93 3d 77 7b 95 3d
       -0.07904894 -0.08313735 0.07204788 0.0729894
000240 00 20 5e 3d d9 35 28 bd 93 60 61 bd 8d 88 c3 3c
       0.054229736 -0.041066978 -0.05502374 0.023868823
000250 84 12 7f 3d 6c 31 ee ba e5 a6 79 bc 07 9b ec bc
       0.062273517 -0.0018172688 -0.015237545 -0.028882517
000260 f7 b4 6b bc 85 8a 8e 3d 7d ff 68 bd 42 83 b1 3d
       -0.014386407 0.06960014 -0.056884278 0.086676136
000270 1c 8b a4 bb 4f 9e dd bc aa da 1a bd 78 76 23 3d
       -0.005021466 -0.027053026 -0.03780619 0.039907902
000280 60 31 6c 3d fc 2d 14 bd 30 c1 71 bd c0 6e d2 bb
       0.057664275 -0.036176667 -0.05902213 -0.006421894
000290 94 3f c7 bd 2b 25 89 ba 4d 6e 99 bd 61 89 af 3c
       -0.097289234 -0.0010463347 -0.07491741 0.021427812
0002a0 e5 c2 94 bc 8e 51 10 bc a0 ee 6b bd d2 f1 9e 3d
       -0.01815934 -0.008808507 -0.057600617 0.07760967
0002b0 d7 15 61 3d 1b 54 1c 3d f4 06 32 bd b5 78 62 3c
       0.05495247 0.038166147 -0.043463662 0.013822724
0002c0 7c 3d d5 bd 58 1e c7 bd 09 ec 81 bd fa 50 cb 3d
       -0.10412118 -0.097225845 -0.06343848 0.099275544
0002d0 ed 39 48 3d e9 9e e4 bc 63 32 18 bd 34 b9 96 3c
       0.048883367 -0.027907806 -0.037157428 0.018398859
0002e0 60 56 c7 bd a5 30 08 3d ec 15 a9 bc 96 6f d2 bb
       -0.097332716 0.033249516 -0.020640336 -0.0064219935
0002f0 7c fa b2 bd 08 97 42 bb 69 69 ba 3c 16 82 2e 3c
       -0.08739182 -0.0029692072 0.022755342 0.010651132
000300 93 21 5f 3d f8 1d d8 ba dd d2 bb 3d e3 b4 28 3c
       0.05447538 -0.0016488424 0.09171078 0.010297033
000310 11 ae bb bd 3e f1 03 bd 9b 84 08 3d 61 72 a9 bc
       -0.0916406 -0.03221249 0.033329587 -0.020684423
000320 02 de 01 3e 5d 9f 57 bd 2f 73 dd bc 5c 40 93 bd
       0.12682346 -0.052642215 -0.027032463 -0.0719001
000330 ba 27 10 3e 99 69 7d 3d f5 6a 03 3e 79 a7 f6 3b
       0.14077654 0.061868284 0.1283377 0.0075272885
000340 9a c6 84 bd 2f 81 69 bd 50 75 5e 3d 29 ee 38 3d
       -0.06483193 -0.057007965 0.054311097 0.045149002
000350 24 35 6e bd 50 1e 6c 3d 17 b5 43 3d 81 b4 be 3d
       -0.058156148 0.057646096 0.047780123 0.09311772
000360 f0 cb f5 bc 06 af 88 3c 6e ca eb 3c 72 bb a3 bd
       -0.030004472 0.01668502 0.02878305 -0.07994737
000370 46 83 a1 3d 40 9d bb 3d 10 20 b7 bd a7 de ac bd
       0.078863665 0.091608524 -0.08941662 -0.08440905
000380 cb 4a 8b 3d dc 02 d4 3d 35 5d 0b bd 02 41 ad bd
       0.06801375 0.10352108 -0.034024436 -0.08459665
000390 11 a2 97 bd d2 09 8e 3d fb 73 76 bc 38 d6 c1 3c
       -0.074039586 0.06935467 -0.0150423 0.023661718
0003a0 77 61 20 3d f0 15 ad 3d 5f c8 05 bd 2b d5 c4 3d
       0.03915545 0.0845145 -0.032661792 0.09610971
0003b0 16 57 06 bd 81 42 07 3c bb dc 4d 3c d0 09 14 3e
       -0.032797895 0.008255602 0.012564833 0.14456868
0003c0 f5 d6 a2 3d 39 76 c0 bc ea 69 c3 bb 44 0a 9c bd
       0.07951156 -0.023493873 -0.0059635537 -0.076191455
0003d0 1a 06 ac bc 8d c4 1d bd c3 d9 19 3c 73 f2 52 ba
       -0.020999003 -0.038517524 0.009390297 -0.0008046992
0003e0 b3 7a b9 3c fa 3c d8 3d b6 ce 38 bd f4 82 be 3c
       0.022641515 0.10558505 -0.04511901 0.023255803
0003f0 fc 53 07 bd d1 37 6f bd 55 49 9b 3d cb d6 05 bd
       -0.033039078 -0.05840284 0.07582346 -0.032675546

net.4.module.0.bias f4 [32]
000000 43 df a0 bd 54 c3 29 3d 0f af a0 3a 84 79 9f 3b
       -0.07855084 0.041446045 0.0012259203 0.0048667807
000010 e2 60 e7 3d 00 6d bf 3d e6 d0 8b bd ef 61 fd 3c
       0.11297776 0.09346962 -0.068269536 0.030930487
000020 93 c8 de 3c 9c b0 16 bc 6b 4d 2c bb 4c cb 3e 3d
       0.02719525 -0.00919738 -0.0026291262 0.046580598
000030 d4 17 fd 3c 22 29 a5 3b 94 e9 47 3a 99 7c 85 ba
       0.030895151 0.005040304 0.00076260534 -0.0010184228
000040 ac 30 11 bd 10 bf 51 3c 9e cb dc 3d f6 1f 71 3d
       -0.035446808 0.0128019005 0.107810244 0.05886837
000050 f2 19 5c 3d 0e f8 9e 3d 34 7a 81 3d 40 e3 b0 bd
       0.05373568 0.077621564 0.063221365 -0.086370945
000060 d7 2b e2 3b 4a 74 8e 3a 41 35 75 3d 48 7a 83 3d
       0.006902199 0.0010868397 0.05986524 0.06419808
000070 4a 00 5a 3d 37 bc 67 3d 44 01 9b bd 15 ef c1 bd
       0.053222932 0.05657598 -0.07568601 -0.094694294

net.5.weight f4 [8, 32, 3]
000000 7b f3 87 bd 70 59 41 3c 6d 88 92 bd d4 47 3d bb
       -0.06638237 0.011801109 -0.071549274 -0.0028881924
000010 8c d6 78 3d 11 0c 22 3d 9e d6 86 3d bb f1 18 39
       0.060751483 0.03956229 0.06583904 0.00014585901
000020 1f f1 b1 3c fd c9 35 3d aa 52 e2 bc 84 53 4d 3c
       0.02172142 0.044382084 -0.027627308 0.012532119
000030 e5 24 0a 3e 52 63 0d 3d 6c 26 1b bd 6d fe e3 bd
       0.13490637 0.034518547 -0.03787844 -0.11132512
000040 48 58 4b 3d c8 15 f1 bc 9b e8 96 bc c9 d1 89 3d
       0.04964474 -0.029429331 -0.018421462 0.067294665
000050 ef c6 cb ba 19 de 2c 3d 26 d6 9c 3d 81 e9 a3 3c
       -0.0015546958 0.042203996 0.07658033 0.020008804
000060 2e bd 57 3d a8 56 48 bd f8 05 dd 3d ba 59 ff bd
       0.05267065 -0.048910767 0.10792154 -0.12468286
000070 01 7c 0d 3d 0d d8 31 3c 8d 2c b3 3b c2 75 a6 3c
       0.034542087 0.010854733 0.0054679574 0.020319823
000080 27 a0 b3 bc e5 04 03 3e 2c 0b 0e 3d 70 b1 c5 3d
       -0.021926953 0.12794836 0.034678623 0.09652984
000090 fa 31 bf 3c 45 0b 5b 3b c5 6b 93 bd dd 0d f4 bd
       0.02333926 0.0033423465 -0.0719829 -0.11916707
0000a0 59 68 7c bd fb 2a 7c bc 8a e9 1a bd a7 ae eb ba
       -0.06162295 -0.015391107 -0.037820376 -0.0017981128
0000b0 62 40 27 3d 03 36 b3 bd e1 cc 93 3c db 2f e1 3c
       0.040832885 -0.08750536 0.01804203 0.02748864
0000c0 af 85 1f bd 04 2b 58 3d 12 b8 b5 3b 4e 53 85 bd
       -0.03894585 0.052775398 0.0055456245 -0.0651003
0000d0 fd ab 18 bd 67 2b 81 3d 35 88 03 bd 5d 94 66 bd
       -0.037273396 0.063071065 -0.03211232 -0.056293834
0000e0 bc e6 04 bd 43 0c d9 3d 7b 88 43 3c 18 87 e8 3d
       -0.032446608 0.10598042 0.011934395 0.11353892
0000f0 da 17 81 bd 38 2c 32 3d a1 44 88 bd 78 87 95 3b
       -0.063033774 0.0434992 -0.06653715 0.0045632683
000100 a5 65 44 bd f7 2e bb bd 44 49 f4 3d 8e d0 e1 bc
       -0.0479485 -0.09139817 0.11928037 -0.027565267
000110 71 5a db 3d 61 c8 b2 3d 20 d4 62 bd 63 ca ab 3d
       0.1071061 0.087296255 -0.05537808 0.083882116
000120 d9 86 7f bc 19 cb cc 3d df b5 a1 bc b9 a7 5a 3d
       -0.015596115 0.09999675 -0.019740043 0.05338261
000130 67 ed 3f bc 70 5f 83 3b 53 f1 1e bd 3d 93 03 bd
       -0.011714316 0.00400918 -0.038804363 -0.03212284
000140 24 89 b0 bd 7f 6b 5e bd 86 84 3f 3d 74 15 a2 3d
       -0.086199075 -0.054301735 0.046757244 0.07914248
000150 1d 36 c0 bd 1e d9 5d bd 76 bc 3c 3c e7 f0 eb 3d
       -0.09385321 -0.054162137 0.011519542 0.11520558
000160 12 0e b6 3d c5 14 c1 bd d8 50 b5 3c 39 00 ca bd
       0.088894024 -0.094277896 0.022133276 -0.09863324
000170 96 87 a7 bd 09 09 df 3c 56 d3 ac bd c2 05 a3 3d
       -0.08180158 0.027225988 -0.08438747 0.079600826
000180 37 6f 22 3b 7b af 25 bd 7d ff 32 3d eb 66 b4 3d
       0.0024785527 -0.040450554 0.043700684 0.088086925
000190 1c 07 e7 bc c2 57 02 3c 8c 51 2a 3c 86 cb 6f bd
       -0.028201632 0.007955493 0.010395419 -0.058543704
0001a0 f5 72 57 bd 41 bf 1a 3d e5 1a c0 bc df 26 de 3d
       -0.052599866 0.03778005 -0.023450324 0.10847258
0001b0 f6 b6 b9 bc 96 e9 fc bb eb 77 77 bd 99 f9 85 3d
       -0.02267025 -0.0077182753 -0.060417097 0.065417476
0001c0 bb b2 f2 bc 25 1a 5b 3d cf 37 0a bd 99 f0 88 bd
       -0.029626241 0.05349173 -0.03374463 -0.06686515
0001d0 e4 51 b3 3b d4 bc 51 3b 6b 2f 91 bc 43 dd 07 3c
       0.0054724086 0.003200342 -0.017722806 0.008292499
0001e0 79 16 4b 3d a8 b9 79 3d dc af e6 3c 0b cd 21 bd
       0.04958198 0.06096807 0.028160028 -0.039502185
0001f0 5a d3 1a bd 0d 03 1a bd 4b ad 7c 3d f7 3d c9 3d
       -0.037799217 -0.037600566 0.061688703 0.09826272
000200 52 80 d5 3d fe 72 9b 3c a5 df a9 3d a0 c5 1d 3d
       0.10424866 0.018975731 0.0829461 0.038518548
000210 c9 9b 8e bc d7 e5 54 ba 3a 2d eb bc fe 65 1d 3c
       -0.017408269 -0.0008121407 -0.02870809 0.009606836
000220 4a ef a0 3d 1e 97 8a bd 89 9d f6 bc 9e 97 1c 3d
       0.07858141 -0.067671046 -0.030104415 0.03823053
000230 7f 70 51 3d d8 9c 7c bd ca b8 f4 3c 75 0b b8 bd
       0.051132675 -0.061673015 0.02987327 -0.0898656
000240 a3 91 4b bd 38 ef 18 3d c8 b5 b2 bc 81 4a 1a bd
       -0.049699437 0.03733751 -0.021815196 -0.03766871
000250 e1 fd 02 bc 16 00 ba bd 0c 76 39 3c 3c bb 49 3d
       -0.0079951 -0.09082048 0.0113196485 0.049250826
000260 2a ca 4d bd 7d ed a2 3d 10 ef 50 bc e9 a4 57 bd
       -0.050241627 0.079554535 -0.012752309 -0.052647505
000270 95 b9 f7 bd 56 19 d7 bd e6 17 87 bc 5c 35 9a 3c
       -0.12095944 -0.10502879 -0.016490888 0.018824272
000280 f7 42 6d 3d 89 48 86 3d cf fb 9e 3d b7 15 42 bd
       0.05792519 0.06556804 0.077628724 -0.04738399
000290 85 ea 0a 3d a3 7d 95 3c 6a b7 86 3d b9 3b 83 bd
       0.03391506 0.018248385 0.06577952 -0.064078756
0002a0 3d b9 d9 3c 7e dc 04 bd b4 10 39 bd 0a 7c 7d 3b
       0.026577586 -0.03243684 -0.045181945 0.003867867
0002b0 dd 6c 47 bd e1 0d 8a 3d 8c 8b bb 3c ed ad 2a 3c
       -0.048687804 0.067409284 0.02289369 0.010417444
0002c0 d2 71 36 bd 86 3f 00 3d 7c 65 d9 ba e2 e0 c3 bb
       -0.04454214 0.03131058 -0.0016586031 -0.005977736
0002d0 c5 e9 cf bd 12 73 ce 3b de e4 04 3d 34 86 75 3d
       -0.1015201 0.0063003385 0.032444827 0.05994244
0002e0 9a d7 6d bc 7f a8 a8 bd 36 d1 17 3d ef c9 7a 3d
       -0.014516735 -0.08235263 0.037064753 0.061227735
0002f0 dc c6 a2 3d e1 53 10 bd 91 82 6c bd 67 05 b5 bd
       0.07948086 -0.035236243 -0.057741705 -0.08838921
000300 9f c5 4a 3d 9a 0a 43 bc 5f e8 75 3d 18 2c a9 bc
       0.049504872 -0.011904383 0.06003606 -0.020650908
000310 37 93 9c 3d 99 49 6a bd 1f 9a 40 bd 60 98 be bd
       0.076452665 -0.057199094 -0.04702198 -0.09306407
000320 be c9 c5 bb a3 a2 77 bd df 3b 9b bd fd ed 02 3e
       -0.0060360124 -0.060457837 -0.07579779 0.12786098
000330 a2 de 53 3d 55 99 9d 3c c6 01 87 ba 55 cd 90 3d
       0.05172599 0.019238153 -0.0010300211 0.07070414
000340 c6 4c 0a bc eb 81 56 bb b7 a4 ca bd 95 f9 a5 3d
       -0.008441156 -0.0032731246 -0.09894698 0.081042446
000350 26 3d 6d bd 79 ef ba bd 84 fb 92 bc f7 ff 33 3d
       -0.057919644 -0.09127707 -0.017942198 0.04394528
000360 ab 00 7e bd 1a 69 c7 ba f1 2d 23 3b b9 7a 36 bd
       -0.062012356 -0.0015213818 0.002489921 -0.04455063
000370 22 69 28 3d 39 3f 4d 3c 57 1d 59 bd e7 74 6e 3d
       0.041115887 0.0125272805 -0.053006496 0.058216956
000380 2b 95 bf 3d 36 f3 38 3d 3e 80 11 bd a6 9b 9b bc
       0.093546234 0.04515382 -0.035522692 -0.018995117
000390 cc cb 8c 3d 2a 5f b5 3c b2 d2 42 3d de 92 f8 3b
       0.06874809 0.022140104 0.047564216 0.0075858673
0003a0 48 d0 9c 3c dd b9 cf bc 0c c5 c7 3d d0 54 8a 3d
       0.019142285 -0.025357181 0.097543806 0.06754458
0003b0 fd 6d 91 bc 4c 06 45 3d 87 a5 36 3d 21 73 7c 3c
       -0.017752642 0.04810171 0.044591453 0.015408308
0003c0 ee 6f 3e bd 1f c8 b3 3d df 00 97 bd 36 69 0b 3d
       -0.046493463 0.087784044 -0.07373213 0.034035884
0003d0 fe a5 4d bd b3 c8 b6 bd bf 04 63 3b a3 4c 77 3d
       -0.05020713 -0.08924999 0.003464028 0.06037582
0003e0 07 f3 5f 3d 22 70 91 3c 5d 2a 05 bd b1 cd 68 3d
       0.05467513 0.017753664 -0.032511104 0.056836788
0003f0 73 c1 01 be f0 b7 e9 3c 84 36 fd bd d8 ab 97 3d
       -0.12671451 0.028530091 -0.12363914 0.074058235

net.5.bias f4 [8]
000000 87 9f 5a bd 5b 2c 74 bd de 43 5b bd c1 30 9b bc
       -0.053374793 -0.059612613 -0.05353152 -0.018944146
000010 f3 cd 8f 3d bc 4b ae bb 6c 36 c9 bc 84 14 c7 bc
       0.070217036 -0.005319087 -0.024562083 -0.024301775

exp_avg f4 [32, 120, 2]
000000 e2 aa a3 b7 63 9c df 38 d9 ef 8b b8 95 fa de b6
       -1.9510688e-05 0.00010662598 -6.6727116e-05 -6.645287e-06
000010 99 e9 7e ba 1d 4c cd b9 64 e6 48 39 d1 b1 29 3a
       -0.000972414 -0.00039157356 0.00019159314 0.0006473335
000020 cf 76 6c 39 eb 94 6b 39 22 73 84 bb d8 44 76 bb
       0.00022550974 0.00022466823 -0.004042045 -0.0037577655
000030 28 e0 cc b9 96 90 ba b9 af 1d 6d b8 f4 7c a5 b9
       -0.00039076922 -0.0003558441 -5.653285e-05 -0.0003156435
000040 61 08 39 3a 64 86 33 3a 46 26 6e b7 e0 e9 bb b7
       0.00070584385 0.0006848334 -1.4194817e-05 -2.2401044e-05
000050 52 4e b9 37 43 f8 49 3a 4d 6c a2 ba 17 86 65 ba
       2.209019e-05 0.00077045354 -0.0012391895 -0.00087556377
000060 28 df 2b 39 b0 f9 00 39 38 37 30 bb 32 7a 34 bb
       0.00016390963 0.00012300047 -0.0026888382 -0.0027538654
000070 c2 19 b3 ba 35 48 23 bb 03 be 88 3b d2 9d 83 3b
       -0.0013664293 -0.0024914865 0.004173042 0.0040166164
000080 1f 22 0e 3a 23 e1 59 3a cc 93 fa b8 b4 55 90 b8
       0.00054219546 0.0008311441 -0.00011948458 -6.8824185e-05
000090 07 ca 0f ba 62 02 e8 b8 9a e7 3a 36 99 b9 62 ba
       -0.00054851215 -0.00011063066 2.785097e-06 -0.0008648872
0000a0 26 16 89 b9 42 4f 0c ba d8 38 0e 3a 98 6f 07 3a
       -0.00026147178 -0.00053523865 0.00054253405 0.000516647
0000b0 83 72 38 ba 7e 26 27 ba c3 7f 03 ba 68 c7 05 bb
       -0.00070361065 -0.000637628 -0.00050162914 -0.0020413045
0000c0 37 52 34 b9 b5 86 53 b9 8b 3b 50 bb 7f 49 2d bb
       -0.00017196765 -0.0002017271 -0.0031773772 -0.0026441512
0000d0 23 84 f1 38 c4 a5 20 3a 93 d9 fc b5 48 dd 2f b6
       0.00011516388 0.00061282166 -1.8838786e-06 -2.6205835e-06
0000e0 d4 08 8c 38 6a c9 47 38 0b c2 c0 39 34 19 90 36
       6.6773646e-05 4.763288e-05 0.00036765667 4.2944685e-06
0000f0 d7 ca b1 38 97 9a 4f 38 4c 45 99 ba 36 35 3f ba
       8.4777996e-05 4.949662e-05 -0.0011693626 -0.0007294001
000100 82 ae 62 39 9e dc 8a 39 2f 92 15 b9 1c ee c8 39
       0.00021618049 0.00026485784 -0.00014264205 0.00038324378
000110 ba 5b c2 ba b9 e6 9e ba 73 8a e9 b7 84 4a 15 b9
       -0.0014828362 -0.0012123204 -2.7840235e-05 -0.00014237507
000120 5d 96 e6 b8 8d fc 12 b9 81 ad 8d b9 da 40 46 b9
       -0.00010995262 -0.00014017728 -0.00027022886 -0.0001890691
000130 03 88 06 b8 ba 3c b0 b5 00 00 00 00 00 00 00 00
       -3.207476e-05 -1.3130696e-06 0.0 0.0
000140 35 2e c0 39 fc b8 b7 39 44 98 47 39 3d f6 5e 3a
       0.0003665552 0.00035042304 0.00019034842 0.00085053203
000150 50 9d 07 b8 0b bb 07 b9 5f 97 2b ba b2 d1 48 ba
       -3.2333017e-05 -0.00012944282 -0.00065456884 -0.00076606416
000160 5d 71 12 b9 57 5e 81 39 f3 57 70 b9 5a d3 8f b9
       -0.00013965876 0.00024675086 -0.00022920947 -0.00027432555
000170 50 9c ec 39 c3 a7 34 3a a2 b5 d4 b9 2d 6b 10 ba
       0.0004512989 0.00068914535 -0.00040571118 -0.00055091345
000180 bb cc 1c 3a ca cd af 39 cf 67 a1 38 78 0b 98 b8
       0.0005981435 0.00033531926 7.696414e-05 -7.250061e-05
000190 f7 64 59 38 9d 5c 59 39 55 ac 78 39 02 b9 bf 39
       5.1830863e-05 0.00020729234 0.00023715322 0.000365682
0001a0 19 fc 1e 3a 6d e8 7e 3a 81 97 dd 38 65 17 88 38
       0.0006064787 0.0009723965 0.00010566321 6.489343e-05
0001b0 0b 0d 5a ba 1b 40 1c b9 b8 68 69 b8 6e 03 0d b9
       -0.00083179836 -0.000149012 -5.5649056e-05 -0.00013448086
0001c0 b8 66 36 3b 26 f5 51 3b de 28 7d b9 58 ea 09 ba
       0.0027832221 0.003203699 -0.00024143184 -0.0005261055
0001d0 17 c2 3e b9 6e 02 de b9 bf b0 91 3a d7 3e bc 3a
       -0.00018192116 -0.0004234495 0.0011115297 0.001436199
0001e0 25 cb 3c 3b 12 8c 31 3b f1 95 06 38 e0 1b ed 37
       0.0028807607 0.0027091545 3.2087733e-05 2.8265582e-05
0001f0 08 b4 00 3a dc 96 62 3a 46 87 0c 3a 6d d1 8f 3a
       0.0004909639 0.00086436956 0.00053607335 0.0010972448
000200 f0 47 1c 39 33 09 2e 39 3d 9f 61 37 23 5a f6 37
       0.00014904118 0.0001659736 1.3448121e-05 2.9367458e-05
000210 d5 cb a4 ba 3b f7 c5 ba 13 99 d1 ba 19 0a b6 38
       -0.0012572954 -0.0015103588 -0.0015991054 8.680317e-05
000220 2b 09 44 36 a4 6d 64 b8 6f a2 b5 3a 55 bb 9c 39
       2.9211612e-06 -5.4461547e-05 0.0013857613 0.00029894212
000230 96 38 28 bb d6 97 8c bb e8 4c 98 3a 26 30 20 3a
       -0.0025668493 -0.004290561 0.00116196 0.00061106903
000240 e9 17 31 ba 73 61 2a ba 2a c2 cd 38 74 98 2d 38
       -0.0006755577 -0.00064995064 9.8113276e-05 4.1388397e-05
000250 e3 04 e5 b9 37 5e 12 ba 9a a5 93 37 94 94 8a 38
       -0.00043681925 -0.0005583497 1.760088e-05 6.6080276e-05
000260 84 f2 d2 b9 3d fc 3e 39 61 08 49 b5 3d 83 dd b8
       -0.0004023501 0.00018213778 -7.489053e-07 -0.00010562546
000270 cf ed c4 ba bc 59 7d ba 0a 2c fd ba 2f 08 fc ba
       -0.0015024486 -0.00096645555 -0.0019315493 -0.0019228513
000280 6b d5 02 3a d0 8c 3b 3a 8a 7e 2f 39 9d 37 90 39
       0.0004990908 0.00071544666 0.0001673644 0.00027507255
000290 01 53 71 38 db 68 50 b6 0f bb bf 3a 45 70 1a 3a
       5.753618e-05 -3.105545e-06 0.0014627891 0.0005891363
0002a0 f7 1a 83 b8 3b 15 13 b8 8a 92 8f 39 0c 0b c7 39
       -6.2515894e-05 -3.5067304e-05 0.00027384266 0.00037964468
0002b0 b1 aa 29 38 fd 0a 21 ba be e0 a9 3a 14 34 60 3a
       4.045171e-05 -0.00061433 0.0012960655 0.0008552682
0002c0 01 5e 28 ba 08 07 70 ba c9 fb e7 b9 be 20 74 ba
       -0.0006422699 -0.0009156321 -0.00044247348 -0.00093127403
0002d0 c0 47 cf 37 a2 d1 91 b6 18 f1 3d 38 77 b9 00 39
       2.4709734e-05 -4.345741e-06 4.5285648e-05 0.00012276122
0002e0 e6 98 1e 3b 01 e8 ea 3a 8a ed 0b 38 d2 ff 92 39
       0.0024200021 0.0017921926 3.3361408e-05 0.0002803789
0002f0 6b 61 8d ba 44 fc 4e ba 54 21 6d b8 ac b7 3b 3a
       -0.0010786479 -0.0007895867 -5.6536242e-05 0.0007160853
000300 30 8a d9 b7 14 11 d5 38 37 63 19 b9 77 1c 25 b9
       -2.5932764e-05 0.000101598125 -0.00014628177 -0.0001574623
000310 af d9 64 39 00 76 9a b8 de 83 a8 39 5a b0 27 b8
       0.00021824868 -7.3652714e-05 0.00032141706 -3.9980143e-05
000320 7a 1e 85 b8 35 a5 e0 39 c3 03 41 ba 1b fd 92 ba
       -6.347611e-05 0.00042847698 -0.0007362926 -0.0011214347
000330 c7 b9 46 b9 f6 a7 8a b9 57 84 48 3a 1c 45 b7 3a
       -0.00018951959 -0.00026446552 0.00076491147 0.0013982388
000340 49 44 39 bb 8a fc 5b bb 02 a0 c4 b6 41 70 af b8
       -0.002826946 -0.0033567273 -5.8598825e-06 -8.365559e-05
000350 0a 6e 66 ba a6 31 44 ba 76 8c 3d b9 88 da 09 ba
       -0.0008790201 -0.0007484205 -0.0001807677 -0.0005258699
000360 0c 45 be 3a 3e 1b aa 3a a2 65 7c 3a d9 b7 95 3a
       0.0014516427 0.001297809 0.00096281816 0.0011422589
000370 50 6b 8e 39 09 33 ba 39 bd cd 7e bb b4 ef 64 bb
       0.00027164305 0.0003551471 -0.0038879954 -0.0034932913
000380 4e a6 47 ba e5 02 3f ba 08 89 6b b8 dd e8 11 b8
       -0.0007616029 -0.0007286503 -5.6155986e-05 -3.4787565e-05
000390 87 61 f9 b8 53 56 90 39 64 15 cf 3a 62 23 5c 3a
       -0.00011891411 0.00027530137 0.0015799222 0.00083976064
0003a0 a9 af bb b9 ce b7 04 ba 98 fb 4c ba b9 31 45 ba
       -0.00035798296 -0.00050627894 -0.0007819473 -0.0007522363
0003b0 9c 6a 80 39 bc 75 f8 39 ff 46 34 ba fc 8c 9c b9
       0.00024493493 0.00047389965 -0.00068770343 -0.0002985968
0003c0 cc cc 93 38 ff 0d ab b8 01 a6 49 38 67 6d 0c 36
       7.0476526e-05 -8.1565224e-05 4.8076738e-05 2.0925306e-06
0003d0 59 b7 87 3a 88 1b 78 39 1b 7d 6e b9 72 9d b0 b9
       0.0010354324 0.00023661379 -0.00022744054 -0.00033686642
0003e0 f2 19 23 ba 09 82 10 ba 71 b9 7e 3a 5f b6 d2 3a
       -0.00062218227 -0.0005512541 0.0009716964 0.0016076079
0003f0 d7 93 9c 39 86 59 5a 39 54 9c 17 38 a3 5d 43 3a
       0.00029864788 0.0002082345 3.6146797e-05 0.00074526126
