data/Figure3_Supplement/041/checkpoint_0000500.pth (torch, 225793 bytes, 31 tensors)

net.0.weight f4 [32, 120, 2]
000000 0c e7 7b bc 53 aa a0 3c dd ab 90 3d fe ac 12 bd
       -0.01537491 0.019612467 0.0706403 -0.03580951
000010 31 77 d0 3c 81 18 ac 3c 6c ba 83 3d 91 a6 66 3d
       0.02544746 0.021007778 0.064320415 0.056311194
000020 88 8b 19 39 8a 57 11 3d bd 39 39 3d ff 4a ea 3b
       0.00014643196 0.035483874 0.04522108 0.0071500535
000030 04 ac af bb 16 e3 c2 3c 64 8a 29 bc dc 42 39 3c
       -0.005361082 0.023789924 -0.010347936 0.011307444
000040 7a 32 d6 3c 46 20 85 bc de ff 16 3d 8a 23 33 bd
       0.026147116 -0.01625074 0.036865108 -0.043735065
000050 6a 19 3b bc a7 1e 1f bd 15 78 1c 3a 9b 75 d9 3c
       -0.011419633 -0.03884759 0.00059688214 0.026545336
000060 f0 b3 26 bd 6f 74 ac bc 1f e1 74 bc 32 15 23 3d
       -0.040698946 -0.021051614 -0.014946251 0.039815135
000070 1f 68 20 bd 98 b4 a1 3c 7a 8d 22 3d 54 78 27 bd
       -0.039161798 0.019739434 0.039685704 -0.04088624
000080 5a 2c 1a 3d d5 46 2a bd 1f 4b 4c bb 0f 5a de bc
       0.037639953 -0.041571457 -0.0031172705 -0.027142553
000090 e4 2d 22 bc ec 6d 46 bd cc c3 79 3c 29 d5 80 bd
       -0.0098986365 -0.048444673 0.0152444355 -0.06290657
0000a0 34 43 da bc f3 f4 cd 3c 5d 4a 8c bb 63 9f cb 3c
       -0.026643373 0.025141215 -0.0042813257 0.024856275
0000b0 28 9f 84 bd e6 fd d6 bc df 9d 28 3d f4 b2 f9 3c
       -0.06475669 -0.026244115 0.041166183 0.03048084
0000c0 9a 40 19 bc 62 42 15 3d 94 91 07 bd a3 d9 24 bd
       -0.009353781 0.03644026 -0.03309782 -0.040246617
0000d0 08 6c 81 39 d3 03 0f 3d 2c 83 15 bd 6c 93 c6 3c
       0.00024685287 0.034915756 -0.03650205 0.024240218
0000e0 62 e1 7a 3c 4e 78 00 bb 67 3f f1 bc f9 0b 32 3d
       0.0153125245 -0.0019602957 -0.029449178 0.04346845
0000f0 ef 08 07 3a cf 7e 25 3c 80 f9 08 bd ae ad 98 bc
       0.00051511725 0.010101034 -0.033441067 -0.018637504
000100 07 f4 0e 3d e2 c1 d7 3c 0a ce 8a 3d d6 37 38 3d
       0.03490069 0.026337568 0.0677758 0.044975124
000110 49 99 e2 3c ff 99 7e bd 5a bf eb 3c 0f 70 38 bd
       0.027660983 -0.06215858 0.028777767 -0.045028742
000120 ba 3e 8d 3d e4 f3 2a bd 58 cf b5 bd 4f db 4a bd
       0.0689673 -0.0417365 -0.08877438 -0.049525555
000130 e5 c1 5e bd 0c 3a 0c bd 06 0b 3f bd d5 02 6e 3d
       -0.05438413 -0.034235045 -0.046641372 0.05810817
000140 65 c0 e1 3c 31 06 c4 ba cf a2 be 3b 3d 7d 7e 3d
       0.027557561 -0.0014955458 0.005817748 0.062131155
000150 98 34 33 3d 33 9a 23 3d 83 ea c5 3c fb 7f 7a 3d
       0.04375133 0.039941978 0.024159675 0.061157208
000160 45 e2 0f bd e6 ff 66 bc 97 2d 3a 3d f0 d6 68 3d
       -0.035127897 -0.014099097 0.045453634 0.056845605
000170 95 7b 5f bc 96 a9 3d bc 91 18 62 3d f3 a7 41 3d
       -0.013640304 -0.011576077 0.05519921 0.04727931
000180 09 27 71 3d 5b 30 16 bc 8d 97 0a 3d d9 3a 85 bc
       0.058875117 -0.009166802 0.033835936 -0.016263412
000190 54 c9 86 bd 87 81 a5 bd e4 20 a0 3b 0a f0 69 3d
       -0.06581369 -0.08081346 0.0048867334 0.057113685
0001a0 80 36 3e 3d fd 46 27 3c a1 c3 94 3d 3c 52 af 3c
       0.046438694 0.010209796 0.07263876 0.021401517
0001b0 88 fb a2 bc e8 fe 97 bd a3 8d c1 3b 24 04 e9 b9
       -0.01989533 -0.074216664 0.005906777 -0.00044444308
0001c0 e3 79 b7 bc 3c fa f6 3c 2e 49 6b bc 4c f1 45 bc
       -0.022396987 0.030148618 -0.014360709 -0.012081455
0001d0 ba 48 1e 3b 3d 11 4f bc 1c fa 2b bd dc 1f 36 3d
       0.0024152235 -0.012638387 -0.04198657 0.044463977
0001e0 01 02 87 bd eb 2d 92 3d 50 00 2e 3d 83 a8 49 3d
       -0.06592179 0.071376644 0.042480767 0.04923297
0001f0 b5 de 86 bd 77 f8 56 3c 2e 9c 08 3d 08 fb 20 bd
       -0.06585447 0.013120762 0.03335207 -0.039301902
000200 36 1d d0 3c ef ed a8 3a fb 5a e5 bb 6e 77 95 bd
       0.025404554 0.0012888293 -0.006999371 -0.0729817
000210 f4 4c 19 bc de f0 41 bd a2 e4 18 bd 83 49 83 3d
       -0.009356726 -0.04734885 -0.037327416 0.064105056
000220 fb 77 e3 bc 1a 02 d8 3c 2c 14 ca 3c ac ea a1 3c
       -0.027767172 0.02636819 0.024667822 0.01976522
000230 1c 98 51 bc 54 c3 af 3b d9 db 59 3d 21 5f 21 bc
       -0.012792613 0.005363861 0.05318818 -0.009849341
000240 bd 18 54 bb a1 92 06 bd 8b 93 2e bd 53 e8 12 3d
       -0.0032363378 -0.03285468 -0.042621177 0.035866093
000250 71 fa 26 3d 16 3b cd bc 40 97 43 3d 21 22 4b 3d
       0.040766183 -0.025052588 0.047751665 0.049593095
000260 a8 f0 3f 3d 17 fd 22 3d f1 8d 49 3c 9b 5d 62 bc
       0.046860367 0.039792147 0.012301908 -0.013816263
000270 c2 72 16 3c ed a0 db bc f2 a7 86 3d 31 50 bb bc
       0.009182634 -0.026810134 0.06575002 -0.022865387
000280 07 55 1b 3d 31 35 7f 3c 94 62 b6 bb e6 1e 6a bd
       0.037922885 0.015576647 -0.0055659506 -0.057158373
000290 4a 14 21 3d 23 c2 5b 3d 76 ef a3 3c 7d d2 43 bd
       0.03932599 0.05365194 0.020011645 -0.04780816
0002a0 cd 9b 11 3d 94 2a c1 bb a0 62 8e 3d 10 3e 11 bd
       0.035548974 -0.0058949683 0.06952405 -0.035459578
0002b0 02 3d fa bc 25 41 6a 3d 25 f4 48 3a 6e 43 24 bc
       -0.030546669 0.057191033 0.0007665775 -0.010025842
0002c0 62 44 48 3d cb 46 7f 3d fa 62 22 bb 94 75 6f bc
       0.04889334 0.062323373 -0.0024778233 -0.014615435
0002d0 0c 05 c2 bc c1 84 02 3d 22 06 d6 bc 7a 39 b0 bc
       -0.023684047 0.031864885 -0.026125971 -0.021511782
0002e0 85 31 9c 3d 46 d4 88 bc 50 f4 ed 3c 5f 9d 86 3c
       0.076266326 -0.016702782 0.029047161 0.016432462
0002f0 5b 2f 3c 3c 24 a0 f4 bc 7b 37 60 3b 65 be 9c 3c
       0.0114859 -0.029861517 0.0034212756 0.019133756
000300 d6 82 a2 3c e5 2c bf 3b fb f6 01 3d 27 21 1d 3c
       0.019837778 0.0058342093 0.03172968 0.009590424
000310 6d 1b 4f bd d0 32 43 bc 14 35 64 3d 51 11 ad 3d
       -0.050563265 -0.01191397 0.05571468 0.084505685
000320 ba 34 9c bc d9 bf 80 ba 00 40 a2 3c 10 7d 6e bd
       -0.01906811 -0.00098228 0.019805908 -0.058224738
000330 9f 38 5a bd 1c 61 88 3c 98 b1 e7 ba 9d 04 6a 3d
       -0.053276654 0.016647868 -0.0017676828 0.057133306
000340 16 24 00 bd 7c 62 d7 bb 90 99 78 bd f7 e9 61 bb
       -0.031284414 -0.0065730195 -0.060693324 -0.003447173
000350 bc 80 b0 bc 54 81 7f 3c 9d e5 63 bc ba 3b fb bc
       -0.02154576 0.015594799 -0.013909725 -0.030668128
000360 bc aa 52 3d f1 19 a5 bc 6a 70 5e 3d b6 31 67 bc
       0.051432356 -0.020153971 0.054306425 -0.014110973
000370 71 04 ec 3c 4d 87 55 3d af 6b 06 3d c7 1a a9 3c
       0.028810712 0.052130986 0.03281754 0.020642651
000380 57 ef 03 bd e0 c6 5a 3d 0e 64 a9 3b 38 9f 86 3d
       -0.032210674 0.05341232 0.005169398 0.06573337
000390 8a a6 24 bd d3 96 52 3d f6 dd 8c 3d 50 2e 63 bd
       -0.040197887 0.05141337 0.06878273 -0.05546409
0003a0 48 7a 73 bd 32 03 b1 bd 51 13 8c bc 5b e9 7e 3b
       -0.05944279 -0.086431876 -0.017099055 0.0038896415
0003b0 6c 66 aa bb 07 c4 af 3c 33 39 a4 3c 91 d4 4f bd
       -0.005200198 0.021455778 0.020046806 -0.05073983
0003c0 fa 1d 9e 3d e0 b4 3b 3d c8 60 92 3d 32 ff 7e bd
       0.07720561 0.045826793 0.07147366 -0.062255092
0003d0 56 42 21 bd 5f 95 9c 3d 42 be 38 bd 9e 79 e2 3c
       -0.039369904 0.07645678 -0.04510332 0.027645882
0003e0 09 5f b0 3c dc 5b 4b 3d 95 8f 44 bd 13 92 4a bc
       0.021529691 0.04964815 -0.047988493 -0.012363928
0003f0 06 36 de 3c 38 47 1e bd 55 f4 96 3c 47 6f a8 3a
       0.02712537 -0.03864214 0.018427053 0.0012850546

net.0.bias f4 [32]
000000 a0 e2 3a 3d 2b 7e a2 3c 28 e4 24 bd 64 dd 0b 3d
       0.045626283 0.019835552 -0.04025665 0.03414668
000010 7b 1a 0d bd ae 18 ab 3c bb ab 05 3d 1a a9 8c bc
       -0.034449082 0.020885792 0.032634478 -0.017170478
000020 ed 03 17 bd 1c 8d 0f bd 58 ed 7c 3d 16 b6 1f 3d
       -0.03686898 -0.03504668 0.061749786 0.03899201
000030 df b8 e8 bc f4 53 7d bd 92 85 d2 3c ed 57 d3 bb
       -0.028408466 -0.061847642 0.025698457 -0.0064496906
000040 6f 40 3a 3d b6 43 9f 3b a6 7e 9b 3b 6f 2c 39 3d
       0.045471605 0.0048603667 0.0047453223 0.04520839
000050 66 26 41 3d 09 e4 5d bd 73 c4 c6 bc f5 67 e3 3c
       0.04715576 -0.05417255 -0.024263596 0.027759532
000060 d8 a6 e2 3c a6 e7 5e 3d ba f2 88 3d 07 14 1d 3d
       0.027667448 0.054420136 0.066869214 0.038349178
000070 2e e1 32 bd ee be 57 3d 9c 85 9f 3c ff 6a 76 bc
       -0.04367178 0.05267232 0.01947289 -0.015040158

net.2.module.0.weight f4 [32, 32, 3]
000000 08 41 d8 bd c9 f1 b5 3d 65 87 a9 3d 77 54 b4 bd
       -0.10559279 0.088840075 0.082777776 -0.08805173
000010 9b 73 e8 bc 05 c1 1d 3c 96 81 b6 3d b2 47 99 bd
       -0.028375437 0.009628539 0.08911435 -0.07484378
000020 88 81 60 3d 54 98 d3 3d 2d 51 21 3d 4c 6a a9 3d
       0.05481103 0.10331789 0.039384056 0.08272228
000030 5e 8a 7b bd 78 85 80 3d b8 fc 6a 3d b0 8c b8 3d
       -0.061411254 0.06275457 0.057369918 0.09011209
000040 47 0a 8c 3d 71 56 60 bc 67 9a 16 3d 15 16 b0 3c
       0.06837898 -0.013692484 0.036768343 0.021494905
000050 0f 5b de bc 5e 00 af 3d 6f 69 9f bd 04 95 ad bc
       -0.02714303 0.08544992 -0.07783782 -0.02118922
000060 9a 1b 8b 3c b2 f2 1d bd 57 bc e8 3c d0 41 92 3d
       0.016980935 -0.03856153 0.02841012 0.07141459
000070 aa 02 0d 3b 42 b3 fc bb c0 48 de bc 52 29 ed 3c
       0.002151648 -0.007711799 -0.0271343 0.028950367
000080 7c 03 ff bb 74 ef 69 3c 1f 04 39 3c 44 e3 8b 3d
       -0.007782398 0.0142782815 0.011292486 0.06830457
000090 10 4b b3 bd 9d 1b fe 3c 8b 4a 18 bd f3 81 15 3d
       -0.087545514 0.031019026 -0.037180465 0.036500882
0000a0 34 7b c7 bd ae df 76 bd 1b 7d 8d 3d b0 36 6d 3d
       -0.09740296 -0.06027191 0.069086276 0.057913482
0000b0 ff d0 94 3d 4b e2 93 3d 98 c9 f8 3c 45 94 a4 3c
       0.07266425 0.07220896 0.030369565 0.020090232
0000c0 67 28 39 bd 65 eb 97 bd 8b 21 69 bd 1f 05 7b bd
       -0.045204546 -0.07417945 -0.056916755 -0.06128418
0000d0 ae 9a 89 bd ee 65 94 bd 3d b9 2a bd c4 b4 b5 bd
       -0.06718956 -0.07246004 -0.041680563 -0.08872369
0000e0 a2 26 e4 3d f7 89 b8 3d 2d 04 89 3a e8 c4 18 3c
       0.11140181 0.0901069 0.0010453515 0.00932429
0000f0 59 20 91 bd d7 ed 5a 3d 08 9f 99 3d 7f db fc 3b
       -0.07086248 0.053449478 0.07501036 0.0077165957
000100 93 14 a7 bd 10 95 dd bd a8 8a e3 3c 25 50 bf bd
       -0.08158221 -0.10819447 0.027776077 -0.09341458
000110 a2 bb 49 3d 45 e3 a2 bd 1d cf 15 bd 51 11 02 3d
       0.049251206 -0.079535045 -0.03657447 0.031754795
000120 00 9c a9 bd 23 c6 28 3b 72 29 3c bb 4b 37 c2 bd
       -0.08281708 0.0025752864 -0.0028711227 -0.094832025
000130 8d 7b a0 bc ae 4b 6a bd 26 55 35 bd 28 3c d9 bd
       -0.019590164 -0.05720108 -0.044270657 -0.10607177
000140 3d 42 c9 3d d1 83 b8 3c 4e a6 04 bd ce a2 93 bd
       0.09827087 0.022523792 -0.032385163 -0.07208787
000150 ba 71 18 3a d5 31 b9 bd c0 e0 fe 3c 39 90 55 3b
       0.00058152864 -0.09042708 0.031113029 0.0032587184
000160 79 fe b3 3d a5 6c 17 bd fc 54 1d bd ad 63 59 bc
       0.08788771 -0.036968846 -0.038411126 -0.013268393
000170 26 b6 ae bd f3 63 7a bd cd 2d bc 3d cb 7f 83 bd
       -0.08530836 -0.061130475 0.09188423 -0.06420859
000180 4b 65 40 bd f1 db 3f 3d f3 c8 b4 bd 34 af 7e 3d
       -0.0469716 0.04684061 -0.088273905 0.062178805
000190 d9 cf 60 3d fb 66 b1 3d 00 a2 7d 3c 57 c3 3b 3d
       0.05488572 0.0866222 0.015480518 0.045840587
0001a0 8e 55 a2 bd b8 e4 39 3d db 30 cc 3d 8f 49 34 bd
       -0.079264745 0.04538414 0.09970256 -0.044015463
0001b0 69 7f c9 bd d6 4c a0 3d 2f 9e b9 3c e3 48 76 bd
       -0.09838755 0.07827155 0.022658436 -0.060128104
0001c0 3c aa 8f 3d 4d 6e c1 bd dc f4 7e 3d df 8c c5 bb
       0.070148915 -0.09444866 0.062245235 -0.006028756
0001d0 f7 3a 07 3d 12 53 80 3c c8 fd d2 bb ef e5 6f bd
       0.033015218 0.015664611 -0.0064389445 -0.05856889
0001e0 23 89 c8 bd b1 e8 2d 3d ac d3 db bc c1 c7 3f 3d
       -0.09791782 0.04245824 -0.026834331 0.04682136
0001f0 9d 2c ab 3c bc ec d3 3c 81 d0 97 3d 5c 75 68 bd
       0.020895297 0.02586972 0.07412816 -0.056752548
000200 bf 45 9a 3d 0d f1 1e bc 09 bb 7b 3c 18 2c c5 3d
       0.07532834 -0.009701026 0.015364417 0.09627551
000210 fd 2b ce 3d 24 28 89 bd 40 6c 6b bd 0d bb 6a bd
       0.10066984 -0.06697109 -0.057476282 -0.05730729
000220 f8 92 af 3d f1 c7 c9 3c 08 45 9f bc 38 d8 d2 3d
       0.08572954 0.024631472 -0.019442096 0.10295147
000230 a2 43 f9 3b 36 2f f4 3b 35 86 44 bc 37 c6 2a 3c
       0.0076069394 0.007451917 -0.011994888 0.010423235
000240 39 09 02 bd 18 8d dc 3d e0 6c 74 3d 33 74 fb bc
       -0.031747077 0.10769099 0.059674144 -0.030695057
000250 0d b6 7c bd 65 8b a9 3d 96 a1 a3 bd fc 44 55 bd
       -0.061697055 0.082785405 -0.079898044 -0.05206774
000260 22 77 90 bd 49 1f 8d 3d 4c db 9f 3d 68 dc 81 bd
       -0.07053973 0.06890733 0.078054994 -0.06340867
000270 19 1a 4a 3d 4b 71 cc 3d ce 47 26 bd cd a0 c2 3d
       0.049341295 0.099825464 -0.040595822 0.095033266
000280 1d a9 87 bb b2 a5 53 3d d8 f7 b4 3d 16 80 18 bd
       -0.004140033 0.05167169 0.08836335 -0.037231527
000290 7e 81 92 3d 75 4b bf 3d 53 d4 1d bd 98 4c 32 38
       0.07153605 0.09340564 -0.038532566 4.250984e-05
0002a0 ce 30 86 bd c9 a9 cf 3c 47 40 70 bd c0 e7 1f 3d
       -0.065522775 0.025349515 -0.05865505 0.039039373
0002b0 5e f4 00 bd c4 c7 19 3d 16 08 92 3d 69 c9 af bd
       -0.031483047 0.037544027 0.071304485 -0.08583338
0002c0 6c db 95 3d 55 b1 91 3d 08 e9 b1 bd 81 8c b9 bd
       0.07317242 0.071139015 -0.08687025 -0.09060002
0002d0 68 4d 3a bd 37 0b 78 3d be 66 b3 bd fc f3 8c bd
       -0.045483977 0.06055757 -0.08759831 -0.06882474
0002e0 88 b3 30 bd ca 66 ac bc b7 9c f7 3c 38 05 de bd
       -0.043139964 -0.021045107 0.030226095 -0.10840839
0002f0 2b af 2b 3d a6 e2 7e 3c 6c 52 4d 3d 19 5c a2 bd
       0.0419151 0.015556967 0.05012743 -0.079277225
000300 0e 1b e2 bd 0f 29 8f bd ce 11 b8 3d 60 bd a1 bd
       -0.110403165 -0.06990253 0.08987771 -0.078974485
000310 fc 30 c8 3d 82 7b 35 bc ea 6d 93 3d 6d eb 5f 3d
       0.09774968 -0.01107681 0.07198699 0.05466788
000320 83 9c df bd cc 05 69 bd 67 2d b4 3d ca d2 a5 bd
       -0.10918524 -0.056890294 0.08797722 -0.080968454
000330 6e 37 c8 3c d5 a9 67 bc 4b 50 fe bc 8e 59 7d 3d
       0.024440493 -0.014139612 -0.031044146 0.061852984
000340 18 a5 66 3d 20 aa 9f 3d 95 16 bc 3c fa b3 ae 3d
       0.05630979 0.07796121 0.022959987 0.085304216
000350 a5 62 12 3d 49 77 dd bc a4 89 fc bb 52 b1 a0 bc
       0.035738606 -0.027034419 -0.0077068377 -0.019615803
000360 cc 38 51 3d 32 83 77 bb 94 6d 05 bd d2 b1 52 bd
       0.051079556 -0.0037767407 -0.032575205 -0.051439114
000370 45 b3 18 bd d0 45 a4 3d 2d 4f 95 3a be 32 51 bd
       -0.03728034 0.08021128 0.0011391394 -0.051073782
000380 b7 bf 93 bd 05 36 7c 3d 2f 39 4a bd 55 92 a0 bc
       -0.07214301 0.061574955 -0.04937094 -0.019601027
000390 36 e3 bf 3d d7 cc f4 3c 63 e2 cb bd 87 d4 39 bd
       0.09369509 0.029882831 -0.09955289 -0.045368697
0003a0 ec db 2b 3d 58 13 68 bc ea f0 ae bd c6 8e 2d 3d
       0.04195778 -0.014164768 -0.085420445 0.042372487
0003b0 e3 3d 2c bd 41 c3 a8 3c ff 1b 04 3c 6d 15 2c 3d
       -0.042051207 0.020600917 0.008063315 0.04201262
0003c0 2c 2e 19 bc b5 f1 c5 3c c6 fe 0b 3c 52 b2 69 bd
       -0.009349387 0.024163106 0.008544629 -0.057054825
0003d0 76 1c 6e 3d 43 2a 58 3c 48 b0 e3 3c 5d 9a 10 3d
       0.05813261 0.01319367 0.027794018 0.035303462
0003e0 23 f8 7f 3d 3a 5c 52 3d 3a 3c dd bd 79 7f 5a 3d
       0.0624925 0.051357485 -0.10802503 0.053344224
0003f0 0d 0a b7 3c ef 1b ce 3d d9 71 43 3d d8 e9 88 bd
       0.02234366 0.10063922 0.047715995 -0.06685227

net.2.module.0.bias f4 [32]
000000 86 78 44 bd 46 f0 30 bd 20 18 b4 3d 55 6a b3 bc
       -0.047966503 -0.043197893 0.08793664 -0.021901289
000010 b7 00 49 bd c0 f9 2b 3d df d2 67 bd b4 21 ac 3c
       -0.049072947 0.041986227 -0.056597587 0.021012165
000020 0b 76 71 3b 49 55 ce 3d b4 d1 ca 3c ff ab 63 3d
       0.003684404 0.100748606 0.024758197 0.05558395
000030 a4 09 79 3d 49 06 bf bd 76 35 ae 3d 31 0f 27 bd
       0.06080021 -0.09327371 0.085062906 -0.040785972
000040 49 6e 9a bd 1a 45 29 bd db c6 31 bd 20 a0 3e bc
       -0.075405665 -0.041325666 -0.043402534 -0.011634856
000050 35 6f 66 3d 08 13 87 3d 13 47 6e 3d a7 11 79 bd
       0.0562584 0.06595427 0.05817325 -0.06080785
000060 23 3c 32 bd 37 58 77 3d 4a c9 02 bd d6 bc 9c bd
       -0.043514382 0.060386863 -0.031930245 -0.07653205
000070 b9 a6 0a 3a f5 24 28 bd c2 0a ff 3b a1 b3 72 3d
       0.0005289126 -0.04105087 0.007783265 0.05925334

net.3.module.0.weight f4 [32, 32, 3]
000000 22 c6 bd bd c7 cf 69 bd cf 9a a7 bc 3b 00 a5 3d
       -0.092663065 -0.057082918 -0.02045956 0.080566846
000010 8e 4f 71 bd 5f 09 63 bd 5e c7 13 3d 72 0f 9d bd
       -0.05891376 -0.05542886 0.036078803 -0.076689616
000020 f9 d6 ae bc b4 73 7c 3d 8d bb 92 3d 90 4f 97 bc
       -0.021342741 0.06163378 0.07164679 -0.018470556
000030 1b 6c 63 bd 1c be d5 3c bb 2f f2 3c 65 71 30 3c
       -0.05552302 0.026091628 0.029563775 0.010769223
000040 6f 72 cd 3d 31 51 68 3d ce 7c a4 bd e3 88 6c bc
       0.10031592 0.056718055 -0.08031617 -0.014436933
000050 74 8d b8 bd 8a 0a 88 3d 93 a4 df bc e5 ec 83 3d
       -0.09011355 0.06642635 -0.027300155 0.064416684
000060 11 07 bc 3c 5b ae 0c bd ce 8b 57 bd ff 6d 18 bc
       0.022952588 -0.034345966 -0.052623563 -0.009303569
000070 7b ed d2 3d 12 e1 2e 3d 38 18 a5 3d b1 1a fc 3d
       0.10299202 0.042695113 0.0806126 0.123097785
000080 1a cf 81 3c 73 f0 f2 bc 6e f6 05 3d 68 d5 a7 bd
       0.015845824 -0.02965567 0.032705717 -0.08195001
000090 66 c4 73 bd e3 d8 98 3d 33 5c 55 bd af 47 5e bd
       -0.059513472 0.07463243 -0.05208988 -0.05426758
0000a0 d2 64 51 bd 55 34 01 3d c8 9e 7a 3d 30 be 92 bc
       -0.05112154 0.03154405 0.06118658 -0.017912954
0000b0 24 dc 93 3b 51 e5 d7 bc b3 c8 24 bd 0c b8 55 bd
       0.004512327 -0.026354464 -0.040230464 -0.052177474
0000c0 19 5d 23 3d 3d 56 13 3d 06 e6 a2 bd 75 39 98 bc
       0.039883707 0.035970915 -0.0795403 -0.018582085
0000d0 4c b8 dd 3d 15 b0 63 bc 47 15 7b 3d 75 15 d9 bd
       0.108261675 -0.013896962 0.06129959 -0.10599796
0000e0 1a 2c c9 3d 6b 81 29 3d 36 ee 7c bd f2 23 6c bb
       0.09822865 0.04138319 -0.061750613 -0.0036032167
0000f0 03 8b 64 bd 95 47 3a bd 0e 49 0e bc 2d c8 1a 3d
       -0.055796634 -0.045478422 -0.00868441 0.03778856
000100 a2 fc c4 bd 16 42 c4 bb ac 1f 5f bd c7 69 8f bd
       -0.096184984 -0.0059893234 -0.054473564 -0.07002597
000110 a3 19 ca bd 2b c6 c7 3c a3 18 4f 3c ec 8d 12 bd
       -0.09868171 0.024386486 0.012640151 -0.03577988
000120 d6 58 88 bc 34 0c 99 3d b4 24 90 bd fe c7 0a bd
       -0.016643923 0.07473031 -0.070382506 -0.033882134
000130 b9 9c e5 3c dd 62 75 3d ce e3 e5 bd 2a 3f f8 bc
       0.028028833 0.059908736 -0.11225091 -0.030303556
000140 a5 62 89 bd 1b 0b be 3d 51 14 c8 3d 75 f4 d7 3a
       -0.06708268 0.09279462 0.097695 0.0016476052
000150 49 6d 90 3c d4 5a a0 bd 73 3c 62 3d a7 86 36 3c
       0.017630236 -0.07829824 0.05523343 0.011140502
000160 a9 85 10 bd 99 e9 a3 bd f3 9a 8f 3d 34 58 82 3d
       -0.03528372 -0.080035396 0.07011976 0.0636448
000170 13 6c 05 bd c1 ef 33 bc 5e e4 84 3d 8b c7 98 3d
       -0.03257377 -0.010982455 0.0648887 0.07459935
000180 be 99 c1 3d 93 93 05 3d a1 42 54 bd 96 b4 ac bd
       0.09453152 0.03261144 -0.051821355 -0.084328815
000190 6d 2e 0c bd b0 74 c1 3d e4 51 bf bd 26 03 23 bd
       -0.034223963 0.094460845 -0.09341791 -0.039797924
0001a0 1c 3f 52 3d c3 89 5b bd 66 5d d4 3d 03 27 a5 bc
       0.051329717 -0.053598177 0.10369377 -0.020160204
0001b0 94 fc a3 bd 13 44 cc bd f1 92 f1 3c e1 62 5d 3d
       -0.0800716 -0.099739216 0.029489012 0.054049376
0001c0 4e c2 c8 ba 4a 0c 98 3d 33 71 3f bd f7 c5 c8 3d
       -0.0015316696 0.07424219 -0.046738815 0.09803384
0001d0 c6 4d d1 bd 1e 59 85 3d b9 e2 05 3d 6b 9e 2e bd
       -0.10219912 0.065111384 0.032686923 -0.042631548
0001e0 16 d4 8a 3d d1 46 2e 3c 32 33 35 bd 70 eb 83 bd
       0.067787334 0.010637001 -0.044238277 -0.064413905
0001f0 f4 29 f5 bc 0d 26 92 bb 2d 48 82 3d 17 a1 ba bd
       -0.029927231 -0.0044601024 0.06361423 -0.09112757
000200 4a b3 61 3d 9f c5 a5 bd 18 c2 d5 bd 7d 80 81 3d
       0.055102624 -0.08094334 -0.10437411 0.06323335
000210 db b4 ba bd b2 45 2c 3d 90 b1 67 3d ba 72 80 3d
       -0.09116527 0.042058654 0.05656582 0.06271882
000220 19 ef 60 bd 93 8b d6 3d 00 98 1c 3d d9 4c a3 bd
       -0.05491552 0.104758404 0.038230896 -0.07973642
000230 50 60 c7 bc b9 e5 ab 3d 4f 61 66 3d 48 0b a8 bc
       -0.024337918 0.083934255 0.056245144 -0.020513192
000240 67 29 89 3d a3 14 56 bc 54 99 98 3c d0 4a ae 3d
       0.0669735 -0.013066444 0.0186278 0.08510363
000250 8f 59 a5 bd 74 8b b3 bd 58 96 c7 3d 9c 64 59 bc
       -0.080737226 -0.08766833 0.09745473 -0.013268616
000260 52 85 39 bc f3 01 03 bd 91 de 8f bd 2d 1a 42 3d
       -0.01132329 -0.03198428 -0.07024873 0.047388244
000270 9e b7 98 bd c6 29 51 3c 73 cf e1 bb e1 53 e6 bc
       -0.07456897 0.012766307 -0.006891185 -0.028116168
000280 07 54 d4 bd b8 f7 b1 bb 1e 8d aa bc 60 7c e0 3d
       -0.103675894 -0.0054311417 -0.020819243 0.10961223
000290 e5 13 89 3d 47 57 d4 3c ad 9b 55 3c 77 7f f2 3d
       0.06693248 0.025920523 0.013037604 0.11840718
0002a0 e5 fa ca 3d 29 63 95 3d 7a 73 35 3d dd 27 4c bd
       0.099111356 0.07294304 0.04429958 -0.049842704
0002b0 be 1b 42 3d 45 06 78 3d 99 c0 39 bc de 4b fd 3b
       0.04738974 0.060552854 -0.011337423 0.0077299913
0002c0 99 bd c5 bd 0e 96 09 bd d5 0b b7 bd 75 06 3c 3c
       -0.096553035 -0.03359037 -0.08937804 0.011476149
0002d0 51 c2 a7 bc 2c 68 75 bd 3d 38 14 bd 1f bd 4e 3d
       -0.0204784 -0.0599138 -0.036186446 0.05047333
0002e0 b1 e2 ab bd 4b 6b b5 3b 6e cf f5 bc d2 3d a7 bd
       -0.08392847 0.005536472 -0.030006137 -0.08166088
0002f0 ee d1 9a bc 83 81 7b 3d 46 2e 50 3d 06 e3 ac bd
       -0.01889893 0.06140281 0.05082538 -0.08441739
000300 c4 a9 a0 bc 14 d1 4a 3d 39 c1 a8 bd 2a d3 99 3b
       -0.0196122 0.0495158 -0.08239979 0.004694362
000310 19 59 08 bd 4b 21 a1 bd 76 3f c2 bd 74 e0 0b bd
       -0.033288095 -0.07867678 -0.094847605 -0.034149602
000320 1d be 19 3d eb 9a 7b bc db 9e ac bd 81 25 01 3d
       0.03753482 -0.01535676 -0.08428737 0.031529907
000330 13 b4 b9 3c e8 77 ff bc 4a 39 50 bc a8 ba b9 bd
       0.022668874 -0.031185105 -0.012708971 -0.09068805
000340 57 3b a3 bd a7 76 0f 3c 73 bd 0f 3d 9d a3 4e bd
       -0.079703026 0.008756316 0.035092782 -0.050449003
000350 c0 53 c2 3d 59 b1 02 bd fd 72 82 3d 05 6d 2d 3c
       0.0948863 -0.031907413 0.063695885 0.010585074
000360 89 4c 5c bd dc 25 2a 3d 03 8f de bc ef 8c 12 3d
       -0.053783927 0.04154001 -0.027167803 0.035778936
000370 02 db 66 3d 43 43 de 3d e3 84 e7 3d 7c 1b 8c bd
       0.056361206 0.10852673 0.11304643 -0.0684118
000380 24 81 7f bd 66 0b c2 3d 8d e1 b3 bd c2 64 02 3d
       -0.062379017 0.0947483 -0.08783255 0.03183437
000390 e3 b1 b2 3d 30 ab 8c 3c 2f 68 dd 3b f1 04 c6 3d
       0.087253354 0.017171472 0.0067568044 0.09668911
0003a0 35 9a 5c bc 8e 77 88 3d de 8b da bd 65 41 50 3d
       -0.0134645 0.06663428 -0.10671209 0.050843615
0003b0 c5 59 b5 3c 32 25 a0 bd 65 19 7f 3c df 27 79 3c
       0.022137532 -0.078195944 0.015570019 0.01520726
0003c0 ad 53 49 3d ea fd 91 3d e6 e4 65 3d 02 58 bb 3b
       0.049152065 0.071285084 0.056126498 0.0057172785
0003d0 71 20 b5 bd ac b2 50 3d f1 04 5c 3d 73 57 a4 bd
       -0.08844078 0.050951645 0.05371565 -0.08024492
0003e0 d4 28 4f 3d 72 e4 ca 3c dc f5 01 bd f9 61 86 bc
       0.050576046 0.024767134 -0.03172861 -0.016404139
0003f0 41 56 92 3d fa 55 8e bc 1a 85 74 3d f1 27 5d 3c
       0.07145358 -0.017374981 0.059697248 0.013498292

net.3.module.0.bias f4 [32]
000000 14 e8 29 bd cb 10 bf bc e5 cd 13 bd 86 59 51 3d
       -0.041481093 -0.023323437 -0.03608503 0.051110767
000010 a1 3c b9 bc 67 d5 9e bd bf ea b0 bd 47 c5 b6 bd
       -0.022611918 -0.07755547 -0.08638524 -0.089243464
000020 62 62 81 3b 44 d4 c2 bc 16 4a ae bd 89 a7 5a 3d
       0.0039484957 -0.023782857 -0.085102245 0.05338243
000030 85 ab af 3d f7 b1 73 3d d7 2e de 3c e7 5d 6e 3d
       0.08577637 0.059495892 0.027121944 0.05819502
000040 b7 63 45 bd 54 9b 52 bd 0a 9f 50 3d 9b 27 6a bd
       -0.0481908 -0.051417664 0.05093292 -0.057166677
000050 2e 75 d3 3d f0 1f 2a 3d a1 f4 67 3d 55 2d 92 3d
       0.103250846 0.041534364 0.05662978 0.07137553
000060 29 32 47 3d c5 13 94 bd 22 09 9d bd 03 be c5 bc
       0.04863182 -0.07230333 -0.076677576 -0.024138456
000070 41 24 b3 3d 48 62 9a 3c e2 b2 91 3c 41 46 d7 b9
       0.08747149 0.018845692 0.017785493 -0.0004106034

net.4.module.0.weight f4 [32, 32, 3]
000000 8e c6 14 bc ab 46 3f 3d 0b 41 76 bd 2e c7 ca bc
       -0.009080542 0.046698254 -0.060120624 -0.02475318
000010 68 90 28 3c d4 23 11 3d 58 94 78 3d 7a a3 7c bd
       0.010288335 0.03543456 0.060688347 -0.06167934
000020 ee 28 0c bd 5d cc 2a 3d 1f 4a a1 3d ac d8 32 bd
       -0.03421872 0.041698802 0.078754656 -0.043663666
000030 46 15 ec bc ef d5 63 3d d7 55 50 bc 5d 9d f6 3c
       -0.028818738 0.055623945 -0.012715778 0.030104334
000040 25 03 a8 3c 2b 76 d1 3d e5 a8 9a bc a0 f7 82 3d
       0.020509312 0.10227617 -0.018879363 0.06394887
000050 ca f0 45 ba 5a f7 b4 bd d0 52 56 3d 73 d1 24 3d
       -0.0007550834 -0.08836241 0.05232507 0.04023881
000060 21 60 91 3d 9c 47 ba bd 03 2f b5 3d c5 cf 49 bd
       0.07098413 -0.0909569 0.088468574 -0.04927041
000070 55 a3 e6 bb d0 88 34 3d 0f 40 93 bc 77 81 bb 3d
       -0.0070385137 0.044075787 -0.017974881 0.09155553
000080 66 18 80 3d 8a 5f 87 bb 37 e7 d3 bc 86 90 02 3d
       0.06254654 -0.004131262 -0.025867088 0.03187611
000090 53 88 cd bd a8 ed 51 bd a9 e6 ae bc 7e 3b 32 3d
       -0.100357674 -0.051252037 -0.021350222 0.043513767
0000a0 00 ec 75 3c 70 e0 30 3d a8 cd bc bd 19 6e 3b bd
       0.01500988 0.04318279 -0.09218913 -0.045759294
0000b0 b0 a0 8f 3d 75 d3 0b 3d 99 0c 54 bc 9d 02 2e bd
       0.070130706 0.034137208 -0.012942457 -0.04248296
0000c0 d0 69 a3 3d a8 ea e4 bd 9a d6 ac 3c b6 04 54 bd
       0.079791665 -0.1117757 0.021098424 -0.051762305
0000d0 d0 a6 32 bd 52 4e df 3c e1 c8 83 3d 80 ba b3 3d
       -0.043616116 0.027259026 0.06434799 0.087758064
0000e0 7c 17 58 bc c3 43 6f 3c 78 5b d0 3d 8d 1b d7 3d
       -0.013189193 0.014603558 0.10173696 0.10503302
0000f0 38 92 ba bd 69 22 a8 3c 57 61 87 3d 17 3c a2 3d
       -0.0910992 0.02052422 0.06610363 0.079216175
000100 c5 49 66 3d e0 5b ad bd d5 7d ca bd b1 22 d3 3d
       0.056222696 -0.084647894 -0.09887282 0.10309351
000110 12 14 20 bc a8 96 76 bd c3 f6 b1 3b a6 98 92 3b
       -0.00977041 -0.06020227 0.0054310276 0.0044737635
000120 ca 99 f3 3c e8 6b 14 bb ac 03 ec 3c 20 f5 6f 3c
       0.029736418 -0.0022647325 0.028810345 0.014645845
000130 06 f3 91 bd 02 c4 cd bd 8e 27 85 3d 71 fe 51 3d
       -0.07126431 -0.10047151 0.06501685 0.051268045
000140 c4 b3 8f bc 09 cd a6 3d 87 f6 46 bd 1b 52 42 bd
       -0.017541774 0.08144576 -0.04857495 -0.047441583
000150 d7 d4 17 bd fe 76 fd 3b ee 9d 82 bd 58 4c 6a bc
       -0.037068214 0.0077351322 -0.06377779 -0.014300428
000160 e9 da 22 3d a4 99 dc bd be 3e b7 3c 81 df b6 bd
       0.03975955 -0.10771492 0.022368785 -0.08929349
000170 f1 f8 b9 bc 87 e6 b3 3c 36 9e 0d bd 26 f0 e9 3a
       -0.022701712 0.02196051 -0.03457471 0.0017848059
000180 88 50 4f bd 70 d4 37 bd 80 50 a5 3d b5 93 b2 3d
       -0.05061391 -0.04488033 0.08071995 0.08719579
000190 50 85 4c 3d e5 f9 a7 3d 61 c4 dd bc eb f1 8b bc
       0.049931824 0.082019605 -0.02707118 -0.017083129
0001a0 be 1a 6e bd 64 83 55 3d d8 17 49 3d 35 66 96 3d
       -0.058130972 0.052127257 0.049095005 0.07343713
0001b0 64 cc 5a bd c3 bd 57 3d 07 43 b4 3d 0b c9 df bc
       -0.05341758 0.052671205 0.08801847 -0.027317544
0001c0 29 c5 b8 3d e3 a4 e3 3d 35 57 5d 3d 2e 96 b3 bd
       0.0902198 0.11115434 0.054038245 -0.08768879
0001d0 58 40 b2 bd b6 5e 8e bb a9 85 6a 3c 42 0b cc 3d
       -0.08703679 -0.0043447865 0.014314094 0.09963085
0001e0 a7 8f 8e 3d 53 b0 98 bd fb 94 bd bd 48 dc 27 3d
       0.06960993 -0.07455506 -0.092569314 0.04098156
0001f0 d1 a2 a7 3d e3 1b 3b bd c1 3a cf 3d be a1 80 3d
       0.08185352 -0.04568089 0.10118628 0.0628085
000200 12 73 9c bd 6b 38 86 3b d3 07 c2 bd 8a 3a 9a 3d
       -0.076391354 0.004096081 -0.094741486 0.07530697
000210 2d b8 b4 bd 58 6f 73 bd b6 06 43 3d 6c 44 97 bd
       -0.08824191 -0.059432358 0.047613822 -0.07386097
000220 d1 c7 5a 3d 6c 30 56 3d b0 f4 37 bd 24 cf bf 3b
       0.053413216 0.052292272 -0.044911087 0.0058535505
000230 b6 70 ba 3d 72 1f 5b 3d 40 98 87 bd 46 ed bc 3c
       0.09103529 0.053496785 -0.06620836 0.02306236
000240 81 51 a4 3d 71 20 83 3d d6 1d 6f bd a7 6b c1 bd
       0.08023358 0.06402672 -0.058378063 -0.09444361
000250 37 23 b1 3d cd 70 ae bb 94 2e a8 3d 9a 59 05 bc
       0.08649295 -0.0053235055 0.08212009 -0.008139038
000260 3d b8 25 3d 27 a3 14 bd b7 fe 45 bc c6 d3 9d bd
       0.040458906 -0.036288407 -0.0120846545 -0.07706408
000270 46 fb bf 3c b8 5b bc 3d 1f ed f5 bc 2f 8c 3c 3d
       0.023435246 0.091971815 -0.030020295 0.046032127
000280 68 c2 28 bd 89 a6 af 3d aa 9a df bd ba 87 a1 bd
       -0.041201025 0.08576686 -0.10918172 -0.07887216
000290 42 38 00 3d fa f6 7f bd 3c 88 aa bd d9 cc 92 3d
       0.03130365 -0.062491395 -0.08326766 0.07167978
0002a0 ad d8 ab 3d 42 50 83 bd db eb 6e bc 16 d0 0b 3c
       0.08390937 -0.06411792 -0.0145825995 0.008533498
0002b0 48 84 8c bd 94 86 a9 bc 8a f2 70 bd 8c bd a4 bd
       -0.06861168 -0.020694055 -0.058825053 -0.08043966
0002c0 3c a8 8a bc a2 af d0 3c 4d 02 d0 bd fb a8 9b 3d
       -0.016925924 0.025474373 -0.10156689 0.0760059
0002d0 5e 98 42 bc cb 05 dd bd fd 6f a5 bd af d0 cf bd
       -0.0118771475 -0.107921205 -0.08078001 -0.10147225
0002e0 b5 87 3b 3d 94 5b 98 3d e5 2d c6 3b 6e b2 ab bd
       0.045783717 0.07439342 0.0060479515 -0.08383642
0002f0 1f 2f a2 3c 4e bc f3 3c 1c f0 c5 bd 66 d4 08 3d
       0.01979786 0.029752877 -0.09664938 0.033405684
000300 0a 3e ce bc 37 36 01 bd 44 4b b1 bd da 6b d4 3b
       -0.025176067 -0.031545844 -0.08656934 0.0064825835
000310 eb b4 19 bd 62 fa b8 bd b6 7a 1f 3d d2 7b 14 3c
       -0.037526052 -0.09032132 0.038935386 0.009062724
000320 57 f7 84 bd 09 3f 9b 3c 9e cc 88 3d 88 b5 ae bd
       -0.06492489 0.018950956 0.06679653 -0.08530718
000330 e6 44 05 bd d2 38 a4 3d 6f d4 ad 3d 01 4a b2 3d
       -0.03253641 0.0801865 0.08487784 0.087055214
000340 21 70 97 3d 2f c9 b8 bd 47 bb b0 bd 21 5c 38 bc
       0.07394434 -0.09022748 -0.0862947 -0.011252434
000350 6d 79 2d 3d 88 ae 80 3b e5 f4 84 3c d1 96 cf 3d
       0.04235213 0.0039270557 0.016230056 0.10136188
000360 4e e0 85 3d e4 f9 1f 3d 55 06 45 3a b8 2b 1d bc
       0.06536923 0.039056674 0.0007515897 -0.009592943
000370 07 fc b8 3d c9 28 7e bd 9c 68 bb 3d 70 db 7d bd
       0.090324454 -0.062050615 0.09150812 -0.06197685
000380 44 75 89 bd e0 aa 6b 3d b0 f6 a9 bd 6b 7f a9 bb
       -0.0671182 0.057536006 -0.08299005 -0.00517266
000390 98 b0 c7 bd 0c e6 75 3c 07 34 44 3d b1 34 00 bc
       -0.097504795 0.015008461 0.04790118 -0.007825063
0003a0 d5 79 b7 3d d3 ce 7a 3b 03 f0 59 3d 55 e5 db 3c
       0.089587845 0.003827025 0.05320741 0.026842752
0003b0 b2 df bd 3c 2a dc 2d bd da 48 a1 3d 12 bd 8d 3d
       0.023177955 -0.042446293 0.078752235 0.06920828
0003c0 c3 be 94 bd dc cb a9 3c c9 c7 b7 3d 44 b5 aa 3d
       -0.072629474 0.02072709 0.08973653 0.08335355
0003d0 6b a1 9f bd 31 89 87 3d 59 b6 35 3d f1 ca ca bd
       -0.0779446 0.06617964 0.044363353 -0.09901989
0003e0 7a 47 19 3d ca 0b 11 3d 80 c5 c9 bd 24 5b 88 bd
       0.03742168 0.035411634 -0.09852123 -0.06658009
0003f0 e3 50 8f bc f3 a4 52 3d 31 aa 99 bd 68 78 16 3c
       -0.017494624 0.05142684 -0.075031646 0.0091839805

net.4.module.0.bias f4 [32]
000000 95 c9 8b 3c 4d 3c 42 bd bd 63 96 3d 6d 38 22 3d
       0.017063895 -0.04742079 0.07343242 0.039604593
000010 b0 44 a6 bc 98 6f e3 bc c0 8d 28 3c b9 9a 33 3d
       -0.020296425 -0.027763173 0.010287702 0.043848727
000020 44 01 1e bc 1f 77 23 3d b9 c7 2d 3d e3 b6 3d bd
       -0.009643856 0.039908525 0.0424268 -0.046316992
000030 99 c8 27 bc 52 f9 b6 3d e2 00 67 bc 12 4d 86 bd
       -0.010240697 0.08934273 -0.014099332 -0.06557669
000040 c1 3a 5f 3d 36 e3 5e 3d a8 5e 40 bb 1c 3f 7a 3d
       0.05449939 0.054415904 -0.0029353295 0.061095342
000050 c1 1f 60 bd 31 a2 80 bd e2 29 9a 3d 1a ba 1a 3c
       -0.054717783 -0.062809356 0.0752752 0.009443784
000060 2b 1d bc 3d 30 2a c8 bd 17 34 aa 3d d4 f5 24 bd
       0.09185251 -0.097736716 0.083107166 -0.040273502
000070 f8 8c 5e bd 1d 84 c4 bc 37 e8 b8 bc e0 5a 88 3d
       -0.054333657 -0.023988778 -0.022571666 0.06657958

net.5.weight f4 [8, 32, 3]
000000 81 8d 09 3a b9 b0 ce bd 07 29 d6 bd f4 f2 bf bd
       0.0005247221 -0.10092301 -0.10457044 -0.093725115
000010 fe 82 ad 3d 9f 55 a1 bc 8d 96 a4 bd 76 40 de bd
       0.084722504 -0.019694148 -0.08036528 -0.10852139
000020 f1 11 30 3d 8a e5 a4 3d 92 9b f6 3c ef 55 f2 bc
       0.04298586 0.080515936 0.030103479 -0.029581992
000030 b3 d0 ef bb ce f6 82 bd 02 78 02 3d 47 03 83 bc
       -0.00731858 -0.063947305 0.03185273 -0.015992774
000040 81 06 a9 bb 20 e3 3b bd f4 8b d1 bd de 34 b8 bb
       -0.005158246 -0.0458709 -0.10231772 -0.0056215366
000050 8c 2f c8 3d 5d 62 d5 bc 54 83 ed bb 95 ec 94 3d
       0.09774694 -0.02604788 -0.0072483215 0.07271687
000060 95 44 8b 3d 2f 0a ac bd d7 94 88 bc e2 f7 6a bd
       0.0680019 -0.0840038 -0.016672535 -0.057365306
000070 11 ac 35 3d d1 4f a2 3d c6 e1 07 bd a2 47 9c bd
       0.04435355 0.0792538 -0.0331743 -0.076308504
000080 a1 07 1c 3b 92 db c0 bd c0 66 8c bc 89 09 ab 3d
       0.0023808258 -0.0941688 -0.017138839 0.08351428
000090 90 11 09 bd f4 83 2a bc 11 57 06 bd 3a 40 96 3d
       -0.033464015 -0.010407437 -0.032797877 0.07336469
0000a0 3c 1c bc bd f8 17 00 3c 60 b2 68 3d dd fc b2 bd
       -0.09185073 0.007818215 0.056810737 -0.08739636
0000b0 83 f8 0d 3c 7a bc 4e bc 02 9c 93 3d 23 76 27 3c
       0.008665207 -0.0126181785 0.072074905 0.010221037
0000c0 8e ea c2 bd 26 48 f6 3c d4 1e 7b 3c 40 ea 73 bd
       -0.09517394 0.0300637 0.015327174 -0.05954957
0000d0 81 f2 ad 3d 31 28 92 3d 74 e7 9e bd ef 95 78 3b
       0.084935196 0.07136572 -0.0775899 0.0037931164
0000e0 a5 78 f8 3c 00 f0 ed bb c3 df ab bd e2 2f a2 3d
       0.030330965 -0.0072612762 -0.083922885 0.07919289
0000f0 52 7b a6 3d 57 39 c1 3d fb 4e bc 3d bb 26 55 3d
       0.0812899 0.09434765 0.09194752 0.05203889
000100 25 f5 b2 bd 10 3d 9b bd 4f 03 93 3d c9 7f 8f bd
       -0.08738164 -0.07580006 0.071783654 -0.07006795
000110 5d eb cb bd 24 0d d1 3c 64 28 39 3c 9d cf 1f bd
       -0.09957001 0.025518961 0.011301134 -0.039016355
000120 60 dd f9 3c 89 db bf 3b 8c e7 50 3d f8 78 ea 3c
       0.030501068 0.005855028 0.05100207 0.028622136
000130 bf 6a e6 3b da 6b c6 3c 94 6f 79 3d e3 30 cc bd
       0.007031768 0.02422135 0.060897425 -0.09970262
000140 67 a7 e6 3c 64 31 8e 3d 7e 2e f2 3c 86 cd e1 bd
       0.028155996 0.06943014 0.029563185 -0.110255286
000150 76 0f cc 3b e2 68 b0 bd 9a d1 9c 3d cc 1d 72 3d
       0.006227429 -0.08613755 0.07657166 0.059110448
000160 a6 3f 17 3d 5b 9a 3d bd 78 0e 00 bb a9 c6 a4 3c
       0.036925934 -0.046289783 -0.0019539874 0.02011426
000170 6f 58 93 3c ec f7 c2 bd 5b b5 bb 3d ed 1f 93 3d
       0.017986504 -0.095199436 0.0916545 0.07183824
000180 48 d6 d0 3d 27 65 7b bd 58 78 a3 3d a2 4f ea bd
       0.10197121 -0.061375763 0.07981938 -0.1144097
000190 71 58 3a bc c5 63 9d 3d 11 e2 8a bc bb 7f 3d bd
       -0.011373625 0.07685045 -0.0169535 -0.04626439
0001a0 d2 c7 84 bd 21 4d 73 bd bd 7e a7 bd 8b 91 3d 3c
       -0.06483425 -0.059399728 -0.0817847 0.011570345
0001b0 f9 94 cc 3d 77 cb 93 3c 01 5f b7 bd 42 b0 9f bd
       0.09989352 0.018041356 -0.089536674 -0.077972904
0001c0 56 8a c1 3d b1 2e 9a 3c ce 28 d1 bd 68 76 b7 3c
       0.094502136 0.018821092 -0.10212861 0.022395328
0001d0 04 c8 1d bd 31 e3 71 bc f1 f3 99 3d 9e e2 b2 3c
       -0.038520828 -0.014763639 0.07517231 0.021836575
0001e0 e4 7a d0 3b e0 ce 9c bd 1c ad e1 3d 15 cc d5 3c
       0.006362306 -0.07656646 0.11019346 0.02609829
0001f0 e1 dc 0c bd 8b d2 c2 bd d6 77 a1 3d de 46 00 3d
       -0.034390334 -0.09512814 0.07884185 0.031317584
000200 5c e5 8d bd 9b 15 fc bc da 53 b9 3d 29 e9 42 bd
       -0.069285125 -0.030772021 0.090491965 -0.04758564
000210 e8 56 65 bd 2d 2e c6 3d a8 af d7 bc 14 c1 31 bd
       -0.055991083 0.09676776 -0.026328877 -0.043397024
000220 d2 3d bc 3d d6 eb a5 3c 91 57 b6 bd b3 ac 44 bd
       0.09191479 0.020254057 -0.08903421 -0.04801626
000230 39 0e dc bc a3 ed 95 bd bd 07 1b bd 07 38 30 3d
       -0.02686225 -0.07320716 -0.037849177 0.04302218
000240 6e 25 d8 bd 3d 59 9d bb 83 cd 45 bd 56 1b 9d bd
       -0.10554014 -0.004801898 -0.048291694 -0.076712295
000250 14 da b4 3d bb 84 87 3c cb 79 be 3d 9d 97 94 3d
       0.088306576 0.016542783 0.09300574 0.072554804
000260 8b 05 8a bd 0d 87 b6 bd 26 a3 0f bd ab ac 91 bd
       -0.067393385 -0.08912478 -0.0350677 -0.07113012
000270 4f ec 38 3c 64 44 73 bd b4 ff 37 3d 0f 6a c3 3d
       0.011286809 -0.059391394 0.044921592 0.095417134
000280 c7 fb 44 3b 6b 1b 7f bc cb 94 86 3c c4 6a 51 3d
       0.0030057298 -0.015570502 0.016428372 0.05112721
000290 ba 81 41 3c 9c ed 7f bd 12 42 8b 3d 01 79 b2 bd
       0.011810714 -0.06248246 0.06799711 -0.08714486
0002a0 24 bf 9f 3c 2d 79 50 3d 6f ee 2e 3d 44 f0 1e bc
       0.019500323 0.050896812 0.042707857 -0.0097008385
0002b0 d6 4a 16 bc e9 e6 cc 3d b2 18 06 bd d4 16 1e bd
       -0.009173116 0.1000498 -0.032738395 -0.03859599
0002c0 9f ba 62 bd 73 61 97 3c c9 56 c2 bd 5f 7a 6d 3d
       -0.055353757 0.018479085 -0.09489209 0.05797803
0002d0 bc 85 3a bd 71 5c aa bd b3 5b b3 bd 3b 9e 25 bd
       -0.045537695 -0.08318413 -0.087577246 -0.040434103
0002e0 98 21 8d bd 82 9f 47 bd 81 b0 6f bd 00 af ba bd
       -0.06891173 -0.048736103 -0.058517937 -0.0911541
0002f0 8d 01 43 bd e3 02 06 bd 8b c9 cc 3d 06 c6 da bd
       -0.0476089 -0.032717597 0.09999379 -0.10682301
000300 e4 10 88 bd 1c a7 c3 3d f8 ff 49 3d 36 71 4f bd
       -0.06643847 0.09553358 0.049316376 -0.050645076
000310 02 6d 81 3d 98 ce c7 bd 50 e3 14 3d 48 c1 a9 3d
       0.0631962 -0.097562015 0.036349595 0.082888186
000320 5a d2 53 bd df 45 99 3c 3c bf 73 3d a0 30 c6 bc
       -0.05171428 0.018710075 0.059508547 -0.024193108
000330 8b 88 ea 3d a5 73 83 bd ee b4 89 bd 30 94 d0 3d
       0.11451825 -0.06418542 -0.06723963 0.101845145
000340 a4 74 cf 3c 44 09 cd 3c 27 d3 b0 3d 1a f6 77 3b
       0.025324173 0.025028832 0.08634024 0.0037835897
000350 d3 e8 a1 bc c4 d3 d2 3d 5d 43 a6 3c 81 8c 06 3d
       -0.01976434 0.10294297 0.020295793 0.03284884
000360 96 64 90 bd 9a 1d ae 3d 2d fc 30 bd 35 11 09 bc
       -0.07050435 0.0850174 -0.043209244 -0.008365919
000370 b3 6b b6 bd a0 17 ae 3d 9a 8a c0 3d b3 5a 55 3d
       -0.08907261 0.085006 0.09401436 0.05208845
000380 23 5b f4 3c 97 00 d1 3d f4 3c af 3b 8e 75 80 3c
       0.029828614 0.10205191 0.0053478424 0.015681054
000390 97 14 10 bd 53 8f 2a bd 4b 48 57 bd 20 46 6b 3d
       -0.035175886 -0.04164059 -0.05255918 0.057439923
0003a0 62 86 d1 bb 05 de 00 3d 68 81 77 3d 68 de 7e 3c
       -0.0063941935 0.031461734 0.060426146 0.0155559555
0003b0 f3 12 7a 3d 98 e6 a2 bd b8 9c 83 bd b0 b9 9e bd
       0.061053228 -0.079541385 -0.06426376 -0.07750261
0003c0 86 e6 33 bc d7 81 b3 bd 2f bd 0c 3c 44 e9 c9 3c
       -0.010980254 -0.08764999 0.008590027 0.024647363
0003d0 40 0c 40 bd 35 9b 95 bd 6c 6f 94 3d 59 c8 92 bd
       -0.046886683 -0.07304994 0.072478145 -0.071671195
0003e0 6a 12 ac bd a3 3d c0 3d 73 11 24 3d f8 05 d6 3c
       -0.0840195 0.09386756 0.040055703 0.026125893
0003f0 32 74 93 bd a5 bc 29 3d 20 65 d9 bd af 5c 1b 3d
       -0.07199897 0.04143967 -0.10614991 0.037930187

net.5.bias f4 [8]
000000 70 55 35 bd 40 f3 3a 3d b6 fc 25 3d b6 cc ab bd
       -0.044270933 0.045642138 0.040524207 -0.08388655
000010 7e 28 9a 3d 31 2b 93 3c 48 41 8c bc 25 64 33 bc
       0.075272545 0.017964931 -0.017120972 -0.010949169

exp_avg f4 [32, 120, 2]
000000 04 18 fc 39 bb 4f 98 39 28 ac 4d b8 70 e4 ea b9
       0.0004808308 0.00029051103 -4.903614e-05 -0.00044802157
000010 8e 11 02 b9 81 ea 84 b9 9d 93 16 ba 8c 63 b5 3a
       -0.00012404306 -0.0002535172 -0.0005744042 0.0013838871
000020 2a 13 aa ba 91 4d 05 bb ec fa 73 3a b8 fa 1f 39
       -0.0012975682 -0.0020340423 0.00093071046 0.00015256822
000030 59 53 72 b6 f3 5f 06 39 d3 5d bd 38 65 46 ce ba
       -3.6109325e-06 0.0001281498 9.0296984e-05 -0.0015737532
000040 85 63 81 3a 95 4d 4c 3a e1 49 fc 38 a8 62 17 39
       0.0009871578 0.0007793543 0.000120300574 0.00014437234
000050 12 01 87 ba 40 e6 34 bb 40 96 b8 3a 59 fa d4 ba
       -0.0010300002 -0.002760306 0.0014082864 -0.0016248926
000060 ec 77 7d 38 41 64 06 b8 7a 49 60 bb ef 2b aa ba
       6.0431586e-05 -3.204146e-05 -0.0034223483 -0.0012983064
000070 2f c3 96 ba d8 0c 55 bb ca 42 f7 ba b0 7c c6 ba
       -0.0011502261 -0.0032508876 -0.0018864509 -0.0015143361
000080 98 21 83 39 cd bb 51 39 0b 7a 71 38 f2 16 e6 b9
       0.00025011296 0.00020001754 5.757254e-05 -0.00043886114
000090 82 4e 12 ba 3b 3c 7e 3b df 37 3a 3a 3a da 28 b9
       -0.00055811566 0.0038793224 0.00071036624 -0.00016103024
0000a0 e4 3c 2f 39 43 5c 8f 3a 75 80 24 ba 74 06 01 ba
       0.00016711984 0.001093753 -0.0006275245 -0.0004921921
0000b0 65 78 d4 ba d6 95 15 bb ca 49 d7 3a 4c ff 81 3b
       -0.0016210197 -0.0022824905 0.0016425189 0.0039672013
0000c0 84 63 a3 b8 20 a8 85 ba d9 2d 56 b9 cb a3 36 ba
       -7.790982e-05 -0.00101972 -0.0002042571 -0.0006967156
0000d0 20 42 37 b8 12 5f e0 39 9b 8c e3 37 b5 91 e8 38
       -4.3692184e-05 0.00042795442 2.7125983e-05 0.00011089762
0000e0 2b 75 2f b8 2b bf 9d b8 bf d2 ac b9 be c4 ed b9
       -4.1832373e-05 -7.521951e-05 -0.00032963415 -0.00045350747
0000f0 cf 1a 60 39 2f 3c c3 b8 29 83 46 39 d6 54 10 ba
       0.00021372292 -9.309535e-05 0.00018931612 -0.00055058056
000100 f6 e1 fa 38 27 b8 b2 b9 f9 16 e7 b5 39 03 cc b8
       0.000119630175 -0.0003408801 -1.7217527e-06 -9.728078e-05
000110 f1 bf ab b9 76 29 87 39 b0 9e c9 39 92 f9 5d 3a
       -0.0003275867 0.00025780097 0.0003845594 0.000846767
000120 bd 6a 04 3a d6 bc f0 39 2f 06 e6 39 9d f5 80 39
       0.00050513056 0.0004591706 0.00043873626 0.0002459706
000130 c5 c6 da b7 b5 07 94 b7 00 00 00 00 00 00 00 00
       -2.6080184e-05 -1.7646564e-05 0.0 0.0
000140 71 c9 00 bb 3f 3e 19 39 e8 fb 5b 39 80 fc 56 3a
       -0.0019651318 0.00014614406 0.0002097931 0.00082010776
000150 92 cf b8 39 03 42 44 b8 07 4b 31 3a 24 af b8 b9
       0.00035249867 -4.679152e-05 0.0006763194 -0.00035225705
000160 7d 31 37 39 64 4b d6 b9 9e d6 8a b9 b2 75 95 b9
       0.00017470676 -0.0004087343 -0.00026481313 -0.00028507184
000170 c4 56 83 ba b2 ab af b9 76 cb a1 3a cc 04 5e ba
       -0.0010020365 -0.00033506524 0.0012343961 -0.0008469343
000180 12 c0 1d b9 0e 55 ea b9 f8 70 af 38 03 4e e9 38
       -0.00015044239 -0.0004469533 8.365692e-05 0.000111248366
000190 a4 6b 8b b9 1c cd d0 b9 89 b5 b1 ba a5 06 0c bb
       -0.00026592345 -0.0003982567 -0.001355813 -0.0021366265
0001a0 dd 04 ff b9 c1 04 8e 3a f0 7d 62 3a 5a e0 42 3a
       -0.00048641014 0.0010835157 0.0008639982 0.00074339437
0001b0 75 38 d5 38 2f 75 b9 b9 78 3a 67 3a fd fb 82 3a
       0.000101671474 -0.00035373258 0.0008820663 0.0009993311
0001c0 c9 a2 56 3b ec 41 cc 3a 29 2e 9f 37 c8 c3 11 b9
       0.0032750836 0.0015583611 1.8975772e-05 -0.00013901212
0001d0 c9 bb 5b 39 e9 1a c1 b9 52 9f 8a 39 3b 86 88 38
       0.00020955423 -0.00036831878 0.00026440114 6.509988e-05
0001e0 02 3d c5 3a 18 0c d1 b7 3d 1c 55 38 92 de fd 37
       0.0015048089 -2.4920373e-05 5.0809456e-05 3.0263593e-05
0001f0 11 fe ea b9 d8 d5 56 ba cb f1 3d 3a 9b c9 84 ba
       -0.00044821252 -0.00081953174 0.0007245808 -0.0010130884
000200 eb bd aa 39 73 f9 a6 b9 c4 d8 63 37 49 62 8d 39
       0.00032566427 -0.00031847841 1.3580724e-05 0.00026966844
000210 30 ff 1e 39 72 c6 1c 3a 34 99 1a bb 4c 6d fe b9
       0.00015163119 0.00059804984 -0.0023589851 -0.00048528088
000220 83 8c b8 38 71 20 0e 39 19 fb fb 37 b5 22 95 ba
       8.799976e-05 0.0001355426 3.0038458e-05 -0.0011378141
000230 d4 59 6f ba a3 1f 1f 3a 37 25 7e ba a3 24 af ba
       -0.0009130512 0.0006070083 -0.00096948765 -0.0013362359
000240 cf 72 45 3a d9 91 ab 38 76 b9 30 b7 5e c4 48 39
       0.00075320614 8.181082e-05 -1.05335985e-05 0.00019146639
000250 67 4b 02 3a bf ee 13 b8 ee 4c 82 b8 bf 67 00 39
       0.0004970342 -3.526988e-05 -6.213212e-05 0.0001224568
000260 29 cf f4 3a 22 ae 70 3a 1c 04 8a 3a 9f f7 34 3a
       0.0018677461 0.0009181221 0.0010529789 0.00069033535
000270 c6 b6 66 ba b0 2c 00 3b e6 44 85 bb 49 8a e8 38
       -0.0008801039 0.0019557886 -0.004067051 0.0001108838
000280 fe 8d 88 3a b0 29 ee 39 aa df e2 b8 72 a9 58 b8
       0.0010418294 0.00045425957 -0.000108181805 -5.165622e-05
000290 09 b8 d5 b6 5b 8c 9a 39 79 78 1a 3b 91 0b d7 3a
       -6.369319e-06 0.00029477742 0.0023570342 0.0016406645
0002a0 21 4c da b9 08 b7 25 39 8a 9e 32 34 c6 c4 e4 39
       -0.0004163692 0.0001580381 1.6635218e-07 0.00043634156
0002b0 6b db 3f b9 e1 f1 23 ba 83 89 0a 39 14 d3 c8 3a
       -0.00018296919 -0.00062539993 0.00013211933 0.0015321695
0002c0 96 b6 0b ba ad bc 54 b9 3b 09 91 ba 97 be 58 39
       -0.00053296366 -0.00020288183 -0.0011065373 0.00020670365
0002d0 12 fe 45 39 ec 54 a9 39 9b ab c0 b9 21 f7 0e ba
       0.00018882033 0.00032297464 -0.0003674895 -0.0005453695
0002e0 05 34 94 39 fd cc 0f bb 4c 85 03 bb 47 f6 63 3a
       0.00028267517 -0.002194225 -0.0020068465 0.0008696061
0002f0 d1 f7 a9 b9 e0 35 96 39 14 87 11 3a 71 4e 30 ba
       -0.0003241883 0.0002865037 0.0005551439 -0.0006725556
000300 d0 aa 5b 39 4a df c8 ba 1f 50 a7 b7 fe c0 7d b9
       0.000209491 -0.0015325334 -1.994526e-05 -0.00024199855
000310 dd 82 4f ba 10 5a 64 ba 27 0f f4 b8 6b 98 02 b9
       -0.00079159235 -0.000871093 -0.00011637649 -0.00012454546
000320 2b 8d 9a 3a 83 2c b3 39 cb ee 19 b8 8c 09 d9 b8
       0.0011791339 0.00034174704 -3.6700436e-05 -0.000103491446
000330 9c 1f a5 b9 c2 89 29 b9 73 eb a9 3a 6e 80 3c 3a
       -0.00031494803 -0.00016168415 0.0012963846 0.00071907684
000340 ad 8c 6e 3b df 3a d3 3a c8 5f ab b9 8b 67 7b b9
       0.0036399767 0.0016115567 -0.00032687024 -0.00023975798
000350 98 a5 b6 b9 10 f3 1d b9 9f 97 9c 39 78 9d 0c bb
       -0.00034837122 -0.00015063235 0.00029867605 -0.0021456163
000360 99 25 62 b7 e6 7d a9 b9 e3 23 53 39 4b 33 c3 38
       -1.3479404e-05 -0.00032327994 0.00020135897 9.307879e-05
000370 68 42 df 3a 44 b9 0c 37 f9 28 04 3a 8e 9f 89 3b
       0.001703334 8.387786e-06 0.0005041506 0.0041999286
000380 56 68 1b 3a 0a 35 aa b9 34 b3 f7 b9 1b 43 1d 39
       0.0005928328 -0.00032464444 -0.00047245028 0.00014997686
000390 6e b7 49 b9 1c 81 0c ba a6 85 97 3a f0 c4 3b 3b
       -0.00019237187 -0.0005359815 0.0011560216 0.002865132
0003a0 4f 93 ba 39 53 c4 bb 39 39 a4 73 ba 1f 9a 0d 3a
       0.00035586438 0.00035813692 -0.00092941854 0.0005401689
0003b0 29 c3 12 38 90 75 9b b8 95 85 b9 37 62 49 63 b9
       3.499087e-05 -7.412874e-05 2.2115923e-05 -0.00021675744
0003c0 3d 1a 86 37 97 e2 05 b9 e8 19 18 3a 20 f0 aa 37
       1.5986263e-05 -0.0001276828 0.00058022 2.0377396e-05
0003d0 15 0c d0 3a bc a0 cc 39 d2 d3 f3 38 ff 85 35 b7
       0.0015872741 0.0003902967 0.000116265976 -1.0819639e-05
0003e0 07 76 fe 39 6f 3f 9b 3a 75 7a a5 3a da 2e 9a 3a
       0.00048534592 0.0011844466 0.0012624996 0.001176323
0003f0 3f 1f 36 3a a7 83 00 ba 74 db cc ba 5d 97 49 3a
       0.0006947405 -0.000490243 -0.0015629367 0.00076900964
