data/Figure3_Supplement/035/checkpoint_0003500.pth (torch, 237761 bytes, 31 tensors)

net.0.weight f4 [32, 120, 2]
000000 39 30 d9 3c 4d dd 0c bd 50 05 2f 3d d8 90 40 3d
       0.026512252 -0.034390736 0.042729676 0.047013134
000010 cd 81 01 3d 87 8f 58 bd 8d 5c 75 3d 65 c7 7d 3b
       0.03161793 -0.052871253 0.059902716 0.0038723585
000020 10 66 52 3c 0e c3 08 3d 6d 35 91 3d 79 78 53 bd
       0.012841716 0.033389144 0.07090268 -0.051628564
000030 73 d1 5a bd 22 29 16 3c 2d e2 17 bc 12 b1 0c 3d
       -0.053422403 0.00916508 -0.009270233 0.034348555
000040 e8 90 17 bc 3c e3 ab 3b 36 e7 e7 3c c6 49 3b 3c
       -0.009250857 0.0052455943 0.028308492 0.011431163
000050 12 7c 09 bd 80 52 bd 3c f8 00 15 bc 3c b1 d5 3c
       -0.03356559 0.023110628 -0.009094469 0.026085488
000060 06 95 11 bc e0 b8 74 bb 51 61 1f bc f8 b4 9e 3c
       -0.008885628 -0.003734164 -0.009727792 0.019373402
000070 e7 34 ea bc f4 e5 fc 3c b0 4a c0 3c 7a fb 8b ba
       -0.028589679 0.030871369 0.023473114 -0.0010679804
000080 5b 43 8b 3c 3a 7d 34 bd 20 1d 3b bd e4 2a a3 bc
       0.016999891 -0.044064738 -0.045682073 -0.019917913
000090 9e d1 24 3d 90 4d 7b bb f3 48 cf bc 19 9f d4 3b
       0.04023897 -0.0038345791 -0.02530334 0.0064886925
0000a0 08 2f 30 bb f8 3d 9b 3c 39 0a 65 bd fa 86 39 3d
       -0.0026883502 0.018950447 -0.055917952 0.04529474
0000b0 b4 00 2e bd a7 97 1f 3d fd 18 ab bc d2 5d 0c bb
       -0.04248114 0.038962986 -0.020885939 -0.0021418226
0000c0 ca 3a 75 3d 69 76 8b bd 19 b8 c2 3c 8e 8f 8b 3d
       0.05987052 -0.06809694 0.023769425 0.0681449
0000d0 22 b2 af bb 02 d8 fa ba a9 c6 89 3d b8 7c ca 3c
       -0.0053618113 -0.0019137862 0.067273445 0.024717674
0000e0 40 b1 cd 3c 30 43 90 3d a1 73 06 3d 77 1a 03 bd
       0.025108933 0.07044065 0.032825116 -0.03200766
0000f0 e1 e3 8a bd 4d 4f 9c bd 74 d5 c3 3c db 6a 6e bc
       -0.06781746 -0.07632313 0.023905493 -0.0145518435
000100 ec 74 a4 bd f7 b7 5c 3d 81 32 d0 3d 96 f3 83 39
       -0.080301136 0.05388638 0.10165883 0.00025167753
000110 22 ae f7 3c 36 dc 74 bc fb 59 1c 3d ae a9 3a 3d
       0.0302344 -0.0149450805 0.03817175 0.045571975
000120 84 23 80 bc 71 3b ab 3c 67 5d da 3a 2a f7 5f 3d
       -0.015641935 0.020902367 0.0016659916 0.054679073
000130 bf 04 8c bc 0f 7a 63 3d 52 cc e8 bc 8d 7d aa bb
       -0.017092107 0.055536326 -0.02841774 -0.005202955
000140 1f d4 e3 bd dd 6f f1 bc 15 1d 8c 3d 2f 36 fd bb
       -0.11124443 -0.029472286 0.068414845 -0.0077274065
000150 da f0 1c 3d 43 25 d3 3c 78 8d d2 3c 23 12 f3 3c
       0.03831563 0.025774604 0.025702223 0.029671734
000160 88 18 df bd 01 9d 94 bd 9e da 2f bc 28 99 c5 bb
       -0.10893351 -0.072565086 -0.010733275 -0.0060302205
000170 a9 64 f5 bc d5 41 85 bd 3c fa 88 3d 3f e2 26 3c
       -0.029955225 -0.06506697 0.066883534 0.010185777
000180 e1 4c 5d bc 54 24 a3 3d 60 9e 9c 3d fe b1 be bc
       -0.013507099 0.079659134 0.07647395 -0.023278233
000190 6f bf 0d be b0 93 8b 3d 60 0a ca bd 5e 19 54 bd
       -0.13842557 0.068152785 -0.0986526 -0.051782005
0001a0 e3 64 a8 bc 4e c3 53 bd 8f 02 02 3e 37 57 01 3c
       -0.020555919 -0.05169993 0.12696289 0.007894329
0001b0 81 3d fb 3c 38 5e b2 3c 0c 77 98 3d be 1b 8f 3c
       0.030668976 0.021773443 0.074445814 0.017469283
0001c0 8a 46 29 bd 65 5d 9e bc d4 00 a5 3d ae a1 2a bd
       -0.041327037 -0.019331643 0.080567986 -0.041658096
0001d0 48 c4 68 bd c9 c2 a9 3b 28 3a 65 bd 93 51 05 3d
       -0.056827813 0.005180691 -0.055963665 0.0325485
0001e0 be 5f 80 3d d2 ed 95 bd 34 fb 1a bd d5 1c 1c bd
       0.062682614 -0.07320751 -0.037837222 -0.038113434
0001f0 43 a1 e8 3b df b5 93 bd e4 9e eb bc 9f f5 97 bc
       0.007099302 -0.072124235 -0.028762288 -0.018549738
000200 2c 96 00 3d bb f8 99 3c 91 21 14 bd 80 3a 1e ba
       0.031393215 0.018795362 -0.036164824 -0.0006035939
000210 80 86 83 3d bd a0 86 3d c8 b8 af 3c de 1b b7 3c
       0.06422138 0.06573627 0.021450415 0.022352155
000220 69 a9 17 bc 39 bf df 3c f0 8c 42 bc 50 64 9f bb
       -0.009256699 0.027312862 -0.011874422 -0.004864253
000230 dd 58 03 bc 72 ff 88 bc 56 15 06 bd 49 fd 71 3d
       -0.008016792 -0.016723368 -0.03273519 0.059079442
000240 7a eb a1 bc e2 1c 08 3d 98 de 8d 3b 68 e9 9b bc
       -0.019765604 0.03323067 0.0043295138 -0.019032195
000250 80 d6 ae 3d 60 c2 3d 3d fb 20 24 3d e1 dd 36 bc
       0.085370064 0.04632795 0.040070515 -0.0111612985
000260 92 3a 96 bd e5 14 08 bd 18 bf 0e bc a5 ba 59 bd
       -0.0733539 -0.03322305 -0.0087125525 -0.053156514
000270 7a 30 84 bb b1 29 9d bd b6 ca 84 3c 24 80 bb bb
       -0.004034099 -0.07673968 0.016209941 -0.0057220627
000280 35 15 7a 3c 93 90 3c 3d 36 13 8f bb e5 fa 31 bd
       0.015263845 0.046036314 -0.004366304 -0.043452162
000290 97 e1 d4 bd 0a c3 8f 3d 1e c5 45 bc d9 c9 64 bc
       -0.1039459 0.070196226 -0.012070922 -0.01396414
0002a0 79 3e 2b bd 8f c0 b5 bd 28 f2 09 3d 27 af cf 3c
       -0.041807625 -0.08874618 0.033678204 0.025352074
0002b0 64 ba 95 3d bc 90 4a bc b9 03 ea 3c f3 8f ee bc
       0.07310942 -0.012363609 0.028566228 -0.029121375
0002c0 d0 76 bf bd 75 01 8f 3c 69 80 ac 3d 06 6b 48 3d
       -0.093488336 0.01745675 0.0842293 0.04893019
0002d0 1b 55 2d bd 36 fa 2e bd d1 ac d3 3d b5 8f ef 3c
       -0.04231749 -0.04271909 0.103356965 0.02924333
0002e0 93 11 2d 3d c8 38 fa bb 5a 11 32 bd b8 73 38 bb
       0.04225309 -0.0076361634 -0.04347358 -0.0028145146
0002f0 43 fa 2b 3c ba 46 2f bd 61 30 1d 3d c6 df df 3a
       0.010496679 -0.04279206 0.038376216 0.001708024
000300 cd 30 20 3d df e6 0f bd 10 0a 10 bc b3 51 3e bd
       0.03910904 -0.035132285 -0.008791462 -0.046464633
000310 0d 04 90 b9 b0 cf 9a 3c 39 d7 a4 3d 32 27 08 bd
       -0.00027468838 0.018897861 0.08048863 -0.033240505
000320 f1 15 5d 3d 19 31 e1 bc 24 be 38 3c 25 93 d0 bc
       0.053976003 -0.027489232 0.011275802 -0.025460789
000330 2f e1 de 39 ea 5f 86 3c 8e 46 9c bc 92 14 9a bd
       0.00042510914 0.016403157 -0.019076612 -0.07523455
000340 0e da 7b bd 3c 75 2b bd 16 20 c3 bc 0c 5f d7 bb
       -0.06148725 -0.04185985 -0.02381901 -0.00657261
000350 e0 29 26 3d 82 ea 39 bd 25 05 f8 bb 27 4e 2c 3d
       0.04056728 -0.04538966 -0.0075689727 0.04206672
000360 b4 91 9d bb 9f 55 7e bd bd 59 25 3d 36 13 1e bb
       -0.004808629 -0.062093373 0.040368784 -0.0024120337
000370 a8 99 e0 bc 6f bf a7 3d 79 af d5 3c 8e c4 03 bd
       -0.027417019 0.0819081 0.026084648 -0.03216987
000380 1d 1f 6e 3a b1 fe 20 3d bf e3 8b bd a0 82 75 3c
       0.0009083616 0.039305393 -0.068305485 0.014984757
000390 65 3f 05 3d 53 55 fe 3c 73 30 59 3d 5c a5 8e bc
       0.03253116 0.031046545 0.05302472 -0.017412834
0003a0 32 6a 0b 3d 44 d7 0e bd 29 a1 86 bd d8 73 1e bd
       0.034036823 -0.034873262 -0.065737076 -0.038684696
0003b0 8b 5f d4 bc 02 4e 27 3d 90 f8 f2 3c 7d 43 83 3d
       -0.025924465 0.04084588 0.02965954 0.06409357
0003c0 c7 d8 39 3c 14 d0 73 3d e6 e2 b7 3d 39 af bc 3c
       0.011343188 0.05952461 0.08978824 0.023032771
0003d0 36 5b 52 3d a0 1b b9 3c a6 07 cb bd 0a 9c d7 bd
       0.051356517 0.02259618 -0.09913568 -0.10527809
0003e0 14 af 5e 3d 46 28 07 bd a1 de 09 3d d4 f1 cf 3b
       0.054366186 -0.032997392 0.03365958 0.006345967
0003f0 5e c7 60 3d 41 7e a7 ba 83 39 24 bd c6 3d 15 bd
       0.05487763 -0.0012778715 -0.04009391 -0.036435865

net.0.bias f4 [32]
000000 e6 6e 69 bc 54 a3 e2 3c 1a 9f 30 bd 4f ee 93 bd
       -0.014247632 0.027665772 -0.04312048 -0.07223188
000010 de 66 88 bc cd 3b 00 bd 32 bd 96 bb 85 45 c0 bc
       -0.016650613 -0.03130703 -0.0046001906 -0.02347065
000020 d2 6d 89 3c ee 4c d5 3b bc 32 12 bc 91 45 5f bc
       0.016776 0.006509415 -0.008923229 -0.013627426
000030 ec 99 62 bd a4 c9 54 bd 2b 38 96 bd 85 54 19 3d
       -0.055322573 -0.051950112 -0.07334932 0.03743412
000040 d8 48 9e bc 68 22 ef bc 85 67 47 bd b7 62 76 3c
       -0.019321844 -0.02919121 -0.04868271 0.015038184
000050 55 2d ca bc db 73 e8 3b a6 18 90 bd 7d 16 19 bd
       -0.02467982 0.007093889 -0.07035951 -0.037374962
000060 f3 9e 2d 3d ba fc ae 3c bb 82 2c bd 62 80 fb bc
       0.042387914 0.021360744 -0.04211686 -0.030700866
000070 22 17 26 3d 94 d5 82 bb f5 63 e2 bc af a2 52 3d
       0.040549405 -0.0039927457 -0.027635554 0.05142468

net.2.module.0.weight f4 [32, 32, 3]
000000 84 9d 9d 3d 84 31 98 3c 9a fd 34 bd 89 a8 a2 bd
       0.07696059 0.018578298 -0.044187166 -0.07942302
000010 83 ba 5d 3d 5c b0 00 be 47 e9 34 bd 51 c3 e6 bd
       0.05413295 -0.12567276 -0.044167783 -0.112677224
000020 94 dc a0 bb bb 2f 15 3d 7c a7 36 bb ed 21 eb 3c
       -0.0049091075 0.036422472 -0.0027870825 0.0287027
000030 6b 37 d7 3d 9e c3 2d 3b 9c ed 9c 3d 9b 0f de 3d
       0.10508617 0.0026514302 0.07662508 0.1084282
000040 23 75 86 3d 29 cf 9d bc f0 4c e3 3c 65 28 75 bd
       0.06565311 -0.01926382 0.027746648 -0.059852976
000050 33 d5 88 bc ed ff f3 3c ac 30 bc 3c cc f5 a7 3d
       -0.016703224 0.02978512 0.022972427 0.08201179
000060 be 01 1d be 1f e3 11 3d 1d b1 0e be e4 97 ef bd
       -0.15332696 0.03561699 -0.13934751 -0.11698893
000070 5d 46 00 3c 98 92 fd bd 75 79 44 3d a5 b9 b5 3d
       0.007829276 -0.12381476 0.047967393 0.088732995
000080 92 65 f4 3d 2f f2 b9 bd 18 45 f3 bd 4b 23 e3 bc
       0.119334355 -0.09079396 -0.11878413 -0.02772679
000090 ad 98 db 3c 8f 34 d0 3c aa 2d 52 3d 79 13 ed 3d
       0.0268062 0.025415687 0.05131308 0.1157598
0000a0 e0 fe 24 bd 56 95 4f bd 4d ff 58 be 31 f8 f5 bd
       -0.04028213 -0.050679527 -0.2119114 -0.120102294
0000b0 4c a1 31 3d 7b 05 a7 3b 02 be 07 3e 1a b8 7e 3d
       0.043366715 0.005097089 0.13256076 0.06218729
0000c0 f7 91 dd bd af 96 04 bc 63 3a 04 be 43 5a 83 3c
       -0.10818856 -0.008092566 -0.12912898 0.016034251
0000d0 13 bc 80 3d 5c a7 14 3c 70 80 f9 3d a5 00 7b 3c
       0.06285872 0.009073105 0.12182701 0.015319978
0000e0 5b f6 fc 3d cf d0 4b bd 76 23 a3 bb 71 5e 56 bd
       0.12351676 -0.049759682 -0.0049785925 -0.05233616
0000f0 8f ac d5 bb 30 59 a1 3b 73 10 16 be 46 dc bd bd
       -0.0065208147 0.004923962 -0.14654712 -0.092705294
000100 1c 21 0e bd 6a 4a 3f 3d 96 76 32 bc 10 39 69 3d
       -0.034699544 0.046701826 -0.010892531 0.056939185
000110 ec 63 51 bd 02 ee ac 3b bc f8 0e 3d 7e f9 61 3d
       -0.051120684 0.005277396 0.03490518 0.055169575
000120 74 4e 81 3d 8e 92 88 bd c8 c5 97 bd 63 48 4c bb
       0.06313792 -0.06668578 -0.07410771 -0.0031171076
000130 98 75 25 bd a4 34 db 3c 5b 38 f6 bd 17 1f cb bd
       -0.04039535 0.0267585 -0.12022468 -0.09918039
000140 a7 0b ec bd e2 62 48 3e 74 e9 76 bc 8c 28 2e 3d
       -0.1152566 0.19568971 -0.015070308 0.042519137
000150 d4 4e ef bc 67 08 1b 3d ab c6 df 3b 34 05 43 3d
       -0.029212393 0.03784981 0.006829103 0.047612384
000160 5d 30 5e bd 1a 1a 41 3c d3 d7 df bd 0a 74 c2 bd
       -0.05424534 0.011786008 -0.10929837 -0.09494789
000170 d1 c0 b0 bd e5 ae 0d be 8f a9 25 3d 0b a6 0c be
       -0.08630527 -0.13836248 0.040444907 -0.13735215
000180 b3 f4 36 3e 84 52 18 3b 06 3c 27 be 41 65 9e 3d
       0.17866783 0.0023242543 -0.16331491 0.077341564
000190 35 e7 43 bc 5d eb b6 3d 2c fa 2d be 3f c4 b3 bd
       -0.0119569795 0.08931611 -0.16989964 -0.08777665
0001a0 11 42 c6 3c 57 35 62 3d cb ea d1 bd 6a 25 b8 bd
       0.024201425 0.05522665 -0.10249861 -0.08991511
0001b0 fb 56 06 3d 3f af ae 3c 92 a7 09 be 4f 92 1a 3e
       0.032797795 0.021323798 -0.13442829 0.15094875
0001c0 88 ed c0 b8 a9 79 8e 3b 4c d0 42 3d 5b d4 08 bd
       -9.199517e-05 0.004347999 0.04756193 -0.033405643
0001d0 8c ca 81 bd 97 d6 0f 3e c9 91 11 bd c5 82 58 bd
       -0.06337461 0.14046703 -0.035539422 -0.052859087
0001e0 6c 47 2b bc c7 5a cb 3b 07 ab ba 3d 98 23 2c be
       -0.01045404 0.00620589 0.09114652 -0.16810453
0001f0 9c 08 a5 3d d6 9d 29 3d 21 1d 51 bd 0c f6 64 3d
       0.08058283 0.04141029 -0.05105317 0.05589871
000200 ff 53 d1 bd 4e 58 31 bd 11 10 49 3d c9 29 54 3d
       -0.10221099 -0.043297105 0.049087588 0.051797662
000210 7a 01 ab bd 9e c9 ff bd f5 fc 2c be 44 ba 75 3d
       -0.08349891 -0.12489627 -0.1689337 0.05999209
000220 ed f5 85 bd c0 4a 7a bd 6c bf 14 be e8 70 bd bd
       -0.06541047 -0.061106443 -0.14526147 -0.09250051
000230 52 56 b1 3d 2c 7c 17 bd 7f 7e a2 3d 4f f5 be 3d
       0.086590424 -0.036983654 0.079342835 0.09324133
000240 20 f4 02 be 0e a9 46 bc f8 12 05 3e 41 4a d2 3c
       -0.12788439 -0.012125267 0.12995517 0.025670173
000250 ef 54 a6 bd bb ca 9a bd fc f9 20 3e 3b c4 5a bd
       -0.081216685 -0.07558199 0.15720361 -0.053409796
000260 ea f6 87 bd aa 16 f0 3d 39 80 06 bd 89 47 f1 bc
       -0.06638892 0.11723073 -0.032837126 -0.029453056
000270 9a 07 3a be 7a 61 20 3d c7 5b 42 bd 55 c7 8a 3b
       -0.18166962 0.03915546 -0.047450807 0.004235188
000280 1f 3a fa bc 8f 78 c7 3d f7 8b 1d 3e 89 b5 98 3d
       -0.030545292 0.097397916 0.15385424 0.074565
000290 e6 b8 ba ba 7c 15 5e 3d 3b 9c 19 3d b8 67 95 bc
       -0.0014245778 0.054219708 0.03750251 -0.018237934
0002a0 9e 81 e3 3c ad 44 c2 3d db a2 d8 3c 45 eb 19 be
       0.027771767 0.09485755 0.026444843 -0.15031154
0002b0 d8 f3 a4 3d 71 a9 ef 3d e5 ce 11 be cd db 85 bc
       0.08054322 0.1170224 -0.1423908 -0.01634016
0002c0 f0 15 30 bd ee 2b 21 3d e8 e0 a7 bc e6 2f 9b bd
       -0.04298967 0.039348535 -0.020492986 -0.07577495
0002d0 13 77 b7 bd 2c 44 4e 3d c1 bb 56 3d 56 3b 16 3e
       -0.089582585 0.050357983 0.05242515 0.14671072
0002e0 7a 4e 2f 3c 08 19 55 bc 6d 83 8f bd 40 92 96 bd
       0.010699863 -0.013006456 -0.07007489 -0.07352114
0002f0 26 b1 c6 bd c4 34 9f bd a0 8b 0b bd c4 21 82 3d
       -0.09701757 -0.07773736 -0.034068704 0.063540965
000300 93 19 4c 3d 7a 5e 08 3e d2 c0 4e 3d e4 d1 94 bd
       0.049829077 0.1331729 0.050476857 -0.07266596
000310 d9 76 93 bd 22 12 66 bd 18 12 26 3e e2 84 d3 3b
       -0.07200403 -0.056169637 0.1621784 0.00645505
000320 4a 39 8f 3d 5e 61 7e bc 28 be c3 3d 03 b1 f1 3c
       0.06993349 -0.015526144 0.09557754 0.029503351
000330 bc bd cd 3c e9 41 16 3d 83 69 0e 3d d2 aa a1 3d
       0.025114886 0.03668395 0.034768593 0.078939095
000340 85 1e 27 3e d2 15 66 3b f9 82 d6 bd fb 22 89 bd
       0.16320236 0.003510822 -0.104742 -0.06696125
000350 4b e3 07 be 66 c7 1d be 13 6e 0e bd b6 c5 28 be
       -0.13270299 -0.15408096 -0.034772944 -0.1648167
000360 12 ac 04 bd 3f 1d ac 3d 7f 45 fb 3d cb e8 0d 3c
       -0.03239066 0.08404016 0.12269115 0.008661459
000370 36 d3 69 3b fb d3 4f 3d 0d 0e 63 bd fc c4 b5 bd
       0.003567887 0.05073927 -0.05543332 -0.088754624
000380 99 bb 88 3c 75 90 43 bd f1 94 ca 3d 36 88 f2 3d
       0.016691016 -0.047745187 0.098916896 0.118423864
000390 5f ae a0 3c b9 1a 8d 3c a5 d8 ad bd c1 c7 02 be
       0.019614397 0.017224656 -0.08488587 -0.12771513
0003a0 f0 54 46 3d 2b 91 fe 3c 7e a6 58 3d ff c5 61 3d
       0.048420846 0.03107508 0.052893154 0.055120464
0003b0 08 7b 56 3d 42 0d 99 bc 91 77 9b bd 17 b5 4e 3c
       0.052363425 -0.01868308 -0.07591165 0.012616417
0003c0 7a fe 14 3e 52 92 a9 3d 15 9f 0e 3d fd 30 60 bd
       0.145502 0.082798615 0.03481968 -0.05473422
0003d0 ad 32 87 bd e0 81 09 bd 0a b0 0a be a7 cb 02 be
       -0.066014625 -0.033571124 -0.13543716 -0.12773
0003e0 cd 59 2f be 9a eb 35 bb 57 08 b2 3d 1a ed 3d bc
       -0.171241 -0.0027758838 0.08692997 -0.011592174
0003f0 35 1c 06 3d 2c 4f 26 39 7e 1f a2 3d d0 74 25 3e
       0.032741744 0.00015860487 0.07916163 0.16157842

net.2.module.0.bias f4 [32]
000000 7d aa 82 3d ef 34 8e 3d ce 49 5b 3c 94 fa 89 bd
       0.06380174 0.0694369 0.013384296 -0.06737247
000010 d5 70 d2 3d 10 58 41 3d 98 71 2e 3c 1f 4e 43 3d
       0.10275427 0.047203124 0.0106472 0.047681924
000020 60 a7 29 3d b5 67 cd 3d 87 2f 06 bc d5 f8 59 3d
       0.041419387 0.10029546 -0.008190042 0.05321582
000030 89 58 92 bd a8 77 84 bd 03 72 cb 3c c7 1d 78 3d
       -0.07145793 -0.06468135 0.024834638 0.060575273
000040 fa f4 bf bd a8 4f 2f bd 75 a3 40 bc 71 8d ab 3d
       -0.093728974 -0.042800575 -0.011757721 0.08376587
000050 82 0c 67 bd e2 60 62 bc a1 b7 80 bd 06 a3 17 bc
       -0.056408413 -0.013817044 -0.062850244 -0.009255176
000060 09 a0 a4 3d 61 58 9e 3d c6 22 46 3d ab 42 71 3c
       0.08038337 0.07731701 0.048373006 0.014725368
000070 90 d2 3c 3c 31 7b 20 bd dc 35 2d 3d 0d fe 94 3d
       0.011524811 -0.039179984 0.042287692 0.07275019

net.3.module.0.weight f4 [32, 32, 3]
000000 94 54 60 3d ca 91 1c bd 61 6a 9d 3d 86 aa e5 bc
       0.05476816 -0.038224973 0.07686306 -0.028035413
000010 84 a1 88 bd 67 2d 1d 3d f5 1e ae bd f7 2a c5 3c
       -0.06671432 0.038373377 -0.08501998 0.024068339
000020 70 20 72 bd b9 5b 7e bc 32 56 de bd 00 4d 0f bd
       -0.059112966 -0.015524798 -0.10856284 -0.034985542
000030 1e c8 34 3d 9f ae 95 3d 7e 17 87 ba 09 03 13 3e
       0.04413616 0.07308697 -0.0010306684 0.14356627
000040 f3 7d 7d bd 1d f0 70 bd 58 11 06 3e d4 c1 8a bd
       -0.061887693 -0.05882274 0.13092554 -0.06775251
000050 28 ed be 3d 33 df 0b bd c0 32 3c 3d 5b d1 4b 3e
       0.09322578 -0.034148406 0.045946836 0.19904082
000060 c8 2e 9b bd b3 22 c8 3a ac a6 bd bc c8 5a a8 bc
       -0.07577282 0.001526913 -0.023150764 -0.0205511
000070 20 55 60 bd e2 ea 21 bd a8 0c 20 3d 83 15 41 bd
       -0.05476868 -0.039530642 0.03907457 -0.047139656
000080 41 9a 83 bd 15 2c 33 bd 68 96 38 3d bb 11 33 be
       -0.06425906 -0.04374321 0.045065314 -0.17487232
000090 a3 da da bd 93 f7 11 3d 7c 8b 21 3d ed ab 65 3d
       -0.10686233 0.035636496 0.039439663 0.056072164
0000a0 cd 0e ec bc 35 c0 b3 3d eb cb 17 be e4 3a 7c 3d
       -0.028815651 0.08776895 -0.14823882 0.0615796
0000b0 4a c8 07 bd bc ca 06 3e 53 50 dc 3b 31 e3 d6 bd
       -0.033149995 0.13163275 0.0067234426 -0.10492552
0000c0 1e 42 bc 3c a6 cd bd 3c c5 a2 1b be 8f 57 b8 bc
       0.022980746 0.02316935 -0.1519881 -0.022502689
0000d0 f1 c3 0f bd 55 f9 38 3d c6 89 45 bd 7f 1a b8 bc
       -0.035098974 0.045159657 -0.048227094 -0.022473572
0000e0 db 32 78 3d 85 58 5a bd c0 cb f2 3d 7e d8 1c 3e
       0.060595375 -0.053307075 0.118552685 0.1531696
0000f0 34 4b 01 be eb 98 13 bd b7 ab 39 bc be 18 be bc
       -0.12626344 -0.036034506 -0.011332444 -0.023205157
000100 1c 85 4d 3d 3c 1f b9 bb 6a 14 bd 3d 9f ad d3 bd
       0.05017577 -0.0056494754 0.09232409 -0.1033585
000110 91 7b 88 3d 1d 7c b0 bc a3 d1 0e be 0c e8 93 3d
       0.066641934 -0.021543557 -0.13947158 0.07221994
000120 42 33 fb bc 66 34 ab 3d 86 7b 0c 3d fc 9b d4 bc
       -0.03066409 0.083596036 0.03429749 -0.025953285
000130 88 8a 95 bd 3b c4 f8 bd fd fe 54 bd 60 a4 8f bc
       -0.07301813 -0.12146803 -0.05200099 -0.017534435
000140 aa 09 e4 bd d5 bf af 3d 6b 40 69 3d 79 23 be bd
       -0.11134656 0.08581511 0.0569462 -0.092841096
000150 ae 0d ce bb 2d 1e af bd 7a eb b2 bc dd a6 d2 3d
       -0.006288252 -0.085506774 -0.0218408 0.10285733
000160 fb 8a ef 3c d2 6d db 3d db ed 7c 38 ac b1 45 3d
       0.029241076 0.10714306 6.0303002e-05 0.048265144
000170 ba ca fe 3c 67 3a 22 be c2 b8 2d bd f2 96 94 3d
       0.031102527 -0.15842591 -0.042412527 0.07255353
000180 91 55 83 3d 5a f6 cc bc 7f 41 97 bd 80 fb 1a 3e
       0.06412805 -0.025019813 -0.07385539 0.15135002
000190 5c a9 72 3d 0a 25 49 bd 7f 05 52 bd 72 0e b3 3b
       0.059243545 -0.04910759 -0.051274773 0.0054643685
0001a0 43 4a 1e bd a6 b9 d2 bc 72 39 6c bd 6c 7b 81 bd
       -0.03864504 -0.02572329 -0.05767197 -0.06322369
0001b0 44 ae db 3c 95 7d 31 bd 41 b1 80 3d 82 03 10 3e
       0.026816495 -0.043332655 0.062838085 0.14063838
0001c0 96 c8 4c 3d 75 f1 1c 3e 67 a1 03 3e 80 01 e0 bb
       0.04999598 0.15326484 0.12854539 -0.0068361163
0001d0 f7 76 40 bd 74 87 a3 3d 13 15 b7 3d 39 46 07 be
       -0.046988454 0.0798482 0.089395665 -0.13210382
0001e0 14 63 6d 3d d1 fc 69 bd 1e b1 94 bd a0 8b da bc
       0.057955816 -0.05712587 -0.07260345 -0.026677907
0001f0 5a 5a 1d bd a5 4c 48 3d e5 db dd bb 2d 59 ad bd
       -0.038416244 0.04890122 -0.0067705982 -0.084642746
000200 4a 18 fc 3c 9a c1 b2 bc 7c c0 91 3d ea 28 e7 3d
       0.0307733 -0.021820832 0.071167916 0.112871006
000210 b2 b8 b8 3c 6b 20 89 bd a3 bb 14 be 86 0a 10 3e
       0.022549007 -0.06695636 -0.14524703 0.14066514
000220 c3 aa bd bd 5e a7 23 3d ce 11 b4 bd a4 81 d7 bd
       -0.09261086 0.039954536 -0.087924585 -0.10522774
000230 3f 1f 0e be 0d dd 82 3d 47 15 f1 3c 07 34 b5 3d
       -0.13879107 0.06389818 0.029429091 0.08847814
000240 8c 6d 2d 3d 86 01 79 bd 7e fc 04 bd 84 ce 7e 3d
       0.0423408 -0.06079247 -0.032467358 0.062208667
000250 48 f6 91 bd 17 79 3d 3d 8b a7 a4 3b b7 66 a5 3d
       -0.071270525 0.04625806 0.0050248555 0.08076232
000260 59 06 94 bd bd 55 c2 bd 3f 3f 3c bd 60 73 92 bd
       -0.07227773 -0.094890095 -0.045958754 -0.07150912
000270 7f 41 1a be 07 e1 20 3d 47 d0 08 bc 18 43 1b bd
       -0.15064047 0.039277103 -0.008350438 -0.037905782
000280 ee 82 74 bd 6f a5 89 3d 7e 9c b4 bd b5 a5 a2 bd
       -0.059695177 0.06721007 -0.08818911 -0.07941762
000290 f8 92 45 bd db 54 1e bd d3 07 f8 bd ab 71 14 3c
       -0.048235863 -0.038655143 -0.12110867 0.009060304
0002a0 c9 6e c5 3d a6 9b 95 bc 8a 5e d1 bc 36 2b 44 3d
       0.09640271 -0.018262696 -0.025557775 0.04789277
0002b0 60 68 c4 3d 18 29 c3 bc 57 78 9c bd 18 a6 a8 bd
       0.095902205 -0.023823306 -0.076401405 -0.08234805
0002c0 60 66 43 3d ba ac e5 3d 32 92 ce bc 05 2b 08 3e
       0.047705054 0.112145856 -0.025216196 0.1329766
0002d0 e2 20 af bd ba 6d a7 3d 70 aa 45 3c a6 56 61 3d
       -0.08551194 0.081752256 0.012064561 0.055014275
0002e0 d4 c0 85 bd f8 9f 83 bd 28 d7 12 be 9b 4b 0d 3b
       -0.0653092 -0.06426996 -0.14339888 0.0021559957
0002f0 7a 0c 87 bd a2 b7 a9 bc 18 18 be bd 05 8c 66 bc
       -0.065941766 -0.020717446 -0.09281939 -0.014071469
000300 b5 00 86 bd 36 82 0a 3d 16 b9 d9 bd 12 b5 32 be
       -0.065431036 0.033815585 -0.106310055 -0.17451885
000310 8f b3 89 bd e5 1f b3 3d 32 20 5b 3e 38 28 be bd
       -0.06723701 0.08746318 0.21399 -0.09285015
000320 3e 49 ff 3c 08 c8 df bd 71 27 4a 3d 66 ef fb 3d
       0.031162854 -0.10926825 0.04935402 0.12301521
000330 ad b8 10 bd 8f 8b 32 3d 96 25 fa bd 32 62 dc 3a
       -0.03533237 0.043590125 -0.122142 0.0016813932
000340 04 50 9e bc 5a 06 86 3c 7c 57 84 bd b2 9c c1 3d
       -0.019325264 0.01636045 -0.06461999 0.094537154
000350 21 8d 66 bd ac 17 40 be 9e f3 2d 3b 2d b5 e4 bb
       -0.056286935 -0.1875903 0.0026542912 -0.0069796056
000360 1e 89 84 bd a1 b9 16 bd 1d e5 9b 3b 60 06 30 3c
       -0.064714655 -0.036798123 0.004757537 0.010743707
000370 0c 4d 15 3c e5 e1 55 bd 97 73 00 3b 81 ed 8c 3d
       0.009112608 -0.052217383 0.0019600147 0.06881238
000380 c3 e2 cc bd 06 98 f9 3a 10 80 4f 3d 1f f2 3f 3e
       -0.10004189 0.0019042499 0.05065924 0.18744706
000390 e3 6f ad 3d a3 49 aa bd 90 06 a4 3d f0 60 e0 bd
       0.08468606 -0.08314826 0.08009064 -0.10955989
0003a0 65 a9 b5 bb f3 9d bd bd 66 15 ad 3d 3e ca 9f 3c
       -0.005543875 -0.09258642 0.08451347 0.019505616
0003b0 46 97 fd ba d1 65 fd bb 64 70 9e bd 84 f4 da bd
       -0.0019347451 -0.0077330847 -0.077362806 -0.10691169
0003c0 ec 10 d5 3d 82 61 b3 bd 46 2e 62 bd a5 66 c3 bc
       0.10403618 -0.087588325 -0.05521991 -0.023852656
0003d0 4a 68 c5 3c 23 ba d4 bd bb a4 94 bd 7a cf 8e 3d
       0.02409758 -0.10387065 -0.07257982 0.06973167
0003e0 39 9c af bd 95 f2 bf 3c 05 c5 d6 3b 4b 30 89 bd
       -0.08574719 0.023431102 0.0065542483 -0.06698664
0003f0 60 42 47 3c 9a 95 bc bd 68 b4 20 3e b6 fd 44 3e
       0.012161821 -0.09208222 0.1569382 0.19237408

net.3.module.0.bias f4 [32]
000000 ac cd cc 3d 96 b1 93 bd 40 90 33 3d ff cf 45 bd
       0.10000166 -0.07211606 0.04383874 -0.048294064
000010 b7 05 b9 bc 2e 61 9d bd 28 f1 a4 bd 56 03 74 bd
       -0.022585733 -0.07684551 -0.080538094 -0.059573494
000020 95 cd a1 3c 0b 20 97 3d 4b 34 81 bd f9 a0 43 3d
       0.01975135 0.073791586 -0.06308802 0.047760937
000030 16 e5 b8 3c 8e fa 88 3c aa a4 c5 3d b8 cf 92 bd
       0.022570174 0.016721036 0.09650548 -0.071685255
000040 c9 a3 d3 bd 62 0a 22 bd 1f 05 e5 3d 76 9b 39 bd
       -0.10333974 -0.039560683 0.111826174 -0.045314275
000050 54 5e 9a 3c 43 bc 18 bd 43 e8 d1 bd 94 cf 93 3d
       0.018843807 -0.037288915 -0.102493785 0.07217327
000060 7f d6 95 bd 31 07 c1 3d 9d 8c bc 3d 2a 06 9a 3d
       -0.073163025 0.094252 0.09206507 0.07520707
000070 1d 10 23 bd 98 ef 5c 3d f8 b0 d7 bc a4 b3 32 bd
       -0.03981029 0.053939432 -0.026329502 -0.04362835

net.4.module.0.weight f4 [32, 32, 3]
000000 27 af 94 bc 36 96 2f bd 9b e0 88 3d d0 64 13 3e
       -0.018149925 -0.04286786 0.06683465 0.14393926
000010 ea 13 fd 3c c7 7f 69 bd 44 22 9c bc 26 34 3f bc
       0.030893285 -0.057006624 -0.019059308 -0.011670148
000020 44 49 2a be 2d 65 02 3e 38 92 98 3d c2 b3 6b bd
       -0.16629511 0.12733908 0.07449764 -0.057544477
000030 de 96 0d bd e5 1a 58 3d f1 e3 24 3c 73 7b f0 3c
       -0.034567706 0.052760024 0.010064111 0.02935574
000040 0d 61 cb 3c 00 43 aa bd 4a 9b 5c 3d ff ad c5 3d
       0.02482655 -0.083135605 0.053859033 0.09652328
000050 fb 6a 3d 3e 30 c3 1a 3e aa 8b 0d 3e 16 c7 80 3d
       0.18497841 0.1511352 0.13822809 0.06287973
000060 11 16 bf 3d 1e 96 b2 3d 8e 63 2d be c9 d8 44 3d
       0.09330381 0.08720039 -0.16932508 0.048058305
000070 55 ab 8f bd 66 0a 49 bd 23 f1 9d bd 05 5a 73 bc
       -0.07015101 -0.049082182 -0.07712009 -0.014853005
000080 ea 8f b8 3d 77 46 d1 3d cb 60 cd 3c fb 92 14 be
       0.090118244 0.10218518 0.025070569 -0.14509194
000090 1a 60 b7 bd 32 aa bf bd 8f 6e 0e be 77 9e d0 bc
       -0.08953877 -0.09358634 -0.13909362 -0.025466187
0000a0 84 be 9d 3d 56 f6 52 3e 62 2b c1 3d c8 bb 19 bd
       0.077023536 0.20601782 0.09432103 -0.037532598
0000b0 cd a8 99 3d 41 a0 b5 3d f0 8e 7d 3b a5 c0 7f be
       0.07502899 0.08868457 0.0038689934 -0.24975832
0000c0 c3 c9 5e 3d a2 aa 5c 3d 34 c0 f0 3c 84 bc d3 bb
       0.054391634 0.053873666 0.029388525 -0.006461682
0000d0 25 9c 97 3d 5d 09 c1 3d 25 e8 c7 3d 87 f3 55 3d
       0.07402829 0.09425614 0.09761075 0.0522342
0000e0 cc a1 e9 3d 77 99 a2 3d 2f 8c 13 bd dd 16 e8 3d
       0.114078134 0.07939427 -0.03602236 0.11332486
0000f0 f6 94 39 bc d2 31 35 bd 7c 9f cf bd 87 b8 1d be
       -0.011327019 -0.044236965 -0.10137841 -0.15402423
000100 e0 36 19 3e 7e 8d a3 bd 73 3f 4f 3c c6 01 99 3d
       0.1496234 -0.07985972 0.012649405 0.074710414
000110 ac 10 14 3e 8a 88 de 3d fb 5d a7 3d 72 b8 b1 3d
       0.14459485 0.108658865 0.08172222 0.08677758
000120 90 53 88 3d c3 e7 4f 3d 1b 03 c6 bb 67 8a b4 3d
       0.06656563 0.050758135 -0.0060428507 0.08815461
000130 e3 99 0c bd 24 31 fb bc 86 81 1b be a6 b3 20 bd
       -0.034326445 -0.03066308 -0.15186128 -0.039233826
000140 b2 67 d3 bd 28 88 fe 3c 8f f5 d7 bb a5 1e 20 3e
       -0.10322513 0.031070784 -0.006590552 0.1563669
000150 2e c2 c8 bd 4e 17 e2 3d d4 2a 0e be 84 b3 f7 3d
       -0.09802662 0.11039601 -0.13883525 0.12094787
000160 ac fb 63 bd e7 b8 2f bd 88 e9 fa 3d f3 c6 13 bc
       -0.055659935 -0.042900946 0.12251574 -0.009019601
000170 1e 61 78 3d 53 eb 31 be c3 2b d4 ba 2b e8 32 be
       0.060639493 -0.17374925 -0.0016187358 -0.17471378
000180 2a cf 1b bd 30 84 9f 3d 8a fa 84 3d 6a 77 43 bd
       -0.038039364 0.07788885 0.06493099 -0.047721304
000190 32 d7 04 be 74 b8 e5 3d 07 0e d1 bc 2d 7c 87 3c
       -0.12972715 0.11216822 -0.025519384 0.016538704
0001a0 0c 1b ed 3b 04 2f 09 bd 26 24 49 bc 70 33 5c bd
       0.0072358903 -0.033492103 -0.012276685 -0.053759992
0001b0 94 12 64 3d 99 2c ce bb c1 07 88 3d 8a fc 03 3d
       0.05568178 -0.0062919375 0.06642104 0.032223262
0001c0 9b 12 e2 bc c4 c2 09 3e 73 38 0e bd f7 7a 3d bd
       -0.027596762 0.13453203 -0.034721803 -0.046259847
0001d0 4a 9c 03 3d c3 b4 bf 3d 6b 85 36 3d 8f 7c d1 bd
       0.03213147 0.093606494 0.04456083 -0.10228836
0001e0 d7 6d 2c 3d ef 87 0a 3e 4f 2e 3f bc cb 1f 22 3d
       0.04209694 0.13528417 -0.011668756 0.0395811
0001f0 00 f3 56 3d 32 f2 38 3d 14 c7 99 bc a1 3f 60 3d
       0.052477837 0.04515285 -0.018771686 0.05474818
000200 3c 95 ea 3c 00 2f 38 3d a5 e6 89 bd e2 fb 3d 3e
       0.028635614 0.044966698 -0.06733445 0.18553117
000210 80 15 ed bd 10 dd f3 3c b0 79 8b bd 5e a2 54 3d
       -0.115763664 0.029768497 -0.068103194 0.051912658
000220 56 51 68 3c fc a9 7a 3d e5 26 39 3d bd 86 9b bd
       0.014179548 0.061197266 0.04520311 -0.07594059
000230 b5 09 a4 3d cc 27 b7 bd 1f bb c9 bd aa ff 07 3e
       0.08009664 -0.089431375 -0.09850144 0.13281122
000240 5c 21 a7 bb 3e a3 6c bd b9 aa 88 bd 1f 04 e0 bd
       -0.0051004123 -0.057772867 -0.06673188 -0.10938286
000250 01 5e 87 bd 38 48 e9 bc 3b 4f ab 3d 16 05 e4 bd
       -0.06609727 -0.02847682 0.083647214 -0.111337826
000260 36 a1 2a 3d fd b1 08 bd 5b 9b 4a bd 56 ef ba bd
       0.04165765 -0.033372868 -0.049464565 -0.09127681
000270 41 96 28 bd 2c d0 66 bd ea 15 4e be 1e b8 db 3d
       -0.04115892 -0.056350872 -0.20125547 0.10728477
000280 55 5d 78 ba dc 01 8d 3d 24 f1 84 3d ad f7 71 bd
       -0.0009474357 0.0688512 0.064913064 -0.059074093
000290 ee 82 eb 3c c0 9d 61 bc df 59 ec 3d 68 d2 1a be
       0.028748956 -0.013770521 0.11540579 -0.15119326
0002a0 85 c1 12 be e7 d5 b4 3d 25 5f b0 3d c8 3f d5 bc
       -0.14331634 0.08829861 0.086118974 -0.02603139
0002b0 12 9f 9b bc 5c 3a 02 b9 c5 3a 49 3d 72 b0 dc 39
       -0.01899675 -0.00012419507 0.049128313 0.00042093132
0002c0 4d bd 7e 3d 8f 35 8e 3d 50 ec a2 3d 64 3b a9 3d
       0.06219225 0.06943809 0.07955229 0.08263281
0002d0 0f 66 10 be 2f 63 bd bd 3d 6e ff 3d ca 97 37 bd
       -0.14101432 -0.092474334 0.12472198 -0.04482249
0002e0 57 26 5f 3d f5 00 07 bd 3e 28 12 3c 3d a3 8a 3d
       0.054479923 -0.032959897 0.008920727 0.067694165
0002f0 08 c0 f6 bd a9 a5 1b 3d a7 f6 bd 3d e6 6c 95 bc
       -0.12048346 0.037999783 0.09275561 -0.018240403
000300 3e 46 01 bc 42 6d 31 bd a7 92 d9 3d aa 0b 1c be
       -0.007890282 -0.043317087 0.10623675 -0.15238824
000310 7f 4f 71 bd c9 4b 7f bd 20 75 40 3e 30 b6 1d be
       -0.058913704 -0.062328134 0.1879468 -0.1540153
000320 69 6e 6e 3c a0 1f 38 be ca 02 0f 3d 26 88 f5 3c
       0.014552691 -0.17980814 0.03491477 0.029972147
000330 d6 6e 4d 3d 72 3c b4 3d b8 a6 17 bd 56 97 30 bc
       0.05015453 0.088005915 -0.03702423 -0.010778269
000340 ca 47 1b bd 6a 3c 50 bd 25 0a 1c be 5c 1d 89 3d
       -0.03791026 -0.050838865 -0.15238245 0.06695053
000350 19 14 de bd 11 6d fc bd e1 18 90 bc bd 23 c9 3d
       -0.10843677 -0.1232549 -0.017589988 0.0982127
000360 fe 60 a3 bd bd ca e6 bb 9e e9 51 3d f1 03 3b 3d
       -0.07977484 -0.0070432113 0.051248185 0.045658056
000370 bf 30 34 3d ba a8 03 3e a0 61 5f 3d 05 dc 3f 3d
       0.0439918 0.12857333 0.05453646 0.046840686
000380 e9 be 26 bc 18 c5 10 3d 71 88 4a bd d9 23 ce bd
       -0.0101773525 0.035344213 -0.049446527 -0.10065431
000390 a6 b6 9a 3d 78 b1 19 bd b8 f7 ff 3c f7 b7 91 bd
       0.07554369 -0.037522763 0.031246051 -0.07115167
0003a0 11 d6 c7 3d 6d 72 22 be 9e c0 24 bc d7 ad 07 be
       0.09757627 -0.15863962 -0.010055689 -0.13249908
0003b0 90 ed b3 3d a4 3b c4 bc 49 dc 2d 3d 02 80 66 3d
       0.08785546 -0.02395422 0.04244641 0.05627442
0003c0 ee 16 52 3d c3 e9 5a 3c cb fc 8e bc ed 5a cb bd
       0.0512914 0.013361397 -0.017454525 -0.09929452
0003d0 47 19 28 bd 06 24 12 3d e3 f4 07 be 1a ab fa 3c
       -0.04103973 0.035678886 -0.1327701 0.030599166
0003e0 cf 70 eb bc bb ea 40 ba e7 0f 9d 3c 74 12 45 bd
       -0.028740315 -0.00073591963 0.019172622 -0.0481133
0003f0 fa c5 18 3e 6e e0 85 bd cb 36 15 3e e6 cc 37 bd
       0.14919272 -0.06536947 0.14571683 -0.04487314

net.4.module.0.bias f4 [32]
000000 b5 97 97 3d 86 55 91 bd 54 83 74 3d c7 02 5d 3d
       0.07401983 -0.070963904 0.059695557 0.053957727
000010 83 cf f2 bc 40 6b 9e bd 82 1f a8 bd 76 01 3e bd
       -0.029639965 -0.077353 -0.08209135 -0.046388112
000020 f2 b9 2a 3d a0 83 c7 bc eb 35 80 bd b6 44 d9 bc
       0.041681238 -0.024354756 -0.06260284 -0.026522022
000030 96 ba b1 3a 02 c3 65 bc 2c 9a 7b 3d b0 89 40 bd
       0.0013559635 -0.014023544 0.061426327 -0.04700631
000040 3e 59 fd bc 91 33 00 3d 24 17 6f 3d 0c 3e 98 3d
       -0.030926343 0.031299178 0.058371678 0.074337095
000050 20 60 c0 3d 80 08 ba bc 77 6c b8 bc 9a c8 2f bd
       0.093933344 -0.022709131 -0.022512658 -0.042915918
000060 84 d0 01 3d 4b 4b a7 3d 3a c4 39 3d aa 04 f4 3c
       0.031692997 0.08168658 0.04535315 0.02978738
000070 67 89 80 bd 69 da 3c bc d4 32 a8 3d 29 30 b6 3d
       -0.062762074 -0.011526682 0.0821282 0.088959046

net.5.weight f4 [8, 32, 3]
000000 92 37 af 3d 68 98 9f bc ee 7b e2 3d 65 a6 a7 3b
       0.08555521 -0.019481853 0.11058794 0.0051162713
000010 a3 3a 7f 3d 6c 03 07 bd d6 13 8a bd 89 23 4e bd
       0.06231178 -0.032962248 -0.06742065 -0.050326858
000020 f9 67 34 bd 70 29 10 3e ac 83 95 bd a7 f8 f2 bd
       -0.04404447 0.14078307 -0.07300505 -0.11863833
000030 33 0b 83 3b a5 b2 00 3d 8a 09 13 3b 5b ec a6 3d
       0.003999138 0.03142037 0.0022436106 0.0815055
000040 b2 8a 4d 3b dd eb 6a 3d 3c aa 84 3d 60 6e 2a 3d
       0.0031363186 0.057353843 0.06477782 0.041609168
000050 16 af ba 3d c4 25 83 3d 3b 21 14 3d b7 f9 b8 3d
       0.09115426 0.064036876 0.036164504 0.09032004
000060 32 f2 88 bd 98 b4 23 3d 9e 72 e9 bd 9f e3 9d bd
       -0.0668682 0.03996715 -0.113988146 -0.07709431
000070 2f f2 56 bd e8 77 46 bd 20 54 b4 bc 75 0f 83 bc
       -0.052477058 -0.048454195 -0.02201277 -0.015998581
000080 dd 33 c5 bd b2 5a 3b bd b5 b5 3e 3d 75 11 e1 bc
       -0.09629033 -0.04574079 0.046560008 -0.027474144
000090 1c ad 8d 3b 43 8a ce 3b c6 7e 93 bd 8f af de 3d
       0.0043236148 0.006303103 -0.072019145 0.10873329
0000a0 6c de ae 3d 0f c1 75 3d f9 de 14 bc 25 1a 0a bd
       0.08538517 0.05999857 -0.009086364 -0.03371634
0000b0 65 35 bb bd 28 86 e0 3d 64 d0 3c 3d a0 df 7f bd
       -0.091410436 0.10963088 0.046097174 -0.062469125
0000c0 a4 60 02 bb 05 01 89 bd f9 77 02 bd dd 1f db 3d
       -0.0019894028 -0.066896476 -0.031852696 0.10699437
0000d0 d2 38 7b bc 24 18 f9 bc 15 45 ae 3d 73 55 0c 3d
       -0.015333371 -0.030407019 0.0850927 0.03426118
0000e0 b3 82 de 3c 79 05 e9 bc 70 b8 01 3c 0a 57 26 bc
       0.027161932 -0.028444992 0.0079175085 -0.010152588
0000f0 a7 6d c8 bd e8 09 5d bc ec 6e 9f bd 78 0c 4a bd
       -0.097865395 -0.013491131 -0.077848285 -0.049328297
000100 79 2f 20 3d 86 fe 24 bd 19 5d e3 bc 57 d1 4d bd
       0.039107773 -0.040281795 -0.027754353 -0.05024847
000110 f3 cb a2 3d 8e 0f 84 3b f2 ea 23 bc a8 a5 e6 3d
       0.079490565 0.0040301746 -0.010004746 0.11262065
000120 32 26 e0 bb 95 be 8b bd b2 90 b0 3c d3 7f 2d bd
       -0.0068404907 -0.0682346 0.021553371 -0.04235823
000130 50 0e 30 3d 2f 50 f5 3c 22 b7 d7 bd 0c eb 51 3c
       0.0429824 0.029945461 -0.10532977 0.012812387
000140 98 0f 21 bd 84 0b b1 3d cf 72 25 3d ec 72 57 3c
       -0.039321512 0.086447746 0.040392693 0.013149958
000150 ac b0 ae 3b 81 22 9a bd 41 94 22 bd 6f 10 96 3d
       0.0053311195 -0.07526112 -0.039692167 0.07327353
000160 5c d3 82 bc 13 52 27 ba 10 c0 ad bc 55 bb 95 3c
       -0.015969925 -0.00063827744 -0.021209747 0.018277803
000170 e5 fb 04 bd c7 b6 3f bc 2e 82 c3 3b b7 c9 c5 bc
       -0.032466788 -0.011701292 0.0059664464 -0.024144037
000180 fb 1d dc 3d 5e 31 15 bd ec 34 94 3d 28 9c 36 3d
       0.10747906 -0.036424033 0.072366565 0.044582516
000190 07 e0 a0 3d 81 b7 b2 3d 61 44 29 be c8 18 80 bc
       0.0785523 0.08726407 -0.1652999 -0.015636817
0001a0 5c cf 00 be 32 c4 c9 3d ba 84 83 bc 95 ff 1b be
       -0.12579101 0.098518744 -0.0160545 -0.15234216
0001b0 9c 8f 0d 3c e3 86 ad 3c 3e 14 92 3d 6d 77 a3 3d
       0.008640196 0.021182483 0.07132767 0.07981763
0001c0 34 e9 57 3d 5b e0 3f 3d af 0d 75 3d 01 4b 9f bc
       0.052712634 0.04684482 0.059827503 -0.019444944
0001d0 ef 83 da 3d d8 0e 53 3d 7f d2 ad 3c d6 fc 14 3d
       0.106696956 0.051527828 0.021218536 0.036373936
0001e0 2f 20 00 bd 4b 4a c5 3d fc e0 fb bb 75 11 89 bd
       -0.031280693 0.09633311 -0.0076867323 -0.06692783
0001f0 3b c1 36 bd 63 07 cc bd 53 89 02 bd 18 21 de 3c
       -0.044617873 -0.099623464 -0.031869244 0.02711539
000200 82 ae bd 3b a4 0f b5 3d af 1c 7d ba 6a 8b 9f 3d
       0.005788625 0.08840874 -0.0009655458 0.07790263
000210 25 0f 29 bd f0 e9 a2 bc 64 38 b9 bd e4 6d 95 3d
       -0.04127421 -0.01988694 -0.09043959 0.072963506
000220 d0 84 44 3d 0e 74 ca 3d 55 72 ba bd 15 5c b9 bd
       0.047978222 0.09885417 -0.09103838 -0.090507664
000230 b7 30 11 be 08 d9 a6 3d 98 73 8d bb 07 03 7b 3b
       -0.1417874 0.08146864 -0.0043167584 0.0038301365
000240 47 4b 2b 3d fc 2e 5c bd 6a 6e 30 bd b7 bd 97 3d
       0.041819837 -0.053755745 -0.04307405 0.07409232
000250 b4 53 65 3d 8f bd 25 3a a5 98 fc 3d 10 18 10 3d
       0.05598803 0.0006322497 0.12333802 0.035179198
000260 c5 1c 9f 3d 7a 1a b1 bd 98 81 84 bc 31 4e 59 bd
       0.07769159 -0.08647628 -0.016175076 -0.053053085
000270 34 b1 e5 bd 61 ef ae bc ba 48 df bd 59 50 dc bd
       -0.112154394 -0.02135438 -0.10902543 -0.107575126
000280 99 81 1a 3d f1 aa 50 bd 8f ec 93 bd 40 00 ee 3c
       0.03772125 -0.050944272 -0.07222854 0.029052854
000290 c4 9f 03 3e ba 2d 51 bc 21 32 31 bb c9 86 69 3d
       0.12853914 -0.01276725 -0.0027037936 0.057013307
0002a0 c4 9c 30 3d 7b a4 bc 3c be 55 2a bd 3c b3 26 3c
       0.043118253 0.02302765 -0.041585676 0.010174569
0002b0 ed 8b 62 bd bd 41 28 bd ba c7 03 be 86 db ab 3c
       -0.055309225 -0.041078318 -0.12869158 0.0209787
0002c0 49 24 29 bc 55 72 01 3e 3d b1 3d 3d 16 6c cf 3d
       -0.010323592 0.1264127 0.046311606 0.10128038
0002d0 f2 46 44 3a 25 5b 50 ba 44 c6 93 bd 93 f7 9c 3d
       0.00074873783 -0.0007948152 -0.072155505 0.076644085
0002e0 5b 58 85 bd 72 80 f5 bb ac 4a 12 3d dd f6 9a 3d
       -0.06510993 -0.0074921185 0.035715744 0.07566617
0002f0 2f 89 e9 bd 05 e0 dd bd 05 a5 8f bd a9 6a ef bd
       -0.11403119 -0.10833744 -0.07013897 -0.11690266
000300 a4 25 02 3d 71 20 d9 3c cb e9 8c 3d ed 23 3b bc
       0.03177418 0.026504727 0.0688053 -0.01142214
000310 21 0e ad 3d 8c 43 69 3c 7d fd 2d bd 60 8b 7c bc
       0.084499605 0.014237296 -0.042478073 -0.015414089
000320 d3 c9 d7 3c a7 92 25 3d 25 91 37 bd 1c d4 5e 3c
       0.026341354 0.04042306 -0.044816155 0.0136003755
000330 89 ea a2 bd 56 42 6f bd 6f a2 98 bd e8 b6 6d 3d
       -0.0795489 -0.058412872 -0.07452857 0.05803576
000340 fd 77 33 3c f6 22 e0 bc dd 1b 8e 3d 98 c4 af 3c
       0.0109539 -0.02736042 0.06938908 0.021456048
000350 4e 71 8f bc 4a 5d 72 3d 40 61 bc 3b 26 67 62 3d
       -0.017510083 0.059171 0.005748898 0.05527415
000360 19 b5 c1 bc 27 61 cf bc fd d2 ae bd 76 b8 fe 3c
       -0.023645924 -0.02531488 -0.085363366 0.031093817
000370 06 3f 68 bd 73 72 31 bd d0 3b ae bd 57 e5 62 3c
       -0.05670073 -0.043322038 -0.08507502 0.013848624
000380 10 97 ef bb c0 e1 1e ba c4 67 69 3d 06 e7 68 bd
       -0.007311709 -0.0006060861 0.056983724 -0.056860946
000390 8f 47 03 3d 4a 17 29 3d 0e 87 26 3d 05 d8 ba ba
       0.032050665 0.041281976 0.040656142 -0.0014255053
0003a0 e5 89 5e 3c f3 1d 59 3b 0d eb 3a bd 7b 40 63 bd
       0.013582681 0.0033129423 -0.04563432 -0.055481415
0003b0 2c 86 9e bc 61 40 5b bd 99 8e 1c 3c e2 ff 41 bd
       -0.019351088 -0.053528193 0.009555482 -0.04736317
0003c0 98 1d 63 bd 60 a8 07 3d 6b 1f 9e 3c c4 61 ee 3c
       -0.055448145 0.03311956 0.01930209 0.029099353
0003d0 12 58 1d 3d d6 79 14 bb bd ec cd 3b e5 56 fc 3c
       0.03841407 -0.0022655628 0.006284325 0.030803153
0003e0 f4 86 b0 bc 36 c3 8e bc 83 9c 98 bb b3 74 8c 3d
       -0.021548726 -0.017427068 -0.0046573295 0.06858196
0003f0 c7 06 62 ba bd e7 94 3c e3 46 90 3d b3 97 92 3c
       -0.0008622226 0.018176908 0.070447706 0.017894601

net.5.bias f4 [8]
000000 a4 1d 32 3d f5 b7 71 3d f0 5a 90 3d 05 43 4a bd
       0.0434853 0.059013326 0.07048595 -0.04938032
000010 ba 5e ac 3c ff 10 73 3d cc df 8b bd 26 cd f2 3c
       0.021041263 0.05934238 -0.06829795 0.029638838

exp_avg f4 [32, 120, 2]
000000 c9 70 bb b8 94 9c 80 b8 7d fc b1 38 91 77 e0 b7
       -8.937863e-05 -6.1326806e-05 8.487047e-05 -2.6758558e-05
000010 ca 62 20 3a 2f 47 1b 39 3d 5a 88 b9 61 a5 f9 b8
       0.00061182363 0.0001480847 -0.00026007174 -0.000119040495
000020 3e b3 d4 38 88 1e 8c 39 cf 4f 11 3b d5 4c a2 3a
       0.00010142334 0.00026725628 0.0022172814 0.0012382517
000030 48 e4 ad b9 19 38 6b b9 a6 4d 7c ba cf 82 0c ba
       -0.00033167214 -0.00022432244 -0.00096246076 -0.0005360068
000040 c5 8a a3 38 9f d2 52 39 de 36 50 38 28 37 fa b4
       7.7982935e-05 0.00020105623 4.9642164e-05 -4.660626e-07
000050 c0 81 d5 39 97 ea fb 38 3c 03 dc 38 bb 59 1b b9
       0.00040723197 0.000120123084 0.0001049102 -0.00014815379
000060 78 88 b4 38 65 14 07 39 4a a4 ef 39 da 6d 83 3a
       8.608488e-05 0.00012882201 0.00045708037 0.0010027245
000070 23 de 14 3a eb d8 80 3a 37 79 7a 3a 5e b1 b8 3a
       0.0005678853 0.0009830272 0.00095548056 0.0014090945
000080 9c 5b 55 b8 a9 29 2a 38 95 1f 7d b9 c5 be 47 b9
       -5.0868475e-05 4.0569957e-05 -0.00024139725 -0.00019049186
000090 bc 66 f4 b7 9b 85 24 3a e1 39 24 39 6a e8 9a 39
       -2.9134906e-05 0.0006276012 0.0001566182 0.0002954633
0000a0 d5 70 b1 39 5c 89 b4 39 8c 94 ed b8 8a e5 be b9
       0.00033844137 0.00034434616 -0.0001132871 -0.00036410644
0000b0 1b 7d 69 3a 10 8f 30 3a fa ef 02 3a d6 72 57 39
       0.0008906887 0.0006735185 0.0004994866 0.00020546778
0000c0 e9 d3 8d 39 e2 26 eb 38 4f db c8 39 a6 16 5d 39
       0.000270515 0.00011212916 0.0003831037 0.0002108464
0000d0 1f 23 2f 3a 80 92 1f 3a 9b 0a 2b b8 cf 5a 52 b8
       0.00066809537 0.0006087199 -4.0779454e-05 -5.0152474e-05
0000e0 ff d7 2c 38 8e c1 48 b6 9c 8e d9 b8 60 39 0d b8
       4.1209158e-05 -2.9914986e-06 -0.000103739294 -3.3670454e-05
0000f0 38 f8 7f b7 db 05 ba 38 62 c3 8e 39 08 e8 a5 39
       -1.5256977e-05 8.870262e-05 0.00027229922 0.0003164413
000100 dc 43 d2 b6 06 e1 31 38 3c d2 49 38 7c 2d 24 39
       -6.2663876e-06 4.2409658e-05 4.811793e-05 0.00015657203
000110 e8 b7 12 3a 62 7f 5d 3a d3 0d 00 b9 9e 01 40 b8
       0.0005596862 0.00084494625 -0.00012212181 -4.5777873e-05
000120 e6 0c 97 39 ed 93 a0 39 3f a4 c0 37 0a 32 a9 37
       0.00028810574 0.0003062779 2.2964667e-05 2.0169671e-05
000130 4b 04 14 b7 0e 38 eb b5 00 00 00 00 00 00 00 00
       -8.822487e-06 -1.7525178e-06 0.0 0.0
000140 68 3f 58 38 56 99 82 38 0f 98 ae 38 22 e1 10 39
       5.1557465e-05 6.227444e-05 8.32529e-05 0.00013816779
000150 31 e2 df b8 7f dd 96 b9 a4 39 c4 b8 6f ba 8c b8
       -0.000106756 -0.00028775257 -9.356745e-05 -6.710446e-05
000160 04 a8 03 b9 7e c3 2c b8 b0 08 40 39 eb fa 42 37
       -0.00012555724 -4.1190062e-05 0.00018313783 1.16217225e-05
000170 df 16 aa 39 a0 fc 15 b9 61 d7 0f 39 66 37 10 39
       0.00032441967 -0.00014303857 0.00013717778 0.00013753548
000180 5a d9 b7 38 c2 bb 2f b9 57 50 ca b7 55 7b 18 38
       8.766605e-05 -0.00016759246 -2.4117688e-05 3.6354486e-05
000190 f1 a4 0d 39 47 3e 39 39 63 1d b7 34 86 c6 11 38
       0.00013508253 0.00017666175 3.4107788e-07 3.4755583e-05
0001a0 06 b0 ca b9 63 df c6 b9 a8 2d 8d 39 91 c7 b4 39
       -0.0003865959 -0.0003793194 0.00026927632 0.00034480964
0001b0 30 31 25 39 a4 5d 88 38 95 df 75 39 43 76 db 38
       0.0001575395 6.502427e-05 0.00023448312 0.00010464762
0001c0 8f f2 21 3a b7 9d 0d 3a c9 6f 6c b9 df d4 e6 b8
       0.00061778066 0.00054022245 -0.00022548357 -0.00011006905
0001d0 f1 85 32 b9 bd cf 02 b9 29 f5 0b 3a 62 84 24 3a
       -0.000170253 -0.00012475155 0.0005338961 0.000627583
0001e0 0c be 30 3a 3e 0f d1 39 49 6d b8 b5 85 cb a6 b6
       0.00067421864 0.00039874943 -1.3740874e-06 -4.9708783e-06
0001f0 43 c5 85 ba 2c b7 2f ba 1d e8 67 b9 80 1b ab 36
       -0.0010205883 -0.0006703015 -0.00022116346 5.0993985e-06
000200 3f 43 dd b9 1c 30 58 b9 ea c5 34 36 24 8d 88 b5
       -0.00042202507 -0.00020617287 2.6937291e-06 -1.0173867e-06
000210 d8 94 41 b9 1d c9 10 3a 14 8d a7 ba 5e 72 e2 ba
       -0.00018461363 0.0005523132 -0.0012783133 -0.0017276516
000220 71 08 69 b7 d8 73 88 b8 c8 e4 f6 b8 77 8e 02 b6
       -1.3889848e-05 -6.506563e-05 -0.00011772808 -1.9454435e-06
000230 a9 65 bd 38 9b a3 f0 b8 96 c8 21 39 cc b7 59 39
       9.031158e-05 -0.00011474566 0.0001542888 0.00020763202
000240 90 c2 a5 b6 6e 67 bc 38 93 7d e6 38 30 cd 11 39
       -4.9400333e-06 8.983804e-05 0.00010990645 0.00013904716
000250 88 b2 89 b8 80 c5 a4 38 ad 18 83 b8 1a f6 0c b8
       -6.565923e-05 7.856917e-05 -6.251163e-05 -3.36078e-05
000260 48 21 bc 39 a3 94 e3 39 fe 6b 33 39 86 fb c0 b8
       0.0003588295 0.00043407557 0.00017111 -9.202123e-05
000270 0b b2 9a ba 9c 18 cf b9 bf cc a5 39 45 62 8c b8
       -0.0011802329 -0.00039500452 0.000316238 -6.694024e-05
000280 f8 7a 44 39 6b de cf 38 94 e1 4f 38 dd 92 9c 38
       0.00018737826 9.911958e-05 4.9562732e-05 7.466015e-05
000290 a7 14 ef 37 56 e6 b2 37 8a b0 5f 33 42 bb 12 38
       2.8500637e-05 2.1326512e-05 5.2081795e-08 3.498351e-05
0002a0 18 b7 8a b7 ba 0d 2b b7 ea 12 00 38 07 6d 0a 39
       -1.6536142e-05 -1.019559e-05 3.0535193e-05 0.00013201321
0002b0 ae b9 78 38 53 5c cc 37 05 f2 92 39 4f 1a 97 39
       5.9300735e-05 2.4361687e-05 0.0002802761 0.00028820566
0002c0 72 70 26 b9 0f 82 cb b8 9c f8 1e b9 a1 1d 17 b9
       -0.00015872883 -9.7040196e-05 -0.00015160668 -0.0001441152
0002d0 d8 7c 26 b8 ad 4a c0 b7 c6 38 e6 37 d3 9a e4 b5
       -3.9693754e-05 -2.2922957e-05 2.7444574e-05 -1.7032384e-06
0002e0 a7 19 50 38 a5 1d 97 38 b2 b1 05 39 44 6a fe 38
       4.9614955e-05 7.205763e-05 0.00012750065 0.00012131457
0002f0 32 ba c4 b7 b1 5d 1c b8 b3 ec 33 3a f9 2a 11 3a
       -2.3451725e-05 -3.7280555e-05 0.0006863579 0.00055377145
000300 90 ad ec b5 f5 96 aa b7 14 18 71 b8 c5 3d 87 b8
       -1.7633884e-06 -2.0335874e-05 -5.7481302e-05 -6.448807e-05
000310 7d 8d 79 36 12 12 98 38 c3 80 2c b9 ea 64 38 b9
       3.7186248e-06 7.251291e-05 -0.00016451166 -0.00017585201
000320 9d 72 0c 38 01 56 87 b7 ad 3a 06 b5 c4 2c a7 b7
       3.3485343e-05 -1.6133303e-05 -5.0004274e-07 -1.9928797e-05
000330 2b 9e 62 39 ff 2b 77 39 89 a7 13 38 7e df f2 38
       0.00021611962 0.00023572145 3.520356e-05 0.00011581088
000340 67 0a d6 39 5e a1 10 3a 81 a2 07 b7 68 8f de 37
       0.0004082501 0.00055172096 -8.084463e-06 2.6531241e-05
000350 bc c2 42 38 33 57 81 39 34 e2 bf 38 1c 04 14 38
       4.6434565e-05 0.00024669766 9.149723e-05 3.5289777e-05
000360 85 37 73 38 9a 7f 8e 38 42 c1 8c 39 e7 3c c7 38
       5.798742e-05 6.794855e-05 0.0002684687 9.5004034e-05
000370 82 65 0e 3a d8 ca 14 3a 7a cd 1d 3a 42 24 e9 39
       0.0005431996 0.0005675978 0.0006019693 0.00044468237
000380 be e6 ea 37 16 b7 2d 39 4f 43 19 38 ba 87 40 38
       2.8002421e-05 0.0001656677 3.654073e-05 4.5902772e-05
000390 ca 99 36 b9 21 32 ad b8 65 36 4d ba d3 24 82 ba
       -0.00017414163 -8.25862e-05 -0.0007828235 -0.0009929187
0003a0 2d e6 1f b8 a3 52 33 37 07 07 60 3a 6c 37 86 3a
       -3.8122922e-05 1.0688472e-05 0.0008545969 0.0010239906
0003b0 ec 51 9c b8 0c 27 82 b8 8f ec 0c 39 f6 55 69 39
       -7.453919e-05 -6.206156e-05 0.00013439565 0.00022252635
0003c0 07 cd 2e b8 0c 50 2b b9 b8 25 bd 37 ae 08 31 36
       -4.167578e-05 -0.0001633765 2.254812e-05 2.6380108e-06
0003d0 9d 19 04 3a 22 b3 2c 3a 4a 5c 44 b9 ba 67 dd b8
       0.0005039217 0.0006587972 -0.00018726397 -0.00010557422
0003e0 97 32 03 3a c9 e7 14 39 ba 33 0c 3b 41 a2 2b 3b
       0.0005004792 0.00014200727 0.0021393136 0.002618924
0003f0 f5 3a 66 b9 c1 b3 a9 b8 21 da 5b ba 33 ab 8e ba
       -0.00021956472 -8.09203e-05 -0.0008386691 -0.0010884762
