data/Figure3_Supplement/035/checkpoint_0004000.pth (torch, 239809 bytes, 31 tensors)

net.0.weight f4 [32, 120, 2]
000000 59 c9 0f 3d e6 82 0e bd d0 15 1b 3d 62 81 28 3d
       0.03510413 -0.034792803 0.0378626 0.041139014
000010 07 a3 1b 3d 31 c3 47 bd c1 df 89 3d 2e f6 d4 3a
       0.037997272 -0.048770133 0.06732131 0.0016247684
000020 1d 08 30 3c fb 92 06 3d 78 45 93 3d 20 d9 52 bd
       0.010744122 0.032855015 0.071909845 -0.051476598
000030 e7 1b 6b bd b1 16 25 3b 08 a0 2e ba e5 40 21 3d
       -0.057399657 0.0025190527 -0.000666142 0.03936853
000040 a0 27 15 bc 38 01 74 3b 52 12 8d 3c 87 f7 64 3b
       -0.009103686 0.0037232172 0.01722065 0.0034937577
000050 3b 31 14 bd e8 d4 9e 3c d1 ad 16 bb 39 40 e1 3c
       -0.036179762 0.019388631 -0.0022991786 0.027496444
000060 95 9a d8 bb a7 20 11 bc 9c 07 22 bc 4f ad 9e 3c
       -0.0066102245 -0.008857883 -0.0098895095 0.01936975
000070 f1 fb f7 bc 02 e1 04 3d 3d 84 cb 3c 0f 1a c5 39
       -0.030271502 0.032441147 0.02484333 0.00037594183
000080 bc 05 84 3c 95 14 45 bd 54 8a 3e bd 92 42 8c bc
       0.016116016 -0.04811533 -0.04651864 -0.017121587
000090 27 35 1b 3d ce af aa bb 38 5b f5 bc bc c6 32 3c
       0.037892487 -0.005208946 -0.029950723 0.01091164
0000a0 69 89 af ba a7 6b 93 3c 8e 75 86 bd 2d 34 3e 3d
       -0.0013392392 0.017995669 -0.065653905 0.046436477
0000b0 fe 32 2a bd 21 8f 27 3d c7 f4 88 bc 74 07 88 ba
       -0.041552536 0.040907983 -0.016718281 -0.0010378198
0000c0 6e 88 69 3d 0f 12 93 bd 5e 5b b4 3c 89 81 8d 3d
       0.057014875 -0.07181179 0.022016224 0.069094725
0000d0 0d 31 0d bc f4 19 f7 bb 20 e2 91 3d c1 d8 ff 3c
       -0.008617652 -0.0075409357 0.07123208 0.031231286
0000e0 ef f4 e2 3c 66 57 82 3d 00 ac 08 3d 9d e1 1e bd
       0.027704684 0.06364326 0.033367157 -0.03878938
0000f0 3b 2a 94 bd 42 1a 98 bd b9 bc d5 3c 6e 64 66 bc
       -0.07234617 -0.07426883 0.026090967 -0.01406203
000100 3c 1a ad bd fe f7 59 3d be 45 c1 3d c7 3d 42 bb
       -0.084522694 0.05321502 0.094371304 -0.0029638873
000110 19 5e 01 3d 34 8d 70 bc f0 ff fb 3c d8 01 27 3d
       0.03158388 -0.014682103 0.030761689 0.040773243
000120 d6 c8 90 bc a2 c5 a8 3c 26 35 29 bb 61 68 55 3d
       -0.017673891 0.020602051 -0.0025819032 0.052101497
000130 01 a8 84 bc 9a 9c 77 3d 52 cc e8 bc 8d 7d aa bb
       -0.016193392 0.06045208 -0.02841774 -0.005202955
000140 db cc f4 bd e3 10 09 bd 60 df 8d 3d c3 cf e6 bb
       -0.119531356 -0.03346337 0.06927371 -0.00704381
000150 5a a0 13 3d eb 32 e8 3c 4a 53 f4 3c 40 0b f2 3c
       0.036041595 0.028344592 0.029824872 0.02954638
000160 1a e2 df bd 5c c7 89 bd a6 19 c9 bb 7c e9 a0 bb
       -0.10931797 -0.06727478 -0.0061370907 -0.004910646
000170 17 59 f3 bc c8 04 86 bd 47 51 95 3d da 03 4d 3c
       -0.029705567 -0.06543881 0.07290893 0.012513125
000180 e8 62 7b bc 8b af 99 3d 7d dc b0 3d d4 85 e3 bc
       -0.015343405 0.07504185 0.08635805 -0.027773775
000190 d6 20 12 be cc a1 88 3d f4 4d b6 bd f1 a8 44 bd
       -0.14270338 0.06671485 -0.08901587 -0.048012678
0001a0 4f 47 a6 bc a1 39 63 bd 3c d2 01 3e 59 c9 0a 3c
       -0.020297674 -0.05547488 0.12677854 0.008470857
0001b0 5d 0a 1c 3d 94 6a b4 3c 14 46 a8 3d 79 d2 a5 3c
       0.03809582 0.022023477 0.08216491 0.020241963
0001c0 e3 0b 2d bd 05 92 99 bc 0e 69 b6 3d cb 92 20 bd
       -0.042247664 -0.018746385 0.08906756 -0.039202493
0001d0 00 ab 6d bd 0d a8 33 3c 5f 25 62 bd 59 4e 03 3d
       -0.058024406 0.010965359 -0.05521142 0.03205714
0001e0 93 96 84 3d ea 6b 9e bd fc 63 3a bd 32 90 41 bd
       0.06474032 -0.07735427 -0.04550551 -0.047256656
0001f0 fb 75 0b 3c 15 af 90 bd d6 79 bc bc b4 87 85 bc
       0.008512015 -0.07064644 -0.023007315 -0.01630006
000200 a3 2e 0a 3d 96 6d c4 3c 17 4c 0d bd f2 3d dc 3b
       0.033735882 0.023978036 -0.034496393 0.0067212516
000210 43 64 7d 3d 5f c8 88 3d 48 a1 c2 3c 2c e3 bb 3c
       0.061863195 0.06678843 0.023758546 0.022935472
000220 ef dd a7 bc 81 35 ad 3c 57 0a 75 bc e5 1f 04 bc
       -0.020491568 0.021143677 -0.0149560785 -0.008064245
000230 73 f8 84 bb 3c 65 83 bc 5e 96 0e bd a7 dc 69 3d
       -0.004057938 -0.016039483 -0.03481137 0.057095196
000240 83 d3 89 bc 6b f6 1c 3d 7d 18 2d 3b a4 55 e7 bc
       -0.01682449 0.03832094 0.0026412301 -0.028239079
000250 4b cc b4 3d 5a bd 4a 3d b8 10 01 3d a2 5c 5c bc
       0.08828028 0.049496986 0.031510085 -0.01344982
000260 8e 37 8f bd 28 7c ea bc 8a bf 78 bc 7c f2 54 bd
       -0.06993018 -0.028623655 -0.015182385 -0.051989064
000270 81 ca a5 bb 2d d6 a2 bd 83 b2 91 3c 99 39 09 bb
       -0.0050595407 -0.07951007 0.017785316 -0.0020938872
000280 a9 f2 2c 3c d3 91 3f 3d e0 57 ff bb db a5 21 bd
       0.010555902 0.04676993 -0.007792458 -0.039464813
000290 29 1c d1 bd 8c 3f 8a 3d 53 d2 5d bc 53 98 74 bc
       -0.10210449 0.06750402 -0.013538915 -0.014928895
0002a0 c1 c5 32 bd 9b 1f ac bd 1f 5f 03 3d 4e 55 8d 3c
       -0.043645624 -0.08404466 0.032073136 0.01725259
0002b0 44 f5 97 3d ba 67 66 bc ea 84 ed 3c ec 06 d3 bc
       0.074198276 -0.014062816 0.028994042 -0.025760137
0002c0 28 d0 c2 bd 9c 85 40 3c 3d ac bd 3d 85 07 5e 3d
       -0.09512359 0.011750605 0.092613675 0.05420639
0002d0 aa 32 2d bd 9f 10 14 bd e9 17 d8 3d 0b ee fb 3c
       -0.042284645 -0.036148664 0.105514355 0.030753156
0002e0 40 16 25 3d dd 64 a3 bb 99 9d 31 bd a9 a3 dd 39
       0.040304422 -0.004986389 -0.043363187 0.0004227434
0002f0 50 2e f1 3b 52 0a 38 bd c3 8f 11 3d 9a 5f 89 bb
       0.007360257 -0.044931717 0.035537492 -0.004192305
000300 64 43 3e 3d d5 b4 2a bd ab db 0c bc 4b 06 5e bd
       0.046450987 -0.04167636 -0.008597295 -0.05420522
000310 39 52 2c 3c 97 82 e0 3c 73 41 ab 3d af 0d 1f bd
       0.01051765 0.02740602 0.08362093 -0.03883141
000320 8b 1e 60 3d 72 ea ec bc 64 6a 2e 3c d7 7a ad bc
       0.054716628 -0.028920386 0.010645483 -0.021176739
000330 f5 6d bd ba 78 8c 50 3c e6 c2 9b bc c0 56 a8 bd
       -0.0014452325 0.012728803 -0.019013833 -0.08219671
000340 54 1d 7b bd f3 c1 31 bd c9 ee 9e bc d1 46 0a bc
       -0.061307266 -0.043397855 -0.019400971 -0.0084397355
000350 d2 57 1c 3d 70 a5 47 bd 65 5e 28 bc 59 13 0c 3d
       0.03816969 -0.048741758 -0.010276412 0.03419814
000360 5c eb 4b bc c9 4f 85 bd 43 db 3a 3d 4b f5 ac 3a
       -0.012446251 -0.065093584 0.04561926 0.0013195662
000370 45 46 ee bc 1e a1 ab 3d 84 47 dc 3c bc 60 0d bd
       -0.029086241 0.0838034 0.02688957 -0.03451608
000380 63 5d 52 bb 65 4f 0c 3d 97 a0 95 bd c0 d3 5c 3c
       -0.003209912 0.034255404 -0.07306021 0.0134782195
000390 79 e6 00 3d 95 47 15 3d 29 e7 50 3d 19 78 90 bc
       0.031469796 0.03644522 0.0510017 -0.017635392
0003a0 6c 6f 28 3d 65 30 0c bd 51 9b 78 bd 00 4a 15 bd
       0.041121885 -0.03422584 -0.060694996 -0.036447525
0003b0 ef f6 b5 bc 95 3a 1a 3d 20 4b 0e 3d bf d7 8c 3d
       -0.022212474 0.037653524 0.034739614 0.06877088
0003c0 f1 2c 68 3c a5 83 56 3d 35 5d d1 3d bc 94 d4 3c
       0.014170871 0.05237164 0.10222856 0.025949828
0003d0 fa 55 4f 3d ce 0c cd 3c 30 cd cb bd 5a da db bd
       0.050619103 0.02503052 -0.09951246 -0.10735007
0003e0 91 7d 57 3d 60 bf e1 bc 4a 6f fb 3c 92 cc 99 3b
       0.052609984 -0.027557075 0.030692715 0.004693576
0003f0 14 c6 71 3d 4b 5f 21 bc ee f0 1d bd 9c b7 18 bd
       0.059026793 -0.00984938 -0.038559847 -0.03728448

net.0.bias f4 [32]
000000 1b eb 74 bc 22 ed e8 3c e0 2e 34 bd 62 ed 93 bd
       -0.014948632 0.028433386 -0.043990016 -0.072230116
000010 2e 6b 8c bc 5e 22 00 bd ec 05 b9 bb 36 e7 c8 bc
       -0.017140951 -0.031282775 -0.005646458 -0.024524312
000020 3b 1d 83 3c 7e 9e b0 3b 72 08 1b bc ab 62 6d bc
       0.01600515 0.0053899875 -0.009462463 -0.014488856
000030 5f 3f 66 bd 1e c1 54 bd dc 99 98 bd bb 6f 17 3d
       -0.05621278 -0.051941983 -0.07451221 0.03697179
000040 66 96 9f bc cf 3c f2 bc 36 a5 4b bd ca 40 65 3c
       -0.019480895 -0.029570011 -0.049718104 0.013992498
000050 77 21 d5 bc 11 5b dd 3b 7b 1f 90 bd 8d 35 1e bd
       -0.026016934 0.0067552407 -0.070372544 -0.03862529
000060 2b 01 2b 3d 30 63 ab 3c 9d 60 32 bd 61 f6 fa bc
       0.04174916 0.02092132 -0.04354917 -0.03063506
000070 ad 58 24 3d d9 8e 9a bb a3 61 ec bc 13 77 4f 3d
       0.04012363 -0.004716736 -0.02885515 0.050650667

net.2.module.0.weight f4 [32, 32, 3]
000000 a0 79 a6 3d 86 21 90 3c 61 cf 3f bd 53 13 a1 bd
       0.08128667 0.01759411 -0.04682863 -0.07865014
000010 8d 25 77 3d 58 95 00 be 60 a0 45 bd 4d 23 e4 bd
       0.060338546 -0.1255697 -0.04824865 -0.111395456
000020 7b cf d8 bb ac 95 16 3d 49 75 54 bb 60 92 f5 3c
       -0.0066165305 0.036763832 -0.003241854 0.029977024
000030 e6 b7 e1 3d 64 7e a7 3b de 6d 9a 3d d3 56 e5 3d
       0.11021404 0.0051115025 0.07540487 0.11198201
000040 a4 f7 81 3d 07 06 b5 bc e7 83 bb 3c 2b 1a 79 bd
       0.06346062 -0.0220976 0.022890044 -0.06081597
000050 3f d3 87 bc bc 3a 08 3d 55 d6 b7 3c 83 94 a7 3d
       -0.016580222 0.03325914 0.022441069 0.08182623
000060 20 5d 20 be 60 3f 08 3d df cb 14 be fc 56 e4 bd
       -0.15660524 0.033263564 -0.14530896 -0.111494035
000070 69 99 22 3c 47 ab 00 be 8d 56 4e 3d 7e 81 b3 3d
       0.009924271 -0.12565337 0.05037551 0.08764933
000080 ba 50 eb 3d 75 9c b8 bd cf cc ef bd fb 7c cd bc
       0.11490007 -0.09014217 -0.11708986 -0.02508401
000090 8e 16 b5 3c 5d 0c d0 3c 1d cb 3f 3d 85 8f ef 3d
       0.022105481 0.02539652 0.046824563 0.11697296
0000a0 3f 18 0f bd 3d 03 55 bd b5 c3 5c be e5 2b f6 bd
       -0.034935232 -0.05200504 -0.21559031 -0.12020091
0000b0 50 10 23 3d 84 57 03 3c 47 85 0a 3e ef b3 87 3d
       0.03981048 0.008016471 0.13527404 0.066261165
0000c0 e3 83 df bd 71 31 06 bc 3f ad 06 be bf 3a 9e 3c
       -0.10913827 -0.008190499 -0.13152026 0.019315122
0000d0 22 5e 8f 3d 53 7c 90 3c 8d 5e f9 3d 10 9e 73 3c
       0.07000376 0.017637407 0.12176237 0.014869228
0000e0 0a 67 f7 3d 88 04 57 bd 43 61 10 bc 53 c5 5a bd
       0.120802 -0.052494556 -0.0088122515 -0.05341084
0000f0 cc a0 b7 bb d4 57 df 3b 45 56 16 be e6 89 bb bd
       -0.0056038853 0.00681589 -0.14681347 -0.091571614
000100 67 7a 09 bd 15 5a 3e 3d 91 6b 25 bc 4e d2 61 3d
       -0.033563998 0.046472628 -0.010096447 0.055132203
000110 3c 4b 52 bd 04 8f 2b ba 50 f2 0f 3d 91 2a 71 3d
       -0.05134128 -0.00065444433 0.035143197 0.058878485
000120 0e 48 93 3d 05 ab 86 bd 85 4b 96 bd ae 0b 7e bb
       0.07191478 -0.06575588 -0.07338623 -0.0038764286
000130 03 29 25 bd ad d2 c3 3c 23 fc f5 bd 73 30 c5 bd
       -0.040322315 0.023904169 -0.12010982 -0.096283816
000140 1e 43 e7 bd 1e 42 50 3e fe 35 6a bc 81 59 43 3d
       -0.112920985 0.20337722 -0.014295099 0.04769278
000150 6d a3 f8 bc 0f df 14 3d a7 e8 17 3c 07 da 46 3d
       -0.030351365 0.036345538 0.009271777 0.04854777
000160 59 80 56 bd 42 da 64 3c 43 16 de bd 24 d7 bd bd
       -0.052368496 0.013968052 -0.1084409 -0.092695504
000170 2d 7d ae bd 09 41 12 be f8 15 19 3d 38 cb 0e be
       -0.08519969 -0.14282621 0.037374467 -0.1394471
000180 8a 62 31 3e ca 9d c9 3b 5a d2 27 be c5 36 ad 3d
       0.17322746 0.006152843 -0.16388837 0.08457712
000190 43 4c 6b bc 87 42 c8 3d 3c ee 32 be ed 25 b2 bd
       -0.014361444 0.09778314 -0.17473692 -0.0869864
0001a0 0c 34 cb 3c 19 1c 4e 3d 1b 86 d9 bd 6b 13 b7 bd
       0.024805091 0.050319765 -0.10621282 -0.089392506
0001b0 20 77 19 3d b8 7c b8 3c c6 77 0b be 35 e9 1d 3e
       0.037467122 0.022520408 -0.13619909 0.15420993
0001c0 76 47 b8 3a 58 bf d9 3b 1f c3 2c 3d 79 48 06 bd
       0.0014059383 0.0066451244 0.04217827 -0.03278396
0001d0 50 1a 7c bd 4d aa 12 3e e9 84 16 bd a4 d9 5f bd
       -0.06154853 0.14322777 -0.036747847 -0.054650918
0001e0 1b 49 6a bc d4 29 3b 3a 61 23 c8 3d 5e df 2b be
       -0.014299656 0.0007139717 0.09772373 -0.16784427
0001f0 31 bd a8 3d 19 57 38 3d ea 21 46 bd b5 7e 67 3d
       0.082392104 0.045004938 -0.048372187 0.05651732
000200 b4 ef cd bd 55 ce 1f bd 2f 30 52 3d 64 d5 65 3d
       -0.10055485 -0.039015133 0.051315483 0.05611171
000210 69 99 b1 bd 4e 08 ff bd 6c 94 29 be 8e 3d 80 3d
       -0.08671839 -0.12452756 -0.16560525 0.062617406
000220 e7 06 8d bd 03 23 81 bd 84 a0 17 be 32 55 be bd
       -0.06886082 -0.06305506 -0.14807326 -0.092935935
000230 14 27 ae 3d 83 8d 0f bd 54 ff a4 3d c9 a9 c5 3d
       0.08503547 -0.035047065 0.080565125 0.096515246
000240 ac 5e 08 be e0 7c 2d bc c2 91 07 3e 92 cb f9 3c
       -0.13317364 -0.010588855 0.13239196 0.030492578
000250 63 9b a6 bd c6 f7 9e bd d4 dc 1f 3e 7d 8d 60 bd
       -0.081351064 -0.07762103 0.15611583 -0.054822434
000260 ba db 91 bd f5 d8 ed 3d dc 3c 0e bd 89 75 05 bd
       -0.07121988 0.11613647 -0.03472601 -0.032582793
000270 3a 92 40 be 5c 03 17 3d 95 71 4a bd dd 92 61 39
       -0.18805781 0.036868438 -0.049424727 0.00021512383
000280 42 e2 03 bd 92 46 c9 3d 77 74 24 3e 22 99 9a 3d
       -0.0321982 0.09827913 0.16060053 0.07548739
000290 55 11 9b 3a 38 b0 51 3d 7a 81 23 3d 45 83 04 bc
       0.0011830727 0.051193446 0.0399184 -0.008087938
0002a0 d0 0b e2 3c 15 b0 c9 3d b4 1f fe 3c f9 db 19 be
       0.027593523 0.09848038 0.031020977 -0.15025319
0002b0 f7 29 a3 3d d7 5d ee 3d 55 90 11 be 42 d3 32 bc
       0.079669885 0.11638992 -0.14215215 -0.010914626
0002c0 ab e3 32 bd 62 53 3a 3d 9a cb 84 bc 6d c1 a0 bd
       -0.043674152 0.045489676 -0.016210366 -0.07849393
0002d0 f6 25 c3 bd 19 35 56 3d 09 00 5e 3d f6 9c 1d 3e
       -0.09528725 0.05229673 0.054199252 0.15391907
0002e0 be 83 91 3c b8 c3 0f bc 12 f7 9d bd dc 1d 8f bd
       0.017763015 -0.00877469 -0.077131405 -0.06988117
0002f0 60 68 c4 bd 36 34 a5 bd 0b ba 10 bd 40 5c 86 3d
       -0.095902205 -0.08066599 -0.035333674 0.06560564
000300 fa d9 4d 3d 40 47 0a 3e 3d 6f 5e 3d 58 d4 9e bd
       0.050256707 0.13503742 0.054305304 -0.07755345
000310 37 2d 95 bd 76 4d 6e bd 32 38 2b 3e bc eb a2 3b
       -0.07284015 -0.05817934 0.16720656 0.0049719494
000320 7c 95 8d 3d 92 79 71 bc 14 d6 c8 3d 12 95 fa 3c
       0.069132775 -0.014738457 0.09806457 0.03058866
000330 eb b5 ca 3c 1a ed 23 3d 35 94 33 3d 8b e2 a6 3d
       0.024744948 0.04002104 0.043842513 0.081486784
000340 c5 ae 2c 3e 3b 1d f1 3b b1 63 dd bd a0 ea 8c bd
       0.16863544 0.007358221 -0.1081003 -0.06880689
000350 df de 09 be 4c 0a 1d be e5 bb 11 bd 79 72 30 be
       -0.13463925 -0.15335959 -0.03557958 -0.17231168
000360 2a 67 ee bc b2 4e b5 3d de 37 00 3e 5e 31 07 3c
       -0.029101927 0.088529006 0.12521312 0.008251516
000370 66 d3 35 3b 0a 63 45 3d af 29 51 bd 6d aa b5 bd
       0.0027744411 0.048190154 -0.051065143 -0.08870397
000380 98 dd 73 3c 30 3b 53 bd 96 a5 c4 3d 9d 5f f2 3d
       0.014884375 -0.051570117 0.096018955 0.11834643
000390 23 0e ab 3c 66 19 8f 3c 29 80 a8 bd bd cd 06 be
       0.020880764 0.017468166 -0.082275696 -0.1316442
0003a0 bf 2a 3f 3d e8 05 f1 3c c7 57 5e 3d df 0d 5b 3d
       0.046671625 0.029421762 0.05428293 0.053480025
0003b0 73 67 4d 3d d1 4d 96 bc 2f e6 a4 bd cc 5f 19 3c
       0.050147485 -0.018347653 -0.080517165 0.009361219
0003c0 33 13 1a 3e c2 40 a7 3d 77 27 0a 3d fd b4 71 bd
       0.15046386 0.081666484 0.033729043 -0.059010495
0003d0 a9 37 8e bd db f9 1c bd 1c 90 0b be 54 0f 03 be
       -0.0694421 -0.03832422 -0.13629192 -0.12798816
0003e0 d3 f7 30 be 03 29 23 b9 44 1d b5 3d 48 51 38 bc
       -0.17282037 -0.0001556017 0.088434726 -0.011249848
0003f0 af d6 29 3d 82 9b 06 bb 5c 76 9e 3d 0d f5 28 3e
       0.041464504 -0.0020539467 0.07737419 0.1649973

net.2.module.0.bias f4 [32]
000000 cd c0 82 3d 69 be 8f 3d 31 cb 66 3c 84 15 88 bd
       0.0638443 0.0701874 0.014086531 -0.06644729
000010 e5 16 d4 3d 3d 2c 44 3d 5c 6a 2f 3c b1 8e 44 3d
       0.10355929 0.04789375 0.01070651 0.047987644
000020 c0 98 2a 3d 45 a4 cc 3d 8e 8f ee bb 53 f8 60 3d
       0.04164958 0.099922694 -0.0072802966 0.05492432
000030 33 1b 92 bd ae d7 83 bd 3f 42 ce 3c c7 37 7b 3d
       -0.07134094 -0.06437622 0.025178073 0.06133249
000040 f5 e9 bd bd bd b0 2e bd e5 e8 3f bc 53 cc ab 3d
       -0.092731394 -0.04264902 -0.011713241 0.08388581
000050 76 b3 67 bd 6c 08 51 bc e3 fc 76 bd a4 56 1c bc
       -0.05656763 -0.012758356 -0.060299765 -0.009542141
000060 57 5b a5 3d 91 52 a1 3d 12 f0 47 3d 5c f7 7a 3c
       0.08074062 0.078770764 0.048812933 0.015317764
000070 0b 9f 49 3c da 63 1d bd 6d dd 2c 3d 67 0e 94 3d
       0.012305985 -0.038425304 0.042203356 0.072293095

net.3.module.0.weight f4 [32, 32, 3]
000000 ff 34 6f 3d f7 45 1e bd 1e d9 96 3d a5 84 f3 bc
       0.05840015 -0.038640942 0.073656306 -0.029726336
000010 9a b7 7f bd 60 f1 26 3d b2 d1 af bd 81 70 bd 3c
       -0.062430955 0.040757537 -0.08584918 0.023124935
000020 6d a6 87 bd a9 bb 29 bc b4 a1 df bd 83 dd 03 bd
       -0.0662354 -0.010359683 -0.10919514 -0.032193672
000030 52 b4 2d 3d 9d 58 96 3d d3 74 88 ba a3 3a 16 3e
       0.042408295 0.073411204 -0.0010410793 0.14670806
000040 76 dc 83 bd df 07 76 bd 95 a5 06 3e 5a d4 8b bd
       -0.06438534 -0.0600661 0.13149102 -0.06827612
000050 dd 0c bc 3d 9c d5 10 bd 28 ca 38 3d 0a 5b 4f 3e
       0.09182141 -0.035359964 0.045114666 0.20249572
000060 ef b4 9d bd 72 7b 3b 3b ba da b1 bc a9 04 9e bc
       -0.07700526 0.0028607515 -0.021710742 -0.019289332
000070 b4 c6 5f bd 3d 1c 1d bd 4a 0e 33 3d e6 d4 54 bd
       -0.054632857 -0.03835701 0.0437148 -0.05196085
000080 e4 ec a7 bd 46 ae 2e bd 17 c5 46 3d be f4 32 be
       -0.0819948 -0.04264667 0.048527803 -0.17476174
000090 f8 9e e1 bd 65 d3 11 3d c6 39 23 3d fc 87 6a 3d
       -0.11016649 0.035601992 0.03985002 0.05725859
0000a0 14 d4 ae bc f2 44 b2 3d 66 d4 17 be cf fc 83 3d
       -0.021341361 0.087045565 -0.14827117 0.06444704
0000b0 5d 1c 11 bd 19 d0 04 3e da b3 7d 3b 7d 8a d7 bd
       -0.03542744 0.12970008 0.0038711936 -0.105244614
0000c0 d8 28 c3 3c 13 3d c5 3c ee ff 1e be 4a b4 ab bc
       0.023823187 0.024076974 -0.15527317 -0.020959992
0000d0 27 37 f5 bc 6f 9d 5b 3d 23 8a 39 bd cf 66 a2 bc
       -0.029933525 0.053616937 -0.045297753 -0.019824414
0000e0 b9 0d 64 3d 18 71 62 bd 65 ee ed 3d 93 d1 1c 3e
       0.05567715 -0.055283636 0.11617736 0.15314321
0000f0 61 ab 02 be 96 f7 06 bd 95 2e 1c bc 18 5f bc bc
       -0.12760688 -0.03295096 -0.00953259 -0.022994563
000100 98 ca 5d 3d ed 9d 04 bc 9a ea c1 3d 77 95 d3 bd
       0.054148287 -0.008094293 0.09468575 -0.103312425
000110 70 8a 8c 3d 51 8a c8 bc d9 44 07 be 85 fc a0 3d
       0.06862342 -0.024480017 -0.13209857 0.07860664
000120 a9 5b c3 bc 8d d2 a9 3d bc 97 10 3d 15 d1 cb bc
       -0.023847418 0.082921125 0.035300955 -0.024879972
000130 5f 6a 93 bd aa 8e fa bd aa d3 52 bd fe 6d ff bb
       -0.07198023 -0.12234242 -0.05147139 -0.0077950945
000140 48 54 e7 bd 97 ce b2 3d 8d e0 46 3d 1b 7c bf bd
       -0.11295372 0.0873081 0.048553992 -0.09349843
000150 e6 40 d6 bb 24 e3 b1 bd 21 be bd bc 24 64 d5 3d
       -0.006538498 -0.08685902 -0.02316195 0.10419491
000160 4d 4d 07 3d ce 21 e2 3d 18 7c 95 3b a3 d6 69 3d
       0.033032704 0.11041604 0.0045619123 0.05708946
000170 2a 7c 23 3d bd cd 23 be 23 a2 35 bd 1e e5 94 3d
       0.039913334 -0.15996452 -0.04434408 0.07270263
000180 52 f9 80 3d c9 f9 cd bc 4b cd 9a bd 99 d6 1f 3e
       0.06297554 -0.02514352 -0.07558688 0.15609206
000190 96 89 66 3d b5 dd 3f bd d1 11 58 bd d4 a9 9d 3b
       0.056283556 -0.046842296 -0.052751366 0.004811505
0001a0 16 cc 2a bd 94 8a e1 bc b7 3e 75 bd e5 03 84 bd
       -0.041698538 -0.0275319 -0.059874263 -0.06446055
0001b0 0c 56 02 3d 5b bf 31 bd d5 77 7c 3d e5 d2 15 3e
       0.031820342 -0.04339538 0.06163772 0.14631231
0001c0 33 e2 4f 3d 07 ef 1c 3e e8 80 00 3e 6e a9 86 bb
       0.05075283 0.15325557 0.12549174 -0.004109553
0001d0 d3 41 4d bd 3b eb a8 3d d9 b1 a9 3d cb ce 08 be
       -0.050111603 0.08247992 0.08285875 -0.13360135
0001e0 e1 ee 65 3d ba 75 76 bd 28 a3 92 bd 5b 70 e0 bc
       0.056136016 -0.060170867 -0.07160026 -0.027397325
0001f0 06 4f 10 bd 60 b2 46 3d 7a 97 dc bb ac 73 a7 bd
       -0.035231613 0.048509955 -0.0067319246 -0.081763595
000200 9e 81 01 3d 00 37 98 bc a7 e1 96 3d bf 76 e9 3d
       0.031617753 -0.018580914 0.073672585 0.11399602
000210 d6 ef be 3c 9d e5 87 bd f5 53 16 be 29 90 0f 3e
       0.023307722 -0.06635592 -0.14680465 0.14019836
000220 19 64 c2 bd b1 8a 1b 3d 93 fd be bd e0 de d8 bd
       -0.09491748 0.037974063 -0.09325709 -0.10589385
000230 2b 96 13 be 6f 2e 96 3d f5 45 02 3d 59 fc ba 3d
       -0.14412753 0.07333075 0.031804997 0.09130163
000240 42 a3 33 3d f9 cd 7c bd 78 24 01 bd 49 2a 8c 3d
       0.043856867 -0.06171987 -0.03152892 0.06844003
000250 d9 4d 92 bd 2c de 39 3d 5a d5 94 3b 10 e6 9c 3d
       -0.071437545 0.045377895 0.004542035 0.076610684
000260 99 15 90 bd df cd d3 bd 97 f5 4b bd a5 b8 9f bd
       -0.070353694 -0.10342001 -0.04979476 -0.0779889
000270 ca c8 1e be 13 f8 26 3d bb ce 28 bc 77 15 1f bd
       -0.15506282 0.040763926 -0.010303195 -0.03883883
000280 10 cb 7a bd 4b 9d 88 3d d4 04 b7 bd a7 75 a5 bd
       -0.06122881 0.06670626 -0.08936468 -0.08079081
000290 0c 0c 49 bd 18 08 35 bd 07 d8 ed bd 28 67 1e 3c
       -0.049083754 -0.044197172 -0.116134696 0.009668149
0002a0 22 64 cd 3d 37 c1 7f bc 05 ca c8 bc e2 30 44 3d
       0.100288644 -0.015610031 -0.024510393 0.04789818
0002b0 63 61 c5 3d 97 22 cf bc c3 aa b0 bd 40 6c a0 bd
       0.09637716 -0.025285048 -0.0862632 -0.07833147
0002c0 dc 7c 39 3d 5a 78 00 3e f9 02 ba bc a8 74 07 3e
       0.04528509 0.1254591 -0.022706496 0.13228095
0002d0 35 77 b6 bd d6 46 ad 3d c2 13 59 3c 1d 45 56 3d
       -0.08909456 0.084607765 0.01324934 0.052312005
0002e0 6c f0 85 bd b7 26 86 bd 3d 51 16 be 03 b7 00 3c
       -0.065399975 -0.06550353 -0.14679427 0.007856133
0002f0 83 d2 8c bd 09 a0 be bc 85 05 ba bd 1f 7b 73 bc
       -0.068760894 -0.02326967 -0.09083084 -0.014860897
000300 22 e3 8a bd e1 9a 11 3d b0 1a d7 bd 60 f2 36 be
       -0.067816034 0.035548095 -0.10503137 -0.17865896
000310 8d 4a 8a bd d4 d2 af 3d 77 f7 60 3e 6f e9 c7 bd
       -0.06752501 0.08585134 0.219694 -0.09761321
000320 3e 9a 0f 3d a5 f2 d9 bd dd 01 57 3d 93 38 00 3e
       0.035059206 -0.10641984 0.05249201 0.12521581
000330 31 17 11 bd 4c 89 36 3d e1 15 f7 bd 53 39 40 3a
       -0.035422508 0.04456453 -0.1206472 0.0007332761
000340 e8 ee 91 bc de 2f 80 3c 6e 93 83 bd ce 3d ba 3d
       -0.017814115 0.015647825 -0.06424604 0.090938196
000350 3f d5 65 bd c1 04 42 be 98 30 a1 3b 53 88 1e bc
       -0.05611157 -0.18947126 0.004919123 -0.009676057
000360 53 0e 7e bd dd 50 0d bd f5 ff 93 3b 13 56 55 3c
       -0.06202538 -0.034500945 0.0045165964 0.01302101
000370 59 73 df 3b 5f 83 57 bd c8 81 92 3b 6e ad 91 3d
       0.0068191704 -0.05261552 0.0044710375 0.07113157
000380 c5 c3 c8 bd fb a1 1a 3a e0 e5 46 3d 0e 92 42 3e
       -0.09802965 0.0005898771 0.04855907 0.19001028
000390 68 bf ac 3d 92 68 ad bd 3a de a8 3d 5a 23 e3 bd
       0.08434945 -0.08467211 0.08245511 -0.11090727
0003a0 1d bc 85 bb f6 60 bc bd 79 38 ad 3d b0 64 b1 3c
       -0.0040812627 -0.09198181 0.08458037 0.021654457
0003b0 89 db 48 ba ed 78 07 bc 43 d8 a2 bd 28 07 dd bd
       -0.0007662108 -0.008268577 -0.07951405 -0.107923806
0003c0 43 50 d3 3d 24 8d b9 bd f7 19 65 bd 58 59 06 bd
       0.10318043 -0.090601236 -0.055932965 -0.03280005
0003d0 25 53 b8 3c 44 62 dd bd 1b c7 97 bd 9a 3e 93 3d
       0.022500584 -0.10809758 -0.07411023 0.07189675
0003e0 74 ec b1 bd 3d 1c ef 3c c3 cb 25 3c 19 49 8c bd
       -0.08687678 0.02918827 0.010119381 -0.0684988
0003f0 43 0f 9b 3c fa 47 c0 bd c0 cc 24 3e a5 c7 48 3e
       0.018928176 -0.093887284 0.16093731 0.19607408

net.3.module.0.bias f4 [32]
000000 0c fe cc 3d 68 7b 93 bd 3f 8d 34 3d 85 e8 3d bd
       0.10009393 -0.07201272 0.044080015 -0.046364326
000010 96 ad b1 bc 12 c4 9c bd f9 d7 a3 bd b8 e0 71 bd
       -0.021689218 -0.07654585 -0.08000178 -0.0590522
000020 f9 10 a9 3c 87 e8 97 3d 74 cd 7c bd cd d6 4d 3d
       0.020637976 0.07417398 -0.061719373 0.050253678
000030 5b 1f b8 3c 9a 32 8b 3c d1 93 c9 3d 62 21 90 bd
       0.022475889 0.016991902 0.09842647 -0.07037617
000040 82 20 d2 bd b5 c9 1f bd f6 74 e4 3d 08 11 35 bd
       -0.102601066 -0.039010722 0.11155121 -0.044205695
000050 55 41 9e 3c 74 2d 13 bd f2 08 d2 bd d9 d5 93 3d
       0.019318262 -0.03593202 -0.102556124 0.072185226
000060 2f 6d 92 bd f0 87 c5 3d 41 d7 bc 3d 53 6e 9a 3d
       -0.07149731 0.09645069 0.09220744 0.07540574
000070 19 0e 1b bd c1 d0 60 3d ff 8f d2 bc 81 97 31 bd
       -0.03785524 0.054886583 -0.025703428 -0.043357376

net.4.module.0.weight f4 [32, 32, 3]
000000 58 2a 65 bc 18 56 2d bd 9c 70 90 3d 70 f0 10 3e
       -0.013987146 -0.042318434 0.070527285 0.1415422
000010 fa 4e 05 3d 85 d8 6b bd 1a f4 b1 bc a9 ff 20 bc
       0.03254602 -0.057579536 -0.021722842 -0.009826579
000020 b6 ac 30 be ee 85 07 3e 09 14 95 3d 01 ef 6b bd
       -0.17253384 0.13234684 0.07279212 -0.05760098
000030 9d 81 0d bd 31 63 4f 3d fc 92 38 3c aa bb 0e 3d
       -0.034547437 0.050631706 0.011265513 0.03484694
000040 4f 23 9e 3c 4c 47 aa bd f4 82 84 3d 08 4e c2 3d
       0.019303946 -0.0831438 0.0647029 0.094875395
000050 d3 69 48 3e 70 24 1c 3e 3b d0 12 3e f3 25 93 3d
       0.19571619 0.15248275 0.14337246 0.071849726
000060 1a ea b7 3d e4 db bb 3d 17 a1 32 be 71 56 52 3d
       0.08980198 0.091728 -0.17444263 0.05135197
000070 5d 3d 93 bd 4f 77 4c bd 11 ff 97 bd a9 d8 54 bc
       -0.071894385 -0.04991847 -0.07421697 -0.012991109
000080 7f 8f 8d 3d c7 ee ce 3d 04 79 c9 3c a6 08 15 be
       0.06912135 0.10104137 0.024593838 -0.1455408
000090 cd 71 c1 bd 23 80 c4 bd 6c b9 10 be ce 7f fd bc
       -0.09445534 -0.09594753 -0.14133233 -0.030944731
0000a0 27 7b a5 3d ee a8 58 3e d2 6b c1 3d 25 34 e7 bc
       0.0808013 0.21158192 0.09444393 -0.028223107
0000b0 cf 55 93 3d 17 a6 be 3d 52 3b 2b 3b 35 3d 82 be
       0.07194101 0.09309023 0.0026127887 -0.25437322
0000c0 11 0a 4f 3d 38 df 55 3d ac 68 d6 3c f7 20 19 bc
       0.05054671 0.05221483 0.026172958 -0.009346238
0000d0 d1 a3 9c 3d 97 0a d0 3d 66 3e c6 3d 93 e8 63 3d
       0.07648433 0.1015827 0.0967987 0.055641722
0000e0 34 89 ef 3d ed e6 a8 3d 43 8f 0c bd 95 ee ef 3d
       0.11696091 0.082471706 -0.034316313 0.11715428
0000f0 60 4b 52 bc f6 81 37 bd 82 5d da bd f1 2b 20 be
       -0.012835354 -0.044801675 -0.106623664 -0.15641762
000100 09 82 20 3e 5e f6 9f bd 00 48 50 3c 42 0e 99 3d
       0.15674604 -0.07810663 0.012712479 0.074734226
000110 53 56 18 3e 46 bf ee 3d 93 8d bd 3d 0a 6a c3 3d
       0.1487668 0.11657576 0.09255519 0.0954171
000120 c9 2e 9a 3d f3 76 56 3d 8d da 9f ba ad fa b7 3d
       0.07528455 0.052359533 -0.001219587 0.089833595
000130 a0 06 03 bd b4 cd 0b bd f4 55 1d be 2c ed 21 bd
       -0.03198874 -0.03413172 -0.1536482 -0.039532825
000140 29 18 ce bd 1a 1f 0e 3d 66 d8 58 bc 02 68 24 3e
       -0.10063202 0.03469763 -0.013235187 0.16055301
000150 9b 95 c0 bd 29 e1 dc 3d 7e fa 0f be c6 f5 00 3e
       -0.09403535 0.107851334 -0.14060399 0.12593755
000160 7e ef 6e bd 7b e2 1b bd a5 7e 0b 3e 59 1b be bb
       -0.058333866 -0.038057785 0.1362253 -0.0058016
000170 d3 12 90 3d 9d 5b 34 be 20 23 61 bb 8d 70 3b be
       0.070348404 -0.17613073 -0.0034353212 -0.18304653
000180 a9 e9 1e bd 40 4e a1 3d 4d ef 81 3d 1f db 23 bd
       -0.038797054 0.07876253 0.06344471 -0.040003892
000190 35 c3 0c be 0f 65 dd 3d 67 19 00 bd e9 c5 89 3c
       -0.1374634 0.10810291 -0.031274226 0.016818004
0001a0 c8 f0 82 3b 67 40 1f bd ca e8 60 bc e5 3b 67 bd
       0.0039959885 -0.03887978 -0.013727376 -0.056453604
0001b0 fb 36 65 3d de b0 8a bb 3e 00 84 3d 51 30 10 3d
       0.055960637 -0.00423251 0.06445359 0.035202328
0001c0 95 71 e5 bc 01 e8 07 3e e5 ec f9 bc ed 2f 24 bd
       -0.028008262 0.13272096 -0.030508468 -0.040084768
0001d0 66 88 f2 3c 84 ed cc 3d bd fb 2a 3d 45 42 db bd
       0.029606055 0.1000624 0.041743983 -0.10705999
0001e0 9b 3a 38 3d 40 b1 0c 3e 58 2a 34 bc 89 39 2e 3d
       0.044977766 0.1373949 -0.010996424 0.04253534
0001f0 ec d6 72 3d 00 27 3a 3d 80 9a c3 bc b3 f0 5f 3d
       0.059286997 0.04544735 -0.023877382 0.054672908
000200 13 78 10 3d 94 f2 2a 3d 0d 34 91 bd 9d ab 41 3e
       0.03527076 0.041735247 -0.07090006 0.18913122
000210 dd 64 e3 bd d6 4f 05 3d 1e 41 98 bd 78 d9 4f 3d
       -0.111032225 0.03254684 -0.07434295 0.050744504
000220 0b 1d 92 3c 49 c7 78 3d 25 13 4c 3d a3 1b a5 bd
       0.017836114 0.060736928 0.049822945 -0.08061912
000230 2e d8 a6 3d cc 79 b2 bd 8a 83 c4 bd 60 96 08 3e
       0.08146702 -0.08714637 -0.095954016 0.13338614
000240 40 02 1a bc 90 02 72 bd c6 29 89 bd 08 94 de bd
       -0.0093999505 -0.059084475 -0.06697421 -0.108680785
000250 17 60 8d bd 2d 91 09 bd f4 91 aa 3d 16 8b e2 bd
       -0.06903093 -0.033585716 0.083286196 -0.11061685
000260 fe ea 2e 3d 9c a1 02 bd 82 72 50 bd 47 f2 c8 bd
       0.042704575 -0.031892404 -0.050890453 -0.09811836
000270 a7 39 2d bd 37 a0 56 bd 68 16 4e be 9d 50 dd 3d
       -0.04229131 -0.052398887 -0.20125735 0.108063914
000280 00 09 51 bb c1 b1 8f 3d b7 29 84 3d 4a 8f 65 bd
       -0.0031896234 0.07016326 0.06453269 -0.056044854
000290 19 9f fc 3c 36 24 35 bc 63 84 f9 3d 42 6a 1e be
       0.030837582 -0.011055997 0.12183454 -0.15470222
0002a0 43 cf 18 be fb 58 c3 3d ad f4 b4 3d 77 b6 01 bd
       -0.14922814 0.09538456 0.08835731 -0.031668153
0002b0 7b d6 89 bc 60 7b b4 3a 86 1a 50 3d fe 89 5e 3a
       -0.016825905 0.0013769679 0.050806545 0.00084891904
0002c0 2e aa 67 3d ef 41 9c 3d 31 35 aa 3d 5f 51 af 3d
       0.05655878 0.07629763 0.08310927 0.08560442
0002d0 f5 94 17 be 6b bb c6 bd ba 0a f9 3d 18 ce 2d bd
       -0.14802916 -0.09703716 0.12160249 -0.042432874
0002e0 05 c7 67 3d 1c 7b 1d bd d3 64 08 3b 50 bd a3 3d
       0.056586284 -0.038447484 0.002081205 0.07995093
0002f0 7b 3a 05 be a5 5c 38 3d ec 25 c8 3d 8c 3e 88 bc
       -0.1301059 0.045010228 0.09772858 -0.016631387
000300 cf 37 50 bc e8 ec 22 bd d7 5d d8 3d 9b 5a 1c be
       -0.012708618 -0.039776713 0.105647735 -0.15268938
000310 9b 1a 72 bd 75 05 77 bd fa 86 40 3e fe e2 25 be
       -0.059107404 -0.06030794 0.1880149 -0.16199872
000320 2d 1d a3 3c 0d 56 3c be 9e 83 14 3d 9b fb 02 3d
       0.019911373 -0.18392201 0.036258332 0.03197823
000330 c4 f1 33 3d b7 fb bf 3d 4a c8 1c bd 2b a2 85 bc
       0.043931738 0.09374183 -0.038276948 -0.01631268
000340 42 0b fd bc 98 b1 52 bd 03 b6 20 be 01 68 8f 3d
       -0.030889157 -0.051438898 -0.15694432 0.07002259
000350 fd b6 dc bd 01 42 00 be f2 0e 81 bc 35 d7 ca 3d
       -0.1077709 -0.12525178 -0.015754197 0.09904329
000360 f7 1d 9e bd c6 15 d8 bb 1e 54 62 3d 47 67 35 3d
       -0.07720559 -0.0065943925 0.055256 0.044287946
000370 e4 54 31 3d 09 35 05 3e 15 31 63 3d 8d 8b 44 3d
       0.04329385 0.13008513 0.05546673 0.04798465
000380 69 f8 c6 bb 05 10 0e 3d 08 53 41 bd 22 0f d3 bd
       -0.0060720933 0.034683246 -0.047198325 -0.10305621
000390 48 6e 9c 3d 6c c3 24 bd 6a 35 0b 3d 86 ba 88 bd
       0.07638222 -0.04022543 0.033986486 -0.066762015
0003a0 a1 ee c6 3d 02 84 1d be 64 e9 ff bb d8 98 09 be
       0.097134836 -0.15382388 -0.0078098048 -0.13437212
0003b0 06 09 b0 3d 50 d7 b9 bc 38 53 26 3d c8 58 76 3d
       0.08595471 -0.022685677 0.040606707 0.060143262
0003c0 83 03 4b 3d 34 c0 50 3c 69 ee 97 bc 60 9f d5 bd
       0.049563896 0.012741137 -0.0185463 -0.10430789
0003d0 13 d6 2c bd d4 7f 0d 3d eb e5 05 be 24 4e 05 3d
       -0.042196345 0.034545735 -0.13075988 0.032545224
0003e0 7e ff eb bc 97 b8 65 bb 3e 15 8c 3c a5 d5 5d bd
       -0.028808352 -0.003505265 0.017099973 -0.054158825
0003f0 79 53 1c 3e 88 ae 8a bd fb 38 1d 3e e8 be 2e bd
       0.15266217 -0.067715704 0.15353768 -0.04266253

net.4.module.0.bias f4 [32]
000000 63 24 98 3d c2 7f 90 bd 48 8f 76 3d 83 2b 61 3d
       0.07428815 -0.07055618 0.060195237 0.054973137
000010 e7 ca e6 bc 3b 69 9d bd 60 5b a7 bd 23 3c 3d bd
       -0.028172923 -0.07686087 -0.08171725 -0.04619993
000020 eb f4 30 3d 35 65 c4 bc 27 f7 78 bd de 38 c1 bc
       0.043202322 -0.02397404 -0.060782578 -0.023586687
000030 94 d8 b6 3a 77 d8 63 bc e2 49 7d 3d 41 4f 3c bd
       0.0013950043 -0.01390659 0.06183804 -0.04597402
000040 1b b9 f8 bc ac 89 02 3d 99 aa 6e 3d 54 41 98 3d
       -0.030361703 0.031869575 0.058268163 0.07434335
000050 01 ca bf 3d 7b e8 ab bc 60 7c b2 bc 53 e4 2b bd
       0.09364701 -0.020984879 -0.021787822 -0.041965794
000060 49 41 03 3d f8 ea ab 3d 59 dc 39 3d cd f8 f9 3c
       0.032044683 0.08394426 0.045376156 0.030514145
000070 93 15 7c bd 4b 7e 37 bc 65 4f be 3d e4 2a b7 3d
       -0.061544012 -0.011199544 0.09292487 0.089437276

net.5.weight f4 [8, 32, 3]
000000 b9 37 b1 3d 3d 8b 8a bc 14 09 e9 3d 9e b4 07 3c
       0.086532064 -0.016912097 0.11378685 0.008282809
000010 b7 ee 7a 3d c4 74 db bc bf 64 8c bd 30 6d 57 bd
       0.061262812 -0.026789077 -0.06855153 -0.052594364
000020 a6 c6 38 bd 21 07 12 3e 88 d2 96 bd 81 6f fe bd
       -0.04511132 0.14260532 -0.073643744 -0.124236114
000030 f0 84 c6 3a 10 a4 fe 3c 2b 04 63 3a 37 b5 a0 3d
       0.001514582 0.03108409 0.0008659984 0.07847064
000040 7f 6a f2 3a ba af 5d 3d 3f 30 85 3d 1b 6e 1d 3d
       0.0018494873 0.054122664 0.06503343 0.038435083
000050 10 a1 b4 3d d8 09 8b 3d 49 75 0b 3d 3b 21 b8 3d
       0.08819783 0.06788987 0.0340474 0.08990713
000060 4e ae 8a bd 91 ca 21 3d 8a 0f ea bd 7e 11 a0 bd
       -0.06771527 0.039499823 -0.11428745 -0.07815836
000070 7c 08 46 bd 3a cb 3c bd 73 11 e8 bc e9 11 ab bc
       -0.048347935 -0.04609225 -0.028328633 -0.020882564
000080 54 f6 c3 bd 01 cc 3a bd 17 3a 30 3d 3f 3a e4 bc
       -0.09568468 -0.04560471 0.04302415 -0.027859805
000090 3a b7 e8 3b bd 0b 08 3c 17 53 91 bd 00 2b de 3d
       0.0071019204 0.00830358 -0.07095926 0.10848045
0000a0 de 16 a8 3d c8 af 89 3d 0c 14 3b bc 16 ba 0b bd
       0.082074866 0.06722981 -0.011418354 -0.034113012
0000b0 a6 07 bd bd 36 f7 e1 3d 09 2c 2e 3d 67 bb 71 bd
       -0.092299744 0.1103348 0.042522464 -0.05901661
0000c0 6c b8 10 bb 83 a0 8b bd e3 e1 00 bd 94 9b d7 3d
       -0.002208258 -0.068177246 -0.031465422 0.10527721
0000d0 40 b2 5c bc 1e aa d4 bc 52 e8 ae 3d 71 6f 08 3d
       -0.0134702325 -0.025960024 0.08540405 0.033309404
0000e0 e9 e8 00 3d 15 dd 04 bd 53 16 76 3b 83 cd 0d bc
       0.03147212 -0.032437403 0.0037549927 -0.008654955
0000f0 96 42 c6 bd 85 01 7d bc 63 0d 9f bd 68 2a 4e bd
       -0.09680669 -0.015442257 -0.07766225 -0.05033341
000100 12 47 1c 3d b8 66 38 bd 40 0f ef bc 0e 26 4c bd
       0.038153715 -0.045019835 -0.029182076 -0.04984098
000110 87 fb a2 3d fd 22 1f 3c a2 2e ed bb 58 ce ec 3d
       0.07958131 0.009712932 -0.007238225 0.115627944
000120 95 75 91 bb da c0 7b bd e7 a1 8b 3c da 17 2b bd
       -0.0044390657 -0.061463214 0.017044974 -0.041770793
000130 6d d1 1f 3d 96 8e f0 3c d0 74 d0 bd c8 9a 72 3c
       0.039018083 0.029364865 -0.1017853 0.014807411
000140 1b 05 22 bd 4b 42 b1 3d 4e 23 34 3d e4 b4 59 3c
       -0.03955565 0.086552225 0.04397898 0.013287757
000150 76 b9 a3 3b 0f cd 97 bd 5a 39 4a bd fc e3 9a 3d
       0.004996474 -0.07412159 -0.0493711 0.07563016
000160 35 57 59 bc f1 4e c6 ba ab 78 ad bc 33 ac be 3c
       -0.013265421 -0.0015129728 -0.021175703 0.02327547
000170 7e 73 04 bd 44 86 69 bc 4f 43 1f 3c 84 88 ca bc
       -0.032336704 -0.014253203 0.009720637 -0.024723299
000180 66 13 d8 3d e9 ac 0e bd 68 f1 97 3d a8 86 3a 3d
       0.10550575 -0.03483287 0.074190915 0.045538574
000190 36 df a2 3d dd d6 b5 3d c7 4b 25 be 11 ea 94 bc
       0.0795273 0.088788725 -0.16142188 -0.018178018
0001a0 59 21 fd bd 6f 51 c8 3d 02 7f 89 bc dd bb 20 be
       -0.12359876 0.09781157 -0.016784195 -0.15696664
0001b0 6f b4 0b 3c 6b 38 ad 3c 0e be 91 3d c8 14 a4 3d
       0.008526905 0.021145066 0.07116328 0.08011776
0001c0 e1 ac 53 3d 72 cf 3e 3d 10 aa 79 3d f3 eb ac bc
       0.051678542 0.046584554 0.0609532 -0.021108603
0001d0 0c db d4 3d 58 eb 56 3d 58 7f ca 3c f9 b7 13 3d
       0.103933424 0.052470535 0.024718925 0.036064122
0001e0 f2 89 f3 bc 19 68 bf 3d 87 1c 2e bc 33 98 88 bd
       -0.029728863 0.09346027 -0.010626919 -0.06669655
0001f0 0a 56 21 bd f5 89 cc bd 43 cf 00 bd 4e b1 a8 3c
       -0.039388694 -0.09987251 -0.03144766 0.020592358
000200 cf 57 9b 3b a8 d9 b4 3d 82 b9 bb bb f0 70 99 3d
       0.004740692 0.08830577 -0.0057289014 0.07492244
000210 b7 0d 19 bd 25 3d 63 bc a5 74 c2 bd f9 e4 97 3d
       -0.037366595 -0.013869558 -0.094949044 0.0741672
000220 b6 ac 40 3d 36 18 d7 3d 3d f7 be bd 3d 7d b3 bd
       0.04703971 0.10502665 -0.09324501 -0.08764122
000230 f3 07 13 be 51 dd b7 3d 65 c2 b0 bb b5 cf d8 3b
       -0.14358501 0.0897776 -0.0053942674 0.0066165575
000240 06 a9 1d 3d 26 47 69 bd 3a 94 27 bd 90 73 96 3d
       0.03849127 -0.056952618 -0.040912844 0.073462605
000250 3b 0a 56 3d d6 6c 24 3b ce 68 f9 3d 90 bb 0e 3d
       0.05225585 0.0025089285 0.12178193 0.034846842
000260 cb 06 a1 3d 8b ce b4 bd 9f 3d 56 bc 1d 95 55 bd
       0.07862624 -0.088284574 -0.013076215 -0.05214416
000270 ef 63 e2 bd 37 78 bc bc e8 24 e4 bd 3e f0 dc bd
       -0.11054217 -0.023006542 -0.11139852 -0.1078801
000280 12 7c 1c 3d dd 3f 66 bd d2 ce 91 bd fc 10 cc 3c
       0.03820426 -0.05621325 -0.07119526 0.024910443
000290 d9 ad 04 3e 25 fb 15 bc aa a9 71 ba 20 83 85 3d
       0.12956943 -0.009154116 -0.00092187023 0.06519151
0002a0 9a 8f 28 3d 50 d2 bd 3c 08 fd 32 bd 81 30 2a 3c
       0.041152574 0.023171574 -0.04369834 0.010387541
0002b0 d7 af 66 bd 73 68 1d bd bb 02 03 be cd 6c ba 3c
       -0.056320038 -0.03842969 -0.1279401 0.022756958
0002c0 23 69 48 bc fb c8 07 3e 14 3d 44 3d 57 fa be 3d
       -0.012232098 0.13260262 0.04790981 0.09325092
0002d0 65 f3 26 ba d7 68 18 bb 8e fc a2 bd d5 5e 98 3d
       -0.0006368666 -0.0023255849 -0.07958327 0.07439963
0002e0 0c 5b 83 bd 2e 3d 02 bc 76 5a 35 3d f1 7c 9c 3d
       -0.0641385 -0.007949157 0.044275723 0.07641018
0002f0 4d 64 f2 bd 0e a9 da bd c9 48 78 bd 8d 0d f2 bd
       -0.11835537 -0.10676776 -0.06061629 -0.11818991
000300 4c af 05 3d ee 32 b8 3c 1d 74 8d 3d 04 d2 10 bc
       0.03263788 0.022485223 0.069069125 -0.008839134
000310 d4 0b a6 3d 42 b8 79 3c a0 d0 19 bd ed c6 8b bc
       0.08107725 0.015241684 -0.037552476 -0.017062629
000320 91 9d bf 3c cd 41 30 3d e0 2e 25 bd 31 7d 02 3c
       0.023390563 0.043031503 -0.040327907 0.007964418
000330 83 d3 a1 bd 8c 49 6d bd 11 88 99 bd ef 22 5d 3d
       -0.07901671 -0.057931468 -0.07496656 0.053988393
000340 99 73 63 3c 8c 68 f4 bc cc 00 94 3d 69 8a ab 3c
       0.013882541 -0.029835008 0.072267145 0.020940023
000350 1f e0 94 bc f7 ac 81 3d 24 af 75 3b 36 49 7e 3d
       -0.018173276 0.063318186 0.0037488425 0.06208154
000360 14 94 de bc 8e 52 b1 bc 25 f1 a6 bd 7b e8 d2 3c
       -0.027170219 -0.02164581 -0.081514634 0.025745621
000370 3d 1f 64 bd f9 77 1f bd e9 53 b3 bd 5b 4f 87 3c
       -0.055693854 -0.038932774 -0.08756239 0.016517332
000380 8b f6 08 bc 78 10 bd bb 81 ee 6a 3d 87 fc 71 bd
       -0.008359562 -0.0057697855 0.05735636 -0.05907872
000390 49 fe 0b 3d f9 68 1c 3d fe 1b 2d 3d b3 c3 86 3b
       0.034178052 0.038186047 0.042263024 0.0041126846
0003a0 c8 99 63 3c 4d 3e 54 3b 95 15 23 bd ec 2b 6d bd
       0.013891645 0.0032385767 -0.039815504 -0.057903215
0003b0 79 3e a4 bc 23 b1 61 bd 69 f7 5b 3c b1 20 4f bd
       -0.02004932 -0.05510057 0.013425686 -0.050568286
0003c0 06 c1 4f bd ce 15 02 3d 99 6a 77 3c e1 31 08 3d
       -0.05072119 0.031759076 0.015101098 0.033250693
0003d0 d4 5b 0b 3d 32 cd 2a 3a fb 79 ab 3b b6 5f f2 3c
       0.03402312 0.0006515562 0.005233047 0.029586654
0003e0 05 ab 98 bc f1 31 68 bc e9 6b 24 bc 12 b2 85 3d
       -0.018636236 -0.014172063 -0.010035493 0.06528105
0003f0 f3 28 20 bb 13 2a 9f 3c f0 d3 8b 3d 36 c1 51 3c
       -0.002443847 0.019429242 0.06827533 0.012802413

net.5.bias f4 [8]
000000 3d 93 2e 3d 39 60 70 3d 9e a1 8a 3d 0c 77 4a bd
       0.042620886 0.058685515 0.06769107 -0.04942994
000010 75 65 a2 3c eb 97 71 3d 14 d6 8a bd fd 35 f8 3c
       0.01982377 0.05898277 -0.067791134 0.030299181

exp_avg f4 [32, 120, 2]
000000 25 e3 83 b8 96 e5 2e b8 14 3e 77 37 e4 a0 ec b7
       -6.288876e-05 -4.169865e-05 1.4736801e-05 -2.8208313e-05
000010 97 9e 4c 38 8f a4 c2 b6 d9 27 00 39 06 92 92 38
       4.878509e-05 -5.8008077e-06 0.00012221876 6.9890215e-05
000020 0d 02 d5 38 c5 24 cb 37 0b 8d 11 3a 14 6b ec 39
       0.000101570135 2.4216608e-05 0.0005552328 0.00045093207
000030 0d 0c 35 b9 0a 60 76 b9 cf bd 00 3a 3e db 4b 3a
       -0.00017265994 -0.00023496166 0.0004911096 0.0007776505
000040 48 d8 84 38 d4 67 2e 39 21 0f 96 36 89 12 11 36
       6.334536e-05 0.00016632612 4.4721096e-06 2.1617473e-06
000050 0b f5 5b b9 33 57 00 3a 6b 01 44 3a 5b e6 69 3a
       -0.00020976753 0.0004895806 0.0007477018 0.000892257
000060 59 0c b3 b7 37 9e d0 b5 6b 48 84 b9 07 76 8b b8
       -2.1344213e-05 -1.5543254e-06 -0.00025230958 -6.650021e-05
000070 61 43 13 39 69 e7 ea b9 32 4b 03 b6 93 0d 7d b9
       0.00014044113 -0.00044804372 -1.956429e-06 -0.00024133017
000080 f5 5b 39 37 e2 ac 6b 39 62 f3 2d 38 98 c0 b7 38
       1.104827e-05 0.0002247575 4.1473082e-05 8.7619934e-05
000090 9b 49 6c 3a 61 71 ca 3a 65 31 95 39 0a d9 5d 3a
       0.00090136536 0.0015445167 0.00028456296 0.00084628223
0000a0 13 be a9 39 ae 09 8a 39 25 86 7e 39 ba 46 36 39
       0.00032375808 0.00026328623 0.000242733 0.0001738322
0000b0 c7 66 be 39 8f 21 91 3a 43 a4 a8 38 35 df af 39
       0.000363162 0.0011072623 8.0414604e-05 0.00033544903
0000c0 8e 4f a5 b9 fa a1 5c b9 19 c6 a9 3a d8 a8 79 3a
       -0.00031530525 -0.00021041176 0.0012952714 0.0009523756
0000d0 e6 c6 35 3a 19 ef 97 39 f2 64 12 38 73 f5 21 37
       0.000693424 0.00028979106 3.4903125e-05 9.653496e-06
0000e0 90 5c 33 37 0c 46 16 38 dc 64 ae 38 0d af 3a 38
       1.0690783e-05 3.5828023e-05 8.315753e-05 4.4508884e-05
0000f0 a3 d7 24 b8 03 3f 1d b8 cc b9 a2 b9 a6 82 2e b8
       -3.9301474e-05 -3.74904e-05 -0.00031037477 -4.160651e-05
000100 a5 4b ab b7 bb ce 64 37 65 40 5f b8 c6 b7 dd b8
       -2.0420013e-05 1.3637992e-05 -5.3227315e-05 -0.00010572332
000110 6b 53 03 39 5c 36 65 b7 0e 2e 53 b7 c7 67 bb 37
       0.00012524209 -1.366212e-05 -1.2587303e-05 2.2340462e-05
000120 5f 82 9f 38 a3 31 4e 38 b1 a5 05 b9 eb af ab b8
       7.605994e-05 4.9160455e-05 -0.00012745593 -8.186683e-05
000130 42 dc 25 b7 37 9d a3 b7 00 00 00 00 00 00 00 00
       -9.886049e-06 -1.9504323e-05 0.0 0.0
000140 13 3e ca 38 6e a6 19 39 67 b1 44 39 67 2e 31 39
       9.643673e-05 0.00014653217 0.00018758104 0.00016897322
000150 28 c4 39 39 5a e9 6b 39 53 c6 a8 b9 2e e8 57 b9
       0.00017716049 0.00022498277 -0.0003219122 -0.00020590491
000160 ce b6 1c 39 ff 76 47 39 c2 d0 c0 38 93 03 01 39
       0.0001494542 0.00019022448 9.1941576e-05 0.0001230373
000170 88 ff a8 39 45 1d ae 39 b0 83 96 38 78 0e 10 39
       0.00032233843 0.00033209674 7.177086e-05 0.000137383
000180 82 ee 27 39 49 ef 87 39 34 30 61 b8 95 92 12 37
       0.00016015212 0.00025927488 -5.3689073e-05 8.736407e-06
000190 31 ba e1 37 fd 8c b6 b8 4f e1 c7 37 a0 b2 95 b8
       2.6908792e-05 -8.7046974e-05 2.3827566e-05 -7.138145e-05
0001a0 75 8c 74 ba 7f 1e 30 ba 54 f5 d5 39 f2 c5 4c 39
       -0.0009328791 -0.00067184115 0.0004080931 0.00019528696
0001b0 f3 23 b4 38 68 28 45 38 aa e5 fc b9 fe 4f bc b9
       8.589765e-05 4.700609e-05 -0.000482363 -0.00035917753
0001c0 45 f0 2b 39 5a 31 05 39 c6 5c 41 b8 71 45 81 b8
       0.00016397338 0.00012702253 -4.6101188e-05 -6.164134e-05
0001d0 96 bd 8f b8 f0 c9 34 b8 bb 6e 9c 39 ac 62 8e 39
       -6.8540845e-05 -4.3103413e-05 0.0002983714 0.00027157867
0001e0 42 15 57 3a 7d 2d 1b 3a 25 ed 9f 36 0f f3 ae 35
       0.0008204767 0.0005919559 4.7661765e-06 1.303475e-06
0001f0 66 4a 06 ba d8 3f e4 b8 bd 6e 53 3a fd 65 78 3a
       -0.00051227806 -0.00010883779 0.00080655125 0.00094756467
000200 13 84 1e ba aa 37 25 ba a8 08 2f 38 13 f0 f0 37
       -0.0006046902 -0.0006302545 4.1731313e-05 2.8722023e-05
000210 4d f5 42 3a 00 94 28 3a db f8 fb 39 54 06 7b 3a
       0.00074370654 0.0006430745 0.00048059862 0.0009575833
000220 f6 a2 59 37 9f 05 e4 b7 bb aa 3b ba 21 d4 49 ba
       1.297215e-05 -2.7182336e-05 -0.0007158925 -0.0007699151
000230 17 6e a3 b9 81 06 e2 38 dc d1 c2 b9 c5 83 e3 b8
       -0.00031171806 0.00010777731 -0.0003715892 -0.000108487475
000240 35 34 07 39 e4 36 0c 3a ce da ac 38 7c 54 3b 39
       0.00012894052 0.00053487555 8.242355e-05 0.00017865183
000250 cb 66 58 b8 bb e4 85 38 0b 9b 91 38 82 12 d9 38
       -5.1594146e-05 6.3845386e-05 6.943018e-05 0.00010350814
000260 e5 b7 9d 39 aa eb 08 3a 26 7c 88 39 32 50 0b 3a
       0.00030082386 0.0005223105 0.0002603244 0.0005314379
000270 99 1a 35 ba 49 b3 df b7 4e 33 28 ba 63 32 23 ba
       -0.00069085654 -2.6667158e-05 -0.00064163364 -0.0006225465
000280 6a ca 85 3a 7e a1 53 3a 4d 96 62 39 f8 7f 3a 39
       0.0010207419 0.00080730754 0.00021609031 0.00017786014
000290 48 48 49 b4 52 63 2b 38 ef 7d fb 39 4e e8 04 3a
       -1.874588e-07 4.0862076e-05 0.00047968279 0.00050700165
0002a0 da db 8b 36 92 ca 24 37 ef 1a 7e b9 5e 84 95 b9
       4.168117e-06 9.822326e-06 -0.00024233361 -0.00028518116
0002b0 af 9e c3 b8 46 b0 d8 b8 fb 76 7e 38 57 b0 b9 b8
       -9.327882e-05 -0.00010332516 6.066913e-05 -8.854333e-05
0002c0 d2 65 5c 39 ea 9e d4 38 21 7c 8f 38 a0 76 a2 38
       0.00021018766 0.00010138548 6.841892e-05 7.7468576e-05
0002d0 7c 0c 14 b7 29 5d 37 37 31 a0 5c b7 a8 34 8a b8
       -8.824394e-06 1.09293405e-05 -1.3150319e-05 -6.590161e-05
0002e0 25 98 d2 b9 f4 c1 86 b9 1b 0e 6d b9 b6 86 9e b9
       -0.00040167678 -0.00025702978 -0.00022607336 -0.00030236476
0002f0 ef e3 07 b8 35 65 2c b8 4a 24 57 39 0b 4e f8 37
       -3.2398788e-05 -4.1102252e-05 0.00020517517 2.9600245e-05
000300 fa 7f f7 b9 94 80 18 b9 92 3a 37 b8 f0 37 3e b8
       -0.0004720686 -0.00014543749 -4.3685148e-05 -4.5351626e-05
000310 ac df 01 b7 af 77 66 39 10 21 52 b8 5d 1c 1f b8
       -7.741077e-06 0.00021979095 -5.0098693e-05 -3.793497e-05
000320 b3 17 0a 39 c4 7c 51 38 7d 24 15 b3 63 05 5a b5
       0.00013169534 4.994568e-05 -3.4724952e-08 -8.121917e-07
000330 00 f0 ab b8 2b af 22 b8 07 bd f1 38 0c 1e 5c 39
       -8.198619e-05 -3.8786948e-05 0.000115269846 0.00020992028
000340 ae 54 92 b8 c0 32 b3 37 23 d0 97 b7 2a 0a 37 b7
       -6.977595e-05 2.1362095e-05 -1.8097524e-05 -1.09100165e-05
000350 10 cd 91 39 fa 70 76 39 a1 f0 eb b8 9d 40 8d b8
       0.0002780934 0.00023502475 -0.00011250494 -6.735439e-05
000360 f0 c2 31 38 a4 1f 42 39 69 fb 9d b8 d0 98 07 b9
       4.238164e-05 0.00018513069 -7.533172e-05 -0.0001293153
000370 b8 1c 2e ba 35 8d 4a 39 3b f0 d1 39 52 4f fd 39
       -0.00066418527 0.00019316825 0.00040042572 0.0004831502
000380 d4 2c 50 b8 e8 ed 7d 39 ca d5 bb 37 23 69 db b7
       -4.9632814e-05 0.00024216587 2.239169e-05 -2.6155793e-05
000390 8a 05 90 b9 e7 af 85 b9 c1 6c af 39 62 fb a3 39
       -0.00027469947 -0.00025498794 0.0003345963 0.00031277078
0003a0 8b 5e 06 39 78 79 a5 37 b6 42 3c ba 31 9f 62 b9
       0.00012814456 1.9726096e-05 -0.00071815716 -0.00021612343
0003b0 44 33 2a b8 3d 76 0e b9 5a 17 4a 39 26 d8 ad 39
       -4.0578903e-05 -0.00013586222 0.0001927292 0.00033158174
0003c0 74 da 34 b8 1f 63 84 38 d4 38 5e b8 30 8e fd b8
       -4.3118795e-05 6.312713e-05 -5.298185e-05 -0.000120904646
0003d0 e6 05 d3 b9 1b af 9b b9 a9 93 2b b9 7e 17 55 b9
       -0.0004024945 -0.00029694368 -0.00016362839 -0.00020322014
0003e0 7e 63 6d ba e3 2d 65 ba c1 0b ed 38 f3 f1 29 38
       -0.0009055658 -0.00087424944 0.0001130323 4.0518073e-05
0003f0 84 26 07 b9 ee 6d ff 38 92 db 83 39 09 31 c2 39
       -0.00012888951 0.000121798235 0.0002514986 0.00037039098
