data/Figure3_Supplement/007/checkpoint_0002500.pth (torch, 228033 bytes, 31 tensors)

net.0.weight f4 [32, 120, 2]
000000 63 30 5e 3d be b2 e1 bc 4e e5 c0 bd 9d b2 98 3c
       0.054245364 -0.027551051 -0.094187364 0.018639857
000010 65 0e 34 3d 31 34 8b bd aa 9f 94 3c 8e 15 33 bd
       0.04395904 -0.06797064 0.01814254 -0.043721728
000020 3e 8e 13 bc 8b 4c 76 bc c0 3d be bd 55 3f 81 3d
       -0.009006081 -0.015032898 -0.09289122 0.06310908
000030 6e dc cd bc 57 1f e9 3c 5a b2 35 3c f6 d0 ea 3c
       -0.025129523 0.028457327 0.011089886 0.028664093
000040 cc 4b 6d 3d 04 ae 05 3c f7 d3 c5 3c 4a 2b 9a 3d
       0.057933614 0.008159164 0.024148924 0.07527788
000050 75 36 21 bd eb c8 68 3d 5f 86 0f 3c df 96 85 3b
       -0.039358575 0.056832235 0.008760064 0.004076823
000060 e1 d4 95 3d 95 6e 41 bc e7 ff 1e bd 82 d0 1c 3d
       0.07315994 -0.01180615 -0.038818266 0.038284786
000070 8b 7e c1 bd 46 f9 df bc 8d e1 b1 bd 11 3d 53 bb
       -0.09447964 -0.027340543 -0.086855985 -0.0032232443
000080 d5 70 56 3d 53 89 b6 bc 64 18 a1 bd b9 a3 63 3d
       0.0523537 -0.022282278 -0.0786598 0.05557606
000090 3c ae 5f bb f7 87 4a 3c ea ee 19 3d df 00 12 3d
       -0.0034130951 0.012361518 0.03758136 0.035645362
0000a0 8c 01 71 ba 5e d3 83 3d 0c e3 31 3d 91 90 0e bd
       -0.0009193651 0.064367995 0.04342942 -0.034805838
0000b0 71 2c c1 3d 6d fd fb 3c 35 55 a2 bd 82 7b 20 bd
       0.09432305 0.030760491 -0.07926408 -0.039180286
0000c0 00 c1 63 bd b4 72 00 3c 87 d8 fb b7 04 38 84 bb
       -0.05560398 0.007839847 -3.002236e-05 -0.004034998
0000d0 75 0f 4a bd f0 a2 90 3c 37 48 43 3d a0 dd 26 3e
       -0.049331147 0.01765582 0.04767629 0.1629548
0000e0 1b 7d 0b 3e e0 78 37 bd be 4f 26 3b 8f cc 86 bb
       0.13621943 -0.04479301 0.002537712 -0.0041137408
0000f0 3f 35 8b bd 32 1b 87 bc 23 5b b8 3c dc 21 fb bd
       -0.06797265 -0.01649246 0.022504395 -0.122623175
000100 23 47 6e bc b7 5f 67 bd fd c5 1f 3c ba 91 30 3d
       -0.0145433275 -0.056487765 0.009751794 0.043107726
000110 9e 24 c8 bb 72 00 ef 3c 85 c0 3c bd d8 d9 02 3c
       -0.0061078807 0.029175017 -0.04608204 0.007986508
000120 2e 86 28 be cf 13 20 3d 2d c8 3e 3d d7 89 1c 3c
       -0.16457435 0.03908139 0.04657762 0.009554348
000130 15 0b e0 bd b4 5f 64 bc 93 82 94 bc 39 ce ae 3c
       -0.10939614 -0.013938833 -0.018128669 0.021338569
000140 0a 22 c6 3c 68 85 c0 3c 58 8c e3 bc 25 49 a7 3c
       0.024186153 0.023501113 -0.027776882 0.02042062
000150 32 85 61 3c e3 36 19 3d 3e 28 87 3d 21 1e ea bc
       0.013764666 0.03740586 0.065994725 -0.02857882
000160 f3 f5 8a 3c b7 a2 09 bd 28 82 0a be e4 ec 7f bd
       0.01696298 -0.033602443 -0.13526213 -0.062481776
000170 34 38 e9 3c b1 5f f9 3d 33 e6 d6 bb 00 d3 08 3c
       0.028469183 0.12176455 -0.0065582036 0.008351088
000180 1c c3 3e bd dc b6 54 bd 69 7a 93 3d b5 27 34 3d
       -0.04657279 -0.0519322 0.07201082 0.04398318
000190 b8 ca b3 bc 23 b3 8c bd ee 9c 44 3d f9 d2 2f 3d
       -0.02194725 -0.06870105 0.048001222 0.04292581
0001a0 30 4b 51 bd 4b e7 85 bd 1a e8 6f 3d df e9 3c 3d
       -0.051097095 -0.06538256 0.05857096 0.046121474
0001b0 d1 1f 38 3d 98 c0 7c bd 6f b9 20 3c 90 69 26 bd
       0.044952217 -0.06170711 0.009809836 -0.040628016
0001c0 73 e0 23 bd 51 0b 49 3c 8c fb ac bd 9c 58 ac 3c
       -0.040008973 0.012270764 -0.08446416 0.021038346
0001d0 5a 55 98 3c c0 d4 89 3d 9a 3f 30 bd 0b 24 7e 3d
       0.018595386 0.06730032 -0.043029405 0.062046092
0001e0 6d ec ce bc a0 90 ae bb 65 0f 62 bc 41 e2 5c 3d
       -0.025259221 -0.0053272992 -0.013797616 0.05392671
0001f0 47 fe 98 3d 90 04 ef 3c 5e b2 94 3d a0 fe 80 3d
       0.074703746 0.02917698 0.07260583 0.06298566
000200 84 e6 3d bd 7e bb 30 bd b9 d9 f1 bd 75 59 49 3c
       -0.046362415 -0.043147556 -0.118091054 0.012289395
000210 9b af e0 3b db b7 9c 3d 02 aa ac bd 5c 51 ae 3d
       0.0068568713 0.07652255 -0.08430864 0.08511612
000220 73 5e 3b 3d 72 3e 66 bd 75 31 86 3b 30 98 8a bd
       0.04574437 -0.056211896 0.004095251 -0.06767309
000230 3c d9 d5 3d 17 d5 55 bd 5c de 3f 3c 20 1a 2a bd
       0.10441825 -0.05220517 0.011710729 -0.04152882
000240 4e f3 5e bc 90 f7 2c bd 76 30 ea 3c 99 e1 86 3c
       -0.013607813 -0.04222828 0.028587561 0.016464995
000250 30 aa a5 3b 1c 4e cf 3c dd bd 43 be 67 02 80 bc
       0.0050556883 0.0253058 -0.19115396 -0.015626146
000260 a8 cd 7e bd ba 7b 84 bd 19 6f 03 bd a8 9a 19 bd
       -0.062207848 -0.064689115 -0.032088373 -0.037501007
000270 a8 0a 26 bd 4e d9 a3 3c d1 73 54 be 58 86 20 be
       -0.040537506 0.02000108 -0.20747305 -0.15676248
000280 8a 43 1f bd 50 54 99 bc 1e 4f 05 3c 89 eb 35 bc
       -0.03888277 -0.018716961 0.008136539 -0.011103519
000290 26 49 c3 3c 79 3c 0c 3c 02 f4 a7 bd da 9a 79 3d
       0.02383859 0.00855934 -0.08200838 0.060938694
0002a0 2a c4 93 3c 08 e6 69 3b 8e fb b3 bc f7 65 84 bd
       0.018037874 0.0035690088 -0.021970537 -0.06464761
0002b0 20 82 09 3d 86 8f 65 bb 41 9e 79 3c 89 a3 61 bc
       0.033571362 -0.0035028174 0.015235485 -0.0137719
0002c0 5f 58 3f bd b6 05 73 bc db 1a 43 bb 9f 0a d3 bc
       -0.046715137 -0.014832905 -0.0029770646 -0.0257619
0002d0 67 27 83 3d 6a 93 78 bd ad cd f1 bd 8c a1 e7 bd
       0.06404 -0.06068746 -0.11806808 -0.113101095
0002e0 2e 71 6f 3d 12 9c af 3c 3f d9 dd bc fe 5d 31 bd
       0.058457546 0.021436725 -0.02708113 -0.04330253
0002f0 17 02 8a bd b3 17 16 bd 90 8d d2 bc 59 a1 bd 3c
       -0.0673868 -0.036643695 -0.025702268 0.023148226
000300 23 40 7c bd d4 73 c8 3d 71 3c 88 39 d6 86 bf 3c
       -0.061584603 0.097877175 0.00025984974 0.023379724
000310 fb 56 67 3c 91 2c e4 3c bf ac 79 bd e0 f8 60 bd
       0.014119859 0.027853282 -0.06095576 -0.054924846
000320 be 0e 72 3c 41 2c c0 3d ff b2 87 bc 4d be 48 bc
       0.014774023 0.09383441 -0.016564844 -0.0122524025
000330 8d 2a 61 3d 1c 9d 6a 3d d2 a3 61 bd 4b 76 f3 bd
       0.05497222 0.057278737 -0.05508787 -0.11887797
000340 25 8f da 3c 92 2e 33 3d 55 f9 87 3d 1e ba 73 3d
       0.026679585 0.043745585 0.06639353 0.059503667
000350 42 89 b8 3b 88 d1 88 bd 8e 37 bf bc 31 6c 05 3c
       0.005631597 -0.0668059 -0.02334192 0.008143471
000360 7f 29 83 3d 80 c4 80 3d 65 3e 6a bd aa 6d 52 3d
       0.06404399 0.062874794 -0.05718841 0.051374115
000370 9a 76 f7 bc c8 af 71 bd b9 fc 07 bd 3c e1 4e 3d
       -0.03020792 -0.05900553 -0.0332 0.05050777
000380 c3 ab a9 bc 42 79 f7 3c a2 eb 8a bb d4 60 ab 3c
       -0.020711785 0.030209187 -0.0042395154 0.020920195
000390 7f 3d d8 bb cc 80 f2 bd 03 5f a8 bc dd 26 c8 bd
       -0.006599128 -0.11840972 -0.020553118 -0.097730376
0003a0 2e 35 42 3d b4 87 9a bc ed 35 01 3d a2 97 95 bc
       0.047413997 -0.018863536 0.03154557 -0.01826078
0003b0 b3 11 18 3c 0d b4 ce 3b 02 49 03 be 9e a2 b2 bc
       0.009281564 0.006308085 -0.12820819 -0.021806058
0003c0 89 2e c6 bd 3f 42 9d bc c7 45 36 3d 2c 8c fc 3c
       -0.096768446 -0.019196628 0.04450014 0.030828558
0003d0 04 27 38 3d d9 a5 34 bd a9 bb 3e bc fd 3a b5 3c
       0.044959083 -0.044103477 -0.011641421 0.022122854
0003e0 a8 09 69 bc 61 06 01 3d c3 3b 91 bb 26 11 c0 3c
       -0.014223494 0.031500224 -0.004432173 0.023445677
0003f0 85 53 28 3d e3 ce 4d 3d af a5 fb 3c 46 4d 3a 3d
       0.041095275 0.05024613 0.030718653 0.04548385

net.0.bias f4 [32]
000000 bd ff 32 3d 17 6a 1c 3d 50 4b 65 3b bc cd 74 ba
       0.043700922 0.038187113 0.0034987517 -0.0009338518
000010 8f 48 a5 bd 67 66 83 bc 12 6b c3 bb 2f ac 41 3d
       -0.0807048 -0.01604004 -0.0059636915 0.047283348
000020 6f f2 55 3c 11 da 64 3d ac 09 94 bc f0 77 72 bc
       0.013058289 0.055872027 -0.018071018 -0.014799103
000030 d3 80 51 3d b1 1f 17 bd 8c 57 4a 3d d2 38 19 bd
       0.051148247 -0.036895458 0.049399897 -0.037407704
000040 69 f0 8d 3c f6 ad b7 3b 6c 30 51 bd 2f 52 29 3d
       0.01732655 0.0056054546 -0.05107157 0.041338142
000050 ef cd 2c 3d 72 9f 36 bd 48 07 49 bd d9 dd 86 bd
       0.04218858 -0.044585653 -0.04907921 -0.06585283
000060 38 30 30 bd 7a fc 9d bc a3 75 4e 3c 2c 07 35 3d
       -0.043014735 -0.01928543 0.012601289 0.044196293
000070 f2 6f 7d bc ba 36 08 3d e2 ec 51 bd bf 03 ed 3c
       -0.015468584 0.033255316 -0.0512513 0.02893245

net.2.module.0.weight f4 [32, 32, 3]
000000 0a 8f 2f 3e 43 8f 77 3d 3b a8 e6 3d 05 a2 31 3d
       0.17144409 0.06043936 0.11262556 0.043367404
000010 7c d2 c5 3d e8 c7 f0 bd 83 12 9f bd e6 95 8f bc
       0.09659287 -0.11756879 -0.07767203 -0.017527532
000020 bb b1 6f 3d 5c c2 db 3d 72 27 de 3d e3 c7 aa 3d
       0.058519106 0.107304305 0.10847367 0.083389066
000030 d6 e1 e9 bd 91 bc da bc 4d 5f 4c bd 44 f7 23 3d
       -0.11420028 -0.026701244 -0.049895573 0.040030733
000040 2a 65 33 3d 68 a5 a6 bc 8f 96 01 be 9c 19 3a 3c
       0.04379765 -0.020342544 -0.1265509 0.011358645
000050 ef 8b ea 3c 9d 87 5c 3e 7a d8 6f 3d dd 39 f9 3d
       0.028631179 0.21536107 0.058556058 0.1216924
000060 c2 4b 93 3d 1b 5c 3d 3d 94 ca 7b 3d be 15 96 bc
       0.07192184 0.046230417 0.06147249 -0.018320914
000070 a9 b9 1e 3d 81 6f b8 3d 8d a0 cf bd 65 0a 9c 3d
       0.038751278 0.09005643 -0.101380445 0.0761917
000080 d5 d7 7b bd df 49 7f bc 84 d0 cd 3d 03 cf 5a bd
       -0.06148513 -0.015581577 0.10049537 -0.053420078
000090 47 d4 02 3e c5 32 ad 3d fb 32 07 bd 18 55 15 bc
       0.1277629 0.08456949 -0.033007603 -0.009114526
0000a0 2c 23 a2 3d 10 73 d5 3b b0 56 4d be ac 55 db bd
       0.07916865 0.0065139607 -0.200526 -0.107097
0000b0 d6 4d 9f 3d fc bf 3b 3d ad 8d e6 3d 5b 10 44 3d
       0.07778518 0.045837387 0.11257491 0.04786716
0000c0 b2 99 ae bd af 65 28 3d c4 ce 69 bd af fa ca bc
       -0.08525409 0.041112598 -0.057081953 -0.024777738
0000d0 ed ef 36 3e 7a 2e 5b 3d a3 5f d5 3d f4 29 9f bc
       0.17864962 0.05351112 0.10418632 -0.019429184
0000e0 93 2c 00 be 6a 42 f9 bc 0b 76 9b bd d3 45 86 3c
       -0.12517004 -0.030427177 -0.07590874 0.016390717
0000f0 cf b8 2d 3d de ca 49 bb ba b8 97 bc 5f 8b e7 3a
       0.042412575 -0.0030791084 -0.018520702 0.0017665437
000100 01 d5 88 3d 1d 3e 36 3d 03 f4 84 bd f2 98 2d 3c
       0.06681252 0.04449283 -0.06491854 0.010595547
000110 1e a8 45 bc 2f 10 e0 3d f8 23 b9 3c 39 34 cf bb
       -0.012064008 0.10940587 0.022600159 -0.006323364
000120 e2 6b ae 3d 93 60 83 bc 69 fd 5c bb 28 c1 89 bd
       0.08516671 -0.016037261 -0.003372038 -0.06726295
000130 c5 49 2a bb 3c a9 a0 bc 25 e9 7c bd e6 4d ad bd
       -0.0025983911 -0.019611947 -0.06174578 -0.084621236
000140 92 63 16 be ea ec 00 be 85 70 d4 bd 3d e1 d5 bd
       -0.1468642 -0.12590376 -0.10373024 -0.104433514
000150 95 de 3e 3e fd ac 1e 3c 96 c7 83 3d 52 5d 53 bd
       0.18639596 0.009684798 0.06434552 -0.05160267
000160 09 ff a1 bc 06 cc 5f 3d 93 f0 99 3d 87 f2 c1 3d
       -0.01977493 0.05463793 0.07516589 0.094700865
000170 be 47 ac 3d f8 dc b3 bd 94 60 dc 3d f4 28 ee bc
       0.08412121 -0.08782381 0.10760608 -0.029072262
000180 c4 25 1a 3d d0 c4 ae bd d5 20 e0 3c 78 67 6d bb
       0.037633672 -0.08533633 0.027359406 -0.0036225002
000190 54 0c 9e bc 60 87 6d 3e 8d 4e 30 be 42 89 92 bd
       -0.019292988 0.23196173 -0.17217465 -0.07155086
0001a0 3a 4e 7d 3d 83 7e ac 3c 85 7a d6 bd 2d 6b 99 bc
       0.06184218 0.02105642 -0.104725875 -0.018727863
0001b0 df a9 03 be b0 10 b5 bd 5a 88 37 be a9 47 ae bc
       -0.1285777 -0.088410735 -0.17923108 -0.021274405
0001c0 50 56 22 bd ac c6 4f 3e 3e 87 f7 bd 7c 25 e7 bc
       -0.039633095 0.20290631 -0.12086342 -0.028216116
0001d0 e8 11 a1 bd 84 9e 4a bd 09 70 9e 3d dd 2c 14 be
       -0.078647435 -0.04946758 0.07736213 -0.14470239
0001e0 c8 e5 72 3d 81 ca df bc 2a 9f b5 3c 9f b1 b3 bd
       0.059301168 -0.027318241 0.022170622 -0.08774113
0001f0 fc 5d 79 3d 0f 20 e0 3c a2 19 69 3d 64 ce 30 3d
       0.060880646 0.027359037 0.05690921 0.04316558
000200 ec 93 54 3d 29 78 13 bd 56 6a de 3c 9f 64 89 3b
       0.05189888 -0.036003266 0.027150314 0.004192903
000210 49 e4 13 bd bd 12 2a 3d d4 82 95 bc fb 56 b8 bb
       -0.03610638 0.041521776 -0.01825086 -0.0056256033
000220 08 dd b7 bd dd bc fc bd d6 de e5 3c c9 95 63 3d
       -0.08977705 -0.1234071 0.028060358 0.055562768
000230 60 7a ac 3d fd e3 19 be 67 e4 4f bd 19 ff b8 bc
       0.08421779 -0.15028377 -0.05075493 -0.022582578
000240 40 9e 56 3d 5a e6 a1 3d 80 94 1c 3e 92 21 82 bc
       0.052397013 0.07905264 0.15291023 -0.015885148
000250 ef fc 66 3d 06 fe 12 3d 35 69 97 3c 1a a2 e2 3c
       0.05639356 0.035886787 0.018482784 0.027665187
000260 3e 01 42 3e 7d ea c0 3d f4 2a 30 bd 5d 6a d8 3d
       0.18945786 0.09419725 -0.043009713 0.10567162
000270 02 dc 81 3d ea 4b f8 b9 c0 54 ed bc 0f 1c bf bb
       0.06340791 -0.00047358806 -0.028971076 -0.0058322023
000280 05 72 93 3d 2a b6 ed 3d 79 31 28 bb f5 72 bc 3d
       0.07199482 0.11607011 -0.0025664254 0.09201614
000290 16 61 46 3d d9 3b 4f bd 53 a0 e5 bd 93 10 ec bd
       0.048432432 -0.050594185 -0.1121222 -0.11526599
0002a0 5a e9 d4 bd e0 56 d1 bd a4 b0 2b bb 24 94 63 3c
       -0.10396071 -0.10221648 -0.0026197815 0.0138903
0002b0 71 4b ac bd 9d 96 86 3b fb bf 28 bd 55 b9 28 bd
       -0.08412827 0.00410731 -0.04119871 -0.04119237
0002c0 44 c2 13 bd 45 02 c5 3d 9e 6a de bb 4b f7 3d 3e
       -0.036073938 0.096195735 -0.006787612 0.18551366
0002d0 a1 81 f1 3d 52 f4 80 3d 71 fb 03 3e 48 43 a6 3b
       0.11792303 0.062966004 0.12888886 0.0050739385
0002e0 e2 d1 46 3d af 4f 21 3e 61 21 1a 3d 49 5f 15 bd
       0.048540004 0.15753053 0.03762949 -0.036467824
0002f0 d2 2f fe bd f6 b3 90 bd 75 c4 bd bd 79 db 91 bc
       -0.12411465 -0.07065575 -0.09265987 -0.017804848
000300 38 0b 1c be b9 6a 69 bd 95 26 0e 3b ea 57 01 be
       -0.15238655 -0.056986544 0.0021690477 -0.12631193
000310 b8 fe c3 3c 29 8e a9 bd a0 9b 11 3d 4c 50 5b bd
       0.02392517 -0.08279068 0.035548806 -0.053543374
000320 99 3d 5d bc 1c 8a 14 be 2a 92 d3 bd 12 63 ca bd
       -0.013503456 -0.1450581 -0.10330613 -0.098821774
000330 e5 57 56 3d 7c d9 7d 3c ad d4 8c bc 4f 4d 8e 3d
       0.052329917 0.015493747 -0.017191255 0.06948339
000340 fb ac 63 bb 6a 86 8b 3c 56 f7 14 3e 04 90 92 bd
       -0.0034740556 0.017031867 0.14547476 -0.07156375
000350 f8 ed 25 3e 7f 56 4f bd 97 10 67 bd 3f 9b b4 bd
       0.16204059 -0.0506196 -0.056412306 -0.08818673
000360 98 eb 87 3d b2 cd 94 3d 7e cd e5 3c 80 21 8c 3c
       0.06636733 0.07265796 0.028052088 0.017105818
000370 e2 88 dc 3a 1f 06 c9 bd 6e 6b 28 bd c3 52 da bd
       0.0016825462 -0.09815621 -0.041118078 -0.10660317
000380 8b 84 48 bc 1f 4f 53 3b 0d a8 0b bc f2 d5 91 bd
       -0.012238632 0.0032243205 -0.008523953 -0.07120885
000390 76 32 99 bd 5a f5 99 3c 4d 45 8d bd f5 19 af 3c
       -0.07480328 0.01879375 -0.06897984 0.021374682
0003a0 90 c0 2f bd 31 1f c0 bc 90 a4 0d 3d f6 42 b8 bd
       -0.04290825 -0.023452373 0.034580767 -0.08997147
0003b0 6d 50 ca bc 58 24 a6 bd 43 2a 29 3c 02 66 a4 bd
       -0.024696553 -0.08112401 0.010325017 -0.08027269
0003c0 15 04 d4 3c 9e 22 f6 bd a6 7b 97 bd 45 59 db bd
       0.025880853 -0.120183215 -0.07396631 -0.10710386
0003d0 13 18 c3 bc 9b ae 76 3d 20 af fd bd 4c 2f 91 3d
       -0.02381519 0.06022511 -0.12386918 0.07089099
0003e0 3b c4 d5 bd 5d 56 87 3d 00 16 8b bd a2 eb 5c 3d
       -0.104378186 0.06608269 -0.067913055 0.053935654
0003f0 da 18 80 bd 9a 81 06 be ad 03 20 bd bd 67 0e be
       -0.0625474 -0.13135377 -0.039066005 -0.1390676

net.2.module.0.bias f4 [32]
000000 fb 9e 55 3d 4b e3 97 bd 9b 61 e5 bc 7d fa 5b 39
       0.05215357 -0.074163996 -0.028000643 0.00020978782
000010 27 26 23 3d ba 8e 8e 3d 16 e7 ef 3d ba 47 a2 3c
       0.039831307 0.06960817 0.11713998 0.019809593
000020 b0 f2 7d 3d 0f 86 4f 3d 74 77 a9 3d dc 47 90 bc
       0.061999023 0.050664958 0.08274737 -0.01761239
000030 99 27 99 3d af 46 c3 3d 82 c8 dc 3a 79 10 bb 3b
       0.07478256 0.09534966 0.0016844424 0.005708751
000040 ca 1b fc bc f0 59 df 3d 45 ff 75 3d 8d bf 79 bd
       -0.03077497 0.10905826 0.060057897 -0.060973693
000050 7f 1a 32 ba 66 2e 62 3d 38 d5 9c bd 3a ec 82 bd
       -0.00067941094 0.05522003 -0.07657856 -0.06392713
000060 ab d9 92 3d b8 b0 8b bd 97 f4 f8 bb 48 78 0c bd
       0.07170423 -0.06820816 -0.0075975168 -0.034294397
000070 ba 13 bd 3c a6 1c 86 3d 64 5c b3 bd 2b 8c 35 bd
       0.023080695 0.06548433 -0.087578565 -0.044323128

net.3.module.0.weight f4 [32, 32, 3]
000000 95 fa 60 3e 46 65 18 bd 62 e6 c8 3d 31 21 f3 3d
       0.2197059 -0.037205957 0.09809567 0.11871565
000010 39 68 37 3d 86 e6 08 be 59 9e c5 bd f9 a8 ca bd
       0.04477713 -0.13369188 -0.09649343 -0.0989551
000020 74 1f 9e bd de 8d 08 3e 3a 1f 05 bd ab 8d 45 bd
       -0.07720843 0.13335368 -0.032500483 -0.04823081
000030 7d 6b 9b bd 36 da 98 bd e0 84 95 3b 2b 79 af 3c
       -0.07588861 -0.074634954 0.004562959 0.021420082
000040 a6 cd c9 3c f0 8b 64 3d d3 3e cd bb 64 d1 a5 3d
       0.024634194 0.055797517 -0.0062635927 0.08096579
000050 34 d6 16 bd 67 a9 83 3d cd fc 3c 3d dc 72 ea 3d
       -0.036825374 0.06428795 0.046139527 0.11447689
000060 23 fd bd 3d 95 43 ed 3c bb 72 e2 bc 01 dc 7c 3d
       0.092767976 0.02896289 -0.027642598 0.06173325
000070 74 b6 0d 3e 5f 6a 25 be 3b cb aa bd 5e 42 97 3d
       0.13839132 -0.16153859 -0.083395444 0.073857054
000080 12 0f 92 3c e2 83 98 bd 8d 81 5b 3c ab 75 07 3e
       0.017829452 -0.0744703 0.0133975865 0.1322848
000090 9b c8 32 3d 8a f0 2e bd 00 81 5a 3e 47 26 9b 3d
       0.043648344 -0.042709865 0.21338272 0.0757566
0000a0 8f 7b 86 3d 69 2e 09 3e cf 63 12 be 69 fc 84 3d
       0.06566536 0.1339661 -0.14295886 0.06493456
0000b0 ae a3 31 bc 4d 70 8d 3d 07 fa 11 3d 03 b9 23 bd
       -0.010842247 0.06906185 0.035638835 -0.039971363
0000c0 ad 85 37 bc 25 f4 32 bc 82 90 a9 bd 78 a4 28 3e
       -0.011201304 -0.010922466 -0.08279516 0.1646899
0000d0 20 e1 a7 3c d8 eb 3a 3d 93 b9 16 bd 32 9d fb 3c
       0.02049309 0.045635074 -0.03679807 0.030714605
0000e0 b6 4f b4 3d 32 fe 2d 3c ee 85 2f bd 32 e4 1d be
       0.08804266 0.010619687 -0.042852335 -0.15419081
0000f0 90 56 15 3e 05 9e ed bd 27 9f b4 3d 73 04 54 3d
       0.14583802 -0.116024055 0.088194184 0.051762056
000100 37 3c e2 3c 56 03 25 be 16 01 15 bd 25 4c 42 bd
       0.027616603 -0.16114554 -0.03637799 -0.0474359
000110 63 1b 1b 3d 3e 94 13 3e 21 80 4f bd c3 62 c8 bd
       0.037867915 0.14412019 -0.050659303 -0.09784462
000120 59 32 73 3c fa 39 f7 3b 95 d4 fe bd 04 a6 fe bc
       0.014843547 0.007544753 -0.124428906 -0.031085022
000130 b1 e7 11 be ff d5 e8 3d b4 bd a9 bc ff e8 6e bd
       -0.1424854 0.113689415 -0.02072034 -0.05832767
000140 8e ee d2 bd 90 63 35 bb aa c6 71 3d a2 ca 06 be
       -0.10299407 -0.0027677752 0.05902735 -0.13163236
000150 cf 80 25 3c 25 c5 63 3c 7c 13 da bd 9e 74 d7 bd
       0.010101511 0.013901983 -0.106482476 -0.1052029
000160 ec 1d cb bd 44 7a 06 be fd 23 ab bb 52 0d e2 bd
       -0.099178165 -0.13132578 -0.005222796 -0.11037697
000170 83 17 83 bd 73 bf a0 38 d5 72 1c bd b5 a1 fa ba
       -0.06400969 7.665055e-05 -0.03819545 -0.0019121679
000180 8c 5c 63 3d b9 27 06 3c 83 a1 68 bd 00 15 a0 bc
       0.05550818 0.008188182 -0.056794655 -0.019541264
000190 22 e2 bc bd 6e 2e 51 3e 72 8f d3 bc 3e 96 cb bd
       -0.09222819 0.20427868 -0.025825236 -0.09940766
0001a0 4e 44 c4 bd b5 c5 56 bd 48 c0 b2 bd d7 f8 e2 bd
       -0.095833406 -0.052434642 -0.08728081 -0.11082619
0001b0 07 b4 30 be 8e bf 93 bc ec 25 7a bd 76 a2 d8 ba
       -0.17256175 -0.018035676 -0.06107132 -0.0016527909
0001c0 2c 6d ac 3d 36 40 4b 3e c8 d4 f2 bd 08 8c e5 3d
       0.084192604 0.19848713 -0.11856991 0.112083495
0001d0 1a cf 8b bd 32 52 ea 3a a1 5d b2 3d 51 f5 81 be
       -0.06826611 0.0017877279 0.087092645 -0.25382474
0001e0 5f f7 7e 3b 1c 52 06 be f8 4f 2e 3e 38 96 28 3d
       0.003890477 -0.1311726 0.17022693 0.041158885
0001f0 c7 39 1c 3d 47 65 19 3e 52 4d a3 3d 2b 30 61 bd
       0.03814104 0.1498004 0.07973732 -0.054977577
000200 2d 92 fe 3c 15 95 c8 3d b0 91 c1 bc 7c 5e be 3a
       0.031075561 0.0979406 -0.02362904 0.0014524008
000210 a1 7c 3d 3d 6b 42 96 3c f8 c8 67 bd 45 7e 7a bd
       0.046261434 0.018342217 -0.056588143 -0.061155576
000220 e9 76 5f bd 2d d6 81 be 9e a9 e6 3d 01 a3 b7 bc
       -0.05455676 -0.25358716 0.11262821 -0.022416594
000230 83 01 40 3e e4 60 5f bd d6 47 7f bd df a6 be 3d
       0.18750577 -0.05453576 -0.062324367 0.09309172
000240 a2 f7 9d 3c c0 18 32 bd f5 20 83 3c 51 05 34 3d
       0.01928312 -0.043480635 0.016006926 0.043950383
000250 a9 53 b9 3d b7 be ac bd 42 a9 cf 3d 7e 4f f0 3d
       0.0904916 -0.084348135 0.10139705 0.11733912
000260 6b e5 9a 3d e0 17 b3 3d 8d 90 de bd a7 ca aa 3c
       0.07563289 0.08744788 -0.108674146 0.020848585
000270 09 56 7c bd f9 ff a4 bd e6 33 e2 3c 66 6c f9 bb
       -0.061605487 -0.080566354 0.027612638 -0.007611799
000280 09 e5 42 bd fd 54 2e 3e 87 42 3d bd f5 85 c5 bc
       -0.047581706 0.17024608 -0.046206024 -0.024111727
000290 7e aa 2b 3d 36 ea 9e 3d 68 e2 8c bd 5d 0a 07 3e
       0.04191064 0.07759516 -0.06879121 0.13187547
0002a0 04 c3 d6 bd f3 56 cc bd 29 cb 28 3d 5a a4 eb bd
       -0.10486415 -0.09977522 0.041209374 -0.11505957
0002b0 22 e3 7d 3d 28 ee 92 bd 63 64 a8 3d f3 57 11 bd
       0.06198419 -0.07174331 0.08222272 -0.035484266
0002c0 45 cc 03 3e ee 55 ae 3d c7 12 01 3e 45 6e 81 3e
       0.12870891 0.085124835 0.12604819 0.2527944
0002d0 15 e2 64 bd 72 b9 7f bd ce a1 27 3c 3c 85 ad bd
       -0.05587967 -0.062432714 0.010231448 -0.08472678
0002e0 a5 ee 38 bd 29 18 68 3d 9a 75 41 3c dd da 8d 3a
       -0.045149464 0.056663666 0.011807824 0.0010822673
0002f0 04 9d d9 3d 55 8b 62 bd 5f 30 cb 3c ef ea e3 ba
       0.106256515 -0.05530866 0.024803339 -0.0017388741
000300 33 cd c0 bd 31 5b 3f 3a fb 07 b9 bc e0 49 d3 bc
       -0.09414139 0.00072996604 -0.022586813 -0.025792062
000310 28 10 c9 bd 10 08 97 3d 6b 54 f4 3d 34 7e 3c bd
       -0.09817535 0.07374585 0.11930164 -0.046018794
000320 c1 6a 1a 3e 43 f0 93 bd 02 21 91 3d 62 f6 89 3d
       0.15079786 -0.07223561 0.07086374 0.06736447
000330 13 66 5a 3d 24 81 a4 3d 96 e7 84 3d 0a 99 25 bd
       0.05332 0.08032444 0.06489484 -0.040429153
000340 5c d9 e1 bb 27 e0 82 bd 0c 12 8f bc ef c4 59 bc
       -0.0068923663 -0.0639041 -0.01746466 -0.0132915815
000350 0e 3e 6e 3d ab d3 d5 bc c4 19 ee 3d 9d e4 6c bd
       0.05816465 -0.026101908 0.11626008 -0.05783521
000360 c3 a2 2a 3b 87 04 fc 3d ce 5b ce b9 29 a1 e0 bd
       0.0026036955 0.12305551 -0.00039359782 -0.10968239
000370 99 13 11 bd d2 8d 13 bd a5 05 4d bd f4 0f 30 3d
       -0.03541908 -0.036023922 -0.05005421 0.042983964
000380 fe 19 9c bd 0c b4 c2 bc 35 b6 9e 3d 45 ee 6c 3d
       -0.07622145 -0.023767494 0.07749597 0.05784442
000390 76 40 0f 3d df bc 04 3e 89 fd 86 bd 6e d1 86 3d
       0.034973584 0.12962674 -0.06591327 0.06582914
0003a0 6d 28 48 3c af 27 dc bb 47 11 7f bd 00 95 b2 3d
       0.0122166695 -0.006718598 -0.062272336 0.08719826
0003b0 d6 d3 00 3e 57 ee fd bc c6 80 6d 3d 3e ae 22 be
       0.12580809 -0.030997438 0.057984136 -0.1588678
0003c0 9e 24 2d be ae 6d f1 bd cb 01 2e bd 63 4c 84 bc
       -0.169085 -0.11788498 -0.04248218 -0.016149705
0003d0 34 1d ee bc 18 91 d2 3d 59 6d 21 be 3f 09 cd bd
       -0.02906666 0.10281581 -0.15764369 -0.10011529
0003e0 d1 a0 4d bc e7 d2 0e be ed 5e 28 bc e6 b9 3c 3c
       -0.012550549 -0.1394764 -0.010276538 0.011518931
0003f0 ba 46 14 be e4 dc 5a bd 60 6d 60 3c 6c 94 77 bc
       -0.14480105 -0.053433314 0.013697952 -0.01511107

net.3.module.0.bias f4 [32]
000000 7c 5a 2e bd f3 ca 89 bd 57 a9 97 bd b3 d6 89 bc
       -0.04256676 -0.067281626 -0.07405346 -0.01682601
000010 4c dd b8 3d 87 e9 a1 3d 0b a1 60 3d a4 9c 58 3d
       0.09026584 0.0790587 0.054841083 0.05288376
000020 b7 c3 cf bc 06 9b 0d 3d 7c e4 cf 3c 0b 3e b6 3d
       -0.025361879 0.03457167 0.025377505 0.088985525
000030 60 05 ec 3d 51 42 b9 3d e9 0f 8f bd 6a 0d 41 bd
       0.11524463 0.09045852 -0.069854565 -0.047131933
000040 39 fb 0e bd 30 55 48 3d 5f 15 3d bc 52 7d a9 3d
       -0.034907553 0.048909366 -0.01154074 0.08275856
000050 a4 08 41 bd 67 ef 8e bc 4d a6 f7 3b 17 f8 a1 3d
       -0.04712738 -0.01744814 0.0075576664 0.079086475
000060 7a f9 23 bd 20 25 ba 3d 2a 58 67 bd 46 ef 0a bd
       -0.04003284 0.09089112 -0.056480564 -0.033919595
000070 a9 c8 8a bc 73 3a 99 3b f8 21 99 3d 4a 4d 74 bd
       -0.016941385 0.004676157 0.07477182 -0.05964402

net.4.module.0.weight f4 [32, 32, 3]
000000 e1 fe 0c be e3 e8 3b be 3f 3f ad bb 59 e7 7f 3d
       -0.13769104 -0.18350558 -0.0052870805 0.06247649
000010 5b 47 29 3d 99 c8 30 bd 87 19 fa 3d b1 4b 81 bd
       0.041327816 -0.043160055 0.122119 -0.06313265
000020 56 58 05 bd 8a 46 c1 bd 84 fb 7b bd e7 c5 b1 3d
       -0.032554947 -0.094372824 -0.06151916 0.08680325
000030 b0 76 c0 3c 86 fb 06 bd c1 6e b0 3d 2f 96 03 3e
       0.023494095 -0.032954715 0.08614875 0.12850259
000040 d7 5e eb bd e6 c9 0f 3d 14 33 83 3d dd 4d ac 3d
       -0.11492699 0.035104655 0.06406227 0.08413289
000050 1c fd a4 3d 7b 22 bc 3c df 3c 05 be 8e cf c1 bd
       0.08056089 0.02296566 -0.13011502 -0.09463416
000060 d1 f2 d5 bd e8 cb be 3d 7a 5d b6 bd 54 03 0a 3d
       -0.10446704 0.09316236 -0.08904548 0.03369458
000070 b8 59 9d bd e8 10 e7 3c 2d c7 83 bd 7e 68 97 bd
       -0.07683128 0.028206304 -0.06434474 -0.07392977
000080 7f 2b d1 3c a7 2c 8d 3c 50 c0 f3 bd 62 f8 c3 3d
       0.025533436 0.017233206 -0.11901915 0.0956886
000090 4d 2a 05 be 18 df c6 3b b6 61 fc 3c da ba f0 3d
       -0.13004418 0.0060690753 0.030808311 0.11754389
0000a0 43 83 38 bd 0d 5d ad 3d 96 82 5e bb fb 3d 75 3d
       -0.045047056 0.08465014 -0.0033952347 0.059873562
0000b0 95 29 77 bc 85 f7 86 bd 8b b2 a5 bd c6 03 16 bd
       -0.0150855975 -0.06590179 -0.08090695 -0.036624692
0000c0 dc a2 a3 3d 94 76 ac bd 0c 71 82 3d 2b 36 f8 bd
       0.07990047 -0.084210545 0.06369218 -0.12119707
0000d0 e5 fd 31 3d fc ab 8f bd 32 b0 bf bd 0d 56 d1 bd
       0.043455023 -0.07015225 -0.093597785 -0.10221491
0000e0 84 9b 9e 3d f1 66 98 bb 4d 2a 88 3d 34 43 c5 bc
       0.07744506 -0.0046509434 0.06648693 -0.024079897
0000f0 91 3f 9a bd 6f ad a2 3c 2b ff b0 bd ad c7 ac bc
       -0.075316556 0.01985809 -0.086424194 -0.021091307
000100 02 7e 91 3d e3 aa 88 3c 2e 14 a7 3d 36 64 2d 3d
       0.07104112 0.016683048 0.08158146 0.042331897
000110 5a 2c ee bb 6b 88 45 bc 77 4b 4d bc e9 5a 37 3d
       -0.0072684707 -0.01205645 -0.012530199 0.044764433
000120 12 a5 b5 bc 0d b6 58 3d 7f bf 72 3d 29 03 6c bd
       -0.022173438 0.052907992 0.059264656 -0.0576202
000130 98 ed ae ba 08 09 78 3d 02 1a 71 bd 97 e4 5d 3d
       -0.0013345955 0.060555488 -0.058862694 0.05417308
000140 b4 36 8c bd 51 bc 91 3c 96 5c b4 bb 91 fe 1c bd
       -0.06846371 0.017789992 -0.005504201 -0.03832871
000150 ac f7 6a 3c 77 14 02 3e 90 db 8d bb bb ed e9 3d
       0.014341276 0.12703119 -0.0043291524 0.114222966
000160 19 f2 9c 3d 19 fb 70 bc b5 e0 13 bd 58 7b 9f 3c
       0.07663364 -0.014708304 -0.03610297 0.019467995
000170 fb 61 12 be 94 96 eb 3d 6a 02 0f 3d 72 11 53 bd
       -0.14295189 0.1150333 0.03491441 -0.05153031
000180 d2 c6 f5 bd bb f0 9b bb a8 3d 9a bd 60 96 1d 3d
       -0.120008126 -0.004758922 -0.07531291 0.038473487
000190 6f bc e6 bd 43 45 18 3e ef a4 60 bd 92 b1 78 bd
       -0.112664096 0.14870171 -0.054844793 -0.06071622
0001a0 77 b4 b3 bc 2d 3a 66 bc af 2b 55 bd 42 54 a7 bd
       -0.021936638 -0.014051956 -0.052043613 -0.08170368
0001b0 b6 5e 17 be 9f 26 88 3c 18 12 a4 bd 74 a2 94 bd
       -0.14782223 0.016619978 -0.080112636 -0.07257548
0001c0 31 5e 12 bd f5 7c 0d bd de 50 2f 3d 19 d4 d8 3d
       -0.03573436 -0.034542996 0.04280173 0.105873294
0001d0 c6 fe 54 bc f8 88 cb bd 8c 7d bd 3d e1 52 12 be
       -0.013000196 -0.09938234 0.09252462 -0.14289428
0001e0 36 c3 05 bd aa e0 86 bd c4 70 3b 3d 43 aa c9 3d
       -0.03265687 -0.0658582 0.04576184 0.09846928
0001f0 3e b7 cb bc b3 49 22 bc 04 96 f3 3c 5d 80 e3 3d
       -0.02486765 -0.009905267 0.029734619 0.11108468
000200 0d 53 e9 3a 01 3f 22 3c e4 e3 4f bd d7 e9 20 bd
       0.001780124 0.009902717 -0.050754443 -0.039285507
000210 86 a7 3b bd a6 09 8d 3d 8c 1a 70 bd be 71 92 bc
       -0.04581406 0.06886606 -0.058619067 -0.017876502
000220 ff f7 68 bd 77 2d 81 3d b7 bc 2b 3b 0a 39 18 bd
       -0.056877133 0.063075 0.0026205012 -0.03716377
000230 e0 aa 9f bc b3 55 d1 bd a3 91 4a bc e1 5d 03 3d
       -0.01949066 -0.10221424 -0.012363824 0.03207195
000240 5a da db 3d bd 48 4c 3d 92 40 e0 bb c2 d6 1a be
       0.10735007 0.049874056 -0.006843635 -0.15120986
000250 eb 15 92 bc 22 cc 1e 3d dc a2 d5 3d 6b 45 2a 3d
       -0.017832717 0.038768895 0.104314536 0.04157011
000260 4d 6a ae 3c 8a 9f 78 bd 5a 65 c1 3d 7a cc 0f 3e
       0.021290923 -0.060699023 0.094431594 0.14042845
000270 d3 3c aa bd fa 59 a6 bc 37 8b de 3d 31 a2 9d 39
       -0.083123825 -0.020306576 0.10866397 0.00030066216
000280 7c d8 8b 3d c9 31 a8 3d 6f dc 19 3d 6f 88 4e bd
       0.068284005 0.08212621 0.037563737 -0.050423082
000290 5c 84 14 be 3d 98 f6 bd 61 fb 3f 3c f3 85 0a bd
       -0.14503616 -0.12040756 0.011717648 -0.03381915
0002a0 81 0b 30 bd 9e 17 ba bd ec f9 20 3e 50 df 10 3d
       -0.04297972 -0.09086536 0.15720338 0.035369217
0002b0 c6 e7 29 bd 9d c3 f5 3c f1 11 8c 3c 24 39 1b 3c
       -0.041480802 0.030000502 0.017098399 0.009474073
0002c0 6b 0f 53 bd 6c 72 1e 3d bb 42 f5 3d c0 7d 91 bd
       -0.051528376 0.03868334 0.119756185 -0.07104063
0002d0 44 04 11 be 6f e7 d0 3d 5c bf eb 3d dd 91 0b 3d
       -0.14161783 0.102003925 0.11511108 0.034074653
0002e0 b8 08 ad 3d af 86 9a 3d 64 d3 26 3d 28 18 ad 3d
       0.084489286 0.0754522 0.04072894 0.08451873
0002f0 5a 54 1a 3d 0a 97 3c bc a1 7a 63 3d dd 3b 10 3e
       0.0376781 -0.01151062 0.05553687 0.14085336
000300 b4 8d be bd bd f3 f6 3c 3c 06 f0 3d e1 14 7d bd
       -0.093043715 0.03014552 0.11719939 -0.06178749
000310 18 bc bf bd a0 ee 73 3d 4c fb 76 3d a6 7e be 3c
       -0.09362048 0.059553742 0.06029825 0.02325375
000320 ba 29 99 3d 75 32 5f 3d 07 21 c0 3c c1 c3 31 3d
       0.07478662 0.05449148 0.023453249 0.043399576
000330 bf 28 11 3e 15 68 16 bd 54 a4 25 3e 6e 97 aa bd
       0.141757 -0.036720354 0.16175967 -0.08329664
000340 cb b7 1d 3d b1 0c 31 bd 5a dd 8c 3c 06 97 65 3d
       0.038505357 -0.043224994 0.017195392 0.05605223
000350 e4 7b 69 3d 1a b4 bf bd 03 b2 e1 3d 50 9e 77 bc
       0.057002917 -0.093605235 0.11020281 -0.015113428
000360 11 e0 07 3e ed 83 f6 3c ac d5 4c bc f9 29 22 bd
       0.13269068 0.030092204 -0.012502115 -0.03959081
000370 43 70 9d bc ec 55 13 be 7a 19 df bd 94 d1 64 3d
       -0.01921857 -0.14388245 -0.10893531 0.05586393
000380 d2 00 24 3d 93 34 8e 3d d4 e7 a9 bd 43 cf b2 bd
       0.040039845 0.069436215 -0.08296171 -0.08730938
000390 33 59 1f bd 79 49 06 3e dd 0d 30 bd 32 a3 b4 3d
       -0.038903426 0.13113965 -0.04298197 0.088201895
0003a0 c2 35 0a 3d 65 30 ca bd 31 8d b5 3c 41 c6 0b 3d
       0.033742674 -0.09872512 0.022162052 0.034124617
0003b0 f2 eb fa 3d 5d 32 98 bc 3c 00 ab bd fd d1 fd 3c
       0.12252034 -0.018578703 -0.08349654 0.03098392
0003c0 b3 df fc bc 99 14 ea 3c 72 d4 31 3d e4 5d 3b bd
       -0.030868387 0.028574275 0.043415494 -0.045743838
0003d0 87 f8 50 bd 7b ee d2 bd 14 23 d6 bd c6 4e c1 3d
       -0.051018264 -0.10299393 -0.10455909 0.09438853
0003e0 b8 2b f9 3c 9b 85 e6 bd f5 c0 42 bd d0 07 c6 bd
       0.030416355 -0.11255952 -0.0475473 -0.09669459
0003f0 03 44 33 bc 43 39 46 bc ca 0c 43 3d 81 89 bd bd
       -0.010941508 -0.012098613 0.04761962 -0.092547424

net.4.module.0.bias f4 [32]
000000 3a c5 93 bd 4a a4 f8 bc f9 3a 31 3d b4 f2 2e 3d
       -0.07215352 -0.030351777 0.04326913 0.04271193
000010 61 85 9c 3d 6c 1a 68 3c ef 3d a3 3d 10 c2 80 3d
       0.076426275 0.014166456 0.07970797 0.062870145
000020 d2 c1 5a bd 1c 34 42 3c d9 02 1a 3c 55 08 ba 3d
       -0.053407498 0.011853244 0.009400093 0.090836205
000030 78 ad d7 bc fd 21 66 bd 77 c7 b7 3d b6 17 26 3d
       -0.026327834 -0.056184758 0.08973592 0.040549956
000040 d5 cf 23 bc 55 07 ba bb 4b 71 99 3d 6f e8 b9 bd
       -0.0099982815 -0.0056771436 0.07492312 -0.09077536
000050 8b 1d 8d bb 15 8d a4 bd 6d db c5 3b fb 5a e1 3c
       -0.0043065003 -0.08034722 0.0060381205 0.027509203
000060 c5 a0 db bc e6 4f 3e bd d8 5a 2b 3d 99 46 9f bd
       -0.02681006 -0.046462916 0.041834682 -0.07777137
000070 4b a0 b6 bc 75 fc 86 bd cc b3 53 bc f9 97 cb 3c
       -0.02229323 -0.06591121 -0.012921285 0.02485274

net.5.weight f4 [3, 32, 3]
000000 91 53 51 3b f6 06 97 3d 00 26 94 bd c7 45 31 3d
       0.0031940679 0.073743746 -0.072338104 0.043279435
000010 25 77 89 3d da 2b 3c 3c 9b 60 b3 3a 78 ba 4b 3d
       0.06712178 0.011485064 0.0013685407 0.049738377
000020 64 b2 3a b9 a8 59 9d 3b 78 ae c7 3c 64 c9 9a 3b
       -0.00017804798 0.0048019476 0.024375185 0.0047237147
000030 73 a5 a6 3d 6e d9 d1 3c 3d a3 8f 3d 59 53 ad 3c
       0.08137026 0.025616374 0.07013557 0.021157907
000040 7c 45 f5 bc 70 83 43 bd d0 83 ef bc ec 38 61 bd
       -0.02994036 -0.04773277 -0.029237658 -0.054985926
000050 e2 5f 77 bb 38 7d 66 3d ea 8a 3f bc ed fc ee 3d
       -0.003774636 0.05627176 -0.011690835 0.116693355
000060 73 66 6d bd ad 02 9a 3d 44 8e 97 3d 95 23 ae bd
       -0.05795903 0.075200416 0.07400182 -0.085028805
000070 b3 73 a2 bd e1 6d 38 bd 8b 0f 2f 3c 1c cd 4e 3c
       -0.07932224 -0.045026664 0.010684858 0.012622144
000080 86 7a f5 3b 60 bb 40 bd 17 2b 4e bc 5a dc 88 bd
       0.0074914126 -0.047053695 -0.012583516 -0.06682654
000090 2f bd c2 3c 95 bb b7 bd 00 2f 17 3d 81 ad 68 bc
       0.02377185 -0.08971325 0.036910057 -0.014201523
0000a0 e5 79 81 3d eb 74 85 3d 37 fa ff bc c3 b6 69 bd
       0.06322078 0.06516441 -0.031247241 -0.05705906
0000b0 b7 0f 0d 3d 13 84 0f 3d 15 05 2b 3d 81 86 3c bd
       0.034438815 0.035038065 0.041752893 -0.04602671
0000c0 61 f2 2a bd dc f1 95 3c f9 fa 21 bd 50 6a 64 3d
       -0.041735057 0.018303804 -0.039545987 0.05576545
0000d0 6c f6 2d bd 01 15 a3 bc bb 0b ce 3b 7a 29 84 bd
       -0.042471334 -0.019907476 0.0062880195 -0.064532235
0000e0 cb 66 8f bc 88 24 95 bc 32 a7 39 3c 4f d7 57 bc
       -0.01750507 -0.018205896 0.011331366 -0.013173892
0000f0 77 c4 02 bd 41 d6 87 3d 25 5f b8 bc b1 c2 81 bc
       -0.031925645 0.066326626 -0.022506306 -0.015839906
000100 9a 7e 63 bd 18 fc bc bd 7b 24 fc bc 48 8d 8f 3d
       -0.05554066 -0.092277706 -0.030779114 0.07009369
000110 f8 74 0f 3d 25 fc 2e bc f1 f1 19 3d f9 f5 97 bd
       0.03502366 -0.010680233 0.03758425 -0.074199624
000120 da 32 d5 3b d3 bf 44 bd 14 8e fd bd 63 f8 ab 3d
       0.006506306 -0.0480345 -0.12380615 0.083969854
000130 1c 8a 0b 3d 9b 52 c4 bc f5 e0 5d 3d e7 6d 90 bd
       0.03406726 -0.02396517 0.054169614 -0.07052212
000140 4c 8a 29 3d 41 eb 90 bd f7 88 87 3c a1 f2 9a 3c
       0.041391656 -0.07076121 0.016544802 0.018914523
000150 1e a0 bd 3d ba 97 1c 3c 29 17 69 bd ed ba ff bd
       0.092590556 0.009557659 -0.056906853 -0.12486825
000160 6a 98 1f bc 6c 87 ab bd 6d d0 17 bd 45 8e 12 bd
       -0.009740928 -0.08375439 -0.037064005 -0.03578021
000170 d8 f2 0e 3d 83 75 d5 bd 60 71 82 3d b1 2e 79 bd
       0.034899563 -0.10422804 0.06369281 -0.060835544
000180 e8 33 8e bd 75 6b 76 3c 80 fc a5 3d 57 52 a2 bd
       -0.06943494 0.015040268 0.08104801 -0.07925861
000190 01 47 90 3d a8 e5 de bd fe 5d 1e 3d b8 2e 92 bd
       0.07044793 -0.10883647 0.038663857 -0.07137817
0001a0 03 58 9b 3d 50 b8 37 3c ab 9c 86 bd fa d3 78 bd
       0.07585146 0.011213377 -0.06572851 -0.06074903
0001b0 66 b0 e9 3d 33 ae 84 bd 3e b1 c8 3d 26 f2 0e bd
       0.114105985 -0.06478538 0.09799431 -0.0348989
0001c0 38 8e 63 bd 42 e8 9b bd a7 dd 5b 3d 4d 97 a6 3d
       -0.055555552 -0.07612659 0.05367818 0.08134327
0001d0 92 58 f9 3c d6 9b cc bc d5 16 5c 3c 16 07 15 3e
       0.030437741 -0.024976652 0.013433178 0.14553484
0001e0 24 11 1c 3d 79 92 9d 3d 47 9c 19 bd a8 a6 0f 3d
       0.038102284 0.07693953 -0.037502553 0.035071045
0001f0 22 6c 07 bd 4a fc 29 bc 46 7e 15 bd 49 37 88 bc
       -0.033062108 -0.010375092 -0.036497377 -0.016627925
000200 e1 91 c1 3d a8 b0 c7 39 88 91 5b 3d 9d 33 a4 3d
       0.09451652 0.00038087857 0.053605586 0.08017657
000210 08 f2 72 3c b5 32 a1 3c ee aa b5 bd 8a 00 bb 3c
       0.014828213 0.0196775 -0.08870493 0.022827405
000220 f3 e0 bb 3d 42 ff 9b 3c 52 73 cd bc 1c 95 14 3c
       0.09173765 0.019042615 -0.025079403 0.009068754
000230 04 bb 5a 3c 78 cd bb 3d a3 9e df 3d 30 30 34 bd
       0.013350252 0.091700494 0.109189294 -0.043991268
000240 d2 cc a7 bd 9c 78 94 3b ed da 8b bd c1 b7 ce 3d
       -0.08193363 0.0045309793 -0.06828866 0.10093642
000250 e8 f3 48 3d cf 5f 3c 3c 16 eb 87 bd 8a 91 3d 3c
       0.049060732 0.011497452 -0.06636636 0.011570344
000260 8d 6b 66 bd bc 95 5a bd e9 d9 e5 3b 81 9d 9c bd
       -0.056254912 -0.053365454 0.0070145023 -0.07647229
000270 80 32 d5 bd 73 5e 5d bd 1a 59 90 3c 6c 8b 52 3d
       -0.10410023 -0.054045152 0.017620612 0.051402494
000280 99 ac 53 3d 5a 02 a9 bd 8d 24 93 3d a7 7c 1b bd
       0.051678274 -0.08252402 0.07184706 -0.037960675
000290 57 57 e3 3c d2 28 b7 3c 29 59 c8 3d ae 10 8a bd
       0.027751608 0.022358332 0.09782631 -0.06741463
0002a0 ca 9c 98 bd c6 c7 42 bc 22 b4 e9 bd 92 99 b1 3d
       -0.0745178 -0.01188845 -0.11411311 0.08671869
0002b0 b2 43 2d 3d 4d 8a a6 bd 2d 4f 66 3d e2 9f 7a bd
       0.042300887 -0.081318475 0.05622785 -0.061187632
0002c0 55 81 95 bb 0c 4a b3 bd 06 ec 35 3c 6b 15 ca bc
       -0.0045625367 -0.08754358 0.011103636 -0.024668416
0002d0 1a 45 3d 3b ae b4 c2 3c 84 ee 15 bd 24 cd 70 bd
       0.00288803 0.023767795 -0.03660442 -0.058789387
0002e0 de bf aa bd c9 80 46 bd 47 6d e9 bc c9 01 8f 3b
       -0.08337377 -0.048462663 -0.02849449 0.0043642265
0002f0 03 44 68 bd 35 f3 90 bd cb 32 26 3c 9f fe 16 bd
       -0.056705486 -0.07077638 0.010143946 -0.03686392
000300 d0 5c fe bc b6 4a ac 3d c7 de 0b bd c8 a0 51 bc
       -0.031050116 0.084126875 -0.034148004 -0.012794681
000310 d7 47 79 bd de 31 fa 3c ce 5e ae bd f1 fc c2 bd
       -0.060859527 0.030541357 -0.08514176 -0.09520901
000320 e1 53 ab bd ba 83 23 3c 4c f4 90 3d 91 45 e2 3d
       -0.08365608 0.0099801365 0.07077846 0.11048425
000330 68 18 c3 bd 2e 91 b5 3c c0 21 1e bd 21 7b f6 bd
       -0.095261395 0.022163954 -0.038606405 -0.12035204
000340 0b 74 08 bd 71 63 e0 bd 03 dd fb bc a1 2b 6b bc
       -0.033313792 -0.10956467 -0.030745035 -0.014353664
000350 4e c4 03 3d b1 42 35 bd 6c c6 55 3d 49 d3 98 3d
       0.032169633 -0.044253055 0.052191183 0.074621744
000360 0b 5e 91 3c 68 a3 4b bd 90 a3 07 3e 52 80 9e 3d
       0.017745038 -0.049716383 0.13245988 0.07739319
000370 52 88 ce bc 32 83 45 bd 44 b8 a7 3d 86 39 16 3d
       -0.025211487 -0.04822082 0.08189443 0.036675952
000380 7f e4 09 bd 8e 3f e7 3d 6c c6 e0 3c 0d 4e a0 bd
       -0.033665176 0.11291419 0.027438365 -0.07827387
000390 ba d1 4d bd ce 88 ec 3c b3 01 24 bd 80 ce de bb
       -0.05024884 0.028873827 -0.040040683 -0.006799519
0003a0 b3 0d 90 3d 46 c5 2f bc f5 dc 02 be f7 5b 1e 3d
       0.07033863 -0.010728186 -0.12779601 0.038661923
0003b0 5b 2b 1a be dd 9d 0b bd 6e c9 1d bd cc b8 67 bc
       -0.15055601 -0.034086097 -0.038522176 -0.01414318
0003c0 7b 48 54 bc 26 99 a5 bc 48 5f 1b be 29 f7 03 bd
       -0.012956734 -0.020214628 -0.15173066 -0.032218132
0003d0 5b 85 82 bd dc d3 9d bc 28 ab e4 3d a2 d5 9d 3d
       -0.06373092 -0.019266061 0.11165458 0.07706763
0003e0 73 be 1b bd 69 dd b2 3c 14 02 d7 3c 1e fc 3b bd
       -0.038023423 0.021834092 0.026246108 -0.045894735
0003f0 01 15 7a 3d 4e aa 8a 3d d4 4e 5b 3d aa d0 08 3e
       0.061055187 0.06770764 0.053541973 0.13360849

net.5.bias f4 [3]
000000 ab 26 95 3d bf eb 0d bd 63 5d 97 3d
       0.07282766 -0.034648653 0.07390859

exp_avg f4 [32, 120, 2]
000000 6b 77 65 39 20 8d 93 39 b7 94 0e b9 73 cd 13 39
       0.00021883629 0.0002814317 -0.00013597576 0.00014095548
000010 23 cc 4d bb 5e 36 09 bb ea eb 83 ba d0 2b 67 b9
       -0.0031402193 -0.0020936946 -0.0010064815 -0.00022046198
000020 48 ed c1 ba ae 2c 0b bb 36 64 de ba c2 a2 0d bb
       -0.0014795447 -0.0021236348 -0.0016967121 -0.0021611904
000030 80 f3 8f 39 43 0d 3e 3a 42 dc 04 b9 ad 3f 64 3a
       0.00027456507 0.0007249901 -0.00012670553 0.0008706998
000040 cb 0b 0d ba de 13 08 ba dd 1a 09 b8 44 56 16 b6
       -0.00053804804 -0.0005190949 -3.2688364e-05 -2.2401955e-06
000050 f1 2f bc 3a 87 d7 10 3b a9 94 4b bb e9 f3 36 bb
       0.0014357549 0.002210112 -0.003106395 -0.0027916378
000060 44 19 4e 39 84 be 5b 39 d7 d0 97 ba 99 94 25 bb
       0.00019655103 0.0002095644 -0.0011582625 -0.0025265573
000070 cd 5b 71 ba b4 08 51 ba 66 95 28 bb 6f ae 83 bb
       -0.00092071 -0.0007974014 -0.0025723814 -0.004018597
000080 36 fd 03 b9 02 66 37 3a ce db cc 38 80 f5 dd b8
       -0.00012587462 0.00069960963 9.76842e-05 -0.00010583829
000090 2d 94 38 39 79 cd ba b9 69 90 00 3a 18 b3 bb 3a
       0.00017602807 -0.00035629774 0.0004904331 0.0014320342
0000a0 e1 16 f1 b9 21 aa 8a ba 1b 77 08 b8 dd 22 8d b9
       -0.00045984148 -0.0010579267 -3.2535852e-05 -0.0002691959
0000b0 4a 13 30 ba 24 23 b6 37 af e4 85 ba 37 4d 6e 3a
       -0.00067167415 2.1712454e-05 -0.0010215248 0.00090904854
0000c0 64 84 26 3a af 9d 8a 3a 60 64 b3 bb 0d 84 8b bb
       0.0006352125 0.0010575558 -0.005474612 -0.004257685
0000d0 d0 87 5d 39 56 35 1d 39 11 a5 0b 39 06 b8 68 39
       0.00021126796 0.00014992556 0.00013317565 0.00022193798
0000e0 4b 34 31 39 75 ac ca 37 60 c0 f3 35 14 c6 92 39
       0.00016899516 2.4160583e-05 1.8160899e-06 0.0002799487
0000f0 f2 97 20 39 ec 97 91 38 b2 69 17 ba d4 ee d3 b5
       0.00015315393 6.9424364e-05 -0.00057759427 -1.5790233e-06
000100 97 e9 18 ba 8a 12 09 ba b2 a5 07 b9 40 7a 35 37
       -0.00058331474 -0.0005228898 -0.0001293633 1.0816904e-05
000110 ee ef 29 b9 1f 6d 39 3a 6a 73 bd b9 8f 76 55 ba
       -0.00016206477 0.000707345 -0.0003613488 -0.0008142972
000120 45 1b 28 b9 0f 32 fc b9 0c e9 4e b9 c7 db 2d b9
       -0.00016031887 -0.00048102482 -0.00019732508 -0.00016580439
000130 58 8d c9 38 b5 65 e3 b8 00 00 00 00 00 00 00 00
       9.610754e-05 -0.00010843148 0.0 0.0
000140 70 03 15 b9 36 24 b9 3a e6 f6 44 39 71 29 fd 39
       -0.00014211028 0.0014125172 0.00018783993 0.00048286797
000150 b6 30 16 3a 45 20 e1 39 3d b6 44 3a c6 70 8b 3a
       0.00057293044 0.00042939387 0.0007503962 0.0010638468
000160 49 4b ad b9 21 ba 19 ba a9 d1 54 b9 a1 c2 0a ba
       -0.00033053223 -0.0005864222 -0.00020296 -0.0005293284
000170 1a 54 06 b9 1b 3b c9 b9 b1 cf 1a b8 ec db 04 b9
       -0.00012810566 -0.00038381745 -3.690989e-05 -0.00012670428
000180 ee 32 25 39 6e 5a 43 b9 3f 5f 7b b9 45 68 93 b9
       0.00015754599 -0.00018630337 -0.00023972707 -0.00028115712
000190 88 1a 5d b8 55 e7 26 39 f0 9f 6c 3b 0d 5d 27 3b
       -5.2715215e-05 0.00015917172 0.0036106072 0.002553764
0001a0 8d 86 0b ba 8b aa c9 b9 a5 aa 51 bb 3f 7f 2d bb
       -0.0005322479 -0.00038464772 -0.0031992581 -0.002647355
0001b0 98 6d 75 3a 5e 20 3d 3a f9 ce 7d 38 c2 46 bd 39
       0.0009362339 0.0007214601 6.051266e-05 0.00036101608
0001c0 5c 02 21 b9 77 e0 b3 3a d5 9e bc 37 d3 b2 c8 38
       -0.00015355035 0.0013723512 2.2485308e-05 9.570052e-05
0001d0 19 f0 59 b9 0d af d7 b9 28 04 14 ba 04 94 15 bb
       -0.00020784176 -0.0004113842 -0.0005646371 -0.002282382
0001e0 c2 ed 9d ba 37 32 b6 ba e7 59 84 35 1b aa a9 34
       -0.0012049007 -0.0013900463 9.860931e-07 3.160247e-07
0001f0 c2 c9 b0 3a 97 e8 37 b9 e3 d0 ce 39 8d ed b3 b9
       0.0013487863 -0.00017538886 0.00039447015 -0.0003431853
000200 0b 81 98 39 dd df 2e ba e0 94 3c 38 2c 49 25 38
       0.00029087844 -0.00066709315 4.4961344e-05 3.9407212e-05
000210 61 4e 64 38 d6 6c d7 b9 00 a4 b4 39 75 6c b2 ba
       5.4432432e-05 -0.00041089085 0.00034454465 -0.0013612645
000220 61 2f 54 b9 da 8f 1a b9 05 4c d9 38 ad 3a 24 3a
       -0.00020235546 -0.00014740173 0.00010361526 0.0006264847
000230 d8 cf 83 b9 24 e2 ad 39 bf 8b 94 ba dc 41 62 ba
       -0.00025141123 0.0003316562 -0.0011333151 -0.00086310296
000240 89 a5 3c 3a 62 38 4d 3a ab 8f 98 b8 8a 80 38 b9
       0.00071962975 0.0007828531 -7.274685e-05 -0.00017595492
000250 ca fd 40 3a 29 e6 c4 39 6e 56 d1 38 8a c5 8a 39
       0.0007362036 0.00037555516 9.9819954e-05 0.0002646859
000260 e1 2b 46 37 16 ee 8e b8 97 8f 62 39 54 88 77 ba
       1.1811936e-05 -6.8154346e-05 0.00021606531 -0.0009442617
000270 cb bd f1 39 7e 2b b6 ba 41 6b 15 38 7f 43 79 b8
       0.0004610851 -0.001389846 3.5624256e-05 -5.9429087e-05
000280 2c a8 ca ba e5 e5 e6 ba 7f 3f dd 39 a4 8e 09 3a
       -0.0015461496 -0.0017616121 0.00042199713 0.00052473904
000290 87 7d 23 3a 53 ea b1 39 59 9d d0 b9 d9 21 35 ba
       0.00062366616 0.00033934656 -0.00039790085 -0.0006909646
0002a0 9a 33 32 3a 1c f4 c9 39 f4 72 6d 3a 8e 55 35 3a
       0.00067978504 0.00038519583 0.0009057962 0.00069173507
0002b0 0d c0 87 ba a3 ef d7 ba 4f 61 a8 ba 9f c1 bc ba
       -0.0010356918 -0.0016474616 -0.0012846383 -0.0014400965
0002c0 5e 99 b9 38 73 fa 88 39 91 f1 80 3a cf ce 90 3a
       8.850054e-05 0.0002612654 0.0009837617 0.0011047962
0002d0 54 c6 9d b7 ca d9 15 39 cc 0d 1b b8 89 38 08 ba
       -1.8808212e-05 0.0001429088 -3.696773e-05 -0.00051964127
0002e0 52 f7 85 bb c3 db 8d bb 31 83 de b9 66 4c 0a ba
       -0.004088321 -0.004329176 -0.00042440885 -0.00052756665
0002f0 a2 9c bd b9 6f b7 39 38 8e 6c 1c bb ca 57 09 bb
       -0.0003616559 4.4278273e-05 -0.0023868415 -0.0020956867
000300 af 69 0b ba df 97 60 ba 9b ca 18 39 26 a5 43 39
       -0.0005318177 -0.00085675524 0.00014571326 0.00018658172
000310 f6 48 60 ba f8 44 02 ba c5 7c 2f ba 6a a7 44 ba
       -0.0008555794 -0.00049693836 -0.00066943123 -0.0007501753
000320 1e d8 3c 37 cd ac 0a b8 f7 8f 09 39 54 b1 d6 38
       1.1255992e-05 -3.3062697e-05 0.00013118969 0.00010237345
000330 5f cd 8c b9 dd 3f 8a b9 00 85 ed 37 b1 c0 41 39
       -0.00026855894 -0.00026368993 2.8314535e-05 0.00018477697
000340 bb 36 d3 3a 83 d5 ee 39 2b 14 a0 38 1d f5 f0 37
       0.0016114333 0.00045553976 7.633151e-05 2.872437e-05
000350 e7 aa 26 ba cd 94 22 b9 4f ae 9a 38 9e c9 54 37
       -0.0006357864 -0.00015504957 7.37576e-05 1.2683127e-05
000360 00 fe e6 39 c6 dd 8a 39 ac b6 41 ba 0f d6 f6 ba
       0.00044058263 0.00026486645 -0.0007389586 -0.0018832105
000370 03 1c 29 3a 1f e9 bf b9 06 36 14 bb 4b cc f4 ba
       0.00064510125 -0.00036604048 -0.0022615208 -0.0018676607
000380 d4 6c f4 b9 21 f6 f3 b9 6c 2f 9e 39 5b d2 93 39
       -0.0004662039 -0.00046531952 0.0003017144 0.00028194752
000390 b9 2c 51 3a e9 ab 6a 3a 3b 5e 20 ba b8 fd f7 39
       0.00079793815 0.0008952008 -0.0006117557 0.00047300546
0003a0 bc e4 d7 b9 d0 19 4c ba 97 19 8e ba f1 1d db ba
       -0.00041178416 -0.0007785829 -0.0010841367 -0.0016717297
0003b0 25 25 b0 b9 6f 4b f4 b9 9c 45 c2 38 9f 7b da b9
       -0.0003359701 -0.0004659551 9.2636066e-05 -0.00041672305
0003c0 e9 75 43 39 7f bb 47 39 5b 69 08 39 06 1c 72 39
       0.00018640574 0.00019047967 0.00013009219 0.00023089358
0003d0 27 12 5f b9 7e 5c ab b9 56 62 39 b9 53 b6 99 b8
       -0.000212737 -0.00032684574 -0.00017679608 -7.329569e-05
0003e0 d9 d3 81 b9 18 4e 99 ba f7 5b 08 3a b5 28 5a ba
       -0.00024762636 -0.0011696247 0.0005201692 -0.0008322106
0003f0 f8 c3 9f b9 ff 25 a6 38 49 40 08 ba 85 e0 fa 39
       -0.0003047285 7.922574e-05 -0.00051975675 0.00047850996
