data/Figure3_Supplement/025/checkpoint_0002000.pth (torch, 231809 bytes, 31 tensors)

net.0.weight f4 [32, 120, 2]
00000000: 09fa bb3c aa02 d63d 16dc a73b cebb 923c
00000010: e21d 193d 73f8 d33c a9bc d6bc 89c8 c7bc
00000020: b596 d13c 8a1b bf3d 75b2 9bbd 6241 54bd
00000030: a956 2ebd 8031 5ebd 3539 1fbd df54 12bd
00000040: e7e8 74bc dd6f 93bc ad41 d5bc e2a1 e9bc
00000050: 4e7f 053c 3578 73bd c911 df3c c651 443d
00000060: 328d ed3c 5f09 b73b 10c7 b1ba 1afd 8ebc
00000070: 34ef aabc b029 81bd 80a0 813d 76eb 23bc
00000080: e3c9 4d3d a8cc f33b 13d8 333d a8bb 5f3d
00000090: 51f4 253d a2c8 1abc 3b9a 29bd 085c e83c
000000a0: fb5a 70bd b513 e0bc 3d50 6abc 182d 47bd
000000b0: 844b b73c da62 a1bd 8226 89bd 2587 1cbd
000000c0: 9975 c4ba f099 73bc de59 0e3d bd49 003c
000000d0: d3c4 383b 990b 153c 4968 d43d c0ab 6e3d
000000e0: 3a43 283d 8923 6dbc 67b2 7cbd e763 1e3d
000000f0: 28d5 76bc b740 033d f1dc 6cbc 1b5b 5e3c
00000100: f811 92bd d1b5 8f3c 3590 83bc 586a fcbd
00000110: 38d7 f7bb e3a3 903c 92d2 be3d 458d 9bbc
00000120: 6527 523c 2648 c0bc ee25 8e3c 4ce6 123c
00000130: fd8a 903c 76a4 bb3d d182 3ebd 1f8e 763d
00000140: 5f2d d63c 0efd b93c 640f d0bd 8bab af3d
00000150: eecf cb3c 47fb 67bc b988 0fbe 6364 e2bd
00000160: f6d7 d43c b0d2 1b3a a436 653d 0002 b03d
00000170: 547c bf3d 4c91 153d a0e3 923d efae 0cbc
00000180: 86af 96bc 98e2 bf3c 581a eebc 9664 3bbd
00000190: bdfd 2cba ccaa d9bd 8671 9b3d dd62 ca3d
000001a0: fbbe 483d 661a 173d 898d 163d d5ef b8bc
000001b0: ecaa 2bbc d671 8f3d 7e20 b9bc 38f6 903d
000001c0: e123 a9bd e126 7f3d d8bd a13c dae3 c2bc
000001d0: 46c5 433d cdc3 a0bc e140 38bc 6e15 163d
000001e0: 8480 373d 95be f1bc 9e54 45bd 5b47 adbd
000001f0: 82cc 223c 3ba1 b83c fddc 153d 3df4 993c
00000200: 489d 0c3d 6994 efbc e420 9bbd 7091 94bd
00000210: f09d 063d e3c5 303b ed09 e1bc a011 b8bc
00000220: 60c6 81bd a38b e73c be02 603c 5bc4 95bb
00000230: 0cf2 4dbc 0203 11bd b8b1 863b e7d3 22bd
00000240: 535d 3e3b 5025 87bc b1fd 1ebd d6ac 12bd
00000250: 8a95 1fbd e1a4 b3bc 3d1a 723d 773e 273e
00000260: 5b8c 873d 6335 633d 752f 8fbd eae6 0a3d
00000270: aa13 a4bd c3da 4c3d 1c81 7ebd b554 3abd
00000280: 805d 19bd 9902 cebb 2074 933c 861c 2bbd
00000290: f3c2 6cbd a6cf 903d 040f e6bb 0219 20bd
000002a0: 76f5 9dbd 554f debd ca4a 943c 91eb 9ebc
000002b0: 3432 0dbd c01e a8bb a4bd 45bd 4410 5bbd
000002c0: 7a36 9e3c 3223 b23a 433b 413c cb7f 1abd
000002d0: 4b94 0e3d 93be 743d 8c48 603c 8e15 a83d
000002e0: 7376 efbc 62b8 05bd f2e2 c23c 9dfe d63c
000002f0: 013d 5d3d bf1c 973d fd04 90bc a2db 17bd
00000300: a6e6 b8bc 985e c2bd ea0e 0d3c f934 4abc
00000310: 4257 0dbc 229b 6d3d c52e e43a 6099 a5bd
00000320: 9d13 633c dbc8 f33b 234d 933c 8223 5d3c
00000330: 2cbc 91bd f54d e9bd 3117 c33d dd9b 6f3c
00000340: d2af fab9 e46e a3bc c949 3abd 8b13 cbbd
00000350: 85c3 0dbd e5d8 31bc ee54 7ebd f523 7cbd
00000360: 6538 783c 4a9f 503c d5a9 7c3c 6f20 56bd
00000370: b3f8 673d 3b43 c5bc cd9a d63c d2e8 19bd
00000380: feef 033d 76bc 66bd a5d1 17be 73cd 84bd
00000390: 3117 a73c c8c1 5fbc 6c0c 36bc dafb 06bc
000003a0: 823b babc 4787 0abc 7885 b9ba dd5f a4bb
000003b0: 0aa7 5ebc fa60 523d 1061 703d d597 833d
000003c0: f020 593d 0d1c 3dbc 153f 393d fe31 343d
000003d0: 6278 4d3b dc70 963d b821 373d 7373 b53c
000003e0: 0257 63bd 682c 06bd bcfc 23bc 1eb4 30bd
000003f0: e361 223d 4712 563c a1bb 3abc 37db f7bc
0.022946374 0.10449727 0.005122672 0.017911818 0.037382014 0.025875306 -0.026213007 -0.024387615
0.025584558 0.093314245 -0.07602397 -0.051820166 -0.042563114 -0.054246426 -0.038872916 -0.03572547
-0.014948106 -0.017997677 -0.026032293 -0.028519575 0.008148028 -0.05944081 0.02723016 0.047929548
0.028997991 0.005585834 -0.0013563354 -0.017454673 -0.020866014 -0.063067794 0.06329441 -0.010004869
0.050241362 0.0074401684 0.043907236 0.054622322 0.0405162 -0.009447249 -0.04140685 0.028364196
-0.058680516 -0.027353147 -0.014301357 -0.04862699 0.022374876 -0.078801826 -0.06696798 -0.03821482
-0.001498866 -0.0148682445 0.034753673 0.007830081 0.0028193488 0.009097003 0.10371453 0.058269262
0.041079737 -0.014473804 -0.061693575 0.038669493 -0.015065469 0.03204414 -0.014456973 0.013571526
-0.071323335 0.017542752 -0.016059974 -0.12324971 -0.007563498 0.017656272 0.09317507 -0.018988261
0.012826775 -0.023471903 0.01735207 0.00896604 0.0176444 0.09162228 -0.046511475 0.06019413
0.026144681 0.022703674 -0.101591855 0.08577641 0.024879422 -0.01415903 -0.14017 -0.110543035
0.025981884 0.00059441756 0.055960312 0.085941315 0.093498856 0.03651552 0.07172322 -0.008586629
-0.018394243 0.023423478 -0.029065296 -0.045750223 -0.0006599089 -0.1062828 0.07590012 0.09882138
0.04901026 0.03689041 0.036756072 -0.022575298 -0.010477763 0.07004134 -0.022598501 0.070782125
-0.082587965 0.062292937 0.019743845 -0.023790289 0.047795556 -0.019624615 -0.011245937 0.03664153
0.044800296 -0.029509822 -0.0481764 -0.084608756 0.009936454 0.022537818 0.036587704 0.01879322
0.034329683 -0.029245572 -0.07574633 -0.072543025 0.032865465 0.0026973418 -0.027470553 -0.022469342
-0.06336665 0.028264826 0.013672529 -0.0045705265 -0.0125699155 -0.03540326 0.004110541 -0.039752867
0.0029047325 -0.016497284 -0.038816158 -0.03580936 -0.03896097 -0.021929206 0.059107054 0.16332422
0.066185676 0.055470835 -0.069914736 0.033911623 -0.08011563 0.050013315 -0.062134847 -0.04549094
-0.037442684 -0.0062869308 0.017999709 -0.04177525 -0.057803106 0.07070856 -0.007020833 -0.03908635
-0.077128336 -0.10854975 0.018102068 -0.019399436 -0.034471706 -0.005130619 -0.04827656 -0.05348231
0.019313086 0.0013590811 0.011793914 -0.03771953 0.034809392 0.05975206 0.0136891715 0.08207236
-0.029231286 -0.032646544 0.023789857 0.026244456 0.054013256 0.0737853 -0.017580504 -0.037074693
-0.02257092 -0.094906986 0.008609513 -0.012341731 -0.008626761 0.058009274 0.0017408958 -0.080858946
0.013859657 0.0074397153 0.017981118 0.013497235 -0.07115969 -0.11391822 0.09525908 0.014624563
-0.00047814712 -0.019950338 -0.045480523 -0.09915837 -0.03461029 -0.010854934 -0.062092714 -0.06155773
0.015150164 0.01273329 0.0154213505 -0.052277025 0.056633662 -0.02407991 0.026196862 -0.03757555
0.032211296 -0.056332074 -0.14826067 -0.06484499 0.0203968 -0.013657041 -0.01111136 -0.008238757
-0.022733454 -0.008455104 -0.0014154157 -0.0050163106 -0.01358963 0.051362015 0.058686316 0.06425444
0.053009927 -0.011542332 0.045226175 0.04399299 0.0031352271 0.07345745 0.04470989 0.022149777
-0.0555029 -0.032757193 -0.010008987 -0.043140523 0.039644133 0.013065881 -0.011397273 -0.030255897

net.0.bias f4 [32]
00000000: a574 9abd 9ab9 003c aa62 e3bc 4541 f93c
00000010: 36ae cfbc 6c04 123d 9f58 d639 cdf7 983b
00000020: 387f 44bd a280 b0bc fd12 86bc 6eac 76bc
00000030: 1d18 ca3c ecab c8ba 483c 22bd 4b4d 453d
00000040: ad78 44bd e256 50bd d23f 763d 95ff 3bbd
00000050: 2496 4d3d bc1e 6cbd 4308 a83c 1cf7 df3b
00000060: bd01 05bc f7a8 07bc 1061 3c3d b3fd 79bc
00000070: 6816 223d be63 f4bc 49a0 a7bb 792f 33bd
-0.075417794 0.007856751 -0.027757008 0.03042663 -0.025351625 0.03564875 0.0004088329 0.004668212
-0.047972888 -0.021545712 -0.016366476 -0.015055759 0.024669701 -0.0015310026 -0.03960827 0.048169415
-0.047966648 -0.050864108 0.060119458 -0.04589804 0.050192013 -0.057646498 0.020511752 0.0068348777
-0.00811809 -0.00828003 0.045991004 -0.0152582405 0.03957215 -0.029832717 -0.005115543 -0.043746445

net.2.module.0.weight f4 [32, 32, 3]
00000000: 9032 383e ee35 023d 3774 a03c 6ea9 8c3d
00000010: 9425 7dbd 4a96 84bd 6c5d d9bb f56c d0bd
00000020: e007 2abe 913b 893d b21b 78bc 3ccf e5bc
00000030: 93aa d4bd 2d1c afbd d80d fabd 3f9a 973b
00000040: a605 db3c e31b 70bd 8405 813b 6362 413d
00000050: 60f8 27be 563b b03d 35b4 73bd 2afe 2cbe
00000060: 6715 023e e1e1 143e 1783 a13d b28a 263d
00000070: efa5 40bb 8242 543c 1c7a e03d 0523 463c
00000080: 4a12 503d 727e 493e 1b5a 553d 2618 2e3d
00000090: c0a4 0a3d 2de6 f33d e3fa 6a3d ef5d c03d
000000a0: 2d8f 373d 0493 513e 54be c8bd b6f2 6ebd
000000b0: cc55 553d d638 95bd 2664 c7bb 7e0b 6d3d
000000c0: 5e00 81bd d144 8aba 5cbf bfbd 24f9 29bd
000000d0: c746 f2bd cb5b 28bd 1ffb 4e3e 36bb 053e
000000e0: d173 23bd 25fd 033e 8639 be3d dbdc f0bc
000000f0: 718e ee3d a3b7 73bd f7bb 9dbd c126 103e
00000100: 10d0 283d a257 233e 131a 52bd 5241 1b3c
00000110: 069d 2fbe 18ab 07bd f54e 4a3d bb62 08be
00000120: 2beb 0d3e 05ff 353e 1d7f 2e3e 8daf 08be
00000130: 23e8 3fbc 6448 3abd e3d4 0abd 50fc 8b3d
00000140: b3ee c6bd 53ef 843d 7dd3 52bc 02d5 86bc
00000150: ca20 e5bd 5202 2fbd 9b77 58bd 9786 0f3d
00000160: 8d22 093c 76f6 36be 661b 0c3d 78cc a1bc
00000170: 275a 3ebb c7d3 0ebe fc3d 9dbd b87e bebd
00000180: 9838 f5bc 04a2 8abc a39d ad3c 8b2c 013e
00000190: 1cdd d1bc 5852 0c3e 4484 9bbd 63dd 973d
000001a0: 9758 17bc e363 193c e195 89bd fc3e 743a
000001b0: 2b8e aa3d c2f7 7d3d 26a3 ea3d bb12 d53d
000001c0: ff09 d73d 369d 95bc 4f38 a73a f229 773d
000001d0: 4cad b63d 2c67 00bd cfcf acbd bbf9 0a3d
000001e0: 8afe f1bc 6732 9cbc 657d 6fbd 84d4 40bc
000001f0: 6231 1ebd aa84 de3d 51ac ad3d f436 26bb
00000200: 1e99 14be 746d 4bbd 3a71 4abb e176 2abe
00000210: 880c 29bd 9844 3c3d 4059 123e 9167 8d3c
00000220: e8e3 25bd 4131 073e a838 f7bd 3f7a ea3c
00000230: 9a3c b2bd 61a5 803d e0a6 d53d f046 183e
00000240: db90 0b3d ec0e 0abc 902f fa3d 5e8b 07be
00000250: ba08 253b 739e 17be e999 d63d 15e0 ba3d
00000260: 5ab0 e8bd 6b2e 283e 175a 853d f3f2 863a
00000270: 6e49 133e fdd8 943d a389 013e c313 37be
00000280: 3798 12bd 2e36 02be f9fe 90bd e445 5f3c
00000290: b712 aa3c 9108 393d 2339 4d3d 6222 a13c
000002a0: b6f4 96bd 9f64 d6bc e7b2 803d a402 343d
000002b0: fcea c33c d22d be3c f74a b23c 12e6 a93b
000002c0: c5bf 133d 46b3 32bd d075 b83d bd74 a13d
000002d0: b6af f0bd e3c7 a93c b762 f1bc a68d 563d
000002e0: 21ba fa3d 5c96 263e 27b9 033d ed30 c13d
000002f0: 2a30 983d e58a d73d c3f4 183e ef80 f63c
00000300: c396 a23d 723f a33d 4116 f13c cbf3 2c3d
00000310: 24fd 6b3d e7a7 c1bb 1a57 603d 70dc 0cbe
00000320: 02a2 7f3d 3ead fbbd f046 adbd 2713 e9bc
00000330: 052f f6bd b57c e93c 7098 b03d 7174 07be
00000340: 896f d539 afab 643d 9031 0cbe 5be8 86bd
00000350: c509 0b3c 337c ca3c c940 303d 0894 89ba
00000360: 9388 dabd 8513 da3c 56fb 403d 59d9 88bc
00000370: 337b e13d 7b8c 893d 3e62 c13d 2a6e 773d
00000380: 5559 2e3e a3cf f23d 6180 223e 115e a33d
00000390: 0a78 bfbc 4d1e 8b3d 938d b2bc ce3f fd3d
000003a0: 55b8 ae3d 33ee 8ebd db0b 203e a3a1 9d3d
000003b0: 512e 073c 9503 f1bb 4434 203d 877b 0dbd
000003c0: 4c2c 18bd 43db b33c d53a 00be f6ec ae3d
000003d0: 379e 4d3d e721 9b3d a400 c63d d285 5abd
000003e0: 2342 0f3d c824 083c 1736 82bd d952 f5bd
000003f0: 43a4 86bd 49a0 003e def2 93bd 9c95 663e
0.17988038 0.031789713 0.019586666 0.06868254 -0.061803415 -0.06473978 -0.006633451 -0.10177032
-0.16604567 0.067008145 -0.015143322 -0.028052919 -0.10384097 -0.08550296 -0.12209672 0.004626542
0.026736092 -0.058620345 0.003937425 0.04721297 -0.16403341 0.086050674 -0.05949803 -0.16893831
0.12703477 0.14539291 0.078863315 0.040659614 -0.002939578 0.01295531 0.109607905 0.01209331
0.05079869 0.19677141 0.052087884 0.0425035 0.033848524 0.11909137 0.05736817 0.093929164
0.044814277 0.20466238 -0.09801927 -0.058336936 0.052083775 -0.07286231 -0.0060849367 0.057872288
-0.06298898 -0.0010549073 -0.09362671 -0.041497365 -0.11829906 -0.041103166 0.20212983 0.13059697
-0.039905373 0.12889536 0.092883155 -0.029402187 0.11648262 -0.0595013 -0.07701867 0.14077283
0.04121405 0.15951398 -0.051294398 0.009476023 -0.17149743 -0.033122152 0.049391706 -0.13318913
0.1385924 0.17773063 0.17040677 -0.13348217 -0.011713061 -0.045479193 -0.03389443 0.06835234
-0.09713497 0.0649096 -0.012867806 -0.016458992 -0.11187895 -0.042726822 -0.05284844 0.035040464
0.008370054 -0.17867455 0.034205817 -0.019750819 -0.0029045434 -0.13947974 -0.07677838 -0.093015134
-0.029934213 -0.016922958 0.021193331 0.12614648 -0.025618128 0.13703287 -0.07593587 0.07415273
-0.00923743 0.009362194 -0.0671804 0.0009317247 0.08327898 0.06200386 0.11456899 0.10403963
0.104999535 -0.01826344 0.001275787 0.060342737 0.089197725 -0.031348392 -0.08438074 0.033929568
-0.029540319 -0.019067002 -0.058469195 -0.011769418 -0.038621314 0.108651474 0.08480132 -0.0025362344
-0.14511535 -0.04966493 -0.0030890242 -0.16646911 -0.041271716 0.045963854 0.14291859 0.017261298
-0.04050055 0.13202383 -0.12071353 0.028622745 -0.08702965 0.062815435 0.104322195 0.1487081
0.03407369 -0.008426409 0.12216103 -0.13236758 0.0025182203 -0.14806537 0.10478575 0.091247715
-0.113617614 0.16423957 0.06511324 0.0010295793 0.1438348 0.0726795 0.1265016 -0.17878632
-0.035789695 -0.1271598 -0.07079882 0.013627503 0.020760877 0.045174185 0.050103318 0.019669715
-0.07370894 -0.026171027 0.06284123 0.04394783 0.02391576 0.023215208 0.021764262 0.005184897
0.036071558 -0.043628 0.09006846 0.07883594 -0.11752264 0.020725196 -0.029466016 0.05238118
0.122425325 0.16268295 0.032158997 0.0943316 0.074310616 0.10524539 0.14937119 0.030090777
0.07938912 0.079710856 0.029429557 0.042224687 0.05761446 -0.005909908 0.054770567 -0.13755965
0.062410362 -0.12288903 -0.08460796 -0.028451515 -0.12020687 0.028501848 0.08622825 -0.13228013
0.00040709626 0.055827793 -0.13690782 -0.06587287 0.008486216 0.024717426 0.043030534 -0.0010496387
-0.10670581 0.026620636 0.047114693 -0.016705202 0.110098265 0.06716248 0.09442566 0.060407795
0.17026265 0.1185601 0.15869285 0.07976926 -0.023372669 0.06792889 -0.021796023 0.123656854
0.08531252 -0.06979027 0.15629523 0.076968454 0.008250789 -0.0073551633 0.039112344 -0.034541633
-0.03715162 0.021955138 -0.12522443 0.085412905 0.050199714 0.07574826 0.09668091 -0.053350277
0.034975182 0.008309551 -0.06357973 -0.119786926 -0.06574299 0.12561144 -0.072240576 0.22518009

net.2.module.0.bias f4 [32]
00000000: fbb4 373b db45 bb3c 5958 c1bc c413 793d
00000010: 75c1 2ebd 79f4 c2bc 2739 a4bd c103 803d
00000020: 78cd a2bd dc1b 743d e73e 7c3d bdb0 e83d
00000030: e953 6bbd 6765 f8bc 7795 2e3d 677f 1fbd
00000040: 480f 79bc 0e21 de3d ae43 d53c b553 913c
00000050: 7fea 943c f4fb 473d c396 a1bd 5a4b e43c
00000060: aec8 483c aa62 5f3d 7998 723d e3b9 0abd
00000070: 9c52 97bd 4bc0 48bd d55d 283c 2aa6 38bd
0.0028031457 0.022860458 -0.023601698 0.060809866 -0.042664964 -0.023798214 -0.080187134 0.06250716
-0.07949346 0.05959688 0.061583426 0.11361835 -0.05745307 -0.03032179 0.04262301 -0.03893986
-0.015201397 0.108461484 0.026033249 0.01774011 0.018178223 0.048824266 -0.07890084 0.027867962
0.012254877 0.054537453 0.05922744 -0.03386868 -0.07388803 -0.04901151 0.010276278 -0.04508034

net.3.module.0.weight f4 [32, 32, 3]
00000000: 0b58 3f3e 033f 553d 5b5f bc3d ce54 493d
00000010: 5341 4b3d e938 84bd 6721 d53c df11 0bbb
00000020: fa3c f9bd 28f4 cdbc 260d 853d 911f 94bb
00000030: 87ff 8abd 6675 15bd 6bb3 21bd 9a2b 36be
00000040: 3848 d2bd 94c5 3ebd f582 47bd 4800 b6bc
00000050: 7cf1 86bd d94d dc3d 7d5b 79bd 8c5d 02bd
00000060: c797 453d a3f0 ef3b db42 f13d 0446 6a3e
00000070: 00e2 033e 1850 3d3e 05a6 273d a4eb e0bc
00000080: 23cb e73c 7959 03bd d23f 37ba 0609 243e
00000090: aa37 a63d 886f 1b3c 0b7d ae3c 85c2 d53d
000000a0: a726 0b3e 130c 033e 3258 60bd fb6b 71bc
000000b0: 6abf 88bd 8f96 603c c587 c7bd c6fb 58bd
000000c0: 8b91 7fbd 86e2 36bd c28b debc a45e 5dbd
000000d0: 44e3 ddbd 8b2a 07be 9954 283e 2604 933d
000000e0: 3d55 513d c887 b93c c311 83bd c8b8 bebd
000000f0: 12fe 2a3b 7896 0e3e 4e9f 263c a9a0 eb3d
00000100: 9b7c 533d 2ea6 803c 477d f2bb 30e4 393d
00000110: 3a0b 31be 34fd 2fbe 5903 6d3d 730b c7bd
00000120: 46c0 003e 4666 07bc edee 91bd 114b e9bc
00000130: 7ca2 edbc 3cea 3e3c 4683 433d 3308 d6bc
00000140: 66fc b1bd 6c5f cdbd b2c2 d9bc f367 cbbb
00000150: dd10 65bd d700 2e3d 87c6 1bbd 0225 21be
00000160: fbcf 74bd 330f d8bd c2cc c2bc 4bbb 98bc
00000170: 558a 17bc 93d0 16be 5273 c3bd 0ed7 d1bd
00000180: 9446 563d ce76 2abd 6738 08be 7652 8e3d
00000190: fb6f 34bd 987f 023e 537f a0bd 3736 c1bd
000001a0: bbe8 04be 8ba1 80bc 5fb4 37bd 6bbc 1a3e
000001b0: e35c c63c 5693 533d c905 093c 0675 90bd
000001c0: 21ae 913d 8ce1 33bd fc4b 6fbd 691d bebd
000001d0: 3620 30bd 19da 703d 1a37 d8bc 8c48 65ba
000001e0: 2108 9cbc b2c7 b93d baa7 323d a57e fd3d
000001f0: 5f6c 743d c35e 173d e9ec d23d 0e7e 19bd
00000200: 2ae0 f6bd 485c 033b 00a3 a3bd fe17 85bd
00000210: a037 603d 4407 91bd 8955 983d 7930 4dbc
00000220: 2bcf f93c e25c 853d b9c1 82bc 393f a73c
00000230: 4334 fabd d61a 32bc 179c 04bd e761 c73c
00000240: c726 4e3d a87d c7bd 918d cd3d 1e1d d7bd
00000250: e43c 42bd 3c80 123c 503b 0f3d 2258 8ebd
00000260: 46f1 d53b d5cd 593e 940e 9fbb ffcc bd3d
00000270: 504b 823d 34e8 993d feb9 0a3d 166d 01be
00000280: fef4 0abe 08e8 36be 6de5 3a3c fae3 193c
00000290: f2d2 30bc 9317 96bc 5c01 d7bd 91af d93c
000002a0: 4b5f 3b3d a9c6 cf3c c29c b03d e5d6 bf3d
000002b0: cc1b 943d cf2b a8bd 810b 3d3d 8e1e f43d
000002c0: 536b ef3d 6394 ba3c c519 683d 4d99 a63c
000002d0: 5b9e a6bd 8bc0 37bd 6575 103d d292 963d
000002e0: 50fd 0ebd a4a4 b63c 1408 e63d c66c fc3c
000002f0: c315 6cbd 529e 033e cc3a a33d d6f6 ae3d
00000300: ce63 f73b 8951 ea3c 5c58 90bc 8d9e d9ba
00000310: f75c a1bd a0ea 333d 47b6 b23d fd8b 753c
00000320: 668f bf3d a8f4 9ebd 1032 be3d cb1e bc3c
00000330: a8a4 a73c e296 bc3d 42ad 153d c776 833d
00000340: 9481 a9bc ce64 b73d e926 db3c 8e6b e1bd
00000350: a752 7fbd 7c32 f83d b523 bcbc eaba 0a3d
00000360: 1a86 a2bb c7c9 993d dbf8 a9bc 20cb a53d
00000370: c158 ce3d 2ba9 a3bc 257c 20bd e53e c53d
00000380: 0109 e03c 3369 d03d e7e6 cf3d 481d 9b3d
00000390: 01c6 a53d 8939 8e3c c038 ab3d 1d45 aabc
000003a0: 5abb ed3d e10d c5bb 6752 adbd c7cc 80bd
000003b0: 254e 3f3e c76d f7bd 392b 763d 77bb cfbc
000003c0: 869c 93bd 52f0 8b3d 8f23 edbd dcdd 67bb
000003d0: 3219 8d3d 18ae 6dbd 90b1 dd3c b85e e0bd
000003e0: fca7 b13a 3c4b 01bd 1f87 943d d1b2 9c3d
000003f0: 4b15 033d 664b 013e 044e c13d 98a1 aa3d
0.1868593 0.052062046 0.09197875 0.04915314 0.049622845 -0.06456167 0.026016904 -0.0021220369
-0.121698335 -0.025140837 0.064966485 -0.0045203646 -0.06787019 -0.036488913 -0.039477747 -0.1779007
-0.10267681 -0.046575144 -0.048708875 -0.022216931 -0.06589028 0.10757036 -0.060878266 -0.031827495
0.04824045 0.0073223873 0.1178033 0.22878271 0.12879181 0.18487585 0.040929813 -0.027456112
0.028295105 -0.03206775 -0.0006990406 0.16019067 0.08116086 0.00948704 0.02129986 0.10437492
0.13588963 0.12797575 -0.05477161 -0.014735217 -0.06677134 0.013707771 -0.09742693 -0.052974485
-0.06239466 -0.044649623 -0.027166251 -0.054045334 -0.10834363 -0.13199823 0.16438521 0.071785256
0.05110668 0.022647753 -0.06399872 -0.09312588 0.002609138 0.13924587 0.010169817 0.11505253
0.051632505 0.01570424 -0.007400188 0.045383632 -0.17289439 -0.17186433 0.05786452 -0.09718981
0.12573346 -0.00826413 -0.071256496 -0.028478177 -0.029008143 0.0116525255 0.047732614 -0.026126957
-0.08690719 -0.10027966 -0.026582096 -0.00620746 -0.055924285 0.04248127 -0.038031127 -0.15736774
-0.059768658 -0.10549774 -0.023779277 -0.018643996 -0.0092492895 -0.14728002 -0.0954348 -0.102460966
0.052313402 -0.041617207 -0.13302766 0.06949322 -0.044052105 0.12743986 -0.07836785 -0.09434169
-0.12979405 -0.01570203 -0.04484975 0.15110938 0.024214214 0.051654182 0.008363196 -0.070535704
0.071132906 -0.04391627 -0.058422074 -0.09282953 -0.04299947 0.058801744 -0.026393462 -0.0008746467
-0.019046845 0.09071292 0.043616988 0.12377671 0.059673663 0.036955606 0.10299093 -0.03747373
-0.12054475 0.0020044018 -0.07990074 -0.06498717 0.054740548 -0.07081464 0.074381895 -0.012523764
0.030494293 0.065118566 -0.015961515 0.02041589 -0.122169994 -0.010870656 -0.03237542 0.024338676
0.05032995 -0.09740764 0.10036767 -0.105036005 -0.04742135 0.008941706 0.034968674 -0.06950404
0.006529006 0.21269925 -0.004854033 0.092676155 0.06362021 0.07514992 0.033868782 -0.12639269
-0.1357002 -0.1786195 0.011407238 0.009392733 -0.010792481 -0.018321788 -0.10498306 0.026572974
0.045745175 0.025363283 0.08623649 0.0936716 0.07231864 -0.08211481 0.04615355 0.1191989
0.11690392 0.022775834 0.0566652 0.020336771 -0.08135673 -0.044861358 0.035268206 0.073522225
-0.034909546 0.022295304 0.112320095 0.030813586 -0.05763794 0.12853363 0.07970199 0.08543174
0.0075497394 0.028603332 -0.017620258 -0.0016603038 -0.0787906 0.043924928 0.08726173 0.014986989
0.09353523 -0.07761508 0.092868924 0.022963902 0.020464256 0.09208466 0.036542185 0.06419139
-0.02069167 0.08954774 0.026751952 -0.110068426 -0.062334683 0.12119004 -0.022966245 0.03386966
-0.004959834 0.07509189 -0.020748546 0.08095384 0.10075522 -0.019978127 -0.039180893 0.09631137
0.027348043 0.10176315 0.10151463 0.07573944 0.08094407 0.01736142 0.083604336 -0.020784909
0.11608 -0.0060136174 -0.084629826 -0.06289058 0.18682154 -0.12081485 0.060099814 -0.025357945
-0.07207589 0.06832947 -0.11579048 -0.0035380041 0.06889571 -0.058027357 0.027062207 -0.10955566
0.0013554092 -0.03156589 0.07252335 0.07651294 0.03200273 0.12626418 0.094387084 0.08331603

net.3.module.0.bias f4 [32]
00000000: f561 223d caa1 ce3d 6367 95bd bcd9 0cbd
00000010: 575a 0bbd 120b bbbd 498b 5e3d d332 b1bc
00000020: a844 f73a 64f3 3a3d c62c 7f3a 4337 173c
00000030: a39d 4fbc 93d5 683d c15a 713d f4dd 043d
00000040: dd2a 663d af49 1c3d 377f bcbb be25 443c
00000050: 5975 c03c 0f3b a0bd a62f 2b3b 56b4 9f3d
00000060: 2a24 c03d 9802 2bbd b298 a73c 9053 6cbd
00000070: 0b4f 5c3d 246d 023d acd4 b5bd 5b63 b73d
0.0396442 0.100894526 -0.0729511 -0.034387335 -0.0340217 -0.09132971 0.05433205 -0.02163068
0.0018865066 0.04564227 0.000973415 0.009229484 -0.012671861 0.056844305 0.05892444 0.032438233
0.05619322 0.038156208 -0.00575247 0.011971889 0.023493456 -0.078237645 0.002612093 0.07798068
0.09381898 -0.04175052 0.020458553 -0.05769688 0.05378632 0.031842366 -0.088784546 0.089544974

net.4.module.0.weight f4 [32, 32, 3]
00000000: 9d5f 3c3e 3ce5 42be 07e4 c63d bbc4 413d
00000010: cc1e c53d 446a bcbd 5f4c aa3c 8163 c1bd
00000020: fc8f 01be 946d 2dbd e7b3 13bd d5e7 34bd
00000030: cd79 233e a4d4 b03d 5d03 af3d c114 02bd
00000040: 2ea9 a0bc f7c1 13be a381 123e abb0 52bc
00000050: f1f2 1d3d 220b 8b3e 82b3 fd3d 8a0e fd3d
00000060: 7019 adbd 8d46 c43c 2d1b 5cbd 23ff 713d
00000070: 39fa 883d abe9 d63c fb8e 343c 8ebb d9bc
00000080: 2024 7d3d 7aa7 9c3d 8c81 40bd 670d a93d
00000090: e897 8e3d d39a c53c c1b0 31bd a60e d3bd
000000a0: 7035 3e3d e86c 2cbe f77a ac3d 7cd2 163d
000000b0: 0603 863d c17a f7bd 6fd0 bdbd 40b3 cb3d
000000c0: 894e a4bd 3c65 bebd 4040 33be 9f86 e83d
000000d0: 749a 07be 0195 8e3c 8e30 0c3e 6a05 84bc
000000e0: 8f15 ce3a 2489 2b3e 7979 b63c c9e1 0fbe
000000f0: c6d3 173e 8dbe ddbc 9037 fcbd 8405 b8bd
00000100: ff46 a0bd 45aa ab3d 5130 b5bb b837 be3a
00000110: 9bf1 623d 4a92 cebd 5d6d 2d3d 3e27 c5bd
00000120: cccc 2a3e bc97 153e 956d b73d 6c6e 31be
00000130: 8be5 063d 5f70 2bbe 7b03 bc3c a5c0 3ebc
00000140: a9b6 98bd 0b8f 8ebc 678e f6bc df14 fd3c
00000150: 7385 653c 7dd5 1a3e 92ce 31bd af0e 263a
00000160: 22ba 5e3a 5d7a 34bd ea9c e2bd 55ba 463d
00000170: e044 c7bc 6306 983b 9d91 173d 4bf7 29be
00000180: e536 ce3d f52c cdbd 6298 10bd 38c1 2b3d
00000190: 7b43 b73c 6c38 8abc cf13 0f3d 2bbe c03d
000001a0: 3857 4fbc 7414 353d 768b 293d d81a 37bc
000001b0: cf14 ecbd e393 9abc d6cd 133d 4df3 ba3d
000001c0: 92e6 eebc 0316 cf3d 9ea1 e3bd a6a9 a53d
000001d0: f604 dbbc e4eb ff3c 4f83 06bd 287e eabd
000001e0: 3294 e2bd 94ac 46bd 0a59 dc3d 4e14 583d
000001f0: 6252 da3d 14f2 533d 5ae2 743d 3477 77bd
00000200: 8ea5 133c ab2e e93c f56d 993d 2e32 d73c
00000210: a272 bbbd 82a6 64bd cfe7 e53c 1def dbbd
00000220: 97b7 b73d 6286 ef3d 5ee0 09be 225b b6bd
00000230: ecdb d6bc 7ef3 8e3d 0de0 fabb 336c d6bd
00000240: 1fab 153d eb34 92bd 537f c63d 771d efbc
00000250: 5868 9c3d 6840 af3a 3264 a0bc 07c5 58bc
00000260: 951c 653c 05e0 9cbc 3b52 14bd 2058 c4bc
00000270: 7e26 b13d 95cb 333d 77a4 b23d c27e 7abd
00000280: 7339 6bbc 845f 003d 6fa4 da3c 2928 9e3d
00000290: f232 d6bc a4cc c6bd 156b da3c dbeb 3c3d
000002a0: 8d53 c43c 1a4f 633d 432e 9dbb 2487 ce3d
000002b0: 0b70 cdbd f8fd ad3d 815e f73d 7026 e03c
000002c0: 1c34 c2bd ad08 cd3c 1305 e33d 280b a4bd
000002d0: 7147 05be dae8 b1bc 32e9 b13c 7d4b f03d
000002e0: 9802 e03d e0fd 0cbc b7ba a73d 1ff9 0cbd
000002f0: b68e 10bc b6ef 1d3c 5b3a 433d a870 873d
00000300: c506 4f3e fa5c 84bb 4f28 4abd 99b3 55bc
00000310: edc9 fe3c cf40 0cbd 269c fd3c c654 403d
00000320: 1c4d 8b3c 7221 4a3d 24df 7e3c dcb8 403d
00000330: 077f 8c3c 7871 67bc 17bc 66bd 299b a23d
00000340: 83e9 253d 7c37 ff3d f612 1bbd 6972 5ebd
00000350: c8b2 16be f765 c1bc f6ad c8bb 1f34 5f3d
00000360: 2d1c 943d 0091 f43c c5a0 19bd 4bf4 dd3d
00000370: b655 31bd 1d40 493d 0cc4 bf3d 7405 1ebd
00000380: 1657 1abe 5d06 c63d ca4c 5f3d 1bf8 48bd
00000390: 710e a83d a42b a0bd f428 71bd f9f5 1bbd
000003a0: f63b aa3d 5ead 98bc f169 78bd 1149 833d
000003b0: ab8f eabc 694f 03be 8e5f 7c3d 651d 8e3d
000003c0: ea2c 28be e2e6 04bc fd55 463d 32e3 d63d
000003d0: 51ef f23c d5ed 723d 9013 1a3d 4bcc 17bc
000003e0: 01f0 bdbd 06a0 c13d e1d7 6dbd 486f 26ba
000003f0: c503 083c b15e c93b 1127 383d 858e 42bd
0.18395849 -0.19032758 0.097114615 0.047306757 0.09625015 -0.09199956 0.02078837 -0.09442807
-0.12652582 -0.04234083 -0.03606024 -0.044166405 0.15964432 0.08634308 0.08545563 -0.031758074
-0.019611921 -0.1442946 0.14307265 -0.012859504 0.038561765 0.2715693 0.12387754 0.12356289
-0.084521174 0.023959422 -0.053736854 0.059081208 0.06688351 0.026234468 0.011020417 -0.02657869
0.06180203 0.07649131 -0.046998546 0.082545094 0.069625676 0.024121678 -0.043381456 -0.10305528
0.04643768 -0.1683842 0.08421891 0.036821827 0.065435454 -0.1208396 -0.09268271 0.099462986
-0.08022792 -0.09296653 -0.17504978 0.11353802 -0.13242513 0.017405035 0.13690397 -0.016115863
0.0015722978 0.16751534 0.02227472 -0.14050974 0.14826879 -0.0270684 -0.12315285 -0.08985427
-0.078260414 0.08382086 -0.0055294414 0.0014512455 0.055406194 -0.10086496 0.042340625 -0.096266255
0.16679686 0.14608663 0.08956448 -0.17327279 0.032933753 -0.16742085 0.022950878 -0.01164261
-0.07456715 -0.017402193 -0.0300972 0.030893741 0.014008868 0.15120502 -0.04340989 0.00063345855
0.0008496364 -0.044062007 -0.11065085 0.048517544 -0.024324834 0.004639433 0.037004102 -0.16598241
0.10069064 -0.100183405 -0.035301574 0.041932315 0.022371044 -0.016872607 0.034931 0.09411272
-0.012655072 0.04420896 0.041392766 -0.011175834 -0.115274064 -0.018869346 0.036084972 0.09128437
-0.029162679 0.1011162 -0.111148104 0.080889985 -0.026735764 0.031240411 -0.03284007 -0.11449844
-0.11063422 -0.048504427 0.1075917 0.05275374 0.106602445 0.051744536 0.05978618 -0.060416415
0.009011639 0.028464636 0.07491676 0.026269045 -0.09152724 -0.055822857 0.028064637 -0.107389666
0.08970564 0.11695553 -0.13464496 -0.08904101 -0.026227914 0.06980036 -0.0076561035 -0.10469856
0.036540147 -0.071389996 0.09692254 -0.029188855 0.076370895 0.0013370635 -0.019579027 -0.013230569
0.013983865 -0.01914979 -0.036211234 -0.023967803 0.0864992 0.043895323 0.087227754 -0.061156042
-0.014356959 0.03134109 0.026689736 0.07722504 -0.02614734 -0.09707001 0.026662389 0.046123367
0.023965621 0.05549536 -0.0047967746 0.1008437 -0.10031136 0.08495706 0.12078572 0.027362078
-0.09482595 0.025028551 0.11084952 -0.080099404 -0.13015534 -0.021717478 0.021717642 0.11733148
0.10937995 -0.00860545 0.0818991 -0.034417268 -0.008823087 0.009639671 0.047663074 0.06613284
0.20217426 -0.004039404 -0.049354848 -0.013043308 0.031102145 -0.034241494 0.030958246 0.046955846
0.017004542 0.049348302 0.015556131 0.047051296 0.017150415 -0.014126174 -0.05633172 0.07939751
0.040505897 0.12461755 -0.03785988 -0.05430833 -0.14716637 -0.023608191 -0.0061242534 0.054493066
0.072319366 0.029854298 -0.037506837 0.10837611 -0.04329463 0.04913341 0.09363565 -0.03857942
-0.15072283 0.096691824 0.05451659 -0.049064737 0.082058795 -0.07820824 -0.058876947 -0.038076375
0.08312218 -0.018637355 -0.06064791 0.06410421 -0.02863296 -0.12823261 0.061614566 0.069392
-0.16423383 -0.008111687 0.04842185 0.10492553 0.02965513 0.059308846 0.037616313 -0.009265016
-0.09274293 0.0945435 -0.058067206 -0.00063489797 0.00830168 0.0061453213 0.04495913 -0.0474992

net.4.module.0.bias f4 [32]
00000000: 02fd 163d e3f5 d73b bbf0 e33c d24e c73d
00000010: 54e4 4f3c 8771 a2bd 6d07 d53d 483b 453d
00000020: 2991 17bc 26e3 a83d 2d5b cdbc fb0c 823d
00000030: e369 4ebd 72d6 12bb 5faf 9e3d 5a2e ee3d
00000040: 8a5e 7bbd ac2a 95bd 31fe 95bc bac6 9ebd
00000050: e38d c4bd 74c4 1fbc 4276 b13d 6948 1abd
00000060: 5503 9abd 3887 1a3d 4e61 8abd faa1 8ebd
00000070: ad9c 62bc fc6e 6dbd 5f0e bd3d 296d 3abc
0.03686238 0.0065905913 0.02782475 0.09731831 0.012688715 -0.0793181 0.10401807 0.048152238
-0.0092509175 0.0824645 -0.02506789 0.06350132 -0.05039395 -0.0022405651 0.07748293 0.116299346
-0.061369456 -0.0728353 -0.018309684 -0.07752748 -0.09597375 -0.009751428 0.08665134 -0.037666712
-0.07520167 0.03772661 -0.06756841 -0.06964488 -0.0138313 -0.05796717 0.09231257 -0.011378565

net.5.weight f4 [8, 32, 3]
00000000: 58de a5bd 81e0 c03b f702 183e e626 a7bd
00000010: 7710 993d 61cb 39bd 25c6 8abb 9a62 50bd
00000020: eb55 09be 8c5e e9bd b075 9cbd 0094 cbbd
00000030: 5212 ecba 2191 3dbd 4850 023d d03d acbc
00000040: d39c 6abc 1b12 74bd e374 3dbd 51e6 873d
00000050: e229 6ebd 74d4 6abc d926 46bd b17d ad3c
00000060: 5336 e93d 61d8 b9bd 69fe 27bd b200 0a3d
00000070: 3b57 5ebd 3863 043d 51bc 31bd eece 573d
00000080: d69d 46bd 97bc 8e3c f6a1 bf3c 7918 0c3d
00000090: 309e 0b3d e787 ac3d bf5e 83bd 32ce 1d3d
000000a0: c0ae b2bc c216 76bd 6d54 94bd d91e c53b
000000b0: cb63 0d3c 4c5d 343d d018 52bc 4226 b03d
000000c0: 964f 5fba 3c79 4b3c b4cd 733d a6ae 353d
000000d0: 7897 42bb 83d1 1f3d b99e 86bd 70b6 4dbd
000000e0: 39d0 c53d 2ce9 ecbd 6b91 01bb 68ef f3bd
000000f0: 766c 9bbd ab46 12bd ccc5 de3a daeb 903d
00000100: efc6 823d e9c7 a63d c14d 433c 0533 6cbd
00000110: a6df 9d3d fd4c c3bc eda9 8d3d 6403 163c
00000120: 5c8c 8b3b bfd6 a1bd 58b7 cdbd 3c5b 9d3c
00000130: 7e25 883d 1a7e 25bd a3f2 25bd 672a 97bd
00000140: 7b9b 85bd 6062 d739 3fcc 0b3d a51a 2d3d
00000150: 58a6 8a3d 0f3d 993d c636 abbc a505 e6bc
00000160: 5e90 f3bc 8396 3d3c da91 44bc c6ac b7bb
00000170: 0d83 d8bb 5809 9fbd afd6 05bd af73 2abd
00000180: 30ee 22bd a37f 633c 7a9d a23d d954 25bd
00000190: 4735 a5bd 65e6 0e3d 8b30 c1bd f1c1 1f3b
000001a0: 81c8 d5bd 3b1b 0abd 1530 63bd 01f0 b93c
000001b0: 62b2 533d 8ffb 26bd ddb3 b43d 47f8 5b3c
000001c0: c484 8dbd 8a5f edbd 311c c8bd 6a94 3ebc
000001d0: aa71 4b3d 6307 90ba 3a79 1cbd 110c acbb
000001e0: 33fd 2d3e dc12 a73d 975d 003d a92f e33c
000001f0: 917b f53c 63b6 56bd a8ae 8bbd e7d4 dfbc
00000200: a40d 83bc eaf7 aebb 9d61 8dbd a0a9 83bc
00000210: 4759 233d bdd8 51bd 4be9 43bd 92dd 1ebd
00000220: 87eb a53c f023 a6bd 266e 03be 645e d8bd
00000230: 0a5d 59bd 7103 ba3d 875c 82bc 3eb6 e03d
00000240: dda3 753d dfd2 19bd d341 9d3d 8009 223d
00000250: 70a2 293d 24d3 673d 141e bc3c 0c99 dcbc
00000260: d99b c73d 3fdf cebb 4111 c43c 7abe 6abc
00000270: 6ba8 0ebd 38a4 95bd 1fdc 2abd 476f 3cbb
00000280: ea21 323d 0058 213d bdb1 733d 6e11 4e3d
00000290: d4c3 083e b4df 143d 55a4 99bd e6bf 9b3d
000002a0: c1d3 94bc 28a1 b83c 93c6 d7bc 0486 82bd
000002b0: 496f c93b cc5d 47bd 34f3 363d eccb 753c
000002c0: 57d4 a8bd 3e6e 57bd 1de0 a3bd f484 bebd
000002d0: db02 61bd 33dc 4b3d 7ba9 0cbb 2a68 883d
000002e0: 1350 743d 5d57 0fbd c489 59bd a0d0 50ba
000002f0: d852 bf3a a261 46bd cf69 febc 9fd6 6cbd
00000300: 52e5 9bbc 5407 f3bc 65be cabd fc1b c93d
00000310: 91ca dfbc 3595 773c 3352 aebd 8a4c 763d
00000320: cae3 443d c13e 663d 280c 9abb 4846 a33d
00000330: 3b3c ebbd f29a 143c cc71 08be 1c83 d13d
00000340: c552 d23d 6aa7 21bd 4b09 093d f26a 063c
00000350: 7c83 a3bd c4d1 2cbc 445a 9c3c 096f 6fbc
00000360: 3d21 c73c 3e58 013e 87bc a53b 6602 a7bc
00000370: 8e55 bcbd 4941 463d 399e 293d c0bb a2bc
00000380: 0fa9 e3bc e5a9 05be 2dba 7dbd a331 1fbe
00000390: 072f ecbc 7e85 723c 0254 503d 8ac5 4cbd
000003a0: abda 7c3d 6af9 b73d 306f 343d fc34 d1bd
000003b0: 3429 e5bd ed7d 23bd 6884 8cbc ef45 e4bd
000003c0: d819 e33d c128 aa3c 084a 7d3c 9211 b2bd
000003d0: d9d5 583c 1a2f dc3d be1e 1a3d 1b9a bf3c
000003e0: 015e 273d cd76 73bc 5d75 603c 155b b6b8
000003f0: d0b7 1d3b 1e45 17bd eb46 043d 3c6f 84bd
-0.08099049 0.005886138 0.14844881 -0.08161716 0.074738435 -0.045359973 -0.0042350465 -0.050875284
-0.13411681 -0.113949865 -0.076396346 -0.09940338 -0.0018010831 -0.046280984 0.031814843 -0.021025568
-0.014319616 -0.05958758 -0.04625405 0.06635726 -0.05814541 -0.014332879 -0.04837689 0.021178098
0.11387315 -0.09074474 -0.04101411 0.03369207 -0.05428241 0.032321185 -0.043392483 0.052687578
-0.048490368 0.017423911 0.023392659 0.034203026 0.034086406 0.08424359 -0.06414556 0.03852672
-0.021811843 -0.060080297 -0.072426654 0.00601564 0.0086297495 0.044034287 -0.012823299 0.08601047
-0.0008518634 0.012419041 0.059522346 0.04435601 -0.0029692333 0.039018165 -0.06573243 -0.050222814
0.09658856 -0.115679115 -0.0019770514 -0.119108975 -0.07589047 -0.035711925 0.0016996204 0.07076235
0.063856 0.081435986 0.011920393 -0.057665844 0.07708673 -0.023840422 0.069171764 0.009156082
0.0042586755 -0.07902288 -0.10044736 0.019208543 0.06647776 -0.040403463 -0.0405146 -0.073811345
-0.06523796 0.0004108129 0.03413033 0.04226174 0.06770009 0.07482349 -0.020900141 -0.028078863
-0.029731926 0.011571529 -0.011997664 -0.005605313 -0.0066074193 -0.07765454 -0.03267544 -0.04161423
-0.039777935 0.013885411 0.079401925 -0.04036412 -0.080668025 0.03488769 -0.09433087 0.0024377073
-0.10438634 -0.033717375 -0.055465776 0.02269745 0.05168379 -0.04076725 0.08823369 0.013425893
-0.06910089 -0.11590488 -0.09771002 -0.011632064 0.049668945 -0.001098853 -0.03820155 -0.005250462
0.16991119 0.08157894 0.031339254 0.027732687 0.029966148 -0.05242003 -0.068204224 -0.0273232
-0.015997715 -0.0053396123 -0.06903384 -0.016072094 0.039880063 -0.05123209 -0.047829907 -0.038785525
0.02025391 -0.08112323 -0.12834987 -0.105648786 -0.053067245 0.09082688 -0.015913261 0.1097226
0.059970725 -0.037554618 0.076785706 0.03955984 0.041414678 0.056597844 0.022963561 -0.026928447
0.097465225 -0.006313234 0.023934009 -0.01432764 -0.034828585 -0.07306713 -0.04171383 -0.002875285
0.043489374 0.039390564 0.059495676 0.05030959 0.13355953 0.036346152 -0.07502047 0.07604961
-0.018167378 0.022537783 -0.026339805 -0.06373218 0.0061472994 -0.048673436 0.04466553 0.015002232
-0.082436256 -0.05259537 -0.080017306 -0.093027025 -0.054934364 0.049770545 -0.0021463323 0.06660493
0.059646677 -0.034995425 -0.0531099 -0.0007965658 0.0014596833 -0.048432954 -0.031056313 -0.057821866
-0.019030247 -0.02966658 -0.09899596 0.09819791 -0.02731827 0.015111257 -0.08511772 0.060131587
0.0480688 0.05621219 -0.004701156 0.079723895 -0.114860974 0.009070145 -0.1332466 0.10230085
0.10269693 -0.0394663 0.033456128 0.008204209 -0.07984063 -0.010548059 0.01908601 -0.014613875
0.024307841 0.12631318 0.0050578746 -0.020386886 -0.09196006 0.048402105 0.04141066 -0.019864917
-0.027790574 -0.13053091 -0.06194513 -0.15546279 -0.028831018 0.014802335 0.050861366 -0.049993075
0.061731976 0.08983119 0.04405135 -0.10215184 -0.111894995 -0.039915014 -0.01715298 -0.11146151
0.11088914 0.020771386 0.015459545 -0.086947575 0.013234579 0.107511714 0.037626974 0.023388913
0.040861133 -0.014859867 0.013699857 -8.6954016e-05 0.002406586 -0.03693115 0.032294195 -0.06466529

net.5.bias f4 [8]
00000000: 68a0 3c3d 6922 f23c a9f4 ea3c b7e8 03bc
00000010: 5335 28bb b275 17bd 3c8c 4fbd b3fb 7f3c
0.046051413 0.029557424 0.028681116 -0.008051089 -0.002566655 -0.036977477 -0.050670847 0.015623975

exp_avg f4 [32, 120, 2]
00000000: 77c4 91b8 0958 16b9 4c73 b5b9 28d4 b3b9
00000010: 9998 ceb9 db9a 1639 c3ff f6b9 ae40 d1b9
00000020: ed6e eb39 0084 aa39 d192 ed39 f684 feb8
00000030: bd0d 4a39 9d93 3939 9a90 a73a 5c69 6539
00000040: a071 a339 769b 9339 96d1 78b7 8ae1 43b7
00000050: 85d5 8739 efdc d939 24fe 393a 1baf 9b39
00000060: 8426 8e37 dba5 e838 7a80 c6b7 3af1 d736
00000070: 0dc2 d039 ce2b bc39 c8ce 08ba a9e6 9aba
00000080: 54db 90b9 b8db acb7 665c 8fb8 720c e0b8
00000090: 15ef 8dba bab8 5a38 e36c 3039 5963 3b39
000000a0: 3ca9 593a 0887 403a d91c 5839 11e2 7239
000000b0: 64a6 e63a 8104 9a3a 10b8 353a 2ba6 983a
000000c0: 93f0 e239 6f5f 2339 81e0 78b9 4eb1 ffb9
000000d0: 8712 83b9 7aa0 7638 0c12 5bb7 92bd 11b7
000000e0: 9cfd 0b37 870b 2eb7 db21 4637 7d29 fe36
000000f0: e453 01b8 4626 c536 f5da 033a bf9b 6339
00000100: 945f 36b7 4e9a 04b9 e831 4e38 7ac0 de36
00000110: 37d5 32ba 815e 3dba 0b7d 5139 65ae 2839
00000120: aca2 9cb9 ba27 84b9 ba93 1db9 b905 98b9
00000130: d865 b0b8 1ce3 eeb6 0000 0000 0000 0000
00000140: d034 cc36 b68b 5c39 a66b f7b7 e199 0ab9
00000150: faa9 0d39 5b9e 1937 a9ae 6538 855b 9436
00000160: 9f9b c9b9 c364 ceb9 0b9b 3639 382e 2639
00000170: 7755 a53a 4a18 ef3a 6cef 033a d46e b139
00000180: 91f7 2638 5454 1e39 149b 7238 7e52 9e38
00000190: d08f 94b6 82c5 5bb8 a165 583a d802 1e3a
000001a0: 2f24 6bba 4b18 c2ba 515c f739 31be c939
000001b0: c36f 2e3a b615 7a3a e2d1 57b9 d122 93b8
000001c0: ee34 19ba 5fb5 74ba 525e c638 cc25 da38
000001d0: 3b28 02b8 9fa4 7bb6 62a7 723a 9deb 963a
000001e0: df39 0ab9 05f6 6b35 3b47 9a36 4e5b 1e37
000001f0: 542a 94b8 d28c 1db9 2b4b 3dba c4b8 1bba
00000200: 6f0b d6b7 9a9e 5639 b9ca 4936 fd28 2e36
00000210: 4044 55ba 598f 6eba 6546 9ab8 cbdd 0a37
00000220: 49e1 f937 8401 1339 16f3 dab8 3c7e 35b9
00000230: f647 81b9 17b2 ccb9 4c70 8a39 68ec 2e39
00000240: e9ca f039 ff89 1839 ddf6 bf39 440b 9f39
00000250: fcf4 1239 5c99 2439 5bc0 3938 8215 cf37
00000260: 3e80 2539 5d66 c438 9d63 2239 a9a9 8736
00000270: c0fb 123a 251e d939 efa1 4839 7996 da39
00000280: fff8 a1ba 25d3 6039 ca71 bb39 700b 0c39
00000290: 5e04 a5b8 04a9 6db9 93e0 5538 f711 2238
000002a0: 3f52 6338 3150 5538 fac4 3039 53a2 a939
000002b0: 65a8 ea39 4aa0 d839 a0d0 d939 313d ee39
000002c0: 4745 cd39 7ade 8b38 6325 a939 34a2 2a38
000002d0: 814e d9b8 12f5 90b8 6e0a 3338 2160 6c38
000002e0: ed81 703a 78b1 213a 2a96 7439 ead7 cb36
000002f0: a9f3 9ab9 e2b7 61b9 69d6 533a 24cf 543a
00000300: eabb d8b8 8398 2db8 2904 8037 6c1d 6d38
00000310: 4e6e ad39 308e 4b39 7b59 8739 2a53 2239
00000320: 1c5f 9f39 f543 02b7 7581 96b7 1257 a238
00000330: ab57 1738 df5e c438 9691 55ba fd65 4aba
00000340: c5ce 27b8 618b d3b9 54b4 b137 027e b9b7
00000350: 4964 c0b8 f403 4db8 5982 4db9 008a 1fb9
00000360: b4c0 af39 cad1 0f3a 1431 213a 41ac 6139
00000370: eca2 6fb9 b378 6d39 5399 0db9 2f56 f937
00000380: 20b5 86b9 7f7d 1939 d0ab e838 04b5 0e38
00000390: 0c23 82b7 eb33 a4b9 15f4 eb38 69cd 6b3a
000003a0: f946 bfb8 17cd 27b9 971c 6939 c9b1 8439
000003b0: 429f f2b9 6d6a 1eba 437e 0cb9 c0f5 30b9
000003c0: 0e4a 8b38 b5f4 b238 de2b 0238 0757 26b8
000003d0: 398c d63a 7be2 0f3b f8c9 0a3a 4c90 063a
000003e0: 4c46 1739 2dee a338 6b09 04bb 7ae8 38ba
000003f0: bb65 ac38 7e4c 1139 20f8 2a39 78d1 6e39
-6.950733e-05 -0.0001433791 -0.00034608913 -0.0003429961 -0.00039405076 0.00014362803 -0.00047111334 -0.00039911777
0.0004490534 0.00032523274 0.0004531355 -0.0001213643 0.00019269339 0.00017697965 0.0012784183 0.00021878391
0.0003117444 0.00028153852 -1.483075e-05 -1.1675418e-05 0.0002590829 0.00041554074 0.000709506 0.00029694368
1.6945654e-05 0.00011093515 -2.3663266e-05 6.435582e-06 0.0003981743 0.0003589079 -0.0005218801 -0.001181801
-0.00027629232 -2.0606312e-05 -6.835982e-05 -0.000106834705 -0.0010828698 5.214729e-05 0.00016825231 0.0001787072
0.0008303111 0.000734434 0.00020610112 0.00023163135 0.0017597196 0.001175061 0.00069320295 0.0011646202
0.0004328532 0.00015580443 -0.00023734757 -0.00048769492 -0.0002500007 5.8800426e-05 -1.3057619e-05 -8.686811e-06
8.344094e-06 -1.0373892e-05 1.1809602e-05 7.5746198e-06 -3.0834126e-05 5.875513e-06 0.00050298806 0.00021706427
-1.0870299e-05 -0.00012645984 4.9160706e-05 6.638523e-06 -0.00068219326 -0.000722386 0.00019978375 0.00016086696
-0.0002987584 -0.000252066 -0.00015027719 -0.00028995963 -8.411304e-05 -7.1193917e-06 0.0 0.0
6.085822e-06 0.00021032881 -2.9494822e-05 -0.0001321803 0.00013510129 9.156381e-06 5.476052e-05 4.421398e-06
-0.00038453654 -0.00039366455 0.0001741463 0.00015848211 0.0012613971 0.0018241492 0.000503293 0.00033842644
3.980805e-05 0.00015099469 5.7841724e-05 7.5493925e-05 -4.4274857e-06 -5.2397612e-05 0.000825489 0.00060276454
-0.00089699303 -0.0014808265 0.00047180292 0.0003847941 0.0006654227 0.00095399783 -0.00020582185 -7.015991e-05
-0.0005844374 -0.0009334888 9.458944e-05 0.0001040209 -3.1031883e-05 -3.7497737e-06 0.00092565094 0.001151431
-0.00013182264 8.790233e-07 4.59785e-06 9.438792e-06 -7.065074e-05 -0.00015025146 -0.0007220979 -0.0005940313
-2.5516112e-05 0.00020467714 3.0069334e-06 2.5951879e-06 -0.0008135475 -0.000910034 -7.356404e-05 8.277081e-06
2.978802e-05 0.00014019577 -0.00010440328 -0.00017308531 -0.00024658412 -0.000390426 0.0002640508 0.00016682001
0.00045927547 0.00014547257 0.00036614286 0.00030335237 0.00014014909 0.0001569739 4.4286582e-05 2.4686338e-05
0.000157834 9.365075e-05 0.00015486633 4.0430646e-06 0.00056069717 0.00041411925 0.00019133811 0.0004169231
-0.0012357532 0.00021440962 0.000357522 0.00013355701 -7.8686266e-05 -0.00022665045 5.099231e-05 3.864054e-05
5.4197615e-05 5.085784e-05 0.00016858047 0.00032355133 0.00044757422 0.00041318155 0.00041544903 0.0004544049
0.00039152263 6.669476e-05 0.00032262047 4.0682222e-05 -0.00010361989 -6.912103e-05 4.268664e-05 5.635631e-05
0.0009174634 0.00061681075 0.00023325594 6.075007e-06 -0.0002955471 -0.00021526174 0.0008080961 0.00081180246
-0.00010334684 -4.138845e-05 1.5260726e-05 5.6532605e-05 0.00033079315 0.00019412558 0.00025815875 0.00015480505
0.00030397705 -7.764426e-06 -1.7941677e-05 7.74098e-05 3.6082853e-05 9.3636794e-05 -0.0008146999 -0.0007720886
-4.0008472e-05 -0.00040348902 2.1184016e-05 -2.2112396e-05 -9.173953e-05 -4.887949e-05 -0.00019598882 -0.0001521483
0.00033522176 0.0005486278 0.0006148976 0.00021521842 -0.0002285351 0.00022647045 -0.00013503926 2.9723245e-05
-0.0002569342 0.00014637968 0.00011094625 3.4024022e-05 -1.5513528e-05 -0.000313192 0.00011251137 0.0008995147
-9.1208094e-05 -0.00016002763 0.00022231262 0.00025309462 -0.00046276493 -0.00060430804 -0.00013398477 -0.00016876217
6.64183e-05 8.533282e-05 3.103527e-05 -3.9658535e-05 0.0016368694 0.0021955061 0.0005294378 0.0005133196
0.0001442667 7.8168094e-05 -0.0020147215 -0.00070536847 8.220548e-05 0.00013856773 0.00016304897 0.00022775482

exp_avg_sq f4 [32, 120, 2]
00000000: d2f8 8833 e6c3 0e34 461d e434 e661 6b35
00000010: b640 8037 bee9 8137 0b6a d835 0b84 f435
00000020: 52b5 0336 72ab 1736 d58c bd36 8d9e e536
00000030: 79fe 6d35 41c7 a335 ac06 1037 d3ce 0837
00000040: f547 b535 b029 7435 54d4 2132 763f 7532
00000050: 1108 6636 eca3 4836 514a 4a37 9476 3b37
00000060: 57a4 9334 42de 7c34 f0ef 0037 11e9 ef36
00000070: 83af 1837 e6ba 0a37 4b1e f837 7bed ca37
00000080: 29e5 2436 ca9d 0736 ce50 3635 563b 5335
00000090: 37e3 1938 72f0 f637 dad1 8136 2136 9936
000000a0: 7e82 ad36 b455 c036 1863 9535 8b61 8b35
000000b0: 2758 ab37 0a97 8d37 20dd 6e37 fbab 8737
000000c0: d061 8a35 6495 a635 cedb c537 fa53 bc37
000000d0: a41b 8c36 b135 8036 be67 3233 d4b0 d832
000000e0: a4cf f932 3f8f f632 9c8e a534 f7cd 0a35
000000f0: ac25 fd34 c520 f434 7c90 8d36 f403 8236
00000100: a1d0 0635 6f5f 2b35 c771 ea34 c8b0 ed34
00000110: 4b0d da36 0e29 d936 20e2 3b35 cbf3 fb34
00000120: 4596 a635 c743 8535 1629 0335 e02b f734
00000130: 84ff 8d33 59a4 9533 0000 0000 0000 0000
00000140: 6e06 a635 1fa6 ca35 f78c 5235 b901 7836
00000150: 1e35 f334 2f32 b834 f091 3535 e034 9135
00000160: 11a3 8035 722d 4335 5a39 c635 8d93 9135
00000170: 0e6c 2437 39db 1637 8094 0536 3f20 9d35
00000180: 4116 a335 4fff ca35 3fe5 e933 c0fa d433
00000190: 4f4c d134 c415 1b34 70db 3237 9c8f 5737
000001a0: f2e1 2e38 7892 2838 2b45 e235 c659 d035
000001b0: eb2f 5336 7bb1 8b36 c667 b235 f0e1 1636
000001c0: 9d9c 1937 39b5 5f37 ed4a 5934 da01 7034
000001d0: 05eb 6e34 e6cc 9434 0722 8b37 d234 8c37
000001e0: a643 6237 735e 4137 ff07 8c2f a784 ad2f
000001f0: ec20 aa36 402d be36 1b9d 1b37 a371 ff36
00000200: b65a ef36 9c1e 7b36 6ee7 0931 53a6 4c31
00000210: 240d 3737 d814 3037 a8f1 b237 9c2e b037
00000220: cacf 6e34 e9cc cd34 284c 8136 75b0 5f36
00000230: 35b3 2e36 046a 0a36 cb81 3836 4f72 1c36
00000240: efb4 3936 ae1b 3a36 b5c6 c735 244a 3c35
00000250: 2332 8435 5760 0e35 68a9 0a34 14f9 0a34
00000260: 99bd 6136 4f5b 1f36 3cb4 bf35 26da 1f36
00000270: f886 7337 dc83 dd37 c128 6135 859b 8235
00000280: ea3f cd37 7efe d237 9cfb a235 9198 3e35
00000290: a4f4 f133 3d5b 4634 a86f 6036 0d16 2736
000002a0: 3477 6533 0a49 8b33 18fa 7e35 a835 a635
000002b0: b423 6036 ffb6 8536 ba29 4a36 3f1f 6936
000002c0: f27a ff36 65c1 f436 88ef d335 dbdf 7435
000002d0: 56b8 6c33 99c0 4033 7a4a f634 57e9 2c35
000002e0: 76ad 2b37 1330 e136 9a7c 1c35 70e0 1435
000002f0: 0617 7034 6920 9d34 eab5 8836 d07f 4c36
00000300: ab38 0a35 2e6c c534 b25a d633 764f 2034
00000310: b6f9 df35 4d19 1d36 ee23 9d35 ec3e 5c35
00000320: 570e 3335 4f38 1735 8bd2 bb34 f828 d234
00000330: af0b ae34 b09a a034 806e c735 fad8 7b35
00000340: b8fc df36 eed4 bc36 de31 0e33 4cfa b532
00000350: 2bd1 2d36 9c1c 3336 131d 2534 cd95 0034
00000360: 921b 5936 8b1f 3436 f792 8c36 5ce2 6736
00000370: a27e 5337 6988 2a37 38bc 8d37 df4a 6537
00000380: 91c9 2737 8f1f 0337 07aa 6f33 779f 3e33
00000390: 9850 1836 a640 2d36 3875 b637 398c ae37
000003a0: ee16 5c35 495f 7135 063b ad36 8853 a936
000003b0: 4e71 bd35 6636 f435 6b8e 2335 ef3e 2535
000003c0: bdba fd33 62c4 eb33 b48d bd34 b8c5 cb34
000003d0: 7b28 d937 574c fe37 8ed8 7f36 9243 7636
000003e0: 93bc 1436 cad6 2536 a622 c537 fa0e b837
000003f0: a0f4 c535 5745 ad35 341c 5837 d3ee 3837
6.378254e-08 1.3296048e-07 4.248961e-07 8.7686783e-07 1.5288922e-05 1.5486843e-05 1.6124117e-06 1.8217846e-06
1.9626063e-06 2.2600548e-06 5.649034e-06 6.8431896e-06 8.8659687e-07 1.2202437e-06 8.584622e-06 8.154387e-06
1.3506493e-06 9.0957747e-07 9.419711e-09 1.4275306e-08 3.4277366e-06 2.9897737e-06 1.2057441e-05 1.1173677e-05
2.7500457e-07 2.3550186e-07 7.685259e-06 7.1498876e-06 9.1007705e-06 8.268957e-06 2.957801e-05 2.4190862e-05
2.4571293e-06 2.0208413e-06 6.791787e-07 7.868997e-07 3.6689653e-05 2.9437451e-05 3.8689295e-06 4.5660568e-06
5.170993e-06 5.732023e-06 1.1130205e-06 1.0384696e-06 2.0425838e-05 1.6878843e-05 1.423739e-05 1.6173339e-05
1.0310268e-06 1.2411442e-06 2.3586585e-05 2.2450451e-05 4.175543e-06 3.8209478e-06 4.1538208e-08 2.5226122e-08
2.908184e-08 2.870331e-08 3.0837407e-07 5.1708724e-07 4.7152332e-07 4.5472385e-07 4.2189477e-06 3.874762e-06
5.0222485e-07 6.384134e-07 4.366868e-07 4.4273315e-07 6.498454e-06 6.4718834e-06 6.9991984e-07 4.6929776e-07
1.2411698e-06 9.928998e-07 4.886109e-07 4.6039258e-07 6.612302e-08 6.968248e-08 0.0 0.0
1.2369835e-06 1.509852e-06 7.8436227e-07 3.6955882e-06 4.5300925e-07 3.4309184e-07 6.764012e-07 1.081873e-06
9.584202e-07 7.270929e-07 1.4768841e-06 1.0846285e-06 9.80032e-06 8.9917385e-06 1.9904983e-06 1.1706796e-06
1.2150923e-06 1.5124477e-06 1.08916076e-07 9.9176305e-08 3.8984805e-07 1.4443418e-07 1.06607185e-05 1.2848435e-05
4.169526e-05 4.019073e-05 1.6858443e-06 1.5523335e-06 3.1469342e-06 4.1631843e-06 1.3292236e-06 2.2483255e-06
9.155975e-06 1.333403e-05 2.0236958e-07 2.2352415e-07 2.2250977e-07 2.7716231e-07 1.6585936e-05 1.6713897e-05
1.34864e-05 1.1525687e-05 2.5471533e-10 3.1562772e-10 5.0702274e-06 5.667709e-06 9.275299e-06 7.6128213e-06
7.133315e-06 3.7419732e-06 2.0067676e-09 2.9780451e-09 1.09107095e-05 1.04952705e-05 2.1331784e-05 2.100254e-05
2.224107e-07 3.8333317e-07 3.8533653e-06 3.33323e-06 2.6032333e-06 2.0625312e-06 2.7493686e-06 2.3312348e-06
2.7672465e-06 2.7732272e-06 1.4884487e-06 7.0143346e-07 9.849358e-07 5.3039315e-07 1.2913881e-07 1.2942866e-07
3.3637973e-06 2.3745995e-06 1.4283064e-06 2.3819825e-06 1.45153535e-05 2.6406655e-05 8.3878336e-07 9.731017e-07
2.4467667e-05 2.5152458e-05 1.2143169e-06 7.100253e-07 1.1266937e-07 1.8473379e-07 3.3443594e-06 2.4897774e-06
5.3426632e-08 6.4859776e-08 9.498631e-07 1.238358e-06 3.3399383e-06 3.9850124e-06 3.0124634e-06 3.4737893e-06
7.613905e-06 7.2942807e-06 1.5790438e-06 9.1222836e-07 5.5115684e-08 4.487865e-08 4.587526e-07 6.441455e-07
1.0232781e-05 6.711119e-06 5.829585e-07 5.5460896e-07 2.2360118e-07 2.926711e-07 4.0742934e-06 3.0472766e-06
5.149147e-07 3.677282e-07 9.981649e-08 1.4930069e-07 1.668747e-06 2.340955e-06 1.1707868e-06 8.204795e-07
6.6703564e-07 5.6333823e-07 3.4984654e-07 3.9145357e-07 3.2418527e-07 2.9914872e-07 1.4858815e-06 9.382053e-07
6.675338e-06 5.627625e-06 3.3107305e-08 2.1184995e-08 2.590076e-06 2.6689731e-06 1.53774e-07 1.1975426e-07
3.2351568e-06 2.684045e-06 4.189434e-06 3.455344e-06 1.2606064e-05 1.016455e-05 1.6896156e-05 1.3666896e-05
1.00009065e-05 7.815556e-06 5.5801163e-08 4.4382855e-08 2.2696677e-06 2.581664e-06 2.1750675e-05 2.0807713e-05
8.1989754e-07 8.9918154e-07 5.162673e-06 5.046317e-06 1.4114573e-06 1.8195249e-06 6.092948e-07 6.155887e-07
1.1815198e-07 1.0978762e-07 3.5307096e-07 3.7955556e-07 2.5887266e-05 3.0314708e-05 3.8124012e-06 3.6696188e-06
2.2163483e-06 2.471194e-06 2.3500364e-05 2.1941483e-05 1.4748839e-06 1.2909685e-06 1.288117e-05 1.102286e-05

exp_avg f4 [32]
00000000: ee93 943a 0400 933b 9c99 aebb e978 a53a
00000010: 504d 14bc 8b3b f4ba 266b c9bb 75b9 afbb
00000020: 3994 b439 156d 003c 4851 963a 023d 7e3a
00000030: 2aa3 3d3b 5197 233c 8f61 f0bb 3d63 2cb9
00000040: c182 723b cce5 42bc 85f6 a03b c939 8c3b
00000050: 9967 983b 309e 3f3b ad5f acbb 5d21 23bb
00000060: 452a 223b e22f ab3a 2903 b43a 561e 88bb
00000070: adee dcbb 96a7 693b 2da3 053c 71ca ceba
0.001133559 0.004486086 -0.0053283703 0.0012624535 -0.009051636 -0.0018633468 -0.0061468063 -0.0053626844
0.0003444271 0.007838507 0.0011468315 0.0009698422 0.0028936365 0.009984807 -0.0073358486 -0.00016440167
0.0037004205 -0.011895608 0.0049122 0.0042793495 0.0046510217 0.0029238574 -0.005260429 -0.0024891712
0.0024744433 0.0013060535 0.0013733852 -0.004154007 -0.0067423196 0.0035652868 0.00815658 -0.0015776885

exp_avg_sq f4 [32]
00000000: 93a2 d439 d402 343a 39ac 253a 6400 5f3a
00000010: 6336 963a 1292 7f3a fabc a23a b5b1 ce3a
00000020: 559f 043a d2bf 733a 037f bf39 92eb bb3a
00000030: 0c89 043a 5123 b03a 762b 893a af6f f539
00000040: 6280 5c3a d587 d63a ad2a d839 85cc 9a3a
00000050: 21ca 653a 3d29 db3a 952e 6b3a 4176 7b3a
00000060: 71fe 303a cb8e 1a3a e354 ab3a f338 203a
00000070: 86ec 003b 7220 c63a 15e4 e23a cb4f d33a
0.00040556918 0.00068668765 0.00063199137 0.0008506833 0.00114603 0.0009749244 0.0012415939 0.0015769514
0.0005059143 0.0009298298 0.0003652499 0.0014337173 0.0005055822 0.001343826 0.0010465223 0.00046813252
0.00084114645 0.0016367385 0.00041230526 0.0011810219 0.00087657763 0.0016720664 0.000897148 0.00095925113
0.0006751782 0.00058959116 0.0013071563 0.0006112002 0.001967223 0.0015115871 0.0017310405 0.0016121803
