data/Figure3_Supplement/025/checkpoint_0003500.pth (torch, 237761 bytes, 31 tensors)

net.0.weight f4 [32, 120, 2]
0.017483214 0.12078574 0.010253488 -0.0017260156 0.044655878 0.040994473 -0.017958995 -0.018630566
0.034396157 0.11877314 -0.06415564 -0.036921274 -0.03800756 -0.09418586 -0.062340394 -0.042029332
-0.040874097 -0.021927007 -0.05654292 -0.029704707 0.0018691993 -0.08236071 0.017120482 0.07267484
0.046110764 -0.00567572 0.0013349388 -0.011745672 -0.009594629 -0.10160461 0.06869879 -0.013561052
0.055197164 -0.0009816529 0.052298196 0.02675887 0.032909986 -0.017255237 -0.06489726 0.015607298
-0.050039154 -0.0073452923 -0.032765772 -0.040362164 0.027325181 -0.079622 -0.074678406 -0.059012033
-0.010177513 -0.00036011258 0.06405672 0.02922259 0.008290652 0.018104635 0.13561587 0.058504723
0.08665009 -0.02187271 -0.07633633 0.014700351 -0.009622544 0.013075487 -0.047795154 0.0033941385
-0.10190997 0.0142356455 -0.030111134 -0.124191254 0.0012044318 0.027158093 0.11729628 -0.0063222116
0.04983523 0.0030148767 0.0015045914 -0.0008654566 0.020868028 0.07703354 -0.046511475 0.06019413
0.029837083 0.053000096 -0.11649957 0.0948613 0.02802555 0.004063962 -0.16879492 -0.15374814
0.031499058 0.017413862 0.05507978 0.08162004 0.115060806 0.017566979 0.073249966 -0.01319911
-0.030337974 0.030572243 -0.061111126 -0.06617587 0.018000765 -0.052500922 0.10291826 0.12194162
0.042399466 0.0429464 0.021842254 -0.051472872 0.008653371 0.080640025 -0.0036496783 0.104481466
-0.08444515 0.06678149 -0.0149793215 -0.035416566 0.09821468 -0.04640514 -0.004229805 0.04239483
0.033433747 -0.03326381 -0.067951314 -0.0659617 0.0050069834 0.010642521 0.036063977 0.0150775565
0.04990129 -0.019441828 -0.08413621 -0.0683676 0.019130591 0.0024940218 -0.034473896 -0.029232502
-0.065543145 0.020491133 0.020041663 -0.0014424791 -0.0112862075 -0.038970005 0.028048892 -0.028580448
-0.0008340424 -0.0056266333 -0.046396125 -0.020121481 -0.052800447 -0.022089101 0.076573886 0.15805763
0.0639751 0.055250995 -0.06835129 0.024844866 -0.097225174 0.06632827 -0.039680418 -0.043737177
-0.047742426 -0.021993987 0.039516423 -0.047814615 -0.09422157 0.12699525 -0.030504448 -0.06781941
-0.05739026 -0.052186046 0.00057095283 -0.031269964 -0.049532074 -0.022323694 -0.055902753 -0.07542369
0.03867137 0.021810591 -0.015209337 -0.026041333 0.06865319 0.05608779 0.0033079227 0.060523536
-0.043184724 -0.041531473 0.029867252 0.06377331 0.06810059 0.02688989 -0.049107514 -0.017937
0.032801356 -0.06067498 -0.0055563366 -0.002616542 -0.061515514 0.049507923 0.056551546 -0.06820994
-0.034999624 -0.0030519518 0.014291125 -0.01810272 -0.049738806 -0.16232577 0.08180389 0.016190033
0.009882404 -0.01367377 -0.032032277 -0.087930284 -0.026098093 -0.01136473 -0.06840836 -0.020980226
0.0041576615 0.0065365853 0.0015559277 -0.08705901 0.028433463 -0.031905506 0.008492837 -0.043461464
0.0317449 -0.05806817 -0.20879062 -0.038560577 0.0316975 -0.012007528 -0.018490674 0.0071952837
-0.03566765 -0.0035617389 -0.029820465 -0.005064028 -0.026870126 0.055070117 0.082548454 0.056824602
0.06112646 -0.00017648448 0.060300462 0.07017801 -0.00080186373 0.081249066 0.054180853 0.015197847
-0.10360311 -0.04995218 -0.0028037094 -0.026755707 0.044561375 0.009455961 -0.020942941 -0.030979725
00000000: f538 8f3c 845e f73d 3ffe 273c 793b e2ba
00000010: 15e9 363d d2e9 273d be1e 93bc 219f 98bc
00000020: fce2 0c3d 553f f33d 0864 83bd c33a 17bd
00000030: d1ad 1bbd 84e4 c0bd a458 7fbd f326 2cbd
00000040: 996b 27bd 44a0 b3bc 8d99 67bd 4957 f3bc
00000050: ecff f43a bbac a8bd 4140 8c3c 8cd6 943d
00000060: a4de 3c3d 64fb b9bb 1df9 ae3a eb70 40bc
00000070: ca32 1dbc 1416 d0bd f4b1 8c3d 2d2f 5ebc
00000080: 6c16 623d ceaa 80ba a236 563d 6b35 db3c
00000090: 9fcc 063d db5a 8dbc dbe8 84bd c1b5 7f3c
000000a0: dbf5 4cbd c7b0 f0bb 6735 06bd cc52 25bd
000000b0: 0fd9 df3c dc10 a3bd fef0 98bd 9ab6 71bd
000000c0: 95bf 26bc 7ecd bcb9 2b30 833d 3764 ef3c
000000d0: 84d5 073c 2c50 943c e3de 0a3e a6a2 6f3d
000000e0: 9a75 b13d 662e b3bc 3956 9cbd bed9 703c
000000f0: e0a7 1dbc 913a 563c dac4 43bd 3270 5e3b
00000100: 2db6 d0bd a03c 693c a0ab f6bc fc57 febd
00000110: 06de 9d3a a67a de3c 0839 f03d 8e2a cfbb
00000120: 0720 4c3d 3d95 453b b635 c53a cfdf 62ba
00000130: 6df3 aa3c c3c3 9d3d d182 3ebd 1f8e 763d
00000140: e66c f43c a116 593d 5497 eebd a446 c23d
00000150: d795 e53c fc2a 853b 93d8 2cbe 2770 1dbe
00000160: 2805 013d 84a7 8e3c 569b 613d 6828 a73d
00000170: 00a5 eb3d a0e8 8f3c 1404 963d 1441 58bc
00000180: 5887 f8bc a472 fa3c a94f 7abd 3787 87bd
00000190: 5776 933c 350b 57bd cfc6 d23d 87bc f93d
000001a0: 10ab 2d3d 90e8 2f3d 87ee b23c 38d5 52bd
000001b0: dec6 0d3c 9926 a53d 712f 6fbb 61fa d53d
000001c0: 94f1 acbd bcc4 883d d46b 75bc f610 11bd
000001d0: c724 c93d 5113 3ebd 2d9a 8abb 34a6 2d3d
000001e0: d3f1 083d a23f 08bd 0f2a 8bbd ee16 87bd
000001f0: 9f11 a43b f85d 2e3c d2b7 133d db07 773c
00000200: 4c65 4c3d 7844 9fbc 9b4f acbd 5004 8cbd
00000210: c2b7 9c3c be72 233b 8034 0dbd 0079 efbc
00000220: 7c3b 86bd 05dd a73c 6a2e a43c 9111 bdba
00000230: c9e9 38bc 039f 1fbd cac6 e53c 8b21 eabc
00000240: a3a3 5aba 9f5f b8bb dd09 3ebd ced5 a4bc
00000250: 4845 58bd 34f4 b4bc c5d2 9c3d dcd9 213e
00000260: 6105 833d de4e 623d c3fb 8bbd 7687 cb3c
00000270: fe1d c7bd 1ed7 873d ef87 22bd c125 33bd
00000280: 908d 43bd bc2c b4bc f9db 213d 42d9 43bd
00000290: 3df7 c0bd 0b0b 023e 77e4 f9bc e7e4 8abd
000002a0: 0d12 6bbd 09c1 55bd ffab 153a ef14 00bd
000002b0: 25e2 4abd 2ee0 b6bc 49fa 64bd bc77 9abd
000002c0: df65 1e3d 20ac b23c 9530 79bc a254 d5bc
000002d0: 0b9a 8c3d 4fbc 653d bcc9 583b 87e7 773d
000002e0: 77e2 30bd e81c 2abd 2bac f43c 959b 823d
000002f0: 5278 8b3d 3048 dc3c f624 49bd 9ef0 92bc
00000300: b75a 063d 5486 78bd ee11 b6bb 4a7a 2bbb
00000310: b1f7 7bbd d2c8 4a3d 98a2 673d a7b1 8bbd
00000320: c45b 0fbd 4103 48bb 5325 6a3c 284c 94bc
00000330: ebba 4bbd ba38 26be cc88 a73d f6a0 843c
00000340: cee9 213c f307 60bc 4734 03bd cb14 b4bd
00000350: abcb d5bc 2233 3abc af19 8cbd b9de abbc
00000360: fe3c 883b da30 d63b 45f0 cb3a ff4b b2bd
00000370: 4bed e83c 59af 02bd 8a25 0b3c a604 32bd
00000380: f106 023d e4d8 6dbd 35cd 55be b2f1 1dbd
00000390: 3dd5 013d 39bb 44bc c179 97bc 6ac6 eb3b
000003a0: 3e18 12bd 106c 69bb 0c4a f4bc 25f0 a5bb
000003b0: bd1e dcbc 3491 613d 2a0f a93d eac0 683d
000003c0: bd5f 7a3d b10e 39b9 9efd 763d 7db9 8f3d
000003d0: 2a34 52ba e965 a63d beec 5d3d 6400 793c
000003e0: de2d d4bd a89a 4cbd 70be 37bb c92e dbbc
000003f0: fd85 363d 2ded 1a3c 8890 abbc 31c9 fdbc

net.0.bias f4 [32]
-0.0798917 0.0044934074 -0.031586744 0.032424465 -0.025750134 0.03654139 0.0016848661 0.0034703782
-0.04852174 -0.023732325 -0.019745477 -0.01650432 0.021724787 -0.0052231792 -0.04152726 0.050381143
-0.050709866 -0.051084083 0.058159553 -0.048345145 0.047438256 -0.06057389 0.01591591 0.0043402337
-0.009419941 -0.012983566 0.045946095 -0.016675457 0.03598419 -0.0333609 -0.008752035 -0.04640674
00000000: 429e a3bd 6f3d 933b 1a61 01bd 84cf 043d
00000010: f2f1 d2bc 6dac 153d bad6 dc3a 496f 633b
00000020: bbbe 46bd 4b6a c2bc 44c1 a1bc 1134 87bc
00000030: 2ef8 b13c 3427 abbb 7d18 2abd 755c 4e3d
00000040: 26b5 4fbd 8b3d 51bd b638 6e3d 8f05 46bd
00000050: 9e4e 423d 541c 78bd 1562 823c 8538 8e3b
00000060: 1956 1abc 06b9 54bc f931 3c3d f89a 88bc
00000070: 2864 133d 70a5 08bd b264 0fbc fe14 3ebd

net.2.module.0.weight f4 [32, 32, 3]
0.2084935 0.028054196 0.05555467 0.085766345 -0.060981665 -0.06333878 -0.0044938177 -0.11457235
-0.19495508 0.06543478 -0.011422733 -0.026977474 -0.10963789 -0.079573646 -0.1266996 0.012326662
0.046009496 -0.04021558 -0.014480982 0.024820318 -0.19505523 0.07664905 -0.06938778 -0.16822061
0.1759593 0.17938517 0.11531168 0.07152572 0.016031373 0.019596204 0.15365686 -0.0064138155
0.06231602 0.25486803 0.07186302 0.07789253 0.04754125 0.13488759 0.098225705 0.11333383
0.043436345 0.24475035 -0.08980552 -0.072337165 0.046789084 -0.07507162 0.000511887 0.059079085
-0.08608323 -0.010568836 -0.12310925 -0.05412626 -0.111740395 -0.038945474 0.25967333 0.13702473
-0.0451968 0.12511235 0.08085793 -0.056564767 0.13430566 -0.046899326 -0.071970664 0.1427713
0.028702876 0.1625156 -0.081797816 -0.0038506947 -0.21489169 -0.025697665 0.050602514 -0.15046796
0.16517687 0.2074371 0.2262094 -0.16965748 -0.026150111 -0.071350016 -0.00937491 0.07238578
-0.093522206 0.064047225 -0.011637568 -0.023783684 -0.13610803 -0.036372423 -0.068408296 0.029853458
0.002405324 -0.18658622 0.043172974 -0.0001328677 0.008592163 -0.13481902 -0.07467826 -0.108852774
-0.03363242 -0.034514666 0.02109424 0.16345349 -0.019425714 0.16265655 -0.08491763 0.070804074
-0.019363647 0.01467336 -0.06332 -0.0014353101 0.0942083 0.049164277 0.104841575 0.12825172
0.11678304 -0.026598828 0.008267709 0.05528892 0.10824522 -0.03071782 -0.081755064 0.026330061
-0.041164745 -0.028622689 -0.05510839 -0.0013761732 -0.028829273 0.12628464 0.075638406 -0.016123872
-0.18088658 -0.06540117 -0.020752802 -0.19361128 -0.035749592 0.057192355 0.17476207 0.034806382
-0.024158288 0.13151471 -0.13336654 0.023099136 -0.09760953 0.06382701 0.09305077 0.17450671
0.04160557 0.0041471566 0.13381588 -0.16290043 -0.011361104 -0.17900944 0.12026911 0.107330166
-0.11191816 0.18431169 0.0725727 0.02462836 0.17483824 0.07125118 0.14076926 -0.19193734
-0.046469793 -0.1585477 -0.07447035 0.006626981 0.014716326 0.04233186 0.037695643 0.018969804
-0.08813535 -0.0385343 0.06815149 0.035075746 0.03476402 0.01627269 0.025453007 0.005688187
0.04709087 -0.05153053 0.0926235 0.07127935 -0.1178936 0.023188045 -0.028847242 0.06277633
0.12882827 0.18992761 0.023940599 0.07569921 0.089654684 0.13896881 0.17001225 0.06415568
0.059013344 0.06213839 -0.003973195 0.038348325 0.05824062 -0.022366846 0.097996905 -0.16154444
0.06458699 -0.14344697 -0.1010805 -0.085305944 -0.12855738 0.025532296 0.0950573 -0.16636527
0.006263533 0.076658495 -0.16932602 -0.069728404 -0.013845472 -0.0002633533 0.039474197 0.04230877
-0.13675207 0.048404187 0.07541878 -0.019687876 0.110070966 0.052517984 0.12341839 0.055293836
0.22331223 0.17376095 0.15220842 0.09296387 -0.043408208 0.0665594 -0.019567654 0.15516658
0.070312515 -0.017168052 0.17756224 0.049940363 -0.0111540295 -0.03163521 0.044310205 -0.088005744
-0.04040691 0.028003918 -0.20693387 0.11334925 0.04421854 0.07480585 0.09056611 -0.07449806
-0.0019825946 -0.052555364 -0.085890114 -0.15202814 -0.06932782 0.12765813 -0.04350992 0.25992516
00000000: 527f 553e ead1 e53c 4b8d 633d 44a6 af3d
00000010: e9c7 79bd c3b7 81bd e040 93bb e9a4 eabd
00000020: 4ea2 47be ac02 863d 6a26 3bbc ddff dcbc
00000030: d489 e0bd 82f7 a2bd 8abd 01be c5f5 493c
00000040: 7474 3c3d 18b9 24bd a441 6dbc fb53 cb3c
00000050: 8fbc 47be 2dfa 9c3d 2e1b 8ebd 0642 2cbe
00000060: ad2e 343e bfb0 373e 8828 ec3d 147c 923d
00000070: 3a54 833c 3888 a03c 3958 1d3e fc2a d2bb
00000080: 153f 7f3d 107e 823e eb2c 933d 1e86 9f3d
00000090: 9dba 423d f91f 0a3e 8f2a c93d 911b e83d
000000a0: 4fea 313d d69f 7a3e f5eb b7bd 8225 94bd
000000b0: e9a5 3f3d 26bf 99bd 2830 063a e9fc 713d
000000c0: 684c b0bd e928 2dbc b420 fcbd 7fb3 5dbd
000000d0: 26d8 e4bd 4a85 1fbd e7f3 843e 3650 0c3e
000000e0: 4820 39bd 741d 003e d898 a53d 75b0 67bd
000000f0: 6c87 093e 8219 40bd 5b65 93bd a432 123e
00000100: 4b22 eb3c 7d6a 263e 9d85 a7bd f05b 7cbb
00000110: 910c 5cbe e983 d2bc 9544 4f3d 4614 1abe
00000120: 2024 293e 646a 543e 70a3 673e b1ba 2dbe
00000130: c238 d6bc f51f 92bd 3999 19bc ff3e 943d
00000140: 9288 bfbd 312b 833d 7fab 3ebc 00d6 c2bc
00000150: e75f 0bbe 40fb 14bd a619 8cbd 3d8f f43c
00000160: a4a2 1d3b 7510 3fbe 25d6 303d 6752 0bb9
00000170: 25c6 0c3c ff0d 0abe eaf0 98bd 34ee debd
00000180: 26c2 09bd 405f 0dbd d4cd ac3c 5a60 273e
00000190: ad22 9fbc 708f 263e 4be9 adbd ba01 913d
000001a0: 83a0 9ebc 8868 703c ebad 81bd 0421 bcba
000001b0: 48f0 c03d 7b60 493d 2eb7 d63d 6b54 033e
000001c0: f22b ef3d c9e5 d9bc 4975 073c a276 623d
000001d0: abaf dd3d f0a3 fbbc 336f a7bd 24b2 d73c
000001e0: 5d9c 28bd 217a eabc 56b9 61bd b660 b4ba
000001f0: 5e2b ecbc c350 013e 4fe8 9a3d 3616 84bc
00000200: 553a 39be 0cf1 85bd c801 aabc 0942 46be
00000210: 2a6e 12bd 8842 6a3d d4f4 323e 2391 0e3d
00000220: 9ae7 c5bc cbab 063e 3d91 08be 663a bd3c
00000230: 81e7 c7bd bcb7 823d 6791 be3d e3b1 323e
00000240: 9a6a 2a3d dfe4 873b 0807 093e 5fcf 26be
00000250: ed23 3abc 404e 37be a74f f63d ebcf db3d
00000260: 5935 e5bd 34bc 3c3e ffa0 943d 6ac1 c93c
00000270: cc08 333e 23ec 913d d125 103e 398b 44be
00000280: 1c57 3ebd 545a 22be e983 98bd 2527 d93b
00000290: bf1c 713c 2c64 2d3d bf66 1a3d 9066 9b3c
000002a0: 4e80 b4bd 24d6 1dbd 0293 8b3d 96ab 0f3d
000002b0: b864 0e3d 4e4e 853c d382 d03c f963 ba3b
000002c0: 5be2 403d ad11 53bd 64b1 bd3d e8fa 913d
000002d0: 3372 f1bd dbf4 bd3c 0d51 ecbc e090 803d
000002e0: 8feb 033e 627c 423e 131f c43c 3008 9b3d
000002f0: e09c b73d d74d 0e3e b117 2e3e 0e64 833d
00000300: fab7 713d d384 7e3d 9331 82bb 2213 1d3d
00000310: b78d 6e3d ad3a b7bc 9ab2 c83d e86b 25be
00000320: 2f46 843d c3e3 12be 4b03 cfbd e2b4 aebd
00000330: 8ca4 03be 1b29 d13c 67ad c23d a85b 2abe
00000340: 533e cd3b 21ff 9c3d cd63 2dbe c4cd 8ebd
00000350: 1ed8 62bc ae12 8ab9 b2af 213d f64b 2d3d
00000360: bc08 0cbe 7843 463d 2975 9a3d 7848 a1bc
00000370: e36c e13d 191d 573d c8c2 fc3d ca7b 623d
00000380: f6ab 643e 64ee 313e 86dc 1b3e d763 be3d
00000390: cecc 31bd 4b50 883d 584c a0bc fde3 1e3e
000003a0: 0200 903d 04a4 8cbc e0d2 353e 448e 4c3d
000003b0: 64bf 36bc ec93 01bd 9e7e 353d 5b3c b4bd
000003c0: b781 25bd 7968 e53c 79e6 53be a723 e83d
000003d0: 801e 353d cf33 993d ba7a b93d 7092 98bd
000003e0: 6bee 01bb 4b44 57bd 28e7 afbd 44ad 1bbe
000003f0: befb 8dbd d0b8 023e 7537 32bd e914 853e

net.2.module.0.bias f4 [32]
0.00906423 0.026497131 -0.021398006 0.06580901 -0.037165415 -0.018552326 -0.07429833 0.07136586
-0.075830646 0.06548134 0.07000081 0.11703437 -0.05781933 -0.028457236 0.050794378 -0.03140023
-0.010465712 0.11316295 0.028975451 0.022804929 0.017624497 0.051832337 -0.07526969 0.032309037
0.014903538 0.059354734 0.062181465 -0.029202579 -0.066653885 -0.04849581 0.013294974 -0.044893447
00000000: 2382 143c 8310 d93c df4a afbc e0c6 863d
00000010: c33a 18bd 0cfb 97bc b929 98bd 4428 923d
00000020: 194d 9bbd 151b 863d 965c 8f3d b7af ef3d
00000030: f6d3 6cbd 261f e9bc c40d 503d 879d 00bd
00000040: 6178 2bbc fac1 e73d ed5d ed3c 67d1 ba3c
00000050: 4061 903c 254e 543d ff26 9abd 7b56 043d
00000060: f82d 743c f31d 733d feb1 7e3d 3f3a efbc
00000070: d581 88bd 8ba3 46bd 2ad3 593c 31e2 37bd

net.3.module.0.weight f4 [32, 32, 3]
0.25259897 0.02508671 0.14314997 0.07822542 0.06312006 -0.054401577 0.082632326 0.0054650446
-0.11030335 -0.019191233 0.06620832 -0.0064297053 -0.07749412 -0.044447355 -0.06503533 -0.21971628
-0.11745193 -0.03701916 -0.08110528 -0.03667988 -0.07577481 0.10280081 -0.063910276 -0.0326423
0.059011023 0.0028530415 0.1417773 0.29187718 0.16068484 0.23089354 0.09264177 -0.019030754
0.055356104 -0.015868604 0.009833622 0.186412 0.1197406 0.01424333 0.040358722 0.18076722
0.16105655 0.18973899 -0.08055566 -0.022841437 -0.08177437 -0.0027700982 -0.09770905 -0.0574512
-0.0951583 -0.048516493 -0.03533232 -0.09263961 -0.10144609 -0.13092369 0.2302747 0.07910571
0.042687684 0.022220243 -0.073923565 -0.124771126 0.016622098 0.1451927 0.008035005 0.11685935
0.035834335 0.035834584 -0.03473434 0.03807394 -0.23396206 -0.2048535 0.04407583 -0.13036068
0.1505678 0.015288642 -0.06085147 -0.061655745 -0.029916644 -0.01228673 0.053149264 -0.027843166
-0.08906894 -0.122954026 -0.052307196 -0.046813123 -0.08495837 0.05240755 -0.0764868 -0.16731659
-0.06805912 -0.12204063 -0.0015734195 -0.003376488 0.019086123 -0.14526658 -0.08875931 -0.09549033
0.063900866 -0.048871275 -0.14468771 0.11478484 -0.06527014 0.18525721 -0.094856404 -0.09472622
-0.15745398 0.001964886 -0.03981416 0.16846079 0.028158767 0.061514333 -0.017630858 -0.07890692
0.0732518 -0.047408104 -0.06676928 -0.10471202 -0.049018964 0.07189442 -0.021880915 0.010955311
-0.020590805 0.08996673 0.05695692 0.13413692 0.062178638 0.017894892 0.108216226 -0.05112624
-0.14747742 -0.0101650655 -0.0856864 -0.08693727 0.073922604 -0.07600467 0.1188719 -0.006966312
0.040570665 0.0792463 -0.021733172 0.029596243 -0.13615045 -0.024457434 -0.038886826 0.035574775
0.06102148 -0.09707054 0.090461805 -0.12987415 -0.051631752 -0.028129213 0.043948527 -0.07333243
0.0068170573 0.25316912 -0.018306231 0.12777919 0.08065272 0.07630129 0.06250654 -0.15587242
-0.15507466 -0.2217688 -0.001467639 0.012520978 -0.021460447 -0.001528306 -0.097985 0.042836033
0.059147485 0.032459736 0.10738673 0.09138471 0.07492099 -0.06680647 0.050330237 0.13396803
0.12623174 0.032005776 0.07675316 0.00907307 -0.07505264 -0.023509897 0.024898024 0.08047741
-0.0372626 0.04570706 0.10867104 0.01995471 -0.07466413 0.14768068 0.08516249 0.111070365
0.04012609 0.04941817 0.00040749725 -0.012091613 -0.061005063 0.039238997 0.119449414 0.009938382
0.120228186 -0.076981515 0.09952014 0.009056397 0.03157803 0.087821536 0.05533813 0.060029246
0.0032023182 0.13661848 0.016263291 -0.12188444 -0.08767296 0.1147155 -0.016091235 0.08552549
0.016388703 0.12506111 0.03241272 0.08634295 0.11166075 -0.016982438 -0.040063903 0.10517456
0.04436704 0.123644605 0.09504707 0.07654849 0.10191088 0.025278449 0.096820585 -0.018015785
0.07930337 0.01797747 -0.051800586 -0.05872636 0.22156125 -0.13789348 0.06589679 -0.053061135
-0.09398316 0.08470991 -0.17119235 0.032053925 0.07338642 -0.08474667 0.025662709 -0.13618006
-0.04823505 -0.034455113 0.07259603 0.072077766 0.057216465 0.1450143 0.09649466 0.07136787
00000000: a754 813e a582 cd3c e895 123e a634 a03d
00000010: 1745 813d 30d4 5ebd 233b a93d 1e14 b33b
00000020: b9e6 e1bd ef36 9dbc 3a98 873d 47b0 d2bb
00000030: 3db5 9ebd 6e0e 36bd 3e31 85bd 4efd 60be
00000040: a38a f0bd 67a1 17bd 861a a6bd a43d 16bd
00000050: d32f 9bbd 3b89 d23d 64e3 82bd efb3 05bd
00000060: 8bb5 713d 18fa 3a3b 122e 113e ed70 953e
00000070: 918a 243e 5b6f 6c3e f8ba bd3d 62e6 9bbc
00000080: 15bd 623d e0fe 81bc 331d 213c cae2 3e3e
00000090: 8f3a f53d db5c 693c 304f 253d 0b1b 393e
000000a0: 02ec 243e f04a 423e 5efa a4bd f71d bbbc
000000b0: 5279 a7bd 898a 35bb af1b c8bd f351 6bbd
000000c0: 5be2 c2bd 3bb9 46bd 9fb8 10bd d6b9 bdbd
000000d0: f8c2 cfbd dc10 06be 22cd 6b3e 2d02 a23d
000000e0: 48d9 2e3d 3a07 b63c 3d65 97bd 0188 ffbd
000000f0: 112b 883c 65ad 143e 41a5 033c f453 ef3d
00000100: 06c7 123d 49c7 123d 9845 0ebd 6bf3 1b3d
00000110: c093 6fbe 1ec5 51be dc88 343d 457d 05be
00000120: 722e 1a3e 367d 7a3c 643f 79bd bc8a 7cbd
00000130: c013 f5bc 484e 49bc 0bb3 593d 5a17 e4bc
00000140: c769 b6bd 52cf fbbd 1240 56bd 1ebf 3fbd
00000150: a7fe adbd 4da9 563d 1da5 9cbd 0a55 2bbe
00000160: 9462 8bbd 70f0 f9bd 333b ceba 1248 5dbb
00000170: 805a 9c3c c3c0 14be 71c7 b5bd 6f90 c3bd
00000180: 75de 823d 3f2d 48bd 0429 14be 5014 eb3d
00000190: 5aac 85bd 11b4 3d3e 1344 c2bd d2ff c1bd
000001a0: 9e3b 21be 51c5 003b 2c14 23bd fc80 2c3e
000001b0: 37ad e63c 74f6 7b3d 976e 90bc f499 a1bd
000001c0: 0a05 963d 002f 42bd 55be 88bd 4173 d6bd
000001d0: 1cc8 48bd 623d 933d 9b3f b3bc e87d 333c
000001e0: 0cae a8bc 7a40 b83d a94b 693d 305b 093e
000001f0: 07af 7e3d 4f98 923c 78a0 dd3d c069 51bd
00000200: 5204 17be 608b 26bc 5a7c afbd 2b0c b2bd
00000210: bc64 973d 56a8 9bbd 1c73 f33d a945 e4bb
00000220: 6d2d 263d e24b a23d c409 b2bc d273 f23c
00000230: 066b 0bbe f55a c8bc cb47 1fbd dbb6 113d
00000240: a9f1 793d ebcc c6bd 0a44 b93d bbfd 04be
00000250: d17b 53bd 3c6f e6bc 5f03 343d 502f 96bd
00000260: 9f61 df3b 629f 813e f3f6 95bc 8cd8 023e
00000270: 412d a53d da43 9c3d 6e03 803d 059d 1fbe
00000280: e4cb 1ebe 5c17 63be cb5d c0ba ca24 4d3c
00000290: d2cd afbc 7151 c8ba 5cac c8bd d674 2f3d
000002a0: a244 723d 80f4 043d 93ed db3d e827 bb3d
000002b0: 2d70 993d d5d1 88bd 1427 4e3d ea2e 093e
000002c0: e542 013e 7d18 033d c330 9d3d 37a7 143c
000002d0: 33b5 99bd d497 c0bc f1f6 cb3c 57d1 a43d
000002e0: aba0 18bd 5337 3b3d ec8e de3d 0f78 a33c
000002f0: 82e9 98bd 9b39 173e ac69 ae3d dc78 e33d
00000300: 415b 243d b56a 4a3d 5ba5 d539 e71b 46bc
00000310: 72e0 79bd 12b9 203d e5a1 f43d 98d4 223c
00000320: 323a f63d 7ca8 9dbd 37d1 cb3d 4861 143c
00000330: f757 013d c7db b33d 3caa 623d 3ae1 753d
00000340: fcdd 513b b7e5 0b3e 983a 853c 8d9e f9bd
00000350: e18d b3bd f6ef ea3d c4d1 83bc fd27 af3d
00000360: 9a41 863c 0510 003e 33c3 043d 93d4 b03d
00000370: 64ae e43d c11e 8bbc 0c1a 24bd c265 d73d
00000380: 37ba 353d 6239 fd3d 0aa8 c23d 74c5 9c3d
00000390: a7b6 d03d c014 cf3c df49 c63d d795 93bc
000003a0: ce69 a23d 7d45 933c da2c 54bd 0d8b 70bd
000003b0: f4e0 623e f333 0dbe e5f4 863d a256 59bd
000003c0: 3e7a c0bd 647c ad3d 0c4d 2fbe fa4a 033d
000003d0: 9f4b 963d aa8f adbd 9a3a d23c c972 0bbe
000003e0: 1e92 45bd ce20 0dbd 3aad 943d 829d 933d
000003f0: d05b 6a3d a17e 143e fe9e c53d 5129 923d

net.3.module.0.bias f4 [32]
0.047536854 0.1022718 -0.06778611 -0.032108445 -0.024690276 -0.08438163 0.06498156 -0.009260779
0.008620977 0.052700818 0.01616719 0.012424629 -0.0054265796 0.06922964 0.06929165 0.034548104
0.0641134 0.045095958 -0.003249992 0.019746857 0.02395098 -0.06952591 0.011493719 0.083522104
0.0948095 -0.03826695 0.019342791 -0.048332363 0.06419999 0.036653277 -0.08237959 0.09322918
00000000: 01b6 423d e173 d13d 72d3 8abd 2584 03bd
00000010: 4343 cabc 47d0 acbd 0d15 853d 86ba 17bc
00000020: 003f 0d3c d0dc 573d 0e71 843c ac90 4b3c
00000030: 73d1 b1bb 45c8 8d3d c8e8 8d3d 5082 0d3d
00000040: e34d 833d 8ab6 383d d1fd 54bb 29c4 a13c
00000050: d834 c43c 9a63 8ebd 2750 3c3c a30d ab3d
00000060: 7c2b c23d cebd 1cbd c674 9e3c 28f8 45bd
00000070: 497b 833d bf21 163d a1b6 a8bd f1ee be3d

net.4.module.0.weight f4 [32, 32, 3]
0.1655374 -0.25573817 0.09072581 0.05059925 0.09594209 -0.08458081 0.030304553 -0.10474139
-0.1421167 -0.03574947 -0.03216311 -0.062227577 0.19472508 0.07847117 0.085597456 -0.047605384
-0.014700515 -0.13384403 0.16574448 -0.007999875 0.05309811 0.25723204 0.13106203 0.14632513
-0.09970718 0.04316496 -0.0642405 0.048218124 0.08450216 0.021559551 -0.024268258 -0.045749243
0.06322165 0.07997504 -0.03995435 0.105699755 0.05677384 0.007015739 -0.052931026 -0.12247862
0.05803245 -0.17238264 0.10647948 0.036205564 0.08639201 -0.12662251 -0.09036987 0.11732502
-0.10145662 -0.08390324 -0.18199787 0.12668937 -0.15081093 0.0041230195 0.14642282 -0.0067641763
0.0033933173 0.16686842 0.036808997 -0.1689663 0.16324116 -0.023376133 -0.13234718 -0.1277394
-0.12173319 0.06493778 -0.034853913 -0.03951706 0.048122045 -0.08741823 0.061006654 -0.09987327
0.18471535 0.1689822 0.09831401 -0.1811796 0.05907613 -0.16795453 0.035698656 0.0063026343
-0.060979426 -0.024984285 -0.03888511 0.046530854 0.013975651 0.16057225 -0.048806567 -0.0065295687
0.02623543 -0.058027074 -0.13479087 0.07396836 0.0109005505 0.031867772 0.039908987 -0.13443594
0.092487566 -0.1426558 -0.06921082 0.04551769 -0.009196739 -0.03194043 0.026397279 0.086726196
-0.018220155 0.047902554 0.025689011 -0.01518859 -0.11901622 0.011375419 0.030146863 0.0923835
-0.042978596 0.096326455 -0.118600234 0.09441139 0.002932708 0.02069557 -0.08222313 -0.14964558
-0.13333401 -0.045434352 0.113413356 0.045724872 0.09825253 0.04570875 0.049524732 -0.097649746
-0.020688154 0.012921284 0.060282987 0.0054910537 -0.10914483 -0.10712819 0.013858602 -0.11510936
0.06973298 0.11275151 -0.14522636 -0.09063267 -0.033647858 0.05704021 0.009926527 -0.123962075
0.04562669 -0.075682886 0.10302229 -0.018765967 0.101087674 0.005864298 -0.02016477 -0.021215659
0.015977515 -0.043046247 -0.080121554 -0.028061666 0.088366516 0.027067924 0.070493095 -0.06620851
-0.022477228 0.01205029 0.042591847 0.11831927 -0.012220667 -0.07846431 0.034429956 0.06867898
0.0036528117 0.04059212 -0.010426746 0.1157924 -0.08933667 0.10100229 0.12861188 0.032292586
-0.10076178 0.024412075 0.13918339 -0.10560029 -0.1350228 0.019248279 0.046414692 0.12567353
0.12540664 -0.009362575 0.0790675 -0.047742926 -0.013695362 0.027162451 0.050589778 0.059921194
0.213227 0.002344613 -0.055031057 -0.019806832 0.026100673 -0.05252989 0.03898142 0.0374429
0.035667557 0.033705335 0.003528066 0.036575183 0.035370894 -0.017978644 -0.06394858 0.081756994
0.0437886 0.12999316 -0.036787916 -0.03317302 -0.1574339 -0.032659337 -0.00040342388 0.045057487
0.04490299 0.0780738 -0.027072731 0.10239106 -0.047038697 0.0573337 0.09989831 -0.02380436
-0.13854149 0.12186861 0.071300685 -0.039533243 0.09209361 -0.08148765 -0.065794066 -0.060310278
0.06846892 -0.014877897 -0.041916586 0.08663571 -0.027147442 -0.16237928 0.06585025 0.0703107
-0.18882543 -0.0015533187 0.023633864 0.124604814 0.029204946 0.05993486 0.04000999 -0.01614145
-0.09909953 0.09704054 -0.09674014 -0.020430293 0.0053258785 -0.012850631 0.024004832 -0.072499245
00000000: a382 293e 1df0 82be 74ce b93d 2941 4f3d
00000010: 497d c43d b438 adbd 4141 f83c a782 d6bd
00000020: 0a87 11be 096e 12bd 77bd 03bd 58e2 7ebd
00000030: 0366 473e 7eb5 a03d b84d af3d ddfd 42bd
00000040: 6eda 70bc 690e 09be ecb8 293e e811 03bc
00000050: 677d 593d ebb3 833e 2035 063e 41d6 153e
00000060: 4733 ccbd becd 303d 8690 83bd 5e80 453d
00000070: 780f ad3d a89d b03c 3ace c6bc 8f63 3bbd
00000080: 5a7a 813d f4c9 a33d 2ca7 23bd 1d79 d83d
00000090: b08b 683d 49e4 e53b 34ce 58bd 12d6 fabd
000000a0: 6fb3 6d3d 1385 30be ea11 da3d 494c 143d
000000b0: 4bee b03d 55a9 01be d713 b9bd 1a48 f03d
000000c0: 7dc8 cfbd 76d5 abbd a65d 3abe dcba 013e
000000d0: 2e6e 1abe 651a 873b ddef 153e 06a6 ddbb
000000e0: 6b62 5e3b 8edf 2a3e 08c5 163d 8005 2dbe
000000f0: b128 273e 4e7f bfbc 0586 07be 1ece 02be
00000100: 404f f9bd 19fe 843d fac2 0ebd a4dc 21bd
00000110: 9f1b 453d 5408 b3bd 1de2 793d 5b8a ccbd
00000120: 0526 3d3e ab09 2d3e db58 c93d 2587 39be
00000130: d0f9 713d 46fc 2bbe c138 123d 5486 ce3b
00000140: 90c5 79bd d8ab ccbc fe45 1fbd 2397 3e3d
00000150: 21fa 643c 0d6d 243e 65e9 47bd fef5 d5bb
00000160: afeb d63c ccad 6dbd 9e06 0abe b97c 973d
00000170: 3998 323c c887 023d 9b77 233d 93a9 09be
00000180: 1f6a bd3d 5d14 12be 67be 8dbd c270 3a3d
00000190: ebad 16bc f8d3 02bd 1b3f d83c 819d b13d
000001a0: 6f42 95bc 7835 443d c371 d23c 90d9 78bc
000001b0: c7be f3bd f75f 3a3c 8ef6 f63c 8f33 bd3d
000001c0: 530a 30bd ce46 c53d aee4 f2bd c25a c13d
000001d0: ad32 403b c289 a93c 9a64 a8bd b13c 19be
000001e0: b688 08be 5f19 3abd 4345 e83d 014a 3b3d
000001f0: 9f38 c93d 1939 3b3d 72da 4a3d 97fc c7bd
00000200: 347a a9bc cbb3 533c 4beb 763d 4cee b33b
00000210: 5387 dfbd 0666 dbbd 310f 633c 75be ebbd
00000220: 2ad0 8e3d 44ea e63d 38b6 14be 9f9d b9bd
00000230: 56d2 09bd ffa2 693d dfa2 223c d4df fdbd
00000240: 0de3 3a3d a1ff 9abd 5afd d23d 16bb 99bc
00000250: 0e07 cf3d 4c29 c03b 9630 a5bc 76cc adbc
00000260: 47e3 823c 4351 30bd c516 a4bd 94e1 e5bc
00000270: 81f9 b43d 8dbd dd3c af5e 903d 5498 87bd
00000280: 2a22 b8bc 946e 453c ca74 2e3d 6051 f23d
00000290: 3139 48bc e5b1 a0bd 6d06 0d3d 91a7 8c3d
000002a0: 0364 6f3b ec43 263d f1d4 2abc 9124 ed3d
000002b0: 25f6 b6bd 4ada ce3d d5b2 033e 3b45 043d
000002c0: 315c cebd d5fb c73c 1786 0e3e f744 d8bd
000002d0: 6b43 0abe 91ae 9d3c 551d 3e3d 90b0 003e
000002e0: 996a 003e 7c65 19bc 24ee a13d 168e 43bd
000002f0: 8362 60bc ca83 de3c 3a37 4f3d ed6f 753d
00000300: 2e58 5a3e 14a8 193b 3f68 61bd f041 a2bc
00000310: 14d1 d53c 9529 57bd fbaa 1f3d ba5d 193d
00000320: 2518 123d 9b0e 0a3d 2037 673b dccf 153d
00000330: 12e1 103d f347 93bc 79f7 82bd 3670 a73d
00000340: ad5b 333d ed1c 053e edae 16bd 6fe0 07bd
00000350: 5a36 21be ccc5 05bd a382 d3b9 338e 383d
00000360: 33ec 373d 28e5 9f3d a2c7 ddbc 67b2 d13d
00000370: a6ab 40bd bed6 6a3d 7c97 cc3d 5c01 c3bc
00000380: d2dd 0dbe 4096 f93d 1806 923d 9ced 21bd
00000390: 939b bc3d ffe2 a6bd 0abf 86bd e907 77bd
000003a0: 6f39 8c3d 6cc2 73bc bab0 2bbd 106e b13d
000003b0: 5064 debc c146 26be 7fdc 863d 0eff 8f3d
000003c0: 745b 41be ba98 cbba ce9b c13c cf30 ff3d
000003d0: 363f ef3c 417e 753d 84e1 233d 133b 84bc
000003e0: b2f4 cabd 31bd c63d b21f c6bd 6e5d a7bc
000003f0: b584 ae3b 748b 52bc c8a5 c43c 7c7a 94bd

net.4.module.0.bias f4 [32]
0.04630518 0.0042302776 0.032976475 0.0994797 0.019910838 -0.07901616 0.107825994 0.05485894
-0.014459062 0.08778413 -0.019952033 0.042515963 -0.05525849 -0.0013228833 0.079613574 0.10899289
-0.060932726 -0.065281935 -0.01678458 -0.08457512 -0.094954506 -0.012534371 0.082593195 -0.04195661
-0.0795714 0.028737383 -0.07191616 -0.0859715 -0.012380061 -0.06421811 0.09203337 -0.007934762
00000000: 80aa 3d3d 249e 8a3b 5712 073d 03bc cb3d
00000010: 0e1c a33c 39d3 a1bd e0d3 dc3d c5b3 603d
00000020: b4e5 6cbc 2ac8 b33d 7272 a3bc 3825 2e3d
00000030: ba56 62bd 9964 adba 710c a33d aa37 df3d
00000040: 9894 79bd 89b2 85bd d17f 89bc b835 adbd
00000050: 8277 c2bd f65c 4dbc 9f26 a93d b2da 2bbd
00000060: 55f6 a2bd a96a eb3c c848 93bd d311 b0bd
00000070: bdd5 4abc c984 83bd fe7b bc3d ce00 02bc

net.5.weight f4 [8, 32, 3]
-0.0828692 0.0009776461 0.13760515 -0.059872065 0.080500506 -0.034165442 -0.024875091 -0.04466207
-0.12362426 -0.11821887 -0.06862705 -0.10687912 0.029444803 -0.04155926 0.040772885 -0.01969434
-0.027209926 -0.02050501 -0.050265774 0.054468542 -0.041265976 -0.0034714744 -0.02242131 0.02639703
0.0786173 -0.08441623 -0.019231012 0.047538057 -0.0422901 0.035400838 -0.05026674 0.027580416
-0.050872423 0.03579236 0.026995903 0.043358393 0.02255368 0.06133634 -0.053747825 0.02928949
-0.036842156 -0.0724856 -0.07139885 0.0015749359 0.0030035959 0.043504886 -0.012940995 0.074237615
0.010270214 0.013200077 0.075815186 0.050224442 0.0007232405 0.037451256 -0.058104288 -0.040897794
0.09259754 -0.1353914 -0.019138483 -0.12843162 -0.050418556 -0.01998851 0.012870146 0.08668835
0.05177091 0.07481945 0.03521182 -0.064561956 0.08053495 -0.031857006 0.053295925 0.013689632
-0.021667752 -0.07778986 -0.093092024 0.003737253 0.05025149 -0.04233361 -0.02084515 -0.058252968
-0.051610906 0.02160124 0.034144845 0.05908499 0.05928302 0.056556568 -0.034970716 -0.037448198
-0.0016810867 0.026270727 -0.013767969 0.00058888574 0.02161134 -0.07126143 -0.014464354 -0.03788831
-0.038740806 0.0227095 0.05843717 -0.035440505 -0.06615315 0.04093173 -0.10032169 0.022940312
-0.1092178 -0.03302346 -0.04251291 0.008542577 0.048935648 -0.022589076 0.1049489 0.0028759919
-0.039129414 -0.116126 -0.09532017 -0.013897816 0.027137617 0.0099806525 -0.024013242 -0.0076987827
0.2120864 0.056888852 0.105942056 0.015339843 0.009151554 -0.044759993 -0.07617205 0.0031613994
-0.030555341 -0.04447555 -0.055171836 -0.05400075 0.02156668 -0.049965244 -0.05783026 -0.01402586
0.031551488 -0.06741894 -0.13687657 -0.105285496 -0.07541352 0.100786135 -0.0076564415 0.135515
0.052324384 -0.03917467 0.08485862 0.017447416 0.005720842 0.047679834 0.029462926 -0.038960315
0.10037009 -0.011533203 0.028921172 0.0120210145 -0.043664426 -0.07727577 -0.038985524 -0.0179983
0.048621282 0.0851134 0.062228914 0.036002327 0.15192872 0.029225498 -0.07125965 0.06801754
0.014506091 0.04018413 0.0060110656 -0.084805265 0.0010418474 -0.055449337 0.03464344 0.015836447
-0.059317302 -0.044668883 -0.052223127 -0.13968986 -0.070849024 0.037233103 -0.005251367 0.063245244
0.05598668 -0.0107326135 -0.029544193 0.005514511 -0.05094745 -0.023533372 0.015862187 -0.025369544
-0.027679507 -0.011828007 -0.11153449 0.08807251 -0.035576038 0.012361185 -0.08104879 0.067222625
0.06948595 0.06617482 -0.006194398 0.07255133 -0.14339109 0.0018696989 -0.14528795 0.101907246
0.10081222 -0.048046812 0.015981227 0.010761087 -0.07903571 -0.0082971165 0.03073129 -0.038031876
0.09604812 0.14357612 0.06464149 -0.03900466 -0.11302262 0.03882603 0.049535207 -0.009208588
-0.023611227 -0.15444238 -0.058819376 -0.17443928 -0.034172438 0.025262902 0.049671873 -0.041376468
0.071504414 0.101675816 0.03073006 -0.10018853 -0.11946794 -0.03178263 -0.01144055 -0.07642889
0.0903154 -0.00026386752 0.01806993 -0.10908905 0.0053533847 0.10850449 0.042815562 0.0130725745
0.041370723 -0.0023460502 0.016528742 0.024456857 -0.0016781235 -0.033419516 0.014809242 -0.07533372
00000000: 54b7 a9bd 5c24 803a 5de8 0c3e 693c 75bd
00000010: 73dd a43d 10f1 0bbd d9c6 cbbc 93ef 36bd
00000020: b72e fdbd bc1c f2bd 578c 8cbd 71e3 dabd
00000030: 3a36 f13c 0b3a 2abd 7801 273d 0656 a1bc
00000040: 5ae7 debc 1ffa a7bc 7ce3 4dbd 681a 5f3d
00000050: 8306 29bd ad81 63bb e5ac b7bc 963e d83c
00000060: 1b02 a13d 6be2 acbd 5b8a 9dbc 44b7 423d
00000070: 6238 2dbd 7800 113d 7fe4 4dbd 53f0 e13c
00000080: 9a5f 50bd 029b 123d 8326 dd3c 9298 313d
00000090: 7fc2 b83c d03b 7b3d ae26 5cbd 83f0 ef3c
000000a0: cde7 16bd 5573 94bd 8f39 92bd 146e ce3a
000000b0: fad7 443b 2e32 323d 7806 54bc e409 983d
000000c0: 6644 283c 2345 583c fe44 9b3d 25b8 4d3d
000000d0: d997 3d3a 7d66 193d c3fe 6dbd 7284 27bd
000000e0: c7a3 bd3d 0ba4 0abe 4fc8 9cbc 9483 03be
000000f0: b083 4ebd f2be a3bc 4edd 523c a989 b13d
00000100: bc0d 543d f13a 993d 453a 103d 0f39 84bd
00000110: 82ef a43d 7e7c 02bd d44c 5a3d 7a4a 603c
00000120: 9280 b1bc 4a50 9fbd 08a7 bebd b3ec 743b
00000130: 82d4 4d3d 0266 2dbd 73c3 aabc aa9a 6ebd
00000140: f565 53bd 15f5 b03c 77db 0b3d 1a03 723d
00000150: c1d2 723d dca7 673d 743d 0fbd 4863 19bd
00000160: e957 dcba b535 d73c 0c93 61bc 745f 1a3a
00000170: 440a b13c 83f1 91bd e6fb 6cbc c630 1bbd
00000180: aeae 1ebd 4609 ba3c d05b 6f3d 102a 11bd
00000190: 4d7b 87bd 08a8 273d 7575 cdbd 52ed bb3c
000001a0: 95ad dfbd 9c43 07bd 0422 2ebd 2af6 0b3c
000001b0: bf70 483d ba0c b9bc 73ef d63d 237b 3c3b
000001c0: 2a46 20bd 78d3 edbd 3937 c3bd aab3 63bc
000001d0: b54f de3c e485 233c 6bb7 c4bc 1246 fcbb
000001e0: 2d2d 593e 4904 693d 26f8 d83d f753 7b3c
000001f0: 66f0 153c 4156 37bd 1700 9cbd 7b2f 4f3b
00000200: 324f fabc ff2b 36bd ddfb 61bd e42f 5dbd
00000210: 9bac b03c 5ba8 4cbd 6cdf 6cbd b8cc 65bc
00000220: 223c 013d f112 8abd 5f29 0cbe ec9f d7bd
00000230: 6772 9abd f668 ce3d e3e2 fabb 72c4 0a3e
00000240: 1852 563d 9e75 20bd 5bca ad3d e2ed 8e3c
00000250: e775 bb3b ee4b 433d 3c5c f13c da94 1fbd
00000260: d58e cd3d c2f5 3cbc 18ec ec3c caf3 443c
00000270: 78d9 32bd c242 9ebd 49af 1fbd 2c71 93bc
00000280: 1c27 473d ef4f ae3d bfe3 7e3d 2d77 133d
00000290: 3493 1b3e 506a ef3c 94f0 91bd c84c 8b3d
000002a0: f5aa 6d3c 1d98 243d 79f8 c43b 62ae adbd
000002b0: 998e 883a d81e 63bd 48e6 0d3d 70bb 813c
000002c0: b3f6 72bd b8f6 36bd ebe7 55bd dc0a 0fbe
000002d0: 4b19 91bd bd81 183d a913 acbb b986 813d
000002e0: 4a52 653d d8d7 2fbc aa06 f2bc 12b3 b43b
000002f0: 46ae 50bd 0fc9 c0bc 6bf1 813c cad3 cfbc
00000300: 22c0 e2bc 42ca 41bc 326c e4bd 5c5f b43d
00000310: 2eb8 11bd 9186 4a3c e8fc a5bd 04ac 893d
00000320: a64e 8e3d aa86 873d 60fa cabb cb95 943d
00000330: 1dd5 12be af10 f53a 5dc6 14be bfb4 d03d
00000340: a376 ce3d bccc 44bd 10eb 823c 454f 303c
00000350: 79dd a1bd a1f0 07bc 30c0 fb3c 50c7 1bbd
00000360: e0b4 c43d 9e05 133e c262 843d 5ac3 1fbd
00000370: 6778 e7bd 0b08 1f3d 6ee5 4a3d 9edf 16bc
00000380: 556c c1bc 2526 1ebe 96ec 70bd 36a0 32be
00000390: 66f8 0bbd 25f4 ce3c bc74 4b3d 5f7a 29bd
000003a0: e870 923d 693b d03d 9bbd fb3c a52f cdbd
000003b0: 9bab f4bd 812e 02bd 2571 3bbc c086 9cbd
000003c0: 48f7 b83d b357 8ab9 6407 943c 146a dfbd
000003d0: 726b af3b 9a37 de3d 5f5f 2f3d 5a2e 563c
000003e0: 5974 293d 31c0 19bb 4967 873c bf59 c83c
000003f0: 7bf4 dbba e7e2 08bd 77a2 723c 9148 9abd

net.5.bias f4 [8]
0.041006926 0.027618643 0.020258214 -0.0041273334 -0.0043028393 -0.035033505 -0.047532093 0.015948215
00000000: e1f6 273d 7e40 e23c 8ef4 a53c 953e 87bb
00000010: d5fe 8cbb 4b7f 0fbd 03b1 42bd d5a5 823c

exp_avg f4 [32, 120, 2]
0.00015636392 0.0001912219 0.00010067479 2.970965e-05 -0.002690538 -0.0028950009 0.00021930634 0.00022954166
0.0002422048 0.00038534502 -0.0008417925 -0.00046816474 0.00017678514 0.00023755105 0.00036597662 0.00078176253
0.00041913957 0.000185465 9.596258e-05 9.907654e-05 9.4698684e-05 2.252975e-05 0.00093089987 0.00081297907
2.0464307e-05 5.7496138e-05 -5.8139776e-06 -4.1341526e-05 -0.0009668428 -0.00075937697 -0.0015111436 -0.0007130799
0.00014543094 0.00038412074 0.00010061436 -0.00010727612 -0.00011505232 0.00019127436 -0.00088940904 -0.0011464094
0.0006218432 0.00072396215 0.00038326878 0.00019452046 0.0018691273 0.0011141098 -0.00025417874 -0.00036403406
0.00017650149 0.00025740353 -0.0006026881 -0.0005320582 -0.000778982 -0.0006821316 -6.6555935e-05 -3.378722e-05
1.9274474e-05 -1.9397829e-05 1.2674693e-05 5.4486598e-05 0.000125483 0.00012605585 -0.0001536866 -0.0002561619
0.000116662755 -5.8884605e-05 -0.00019936037 -0.0001910229 0.00062539265 0.0007435541 -0.0011614201 -0.0006404723
0.0007255702 0.00069072493 0.00018246274 4.357389e-05 -1.8594672e-05 7.941434e-07 0.0 0.0
1.8533086e-05 -0.00038910392 -1.8622848e-05 0.00089031307 -0.00015437244 -0.00020052242 -0.0002615456 -0.00026431496
-0.00012098977 -0.000158177 -0.0002852279 -0.00025637788 0.0012590089 0.0015198074 -2.4931049e-05 -8.6889675e-05
0.00018606965 0.0002960352 1.9108744e-05 1.2420461e-05 -0.00012237366 6.253023e-06 -0.0006439065 -0.0008145195
0.0018793904 0.0022873923 -0.00024161169 3.916054e-06 -0.00080452627 -0.00083233893 0.00039879215 0.00035303648
-0.00039842204 -0.0007288286 -4.4196306e-05 -4.0411334e-05 -0.00024148081 2.5080244e-05 0.0016114329 0.0013640882
-0.0005719894 -0.000979223 4.422968e-07 -3.3526537e-06 0.00013246416 -4.7721445e-05 5.586702e-05 0.0004409412
-0.00014118294 0.00018372238 -3.2349346e-06 -2.8870477e-06 0.00092392147 0.00023379792 4.6428224e-05 -7.033109e-05
0.0001201131 0.0001220462 -0.00021951867 -0.00041922153 9.391249e-05 -0.00023465537 -0.00013993062 -0.000116427036
-3.7963448e-05 -5.9613998e-05 0.00041055275 0.00046861437 -3.7923746e-05 8.5106505e-05 2.4069948e-06 -2.304296e-06
-0.0002676001 -0.00013309976 0.00044334933 0.0002175467 0.00077648245 0.0009391862 7.009578e-05 -4.8170932e-05
0.00044065103 0.0009745647 2.2192338e-05 -0.00022243748 -0.00021821192 -0.00035405005 0.00017599457 -4.363123e-05
2.9139105e-06 -3.602702e-05 0.00020479581 0.00023560133 9.359242e-05 -3.2497734e-05 8.789023e-05 0.0005050123
-0.00051227026 -0.0011232315 -6.0143673e-05 -0.00025544455 -9.898146e-05 -7.090881e-05 1.9351126e-05 -0.00012966881
-0.0005831053 -0.0001820736 -5.1724324e-05 -2.984385e-05 0.00020575286 0.00014084086 0.00011571269 0.00036458063
-0.00010971003 -7.6490294e-05 -1.6426678e-05 -8.389595e-05 0.0002543982 0.00031893476 -1.5760255e-05 -3.116624e-05
-0.00014378026 -0.0002287562 9.678985e-05 8.99744e-05 -0.00012175993 3.2907566e-05 9.088011e-05 0.00013385418
0.00025518532 7.928767e-05 -1.252678e-05 -4.0643013e-06 0.00073871785 0.0004877858 0.00013529771 9.372651e-05
-2.0970014e-05 -1.924662e-05 0.00039920217 0.0005690534 0.0011162082 0.0011065302 0.0002761618 0.00010719405
0.00035251683 0.00040973356 -8.688989e-05 -4.498092e-05 0.0001547449 0.00020558096 0.00013986962 -4.2060128e-05
3.7492402e-05 -0.000119894336 0.00023290954 8.5419015e-05 0.00021265676 0.00016628932 -3.4574445e-05 -4.514728e-05
-1.0654343e-05 -2.2125536e-05 -3.251848e-05 1.5831572e-05 -0.00082732097 -0.0011035743 0.00054358254 0.00030576953
0.0006631992 9.549183e-05 0.0007710206 0.0006142822 -0.0004789679 -0.0005168945 -0.0012437743 -0.0011841345
00000000: 9ff5 2339 bd82 4839 5e21 d338 fd38 f937
00000010: bd53 30bb 0eba 3dbb 99f5 6539 1fb1 7039
00000020: 5bf8 7d39 2208 ca39 bdab 5cba 0274 f5b9
00000030: 665f 3939 2017 7939 8de0 bf39 32ef 4c3a
00000040: f6bf db39 6279 4239 853f c938 50c7 cf38
00000050: f898 c638 45fe bc37 a207 743a 1a1e 553a
00000060: c4aa ab37 0228 7138 b015 c3b6 2066 2db8
00000070: b973 7dba ed10 47ba 9111 c6ba fbed 3aba
00000080: d27e 1839 d063 c939 ec00 d338 6ef9 e0b8
00000090: 3e48 f1b8 d290 4839 3b27 69ba 1e43 96ba
000000a0: 3103 233a 47c8 3d3a 77f1 c839 30f8 4b39
000000b0: 81fd f43a 5207 923a 4b43 85b9 d3db beb9
000000c0: 4213 3939 1ef4 8639 b7fd 1dba d279 0bba
000000d0: 9934 4cba 14d1 32ba f293 8bb8 c0b6 0db8
000000e0: 9eaf a137 85b8 a2b7 64a5 5437 8a88 6438
000000f0: 1694 0339 dc2d 0439 ef26 21b9 784d 86b9
00000100: d7a8 f438 ddfa 76b8 640b 51b9 524d 48b9
00000110: 64f1 233a 12eb 423a cb3a 98ba 5ee5 27ba
00000120: 3134 3e3a c411 353a 7853 3f39 1cc3 3638
00000130: c1fb 9bb7 1e2d 5535 0000 0000 0000 0000
00000140: 8077 9b37 a500 ccb9 4338 9cb7 e663 693a
00000150: 09df 21b9 5443 52b9 0e20 89b9 c193 8ab9
00000160: e3bb fdb8 51dc 25b9 a48a 95b9 756a 86b9
00000170: 5405 a53a 4634 c73a 0523 d1b7 8a38 b6b8
00000180: b11b 4339 2c35 9b39 b74b a037 7961 5037
00000190: 6e51 00b9 0fd1 d136 d5cb 28ba 7a85 55ba
000001a0: e155 f63a 13e8 153b 2559 7db9 a666 8336
000001b0: d8e6 52ba 5231 5aba fa14 d139 c117 b939
000001c0: 4de3 d0b9 dc0e 3fba 6c5f 39b8 577f 29b8
000001d0: 0336 7db9 6a63 d237 b736 d33a 34cb b23a
000001e0: 8ff1 15ba 4659 80ba cf74 ed34 27fe 60b6
000001f0: 14e6 0a39 8328 48b8 c252 6a38 202e e739
00000200: 820a 14b9 9aa5 4039 c117 59b6 1abf 41b6
00000210: 5233 723a a727 7539 edbb 4238 b77e 93b8
00000220: 3be5 fb38 0ef3 ff38 982e 66b9 f6ca dbb9
00000230: e2f2 c438 d20d 76b9 57ba 12b9 4a2a f4b8
00000240: f13a 1fb8 0b0a 7ab8 753f d739 5bb0 f539
00000250: 5010 1fb8 357b b238 db87 2136 81a3 1ab6
00000260: ad4c 8cb9 b290 0bb9 5771 e839 3f1d 6439
00000270: db8c 4b3a b833 763a 6300 9338 250b 4ab8
00000280: 2e07 e739 ee79 7f3a af29 ba37 1b3e 69b9
00000290: d1cf 64b9 cb9f b9b9 2f8b 3839 ad00 37b8
000002a0: 9a8c 4336 b81b 17b8 75be 5639 c00b 7739
000002b0: 0c47 c438 2d4e 08b8 b551 b838 cd62 043a
000002c0: e049 06ba 6539 93ba c742 7cb8 30ed 85b9
000002d0: 4494 cfb8 e1b4 94b8 3a54 a237 b5f7 07b9
000002e0: 89db 18ba 03eb 3eb9 92f2 58b8 2e59 fab7
000002f0: 5dbf 5739 aeae 1339 c7aa f238 2f25 bf39
00000300: 2014 e6b8 6a69 a0b8 06cc 89b7 4cf1 afb8
00000310: c060 8539 b336 a739 e434 84b7 7fb8 02b8
00000320: b8c3 16b9 46de 6fb9 a8fb ca38 a3b0 bc38
00000330: 5d59 ffb8 3b06 0a38 e396 be38 355b 0c39
00000340: 65ca 8539 3e47 a638 1c2a 52b7 1560 88b6
00000350: 84a6 413a 80bd ff39 b4de 0d39 098f c438
00000360: c3e8 afb7 cd73 a1b7 024c d139 872c 153a
00000370: bb4d 923a fe08 913a cfc9 9039 5ecd e038
00000380: 02d2 b839 82d1 d639 a838 b6b8 e5a9 3cb8
00000390: 0543 2239 3891 5739 f7a9 1239 b869 30b8
000003a0: 2941 1d38 c86f fbb8 2e39 7439 fc22 b338
000003b0: 9dfc 5e39 f35d 2e39 0704 11b8 865c 3db8
000003c0: 0ec0 32b7 3a9a b9b7 7464 08b8 0bce 8437
000003d0: 92e0 58ba cfa5 90ba 357f 0e3a b14f a039
000003e0: 8bda 2d3a c942 c838 511e 4a3a c807 213a
000003f0: fc1d fbb9 3480 07ba 2406 a3ba f634 9bba

exp_avg_sq f4 [32, 120, 2]
1.1131933e-07 2.1776573e-07 4.070886e-07 7.4800073e-07 1.645752e-05 1.8827663e-05 1.7069756e-06 1.8032956e-06
2.3281473e-06 3.3126703e-06 5.462962e-06 6.9956527e-06 7.087225e-07 9.5234105e-07 7.3387496e-06 7.746253e-06
1.4431541e-06 8.432132e-07 1.4674375e-08 2.2455472e-08 3.1831503e-06 2.4549445e-06 1.6659347e-05 1.6242358e-05
2.87251e-07 1.9938626e-07 7.149925e-06 6.328409e-06 1.123517e-05 8.853967e-06 3.888543e-05 3.340247e-05
2.5944234e-06 2.1608516e-06 6.664845e-07 7.3950775e-07 3.973246e-05 3.013102e-05 3.9936813e-06 5.1900274e-06
6.566187e-06 7.534265e-06 1.2142903e-06 1.0757775e-06 2.067447e-05 1.5486798e-05 1.3349627e-05 1.5197657e-05
1.4079886e-06 1.9096385e-06 2.9170837e-05 2.6931246e-05 4.6880846e-06 4.5722722e-06 5.4392586e-08 2.8635128e-08
3.3987565e-08 2.6565514e-08 3.578268e-07 5.1849054e-07 6.401453e-07 5.8990713e-07 2.977423e-06 2.9797568e-06
4.1060565e-07 6.851666e-07 4.995993e-07 4.0828357e-07 7.2028884e-06 8.134264e-06 2.437356e-06 1.6319868e-06
2.3285734e-06 1.5011634e-06 4.4567417e-07 3.9601142e-07 9.714037e-08 9.814629e-08 0.0 0.0
2.3030236e-06 2.7280855e-06 4.827164e-07 4.8712627e-06 4.2210576e-07 3.451879e-07 4.4552698e-07 7.749844e-07
8.789902e-07 6.171702e-07 1.6318135e-06 1.3166272e-06 1.6933456e-05 1.4303882e-05 2.016573e-06 1.1788069e-06
1.584321e-06 2.3216467e-06 1.1908551e-07 1.2631607e-07 3.545406e-07 1.6762229e-07 2.4486042e-05 2.8628354e-05
5.1130653e-05 5.2711872e-05 1.7720647e-06 1.3668796e-06 5.381203e-06 6.2603735e-06 1.8613183e-06 3.1566933e-06
8.711461e-06 1.2869931e-05 1.8829586e-07 1.8776598e-07 2.5270268e-07 3.1858073e-07 2.717207e-05 2.6507125e-05
1.1825824e-05 9.9125755e-06 8.0561564e-11 1.8884766e-10 5.7265224e-06 6.007119e-06 1.1740741e-05 9.679115e-06
8.013039e-06 4.017727e-06 1.1202991e-09 2.1966156e-09 8.814144e-06 8.688308e-06 2.0113852e-05 2.109399e-05
2.1443537e-07 4.005204e-07 3.8293483e-06 3.404168e-06 1.9098075e-06 1.6436122e-06 2.812105e-06 2.166774e-06
2.6404193e-06 2.7093793e-06 1.6556197e-06 1.6230766e-06 7.3493976e-07 4.9219835e-07 1.1193839e-07 1.0950475e-07
4.406695e-06 3.322692e-06 1.8755134e-06 3.079819e-06 1.5989333e-05 3.173129e-05 5.836588e-07 5.629877e-07
2.0327343e-05 2.0260553e-05 1.4755213e-06 8.2377596e-07 1.6337752e-07 7.059449e-07 2.2043562e-06 1.7881325e-06
6.796848e-08 7.0198254e-08 7.99095e-07 1.1140598e-06 4.0649843e-06 5.0007793e-06 3.5100923e-06 3.7386937e-06
9.557691e-06 1.0343461e-05 2.109473e-06 1.3793597e-06 6.954307e-08 4.710369e-08 5.643725e-07 8.0770667e-07
1.0109781e-05 7.162952e-06 5.443359e-07 6.6216273e-07 3.604216e-07 3.715148e-07 2.9236974e-06 3.046591e-06
5.6952365e-07 3.6390844e-07 1.2054558e-07 1.9448221e-07 2.0563293e-06 3.3576564e-06 1.278789e-06 6.677144e-07
6.886649e-07 7.0191373e-07 2.0988563e-07 2.1965099e-07 3.146339e-07 2.1328826e-07 1.5817146e-06 1.022543e-06
8.023706e-06 6.399925e-06 1.9924151e-08 1.9559755e-08 2.945869e-06 2.9791443e-06 1.3591759e-07 1.2289617e-07
2.4023136e-06 2.0977157e-06 4.6511236e-06 3.4083685e-06 1.0701402e-05 8.843193e-06 1.4281245e-05 1.1586179e-05
1.15401035e-05 9.017708e-06 7.113306e-08 4.9669055e-08 1.8874366e-06 2.3524606e-06 1.649797e-05 1.7797005e-05
7.386418e-07 8.205494e-07 3.4785405e-06 3.8544676e-06 1.3029427e-06 1.742918e-06 8.160926e-07 7.287044e-07
2.6762254e-07 2.2012001e-07 4.385712e-07 5.0058804e-07 3.908548e-05 4.6873745e-05 4.075313e-06 3.7595662e-06
3.5976786e-06 3.8262083e-06 4.4494966e-05 4.2801228e-05 2.2795157e-06 2.0552463e-06 1.8135714e-05 1.639558e-05
00000000: 730e ef33 fdd2 6934 d58d da34 38ca 4835
00000010: 410e 8a37 19f0 9d37 3c1b e535 c408 f235
00000020: 443d 1c36 3e4f 5e36 7c4e b736 33bc ea36
00000030: 0a3f 3e35 61a4 7f35 613f f636 e7f5 0137
00000040: 66b2 c135 2b59 6235 951a 7c32 1be4 c032
00000050: 1b9e 5536 a0bf 2436 adbf 8b37 3340 8837
00000060: 7a37 9a34 e116 5634 63e9 ef36 9f58 d436
00000070: b07e 3c37 808b 1437 ea18 2338 a119 0c38
00000080: db1b 2e36 2603 1136 77e8 3235 9682 4635
00000090: 67a6 2638 dfc1 fc37 7601 8636 ff25 ae36
000000a0: 1e53 dc36 d8ce fc36 b2fa a235 6f63 9035
000000b0: 166e ad37 a5e9 8137 36f8 5f37 71f9 7e37
000000c0: 1ffa bc35 5727 0036 e5b3 f437 69ea e137
000000d0: 574e 9d36 856b 9936 489d 6933 50f9 f532
000000e0: b9f9 1133 2f32 e432 571b c034 662e 0b35
000000f0: 73d6 2b35 1c5a 1e35 bdcf 4736 d5f7 4736
00000100: 3671 dc34 4aec 3735 341c 0635 1132 db34
00000110: 57b0 f136 6678 0837 7591 2336 a40a db35
00000120: 9644 1c36 957b c935 fe44 ef34 659b d434
00000130: 7c9b d033 7ec4 d233 0000 0000 0000 0000
00000140: a58d 1a36 2714 3736 0594 0135 d473 a336
00000150: c69d e234 4452 b934 c330 ef34 8608 5035
00000160: bff3 6b35 9dab 2535 af04 db35 f7b6 b035
00000170: 520c 8e37 b5fa 6f37 7654 0736 7f37 9e35
00000180: dba4 d435 96cd 1b36 f4bb ff33 7fa1 0734
00000190: b057 be34 aafb 3334 6067 cd37 ec26 f037
000001a0: 1f75 5638 f116 5d38 aed7 ed35 a075 b735
000001b0: 2f90 b436 3310 d236 69d2 f935 94d7 5336
000001c0: 7127 1237 efeb 5737 5f2e 4a34 b89c 4934
000001d0: 31ab 8734 6709 ab34 93ef e337 9e5b de37
000001e0: 8767 4637 304e 2637 2128 b12e e4a3 4f2f
000001f0: 7426 c036 c290 c936 19fa 4437 7b63 2237
00000200: be6f 0637 03d0 8636 05f9 9930 45f3 1631
00000210: 76e0 1337 00c4 1137 2bba a837 00f3 b037
00000220: 8c3f 6634 1b07 d734 da7d 8036 2973 6436
00000230: 3e2a 0036 169a dc35 99b7 3c36 e568 1136
00000240: 0f32 3136 c8d2 3536 a936 de35 7dd8 d935
00000250: ad48 4535 9d1f 0435 c862 f033 df28 eb33
00000260: 39dd 9336 6afb 5e36 26ba fb35 e3ae 4e36
00000270: d520 8637 3717 0538 baac 1c35 3820 1735
00000280: a384 aa37 35f5 a937 870a c635 7421 5d35
00000290: df6c 2f34 2a80 3d35 8dee 1336 c4ff ef35
000002a0: 11f6 9133 e6bf 9633 6481 5635 ce86 9535
000002b0: f365 8836 5ecc a736 ed8e 6b36 45e6 7a36
000002c0: f859 2037 d488 2d37 7890 0d36 7022 b935
000002d0: b557 9533 0e4f 4a33 627f 1735 2ed1 5835
000002e0: 2e9d 2937 4a59 f036 7a1e 1235 7abf 3135
000002f0: f87f c134 9b74 c734 bd34 4436 0974 4c36
00000300: 5ee1 1835 325f c334 516f 0134 ddd2 5034
00000310: 78ff 0936 1954 6136 dba2 ab35 fc3c 3335
00000320: b1dc 3835 256b 3c35 ec5c 6134 34d9 6b34
00000330: f4ea a834 3b04 6534 4d4b d435 4f3e 8935
00000340: 8e9d 0637 f0be d636 ac25 ab32 5b04 a832
00000350: a5b1 4536 4fed 4736 bef0 1134 71f5 0334
00000360: 6f37 2136 7bc6 0c36 d910 9c36 53bb 6436
00000370: 2c8a 3337 3a5d 1437 7b99 6f37 4362 4237
00000380: 5e9c 4137 c34a 1737 d0c1 9833 b453 5533
00000390: d453 fd35 f7de 1d36 1f65 8a37 c74a 9537
000003a0: 1447 4635 ba43 5c35 df70 6936 a055 8136
000003b0: c5e0 ae35 35ee e935 7511 5b35 2f9c 4335
000003c0: c3ad 8f34 215a 6c34 c474 eb34 2660 0635
000003d0: b7ef 2338 4d9a 4438 acbe 8836 db4c 7c36
000003e0: a66f 7136 e162 8036 1ba0 3a38 7885 3338
000003f0: c8f9 1836 ddec 0936 2622 9837 3d89 8937

exp_avg f4 [32]
0.0010144439 -0.004533134 0.0011768249 -0.0034194577 -0.0005600366 -0.0031218538 -0.0043830695 -0.005007335
0.001179711 0.0020732805 0.0041996036 0.00032096074 -0.00048638263 0.0027425168 0.0003005609 -0.001749854
0.0016240274 -0.0047653713 -0.00055067346 -0.002243066 -0.0015364516 0.0058254474 0.0008264802 -0.0022839976
-0.00031483645 0.0017939048 -0.004819636 -0.0021060768 0.0016774104 -0.0010379507 -0.0022403114 -0.0053621023
00000000: 17f7 843a af8a 94bb b13f 9a3a fb18 60bb
00000010: 6ccf 12ba 0498 4cbb da9f 8fbb 9214 a4bb
00000020: 88a0 9a3a e0df 073b d49c 893b 9f46 a839
00000030: 2c01 ffb9 ccbb 333b 9a94 9d39 5b5b e5ba
00000040: 51dd d43a d526 9cbb 125b 10ba 6700 13bb
00000050: c362 c9ba 65e3 be3b 26a8 583a 1faf 15bb
00000060: a210 a5b9 7521 eb3a 09ee 9dbb 1b06 0abb
00000070: 8edc db3a d90b 88ba 30d2 12bb 93b4 afbb

exp_avg_sq f4 [32]
0.00038547104 0.00084830396 0.00061740325 0.00060809474 0.0012999603 0.000815308 0.0010961682 0.0018495022
0.0007818633 0.0010908104 0.00035550966 0.0011640539 0.00060471846 0.0014874445 0.0013178003 0.00030824987
0.0008479973 0.0018871707 0.00041213835 0.0013170788 0.0008636558 0.0014327931 0.0008647579 0.0007693754
0.0006285751 0.00069036975 0.00090856507 0.00057186355 0.001302154 0.0014927813 0.0016227694 0.0013711695
00000000: 0c19 ca39 b760 5e3a 3bd9 213a 8c68 1f3a
00000010: 6e63 aa3a 65ba 553a 4dad 8f3a ff6a f23a
00000020: f5f5 4c3a 86f9 8e3a b363 ba39 2b93 983a
00000030: f885 1e3a 5bf6 c23a 0aba ac3a 999c a139
00000040: 234c 5e3a f15a f73a 4614 d839 d5a1 ac3a
00000050: f666 623a 8fcc bb3a ecb0 623a e9af 493a
00000060: f6c6 243a eef9 343a c52c 6e3a 1de9 153a
00000070: 0aad aa3a 6ea9 c33a 1bb3 d43a d0b8 b33a
