data/Figure3_Supplement/005/checkpoint_0001000.pth (torch, 222017 bytes, 31 tensors)

net.0.weight f4 [32, 120, 2]
0	0xbc2a32b7	-0.010388068
1	0x3d82880e	0.063736066
2	0xbd6fc4f0	-0.058537424
3	0x3d6d274b	0.0578988
4	0x3c5190d8	0.012790881
5	0xbd0f89bf	-0.035043474
6	0x3d5b0ef0	0.053481042
7	0xbc91a3da	-0.017778326
8	0xbcb8cab5	-0.022557596
9	0xbcf83928	-0.030300692
10	0x3d4d1265	0.05006637
11	0xbd08267e	-0.033239834
12	0x3c92a7b5	0.017902235
13	0x3ce91d1a	0.02845626
14	0xbd112f0d	-0.03544526
15	0x3bd8125d	0.006593986
16	0x3cc18a84	0.02362562
17	0xbd8e1a0e	-0.06938563
18	0xbc878a19	-0.016545342
19	0x3cc2cce8	0.023779348
20	0xbb8f5661	-0.004374311
21	0x3d38c81d	0.045112718
22	0x3d1adf4e	0.037810616
23	0x394c7304	0.00019497803
24	0x3c5ee6f4	0.013604868
25	0x3d19dbbb	0.037563067
26	0xbb98ca86	-0.0046628146
27	0x3a86c47b	0.0010281944
28	0x3d8d466b	0.06898197
29	0xbd9194f7	-0.07108491
30	0x3cc26b25	0.023732731
31	0x3c95f88e	0.018306997
32	0xbd7fbe2a	-0.062437214
33	0xbd06e8b2	-0.03293676
34	0xbd106d8e	-0.03526073
35	0x3d0a843f	0.033817526
36	0xbd1d3b25	-0.038386483
37	0x3c9fa1a3	0.019486254
38	0xbd9054e4	-0.070474416
39	0x3cb6863a	0.022280801
40	0x3d11edfa	0.035627343
41	0xbd42d194	-0.04756315
42	0xbdbb2a9d	-0.09138987
43	0x3d52a18c	0.051423594
44	0xbcaee456	-0.021349113
45	0xbcb67813	-0.022274053
46	0xbd54fa8d	-0.051996756
47	0x3d1f61c8	0.03891161
48	0xbd3f9154	-0.046769455
49	0xbd51b165	-0.051194567
50	0xbd2ad98d	-0.04171138
51	0x3c3fbf3d	0.01170331
52	0xbd90709a	-0.07052727
53	0xbd16d473	-0.0368237
54	0xbc329997	-0.0109008765
55	0xbbe1ecc5	-0.00689468
56	0xbae55b07	-0.0017498442
57	0xbcfa24e5	-0.03053517
58	0xbc97b0a0	-0.018516839
59	0x3c1b9851	0.009496764
60	0x3ca4b330	0.020104975
61	0x3d00185a	0.031273223
62	0x3d8902de	0.0669
63	0x3d7c8d92	0.06165845
64	0x3cccf5fc	0.025019638
65	0xbce02874	-0.02736304
66	0xbd9985f0	-0.0749625
67	0x3d721ea3	0.05911125
68	0x3a73fb15	0.00093071285
69	0xbd52b775	-0.05144449
70	0xbcd39776	-0.025829058
71	0x3dcb755d	0.09934495
72	0xbc9626bc	-0.018329017
73	0x3b40d5ff	0.0029424427
74	0x3cc3f6fe	0.023921486
75	0xbd2cd73a	-0.042197444
76	0x3d275c8b	0.04085974
77	0xbd8289b0	-0.06373918
78	0xbd2fdd55	-0.042935688
79	0x3c49d7a2	0.012319477
80	0x3d1ae09b	0.037811857
81	0x3d837a99	0.06419868
82	0xbd48828d	-0.048952628
83	0xbc5de3bd	-0.013543067
84	0x3d120ab7	0.03565475
85	0x3bf55a5c	0.0074875783
86	0x3d43eeb8	0.04783508
87	0xbd016e08	-0.031599075
88	0x3d349139	0.044083808
89	0xba980bfd	-0.0011600252
90	0xbd74e7f3	-0.059791517
91	0xbc956d94	-0.018240727
92	0xbc6a1a22	-0.014288457
93	0xbbeaa291	-0.0071604927
94	0xbcb1df96	-0.02171306
95	0xbcc221f4	-0.02369783
96	0xbc724e74	-0.0147892125
97	0xbd49f0fc	-0.049302086
98	0xbca04515	-0.01956419
99	0x3d2fc003	0.042907726
100	0x3cd80c9c	0.0263732
101	0x3d1f57fd	0.03890227
102	0xbd664cc0	-0.05622554
103	0x3d504e42	0.050855882
104	0xbd869792	-0.065718785
105	0xbc88a9fb	-0.016682616
106	0xbcdee520	-0.027208865
107	0xbd1d9584	-0.038472667
108	0x3ca87b0e	0.02056649
109	0xbd4b5cfe	-0.04964923
110	0x3cb166f2	0.021655533
111	0x3d33ab0d	0.0438643
112	0x3d11d90a	0.035607375
113	0xbc1711a5	-0.009220515
114	0xbd5b3f51	-0.05352718
115	0xbd76dcc5	-0.060269136
116	0xbc72aca5	-0.0148116695
117	0xbc7a1517	-0.015263817
118	0xbdbbb827	-0.09165984
119	0x3d216dcd	0.039411355
120	0xbd711f08	-0.058867484
121	0xbcdc4e1d	-0.026892716
122	0xbd3064df	-0.04306495
123	0x3d15da84	0.036585346
124	0x3ce81ff4	0.028335549
125	0x3d223405	0.03960039
126	0xbc27aeed	-0.010234577
127	0xbd499dc2	-0.049222715
128	0xbd348478	-0.044071645
129	0xbc025d97	-0.007956884
130	0x3cc879a1	0.02447206
131	0x3cc9db63	0.024640745
132	0xbd101304	-0.035174385
133	0x3b8f33c2	0.0043701837
134	0x3d304d8f	0.043042716
135	0xbd3f7708	-0.046744376
136	0xbbfd3008	-0.007726673
137	0x3d737cc5	0.05944516
138	0x3d0821cc	0.033235356
139	0x3c8e721d	0.017388398
140	0xbc931e90	-0.01795891
141	0xbd8df338	-0.06931156
142	0x3d695042	0.056961305
143	0xbd3ae856	-0.04563173
144	0xbd709084	-0.05873157
145	0xbc00503b	-0.007831628
146	0xb98a2f4a	-0.00026356644
147	0xbd5e7971	-0.054315034
148	0x3d04abf0	0.032390535
149	0x3cce3094	0.025169648
150	0x3c070076	0.008239856
151	0x3d1a0f08	0.03761199
152	0x3d165716	0.036704145
153	0xbc6bda14	-0.014395256
154	0xbd09d2f4	-0.033648446
155	0x3d610271	0.05493397
156	0xbb5993bc	-0.0033199629
157	0xbd90d241	-0.07071353
158	0x3bdc1143	0.006715925
159	0x3d297a84	0.041376606
160	0xbc15175a	-0.009099806
161	0xbd4ccfb3	-0.050002765
162	0xbd33a049	-0.04385403
163	0xbd544991	-0.05182797
164	0xbba4e75e	-0.005032464
165	0x3d57e3fe	0.052707665
166	0x3d35b524	0.044362202
167	0x3d45cf35	0.04829331
168	0x3d6356a5	0.055502553
169	0xbd410d51	-0.04713184
170	0xbd78edf1	-0.060773794
171	0xbd48cceb	-0.04902355
172	0xbd47b757	-0.04875883
173	0xbd650d9d	-0.055921186
174	0xbc402cac	-0.011729401
175	0xbbd6bea2	-0.006553487
176	0x3c7918da	0.015203679
177	0xbd60637a	-0.05478237
178	0x3ce5b0e2	0.028038446
179	0xbb7ef881	-0.0038905444
180	0x3d4aa84e	0.049476914
181	0x3d0ce440	0.034397364
182	0xbc92ba4c	-0.017911099
183	0x3d2f8922	0.04285539
184	0xbd6412bf	-0.05568194
185	0x3d0200e8	0.031739146
186	0xbd85553f	-0.065104
187	0x3cb803e3	0.02246279
188	0xbcb66ce3	-0.022268718
189	0x3d8e1f8f	0.06939613
190	0x3ce55ee6	0.027999353
191	0x3d3c8184	0.046021953
192	0xbcb720ab	-0.022354444
193	0xbd6267ae	-0.055274658
194	0x3cd8f130	0.026482195
195	0xb81fe39c	-3.8120532e-05
196	0xbcf0e68e	-0.029406812
197	0x3c1d0cf1	0.009585605
198	0x3bcc7446	0.006239447
199	0xbda63b43	-0.08116772
200	0x3d09c9d2	0.033639736
201	0xbb996607	-0.004681352
202	0xbc92f145	-0.017937312
203	0xbdbc07a5	-0.091811456
204	0xbcd8f6ba	-0.026484836
205	0xbaab11b5	-0.0013051542
206	0x3cdd4a2d	0.027012909
207	0x3d3d876c	0.046271726
208	0x3b2ba7b1	0.002619248
209	0x3d52da96	0.05147799
210	0xbbded6f4	-0.0068005268
211	0x3d8d45a4	0.068980485
212	0xbd52b145	-0.05143859
213	0x3ca2801b	0.019836476
214	0xbcd6be1b	-0.026213696
215	0xbd27d178	-0.04097125
216	0xbbbec70f	-0.0058220695
217	0x3d01551c	0.031575307
218	0xbce9ee3c	-0.028555982
219	0xbb94fd39	-0.004546788
220	0xbd5cd36f	-0.053912576
221	0xbd26c3aa	-0.040713944
222	0xbc9cd987	-0.019146694
223	0xbd24d9dc	-0.04024683
224	0xbb9d08a0	-0.004792288
225	0xbd7fa002	-0.062408455
226	0x3cd512ae	0.026009884
227	0x3d2d6c35	0.042339522
228	0x3d54610f	0.051850375
229	0xbcc0b9e7	-0.023526145
230	0x3ca2abb9	0.019857274
231	0xbcebcb6a	-0.028783519
232	0x3b84b78e	0.0040502017
233	0x3d75612e	0.05990713
234	0xbce9d4b2	-0.028543804
235	0xbb6f2b74	-0.0036494406
236	0x3bfd9307	0.0077384743
237	0xbc94c70b	-0.018161317
238	0x3b08c9a2	0.0020872136
239	0xbdaf1666	-0.08549194
240	0x3da39083	0.07986548
241	0x3d078424	0.033085003
242	0xbcd07262	-0.025445167
243	0xbba1a352	-0.0049327994
244	0x3d408403	0.047000896
245	0x3d85f453	0.06540742
246	0xbd8c5b7c	-0.06853387
247	0xbd47d16e	-0.048783712
248	0x3c4eb69b	0.012616779
249	0x3b5afb4f	0.0033413952
250	0xbd83830b	-0.06421479
251	0xbd3110d7	-0.04322895
252	0xbcbda6b8	-0.023150787
253	0x3b34b923	0.002757617
254	0x3ad7d175	0.0016465621
255	0x3d279766	0.04091587

net.0.bias f4 [32]
0	0x3c347c66	0.011015987
1	0x3d46910f	0.048478182
2	0x3cb90cdc	0.02258914
3	0x3d46f461	0.0485729
4	0x3c40e49a	0.011773253
5	0x3d4296de	0.04750716
6	0x3d63d72f	0.055625137
7	0xbd70dfea	-0.05880729
8	0x3d300b9c	0.04297982
9	0x3d6cae6b	0.057783525
10	0xbd1ccf13	-0.03828342
11	0xbd715c05	-0.058925647
12	0xbd31256e	-0.043248586
13	0x3bb439e0	0.0055000633
14	0xbc0a40ec	-0.00843833
15	0xba7342f9	-0.0009279694
16	0x3c13f0d9	0.0090295905
17	0xbd7acbf6	-0.06122967
18	0x39e85332	0.00044312474
19	0x3cedfca8	0.02905114
20	0x3ccc093e	0.02490675
21	0xbd52361d	-0.051321138
22	0x3c9e4263	0.019318765
23	0xbd8478b2	-0.06468333
24	0xbd1cbafd	-0.038264263
25	0x3c912de6	0.017722081
26	0x3d25f28b	0.04051451
27	0x3d2e1f3e	0.042510264
28	0xbd158678	-0.036505193
29	0xbd18ec9b	-0.03733502
30	0xbcdbf5f0	-0.02685067
31	0xbb27e259	-0.0025617091

net.2.module.0.weight f4 [32, 32, 3]
0	0x3da8d2c3	0.082433246
1	0x3db90be4	0.09035471
2	0xbd9b1810	-0.07572949
3	0x3daa1222	0.0830424
4	0xbd7e4964	-0.06208171
5	0xba7b02fd	-0.00095753354
6	0xbd707610	-0.058706343
7	0xbd139962	-0.03603495
8	0xbdb06640	-0.08613253
9	0xbceb0711	-0.028689893
10	0xbd42f40a	-0.047596015
11	0x3d88a358	0.0667178
12	0xbd0354c1	-0.03206325
13	0x3da17983	0.07884505
14	0xbd1e9b73	-0.038722467
15	0xbd5e2910	-0.05423838
16	0xbdcb10f3	-0.09915342
17	0xbc6b7637	-0.014371446
18	0xbda843c4	-0.0821605
19	0x3dccb462	0.09995343
20	0xbd72e190	-0.059297144
21	0x3d3010eb	0.042984884
22	0xbd3f17f1	-0.04665369
23	0xbdd54e87	-0.104153685
24	0x3dcc7bc5	0.09984545
25	0x3dc01b58	0.093802154
26	0x3cd50965	0.026005456
27	0x3dba6b3d	0.09102485
28	0x3bc70774	0.0060738865
29	0xbd4cac75	-0.049969155
30	0xbd6e0622	-0.058111317
31	0xbd56b35d	-0.052417148
32	0xbc98c956	-0.018650692
33	0x3ce00e08	0.02735044
34	0xbcedf874	-0.029049136
35	0xbdbc1f7f	-0.09185695
36	0x3db0a9eb	0.08626159
37	0xbc940a5f	-0.018071352
38	0xbdb6a11f	-0.0891745
39	0xbdf389be	-0.118915066
40	0x3d1f0540	0.038823366
41	0xbb1b0ade	-0.00236576
42	0xbdb6d23c	-0.08926818
43	0xbd8361fc	-0.064151734
44	0xbdd81e93	-0.105527066
45	0xbda49020	-0.08035302
46	0x3cf8c2ee	0.030366387
47	0xbcb2ed98	-0.02184181
48	0x3c4dbac9	0.01255674
49	0xbcde9719	-0.027171658
50	0xbcedfbbb	-0.029050699
51	0xbd0dda85	-0.034632225
52	0xbd9e9b7b	-0.07744499
53	0x3dd11b9b	0.102103435
54	0xbd92b824	-0.07164028
55	0x3c2cfd7d	0.010558483
56	0xbdab97e4	-0.0837858
57	0x3c5d2ac8	0.013498969
58	0x3d15cd20	0.036572576
59	0xbd1ee8ff	-0.03879642
60	0xbb751898	-0.0037398692
61	0xbd491057	-0.04908785
62	0x3d15991f	0.03652298
63	0xbd0dc1ca	-0.03460864
64	0x3d5e6175	0.05429216
65	0x3da542ec	0.08069405
66	0xbd651137	-0.05592462
67	0x3d9d33ef	0.07675921
68	0x3dc4c48e	0.09607802
69	0xbda26127	-0.079286866
70	0x3d858232	0.065189734
71	0x3db01a51	0.085987695
72	0x3d4a92c6	0.04945638
73	0xbd03fe4c	-0.03222494
74	0xbd1015df	-0.035177108
75	0x3d8fd525	0.07023076
76	0xbdb08792	-0.08619608
77	0x3daf8e10	0.08572018
78	0xbdc6fab5	-0.09715787
79	0x3a255a8b	0.00063077424
80	0x3d35ca3d	0.044382323
81	0x3da82449	0.08210046
82	0xbbc3d902	-0.005976797
83	0x3dcbeae2	0.0995691
84	0x3b1f9f87	0.002435656
85	0x3de024bd	0.10944507
86	0xbd04b9c5	-0.032403726
87	0xbcb0b006	-0.02156831
88	0x3dbfa28b	0.093571745
89	0x3d1396db	0.03603254
90	0xbce5a2f2	-0.0280318
91	0x3dc5236c	0.09625897
92	0xbce1fa5b	-0.0275852
93	0x3d6cd87a	0.057823636
94	0xbd7ea811	-0.062172
95	0xbdcf6f15	-0.10128609
96	0xbce712c2	-0.028207187
97	0x3db8edd3	0.09029736
98	0xbd6bb2b4	-0.05754347
99	0xbc5b5ac5	-0.01338834
100	0x3d98b766	0.074568555
101	0x3da251da	0.07925768
102	0xbd90970e	-0.070600614
103	0x3d96d0bf	0.07364034
104	0xbb801d5b	-0.0039097494
105	0x3dd5ba5d	0.104359366
106	0x3dd69743	0.1047807
107	0xbd3737ff	-0.044731136
108	0xbc5025f3	-0.01270436
109	0xbbe589a0	-0.0070049316
110	0x3d7b5bdb	0.061366897
111	0xbd9dc00b	-0.07702645
112	0x3caae027	0.020858837
113	0xbda76a08	-0.08174521
114	0x3dbdb5ea	0.09263213
115	0xbd1f68a4	-0.038918152
116	0xbda5c926	-0.08095007
117	0xbda8b112	-0.082368985
118	0xbcc0308d	-0.02346065
119	0x3cdcc4f5	0.026949385
120	0xbd2b3729	-0.04180065
121	0x3d867f50	0.06567252
122	0xbced4b9a	-0.028966714
123	0xbd5b339e	-0.053516023
124	0x3d95e7f2	0.07319631
125	0xbcd7b699	-0.026332187
126	0xbdbd2d7f	-0.09237193
127	0xbd3afc5c	-0.045650825
128	0xbaf9de03	-0.0019063357
129	0x3d84ca8c	0.06483945
130	0xbd159434	-0.03651829
131	0xbd66866d	-0.056280542
132	0x3cb0c380	0.021577597
133	0x3cd85110	0.026405841
134	0x3d0b9c1f	0.034084436
135	0xbdbe1b98	-0.09282607
136	0x3db2577b	0.08708092
137	0x3dd26c54	0.10274568
138	0x3d9dce8e	0.07705413
139	0x3d228e37	0.039686408
140	0xbdcef7fb	-0.10105892
141	0xbdb5d430	-0.08878362
142	0x3cd61887	0.026134742
143	0xbd424c1e	-0.047435872
144	0xbd14fdd4	-0.036374882
145	0xbcbbe4e8	-0.0229363
146	0x3b27c05f	0.002559684
147	0xbd5ab4a0	-0.053394914
148	0xbceba152	-0.028763447
149	0xbc6d7a36	-0.014494469
150	0xbcb4b48c	-0.022058748
151	0x3c80a1cb	0.015702149
152	0x3cfb9ae3	0.030713504
153	0x3d938e60	0.0720489
154	0xbd09c84e	-0.03363829
155	0x3d9a7963	0.07542684
156	0x3cb0e53c	0.021593682
157	0xbd136dda	-0.035993434
158	0x3ce49f3c	0.02790796
159	0xbd5347d4	-0.051582173
160	0x3c7bb9b4	0.015364099
161	0xbc4e7ddc	-0.012603249
162	0xbb36c23e	-0.0027886773
163	0xbbe68e52	-0.007036009
164	0x3da48aba	0.080342725
165	0x3dd03428	0.10166198
166	0x3cf54e51	0.02994457
167	0x3db5e4c6	0.08881526
168	0x3bc42051	0.0059852977
169	0xbbf31dac	-0.0074193086
170	0x3da57629	0.08079178
171	0xbd8b11e9	-0.067905255
172	0x3c73a965	0.01487193
173	0xbd97bc07	-0.0740891
174	0xbdbdbba6	-0.09264307
175	0x3b8ad290	0.004236527
176	0xbdbc9bbf	-0.09209394
177	0xbcbfb1a4	-0.023400135
178	0x3daac0ce	0.08337556
179	0x3d2462d7	0.040133324
180	0x3da66e06	0.08126454
181	0xbda1691c	-0.07881376
182	0x3deb7ae6	0.114980504
183	0xbcfe56e0	-0.031047285
184	0x3da2c1d6	0.079471275
185	0xbdabf52b	-0.083963715
186	0xbd3ac436	-0.045597278
187	0x3b6a5183	0.0035754151
188	0x3da81767	0.08207589
189	0x3da4a5fb	0.08039471
190	0x3d5128b6	0.051064216
191	0xbddbf709	-0.107404776
192	0x3dacec34	0.0844349
193	0x3c2c51b6	0.010517528
194	0xbda9137c	-0.082556695
195	0x3d8286c9	0.063733645
196	0xbdb2d036	-0.08731119
197	0xbd915f37	-0.07098239
198	0x3d7a7220	0.061143994
199	0x3de08245	0.10962347
200	0xbdbb54cc	-0.09147033
201	0xbd892ec5	-0.06698374
202	0xbc1237a4	-0.008924399
203	0x3c27b71a	0.010236526
204	0xbda61e0a	-0.08111198
205	0x3d527b9c	0.051387414
206	0xbcfb86e2	-0.030703966
207	0x3e089f94	0.13342124
208	0xbd8cf48d	-0.06882582
209	0x3dc58a0e	0.096454725
210	0x3c9c3ab6	0.019070964
211	0x3db6512c	0.08902201
212	0x3d0269e2	0.03183926
213	0x3d40fc54	0.04711564
214	0xbc7309a8	-0.014833845
215	0x3dac86ec	0.08424172
216	0x3cde606a	0.027145583
217	0xbda61b50	-0.08110678
218	0xbdbe1877	-0.0928201
219	0xbd9f488c	-0.07777509
220	0x39ae05ca	0.0003319218
221	0xbdae3582	-0.085062996
222	0xbd784607	-0.06061366
223	0x3dbdd65b	0.09269401
224	0xbcebf08b	-0.028801223
225	0x3b20ef95	0.0024556865
226	0xbdb82c01	-0.08992768
227	0x3cb20860	0.02173251
228	0xbd0d3595	-0.034474928
229	0x3d05e533	0.032689285
230	0x3d5afec2	0.053465612
231	0x3c4bf60c	0.012448799
232	0x3db8abfb	0.09017178
233	0x3db94a48	0.09047371
234	0xbcfd82dc	-0.030946188
235	0x3d887388	0.06662661
236	0x3da8db21	0.082449205
237	0x3d233e2d	0.039854217
238	0x3c8747a8	0.01651366
239	0xbc63f29b	-0.013912822
240	0x3e03d37d	0.12873645
241	0xbda1c70d	-0.07899294
242	0x3d4ad5e1	0.049520377
243	0x3c629ef2	0.013831841
244	0xbd444c07	-0.047924068
245	0x3db8e2fe	0.0902767
246	0x3d6c8458	0.0577434
247	0x3d4f6b64	0.050639525
248	0xbd90ab03	-0.07063868
249	0xbd32715e	-0.043565147
250	0xbd438f08	-0.047743827
251	0xbd629e64	-0.055326834
252	0x3d56a68e	0.052404933
253	0xbce53874	-0.02798102
254	0x3d974f8e	0.07388221
255	0xbcd1fc91	-0.025633128

net.2.module.0.bias f4 [32]
0	0x3d27c51a	0.040959455
1	0xbd678b16	-0.056529127
2	0x3cb2cc17	0.021825833
3	0xbdb41c9d	-0.0879452
4	0xbdb609f1	-0.08888615
5	0xbc102172	-0.0087970365
6	0xbd9ddf73	-0.07708635
7	0x3d99067e	0.074719414
8	0x3dc7a191	0.09747613
9	0x3d00d108	0.031449348
10	0xbdbbb458	-0.09165257
11	0x3d25b765	0.0404581
12	0x3d1050c2	0.035233267
13	0xbd92ce78	-0.07168287
14	0xbd07480c	-0.033027694
15	0xbccfdc49	-0.025373595
16	0xbdc7f794	-0.09764019
17	0x3d981a90	0.074269414
18	0xbce619c8	-0.028088465
19	0x3ce8e858	0.028431103
20	0x3d859408	0.06522375
21	0x3b2e40da	0.0026588948
22	0xbdbb741b	-0.09153005
23	0xbdcdda5e	-0.10051416
24	0xbd3a8dfa	-0.045545556
25	0x3d76e62d	0.060278106
26	0xbdcb32e6	-0.099218175
27	0xbd55ddc2	-0.052213438
28	0xbdbd2828	-0.09236175
29	0xbda51a1b	-0.0806162
30	0x3d0fb128	0.03508106
31	0x3db1187b	0.086472474

net.3.module.0.weight f4 [32, 32, 3]
0	0x3d56e204	0.05246164
1	0x3cd46ee4	0.025931783
2	0x3d3609cf	0.044442948
3	0x3d275c88	0.04085973
4	0xbd1148c3	-0.03546978
5	0xbdef1c32	-0.116753
6	0x3d4285c3	0.047490846
7	0x3d262f96	0.040572725
8	0xbdc76ad8	-0.09737176
9	0xbd88e88a	-0.06684978
10	0x3d9fb674	0.07798472
11	0x3d092f05	0.033492107
12	0xbd2d7831	-0.04235095
13	0xbd41f53d	-0.047353018
14	0x3c578013	0.013153094
15	0xbd619ff0	-0.05508417
16	0x3d263e1d	0.04058658
17	0x3d3df229	0.04637352
18	0x3c03074a	0.007997343
19	0x3db0a201	0.0862465
20	0xb9b50555	-0.00034526983
21	0x3d5990f8	0.05311677
22	0xbd71ffda	-0.05908189
23	0xbdaf5869	-0.08561785
24	0xbd89d245	-0.06729559
25	0xbd18de30	-0.03732127
26	0x3d27548b	0.04085211
27	0xbca3b6c9	-0.01998462
28	0xbd533a5b	-0.051569324
29	0x3dd0746c	0.10178456
30	0x3c9c1833	0.019054508
31	0x3d9fe225	0.078068055
32	0xbc9f2305	-0.019425878
33	0xbdb37a0f	-0.08763515
34	0xbd31d84c	-0.043419167
35	0xbd474cc0	-0.04865718
36	0x3c62d1ac	0.013843935
37	0xbda961b5	-0.08270589
38	0x3d8a9075	0.06765834
39	0xbd9295ed	-0.07157502
40	0x3d9d9255	0.07693926
41	0xbdd36b15	-0.10323159
42	0x3931d414	0.0001695904
43	0x3dd73339	0.10507817
44	0xbce84eda	-0.028357912
45	0xbd9e0636	-0.077160284
46	0xbb6c3204	-0.0036040554
47	0xbd2a78fa	-0.04161928
48	0x3d5ed7d0	0.054405034
49	0x3d079916	0.03310498
50	0x3d17219f	0.036897298
51	0xbd9b5be0	-0.07585883
52	0x3c2336a9	0.009961762
53	0x3d0f48e2	0.034981616
54	0x3d4013ac	0.04689376
55	0xbd203a6a	-0.039118208
56	0xbc19a23c	-0.009377059
57	0xbc8b7cd6	-0.0170273
58	0xbd57eff3	-0.052719068
59	0xbd71dc1a	-0.059047796
60	0x3c7304b4	0.014832664
61	0x3db15be5	0.086601056
62	0xbcb4ee26	-0.022086214
63	0x3d5e11f3	0.054216336
64	0x3dd5899e	0.10426639
65	0x3da58f3b	0.0808396
66	0xbda6547e	-0.08121584
67	0x3d8f4673	0.06995859
68	0xbd5e5c9f	-0.05428755
69	0xbd7d9743	-0.061911833
70	0xbdc5eefa	-0.09664722
71	0xbd49d07c	-0.04927109
72	0x3d944bc4	0.07241014
73	0x3db26207	0.087101035
74	0x3d150051	0.036377255
75	0x3d414b5d	0.047191013
76	0x3d60bc3f	0.054867025
77	0x3d96ec69	0.073693104
78	0x3d2fcb8d	0.04291873
79	0xbdb34ba0	-0.08754659
80	0xbc8738ff	-0.01650667
81	0x3ce46da5	0.027884314
82	0xbda7651a	-0.081735805
83	0x3d4fd2ca	0.050738133
84	0xbd7796d5	-0.06044658
85	0x3c71fcce	0.014769746
86	0x3be5599c	0.0069992077
87	0x3b11dc1f	0.0022256447
88	0x3cd003a8	0.025392368
89	0xbcfc5d7b	-0.030806294
90	0xbc8ea6ee	-0.017413583
91	0x3d138ca1	0.036022786
92	0xbd18d2ee	-0.037310533
93	0x3d8c5ddc	0.0685384
94	0xbdaaae37	-0.0833401
95	0xbcb633e0	-0.022241533
96	0x3d82b9d4	0.063831
97	0x3cf404e1	0.029787483
98	0xbc9f6274	-0.019456126
99	0xbc81381e	-0.01577383
100	0x3cc2c7ff	0.023777006
101	0xbc98100f	-0.018562345
102	0x3d6f569b	0.058432203
103	0xbd5d1b02	-0.053980835
104	0xbd625612	-0.055257864
105	0x3c20c448	0.009812422
106	0x3c876867	0.016529275
107	0xbdc4fd5c	-0.09618637
108	0xbd500c9a	-0.050793268
109	0x3da00fe6	0.078155324
110	0xbdef9a3f	-0.11699342
111	0xbdb03ae7	-0.08604985
112	0xbcdc03aa	-0.026857216
113	0xbdca5c34	-0.098808676
114	0x3d86f2d8	0.065892875
115	0xbd9119bf	-0.07084989
116	0x3d765d98	0.06014785
117	0xbdf4f3b9	-0.11960549
118	0xbd247154	-0.04014714
119	0xbba15829	-0.0049238396
120	0x3dc1103e	0.09426926
121	0x3c44a3f4	0.01200198
122	0xbc5cf819	-0.0134868855
123	0x3d8a4181	0.06750775
124	0x3dd0c956	0.10194652
125	0xbd2b51bd	-0.041826
126	0xbd91d633	-0.071209334
127	0xbd766d6f	-0.060162958
128	0xbbfe8d43	-0.0077683046
129	0x3caa63c4	0.020799525
130	0xbc856fac	-0.0162886
131	0x3d56980a	0.05239109
132	0x3da49746	0.080366656
133	0x3d088c1f	0.033336755
134	0x3d3f37c2	0.046684034
135	0x3daf8b2c	0.08571467
136	0x3d706f43	0.058699857
137	0xbc1c7a5e	-0.009550659
138	0xbd884653	-0.06654038
139	0xbc934e70	-0.017981738
140	0xbdb3bfcc	-0.08776817
141	0xbc0369c7	-0.008020825
142	0xbccd9ccf	-0.025099186
143	0xbc4491d6	-0.011997661
144	0x3d0b4122	0.033997662
145	0xbd583146	-0.052781366
146	0xbd37c386	-0.0448642
147	0xbb89c15b	-0.004203958
148	0xbd34c10b	-0.044129413
149	0xbd90557f	-0.07047557
150	0xbcc151b5	-0.023598531
151	0xb9fe98e0	-0.00048560556
152	0x3b8a4ca5	0.0042205625
153	0x3cade1ec	0.021225892
154	0x3d00bad4	0.031428173
155	0xbd988571	-0.07447327
156	0xbbccf459	-0.0062547144
157	0xbd1d8333	-0.0384552
158	0xbd95941a	-0.07303639
159	0x3c107cf6	0.0088188555
160	0xbddb7a48	-0.10716683
161	0x3d413b08	0.047175437
162	0xbc4349c6	-0.011919444
163	0x3bf076c5	0.007338377
164	0xbd2424e6	-0.04007425
165	0x3dc366e9	0.09541113
166	0x3d887160	0.066622496
167	0xbd045cb2	-0.032314964
168	0xbd64cf8d	-0.055862
169	0x3d9f5b35	0.07781068
170	0xbd8cd6b5	-0.068768896
171	0x3ce532ed	0.027978385
172	0x3cae247a	0.021257628
173	0x3d99c8e8	0.07509023
174	0xbd7f6603	-0.062353145
175	0x3d855a2f	0.06511342
176	0xbd1e1a2e	-0.038599186
177	0xbc2bad41	-0.010478319
178	0x3d9b74f2	0.07590665
179	0x3d1c7cef	0.038205083
180	0xbd854cbd	-0.06508777
181	0x3be5608b	0.007000034
182	0x3c2fc22e	0.010727448
183	0x3dac8182	0.08423139
184	0x3da80f7a	0.08206077
185	0x3d762e81	0.060102943
186	0xbda70a51	-0.081562646
187	0xbd831a5c	-0.06401512
188	0x3d8438c5	0.064561404
189	0x3dc81523	0.097696565
190	0x3db78196	0.089602634
191	0x3d87f3c4	0.066382915
192	0x3d8384bf	0.06421804
193	0xbdbb4347	-0.091436915
194	0xbddf5212	-0.109043255
195	0xbdaec9bd	-0.08534572
196	0xbd4cb11d	-0.049973596
197	0xbcb6624e	-0.022263672
198	0x3c130792	0.008973973
199	0xbd89fc9d	-0.06737635
200	0xbcda4c8e	-0.026647832
201	0x3d7e0593	0.062017035
202	0x3d2e093e	0.042489283
203	0x3ccc59a3	0.024945086
204	0xbd1a3c7d	-0.037655342
205	0x3dccc6c7	0.09998851
206	0x3dd64f34	0.104643255
207	0xbd0cc970	-0.034371793
208	0x3d99b17d	0.07504556
209	0xbdc48408	-0.095954955
210	0xbd88d3cc	-0.06681022
211	0x3dbce6bd	0.09223697
212	0x3c9c5299	0.019082354
213	0xbd7d29c6	-0.061807416
214	0x3d0a0761	0.033698443
215	0x3cbcb846	0.023037087
216	0xbdcc3f8e	-0.099730596
217	0xbddc5c5f	-0.10759806
218	0xbd0e93d7	-0.03480896
219	0xbd8085b2	-0.062755
220	0x3dc762f1	0.097356685
221	0xbc461b62	-0.0120914895
222	0xbdac1a58	-0.08403462
223	0x3d1d6442	0.03842569
224	0x3da5350f	0.08066761
225	0x3d14ebf5	0.03635784
226	0x3dd1edff	0.10250472
227	0x3cc815be	0.02442443
228	0xbc2af734	-0.010434914
229	0xbd25dfb4	-0.040496543
230	0xbd946ddb	-0.07247516
231	0x3dc6c3d8	0.09705323
232	0x3b8bf499	0.0042711017
233	0x3d83ecef	0.06441676
234	0xbc25a2b0	-0.0101095885
235	0xbdd2e9d0	-0.102985024
236	0xbc2b7691	-0.01046528
237	0xbd9fe793	-0.07807841
238	0xbcc180fb	-0.023621073
239	0x3d938b0c	0.072042555
240	0x3dd407b7	0.10353034
241	0x3d9295c0	0.07157469
242	0xbd9bd6b7	-0.07609313
243	0xbcd093c0	-0.025461078
244	0xbbbd1d3b	-0.005771307
245	0xbd06c485	-0.03290226
246	0xbd853555	-0.06504313
247	0xbdba35d4	-0.09092298
248	0xbd8a3aa3	-0.06749465
249	0x3db890c1	0.090119846
250	0x3d61892c	0.055062458
251	0x3d712962	0.058877356
252	0xbd7ee78b	-0.062232535
253	0xbd8510db	-0.064973556
254	0xbd953bef	-0.07286822
255	0x3d6105ac	0.05493705

net.3.module.0.bias f4 [32]
0	0x3d164a5f	0.03669202
1	0x3dbfeaf0	0.09370983
2	0xbcca1ee6	-0.024672937
3	0x3d65c573	0.056096505
4	0xbd828f09	-0.06374938
5	0x3d2a6a10	0.041605055
6	0xbd12fb1a	-0.035884
7	0x3d010a6f	0.03150409
8	0x3d824cb0	0.06362283
9	0xbd85a0d5	-0.06524817
10	0xbd590f22	-0.052992947
11	0xbdbb6029	-0.091492005
12	0xbda0b9a5	-0.07847909
13	0x3c9acb49	0.018895762
14	0x3c6e24ba	0.0145351235
15	0xbc898d68	-0.01679106
16	0xbd763845	-0.060112257
17	0xbcfbb681	-0.030726673
18	0x3c8f73e0	0.017511308
19	0x3dbd5dd0	0.09246409
20	0x3c80f02d	0.015739525
21	0x3c76e4d2	0.015069203
22	0x3dc22616	0.094799206
23	0x3d907b43	0.0705476
24	0xbdc3403c	-0.09533736
25	0x3cf97d87	0.030455364
26	0x3d5e3652	0.054251023
27	0xbd776031	-0.06039447
28	0x3dab37d0	0.08360255
29	0x3d739bf1	0.05947489
30	0x3cf3c718	0.029758021
31	0xbc9acaf3	-0.018895602

net.4.module.0.weight f4 [32, 32, 3]
0	0xbdab8bbb	-0.08376261
1	0x3d6d7031	0.057968322
2	0xbcc8f619	-0.024531411
3	0xbd3c86bd	-0.046026934
4	0xbda15680	-0.07877827
5	0x3d337896	0.04381617
6	0xbd4e1098	-0.050308794
7	0x3c5ab042	0.013347687
8	0xbd064263	-0.032778155
9	0x3b8191e8	0.003954161
10	0x3ca80c7a	0.020513762
11	0xbdaf4112	-0.08557333
12	0x3dac02d3	0.08398976
13	0xbd70c742	-0.058783777
14	0xbda67d1b	-0.08129331
15	0x3dad3370	0.084570765
16	0x3d6141e2	0.05499447
17	0xbd98ab3e	-0.07454537
18	0xbd8ad10a	-0.06778152
19	0xbcce5547	-0.025187148
20	0x3c8409a5	0.01611788
21	0xbcf6c7d0	-0.030124575
22	0xbd4edaf4	-0.05050178
23	0x3d818351	0.06323875
24	0xbd8c42ee	-0.06848703
25	0xbca6c35d	-0.020356828
26	0x3d0f213f	0.034943815
27	0x3d556a2e	0.052103214
28	0xbda951bc	-0.08267543
29	0x3c400021	0.011718781
30	0xbd82d517	-0.063883
31	0x3dc34c28	0.0953601
32	0xbc660edf	-0.0140416315
33	0x3d82939f	0.06375813
34	0x3c22ee4b	0.009944509
35	0xbc3e5748	-0.011617489
36	0x3a913f9e	0.0011081581
37	0xbd8ca7dd	-0.06867955
38	0xbb8268ec	-0.003979793
39	0xbc887e51	-0.016661795
40	0x3d7414cb	0.059590142
41	0x3d6ad3ae	0.05733078
42	0x3d17ea49	0.037088666
43	0xbd98e4af	-0.07465493
44	0x3d4943cb	0.049136918
45	0xbcda398f	-0.026638774
46	0x3ccb7ce6	0.02483983
47	0x3db8db94	0.09026256
48	0x3c3de670	0.011590585
49	0xbdad57db	-0.08464023
50	0x3c2aa682	0.010415675
51	0x3d05483b	0.032539587
52	0x3af3fe65	0.0018615244
53	0xbdca6dfb	-0.09884258
54	0xbd1d5180	-0.038407803
55	0x3d4edb92	0.050502367
56	0x3d10344c	0.035206124
57	0x3d1d0bfa	0.0383415
58	0x3cbd1460	0.023081005
59	0x3d38cc13	0.045116495
60	0xbd9a807a	-0.07544036
61	0xbca2d0a9	-0.019874888
62	0x3de3b225	0.11117963
63	0xbdb1ff3a	-0.08691259
64	0x3db87cd9	0.09008188
65	0x3dd5eaf5	0.10445205
66	0x3d67f1b8	0.056627005
67	0x3dc0bb3a	0.09410711
68	0xbce66c40	-0.02812779
69	0x3d150f53	0.036391567
70	0x3c9e9097	0.019356055
71	0xbd22ade3	-0.039716613
72	0xbb9d6c16	-0.0048041446
73	0x3c022d6b	0.007945399
74	0x3d7f5728	0.062338978
75	0xbdc7720a	-0.09738548
76	0xbd85f193	-0.06540217
77	0xbcabf5bc	-0.020991199
78	0x3dcd0e9b	0.100125514
79	0x3cf6d6d9	0.030131744
80	0x3d327412	0.043567725
81	0x3d935def	0.07195651
82	0xbc317d1c	-0.010833051
83	0x3de5ec72	0.11226739
84	0x3da78758	0.08180112
85	0x3db50853	0.08839478
86	0xbdab137c	-0.08353326
87	0xbd8d2f7b	-0.06893822
88	0x3d76eee2	0.06028641
89	0xbbc8342f	-0.0061097364
90	0x3c1e2190	0.009651557
91	0x3db29ef3	0.087217234
92	0x3cf37981	0.029721024
93	0xbd153cba	-0.036434866
94	0xbdce406a	-0.1007088
95	0x3c081783	0.008306387
96	0xbd313a3e	-0.043268435
97	0x3d8a8ef8	0.067655504
98	0x3d257a54	0.040399864
99	0xbd8c0253	-0.06836381
100	0xbd271e57	-0.04080042
101	0xbb885a5e	-0.0041611632
102	0xbd61700d	-0.0550385
103	0x3d95d277	0.073155336
104	0x3daa7895	0.083237804
105	0x3bf333e4	0.0074219573
106	0x3c1c7dbb	0.009551461
107	0x3c012966	0.007883405
108	0x3cbc2ae1	0.022969665
109	0xbd50f7e9	-0.051017676
110	0x3caa109a	0.02075987
111	0xbd48ca7c	-0.04902123
112	0x3d145ee2	0.0362233
113	0x3b8d4bfb	0.004312036
114	0xbc9113f7	-0.017709715
115	0xbd1847e3	-0.03717793
116	0x3d24dd0d	0.040249873
117	0xbc8098e3	-0.015697902
118	0xbd1ab362	-0.03776873
119	0xbcbfe3d7	-0.023424072
120	0x3cc560d4	0.024094023
121	0xbd88b131	-0.066744216
122	0xbd8228a2	-0.06355406
123	0xbd9cdb6c	-0.07659039
124	0x3dea24c6	0.11432795
125	0xbcc86d91	-0.024466308
126	0xbcbf3d4d	-0.02334466
127	0xbdc27312	-0.09494604
128	0xbdbdc1ad	-0.09265456
129	0xbbd8677d	-0.0066041336
130	0x3d8b7063	0.068085454
131	0x3d4a3d7e	0.04937505
132	0x3dfea80c	0.12434396
133	0x3c58572d	0.013204378
134	0xbd8e3967	-0.069445424
135	0xbdfbabca	-0.122886255
136	0x3cf97357	0.030450506
137	0xbd8dd219	-0.069248386
138	0xbd59b8e6	-0.05315485
139	0x3db31b59	0.087454505
140	0x3a922cd7	0.0011152279
141	0xbd5c1af9	-0.05373666
142	0x3cfedc20	0.031110823
143	0x3d0898c8	0.03334883
144	0x3cba1bd6	0.022718351
145	0xbd21c9dc	-0.03949915
146	0xbb60127f	-0.0034190712
147	0xbdae4fc0	-0.08511305
148	0x3c79386c	0.015211206
149	0xbdbd32b4	-0.092381865
150	0xbd859108	-0.06521803
151	0x3c48662c	0.012231391
152	0x3d92fa1f	0.07176613
153	0xbd3e28df	-0.046425696
154	0x3db42e45	0.08797888
155	0x3c9c6925	0.019093106
156	0xbdf4e201	-0.11957169
157	0x3b916297	0.0044368017
158	0xbc1e22c3	-0.0096518425
159	0xbd815058	-0.063141525
160	0x3d8c7a2a	0.068592384
161	0x3cc32797	0.023822589
162	0xbd0d680d	-0.03452306
163	0x3da492d3	0.08035817
164	0x3d8db439	0.0691914
165	0x3dae29bc	0.08504054
166	0xbd93f52a	-0.07224496
167	0x3c12476e	0.008928163
168	0x3d22e7d1	0.03977186
169	0xbc544c36	-0.012957623
170	0xbda9df10	-0.08294499
171	0x3ccbe6d2	0.024890337
172	0x3d8b8bc3	0.06813767
173	0xbd838130	-0.06421125
174	0x3c570129	0.013122835
175	0x3d759263	0.05995406
176	0x3d6700d6	0.05639728
177	0xbceb8016	-0.0287476
178	0x3db73823	0.08946254
179	0xbcbace73	-0.02280352
180	0x3d0446e8	0.032294184
181	0x3db29df3	0.08721533
182	0x3e0350ec	0.12823838
183	0x3cb7047e	0.02234101
184	0x3da087b1	0.07838381
185	0xbc85ebb9	-0.016347753
186	0xbdc03f44	-0.09387067
187	0xbda64ab7	-0.081197195
188	0x3da5df11	0.08099187
189	0x3dee6818	0.11640948
190	0x3c3075cc	0.010770272
191	0x3cda5f70	0.026656836
192	0x3db43d4e	0.088007554
193	0x3b40455d	0.0029338219
194	0xbdbbe65a	-0.091747954
195	0xbd6264e4	-0.055271998
196	0x3d39a40f	0.045322474
197	0xbc849b4f	-0.016187338
198	0x3cbbb132	0.022911642
199	0xbc4cfd0f	-0.012511506
200	0xbd773e27	-0.060362007
201	0xbd79b98d	-0.06096797
202	0xbda2b18e	-0.07944022
203	0xbd5a2f2f	-0.053267654
204	0xbd8372fe	-0.064184174
205	0xbd8228b4	-0.0635542
206	0x3a4b19f3	0.0007747702
207	0x3b9213e7	0.004457939
208	0x3d1d9f38	0.03848192
209	0x3cdbf4eb	0.026850184
210	0xbd0792f8	-0.033099145
211	0xbd01af6e	-0.031661443
212	0x3d1a3df5	0.037656743
213	0x3d86927a	0.06570907
214	0x3dd13398	0.10214919
215	0x3d7ae899	0.06125698
216	0xbc7025d9	-0.014657461
217	0x3db14eb9	0.08657593
218	0xbd532bed	-0.051555563
219	0xbdb39906	-0.08769421
220	0xbd7788db	-0.06043325
221	0x3d764a47	0.06012943
222	0x3dcfaf66	0.101408765
223	0x3dd639f0	0.104602695
224	0x3d9ad4f9	0.075601526
225	0xbd3ace29	-0.045606766
226	0x3d3cee3d	0.04612564
227	0xbcbf6812	-0.023365054
228	0xbbf39961	-0.0074340557
229	0x3ce7e99b	0.028309634
230	0x3c10a895	0.008829256
231	0x3df9de03	0.122005485
232	0x3c8c96ca	0.017161746
233	0x3ba9fe58	0.005187791
234	0xbd41e13b	-0.047333937
235	0x3a994ec8	0.0011696452
236	0x3dc00cfa	0.09377475
237	0x3d39bd98	0.045346826
238	0x3d85aa7f	0.0652666
239	0x3dad85f1	0.08472813
240	0x3e0c28e0	0.13687468
241	0x3d79498c	0.060861155
242	0xbc99560e	-0.018717792
243	0x3ca5ee13	0.020255124
244	0xbd91d942	-0.07121517
245	0x3dbe4d6c	0.09292111
246	0xbd1ac423	-0.037784707
247	0x3d94f2fe	0.072729096
248	0xbcaa43cd	-0.020784283
249	0x3dcf0e21	0.10110117
250	0x3de6af3f	0.11263894
251	0x3d7e0052	0.062012024
252	0x3dd1bc27	0.10240965
253	0x3d1fb4fe	0.038990967
254	0xbdadcf20	-0.084867716
255	0xbd3c16dd	-0.04592024

net.4.module.0.bias f4 [32]
0	0xbda60809	-0.08107001
1	0x3d0a111d	0.033707727
2	0x3dbd7ce8	0.092523396
3	0xbcce2697	-0.025164885
4	0xbd2264c2	-0.03964687
5	0x3dd0b1cf	0.10190164
6	0x3db1ca1f	0.0868113
7	0xbbeafe62	-0.007171438
8	0x3db46c40	0.088097095
9	0xbd7956ce	-0.0608738
10	0xbd94ed93	-0.07271876
11	0x3c83f2cf	0.016106991
12	0xbd5f8bca	-0.054576673
13	0xbdc97fde	-0.09838842
14	0xbda60153	-0.08105721
15	0xbc8061fe	-0.015671726
16	0x3cc947f1	0.024570437
17	0xbc419685	-0.011815672
18	0x3d72a993	0.05924375
19	0xbd1facc2	-0.038983114
20	0xbc60600c	-0.013694774
21	0xbcc554cd	-0.024088288
22	0x3d89737f	0.06711482
23	0x3dc5cd75	0.096583284
24	0x3d7d203d	0.061798323
25	0x3c5405eb	0.012940864
26	0x3dc23018	0.094818294
27	0xbdbd85c5	-0.0925403
28	0x3d09c45d	0.033634532
29	0x3dc1a8a7	0.09455996
30	0xbb902f91	-0.0044002016
31	0xbd485233	-0.048906516

net.5.weight f4 [3, 32, 3]
0	0x3dbea25d	0.09308312
1	0xbd7c0ae9	-0.061533842
2	0x3db09137	0.086214475
3	0xbd9d6d28	-0.076868355
4	0xbbfa9b39	-0.0076478985
5	0x3ca79cd6	0.020460527
6	0x3dc16e5e	0.09444879
7	0x3ca4a532	0.020098303
8	0xbcb66a5b	-0.022267511
9	0xbdc3f3c1	-0.09567977
10	0xbc11e97c	-0.008905765
11	0xbcf9013d	-0.030396098
12	0x3d94d706	0.07267575
13	0x3d786a22	0.06064809
14	0x3d590390	0.052981913
15	0xbddd8943	-0.10817196
16	0x3d8a8cce	0.067651376
17	0x3d8f9260	0.07010341
18	0x3cc3b510	0.023890048
19	0x3dafd4d3	0.08585515
20	0xbd0626e4	-0.032751933
21	0x3d4440d7	0.0479134
22	0x3da5e7f9	0.08100886
23	0xbd92b14b	-0.07162722
24	0x3d5d009c	0.05395566
25	0xbdd8c7c5	-0.10584978
26	0x3dc11db3	0.09429493
27	0xbdbb8174	-0.091555506
28	0xbc19bd83	-0.009383562
29	0xbd88e5d0	-0.06684458
30	0x3c0e7cef	0.008696779
31	0x3daecd44	0.08535245
32	0x3d30104b	0.04298429
33	0xbd745798	-0.05965385
34	0xbd89c904	-0.06727794
35	0xb80c9ecc	-3.3526492e-05
36	0xbdbc89e9	-0.09205992
37	0xbdaa8ecc	-0.083280176
38	0x3cf3b06e	0.029747214
39	0x3c0e4735	0.008683969
40	0x3dcbc949	0.099505015
41	0x3dae387e	0.08506869
42	0x3cee5d17	0.029097123
43	0x3d938452	0.072029725
44	0x3b7daa5c	0.0038706278
45	0x3d75eac2	0.060038336
46	0xbdbb07c4	-0.091323406
47	0x3ba463b4	0.0050167684
48	0x3c62506a	0.0138131175
49	0x3d530dd9	0.051526878
50	0xb93b91a6	-0.00017887968
51	0xbd49e6bd	-0.049292315
52	0x3c94b946	0.018154752
53	0x3db6046d	0.08887563
54	0xbd2da0ba	-0.04238961
55	0x3db2d5fd	0.08732221
56	0x3b544129	0.0032387471
57	0xbd1ac551	-0.03778583
58	0xbc9c8ac9	-0.019109147
59	0xbc94c08b	-0.018158218
60	0x3bc7f2ea	0.0061019557
61	0xbdc12fad	-0.094329216
62	0xbdc18ed7	-0.09451073
63	0xbda51511	-0.08060659
64	0xbc2b5836	-0.010458043
65	0x3cdc4bc0	0.02689159
66	0xbd28183a	-0.04103873
67	0xbd5fec8a	-0.05466894
68	0xbcf36cc3	-0.029714948
69	0x3d78d1c4	0.060746923
70	0xbdaf4562	-0.085581556
71	0xbc6015ec	-0.013677102
72	0x3d8631ee	0.06552492
73	0x3d5627ab	0.052283924
74	0xbda5e61b	-0.0810053
75	0x3cc5b3c3	0.024133569
76	0xbccea869	-0.025226789
77	0xbcd927c1	-0.026508214
78	0x3d1abf97	0.03778037
79	0x3c8ad45c	0.016946964
80	0xbd50f16f	-0.0510115
81	0x3d469c18	0.048488706
82	0xbd5aa313	-0.053378176
83	0xbd836de8	-0.06417447
84	0x3dbd7283	0.09250357
85	0xbda9e524	-0.08295658
86	0xbdcf3214	-0.101169735
87	0x3d9d61ca	0.076846674
88	0x3b8af7cb	0.004240965
89	0x3cc39617	0.02387528
90	0x3db09a05	0.08623127
91	0xbd85c96b	-0.06532558
92	0xbcf30785	-0.029666672
93	0xbc1c25e3	-0.009530517
94	0x3da6fa90	0.0815326
95	0x3d284a90	0.041086733
96	0xbd0a4ff8	-0.03376767
97	0xbc0e05d2	-0.00866838
98	0xbc0358a8	-0.008016743
99	0x3d8d82df	0.06909727
100	0x3d640a76	0.05567404
101	0x3d39e0e2	0.04538048
102	0xbd08d759	-0.033408497
103	0xbd82c0ff	-0.06384467
104	0xbd8798ee	-0.06620966
105	0xbd495689	-0.049154792
106	0x3da649b6	0.08119528
107	0x3d38d841	0.04512811
108	0x3da40507	0.080087714
109	0xbc2bb66f	-0.010480507
110	0x3d88a771	0.06672562
111	0xbdac51bc	-0.08414027
112	0xbda614ff	-0.081094734
113	0x3c98293a	0.018574346
114	0xbd85e64d	-0.06538067
115	0x3d888519	0.06666011
116	0x3d244da3	0.040113103
117	0x3d5f2798	0.05448112
118	0xbc87f747	-0.016597403
119	0xbda0cac7	-0.07851177
120	0xbc3930d5	-0.011303146
121	0xbd65ccd3	-0.05610354
122	0xbd8d2fbd	-0.06893871
123	0x3c5e5476	0.013569942
124	0xbcc5f8b8	-0.02416645
125	0x3d7ae8f5	0.06125732
126	0x3dbf058a	0.09327228
127	0xbd82e140	-0.06390619
128	0x3c1ee478	0.009698026
129	0x3d5eb02a	0.054367222
130	0xbc8d4e8f	-0.017249374
131	0x3d2fea9f	0.04294836
132	0x3ce104c6	0.027468096
133	0xbd8ea036	-0.069641516
134	0x3c94ba41	0.018155219
135	0xbd8e7cdf	-0.06957411
136	0xbc2f2695	-0.010690351
137	0x3cfb8946	0.030705106
138	0xbd299072	-0.04139752
139	0xbb1691c3	-0.0022975064
140	0x3bf5f585	0.007506075
141	0x3dd6b88e	0.1048442
142	0xbd9964cf	-0.07489931
143	0x3cd99a15	0.02656273
144	0xbdcee396	-0.10102002
145	0x3d9c212d	0.07623515
146	0xbd9ad83a	-0.07560773
147	0x3d60f568	0.054921538
148	0xbd96650c	-0.07343492
149	0xbd531339	-0.051532004
150	0x3d09d09d	0.033646215
151	0x3cd9f1ed	0.026604617
152	0xbdd96a42	-0.1061597
153	0x3d908310	0.07056248
154	0xbdbc1e76	-0.091854975
155	0xbd8b66c4	-0.0680671
156	0xbdc802c8	-0.097661555
157	0x3d8ee667	0.069775395
158	0x3d8d1833	0.06889381
159	0xbda9ba2f	-0.08287465
160	0x3de16523	0.110056184
161	0xbdae0f30	-0.084989905
162	0x3dadc649	0.084850855
163	0xbbc33b91	-0.0059580286
164	0xbc517739	-0.012784773
165	0xbd07f653	-0.033193897
166	0x3d9bc070	0.07605064
167	0xbdb8c963	-0.090227865
168	0x3df72c12	0.120689526
169	0x3d9b9346	0.075964496
170	0xbc298121	-0.010345728
171	0xbbce4285	-0.006294551
172	0xbcced87d	-0.025249714
173	0x3d08acb9	0.033367846
174	0x3d71678a	0.058936633
175	0xbd8e5b0c	-0.069509596
176	0x3da159fb	0.078784905
177	0x3c5fb3fa	0.01365375
178	0xbd494709	-0.04914001
179	0xbdccd96c	-0.100024074
180	0xbb47eb8a	-0.0030505382
181	0x3db94ba9	0.09047634
182	0x3dc4f8c1	0.096177585
183	0x3da7dbc7	0.08196216
184	0x3bf31c64	0.007419156
185	0x3dbc50f0	0.09195125
186	0x3cff4a5e	0.03116339
187	0xbbed176a	-0.007235457
188	0xbc7790bb	-0.01511019
189	0xbd67d1b0	-0.056596458
190	0x3d21340c	0.039356276
191	0xbd023080	-0.031784534
192	0x3d3fb54a	0.04680375
193	0x3bf4a916	0.0074664457
194	0x3d94939a	0.07254715
195	0xbd8f31cf	-0.06991922
196	0x3c52c35f	0.012863963
197	0x3d2dac3c	0.042400584
198	0xbcfb63ef	-0.0306873
199	0xbbd96e72	-0.0066354806
200	0xbd7af703	-0.061270725
201	0x3d7f1547	0.06227615
202	0x3c5a325e	0.013317673
203	0xbd8e4c1f	-0.06948113
204	0xbba32d6f	-0.0049797813
205	0x3da439c8	0.080188334
206	0x3cd04a96	0.02542619
207	0x3daa351e	0.083109125
208	0x3d862001	0.06549073
209	0x3bac31c8	0.005254958
210	0xbd9d6a4d	-0.07686291
211	0x3ca6e548	0.020373002
212	0xbd9be5b8	-0.07612175
213	0x3d384e6a	0.044996656
214	0xbda9137c	-0.082556695
215	0xbd0372dd	-0.032091964
216	0xbd63362d	-0.055471588
217	0x3dba9373	0.09110155
218	0x3dce2252	0.1006514
219	0x3b4f8683	0.0031665869
220	0x3d9f11e1	0.07767082
221	0x3d576953	0.05259068
222	0xbd89d5a7	-0.06730204
223	0xbca71e95	-0.020400325
224	0xbd75b3b3	-0.059985828
225	0xbd71b39e	-0.059009187
226	0xbc1cd096	-0.009571215
227	0x3a811d64	0.0009850678
228	0xbdb1ee53	-0.08688035
229	0xbdb50523	-0.088388704
230	0xbdeb2a9e	-0.11482738
231	0xbd123487	-0.035694625
232	0xbc1e40a0	-0.0096589625
233	0xbdb4518d	-0.08804617
234	0x3d5257a2	0.051353104
235	0x3d906d70	0.070521235
236	0x3bd569d9	0.006512862
237	0x3ca81079	0.020515667
238	0xbd72e8a0	-0.05930388
239	0xbd50373e	-0.050833933
240	0xbd7271fa	-0.059190728
241	0xbca8c185	-0.02060009
242	0xbd3d0855	-0.046150524
243	0x3c9fbd9f	0.019499598
244	0x3d852ecc	0.065030664
245	0x3bb9e685	0.005673232
246	0xbd1ba1d2	-0.03799612
247	0xbd6e7a8d	-0.058222342
248	0xbde1d4b1	-0.11026896
249	0x3dbbc7a2	0.09168936
250	0x3cb0006c	0.021484576
251	0x3cf9f357	0.030511541
252	0xbd9cea0a	-0.07661827
253	0x3ce9a507	0.028521074
254	0xbd9e7d18	-0.077387035
255	0xbd0660fd	-0.03280734

net.5.bias f4 [3]
0	0x3d3fb389	0.046802077
1	0xbc8887bf	-0.016666291
2	0xbd49a7fd	-0.04923247

exp_avg f4 [32, 120, 2]
0	0xb80d672a	-3.37131e-05
1	0x39ec1c4f	0.0004503452
2	0x382b1fe0	4.0799263e-05
3	0x39e512be	0.00043692248
4	0x3a1f43c0	0.0006075464
5	0xba1b3df0	-0.000592201
6	0x39cc6d6e	0.00038991444
7	0x39c34c6f	0.00037250246
8	0x3a37c32f	0.00070099806
9	0x3922da1b	0.00015530775
10	0x3b0b491a	0.0021253289
11	0xb8e1626a	-0.00010747167
12	0xb90455ac	-0.00012620416
13	0xb9565109	-0.00020438818
14	0x3ab89dfc	0.0014085169
15	0x380b15de	3.3160548e-05
16	0xb85cfd2b	-5.268787e-05
17	0xb980be4e	-0.0002455585
18	0x37a5bcbd	1.975742e-05
19	0xb89fbb17	-7.616559e-05
20	0xbb1ab1a8	-0.0023604427
21	0xbb7981d9	-0.003807178
22	0x3aeb537b	0.0017953956
23	0x39bd84cc	0.0003614783
24	0xb7989511	-1.8189226e-05
25	0xb9798ede	-0.00023799713
26	0xba3bce4a	-0.00071642234
27	0xba94c225	-0.0011349363
28	0x3bb29661	0.0054500555
29	0x3b5abcf6	0.003337679
30	0xbb0d7c4b	-0.0021588977
31	0x3b3a510f	0.0028429662
32	0xb92c8905	-0.00016454242
33	0x3a8ddd11	0.0010823329
34	0xb99f4577	-0.000303786
35	0x37baf0f0	2.2285123e-05
36	0xb8512d09	-4.9871425e-05
37	0xbaa4094d	-0.0012514979
38	0x3ac49f93	0.001500117
39	0xb8df830c	-0.00010657878
40	0x399ff45b	0.00030508902
41	0x3ab4e6fe	0.0013801751
42	0xb9272609	-0.0001594053
43	0x37b01fda	2.0995667e-05
44	0x3a7b0485	0.00095755636
45	0xb9c76bbd	-0.0003803651
46	0x39b269e4	0.000340297
47	0x3b071fbf	0.0020618287
48	0x3a9f26c2	0.0012142288
49	0xba51aafe	-0.0007998197
50	0xb5f90bc7	-1.8555373e-06
51	0xbb955ab3	-0.0045579313
52	0x39a2f7b1	0.00031083592
53	0x39e3426b	0.000433463
54	0x3895a899	7.1362774e-05
55	0xb8ae58fb	-8.3135405e-05
56	0x37b1a299	2.117576e-05
57	0xb70bc23c	-8.330269e-06
58	0x3a50a149	0.00079586037
59	0x39c388bb	0.0003729517
60	0xb937d32e	-0.0001753091
61	0xb88fb7a3	-6.8529764e-05
62	0xbab128d1	-0.0013516193
63	0xb99c47ba	-0.0002980808
64	0xb8296e23	-4.0395313e-05
65	0x38a98a15	8.084268e-05
66	0xb9236cd0	-0.00015585427
67	0xb94c931b	-0.00019509757
68	0x3b230cd9	0.0024879484
69	0x3acddbcd	0.0015705765
70	0x3888d56a	6.524737e-05
71	0x3a09cc76	0.00052566023
72	0x3a0e547b	0.00054294587
73	0x3a93769f	0.0011250562
74	0x38f16425	0.00011510429
75	0xb9b20d5e	-0.00033960765
76	0x39330a5c	0.0001707463
77	0x37b2a713	2.1297054e-05
78	0x00000000	0.0
79	0x00000000	0.0
80	0xb9cc4492	-0.00038961
81	0xbaa97d9a	-0.0012931109
82	0x392c5923	0.00016436404
83	0xba84f8a8	-0.0010144906
84	0x3a7c4abe	0.00096241746
85	0xb900a741	-0.00012269338
86	0x3a8d7011	0.0010790845
87	0xb8409e5e	-4.5923858e-05
88	0x39ac26dc	0.0003283535
89	0x3a3e1846	0.0007251542
90	0x39e811f2	0.0004426386
91	0x39ea44dc	0.00044683262
92	0x3afd12bb	0.001930795
93	0xba86a151	-0.0010271465
94	0x3a4adb98	0.00077384105
95	0x39db1cbe	0.0004179235
96	0xba141483	-0.00056488084
97	0xb9ae23cd	-0.0003321454
98	0xb90314e2	-0.00012500913
99	0x39b88721	0.00035195894
100	0xb9cdf8b6	-0.0003928595
101	0x3a25b2de	0.0006320904
102	0x3ad636ac	0.0016343198
103	0xbafed410	-0.0019441862
104	0xbae04edd	-0.0017113347
105	0x3aab918f	0.0013089644
106	0xb9dbcb1a	-0.00041922258
107	0x388ef9ee	6.817641e-05
108	0xba1eca8d	-0.0006057404
109	0xbb11fe83	-0.0022276945
110	0xb78ae2b4	-1.6556449e-05
111	0x3970d4f2	0.00022967512
112	0x3b69bf8e	0.0035667154
113	0x3a9cec16	0.0011972215
114	0x38f63cc9	0.00011741516
115	0xb85cb6fb	-5.26225e-05
116	0x393ca8de	0.00017991985
117	0x39cd3848	0.0003914258
118	0xbad82bb7	-0.001649252
119	0xb9ef5ad1	-0.00045653296
120	0x39e03e92	0.00042771228
121	0xba817cfb	-0.0009879166
122	0xb81a0810	-3.672397e-05
123	0x3870f119	5.7445e-05
124	0x3b8bdbc3	0.004268141
125	0xbb273c57	-0.0025518143
126	0x3a728120	0.00092508085
127	0x38b6b1ff	8.7115906e-05
128	0xb9dcb134	-0.00042093697
129	0x39332300	0.00017083809
130	0x3818aa6b	3.6398338e-05
131	0x3853d281	5.0502367e-05
132	0x3a2889e5	0.00064292393
133	0x39f2b573	0.00046293027
134	0x3a894ae2	0.0010474587
135	0x3ab135be	0.0013520045
136	0xb92ade51	-0.00016295283
137	0xb944e2de	-0.00018776531
138	0xbab1c774	-0.001356347
139	0xb9ba857a	-0.00035576132
140	0xba1fb44a	-0.0006092234
141	0x39676cd1	0.00022070414
142	0xbad543b5	-0.0016270789
143	0xba858c09	-0.0010188828
144	0x3a8cf8c7	0.0010755294
145	0xba5e425e	-0.00084785174
146	0xb8614bb6	-5.371469e-05
147	0xb9e65f29	-0.00043939918
148	0x39817aac	0.00024696195
149	0x39649da0	0.00021802494
150	0x3937d5c7	0.00017531878
151	0xb91b4eef	-0.00014811357
152	0xba35aeb3	-0.0006930634
153	0xba43f030	-0.00074744504
154	0xba596964	-0.00082935975
155	0x3a8a8d08	0.0010570595
156	0x3b33f031	0.0027456398
157	0xba5b05f7	-0.0008355076
158	0x3ad7f10f	0.0016475039
159	0x398ddf82	0.00027060142
160	0x38506c21	4.9691767e-05
161	0x39546684	0.00020256086
162	0x3885f701	6.387942e-05
163	0xb95b27d1	-0.000209003
164	0xb9383e8d	-0.0001757091
165	0x39cebc55	0.000394317
166	0x3b6f7fb6	0.0036544628
167	0x3b658bcc	0.0035025952
168	0xba8bc2a4	-0.0010662866
169	0x374550cb	1.1760926e-05
170	0x3a634514	0.0008669656
171	0x397a5b22	0.00023875808
172	0x3a8e6e26	0.0010866567
173	0x39f4e831	0.00046712303
174	0xba21ac4a	-0.00061673357
175	0xbaeb1a73	-0.001793696
176	0xb8e0a6c0	-0.00010712212
177	0xba27c339	-0.0006399635
178	0x38b96156	8.839618e-05
179	0x3a138531	0.0005627452
180	0x385b074b	5.222046e-05
181	0x397e9fd0	0.00024282862
182	0x3a4729df	0.0007597487
183	0xba32957d	-0.00068124366
184	0x396b53db	0.00022442585
185	0x3ac78543	0.001522221
186	0xb907d168	-0.00012952613
187	0x38858230	6.3661835e-05
188	0x3711dbac	8.69382e-06
189	0xba87fd41	-0.0010375158
190	0x3a00e07f	0.0004916265
191	0x38d8f3be	0.00010345083
192	0xbac89fad	-0.0015306376
193	0xb9c98d0c	-0.00038442796
194	0x37e70001	2.7537348e-05
195	0xb9742cac	-0.00023286295
196	0x3a67d3cb	0.00088435103
197	0xba274b9b	-0.00063818105
198	0x39ed1c62	0.0004522531
199	0x374ac60c	1.208625e-05
200	0xb91bde4c	-0.00014864764
201	0xba1d1367	-0.0005991966
202	0xb9c9cf54	-0.0003849218
203	0xb82c7e8a	-4.1125844e-05
204	0x398da8e1	0.0002701944
205	0x38f5803b	0.00011706395
206	0x3a469dfe	0.0007576643
207	0xb9ece52a	-0.00045184168
208	0x3b0d33d0	0.0021545775
209	0xb998623d	-0.00029064892
210	0xb936df7f	-0.00017440131
211	0xb933fafe	-0.00017164272
212	0x3a078cb0	0.00051708054
213	0xb8c3e7d3	-9.341505e-05
214	0xba24a093	-0.0006280031
215	0x393f7eb1	0.00018262376
216	0xba29a803	-0.0006471874
217	0x39894ec0	0.0002618935
218	0xba688736	-0.00088702457
219	0x3a70dad4	0.00091878814
220	0x3887c4b8	6.473943e-05
221	0xba637782	-0.0008677171
222	0xbacf4916	-0.0015814628
223	0x3bb12177	0.0054056006
224	0xba468972	-0.00075735815
225	0x39f333df	0.0004638722
226	0x39235126	0.00015575122
227	0xb98f155a	-0.00027290994
228	0xb91b4cdf	-0.00014810589
229	0x396987d0	0.00022271206
230	0xb9e4bf1a	-0.0004362993
231	0xb9c10744	-0.00036817242
232	0x3a194ef6	0.0005848253
233	0xb9cbb8cb	-0.0003885686
234	0xb9e389ea	-0.00043399568
235	0x3a9bc2c4	0.0011883606
236	0x3a03f129	0.0005033189
237	0xba191977	-0.00058402814
238	0x39ce7439	0.00039377974
239	0x39598789	0.00020745223
240	0xb98bc3d8	-0.0002665806
241	0xba053b33	-0.0005082369
242	0x39bf6a4a	0.0003650955
243	0x3a0f0ef5	0.0005457246
244	0x3a97d3ef	0.0011583547
245	0xba68bf70	-0.0008878624
246	0xba03155d	-0.0005000437
247	0xb899c9a0	-7.333164e-05
248	0xb992ec65	-0.00028023418
249	0xba2e8363	-0.00066571514
250	0xba239738	-0.000624049
251	0x39477fad	0.00019025682
252	0xb91e7fc7	-0.00015115655
253	0x3a947ff7	0.001132964
254	0x3b023c32	0.0019872305
255	0xba588c40	-0.0008260645
