data/Figure3_Supplement/009/checkpoint_0002500.pth (torch, 228033 bytes, 31 tensors)

net.0.weight f4 [32, 120, 2]
00000000: a13c 2abe 42d8 86bd 7045 b63c f318 3f3d
00000010: 31f8 2b3c ead5 453d 33ff bb3c d3b7 fc3c
00000020: 252b c03b 6503 e13c febf 2abd 2816 833d
00000030: 6251 ebbc a8f3 a03d 3989 c0bd c93b 873d
00000040: f5b0 303d 5a6b 97bd f410 cebc 9d3b ebbc
00000050: 6f78 d9bc 75ae 94bc 3d17 63bd a05f 193b
00000060: c0d6 cb3c 8bea afbc e67c b4bd e02e 80bd
00000070: f130 00bd 4bea 823d 60b7 273d 2275 d3bd
00000080: 76fa a03d ec4b d03c 9f80 793c 2271 abbd
00000090: 6e5c 4f3d 0215 dd3a 88c0 b93b f9e6 8c3d
000000a0: d766 90bc b009 83bb fc38 b8bc 0e16 cbbc
000000b0: 0171 90bd 9d2b 32bc 6afb 76bc 8527 513c
000000c0: 736a c5bc 5493 5b3c 99a2 a4bd 9c30 3b3d
000000d0: a755 0b3d f6e2 86bd fc57 9abd 8bd9 a9bd
000000e0: e70c a8ba 9d12 263e 33ef 6dbd 5dfe d1bd
000000f0: 9f0a 4fbd ca3c 643d c8f5 34bd ec6e 7bbd
00000100: 55b5 603d 1d8c a0bd c23e 91bd 8c25 78bd
00000110: 13b3 c7bb 6e29 5dbc cf06 1e3d 64b0 2f3d
00000120: c131 97bc 03a6 af3d 14ec 5b3d 587c 693d
00000130: b518 30bd 28fb 5f3c 039c d2bc 9cd4 14bd
00000140: e668 84bb 0a28 423d c061 b2bd 8992 67bd
00000150: d8e8 643c a43b 843d 78c2 533d 9f52 063d
00000160: f2cf c23c a679 e0bd 1247 f5bd 97ed c5bc
00000170: 2e48 bdbc c129 81bd 1ba0 4cbb 0090 58bc
00000180: e2f6 39bd be8d ad3d 1af3 823d bc82 92bd
00000190: 4925 ff3c 2a02 adbd 9be5 83bd 4913 45bd
000001a0: dd23 99bd bcfb 89bd f166 b73d c63a d8bd
000001b0: 3715 8fbb cf30 dbbc 62ab 193d 3c1e 6ebc
000001c0: c80c b03b 2a8c 133c 6582 113d 45b0 053d
000001d0: 64e0 943b f6e4 143d 910c 1a3d 4141 453d
000001e0: b504 82bd d94e a5bd f5a0 c7bc 6d40 49bd
000001f0: 3437 963d 3681 9f3c f4d0 913d f1e3 a1bd
00000200: a2c3 733d 6649 be3c d518 c23c 895a 93bc
00000210: 1670 d0bd 6385 3e3d b6f6 303c 7f59 803d
00000220: 6a3d ec3a 8d5f 293d 8987 e2bc 3792 353d
00000230: c89a 54bd f819 cf3c d2c1 96bc ef2c 3d3d
00000240: e439 293d d56b 85bd 261f ecbc 6153 ed3c
00000250: 5f9a 0b3d 1a8d 383b a5c8 a7bd 599b 8d3c
00000260: 4b6e 88bd ba73 04be 129d a3bc f56e 8cbd
00000270: 8c58 55bd f729 d83d 59a9 783d 8c45 933d
00000280: cca7 ccbc 25f8 913d 1b03 4bbd 3038 5c3d
00000290: 838a 953c 11ca bdbc 3ab8 92bd 1fe0 b23c
000002a0: 01b3 473d bd34 1d3c a428 35bd 06fb 853d
000002b0: 843b 773b db11 333c f4ce babd 6ae7 8abc
000002c0: 8ef4 543c ba22 453c 9126 8d3d d3d8 d8bd
000002d0: d30e b93d bac1 31bd 6329 2ebd ce6e fabd
000002e0: 7ee7 cebc 8748 cc3c 964d fb3b 8d23 22bd
000002f0: afdc 663c fb52 36bd 029b e13c 5459 6fbd
00000300: 2b9f 01bd bcbe d73c 2fae 933c 1e37 8f3c
00000310: 2259 e9bd 7cc4 8d3d 1851 2fbe afef 34bc
00000320: 443b 07bd 7743 893c 6d05 6d3d 9f22 0b3d
00000330: b753 0cbd 7a47 01bd 10a6 20bb 4aac cdbc
00000340: 3dd8 a7bb 78c9 803d dee5 bb3d 91d2 3bbd
00000350: d8e0 4abc 079d 643d cc21 653c 0822 19bd
00000360: 8f42 4dbc 0e0c e9bc 9596 3b3c 1c6c e03c
00000370: 9f5d 9e3c e1e9 fa3b 16db 40bd d7ed 20bc
00000380: 6a33 97bc b85b 7c3d 6f66 6b3d 333c 95bd
00000390: 5eb4 88bb 3650 febd 9ff8 7d3c 92d9 89bd
000003a0: 0b0a 4b3b 3dc9 8b3d 9118 8d3c 2df6 3bbd
000003b0: f6b0 fabc 8d00 4b3c 682f 09be a430 91bb
000003c0: 2b47 c83b b405 3d3c 1be8 5bbd 10f4 ed3d
000003d0: 7ea3 49bc afeb f03c a9e6 683c 5121 8fbd
000003e0: 594c d8b7 52d3 d8bb 928e 553d 8f2e 2e3d
000003f0: a604 743c a20e 7ebd 22c5 03bd a1d9 a43c
-0.1662469 -0.06584217 0.022249907 0.046654653 0.010496185 0.048299707 0.022948837 0.030849373
0.005864518 0.027467439 -0.041687004 0.0640071 -0.02872533 0.07858974 -0.09401173 0.066032
0.04313751 -0.073935226 -0.025154568 -0.02871495 -0.026546685 -0.018149594 -0.055442084 0.0023402944
0.024882674 -0.021474143 -0.08812885 -0.06258941 -0.031296674 0.06392344 0.040946364 -0.10325076
0.07860272 0.025426827 0.01522842 -0.08371188 0.050625257 0.0016867223 0.0056687035 0.06879992
-0.017627163 -0.0039989576 -0.02248811 -0.02479079 -0.07052804 -0.010874656 -0.01507459 0.01276577
-0.02409861 0.013401825 -0.080388255 0.045700654 0.03401723 -0.06586258 -0.07536313 -0.08293446
-0.0012821228 0.16218038 -0.058089446 -0.10253594 -0.05054724 0.055722035 -0.044179708 -0.06138508
0.05486043 -0.078392245 -0.07092048 -0.060582682 -0.0060943454 -0.013498647 0.038580712 0.04289283
-0.018456342 0.08576586 0.05369194 0.05700335 -0.042992312 0.01367072 -0.025709158 -0.036335573
-0.004040825 0.047401465 -0.087100506 -0.05653623 0.01397153 0.06456688 0.05169913 0.032793637
0.023780797 -0.109607026 -0.11976446 -0.024161143 -0.023105707 -0.06306792 -0.003122336 -0.013217926
-0.04540146 0.08474301 0.06394024 -0.07153842 0.031145709 -0.084476784 -0.06440278 -0.048114095
-0.074775435 -0.06737468 0.089551814 -0.10558085 -0.0043665427 -0.026756672 0.03751696 -0.014533576
0.0053726174 0.009005586 0.035524745 0.032638807 0.004543351 0.036351167 0.03760964 0.048157934
-0.06348554 -0.080716796 -0.024368742 -0.049133707 0.07334748 0.019470792 0.07119933 -0.079048045
0.059512742 0.023228358 0.023693481 -0.017987506 -0.10177629 0.046513926 0.010801008 0.0626707
0.0018023674 0.04135089 -0.027652519 0.044328894 -0.051905423 0.025280938 -0.018402968 0.04618543
0.041314974 -0.06514708 -0.028823446 0.028970422 0.034082767 0.0028160275 -0.08192567 0.01728599
-0.06661662 -0.12934771 -0.019972358 -0.06857101 -0.052086398 0.10554879 0.060708378 0.071909994
-0.024982356 0.07127408 -0.04956351 0.053764522 0.018254524 -0.023167642 -0.07164045 0.021835385
0.048754696 0.009595093 -0.04422821 0.065420195 0.0037724683 0.01092955 -0.091215044 -0.01695605
0.0129977595 0.012032205 0.068921216 -0.10588231 0.090360306 -0.043397643 -0.04251994 -0.122281656
-0.025256868 0.024936927 0.007669161 -0.039584685 0.014090701 -0.04451273 0.027539734 -0.0584348
-0.031645935 0.026336066 0.018027393 0.017482337 -0.11393954 0.06922242 -0.17120779 -0.011043473
-0.033015504 0.016755803 0.057866503 0.033968564 -0.034259524 -0.031562306 -0.0024513043 -0.025106568
-0.005122213 0.06288427 0.09174703 -0.04585511 -0.0123827085 0.055813815 0.013985109 -0.03738597
-0.012528076 -0.028448131 0.011449476 0.0273953 0.019331751 0.007657275 -0.047083937 -0.00982233
-0.018457133 0.061610907 0.057470735 -0.07286873 -0.004171892 -0.12417643 0.01550117 -0.06730951
0.0030981328 0.068254925 0.017223628 -0.04588907 -0.03060196 0.012390268 -0.1339699 -0.0044308472
0.0061119995 0.011537004 -0.05368815 0.11618817 -0.012307046 0.029409258 0.01421515 -0.069887765
-2.5784759e-05 -0.006616988 0.05213792 0.04252487 0.014893686 -0.062025674 -0.032170422 0.020123305

net.0.bias f4 [32]
00000000: cb9d 8ebc d297 78bd 49ba 79bd 5530 ee3b
00000010: 8140 8dbd 4a85 003d 6eab 503c 6e6b c03c
00000020: 2d9e 9fbd 784f 37bd b49a 74b9 0927 243c
00000030: f7a1 2f3d 6f16 8cbb 9a20 6bbd f562 6b3c
00000040: f688 37bd 25ce 2c3c 2afe 13bd 8c9c 4abd
00000050: 4c7f c9bb 3367 bb3c 7a6e eebc 860c 7ebd
00000060: 1dd6 48bd 5534 9d3c 3c73 993c 7669 113d
00000070: daea 143d 5266 823b 4671 823d 483b 9e3c
-0.017409226 -0.060691662 -0.06096867 0.007268945 -0.06897069 0.031377114 0.0127361845 0.023488726
-0.077938415 -0.04475352 -0.00023327285 0.010019072 0.04287907 -0.004275135 -0.05740414 0.014366855
-0.04480835 0.010547196 -0.03613106 -0.0494657 -0.006149208 0.022876358 -0.029105414 -0.062023662
-0.04903232 0.019189993 0.018731706 0.035500966 0.036356784 0.0039794827 0.063692614 0.019315377

net.2.module.0.weight f4 [32, 32, 3]
00000000: 76db a7bc 72d5 a83d 48d8 793d 4ccd 93bc
00000010: 51bf adbc 544a adbd bb15 bdbd a234 6e3d
00000020: b6f1 b7bd 1fc2 bcbc 4ef0 12bd 6557 39bd
00000030: 55c2 983c 1c38 d03b 96f0 debd bda2 003d
00000040: 84ee a63d 6386 bfbd 7292 9f3d 6f63 9dbd
00000050: 3336 df3c a1ef 0b3a 0d16 3f3d c7f4 12bb
00000060: 3588 a3bd 13c3 bdbd 8051 d1bd 5567 3ebd
00000070: d95d 96bd 208f 443d 18ac 3d3e bc78 d93d
00000080: 483b 293e 5df9 5abd ef25 a73a 1d5d 813d
00000090: 3948 883d 0141 c4bc ff91 893c 43b9 033d
000000a0: b0aa 34bc 0f9f 9cbc eb52 8e3d ce60 e8bd
000000b0: a810 903d 2068 6cbd 874c ae3d d0d2 e93d
000000c0: afe0 9c3d 6edc 5dbd 5360 923c 47a2 afbc
000000d0: 18c0 483a 1a56 0dbe 961b 12bd ec52 913d
000000e0: 6d2a 81bd e741 c33d 5e80 39bd b090 c1bd
000000f0: f041 0d3e fef7 89bc aec8 87ba feee 27bc
00000100: d84c 3cbd ea3d 4e3d 9a03 4bbd 633b f0bd
00000110: 683f 59bd b720 c6bd dabb c73b a268 323d
00000120: 271e 5b3c 771d 16bd daee dbbd b761 233d
00000130: 81fe 663d c9b2 133c 9e18 6abd bd8d f43c
00000140: d9bd fc3d 132d acbd 8ef2 b33d 0e87 90bd
00000150: e39c a3bd d755 813c cbb3 22bd 2e3a c13d
00000160: 5caf 19bd 4aa8 1fbd b585 8e3d 80dd 62bc
00000170: b796 69bd 5a39 a1ba 5ee5 99bd a00c fabd
00000180: cb87 88bd 62bc 5cbd 0aeb bbbd 10a1 d63d
00000190: 350c 65bc 6d22 573e ee7f b1bd f78f e1bc
000001a0: af5c ebbc d245 323d 4905 ed3d 5bbd 8ebd
000001b0: 4e77 fc3c 2008 c33b 48c2 26bd 28be 8f3c
000001c0: 0aa7 3fbc d485 2fbe ef24 bfbd c8b1 f3bd
000001d0: d092 aabd 25c1 1a3d 5ac4 43bc 2a11 0b3d
000001e0: 1c1e cc3d 7a4d 9abd e319 183e 6009 72ba
000001f0: 0c08 b43c 3304 613d efe8 afbd 9bb4 b7bd
00000200: 3be4 b03c 8d06 aebb 8542 cb3d 0d1f d6bd
00000210: 68ba 38bc d585 74bc 8bbf 06be aedc c63d
00000220: 48da a83b c893 193e 1cb1 cb3d f771 1cbd
00000230: a698 62bd b035 3dbe ac12 643b 9142 80bd
00000240: 8e3a fa3c a343 8fbd 7887 16be 7b48 77bd
00000250: 16c5 a0bc d0e5 2dbe c7d3 18be 1ac7 f53c
00000260: 7fdc 0cbe c698 243d 5174 82bd bbe8 0fbe
00000270: ea80 f23d 9fc7 923d 930e b4bd 04e7 ba3d
00000280: d418 993d 5d11 d2bd c694 dd3c 6aad cabd
00000290: 4e63 3fbd 9fc9 793d 713d a0bd 7564 0e3d
000002a0: 5d61 7d3d 3e39 67bd c404 7fbc e61c e1bd
000002b0: 55f9 7dbd 3493 3fbe 9d60 64bc fa97 ec3d
000002c0: 2e79 f53c cdc9 a53c 90d8 c33d 71bc dcbc
000002d0: 4129 96bb 001d be3d b894 0a3e 7fc6 ca3d
000002e0: 8c4d 72bd a76f 073e 0be2 93bc 5665 ce3d
000002f0: 638e 1e3d c038 a33c f9f1 38bc 5143 efbd
00000300: 6ee9 cebd 03c7 223c d0f5 ba3c 2544 1b3d
00000310: 7763 393a 0aa9 aebd f4bd 123e 8545 89bd
00000320: a469 b63b a522 923d a709 88bd f87d 823d
00000330: 5251 4fbc dea3 8f3d f76e 113e 33b8 76bd
00000340: 1da0 8d3d d88f 293d fb27 f33d 65b0 e33d
00000350: 267d 82bd 9ced 31bd 96dd b83c 0812 143d
00000360: e112 96bc fc62 27bd 3ad8 dfbd 4673 d7bd
00000370: 6b04 353d 6e85 5ebd eea2 ebbd 75fe 173d
00000380: e27e 2f3c 3ac9 36bd 26e2 ba3d e67b 7a3d
00000390: 4b00 7f3d d0cc 873d 1210 753d 6b9a 273e
000003a0: c0f7 953c 2e3d e3bd be1c 89bd e075 343d
000003b0: b5d9 93bd ec9b 8ebc d2b2 4f3d 576d 28bd
000003c0: 77da 9bbc ceca b1bd 42a9 4d3c 545a df3d
000003d0: 93f3 aabc e052 503b 00a2 a13d af22 84bd
000003e0: b07c 54bd 884c 01be ad41 cebb 2636 a23d
000003f0: 89af 47bd 3c95 803b f0b7 bfbd 14d8 2b3d
-0.02049039 0.082438365 0.060997277 -0.01804223 -0.02120939 -0.084614426 -0.092326604 0.058155663
-0.089816496 -0.023041783 -0.035873704 -0.04524936 0.018647352 0.006354345 -0.10885732 0.0314052
0.08150962 -0.09351804 0.07791604 -0.07684981 0.027247524 0.00053381367 0.04665189 -0.002242373
-0.07984964 -0.09265723 -0.10220623 -0.046485264 -0.07342119 0.047988057 0.1852268 0.106187314
0.1652652 -0.053460468 0.0012752394 0.06316588 0.066544004 -0.023956778 0.01679325 0.0321591
-0.011027023 -0.019118814 0.06949409 -0.11346589 0.07034427 -0.05771649 0.0851069 0.114171624
0.076600425 -0.054165296 0.017868197 -0.021439685 0.0007658019 -0.13802376 -0.03567084 0.07095894
-0.0630692 0.09534054 -0.045288436 -0.09451425 0.13794684 -0.016841885 -0.001035949 -0.010249851
-0.04597172 0.050352015 -0.04956398 -0.11730077 -0.053038985 -0.096742086 0.0060953917 0.043556817
0.013373888 -0.036649194 -0.10738917 0.03988811 0.056395058 0.009014794 -0.057152383 0.029852742
0.12340898 -0.08407035 0.08786498 -0.0705701 -0.07988908 0.015788002 -0.039722245 0.09434925
-0.03752075 -0.038978852 0.06959096 -0.013846755 -0.0570285 -0.0012300417 -0.075144514 -0.12209439
-0.066665255 -0.053890593 -0.091756895 0.10479939 -0.013979961 0.21009226 -0.08666979 -0.027534468
-0.028730718 0.043523617 0.11573274 -0.069697104 0.030818608 0.0059518963 -0.040712625 0.017546728
-0.01169754 -0.17140895 -0.093332164 -0.118991435 -0.083287835 0.037781853 -0.011948669 0.033951916
0.099666804 -0.07534309 0.14853625 -0.00092329644 0.021976493 0.054935645 -0.085893504 -0.08969995
0.021593204 -0.0053108395 0.09924797 -0.10455141 -0.011274911 -0.014924486 -0.13159005 0.0971006
0.0051529743 0.1499778 0.0994589 -0.038194623 -0.05532136 -0.18477511 0.0034801168 -0.062626965
0.0305455 -0.069953226 -0.14700115 -0.060371857 -0.019625228 -0.16982198 -0.14924537 0.030002166
-0.13755988 0.04018476 -0.06369842 -0.14053623 0.11840995 0.07166981 -0.08791842 0.09126094
0.07475439 -0.10257218 0.02704848 -0.09896357 -0.046725564 0.060983296 -0.07824219 0.034763772
0.06186043 -0.056451075 -0.015565101 -0.1099184 -0.06200536 -0.18708497 -0.01393905 0.11552425
0.02996501 0.020237828 0.095627904 -0.026945325 -0.0045825546 0.09282875 0.13533294 0.099011414
-0.059155986 0.13226186 -0.018052122 0.10077922 0.03871001 0.019924521 -0.0112881595 -0.116827615
-0.10103117 0.009935143 0.02282229 0.037906785 0.00070720114 -0.085283354 0.14330274 -0.06702713
0.0055667926 0.07135514 -0.06642466 0.06371683 -0.012653666 0.07013677 0.14202486 -0.06023426
0.06915305 0.041396946 0.1187286 0.11117629 -0.063715264 -0.043439493 0.022566598 0.03615001
-0.018319549 -0.040865883 -0.10929914 -0.105200335 0.044193666 -0.054326467 -0.11505686 0.037107904
0.010711404 -0.0446255 0.09125166 0.061153315 0.06225614 0.06630862 0.05982978 0.163675
0.018306613 -0.110956535 -0.06694935 0.044057727 -0.07219259 -0.017408334 0.050707646 -0.0411199
-0.01902507 -0.0868126 0.012552561 0.109059006 -0.020868098 0.0031787679 0.07892227 -0.06451928
-0.051876724 -0.1262685 -0.0062944503 0.07920484 -0.048751388 0.00392404 -0.09361255 0.041954115

net.2.module.0.bias f4 [32]
00000000: edda 1ebd 685b 10bc 3602 84bc f9e7 1abd
00000010: c0be 71bc a17b c73c 169e ac3d 80b8 a8bd
00000020: 3542 d63c 2cb9 62bd 93f8 b83d 7bc2 08bd
00000030: f4b7 aebc 28e2 9b3d 1b43 7ebd 7d9a 503d
00000040: 41b3 91bd bfa2 393d b54b d03b b9a6 fe3a
00000050: 74b3 67bc 2fea bb3c ec6f 1cbc e95f 5a3c
00000060: bbfc 9d3d 0ece d2bc 2537 a8bc 3af1 483d
00000070: 1cb4 d83b a9cd fabc 7aa5 84bd 5b6e 22bd
-0.038783003 -0.008810855 -0.016114336 -0.037818883 -0.014754951 0.024350943 0.0842859 -0.082383156
0.026154617 -0.055352375 0.09031787 -0.033388596 -0.02132795 0.07611495 -0.062075716 0.05092858
-0.07114268 0.045321222 0.006356681 0.0019428349 -0.014141906 0.022938816 -0.009548169 0.013328531
0.0771422 -0.02573302 -0.020534107 0.049058177 0.0066132676 -0.030615645 -0.06476875 -0.039656024

net.3.module.0.weight f4 [32, 32, 3]
00000000: a7c3 89bd 91e3 1b3d 4dfd 0b3d 5cae bc3d
00000010: da75 163d 8173 ec3d 3857 fcbd 1840 863c
00000020: b35d bcbd 8533 763c 02d4 ab3c 11be dcbd
00000030: 8224 c33b 42e7 40bd 4654 03be 4ba5 fb3c
00000040: 3c8e 8d3d c423 343d 3882 ad3c f49e bcbd
00000050: c4ac 853d 5d99 2f3d ba16 d3bc a14e 6abd
00000060: d996 533d a0e7 68bc 5c72 793d d7e1 06bd
00000070: 2db2 5f3d 4877 90bd 8e98 93bd 2ef2 383d
00000080: d88b 4e3d 38d0 0cbd 65fb 443d eedd 953d
00000090: ce2c cebd b0cf 71bb 75f5 12bd cd2b febc
000000a0: a921 133d 1c47 4abd af5e 7c3d 3a8d cabd
000000b0: ee62 363d f94c 873d 1b13 e73c 4a33 1d3c
000000c0: 8722 853c a65e 9ebd 6eb7 97bb d7eb b8bd
000000d0: ddc1 bdbd 9fa9 dbbd 4f04 8b3d 7dab dabb
000000e0: 41b0 11bd 621b ea3c d979 1cbd 1fb0 25be
000000f0: b895 66bd b152 503d 1fc7 323c 3696 073d
00000100: 7e84 c43d 9123 efbc 4f82 9e3c 94f5 6cbd
00000110: d1cb 513d ecbd ccbc 2bd1 953d 05b0 b0bd
00000120: 5552 d5bd 47b3 b3bd 6fd7 d0bd cdb8 b2bd
00000130: 4bfd 95bd 55b6 c7bc 35aa 57bd fcc7 dcbc
00000140: b8ff 703d f43b f1bd eabc 17bc 4992 efbd
00000150: c3f6 e63d 41a6 ff3b ec8d dc3b 9df1 ed3d
00000160: bb9e 3fbd 0943 183e bebb 80bd 689f f8bd
00000170: 920a 0ebd a209 a6bd 89d1 0cbd a93a 8a3b
00000180: 6e97 13be 16fe febc eb43 75bd 2553 653d
00000190: a4ae 0abe 5717 cb3d 9b85 c2b8 993e a5bd
000001a0: 66a3 01be e70d 3e3d 86bd 1bbd 8c1c 1dbd
000001b0: fc3d dbbd e45b 913d 7814 1cbe 97d5 e7bd
000001c0: 4e2d 9a3c 11ea 533d 306b 6bbb f7cc a4bd
000001d0: f0a4 4d3c eddf 3cbc 9fb4 d33b c35d 853c
000001e0: 7710 453d c0ac 943d e67d 873c d77e ca3d
000001f0: ce61 1abc ff4e 0f3e 995b bf3d a602 00bd
00000200: e20b d13b 81ca 87bd 2674 59bc bc9f b9bd
00000210: 72a8 ce3d 0b17 4c3d 0314 45bc 194d a4bc
00000220: 94a1 c5bd 91dc 4a3d cfea 213d 3004 a13d
00000230: 2888 8e3d 07e0 20bb c777 41bd f413 483a
00000240: 763c 03bd ad88 743d ed91 0dbe 74fd 0abe
00000250: c75a 0dbd c06f f73c 1753 3fbd 5c2b 49bc
00000260: 5ba2 a2bd bd34 fabd a055 0abc 39df c8bd
00000270: f370 c8bd a1f8 81bc 45dd 2bbe c401 903c
00000280: 6ca4 b1bd de33 06be c925 04be ae1a 88bd
00000290: cf96 b7bd 98d4 8cba b35f 17bc 09e0 223e
000002a0: fe8d 653c d051 b4bd f825 583c 2bf8 f7bc
000002b0: b4a1 5bbd b63c a9bd c78c 483d a908 a73d
000002c0: b6af 1d3e c40d abbd 490f c03c 9790 cf3d
000002d0: 8a43 d03d 900d a13c ac6b b53c 6b4d b43d
000002e0: b882 b83d 7818 52bb c231 ff3c 9265 b63d
000002f0: 6f13 8a3d b156 5dbd e2a9 b3bd 1b82 50bc
00000300: c59a 08be fe03 1ebd e249 fbbd e8b2 cb3d
00000310: 379f 2e3b ffe0 a3bd 2548 123e 9553 bc3b
00000320: bcbb f33b 58d2 d33d 2f13 c7bc 9076 b33d
00000330: 0594 e7bc 2bdc 40bd fc31 af3d aff3 97bc
00000340: 4a6a 7dbd 8441 73bc 455c 213e c550 68bd
00000350: c439 aebd 7831 09bd b051 33bc ad89 96bc
00000360: 91c6 373e 2c6d a7bc 8f5b b9bd fdcc f93c
00000370: 70da 6bbd be49 843d 7840 e5bd 1334 463c
00000380: bf80 773d 97e2 13be 1eaa b8bd 1d7b 22bd
00000390: 7087 903c 7c97 dd3d 2fbc cd3c caa0 29bd
000003a0: f151 7dbd d148 87bd 25a1 84bd 61a0 c03c
000003b0: 1f5e 16bd 1c69 ccbd 5d25 74bd 521d a6bd
000003c0: 585e 11bd 1c87 8e3d 670d e0bd 0062 38bd
000003d0: 9222 08bd e55b 173d cf66 03be 90dd 6abd
000003e0: d41d 1c3e f61b 663b 22d3 a7bd c532 573c
000003f0: 76d7 2bbe fbfd 89bc c3b8 97bb a9f1 253e
-0.06726771 0.03805882 0.034177113 0.09212944 0.036733486 0.11545468 -0.12321323 0.016387984
-0.09197559 0.015026932 0.020975117 -0.1077844 0.00595528 -0.047095545 -0.12825117 0.030718466
0.06911895 0.04397942 0.021180257 -0.092100054 0.06527093 0.042870868 -0.025767673 -0.057203893
0.05165753 -0.01421538 0.060900077 -0.03293022 0.05461328 -0.07054001 -0.07206832 0.045152836
0.050426334 -0.03437826 0.04809131 0.0731772 -0.100671396 -0.0036897473 -0.035878617 -0.031026745
0.035920773 -0.04938422 0.061613735 -0.09890218 0.04452794 0.06606478 0.028207352 0.009594748
0.016251815 -0.077328965 -0.004630021 -0.09029358 -0.09265492 -0.10725712 0.06787931 -0.006673275
-0.03556848 0.02857751 -0.03820214 -0.16180466 -0.056295127 0.05086011 0.010911732 0.033102237
0.095955834 -0.029191764 0.019349245 -0.05785139 0.051219765 -0.024992906 0.07315286 -0.08627323
-0.10416094 -0.08774429 -0.10197341 -0.08726654 -0.073237024 -0.024378935 -0.052652556 -0.026950829
0.058837622 -0.11779013 -0.009261349 -0.116978236 0.11277535 0.0078018014 0.0067307856 0.1161835
-0.046782237 0.14869322 -0.06285809 -0.12139779 -0.03467805 -0.08107306 -0.034379516 0.0042184186
-0.14413235 -0.031127017 -0.059879225 0.055987496 -0.13543183 0.09916561 -9.275527e-05 -0.0806858
-0.12659988 0.046399977 -0.03802254 -0.038357303 -0.10705182 0.07097605 -0.15242183 -0.11320036
0.018820431 0.051736895 -0.0035922043 -0.080469064 0.012551531 -0.011527997 0.0064607407 0.01628006
0.048111405 0.07259512 0.016539525 0.09887474 -0.0094227325 0.13994978 0.09343643 -0.031252526
0.0063795904 -0.066304214 -0.013272321 -0.0906367 0.10090722 0.049826663 -0.012028697 -0.020056294
-0.09649959 0.049526755 0.03953057 0.07862127 0.069595635 -0.0024547593 -0.04723337 0.0007632368
-0.032040082 0.059700657 -0.13825198 -0.13573247 -0.0345104 0.030204654 -0.0467101 -0.012278404
-0.07941123 -0.1221709 -0.008443266 -0.09808201 -0.09787168 -0.015865626 -0.16783626 0.017578967
-0.08673939 -0.13105723 -0.12905039 -0.06645714 -0.08964311 -0.001074451 -0.009239125 0.15905775
0.014010904 -0.08804667 0.013192646 -0.030269703 -0.05362101 -0.08263533 0.04896238 0.08155949
0.1539906 -0.08352235 0.023444789 0.10135 0.10169132 0.019659787 0.022146069 0.08803829
0.090093076 -0.0032058042 0.031151656 0.08906092 0.06741988 -0.054037753 -0.08772637 -0.012726332
-0.1334029 -0.038578026 -0.122699514 0.09946233 0.0026645192 -0.08001899 0.14285333 0.0057472684
0.007438151 0.10342854 -0.02430114 0.087628484 -0.028268823 -0.04708497 0.08554456 -0.018548815
-0.061868943 -0.014847163 0.15757854 -0.056717653 -0.08507112 -0.033494443 -0.010944769 -0.018376196
0.17946841 -0.0204378 -0.090506665 0.030493254 -0.057581365 0.06459378 -0.11193937 0.012097376
0.060425516 -0.14441906 -0.09016822 -0.03966819 0.017642707 0.10819909 0.025114147 -0.041413106
-0.061845724 -0.066056855 -0.064760484 0.023513975 -0.036710855 -0.099809855 -0.059605945 -0.08111061
-0.035490364 0.06959364 -0.10940056 -0.045015335 -0.033236094 0.03695287 -0.12832187 -0.057340205
0.15245754 0.003511188 -0.08194567 0.013134663 -0.1678141 -0.01684474 -0.0046301796 0.16205467

net.3.module.0.bias f4 [32]
00000000: 005e 9e3c 69e2 29bc 1152 45bd d778 5f3d
00000010: 5570 3ebc 9a96 9d3d 750b 64bd e217 563d
00000020: b0f6 213d 556c 483d 466e b23d 4c7a 0abc
00000030: b41a a93d b3d0 883c a752 2dbd 00e7 59bc
00000040: 63e3 3f3d 1f1c 123d cbb4 57bd aaa6 563d
00000050: 213d 5dbd 9720 87bd e89c 253d d76a 963d
00000060: 6d26 8cbd 54dd b3bd 443d c03c fc6a 72bc
00000070: 48a8 24bd d1dd 19bd c4ef 9a3d 1d72 90bb
0.019331932 -0.010368922 -0.048173968 0.0545586 -0.011623462 0.076947406 -0.05567499 0.05226887
0.0395419 0.04893144 0.08712439 -0.008452009 0.08257046 0.016701078 -0.04231515 -0.013299704
0.046847712 0.03567135 -0.052662652 0.052405037 -0.054013375 -0.06598013 0.04043284 0.07344597
-0.06843267 -0.08782449 0.023466714 -0.014796015 -0.040199548 -0.037565056 0.07565263 -0.0044081346

net.4.module.0.weight f4 [32, 32, 3]
00000000: 5e03 b53d 88fa fe3c 2279 df3d d09e e93d
00000010: c957 0f3d 3c3d 3f3e 9d0d 01bd a99f 513d
00000020: 4cb2 9ebd 2486 7bbc af02 1b3d cc3a f6bd
00000030: 8b65 dbbc 0e9b c33d b4ce 2fbe f669 183d
00000040: dedf b3bc cd16 04be 91fb 9c3c 9bdb 30bd
00000050: ba72 4abe b56a c0bd a72f 97bc 9b6e 93bd
00000060: d82e 61bd 6544 8cbd ddf6 c73d 0afd bd3c
00000070: e13a ea3c 62b6 a63c 38a4 9e3d abdd 9a3d
00000080: 9ec5 c73d 1061 a03d e92d 0ebb 47a6 ce3d
00000090: fcf1 2fbd ec83 b9bd cad4 e5bd 8ad0 acbd
000000a0: 9fb9 41bc e73a e73d 5978 063e b258 a7bd
000000b0: a283 1a3e 9c89 793c e132 7bbc b472 e9bc
000000c0: c7c1 2a3d ea98 afbd c3e0 34bd 5a9b 1cbe
000000d0: e724 6abc 149b 90bc dfe5 03bd 3b9d 833d
000000e0: 615e 2abe a28e 7fbd 73fd 653d 09c8 17be
000000f0: 44ab 503d 5e79 bf3d 33bb e83d 43e5 a53d
00000100: 7758 efbc ef24 26bc 7328 10bd 55dd aebd
00000110: b1f0 fb3d afea 963c 92d7 9ebc 13ed 99bd
00000120: 879a 183d 0911 27bd 4549 71bc b51d 7fbc
00000130: ec33 34bd 0e07 eabd 0b49 15bd cf77 843d
00000140: eba5 153e a368 013d d589 84bd 2d45 ccbc
00000150: 0c13 b5bd b5d8 ea3c 2e57 6d3d a89b c93d
00000160: 1fee c03c cfca 213e af8c ee3d def7 8a3d
00000170: 338b aa3d 62ac dfbd 397d 133d cd15 05bd
00000180: a6e2 8f3d 2ecd 2abd 223c 0bbd c620 af3d
00000190: b62f c7bc fab4 903d 2894 233d 9ee6 2b3d
000001a0: 82b2 eb3d b053 43bd 4ff7 9abd c21c afbb
000001b0: abc1 87bd 59e7 82bd de5d 203e 94fb 8fbd
000001c0: 3f99 253d 32e3 02be 609b c33b ace2 803d
000001d0: 332a 2ebc a3ad 8d3d 4c23 a83d 6c21 a33d
000001e0: e797 a4bc 6229 653d 77e4 c53d 0dde b63d
000001f0: fe5f ca3d 4d49 e43d ec54 c93d 4035 d03d
00000200: 8c35 883b 8ace 91bd 3e2e a2bd 8cd7 ffbc
00000210: 147f f5bd e5dd 313c a5f9 c5bd 25d4 003d
00000220: 0bf5 c53d 9736 f8bc 0b39 4ebc 5840 9d3b
00000230: b18d d1bd fa48 45be 47ce 27be aaa5 8ebc
00000240: 9f1f ee3a 90ce a23d 8a28 8cbd 1896 bbbd
00000250: 6567 913d 9d4b 3d3e d582 c93a 8438 7bbd
00000260: a4fb 163e d496 073d 9cf4 023c eedc f43c
00000270: e64e 9ebd 4bef 783c b575 23be 7a8b 94bd
00000280: 5813 42bd 95ce 3e3d f72c b23c 6f9c b9bc
00000290: 42a0 11be d0cf 1d3d 39d7 473c b5de 0a3e
000002a0: d181 953d 8e91 52bc 8e6c 233e 9321 02bc
000002b0: a967 fc3c 7d70 e63c b979 803d c58a d3bd
000002c0: eb83 23bd 2324 51bd 6ad4 a1bc efd3 083e
000002d0: 0ce5 7e3d e2c3 ed3d 1e2f 523c fdd5 f73c
000002e0: 7a1e 91bd ad52 0ebc 53b3 323d 019d cbbd
000002f0: d46e 8fbd 233b b2bd e76d bdbd 3f0d 9c3c
00000300: 45db 50bd e3e2 4cbd da34 2a3c 3df7 52bd
00000310: 7cff 9cbd 554f 6e3d db57 a33d 4de7 bdbc
00000320: f87b 783d 0885 25bc 17bb 73bd ad70 2ebe
00000330: 4990 ef3d 919e 0b3e 8bfc c93d f5f4 d63d
00000340: 7b2f f4bc 9a6d 9ebd 57d9 813d 559a b13d
00000350: a768 0cbc 2766 cd3d 7c57 c93d b0ee 063e
00000360: 4c55 5b3d 6dae babb ffa8 123e eb5b b7bd
00000370: 038a c0bc 0f2a 2b3e b752 95bb afe2 4f3a
00000380: f360 f03c cda1 d0bd e768 d0bd 70b8 b7bd
00000390: eb70 0f3c bca7 333d 8433 fcbd 9b6e 85bd
000003a0: 88e6 df3c 7b9e 1e3d 35ad 6bbc d8a2 1a3d
000003b0: 49c8 8f3d 7b49 a3bc 01ae 35bd 04ef 4cbc
000003c0: b9c3 903d 8368 b9bd 15ac cd3b ac8c 083e
000003d0: f9c5 e2bc 09ca 653d 319e c03d 87f1 babd
000003e0: 651d 803d d6de 203d 38a9 b93d 8533 04bd
000003f0: fb47 b0bd 4303 a6bd 368c 623d a417 d43d
0.08838533 0.031125322 0.10911776 0.11407244 0.034995828 0.18675703 -0.031507123 0.051177654
-0.07748851 -0.015351806 0.037844356 -0.12022933 -0.026781818 0.09551059 -0.17168695 0.037210427
-0.021957334 -0.12899323 0.019162925 -0.043178182 -0.19770327 -0.09395353 -0.01845534 -0.07198831
-0.054976314 -0.06848983 0.09763882 0.023191947 0.028592529 0.020350639 0.07746166 0.07561811
0.09754489 0.07831013 -0.0021694845 0.10090309 -0.042955384 -0.09058365 -0.11222227 -0.08438213
-0.011824041 0.112905316 0.13131846 -0.08171214 0.15089276 0.015230563 -0.015331955 -0.028497078
0.041688707 -0.08574088 -0.044159662 -0.15293637 -0.014291025 -0.017652072 -0.032201644 0.06426474
-0.16637565 -0.062391885 0.05614991 -0.14822401 0.05094458 0.09349321 0.113638304 0.08100369
-0.029216988 -0.010140642 -0.035194825 -0.085383095 0.123017676 0.018422453 -0.019389901 -0.075159214
0.037256744 -0.04078773 -0.0147269415 -0.015571048 -0.04399483 -0.11427127 -0.036446612 0.06468164
0.14614074 0.03159393 -0.06471602 -0.02493533 -0.088415235 0.028667787 0.05794447 0.09844142
0.023551045 0.15800022 0.11647927 0.06785558 0.083273314 -0.10921551 0.036008094 -0.032491494
0.07025652 -0.04169958 -0.033992894 0.08551173 -0.024314743 0.070657685 0.039936215 0.04196798
0.11508657 -0.047687232 -0.075667016 -0.0053440044 -0.06628736 -0.06391782 0.15660807 -0.070304066
0.04042935 -0.1278198 0.00596945 0.06293234 -0.010630178 0.06917884 0.08209857 0.07965359
-0.020091964 0.05594767 0.09662717 0.089290716 0.0988159 0.111467935 0.09830651 0.10166407
0.004156774 -0.07119472 -0.07918976 -0.03123071 -0.11987129 0.010856126 -0.096667565 0.031452317
0.09665879 -0.030299468 -0.012586842 0.00479893 -0.102321036 -0.1926612 -0.16387282 -0.01741298
0.0018167383 0.07949555 -0.0684367 -0.091594875 0.07099799 0.18485875 0.0015374074 -0.061333194
0.14744431 0.033102825 0.00799289 0.029890504 -0.077298924 0.015193771 -0.1596287 -0.072531655
-0.04738173 0.04658373 0.021749957 -0.022657601 -0.1422129 0.038528264 0.012197309 0.13561518
0.07300151 -0.012852086 0.15959379 -0.007942575 0.030811148 0.02812981 0.06273217 -0.103292026
-0.03992073 -0.051059853 -0.019754607 0.13362096 0.062230155 0.11609627 0.012828616 0.030253405
-0.07085891 -0.008686704 0.04362805 -0.099420555 -0.07003561 -0.08702686 -0.09249478 0.019049285
-0.05099036 -0.050021064 0.010388577 -0.051505316 -0.07665917 0.058181126 0.079757415 -0.023181582
0.0606651 -0.010102518 -0.059504595 -0.1703517 0.11697442 0.13634707 0.09862622 0.104959406
-0.029807797 -0.077357486 0.063402824 0.086720146 -0.008569873 0.1002925 0.098311394 0.1317699
0.053548142 -0.0056970627 0.1432228 -0.08953079 -0.02350331 0.16715263 -0.0045569795 0.0007930202
0.029343104 -0.10187111 -0.101762585 -0.089707255 0.008754949 0.043861136 -0.12314513 -0.06515237
0.027331606 0.038725358 -0.0143845575 0.037752956 0.07020623 -0.0199325 -0.044355396 -0.012508158
0.07068581 -0.09053137 0.0062766173 0.13334912 -0.027682291 0.05610088 0.094051726 -0.09128099
0.062556066 0.039275013 0.09065479 -0.032275695 -0.08607479 -0.08106091 0.055309497 0.103560716

net.4.module.0.bias f4 [32]
00000000: 4bfa a23d 2fb0 d53d 44d7 0b3d 82f2 03bd
00000010: f2d1 be3d bb00 9f3c 050d 733d e1c8 b8bc
00000020: 3ff9 b1bd 38e8 843b e652 963d 8f76 a03d
00000030: 1e8c ed3b 22ca af3d d860 73bc fdbf a33d
00000040: 66c4 213d 88a2 e3bc 0fa6 51bd cb5b f73c
00000050: ecbd 11bd bbec 26bd c9d9 033d e28e 48bd
00000060: 474c c43d 809d f8bb e590 6fbb 947f 85bd
00000070: ee30 c23d 1451 59bd 788b c03d 758a 843d
0.07957896 0.10433995 0.03414084 -0.032213695 0.09317388 0.019409528 0.05933859 -0.022556724
-0.08690118 0.004056003 0.0734003 0.07835113 0.0072493693 0.08583476 -0.014854632 0.07995603
0.03949394 -0.027787462 -0.051183756 0.030195137 -0.035581514 -0.040753108 0.032190118 -0.04896439
0.09584861 -0.007587135 -0.003655487 -0.06518474 0.09481989 -0.053055838 0.094016016 0.06471721

net.5.weight f4 [3, 32, 3]
00000000: 5fd6 67bd 6821 293a de38 d0bd 53a9 95bd
00000010: 8b6e b2bb baea 53bd c093 07bb 4189 1f3d
00000020: 624b a1bd 22be cf3c d466 63bd 6c14 2ebd
00000030: 99dd 443d e934 403d bf34 c03c 9243 95bc
00000040: 3573 1b3d c9c5 e73d a78b 633d acaa 353d
00000050: 097d ce3d 71e7 2c3d 58e8 96bc 417b c5bb
00000060: 3c3c 693d 7303 d6bc 8223 26bc 984a 1ebd
00000070: d917 42bd 939c 95bc abe0 613d c52a 97ba
00000080: b3b1 e73c ac3b 193e 19e2 953d d50d f03c
00000090: 98fe 813c ffc0 db3a 3871 4e3d 877b cf3d
000000a0: 7016 01bd 29a9 68bd 29b1 d7bd fa8c bebb
000000b0: 3446 0f3d 2ff5 8e3c 76ed 933d 326a e83d
000000c0: cb91 41bd 4b92 f1bb 2d62 543d 2786 8ebd
000000d0: 2f9b cb3d 7b96 ddbd 38bd 323d feec a03d
000000e0: c106 e7bc 1f61 bb3d e696 b73d 281c 003e
000000f0: 6224 1f3d b800 85bd 760b fe3c 1779 163b
00000100: 1d0f 553d d821 a23b 9fc9 3f3d e17d ff3c
00000110: 9166 05bd 2998 b6bd e8e3 c7bd 88b5 f3bd
00000120: 9702 9fbd 709b 923c 8947 06bd cd63 2e3d
00000130: 0a08 c03d 7e86 46bc eed2 87bb 32cf fd3b
00000140: 4aa5 e3bd c1df 8fbd d35f 123c b8e2 f0bd
00000150: d8c9 26bd 1a9f 99bd a92e 80bd afd2 a13d
00000160: 4b11 063d c08d 83bd 44b1 a8bd 6c25 37bd
00000170: 7bc1 e4bd d937 103d f05e ad3d b069 31bd
00000180: f4e1 56bd e6d2 763d 4222 e0bd d9ab e0ba
00000190: 20c3 faba bddb e13d 6190 cb3c b26b ae3d
000001a0: aed7 52bd a664 483d b9a3 a9bb a70d 0e3d
000001b0: a33d f03d ff39 963c 3378 873d d5de 50bc
000001c0: 04b6 92bc 78bc 14bc 92e1 b93d 09d4 6b3d
000001d0: ab9e e83d 85a4 9e3d a317 163d 339e 123d
000001e0: 8c9a 67bd 233b 1dbd 8c19 87bd 91da ac3d
000001f0: 7e50 273c a865 e3bc 45c2 84bc 52fb 4ebd
00000200: b3c3 a4bd 6c6f 22bd 69b6 363d 496e d23d
00000210: 003f c63c cacc 8c3d aad2 1b3d 3ed9 0bbd
00000220: e272 8c3d bfc2 8b3d f943 8ebb 1d36 b9bc
00000230: e8f1 0fbd d2e6 a1bc 1663 843c d3c4 8c3d
00000240: b76d 84bd 899e 5d3c 654b 31bd 12ca b23d
00000250: 08d5 8e3d 6dd5 7e3d e9e6 0b3d d25d 0abd
00000260: 91d0 1d3d 7311 eebb 2228 8d3d fe20 ed3d
00000270: 46c6 f73c 1a1e 98bd 0965 81bd 2c07 95bd
00000280: 6284 1c3c 51d9 67bd 8a0d 443b 3ffd c2bc
00000290: 9dd4 5bbd 109b a0bd a7d7 58bd e5db be3d
000002a0: b27f 493d 16da 533a c0aa 603d b9c5 febc
000002b0: f050 31bd 1723 843d bcff 4a3d d715 4e3c
000002c0: 7c9e d2bd 713d 763c 8239 e93c 7eb3 e93c
000002d0: 7065 a63d 0d04 993d 30d1 883d 452b fcbc
000002e0: 2937 78bd f40a 2fbd d74d 8c3d 48d0 9f3d
000002f0: a6b9 453c 44a4 29bd d3db 433d fd3e 823c
00000300: 72e7 31bd eff3 85bd 8125 ebbd 671f 043c
00000310: fc40 68bd 7286 8e3d 75e3 2e3d 1c15 d43d
00000320: b8cf e23d 1397 3abd 140e a1bb a0f6 383d
00000330: c52c 1b3d a698 f63c 0414 3d3d cf3f 99bd
00000340: 400d 6a3c 69a3 39bd f27f dd3c cb93 94bd
00000350: 9b29 123c 4302 e93d 0028 c63b 2a66 f8bc
00000360: d2c9 38bd 4ca3 a83d 40a4 3c3d 9506 05bc
00000370: 5495 98bb da61 4f3d d512 b3bd 90f4 43bd
00000380: b769 78bd 0e21 81bd 009a 90bd 9546 02bc
00000390: 8f04 d03d 37a4 88bd 26db 31bd ecb6 87bd
000003a0: ff17 b9bc 875c 32bd 0c9b 0dbd 852d 013d
000003b0: 8140 81bd 6143 5bbd a0f8 4e3d 1dfb 393d
000003c0: 0e7d bebc 8ed1 a03d cea0 02bd d678 cc3d
000003d0: 0481 d53c bd46 b53b 4854 95bd 1494 d83c
000003e0: 3c00 933d d03b 2b3d d2c7 26bc 3188 2a3b
000003f0: 88ad 21bd ba6b 3a3d 52af 85bc 7660 883c
-0.056600925 0.00064518163 -0.101670966 -0.07307687 -0.0054453067 -0.051737525 -0.002068743 0.038949255
-0.07875706 0.025359217 -0.055517986 -0.042499945 0.048062894 0.04692546 0.023462651 -0.018220697
0.037951667 0.113170214 0.055553105 0.04435222 0.10082442 0.042212907 -0.018421337 -0.006026656
0.05694221 -0.026124692 -0.010140302 -0.038645357 -0.047386024 -0.018263137 0.0551459 -0.0011533132
0.028282976 0.1496417 0.07318515 0.02930347 0.01586847 0.0016765891 0.050400943 0.10130983
-0.03151554 -0.05680195 -0.105318375 -0.0058151456 0.03497906 0.017450897 0.072230265 0.1134838
-0.04725818 -0.007372176 0.05185144 -0.06959181 0.09941708 -0.108197175 0.043637484 0.07857703
-0.028201463 0.09149384 0.089643285 0.12510741 0.038853057 -0.06494278 0.031011324 0.0022960359
0.052016366 0.004947882 0.04682314 0.031187953 -0.032568518 -0.08915741 -0.097602665 -0.11899859
-0.07764166 0.017896384 -0.032783065 0.042575646 0.09376533 -0.012117026 -0.004145018 0.007745647
-0.11115511 -0.070250995 0.008933979 -0.11761993 -0.040719837 -0.07501049 -0.062589 0.07901513
0.032731336 -0.06423521 -0.08236936 -0.044713423 -0.11169716 0.03520951 0.084653735 -0.043313682
-0.05246158 0.060259722 -0.10944034 -0.0017141058 -0.0019131638 0.1102824 0.024849119 0.08516635
-0.05147522 0.04892411 -0.005176988 0.03468099 0.11730506 0.018338202 0.06614723 -0.01274844
-0.017909057 -0.009078138 0.09076227 0.05757526 0.113583885 0.07746223 0.036643635 0.0357954
-0.05654387 -0.038386475 -0.065966696 0.08440126 0.010212062 -0.027758434 -0.016205916 -0.050532646
-0.08045139 -0.03965704 0.044607554 0.102749415 0.024199963 0.06874998 0.0380427 -0.034142725
0.0685785 0.06824254 -0.004341599 -0.022608811 -0.03514281 -0.019763384 0.01616053 0.06873479
-0.06466239 0.013526567 -0.043284792 0.08729948 0.06974226 0.062215257 0.03415576 -0.03378088
0.038528983 -0.0072652637 0.0689242 0.115785584 0.030245911 -0.074276164 -0.06318099 -0.072767586
0.009553047 -0.056603733 0.0029915296 -0.023802398 -0.05366956 -0.07842076 -0.052940037 0.09319285
0.049194045 0.00080815086 0.05485034 -0.03110014 -0.04329008 0.06452005 0.049560294 0.012578449
-0.10284135 0.015029297 0.028469805 0.028527971 0.081248164 0.07471476 0.06680524 -0.030782351
-0.06059948 -0.042735055 0.06850784 0.07803398 0.012068188 -0.04141642 0.047817063 0.015899176
-0.043433614 -0.06540667 -0.11481763 0.0080641275 -0.0567026 0.06959237 0.04269739 0.10355589
0.110747755 -0.04555423 -0.0049150083 0.045157075 0.037884492 0.030102085 0.046161667 -0.07482874
0.014285386 -0.045321856 0.027038548 -0.07254752 0.008921052 0.113773845 0.006047249 -0.030322153
-0.045114346 0.082342714 0.04605508 -0.008119245 -0.004656473 0.050630428 -0.08743826 -0.047840655
-0.060647693 -0.06305133 -0.07060623 -0.007951398 0.101571195 -0.066719465 -0.043421887 -0.066266865
-0.02259445 -0.043545272 -0.034571692 0.03153755 -0.06311131 -0.053531054 0.050530076 0.045405496
-0.02325299 0.078524694 -0.031891637 0.09983985 0.026062496 0.0055321143 -0.07291466 0.026437797
0.07177779 0.04180509 -0.010179477 0.0026021118 -0.039472133 0.045512892 -0.01631895 0.016647559

net.5.bias f4 [3]
00000000: a073 c83d a867 86bd daf2 213d
0.09787679 -0.065627396 0.039538242

exp_avg f4 [32, 120, 2]
00000000: d2f1 1f39 0311 be39 7ebe e0b8 5add 02ba
00000010: f1a4 17bb 07d5 cbba b5cd 253b 861f 8b3a
00000020: 9119 3dba 881e f9b9 a871 a4bb 7f26 42bb
00000030: 5d76 b0b9 36ca f839 79d7 a1ba 1573 05bb
00000040: 8f30 6cba 39bd 4dba 7d1e e437 9179 8938
00000050: be85 313b 9c82 1d3b 7622 a03a 3a79 2d3b
00000060: 6f1c afb8 cb16 0339 0e1b b13a b8dd cb3a
00000070: 7bc2 51ba e3a7 183a d3a2 f03b 2de4 a13b
00000080: 6051 0ab9 20cf 8539 42d3 f4b7 a5cb a938
00000090: 3acb 13bb b52e 25bb 28b0 d1ba f6c6 3fba
000000a0: b899 9b3a d523 e03a 7db4 80b9 7d52 d2b9
000000b0: 2c58 f539 eb23 123a 27c2 533a 9d66 88ba
000000c0: 8593 1239 e982 ecb7 f728 93ba 9b5c f439
000000d0: 50d4 cbb8 90f6 14b9 930f f638 61a0 0d38
000000e0: 1483 a736 c4fa 76b8 8ed3 3f38 7e4e aeb9
000000f0: afe7 9138 2154 ebb8 e083 b03a 35ce 653a
00000100: a1ff c1b8 fd75 e7b8 2f91 4eb9 4191 c7b9
00000110: 085d ea3a 4049 183b 4d82 3cba 8326 45ba
00000120: 223e 53b9 dab3 85ba a9b9 ab38 61d1 e238
00000130: 989f 94b9 3c52 b6b9 0000 0000 0000 0000
00000140: 8168 b03a 3ab2 d43a 2c9f 3739 fceb 0c3a
00000150: 3bf6 23ba d769 3fba 1a35 8f3a 6686 6d3a
00000160: 3f17 4d39 65a4 ebb8 2e79 7139 d46c 5939
00000170: f6dc 94ba 1b2f d9b9 c9a3 f839 2b23 9d3a
00000180: 3341 cc3a 39ee 923a ea8c 8139 0e21 4439
00000190: 4fce 0338 51e5 d538 b59b 113b 0020 fc3a
000001a0: e466 10bb 2cac 2dba ceb3 b03a b40c 5f3a
000001b0: 1eab c9b9 493e 96ba d66b 4b3a 2570 e839
000001c0: 0ef5 0b3a 829d 30ba 6c6f 1139 bda9 6d38
000001d0: eaf5 9fb9 39f5 00b9 42d5 1abb 8f9e c0ba
000001e0: f064 13bb c34a 31ba 36d6 58b6 11e1 63b7
000001f0: a294 d3ba 8d93 03bb 8a6f 093b 9c0d d83a
00000200: f489 bfb9 2c7c e3b9 599e 8238 2f69 10b7
00000210: 46b4 bfb8 a28e 19ba aef3 083a 0a8e 853a
00000220: 4623 3a3a 0dcf 0f3a c004 873a ade2 693a
00000230: 4a37 c3ba 1c47 19bb 8e55 f93a dd80 813a
00000240: 6071 beb9 dcbf d9b9 e551 1439 03b4 9c39
00000250: 9e1b 443a 80f7 6fb8 34cc 1a3a ad73 aa38
00000260: 0fa9 4cb7 17d3 a9b7 e92d 1738 2abc 84b9
00000270: bf12 8cba e94d 26bb 9b0e 92ba 73a9 f4ba
00000280: 4d78 0b3b 8ccc eb3a 1f87 43b8 37e7 5eb8
00000290: 16d9 1539 8333 c539 2382 1cba 5299 fab9
000002a0: 1a66 9a39 cb1d 5e3a 52df c03a b7cc 193b
000002b0: 1c38 4c39 890c 973a bfaa dcb9 2ae1 e9b9
000002c0: 2cd4 c8ba 6ed2 04bb a8ba 44ba a6cf 03ba
000002d0: 330b 83b8 db44 25b6 0816 52b8 dc94 dfb7
000002e0: c14c bd3b 79f4 b03b 4027 c7b9 7f35 3eba
000002f0: 45b5 82b9 6493 9bb8 d0f6 21ba a1b9 24ba
00000300: 145c 263a dd50 373a 0889 c439 c56b 6239
00000310: 5c81 ec39 62dc ba38 fa8f 2d3a 3ed5 c939
00000320: 9d84 a0b9 b004 0cb9 31d1 5cb9 65bd 00ba
00000330: b84e 9a38 e94e 09b9 35a2 273a c3f4 873a
00000340: 9046 ae3a 4c3f 9e3a f7fc 38b9 6ac4 a838
00000350: c273 173a d7cd e2b8 5f3b 51b9 ceca 9db8
00000360: 4b05 eeb9 b4f5 cfb9 344b 1e3b d8a8 0b3b
00000370: 88be d4ba a0bd b4ba fc74 6dbb b95d c3bb
00000380: 3372 83bb 16c1 9bbb 9a1e 2339 d0b4 9a39
00000390: dee5 253a b221 9439 bbdd 9bbb 697c 56ba
000003a0: 4cf3 4e39 f2f0 b2b7 cea6 ae39 6ca3 a13a
000003b0: 8a91 5739 5c2d b439 9e85 7e39 3eed e8b9
000003c0: ab3b 5ab8 ef61 b1b8 49c0 1fba 8127 40ba
000003d0: d1d6 a1ba 6962 1dba 21a4 813a f0bd 463a
000003e0: 04e8 1cba 2f92 b5b9 2994 a83a 874d 1b3b
000003f0: aa3a 25ba 3edd a4b9 5870 f1ba b50e 16bb
0.00015253507 0.000362523 -0.00010716634 -0.00049920904 -0.0023139084 -0.0015551158 0.0025299613 0.0010614253
-0.00072135875 -0.00047515729 -0.0050184317 -0.0029624996 -0.00033657523 0.00047452905 -0.0012347541 -0.0020362784
-0.00090099213 -0.0007848326 2.7193915e-05 6.5553126e-05 0.0027087773 0.0024034148 0.0012217301 0.0026469962
-8.3499464e-05 0.00012501625 0.0013512091 0.0015553748 -0.0008001697 0.0005823357 0.007343629 0.0049405308
-0.0001319102 0.00025522057 -2.9185441e-05 8.09648e-05 -0.0022551552 -0.0025204842 -0.0015997933 -0.0007315719
0.0011871373 0.0017100523 -0.00024548537 -0.0004011578 0.00046795735 0.000557481 0.0008077942 -0.0010406558
0.000139786 -2.8194352e-05 -0.0011227418 0.00046608303 -9.7193406e-05 -0.00014206232 0.00011733095 3.3766384e-05
4.9922473e-06 -5.8884514e-05 4.5734974e-05 -0.00033246347 6.957293e-05 -0.000112213434 0.0013467036 0.0008766384
-9.250572e-05 -0.000110369154 -0.00019699776 -0.0003806446 0.0017880509 0.002323702 -0.0007191047 -0.00075206923
-0.00020145674 -0.0010200695 8.188497e-05 0.000108155196 -0.00028347666 -0.00034775015 0.0 0.0
0.0013458879 0.0016227432 0.00017511536 0.00053757406 -0.0006254648 -0.0007301843 0.001092586 0.00090608594
0.00019558983 -0.00011236294 0.00023028694 0.00020735274 -0.0011357355 -0.00041424562 0.00047424276 0.001198863
0.0015583396 0.0011209912 0.00024709787 0.0001870433 3.1424974e-05 0.00010199345 0.0022218053 0.0019235611
-0.0022033984 -0.0006625082 0.001348132 0.0008508668 -0.000384652 -0.0011462654 0.0007759904 0.00044334042
0.0005338945 -0.00067373377 0.00013869785 5.6663284e-05 -0.00030510064 -0.00012298384 -0.0023625647 -0.0014695692
-0.0022490583 -0.00067631545 -3.2311195e-06 -1.3582657e-05 -0.0016142318 -0.002007696 0.0020971023 0.0016483548
-0.00036533142 -0.0004338933 6.2283776e-05 -8.607559e-06 -9.141168e-05 -0.0005857741 0.00052242994 0.0010189426
0.0007100593 0.000548587 0.0010301098 0.0008922022 -0.0014893797 -0.0023388332 0.001902269 0.0009880323
-0.00036324095 -0.00041532412 0.00014144888 0.00029888758 0.0007480922 -5.7212543e-05 0.00059050624 8.127778e-05
-1.219871e-05 -2.0244666e-05 3.6043963e-05 -0.00025317195 -0.0010686739 -0.0025376028 -0.0011143269 -0.0018666222
0.0021281422 0.0017990037 -4.6617464e-05 -5.314426e-05 0.00014290618 0.00037613147 -0.00059703196 -0.00047797948
0.0002944924 0.00084730674 0.0014714992 0.0023467967 0.00019475858 0.0011524122 -0.00042088886 -0.00044608983
-0.0015322021 -0.0020267027 -0.00075046206 -0.00050281954 -6.248653e-05 -2.4626995e-06 -5.008842e-05 -2.665299e-05
0.005776972 0.005400237 -0.0003798548 -0.00072558963 -0.0002493059 -7.4184296e-05 -0.00061784405 -0.00062837644
0.0006346118 0.00069929456 0.0003748613 0.00021593187 0.00045109808 8.910221e-05 0.00066208804 0.00038496585
-0.00030616383 -0.00013353187 -0.00021058765 -0.00049110345 7.357955e-05 -0.00013094734 0.0006394715 0.0010372627
0.0013296176 0.0012073307 -0.00017641844 8.047449e-05 0.0005777442 -0.000108148604 -0.0001995391 -7.524119e-05
-0.0004539884 -0.0003966518 0.0024153711 0.0021310356 -0.0016231099 -0.0013789423 -0.0036233058 -0.0059621003
-0.0040114163 -0.0047532422 0.00015556291 0.00029507885 0.00063285034 0.00028253865 -0.004756657 -0.00081819907
0.00019736326 -2.1331452e-05 0.00033312145 0.0012332029 0.00020558215 0.0003436607 0.00024273104 -0.00044427247
-5.203082e-05 -8.458259e-05 -0.00060940214 -0.0007330105 -0.0012347345 -0.0006003739 0.0009890833 0.00075814035
-0.0005985501 -0.00034631926 0.0012861538 0.0023697333 -0.0006302992 -0.00031445356 -0.0018420322 -0.002289695

exp_avg_sq f4 [32, 120, 2]
00000000: 83e3 0435 b9d9 8b35 d4e5 0b36 a3f5 0c36
00000010: 0903 a638 fe31 ad38 318e 3f38 f6bb 2638
00000020: f3f3 6937 e64f 6337 e8a6 dd38 0a18 1539
00000030: 1ff2 7436 d085 b836 889c d937 c6b7 4f38
00000040: 9a77 6b36 f307 2b36 45e8 1e33 4d5b 4933
00000050: 8643 da38 ae51 c138 2603 6c38 d9ca 7038
00000060: fc10 c935 f9b0 5735 20a8 0b39 3c52 0e39
00000070: e024 ae38 f7ac ea38 a990 2039 6f28 c938
00000080: a611 c936 431c d436 9c54 9f34 7505 6234
00000090: a889 e238 0559 bb38 f9bb 1b38 7076 5038
000000a0: f5b8 7838 bd11 5238 8e62 1f36 a3be 3f36
000000b0: 3d98 0138 30a7 4338 3289 5939 8979 6c39
000000c0: 7cb3 0038 d472 2338 ca54 0239 7d21 6b39
000000d0: 0cf2 1a37 6166 1337 b62d 7d33 48eb c433
000000e0: 8efa f933 2f9c 9234 b69a 8636 ea32 a236
000000f0: 0746 4f36 7fdf 6236 26f2 9237 288a 7937
00000100: e0d9 bc35 4368 4335 b176 c035 c06a bd35
00000110: 5160 4238 0b64 2a38 1b30 d636 d928 f336
00000120: 0c07 b236 fbfd 3437 6d6d 8335 750b bc35
00000130: c268 a335 fd40 dd35 0000 0000 0000 0000
00000140: 4942 5e38 b44c 8438 aee8 6736 4690 6a36
00000150: e19c 9736 938d c436 59bb dd37 9016 cf37
00000160: 2e83 da36 5ff3 1236 c504 c636 7cde 1837
00000170: 07d1 0137 03bb da36 11f5 1b37 7935 2937
00000180: fe5e 8837 216a e137 956b a935 63c8 5d35
00000190: 1b25 3e35 1f93 5b35 33c6 9538 f645 8338
000001a0: 5476 b438 7910 cf38 5611 2c38 8f38 cd37
000001b0: 12a9 4837 b20b 3f37 9dc3 aa37 5060 ab37
000001c0: 1ca4 4338 97a3 3d38 61cb 8734 d9b3 8a34
000001d0: 6986 1436 db89 1436 6441 ad37 206c a137
000001e0: 7780 3538 21e4 2e38 b847 df32 c1ed c432
000001f0: 5634 2838 4382 0e38 7bbe de37 af22 8537
00000200: e3e0 0738 6ecc ea37 3feb f233 3e54 a133
00000210: 7e0f a537 681f 0938 d88a a039 15b5 b739
00000220: 028d ee36 bab4 ff36 f3a6 ae37 654e d537
00000230: a93a db37 6eea 0538 0b49 0738 4821 1b38
00000240: 9d15 6837 b829 3337 9b7e 4036 2131 7e36
00000250: 9041 c037 42dd 4d37 2a44 4a36 2ba1 db35
00000260: ba5b 1c35 a685 c334 c97a 2538 dcc7 0b38
00000270: c288 4739 d2a7 a139 d498 7637 9bbf 4237
00000280: 35db 5e39 f07b 8e39 0ff2 b935 5105 1b36
00000290: 8677 2736 4090 3936 d274 f036 cb22 5037
000002a0: 1b47 de36 21bd be36 8816 c037 777a 1b38
000002b0: 1fc6 bb37 0d2a a937 5e79 2937 4789 6537
000002c0: cfba 9e37 d13f 9b37 adad 6137 a2ad e136
000002d0: 3dc7 0f35 549b 0035 e9e3 3937 cc98 f736
000002e0: 3390 ea38 cb68 1d39 fb75 1637 c609 e336
000002f0: c3a3 2c37 fba5 db36 a76d 2338 1ebb d437
00000300: e578 eb36 3908 1837 f49e 2835 3d06 fa34
00000310: b4f5 eb36 53d1 8737 a798 9236 0600 0937
00000320: c3dd 0536 8818 4836 87e2 b835 209a f435
00000330: 50c9 9a36 cab4 d336 b3e1 8a36 e732 7236
00000340: 9a7c 2838 0c0d 5738 f1df 8c35 e680 3c35
00000350: edde 2538 ed33 3038 c127 3436 1f70 2f36
00000360: 3aff 1437 73b1 1a37 6f03 3938 8288 5038
00000370: 3dcc a038 49cd b438 d858 2c39 ac99 4a39
00000380: 8378 2238 bda7 3238 e200 1e35 f731 c634
00000390: ce38 e836 687b 9f36 94a8 3b39 dc57 1e39
000003a0: 77f7 bd35 79ee 3236 f35a e237 6581 ae37
000003b0: 7830 7e36 64d8 ab36 7f91 5c36 9816 d436
000003c0: d7b7 1f35 888d 6235 0a09 0336 f744 2836
000003d0: 6569 0739 145a 0839 30f9 ff37 817f a637
000003e0: c810 b037 7256 9c37 704c df38 a5d7 e638
000003f0: d3bb aa36 2667 8536 4fab 5e38 aa5b 8738
4.9504905e-07 1.0419673e-06 2.0846392e-06 2.1004605e-06 7.916062e-05 8.2585946e-05 4.5670375e-05 3.9752536e-05
1.3944681e-05 1.3548857e-05 0.0001056919 0.00014218703 3.6499766e-06 5.499205e-06 2.5941306e-05 4.95238e-05
3.5087346e-06 2.5485613e-06 3.699849e-08 4.6881997e-08 0.00010407627 9.218171e-05 5.6269717e-05 5.7409376e-05
1.498061e-06 8.035127e-07 0.00013318704 0.0001357281 8.303835e-05 0.00011190207 0.00015312679 9.591958e-05
5.9923213e-06 6.3213824e-06 2.967762e-07 2.1049875e-07 0.0001080216 8.933436e-05 3.7129943e-05 4.9701368e-05
5.9300062e-05 5.008442e-05 2.3750213e-06 2.8572183e-06 3.089778e-05 4.664733e-05 0.00020745842 0.00022551989
3.0684736e-05 3.896917e-05 0.00012429353 0.00022423822 9.235471e-06 8.78572e-06 5.8947727e-08 9.1697586e-08
1.1640542e-07 2.7308258e-07 4.011522e-06 4.8339034e-06 3.0886165e-06 3.3806716e-06 1.7517315e-05 1.4873724e-05
1.4070501e-06 7.279488e-07 1.4339658e-06 1.4112666e-06 4.6342906e-05 4.062433e-05 6.383297e-06 7.2467196e-06
5.3056337e-06 1.07879705e-05 9.792108e-07 1.4010426e-06 1.2174935e-06 1.6484697e-06 0.0 0.0
5.2990657e-05 6.3085376e-05 3.455712e-06 3.4952695e-06 4.518414e-06 5.8577366e-06 2.6432494e-05 2.468683e-05
6.5121776e-06 2.1897356e-06 5.901415e-06 9.111707e-06 7.737667e-06 6.5186773e-06 9.295779e-06 1.0085635e-05
1.6256698e-05 2.687151e-05 1.2622792e-06 8.2620517e-07 7.083451e-07 8.1797947e-07 7.141791e-05 6.259598e-05
8.605109e-05 9.8735974e-05 4.102414e-05 2.4464242e-05 1.1960294e-05 1.138721e-05 2.0356669e-05 2.0429638e-05
4.664446e-05 4.5213466e-05 2.5293687e-07 2.583536e-07 2.2131956e-06 2.213396e-06 2.0653657e-05 1.9243045e-05
4.3273405e-05 4.1697294e-05 2.599323e-08 2.2925521e-08 4.0103063e-05 3.3976754e-05 2.6553162e-05 1.5870986e-05
3.239595e-05 2.7990169e-05 1.1311794e-07 7.51247e-08 1.9676747e-05 3.2692595e-05 0.00030621025 0.00035039397
7.109368e-06 7.6206315e-06 2.0820158e-05 2.5428084e-05 2.613415e-05 3.1928e-05 3.2254535e-05 3.6985875e-05
1.383331e-05 1.0678945e-05 2.8683924e-06 3.7877546e-06 2.2918714e-05 1.2270468e-05 3.0140022e-06 1.6363678e-06
5.824801e-07 3.6418822e-07 3.9453418e-05 3.3326316e-05 0.00019029065 0.0003083335 1.4698326e-05 1.1607913e-05
0.00021253231 0.0002717669 1.3854022e-06 2.3099894e-06 2.495451e-06 2.7651113e-06 7.166157e-06 1.2405867e-05
6.6243933e-06 5.6844588e-06 2.2898676e-05 3.7068934e-05 2.2384394e-05 2.0165951e-05 1.0101443e-05 1.3681426e-05
1.8922057e-05 1.8507157e-05 1.3451482e-05 6.725736e-06 5.356158e-07 4.790975e-07 1.1079924e-05 7.3789615e-06
0.00011184849 0.00015011725 8.968166e-06 6.766265e-06 1.0290128e-05 6.5460313e-06 3.896435e-05 2.5359503e-05
7.0176197e-06 9.0618205e-06 6.2816184e-07 4.6570668e-07 7.0321494e-06 1.6190728e-05 4.36891e-06 8.165842e-06
1.9947627e-06 2.9816601e-06 1.3774996e-06 1.8224273e-06 4.6129935e-06 6.3093366e-06 4.1389953e-06 3.609044e-06
4.0170366e-05 5.1272145e-05 1.0495988e-06 7.022303e-07 3.954668e-05 4.201003e-05 2.684523e-06 2.6142295e-06
8.880912e-06 9.220431e-06 4.4110635e-05 4.9718197e-05 7.667437e-05 8.621306e-05 0.00016436295 0.00019321468
3.8736045e-05 4.2594726e-05 5.886087e-07 3.6916728e-07 6.9207517e-06 4.7529356e-06 0.0001789651 0.00015100784
1.4153619e-06 2.6662876e-06 2.6983651e-05 2.080267e-05 3.7877162e-06 5.1213883e-06 3.2867244e-06 6.3207226e-06
5.949964e-07 8.4397516e-07 1.9525783e-06 2.5074094e-06 0.00012913866 0.00013003527 3.0514406e-05 1.9848116e-05
2.098865e-05 1.8636903e-05 0.00010647706 0.000110074216 5.0882604e-06 3.975717e-06 5.3088468e-05 6.4543754e-05

exp_avg f4 [32]
00000000: f9cc 34bb a99b d0bb 6f99 583b 8e1b 843b
00000010: 8f23 733b a4ec 8f3b 4b86 493b cd6a d33a
00000020: 3766 bb3a c13d 55bb 000a 9fbb 28de 3c39
00000030: 8df1 e93a 4dfc 34bb 28b4 6bbb f406 913b
00000040: a869 873b ac55 723b af20 303b 41fb a73b
00000050: 53fb c73a 1ede 64b9 9049 833b b022 d0ba
00000060: a61d 5b3b e0d1 763b 1b89 59bb 7fbd af3a
00000070: f123 a3b8 a83c 6fbb 8c9c 913a 40d2 3f3b
-0.0027587994 -0.0063662124 0.0033050438 0.004031605 0.0037100052 0.0043922234 0.003075021 0.0016129852
0.001429743 -0.003253803 -0.004853487 0.00018011837 0.0017848477 -0.0027616203 -0.0035965536 0.0044258777
0.0041324683 0.0036977334 0.002687495 0.0051263873 0.0015257396 -0.0002182652 0.004006572 -0.0015879478
0.003343442 0.0037661716 -0.0033193293 0.0013407915 -7.77914e-05 -0.003650466 0.0011109277 0.0029269606

exp_avg_sq f4 [32]
00000000: b5aa 553b eba0 423b 69c2 e53a 86cf 2c3a
00000010: fde4 9a3b d4e4 163b 4975 bf3a d028 b03a
00000020: d323 fd3a 4474 293b 5fc5 333b a8d2 0b3a
00000030: e455 5a3a 7b72 533a bc77 8e3a ea8c 833b
00000040: ab7f 6c3b d7dd 913b 46b1 353a 0fb1 a63b
00000050: 7ced 3f3b 31af c639 f8a3 743b 59a1 4b3b
00000060: 6c83 273b 234b 0b3b 0419 003b 06e7 493a
00000070: 3c2c 333b f3ab 5e3b 3634 293b 9ead 113b
0.003260297 0.0029697965 0.0017529252 0.00065922027 0.0047270046 0.0023024576 0.0014607097 0.0013439897
0.0019313045 0.0025856653 0.0027430875 0.00053338194 0.0008328839 0.000806607 0.0010869424 0.004014601
0.0036086838 0.004451494 0.0006931018 0.005087025 0.0029285839 0.0003789603 0.0037329178 0.0031071512
0.0025560511 0.0021254502 0.001954616 0.00077019667 0.0027339598 0.0033977001 0.0025818474 0.0022228728
