data/Figure3_Supplement/036/checkpoint_0001000.pth (torch, 227776 bytes, 31 tensors)

net.0.weight f4 [32, 120, 2]
00000000: f1f0 2f3d 3c5d b7bd 70bb 07bd ff5d 533d
00000010: 6845 243d edd6 7d3c 30b8 61bc cf61 a6bc
00000020: 40c4 a23c ffd2 66bd 8ce6 443d f690 7abc
00000030: b0a2 523c c23e d2bb 6523 63bd 3bc6 47bc
00000040: 04cf f43d f985 773d d02a d0bc 5727 19bd
00000050: 48d3 de3c e46d ce3c eef7 c23c 0363 62bd
00000060: 29d2 313c 733e ca3d 90e1 96bd f097 6d3d
00000070: 5c97 083c b93c 89bc e11f afbc ec30 c1bd
00000080: 3e9c 3abc 0241 80bc abae 963d 6587 85bc
00000090: a70c 2a3d 5fdd 20bd 4f8a be3c 1a2a 8b3c
000000a0: b45e 3a3d cb07 893a 57e1 2ebd 87f0 163d
000000b0: 1e93 04bd 5499 2dbb 5d12 49bd 3629 0ebd
000000c0: 9d77 143b 11bb 3f3c b97c 13bc a13b 0abd
000000d0: 6437 5fbd 0ec4 53bd de93 c7bc ba60 62bd
000000e0: c5ef 2f3d 4c19 1fbd e5e6 1e3d f185 a9bd
000000f0: e767 023d b2c4 843d a9dd 2dbd 67de 05bd
00000100: 2653 efbc 2780 5a3b 2179 d03c 0855 eebc
00000110: d704 343d 3256 c4bc fccd 863d 1e01 223d
00000120: 3355 e73d 4871 23bc 32a7 56bd 5b0d 383c
00000130: 0e94 ec3c 5ff8 66bd 2b79 a0bc d39c 923c
00000140: a0be 83bd a676 89bd a731 663d b1fe 8c3c
00000150: d2ba 2cb7 0a51 cd3c 8105 6dbd 1868 00bd
00000160: 4e4c a7bd 6168 813d 25f0 31bd e7ff 3abb
00000170: c6c6 0a3d 5a6e 363c 913b f5bc 058b f3bb
00000180: 34e4 2cbc 36b5 aabd fc7a 133c eec9 10bd
00000190: 8844 623c 711f 02bc 771c 3cbd 67a1 e6bc
000001a0: f565 f3bc 6c13 57b9 89b4 57bc bb10 9f3d
000001b0: 7bcd dcbc ec4f 84bd b434 e73c 86b9 393d
000001c0: c067 1ebd 58fd 98bd 910c b03d 568c b2bc
000001d0: 92bf 4cbd 120c 0b3d a3d5 5fbd ca17 b9bb
000001e0: b804 e43c 9047 6f3d 55a3 b2bd 30bf 8cbd
000001f0: 9497 a5bc 529f 49bd 77bd 00bc 7501 963d
00000200: 2641 6a3c d02c 813d 42ae d8bb fdf9 1abc
00000210: 4a69 47bc 52f9 0dbd 46c5 7ebd 50ab 26bd
00000220: 1f9e fe3b 1af5 a2bc db9a 4e3d 6921 813c
00000230: 5660 0cbd de01 863c dc59 8c3d 7575 913b
00000240: 94b0 afbc ab7e e03c c02d 46bd 7031 3bbd
00000250: ee2a e3bc 0e8c 943d 320c b2bb 8402 19bc
00000260: 2c3a d13c 75ee 84bc 8dd2 c03c 5223 143d
00000270: 1ef8 eebc a98e 4ebc ee98 97bc eb04 253d
00000280: 918b 94bd fc0d 7ebc d66d 4dbd 5faf 31bd
00000290: 615a 003d bc22 483d 30d8 e43c fe18 c13b
000002a0: b403 063d 816e 28bd c942 8bbc 8099 d83c
000002b0: 5539 803b a67d d83c 6bd4 09bd 8771 69bd
000002c0: 7a9c 833c 37ba ccbc 78bf 47bd d67c 053d
000002d0: 9064 673d 9bcc 78bc 15cc 4f3c 5b42 74bd
000002e0: 0b3e 463d 44c8 d33c a6ff c33c c626 933d
000002f0: 8a5d 42bd 576d 203d b787 6e3c 12e3 393d
00000300: e744 9a3c 46a0 de3c 415a a83c 2f76 f43c
00000310: d50e 72bc 7498 813d 6ddf 4ebd c221 583d
00000320: 4372 1b3d 3f05 9cbc 2cbc a33c 8c68 e13c
00000330: 1e5f 61bb 6d1a 1e3b 73e4 92bc 3717 45bd
00000340: 42a0 9a3d a4a1 9f3a d1f9 85bd 3c41 0fbc
00000350: de09 b9bc 440e 6fbc 7977 853d a760 e2bc
00000360: 9ae9 2dbd 345e a5bd 0be3 5f3c 1d27 1abd
00000370: b357 9b3a be01 423d 38c1 653d 5fa9 64bd
00000380: d578 63bd 89a2 fe3c 4f73 b83d fa09 0ebc
00000390: b77e 2bbc 2963 afbc b3ab a7bd b535 c23c
000003a0: 0276 95bd 2f83 b7bc b5a9 0f3c 86b7 55bc
000003b0: 4801 9e3d 3925 943b b47b 3ebc 1f57 153d
000003c0: 8627 ec3b 64ca 6ebc 1343 db3c 591f a83d
000003d0: dec4 f5bc caac 54bd 2f99 8a3d 5a9a 463d
000003e0: fa6c 99bb 87bc 9ebc 4141 3d3d 8bb2 a53c
000003f0: 2d2d 3dbd bd81 83bd 02b0 c0bc c499 0f3d
0.04295439 -0.0895333 -0.03313774 0.051603314 0.040105253 0.015493137 -0.013776824 -0.02031031
0.01986897 -0.056353565 0.04807143 -0.01529335 0.012856171 -0.0064161727 -0.055453677 -0.012193258
0.119535476 0.0604305 -0.02541104 -0.037391033 0.027200356 0.025198884 0.023799863 -0.055270206
0.010853329 0.098751925 -0.073672414 0.058006227 0.008336868 -0.016752588 -0.021377506 -0.09433159
-0.01138979 -0.015655998 0.07357534 -0.016299913 0.041515972 -0.039273616 0.02325931 0.016987849
0.045500472 0.0010454593 -0.04269537 0.03685048 -0.032366864 -0.0026489096 -0.04908978 -0.03470727
0.0022654303 0.011702315 -0.009001904 -0.033748273 -0.054496184 -0.051700644 -0.0243625 -0.055268027
0.04295327 -0.038842484 0.038794417 -0.082775004 0.03183737 0.06482829 -0.04244772 -0.032682803
-0.029214453 0.0033340545 0.025448384 -0.02909328 0.043949928 -0.023966882 0.06582257 0.039551847
0.11295547 -0.009975739 -0.052405544 0.011233653 0.028879192 -0.05638921 -0.019589027 0.017897045
-0.06432843 -0.067120835 0.056199696 0.01721129 -1.0295496e-05 0.025063056 -0.057866577 -0.03134927
-0.08168851 0.06318737 -0.04344191 -0.0028533877 0.03388097 0.011134708 -0.02993563 -0.007432344
-0.010552455 -0.083353445 0.00900149 -0.035348825 0.013810284 -0.0079420665 -0.045925584 -0.028153135
-0.029711703 -0.00020511233 -0.0131656015 0.07766863 -0.02695345 -0.064605564 0.028223373 0.045342945
-0.038673162 -0.074701965 0.08596147 -0.021795433 -0.049987383 0.033947058 -0.0546471 -0.005648588
0.027834281 0.058417857 -0.08722559 -0.068724036 -0.02021388 -0.049224205 -0.007857672 0.07324497
0.014297759 0.063073754 -0.00661257 -0.009459016 -0.012171099 -0.0346616 -0.062199853 -0.04069072
0.0077703143 -0.019892264 0.05044065 0.015763002 -0.03427156 0.016358312 0.06853077 0.004439051
-0.021446504 0.02740415 -0.048383474 -0.045701444 -0.027730431 0.07253276 -0.0054335827 -0.009338979
0.025540434 -0.016226986 0.023537898 0.036166497 -0.029171046 -0.012607255 -0.01850554 0.040287893
-0.07253183 -0.015506264 -0.050153576 -0.043380138 0.031336192 0.04886125 0.027935117 0.005892872
0.032718375 -0.04112101 -0.01699962 0.026440382 0.0039130845 0.026427101 -0.033649843 -0.056993034
0.016065825 -0.024991138 -0.048766583 0.032589756 0.05649239 -0.0151855005 0.012682934 -0.059633594
0.048399013 0.02585233 0.023925614 0.0718513 -0.047452487 0.039166775 0.014558724 0.045382567
0.018831683 0.027176034 0.020550849 0.02984151 -0.014774044 0.06327906 -0.050506044 0.05276657
0.037950765 -0.01904547 0.019987188 0.027515672 -0.003438897 0.0024124638 -0.017931199 -0.048117843
0.07550098 0.001217891 -0.06541789 -0.00874358 -0.022587713 -0.0145908035 0.06516928 -0.027633978
-0.042459108 -0.080746084 0.013664971 -0.037634958 0.0011851698 0.047364943 0.05609247 -0.055825587
-0.055535156 0.031083362 0.09006368 -0.008669371 -0.010467223 -0.021409588 -0.08187046 0.02370725
-0.07297899 -0.02240142 0.008768489 -0.013044244 0.07715088 0.004521039 -0.011626173 0.03646004
0.00720686 -0.014574621 0.026765382 0.08209104 -0.0300011 -0.051922597 0.06767499 0.048487045
-0.0046821805 -0.019377006 0.04620481 0.020226737 -0.04618566 -0.0642123 -0.023521427 0.03505875

net.0.bias f4 [32]
00000000: 9723 bf3b 8f88 c2bc 0869 1abd c424 6e3d
00000010: 03cd 3b3d c271 633c 6ee5 3a3c 2a54 583d
00000020: f025 113d a08d e2bc 6673 85bd fc4a 823d
00000030: 6d70 e5bc f937 e3bc 3783 3d3d 1d19 c93c
00000040: 5281 40bc 1a40 61bd 4896 a6bc 5c53 3dbd
00000050: 7a44 57bb ed48 9e3c e63f 9b3b 35e6 003d
00000060: 844e b33b 3d10 683d 5240 e03b 0c78 8fbc
00000070: cb2b abbd 3daf 21bd 0d98 88bd 7f57 463d
0.0058331 -0.023746757 -0.03769782 0.05814053 0.04584981 0.013882102 0.011407239 0.05281464
0.03543657 -0.027655423 -0.06516151 0.063619584 -0.02800771 -0.02773665 0.046267714 0.024548108
-0.011749582 -0.054992773 -0.020335332 -0.046222076 -0.0032847212 0.019321883 0.004737842 0.031469543
0.0054720063 0.05665611 0.006843605 -0.017513297 -0.08357962 -0.03947376 -0.066696264 0.048423287

net.2.module.0.weight f4 [32, 32, 3]
00000000: c78e a53d e6a3 9c3d af32 a5bd 2a53 c33c
00000010: 4bd5 e2bd 29ad 78bc e8dd 143c 81fe ebbc
00000020: 3471 d63b 2e57 4abc 86c5 c7bc c9ff c3bc
00000030: a988 eebd 3b91 aabd 3a36 d6bd 5686 f63c
00000040: 089f b03d ade0 46bb bcda 973d fef4 a83d
00000050: a080 45bd 5531 41bd f883 2dbd 816e d03d
00000060: abc5 5dbd 1943 efbc f7ff 5d3c 9488 13bd
00000070: cf42 c13d 5b8a f3bc e218 4e3d 2e03 653d
00000080: 9ac5 2e3d 6bff efbc 671d 193c ce2d 3fbc
00000090: 8802 543d 6f82 893d d030 7d3d 5ce7 aa3d
000000a0: fa1a cd3d dbfc 753d fdcf 89bd e5b5 97bd
000000b0: 89f0 6cbd 74f3 1e3d d48d 973d 1f37 fdbc
000000c0: 9925 35bc 2018 acbc 9f01 ee3c 0692 c33c
000000d0: 47b4 973d 4664 873c 05a3 9d3d 29e1 ce3c
000000e0: 9ec4 6fbb 3ab9 c63d 384d b7bc 6e1c 7fbc
000000f0: 1737 99bd 59a1 29bd 45bd 893c 1123 9b3c
00000100: f68a d03c db28 87bd 07e5 cc3c 1953 d73d
00000110: b55c bd3d 5ce3 8cbd c377 36bd c3e9 b0bc
00000120: 0a13 003d 7530 683d adb2 abbd c54c 7ebd
00000130: cf97 57bd 1bd3 b5bd 985a 463d b0b3 8a3d
00000140: 5307 1b3d 58d4 cbbd 8925 9ebd c6a5 163c
00000150: 9caa 0ebd c0d8 02bd eaa7 8f3d fea8 97bd
00000160: 61dc dabd 7c7e 993d b2ae 3fbd 14c9 d63b
00000170: e0be c53d 7532 723d 88f2 713d c134 973c
00000180: fe62 a53c 5929 73bc 5149 8f3c eac9 083e
00000190: 68cd 41bd 2716 f13d 0737 813d 152e 373d
000001a0: 2b67 f93d 1caf 043d 00f7 e73c a09f 8e3d
000001b0: aaab 843d 2486 76bd 881b cfbd 6593 dfbc
000001c0: 603b 28bd 96d5 393d 75bc 1b3d dc9e 6aba
000001d0: 5d16 a0bd 9c33 be3d 3f6b 963d 08f8 c8bd
000001e0: 7c31 0c3d 0c1c b1bd c4b6 903d 87fc e03d
000001f0: f68e a73d 45c3 793d ba4a 083d 7346 fd3c
00000200: bfb6 17bd 5954 313d 5913 0ebd 9225 8e3d
00000210: 2afe 073d 2a3c f83d 9a37 d9bc 9cb6 163e
00000220: c028 b93c 0021 5bbd ad19 463b 983f debc
00000230: 861c 803d 6800 b0bc b006 4d3d 92ca 15be
00000240: 33a7 99bd a2e8 84bd c217 0ebd 4000 a7bd
00000250: 92ba 6cbd 7c60 bcbd e7a3 80bd 6b3a 61bd
00000260: 0742 a1bd d6d7 28bd 4f62 d13d df67 54bd
00000270: cd7f 5e3b a1a6 d23c 8e5c 10be 9882 a03c
00000280: 9486 8ebc 4b2f 9a3d dea9 7b3d 1dbe 4b3d
00000290: ff00 aabc 8016 09bd 399f 08bd 3b32 b0bb
000002a0: 02a7 d63d 8b2e c93c cb72 bfbc e292 f6bd
000002b0: 4073 d1bd eadf 203d 312b 0e3e b00e 7ebc
000002c0: 9896 043e 4cb0 973b 851e b3bd f8d6 04bd
000002d0: cb71 4e3d 38e5 c5bd 3c35 b7bd 3ec4 a8bc
000002e0: 3309 393d 92c3 3a3d 07aa 89bd 6138 643d
000002f0: 73bf db3c 5a07 4abc 731b c53d 3531 643d
00000300: 2b51 3dbd a06a d23c 9330 a13c e8bf 613d
00000310: ff8d 7d3d 1c73 ba3c 24d6 f33d 00d9 6dbc
00000320: c572 153d eb92 fa3d 2a43 0abd 39c1 503d
00000330: f998 dfbd 9460 e53c 0625 a2bd 63d8 803d
00000340: 6a85 053e c08b 4a3c 1edc 843d e7e6 9f3d
00000350: 5463 6fbd 264c 9ebd 5191 823c 10c7 a03d
00000360: 8b83 9b3d ae98 3abd 9e98 26bc 6635 673d
00000370: 9f70 5fbd 1e10 80bd c6e6 b83c 41ea 093d
00000380: 2921 83bd 7f5e f23d 498e a2bd fecc 923d
00000390: 22b8 853d 9ae9 97bc 0196 793d 98e4 06bd
000003a0: f8fa 75bd 2bd9 d43d 3ed4 18be 77f9 85bd
000003b0: dfe1 733c 4828 943d 36fe b7bc ddfb 9abc
000003c0: 0319 d43c b78d b9bd 4fd6 f9bd d8d9 843d
000003d0: 53d0 8b3d 3cb3 0dbd 24bd a3ba eea4 e43c
000003e0: 37ba cdbd e24b ad3d 0117 fcbc 9a87 36bd
000003f0: 7b8d 7c3b a5a7 ddbd 7e94 d1bd 759b 603d
0.08083873 0.07648449 -0.08066308 0.023843367 -0.11075839 -0.015178003 0.00908611 -0.02880788
0.0065442566 -0.012349887 -0.024386179 -0.023925679 -0.116471596 -0.08328482 -0.10459562 0.030093353
0.08624083 -0.003034632 0.07414767 0.082498536 -0.04821837 -0.047166187 -0.042362183 0.10177327
-0.05414359 -0.0292068 0.013549796 -0.036018923 0.09436571 -0.029729059 0.0503167 0.055911236
0.042668916 -0.029296597 0.009345389 -0.0116686355 0.051760226 0.06714331 0.06181413 0.083449095
0.10014911 0.060055595 -0.06729124 -0.074077405 -0.05784658 0.038806394 0.074000984 -0.030910073
-0.011056327 -0.021007597 0.029053507 0.02387334 0.07407432 0.016527306 0.07697109 0.02525385
-0.0036585699 0.09703298 -0.022375688 -0.015570743 -0.07481211 -0.04141364 0.016813884 0.01893762
0.025456887 -0.065995894 0.025011552 0.105138965 0.09246198 -0.06879303 -0.044547807 -0.021595841
0.031268157 0.056686837 -0.08383689 -0.062084932 -0.05263501 -0.08878156 0.04842624 0.06772554
0.03784878 -0.09952611 -0.07722003 0.009194797 -0.034830675 -0.03194499 0.07014449 -0.074052796
-0.10686565 0.07494828 -0.04679746 0.006554732 0.09655547 0.05913015 0.059069186 0.018457772
0.020188805 -0.014841401 0.017491015 0.13358274 -0.04731503 0.11771803 0.06309324 0.04472168
0.12177881 0.03239356 0.028316021 0.0696404 0.06478055 -0.06018652 -0.10112673 -0.027291963
-0.04107225 0.045369707 0.038021524 -0.00089500635 -0.078167655 0.092871875 0.07344674 -0.09812933
0.03422688 -0.08647928 0.0706611 0.10985666 0.081815645 0.06097724 0.03327439 0.030917382
-0.037039515 0.04329333 -0.03468642 0.0694076 0.033201374 0.121208504 -0.02651577 0.14718097
0.022602439 -0.053498268 0.0030227706 -0.027129933 0.062554404 -0.021484569 0.050055206 -0.14628056
-0.07502594 -0.06489684 -0.034690626 -0.081543446 -0.057795115 -0.091980904 -0.06281262 -0.054987352
-0.07873922 -0.041221462 0.10223829 -0.05185687 0.0033950687 0.02571422 -0.14097807 0.019593522
-0.017398156 0.07528552 0.061441295 0.049741853 -0.020752428 -0.033468723 -0.03335497 -0.0053770817
0.10481073 0.024558326 -0.023370167 -0.120397344 -0.1022706 0.03927604 0.13883664 -0.015506431
0.12948072 0.0046291705 -0.087460555 -0.032431573 0.05040149 -0.09662861 -0.089457005 -0.020601388
0.04517479 0.045596667 -0.06721883 0.05571783 0.026824689 -0.012330854 0.09624376 0.05571099
-0.046219986 0.025685608 0.019676482 0.055114657 0.061902996 0.022759967 0.119060785 -0.014517069
0.036486406 0.12235054 -0.03375546 0.05096552 -0.10917849 0.028000154 -0.07917218 0.062912725
0.13039175 0.012362421 0.064872965 0.07807713 -0.058444336 -0.07729368 0.015938433 0.07850468
0.07593449 -0.045555763 -0.010168223 0.05644741 -0.054550763 -0.06253074 0.022570979 0.033670668
-0.06402809 0.1183443 -0.07937295 0.071680054 0.06529261 -0.018544007 0.06093407 -0.032932848
-0.060053796 0.10392984 -0.14924714 -0.06541722 0.014885395 0.072342455 -0.022460084 -0.018918926
0.025890833 -0.09060233 -0.12199079 0.06486863 0.06826844 -0.03459476 -0.0012492281 0.027910676
-0.10045283 0.08461739 -0.030772688 -0.044562913 0.0038536477 -0.10822991 -0.10233401 0.054835755

net.2.module.0.bias f4 [32]
00000000: 5168 4abd 221e d63d 5ff6 9c3d b61c 0cbc
00000010: 5f57 ebbc c033 bf3d 270a bd3d 055d fb3c
00000020: 730a d63b 7284 443c 391c 2abc d306 843a
00000030: 4c9a 8f3d 9bd2 d7bc 7fc9 983d bda7 443d
00000040: ac9a 1ebd 23ac 6b3d c285 323d dc02 d43d
00000050: 5fac c73c bbcd 183d 4647 9dbd 53f8 9b3d
00000060: eeaa b4bb 6df0 9c3d 9326 9cbd c5cf cbbc
00000070: adb7 293c 9185 3ebd bd6a b33c 98a7 053d
-0.04941589 0.10454966 0.07664179 -0.008551767 -0.028728185 0.093360424 0.09230452 0.030684004
0.0065320074 0.011994468 -0.010382705 0.0010072835 0.07011852 -0.026345542 0.07460307 0.04801153
-0.038721725 0.05753721 0.043584593 0.10352108 0.024374185 0.037305575 -0.0767961 0.076157235
-0.0055135405 0.07663045 -0.07624545 -0.024879346 0.010358733 -0.046514098 0.021901483 0.032630533

net.3.module.0.weight f4 [32, 32, 3]
00000000: 46a5 e5bc 37ec 683d bef4 30bc 441d 613d
00000010: 96eb e43d 3168 3abc 3094 3c3e af0a 983d
00000020: b780 cf3d 266e 0b3c d263 5abd 8472 c93c
00000030: 8b49 95bd d14a 553c 1b86 ea3c 360f efbc
00000040: 85fd 423d 1ed8 80bd 8eb8 273e bbdf b3bc
00000050: 4f39 143d 1063 72bd ef05 143d eb5c 973d
00000060: 8f45 f13c f9ce ab3d 835c e5bd 87c3 21bc
00000070: 4633 31bd acd3 90bd 8826 9fbd 6128 e83c
00000080: 7b10 d2bd 55ca f53c c982 78bd 1d9d 94bd
00000090: c147 52bd 217d d6bc c445 be3d e3c4 d63d
000000a0: 3423 5dbd 6a38 0d3c ebd5 fcbd c325 813d
000000b0: e2c4 243d 505e d7bd 66e1 273b 5829 fe3c
000000c0: 992a d33c 6ac6 f23b 0486 aa3d f5f7 6bbc
000000d0: ac81 52bd 1c8d 8fbc 46bd 9c3d 5351 aabc
000000e0: 7212 1a3d d08e f73d 6464 96bd 171e 42bd
000000f0: dc02 083a e629 813d 91b5 543d f41f 66bd
00000100: 7cd5 583c 25c5 bbbd 2f58 27bd 3b8e 813d
00000110: 2937 f13d a8f4 6cbd e798 cc3d c4b4 b1bd
00000120: 39d9 c53d eb52 043c 48d8 64bd 6cf8 b23d
00000130: b991 d13b b985 cfbc c5c6 223c c286 d8bc
00000140: aa72 38bd 8965 b43c 0ce5 2e3d aa42 023e
00000150: b09e 6dbd 7bc5 9fbd 4acb cbbd 0db9 00be
00000160: ef10 f83c 5b74 8d3d ee4d 2dbe 1c2a 94bc
00000170: 2dcc 2a3e 8112 52bd fd3d 623d 1bf1 28bd
00000180: 96db a83d 6c9e 463d 2280 51bd 5f19 5e3c
00000190: aa8e 423b 3fa1 7abd d288 4b3d 55e2 cc3d
000001a0: 1459 23bd b8fd 233d 441c c0bd 5117 c03d
000001b0: 66b4 b8bd f327 3ebd 9d95 8bbd b52d 62bd
000001c0: 5c68 493d 1655 51bc 42e4 433d 2f44 723d
000001d0: f425 4ebd 0232 b13d 5364 8e3d 36fc ae3d
000001e0: 638b 933d de10 51bb 35da 843d 8ee2 4fbd
000001f0: aef1 9f3c de84 84bc 59ac 973d 75f9 a6bc
00000200: 713b f63d b639 003e b2a3 a4bd 13aa 6dbd
00000210: 0252 0bbd b088 943d b137 f93d d9c2 cfbc
00000220: 9efb 383d 8145 b93d 9691 1ebd 288e d63c
00000230: 0a2e 743d 5750 41bd c95c 15bd 73b0 cbbd
00000240: ec02 e3bb 7c3d 8fbd 0b96 d0bd a78f adbd
00000250: 8d51 02be 6b56 d2bd 60bb d33d d985 bfbc
00000260: b01b 83bc ed15 ab3d 11fe d63d 584d 883d
00000270: 1f2a 65bb f0f8 8bbc 7d7e e9bc 89e7 a43d
00000280: 39f5 b63d d107 59bd 0755 69bc 8692 9abc
00000290: 88da bdbd 4727 753d d934 833d 041e 95bd
000002a0: 45b4 943d da9d 48bd bf00 86bc 9571 2f3d
000002b0: 3616 a1bd 72df 63bd 282d 753c 8001 a739
000002c0: edf5 8b3d 43f0 f8bc 3abb dbbd e415 a2bd
000002d0: 2431 7a3d efb3 aebb 2509 993c 8d63 d4bd
000002e0: 9e8c 443d 3740 ef3c c50f 4dbd b0fe b4bd
000002f0: 6a96 afbd 7333 bfbd 8f60 4dba 6cba aa3d
00000300: d5f0 853d e2ce eb3d 7dde d83d 9214 153e
00000310: e01d b53d e8e3 ae3d 79da 133e 0516 d1bd
00000320: 94c2 f03c 1ff3 6cbc 8cff a1bd e6dd f8bc
00000330: eebb 9bbd 39cb b8bc a6ee 80bd caf8 1b3d
00000340: 5e07 513d 6ec7 323d a852 b93c a468 583d
00000350: e8ae cb3c cbb5 213d 2046 9bbc a5fa a0bd
00000360: 05a0 303d 9b60 8ebc 12f0 483d 6f19 d8bc
00000370: 04a7 a83d e2b1 083e 202c 16bd 46de 4ebd
00000380: 6786 893c df69 ef3c 9b3c 97bd e23e 543d
00000390: 3730 323d dd7c 5f3d af04 e53d 89c0 7b3d
000003a0: 92bc 423d 4f8e e13c 756a d13c b399 283d
000003b0: 3179 4a3d 13a3 a2bd 58bf b9bd 0dfe 14be
000003c0: b8a8 4cbd 6aa4 d23d a949 6b3c ac21 fa3c
000003d0: 6c7d df3c 3738 8bbd 265e a1bd 360f 91bb
000003e0: 4137 04bd c938 c03d 0aed c13d fd54 8abd
000003f0: ea5e b93d 815d b5bd 9bdd 4abd e5ac 81bd
-0.02803291 0.056865897 -0.010800539 0.05495955 0.11177747 -0.01137738 0.18415904 0.07423913
0.10131972 0.008510148 -0.053317852 0.024590738 -0.07289418 0.013018326 0.0286284 -0.029182058
0.047605056 -0.06291221 0.16378996 -0.021957269 0.036187466 -0.059176505 0.03613847 0.073907696
0.029452113 0.08389086 -0.11199286 -0.0098732775 -0.04326179 -0.07071623 -0.07771021 0.028339567
-0.1025705 0.030003706 -0.0606716 -0.072565295 -0.05133796 -0.026182713 0.092906505 0.10486772
-0.05398865 0.008619407 -0.12345489 0.063060306 0.040226825 -0.105160356 0.0025616526 0.031025574
0.025777148 0.0074089067 0.08326343 -0.014402379 -0.051393196 -0.01752334 0.076532885 -0.020790732
0.037615247 0.12087786 -0.07343367 -0.047391977 0.00051884144 0.063068196 0.051930968 -0.056182817
0.013234492 -0.09168462 -0.040855583 0.063259564 0.11778099 -0.05785051 0.09990101 -0.086770564
0.096605726 0.00807641 -0.055870324 0.08738789 0.0063955453 -0.025332319 0.009935086 -0.026431445
-0.045031227 0.022021072 0.042698905 0.12720743 -0.058012664 -0.07801338 -0.09950884 -0.12570591
0.030281512 0.06906959 -0.16924259 -0.018086486 0.1667945 -0.051287178 0.055234898 -0.04124556
0.08245008 0.048490927 -0.051147588 0.013555854 0.0029687085 -0.061188933 0.04969103 0.10004107
-0.039879873 0.040036887 -0.09380391 0.09379447 -0.09018783 -0.046424817 -0.06815646 -0.05521937
0.04917179 -0.012776634 0.047825105 0.059147056 -0.050329164 0.08652116 0.06952729 0.08544199
0.0720432 -0.0031900923 0.06486932 -0.05075317 0.019524422 -0.016176637 0.074059196 -0.020382622
0.12023056 0.12522015 -0.08039035 -0.058023524 -0.034013756 0.072526336 0.121688254 -0.025361465
0.045161836 0.0904646 -0.03871306 0.026190832 0.05961422 -0.04719576 -0.03646544 -0.099457644
-0.0069278385 -0.06994149 -0.101848684 -0.08474665 -0.12726422 -0.10270389 0.10338473 -0.023379253
-0.016004413 0.083537914 0.10497678 0.06655377 -0.0034967733 -0.017086476 -0.028502697 0.08051974
0.08933491 -0.05298597 -0.0142414635 -0.018868696 -0.09270197 0.05985191 0.06406564 -0.07281116
0.07260946 -0.048978664 -0.016357778 0.04283293 -0.078655645 -0.055633016 0.014964379 0.0003185384
0.06834016 -0.030388003 -0.1072907 -0.079143316 0.06108202 -0.0053315083 0.018681118 -0.1037055
0.047985666 0.029205425 -0.050063867 -0.0883764 -0.08573611 -0.09335985 -0.0007834518 0.083363384
0.06540076 0.11514069 0.10589311 0.14558628 0.08843589 0.085395634 0.1443881 -0.10209278
0.029389657 -0.014462261 -0.0791007 -0.030379247 -0.07604204 -0.022557842 -0.062955186 0.03807906
0.051032417 0.043647222 0.022622421 0.052834168 0.024863675 0.039480012 -0.018954337 -0.07860307
0.043121357 -0.01738005 0.049057074 -0.026379315 0.08234981 0.13349107 -0.036663175 -0.050504945
0.01678772 0.029225288 -0.073846065 0.051817782 0.043503013 0.05456244 0.11182534 0.061462913
0.047543116 0.027533678 0.025563458 0.041162204 0.049431983 -0.0794126 -0.09069699 -0.14550038
-0.04996559 0.10285266 0.014360824 0.030533634 0.027281485 -0.067978315 -0.078792855 -0.004426862
-0.032279257 0.09385831 0.0946904 -0.067544915 0.090513065 -0.08855725 -0.049527746 -0.06331805

net.3.module.0.bias f4 [32]
00000000: b3b9 673d dbd2 9abc e04c 48bd debe 1b3d
00000010: 2fef 65bd e6bb 9a3d 0a18 883d cf67 a3bd
00000020: e6e3 2b3c 71cb 59bd eab7 73bb f0b3 863d
00000030: d5a8 35bc ecd1 b9bd 1ca0 a03d 521c be3d
00000040: 353e a23d 8305 75bd 9ed3 4dbd 6448 183d
00000050: cbe6 213d 7c35 ae3d 297d be3d 38d0 87bd
00000060: 9a45 e13c a9a9 863d 1bf5 22bd a265 92bd
00000070: 8f90 673d 66fd b4bd 5740 ad3d 6c97 40bd
0.05657358 -0.018899372 -0.04890144 0.038023822 -0.056136306 0.0755537 0.0664521 -0.07978784
0.010491347 -0.053172532 -0.0037188479 0.06577289 -0.011087616 -0.090732425 0.078430384 0.092827454
0.07922021 -0.05981971 -0.050250642 0.037178412 0.039526742 0.08506295 0.09301216 -0.066315114
0.027499009 0.06575329 -0.039784532 -0.07148291 0.056534346 -0.088373944 0.084595375 -0.047019407

net.4.module.0.weight f4 [32, 32, 3]
00000000: 2a4b 393d 4575 93bc 53eb 433d fc38 1d3e
00000010: b333 903d 7596 b8bc 57c8 1b3e 66e2 21bc
00000020: b4e0 f43d 896b 90ba 2b73 513d 0cac 88bd
00000030: 3472 87bd 2031 703c 1710 94bd a8a5 963d
00000040: e4f3 093d 841a c0bd ba3c f9bc 2895 15bd
00000050: 2181 0cbd ba30 83bd 1fef feba f535 a73b
00000060: a90c 983d c87b 04be 28ba 343d 07e6 d83d
00000070: ff56 fd3c 8c20 88bc de79 72bc 5e3a c7bd
00000080: aeb5 d8bc 9060 b03d ebb4 303c 4916 233d
00000090: 7c82 323b bc36 00bd 1c80 cbbc f169 913d
000000a0: 64fa fdbc eb84 6bbb 030d dcbd 410e 053d
000000b0: bf00 d23d 246c a1bc b7c0 c23d f909 1d3d
000000c0: 61a2 bebd d050 c6bc d43c a8bd 5e1c b7bd
000000d0: 5d61 b03d abae e73c f124 683d 3144 c93d
000000e0: b193 c03d dcfe 9e3d 42c6 b8bc 1525 9abb
000000f0: 4705 08bc 853b bdbd 1051 933c 3017 dcbc
00000100: 6479 0f3d d06a 7c3d 657d aabc d1b2 30bd
00000110: 2ae8 bf3d 2efc 35bb d7ef 77bc 8cbe f93c
00000120: b094 023e cc69 9e3d 2c3a a1bd 3d41 a03d
00000130: 83fd a03d fd15 893d 9229 023e 798a 92bd
00000140: 16d4 50bd c95f 72bd bcbc b73c 6e2b e83c
00000150: 428f b4bd 10f5 4dbd 0ac2 cc3c 874f 633d
00000160: f766 cfbd 714e 7ebd edff d9bd c2e2 a53b
00000170: 1280 3abd b5a6 923d caa3 913d 21c8 d2bc
00000180: 9182 e03d a711 6f3d c605 a7bd 7193 dabc
00000190: ea1e aa39 3515 d93d 9956 333c 6426 93bd
000001a0: 0961 003e 5904 ae3d 5e89 1f3c fe29 9cbd
000001b0: 39d0 fabc fe6e c9bd be1d 203d 6f8a 91bd
000001c0: ad6e 2d3d 5f64 ac3d 62e7 d73d 903d cf3c
000001d0: 41dd ed3d bed4 b43b 4ff4 9ebd e660 123d
000001e0: 5d05 89bd 761e ed3b 0dac 743d bc8f 85bd
000001f0: b1ab 51bb 2cba c03d 5a70 94bd 5f8a 933d
00000200: cf09 4fbd 3ae9 5b3d 98ce 0e3d 7b26 2fbd
00000210: 1b33 493c 007b 853d d86e 253c 4b89 a0bd
00000220: 0f12 12bc f11e e83b 4030 c4bd 0878 98bd
00000230: b6c6 9f3c 8d22 21bd 9467 a13d 6e05 6fbd
00000240: 8010 23bc e276 b13d 97e6 3bbd e535 07bd
00000250: bd4f 243d 550f ad3c 8412 44bd b548 3b3d
00000260: 6b74 64bd fce5 6c3d 9e98 aa3c 825d 6abc
00000270: 010b ae3d 1489 a4bd 6a3b 30bc 52f5 a13d
00000280: 9c0f 543d 6081 76bb 075e a4bd 61ed ac3d
00000290: c394 22bd 73d6 6dbb b67b 943d 4d05 85b7
000002a0: 52c9 f93d 1bee 2cbd 5ace f6bb 1ea4 d1bd
000002b0: 3406 5fbd e064 a23d 4b78 793d 399e f43c
000002c0: 6b24 b3bc ab3f d9bd 89dc c2bd bf66 75bd
000002d0: 65dd c3bd 963e 80bc 39df 4f3d 2dc4 83bd
000002e0: c043 633d 6cbf 8dbd 0320 c4bd c0d9 afbc
000002f0: b943 07bc 3bcd 8e3d 312d d83c 86e5 653d
00000300: 1d6b c93d 3bd9 1cbd f86f 7fbb bce1 ff3d
00000310: 49c5 553d be89 a0bd 1b22 dc3c f245 66bd
00000320: e9ab 6abd 0300 b6bd 8aa2 1e3d 5600 05bd
00000330: e0c3 803d 1e75 c9bd cd96 283d 615a d2bd
00000340: 51c9 dabd 2244 083d d4f7 573d 7933 903c
00000350: f1f8 fb3c 0c15 d9b9 ba64 f9bd 4a35 91bd
00000360: 857f 7fbd ff15 923d 46ea 67bd d0cc 9a3d
00000370: bd37 75bc f6fd 20bd 3086 cabd 71f7 8abd
00000380: 0664 613b 5ce3 d53b c15c f83c c403 343c
00000390: 2b8e ca39 cde4 90bd 1fec adbd 82a8 7f3d
000003a0: d1dc 8fbc cef9 17bd 8248 2dbd dd17 1c3d
000003b0: c193 63bc d8c3 debd abaa 02bc ed29 893c
000003c0: a751 073d 1c8c c4bd 5941 bb3d 4f3e 743c
000003d0: 86a3 89bd af98 bfbc 1f7e c1bd 54db 50bd
000003e0: 01d4 153d 73e4 80bd 1006 01bc 8fee dfbd
000003f0: b81f 2a3d c646 7cbd 4dca 823d 3f66 99bd
0.045237698 -0.018000254 0.047831845 0.15353769 0.07041111 -0.022532681 0.15213142 -0.009880638
0.11956921 -0.0011018376 0.051135223 -0.0667344 -0.066135794 0.01466015 -0.072296314 0.07355815
0.033679858 -0.093800575 -0.030424464 -0.0365192 -0.034302834 -0.06405778 -0.0019449926 0.0051028677
0.0742429 -0.12937844 0.044122845 0.10590749 0.030925272 -0.016617082 -0.014799563 -0.097279295
-0.02645382 0.08612168 0.010785322 0.039816175 0.002723842 -0.0313022 -0.02484136 0.07100285
-0.031003185 -0.003593738 -0.10744669 0.032484297 0.102540486 -0.019704886 0.09509414 0.03833959
-0.09308315 -0.024208456 -0.08214727 -0.089409575 0.086123206 0.02828153 0.056675855 0.098274596
0.0940317 0.07763454 -0.022555474 -0.0047041276 -0.0083020395 -0.09239868 0.01798299 -0.026866525
0.035027876 0.0616253 -0.020811746 -0.043139283 0.09370454 -0.002776872 -0.015132866 0.030486368
0.12752032 0.07735023 -0.078724235 0.07824943 0.078608535 0.06693647 0.1271117 -0.07155318
-0.05098351 -0.05917338 0.022428863 0.028341021 -0.08816387 -0.050282538 0.024994869 0.055495765
-0.10127061 -0.062086526 -0.10644517 0.005062432 -0.045532294 0.07160703 0.071113184 -0.025730195
0.109624036 0.058366444 -0.08155398 -0.026681634 0.0003244796 0.10599748 0.010945939 -0.07185057
0.12537016 0.08496923 0.009737341 -0.07625197 -0.030616866 -0.09835623 0.039090864 -0.07106482
0.042341877 0.08417582 0.1054218 0.02529791 0.116144665 0.005518525 -0.07761442 0.03573694
-0.06690476 0.0072362972 0.059734393 -0.06521556 -0.0031993205 0.094105095 -0.07247992 0.072041266
-0.050546464 0.05368922 0.034864992 -0.042761307 0.012280251 0.06517601 0.010097228 -0.078386866
-0.008915438 0.0070837666 -0.095795155 -0.07444769 0.019503932 -0.03933959 0.07881084 -0.058354788
-0.009952664 0.08665253 -0.045874204 -0.033010382 0.040115107 0.021125475 -0.04786922 0.045723636
-0.055775087 0.057836518 0.020824727 -0.014304521 0.084981926 -0.08033958 -0.010756353 0.07908119
0.0517727 -0.0037613735 -0.08025747 0.08443714 -0.03969265 -0.0036291152 0.072501585 -1.5857304e-05
0.12196602 -0.042219263 -0.0075319232 -0.10236381 -0.054449275 0.07929397 0.060905736 0.029860603
-0.021867951 -0.10607847 -0.0951472 -0.05991244 -0.09563712 -0.015654843 0.05074999 -0.06433902
0.055484533 -0.069212765 -0.09576418 -0.021466136 -0.008255892 0.06972738 0.026388736 0.056127094
0.09834883 -0.038293105 -0.003897665 0.12494227 0.0521901 -0.07838772 0.026871732 -0.05621905
-0.057292853 -0.08886721 0.038729228 -0.032471023 0.0628736 -0.098367915 0.04115944 -0.10271145
-0.10682929 0.0332681 0.05272658 0.01760267 0.030758353 -0.00041405146 -0.12177415 -0.07090242
-0.06237747 0.07133102 -0.056619905 0.07558596 -0.014966902 -0.039304696 -0.098888755 -0.06785477
0.0034391894 0.0065273475 0.030317666 0.010987226 0.00038634366 -0.0707489 -0.08492302 0.06241656
-0.017561348 -0.037103467 -0.042305477 0.038108695 -0.013890208 -0.10877198 -0.007975261 0.016743625
0.033036854 -0.09597036 0.091433235 0.014907434 -0.06720643 -0.023388235 -0.09447884 -0.050990418
0.036579136 -0.06293573 -0.007874981 -0.10934173 0.041534156 -0.061590932 0.06386242 -0.07490205

net.4.module.0.bias f4 [32]
00000000: fc03 1dbc d231 903d 9ba8 5e3b 2225 9dbd
00000010: e113 823b 7926 04bd af6d b63d 4d70 a03d
00000020: 1314 8f3d 144d 63bd 5e94 cdbd 3dcb c8bd
00000030: b7d0 463c b53f 853d f1c9 313d 785f 5b3c
00000040: be3c e73d 56ed 29bc ac9d 9f3c 5d96 7ebd
00000050: d895 24bd cd56 c13c 1eb0 5f3d ba77 c73c
00000060: 4810 bc3d 0537 813c 6b3d bc3c 111b 38bd
00000070: 19f1 c23d 7e62 103d 2b97 1abc a690 7e3d
-0.0095834695 0.070407525 0.0033975008 -0.07673098 0.003969655 -0.032263253 0.08907639 0.0783392
0.06986251 -0.05549343 -0.100380644 -0.098043896 0.012134722 0.06506292 0.043405477 0.013389461
0.112908825 -0.010371527 0.019484363 -0.062155116 -0.040181965 0.02360096 0.054611318 0.024349082
0.09182793 0.015773306 0.022978505 -0.044947688 0.09518642 0.03525018 -0.009435455 0.062149666

net.5.weight f4 [8, 32, 3]
00000000: b624 efbc c2d2 193d dff7 ef3c f8ab 2e3d
00000010: 4d6c f2bb 4f3a 413c a176 9fbd 046f f7bc
00000020: 242b 65bb aa1a 82bd 7b01 88bd 06b0 00bc
00000030: cce6 323d 7e70 9f3d 6d99 5dbd 81d0 4d3d
00000040: 925e c63b 906a cf3a b29c 9cbc ed36 83bd
00000050: 8334 773d b01a 613d 8d7f 133d f788 42b9
00000060: 9532 8cbc 6c18 b6bc 3e18 6c3d b012 8a3c
00000070: 9cfa e4bd d3b4 ebbd 45b5 87bd b627 8abd
00000080: eddc 5dbd 8eee 58bd 98d9 fbbb 4f3a 7d3d
00000090: b15c 54bd bf8f 31bd 84b9 6dbd f071 2fbd
000000a0: bc34 ad3d a51f d7bd 965a fdbb b1ba 873d
000000b0: c75a 86bd 4c77 3ebd 12b6 773d 4f7a 843d
000000c0: 9f2e a73c baec 813d e10d 853d 4bed 2a3d
000000d0: a357 a33c 00e2 a03d 72cf 273d b0a2 1b3d
000000e0: f799 3dbd 9fa0 c33c 9a35 513c b23e 6e3d
000000f0: 5d76 bfb9 f05c 55bc cf5c ea3b 3e49 023a
00000100: 01cc 6bbd 4d08 fbbc 1212 733d 1a05 163d
00000110: 936a 9f3c 8a94 a0bd bcdf 05bd 7966 72bd
00000120: 57e2 b1bc 287e 3c3d e368 82bd 94ba d73d
00000130: d2f4 b73d a971 7cbd ca49 a8bd 3dd1 68bd
00000140: 9fae 7cbd 2639 5dbd 9834 98bb 5e3d 3abd
00000150: 510f 233d 2c99 08bb e959 5bbd 104b 763d
00000160: c28e 08bc 5919 803d c87a 343c 8659 48ba
00000170: 5889 54bb d202 eb3c b882 5b3d 9137 d53c
00000180: a24e 733d 5ffc d7bb a8d4 cdbc 5533 18bc
00000190: f849 2c3b 32db 9e3d 1abf ce3d 524a 963d
000001a0: 6e48 d3bc 9ef2 19bd 3fdd 183b b186 8d3d
000001b0: dce0 8cbd 8682 a93d 94d4 cebc b3fe 963d
000001c0: 406a 003c 77e5 42bd 19d8 303d aecb 80bd
000001d0: ae83 353d 3201 0bbd 7efb 9e3c 955e ca3c
000001e0: cf09 0a3d fb25 32bd da2a f7bd 50ab e4bc
000001f0: 1500 3c3d fc0f 933d 632e 973d ae1d 743d
00000200: 1ebb 3d3d a8cc 813d 9738 91bd b901 ae3b
00000210: 0fb4 663d e06e 0f3d a8ea e83d 887c 8dbd
00000220: 83dd 393d 36da b33d 9c3b b9bd b5d8 0b3a
00000230: 1013 22bd 08df 893d 52e7 93bd 0b28 473d
00000240: b323 eb3c 624c b0bb cbe5 403d 09f3 a1bd
00000250: b0cc 763d de24 8c3d dd69 393b 2f58 93bd
00000260: 1e1e a3bd 964d b33d 2d06 973d 373c c03d
00000270: d942 6d3d e168 9c3d ad12 94bd 8337 a2bb
00000280: b4ac b03d 813f fa3d 2c8d 1cbd 2556 b0bd
00000290: 4248 eebd da2e afbd 7c54 803d f916 3fbd
000002a0: 1b1f a8bc 89d2 8b3d 71d9 95bd 2c59 f8bd
000002b0: 1358 683d e257 a5bd ba3e 793d ca11 c03d
000002c0: 19c2 aa3d fbb7 1fbd 6b30 a6bd a58d 0f3c
000002d0: a9ee 9abb f059 3fbc e6bf 9b3d 15bd 75bd
000002e0: aa18 bebd f04c 03bc 0b72 6a3d 29dc 8abc
000002f0: 78ae b2bd 1b14 f7bd 3274 9d3d f36d 963d
00000300: 229d bc39 b510 863a b194 b5bc 4675 c7bd
00000310: 5da7 16bc 0676 713d 4a7e 883c fbf5 863d
00000320: cfad ab3d b04f d83c 0669 f9bb a92a f9bd
00000330: 32b4 9b3d a3f3 d43d 1a6d 95bd 5fa5 9bbd
00000340: f0d0 87bd 3e1b be3c ac5b 98bc 8799 41bc
00000350: 37f5 a83d f5c2 90bd ebd2 363d 38d8 d93c
00000360: c377 b43d f7a5 2abd 5f9c 95bd 4d6a a73d
00000370: aad9 97bd eaf6 d6bc 566f 113d 77fd b03c
00000380: 0ce5 fcbc 5de9 a43d c2fc 3c3c d8a3 a33d
00000390: ef32 9fbd ae91 5d3c 47f6 253d 1822 563d
000003a0: 324a bebd 1b62 6dbd 0575 2b3d 3b13 c9bd
000003b0: 078a 953d 795a 423d f049 d13c 8140 903d
000003c0: c940 673d 8d2c 473d 9e6b 9dbd 93d6 583d
000003d0: 4c07 303d 65fd ba3d f30f 2c3d 9802 c73d
000003e0: da7e 8cbd 0c9a 3cbd 7bcf 413b 4327 dabd
000003f0: 8768 2a3d 5d0c 9ebd 66fc 93bc e40d 00bd
-0.02919231 0.03755451 0.029292999 0.04264447 -0.0073981644 0.011793687 -0.077862985 -0.030204304
-0.003496834 -0.06352742 -0.066409074 -0.007854467 0.043677136 0.07785128 -0.054101396 0.050247673
0.006053754 0.0015824605 -0.019117687 -0.06406961 0.060352813 0.05495709 0.036010314 -0.00018552305
-0.017113963 -0.022228442 0.057640307 0.016854614 -0.111806124 -0.11509099 -0.06626371 -0.067458555
-0.05416577 -0.05296188 -0.0076858513 0.061823186 -0.05184621 -0.043349978 -0.05803825 -0.04283327
0.08457324 -0.105040826 -0.007731746 0.066274054 -0.06560283 -0.04650049 0.06047637 0.06468641
0.020407973 0.0634398 0.06496788 0.041730206 0.01993925 0.07855606 0.04096932 0.037996948
-0.04628941 0.023880301 0.012769127 0.05816526 -0.00036518546 -0.013022646 0.007152177 0.00049700204
-0.0575676 -0.030643607 0.059343405 0.03662596 0.019459998 -0.078408316 -0.032684073 -0.059179757
-0.021714373 0.04601875 -0.06367662 0.10533634 0.08982243 -0.061631832 -0.08217199 -0.05684017
-0.06168997 -0.05400958 -0.0046449415 -0.04546868 0.03980953 -0.002084325 -0.053552542 0.06013018
-0.008334817 0.06254835 0.011015601 -0.00076427346 -0.0032430496 0.028687868 0.05359146 0.026027473
0.059401162 -0.0065913643 -0.025125816 -0.009289582 0.0026289206 0.07756652 0.100950435 0.07338394
-0.025791373 -0.037584893 0.0023325232 0.06910456 -0.06878826 0.082768485 -0.02524785 0.07372799
0.007837832 -0.047582116 0.043174837 -0.06288849 0.044315033 -0.033936687 0.01940703 0.024703303
0.03370076 -0.043493252 -0.1206872 -0.02791372 0.045898516 0.07180783 0.073818944 0.059598617
0.046321027 0.06337863 -0.07090872 0.005310264 0.05632406 0.035017848 0.11372882 -0.06908518
0.045377266 0.08781855 -0.09044573 0.0005334721 -0.03956896 0.06731993 -0.07221855 0.048622172
0.028703546 -0.0053801993 0.047094148 -0.079076834 0.0602538 0.06842969 0.002829186 -0.07194554
-0.07964729 0.08755033 0.07374225 0.09386485 0.05792508 0.076371916 -0.072301246 -0.004950465
0.086266905 0.12219144 -0.03822057 -0.08610181 -0.11634876 -0.08553858 0.06266114 -0.046652768
-0.020522645 0.06827266 -0.07316864 -0.12126383 0.05672462 -0.08073403 0.060850836 0.09378393
0.083378024 -0.038993817 -0.08114704 0.008761798 -0.0047281575 -0.011679158 0.07604961 -0.059994776
-0.09282048 -0.008013949 0.057237666 -0.016950684 -0.087246835 -0.12064382 0.07688178 0.0734519
0.00035975227 0.0010228368 -0.022165628 -0.09739165 -0.009195176 0.058950447 0.016661782 0.06589886
0.08382761 0.026405185 -0.0076113967 -0.1216634 0.07602729 0.103980325 -0.072962 -0.075999014
-0.066316485 0.02320635 -0.0185984 -0.011816389 0.08249896 -0.07068435 0.04463474 0.026592359
0.08811905 -0.041662183 -0.07305216 0.08174572 -0.07414563 -0.026240785 0.03550657 0.021605236
-0.030870937 0.08052323 0.0115348715 0.07990235 -0.07773387 0.013523502 0.04051807 0.052278608
-0.092914954 -0.05795489 0.041859645 -0.09818121 0.07301717 0.047449563 0.025547951 0.07043553
0.05645827 0.04862647 -0.07686542 0.05293901 0.04297571 0.091303624 0.042007398 0.097172916
-0.068601325 -0.046045348 0.002957313 -0.1065202 0.04160359 -0.07717202 -0.018064689 -0.031263247

net.5.bias f4 [8]
00000000: af76 a6bd c7f9 8b3b 7efd 6b3d f1ad b2bd
00000010: ada6 7a3d 22b3 7d3d 4541 713d d9f2 353d
-0.08128106 0.004271719 0.057614796 -0.08724583 0.06119411 0.061938412 0.058900137 0.04442105

exp_avg f4 [32, 120, 2]
00000000: 8308 be37 3d1d 0839 e8f3 3eb9 c44f 27ba
00000010: ee69 b9ba cda2 acba 7ce1 3739 8782 51ba
00000020: 6dc3 13b9 e7f7 ad38 beba 9db9 ef75 d238
00000030: f1f8 bcb9 a691 52ba 7612 ce39 bbf1 9239
00000040: d775 9db7 ddba 00b9 266c 8136 677b 63b6
00000050: 4dd0 2e3b e26d 293b 58f1 0aba 8b9e 4639
00000060: b5cd 2238 e56f 6eb8 189a 513a ae1e b53a
00000070: 60bb abba 55dc f838 9b80 7a3a b70e 4939
00000080: 25e5 06ba a225 e2b9 9d2b 20b9 f61c e9b8
00000090: a38c 103b 40db a43a 82fd e938 53a6 8038
000000a0: fb3f 40ba 2ace 05b8 27d3 2dba ffcf 9cba
000000b0: f2f8 e739 e1ae e638 410f 0e3b a820 0b3b
000000c0: eefd 1f3a 218a cb3a 5f2c ea3a 7389 d03a
000000d0: 1c96 c939 c588 9039 6ddf 7636 7778 5436
000000e0: eae5 37b5 6d81 0eb7 1931 4c3a 31f1 603a
000000f0: 1447 e134 8933 e2b8 d79c 963a 4cc4 173a
00000100: 9002 f8b7 8233 fcb9 834d 54b8 45f8 e1b7
00000110: 02bd 1e3a 28bc 06b7 f9b4 18ba a38a 14ba
00000120: 9e70 6bb9 9a37 2cb8 c504 a9b9 9383 64b9
00000130: 9d6a 27ba 4e7b d6b9 0000 0000 0000 0000
00000140: a9af 9b3a bcb1 863a 857b 8f39 d304 9939
00000150: 0bbe a2b7 fb09 bb38 e7c0 b9ba c54d e1b9
00000160: 98ac 9c39 79a9 6139 2592 8fb7 d37c 2939
00000170: ce61 14ba ab28 4eba 1775 3339 6e25 00b9
00000180: 0374 3f3a 80a5 103a 8fd4 b0b8 623f 0d39
00000190: cb51 2039 86e1 91b8 f12b 3cbb 215f 16bb
000001a0: ca87 7fba b5ae 7039 326b 153a c246 9638
000001b0: dda2 0db9 cef8 b439 a820 aab9 ef74 42b9
000001c0: 935b d739 b738 913a e0a7 8eb7 31cf 7337
000001d0: 1995 1d3a 4508 ef39 888d 1fb9 a624 bf38
000001e0: 056d f939 bcd7 8d3a 9693 5436 f262 f2b6
000001f0: 088d 07b8 e0c8 193a 14bc 4739 a856 96ba
00000200: bc8f 9d3a a714 ea39 2841 e838 b2d5 6a38
00000210: 5eb9 bc3a 5d53 033b f9d9 e23a a08b 5b3a
00000220: 739a 2bb8 a23f 9a36 5ed6 963a 5c5c ae3a
00000230: 0162 5e39 40fe 163a e320 c7ba 6dda 92ba
00000240: 13ec 16b8 ef17 c8b8 b5c9 c9b8 e9e9 a1b8
00000250: 33ae 65b9 80e6 5cb9 663e 86b8 4db7 7038
00000260: b29e 67b7 e159 7236 d195 033a b026 093a
00000270: ee9c f238 e2b9 75ba 7ddf 16b8 bb8b 4d38
00000280: f1a8 2a3a 6d9b 963a bb5b 3bb9 98e2 4fb8
00000290: 8635 d039 82b6 cb39 12bd 3ab9 ba59 0db9
000002a0: 2c85 08b9 5217 30b9 418e 1fba 1f6e d2b8
000002b0: 2ad8 afb7 9b0f 653a f0d3 d5b8 ceb4 2838
000002c0: dbe4 81ba c526 1eba c8d5 98b9 dd15 a1b9
000002d0: a9ab bf39 584c c839 882c ae38 38a4 8a39
000002e0: 4c75 503a adfc c837 ece5 ce35 bc15 fc38
000002f0: b17d 7339 0c48 c9b9 00ce 8c3a 2acd 3a3a
00000300: 5657 2939 d22b feb8 e5df 7839 de6a 3339
00000310: 5674 40ba 14cf 6dba 693a 2f39 6d0a a439
00000320: b067 5439 a1a0 3f39 83c6 5e39 9ccb 263a
00000330: 9d53 e3b9 2e51 55ba 5e87 c239 d07c f238
00000340: 0d77 003a 0e04 1f3a 2f6e dbb8 3831 d838
00000350: 5c23 09ba 3432 e9b9 4385 c239 045c 6a39
00000360: e449 58b9 665b 1a39 11c7 c1b9 c042 573a
00000370: bebb e13a b298 0c3b 818c 8e3a 622a ef39
00000380: 77bc aab9 e5d2 d139 31c4 2c39 13e5 b538
00000390: 4832 0b37 8243 d9b9 e514 a03a 7503 f53a
000003a0: 680f bc38 0e3c 9738 4092 5d3a 906f 6f3a
000003b0: 061a 5d38 fc61 0e3a a84c d239 ecad 553a
000003c0: 8fd5 5439 6fcf 3d39 3d6a 19ba 53e1 c5b9
000003d0: 2dbf e3ba 8a0d 5eba 0960 45ba df66 aa3a
000003e0: 51ff b838 ba73 cb39 f25a 083b d1fa 033b
000003f0: f281 13ba 2b6f d8b9 57b9 6d3a 0e9f 113b
2.2653729e-05 0.00012980863 -0.00018210674 -0.00063824304 -0.0014145949 -0.0013171077 0.0001753624 -0.00079921674
-0.00014091814 8.295458e-05 -0.00030084507 0.00010035547 -0.0003604363 -0.00080325676 0.00039305136 0.00028027393
-1.8770732e-05 -0.00012276643 3.8570897e-06 -3.3897466e-06 0.002667445 0.0025852849 -0.0005300245 0.00018941813
3.881539e-05 -5.684783e-05 0.0007995679 0.0013818347 -0.0013102107 0.000118666016 0.0009555907 0.00019174335
-0.00051458395 -0.00043134118 -0.00015275036 -0.000111157 0.0022056482 0.0012577549 0.00011157525 6.134496e-05
-0.00073337526 -3.1901676e-05 -0.00066308904 -0.0011963843 0.00044245232 0.000109998284 0.0021676573 0.0021229181
0.0006103207 0.0015528837 0.0017866007 0.0015910104 0.00038449548 0.00027567722 3.6786907e-06 3.1660581e-06
-6.850738e-07 -8.493994e-06 0.00077892985 0.0008580862 4.1961232e-07 -0.00010786119 0.0011490834 0.00057894434
-2.9565097e-05 -0.00048103562 -5.0616927e-05 -2.69377e-05 0.0006055386 -8.030831e-06 -0.0005825307 -0.00056664104
-0.000224533 -4.105978e-05 -0.00032237745 -0.0002179279 -0.0006386431 -0.0004090913 0.0 0.0
0.0011877912 0.0010276358 0.00027367115 0.00029186028 -1.94004e-05 8.918714e-05 -0.0014171869 -0.00042973287
0.0002988323 0.00021520806 -1.7114982e-05 0.00016163597 -0.0005660326 -0.00078643364 0.0001711439 -0.00012220975
0.0007303359 0.00055178255 -8.431926e-05 0.0001347042 0.0001528926 -6.956146e-05 -0.0028712715 -0.0022944885
-0.0009747712 0.00022953267 0.0005699872 7.165737e-05 -0.00013507479 0.0003451765 -0.00032449258 -0.00018544843
0.00041076224 0.0011079524 -1.7005892e-05 1.4532169e-05 0.0006011292 0.00045591794 -0.00015216146 9.114416e-05
0.00047574207 0.001082174 3.1676368e-06 -7.2236808e-06 -3.2317854e-05 0.00058664195 0.00019048183 -0.0011469917
0.0012020986 0.00044647345 0.000110747584 5.5988967e-05 0.0014398505 0.0020038702 0.0017307393 0.0008374993
-4.091342e-05 4.5969655e-06 0.0011507978 0.0013302672 0.00021208079 0.0005759932 -0.0015192296 -0.0011204012
-3.5982648e-05 -9.541201e-05 -9.621998e-05 -7.7206474e-05 -0.00021904036 -0.00021066703 -6.4012405e-05 5.739117e-05
-1.3805622e-05 3.6113126e-06 0.0005019578 0.00052319 0.0001156869 -0.0009373707 -3.5970927e-05 4.9005943e-05
0.00065101596 0.0011490412 -0.00017867882 -4.9563678e-05 0.0003971273 0.00038855156 -0.00017808776 -0.00013480234
-0.00013019581 -0.00016793355 -0.0006086566 -0.00010034092 -2.0962285e-05 0.0008737982 -0.00010196108 4.022271e-05
-0.0009910123 -0.0006032999 -0.0002915098 -0.00030724602 0.00036558256 0.00038203853 8.305261e-05 0.00026443764
0.0007952049 2.395952e-05 1.5415112e-06 0.00012020345 0.0002322111 -0.00038391387 0.0010742545 0.0007125909
0.00016149631 -0.00012119826 0.0002373453 0.00017110581 -0.0007341554 -0.00090716896 0.0001671106 0.00031288285
0.00020256522 0.00018275018 0.00021245521 0.00063627376 -0.0004335911 -0.0008137402 0.0003710342 0.000115627074
0.00049005524 0.0006065973 -0.00010463257 0.0001030885 -0.0005231404 -0.00044478627 0.0003710185 0.00022350257
-0.00020626892 0.00014720633 -0.00036960145 0.00082115456 0.0017222089 0.0021453318 0.0010875614 0.0004561721
-0.00032565344 0.00040020715 0.00016476285 8.673421e-05 8.296753e-06 -0.00041439763 0.0012213258 0.0018693047
8.967408e-05 7.211427e-05 0.0008452274 0.00091337506 5.2714742e-05 0.0005431471 0.00040111435 0.00081512216
0.00020297452 0.0001810172 -0.00058523176 -0.00037742648 -0.00173757 -0.00084706454 -0.0007529264 0.0013000629
8.82136e-05 0.000388054 0.002080616 0.0020138512 -0.00056269683 -0.00041281557 0.00090684503 0.0022220048

exp_avg_sq f4 [32, 120, 2]
00000000: ed2e cc33 360c 0e34 37d4 fd34 a021 6835
00000010: 9863 be37 1aad a337 d47c 1037 276c 1037
00000020: 3c30 1836 28f7 fd35 072d b536 f1e3 ad36
00000030: 76a6 dd35 2494 b635 9e2b d636 883a 1037
00000040: 3f85 e135 ebeb 5c35 afd1 ad31 0a19 ac31
00000050: f9c7 9737 ca9f 8a37 db5a 2f37 9224 0737
00000060: f865 d333 c8f0 0534 8342 3337 bb10 5d37
00000070: 7b29 c437 ec58 9337 9558 ee37 b990 b437
00000080: 81fc 2136 4880 0436 4ba7 7a34 588a fd33
00000090: b93e b437 0758 8437 a25d ee36 ed88 0437
000000a0: 551e f936 f60a b536 de8c d435 33db 1936
000000b0: 6086 6d37 12ff 5837 cadc 0c38 bf1a 1b38
000000c0: 9f84 1a37 6dc3 3737 8fc9 3c38 96d0 2238
000000d0: d507 5036 811f 2436 75c9 8c31 6c44 2031
000000e0: c7a0 be33 42ee ae32 46f7 af36 0ea1 7d36
000000f0: eabc b035 b3c8 b435 8fea d336 aae4 8e36
00000100: d025 e633 15d5 5034 da66 f033 c3ea d634
00000110: cbca 0737 a6f0 ea36 4c89 7336 3ab7 9b36
00000120: f079 bb35 763c 8435 6dd3 c434 8033 b734
00000130: 7145 2d35 4379 ec34 0000 0000 0000 0000
00000140: eb5a 4b37 4d64 9d37 5a9d 9435 e327 8735
00000150: 6085 bd35 7945 b535 a587 5a37 a684 8537
00000160: 2fc9 e635 cf36 7636 8a3d c435 2c9b 9a35
00000170: acaf 8b36 e243 9236 6611 0236 89ed 2736
00000180: 97c3 ca36 7802 6f36 1412 1f34 01e8 c634
00000190: 31a2 4235 f8a0 4935 e57e 0938 3a1c 0238
000001a0: 6b9c e837 e929 3238 672f db36 5f8d 1837
000001b0: 1d22 2b36 c4ea 2d36 609f 8336 9ba2 ae36
000001c0: cecf 2337 f9c3 0937 738d 2034 beeb 4733
000001d0: c82a 9035 bcdf d035 0c38 8436 ac3a c936
000001e0: d11e 9137 3d26 ab37 45dd cc31 2512 4532
000001f0: ce3b f836 a54f e636 45e4 0e37 696c 1b37
00000200: 6cbd f736 0062 1837 3b7b 2234 12e1 5233
00000210: b95f bf36 87b2 2137 4375 f537 7231 0c38
00000220: 83e8 b034 bb6b 8634 e51d 2a37 1010 0437
00000230: 3b45 b737 e71c da37 1050 4837 138f 2037
00000240: 911b 8036 9150 ba36 4726 bb34 5e28 5034
00000250: d453 4136 453a 8936 d20b b934 9262 7734
00000260: c94b 3736 dbc8 0036 6dc1 1537 0432 1f37
00000270: 453e 1b38 1a4c 2038 d3d7 5935 4f1a 5d35
00000280: 3886 dc37 184c 2b38 3201 0435 1110 4c34
00000290: 015f 1037 6b0a 0b37 18df 7736 de5e 8135
000002a0: 3d5d 4736 cfb5 3a36 6618 bf36 c8b9 ba36
000002b0: 6528 dc36 2f0d 0137 bfd6 1a36 6a86 0c36
000002c0: 7f8b 9a36 8027 7f36 0a11 7a36 93fa c336
000002d0: 9c16 7735 16d2 7335 6251 8a35 ecfe 9e35
000002e0: 343c 1a38 84b1 1938 7adb bb34 bd09 ec34
000002f0: c727 e335 6aa3 a136 bc2d 4a37 b24f 8537
00000300: 122e 1f36 71ce 5736 b30d 6934 b000 8c34
00000310: 0730 8e36 a8a4 f536 c1d0 d935 0e41 1836
00000320: e8fe 0636 f9b8 c635 e578 4035 14ac b835
00000330: 1374 7136 431f 6336 9e54 a535 55fd 8e35
00000340: 8798 0f37 b287 0237 c26b d734 fac1 8a35
00000350: 9eca b136 e31c ad36 594f 2935 2569 dd34
00000360: 1dec 1d36 8e52 c235 d193 7637 3286 3e37
00000370: ab19 5d37 f81f 8937 df0b cc37 c38c 7737
00000380: c9b0 0037 69f9 1e37 5634 3e34 9945 e033
00000390: 459d 7336 4288 8336 6cb8 ee37 9fdb 5138
000003a0: 42fe 0b35 3c00 fa34 5cca 3436 2ae8 5b36
000003b0: 2388 b235 018b ae35 61c1 1c36 bb24 3536
000003c0: f72e 1935 6966 0535 ecb9 1336 1155 4936
000003d0: 5a8e 8f38 69f8 9c38 0f2b 6238 fc1a 8438
000003e0: 80f4 3537 ecdb 2f37 49cd 0138 ee6c fa37
000003f0: de9c 9236 af82 9636 8805 3038 e428 5138
9.508026e-08 1.3229223e-07 4.727933e-07 8.6475666e-07 2.2696142e-05 1.951172e-05 8.612133e-06 8.60825e-06
2.267784e-06 1.8921901e-06 5.399462e-06 5.1823376e-06 1.651423e-06 1.3603171e-06 6.3827747e-06 8.596697e-06
1.6802586e-06 8.229969e-07 5.058801e-09 5.0087055e-09 1.8093722e-05 1.652529e-05 1.0451967e-05 8.055142e-06
9.844001e-08 1.2474186e-07 1.0684717e-05 1.3176522e-05 2.3384337e-05 1.7565173e-05 2.841306e-05 2.1525064e-05
2.4137846e-06 1.9744202e-06 2.3343925e-07 1.1806395e-07 2.148688e-05 1.5776617e-05 7.103853e-06 7.899694e-06
7.4243094e-06 5.3954964e-06 1.5836229e-06 2.2926367e-06 1.4157587e-05 1.29339915e-05 3.3584227e-05 3.697979e-05
9.209994e-06 1.0953151e-05 4.501041e-05 3.881807e-05 3.0998974e-06 2.4456242e-06 4.0974393e-09 2.3321958e-09
8.87681e-08 2.0364613e-08 5.244193e-06 3.7793684e-06 1.3168003e-06 1.3469456e-06 6.3155962e-06 4.25855e-06
1.0717088e-07 1.9449028e-07 1.11945795e-07 4.0031418e-07 8.0938435e-06 7.0017586e-06 3.628974e-06 4.6406903e-06
1.3968074e-06 9.852363e-07 3.6661677e-07 3.4123877e-07 6.454857e-07 4.4046655e-07 0.0 0.0
1.2120911e-05 1.8762565e-05 1.1072655e-06 1.0069892e-06 1.4120415e-06 1.350577e-06 1.3025395e-05 1.5916605e-05
1.7194888e-06 3.668876e-06 1.4621048e-06 1.1519055e-06 4.1629737e-06 4.3590417e-06 1.9381637e-06 2.5023203e-06
6.042839e-06 3.5615212e-06 1.4814606e-07 3.704918e-07 7.250665e-07 7.5112575e-07 3.2781525e-05 3.1020703e-05
2.7729393e-05 4.247754e-05 6.532227e-06 9.0928215e-06 2.5500842e-06 2.591566e-06 3.922658e-06 5.204534e-06
9.76394e-06 8.211465e-06 1.495262e-07 4.6547704e-08 1.0741287e-06 1.5562323e-06 3.9404313e-06 5.997097e-06
1.7299697e-05 2.0402595e-05 5.962337e-09 1.1471035e-08 7.397938e-06 6.863806e-06 8.517008e-06 9.263961e-06
7.3832252e-06 9.082723e-06 1.5132257e-07 4.9099135e-08 5.703387e-06 9.637914e-06 2.926088e-05 3.342465e-05
3.295173e-07 2.503783e-07 1.013975e-05 7.871553e-06 2.1847538e-05 2.6001084e-05 1.193957e-05 9.570055e-06
3.8179064e-06 5.552611e-06 3.4859315e-07 1.9386195e-07 2.8808035e-06 4.0897016e-06 3.4467536e-07 2.3039527e-07
2.7313238e-06 1.91904e-06 8.9261275e-06 9.488784e-06 3.7012873e-05 3.8217848e-05 8.1152865e-07 8.23672e-07
2.6288544e-05 4.0840445e-05 4.917557e-07 1.9004825e-07 8.605189e-06 8.287471e-06 3.6935726e-06 9.638859e-07
2.9707583e-06 2.7821986e-06 5.695084e-06 5.5648597e-06 6.5612135e-06 7.692069e-06 2.3072787e-06 2.0939865e-06
4.605797e-06 3.8020953e-06 3.726282e-06 5.8406235e-06 9.204757e-07 9.083027e-07 1.0305487e-06 1.1846109e-06
3.677253e-05 3.6643367e-05 3.4991155e-07 4.396551e-07 1.6924395e-06 4.817198e-06 1.2050787e-05 1.5891947e-05
2.3719663e-06 3.2157661e-06 2.17048e-07 2.6077532e-07 4.237521e-06 7.3207375e-06 1.6228515e-06 2.2687632e-06
2.011593e-06 1.4805984e-06 7.17015e-07 1.375915e-06 3.5979363e-06 3.3843833e-06 1.2318085e-06 1.0653554e-06
8.558977e-06 7.780198e-06 4.0125275e-07 1.0338256e-06 5.298599e-06 5.1591646e-06 6.307287e-07 4.124096e-07
2.353226e-06 1.4478153e-06 1.4697159e-05 1.1356127e-05 1.3178603e-05 1.634656e-05 2.4324223e-05 1.4755121e-05
7.6705555e-06 9.475604e-06 1.7714169e-07 1.04434726e-07 3.6301365e-06 3.9199667e-06 2.8457689e-05 5.003402e-05
5.215153e-07 4.65663e-07 2.6939879e-06 3.276868e-06 1.3301654e-06 1.3004466e-06 2.3358373e-06 2.6992482e-06
5.7065284e-07 4.969539e-07 2.2012928e-06 3.000085e-06 6.8452864e-05 7.48493e-05 5.39227e-05 6.299277e-05
1.0845368e-05 1.0482017e-05 3.0947183e-05 2.9853047e-05 4.369401e-06 4.485562e-06 4.196682e-05 4.9867565e-05

exp_avg f4 [32]
00000000: 4898 873b 5b8b 0c3c a3df e23b 8ad2 ef3a
00000010: ec89 cfbb 581d 473b 374f 733b b0aa d4ba
00000020: 9312 38bb 5221 8d3b 5846 1a3b 36d4 b03a
00000030: ce35 ae3b 8ca6 623b ae47 f7ba 0e42 9ebb
00000040: 0ef6 71bb 7cf5 a0bb ea89 79bb e039 cd3b
00000050: f746 a3ba 6440 583b 6042 22ba f049 a73a
00000060: 8411 c03b 011b 22bb 68c5 063c 5bc5 83bb
00000070: 4082 9f3a 3692 7dbb c1c2 adbb acd2 d13a
0.0041380264 0.008578147 0.006923632 0.0018296998 -0.0063335802 0.003038248 0.0037126073 -0.0016225185
-0.0028087243 0.0043069506 0.0023540463 0.0013490978 0.0053164726 0.0034584133 -0.0018865967 -0.0048296517
-0.0036920342 -0.0049120765 -0.0038076588 0.0062630028 -0.0012457062 0.0032997364 -0.00061897 0.0012763124
0.005861463 -0.0024735334 0.008225776 -0.0040213293 0.0012169555 -0.0038691885 -0.0053027575 0.001600822

exp_avg_sq f4 [32]
00000000: 3e96 623a 35dd 9d3b 9979 693b e11f e93a
00000010: 0fb2 433b 7ac1 443b de31 8b3a 6abe 1c38
00000020: 9585 e83a b8f9 4f3b 74bc ab3a 5462 443b
00000030: 38e5 103b 4199 3d3b 82f8 063b d8f5 2a3b
00000040: 5269 863b 7047 8f3a cf9a de39 8171 173b
00000050: 140e 853a 0800 fe3a 86a3 203a 2484 703a
00000060: 3906 133b 9f8f 2a3a 2aec f43b d713 7f3b
00000070: 1529 8839 5995 243b 7ec3 233b d781 3b39
0.00086436037 0.0048176297 0.0035625456 0.001778599 0.002986077 0.0030022548 0.001061972 3.7370635e-05
0.0017740006 0.0031734537 0.0013102428 0.0029965835 0.0022109281 0.0028930458 0.00205949 0.0026086476
0.0041019106 0.0010931324 0.0004245848 0.0023108425 0.001015129 0.0019378671 0.00061278825 0.0009174964
0.002243413 0.00065063866 0.007474442 0.0038921738 0.0002597055 0.0025113432 0.0024988349 0.00017882079
